models/agModels-predicttop10_votes/models/NeuralNetTorch_BAG_L1/S20F6/net.params (torch, 249461 bytes, 16 tensors)

weight f4 [6, 4]
000000 6a 8a 95 bf 4d d5 96 bf d2 54 8b be d2 39 d8 be
       -1.1682866 -1.1783844 -0.2721315 -0.42231613
000010 40 2c 5c 3f 2b a3 33 3f bd f0 9a be 9a 17 09 c0
       0.8600502 0.7017085 -0.30261794 -2.1420655
000020 b3 dc ec 3e 38 77 2b be b8 02 b6 3f d7 78 8f 3e
       0.4626213 -0.16744697 1.421958 0.2802188
000030 f7 68 1f 3e de e2 5c 3f 38 2b 10 be e8 a2 bf bd
       0.15567385 0.8628367 -0.14078987 -0.09357244
000040 ed 8b 79 3f 4f 8c a4 3f a9 ae 01 40 48 67 c1 3c
       0.97479135 1.2855319 2.0262854 0.023608819
000050 15 2d fd 3e f5 46 96 be 56 19 37 bf af eb 0b c0
       0.49448457 -0.2935101 -0.71523035 -2.18626

weight f4 [6, 4]
000000 5e fb 4e be b5 78 39 bf 86 8e 0c 3f 1b 82 6e 3e
       -0.20213076 -0.7244981 0.54904974 0.23291819
000010 fb be 21 be 47 01 2f bf 57 00 73 3f a3 e5 fd 3e
       -0.1579551 -0.68361324 0.94922394 0.4958926
000020 76 32 0b bf 3f 31 6b 3f 0c 27 90 3f e1 23 a7 3f
       -0.5437387 0.9187202 1.1261916 1.3057824
000030 80 af bb bf 44 70 25 40 c4 d7 f5 be 13 2e a0 3e
       -1.4662933 2.5849771 -0.4801618 0.31285152
000040 8b 9f d3 bf ba ba 12 bf c8 2a f3 be b4 a0 f0 be
       -1.6533064 -0.5731617 -0.47493577 -0.46997607
000050 7d 98 70 bf b9 d1 7c 3f 42 d3 3c bd 22 21 2e 3f
       -0.9398268 0.9875751 -0.04609991 0.68019307

weight f4 [6, 4]
000000 66 f0 ec bd 17 9b 27 3f 30 00 5d bf a0 7a 41 bc
       -0.1156929 0.65471023 -0.8632841 -0.011809021
000010 bc 29 59 3f 07 19 c8 be 6d 35 86 3f 89 4b b4 3e
       0.84829307 -0.39081594 1.0485054 0.3521388
000020 66 9f 92 3d 5c 58 90 3f e6 e7 96 3e 02 6d d9 3e
       0.07159309 1.1276965 0.294738 0.4246598
000030 48 dd 4e bf da 0e a7 bf 87 78 42 bf 20 3d a8 bf
       -0.808064 -1.3051407 -0.7596516 -1.3143654
000040 81 0f 5b 3e e8 ad a3 be b5 78 d9 be 0a 9f 61 3e
       0.21392633 -0.31968617 -0.42474905 0.22033325
000050 cc e0 2b 3f e8 eb a6 bd d2 33 81 be f2 90 8a bf
       0.6713989 -0.08150464 -0.25234848 -1.0825484

weight f4 [6, 4]
000000 5f 9a 2d bf 5d 59 85 3f 7d 68 16 bf 61 b8 a2 bf
       -0.67813677 1.0417897 -0.58753186 -1.2712518
000010 6c de 9d 3d 2f ba 2f bf 12 7d 26 3f 1c 26 41 bf
       0.07708439 -0.6864347 0.6503459 -0.75448775
000020 10 a0 8f be 12 96 c2 3d 25 49 65 3e 70 b6 92 3f
       -0.28051805 0.0950128 0.22391184 1.1461926
000030 b0 55 99 3e 1f 3c cf 3e 98 9e 51 be e4 1a d9 bd
       0.29948187 0.40475556 -0.20470655 -0.10600832
000040 6f aa 2c 3e 77 18 43 bf ac 34 f6 bf a4 44 15 3e
       0.1686189 -0.76209205 -1.9234824 0.14576966
000050 93 65 14 bf 76 42 4c 3e ca 8d 71 3d 48 b3 88 3e
       -0.5796749 0.19947228 0.05897311 0.2669928

weight f4 [6, 4]
000000 e9 43 70 3f 03 02 77 bf 1d 37 8c 3e 91 06 06 be
       0.9385362 -0.96487445 0.27385798 -0.13088442
000010 27 8d 7e 3f 3c e4 f9 be 6d c4 3a 3f 2d c0 1d 3f
       0.9943413 -0.48806942 0.7295597 0.6162136
000020 4a 93 7a 3f bc 90 be bf 7a 75 0e 3f 08 8e 1a 3e
       0.97880995 -1.488792 0.55648005 0.15093243
000030 77 93 cf 3d e7 e3 4c bf 22 09 26 3f b5 10 f6 bf
       0.101355486 -0.8003525 0.64857686 -1.9223849
000040 13 42 ae 3f 31 4c 82 be 7e 1a 56 3f cf de 82 3f
       1.3613914 -0.25448754 0.83634174 1.0224246
000050 9b 39 97 3e d9 af b0 bf 41 0a f4 3f c2 a8 21 3d
       0.29536137 -1.3803664 1.9065629 0.03946758

weight f4 [26, 9]
000000 10 a9 fa be a1 3d d5 bf 79 62 0a bf b4 62 04 bf
       -0.4895711 -1.6659433 -0.5405651 -0.5171311
000010 41 e3 19 bf 76 a6 c1 bf bc dd 62 bf 17 d2 07 c0
       -0.60112387 -1.5128925 -0.8861959 -2.1221979
000020 69 59 91 bf 98 51 38 bf 0f a3 f9 3b 88 b7 9b 3e
       -1.1355411 -0.719995 0.007618315 0.3041346
000030 73 86 90 be b6 f8 a5 3f 90 21 2c bc b4 5a 62 bf
       -0.28227577 1.2966526 -0.010506049 -0.8841965
000040 fe 2a d8 3e bd 64 28 bd aa e4 ae 3f ff 17 9a be
       0.422203 -0.041111697 1.3663533 -0.30096433
000050 b4 30 0a bf 2a 57 3a c0 84 20 bf bf e4 4b 81 3f
       -0.53980565 -2.91157 -1.4931798 1.0101285
000060 c3 78 56 3e b2 c6 3f bf eb 0a d8 3f 74 0c c1 3e
       0.20944504 -0.7491256 1.6878332 0.37704813
000070 ea 0a 82 3f 0c 1e b8 3f 02 7d c4 bd 46 87 1f bf
       1.0159581 1.438417 -0.09594156 -0.62315786
000080 ec ab 2d bf 4a 1c dc 3f d6 0d 7c bf 64 ec 2b bf
       -0.67840457 1.7196133 -0.9845861 -0.6715758
000090 6c ed 7a 3d 29 9b 07 3f 89 0f 08 3f 08 d6 9e 3f
       0.06126158 0.5297113 0.53148705 1.2409067
0000a0 23 48 8c bf 22 f9 da bf 6c bc c2 3f f4 fb c5 bb
       -1.0959514 -1.7107279 1.5213752 -0.006041998
0000b0 13 2e cb bf 66 50 4f 3d a0 1c 1d bf 0e f1 39 3f
       -1.5873436 0.050613783 -0.61371803 0.72633445
0000c0 d5 a2 93 3f 74 f2 10 be 2e ca a4 bd 13 b0 2d 3f
       1.1534067 -0.14154989 -0.08046375 0.6784679
0000d0 13 cd fa 3e f9 6d 36 3e d8 84 7b 3d 78 de 18 3f
       0.48984584 0.17815389 0.061405987 0.5971446
0000e0 8e 88 83 3d 23 cf 78 bf b4 89 35 3f c0 85 92 3f
       0.0642253 -0.97191066 0.70913243 1.1447067
0000f0 9b e5 07 40 17 d1 5e bf 2d a5 21 bf e6 5e 10 bf
       2.123389 -0.87037796 -0.63142663 -0.56394804
000100 9d 98 c4 3f 85 80 3f bf f4 40 df 3d 2b 6e b3 3f
       1.5359074 -0.7480548 0.10901061 1.4017996
000110 2c e6 fa 3f 91 ba 25 3f db 3e 4e bf 1c 06 0e bf
       1.9601493 0.647378 -0.8056466 -0.5547807
000120 36 7b 71 3e f8 5f 19 bf 42 09 74 3f 2a 59 0a 3f
       0.23582157 -0.5991206 0.95326626 0.54042304
000130 80 fb 57 bf 7d c2 a9 3f 2f ab 80 3e 8b 51 0e bf
       -0.84368134 1.3262478 0.25130603 -0.55593175
000140 c4 0f 58 bf 21 fd 18 bf 25 43 3e 3e 85 ad 88 bf
       -0.84399056 -0.59761244 0.18580301 -1.0677954
000150 e0 ea 3e bf 63 4e 0a c0 df 2d 32 bf a5 fa 05 3f
       -0.7457714 -2.1610343 -0.69601244 0.5233558
000160 0b 89 42 3f 8c ac 8e 3d 71 b9 d7 3e 9f aa eb bf
       0.7599036 0.069665045 0.42133668 -1.8411444
000170 3d 5b 91 bf a6 16 c1 3d bd f0 1a 3f 99 38 a5 3f
       -1.1355969 0.09428148 0.6052359 1.2907897
000180 08 98 c6 bf 1f 26 9e 3e c9 3c b2 bf e2 89 67 be
       -1.5515146 0.3088846 -1.39248 -0.22611192
000190 d8 4d 90 be 2c 2b 9b bf 77 e1 2a 3f 06 a6 9f bf
       -0.2818439 -1.212255 0.6675028 -1.2472541
0001a0 9b 35 8a bf 72 a2 b3 3e 1e f0 3f bf a7 e5 53 bf
       -1.0797609 0.35084873 -0.74975765 -0.82772297
0001b0 af c5 39 bf b0 47 0c 3f 2e fb b7 3e ad c1 17 3f
       -0.72567266 0.54796886 0.35933822 0.592799
0001c0 51 dc b2 bf 25 f7 59 bf 62 8f 99 3f 1d 6d f0 bf
       -1.3973485 -0.8514274 1.1996882 -1.8783299
0001d0 77 7a bc 3e cf 0a 91 3f 69 85 cd 3e a5 30 94 bf
       0.36812183 1.1331424 0.40140846 -1.1577345
0001e0 02 f6 c4 be d3 8b a4 be eb 70 70 3f e5 09 e6 be
       -0.3846894 -0.32137927 0.939223 -0.44929424
0001f0 1d fc 21 bf de c7 bb be 05 f6 c3 bf 5b 96 09 bf
       -0.6327532 -0.36675924 -1.5309454 -0.5374505
000200 54 2b 98 3f d7 42 51 3f 48 70 bb 3e 2c 36 af 3e
       1.1888223 0.81742615 0.366091 0.34221017
000210 d9 ab 2f c0 1a a0 48 bf 31 c9 09 3f 12 38 94 3e
       -2.7448637 -0.78369296 0.5382262 0.28949028
000220 21 3f 8e bf 72 f8 b1 ba b3 9c 25 be a6 69 77 be
       -1.1113015 -0.0013578071 -0.16173057 -0.24161395
000230 0f bd 1a 40 0e 1f d1 3f 6c 64 99 be 61 76 bf bf
       2.4177892 1.6337602 -0.29959428 -1.4958001
000240 e0 19 0a bf b9 61 52 bf 9a 65 b3 bf a5 42 dc be
       -0.5394573 -0.8218036 -1.4015381 -0.43019596
000250 aa 26 8e be de b6 af bd db 00 fd 3e 16 0f d0 bf
       -0.27763873 -0.08579801 0.49414715 -1.6254604
000260 95 f0 a8 3e b3 c0 11 c0 c8 2b 59 bf 38 2f da bf
       0.3299605 -2.2773864 -0.8483243 -1.704566
000270 2c ff 06 3f 18 30 b3 bf bb d5 2e 3f ff d5 af bf
       0.5273311 -1.3999052 0.68294877 -1.3737181
000280 bc fe 99 3e 46 79 12 be 59 9a 5a 3e 45 ca 9d 3f
       0.3007716 -0.14304075 0.21347941 1.2327353
000290 92 6b a0 3f b4 c6 b1 bd e3 d1 07 40 eb 06 aa 3d
       1.2532828 -0.08680478 2.1221855 0.08302101
0002a0 28 bd fc 3e 4f 47 8e 3d 7c eb d3 3e 6b a4 dc bf
       0.49363065 0.06947195 0.41390598 -1.7237676
0002b0 1a 73 9f 3f 04 0e 26 40 30 79 31 3e 1a c8 ae 3e
       1.2457001 2.5946054 0.17331386 0.3413704
0002c0 4d 37 95 bf 93 df 0c 40 96 7f aa 3d 72 1e 3c 3f
       -1.1657501 2.201146 0.08325116 0.73483956
0002d0 6a 53 8f bf 98 d3 a0 bd 20 44 bc bf b9 4d dc bf
       -1.1197331 -0.07852858 -1.470829 -1.7211219
0002e0 a5 bb f5 bf e5 27 41 3d f7 c7 f9 bf 8a e2 f2 bf
       -1.919789 0.047157187 -1.951415 -1.8975384
0002f0 77 59 0b 40 6e ce 7f bf 7a 37 22 bf 0b a8 d6 3f
       2.1773355 -0.9992436 -0.633659 1.6770033
000300 28 ce b7 3e 0f a2 3a bf 5f 7c cf 3c 23 a2 e7 3f
       0.35899472 -0.7290353 0.02532786 1.8096355
000310 8a d8 fc be f5 c8 5a 3f 46 5b 27 3f b9 99 b9 3f
       -0.49383956 0.85462886 0.6537365 1.4500037
000320 a5 c2 14 bf a8 13 a4 bd 41 4b e1 3e 96 00 c7 be
       -0.58109504 -0.08011562 0.44002727 -0.38867635
000330 a2 35 f5 bf 49 e2 51 3f 1a b5 fe ba 48 ea b2 bf
       -1.9156992 0.8198591 -0.0019432635 -1.3977747
000340 3b ae 10 bf d3 aa bc bf 00 e8 35 bf d0 61 83 3f
       -0.56515855 -1.4739631 -0.7105713 1.0264225
000350 31 fd 13 c0 13 ea e1 3e aa e3 1c bf fd b1 e5 bd
       -2.3123286 0.44123897 -0.6128489 -0.11215589
000360 4b 90 2d 3f e1 53 82 3f 40 a7 00 bf c2 42 dc 3e
       0.677983 1.0181848 -0.50255203 0.43019682
000370 40 a2 b0 3f 01 9e d8 3e 07 4f ff be 4a 98 44 be
       1.3799515 0.42308047 -0.4986498 -0.19198719
000380 77 88 57 be e1 2b 7d 3d c6 dd 77 3e d1 ed 20 bf
       -0.21048151 0.061809424 0.24205694 -0.6286288
000390 96 c0 f6 3d a7 ab 12 be 5a c3 b9 3f f6 3c 09 be
       0.120484516 -0.14323293 1.4512742 -0.13402161
0003a0 92 31 43 b8 7f 38 c6 3a
       -4.653779e-05 0.0015123038

weight f4 [128, 77]
000000 a3 1e 30 3e 1a 32 05 3e 19 e5 e5 3d 8b 55 74 3d
       0.17199187 0.13007393 0.112253375 0.059651893
000010 bb 54 90 bd 69 1b e4 3d f8 ea c9 3b 6f d3 3e 3d
       -0.07047411 0.111380406 0.0061620437 0.046588358
000020 72 2a da bd 50 04 1e bd 0b 1a f8 bd 47 d9 03 bd
       -0.10652627 -0.03857833 -0.12114342 -0.032189634
000030 ad 75 b8 3c 8f e4 e5 bd 8a 8a 50 3d 1f 9e a0 3d
       0.02251705 -0.11225235 0.05091337 0.07842659
000040 a7 5f 55 3d 3c c3 8f bd 66 f4 b7 bd 7a 44 15 bd
       0.052093174 -0.0701966 -0.08982162 -0.036442257
000050 ae c1 4d 3d f6 dc da 3d 6e 39 70 3d 40 60 b2 bc
       0.050233535 0.10686676 0.05864852 -0.021774411
000060 0d ef 18 3d b4 a4 ec bd 18 b3 ce bd 42 b6 27 3d
       0.03733735 -0.11554852 -0.10092753 0.0409453
000070 dd 52 82 bd 58 08 63 3d 4c fb b1 bd 3f 99 72 bd
       -0.06363461 0.05542788 -0.08690509 -0.059228178
000080 16 ea c7 bd a2 58 63 3d 2c 92 5a bc 6f 65 af 3d
       -0.09761445 0.05550445 -0.013340514 0.08564269
000090 5a 22 8f 3d 19 30 7b 3d 64 87 26 bc aa 6b 10 bd
       0.06988974 0.061325166 -0.010164116 -0.035258926
0000a0 b7 9e c2 bc 14 d0 73 3c a7 de 68 3d 4f 3b 5a bd
       -0.023757322 0.014881153 0.056852963 -0.053279217
0000b0 3c 8f 73 3d d9 8e 73 bd 2f 0c c0 bd 10 1c 49 bd
       0.05946277 -0.059462402 -0.09377324 -0.049099028
0000c0 8c ef 01 3e a0 6e eb 3d c4 1c b1 bd fd f7 91 3d
       0.12689036 0.114957094 -0.08648065 0.07127378
0000d0 1b f7 50 3d 2f a4 6c 3d 21 28 bd 3d e9 d5 96 bd
       0.05101691 0.057773765 0.092361696 -0.07365019
0000e0 45 fb 1b 3d ec 04 47 3d 41 dd 12 bd 2a 66 2f 3d
       0.038081426 0.04858868 -0.035855535 0.04282204
0000f0 aa c4 14 bd e5 4e 86 3d 0c 4d 5f bd 29 7c c4 bb
       -0.036320366 0.06558017 -0.054516837 -0.0059962464
000100 99 26 13 3d a7 e6 2a 3d 7c 41 4d bd be a0 88 3c
       0.03592548 0.041723873 -0.05011128 0.01667821
000110 e6 a6 13 3d c0 4b 81 bc a6 e9 68 38 11 33 21 bd
       0.03604784 -0.01578319 5.5530712e-05 -0.03935534
000120 91 8d 50 3d f8 cb ad bd c2 89 39 bd ef 12 89 bd
       0.05091626 -0.084861696 -0.04529739 -0.066930644
000130 4c fd 99 3d 07 53 e3 bd 6d e3 8b bd 3b ac 7b bd
       0.07519016 -0.110998206 -0.068304874 -0.06144355
000140 a4 4b d6 3d 77 ad d1 3d 76 57 c8 bd 4b 5e e3 bd
       0.10463646 0.10238164 -0.09782307 -0.11101969
000150 ca 8c be bd d0 8f 12 ba 3d ce 02 bd c5 13 46 bd
       -0.09304197 -0.0005590888 -0.031934965 -0.048358697
000160 10 33 8b bd 29 8a f3 b9 1a f7 4c bd 97 97 33 3c
       -0.06796849 -0.0004645151 -0.050040342 0.010961435
000170 c3 d7 1b bd b3 09 d2 bd 0c eb 9b 3c d8 65 ca 3d
       -0.038047563 -0.10255756 0.019032978 0.098827064
000180 3d 86 a0 bd f1 ee b7 3b 25 50 f1 bc a9 3c ee 3d
       -0.07838104 0.005613201 -0.029457161 0.11632664
000190 1c 50 d3 bd fc cd db bd 3d d6 ee 3d ec 5b 8f bd
       -0.10318014 -0.10732648 0.116619565 -0.069999546
0001a0 4a 16 e0 3c 57 42 12 bc d4 be cd bc 8f aa dc bc
       0.027354378 -0.008926949 -0.025115408 -0.026936797
0001b0 30 85 a3 3d a2 1e 20 3c 91 a2 d9 bd 3e d5 92 bd
       0.07984388 0.009772928 -0.1062671 -0.07169579
0001c0 18 b4 0b bd 79 79 5f 3d a1 ed 8e bd 31 0c c1 3d
       -0.034107298 0.054559205 -0.06978918 0.094261535
0001d0 96 ee ce bc 1e 8e ac bc a9 34 b5 3d be d6 61 3d
       -0.025260251 -0.02106386 0.08847935 0.055136435
0001e0 87 90 7f 3d dd 59 bc 3d 58 80 03 3d 6f 40 a1 bd
       0.06239369 0.091968276 0.03210482 -0.07873618
0001f0 11 3b 4f bb ac a7 b0 3d ae 6f 40 bd 2d 76 f0 bd
       -0.00316209 0.08625731 -0.046981506 -0.1174129
000200 98 0a 26 3d a1 30 f2 3d c9 2d dd bc b6 c5 af bd
       0.040537447 0.118256815 -0.026999371 -0.08582632
000210 00 9e bf bd 65 6f dc 3c 58 87 88 bb 44 73 6a bd
       -0.09356308 0.026908586 -0.004166525 -0.057238832
000220 b2 4a bd 3c 59 48 1d 3d 11 42 9f 3d 7e 4f ce 3d
       0.023106907 0.038399074 0.07776273 0.10073756
000230 82 36 24 bd 01 ac c5 bd 46 62 d3 bd 5a 39 d2 3d
       -0.040091045 -0.09651948 -0.103214785 0.10264845
000240 d3 68 6c 3d 3d da da 3d 9f 8f d8 bd 6a ab 01 3e
       0.057717156 0.10686157 -0.105742685 0.12663046
000250 41 1e 03 3e aa e5 a3 3d 42 69 b2 bd f4 7f 8f bd
       0.1280451 0.08002789 -0.087114826 -0.07006827
000260 53 be a0 bd 7c 1c 00 3e f2 d8 dd bd 62 05 a9 bd
       -0.078488015 0.12510866 -0.10832395 -0.0825298
000270 cb d1 67 3d 2f 06 86 bd b5 d1 8c bd 1f 3d a0 bb
       0.05659656 -0.06544148 -0.06875936 -0.0048900987
000280 2c 86 a4 3a d1 06 bd bd e8 eb a9 3d 8a bb 91 bd
       0.0012552193 -0.09229816 0.08296949 -0.07115848
000290 5a 25 77 3d ec bc d6 3d 32 16 44 3d 44 3c a2 bc
       0.060338356 0.10485253 0.04787273 -0.019804128
0002a0 ff cf af 3d f2 07 02 39 87 97 b5 bd ae ae e9 3d
       0.08584594 0.00012400726 -0.08866792 0.11410271
0002b0 9c 35 18 3d 2d 37 cb bd 0d 71 a0 bc 7e 72 8d bd
       0.0371605 -0.09922633 -0.019585157 -0.06906603
0002c0 06 3b da 3d e5 ca 0a bc c6 00 c5 bd 78 d2 3f 3b
       0.10655789 -0.008471225 -0.09619288 0.0029269736
0002d0 07 de 99 3d cc fb 1e 3d 72 9a 2f 3d 73 94 8b 3c
       0.075130515 0.03881435 0.0428719 0.01703856
0002e0 f6 ad 43 3d f0 b8 7b bc d8 59 10 bd 99 07 cb bd
       0.047773324 -0.015363917 -0.03524193 -0.099135585
0002f0 0c 15 9c bd a2 a0 66 3d 03 77 91 bd ef e6 c3 3c
       -0.07621202 0.056305535 -0.07102778 0.023913829
000300 6e 4f 41 3d 01 ed 5d 3c db 52 8b bd 60 7e fd 3d
       0.04719489 0.013545276 -0.06802913 0.1237762
000310 2b 72 63 bd f1 78 ad 3d 75 22 97 bd 03 be fb bc
       -0.0555288 0.08470333 -0.07379619 -0.030730253
000320 f3 89 60 3d 41 91 2b bd 75 25 be 3d 69 b3 b2 bd
       0.05481906 -0.04188657 0.09284488 -0.08725626
000330 3c dc c1 bd 7b 5d 4e bd d3 de 05 3b cc ec 03 3e
       -0.094658345 -0.05038212 0.0020427003 0.128833
000340 ec 10 cb bd e0 3f da 3c 52 17 ac bc b2 97 b3 bc
       -0.09915337 0.026641786 -0.021007214 -0.02192292
000350 79 1d c7 3d 30 bb ac bd 32 cb b8 3c 75 2a ee 3d
       0.09722418 -0.08434141 0.022557829 0.11629192
000360 ab 00 21 bd 95 95 be 3d f4 4c fb bc 26 6d b8 3d
       -0.039307278 0.09305874 -0.030676343 0.090051934
000370 36 32 f1 bd 34 84 61 bb c3 c6 f3 bc 89 eb 2d 3d
       -0.11777155 -0.0034411075 -0.029757863 0.042460952
000380 a9 92 37 3d b8 38 d4 3d d9 f2 dd bc 06 a5 ba bc
       0.0448176 0.10362381 -0.027093338 -0.022783767
000390 8b fa 83 3d f5 7c e8 bc 03 06 c1 3d 78 40 21 be
       0.06444272 -0.028379897 0.09424975 -0.15747249
0003a0 86 3e 97 bd 7c bf 53 bc dc 75 3a 3d ba 5c 95 3d
       -0.07384972 -0.012924071 0.045522556 0.07293077
0003b0 ed 7b 0a bc 74 79 cb bd fa 88 51 3d 05 3d e8 3c
       -0.008452398 -0.09935275 0.05115602 0.028349409
0003c0 2a 3f 48 3d 67 c3 68 bd 28 b4 84 3d 14 da c9 3d
       0.048888363 -0.056826975 0.064796746 0.09856048
0003d0 23 3b a9 3c 59 07 ff bd 08 18 80 3d b2 4b 11 be
       0.020658081 -0.12452573 0.062545836 -0.14189032
0003e0 3c 23 a1 3c e4 dc 92 3c 6b 32 4c bd e1 f5 05 3d
       0.019670121 0.017927594 -0.04985277 0.03270519
0003f0 98 71 c1 bd 9a 0b f1 3c 47 dd 8c bd 76 58 a3 bc
       -0.094454944 0.029424477 -0.06878143 -0.019939642

bias f4 [128]
000000 41 60 36 3d 8a a4 e0 3c f6 b3 b3 3d 45 b2 3c 3d
       0.04452539 0.027422208 0.08774559 0.04606845
000010 24 3a ee bd d8 f6 27 3d 6a 62 d9 3d 10 9e 3b bd
       -0.11632183 0.041006893 0.10614474 -0.045805037
000020 63 50 ad 3d b5 a1 ac 3d 66 6e fb bc 5e 65 cf bb
       0.08462598 0.08429281 -0.03069229 -0.0063292226
000030 53 9d cd 3a 5e 7c fc 3d ba 9f 0f 3d ac 9b 9e 3d
       0.0015687145 0.12328409 0.035064436 0.07744536
000040 9e 4c c1 bd aa d2 10 bd af ee 8e bd 7e 09 91 3c
       -0.09438442 -0.035357155 -0.06979119 0.017704722
000050 98 ba 29 bd 64 c1 c3 3c 3e 35 7b 3d db f7 c2 bc
       -0.041437715 0.023895927 0.061330073 -0.023799827
000060 1a 35 0b 3c 38 08 bb bd 7b e4 a3 bc c1 99 b8 3c
       0.008496547 -0.09132427 -0.020006409 0.022534253
000070 a9 c0 a4 3d 43 24 f6 3c 71 45 a9 3c 43 32 67 3d
       0.080445595 0.030046588 0.020662995 0.056444418
000080 8c 86 bf 3d a6 ed e0 32 34 d5 ea 3d dd e2 96 bd
       0.09351835 2.6185102e-08 0.114664465 -0.073674895
000090 82 59 12 3d b0 d0 10 3b 5d 45 af 3d a4 c7 ed bd
       0.035729893 0.0022097044 0.08558152 -0.11610344
0000a0 3d 00 3f 3d 83 da ce bd f2 e3 16 bd 10 4a e6 bc
       0.046631087 -0.101002716 -0.03683848 -0.028111488
0000b0 1c e2 76 38 70 f8 78 bd 2d bf b8 bd e0 8a d0 bd
       5.886155e-05 -0.060783803 -0.09020839 -0.10182738
0000c0 a0 40 9a bc dd 39 b7 3d b1 2d 2d ba 7e 82 9f bd
       -0.018829644 0.089465834 -0.0006606235 -0.07788561
0000d0 db 66 15 bd 79 85 cc bd 1b d6 80 bb 45 08 ca 3d
       -0.036475044 -0.099863954 -0.0039317734 0.098648585
0000e0 3c 89 df bd 75 3e 85 3d 6f fe a7 3d e8 92 96 3d
       -0.10914847 0.06506053 0.08202826 0.07352239
0000f0 8a 60 75 bd a5 e1 6c 3c 77 2c 58 3d cd 00 c1 bd
       -0.05990652 0.014458095 0.05277678 -0.09423981
000100 1c 52 be 3d 0f 78 5a bb cc 13 c9 bd a1 53 b5 bc
       0.09293005 -0.003333572 -0.09818229 -0.022134604
000110 d9 cd 39 3b 23 2e 23 bd d9 fd 4f bd 68 03 70 ba
       0.0028351455 -0.03983892 -0.050779197 -0.0009155781
000120 96 48 2d 3d ef 0e 8a 3d ff a4 fc bd e4 c6 98 bc
       0.04230555 0.067411296 -0.12336158 -0.018649526
000130 b5 b0 26 3d f2 b6 c2 3d 4a b0 2f 3d b8 d8 91 3d
       0.040695865 0.0950755 0.04289273 0.07121414
000140 a0 fe 2a 3d 51 d8 ed bb f3 09 44 bd 10 d0 32 bd
       0.041746736 -0.007258453 -0.04786105 -0.043655455
000150 7a 30 1c 3d 8d 40 a0 bc 94 7b c8 3d 51 68 95 bd
       0.03813217 -0.01956203 0.09789196 -0.072952874
000160 57 7d 89 3d d7 02 96 3d 70 da 89 3d 6c e8 ba 3d
       0.0671336 0.073247604 0.06731117 0.09126362
000170 94 72 8c bd 98 13 6b 3d fe 56 f4 bd 6e 2c 60 bd
       -0.068577915 0.057391733 -0.11930655 -0.05472987
000180 d6 f2 91 bc 71 47 da 3d a2 02 e9 bc c9 27 be bd
       -0.017815989 0.106581576 -0.028443638 -0.09284932
000190 2e 25 bf bd 25 82 bb bb 24 ed 5c 3c b6 d0 e4 3c
       -0.09333263 -0.0057223015 0.013484273 0.027931552
0001a0 2c 18 02 bd 3f df 47 3d 9d 56 8b 3c fe cd f9 bc
       -0.031761333 0.04879689 0.017009074 -0.030493733
0001b0 50 42 79 3d 8d 85 92 bd 42 91 8a bd 9d b2 fb ba
       0.060854256 -0.07154379 -0.06765987 -0.0019203011
0001c0 a1 53 03 bd 98 46 03 bc 30 20 15 bd 9b a8 60 3d
       -0.032062177 -0.008012436 -0.03640765 0.054848295
0001d0 86 36 e2 3d 85 b3 be 3d 7b b7 17 3d 4b ba 8d bd
       0.11045556 0.093115844 0.037040215 -0.06920298
0001e0 36 1b 16 bd a3 c8 62 bd 72 5b 98 bc 4c 8b 7f bd
       -0.036647044 -0.055367123 -0.018598292 -0.062388703
0001f0 e6 28 68 3d 7d 20 eb bd 2f f4 d9 3b b7 54 9c 3d
       0.05667963 -0.11480806 0.0066514234 0.076333456

weight f4 [128, 128]
000000 8e 5a 87 bd cc 19 29 bc 6d 11 82 3d 33 b7 ef bc
       -0.06609069 -0.010321092 0.0635098 -0.02926216
000010 15 58 23 bd 6d b9 92 3d 2f cb 7d bd da cb d8 3d
       -0.039878923 0.071642734 -0.06196135 0.105857566
000020 c6 cb a4 3d d8 8e 31 3c ee 3a 9c 3c 58 a0 5f bd
       0.08046679 0.010837279 0.019071069 -0.054596275
000030 30 3f a6 39 0c ff f7 3b 67 37 92 bc db 7c c4 3b
       0.00031709066 0.0075682458 -0.017848684 0.0059963292
000040 c6 0d 56 3c 75 fb e6 3d e2 36 8c 3c ad 44 c9 3d
       0.013064807 0.1127843 0.017116014 0.09827552
000050 c3 18 3e 3c 27 5a 56 bd 17 5c 9f bd ee 5c 71 3d
       0.011602583 -0.05233207 -0.077812366 0.058926515
000060 c4 fa 30 3d 16 9b c8 3d 77 1e 66 bd 47 72 a9 3d
       0.0432079 0.09795205 -0.056181397 0.0827375
000070 10 99 ec bc d0 5a e7 3c 85 db 8f 3d bf 94 7a bd
       -0.02888158 0.028241545 0.07024292 -0.06117701
000080 2a 8d 0d bd 37 d6 38 3b 77 49 9b bd 6e 7b 08 3d
       -0.034558453 0.0028203854 -0.07582372 0.033320837
000090 62 12 81 3d 8f 90 a7 3d 70 d2 71 bc be bf a9 bc
       0.06302334 0.08181869 -0.014759645 -0.020721313
0000a0 d0 9e e7 3c ee 0f 0f bc a7 db 99 bd dd 4e 81 3c
       0.02827397 -0.008731825 -0.075125985 0.015784675
0000b0 1b ab d8 bb 4d 2b 91 3d 71 3c 9b bb 19 f8 6e bc
       -0.0066121942 0.07088337 -0.00473743 -0.014585518
0000c0 e5 87 a9 bd d1 d7 a6 3d 41 ce 89 3d f8 3c 9f 3d
       -0.08277873 0.081466325 0.06728793 0.07775301
0000d0 d4 2c 77 3d da 24 2e bd ed db d7 3d a7 6d 6d bc
       0.060345486 -0.042515613 0.105399944 -0.014491475
0000e0 91 24 8e 3d 62 c2 8b 3d c9 6e ab 3d 3a 58 17 bd
       0.06940568 0.06824185 0.0837074 -0.036949374
0000f0 d3 e7 7b 3b 13 01 49 bd 98 fe 83 bd 50 ad 9e 3d
       0.0038437739 -0.04907329 -0.06445044 0.077479005
000100 22 00 0e bd 43 3b 52 bd 37 fb 68 3d a8 da 9e bd
       -0.034668095 -0.051326048 0.056880202 -0.07756549
000110 f5 6b c6 3c 6e 5c a8 3d fa b1 c0 bb ec 15 38 bd
       0.0242214 0.082207546 -0.0058805915 -0.04494278
000120 6f 93 9c bd d8 38 87 bc 74 09 1b bc ee c5 a9 3d
       -0.07645308 -0.016506597 -0.009462703 0.08289705
000130 d5 74 27 3d 83 be 71 bd cc 46 c9 bc 7d 74 8e bd
       0.040882904 -0.059019577 -0.024569891 -0.06955812
000140 17 1d a4 3d 6f 26 ca 3d 16 c1 1b bd b3 24 ac bc
       0.08013361 0.09870612 -0.038025938 -0.021013593
000150 c0 ed 8a bb d4 33 68 bd ae cb a9 3d 87 4a 36 3d
       -0.004239768 -0.056690052 0.08290802 0.04450467
000160 10 02 0e 3d 3e 46 78 bd 28 b3 67 bb cd 4b 14 3c
       0.034669936 -0.060613863 -0.0035354588 0.009051275
000170 49 8d 9e 3d 3c 29 5d bc ae 52 66 bd 68 32 e6 3d
       0.07741792 -0.013498601 -0.056231193 0.11240083
000180 59 3d b7 3b 0e 9f 18 3e 22 88 31 3d 89 d1 ad 3d
       0.00559203 0.14904425 0.043342717 0.08487231
000190 a8 50 1f bd cd 32 95 3c 5f ee 66 bd a4 87 86 bc
       -0.03889528 0.0182127 -0.056379672 -0.0164221
0001a0 e4 cf 34 3c 05 b7 83 bc 8c 29 2b bd 0d 23 b5 3a
       0.011035893 -0.016078481 -0.04178767 0.001381965
0001b0 21 ee 00 bd d4 d6 04 bd d9 1b 59 bd 04 17 69 ba
       -0.031477097 -0.03243144 -0.053005073 -0.0008891674
0001c0 a8 17 74 bd f0 11 43 bd 20 bb 70 3c 8c 46 89 bd
       -0.059592873 -0.04762453 0.014693052 -0.06702909
0001d0 85 b1 97 bd 38 76 6a 3d 07 e7 8d bc 4a 9f 66 3b
       -0.07406906 0.05724165 -0.017322076 0.0035190159
0001e0 30 1c 29 3c 4d 4e ff 39 08 e4 58 3d 08 a7 89 bd
       0.010321662 0.0004869573 0.052951843 -0.06721312
0001f0 a2 2e 2c 3d 21 ea 7c 3d ed 6f 97 3d 12 f5 a9 bd
       0.04203666 0.06174672 0.07394395 -0.082986966
000200 f9 64 87 3b 70 0a 56 bc e3 e6 82 bd fc 36 66 3d
       0.00413191 -0.013064012 -0.063916944 0.05620478
000210 aa 5d a4 bc 6d c9 90 3d fa 64 47 bd af 94 0f bd
       -0.020064194 0.07069669 -0.048680283 -0.035053905
000220 f2 18 a3 3c f2 6a 33 3c e9 ea 65 3d f7 1e 2b 3d
       0.019909356 0.010950791 0.05613223 0.041777577
000230 4a bd 6c 3d 73 a6 80 bc 14 43 8e 3c ec 31 93 3b
       0.057797708 -0.01570437 0.01736597 0.004492035
000240 41 a1 4f bd e1 43 06 bd 2c 76 b7 3d 4f 1f 94 bd
       -0.050690893 -0.032779578 0.08958086 -0.07232534
000250 79 ae 85 bd 4d 58 a0 bd cf 50 7a 3c 5c dc 01 3d
       -0.06527419 -0.07829342 0.015278055 0.03170429
000260 99 fc ae bd 47 c9 52 3d d3 92 de 3c 68 fc 16 3d
       -0.08544273 0.051461484 0.02716962 0.036861807
000270 55 31 b8 bd a6 e7 a6 bd 8d 42 93 bd bc 9c e8 bc
       -0.08993784 -0.08149652 -0.07190428 -0.02839505
000280 0f c3 7d bd e8 61 46 3a 12 f3 c6 bb a1 c4 2b bd
       -0.0619536 0.000756769 -0.0060714567 -0.041935567
000290 9c 7d 9d 3d 1f 8f d2 3c e2 c9 31 3c 7c 77 4e bd
       0.07689974 0.025703011 0.010851355 -0.050406918
0002a0 43 90 b0 bc ec 2c a9 bd 02 61 78 bd 47 e6 a7 3d
       -0.021553164 -0.08260521 -0.06063939 0.08198219
0002b0 46 f5 5c bc de d7 62 3d c5 86 a3 3d 24 3e 74 3d
       -0.013486212 0.05538165 0.079846896 0.059629574
0002c0 97 43 5c 3d 61 ef ac 3d 6e bf 18 3d 0c 1f 8f ba
       0.053775396 0.084440954 0.037291937 -0.0010919287
0002d0 af 4e a1 bc 77 50 b8 bd e1 9b 4d 3d 70 b7 b1 bc
       -0.01969084 -0.089997225 0.050197486 -0.021693915
0002e0 c3 ff 41 3c b3 c7 40 3b 04 da 5c 3d 74 9f 88 3a
       0.0118407635 0.0029415905 0.053918853 0.0010423497
0002f0 46 6d 99 3d 5a 5f 85 3d 09 1f c7 3c 8b df 46 bc
       0.074915454 0.065123275 0.02430679 -0.012138258
000300 a5 89 18 3d a2 d4 5f bd a7 62 87 3d 16 c1 82 3d
       0.037240643 -0.05464614 0.06610613 0.063844845
000310 48 74 83 3c ac c0 35 ba 5e 66 ed 3c 5f d9 da 3d
       0.016046658 -0.00069333124 0.028979477 0.106859915
000320 e2 0e 3f 3c f7 10 03 bd 44 0e b9 bc 43 f9 a2 bd
       0.011661263 -0.0319986 -0.02258981 -0.07957699
000330 09 3f ad 3b 9c 04 98 bd c6 99 84 3c b2 a3 33 3c
       0.0052870554 -0.07422754 0.016186606 0.010964321
000340 0e 87 ed 3d 95 0e 6b bc 78 0d 37 bc e4 dc 77 bc
       0.11598025 -0.014346738 -0.011172645 -0.015128348
000350 8b 06 24 bd 8a 00 ca bc 99 71 11 bd af 4c bc bc
       -0.040045302 -0.02465846 -0.035508726 -0.022985784
000360 80 7a a6 bb 23 21 04 3d 08 85 d3 3c 69 dc c7 3d
       -0.005080521 0.032258164 0.02582027 0.09758837
000370 ba 7c 94 3c 0b c5 b2 3c 60 65 9c bd 41 09 a0 3d
       0.01812588 0.021822473 -0.07636523 0.07814265
000380 fd 56 e0 3b 7e 85 4b 3d c3 15 3e bd 25 75 ae bb
       0.0068463073 0.049687855 -0.046407472 -0.0053240233
000390 d4 7a 88 bd 37 c3 a8 bd fe 81 85 3d 63 2a 20 3d
       -0.066640526 -0.08240359 0.06518935 0.039102923
0003a0 1b af 85 3d e0 f9 23 3d a7 c6 91 bb 27 3f 46 3d
       0.06527539 0.04003322 -0.00444873 0.04840007
0003b0 8d d4 0c bd f4 7a 88 bd 34 f6 50 bc 76 de d6 ba
       -0.03438239 -0.066640764 -0.012754012 -0.0016393203
0003c0 2a 0c 9f 3d 7d 0b 9d bd 10 2b bb 3d 94 0b 85 bc
       0.07765992 -0.07668207 0.09139073 -0.016240872
0003d0 bb bf 28 3c 05 f0 a6 3d 4f 15 d8 bb 7a f7 00 b9
       0.010299618 0.08151249 -0.006594337 -0.00012299223
0003e0 59 6c 1e 3d fc 9d a5 bc 57 e7 be 3b 98 fb 45 3d
       0.038677547 -0.020216934 0.0058259177 0.04833564
0003f0 56 8b fd 3b 82 a5 6d 3d e1 3d 14 bd 13 10 1d 3d
       0.0077375574 0.05801917 -0.036191825 0.038345408

bias f4 [128]
000000 f3 89 65 bd 27 69 b1 3c 83 bf 95 bc 4c 72 6c 3d
       -0.05603976 0.021656586 -0.018279796 0.05772619
000010 6c 25 07 bd 18 97 9d bc 95 bf e6 3c 3c 46 b1 3d
       -0.032994673 -0.019237086 0.028167525 0.08655974
000020 90 d3 8f bd 00 56 79 bd af 6a 1b bd a4 56 b5 3c
       -0.07022774 -0.06087303 -0.03794354 0.02213604
000030 a0 05 8f 3d e3 32 7f 3c 14 b0 15 3c dc bd 6b 3d
       0.06983495 0.015576097 0.009136219 0.05755411
000040 7d f2 60 bd b1 5c bf 3d ec b5 c4 3d bb 54 6a bd
       -0.054918755 0.09343851 0.09605011 -0.05720971
000050 29 80 d2 bb fc b8 dd 3c 26 7a 4f bd 1f 7f 1c bd
       -0.0064239693 0.027065746 -0.0506536 -0.03820717
000060 17 11 85 3d e3 89 9a 3d ec 16 82 bd 45 33 33 3d
       0.064974 0.07545831 -0.06352028 0.043750066
000070 37 31 3d bd 09 09 40 bb e4 22 b0 bd c3 18 a6 bd
       -0.046189513 -0.002930226 -0.08600405 -0.08110192
000080 64 78 ed bb 3f ca 78 bd 33 a9 47 bd f9 3c 44 3d
       -0.0072470177 -0.060739752 -0.048745345 0.04790971
000090 5a a8 5e 3d 73 09 80 bd c6 39 74 3d 99 c8 ab 3d
       0.05435977 -0.06251802 0.05962541 0.0838787
0000a0 95 c5 91 bc 29 92 13 3d 71 15 71 bc cc 13 4b 3b
       -0.01779441 0.03602806 -0.014714585 0.0030987142
0000b0 25 6c bd bc 01 84 cc 3c c2 0f af 3d 15 48 8d bc
       -0.023122856 0.024965288 0.085479274 -0.017246285
0000c0 ed be 0e bd 22 09 9b 3d 1e 62 86 3d 1e 50 63 bd
       -0.03485005 0.07570101 0.06561683 -0.055496328
0000d0 9c 95 a6 3d 0e 6c df 3b 41 f9 ec 3c 54 f5 06 3c
       0.081340045 0.006818301 0.028927447 0.008237202
0000e0 e8 37 cf bb c4 69 6c bd 42 c7 d8 3b f8 2e 67 bd
       -0.006323803 -0.057718053 0.0066155503 -0.056441277
0000f0 a0 2c 4f bc cb 67 4d 3d 90 f0 9b 3d 3d 57 57 bd
       -0.012644917 0.050147813 0.07614243 -0.05257343
000100 9e 33 15 3d 38 9d f2 ba 29 85 fe 3c 7a 37 7c 3d
       0.03642618 -0.001850999 0.031069355 0.061576344
000110 e7 b8 08 bd 3a 71 3a 3d 17 33 bb 3c 59 7e 4e 3d
       -0.03337946 0.045518138 0.02285151 0.050413463
000120 79 82 4a bd 9f 28 79 3c da e8 86 bd ee 5d 29 3d
       -0.049440835 0.015207439 -0.06587382 0.041349344
000130 96 7c b7 bc d6 72 11 3d b2 be 93 3d a6 9f 00 3c
       -0.022398274 0.035509907 0.072141066 0.007850563
000140 16 1f 77 bd 69 3b 67 bd 40 6d 29 3c 47 6c b5 bd
       -0.06033238 -0.056453142 0.010340989 -0.08858543
000150 ca 4d 12 3d 16 0d 6d bc fc 82 9a bd 8c 6c 65 3d
       0.035718717 -0.014468452 -0.075445145 0.05601172
000160 07 59 56 3c 5e ee ad 3d 32 9b 36 bb 77 18 0d 3d
       0.013082749 0.084927306 -0.00278635 0.03444716
000170 26 f2 47 3d 19 ed 48 3d 86 53 3a bd 80 e9 96 bd
       0.048814915 0.04905424 -0.04548981 -0.07368755
000180 12 bc c9 bb 49 de ab 3d 5c 1a 72 3d 6d 6d f9 bc
       -0.006156453 0.08392007 0.05910717 -0.030447686
000190 0c e3 ec bc 31 17 7b 3d 34 42 6c 3d 5e 27 0d 3d
       -0.028916858 0.061301414 0.057680324 0.03446137
0001a0 f8 91 aa bd 73 d5 a3 bd f6 4b 89 3d 11 20 a5 3d
       -0.083286226 -0.079996966 0.067039415 0.08062757
0001b0 22 4c a3 3d ad 15 33 3d ca 60 a0 bc f1 d7 a6 bb
       0.079735056 0.043721844 -0.019577403 -0.00509166
0001c0 8a 33 a6 3d e2 57 cd ba f3 38 55 bd b9 2a 14 3d
       0.08115299 -0.001566645 -0.052056264 0.036173556
0001d0 72 99 60 bd 37 de 9b 3c 3f a8 18 bd dc 5f 66 bc
       -0.054833837 0.019026859 -0.037269827 -0.014060941
0001e0 8f ff 2b 3d d4 46 24 bd 44 fe 59 3c 21 ae 8c bd
       0.041991767 -0.04010661 0.013305251 -0.0686915
0001f0 b6 9b 12 3c 6a 69 8b bc ff 50 15 3d 30 ae 87 3d
       0.008948257 -0.017018039 0.036454197 0.066250205

weight f4 [128, 128]
000000 ab 64 87 bd 2b ad be 3d 37 62 48 3d bf b3 a2 3d
       -0.06610998 0.09310373 0.04892179 0.0794444
000010 bb 04 05 ba 9a ae 2e bd ca 4b 8c bd 4d de ad 3d
       -0.0005074252 -0.04264698 -0.06850393 0.08489666
000020 d9 4e 10 bd aa 09 62 bd 34 c8 be bc 29 91 8e bd
       -0.035231445 -0.055184998 -0.023288824 -0.06961281
000030 75 bf b8 3a 68 23 40 3c 77 4d e7 3c d8 af 8f bb
       0.0014095145 0.0117271915 0.02823518 -0.004384976
000040 b2 48 6f bd 70 9f d3 3d d0 be 82 bd 2d f9 98 bd
       -0.058418937 0.10333145 -0.06384051 -0.074694015
000050 54 c4 84 3d 2a e3 5e bd 3e d9 25 bd 92 85 86 bd
       0.06482759 -0.05441586 -0.04049038 -0.06568445
000060 39 3d 4b 3d bc 28 0f 3d 5f 85 72 3d bc 73 2e 3d
       0.049618933 0.034950957 0.059209224 0.04259084
000070 f0 a7 ee bc 1d 49 06 3d b6 ab f7 3b 9b aa 6c 3d
       -0.029132813 0.03278457 0.0075583113 0.05777989
000080 a4 9f 42 bd d0 8d a1 3d f6 37 ec bc f9 fa 1c bd
       -0.047515526 0.07888377 -0.028835278 -0.038325284
000090 a8 be 91 3c 6a ee 1f 3d 31 76 e0 3c b3 f4 c2 3d
       0.017791107 0.03904573 0.027400108 0.09519329
0000a0 0b c3 e5 3c d8 a9 d2 3d 20 17 19 3d ea e0 c4 bd
       0.028047105 0.102863014 0.03737557 -0.096132115
0000b0 06 10 24 3a de 44 d0 bc 91 a0 bd 3d 4a 86 a8 3d
       0.0006258491 -0.025423463 0.09259141 0.082287386
0000c0 cb e5 b0 3c 91 1d 27 bd 7a 52 47 bd 72 e2 44 bd
       0.021593949 -0.04079968 -0.04866264 -0.048067518
0000d0 e2 63 90 bd f5 2e 12 bd 8f 6b be 3d d6 81 04 3d
       -0.07050301 -0.035689313 0.09297859 0.032350384
0000e0 50 62 cd 3c ba 89 9a 3d a9 68 39 bd c6 a1 cc 3d
       0.025071293 0.075458005 -0.045265827 0.09991793
0000f0 d0 04 90 bd bf 41 55 3c 4c 80 4a ba 24 67 0d 3d
       -0.07032168 0.013016163 -0.0007724806 0.03452219
000100 07 1b 2b 3d 90 e2 79 3d 26 65 9a 3a 2f 39 99 bd
       0.041773822 0.061007082 0.0011779412 -0.0748161
000110 9e d7 5b 3d 6d 39 c1 3c 6e f3 6b 3d 23 ac 99 bd
       0.053672425 0.023586953 0.0576052 -0.075035356
000120 ea b7 e5 bd e4 fa 90 3d 9e 11 85 3d 1b 7a 6f bd
       -0.112167194 0.070791036 0.06497501 -0.05846606
000130 90 c7 8c 3b 59 48 ac 3c 65 b5 97 bc e7 82 a3 bd
       0.0042962506 0.021030592 -0.018519113 -0.07983952
000140 da fe b1 bd 41 80 b0 3c b3 b6 a2 3d 49 fa b2 3d
       -0.08691187 0.021545531 0.07945003 0.08739144
000150 f8 71 7d bd 69 9d c8 3d 72 a3 95 3b 49 bc bc 3c
       -0.061876267 0.097956486 0.0045666033 0.023039
000160 e8 ea 81 bd 97 73 89 bc 4b 63 d3 ba 30 46 f9 3c
       -0.06343633 -0.01677875 -0.0016127614 0.030428976
000170 4a 98 b1 3a a1 3b 5f bc b0 7e 5a bc 8d 1f c9 3c
       0.0013549414 -0.0136250565 -0.013335869 0.024551177
000180 7d 49 37 bd 00 30 7e 3d ea 86 9c bc 1e e8 7a 3c
       -0.04474782 0.062057495 -0.0191073 0.01531413
000190 24 f9 91 bd 74 be dc 3c c4 2b 73 3d e2 7c 6d bd
       -0.07127598 0.026946284 0.05936791 -0.057980426
0001a0 35 69 3c 3d 0a 92 3f 3d 22 dc 40 3d 55 88 bc 3d
       0.04599877 0.046770133 0.047084935 0.09205691
0001b0 28 bf ba bd 3a 55 ae 3d 24 78 35 bd 06 6e 9c bc
       -0.091184914 0.085123494 -0.04430403 -0.019095432
0001c0 07 76 44 3d 38 95 06 bd a7 6d 69 3b 77 71 9b 3d
       0.047964122 -0.03285715 0.0035618336 0.07590001
0001d0 c3 03 bf 3c 00 6d 4e bd 6c a5 1e bd 69 2c ca 3c
       0.023317223 -0.05039692 -0.038731977 0.02467938
0001e0 f8 4b e9 bc de 8b 04 bd f1 0b dd 3b 1d d6 d2 3c
       -0.028478608 -0.03235995 0.0067458083 0.025736863
0001f0 94 5d 67 3d d2 2f 67 bc 5c 2d 8f 3d 5a 3e e5 bc
       0.056485727 -0.014110522 0.069910735 -0.027983833
000200 72 62 0a 3d f9 e4 ba bb 92 58 a9 3d 3a a7 bd bc
       0.03378529 -0.005703565 0.082688466 -0.023151029
000210 29 56 ad bd 9b 57 70 3c 5f 21 dc 3c 98 8d ac 3d
       -0.08463699 0.014669324 0.026871381 0.08425444
000220 56 d6 79 bd 55 51 95 3c 6b e4 67 3d 94 87 85 bc
       -0.060995422 0.018227259 0.05661432 -0.0163
000230 3d b8 b2 bc 8e ba 10 3d f7 c9 86 3d 6c c1 7d 3d
       -0.021816367 0.035334162 0.065814905 0.06195204
000240 0b ce 8c 3d 3f 2f 22 3d b7 ab cd 3c 07 c0 26 bd
       0.06875237 0.03959584 0.025106294 -0.040710475
000250 9c 85 42 bd 99 c6 a0 3d 61 4c 37 bd 69 51 c1 3d
       -0.0474907 0.078503795 -0.044750575 0.09439356
000260 a8 68 57 3c 71 c7 d2 3c 01 91 f1 bc c7 8a 4b bd
       0.013147511 0.025729867 -0.029488089 -0.049692895
000270 4e 77 90 3b 90 ba 81 3d d9 19 2c bd f2 58 32 bd
       0.0044087535 0.06334412 -0.042016838 -0.043541856
000280 46 9a bd bd 39 d8 d2 3c 89 63 ae 3c 37 d6 b4 ba
       -0.09257941 0.025737869 0.021287696 -0.0013796751
000290 24 bc b4 3d 3a b6 97 3c 51 dd 03 3b d0 e3 8d bc
       0.088249475 0.01851951 0.0020120929 -0.017320544
0002a0 2b 80 17 bc 19 c9 8b 3d d6 02 c6 3c 38 0d b1 bd
       -0.009246866 0.06825466 0.024171274 -0.086450994
0002b0 37 01 85 bd 8b 03 83 3d b7 d9 74 bb 69 0f 8f bd
       -0.06494372 0.0639716 -0.0037361213 -0.06985361
0002c0 65 8d da bb 93 d2 15 3d 54 3d d3 bd 28 78 73 3b
       -0.0066696876 0.036577772 -0.10314432 0.0037150476
0002d0 0e c2 a7 bd 1d 58 10 3a 02 d2 d7 3d ef 5e 6e bc
       -0.0819131 0.0005506294 0.10538103 -0.014549001
0002e0 46 d4 81 bd 65 77 ae 3c fa 61 c0 bd 4a ed fb 3c
       -0.06339316 0.021297166 -0.093936875 0.030752797
0002f0 a6 bd 33 bd 88 a0 4b 3d ab db 95 3d 95 67 1b bd
       -0.043882035 0.04971364 0.07317289 -0.03794058
000300 a2 9a aa 3d ef 56 01 3d 65 1e 32 3d e1 37 81 bd
       0.08330275 0.031577047 0.043486018 -0.06309486
000310 b3 e2 43 3d 4d 34 23 3d 69 2f 4b bd a4 65 89 bd
       0.04782362 0.0398448 -0.04960576 -0.067088395
000320 0c 2b 4a 3d 3a 28 58 3d f2 b3 7b bd 2e 55 23 3d
       0.04935746 0.052772738 -0.061450906 0.039876156
000330 68 72 0c bd 48 33 49 bb 31 ed b8 bd a7 a1 7c bd
       -0.034288794 -0.0030700732 -0.09029616 -0.0616776
000340 bd e4 58 bb d0 a1 e7 39 7e 30 13 3d 85 9e 9d 3c
       -0.0033095323 0.00044180313 0.035934918 0.019240627
000350 b0 dc e7 ba f3 2b 63 3d a2 4f d4 3c 1c 0d b5 bd
       -0.0017689671 0.055461835 0.025916878 -0.08840391
000360 6c b0 51 3d fe bd 8a bd f0 fa 3e bc c0 66 c3 3b
       0.05119364 -0.067745194 -0.011656508 0.0059631765
000370 99 19 8b bd f2 ee ad bd 10 a0 8b 3d 04 3c 9d bc
       -0.06791992 -0.08492841 0.06817639 -0.019193657
000380 7d 8f fb 3c a2 4f cb bc 31 5e 35 bd 96 f0 70 bd
       0.030708069 -0.024818245 -0.04427928 -0.05882319
000390 ce ac 3a 3d 73 e4 80 bb ae 8e 93 bd 3b 5a 4d 3d
       0.045574956 -0.0039334833 -0.07204948 0.05013488
0003a0 c1 ac 0f 3d ce 85 9d bc 14 f5 21 bb d1 fc 97 bc
       0.03507686 -0.019228842 -0.0024712728 -0.01855317
0003b0 89 c9 7b bd 67 b5 83 bd 32 9c af bd 5d 8a 68 3d
       -0.061471496 -0.06431084 -0.08574714 0.05677258
0003c0 19 6d 1e 3d e0 21 bd 3d fa 30 25 bb b3 e0 1e bc
       0.038678262 0.09234977 -0.0025206194 -0.009697127
0003d0 45 4c 96 3c 08 96 92 bd ae 45 94 3d 23 b8 87 bb
       0.018346915 -0.071575224 0.07239853 -0.004141824
0003e0 d6 d7 8f 3d cf c9 05 bc 46 82 ca 3c 0e 56 a7 3d
       0.07023589 -0.008165791 0.024720322 0.081707105
0003f0 21 02 ac 3d cc 3c bb 3d d6 ef 93 3d d0 02 de ba
       0.083988436 0.091424555 0.072234794 -0.0016938094

bias f4 [128]
000000 16 24 06 bc 8b 3d e3 3c 12 f6 b5 3d d2 f2 90 3d
       -0.0081873145 0.027739307 0.08884825 0.07077564
000010 99 fb 09 3d ad c2 a9 3d a6 69 19 bd e7 88 99 3c
       0.033687208 0.082890846 -0.03745427 0.018742038
000020 ae dd 70 3d 2f 2f 99 bd ff ea ad bd 1a 05 98 bd
       0.05880516 -0.07479703 -0.084920876 -0.07422848
000030 57 d4 9c bd a9 94 7f 3c 2f 8d 0d 3c b1 0e 75 3c
       -0.07657688 0.015599408 0.008639618 0.014957116
000040 40 54 2f bd 87 35 97 bd c2 ec 4c bd 96 cd a0 3d
       -0.042804956 -0.073832564 -0.050030477 0.078517124
000050 b4 e8 90 bc ab 56 7e 3b 16 eb 11 bd 16 e2 07 bd
       -0.017689086 0.0038808982 -0.035624586 -0.033174597
000060 34 e6 95 3d 87 7d 98 3a 19 d5 d3 3b 6e c9 58 3d
       0.073192984 0.001163409 0.006464612 0.052926473
000070 7a 41 29 bb cc aa fe 3c e7 a2 86 bd 0a e1 7d 3d
       -0.002582638 0.031087302 -0.0657404 0.061982192
000080 9e f7 d6 bb 13 08 12 3d 16 8b 9e bd 9c 38 4f 3c
       -0.00656028 0.03565223 -0.07741372 0.012647774
000090 d2 cd 02 3d 13 1a 7e bd e7 8f 9f 3a 35 a0 16 bd
       0.031934567 -0.062036585 0.0012173624 -0.03677388
0000a0 fa 35 c8 bc 18 db 3e 3d 96 e0 16 bd 72 32 a4 3d
       -0.0244398 0.046595663 -0.036835276 0.08017434
0000b0 db b4 74 3d eb 11 6e bc aa bf c0 3c e0 a6 68 bd
       0.05974279 -0.014530639 0.023528893 -0.05679977
0000c0 54 a4 58 bd 0e 93 cd 3a 3e c9 99 3d 94 f1 86 3d
       -0.05289109 0.0015684085 0.07509087 0.06589046
0000d0 3c 30 b3 3d 7b 06 c9 bc 64 7e 70 bd e3 7d 98 3d
       0.08749434 -0.024539223 -0.058714285 0.07445886
0000e0 f5 e6 59 3d 13 19 ad 3d 8a 42 ad 3d fa c2 2c bd
       0.053198773 0.08452048 0.08459957 -0.04217813
0000f0 7a cb a2 3d a6 bc b4 3d 11 ac a4 bc 33 7a 67 bd
       0.07948966 0.08825044 -0.020101579 -0.056513023
000100 d8 62 83 bd 01 e9 41 bd 07 b3 6c 3d eb 44 81 b7
       -0.06415337 -0.04734135 0.05778792 -1.541009e-05
000110 a4 e1 04 bc 2f 16 7c bc a2 a4 a7 3d 00 09 e3 3c
       -0.008110438 -0.015386148 0.08185698 0.027714252
000120 f8 d3 36 bd 13 7a 8d 3d 82 9a 2c bd 41 79 87 3d
       -0.044635743 0.069080494 -0.042139538 0.06614924
000130 89 56 80 bd 4e c0 fb 3c 4d 55 2b 3d 4d 19 7f 3d
       -0.06266505 0.030731346 0.041829396 0.062279988
000140 38 71 64 bb 9c 70 3d 3d 5b 7c 38 bc 37 1a bd 3d
       -0.0034857523 0.04624997 -0.011260117 0.09233516
000150 c8 44 db bc 5f e7 9f bd 3c 88 a5 bc d2 07 c5 3c
       -0.026766196 -0.078078024 -0.020206563 0.02405158
000160 3b a9 a9 3c c0 31 8a bd 65 cf 1a bd 49 64 ff 3c
       0.020710578 -0.0674777 -0.037795443 0.03117575
000170 d1 38 eb 3c 81 73 bc 3d a2 fb 9d bc 0e cf d8 3c
       0.028713616 0.09201718 -0.019285027 0.026465919
000180 e0 2d 5d bd b7 e1 b0 bd 52 ef 01 ba f8 c2 cf bc
       -0.053998828 -0.08636802 -0.0004956621 -0.025361523
000190 2e 0f 9d 3d fc cd 7d bd d0 6d 82 bd 55 61 35 bd
       0.07668911 -0.06196402 -0.06368601 -0.044282276
0001a0 4c 38 09 bb 02 1c 4c 3d 55 64 48 3d 91 18 d3 bb
       -0.0020938097 0.049831398 0.04892381 -0.0064421375
0001b0 aa e7 3a 3d 41 e9 46 3d ff 6b 1e bc 2a 35 3c bd
       0.04563109 0.048562292 -0.009669303 -0.04594914
0001c0 eb 75 08 3d 38 c4 46 bd 51 6d 9c 3d 24 81 1f 3d
       0.03331558 -0.048526973 0.07638038 0.038941517
0001d0 ce 81 17 bc fa 7a 6a bc 08 d5 d5 3b 68 95 d3 3b
       -0.009247256 -0.014311546 0.0065256394 0.0064570196
0001e0 7e 10 8e bd cb a2 87 bd 88 88 bf bb 55 67 29 bd
       -0.069367394 -0.06622847 -0.005845133 -0.04135831
0001f0 26 9e 50 bd 8e 3f 82 3c f2 f8 56 3d bd 20 7d bd
       -0.050932072 0.015899446 0.052483507 -0.0617988

weight f4 [128, 128]
000000 0a 4f 96 bb 66 cb 2e 3d f6 8a 3a 3d 03 6a fe 3c
       -0.004587059 0.042674445 0.04554268 0.03105641
000010 95 55 05 bc a9 dd 68 bd bc a2 7d 3d b9 cb 53 3b
       -0.00813808 -0.056852017 0.061922774 0.0032317473
000020 6a 89 b0 bb 4c ca 76 bd d0 ea 44 3b b6 4f 7f bd
       -0.005387475 -0.06025152 0.0030047186 -0.062331878
000030 34 5f f0 bc f8 4e f6 bc e9 5b 55 3d 67 21 2d bc
       -0.029342271 -0.030066952 0.052089605 -0.010567046
000040 70 02 cf 3c 06 e9 10 bd d0 13 b1 bd 04 ae 93 bd
       0.025269717 -0.03537848 -0.08646357 -0.07210925
000050 79 89 fc 3c c1 e2 ab 3d 23 d6 60 bd 24 65 35 bd
       0.03082727 0.08392859 -0.054891717 -0.04428591
000060 c9 4e 08 3d af 40 90 3d 2c b2 89 bd 9a 87 4e bd
       0.03327826 0.070435874 -0.06723437 -0.05042229
000070 c1 84 95 bd 34 cd cf 3c ad 90 c7 bc 76 9b cd bc
       -0.073007114 0.025366403 -0.024360979 -0.025098544
000080 64 aa 29 3d 9d 0d 8d bc 8b 2d 4f bd 6a 69 a5 bd
       0.041422263 -0.017218405 -0.050580543 -0.08076747
000090 fa cc 90 3d c2 fb 27 bc ad bc f3 3a 94 a5 a4 bc
       0.07070346 -0.010252895 0.0018595658 -0.020098485
0000a0 4f 38 b7 bc 76 a0 75 3c 06 f1 f4 3b f4 d7 04 bc
       -0.022365717 0.01499187 0.0074750213 -0.008108128
0000b0 64 4a 87 bd 64 1c fc bc 2f 79 01 bd ef 9b 50 3d
       -0.06605986 -0.030775256 -0.03160971 0.05092996
0000c0 1b 27 33 bd cb fa 50 bb 10 e3 d5 bc 11 e4 ac 3d
       -0.043738466 -0.0031887766 -0.026109248 0.08441938
0000d0 b4 10 84 3c 55 e9 66 3d e1 7b 85 bd 13 f5 b1 3c
       0.016121246 0.056374867 -0.06517769 0.021723306
0000e0 57 cb 5b bc 9e e3 72 bd f2 1a ed 3c a7 88 91 bb
       -0.013415179 -0.059299104 0.028943513 -0.004441339
0000f0 2a 67 9f 3c 8a 11 77 bd 98 11 2b bc 49 02 3e bd
       0.019458372 -0.06031946 -0.010441206 -0.046388898
000100 91 e0 60 bd bb 15 95 3d df b4 20 bc 6b c8 15 bc
       -0.054901663 0.072795354 -0.009808748 -0.009142022
000110 fe 14 5a bd fd 09 85 bb 74 32 67 3c c8 ca 86 3d
       -0.053242676 -0.0040600286 0.01411115 0.06581646
000120 b6 70 26 bb 37 07 83 3d 0c d3 12 bc aa fa b0 3c
       -0.002539677 0.063978605 -0.00896145 0.021603901
000130 6a 82 2d 3c c4 5d 44 bd f6 e6 7b 3d e3 f0 88 3d
       0.010590175 -0.047940984 0.06149956 0.066865705
000140 56 ab 88 bd ae e0 fe bc a5 49 85 bd 33 bc bc bd
       -0.06673305 -0.031112995 -0.06508187 -0.09215584
000150 31 7d 12 bc 0b bc 9d bc 97 2a 42 3d 96 f8 92 3b
       -0.008940981 -0.019254705 0.047403898 0.0044852
000160 ee c5 ab bd 08 a2 9b bd 80 66 14 3c 46 8b d0 bc
       -0.083873615 -0.075992644 0.009057641 -0.025457036
000170 29 77 bb 3c 2d a5 a9 bd b2 a7 70 bd a6 f4 42 3c
       0.022883968 -0.08283458 -0.058753677 0.011899149
000180 c2 61 b7 aa ba bd 61 3b 6d a2 88 bc a0 4f 54 bd
       -3.2575163e-13 0.0034445361 -0.016679013 -0.05183375
000190 9b 81 8b 3d 69 f5 9c bd 97 82 84 3d 24 e9 a1 3d
       0.0681183 -0.07663996 0.064702205 0.07905796
0001a0 7d 71 7f 3d c5 02 74 3d 81 50 23 bb 7e 98 83 bd
       0.06236409 0.059572954 -0.002491981 -0.0642557
0001b0 2e d2 2a bd f4 56 78 bd 1b 08 93 3b ea bb 63 3d
       -0.04170435 -0.0606298 0.00448705 0.05559913
0001c0 14 c7 8d 3c 0b 0d 9e 3c 15 f0 20 bd 12 30 4a 3d
       0.017306842 0.019293329 -0.03929146 0.04936225
0001d0 c2 a2 0d bc 71 e2 27 bb 18 18 d4 bc 49 02 90 bd
       -0.0086447615 -0.0025617147 -0.025890395 -0.07031686
0001e0 d3 99 86 bd d6 df 6f 3d f9 27 99 bc 5f 45 0d 3b
       -0.065723084 0.058563076 -0.018695818 0.002155624
0001f0 c0 be 88 bd 91 22 2c bc e3 cb 10 bc 00 8d 1f bc
       -0.06677008 -0.010506288 -0.008837673 -0.009738207
000200 3c 69 29 3d 86 44 81 3d a6 c1 8e bd 8a 36 d7 3c
       0.041360125 0.06311898 -0.06970529 0.026271123
000210 18 6e 2f 3d f3 ad 87 bc 09 f2 49 bd ba 05 dc bc
       0.042829603 -0.016562438 -0.04930309 -0.0268582
000220 90 3a 08 bc 8d a1 a1 3d 02 9f 90 3d 61 25 1d bd
       -0.008314744 0.078921415 0.07061578 -0.038365725
000230 05 0d 3a 3c 43 b2 83 3c 56 8b 3c 3d 29 ce 72 3b
       0.011355643 0.016076213 0.04603132 0.003704915
000240 ad 25 cb bc ed c0 99 3a 0c 92 84 bd 81 7a a0 3d
       -0.024798239 0.001173047 -0.06473169 0.07835866
000250 c8 ef 75 3d c1 39 ca 3c 9a 89 9c 3d f3 cd 85 bd
       0.060043126 0.024685742 0.07643433 -0.06533422
000260 c4 e7 35 bd 7d b3 33 bd 61 6d 2a bc 3a 90 38 3d
       -0.044410482 -0.043872345 -0.0104020545 0.04505942
000270 cf 23 6f 3c 23 6f e9 bc 94 c7 72 bd aa 58 6f 3c
       0.01459594 -0.028495377 -0.059272364 0.0146085415
000280 cb bc 7e 3d 5e e7 15 bd a1 22 ab bd a2 19 94 3d
       0.062191766 -0.036597602 -0.08356214 0.072314516
000290 c1 74 0b 3d c7 e3 b3 3c e6 7a 5a b5 dc 22 99 3d
       0.034046892 0.021959199 -8.139017e-07 0.07477352
0002a0 a0 e8 8d bd 7e cf 05 3d 62 01 58 bd 93 bf a5 bd
       -0.06929135 0.032668583 -0.052735694 -0.080931805
0002b0 9a 6d 90 bd 90 0e a7 3d bd c7 91 3d 25 06 85 bd
       -0.07052155 0.081570745 0.07118175 -0.064953126
0002c0 5b 0c 2f bd cc 5c 84 bd 7a 14 1d bd 08 4d 1d 3d
       -0.042736392 -0.06463012 -0.038349606 0.03840354
0002d0 f8 fe 6b bd 11 7e b3 3d 9a 6d 3e bd 33 e7 0d 3d
       -0.057616204 0.0876428 -0.046491243 0.034644317
0002e0 68 e6 72 bd e8 f7 67 bd 8a 2f 0c 3d 83 74 cc 39
       -0.059301764 -0.056632906 0.034225024 0.0003899672
0002f0 c8 e0 48 3d da 12 2c bc 52 53 85 3d 7d 5b c9 3c
       0.049042493 -0.010502541 0.06510033 0.024579758
000300 f7 f2 08 bd bc b4 38 bc f9 a5 22 bd d4 06 d0 bc
       -0.033434834 -0.011273559 -0.039709065 -0.02539388
000310 bb b3 c3 bc 10 f2 e7 3b e3 89 ae 3c 8d 92 b2 bc
       -0.023889413 0.0070784166 0.021305984 -0.021798396
000320 91 f8 8b 3c 18 d8 6c 3c 08 06 02 bd d8 4e a6 bd
       0.0170863 0.014455818 -0.031744033 -0.08120507
000330 fe f7 32 3a bc 07 ad bd c2 0d 92 3d 51 d0 7d 3c
       0.0006827115 -0.08448741 0.0713153 0.015491561
000340 43 c5 87 3d fe 70 35 bd 55 af 39 bd 1e 7a 46 bd
       0.066294216 -0.04429721 -0.045333225 -0.048456304
000350 0f 26 88 bb c3 51 7a 3d 23 a2 76 3b 5b 35 54 bd
       -0.0041549276 0.06111313 0.0037633262 -0.051808696
000360 e7 17 91 bd 7f c9 92 3d f7 89 27 ba 92 83 54 3d
       -0.07084637 0.071673386 -0.0006391103 0.051883288
000370 9c 3c c6 bd 5c 55 b8 bc 96 9b 9f 3c 9c 47 7a 3d
       -0.09679529 -0.02250164 0.019483369 0.06110345
000380 be 38 1c bc 7a 3c 9d bc ba a1 01 3d 3f 14 36 bd
       -0.009535013 -0.019193877 0.031648375 -0.044452902
000390 4a 8b 01 3a 4f 03 d5 3a 37 cd 91 bc 51 40 28 3b
       0.0004941715 0.0016251596 -0.01779805 0.0025673101
0003a0 07 bb 68 bd e0 e3 29 3c 45 82 97 bd ea c5 01 bd
       -0.05681899 0.010369271 -0.07397894 -0.031682886
0003b0 a5 3d bc bd 9d e9 c6 bc 40 22 aa 3c 4f 37 5f 3d
       -0.09191445 -0.024281317 0.020768285 0.054496106
0003c0 e1 ce d8 bb 12 4e 72 bc d3 bf 99 bd c4 e9 98 bc
       -0.0066164588 -0.014789121 -0.07507291 -0.018666156
0003d0 be 33 91 bd 0f 75 3d 3d 03 47 71 3d 43 41 15 bc
       -0.07089947 0.046254214 0.058905613 -0.009109798
0003e0 31 81 c3 ba 1e 09 0d 3d 98 9a cb bc 9e 9d a1 bc
       -0.0014915821 0.034432523 -0.02485399 -0.019728478
0003f0 bc b0 9e 3d 64 46 a6 bd 2f a4 b0 3c 92 2b 95 bd
       0.07748553 -0.08118895 0.021562664 -0.07283701
