models/agModels-predicttop10_votes/models/NeuralNetTorch_BAG_L1/S2F2/net.params (torch, 249461 bytes, 16 tensors)

weight f4 [6, 4]
00000000: 748a 92bf 1635 92bf 81b9 8abe b311 cebe
00000010: 3929 5e3f 539f 393f 925e a8be 77ab 0bc0
00000020: 67a4 f73e 5bec 4ebe bd9a b93f 5fde 783e
00000030: 39b4 183e a84b 5a3f 95dd 0cbe d4bb 85bd
00000040: c89d 723f adbb 9e3f c29d 0240 b8dd 9a3d
00000050: 6098 dd3e 42ff 72be ad94 26bf 427b 07c0
-1.1448503 -1.142245 -0.27094653 -0.40247878 0.8678165 0.72508734 -0.3288465 -2.1823404
0.48367617 -0.2020735 1.4500347 0.24303578 0.149125 0.8527169 -0.13756402 -0.06529966
0.94772005 1.2401024 2.0408788 0.07561821 0.43280315 -0.23730186 -0.6507061 -2.116898

weight f4 [6, 4]
00000000: c912 80be 6715 40bf b421 0d3f 5b39 773e
00000010: dae6 13be 7623 34bf 08d3 703f 443d 053f
00000020: 5b47 efbe 7aad 633f 939f 973f 5559 ad3f
00000030: 2c88 bcbf a944 2640 d8a9 f7be 5b14 9f3e
00000040: d850 dbbf 013a 0ebf a894 03bf 208a 0cbf
00000050: 98a8 5fbf d3d0 6b3f 5c4c a3bc e0b2 1d3f
-0.25014332 -0.7503266 0.5512955 0.24142973 -0.14443532 -0.7036661 0.9407201 0.5204661
-0.46734127 0.8893658 1.1845573 1.3542887 -1.4729056 2.5979407 -0.48371768 0.31070217
-1.7134047 -0.55557257 -0.51398706 -0.5489826 -0.8736663 0.92115515 -0.019933872 0.61601067

weight f4 [6, 4]
00000000: 64e3 b9bd b028 2f3f 3548 58bf 801f 4538
00000010: e9a3 633f 9f83 b8be dc0f 8b3f 89d0 d13e
00000020: 7dc1 7f3d da3b 8f3f 6712 933e d2ca d73e
00000030: 34bc 51bf fce0 a6bf b245 44bf a08f a9bf
00000040: 64dc 3e3e 3f78 babe 1a3e efbe edcd 3d3e
00000050: 7a78 1b3f e55a 3abd 32d2 4abe a401 82bf
-0.090765744 0.6842146 -0.8448518 4.6997797e-05 0.8892198 -0.3603792 1.0864215 0.40979412
0.062440384 1.119014 0.28724977 0.42146927 -0.819278 -1.303741 -0.76668847 -1.3246956
0.1863876 -0.36419865 -0.46727067 0.18535586 0.6073071 -0.04549684 -0.19806746 -1.0156751

weight f4 [6, 4]
00000000: 9fcf 30bf b04c 863f faa5 1ebf 6fcc a2bf
00000010: 1be8 8c3d 4ac2 31bf 89ae 263f dc71 47bf
00000020: 6ed4 a2be 1264 ea3d f73d 773e 1377 983f
00000030: 673f 9d3e 88fc cd3e 9ee5 5bbe c0c0 c1bd
00000040: 499c 5e3e 2d48 45bf 0973 f7bf 9417 e73d
00000050: a444 04bf 6e0d 183e 95c3 ea3c cf0f 593e
-0.69066805 1.0492153 -0.6197201 -1.2718638 0.06880208 -0.69437087 0.6511007 -0.7790811
-0.31802696 0.11444868 0.24144731 1.1911339 0.30712435 0.4023173 -0.21474311 -0.09460592
0.21739306 -0.77063257 -1.9331981 0.11283794 -0.5166724 0.14848873 0.028657714 0.21197437

weight f4 [6, 4]
00000000: 57f9 6c3f d4a7 77bf a485 a73e 5559 e9bd
00000010: 0782 803f 86a0 efbe 2c34 423f 6032 1f3f
00000020: f44c 7e3f c66d c1bf 2914 083f 0e4c 4c3e
00000030: 8b5e c03d 412f 4dbf 4c26 253f 0910 f7bf
00000040: 3e33 ab3f f428 74be d07e 513f 3e73 793f
00000050: 73d0 743e 72fe a7bf 8335 eb3f 9e4c 813c
0.9256796 -0.9674046 0.32719147 -0.11393992 1.0039681 -0.46802157 0.7586086 0.6218624
0.9933617 -1.5111625 0.5315576 0.19950888 0.09393033 -0.8015023 0.6451156 -1.9301769
1.3375013 -0.23843747 0.81834126 0.9744147 0.23907642 -1.3124526 1.8375705 0.015783604

weight f4 [26, 9]
00000000: f002 00bf 5e97 d5bf dee1 0ebf f186 08bf
00000010: 1821 13bf f065 c2bf 9634 60bf 40f0 08c0
00000020: 366a 93bf 58c2 29bf e095 e83c 7382 883e
00000030: b4bd b0be 2bc5 af3f d7a3 3ebd a851 5fbf
00000040: 0d1d b63e 1f53 c9bd d1fc ae3f bbe3 89be
00000050: a349 0abf 15b6 39c0 5cf9 c0bf 3a2e 803f
00000060: 2148 3d3e bfcc 37bf ee92 d63f f243 c23e
00000070: daea 813f 5970 be3f c7aa 8abd 4f0b 21bf
00000080: 5959 2bbf da01 d63f 89e7 7bbf 6dcf 30bf
00000090: 852e 753d 4c98 053f 4e3e ee3e d514 993f
000000a0: 1fe6 86bf bc19 e0bf fd10 c63f f055 16bd
000000b0: f0cb cfbf 4aca a33d 6694 27bf 9cc0 443f
000000c0: 5718 903f 610a 0bbe 296c 9fbd 47ed 293f
000000d0: 137c 023f 9f25 243e 90b3 fa3b c04b 173f
000000e0: 994d d53d be36 71bf 5604 293f c7eb 913f
000000f0: 90ec 0740 2503 53bf 6dd6 15bf 0039 13bf
00000100: cb76 bf3f 6d20 46bf deb3 e23d 4276 b73f
00000110: b343 fd3f c17d 283f ecc6 55bf 8f07 18bf
00000120: a4f7 7c3e c4b3 03bf dbcc 6f3f 1590 f63e
00000130: 2643 57bf 3caa a53f 9e5e 893e 6bc6 1abf
00000140: ff9a 6bbf 1fbf 1dbf 2d26 2c3e 3530 8abf
00000150: 50da 41bf efa0 0ac0 b0c5 35bf 19cf 083f
00000160: a9aa 3c3f bc9a 7d3d e86d e83e 9ca7 efbf
00000170: 3f65 91bf 2a41 ab3d 6fb5 223f 702d a63f
00000180: 44b1 cbbf 8154 9f3e 6467 b2bf f7f4 70be
00000190: 2757 92be 3ca6 97bf 3631 343f 0a0f a6bf
000001a0: 9084 86bf 1c1f b33e 022a 35bf 6758 52bf
000001b0: 6f7d 3fbf a2ec 053f 57c2 a43e 25c5 113f
000001c0: caa0 b0bf 26e4 5ebf fb26 9b3f 5078 f5bf
000001d0: 8554 ab3e eeaa 933f 2047 ce3e af8b 9dbf
000001e0: 044e f3be d79d 66be 8f0d 5f3f a879 ccbe
000001f0: 7b75 35bf db45 dcbe 8e12 c4bf 8613 10bf
00000200: 4640 963f 1f7a 553f 1999 a33e 03cb b13e
00000210: ac90 31c0 689e 45bf 51f1 0f3f 25de 923e
00000220: 158f 93bf 9f35 27bc a417 1ebe ca22 7fbe
00000230: 806c 1a40 aa58 d03f 1b61 a0be 840e c2bf
00000240: 743c 0ebf 48c9 56bf 0caa bbbf 1166 e3be
00000250: 51bb 74be 78e5 ddbd 46a9 f53e feb8 dabf
00000260: dd3e b43e a029 11c0 2e35 58bf 02b4 d4bf
00000270: f921 093f 6504 b6bf 7989 343f 5139 b1bf
00000280: b84e 9c3e c797 0cbe bb18 673e d6d1 9d3f
00000290: 867c a13f ca1b bebd 0252 0840 d353 8e3d
000002a0: 11d2 f63e 58ff a33d 0c79 d23e d349 ddbf
000002b0: 3c6e 9b3f eaaf 2740 5dea 3d3e 8e58 b43e
000002c0: 4396 93bf 7652 0f40 c3a9 9e3d f46e 3f3f
000002d0: 4708 91bf 7ff3 aebd af3f c0bf 6422 ddbf
000002e0: b262 f3bf 0482 1e3d 6710 f8bf a95b f4bf
000002f0: a304 0a40 d75f 87bf b992 1bbf 85d7 d43f
00000300: 6f74 be3e 59d9 40bf 915b ad3c 6002 ee3f
00000310: 2112 f9be c469 623f 0b1e 353f 276d b93f
00000320: f4d5 0ebf 8206 55bd 289f c13e 9182 c5be
00000330: 3f71 f8bf 3885 5a3f 64d3 cb3c 2e0b b0bf
00000340: 2000 19bf e2c8 c1bf d099 3dbf dcbb 8c3f
00000350: f463 15c0 6f72 c93e 4130 23bf 23a6 eabd
00000360: b4ae 263f 1d4e 7d3f e96c d7be f7d9 073f
00000370: 9fc8 a43f e275 fb3e 0c67 0ebf f74e 00be
00000380: b904 00be d553 fb3c 91da 403e 82a4 10bf
00000390: 8af1 9e3d 1190 c7bd c40b b13f f4f6 b6bd
000003a0: e09b 97b4 e8c6 aa38
-0.5000448 -1.6686819 -0.55813396 -0.53330904 -0.5747237 -1.5187359 -0.8758024 -2.1396637
-1.1516788 -0.6631217 0.028391778 0.26662025 -0.34519732 1.3732046 -0.04654297 -0.8723397
0.3556904 -0.09830307 1.3670903 -0.26931557 -0.5401861 -2.9017384 -1.5076098 1.0014107
0.18484546 -0.7179679 1.6763589 0.37942463 1.0149796 1.4878036 -0.067708544 -0.6290788
-0.6693321 1.6719315 -0.9840017 -0.69066507 0.059858818 0.5218551 0.4653191 1.1959482
-1.0538977 -1.7507854 1.5473934 -0.03670305 -1.6234112 0.07997568 -0.65460813 0.768564
1.1257428 -0.13578178 -0.07784302 0.6637768 0.5097057 0.16029976 0.0076508 0.5909996
0.10415191 -0.94224155 0.6602224 1.1400079 2.1238136 -0.82426673 -0.5853031 -0.5750885
1.4958128 -0.7739323 0.11069463 1.4332964 1.9786285 0.65816885 -0.83506656 -0.59386533
0.24703842 -0.51446176 0.9367196 0.481568 -0.84086835 1.2942576 0.2683 -0.6045901
-0.9203338 -0.6161975 0.16811438 -1.0795962 -0.75723743 -2.1660726 -0.7100477 0.53441006
0.73697907 0.061915144 0.45396352 -1.8723025 -1.1359023 0.083620384 0.63558096 1.2982616
-1.5913472 0.3111916 -1.3937802 -0.23530947 -0.28582117 -1.1847606 0.7038759 -1.297334
-1.0509205 0.34984672 -0.70767224 -0.8216614 -0.7480077 0.523142 0.3217952 0.56941444
-1.3799069 -0.87066877 1.2121271 -1.9177341 0.3346292 1.1536539 0.4028864 -1.2308253
-0.4752046 -0.22521149 0.87130064 -0.39936566 -0.70882386 -0.43022045 -1.5318162 -0.5627979
1.1738365 0.83389467 0.31952742 0.34725198 -2.774455 -0.77194834 0.56227595 0.28685108
-1.152804 -0.010205655 -0.15438706 -0.24915615 2.4128723 1.6277058 -0.31324086 -1.516068
-0.55560994 -0.8390088 -1.4661269 -0.44413808 -0.2389958 -0.10834783 0.47980708 -1.7087705
0.3520421 -2.2681656 -0.84456146 -1.6617434 0.53567463 -1.4220091 0.70522267 -1.3845617
0.30528808 -0.13729773 0.22568028 1.2329662 1.2616127 -0.09282644 2.1300054 0.06949582
0.48207143 0.08007687 0.41107976 -1.7288154 1.2143016 2.620112 0.18546434 0.35223812
-1.1530231 2.239408 0.07747223 0.74778676 -1.1330651 -0.08542537 -1.5019435 -1.727612
-1.9014494 0.03869821 -1.9380006 -1.9090472 2.156533 -1.0576123 -0.60770756 1.6628271
0.37198207 -0.75331646 0.021161826 1.8594475 -0.48646644 0.88442636 0.70748967 1.4486436
-0.55795217 -0.05200816 0.3781674 -0.38576177 -1.940956 0.85359526 0.024881072 -1.3753412
-0.59765816 -1.513943 -0.74062824 1.099483 -2.3342257 0.39345118 -0.63745505 -0.11457469
0.65110326 0.98947316 -0.4207528 0.5306696 1.2873725 0.49113375 -0.5562599 -0.12530123
-0.12501802 0.030679623 0.18833376 -0.5650102 0.07760914 -0.09744275 1.3831716 -0.08933821
-2.8239356e-07 8.143281e-05

weight f4 [128, 77]
00000000: adb5 c63d 8c65 d33d 25bc 133e 855e 973d
00000010: b456 85bd ad03 ca3d 42d0 ce3c faf2 b83d
00000020: e8fd 98bd 58d1 fabb 8382 03be b8f3 86bd
00000030: af8a 5f3b 70b9 10be 42cc 353d 827c cf3d
00000040: 38b2 49ba fab1 96bd 195e a5bd 82d7 07bd
00000050: 1b4a 4c3d 2f4a fa3d e1a2 813d 6ea0 46bc
00000060: d616 2b3d 43c0 e8bd 4db5 cebd fa9a 4f3d
00000070: d975 8bbd e4ee 743d 907a b1bd 4304 6bbd
00000080: ca05 c4bd ecf3 763d 5f58 77bc 3d6b b73d
00000090: 2ebe bc3d 769a 853d 5e13 8b3a 29a8 12bd
000000a0: 1724 d2bc b4f6 c13c 18d5 603d 03b3 58bd
000000b0: 2ef0 843c fa0b 34bd 1ae3 c6bd 03fa 36bd
000000c0: c865 f63d 6bd5 ee3d 53d1 16be 40c1 063d
000000d0: 724d 8e3d cc32 523d c202 023e d080 1fbd
000000e0: 89a1 2a3d ad8e 263d 62f6 00bd db70 1f3d
000000f0: 6439 06bc b4c6 d03d 148b e8bd 5ebb c9bc
00000100: 9239 0f3d 3754 213d 0afc 5dbd b566 473c
00000110: fb8e be3d b0bc cfbc 7f56 2a3c da66 49bd
00000120: d2f0 353d e36c ecbd 9325 2bbd 06a7 9ebd
00000130: f224 fd3c caf2 f9bd 149a 6fbd eb43 c6bd
00000140: 335c 853d 3b17 8d3d 89d5 a9bd 2de2 a9bd
00000150: a666 d2bd 62a8 53bc 72c0 55bd 369d c4bc
00000160: c51d b3bd e2db 3b3b b97f 3cbd f7db 01bc
00000170: 6e69 aabd 9c9d e8bd 16eb 123d 0592 de3d
00000180: bab8 8ebd d8ce 853c dd25 98bc 0dd5 fd3d
00000190: 6516 d1bd c325 ccbd 29b8 fa3d d3a2 74bd
000001a0: 3980 073d 4958 1cbb 6bb7 9ebc cebb 8abc
000001b0: cbe0 b83d 6532 7f3c ee96 c8bd e85e 7cbd
000001c0: 37af cdbc de61 5b3d 74c3 84bd 77d0 b03d
000001d0: 94b2 aabc 552d 7abc 42b1 af3d 3964 543d
000001e0: 3f43 a43d 51a9 913d 18e8 b1bc 13b7 adbd
000001f0: 6387 7cbc 8fbf af3d 0b5d 5fbd 78f7 9bbd
00000200: 0fcb 853d ca7d e33d 5462 22bd e29c f5bd
00000210: 7538 0bbe 1c6c d73c 5a09 2f3c d484 59bd
00000220: 2103 f23c e5d2 ee3c 0d7a 8e3d 8903 cb3d
00000230: 97bb 1bbd edef a0bd 8265 dfbd 5c95 be3d
00000240: 21a4 a03d fdb5 803d a83e e6bd 1409 c43d
00000250: 0c41 193e de10 883d f030 cabd ccd7 54bd
00000260: db83 bcbd b5b0 b53d c693 e7bd a014 94bd
00000270: 54f0 9a3d f1bd 40bd 5fce 64bd 28f3 9cbb
00000280: 2b1f 643b ec22 c3bd 6db3 ab3d 064d 75bd
00000290: 4f2d 1d3d 040f e33d 0b95 0b3d 5826 85bc
000002a0: 5582 bf3d cc53 86bc 10a9 95bd d458 d23d
000002b0: 6342 183d 2ff6 d6bd e05e aabc 04ac 7cbd
000002c0: 4429 e33d 1493 58bc e174 d2bd 2f44 783b
000002d0: c342 8c3d 1916 1c3d a78e 373d a5a8 4c3c
000002e0: ec43 423d 43bb 09bc 82d2 0cbd 2f8e cebd
000002f0: cd20 9bbd 4d10 3b3d 0497 95bd 5119 093d
00000300: 9355 073d d740 513c 6fd6 8abd 22e2 033e
00000310: a746 59bd 1bd3 e53d cd25 ecbd a08b 66bd
00000320: 856f 473d 724f c23a b14e d33d 462c acbd
00000330: e8ff bcbd e3b6 72bd 7654 52bc 6de0 f93d
00000340: 3267 0bbe 0bb3 9dbc 27bb f7bc 5821 adbc
00000350: e6fd 8d3d d32f a8bd 7d52 a03c b2bb f33d
00000360: 4c86 3cbd c742 d53d 2187 f5bc dc50 bf3d
00000370: 7e32 edbd 8ff8 efba a65d ebbc 502a 1a3d
00000380: 53dd 4f3c 3306 b33d 7662 e1bc 7e3c b9bb
00000390: af3a 1d3d 1e28 5ebd a989 9c3d 75a8 1fbe
000003a0: b1f7 94bd b4c4 e9bc 43be 063d 56f6 b13d
000003b0: a638 383c 2baf b8bd ffb7 4e3d 62b3 c63c
000003c0: 2083 1b3d 089c 27bd 3984 5f3d 6e78 d03d
000003d0: 3659 193d 88c5 00be 314a 863d d922 08be
000003e0: 63b7 cd3c 7960 b13c 00cf 47bd d4e3 113d
000003f0: a428 abbd c01f e43c d296 87bd 0f6b 9cbc
0.09702621 0.10322103 0.1442724 0.07391075 -0.06510678 0.09863982 0.02524579 0.09030719
-0.07470304 -0.0076543503 -0.12842755 -0.065894544 0.0034109761 -0.14133239 0.04438425 0.1013117
-0.0007694098 -0.07358165 -0.08074588 -0.03316451 0.04987536 0.12221181 0.06329895 -0.01212321
0.041769825 -0.11364796 -0.10093174 0.050684907 -0.06809587 0.059798136 -0.08665955 -0.05737711
-0.09571417 0.060291216 -0.015096753 0.08956001 0.092159614 0.06523602 0.001061063 -0.0358049
-0.025651975 0.023677208 0.054890722 -0.052905094 0.016227808 -0.043956734 -0.09711285 -0.044672024
0.12031132 0.116618 -0.14728288 0.03289914 0.06948365 0.051317975 0.12696365 -0.038941205
0.04165796 0.04066341 -0.03148497 0.038925987 -0.008192394 0.101941496 -0.11354652 -0.024625476
0.034967013 0.039386954 -0.05419544 0.012170483 0.09304615 -0.025358528 0.010396599 -0.049170353
0.044419117 -0.11544206 -0.04178388 -0.07746701 0.030901406 -0.122045115 -0.05849655 -0.09680923
0.06511726 0.068891965 -0.08292682 -0.08295093 -0.10273485 -0.012918564 -0.052185483 -0.024000745
-0.087459125 0.0028664996 -0.046020243 -0.007925979 -0.0832089 -0.113581866 0.035868727 0.10867695
-0.069688275 0.016333982 -0.018572742 0.12394152 -0.102093495 -0.0996814 0.12242157 -0.059725594
0.033081267 -0.0023856333 -0.01937457 -0.016935255 0.09027251 0.01557598 -0.097944126 -0.061613947
-0.025107963 0.05356013 -0.06482592 0.086335115 -0.020837106 -0.015269597 0.08578731 0.051853392
0.08020639 0.07112373 -0.021717116 -0.08482184 -0.015413138 0.08581459 -0.054532092 -0.0761556
0.06532871 0.11107977 -0.039644554 -0.11992814 -0.13595755 0.026296668 0.010683382 -0.05310519
0.029542508 0.029153297 0.06956873 0.09912784 -0.038020696 -0.07858262 -0.10908033 0.09305832
0.07843805 0.062847115 -0.112424195 0.09572044 0.1496622 0.06643842 -0.09872615 -0.051963612
-0.09204837 0.08871595 -0.113074824 -0.072304964 0.0756537 -0.047056142 -0.055860873 -0.0047897287
0.0034808617 -0.09528145 0.08383832 -0.05988791 0.038373288 0.110868484 0.034077685 -0.016253635
0.09351031 -0.01639738 -0.07307637 0.10270849 0.037172686 -0.104961745 -0.020797193 -0.061687484
0.11091855 -0.01321866 -0.10276199 0.0037882437 0.06848671 0.03810701 0.04481378 0.01249138
0.047428057 -0.008406463 -0.034380443 -0.10085713 -0.07574616 0.045669843 -0.073041946 0.03347141
0.033040594 0.012771807 -0.06779181 0.12879232 -0.053045895 0.11221906 -0.115306474 -0.0562855
0.048690338 0.0014824702 0.103177436 -0.08406882 -0.09228498 -0.059256446 -0.01283752 0.12201009
-0.13613585 -0.019250413 -0.030240608 -0.021134064 0.06933193 -0.08212247 0.019570583 0.119010344
-0.046026513 0.104131274 -0.029971661 0.093415946 -0.11581896 -0.0018308329 -0.028731178 0.03763801
0.012687045 0.08741417 -0.02751277 -0.005652963 0.038386043 -0.054237477 0.07643444 -0.15591605
-0.07273806 -0.028536178 0.03289629 0.08689563 0.011243975 -0.09017786 0.05046844 0.024255458
0.037966847 -0.040920287 0.054569457 0.1017922 0.037438594 -0.12575352 0.0655712 -0.13294543
0.02511186 0.021652447 -0.048781395 0.035617664 -0.08357361 0.02784717 -0.066205636 -0.019094018

bias f4 [128]
00000000: dc53 323d 0ee3 a23c 1be8 b53d 5b8c 283d
00000010: c5d0 ecbd 2cdf 513d 0462 d03d 1a67 4fbd
00000020: 7f03 b33d 3873 993d f426 06bd 35ab f6bb
00000030: 50b4 963b 37d9 f93d 8d81 d83c 14e8 833d
00000040: a279 d5bd 32d7 2bbd 3f8e 88bd 9198 ae3c
00000050: f97b 2fbd 6b79 be3c 699e 673d 539f d7bc
00000060: 5394 283c 0eaa b6bd 52ea bbbc 51b8 a13c
00000070: 288a 9b3d c85a e33c e86f c43c 64ae 533d
00000080: 8d69 c73d 96fb beb9 b25d e93d 3a71 8fbd
00000090: 03f2 d43c be1f 4d3b e416 b33d 7712 04be
000000a0: 7027 323d 21ea e0bd a811 22bd bc93 09bd
000000b0: daa3 223b cf71 82bd 0718 afbd 8008 ddbd
000000c0: 20ee 8dbc bd31 c93d 05fd 0bbc 2144 a4bd
000000d0: 288a 1abd a704 d9bd ccea 203c 3e45 c93d
000000e0: 6dc5 ebbd 428e 863d 74c6 ac3d 735d a03d
000000f0: 8a60 82bd 243a 5b3c e853 413d 8ae6 cfbd
00000100: e755 be3d 2fa8 dbbb 8daf cbbd d3fe eebc
00000110: 7c04 c9b7 a16d 1dbd 0acd 27bd ed56 2fb8
00000120: 172c 3d3d f885 b338 da97 07be ec72 24bc
00000130: b824 163d f4a7 c03d a5bf 453d f607 7f3d
00000140: a966 313d c9aa c5bb a994 81bd 04bb 33bd
00000150: 4ab3 033d cbd0 aabc 85e7 bd3d 53b9 9abd
00000160: 4a3e 493d aec2 8e3d 12c4 a33d af83 bd3d
00000170: c97c 75bd 09be 503d 462a fabd 2cf9 66bd
00000180: 6081 53b8 df31 dd3d 9ccb babc 7e69 c9bd
00000190: f40b cfbd 4409 9ebb 8ec7 7f3b 81a9 c13c
000001a0: dd7c fdbc ce06 503d a650 643c 797a cabc
000001b0: b056 713d 52b6 9bbd 2bc2 72bd e379 03ba
000001c0: 3d62 0bbd 3a0b d6bb 88c8 1cbd 348f 563d
000001d0: 89b6 e43d f5fa bb3d 6796 1d3d 94d5 8bbd
000001e0: 2384 1dbd 9afa 69bd 1f4a 98bc 6f75 79bd
000001f0: c68e 8d3d e8ff fbbd c64a 363c f219 963d
0.043537006 0.019883659 0.08882161 0.04114948 -0.11563257 0.051238224 0.10174945 -0.050635435
0.08740901 0.07492679 -0.032751992 -0.0075277337 0.0045991316 0.121996336 0.026428962 0.0644075
-0.1042359 -0.041953273 -0.06667756 0.021312984 -0.04284284 0.023251256 0.056547556 -0.026321089
0.0102892695 -0.08919154 -0.022938881 0.01974121 0.075947106 0.027753249 0.023979142 0.051679984
0.09736929 -0.0003642707 0.11394824 -0.07004018 0.025994306 0.0031299437 0.087446004 -0.12897669
0.04349464 -0.109821565 -0.03956762 -0.033588156 0.0024816901 -0.063693635 -0.08549505 -0.10792637
-0.01732546 0.0982394 -0.008544211 -0.08020807 -0.037729412 -0.105965905 0.009821605 0.0982766
-0.11512265 0.06570102 0.084362894 0.07830324 -0.063660696 0.013380561 0.04719916 -0.10151394
0.09293728 -0.0067033987 -0.09945593 -0.029174244 -2.3963155e-05 -0.03843463 -0.040967025 -4.1804207e-05
0.046184625 8.560339e-05 -0.1324152 -0.010037165 0.03665611 0.094070345 0.04827847 0.06226345
0.043310795 -0.006032322 -0.06327183 -0.043879524 0.032153405 -0.020851513 0.092726745 -0.07554879
0.04913167 0.06970726 0.07996382 0.09253632 -0.059933458 0.05096248 -0.12215094 -0.056389973
-5.042681e-05 0.10800528 -0.022802167 -0.09834574 -0.10109702 -0.004822882 0.0039028856 0.023640396
-0.030943329 0.05078774 0.013935244 -0.024716603 0.058920562 -0.07603134 -0.059267204 -0.0005015416
-0.034029234 -0.0065321 -0.03827718 0.052382663 0.11167628 0.09178726 0.038473513 -0.06827846
-0.038456094 -0.057123758 -0.018590031 -0.06090301 0.069119975 -0.123046696 0.011126226 0.073291674

weight f4 [128, 128]
00000000: 37c2 89bd bc29 67bc c544 883d 6f76 8cbc
00000010: 3789 02bd 877d 533d 1e00 64bd 36d0 d53d
00000020: e1e8 993d a6f7 c23b b4d8 9d3c 0a03 60bd
00000030: 2dc2 77bc 5c07 153d 6088 a9bc 3489 503b
00000040: d66c 0f3d a28b bf3d 88e9 703d cde6 b63d
00000050: 161d c23c 914d 5dbd ab3c 83bd a3ab 8a3d
00000060: 27a0 3e3d 4a85 b63d 942c 4bbd b421 9e3d
00000070: ee69 d4bc abb8 193d f8fc 973d 4912 83bd
00000080: 56d7 90bd 854f 2b39 ab5c 4bbd d66f 383d
00000090: d0d1 903d 4018 c33d 5741 50bd b431 d5bc
000000a0: 6929 8f3c 54f6 7eba cb30 85bd e3d5 533c
000000b0: 9af3 383d 5444 973d eb1a a5ba 22cc 07bd
000000c0: 97c7 4ebd 8eae 883d 40b9 d13d 7a5f ad3d
000000d0: 6d22 903d 081c 3bbd 8f5d fc3d 7ef8 88bc
000000e0: 6523 9b3c ed15 a73d bda9 1e3d 2862 37bd
000000f0: 8d8e c8bb 78f2 23bd eba8 83bd 4b13 883d
00000100: 3796 1cbd 4f26 6cbd 907f 253d fd52 c8bd
00000110: 9007 083d d063 963d 2746 c6bc 3451 04bd
00000120: 6682 92bd 5a2b 64a2 1fde 39bc d285 e43d
00000130: 77c2 1f3d edbc a1bc eb00 63bc 222a 89bd
00000140: 1b8d 5e3d d41e 083e 4af2 fc3c b684 b7bc
00000150: 0c2d 66bc 6160 23bd dc1c d03d 8482 523d
00000160: f105 443d e5b9 7cbd d61f 0b3d 3895 193d
00000170: aed4 6c3c 6d62 a3bc 5759 3bbd cb84 e13d
00000180: 9a5d 87bb 2734 353e b252 c33c 74e7 a53d
00000190: ced4 e3bc ce72 9e3c b020 95bd 6b74 f1bc
000001a0: 5d6b fb3c 7ce1 1dbd d19c bcbd eb6e ac3a
000001b0: d37b e0bc 0a55 69bd ebd2 45bd 5fe6 b0bb
000001c0: 0f4b afbd a062 6bbd 2d3a 24bd b4a9 91bd
000001d0: e82a f4bc 4836 853d 3b44 f4bc 6266 ab39
000001e0: f79c 043c 05ef c43c 9ada 4a3d 904d a1bd
000001f0: 44e7 103d 147d 873d 5ead 433d bf04 afbd
00000200: 2d5d 163c d0a4 0f3c 2f5b 7bbd 92c7 5f3d
00000210: 6ba6 e7bc d19d 9a3d 38c5 e0bc 5dab 90bc
00000220: 6dae 173d f6ca be3c 09fe a43d a07d 4c3d
00000230: 6ab1 ef3d 910b 82bd a533 fa3c b802 003a
00000240: fd24 9ebd c703 aabd d325 333d 2447 83bd
00000250: 58a8 89bd 5b7d 5cbd 7a8f aa3c 41d4 bb3c
00000260: f4e2 46bd d592 833d 4823 173d 1c6d 293d
00000270: 8e00 a4bd a333 9ebd d05c 60bd adbb 82bc
00000280: 39a6 7cbd 00c9 ac38 6806 c3bb 7bf0 17bd
00000290: 2977 a73d ca91 7cbb b3fb 8e3d 1d38 17bd
000002a0: dd6d 8ebc f518 78bd c4f4 7bbd 72ca bc3d
000002b0: 7c4f 73bd cf68 5f3d 3e6e 393d 346c 8c3d
000002c0: 2d33 693d 348f a73d 1a54 9c3c bb81 003c
000002d0: 5e34 21bc 9d4e adbd 3a93 833c bc63 a1bc
000002e0: 28b0 3f3d bed6 83bd 6016 a43d b6c8 b53b
000002f0: 6359 da3d e065 d73d 0784 fb3c 2091 c9bb
00000300: 8e07 523d d238 d5bc 49b0 923d 3771 a73d
00000310: 0103 cc3c fbae 903b d97e d53c 07b4 5e3d
00000320: f8da b13c 0675 dab7 2894 9cbc fa66 eabd
00000330: 639c 1f3d 24c2 c6bd 4fcb c53c 0f1d 8d3c
00000340: 30e9 363d 1520 4dbd e808 c4bc 7091 0e3d
00000350: caa4 e9bc 70cc 16bd ade3 cbbc 57a7 03bd
00000360: 84fa 8d2b e6d5 fd3c 74c2 a0bc cc05 0e3c
00000370: 7a16 a13c e8db cd3c af3b 5abd d232 283c
00000380: c5da b93d 1621 1abd 148d 1dbd d53f d63b
00000390: fdfc 9dbd 3deb 97bd 7262 d43d 54f4 643d
000003a0: ae6e 6a3d e241 f03d 6856 643d 22a7 383d
000003b0: 222e 04bd 5bc1 c0bc c1d4 b3bb b302 c3b8
000003c0: 5caa d93d 5046 adbd 75e3 f53d 4043 99bc
000003d0: 5c70 08ba 8e44 bc3d ceea adbd a56d b5b5
000003e0: 7ea3 2e3d 6b5d 1fbd 2a30 313d ac66 b43d
000003f0: ec25 7c3d fb2d 743d 41ee 3c3c 36ca 493d
-0.06726497 -0.014109071 0.06653742 -0.017146317 -0.03186914 0.051633384 -0.055664174 0.10440104
0.07515121 0.005949932 0.019268371 -0.0546904 -0.015121979 0.03638397 -0.020694911 0.003182006
0.035015903 0.09352805 0.058816463 0.089307405 0.02369551 -0.05402905 -0.06408056 0.06771018
0.046539452 0.089121416 -0.04960306 0.07721272 -0.025929417 0.03752963 0.07421297 -0.06399972
-0.07072322 0.00016337454 -0.049648922 0.04502853 0.070712686 0.0952611 -0.050843563 -0.026024677
0.0174758 -0.0009726037 -0.06503447 0.012929413 0.04515419 0.073860794 -0.0012596523 -0.03315366
-0.050483312 0.06673919 0.10240412 0.08465476 0.07037816 -0.04568103 0.123225324 -0.016720053
0.018937776 0.08158479 0.038736094 -0.044771343 -0.006120509 -0.040026158 -0.06428703 0.06644305
-0.038229194 -0.05765372 0.040404856 -0.09781454 0.033210337 0.073432565 -0.024203373 -0.032304004
-0.07153778 -3.0922712e-18 -0.011344462 0.11158337 0.039003816 -0.019743407 -0.013855199 -0.06697489
0.054333787 0.1329301 0.030877251 -0.022402149 -0.014048826 -0.039886836 0.101617545 0.051394
0.04785723 -0.06170072 0.033965908 0.03749582 0.014455004 -0.019944394 -0.045739498 0.110116564
-0.004131031 0.17695676 0.023843143 0.08100787 -0.027811434 0.019341853 -0.07281625 -0.029474458
0.030690843 -0.038545117 -0.09209598 0.0013155615 -0.027402794 -0.056965865 -0.04829685 -0.005398556
-0.08559238 -0.057467103 -0.040094543 -0.071124464 -0.029805616 0.06504494 -0.029817691 0.00032691943
0.008094064 0.024039755 0.04952488 -0.07876122 0.035376802 0.06615654 0.047772758 -0.08545827
0.009177488 0.008767322 -0.061366256 0.054633684 -0.028277596 0.07549632 -0.027437791 -0.017659837
0.03703158 0.023290139 0.08056266 0.049924493 0.11703761 -0.06349862 0.030542204 0.00048832176
-0.07721899 -0.08301502 0.043737244 -0.06410053 -0.06721562 -0.053830486 0.020820368 0.022928359
-0.048556283 0.0642449 0.03689888 0.04136382 -0.08007918 -0.07724693 -0.054776013 -0.015958631
-0.06168196 8.239038e-05 -0.0059516914 -0.037094574 0.08177025 -0.0038539045 0.069816016 -0.03691875
-0.017386371 -0.060570676 -0.061512724 0.09218301 -0.059401974 0.054543313 0.04527115 0.068565756
0.05693357 0.08181611 0.019083072 0.00784343 -0.0098391455 -0.0846226 0.016061414 -0.019700877
0.046798855 -0.06437443 0.0801208 0.0055476082 0.106615804 0.10517478 0.030702604 -0.0061513335
0.051276736 -0.02602807 0.0716253 0.08175891 0.024903776 0.0044153905 0.026061462 0.054370906
0.021710858 -2.6042118e-05 -0.019113615 -0.114454225 0.0389675 -0.09704998 0.024144797 0.01722577
0.04465598 -0.050079424 -0.023930028 0.03480667 -0.02852096 -0.03681606 -0.024888838 -0.03214201
1.0088185e-12 0.030985784 -0.019623972 0.008668374 0.019664038 0.025129274 -0.053279575 0.010266023
0.0907493 -0.03762921 -0.03846462 0.006538371 -0.07714269 -0.07417915 0.103703395 0.055897072
0.05723446 0.11731316 0.055746466 0.045081265 -0.03227056 -0.0235297 -0.0054880087 -9.298827e-05
0.106281966 -0.08460677 0.120062746 -0.018708825 -0.0005204731 0.09192763 -0.08492051 -1.3517462e-06
0.042636387 -0.03890745 0.043258823 0.088086456 0.061559603 0.059614163 0.0115314135 0.04926511

bias f4 [128]
00000000: f47e 60bd 9f3b 063d cf5d 80bc 8e3c 793d
00000010: 7fdd 10bd 7de1 bcbc 089f d53c 2847 ab3d
00000020: c8ec b6bd 9437 5abd 94fe 37bd a425 c03c
00000030: 9147 8d3d 9958 763c 2bb9 183c e6d7 5d3d
00000040: 0e18 43bd fa22 ac3d 300f c63d 792e 80bd
00000050: a19a d4bb e54d ed3c 3275 60bd a0e8 cebc
00000060: 139f 8d3d b78a 603d 5ebc 81bd 4205 3d3d
00000070: 8be7 39bd 8398 30bc 09bc c2bd ba1b 96bd
00000080: 4961 2e3b 4904 68bd 139c 5ebd ba02 4d3d
00000090: a81e 813d 687f 8bbd 19f9 8d3d 8ab3 bd3d
000000a0: 13f1 d2bc 1b8e ce3c 247b 9fbc aabf a73b
000000b0: b128 ebbc 8ca2 c63c a0cb bb3d fb02 cbbc
000000c0: f1da eebc 081f a43d 2c34 8f3d 3ebc 77bd
000000d0: ca9f a33d f2f7 f13a ede4 df3c 40d8 b53c
000000e0: 5021 12bc 9707 78bd 43d2 343c ff2b 61bd
000000f0: 65b0 8cbc e6fa 533d 57a8 a53d 68d2 4ebd
00000100: 48ab 293d 9f9e feb9 af90 ee3a 437f 823d
00000110: 0e56 2abd 6ad2 243d c594 c33c 8942 1c3d
00000120: 860f 41bd feb8 613c 34c5 94bd 8bba 033d
00000130: 28e3 f4bc e0e2 173d c0fa 7c3d 8741 883c
00000140: 7253 83bd 9556 6bbd cbe5 243c 38af b6bd
00000150: 4075 0d3d 82a2 83bc e5fc 83bd 9a38 5f3d
00000160: c370 223c 8bdb ac3d fff6 d2ba fcee 263d
00000170: e2f2 493d ad23 ed3c a4fe 18bd a612 97bd
00000180: c04a 8aba 081c a43d ab3a 673d 361e 13bd
00000190: 0999 26bd a8a5 933d e9fc 553d 3e8e 263d
000001a0: 4131 97bd 10af babd 8759 823d 0848 ab3d
000001b0: d120 9f3d fcab 383d aa26 d5bc 9f0e 823a
000001c0: 5808 ab3d d9db feba ae38 7dbd e90c 493d
000001d0: 75c8 5dbd 8bc8 ad3c 3a40 2dbd b606 87bc
000001e0: d233 163d 19b6 48bd 3135 f03b f8cd 8fbd
000001f0: 2693 203c 7c5b 09bd c6ac 1f3d 0d24 7e3d
-0.054808572 0.032771703 -0.015669731 0.060848765 -0.035367485 -0.02305674 0.026076809 0.08363181
-0.08931881 -0.05327566 -0.04492052 0.023455448 0.06898416 0.015035772 0.009321491 0.054160975
-0.047630362 0.08405109 0.096708655 -0.06258864 -0.0064881598 0.028967807 -0.054799266 -0.025257409
0.069151066 0.05481979 -0.06334756 0.046147592 -0.045386832 -0.010778549 -0.09508521 -0.07329507
0.002660828 -0.05664471 -0.054348063 0.05005143 0.06304675 -0.0681141 0.06932277 0.0926276
-0.025749719 0.025214246 -0.019467898 0.0051192837 -0.028705927 0.02424743 0.09169698 -0.024781695
-0.029157134 0.08013731 0.06992373 -0.060482256 0.07989462 0.0018460734 0.02733084 0.022197843
-0.008919075 -0.060554113 0.011036458 -0.0549736 -0.017173955 0.051752947 0.08088749 -0.050493628
0.041423112 -0.00048564837 0.0018201078 0.063719295 -0.041585974 0.04023973 0.02387465 0.03814939
-0.047133945 0.013777016 -0.07264176 0.032160323 -0.029893473 0.0370816 0.06176257 0.016632808
-0.064124 -0.057455618 0.010064553 -0.08920139 0.034535646 -0.0160687 -0.0644472 0.05449734
0.00991458 0.08440312 -0.0016095339 0.040755257 0.049303897 0.028947676 -0.03735222 -0.07376604
-0.0010550842 0.08013159 0.056452435 -0.035917483 -0.04067329 0.07209331 0.052243147 0.040662996
-0.07382441 -0.09115422 0.06364732 0.08363348 0.07769931 0.045085892 -0.026019413 0.000992257
0.08351201 -0.0019444182 -0.061821632 0.049084578 -0.05414625 0.02121379 -0.04229758 -0.016482692
0.036670513 -0.049001787 0.0073305597 -0.07021707 0.009800708 -0.033534512 0.03898313 0.0620461

weight f4 [128, 128]
00000000: b8d6 7fbd 1224 e23d 493c 8bbc 7036 803d
00000010: 9ada 2c3b 39be 5ebd f029 8ebd aa45 be3d
00000020: 13b4 52bd 8444 9ebd 67eb 9fbc 4e05 93bd
00000030: d4e3 8cbb df21 743c 9fa9 1cbc f174 faba
00000040: 8854 87bd 6edd d33d 2bfc 6ebd 6c20 9dbd
00000050: d7df 8a3d ba40 8fbd bc84 2abd 331e ccbd
00000060: d600 2d3d d406 3a3c 97b7 7b3d 0683 173d
00000070: e539 22bd 0409 ea3c 26c1 193d 70b9 963d
00000080: 94e7 9bbd 7a6b 8c3d 99aa 2bbd e836 11bd
00000090: 4cbd a73c 7352 f73c 9d10 193d de69 dd3d
000000a0: 81b1 bc3c ecbc 8d3d 38fb df3c 7234 e5bd
000000b0: 637d 32bc 0b7a 043c 4da6 d03d 0e52 823d
000000c0: 013f ed3c 114f 5fbd 5450 77bd 8426 2bbd
000000d0: 33aa 94bd 4cf5 58bd 885f af3d 837e 313d
000000e0: dedb 9c3c f1a6 993d c1a3 81bd 87cd b43d
000000f0: 2364 b3bd a222 493c 9c1e 9d3a e171 f13c
00000100: 4baa 233d 9412 943d 37e0 b036 b348 8fbd
00000110: 5ad7 5f3d edda 8d3c 7906 4e3d cf28 99bd
00000120: 6e76 fbbd 13f5 7a3d 45e0 2e3d f683 11bd
00000130: c4d2 e43c 2122 c83c 79c8 44bc 14f2 62bd
00000140: b9aa dcbd d6ae 623b dc91 9c3d 6b8b c33d
00000150: 8d6b 7fbd 883a e33d d6be 3c3c 0f04 ea3c
00000160: 238e 41bd 7c71 f8bb 7b4f 57bc d978 053d
00000170: e0b5 033c f358 88bc 8585 1dbc 5227 3b3d
00000180: 02ac 41bd 5569 673d 8498 a7bc fe03 923d
00000190: c9b2 93bd f615 523d 7352 9f3d 1a8d 69bd
000001a0: 790b 1f3d 1cb2 4f3d 5379 c33c 91f7 cd3d
000001b0: b825 b3bd f310 773d 5f05 59bd c4d1 65bc
000001c0: d132 303d b0a0 0ebd 5d1d bcbc 5864 6c3d
000001d0: a500 1b3d 220f 52bd 9f99 4abd 0666 e43c
000001e0: 4675 3fbc 6bc2 4bbd 41ca 0f3d 6955 0b3d
000001f0: db7f 633d b374 143d a36a 7e3d d6d0 cabb
00000200: 69db 1e3d fed3 493c 0ef8 143d 7a87 eebc
00000210: c519 a6bd f1d5 563c 3749 f03c fb3a c83d
00000220: 0d79 98bd 0d32 0bbb e464 873d 3b9e 3ebc
00000230: b4b9 cebc bedf 2a3d 596c 093d 2644 673d
00000240: a1ee 7d3d bee6 1e3d 8c76 df3c 57c8 2abd
00000250: efa0 1ebd 4499 9b3d 258b 3ebd 11d2 8c3d
00000260: bbc5 343c aef3 9a3c 0c2a f0bc ca64 66bd
00000270: 4455 a73a 0835 7f3d d468 01bd 64ad e3bc
00000280: a6a2 d7bd 4517 3d3c 4368 0d3d 0126 223b
00000290: c13d d73d aa59 5e3c e68d 403c e650 9b3a
000002a0: 3a5f b6bb 4013 eb3c 4d1d c53c e4a1 dcbd
000002b0: 7d0a 93bd 3eb8 cd3d 760b 1c3a 135e b0bd
000002c0: c90f 2e3a c269 253d 56ac cabd 18e1 423c
000002d0: dbd7 b8bd 2866 92bc 12fa d73d 0b7e 563b
000002e0: 7c9d 7ebd 1e78 df3c c2d5 e8bd 9b73 023d
000002f0: f311 6abd 7e3a 6a3d 2180 953d b05a 3dbd
00000300: 82e1 a93d 603d 2b3d a7b2 7c3a 12af 74bd
00000310: fa63 3f3d 9633 343d 4595 48bd 0812 84bd
00000320: e6d7 273d fab8 383d 2786 a4bd 9283 6f3d
00000330: 327c bcbc 4488 14bc 2524 c3bd 672d e2bc
00000340: 816a 63bc 06ef fdbb b9cb 0b3d a8a8 083d
00000350: a6e8 1bbc 98c5 693d 1f4c 383d ea26 aebd
00000360: 5b62 733d 174d 85bd 5e58 91bc 1073 3c3c
00000370: be11 9bbd 9031 a1bd af89 7a3d 3769 16bc
00000380: 2ff1 ee3c 5692 0fbd 27b6 4fbd e0ce 63bc
00000390: 1d19 2a3d e38d a23c 8370 92bd 08da 4e3d
000003a0: e1de f33c 22a1 77bb a109 71bc 16fb cfbc
000003b0: 7dab 1ebd 73b6 bcbd c0e0 a4bd fb0a 803d
000003c0: 103d 393d efa0 cc3d 69d6 afbc 63d3 a8bc
000003d0: e872 033d 9bf2 9abd 4785 6e3d f564 8fbb
000003e0: 369b ad3d c4da 90bc 4b3a 683d f3c7 b23d
000003f0: 6180 a53d a90d e43d a5a2 8f3d a411 933c
-0.06246063 0.11042036 -0.01699652 0.06260383 0.0026375414 -0.05438063 -0.06941593 0.09290631
-0.051441263 -0.07727912 -0.019521428 -0.07178746 -0.00429962 0.014900654 -0.009561925 -0.0019108338
-0.0660792 0.10344969 -0.058345955 -0.076721996 0.06780975 -0.069947675 -0.04163049 -0.099666975
0.042237125 0.011354167 0.06145438 0.036990188 -0.039605994 0.028568752 0.037537716 0.07359588
-0.076125294 0.06856437 -0.04191074 -0.035452753 0.020476006 0.030190682 0.03736936 0.10811208
0.02303386 0.069207996 0.02734147 -0.11191644 -0.010894152 0.008085738 0.10187969 0.06363307
0.028960707 -0.054518763 -0.06037934 -0.04178478 -0.072590254 -0.05296831 0.08563143 0.04333354
0.01914781 0.07502545 -0.06330062 0.08828264 -0.08759334 0.0122763235 0.0011987272 0.029473247
0.039957326 0.07230106 5.271311e-06 -0.06996288 0.054648735 0.017316306 0.05029914 -0.07478487
-0.12278448 0.061268877 0.04269435 -0.03552624 0.027932532 0.024430336 -0.012010687 -0.055406645
-0.1077475 0.0034589074 0.07645008 0.09548076 -0.062358428 0.11095148 0.011520108 0.028566388
-0.047254693 -0.0075818878 -0.013141508 0.032585952 0.008038968 -0.016643977 -0.009614353 0.045691796
-0.04728318 0.056496937 -0.020458467 0.07129668 -0.07211835 0.051290475 0.07779398 -0.05701933
0.0388293 0.050706968 0.023861563 0.10056985 -0.08747429 0.0603189 -0.052983638 -0.014027063
0.043017212 -0.034821212 -0.02296322 0.057712883 0.03784241 -0.051283963 -0.04946291 0.02788068
-0.011685675 -0.04974596 0.035104994 0.034017 0.055541854 0.036244106 0.062113415 -0.006189446
0.038783465 0.012318609 0.036369376 -0.029117335 -0.08110384 0.013112531 0.029331787 0.09776875
-0.074449636 -0.002123955 0.0661104 -0.011634405 -0.025235035 0.041717283 0.033550594 0.056461476
0.061995152 0.03879427 0.027278207 -0.041694965 -0.038727697 0.075975925 -0.046519417 0.068760045
0.011033471 0.018915024 -0.029316925 -0.056248464 0.00127665 0.062306434 -0.031594113 -0.02779264
-0.105290696 0.011541192 0.03452326 0.002474189 0.105098255 0.013571182 0.011752581 0.0011849671
-0.005565551 0.028695703 0.024061823 -0.10773066 -0.07179735 0.10044907 0.00059526355 -0.08611693
0.00066399254 0.04038406 -0.09896152 0.011894487 -0.09025546 -0.017870978 0.10545744 0.0032728936
-0.062161908 0.027278956 -0.11368896 0.03184853 -0.057146024 0.05718469 0.07299829 -0.046229064
0.08294965 0.04180658 0.00096396584 -0.059737273 0.046726204 0.04399451 -0.04897048 -0.06448752
0.04097738 0.045098282 -0.080334 0.058475085 -0.02300844 -0.009065691 -0.095283784 -0.02760954
-0.013880373 -0.007749441 0.034129832 0.033363968 -0.009515917 0.057073206 0.04499447 -0.08503516
0.05941997 -0.06508844 -0.017742332 0.011502042 -0.075717434 -0.078707814 0.06116646 -0.009180359
0.02916774 -0.035051666 -0.050710823 -0.013904303 0.041527856 0.019843047 -0.07150366 0.0505009
0.029769363 -0.0037785252 -0.014711768 -0.025388282 -0.038737763 -0.09214487 -0.0805068 0.06252094
0.04522425 0.09991633 -0.021464543 -0.02060861 0.032092005 -0.075658046 0.058232572 -0.0043760487
0.0847687 -0.01768244 0.056696218 0.087295435 0.08081127 0.11135418 0.07013444 0.017952748

bias f4 [128]
00000000: 7549 31bc a207 f23c 2ad4 a93d a0a9 aa3d
00000010: 87a2 013d bb77 9a3d 9bc4 15bd dade 953c
00000020: 7b5c 563d 334c a7bd dbc0 adbd 72e3 95bd
00000030: fc88 9dbd 201e dc3c 9324 cdbb 55bd f5bb
00000040: 8721 02bd 0f24 90bd 4c10 5fbd 09a6 b53d
00000050: c035 b0bc 0fab 293c f2fd 0fbd a230 05bd
00000060: a9fd 8b3d 3c4b 543b b84e 533c af8e 543d
00000070: 2368 d9bb 248b ff3c cb38 61bd 1e5e 453d
00000080: 90c8 7cbc ca15 2d3d f183 9abd e876 273c
00000090: f98b f23c 2a85 79bd e73d 8d3d 1bc6 f2bc
000000a0: d85b c8bc 0aef 923d 3d65 c5bc 0c03 993d
000000b0: 1e70 313d c555 233a 1ab9 ad3c da5f 63bd
000000c0: b917 26bd 0bd5 51bc b288 8d3d de22 923d
000000d0: 2a4c b83d 1d5a 1dbd 9c8b 80bd 1b85 873d
000000e0: 1cd8 543d 1e59 b73d 1f81 c63d c3ed 25bd
000000f0: 1f7f 853d 675d b03d 18f3 35bc c84f 77bd
00000100: a49e 1dbd 13f4 0cbd ef3d 5b3d b973 273c
00000110: 1cc1 dabb 2e70 4c3c 44e7 883d 07e3 db3c
00000120: 7948 27bd 8c4e 3b3d 27a6 3cbd 5eba 893d
00000130: d99e a9bd b938 083d c4d1 403d 9eed 6f3d
00000140: 5740 99bb c2c1 393d 80c4 a3bc fc84 c03d
00000150: cf17 b1bc a8b4 94bd b00c 8fbc 1b30 ca3c
00000160: 8dc6 563c 6629 7cbd 0d82 15bd f356 113d
00000170: 3a98 d13c 3c6b ae3d c3bc ebbb be13 db3c
00000180: 47cc 30bd 379d b1bd 392e 973b 8973 bcbc
00000190: 53d4 8e3d 00f6 54bd 566d 86bd 6cf9 3bbd
000001a0: 2355 dabb 2a13 653d c5b8 943d 5f4e 31bb
000001b0: 3906 123d 5f1f 743d c7e9 c2bc 590f 2ebd
000001c0: 6068 cb3c a7ee 3bbd 9b1b a83d ffa0 103d
000001d0: 64af 12bc b141 3ebc ec93 dd3a 7673 5f3c
000001e0: 2635 92bd 8990 6bbd d303 ccbb a4aa 15bd
000001f0: aa1e 7dbd c10e 693c 5ea0 693d 9904 5bbd
-0.010820736 0.029544655 0.0829242 0.08333135 0.03164914 0.07542368 -0.03656445 0.01829474
0.05233429 -0.08168831 -0.0848405 -0.073187724 -0.07692143 0.026869833 -0.0062604635 -0.007499377
-0.031770255 -0.07038128 -0.0544589 0.08869559 -0.021510005 0.010355725 -0.03515429 -0.032517083
0.06835491 0.0032393476 0.012897186 0.051893886 -0.0066347285 0.031194277 -0.054985803 0.04818546
-0.015428677 0.042257108 -0.07544697 0.010221221 0.02960776 -0.06091801 0.068965726 -0.02963548
-0.024457857 0.07174499 -0.024096126 0.07471284 0.043319814 0.0006230737 0.021206427 -0.055511333
-0.040549967 -0.012807141 0.06910838 0.07135557 0.08998902 -0.038416017 -0.062766284 0.06617185
0.05196391 0.08952545 0.09692597 -0.04050995 0.06518387 0.08611565 -0.011105321 -0.06037882
-0.03848137 -0.034412455 0.05352586 0.0102204615 -0.0066758525 0.012477918 0.066847354 0.026841654
-0.0408406 0.045729205 -0.046056893 0.06725 -0.08282251 0.03325722 0.047075048 0.05857622
-0.0046768594 0.045350797 -0.01999116 0.09400365 -0.021617798 -0.0726102 -0.017462105 0.024681142
0.013108862 -0.061562918 -0.03650098 0.03548331 0.025585283 0.08516547 -0.007194133 0.026742812
-0.043163564 -0.086725645 0.0046136645 -0.02300431 0.069740914 -0.051992416 -0.06563823 -0.045892164
-0.006662981 0.05592648 0.072618045 -0.002705477 0.035650466 0.05960023 -0.023793114 -0.042495105
0.024830043 -0.045881893 0.0820839 0.035309788 -0.008952949 -0.011612342 0.0016905046 0.013638368
-0.071390435 -0.057510886 -0.006226042 -0.03653969 -0.06179682 0.014224709 0.057037704 -0.05347118

weight f4 [128, 128]
00000000: ef39 393b 5087 3b3d e9ad bc3c 917d 013d
00000010: f592 a8bb 74a2 3bbd d301 943d b514 b8bc
00000020: ef03 ae39 94a7 4bbd 83d8 90bb ab84 a6bd
00000030: 1b55 81bc 66df 27bd a2db 2d3d 8879 4721
00000040: 30d3 1b3c 9578 21bd 470c c0bd 92b3 61bd
00000050: f8dd 093d 6fd6 a23d f9a7 7fbd ec4d 43bd
00000060: 0f72 f43c de29 8e3d d58b 91bd 66e5 56bd
00000070: be2f c9bd ef40 063d 4d27 a1bc 1155 fabc
00000080: e43a 4b3d 5f2d 7fbc f930 48bd 392a a1bd
00000090: 57b9 883d 60a3 efbb bde0 983c 21f3 bebc
000000a0: ffba 07bd 1dee 003d ba4d 613c 1f14 febb
000000b0: c604 8abd f42a cebc 6af6 89bc 5e83 543d
000000c0: c860 51bd 8957 8439 bf30 86bc 4a6f ac3d
000000d0: 201b ce3c 5e7c 663d e961 7ebd 32a8 213c
000000e0: 8551 95bb 638b 59bd b32d 093d c057 92bc
000000f0: a354 a73c 0f09 54bd 15b4 89ba e9d0 87bd
00000100: 4191 2abd b153 7e3d e599 8ebc 5b7a f6bc
00000110: 50de 70bd 74c1 17bd ddb8 c73c e77b 8a3d
00000120: 83f5 07bd 15c6 1b3d 72ac b8bb 7982 8f3c
00000130: cb58 053b ae8b 6fbd cbc5 773d 0460 8b3d
00000140: 4e42 8bbd c76c 22bd 7b59 81bd 11a7 b2bd
00000150: ffc1 2dbb 07e7 8abc 9565 503d 3ddc bebc
00000160: 62f5 adbd bee0 90bd 503d dbba 164c 8abc
00000170: 7dea 013d a11f a2bd b540 11bd 3fe4 6d3c
00000180: c1b4 fabb 931e 393c a005 d6bb 78a8 58bd
00000190: 34d2 903d d7d7 85bd 6f35 963d 3c45 a13d
000001a0: 0e6f 6a3d 1652 8a3d 2456 9b3b 162e 91bd
000001b0: 26c6 24bd 7b16 41bd fa1a a8bb 8823 783d
000001c0: b145 c13c 8413 0b3d d8d5 04bd 75d0 463d
000001d0: 3bad 68bc 5d09 7b3b 5bed 8bbc 181e a5bd
000001e0: f683 90bd d28c 753d 43cf 65bc 786c 343c
000001f0: 9dc8 85bd a1e2 d4bc cb0f 293b 218c 69bd
00000200: 0457 273d 77b1 723d 0f90 91bd 92dc fb3c
00000210: ba16 2e3d 297c 94bc 1f77 42bd 60af f4bc
00000220: c337 13bc abec a03d 1331 903d 3f4c 25bd
00000230: cedb 2f3c ec0b 823c 730f 093d 2f7f 4c39
00000240: 9901 00bd 32e0 84bc f033 7fbd 21a5 8d3d
00000250: 1189 4c3d fbe6 ad3c 0df9 983d 0cdc 7cbd
00000260: a5ad 36bd 0ff9 28bd eef0 0fbc 27bd 213d
00000270: 9274 863c a63e d5bc 02ab 82bd e84c 213c
00000280: 2d94 863d 4dc0 1abd 7889 a6bd 1a06 863d
00000290: a178 013d 3d71 953c 9f57 9bbb 2d5e 483d
000002a0: fdc1 9cbd 91fd d33c 8095 54bd 3694 b1bd
000002b0: 7887 96bd ebaf 9b3d c0bf 963d 069c 8fbd
000002c0: 140d 3ebd 06f5 7cbd 62d6 14bd 9bcf 0d3d
000002d0: b07a 58bd 36a0 a33d e0c9 32bd d948 053d
000002e0: b540 68bd b6cd 6ebd 2ec1 183d fefe 1337
000002f0: c81c 3c3d 5c38 87ba 6184 793d 0c68 b03c
00000300: aa1b 21bd 6551 b2bb 40ce 52bd fe9c dfbb
00000310: 459c c5bc 9709 a83c 4a6c ad3c a7f0 aebc
00000320: b84d 3a3c a094 c23c 49c3 fbbc c60a afbd
00000330: 2765 113c 9a6c d3bd a80b 833d af14 253c
00000340: 8711 893d 740d 48bd 4a1d 1fbd 3b79 55bd
00000350: 76c7 c1bb 8e76 783d 4e52 8d38 e8af 2abd
00000360: c34b 95bd 233f 8f3d 2e94 9bbb d75c 603d
00000370: 7441 bebd 3d9c f5bc 8dd4 0d3c d41b 663d
00000380: f603 86b2 27f3 97bc b449 bf3c 87d3 75bd
00000390: 4203 63b8 f325 f9bb b05c afbc 0aa5 28bb
000003a0: 8d74 69bd a599 303c e9f5 a0bd d2f4 fabc
000003b0: fbb6 a3bd e345 77bc d7d7 113d 3627 6b3d
000003c0: 3039 83bb f697 9cbc 71c1 aebd 39df 8ebc
000003d0: d2fb 9cbd 7c94 3e3d 3d03 593d 6801 1cba
000003e0: f2c1 df3a e165 f73c 1347 ccbc e4b8 7cbc
000003f0: 1736 963d 4a5e 9cbd e62c a73c 2d7e 93bd
0.002826329 0.04578334 0.023032146 0.03161389 -0.005144472 -0.045809224 0.072269104 -0.022470811
0.00033190797 -0.04972036 -0.0044203415 -0.08130773 -0.015787652 -0.040984534 0.042445786 6.758467e-19
0.0095108 -0.039421637 -0.09377342 -0.055102892 0.03365895 0.07951056 -0.06241605 -0.047681734
0.029839544 0.06941579 -0.07106749 -0.052464865 -0.09823559 0.03277677 -0.01967206 -0.030558141
0.04961671 -0.015574782 -0.04887483 -0.078693815 0.06675976 -0.007313177 0.018661851 -0.023309292
-0.033137318 0.031477083 0.013751442 -0.0077538635 -0.06739192 -0.025166966 -0.016841132 0.051883094
-0.05111769 0.0002524222 -0.016380666 0.08419664 0.025159419 0.05627095 -0.062105093 0.009866761
-0.004556837 -0.053111445 0.033490848 -0.017864108 0.0204261 -0.05176645 -0.0010505939 -0.06631643
-0.04164243 0.062091533 -0.017407367 -0.03008764 -0.058805764 -0.037049726 0.024380142 0.06761914
-0.033193123 0.038030703 -0.0056357915 0.017518269 0.0020347114 -0.05848282 0.060491364 0.06805423
-0.06799756 -0.03965452 -0.06315895 -0.08723272 -0.0026513336 -0.016955866 0.050878126 -0.023298377
-0.08494069 -0.07074116 -0.0016726647 -0.016881984 0.031717766 -0.07916189 -0.0354621 0.01451975
-0.007650942 0.011298793 -0.0065314323 -0.05289504 0.07071343 -0.06535309 0.073344104 0.078745335
0.057234816 0.06753938 0.0047404934 -0.07088868 -0.04022803 -0.04714058 -0.005130169 0.06058076
0.023592802 0.03395416 -0.0324305 0.048538644 -0.014201458 0.0038305141 -0.017080953 -0.080623806
-0.070564196 0.05994875 -0.014026466 0.011012189 -0.065324046 -0.025986971 0.0025796767 -0.057018403
0.04085447 0.059251275 -0.07107555 0.030744825 0.042502142 -0.01812561 -0.047476884 -0.029868782
-0.008985463 0.07857641 0.0704061 -0.040355917 0.010733558 0.015874825 0.033462 0.00019502336
-0.031251524 -0.016220186 -0.06230539 0.069162615 0.049935404 0.021228304 0.07469378 -0.06173329
-0.044599194 -0.041253146 -0.008785469 0.03948703 0.016413007 -0.02603085 -0.063802734 0.009844996
0.06571231 -0.03778105 -0.08131689 0.065441325 0.03160918 0.018242473 -0.00474067 0.048917938
-0.07654188 0.025877746 -0.051900387 -0.08670847 -0.07350057 0.07601913 0.07360792 -0.07012181
-0.04639919 -0.06175711 -0.036337264 0.034621816 -0.05285138 0.07989542 -0.043649554 0.032540176
-0.056702334 -0.05830165 0.037293606 8.821253e-06 0.045925885 -0.0010316479 0.060917262 0.021533988
-0.039333023 -0.005441832 -0.051466227 -0.006824135 -0.024122367 0.020512385 0.0211698 -0.021354986
0.011371069 0.02375251 -0.030732768 -0.08546977 0.008874214 -0.103234485 0.06398708 0.010075732
0.06692796 -0.048840955 -0.03884629 -0.052117568 -0.00591367 0.060659938 6.7387344e-05 -0.041671664
-0.07289841 0.06994464 -0.004747889 0.05477604 -0.09289828 -0.029981727 0.008656633 0.056178883
-1.5601454e-08 -0.018548561 0.023350574 -0.06001618 -5.412405e-05 -0.007603401 -0.021406502 -0.0025733137
-0.056995917 0.010778819 -0.07859404 -0.030634318 -0.07993885 -0.015092346 0.03560623 0.05741044
-0.00400462 -0.01911543 -0.0853299 -0.017440425 -0.076652184 0.046528324 0.052981604 -0.0005951137
0.001707135 0.030199947 -0.024936235 -0.015424941 0.073345356 -0.07635172 0.020407151 -0.072018005

bias f4 [128]
00000000: 772a 9ebd c6bd 8dbd 0a39 993d 9bd6 4dbd
00000010: a02c 7e3d f470 193c a63f b23d a124 f5bc
00000020: 1c0a 8b3d 108c f8bc 7b78 353d 7903 05bc
00000030: 57e4 abbd 3158 953d cf22 b33d 3bad 6e3d
00000040: 2dd3 15bd bc9f 0cbc 5c8e 5f3c 2100 49bd
00000050: 5639 3cbd 4dca 86bd 0ea2 2bbd a95f aabd
00000060: f4fc 87bc 27aa 05bb ebe5 62bd fe3c a5bd
00000070: 033c e7bc b05a 48bd d8cc b23d fcac 5c3d
00000080: c867 bdbc f569 54bd ed52 833d 5da7 363d
00000090: 4144 4d3d a005 d53a 500d e23c c365 c6bc
000000a0: c344 8bbd e9b3 a6bc be2e 5ebd 80ed ebbc
000000b0: 5f54 863d 3f92 d4bb 113e eebb 25f1 37bc
000000c0: 8207 a83c 9c36 353d fb76 ae3c 0477 9a3d
000000d0: de15 70bc 9d62 bc3d 9600 93bd e646 1dbd
000000e0: 68c5 9abd 4800 4a3d 45f8 29bc 5b9c 423d
000000f0: fe1c 40bc 4759 70bc a834 1c3d a5ee a7bc
00000100: 2c56 003d 4fc1 e4bc 1057 1dbb ae47 6abd
00000110: 95cd c43c 6ad6 21bb f9df b73d e872 21bd
00000120: 0286 6c3d a0c0 a43d 81ad 6ebd c24f f2bb
00000130: dbaf a23d 1e9a 57bc 72ba 673d 8dcc 6ebd
00000140: 402b 7d3d b2b4 323b 30f7 2a3b dbe4 06bd
00000150: b742 a6bd f305 203d 0396 bb3d 5eee a93d
00000160: d6f2 75bd 86c3 c23d f79a 91bd 7a04 813d
00000170: 5de9 053b 37a0 33bd 5393 293d 660a b93c
00000180: fc0a 4dbd e43a 02bd 043e 28bd 499b af3d
00000190: 5290 1a3d ecd2 383d 6c9c 473d 80c8 c73c
000001a0: da26 5bbd f9b5 3c3d f7a5 01bd 2cc1 3bbd
000001b0: 5f5a be3d 7643 893d a1cb 193d 6408 a43c
000001c0: 5cbc 983b 112c 5ebd 587f 09bd afc2 4dbd
000001d0: f331 72bd ff33 6fbd 3b8d b3bc d583 963d
000001e0: 8d94 a03d a69f 80bc d3a7 9f3d 29c1 9dbc
000001f0: aa3c b03d b839 7cbd ad6e 8abd c451 71bb
-0.07722943 -0.06920962 0.074815825 -0.05025349 0.062054276 0.009365309 0.08703546 -0.029924693
0.067890376 -0.030340225 0.044304352 -0.008118504 -0.08393162 0.07292212 0.087468736 0.058270674
-0.036578346 -0.0085830055 0.013644781 -0.04907239 -0.045953117 -0.065815546 -0.041902594 -0.08319027
-0.01660011 -0.0020395608 -0.055395048 -0.08068274 -0.028226858 -0.04891461 0.08730477 0.05387591
-0.023120776 -0.05185886 0.06412301 0.044593204 0.05011392 0.0016252287 0.027594239 -0.024218446
-0.06800225 -0.02034946 -0.054243796 -0.028799772 0.06559061 -0.0064871605 -0.0072705825 -0.011226927
0.020511393 0.044241533 0.021296969 0.07542232 -0.014653651 0.091984965 -0.07177846 -0.038397692
-0.075571835 0.049316674 -0.0103741335 0.047512393 -0.011725662 -0.014669723 0.038136154 -0.020499537
0.03133218 -0.027924208 -0.0024008192 -0.057197265 0.02402381 -0.002469445 0.08978266 -0.039416224
0.057744987 0.08044553 -0.058270935 -0.007394762 0.07943698 -0.013159303 0.056574292 -0.058300544
0.061808825 0.0027268347 0.0026087277 -0.032933097 -0.081181936 0.039068174 0.09159472 0.08297418
-0.06004604 0.095099494 -0.07109635 0.06299682 0.0020433285 -0.043853965 0.041400265 0.022587966
-0.050059304 -0.031794444 -0.041074768 0.0857454 0.03773529 0.045123026 0.04873316 0.024387598
-0.05350385 0.04607198 -0.031652417 -0.04583852 0.09294581 0.0670232 0.03754771 0.020023532
0.004661126 -0.054241244 -0.03356871 -0.050234493 -0.059129667 -0.058399197 -0.02191793 0.07349364
0.07840834 -0.015701126 0.07795682 -0.019257145 0.08605321 -0.061578482 -0.06759391 -0.0036822418
