models/agModels-predicttop10_votes/models/NeuralNetTorch_BAG_L1/S19F8/net.params (torch, 248949 bytes, 16 tensors)

weight f4 [6, 4]
000000 2a 32 98 bf 26 72 97 bf f7 c9 82 be 5e 96 c2 be
       -1.1890309 -1.183171 -0.25544712 -0.38005346
000010 29 52 66 3f e6 9f 25 3f 88 9e 9e be 00 a3 0e c0
       0.89969116 0.6469711 -0.30980325 -2.2286987
000020 59 08 fa 3e ee 83 63 be 2b c5 c7 3f 8f 2c 84 3e
       0.48834494 -0.22218296 1.5607046 0.25815246
000030 f4 16 f7 3d d3 df 6b 3f c5 b3 43 be 67 4d 5f bd
       0.12064925 0.92138404 -0.19111545 -0.054517176
000040 49 6a 7e 3f b3 83 a1 3f 45 c4 03 40 9d 57 6c 3d
       0.9938093 1.2618316 2.0588543 0.057700742
000050 f4 40 a0 3e 68 e2 0c be 18 43 05 bf f1 1f fc bf
       0.31299555 -0.13758242 -0.520555 -1.9697248

weight f4 [6, 4]
000000 40 22 4c be b3 08 45 bf 33 db 03 3f c2 1e 49 3e
       -0.1993494 -0.769664 0.51506346 0.1964064
000010 31 20 50 bd 3d 9c 2f bf fb 32 89 3f 02 c5 09 3f
       -0.05081195 -0.68597776 1.0718683 0.53816235
000020 ab 03 0a bf 86 49 6d 3f 94 1d 95 3f 91 cf ae 3f
       -0.53911847 0.9269031 1.1649652 1.3657094
000030 37 19 c2 bf 1f 1a 25 40 ce bd 08 bf a4 4d 97 3e
       -1.5163945 2.5797193 -0.5341462 0.29551423
000040 b2 c2 df bf 62 24 1f bf 64 1e 0d bf 15 d1 05 bf
       -1.7481291 -0.6216489 -0.551245 -0.5227216
000050 2b d7 3c bf 14 c3 48 3f 38 24 dc ba 46 64 f9 3e
       -0.7376582 0.78422666 -0.0016795462 0.48709315

weight f4 [6, 4]
000000 ca 36 78 bd eb 18 36 3f 57 27 55 bf 68 89 14 3d
       -0.060599126 0.7113177 -0.8326315 0.036263853
000010 a1 55 5f 3f b6 20 b2 be 70 28 8d 3f e4 04 d8 3e
       0.87240034 -0.3479058 1.1027966 0.4219123
000020 e3 02 99 3d 2d d2 8e 3f f2 70 94 3e 4f b3 e9 3e
       0.07471254 1.115789 0.2899242 0.45644614
000030 33 89 53 bf ac a7 a6 bf e5 42 46 bf 04 ca ad bf
       -0.82631224 -1.3019919 -0.7744582 -1.3577275
000040 e8 8a 42 3e 05 0f b7 be 09 e7 f5 be ad f9 86 3e
       0.18998301 -0.35753646 -0.48027828 0.26362363
000050 7d 1a f5 3e 9c 07 0a bc bf b6 d7 bd 8d 8c 60 bf
       0.4787177 -0.008424666 -0.10532903 -0.87714463

weight f4 [6, 4]
000000 b4 a5 2d bf 0e 5d 82 3f e8 51 29 bf 8f bb a1 bf
       -0.6783097 1.0184648 -0.66140604 -1.2635363
000010 b7 15 10 3d 66 8f 3b bf 8e a5 2c 3f 61 f5 47 bf
       0.03517696 -0.73265684 0.67440116 -0.78108793
000020 81 b7 85 be 11 6f c1 3d 02 30 83 3e 32 62 9e 3f
       -0.26116565 0.09445012 0.25622565 1.2373717
000030 ad 38 a6 3e c3 59 d7 3e 1e 27 5a be e3 27 dc bd
       0.32465115 0.4206067 -0.21303985 -0.10749795
000040 81 fa 52 3e b9 16 4d bf 32 94 fc bf 1c 49 30 3e
       0.20603372 -0.801128 -1.9732726 0.17215389
000050 55 b9 c8 be 50 07 8a 3d f6 19 62 3b 8f bf ee 3d
       -0.39203897 0.06739676 0.0034500337 0.11657631

weight f4 [6, 4]
000000 a3 4c 60 3f a9 69 85 bf 49 1e 72 3e b2 b3 e5 bd
       0.8761694 -1.042287 0.23644365 -0.11215915
000010 15 0e 7b 3f f7 ef e1 be d0 bf 43 3f 2a 6a 25 3f
       0.9806836 -0.4412839 0.7646456 0.6461512
000020 eb 81 87 3f 2f 73 c7 bf f0 a6 11 3f e2 31 1e 3e
       1.0586523 -1.5582026 0.5689535 0.15448716
000030 70 45 b5 3d 0d 14 56 bf c0 24 23 3f cb eb f7 bf
       0.08851135 -0.83624345 0.6372795 -1.9368833
000040 a0 7f ad 3f 5e 79 e4 bd 5a 34 42 3f 43 f9 89 3f
       1.3554573 -0.111559615 0.7586113 1.0779194
000050 22 6a 0e 3e 9b cb 95 bf 7a 88 d8 3f 0d b6 89 3a
       0.13907674 -1.170276 1.6916649 0.0010506526

weight f4 [26, 9]
000000 3a c3 19 bf 57 29 d7 bf 02 c3 18 bf 03 17 14 bf
       -0.6006352 -1.6809491 -0.5967256 -0.57847613
000010 01 37 17 bf 58 20 c2 bf af df 44 bf 9e bc 09 c0
       -0.59068304 -1.516612 -0.76903814 -2.1521373
000020 1e 26 82 bf 07 25 39 bf e2 7b 41 bc d5 cd 8c 3e
       -1.0167882 -0.72322124 -0.011809321 0.27500787
000030 3f 1a 7f be 86 60 a8 3f 13 97 8b 3d 90 6b 6c bf
       -0.24912356 1.3154457 0.068159245 -0.9235163
000040 ac 21 00 3f c9 aa 95 bd fd dc ad 3f c9 e4 8e be
       0.5005138 -0.07307965 1.3583065 -0.27908924
000050 ef 4a 0c bf 4d dd 39 c0 5b a2 c5 bf 3f c6 84 3f
       -0.5480184 -2.9041321 -1.5440172 1.0373
000060 10 28 69 3e 48 55 2a bf c6 da d6 3f 11 e3 c3 3e
       0.22769189 -0.6653638 1.6785514 0.38259175
000070 b8 9e 85 3f 8f bb b2 3f 73 25 cb bd 16 01 24 bf
       1.0439062 1.3963488 -0.09919252 -0.64064157
000080 da c2 2f bf e8 6b ec 3f 7e 66 80 bf f9 b4 16 bf
       -0.68656695 1.847043 -1.0031278 -0.5886989
000090 09 ec ea 3c 44 8d 15 3f 26 3a f2 3e 75 cf 9c 3f
       0.028677003 0.5841868 0.4730999 1.2250811
0000a0 00 27 82 bf e8 ee e9 bf a3 31 ce 3f ea 53 85 3b
       -1.0168152 -1.8276033 1.6108898 0.004068841
0000b0 b6 07 d0 bf 0c 86 8d 3d 23 3a 22 bf fa 63 39 3f
       -1.6252353 0.06910333 -0.6336996 0.7241818
0000c0 c5 18 96 3f da c7 f8 bd 5a 2d d2 bc 9e 17 2d 3f
       1.1726309 -0.12147494 -0.025656391 0.6761416
0000d0 ea e6 00 3f a3 13 3d 3e ca be a0 3b 21 f2 15 3f
       0.50352347 0.18464522 0.0049055563 0.58572584
0000e0 38 f0 26 3e df c6 68 bf 8f cb 1f 3f 8c 60 8a 3f
       0.16302574 -0.90928453 0.6241998 1.0810714
0000f0 52 5d 02 40 32 61 5c bf 68 11 36 bf 4c 23 24 bf
       2.0369458 -0.8608581 -0.7112031 -0.6411636
000100 17 9a c9 3f c9 f1 49 bf 6a 2e 2a 3e f6 74 af 3f
       1.575015 -0.7888456 0.16619268 1.3707569
000110 0e 0e 07 40 61 3f 3b 3f 32 a8 49 bf ef 6b fd be
       2.1102328 0.73143584 -0.7877227 -0.4949641
000120 e8 14 81 3e e8 d0 15 bf 5d 86 79 3f 11 8c fd 3e
       0.25211263 -0.5852189 0.9747065 0.49520925
000130 ae ba 58 bf f6 23 aa 3f 37 7e 8d 3e 67 fa 09 bf
       -0.8465985 1.3292224 0.27635357 -0.5389771
000140 1a d1 70 bf 6a 79 25 bf 6c dd 32 3e 8c e3 89 bf
       -0.94069064 -0.6463839 0.17467278 -1.0772567
000150 8c 10 3f bf ed 9e 0b c0 60 49 43 bf 34 72 15 3f
       -0.74634624 -2.181575 -0.76283836 0.58377385
000160 31 da 3c 3f 1f 59 b1 3d 96 ae c7 3e f0 ca ec bf
       0.73770434 0.086595766 0.39000386 -1.8499432
000170 d3 47 96 bf ba 64 b8 3d 40 02 20 3f 27 91 ac 3f
       -1.1740669 0.09003587 0.62503433 1.3481797
000180 f2 94 c8 bf 58 5f af 3e 33 5a af bf 20 20 0c be
       -1.5670455 0.3425243 -1.3699402 -0.1368413
000190 bb 9d a7 be 63 64 95 bf 92 05 37 3f a1 08 a6 bf
       -0.32737526 -1.167126 0.71492875 -1.2971383
0001a0 30 3b 8e bf 5a 45 9b 3e 50 78 39 bf fa ca 70 bf
       -1.1111813 0.3032635 -0.7244921 -0.9405972
0001b0 3e 9f 36 bf d0 ca 00 3f 47 d8 a1 3e 42 37 19 3f
       -0.71336734 0.5030947 0.3161032 0.5984994
0001c0 e3 a6 b2 bf ea c9 54 bf 8c 00 9d 3f 8e ab ef bf
       -1.395718 -0.83120596 1.2265792 -1.8724229
0001d0 c2 fc c0 3e 02 fd 8e 3f 0d 74 f1 3e 26 97 96 bf
       0.3769284 1.1170962 0.47158852 -1.1764877
0001e0 17 6a cc be 94 ce 82 be 6a d9 60 3f 30 09 ee be
       -0.3992469 -0.25548232 0.8783175 -0.46491385
0001f0 1d 85 30 bf ff b9 b2 be c4 d6 b1 bf eb fa 0e bf
       -0.68953115 -0.3490753 -1.3893666 -0.5585162
000200 84 91 a2 3f 81 7c 60 3f ac d2 9d 3e 50 48 8d 3e
       1.2700658 0.8768998 0.30824792 0.27594233
000210 9f f8 34 c0 db da 3f bf 57 b0 d8 3e 88 28 b5 3e
       -2.8276746 -0.7494332 0.42322037 0.35382485
000220 c1 bb 99 bf f0 f5 88 3d ec 3b 86 bd 0b fd 9c be
       -1.2010423 0.06687534 -0.06554398 -0.30661806
000230 63 0f 17 40 98 13 cb 3f 5f 2c 7e be 90 0b c8 bf
       2.3603141 1.5865355 -0.24821614 -1.5628529
000240 4f b5 06 bf 43 f4 48 bf 22 8b b3 bf 03 7f c1 be
       -0.52620405 -0.78497714 -1.4026835 -0.37792215
000250 88 e5 9d be 1f 90 23 bd 4d 08 00 3f db a3 d1 bf
       -0.3083918 -0.039932366 0.50012666 -1.637813
000260 e1 ce b7 3e 70 a5 13 c0 24 51 60 bf 3d 43 d9 bf
       0.35900024 -2.3069725 -0.8762381 -1.6973644
000270 aa 34 07 3f 20 a7 b8 bf 70 fd 3c 3f 2a 56 b7 bf
       0.52814734 -1.4426003 0.73824215 -1.432317
000280 fc 38 c0 3e 00 f0 eb bd 45 60 5d 3e 34 23 a0 3f
       0.37543476 -0.11520386 0.21618755 1.2510743
000290 3c 23 9e 3f 8c 5a 11 be 54 42 09 40 38 90 99 3d
       1.2354503 -0.14194697 2.1446733 0.07498211
0002a0 5a 58 f1 3e 37 dd 5a 3d 16 6c ec 3e 8a 50 ec bf
       0.4713772 0.053433623 0.46176213 -1.8462079
0002b0 03 3c 94 3f 12 08 28 40 f9 e8 4e 3e 20 28 99 3e
       1.1580814 2.6254926 0.2020606 0.29913425
0002c0 1f eb 93 bf a7 64 0f 40 42 2e 9b 3d 34 67 51 3f
       -1.1556128 2.2405183 0.07577182 0.817981
0002d0 72 2d 88 bf 1a c6 d2 bd d8 9c ba bf 6d 3f dd bf
       -1.0638869 -0.10291691 -1.4579115 -1.7284981
0002e0 f0 08 f2 bf fa 90 09 3d 9f c4 fe bf 7c ce fa bf
       -1.8908978 0.033585526 -1.9903754 -1.9594264
0002f0 0b 66 08 40 98 b0 73 bf 54 dc 1e bf 09 da d5 3f
       2.1312282 -0.95191336 -0.62054944 1.6707164
000300 64 ab c0 3e 83 f0 34 bf cf fe e1 bc 92 fd de 3f
       0.3763076 -0.7067949 -0.027587323 1.7421134
000310 5b 71 1d bf 1e fd 30 3f 5a 26 4e 3f 8c 5d b2 3f
       -0.6150109 0.69136226 0.8052727 1.3934798
000320 7a d8 ff be 8a 17 27 bd 47 d9 c6 3e fe 15 fe be
       -0.49969846 -0.040793933 0.38837644 -0.49626154
000330 34 55 03 c0 f8 0d 4f 3f f9 25 46 be 66 b1 bd bf
       -2.0520754 0.8088069 -0.19350423 -1.4819763
000340 20 25 0c bf 37 43 c1 bf ee fb 3f bf 6e 3f 87 3f
       -0.5474415 -1.5098637 -0.7499379 1.0566232
000350 90 f2 15 c0 14 d3 ef 3e d5 ba 01 bf 91 68 02 bd
       -2.3429298 0.46840727 -0.5067571 -0.031838004
000360 ce 4f 1b 3f 76 43 86 3f a2 e5 07 bf f2 75 d3 3e
       0.6066865 1.0489337 -0.53084767 0.41300923
000370 c8 27 b2 3f 93 5e 00 3f 1d 5f d1 be 4f d2 58 be
       1.391839 0.5014431 -0.40892878 -0.21173976
000380 9c 7c 15 be 05 35 81 3b 70 e0 c7 3d 49 53 e0 be
       -0.14598316 0.003943088 0.09759605 -0.43813542
000390 1a 6f b8 3c c5 53 09 bd 6e c3 9e 3f e4 52 ec bc
       0.022513915 -0.033527154 1.240339 -0.02884812
0003a0 18 7c d9 aa a8 e2 c2 32
       -3.863305e-13 2.2687644e-08

weight f4 [128, 76]
000000 ce cf da 3d 1c 41 dd 3d 74 17 c0 3d af 92 a7 3c
       0.10684167 0.10803434 0.09379473 0.020455686
000010 92 09 e8 bd 23 e8 9d 3d 0a 0c 11 3d d8 d1 88 3d
       -0.113299504 0.07710292 0.035411872 0.066806495
000020 ad f6 8d bd dd f7 aa bd 7b 60 d1 bd 03 4c d3 bc
       -0.06931815 -0.083480574 -0.1022348 -0.025793081
000030 86 80 5c bc 60 92 a9 bd a6 30 a0 3d ba 0e 3b 3d
       -0.013458377 -0.08279872 0.07821779 0.04566834
000040 32 5d 0f 3d 53 8e 89 bd ae 62 9e bd 0e 17 13 bd
       0.035000987 -0.06716599 -0.077336654 -0.03591066
000050 c4 74 59 3d 51 e1 fc 3d 93 1f b6 3d 17 26 ad ba
       0.053089872 0.12347663 0.08892741 -0.0013210204
000060 37 52 29 3d 75 c0 e7 bd 6d 9e cb bd 54 3f 74 3d
       0.04133817 -0.11316005 -0.09942327 0.059630707
000070 7d 60 76 bd 5d 4d 5d 3d ef 03 aa bd f8 30 57 bd
       -0.060150612 0.054028857 -0.083015315 -0.052536935
000080 38 c8 c2 bd 81 35 7e 3d 11 62 63 bc 1d 7a bd 3d
       -0.09510845 0.062062744 -0.013878361 0.09251807
000090 b2 99 96 3d da e4 8b 3d ed 42 0e 3c d3 31 67 bd
       0.07353534 0.06830759 0.008682949 -0.056444
0000a0 02 44 dc bc 58 02 64 3c 73 c7 c9 3d 3b 76 1e bd
       -0.026887897 0.013916574 0.09852495 -0.038686972
0000b0 0f 8d ef 3d 60 e5 82 bd 34 89 17 be 96 d6 11 bd
       0.11696827 -0.06391406 -0.14798433 -0.035605036
0000c0 cc e8 da 3d b3 ed b1 3d 59 62 12 be fc 9d be 3d
       0.10688934 0.08687916 -0.14295329 0.09307477
0000d0 6d 03 0a 3d 01 9b bd 3d b5 c3 d0 3d 4a b7 48 bd
       0.033694673 0.0925808 0.10193578 -0.049002923
0000e0 e0 e9 83 3d 00 16 a7 3d 1d e4 a8 bc a6 22 5c 3d
       0.064410925 0.08158493 -0.020616585 0.05374398
0000f0 c0 e8 0c bd 0b db 2b 3d 60 40 39 bd 8b b6 3d bd
       -0.034401655 0.041956943 -0.04522741 -0.046316665
000100 33 89 16 bb bb b9 07 3d 85 c4 9f bd 2a 8d a3 bc
       -0.002296996 0.03313611 -0.07801155 -0.019964773
000110 ae 45 a9 3d 3c f2 f1 bc ce 10 61 3d 8d 0b 14 3c
       0.082652435 -0.029534452 0.054947667 0.009035957
000120 d0 87 ce 37 8c 45 4f bd 38 48 7a bd 8a eb 04 be
       2.4620356e-05 -0.050603434 -0.06110403 -0.12980476
000130 d6 e2 d4 3d 41 be 66 bd 16 3c b4 3c 63 b4 70 bd
       0.10394828 -0.056333784 0.022001307 -0.05876578
000140 35 4d 00 3e 65 14 17 3e 50 ad bf bd 04 c3 f5 bd
       0.12529452 0.14753874 -0.093592286 -0.12000087
000150 e0 61 b8 bd 1e 60 ad ba de 17 aa 3b 5f 1a 07 be
       -0.09003043 -0.0013227498 0.0051908335 -0.13193654
000160 50 a3 00 bd 49 28 28 3d 88 a8 7f bc 8d 51 c1 3d
       -0.031405747 0.041054044 -0.015604146 0.09439383
000170 c4 a6 d0 3c e0 e5 1a bd fe c7 b8 3c 9c 28 db 3d
       0.025470145 -0.037816882 0.022556301 0.10701105
000180 21 53 63 bd 76 6d 8b 3c 72 12 b7 bc 0a 1c 02 3e
       -0.0554992 0.017019968 -0.022347663 0.12706009
000190 e9 31 bc bd af c9 c7 bd 82 46 05 3e 29 f5 77 bd
       -0.09189207 -0.09755265 0.13015178 -0.060536537
0001a0 1f 5f 25 3d b5 03 a6 3b 4e 3f 4a bc 6a cb 5b bc
       0.040373918 0.00506636 -0.012344195 -0.013415197
0001b0 61 b0 ae 3d 2b a3 6e 3c 29 2c cb bd 88 32 47 bd
       0.08529735 0.014565269 -0.09920532 -0.048632175
0001c0 aa e6 de bc 7e fa 8d 3d 71 c5 81 bd 53 4d f6 3d
       -0.027209599 0.06932543 -0.06336487 0.12026467
0001d0 9e 6d 4d bc 8f 20 11 bc 5f e0 bd 3d 69 15 5d 3d
       -0.012538342 -0.00885786 0.09271311 0.053975496
0001e0 cf 76 b8 3d 2c ce c5 3d 7d 2f a7 bd 2c 97 c4 bd
       0.09007036 0.09658465 -0.081633545 -0.09599146
0001f0 9c d3 ea bc d8 5c b1 3d f6 35 10 bd 25 b0 e3 bd
       -0.028665356 0.08660287 -0.03520771 -0.11117581
000200 c2 d6 ad 3c 4b 97 b0 3d ad d6 9d bd b6 e9 d6 bd
       0.021220569 0.08622607 -0.07706962 -0.104937956
000210 0f e2 c5 bd 15 8f 9e 3c 07 9d 3e bc c5 08 69 bd
       -0.09662258 0.019355336 -0.011634118 -0.05689313
000220 8f f0 87 3d 07 d6 02 bc a5 91 ee 3d 17 f8 ce 3d
       0.0663768 -0.007985598 0.11648873 0.10105913
000230 fe d9 c3 bc e0 a8 f2 bd 6f 68 a4 bd 83 a7 a7 3d
       -0.023907658 -0.118486166 -0.080277316 0.08186247
000240 a1 43 63 3d 74 45 9f 3d 1d cb b3 bd 9b 07 f5 3d
       0.055484418 0.07776919 -0.08778975 0.11964341
000250 12 8e e7 3d 71 1e 0e 3e 72 8e a3 bd 1f 3d 55 bd
       0.11306395 0.138788 -0.07986154 -0.052060243
000260 ac 8d 3e bc f6 cc 2c 3e 6f 22 4b bd 32 1e b9 bd
       -0.011630457 0.16875061 -0.049593385 -0.090389624
000270 74 a2 0f 3d 6a 4f 1f ba 84 23 87 bd 36 ca f8 bc
       0.035067037 -0.0006077202 -0.06598571 -0.03036986
000280 78 34 e9 bc 6a 4d 8f bd 41 38 9b 3d 07 20 76 bd
       -0.028467402 -0.069971874 0.07579089 -0.060089137
000290 bf 14 3b 3a 90 27 e9 3d 56 6a df 3d 22 65 72 3b
       0.00071365753 0.11384499 0.10908954 0.003698655
0002a0 08 27 f2 3d f2 c7 a6 3c ae 1c 73 bd 13 d8 d2 3d
       0.11823851 0.020359013 -0.059353523 0.10295119
0002b0 1b e3 1b 3d 69 80 ce bd 40 4e c9 bb 8a 6a 96 bd
       0.03805838 -0.10083086 -0.0061433613 -0.073445395
0002c0 10 56 e1 3d 03 04 87 bc 58 bc c8 bd eb 00 a7 3b
       0.11002743 -0.016481405 -0.09801549 0.005096545
0002d0 32 c1 a6 3d 52 1e 13 3d a8 aa 40 3d ea 4b 84 3c
       0.08142318 0.035917588 0.04703775 0.01614948
0002e0 90 3f 39 3d 59 fa 99 bc 57 9d 43 bd 36 a1 d2 bd
       0.045226634 -0.018796133 -0.047757473 -0.10284655
0002f0 40 cf b7 bd 8f 54 81 3d f0 5c 61 bd 71 ef 1e bb
       -0.08975077 0.063149564 -0.055020273 -0.0024251605
000300 54 6f 05 3d 96 a7 88 3b c8 f8 a1 bd 0e 06 d5 3d
       0.032576874 0.0041703684 -0.079087794 0.104015455
000310 a1 7a 71 bd 5b 82 cb 3d 1e 0a fd bd 2d 5d 49 bd
       -0.05895484 0.09936973 -0.12355445 -0.049161125
000320 0a 82 90 3d 88 6d be bd 9a 35 cb 3d 20 24 d8 bd
       0.07056053 -0.09298235 0.09922333 -0.10553765
000330 52 e9 a7 bd 13 e0 03 be 01 30 49 bd 4f aa 09 3e
       -0.08198799 -0.12878446 -0.049118046 0.13443874
000340 c8 46 2a bc 72 c3 97 3d 31 83 ec 3b 48 79 c3 bc
       -0.010392852 0.07410325 0.0072177877 -0.023861542
000350 ee 01 9d 3d 4b fb d9 bd 48 57 56 bb a2 6c c4 3d
       0.07666384 -0.106436335 -0.0032705832 0.095910326
000360 5a dc 8a bc 98 ea a6 3d 89 54 56 bd 4d 91 ac 3d
       -0.016950775 0.08150214 -0.052326713 0.084261514
000370 7b 3c b0 bd 53 dd 28 bb 58 d7 09 bd 97 f2 c4 3d
       -0.08605286 -0.0025766685 -0.033652633 0.09616583
000380 1b 4b 77 3c 7e 2f d8 3d ca c8 75 3c 80 86 79 bb
       0.01509359 0.105559334 0.015001485 -0.0038074553
000390 e5 f1 0c 3e d9 b4 83 3d dd f8 ce 3d 29 12 b2 bd
       0.1376415 0.06430978 0.10106061 -0.0869487
0003a0 aa f7 11 bc 39 95 84 bc f5 86 82 3d c5 c6 a2 3d
       -0.008909145 -0.016184436 0.06373397 0.079480685
0003b0 2f 04 11 bd fc 9d d4 bd 44 ab 7b 3d 6a c7 f4 3c
       -0.03540438 -0.10381696 0.06144263 0.029880244
0003c0 40 12 0a 3c 3d 87 de bd c6 99 00 3e ba 56 09 3e
       0.008427203 -0.108656384 0.1255866 0.1341199
0003d0 f5 d8 40 3d e3 e5 bd bd bf 34 a9 3d ae 0e ae bd
       0.047081906 -0.09272363 0.08262014 -0.08498894
0003e0 d6 e0 fb 3c af 03 c4 3c e3 2e 48 bd 30 60 3d 3d
       0.030746859 0.023927538 -0.04887284 0.04623431
0003f0 3d 07 c0 bd aa 08 09 3d 4e bb 87 bd fb 99 39 bb
       -0.093763806 0.03345553 -0.066275224 -0.002832054

bias f4 [128]
000000 13 bc 8d bd fa 35 9b bd 43 5b a8 bd f1 47 5c 3d
       -0.06920638 -0.075786546 -0.08220532 0.053779546
000010 29 8b 00 3c 84 b5 6e bc 6f 35 f1 3c 09 7e 67 3d
       0.007845678 -0.014569644 0.029444424 0.05651668
000020 bd 48 a6 3b af 4e 78 3d 7c dc 8a bc f2 84 16 3d
       0.005074589 0.060621914 -0.016950838 0.03674788
000030 38 96 11 3d 4d cc a2 b9 76 7f a6 3d da b8 e6 3d
       0.03554365 -0.00031051264 0.0812978 0.112657264
000040 e1 5c ab 3d 8b 25 c7 bc 42 30 0d bd 29 db cc 3d
       0.083673246 -0.024309894 -0.03446985 0.10002739
000050 8e 02 70 bd a5 a5 6a 3b a5 20 99 bd 2b f5 e0 bc
       -0.058596186 0.0035804298 -0.074769296 -0.027460655
000060 be e8 40 bd ab 26 8b 3d 5f 54 5e bd bd a6 90 bd
       -0.04709696 0.06794485 -0.05427968 -0.07063053
000070 28 94 3c 3d 60 0c 3f bc 4f 96 5c 3c 64 b3 b3 bd
       0.04603973 -0.011660665 0.013463571 -0.087744504
000080 72 14 44 bd 78 38 74 3d 3f 6e 7b 3d 4a 90 e7 bd
       -0.04787106 0.059624165 0.061384436 -0.11306818
000090 55 37 94 bd ad 5c 3b 3d 0e 44 e2 bd 5d 3b 84 bd
       -0.07237116 0.04574268 -0.11048137 -0.06456635
0000a0 33 3a 98 bd d1 cb d1 bd 3e 09 89 bd 01 54 9c 3d
       -0.074329756 -0.10243953 -0.06691216 0.0763321
0000b0 8e 36 fe bd 75 f3 9e 3d 9b df ec bd 1b 90 13 bd
       -0.12412749 0.077612795 -0.11566087 -0.0360261
0000c0 d5 26 1b bd 37 a4 6f 3d ee 01 d1 bd c3 91 82 bd
       -0.03787883 0.058506217 -0.10205446 -0.06375458
0000d0 b9 ab dd bd f2 1f 74 b9 db 84 24 3d 6d 83 c6 3d
       -0.10823769 -0.00023281554 0.040165763 0.09693036
0000e0 de ca ad 3d fc dd fb bc d6 57 8c bd 74 7a 88 3c
       0.084859595 -0.030745499 -0.06852691 0.016659953
0000f0 82 3a 74 3d 44 d4 c3 3d 9f 09 a2 3d 9a 15 81 3b
       0.05962611 0.09561971 0.07911991 0.0039393427
000100 61 cf cf bd b4 9d 99 bd a5 20 81 3d 7c 2e a5 bd
       -0.10146976 -0.075007826 0.063050546 -0.08065507
000110 ce fc b9 bd a9 d1 96 bd 36 7b 03 bd 06 ef 32 3d
       -0.09081422 -0.07364208 -0.032099925 0.04368498
000120 71 5c 9a 3d ec a1 c3 3d b1 23 7a 3d bd 4f 87 3b
       0.07537163 0.095523685 0.061069194 0.0041293786
000130 02 d0 b1 bc f2 30 a0 bd c5 8d 67 bd 16 c7 61 bc
       -0.021705631 -0.078218356 -0.056531686 -0.013780376
000140 2a 0e b4 3d 5c e8 8b bc 8d bc 88 bc 71 82 0b bb
       0.08791764 -0.017078571 -0.01669147 -0.0021287466
000150 4a 28 6a bd b0 06 80 bd 48 81 01 3d c8 44 bc bd
       -0.05716733 -0.062512755 0.031617433 -0.091928065
000160 36 08 a6 bb d7 3e 68 bb ba 2e 81 3c 08 be 3b bc
       -0.005066897 -0.0035437846 0.015769351 -0.011458881
000170 e4 7e 7c bd 09 82 02 bd da 8d 2a bd 8e db 00 3d
       -0.06164445 -0.031862292 -0.041639186 0.031459384
000180 f9 47 9c 3c fe a5 14 bd 82 12 b8 3d 09 84 d8 3a
       0.019077288 -0.036291115 0.08987905 0.0016518842
000190 19 ce 47 3d 7e 3b d5 bc 75 47 e3 bd d1 32 cf bd
       0.048780534 -0.026029345 -0.11097614 -0.10117114
0001a0 ff 3d 33 bd b2 13 79 3d 06 d6 6e 3d d7 c6 4c 3d
       -0.043760296 0.0608098 0.058309577 0.049994316
0001b0 15 b3 43 3d 7d fc 92 bd a2 b9 0f bd 96 f4 a8 3c
       0.047778208 -0.071770646 -0.035089143 0.02062444
0001c0 29 8b e6 bd c1 3e a5 bd 06 91 a7 bd ee a1 80 3c
       -0.112570114 -0.0806861 -0.08181958 0.015702214
0001d0 73 d6 f1 bc fb 0f 96 bc e2 d6 83 3d 17 12 97 bd
       -0.029521203 -0.018318167 0.0643747 -0.07376497
0001e0 dd 96 9b bd ef 56 e1 bc f4 20 71 3d 6e 83 2c 3c
       -0.07597134 -0.027507273 0.058869317 0.010529382
0001f0 00 4c d0 bd ff 53 ae 3d 25 65 a4 bd c9 b0 a7 3d
       -0.10170746 0.08512115 -0.08027104 0.08188016

weight f4 [128, 128]
000000 39 d2 92 3c 5e a5 cc 3c f0 62 a1 3d 47 f8 21 bc
       0.017922508 0.024981197 0.07880199 -0.009885854
000010 4b 51 96 bd cc 2d 90 3d 1b ea 77 3d 33 8c c0 bc
       -0.07339724 0.07039985 0.060525995 -0.023504352
000020 4c 54 90 3d a9 62 74 3d 46 1a ae bc 29 94 8c bc
       0.07047328 0.059664402 -0.021252763 -0.017160492
000030 27 3f 57 ba fc b1 6d 3d 4f 52 66 3d 74 2d fd 3c
       -0.00082110096 0.058031067 0.05623084 0.030905463
000040 de a5 b4 bd 8b 6a fb 3b fd 68 8e b5 95 97 0c bd
       -0.08820699 0.007672613 -1.061038e-06 -0.034324247
000050 a2 e3 f8 bb 29 fe 7a 3d 24 fc ed 3c 41 77 15 39
       -0.0075954953 0.061277542 0.029050894 0.00014254173
000060 be 89 83 bc 3e 9f ad bd 74 9e 22 bd 44 c1 59 3c
       -0.016056892 -0.08477639 -0.039701894 0.013290707
000070 af 1e 9f 3d 81 d8 8d 3c e2 26 1d bd 59 de bd 3d
       0.07769524 0.017315151 -0.03836716 0.09270925
000080 61 c3 e6 3d 90 af 96 ba 96 aa 08 3d db a2 68 bd
       0.11267734 -0.0011496413 0.03336581 -0.056795936
000090 fa 69 3c bc 37 2f c4 3c 01 75 73 3d 11 1b af bd
       -0.011499876 0.023948295 0.059437755 -0.085500844
0000a0 97 f5 2b bb 10 15 a6 bd 4b e3 7f bc d9 ab 41 bd
       -0.0026238912 -0.08109486 -0.015618156 -0.047283027
0000b0 5a 09 7e bd c6 80 b6 bd e4 9d 9e bd 56 dd 9f bd
       -0.062020637 -0.0891128 -0.07744959 -0.07805888
0000c0 49 63 16 bd 43 76 5b 3d f6 33 39 bd 08 01 4b bd
       -0.03671578 0.05357958 -0.04521557 -0.04956153
0000d0 02 1f 5e 3c 8b 1c 6f b8 f3 ac c5 bc 0c 6f 99 3d
       0.0135571975 -5.7008623e-05 -0.02413032 0.07491884
0000e0 b3 8f ac bd 07 c0 2a 3d c4 e5 30 3d c5 0b 67 3d
       -0.08425846 0.041687038 0.04318787 0.05640771
0000f0 86 72 73 bd 81 60 0a 3d 71 b9 80 3d 5c 30 04 be
       -0.05943539 0.03378344 0.0628537 -0.12909073
000100 aa 42 7e 3d 02 c5 32 bd 7b c8 d9 bd a9 5f 3f bd
       0.062075295 -0.043644913 -0.10633942 -0.046722088
000110 d7 40 07 3b 77 7d 7e bd de 69 63 bd 98 3f 7f 3c
       0.0020638013 -0.06213137 -0.055520885 0.015579127
000120 43 e1 38 3d 46 a1 b4 bc a0 90 64 bd c0 29 3a bc
       0.0451367 -0.022049557 -0.055801988 -0.011362493
000130 cd 85 c9 3c fb 36 bd 3d 63 43 8c 3d ed e1 96 3d
       0.024599934 0.09239002 0.068487905 0.07367311
000140 9e 2a 99 3c c0 ef 23 bd 95 6f 32 bd 29 cc fa bc
       0.01869708 -0.040023565 -0.043563444 -0.03061493
000150 ac 10 08 3d 84 1f dd bc 85 d3 b1 3d eb 46 8c bd
       0.033219025 -0.026992567 0.08682922 -0.06849464
000160 17 77 f6 3d 71 83 af 3a 0e ea 81 3d 43 0f c2 3c
       0.12034433 0.0013390613 0.063434705 0.023688918
000170 c0 00 21 bd 1e 21 57 3d 7a b7 c9 bd 9a dd 2c bd
       -0.039307356 0.052521817 -0.098494485 -0.042203523
000180 b0 6f 92 bc b3 e2 8a 3d 3d 7a e5 bb 22 ac 9e bd
       -0.017875522 0.06781521 -0.0070030973 -0.077476755
000190 ad 9b 94 bd ce bf 01 bd 6b ed 94 bc 4f db 89 3c
       -0.07256255 -0.03167706 -0.018179616 0.016828207
0001a0 eb eb 77 bc 78 0c d8 3c bc 3f f2 39 2c 93 5e 3d
       -0.015131931 0.026373133 0.00046205323 0.054339573
0001b0 e3 cf aa 3d 87 e5 01 be 75 fa 35 bd 32 a8 65 3c
       0.083404325 -0.12685214 -0.044428308 0.014017152
0001c0 3c dc e3 bc ed b6 75 bd 27 d6 9b bd b7 9f 5f 3d
       -0.027814977 -0.059988905 -0.07609206 0.054595675
0001d0 7b 65 74 3d ea 6b b7 3d 04 35 0a 3d ab 54 9c bd
       0.05966709 0.0895613 0.033741966 -0.07633337
0001e0 8f 52 4b bd d5 fc c1 bb 5e 84 2d bd 09 80 fb bc
       -0.04963928 -0.0059200325 -0.042362563 -0.0307007
0001f0 b8 ab 58 3d e0 d1 9f bd 5e 75 b4 3c 01 5b e0 3c
       0.05289814 -0.07803702 0.022028621 0.027387144
000200 d6 bd 94 bd 18 a6 16 bc 43 d8 37 3d 6d b8 b9 bc
       -0.07262771 -0.009194873 0.044883978 -0.022670949
000210 d0 aa 84 bd 0b c8 1c 3d 81 5a 6b bd ce dc bc 3d
       -0.064778924 0.038276713 -0.057459358 0.09221803
000220 1a 54 7f 3d f8 d8 fe 3a 66 d4 b3 3c f3 1e 2a bd
       0.062336065 0.0019443324 0.021951865 -0.04153342
000230 42 bf 19 bc a1 cf 90 bd f2 58 7e bd 7f 68 c9 3d
       -0.009383978 -0.07070852 -0.062096544 0.09834384
000240 ca 93 54 3c 0f 70 66 3d 81 4b 35 3d 8c d5 43 3d
       0.012974689 0.05625921 0.04426146 0.047811076
000250 b5 d6 b4 3c 2e f0 82 bd 59 2c a8 bd df ee 5b 3d
       0.022075037 -0.06393467 -0.08211584 0.053694602
000260 c1 0e 4d 3d 78 83 93 3d 76 92 1e bd 51 a3 88 3d
       0.0500629 0.0720281 -0.038713895 0.06671775
000270 ba a6 0d bd cc 97 36 3c 47 9a 54 3d 7e 13 e9 bd
       -0.03458283 0.01114459 0.051904943 -0.11380671
000280 cf 97 c4 bd 40 ff 56 3d 1a 12 ae bd 5a 90 26 3d
       -0.09599268 0.05248952 -0.08499546 0.040665008
000290 de 97 c3 3d 76 61 92 3d 39 21 83 3a 3a 8e 39 bd
       0.09550451 0.071474954 0.0010004408 -0.045301653
0002a0 88 84 27 3c c7 96 90 bc c5 92 af bd f4 29 32 3d
       0.010224469 -0.017650021 -0.08572916 0.04349704
0002b0 3c c8 51 bd 71 fa 95 3d 07 7e 3a bd a9 2a 62 bc
       -0.05121635 0.073231585 -0.045530345 -0.013804116
0002c0 63 66 94 bd d5 3d a3 3d 9a e8 75 3d d5 02 8c 3d
       -0.07246091 0.07970778 0.06003628 0.06836478
0002d0 02 aa 24 3d 4a e6 27 33 c6 95 ac 3d 4e 99 e2 bc
       0.040201195 3.9092164e-08 0.084270045 -0.027660992
0002e0 ea 8e af 3d 15 06 9f bc 26 15 6a 3d e6 ff ef bc
       0.085721806 -0.01941208 0.057149075 -0.029296827
0002f0 a3 d3 a9 3c 8b e5 d0 3c cd 6d 94 bd 78 9d b8 3d
       0.020730799 0.02550008 -0.07247505 0.0901441
000300 9f f8 25 bd 49 d1 63 bd ba 19 93 3d f6 4f 5e bd
       -0.040520307 -0.05561951 0.07182641 -0.054275475
000310 78 38 17 3d c1 12 8f 3d 8e d5 98 bb dd aa c9 bd
       0.036919087 0.06985999 -0.0046641296 -0.09847043
000320 3d 33 a7 bd 21 b1 2a 3c 75 31 83 bc aa 9f 81 3d
       -0.0816407 0.010418207 -0.016014794 0.06329282
000330 7f ce ae 3d 23 b0 4c bd 1f 9b d8 bc 60 cd a2 bd
       0.0853548 -0.049972665 -0.026441155 -0.079493284
000340 93 53 3b 3c df 1e 89 3d 71 0a a5 bc f1 e6 88 bb
       0.0114335 0.06695341 -0.02014658 -0.004177921
000350 72 0d 56 3b 8d 71 ab bd fa 52 d3 3d ab 2d 2c 3c
       0.0032661823 -0.083712675 0.10318561 0.010508935
000360 68 24 97 3d d2 b1 91 bd 33 44 03 bd ba cf 95 3c
       0.07379991 -0.07113995 -0.03204746 0.018287528
000370 d2 c8 c9 3b ce f0 04 bd 57 2b 63 bd f0 e9 7d 3d
       0.006157973 -0.03245621 -0.055461254 0.06199068
000380 88 9b 7d 3d 07 5a 96 3d b8 30 97 3d 0c d0 2e 3d
       0.061915904 0.0734139 0.07382339 0.042678878
000390 2e ec 3b bd fc 6c 48 3c 29 5b 0c bd 59 92 b8 bb
       -0.045879535 0.012233015 -0.034266625 -0.0056326804
0003a0 45 00 36 bc 10 5c 85 bb a5 a2 00 b3 c2 2c 6e bc
       -0.011108463 -0.0040698126 -2.9950247e-08 -0.014537038
0003b0 35 b6 1c bd ac 12 3d bc ae 03 81 bd 48 eb 3f bd
       -0.038259704 -0.011540096 -0.0629953 -0.04685524
0003c0 1b 75 87 bd 45 85 74 bc 8d 98 e7 39 d0 ee b1 bd
       -0.06614133 -0.014924352 0.00044173413 -0.08688128
0003d0 44 6c c8 bd 68 9a 6c 3d c5 a9 97 bd 31 cb 1d 3d
       -0.09786275 0.05776444 -0.07405428 0.038523857
0003e0 65 1f 59 bb f3 7e 07 bc 2c 27 7e 3d 24 6e a1 bd
       -0.0033130285 -0.008270013 0.062049076 -0.07882336
0003f0 89 06 e9 3c 76 10 5d 3d 0f 69 4e 3d 51 b5 80 bd
       0.028445499 0.053970776 0.05039316 -0.06284583

bias f4 [128]
000000 c2 af cf bb 0d 50 d1 3c a1 71 0e 3d cf 4f ac bd
       -0.0063380906 0.025550866 0.034776334 -0.0841366
000010 a6 f1 14 bd 3b 64 a4 bd c4 78 b5 bd 9b 81 5d 3d
       -0.036363266 -0.0802693 -0.08860925 0.05407868
000020 d6 e3 8f 3d 3c b4 75 bd b5 da 07 bd dc 39 0f 3d
       0.07025878 -0.059986338 -0.03316756 0.03496729
000030 6e 6c aa 3d b6 48 96 3d 93 d4 85 3d 8f 83 9f bd
       0.083214626 0.07338087 0.06534686 -0.07788765
000040 e6 05 56 bd ee 66 a3 3d e2 ea a9 bd 12 52 b7 bc
       -0.05225172 0.07978617 -0.082967535 -0.022378001
000050 9f ef 9b bd 83 6a 85 bd 22 51 57 3c ba d0 f5 bc
       -0.076140635 -0.06514456 0.013141902 -0.030006755
000060 50 e7 a7 bd 8f 9a 92 bd 5a 6e 98 3d 35 6c 8e 3d
       -0.08198416 -0.07158386 0.07442923 0.069542326
000070 96 07 47 3d d5 55 0d 3d 77 51 6c bd cb aa ec bc
       0.04859122 0.034505684 -0.05769488 -0.028890034
000080 ca d5 16 bc be fa e8 3c 24 f7 0f bb 33 4b 7c 3c
       -0.009206245 0.028439876 -0.0021967376 0.015398788
000090 5c 3b 10 bd 39 94 c9 bc 9c 19 13 3d ef 3a b2 bd
       -0.03521286 -0.02460681 0.035913095 -0.08702647
0000a0 73 53 de ba 5f 50 82 3d 16 8f 59 bd ba f5 b1 bc
       -0.0016962126 0.06362986 -0.053114973 -0.021723617
0000b0 87 ef ca bb b6 ef df bc 15 e1 96 3d 01 86 6f 3c
       -0.0061931047 -0.027335983 0.0736715 0.014619351
0000c0 91 b2 bd 3d d7 01 00 bd 10 ae 9c 3a 85 7f d6 3c
       0.092625745 -0.031251755 0.001195373 0.026183853
0000d0 da 54 57 bd 34 c1 bd bd 20 e0 55 3d 83 12 5c bd
       -0.052571155 -0.09265366 0.052215695 -0.05372859
0000e0 6c a3 67 bc b0 33 60 bc 93 a9 b5 bd ab 03 85 3d
       -0.014138084 -0.013684198 -0.08870234 0.0649484
0000f0 ab 3b 84 bc 8a 4c 47 bd 1a b2 a1 bd 9b 53 d8 3c
       -0.016141733 -0.048656978 -0.07895298 0.026407054
000100 60 f1 87 bb 0e 97 cd bc 6f 3c 24 bd 6d c5 cf 3c
       -0.004148647 -0.025096443 -0.040096696 0.025362695
000110 c5 11 98 bc 82 01 a9 3c f6 db 86 3d 75 1d 4a 3c
       -0.01856316 0.020630602 0.06584923 0.012336125
000120 64 8e 56 bd 93 1b 28 bc 5a e1 bd bc c0 16 30 bb
       -0.052381888 -0.01026048 -0.023178745 -0.0026869029
000130 8d a1 7b 3d 0e 36 0b bc 37 8a 05 bd 31 c3 62 bd
       0.061433364 -0.008496774 -0.032602515 -0.05536193
000140 e2 77 59 3d f9 d9 c5 bc 0b 09 7a 3b 81 30 b5 bc
       0.053092845 -0.024151789 0.0038152363 -0.022117855
000150 98 d9 83 bd 19 0b 98 3c 83 43 6b 3d a6 28 62 bd
       -0.06437987 0.01855998 0.05743743 -0.055214547
000160 06 e2 a8 3c bb ed f7 3c d7 e8 90 bc af 63 02 bc
       0.020615589 0.030264726 -0.017689152 -0.007958337
000170 97 a5 29 3b 0b e6 54 3d d4 fb cd bb fc 64 d3 bd
       0.0025886053 0.0519772 -0.006286124 -0.103219956
000180 60 df ea bc 40 d8 01 bd 96 1d cd bc c0 6b 35 bd
       -0.028670967 -0.031700373 -0.025038522 -0.04429221
000190 41 9b 6e 3b bb 43 34 bc 48 72 10 bd 75 32 72 bc
       0.0036408457 -0.011002476 -0.035265237 -0.014782538
0001a0 83 65 80 bd 34 c0 20 bd e0 9f 38 3d 6f bb f4 3b
       -0.06269362 -0.0392458 0.045074344 0.007468633
0001b0 48 c8 68 3d 17 dc c1 3c e9 0f 52 3d 6a af 9d 3d
       0.056831628 0.023664517 0.051284704 0.07699473
0001c0 5b 24 a3 3d fa e8 be bc 85 8b 04 bd 5c 4b aa 3d
       0.07965919 -0.023304451 -0.03235962 0.08315155
0001d0 63 4f 08 3d 52 5c b2 3d 6f 05 8a 3d b3 91 8c 3d
       0.033278834 0.08709015 0.067393176 0.068637274
0001e0 e2 44 18 3c 37 5c 0f bc 54 0a 26 bd 9f 70 c4 3d
       0.009293767 -0.008750013 -0.040537193 0.09591793
0001f0 e9 bd 3f bd 91 fd 4a 3d b6 e1 d7 bb ed 5c 4e bd
       -0.04681197 0.049558226 -0.006588186 -0.05038159

weight f4 [128, 128]
000000 ab 3f 5c bc 09 c6 c3 3c 10 7c e4 bc 2e 77 53 3d
       -0.013442914 0.023898141 -0.027891189 0.05162733
000010 7d 60 f5 bb 68 21 53 bc 1c 3a e2 3c 58 d1 9d 3d
       -0.007488309 -0.012886383 0.0276156 0.07705945
000020 61 26 92 bd 7f 84 ab bc d7 7e 7b bc f4 ff 8e 3d
       -0.071362264 -0.020937202 -0.015350065 0.06982413
000030 51 b9 16 3e 0b 3f 30 3c 5a c2 82 3d 60 fa 76 3d
       0.1471913 0.010757218 0.06384726 0.06029737
000040 19 4d 87 bd 89 b5 8e 3d 45 5f d7 3d 4d ec e8 ba
       -0.06606502 0.06968219 0.10516218 -0.0017770618
000050 f6 ab 21 bc f5 b7 b4 3d d0 e9 4b bd 0e fc de bc
       -0.009867659 0.088241495 -0.049783528 -0.027219798
000060 7c a6 b8 3d 56 9a 8a 3d 28 51 a1 bd 94 98 b0 3d
       0.090161294 0.067677185 -0.078768075 0.08622852
000070 13 fb 42 bd d8 bd 53 bb a8 73 ca bd c7 da a5 bd
       -0.047602724 -0.00323092 -0.09885341 -0.08098369
000080 d9 a8 c5 3c ea 75 8f bd 19 91 3d bd 27 92 3c 3d
       0.024128364 -0.07004912 -0.046280954 0.04603782
000090 1f 84 f9 3d 4e 42 9b bd c8 e4 4b 3d c5 94 91 3d
       0.12183403 -0.07581006 0.04977873 0.07108454
0000a0 34 76 13 bd 1c c0 48 3d 79 c9 d5 3c 1a 0d 15 3d
       -0.0360014 0.049011335 0.026097046 0.036389448
0000b0 39 66 57 3b aa 65 49 3d 8f a8 bb 3d 61 44 23 3c
       0.0032867326 0.04916922 0.091630094 0.009965033
0000c0 6a 26 5b bc 66 b9 c4 3d 99 47 de 3d e9 d9 45 bd
       -0.013375858 0.096056744 0.108535 -0.04830352
0000d0 00 c2 bc 3d 49 c3 29 bc b8 cd 9c 3d 5f cf 1b bb
       0.0921669 -0.010361501 0.07656425 -0.0023774726
0000e0 20 db 91 bc 06 40 2a bd 01 ee 71 3c c4 1c 7b bd
       -0.017804682 -0.041564964 0.014766217 -0.06130673
0000f0 46 0a 4d bc ea c9 8a 3d 8d 5c a7 3d 1a 2a 33 bd
       -0.012514656 0.06776793 0.081719495 -0.043741323
000100 5a 33 42 3d 17 4e 91 bb de 54 b8 3d d5 a1 d6 3d
       0.047412254 -0.004434358 0.09000562 0.10480086
000110 7a c0 31 bd ed d1 49 3d ac c9 67 3d 65 5a 68 3d
       -0.04339645 0.049272466 0.056588814 0.056726832
000120 66 df c8 bc 51 b4 5b bd 14 5b a4 bd c7 a8 2d 3c
       -0.024520587 -0.05363876 -0.08025184 0.010599322
000130 24 74 07 bd 01 6a 34 3d 72 c8 6a 3d 0d 78 a0 3c
       -0.033069745 0.044046406 0.057320066 0.019588495
000140 87 5a 8f bd b2 f1 84 bd 20 a9 36 3c 4b f3 9b bd
       -0.069996886 -0.06491412 0.011148721 -0.07614764
000150 20 ef 76 3d 78 2b 9c bb 4c cd 25 bd 41 20 cf 3d
       0.06028664 -0.004765924 -0.04047899 0.10113574
000160 52 44 33 3d 70 19 62 3d fc 5a a6 bb c7 a0 e1 3c
       0.043766327 0.05520004 -0.005076764 0.027542485
000170 a2 19 21 3d 33 0d c4 3d 6d 67 45 bd d5 e0 6c bd
       0.039331086 0.0957283 -0.048194338 -0.057831604
000180 e2 e3 97 3b 56 a9 b6 3d 20 0d 2b 3d 18 45 1b bd
       0.00463532 0.08919017 0.041760564 -0.03790769
000190 6c 6e e7 bc ff 35 d6 3d 60 70 c7 3d 2c b9 32 3d
       -0.028250895 0.10459518 0.09738231 0.043633625
0001a0 ee 1b 82 bd e5 da 9f bd 40 73 4b 3d 4d b6 8e 3d
       -0.063529834 -0.07805423 0.049670458 0.06968365
0001b0 c3 d9 0b 3e 25 98 40 3d 92 c5 08 bd f5 ee 18 bb
       0.13657288 0.047020096 -0.033391543 -0.002333579
0001c0 db c8 9d 3d 01 26 35 3c cb 93 80 bd d7 93 e4 3d
       0.07704326 0.011056424 -0.06278189 0.11161011
0001d0 3d a1 06 bd af 82 2c 3d 99 a7 09 bd 7a 87 49 3c
       -0.032868613 0.042116817 -0.0336071 0.012300367
0001e0 9e 26 65 3d 41 6c 59 bc 97 6c ab bb 34 c2 00 bd
       0.05594503 -0.013270439 -0.005231451 -0.031435207
0001f0 e7 ab 2f 3c ca 46 f7 bc 7e 87 45 3d 1b b1 80 3d
       0.010722137 -0.030185122 0.04822492 0.0628378
000200 56 42 57 bd b6 a7 ad 3d 4c 79 54 3d 20 24 03 3e
       -0.052553497 0.08479254 0.05187349 0.1280675
000210 b9 3c 85 bb 3e 4a 10 bd f4 bb 73 bb 7c 70 af 3d
       -0.0040660766 -0.035227053 -0.0037190886 0.085663766
000220 fa d1 12 bc ab a5 96 bd 83 6f 40 bd ad ff c9 bd
       -0.008961195 -0.073558174 -0.046981346 -0.098632194
000230 ce 5d 65 bd 52 d0 2c 3d f1 19 ca 3c b3 9d 4c 3c
       -0.055997662 0.042190857 0.024670573 0.01248877
000240 23 da 47 bd 52 5a db 3d b1 d2 43 bd 91 d4 b3 bd
       -0.048792016 0.107105866 -0.047808353 -0.08780778
000250 94 dc b6 3d cd f4 d3 bd 8b cb 59 bd 1f 3e 8a bd
       0.08928791 -0.103494264 -0.05317263 -0.0675013
000260 dc 25 18 3d a8 a0 1b 3d a6 0a b6 3d b3 cb d0 3c
       0.03714548 0.03799501 0.0888875 0.025487756
000270 24 55 d9 bb bd 8b 80 3c 38 30 29 3d 9f 31 a7 3d
       -0.006632464 0.015691632 0.04130575 0.08163761
000280 d4 fc 03 bd ba 3f fe 3d 9d 27 89 bb 9c e7 0a bd
       -0.032223538 0.124144986 -0.0041856305 -0.033912286
000290 e3 c9 04 bd 11 dc a9 3d 52 15 82 3d 9f 98 cb 3d
       -0.032419097 0.082939275 0.06351723 0.099412195
0002a0 b4 31 8b 3d 8e 93 99 3d ba 42 01 3c 44 cb bc bd
       0.067965895 0.07498847 0.007889444 -0.09218457
0002b0 48 c6 87 bc c0 2a 37 bd 6c 8f b2 3d 7d 41 6f 3d
       -0.01657404 -0.044718504 0.08718762 0.058412064
0002c0 06 ae 3d 3d 8f ff 18 bd 10 5d 75 bd 1a bf 14 bd
       0.04630854 -0.037353095 -0.059903204 -0.03631506
0002d0 45 37 a6 bd 81 1c 3e bd 8a 9e 23 3d 40 2e 82 3d
       -0.081160106 -0.046413902 0.039946117 0.06356478
0002e0 e2 7a 5a 3d fb 4e 96 3d 0b a5 f0 bc 54 b0 16 3e
       0.053339846 0.07339283 -0.029375574 0.14715701
0002f0 28 00 8b bc 27 0b 87 3c e8 f6 d8 bc 7b cb aa 3c
       -0.016967848 0.01648481 -0.026484922 0.02084898
000300 db c3 3c 3d 0f d8 3f 3d b6 91 1c 3c 01 69 bd bd
       0.04608522 0.04683691 0.009556225 -0.092485435
000310 ef fc 81 3d 79 8b 2d 3d 6d 6c 34 3d 7b 80 ac bd
       0.063470714 0.04236934 0.044048715 -0.08422943
000320 d7 50 fa bd a7 fb 05 3e 75 6d d1 3d 6a 89 47 bb
       -0.1222245 0.13084279 0.102259554 -0.0030446895
000330 bf 08 b2 bb e4 54 c8 3c 98 0c 4f 3c 50 17 57 bd
       -0.0054331715 0.024454542 0.01263728 -0.052512467
000340 79 ed ea bc 9c 0d 4f 3d a8 aa ea 3d 23 d6 9e 3d
       -0.028677689 0.05055009 0.11458331 0.07755687
000350 c8 9e 07 bd d7 c1 80 3d e7 9e 1c bd 02 e3 93 3c
       -0.03311041 0.06286972 -0.03823748 0.018052582
000360 21 10 a5 bd 12 7a f1 3c 3f 41 84 3c f1 40 07 3d
       -0.08059717 0.029477153 0.016144393 0.033020917
000370 60 37 49 3d bd e4 ba 3b 7e 90 c6 3c 61 97 6b 3c
       0.049125075 0.0057035373 0.024238821 0.014379353
000380 7d ac 5e bd 97 50 b9 3d bc c4 a2 bc 98 a4 2b 3d
       -0.054363716 0.090485744 -0.0198692 0.041905016
000390 c0 37 9c bd 5b 47 6f 39 1b aa 83 3d 0d 5c 61 bd
       -0.07627821 0.00022819398 0.064289294 -0.055019427
0003a0 78 9c 4c 3d 35 09 8a 3d 8f 85 d1 3d 3f 92 c7 3d
       0.049953908 0.06740037 0.102305524 0.09744691
0003b0 24 41 78 bd 67 30 e2 3d 6b 62 1c bb 28 75 e1 3c
       -0.060608998 0.11044388 -0.0023862373 0.027521685
0003c0 5e c3 43 3d 06 9a 49 bd 7b 8f 17 3d 92 68 ad 3d
       0.04779374 -0.049219154 0.037002068 0.08467211
0003d0 2a c4 0f bc ce 55 c6 bc ff 9b eb bc 61 62 bf 3c
       -0.0087747965 -0.024210837 -0.028760908 0.02336234
0003e0 68 32 40 bd 7e 99 68 bd c4 e9 58 3d 9b df 74 3b
       -0.04692307 -0.056787007 0.05295731 0.0037364725
0003f0 4e b2 9c 3d 22 72 e6 3c 23 ab 0a 3d 34 44 84 3c
       0.076511964 0.028130595 0.033854615 0.016145803

bias f4 [128]
000000 4f 84 cc 3d 01 a7 40 3c f4 a4 54 bd 8b 76 61 3d
       0.09986173 0.011758567 -0.051915124 0.055044692
000010 e9 a9 99 3d f2 b4 32 3d 8e 02 05 bc 93 a6 17 bd
       0.07503111 0.043629594 -0.008118285 -0.037024092
000020 fe 4b 19 3d 2b aa c5 3c 94 7b a5 bd f2 14 4c 3d
       0.037425987 0.024128994 -0.08080211 0.049824663
000030 a0 c7 36 3d 99 74 41 3d 23 d6 24 bd 71 d6 26 3d
       0.04462397 0.047230337 -0.04024328 0.04073185
000040 d3 fb 81 bc 2d 8f 6f 3c b4 46 b3 bb 5a 59 16 bd
       -0.01586715 0.014621538 -0.005471075 -0.036706306
000050 84 f4 08 bd 90 59 7d 3d cc ae 14 ba 7f d5 6f 3d
       -0.033436313 0.06185299 -0.0005671799 0.058553215
000060 a5 4c 34 3d 61 c6 92 3d 3b b9 16 bd ee f2 2e 3d
       0.044018406 0.07166744 -0.036797743 0.042712145
000070 23 14 38 3d 69 4e 83 bc d6 6d 0f bd a3 ae 86 3d
       0.04494108 -0.0160286 -0.035016857 0.06576278
000080 e6 0b 1e 3d b6 e2 b7 bc ce f8 82 3d be e2 3c 3c
       0.038585566 -0.022446971 0.06395112 0.011528669
000090 8a dd 5d 3d 02 cf 49 bb 6f cb 65 3d 09 fe c8 3c
       0.054166354 -0.0030793552 0.056102213 0.024535196
0000a0 c4 7c 46 bd 13 cf b2 3d 0b 63 a8 3d 61 01 51 3d
       -0.04845883 0.087309025 0.08222016 0.051026706
0000b0 d9 55 0e 3d e6 3e 7b 3d 54 ea ca bc 33 03 92 3d
       0.03474984 0.06133928 -0.02476994 0.071295165
0000c0 5e e6 93 bd bc ec 99 bd 38 84 f8 bb ad 03 65 bd
       -0.072216734 -0.075158566 -0.007584121 -0.05591171
0000d0 74 75 f5 3c 63 6c 0b 3d d3 57 3d 3d a5 6c a2 3d
       0.029963233 0.034038913 0.046226334 0.079308785
0000e0 bf c1 df bc 63 07 ab 3d 3b 0f 3e 3d 23 4c 50 bd
       -0.027314065 0.08351018 0.046401244 -0.05085386
0000f0 c9 a3 3e bd be 44 f3 bc 0a 1e 33 3d 54 b5 8c 3d
       -0.046542916 -0.029695865 0.04372982 0.06870523
000100 76 6e 23 bd 53 27 0a bd db c1 c5 bd 34 fb 91 bd
       -0.039900266 -0.03372891 -0.096561156 -0.07127991
000110 72 32 c8 bc c6 ba 75 3c bf f2 a5 bd a0 77 65 3d
       -0.024438117 0.014998144 -0.08102941 0.056022286
000120 b6 5b 77 3d ab 3c a1 3c 90 12 bf 3d 92 ab 6a 3d
       0.060390197 0.019682249 0.093297124 0.05729253
000130 58 cb 1d bc 1f 7d 9f 3c 37 b0 9f 3c d6 d4 85 bd
       -0.009631 0.019468842 0.019493205 -0.06534736
000140 ca a0 6e bd de 08 81 bd a1 c9 85 bd 39 ca 6a bc
       -0.05825881 -0.063005194 -0.06532598 -0.01433044
000150 d6 6f d3 3b 41 36 62 bc 7d fb 59 3d 5e d9 0f 3d
       0.006452541 -0.01380688 0.053218354 0.035119407
000160 5d ad dc 3b 54 be 83 bd 22 f5 9b bd 89 97 97 bd
       0.0067345337 -0.064327866 -0.07615115 -0.0740195
000170 33 d4 0e bb 89 79 fc 3c 3d 60 8f 3d 5a e5 79 3d
       -0.002179396 0.030819671 0.07000778 0.061009742
000180 58 0f 8b 3c ff 4d 82 3d 50 fd 52 bd 4b 31 ab 3c
       0.01697509 0.06362533 -0.05151111 0.020897528
000190 22 0e 61 bc b4 2a 9e 3b 3a 0a 90 3d 38 39 2a 3d
       -0.01373628 0.004826868 0.070332006 0.041558474
0001a0 da a4 7f bc a6 5f d2 bb 3e a9 d4 bc a5 e6 09 bc
       -0.0156032685 -0.0064200936 -0.025959607 -0.008416806
0001b0 93 ec 91 bd d6 87 79 bd b4 6c ae 3d d9 f4 81 3d
       -0.07125201 -0.06092056 0.08516827 0.06345529
0001c0 79 fd aa bc a2 23 ff bc 84 a1 af bd d8 77 31 bd
       -0.020872818 -0.03114492 -0.085757285 -0.043327183
0001d0 79 b0 ec 3c c0 75 d0 bc 68 46 03 3d ab 99 db bc
       0.028892742 -0.025446773 0.032049567 -0.026806673
0001e0 c1 db 7f bd ea 55 18 3d 11 2a ff 3c 93 2d 18 3d
       -0.062465433 0.03719131 0.031147989 0.037152838
0001f0 75 c5 47 bd 16 b8 86 bc 80 8e bb 3d 05 b7 66 3c
       -0.048772294 -0.0164452 0.09158039 0.014081721

weight f4 [128, 128]
000000 df 5f 39 3c ba 77 88 3c c7 67 c8 3d 79 a9 c9 3d
       0.011314361 0.016658653 0.09785419 0.098467775
000010 ba 42 85 3c 6d 9b d4 3d 7c ae e1 3b 60 9e 83 3d
       0.01626717 0.103812076 0.0068872552 0.06426692
000020 01 5d 92 3d b7 11 a9 bd ee db 8a bd 5c 60 78 bc
       0.07146645 -0.08255332 -0.067802295 -0.015159693
000030 a8 5c e5 bd 24 97 7e 3d 04 10 21 bc 99 f4 97 bc
       -0.111993134 0.062155858 -0.009830479 -0.01854925
000040 c0 e6 fc 3c 00 7e cb bd 8d 02 ff bc 1b 22 01 3e
       0.030871749 -0.09936142 -0.031129146 0.12610666
000050 7a ff a6 3c ca 4d 2e bc 10 97 3f bd 4e fe 56 bd
       0.020385493 -0.010638664 -0.046774924 -0.052488618
000060 0b 7c c1 3d 06 5e 1f 3c 99 c9 cf bc 85 ce 57 3d
       0.094474874 0.009727007 -0.025364684 0.052687187
000070 b9 bd b0 3c ee bd ab 3d 8f fe 98 bb c0 51 8d 3d
       0.021574842 0.083858356 -0.0046690176 0.06900358
000080 99 71 32 bc 4a 9b 49 3d 64 a6 26 bd d1 c5 a2 3b
       -0.010891342 0.04922036 -0.040686026 0.004967429
000090 a6 03 c8 3b b8 cd ba bd f7 07 a7 3d b2 13 87 bd
       0.0061039506 -0.09121269 0.08155816 -0.065955535
0000a0 23 95 9e bc 61 b4 8f 3d d5 99 86 3b 61 bd 0e 3d
       -0.019358223 0.070168264 0.0041076937 0.034848575
0000b0 08 6e d0 3d 64 ca bb 3b cb e0 2b bb 6d e3 5e bd
       0.10177237 0.005730914 -0.0026226516 -0.05441611
0000c0 f6 f9 6e bc 19 79 8f bd a4 92 2a 3d 16 c1 6f 3d
       -0.0145859625 -0.070055194 0.041643754 0.05853375
0000d0 22 65 b9 3d a5 cd 9c bd 69 93 02 bd 7e f9 79 3d
       0.09052493 -0.07656411 -0.031878863 0.06102895
0000e0 aa b4 c3 3d e6 d0 d4 3d 75 8c b5 3d c7 7c 52 3c
       0.09555943 0.10391407 0.08864681 0.012847132
0000f0 4b 06 96 3d 68 49 9b 3d bb 8e a2 bc 3d 29 69 bd
       0.07325419 0.075823605 -0.01984345 -0.056924094
000100 f5 f4 85 bd 35 d5 3d bd 01 c6 54 3d 22 fc da 3c
       -0.065408625 -0.04634591 0.051946644 0.026731554
000110 1e aa b3 3c c9 7b 93 bc c2 ea bd 3d 57 ff ba 3c
       0.021931704 -0.018003361 0.09273292 0.022826834
000120 0f f1 35 bd e2 4f 38 3d 8c fe d7 bc 95 8d 9c 3d
       -0.044419345 0.044998057 -0.026366495 0.07644192
000130 ef 48 e5 bc a0 7f 82 3d 5a 27 08 3e 57 82 7d 3d
       -0.027988879 0.06371999 0.13296261 0.06189188
000140 bd 64 84 b9 89 d8 64 3d 93 50 f7 bc 54 cb e5 3d
       -0.00025252058 0.055870567 -0.030189788 0.112204224
000150 af ca e1 3a 77 56 b1 bd 7d ca df bc ca 3f 52 3d
       0.0017226542 -0.0865907 -0.027318234 0.051330365
000160 52 4c 81 3d 95 aa 3b bd 86 30 9d bc 1d 6b b8 3c
       0.06313385 -0.045816977 -0.019188177 0.022512013
000170 6f da 64 3d c5 fa ef 3d 78 85 f3 bc 49 59 a3 3c
       0.055872377 0.11717752 -0.029726729 0.019940035
000180 a8 db dc bc 4a 08 49 bd 56 1d 71 bc ed 5e d7 3b
       -0.026960209 -0.04908017 -0.014716467 0.0065725953
000190 b6 9c d0 3d 5d a2 a2 bd 82 ac 2f bd 5c 8e a7 bc
       0.1018614 -0.079411246 -0.042889126 -0.020453624
0001a0 2d 2c 53 bc 39 e7 48 3b 58 a6 43 3d c9 65 01 3a
       -0.01288895 0.0030655398 0.04776606 0.00049361266
0001b0 af 00 66 3d ed e8 a8 3d ee d8 0c bd 98 40 b0 3c
       0.056152996 0.08247552 -0.034386568 0.021515176
0001c0 cb fa fe 3c bd e9 f3 bc ca 19 96 3d 1d 53 eb 3c
       0.031125447 -0.029774541 0.073291376 0.028726155
0001d0 30 aa 7e 3d 54 c1 16 3c 02 18 1b 3d 23 39 5e 3d
       0.062174022 0.009201366 0.037864693 0.05425371
0001e0 26 d5 c7 bd 71 53 d6 bd ec 63 8f 3c c3 fa fb bc
       -0.09757452 -0.10465134 0.017503701 -0.030759221
0001f0 ed 6a 8c bd 94 34 3b 3d 60 92 35 3d 26 38 44 bc
       -0.06856332 0.04570444 0.044329047 -0.011976277
000200 a2 99 87 3b d2 6d bb 3d 32 a8 3d 3d 46 ae dc 3c
       0.0041381875 0.09151806 0.04630298 0.026938569
000210 d0 d5 8f 3c 30 e3 40 bd 9e 13 43 3d ea 30 83 bd
       0.017558008 -0.047091663 0.04762613 -0.06405814
000220 0c 12 95 3b 65 88 a0 bc 90 ec df bb cf d6 c6 bd
       0.0045492705 -0.019596288 -0.0068336204 -0.0970894
000230 dc b0 ea 3c b7 cd 46 bd 01 5a c2 3d 66 97 14 3d
       0.028648786 -0.04853603 0.09489823 0.036277197
000240 dc 87 d2 bc 03 52 51 3c 48 29 b8 bd d3 fc a9 bd
       -0.025699548 0.012775901 -0.08992249 -0.083001755
000250 0d be 47 3b 5a f0 0d 3e 5e de 75 3c ac a1 34 39
       0.003047827 0.13861218 0.01500663 0.00017226365
000260 ea 4c ce 3c a0 b6 90 3d 0c da 54 bc c8 ae e0 bb
       0.02518316 0.07066083 -0.01299144 -0.006856773
000270 62 01 ab bd 02 1f db 3c aa 46 51 bd 81 ab 70 bb
       -0.08349873 0.026748184 -0.05109278 -0.0036723318
000280 6c 39 da 3d 5b fd a3 bc 4a e3 57 bd c6 fb ae bc
       0.106554836 -0.02001827 -0.052706994 -0.02136029
000290 c3 d6 0c 3e 0e 71 96 3d c6 e5 87 3d 0c c8 c4 3c
       0.137538 0.07345782 0.06635623 0.024021171
0002a0 1a c6 ce bc 20 c8 1c 3b fa d2 22 3d a2 b5 80 3d
       -0.025240947 0.0023922995 0.039751984 0.06284644
0002b0 0a 0a d7 bd 62 09 96 bc ed 04 b2 3c 35 ac ae 3d
       -0.10499962 -0.018315021 0.021730864 0.0852894
0002c0 70 a1 8a bd ea 72 62 3c ae a4 a2 3c a8 58 03 3e
       -0.06769073 0.013821343 0.019853916 0.12826788
0002d0 25 6e 01 3d 89 b3 15 3e 69 55 8d bd d9 5f 5d 3d
       0.031599183 0.14619268 -0.06901056 0.054046486
0002e0 f3 6f 23 bd b4 4e 75 bd 60 25 82 3d f2 85 ae bd
       -0.039901685 -0.05988951 0.06354785 -0.08521642
0002f0 7e 46 8e 3c 1b 7b b1 bc b8 aa cb 3c 93 23 c9 bc
       0.017367598 -0.021665147 0.024861678 -0.024553096
000300 50 c3 84 3a b6 37 e6 3d 57 93 75 3c b9 62 90 3a
       0.0010129008 0.11241095 0.014988742 0.001101575
000310 64 b3 cb bd a2 4a 16 bd 4c 79 98 3c 57 3f c5 3d
       -0.099463254 -0.03669227 0.018612526 0.09631222
000320 0d 6f b9 bc ac 6a f2 3d 77 af 7e 3c 7a 52 70 3d
       -0.022635961 0.11836752 0.015544764 0.058672406
000330 9d 4f 37 3d 2a 2d 1c bd 6f 95 d8 3c cf 5b c9 3d
       0.04475366 -0.03812901 0.026438443 0.09831964
000340 af 5a 2c bd f1 22 04 bd 78 72 1c bc c3 44 dc bd
       -0.04207867 -0.032259885 -0.009548776 -0.10755303
000350 b5 2b 07 bb b6 36 16 3d ab d7 92 3d 58 5f 36 bd
       -0.0020625417 0.03667327 0.07170042 -0.04452452
000360 0b e6 00 be d4 bd a2 bd 4a 0b ff ba f7 c1 77 bc
       -0.12587754 -0.07946363 -0.001945832 -0.015121928
000370 0c 60 ca 3b 5f b6 b4 bd bf a1 a3 bc 22 23 6b 3d
       0.0061760005 -0.08823847 -0.019974587 0.057406552
000380 ad ae 3b bb c2 ee 4d 3d 87 6e c8 3c 8a 9b 73 bd
       -0.002863805 0.050276525 0.024466766 -0.059474505
000390 8b 6e 89 3d 7b 17 c6 bc d1 45 55 3d 81 f4 c6 3d
       0.067105375 -0.024181118 0.052068535 0.09714604
0003a0 e1 5e ba 3d 6e 96 b0 3d 6b 98 3a 3d 59 48 de bc
       0.09100128 0.08622442 0.045555513 -0.027134107
0003b0 e5 b6 3a bd 35 95 9d bd 8b cf 95 3d 1b e1 e3 3c
       -0.045584578 -0.076944746 0.07314976 0.0278173
0003c0 8d 73 22 3d d2 1e 50 3c 70 8c 0d bd 52 16 b3 3d
       0.03966098 0.012702661 -0.03455776 0.08744492
0003d0 b0 30 52 bd e1 fb b4 bb a6 e2 0e bd 82 3c 96 bd
       -0.051315963 -0.0055231904 -0.034884118 -0.0733576
0003e0 ba f0 78 bc c7 e7 fd 3d 99 00 8c bc aa 2e f7 3c
       -0.015194112 0.12397724 -0.017090129 0.030173618
0003f0 9b dc 06 bd 3a d4 cb bc 6b 3c 2b 3d 23 5a 93 bd
       -0.03292523 -0.024881471 0.041805666 -0.071949266
