models/agModels-predicttop10_votes/models/NeuralNetTorch_BAG_L1/S20F3/net.params (torch, 248949 bytes, 16 tensors)

weight f4 [6, 4]
000000 94 c5 91 bf 0d d7 91 bf 90 2b 84 be 55 19 db be
       -1.1388421 -1.1393753 -0.25814486 -0.42792764
000010 59 3e 5a 3f ac 8c 2f 3f fc 5b 9c be ad a2 07 c0
       0.85251385 0.68574023 -0.30538929 -2.119304
000020 f4 64 f4 3e 4b ee 26 be 80 b2 b8 3f c2 d5 85 3e
       0.4773327 -0.16301839 1.4429474 0.26139647
000030 8a c6 25 3e 58 a7 5f 3f ce d0 0e be d3 02 e6 bd
       0.16189018 0.8736472 -0.1394684 -0.112310074
000040 48 1b 71 3f 0c e7 9f 3f ea 94 00 40 1f e6 44 3d
       0.9418225 1.2492385 2.009089 0.048071023
000050 93 c7 13 3f ec c5 be be be c9 4c bf 33 8f 11 c0
       0.577264 -0.37260377 -0.79995334 -2.2743652

weight f4 [6, 4]
000000 de 83 4d be 3d af 38 bf 46 35 0c 3f 4c d1 7b 3e
       -0.20069835 -0.7214239 0.5476879 0.24591559
000010 ee 5e 2f be cc 0b 2e bf 3b d2 6e 3f 9c 60 f5 3e
       -0.17126057 -0.6798675 0.93289536 0.4792527
000020 b3 f8 12 bf 14 c1 69 3f a9 be 8f 3f c8 d6 a6 3f
       -0.57410735 0.9131024 1.123006 1.3034296
000030 b1 d6 bb bf 3f e2 24 40 df 11 f7 be 4e d2 ab 3e
       -1.4674894 2.576309 -0.48255822 0.33558887
000040 c0 00 d4 bf 5d b5 13 bf be 56 ed be 98 20 f4 be
       -1.6562729 -0.57698613 -0.46355242 -0.47681117
000050 89 49 83 bf 10 6c 89 3f 3b a8 d4 bd 23 c2 43 3f
       -1.0256816 1.0736103 -0.1038365 0.76468104

weight f4 [6, 4]
000000 42 09 da bd 9c 3a 2c 3f 7f db 57 bf b4 c8 3a bc
       -0.10646297 0.6727693 -0.843193 -0.01140039
000010 d9 a6 5a 3f c4 81 c3 be bf 0e 86 3f 1e ed c0 3e
       0.8541084 -0.3818494 1.047325 0.37680906
000020 18 cd b0 3d 9d 2c 90 3f 5c a9 96 3e e7 ea e7 3e
       0.086328685 1.1263615 0.29426086 0.45296404
000030 f4 40 50 bf 26 79 a7 bf fe ac 3f bf d2 13 aa bf
       -0.8134911 -1.3083847 -0.7487334 -1.3287299
000040 e9 09 58 3e ec 7f a9 be f2 e1 e0 be ac 8d 70 3e
       0.2109753 -0.3310541 -0.43922383 0.23491544
000050 b9 7d 41 3f 16 55 16 be f8 09 a9 be 81 9e 95 bf
       0.7558246 -0.14680895 -0.33015418 -1.1688997

weight f4 [6, 4]
000000 3d 67 30 bf e6 9c 86 3f 9f dc 1b bf 52 ee a2 bf
       -0.6890753 1.0516632 -0.60883516 -1.272898
000010 e4 35 a2 3d 3c fe 2e bf 22 7b 1f 3f bc 96 3c bf
       0.07920435 -0.6835668 0.6229726 -0.736675
000020 a9 0f 89 be e0 19 e2 3d 97 e8 7f 3e ac 99 93 3f
       -0.2676976 0.110400915 0.2499107 1.1531272
000030 a1 3c 9c 3e 14 ac cd 3e 64 31 4f be 81 dd e4 bd
       0.30515006 0.40170348 -0.20233685 -0.11175061
000040 25 ef 40 3e 75 ab 47 bf f3 80 f3 bf ad b3 05 3e
       0.18841226 -0.77996 -1.9023727 0.13056822
000050 93 d1 29 bf c5 d6 8c 3e 9a d1 f5 3d fe c9 b0 3e
       -0.6633541 0.27507606 0.12002869 0.34529108

weight f4 [6, 4]
000000 2c 12 75 3f 01 d0 7c bf 83 30 9a 3e 13 3c ea bd
       0.95730853 -0.9875489 0.30115137 -0.114372395
000010 17 4e 7f 3f 87 38 fd be 04 02 41 3f 8c bc 1e 3f
       0.9972853 -0.4945719 0.753937 0.6200645
000020 cc 0f 7d 3f c7 ae be bf f5 65 13 3f 3f 2d 26 3e
       0.9885223 -1.4897088 0.5757745 0.16228198
000030 3f 30 e7 3d fe 44 50 bf 00 13 24 3f ea 39 f6 bf
       0.11288499 -0.81355274 0.6409149 -1.9236424
000040 41 29 a8 3f 55 62 51 be 40 ab 45 3f c0 d1 80 3f
       1.313759 -0.20447667 0.7721443 1.0064011
000050 52 bf bf 3e 4e d5 bb bf a8 48 ff 3f df c1 c2 3d
       0.37450653 -1.467447 1.9944048 0.09509634

weight f4 [26, 9]
000000 2e 96 ff be bf 4e d9 bf a9 a3 04 bf a6 16 f8 be
       -0.49919266 -1.6977156 -0.51812226 -0.4845478
000010 bd a5 24 bf 5c 5f bb bf 94 7a 5c bf dc 4c 05 c0
       -0.64315397 -1.4638476 -0.8612454 -2.0828161
000020 40 df 8a bf ea c6 36 bf b5 1e ba 3c eb 40 a5 3e
       -1.084938 -0.7139727 0.02271972 0.3227609
000030 38 40 89 be 7b b4 a2 3f 1c fd c1 3c 62 0a 62 bf
       -0.26806808 1.2711328 0.023680262 -0.8829709
000040 b9 d5 dc 3e 5d 21 8b bb 3f 3d ab 3f 98 39 8c be
       0.43131807 -0.0042459206 1.3378066 -0.2738769
000050 80 eb 0c bf e0 f2 38 c0 39 93 c2 bf ba 4e 83 3f
       -0.55046844 -2.889824 -1.5201179 1.02584
000060 68 35 48 3e 50 bd 3b bf bd 4c da 3f 08 f3 b4 3e
       0.19551623 -0.7333574 1.7054669 0.35341668
000070 bd 6f 7c 3f cf 31 b8 3f 73 2e 66 bd 51 fb 22 bf
       0.98608 1.43902 -0.05619664 -0.6366473
000080 c5 bb 25 bf b9 84 dd 3f d0 c5 75 bf 84 04 20 bf
       -0.6473964 1.7306129 -0.9600496 -0.6250689
000090 fe 54 94 3d dd 63 11 3f 5b 2d 06 3f 66 d1 9d 3f
       0.072427735 0.56793004 0.52412957 1.2329528
0000a0 60 9f 8d bf 07 9f db bf 49 35 c5 3f a5 48 98 bb
       -1.1064262 -1.7157906 1.5406886 -0.004647332
0000b0 1c 08 cd bf 78 e8 5d 3d e9 a8 1e bf 65 6f 3d 3f
       -1.60181 0.054176778 -0.61976486 0.739981
0000c0 2a 56 97 3f d4 21 1f be e7 26 33 bd db e0 24 3f
       1.182317 -0.15540248 -0.043738272 0.644056
0000d0 3d ff 03 3f 34 1c 63 3e e0 56 5b 3d f8 88 22 3f
       0.5156134 0.22178727 0.053549647 0.6349025
0000e0 8e 35 2d 3d 15 04 81 bf 49 19 3d 3f 63 e4 8d 3f
       0.0422874 -1.0079371 0.7386671 1.1085323
0000f0 3e 56 08 40 de 5d 63 bf 96 02 30 bf 08 ea 12 bf
       2.1302638 -0.88815105 -0.68753946 -0.57388353
000100 83 5e c2 3f b5 b3 38 bf 0f e9 20 3e aa 7b ab 3f
       1.5185093 -0.7214921 0.15713905 1.3397114
000110 56 3c 03 40 88 9b 29 3f 49 33 40 bf 5a 33 ec be
       2.0505576 0.66252947 -0.75078255 -0.46132928
000120 72 6c 82 3e 09 7d 14 bf d8 95 6e 3f 77 a1 fd 3e
       0.25473362 -0.5800329 0.93197393 0.4953725
000130 9d fc 50 bf e5 dd a1 3f af bb 86 3e 04 71 1a bf
       -0.8163546 1.2645842 0.26315066 -0.603287
000140 d3 7a 6c bf 6f f7 13 bf c5 59 19 3e 7e 53 85 bf
       -0.92374915 -0.5779943 0.1497565 -1.0416105
000150 ce 44 38 bf 28 fa 0d c0 bb bf 2e bf 6d 42 02 3f
       -0.7197999 -2.2183933 -0.6826131 0.5088261
000160 8d 1f 4a 3f a6 9d aa 3d 96 91 dd 3e 02 fb ec bf
       0.7895439 0.0833085 0.43275136 -1.8514102
000170 cb f8 8e bf c1 7b 02 3e 51 87 12 3f 28 07 ad 3f
       -1.1169676 0.12742521 0.57237726 1.3517809
000180 43 18 c8 bf af b0 b3 3e 53 ab ac bf a0 92 5e be
       -1.5632404 0.35095736 -1.3489784 -0.2173562
000190 7b 6d 88 be d6 cd 9b bf 1d 31 25 3f 01 c2 9b bf
       -0.26646027 -1.2172191 0.64528066 -1.216858
0001a0 d3 ca 8f bf 0c dd b9 3e 9d 6e 43 bf 30 2d 65 bf
       -1.1233772 0.36301458 -0.7634066 -0.89522076
0001b0 d1 4c 3a bf 78 e9 06 3f 3d 20 c7 3e 8e 13 21 3f
       -0.7277346 0.52699995 0.38891783 0.62920463
0001c0 35 ed b8 bf b4 aa 4c bf 6c b3 9a 3f 56 78 eb bf
       -1.444739 -0.7994797 1.2086005 -1.8396099
0001d0 d5 08 dd 3e 4d 90 90 3f 3b b2 dd 3e d9 23 92 bf
       0.431708 1.1294037 0.43300042 -1.141719
0001e0 93 0b cc be d3 4f ac be 65 bb 75 3f 2f 21 e8 be
       -0.3985258 -0.3365465 0.95989066 -0.45337817
0001f0 c1 17 1f bf d6 51 b2 be e5 eb c0 bf e4 2c 07 bf
       -0.6214562 -0.3482806 -1.5071989 -0.5280287
000200 28 d0 96 3f e1 ab 49 3f 66 78 ce 3e 90 81 90 3e
       1.1782274 0.7877789 0.40326232 0.28223848
000210 be 1c 31 c0 66 af 4f bf 30 0d ef 3e 9d 8e 93 3e
       -2.7673793 -0.8112701 0.4668975 0.28819743
000220 86 b1 90 bf 7a ab 81 3b 1a 5a 28 be 5d 1b 81 be
       -1.1304176 0.003957209 -0.16440621 -0.2521619
000230 77 48 1a 40 05 50 d1 3f 7e 96 99 be 9c 5f c1 bf
       2.410673 1.6352545 -0.2999763 -1.5107303
000240 d3 29 0b bf a0 17 4f bf 7c fa b3 bf 84 b8 da be
       -0.54360694 -0.80895424 -1.4060817 -0.427189
000250 b0 bb a5 be d4 a5 34 bd 26 e6 09 3f 17 a1 cd bf
       -0.32369757 -0.04410346 0.53866804 -1.6064786
000260 c3 7a c1 3e 63 28 13 c0 8a 39 5e bf 24 c9 d6 bf
       0.37788972 -2.29934 -0.8680655 -1.6780133
000270 b5 76 0f 3f fa d8 b8 bf 69 5d 37 3f 71 83 b0 bf
       0.5604051 -1.4441216 0.7162691 -1.3790113
000280 51 44 a3 3e 16 c4 d7 bd a0 d9 59 3e dd cf 9a 3f
       0.3188806 -0.10535447 0.21274424 1.2094685
000290 9e d4 9e 3f 13 67 c5 bd e8 12 09 40 5d 70 9d 3d
       1.2408636 -0.096388005 2.141779 0.07687447
0002a0 a7 0c fd 3e 5d 11 6d 3d c6 5f d0 3e 2e 43 de bf
       0.49423715 0.057877887 0.4069807 -1.7364252
0002b0 51 e4 98 3f 2b 86 28 40 19 ea 65 3e bd c2 a5 3e
       1.1944677 2.633189 0.22452582 0.32375136
0002c0 a9 40 8f bf 12 13 0c 40 f2 e0 ee 3d 98 6c 48 3f
       -1.1191608 2.188664 0.11663999 0.782907
0002d0 98 c5 8c bf 3c f3 81 bd 25 07 be bf 43 95 e1 bf
       -1.0997801 -0.063452214 -1.484593 -1.7623676
0002e0 b0 a4 f2 bf 39 59 5b bb db c6 fd bf 61 5d f7 bf
       -1.8956509 -0.003346993 -1.9826311 -1.9325372
0002f0 66 9a 08 40 e8 e0 78 bf ff 1e 12 bf b6 49 d3 3f
       2.1344237 -0.9721818 -0.57078546 1.650687
000300 11 51 9f 3e 80 5d 30 bf 0f b0 43 bd 53 f9 e9 3f
       0.31116536 -0.6889267 -0.047775324 1.8279213
000310 26 18 0b bf 21 70 45 3f 06 07 2d 3f 79 0b bf 3f
       -0.5433372 0.7712422 0.6758884 1.4925376
000320 99 48 1e bf b8 a0 12 be dc 87 02 3f ca 63 f7 be
       -0.61829525 -0.14319122 0.50988555 -0.4831832
000330 11 07 f4 bf b4 4f 3f 3f bb 1e ec bd dd 88 b4 bf
       -1.9064656 0.7473099 -0.11529299 -1.4104267
000340 f5 2e 0c bf 5d da b8 bf 93 55 2f bf b6 7f 80 3f
       -0.5475915 -1.4441639 -0.6848995 1.0038974
000350 28 da 0e c0 5f 1a ed 3e 46 a8 11 bf 0c 29 12 bd
       -2.2320652 0.46309182 -0.5689739 -0.035683677
000360 b7 99 29 3f dd 4c 7d 3f 58 43 f4 be b9 a9 e6 3e
       0.66250175 0.9894541 -0.4770763 0.45051363
000370 d2 8e ac 3f a2 76 e0 3e 26 4a 02 bf 7a 6c 39 be
       1.3481085 0.4384051 -0.5089439 -0.18107787
000380 77 8e 4b be 2e e9 fc 3d 32 94 a3 3e 72 75 36 bf
       -0.19878565 0.12349163 0.31949002 -0.7127296
000390 19 30 43 3e f7 83 5c be 26 ed c4 3f 71 50 52 be
       0.19061317 -0.21534716 1.5384872 -0.20538498
0003a0 9c 31 d4 bb 91 71 b6 3c
       -0.0064756405 0.02227095

weight f4 [128, 76]
000000 6f 45 c7 3d 37 2b 3e 3d 1c 33 ee 3d 71 a0 76 3d
       0.0973004 0.04642793 0.11630842 0.060211603
000010 ed 2a 9d bd a7 10 c6 3d 32 dc 0c 3c 19 7d 46 3d
       -0.07674203 0.09671145 0.0085974205 0.048459146
000020 87 ce c6 bd b9 b8 8e bc 45 b4 03 be 4e a6 16 bd
       -0.09707361 -0.017422067 -0.12861736 -0.036779694
000030 6a 62 ed 3c 80 55 c5 bd 30 30 f5 3c 96 d2 63 3d
       0.028977592 -0.096354485 0.029930204 0.055620752
000040 21 5f ef 3b b4 2a a2 bd 36 f7 b8 bd 56 6f 1f bd
       0.0073050414 -0.07918301 -0.09031527 -0.038924538
000050 bc c1 49 3d f0 e7 e5 3d 08 75 84 3d 4f c2 85 bc
       0.049257025 0.11225879 0.064676344 -0.016328005
000060 92 82 1a 3d 3e 61 ee bd 94 15 d3 bd f6 7c 54 3d
       0.037722178 -0.11639641 -0.1030685 0.051876985
000070 67 c4 8d bd 8f b7 55 3d 57 e5 ad bd 2f 59 76 bd
       -0.069222264 0.05217701 -0.08491009 -0.060143646
000080 e4 68 c9 bd 00 14 63 3d 60 0e 61 bc 74 6b a7 3d
       -0.098344594 0.055438995 -0.013736337 0.08174792
000090 8e 2e 89 3d 39 0d 78 3d 5c 47 73 3a 0b bf 21 bd
       0.06698333 0.060559485 0.0009280348 -0.039488833
0000a0 72 07 f9 bc a0 28 2a 3c 96 09 60 3d 8c f3 a5 bd
       -0.030399058 0.010385662 0.05469664 -0.081030935
0000b0 13 a8 ba 3d db 17 19 ba 4c b4 a5 bd 59 6c 84 bd
       0.09114089 -0.00058400416 -0.080910295 -0.06465978
0000c0 18 16 e8 3d 96 4d c5 3d 80 36 ca bd 21 83 87 3d
       0.11332339 0.09633939 -0.09873676 0.06616808
0000d0 e4 72 98 3d f0 57 27 3d 7d f8 b4 3d c8 b1 a2 bd
       0.07443789 0.040855348 0.08836458 -0.07944065
0000e0 e8 20 96 3c 2e 9d 00 3d 40 72 57 bd 66 de 59 3d
       0.018326238 0.0313999 -0.05259919 0.05319061
0000f0 db 84 80 bc e9 84 62 3d 85 fb 87 bc ba f9 50 bd
       -0.01568835 0.055302534 -0.016599426 -0.051019408
000100 11 06 cb 3c 01 21 35 3d 58 c5 94 bd 78 d1 91 3c
       0.024783166 0.044220928 -0.07264203 0.017800078
000110 54 a6 92 3d 26 1b 51 bc fc d8 dd 3c 56 33 97 bc
       0.07160631 -0.01276282 0.027081005 -0.018457096
000120 d0 af 23 3d 10 4b b1 bd 35 5b 85 bd 42 b6 70 bd
       0.03996259 -0.08656895 -0.06511537 -0.058767565
000130 7e 26 13 3e 7f c6 32 3c bc b9 9f ba e5 79 68 bd
       0.14370152 0.010911583 -0.001218609 -0.056756873
000140 80 d6 df 3d 4a cb de 3d d8 31 a2 bd 36 13 a6 bd
       0.109295845 0.10878618 -0.07919663 -0.08109133
000150 80 2f 90 bd 8d 7c 83 bc 17 8d 9b bc da 28 a6 bd
       -0.0704031 -0.016050601 -0.018988175 -0.081132606
000160 07 a6 48 bd 5a 0e 0f 3d 46 a4 34 bd af 30 25 3d
       -0.04898646 0.034925796 -0.044101976 0.04032963
000170 4e c3 30 3a b9 c0 51 bd a6 23 99 3c 69 3e ca 3d
       0.000674297 -0.051209185 0.018693756 0.09875185
000180 d8 65 95 bd 40 28 06 3c b2 20 1b bd 18 dd eb 3d
       -0.07294816 0.008188307 -0.037872978 0.1151678
000190 bd e6 d4 bd 80 08 d9 bd 30 eb f1 3d 28 85 8a bd
       -0.10395572 -0.10597324 0.118124366 -0.06763679
0001a0 0e 5a e0 3c 8b c5 91 bb be ba 8d bc 37 b1 91 bc
       0.027386691 -0.004448598 -0.01730096 -0.017784698
0001b0 c3 73 9d 3d 43 0e 28 3c d5 a3 dd bd a5 6f 82 bd
       0.076880954 0.0102573065 -0.10822264 -0.06368951
0001c0 3d 54 0b bd e3 fc 7d 3d 56 75 8f bd ef 8a dd 3d
       -0.034015883 0.06200875 -0.07004802 0.10817515
0001d0 08 5d a5 bc 86 4a 76 bc 46 00 c1 3d 37 c6 78 3d
       -0.020185962 -0.015032416 0.0942388 0.060735907
0001e0 cd e5 e8 3d c4 ba 44 3d 20 b4 94 bd 31 cc 91 bd
       0.11371956 0.048029676 -0.072609186 -0.071190245
0001f0 e9 35 20 bc 43 34 bd 3d 86 5b 2e bd 03 dd d1 bd
       -0.009778478 0.09238484 -0.042567752 -0.10247233
000200 08 4f 1a 3d 8c b7 ea 3d 53 28 2b bd e7 bb a1 bd
       0.037673026 0.1146079 -0.041786503 -0.07897168
000210 73 42 be bd 1d 37 38 3d 0d 77 c5 3b 99 06 87 bd
       -0.09290018 0.044974435 0.006026155 -0.06593055
000220 fc 1b b5 3b ae 07 79 3d 4b 2c ba 3d 88 0c bb 3d
       0.0055270176 0.06079834 0.090904795 0.091332495
000230 c1 2b 5d bc 35 c6 d7 bd f5 07 c0 bd 41 21 d1 3d
       -0.013499201 -0.10535852 -0.09376518 0.10211421
000240 4e f5 45 3d 4b b5 19 3d 3f f9 f3 bd 4b 0e de 3d
       0.048329644 0.03752641 -0.11912774 0.1084257
000250 c3 0d e2 3d ea 60 dc 3d ce d0 dc bd 65 1a 2d bd
       0.11037781 0.107606724 -0.10782014 -0.0422615
000260 b6 0c 34 bd 74 e5 0f 3e 1f 45 3a bd de eb 52 bd
       -0.043957435 0.14052373 -0.045476075 -0.05149447
000270 ea 0e 67 3d f4 d8 51 bd 9c b8 5d bd a9 16 7e bb
       0.056410708 -0.051232293 -0.054131135 -0.003877083
000280 68 a2 9d b9 39 38 bf bd cb 58 c4 3d 40 30 46 bd
       -0.00030066376 -0.093368955 0.095872484 -0.04838586
000290 00 df 19 3d ab cf e2 3d 81 8f a2 3d 90 5c 0c 3d
       0.037566185 0.11074766 0.079375274 0.034267962
0002a0 6e 6e f3 3d 57 7f 85 3c c3 b2 58 bd af 7b d9 3d
       0.11886297 0.016296072 -0.052904855 0.10619294
0002b0 4c 49 f3 3c 96 42 dc bd b6 f4 c4 bc a6 4a 9e bd
       0.029698037 -0.10754888 -0.024042469 -0.07729082
0002c0 39 7f d4 3d 4a 0f 88 bc 77 7b d0 bd 84 e5 7a bb
       0.10375828 -0.016608853 -0.10179799 -0.0038283775
0002d0 36 6e 9a 3d bc ab 03 3d 19 7f 24 3d 26 63 82 3c
       0.07540552 0.0321462 0.040160272 0.015916418
0002e0 0e ba 38 3d 64 1c bf bc 9c d0 35 bd 03 79 d8 bd
       0.04509931 -0.023328967 -0.0443884 -0.10569956
0002f0 a4 51 b3 bd eb 44 5f 3d 2d 66 81 bd 74 65 5f 3c
       -0.08755806 0.054509085 -0.063183166 0.013635028
000300 3c e8 1b 3d f4 4d 1d 3c cc 56 90 bd 0d ad e5 3d
       0.038063273 0.009601105 -0.07047805 0.112146474
000310 c8 fa 5e bd 43 5a a3 3d 26 63 f1 bd be fc b2 bc
       -0.054438382 0.079762004 -0.11786489 -0.021849032
000320 c5 09 81 3d 93 7c 40 bd ec e1 bd 3d f9 1e 9d bd
       0.063006915 -0.046993803 0.09271607 -0.07671923
000330 34 78 d4 bd 86 74 51 bd 76 70 57 3c 3b f5 f1 3d
       -0.103744894 -0.051136516 0.013149371 0.11814352
000340 99 55 35 bd a1 c7 63 3d 56 ad 89 bc 9a dd 05 bd
       -0.044271085 0.055610303 -0.016806286 -0.03268204
000350 c4 9e 8d 3d f6 72 a3 bd 05 a1 84 3c 36 cc e3 3d
       0.06915048 -0.079809114 0.016190061 0.111229345
000360 22 bf 68 bc 6d 20 b2 3d ba 27 e9 bc 6c c6 bb 3d
       -0.014205726 0.08697591 -0.028461326 0.09168705
000370 68 b8 df bd 26 da b3 bc 64 5d d8 bc 39 cf 37 3d
       -0.109238446 -0.021954607 -0.02641172 0.044875357
000380 b4 b2 44 3d b7 d6 c3 3d a4 c9 9e bc 60 1e 1b bc
       0.048021987 0.09562438 -0.01938326 -0.009467691
000390 d0 8f ef 3d 83 47 51 3c a8 6a c6 3d e2 b7 a3 bd
       0.11697352 0.012773397 0.09688312 -0.07994057
0003a0 87 44 aa bc 0b a8 16 bc 39 1d 5f 3d d5 7a bc 3d
       -0.02078463 -0.009195338 0.05447123 0.09203116
0003b0 68 3f 87 bb ab 45 e2 bd 81 02 8e 3d 4b 20 c9 3c
       -0.0041274317 -0.11048444 0.06934071 0.024551531
0003c0 91 a5 00 3d 9e 37 76 bd 1f 03 ba 3d f5 05 f9 3d
       0.031407896 -0.060111634 0.090826266 0.12159339
0003d0 64 a6 17 3d 56 fb d5 bd fe db a7 3d 60 0e af bd
       0.037023917 -0.10448329 0.08196257 -0.08547664
0003e0 95 67 c4 3c 7e 53 7c 3c ec c2 4f bd 3c 0c 14 3d
       0.023975173 0.015400765 -0.050723 0.03614448
0003f0 2f 02 d6 bd 92 c2 cc 3c 53 55 96 bd 2c e4 50 bc
       -0.10449635 0.024995122 -0.07340493 -0.012749713

bias f4 [128]
000000 4d 1e 87 bd e8 46 8c bd 71 cb a4 bd 17 0c 7d 3d
       -0.06597576 -0.06849462 -0.08046616 0.061779108
000010 c6 75 96 3c e9 5a 88 bb 79 13 05 3d 93 2d 88 3d
       0.018366706 -0.004161228 0.032489274 0.066493176
000020 63 f9 1d 3c 80 8c 97 3d dd 8e 3b bc 61 d0 45 3d
       0.009641978 0.07399845 -0.0114476355 0.04829443
000030 f7 c2 dc 3c 7b ca 83 bb e0 03 af 3d c4 78 e3 3d
       0.026948435 -0.0040219403 0.08545661 0.111070186
000040 3a 44 bf 3d 00 d6 e5 bc 04 6c 20 bd 07 f0 bf 3d
       0.09339185 -0.028056145 -0.03916551 0.093719535
000050 f5 47 56 bd fe d2 30 3c 94 6b 88 bd 39 31 f7 bc
       -0.052314717 0.010792492 -0.06661144 -0.030174838
000060 e5 98 39 bd 4f 6a 8e 3d 39 09 68 bd 0a d2 54 bd
       -0.045311827 0.069538705 -0.05664942 -0.05195812
000070 5e 55 49 3d bb 73 2d bc c9 77 c1 3c 1b 8f ae bd
       0.049153678 -0.010586674 0.023616688 -0.08523389
000080 92 12 57 bd 95 d1 65 3d 3c 6b 72 3d c6 8c e2 bd
       -0.052507944 0.056108076 0.059184298 -0.11062007
000090 01 e1 b6 bd f7 91 4b 3d a3 03 c7 bd 88 2c 81 bd
       -0.08929635 0.04969975 -0.097174905 -0.06307322
0000a0 19 45 8e bd 02 08 b8 bd 4f f9 78 bd a7 84 a0 3d
       -0.06946773 -0.08985902 -0.060784634 0.078378014
0000b0 a7 31 dc bd 96 4e a3 3d 80 a6 cd bd 7f 6b 0a bd
       -0.10751658 0.079739735 -0.10041523 -0.033793923
0000c0 68 79 12 bd 44 73 91 3d 1b 7a bf bd 62 18 85 bd
       -0.035760313 0.07102063 -0.09349462 -0.06498791
0000d0 97 28 cf bd 72 38 1e bc 55 65 4a 3d ce a7 ea 3d
       -0.10115164 -0.009657012 0.049413044 0.114577875
0000e0 31 9d c9 3d b5 64 d7 bc 8e 00 7d bd ae 6f be 3c
       0.09844435 -0.026293138 -0.061768107 0.023246612
0000f0 39 e5 9f 3d 1e e2 cc 3d dd a9 98 3d b4 36 17 bb
       0.078073926 0.10004066 0.07454274 -0.0023073377
000100 ea a6 c5 bd 49 a8 a0 bd 86 62 94 3d 9f 5b bc bd
       -0.09650977 -0.07844598 0.07245354 -0.09197163
000110 ed 50 ab bd 80 02 8d bd 7b 70 e9 bc ba 97 5f 3d
       -0.08365045 -0.068852425 -0.028496018 0.054588057
000120 c4 13 92 3d 89 55 ba 3d d1 21 49 3d 9f e5 ed 3c
       0.07132676 0.09098346 0.049104515 0.029040156
000130 ae 33 6c bc 4f 08 8d bd 91 41 5a bd 89 ba 9c bb
       -0.014416618 -0.0688635 -0.053285185 -0.004782979
000140 93 0d c9 3d b2 8d f2 bc d9 83 63 bc f8 40 b1 3b
       0.09817042 -0.029608581 -0.013886415 0.005409356
000150 39 f9 5e bd 75 c3 61 bd c2 06 0a 3d 4d 98 9f bd
       -0.054436896 -0.055118043 0.03369785 -0.07792721
000160 ae c8 08 bc f8 a1 a1 bc 27 e1 c6 3c 8a 7e 65 bc
       -0.008348627 -0.019730553 0.024277283 -0.01400722
000170 bb 41 58 bd 30 99 cf bc d5 c4 f6 bc 02 18 52 3d
       -0.05279706 -0.0253416 -0.030123154 0.051292427
000180 3c 88 f0 3c 00 d8 13 bd 26 d0 b6 3d ba 25 1d 3c
       0.029361837 -0.036094666 0.0892642 0.009591514
000190 aa 9b 81 3d 81 91 2d bd 66 67 c7 bd cf ce d4 bd
       0.06328519 -0.04237509 -0.097365186 -0.10391008
0001a0 fb d3 0c bd 04 1a 8d 3d 21 1f 6a 3d 4e 93 40 3d
       -0.034381848 0.06889728 0.057158593 0.04701548
0001b0 6f 80 e0 3c 7a 28 99 bd 68 b9 f6 bc 7a eb af 3c
       0.027404992 -0.074784234 -0.030117705 0.021474589
0001c0 5e 3e c8 bd e8 ee be bd 41 3d b2 bd 13 74 07 3d
       -0.097775206 -0.093229115 -0.087030895 0.03306968
0001d0 12 db 8c bc e4 16 b1 bc 4d cf 8c 3d 77 23 97 bd
       -0.017194305 -0.02161736 0.06875477 -0.07379811
0001e0 a7 e4 8d bd 97 70 a9 bc 80 dd 8b 3d f6 14 a5 3c
       -0.069283776 -0.02068357 0.06829357 0.020151597
0001f0 67 3e b9 bd 9f 6a aa 3d 00 b9 95 bd 38 77 b6 3d
       -0.090451054 0.083211176 -0.073106766 0.08909458

weight f4 [128, 128]
000000 51 e8 c7 3c 89 67 7f 3c 27 df 94 3d ce 51 ea 3c
       0.02440277 0.01558865 0.072691254 0.02860346
000010 a5 ce c2 bd ed f0 25 3d 5c ee a6 3d bb 33 2e bd
       -0.095120706 0.040512968 0.08150932 -0.042529803
000020 df b9 6a 3d 81 e4 78 3d 18 24 d2 bc 29 5b a5 bb
       0.057306167 0.060764793 -0.025651976 -0.0050462675
000030 8d f4 33 bc 9a 95 8e 3d c0 68 ea 3c 9e d0 4f 3d
       -0.010983598 0.06962128 0.028614402 0.050736062
000040 d1 36 aa bd 5b 27 2d bd 24 e5 8c bd 7a f4 80 3c
       -0.08311237 -0.04227386 -0.068796426 0.015741576
000050 9a c2 07 bd 3e 36 be 3c 9e bf 30 3d 35 de 02 bd
       -0.03314457 0.023219224 0.04315149 -0.031950194
000060 00 b8 a1 3b 8b 3d 8d bd f2 8c 71 bc b3 36 27 3c
       0.0049352646 -0.06896504 -0.014743077 0.010205912
000070 0a 9d 6d 3d 59 ce e4 3c cb 24 0d 3c 4c 6a 23 3d
       0.058011092 0.027930425 0.008614729 0.039896294
000080 47 99 83 3d 49 e6 af 3b 43 a5 ae 3d e0 79 7f bd
       0.0642572 0.0053680283 0.08527615 -0.06237209
000090 16 ff e5 3c 61 82 28 bc 07 ce 72 3d 8f 6d b2 bd
       0.028075736 -0.010284991 0.059278514 -0.08712303
0000a0 00 1c 1e 3d 1e f3 9f bd d7 36 c0 bc d6 fd f1 bc
       0.03860092 -0.07810043 -0.02346365 -0.029539984
0000b0 a9 84 16 bd 47 52 46 bd 72 59 95 bd 7a e9 a7 bd
       -0.03674761 -0.04841831 -0.07292451 -0.08198829
0000c0 40 5d ad bc 33 5d 88 3d c7 6c f6 bc fc 68 87 bd
       -0.02116263 0.06658401 -0.030081166 -0.06611821
0000d0 7c b4 d8 bc 23 92 25 bd 75 40 01 bb 2f bb 83 3d
       -0.02645325 -0.04042257 -0.0019722257 0.06432187
0000e0 12 51 c7 bd 98 67 2e 3d cd cd 6c 3d 57 8b 6a 3d
       -0.0973226 0.042579263 0.057813454 0.05726179
0000f0 77 dd 65 bd 8b 34 d9 3b 6a 72 35 3d 3b 4a 9b bd
       -0.05611941 0.006628578 0.044298567 -0.07582518
000100 d7 85 77 3d dd 82 34 bc 9e 97 a4 bd df b0 99 bc
       0.060430374 -0.011017528 -0.08036731 -0.018761097
000110 08 78 b2 ba 4b 22 46 bd e7 1a 34 bd 09 32 27 bc
       -0.0013616094 -0.048372548 -0.04397097 -0.0102048
000120 58 f4 db 3c 56 ba 14 3d ea b9 af bd 88 3f 4d bc
       0.02684991 0.036310516 -0.08580382 -0.012527354
000130 29 1a 52 3c 17 70 8f 3d b5 e5 2e 3d 68 1d 5e 3d
       0.01282362 0.07003801 0.042699534 0.054227263
000140 0d bc b5 3c 77 7d 86 b9 35 db 45 bd d6 d3 2d bd
       0.022184396 -0.0002565195 -0.048304755 -0.04243835
000150 5b b6 9a 3c c7 1b e0 bc 34 2a 9f 3d a4 ad 72 bd
       0.018885782 -0.027356995 0.077717215 -0.059247628
000160 48 b4 88 3d d0 b5 36 3d 9e c0 4e 3d 20 e6 64 3d
       0.06675011 0.044606984 0.050476663 0.055883527
000170 5e 44 81 bd 69 e5 54 3d 1a 4a be bd ea 3f 5d bd
       -0.06311868 0.051976595 -0.092914775 -0.05401603
000180 0a f4 66 bc 01 aa 97 3d 67 f2 8d bc 6f 5a 9b bd
       -0.014096269 0.074054725 -0.0173275 -0.07585608
000190 62 3d b2 bd a9 28 32 36 40 1f 88 3b 49 66 5a 3b
       -0.08703114 2.6547734e-06 0.004154116 0.0033325127
0001a0 c1 56 ed bc a5 ef bd 3c be 86 a5 39 f7 e3 b7 bc
       -0.028972032 0.02318556 0.00031571643 -0.02244757
0001b0 c0 1c 3e 3d 45 68 85 bd e9 70 4a bd 84 88 a1 3c
       0.046414137 -0.065140285 -0.049424086 0.019718416
0001c0 95 77 ee bc 20 d8 d8 38 24 a4 01 bd 72 48 4a 3d
       -0.029109756 0.00010339939 -0.031650677 0.049385495
0001d0 d2 cc a8 3d 39 61 9f 3d 1c 0b 3d 3c 43 31 6a bd
       0.082421914 0.077822156 0.011538293 -0.057175886
0001e0 1d b9 e5 bc 91 81 22 bd 4f 02 a7 bc fa 1e 41 bd
       -0.02804237 -0.039674345 -0.020386843 -0.047148682
0001f0 6f f0 5f 3d 3b 2a a7 bd e9 a2 30 ba bc 85 67 3d
       0.054672655 -0.08162352 -0.00067381427 0.056524023
000200 cd a1 81 bd aa 03 14 bc a0 bc 76 3d b9 93 ad bc
       -0.06329689 -0.009034077 0.06023848 -0.021188604
000210 94 e4 2d bd 1a bd 60 3d 52 9f 94 bd b8 a2 a4 3d
       -0.042454317 0.05486784 -0.072569504 0.08038849
000220 7c d6 b4 3d 8d 5d 9d 3b 62 a3 fc 3a 91 8b 2d bd
       0.08829972 0.004802412 0.0019274766 -0.04236943
000230 f2 8a e7 3c 8f e3 87 bd fe 70 b2 bc 15 4a 56 3d
       0.028264496 -0.066352 -0.021782394 0.052316744
000240 a1 b4 09 3d 07 ae 7e 3d fe df 32 3d 27 95 9c 3d
       0.033619527 0.062177684 0.043670647 0.07645636
000250 2e 57 02 3d 01 71 95 bd 9c 96 a9 bd e2 3b 80 3d
       0.031821422 -0.072969444 -0.082806796 0.06261422
000260 4d ef a1 3d c7 56 aa 3d 95 bc 7d bd b0 62 a7 3d
       0.07906971 0.08317333 -0.061947424 0.0817312
000270 6c d4 0f bd 81 31 c8 3c 8c 8c 2d 3d b7 32 91 bd
       -0.03511469 0.024437668 0.042370364 -0.07089751
000280 11 47 b6 bd 3e ea 6b 3d 48 95 94 bd 5e c1 35 3d
       -0.089002736 0.057596438 -0.07255036 0.044373862
000290 cb 56 29 3d 87 d1 3d 3d 29 50 89 3b b1 b0 f7 bc
       0.041342538 0.0463424 0.004190464 -0.03023562
0002a0 dd 42 71 3b 86 3f 3b bc da 4a 96 bd e1 1a 31 3c
       0.0036813535 -0.011428719 -0.073384956 0.010809631
0002b0 1b d6 55 bd a3 1f 86 3d 79 bd 1e bd 14 0b 4f bc
       -0.05220614 0.06549003 -0.038754914 -0.012636919
0002c0 dd 37 7d bd 34 6b a5 3d e4 e1 54 3d bf c0 9e 3d
       -0.061820854 0.08077088 0.05197324 0.07751607
0002d0 29 18 8a 3d de 0d cb bc cb 88 a6 3d e6 5e 17 bc
       0.067428894 -0.024786886 0.0813156 -0.009238934
0002e0 71 2e a2 3d 36 5d 57 3c bd b5 57 3d 1e dc 25 bd
       0.07919014 0.013144782 0.052663554 -0.040493123
0002f0 f7 a8 25 3d b4 f5 88 bb ef b7 8f bd 8f b8 83 3d
       0.04044434 -0.0041796807 -0.070175044 0.06431686
000300 44 71 56 bd e5 e1 89 bd 2b d1 80 3d 95 31 a4 bd
       -0.052354112 -0.06732539 0.062898956 -0.080172695
000310 56 4f de 3c 4b 36 86 3d de 8b 9c bb 39 45 9c bd
       0.02713744 0.06553324 -0.0047774157 -0.07630391
000320 ea 66 88 bd bd 3c 20 bc 12 3c c3 bb 18 6a 7c 3d
       -0.06660254 -0.009780106 -0.0059580887 0.061624616
000330 ef 1c 69 3d bd e4 4a bd da ac f4 bc dd 5e 92 bd
       0.05691236 -0.049534548 -0.029867578 -0.07147
000340 a0 13 ae 3c 2b 3f 5a 3d 1e b8 65 bc 8c 04 2f 3c
       0.021249592 0.053282898 -0.014020948 0.010682236
000350 62 02 98 bb 94 f0 a2 bd 34 fe b6 3d b4 a6 6a 3c
       -0.004638956 -0.07956043 0.08935204 0.014321972
000360 7b 9d b5 3d df 64 4f bd cc 53 c2 bc 25 7e fb bc
       0.08867928 -0.050633308 -0.023721598 -0.030699799
000370 9f 8a ef 3c 05 e0 89 bc 03 de 49 bd 27 8a 94 3d
       0.029240904 -0.016830454 -0.049283992 0.07252913
000380 a1 84 95 3d cb 43 c4 3d a6 38 3e 3d 85 1c 61 3d
       0.073006876 0.09583243 0.046440743 0.05495884
000390 2d 55 54 bd a3 a8 7a 3b b0 24 cc bc f4 cf 0c ba
       -0.051839042 0.0038247488 -0.024919838 -0.00053715636
0003a0 51 e1 85 3c 40 97 74 3c d6 5a bc bc e9 1e 13 bb
       0.01634279 0.014928639 -0.022992533 -0.0022448844
0003b0 b4 a2 b4 bc 49 a8 10 bd 81 d7 6b bd ba 9e 2c bd
       -0.02205024 -0.03531674 -0.057578567 -0.04214356
0003c0 d9 c2 64 bd f6 ca 8b bd dc 68 9d b9 3c 76 97 bd
       -0.055849884 -0.06825821 -0.000300235 -0.07395598
0003d0 79 e7 a3 bd a8 34 77 3d 09 18 8e bd 8a 53 52 3d
       -0.08003134 0.06035295 -0.06938178 0.0513492
0003e0 b2 7d a0 3c 9b 38 08 bc 65 8b 92 3d 74 b4 93 bd
       0.019591186 -0.008314277 0.07155494 -0.07212153
0003f0 d7 e2 5c 3d 4a 1d 81 3d 73 e7 90 3d bf f2 bb bd
       0.05392727 0.063044146 0.070753954 -0.091771595

bias f4 [128]
000000 9e cb db bb 86 fb 16 3d 9d dc 0e 3d 7f a7 b4 bd
       -0.0067076227 0.036860965 0.034878362 -0.0882101
000010 34 99 0f bd 41 e3 90 bd e1 2a a2 bd 29 74 5c 3d
       -0.035058215 -0.07074595 -0.07918335 0.053821716
000020 28 2a 81 3d ee 6d 81 bd 75 a7 f3 bc b8 3d 2a 3d
       0.06306869 -0.063197955 -0.029742936 0.041562766
000030 06 ec ba 3d 0c 83 9a 3d 1b 8d 56 3d b4 14 9b bd
       0.09127049 0.075445265 0.052380662 -0.07572308
000040 c1 10 57 bd 2f eb 97 3d 9d 15 9e bd 8d 7c 2e bd
       -0.052506212 0.074179046 -0.07718966 -0.04259925
000050 aa 1d 93 bd 87 aa 8c bd 11 6e 9b 3c e9 fd ba bc
       -0.07183392 -0.06868463 0.018973382 -0.022826152
000060 4d 6a 9f bd 80 76 81 bd 21 73 96 3d 19 c9 8b 3d
       -0.07783947 -0.0632143 0.07346178 0.06825466
000070 fd c2 41 3d c0 49 25 3d b4 d1 58 bd 68 4e 0c bd
       0.047305096 0.040353537 -0.052934363 -0.03425446
000080 51 cd 2b bb 97 fb da 3c 20 8c 58 37 e9 6a d2 3c
       -0.0026214907 0.026731296 1.2907229e-05 0.025685744
000090 a2 92 32 bd 89 2a 07 bd 52 e0 1a 3d 3a 18 9d bd
       -0.04359687 -0.03299955 0.037811585 -0.076706365
0000a0 f0 5d 84 3b 27 a6 9d 3d 34 6d 7a bd 39 74 c8 bc
       0.0040395185 0.07697707 -0.0611393 -0.024469482
0000b0 61 be d1 bb 8d 23 cd bc 96 cd 73 3d 65 65 c6 3c
       -0.0064008688 -0.025041366 0.059522234 0.02421827
0000c0 ab 7c ba 3d 2b e9 c1 bc 12 27 e6 3c a1 fb d0 3c
       0.0910581 -0.023670753 0.028094802 0.025510611
0000d0 01 9b 3c bd d2 61 bc bd b8 87 35 3d 60 2c 67 bd
       -0.04604626 -0.09198345 0.044318885 -0.056438804
0000e0 1a 31 f7 bc 67 0f 84 bc 38 14 a9 bd 50 f8 80 3d
       -0.03017478 -0.016120626 -0.082558095 0.06297362
0000f0 f2 6c c8 bc 68 27 29 bd 37 62 a4 bd 13 f4 6e 3c
       -0.024466012 -0.041297346 -0.080265455 0.014584559
000100 ae 54 73 b9 2b 98 46 bc 3f df b6 bc ee da dd 3c
       -0.00023205832 -0.012121241 -0.022323249 0.027081933
000110 33 2b 72 bc 9b e2 8b 3c 48 19 75 3d 16 03 dc 3c
       -0.014780807 0.017075827 0.059838563 0.02685694
000120 98 be 82 bd 1d a2 67 bc 82 e6 ed bc db 5c 16 ba
       -0.06384009 -0.014137772 -0.029040579 -0.00057358824
000130 12 9c 48 3d f3 53 69 bb bb 79 09 bd 38 71 da bc
       0.048976965 -0.0035603016 -0.033563357 -0.026665315
000140 ea 18 4f 3d eb 2d c6 bc 99 72 15 3c a7 9e 87 bc
       0.05056087 -0.024191817 0.0091215605 -0.016555144
000150 b8 b8 8c bd 42 36 0f 3d fc 74 90 3d 9a 84 62 bd
       -0.0687117 0.034963854 0.07053563 -0.05530224
000160 9f 97 94 3c 4d a1 ec 3c 97 32 bf bc 45 a7 2d bc
       0.018138705 0.028885508 -0.023339553 -0.010598962
000170 6e 33 2a bb 2f 43 43 3d db 4c 9a bb ee c2 c3 bd
       -0.0025970596 0.047671493 -0.004708869 -0.09558664
000180 b2 e8 da bc e2 cb 12 bd a3 4b 33 bc 59 50 40 bd
       -0.026722286 -0.03583897 -0.010943326 -0.046951625
000190 9e 94 29 3c d7 c8 b8 bb 5c 42 53 bd e7 fd b2 bb
       0.0103503745 -0.0056391764 -0.051576957 -0.0054623964
0001a0 e8 7c 6e bd 1f 53 37 bd 7b 64 41 3d b7 56 9e 3b
       -0.05822459 -0.044757005 0.047214966 0.0048321146
0001b0 02 45 3e 3d 6d 77 e0 3c 1d 70 72 3d 4e 74 a9 3d
       0.04645253 0.027400697 0.05918895 0.082741365
0001c0 7a eb 98 3d 52 5c cb bc 70 89 1c bd e0 02 90 3d
       0.074667886 -0.024824295 -0.038217008 0.07031798
0001d0 9f d7 3e 3d ca 4d a5 3d f8 3d a4 3d c2 f6 75 3d
       0.04659235 0.08071478 0.08019632 0.06004978
0001e0 59 e6 7b 3c 75 fc 3f bb ef 68 4d bd 32 ae b9 3d
       0.015374743 -0.0029294763 -0.0501489 0.09066428
0001f0 d3 14 40 bd de 9f 36 3d c3 37 b2 bb b0 6c 60 bd
       -0.04689486 0.044586055 -0.005438776 -0.054791152

weight f4 [128, 128]
000000 dc 19 74 bd fc 30 e0 3c c0 29 a9 bc 34 90 5d 3d
       -0.059594974 0.027367108 -0.02064979 0.0540926
000010 dd 47 16 bd 2a 5d 85 bc d4 54 b1 3c c7 7b a3 3d
       -0.036689628 -0.016279776 0.021646895 0.07982593
000020 66 b8 8d bd 72 95 2f bd b1 d7 29 bd 7e 69 c9 3c
       -0.06919937 -0.04286713 -0.041465465 0.024586435
000030 b8 cb 9f 3d 50 60 0f 3c 9c 37 48 3c 1e 01 81 3d
       0.07802528 0.00875099 0.01222029 0.06299041
000040 a2 a8 81 bd 9b 44 a7 3d ff ba b3 3d c1 22 83 bd
       -0.06330992 0.08167382 0.08775901 -0.06403113
000050 e8 88 74 bc f7 ec 07 3d cb e8 61 bd d2 44 09 bd
       -0.014925219 0.03318497 -0.05515365 -0.033512898
000060 25 c3 96 3d 11 6d 85 3d 62 ca 86 bd 47 35 22 3d
       0.073614396 0.065149434 -0.0658157 0.03960159
000070 ca 73 41 bd e4 d0 a2 bb 12 fb ba bd 3d e8 82 bd
       -0.047229566 -0.0049687494 -0.09129919 -0.06391952
000080 95 bc c0 bb 85 27 83 bd e3 63 5a bd c0 88 40 3d
       -0.0058818557 -0.06404022 -0.053317916 0.047005415
000090 65 df 5b 3d cc e2 90 bd ea 7f 81 3d 0a f5 a2 3d
       0.053679843 -0.07074508 0.06323226 0.07956894
0000a0 bd 7a e3 bc 46 27 07 3d 66 41 60 bc c4 38 09 bc
       -0.027768487 0.03299644 -0.013687467 -0.00837535
0000b0 1e 51 4b bc b9 0b 10 3d a1 0c a5 3d 10 47 a5 bc
       -0.012409477 0.03516743 0.080590494 -0.020175487
0000c0 38 d7 0b bd ed 97 b0 3d 7c f0 75 3d 85 47 79 bd
       -0.034140795 0.086227275 0.060043797 -0.060859222
0000d0 9e 15 a8 3d 4d 30 83 bc 08 4a bb 3c 25 75 a0 3b
       0.08207248 -0.016014243 0.02286245 0.004896777
0000e0 ca 8c 3b bc 51 3c 5c bd 7a ae 90 39 ed 93 93 bd
       -0.011447141 -0.05376846 0.00027595815 -0.07205949
0000f0 96 e4 5b bc 29 ed 6f 3d 5a 13 8c 3d 7d d3 24 bd
       -0.013421198 0.058575783 0.068396285 -0.040240753
000100 29 d7 35 3d 44 8e 7d ba 61 0e a7 3d 03 56 6f 3d
       0.044394646 -0.00096723833 0.081570394 0.058431637
000110 03 1a 0c bd 3b ee 1d 3d 19 67 07 3d 20 f6 3f 3d
       -0.034204494 0.038557272 0.033057306 0.046865582
000120 49 03 53 bd 00 96 91 3c 40 c0 9b bd f4 4f 41 3d
       -0.051516805 0.01777172 -0.07605028 0.04719539
000130 83 68 c1 bc 28 f9 25 3d 7d ec 77 3d 01 5e b7 3b
       -0.023609405 0.040520817 0.060528267 0.005595923
000140 6f ec 9e bd f2 7a 83 bd c8 b6 4a 3c 5e 55 a2 bd
       -0.0775994 -0.06419934 0.01237268 -0.07926439
000150 6e 8c 4c 3d eb d4 62 bc 10 6b 81 bd 8c 69 46 3d
       0.04993861 -0.013844709 -0.06319249 0.0484405
000160 30 03 ba 3c d4 ed 98 3d 7e b7 39 bb b3 fc eb 3c
       0.022706598 0.07467237 -0.002833813 0.02880702
000170 e2 f0 66 3d 26 ba 38 3d bd e1 4e bd 85 82 89 bd
       0.056382068 0.0450994 -0.05050825 -0.06714348
000180 7d b2 e3 39 9e 7d 9d 3d 68 4f 5b 3d e0 cb 12 bd
       0.00043429798 0.07689975 0.053542525 -0.03583896
000190 f2 36 11 bd 33 1c 95 3d 10 97 7a 3d d5 90 1e 3d
       -0.03545279 0.07280769 0.06117922 0.03871234
0001a0 84 e9 88 bd 22 e4 aa bd 9d 97 4a 3d 21 b3 99 3d
       -0.066851646 -0.08344294 0.049460996 0.07504869
0001b0 ce b6 a9 3d cb d9 3a 3d 3d aa dd bc 42 ae 8c bc
       0.0828682 0.04561786 -0.027058715 -0.017172936
0001c0 03 3e 98 3d ed 53 35 bb 63 7e 4d bd 21 97 1e 3d
       0.07433703 -0.0027668432 -0.05016936 0.038718347
0001d0 a9 55 82 bd 14 f6 f8 3c 40 93 12 bd 42 b2 85 bc
       -0.06363995 0.030390777 -0.03578496 -0.016320352
0001e0 58 c4 5a 3d 23 bc 1e bd 7f b8 b7 bb 49 a8 8e bd
       0.053409904 -0.03875364 -0.0056067104 -0.069656916
0001f0 57 f5 f7 3b da ad ff bc 92 06 2d 3d 90 5d 8d 3d
       0.0075670886 -0.031210829 0.042242594 0.06902611
000200 4f 4e 5e bd 8b a4 a8 3d 8c 73 f8 3c e2 8f 9b 3d
       -0.0542739 0.08234509 0.030328535 0.07595803
000210 00 b1 ba 3b a0 46 3c bd ad dc 68 bd 90 33 a2 3d
       0.0056973696 -0.04596579 -0.056851078 0.07919991
000220 46 b3 58 bd 6c b5 6b bd 69 5e 13 bd 1b bf b7 bd
       -0.052905343 -0.057546064 -0.03597871 -0.08971997
000230 2d 94 9d bb 38 c5 70 3c a5 6b fa 3b 98 9a 7d bb
       -0.0048089237 0.014695458 0.0076422268 -0.0038696881
000240 15 81 42 bd 87 15 ab 3d f3 90 1b bd 92 40 8e bd
       -0.047486383 0.083537154 -0.03798003 -0.069459096
000250 da ae ae 3d 4d 60 88 bd 2b 36 7f bd b4 45 aa bd
       0.08529444 -0.06658993 -0.062307518 -0.08314076
000260 bb 49 22 3d 76 99 03 3d 5a 64 9d 3d b2 b2 52 3d
       0.039621096 0.032128774 0.07685156 0.05143995
000270 3c 43 0f bd f7 87 80 3c cb 01 90 3c 2f e2 20 3d
       -0.03497623 0.015689833 0.01757898 0.039278205
000280 2a a2 24 bd fb 46 9b 3d 3b 8f f7 bb 79 89 46 bd
       -0.040193714 0.07581898 -0.007554916 -0.048470948
000290 da 91 ee bb 7b 36 52 3d 98 36 96 3c 8b 26 b1 3d
       -0.0072805705 0.051321488 0.01833658 0.086499296
0002a0 e2 da fb 3c c5 d1 a1 3d a7 61 e5 3c f7 c0 a0 bd
       0.03074402 0.079013385 0.028000666 -0.07849305
0002b0 aa 64 76 bc 2c 33 f4 bc 38 8a a7 3d 85 28 8b 3d
       -0.015038649 -0.029809557 0.0818066 0.06794838
0002c0 49 0b 30 3d ca 04 21 bd bd eb d3 bc 79 18 44 bd
       0.042979512 -0.039311208 -0.025869245 -0.0478749
0002d0 cf c9 a0 bd b5 31 42 bd 36 78 93 3d bb 2d 42 3d
       -0.07850992 -0.047410686 0.07200663 0.047406893
0002e0 f8 25 8a 3c 38 e0 a5 3d da 0b cb bc 17 a0 bd 3d
       0.016863808 0.08099407 -0.024785925 0.0925905
0002f0 94 a6 3f bd cf 58 ee 3b 33 a7 ce bc b9 24 fd 3c
       -0.04678972 0.0072737704 -0.025226211 0.0309013
000300 27 ce de 3c 91 7d 38 3d 2a f9 c3 3a 31 7a 75 bd
       0.02719791 0.045041624 0.0014951576 -0.059930984
000310 f7 de 83 3d e4 74 11 3d e4 76 12 3d 48 3e a7 bd
       0.064390115 0.035511866 0.035757914 -0.08166176
000320 9a 0e 9f bd 92 04 2d 3d 47 3c 82 3d 01 ef 15 bd
       -0.07766457 0.042240687 0.06359153 -0.036604885
000330 8c 56 d3 bc 6d 8b 0a 3d 08 01 25 bb cc 02 43 bd
       -0.025798105 0.033824373 -0.0025177617 -0.04761009
000340 1d 5b 91 bd f3 96 15 3d 15 52 b0 3d 9c 6b 9c 3d
       -0.070974566 0.03652091 0.08609406 0.07637712
000350 96 f0 43 bd a9 ac 8a 3d 9d 20 72 bb 44 47 e8 3c
       -0.047836863 0.067712136 -0.0036945709 0.028354295
000360 12 63 aa bd 85 23 54 bb ff e8 f2 3b 69 a0 c7 3c
       -0.083196774 -0.0032369804 0.007413029 0.024368482
000370 61 a7 3c 3c 45 24 2c 3b 1b eb 52 3c c0 b4 e6 3b
       0.011514516 0.0026266736 0.012873436 0.00704059
000380 e2 ab 5b bd 78 af 9a 3d 5a 22 48 bd c3 05 ff 3c
       -0.053630717 0.07552999 -0.048860885 0.031130677
000390 b5 62 76 bd 24 0f 3d 3c 68 f3 91 3d 24 39 76 bd
       -0.060152728 0.011539254 0.07126504 -0.060113087
0003a0 03 7c 37 3d 20 9b 83 3d 0c 97 8e 3d 5a 1a ab 3d
       0.044796 0.06426072 0.06962404 0.083546355
0003b0 44 a1 8b bd 56 66 c0 3d 6a 2a 18 bd 49 6c ab b9
       -0.06817868 0.09394519 -0.037149824 -0.0003269634
0003c0 3c 36 10 3d d8 44 55 bd f4 47 12 bc 3e 9e ae 3d
       0.035207972 -0.052067608 -0.008928288 0.08526276
0003d0 fd 55 f6 3b 52 46 69 bd c3 c5 14 bd 85 89 19 3d
       0.007517575 -0.05695183 -0.036321413 0.037484664
0003e0 cd d6 e7 bc 87 23 33 bd ee f6 2b 3d 83 a8 5a 3c
       -0.028300667 -0.043735053 0.041983537 0.01334584
0003f0 b8 9a 7b 3d 95 45 63 3b 53 b0 07 3d fd b9 b5 bc
       0.06142685 0.0034678925 0.03312714 -0.022183413

bias f4 [128]
000000 04 81 b6 3d 5e bf e2 ba 6a 74 54 bd 07 e8 84 3d
       0.089113265 -0.0017299464 -0.051868834 0.06489568
000010 dc 97 86 3d 74 47 47 3d 0c 39 ac bc 80 ef 47 bd
       0.065719336 0.048652127 -0.021023296 -0.04881239
000020 67 f7 f5 3c a4 cf bd 3c db 6a 9e bd 60 e5 29 3d
       0.030025197 0.0231703 -0.07735225 0.041478515
000030 0e 7c 60 3d 25 af 42 3d 08 ff 80 bd db 5b 13 3d
       0.054805808 0.047530312 -0.06298643 0.035976272
000040 eb d6 00 bd b2 1f 4d 3c e5 33 fa bb c6 ef 35 bd
       -0.03145496 0.012519764 -0.007635581 -0.04441812
000050 7b 90 3a bd ec de 70 3d 39 7e 3f bc 26 21 61 3d
       -0.045547944 0.058806345 -0.011687809 0.054963253
000060 d1 81 34 3d a4 d9 80 3d 1c 56 3a bd 92 e0 0b 3d
       0.044069115 0.06291512 -0.045492277 0.034149714
000070 09 15 52 3d 56 cd 1d bd 02 b2 21 bd 2e d0 47 3d
       0.051289592 -0.0385259 -0.039476402 0.04878252
000080 1a 00 04 3d c1 e3 66 bc b5 5c 7c 3d 45 c9 7b ba
       0.03222666 -0.014092387 0.06161185 -0.00096048816
000090 cd 01 72 3d 4b 80 1e bc bb bd 40 3d a8 94 1e 3d
       0.05908375 -0.009674142 0.04705594 0.03871599
0000a0 cf f1 87 bd 12 12 a3 3d e5 e4 85 3d 4d 4e 31 3d
       -0.06637918 0.07962431 0.06537799 0.043287564
0000b0 78 22 05 3d 3a 03 64 3d 63 6e c8 bc 09 a0 9a 3d
       0.032503575 0.05566714 -0.024466699 0.075500555
0000c0 90 02 98 bd 49 da b3 bd 7e df 8e bc 5e 1e 89 bd
       -0.07422364 -0.08781869 -0.017440554 -0.06695245
0000d0 32 43 05 3d b5 b2 a3 3b a4 a1 dc 3c f7 3b 90 3d
       0.032534786 0.004995669 0.026932545 0.070426874
0000e0 2e bf 02 bd 7a 67 b0 3d 92 b9 30 3d b7 6b 83 bd
       -0.031920604 0.086134866 0.043145724 -0.06417029
0000f0 f9 af 2a bd ea 52 46 bd f1 9d 06 3d 60 16 63 3d
       -0.041671727 -0.048418917 0.03286547 0.05544126
000100 ae 09 79 bd d0 cc 2a bd 98 45 ad bd 29 4d a5 bd
       -0.060800247 -0.04169923 -0.084605396 -0.08071358
000110 88 89 0f bd 30 59 db 3b 73 59 9d bd aa 38 26 3d
       -0.03504327 0.0066939816 -0.07683077 0.040581383
000120 98 54 49 3d 01 33 8a 3b a6 b3 a6 3d b4 a4 85 3d
       0.04915294 0.004217506 0.08139734 0.06525555
000130 cb 3c 16 3b c9 2f c5 3b de f9 0b bb 2b 13 a3 bd
       0.002292442 0.0060176593 -0.002135865 -0.079626404
000140 3b 0f 39 bd fc cd 8f bd cf b6 a3 bd ca bd 45 bc
       -0.04518054 -0.0702171 -0.07993852 -0.012069175
000150 38 f8 c1 3b 81 06 0e bd e8 d5 6a 3d 17 8a 23 3d
       0.0059194826 -0.03467417 0.057332903 0.039926615
000160 5b 38 cc bb 74 4b 9a bd 4d bf 8d bd cf 55 8d bd
       -0.006232304 -0.07533923 -0.06921253 -0.06901132
000170 4a a6 5f bc cd b7 d5 3c a5 81 81 3d f3 15 46 3d
       -0.013650486 0.02608862 0.06323556 0.048360776
000180 3b 07 9d 3c 76 3e 5d 3d 61 08 a2 bd f6 fa bd 3c
       0.019168487 0.054014646 -0.079117544 0.023190957
000190 03 12 c0 bc 74 66 cc bb f1 46 8e 3d 19 18 8b 3c
       -0.023446089 -0.0062377993 0.06947125 0.016979264
0001a0 8e 89 30 bd e5 7a 6e bc 62 53 f0 bc fa 33 79 bd
       -0.043099932 -0.0145556675 -0.029336635 -0.060840584
0001b0 4b 06 8d bd fb 97 8e bd 79 56 96 3d 92 7e 6b 3d
       -0.06885966 -0.06962582 0.07340712 0.057493754
0001c0 72 76 c8 bc 42 aa 16 bd 22 20 9c bd a4 67 46 bd
       -0.024470542 -0.036783464 -0.07623316 -0.048438683
0001d0 08 38 e4 3c a3 eb 31 bd fe b1 f4 3c e9 76 c6 bc
       0.027858749 -0.04343761 0.02987003 -0.024226623
0001e0 dd 28 9f bd dc b8 f4 3c 01 d7 02 3d 04 6d d9 3c
       -0.07771466 0.029873304 0.031943325 0.02654124
0001f0 eb f8 80 bd ef 91 7c bc 5c ce b1 3d 1d 33 77 3b
       -0.06297477 -0.015415653 0.08681938 0.0037719675

weight f4 [128, 128]
000000 65 aa 5f bc a6 fe 90 3c 6e 24 b4 3d 6f 87 a6 3d
       -0.013651465 0.01769955 0.08796011 0.08131301
000010 2f d1 9c 3c f0 69 a4 3d e1 79 2b bd 11 4b d0 3c
       0.019142715 0.080280185 -0.04186428 0.02542642
000020 f3 6a 4b 3d 41 44 aa bd 6a e2 aa bd 65 40 8f bd
       0.04966254 -0.083138 -0.08343966 -0.06994704
000030 22 3c 8e bd df 36 aa 3c bc d1 6c 3b 44 28 ce bc
       -0.06945063 0.020778118 0.0036135754 -0.025165685
000040 5c c3 0f bd 6e 44 b4 bd f1 c6 2b bd d4 d2 a5 3d
       -0.03509842 -0.088021144 -0.041937772 0.08096853
000050 07 71 dc bc 40 cb e7 ba 82 5a 22 bd ec b3 2f bd
       -0.026909364 -0.0017684475 -0.039637096 -0.042896196
000060 a0 45 89 3d d6 11 6f bc 85 c0 c8 3b c4 ec 64 3d
       0.06702733 -0.014591655 0.0061264657 0.05588986
000070 8b 17 93 bc 3a 8e f4 3c 41 51 44 bd a8 c0 59 3d
       -0.017955562 0.029852975 -0.047929052 0.053162247
000080 5a 40 c0 bb fa 30 66 3d 25 d5 aa bd c7 86 42 3c
       -0.0058670463 0.05619905 -0.08341435 0.011872954
000090 67 4d 8b 3c 47 71 5f bd e0 db 83 3d 4c 51 37 bd
       0.017004682 -0.05455139 0.06438422 -0.044755265
0000a0 0e 98 02 bd 1b 73 5e 3d d3 eb 1e bd 7d 58 2f 3d
       -0.031883292 0.054308992 -0.03879912 0.042809
0000b0 c0 b0 92 3d a8 3c 43 bc 29 18 89 3c b9 d3 67 bd
       0.07162619 -0.011916317 0.016735153 -0.0565984
0000c0 b9 77 43 bd c9 d7 52 bc ff 6a 89 3d 02 46 8a 3d
       -0.0477216 -0.01286883 0.06709861 0.06751634
0000d0 5c 92 a2 3d 93 2c 14 bd ae 13 8c bd af 89 6a 3d
       0.07938072 -0.03617532 -0.06839691 0.05726021
0000e0 d0 fd 4b 3d 93 7e ba 3d a3 87 a1 3d b8 9a 1f bd
       0.0498026 0.09106173 0.07887199 -0.03896591
0000f0 47 0c 97 3d 29 b5 a3 3d 40 39 88 bc c3 ca 42 bd
       0.073753886 0.07993538 -0.016628861 -0.04755665
000100 0f 09 4d bd 83 1c 39 bd 61 f0 69 3d d2 1a af 3b
       -0.050057467 -0.045193207 0.05711401 0.0053437734
000110 ec a6 b2 bc 56 5f 4f bc e5 a1 96 3d e3 d9 a1 3c
       -0.02180811 -0.012657007 0.07355098 0.019757217
000120 18 62 52 bd 65 b2 26 3d 96 fb 47 bd 52 df 85 3d
       -0.05136308 0.040697474 -0.048823915 0.065367356
000130 b0 b8 81 bd 72 b1 cb 3c 84 25 2d 3d 0a ca 5f 3d
       -0.063340545 0.024864886 0.042272106 0.05463604
000140 e5 4b 18 bc 67 0d 29 3d a3 0f 82 bc f7 f3 b0 3d
       -0.009295438 0.041272547 -0.015876597 0.086402826
000150 63 e7 c9 bc fc cb 99 bd ff a9 dc bc 65 eb f1 3c
       -0.024646467 -0.0750961 -0.02693653 0.02953119
000160 4f b9 06 3c db 40 7e bd 4a 19 ce bc a6 e3 da 3c
       0.008222892 -0.06207357 -0.025158543 0.02671988
000170 2e 51 cf 3c 6b 1e a4 3d 83 d1 ee bc bb 83 99 3c
       0.025307264 0.08013614 -0.029152637 0.018739572
000180 56 78 3f bd ae 5a ae bd 31 e8 0c bb 4f 6d 29 bc
       -0.04674562 -0.085133895 -0.0021500702 -0.010341003
000190 45 47 85 3d 15 25 93 bd 44 c3 83 bd c3 d8 45 bd
       0.06507734 -0.07184807 -0.06433728 -0.048302423
0001a0 4c 43 3e bb b3 67 3d 3d 9c e3 5f 3d 51 10 64 bc
       -0.0029031811 0.046241473 0.054660425 -0.013919906
0001b0 b0 e6 1a 3d 22 f6 61 3d 29 1e ee bc 73 78 0e bd
       0.037817657 0.05516637 -0.029067116 -0.034782838
0001c0 63 26 90 3c fb 7b 5b bd cc 76 9b 3d 54 84 ed 3c
       0.01759643 -0.053585034 0.07591018 0.028993763
0001d0 8d a8 3c bc e8 3f dd bc 29 d4 60 3c 8f fc a0 3c
       -0.011514795 -0.027008012 0.013722458 0.01965168
0001e0 c9 12 bf bd 88 ee a6 bd 78 94 54 bb f9 78 48 bd
       -0.09329755 -0.08150965 -0.0032437127 -0.048943494
0001f0 bf 46 81 bd b1 e2 8c 3c e2 8d 49 3d 2d f7 81 bd
       -0.06312322 0.017197939 0.049207576 -0.06345973
000200 69 13 d9 39 70 68 62 3d ba 09 72 3d 88 3d d3 3c
       0.00041403927 0.05527538 0.059091307 0.025786176
000210 2a 8a 1d bc ec c5 54 bd 6e ca 96 3d 47 7b 56 bd
       -0.00961546 -0.051946566 0.07362829 -0.05236366
000220 76 8f ce 3b 08 df 5c bd cc 03 b1 3b 6b eb 8e bd
       0.006303723 -0.053923637 0.005402064 -0.06978496
000230 d8 25 c4 bc d4 dc da bc 01 3d 75 3d 65 cd a0 ba
       -0.023943827 -0.026716627 0.05987263 -0.0012268244
000240 45 5f cf 3c a2 13 e8 bc 62 49 ac bd cf 6b 83 bd
       0.025313983 -0.028329674 -0.08412434 -0.06417047
000250 82 89 ef 3c 88 b5 c2 3d 75 2d 50 bd 30 38 1f bd
       0.029240374 0.095072806 -0.0508246 -0.038871944
000260 9c 98 3a 3d fd 5f a4 3d db 59 8e bd 63 aa 2d bd
       0.045555696 0.08026121 -0.06950732 -0.04239882
000270 5d f9 a0 bd fa d2 c0 3c b2 d3 be bc 80 c6 b8 bc
       -0.07860062 0.023538101 -0.023294304 -0.02255559
000280 bc 42 80 3d 43 58 ad bc b8 4d 44 bd 25 e1 a2 bd
       0.062627286 -0.02116025 -0.04792568 -0.07953099
000290 2d 82 a9 3d ed 02 75 bb 6a 15 62 3d 7f c9 9d bc
       0.08276782 -0.0037385777 0.055196203 -0.01926112
0002a0 f4 92 e3 bc 06 5b aa 3c 3b 4c e2 3c f9 ab 14 3c
       -0.027780034 0.020795356 0.02762424 0.009074205
0002b0 92 42 8d bd aa d2 d4 bc 7a e7 b0 bc ba 83 64 3d
       -0.06897463 -0.025979359 -0.021594752 0.055789687
0002c0 08 d3 63 bd cd 14 9a bc d9 0f c8 bc aa 0f b9 3d
       -0.055621177 -0.018808747 -0.02442162 0.09036191
0002d0 53 6c 00 3d 91 ce 63 3d 1b 1b 77 bd 11 a7 bc 3c
       0.031353306 0.05561692 -0.060328584 0.023028882
0002e0 9f 1e 64 bc bf df 58 bd 27 c7 0d 3d ab d2 15 bd
       -0.013923316 -0.052947756 0.034613755 -0.03657786
0002f0 3b 8d 84 3c e1 f1 72 bd de 26 2a bc 3f 8e 83 bd
       0.016180625 -0.059312705 -0.010385243 -0.06423616
000300 41 70 4b bd 24 91 a0 3d f2 6d 53 bb e4 0b 05 3c
       -0.0496676 0.078401834 -0.0032261577 0.008120511
000310 3b 8d ab bd 35 23 84 bd 1a 76 78 3c 6b 8b 98 3d
       -0.08376547 -0.06452028 0.015164876 0.07448467
000320 41 83 61 bd 56 8c ac 3d 59 53 82 bb 7a a0 76 3d
       -0.055056814 0.084252045 -0.003977221 0.060211636
000330 63 61 4b 3d 46 c6 5b bd 2c eb 05 3d 7d 99 94 3d
       0.049653422 -0.053655885 0.03269498 0.07255838
000340 7b 81 4a bd 11 e6 e3 bc a1 e3 6a bd 11 28 bd bd
       -0.04943989 -0.027819665 -0.05734599 -0.09236158
000350 a3 f4 d6 39 fe ab bb bc 63 60 53 3d dc 8e 2a bd
       0.0004099953 -0.02290916 0.051605593 -0.041640148
000360 7d d2 a4 bd de 0e 9d bd ac 4a 63 3b 3b cc 94 bc
       -0.0804796 -0.07668851 0.003468196 -0.01816379
000370 e2 67 9a 3c 99 1b 97 bd cc da 6d bd 61 39 b2 3c
       0.018848363 -0.07378311 -0.05806999 0.021755876
000380 54 b9 86 3a da 9d 75 3d 62 18 e8 bb df b5 73 bd
       0.0010278621 0.059964992 -0.007082985 -0.059499618
000390 c6 4e 9f 3d f4 b8 76 bd 50 d5 84 3d 91 f7 a7 3d
       0.07778697 -0.06023498 0.06485999 0.082015164
0003a0 83 7d 83 3d fa ad fe 3c a0 73 75 3b 6e d7 8f bd
       0.06420424 0.031088818 0.003745295 -0.07023512
0003b0 72 10 fb bc 3c fa 83 bd 0d 9e bf 3c e9 c8 5d 3d
       -0.03064749 -0.06444213 0.023390794 0.05414668
0003c0 71 44 d3 3c 84 1a b6 3c a1 74 24 bd 76 08 7a 3d
       0.025789471 0.02222944 -0.04015029 0.061043225
0003d0 aa 81 d1 bb 61 d5 80 3a b5 bd b3 bc 0f f1 94 bd
       -0.006393631 0.0009829217 -0.021941045 -0.07272541
0003e0 8d fa 68 bd ff e0 7f 3d 32 6a 7b bc c4 06 5a 3c
       -0.05687957 0.062470432 -0.015345143 0.013307277
0003f0 02 82 86 bd 29 ba 6e bb 59 a5 34 3b 1c 21 52 bd
       -0.06567766 -0.0036426878 0.0027564375 -0.051301107
