models/agModels-predicttop10/models/NeuralNetTorch_BAG_L1/S1F3/net.params (torch, 248949 bytes, 16 tensors)

weight f4 [6, 4]
0	0xbf8ff656	-1.1247051
1	0xbf935954	-1.1511636
2	0xbe8489aa	-0.2588628
3	0xbed7469e	-0.42046064
4	0x3f575628	0.8411584
5	0x3f320beb	0.69549435
6	0xbea07877	-0.31341907
7	0xc008d793	-2.1381576
8	0x3efa6022	0.4890147
9	0xbe16bfb5	-0.14721568
10	0x3fb852aa	1.4400227
11	0x3e892c97	0.26791832
12	0x3e269d9d	0.16271062
13	0x3f60289f	0.8756198
14	0xbe135e47	-0.14391433
15	0xbddd0a9f	-0.107930414
16	0x3f6ed50f	0.9329385
17	0x3f9fcb96	1.2484004
18	0x40005e27	2.0057466
19	0x3d59b138	0.053147525
20	0x3f10227f	0.56302637
21	0xbeb7ad9b	-0.35874638
22	0xbf491763	-0.7855131
23	0xc0109cc3	-2.259568

weight f4 [6, 4]
0	0xbe490ad3	-0.19633035
1	0xbf3b5de6	-0.7319015
2	0x3f0f96e6	0.5608963
3	0x3e801673	0.25017127
4	0xbe1b7e3c	-0.15184873
5	0xbf2d06f6	-0.67588747
6	0x3f770336	0.96489275
7	0x3effe37a	0.49978238
8	0xbf10db6c	-0.5658481
9	0x3f6915ec	0.91049075
10	0x3f8ff73b	1.1247324
11	0x3fa6a04f	1.3017672
12	0xbfbd3543	-1.4781879
13	0x40240709	2.5629294
14	0xbefe3ffd	-0.49658194
15	0x3ea81dc2	0.32835203
16	0xbfd53f31	-1.665991
17	0xbf0d201b	-0.55127114
18	0xbefbf3ac	-0.49209344
19	0xbef94c01	-0.486908
20	0xbf816c77	-1.0111226
21	0x3f878e5f	1.0590323
22	0xbdbcc230	-0.09216726
23	0x3f401164	0.75026536

weight f4 [6, 4]
0	0xbdccf6bd	-0.10007999
1	0x3f2c96e7	0.6741776
2	0xbf562871	-0.8365546
3	0xbc081af7	-0.00830721
4	0x3f580e17	0.843965
5	0xbec91306	-0.39272326
6	0x3f8664d8	1.0499525
7	0x3ebd57ec	0.36981142
8	0x3d9a23cc	0.07526359
9	0x3f8e57d3	1.1120552
10	0x3e8e6af4	0.27815974
11	0x3edb2e34	0.42808688
12	0xbf4dfa87	-0.804604
13	0xbfa52a93	-1.2903618
14	0xbf430728	-0.76182795
15	0xbfa8fb0d	-1.3201615
16	0x3e60cb76	0.21952614
17	0xbea9e6d6	-0.33183926
18	0xbee383c8	-0.4443648
19	0x3e6675f7	0.22505938
20	0x3f3dcd68	0.7414155
21	0xbe0994ad	-0.13435622
22	0xbea202f2	-0.31642872
23	0xbf93bfb7	-1.1542882

weight f4 [6, 4]
0	0xbf2efb2e	-0.6835202
1	0x3f8609ac	1.0471702
2	0xbf1a6923	-0.60316676
3	0xbfa30eea	-1.2738926
4	0x3dc321e0	0.095279455
5	0xbf2c1f3f	-0.6723518
6	0x3f1cfdf2	0.6132499
7	0xbf3b4042	-0.73144925
8	0xbe8cc3a2	-0.27493006
9	0x3dc51b56	0.096243545
10	0x3e87f3ad	0.26553097
11	0x3f947251	1.1597387
12	0x3e901d3e	0.2814731
13	0x3ec7e63a	0.39042836
14	0xbe4afcc7	-0.1982299
15	0xbdf63d25	-0.12023381
16	0x3e45472c	0.19265431
17	0xbf44a8d5	-0.7682012
18	0xbff42c57	-1.9076031
19	0x3df05e4a	0.11736734
20	0xbf26265e	-0.64902294
21	0x3e85ed33	0.2615753
22	0x3ddd35f2	0.10801305
23	0x3ea9bc5c	0.3315152

weight f4 [6, 4]
0	0x3f77f64b	0.9686019
1	0xbf7fdaa7	-0.9994301
2	0x3e9a7946	0.3017065
3	0xbde6eb10	-0.11275303
4	0x3f801140	1.0005264
5	0xbeff8e49	-0.49913242
6	0x3f42e564	0.7613127
7	0x3f1cc19a	0.6123291
8	0x3f7c8b0c	0.9864967
9	0xbfbe986f	-1.4890269
10	0x3f1aa41e	0.6040667
11	0x3e2af6ab	0.16695659
12	0x3dce9ff7	0.100891046
13	0xbf5268bd	-0.8219107
14	0x3f2456bc	0.64194846
15	0xbff72523	-1.9308208
16	0x3fa6efac	1.3041892
17	0xbe40b00e	-0.1881716
18	0x3f464723	0.77452296
19	0x3f80a951	1.0051671
20	0x3eb8a650	0.36064386
21	0xbfb9f400	-1.4527588
22	0x3ffd64b3	1.9796356
23	0x3dab50c3	0.083650135

weight f4 [26, 9]
0	0xbf00a075	-0.5024484
1	0xbfd8cb7b	-1.6937097
2	0xbf04be00	-0.51852417
3	0xbef9bc3e	-0.4877643
4	0xbf2452c6	-0.641888
5	0xbfbc2ee5	-1.4701811
6	0xbf5c52de	-0.86063945
7	0xc0054a84	-2.082673
8	0xbf8a0e36	-1.0785587
9	0xbf385b51	-0.7201434
10	0x3c1f0045	0.009704654
11	0x3eaa7e16	0.3329932
12	0xbe89e222	-0.26930338
13	0x3fa364bb	1.2765115
14	0x3caeb598	0.021326825
15	0xbf5f6b6f	-0.87273306
16	0x3ee0591f	0.43817994
17	0xbccd4ada	-0.025060106
18	0x3faa9a54	1.3328347
19	0xbe8bfd25	-0.2734157
20	0xbf0a636e	-0.5405797
21	0xc037f9fb	-2.8746326
22	0xbfc16a4b	-1.5110563
23	0x3f833b0e	1.0252397
24	0x3e424e31	0.1897514
25	0xbf3d0e84	-0.73850274
26	0x3fd95b96	1.6981075
27	0x3ea7cbd0	0.32772684
28	0x3f7d7301	0.9900361
29	0x3fb900e9	1.4453403
30	0xbd7e3de7	-0.062070753
31	0xbf206bf7	-0.6266474
32	0xbf276b07	-0.65397686
33	0x3fdfc803	1.7482914
34	0xbf7a9533	-0.9788391
35	0xbf235ce7	-0.6381363
36	0x3d948266	0.07251434
37	0x3f0fbfcb	0.5615203
38	0x3f07bcbe	0.5302237
39	0x3f9e4dd3	1.23675
40	0xbf8db43d	-1.1070629
41	0xbfdabe72	-1.7089369
42	0x3fc46ad8	1.5345106
43	0x3bfda969	0.0077411425
44	0xbfcb2565	-1.5870787
45	0x3d6cb7ca	0.057792462
46	0xbf1e4964	-0.61830735
47	0x3f3beb5c	0.73406005
48	0x3f965316	1.1744106
49	0xbe2906cd	-0.165065
50	0xbd4128af	-0.04715794
51	0x3f24f00c	0.6442878
52	0x3f000ffa	0.5002438
53	0x3e6005b7	0.2187718
54	0x3d76c8d9	0.060250137
55	0x3f1f7c1f	0.6229877
56	0x3d5f3d3a	0.05450175
57	0xbf801254	-1.0005593
58	0x3f3d9ffb	0.74072236
59	0x3f8e11e8	1.1099215
60	0x40085cad	2.1306565
61	0xbf6726d7	-0.9029364
62	0xbf3285d8	-0.6973548
63	0xbf1347a2	-0.5753118
64	0x3fc3a9a2	1.5286143
65	0xbf3aef8c	-0.7302177
66	0x3e15888e	0.14602873
67	0x3fab6892	1.3391287
68	0x4003e50c	2.060855
69	0x3f269102	0.65065014
70	0xbf40c8ca	-0.7530638
71	0xbeef0c1b	-0.46688923
72	0x3e74a6df	0.23891781
73	0xbf1065ea	-0.5640551
74	0x3f6df12d	0.9294613
75	0x3efffdf4	0.49998438
76	0xbf5170c3	-0.81812686
77	0x3fa116ad	1.2585045
78	0x3e85da17	0.26142952
79	0xbf18ff18	-0.5976424
80	0xbf6949e4	-0.91128373
81	0xbf177d25	-0.5917533
82	0x3e130fcf	0.14361499
83	0xbf843ab2	-1.0330412
84	0xbf350d90	-0.7072382
85	0xc00d47b7	-2.2075021
86	0xbf2e9f1b	-0.68211526
87	0x3f017b84	0.50579095
88	0x3f4a6f08	0.7907567
89	0x3d9806d7	0.074231796
90	0x3edabd8b	0.42722735
91	0xbfef52e8	-1.8697176
92	0xbf8e20d1	-1.1103765
93	0x3df7f112	0.121065274
94	0x3f1335f5	0.57504207
95	0x3fae30da	1.3608658
96	0xbfc7e594	-1.5616937
97	0x3ead3c06	0.33834857
98	0xbfae65c7	-1.362481
99	0xbe4657e6	-0.19369468
100	0xbe8b9bff	-0.27267453
101	0xbf9aee54	-1.2103982
102	0x3f272e1b	0.65304726
103	0xbf98e21b	-1.1944002
104	0xbf8f39c4	-1.1189504
105	0x3ec0fc32	0.3769241
106	0xbf443bfb	-0.7665402
107	0xbf6659d5	-0.8998082
108	0xbf3811a4	-0.7190192
109	0x3f05aa9f	0.5221347
110	0x3ec6d090	0.38830996
111	0x3f1ebf47	0.62010616
112	0xbfb84933	-1.4397339
113	0xbf4e14fa	-0.8050076
114	0x3f9b84aa	1.2149861
115	0xbfecd0e5	-1.850125
116	0x3ede7e51	0.43455747
117	0x3f8efaf1	1.1170331
118	0x3edb99f7	0.42890903
119	0xbf90aad5	-1.1302134
120	0xbec84b08	-0.39119744
121	0xbea6853d	-0.32523528
122	0x3f72ba50	0.9481554
123	0xbee9e649	-0.45683506
124	0xbf1e234f	-0.61772627
125	0xbeb8e377	-0.36111042
126	0xbfbeea57	-1.4915265
127	0xbf06b5f3	-0.5262138
128	0x3f972461	1.1807977
129	0x3f4c6d67	0.79854435
130	0x3ed34851	0.4126611
131	0x3e8adbeb	0.2712091
132	0xc031db27	-2.779001
133	0xbf4ddea8	-0.8041787
134	0x3eef7241	0.46766856
135	0x3e9255c1	0.2858105
136	0xbf92da9d	-1.1472965
137	0x3c8dda10	0.017315894
138	0xbe0ff11d	-0.14056821
139	0xbe69fd8a	-0.22850624
140	0x4019d3bf	2.403549
141	0x3fd1981f	1.6374549
142	0xbe986804	-0.29766858
143	0xbfc30137	-1.5234746
144	0xbf100e57	-0.5627188
145	0xbf51cd12	-0.8195354
146	0xbfb4405d	-1.4082142
147	0xbed83801	-0.42230228
148	0xbea711ba	-0.32630712
149	0xbd5c3312	-0.053759642
150	0x3f04870a	0.51768553
151	0xbfce3f36	-1.611304
152	0x3ec1851f	0.37796876
153	0xc0120230	-2.2813835
154	0xbf5d2d50	-0.86397266
155	0xbfd6f329	-1.6792957
156	0x3f0c9d42	0.54927456
157	0xbfb88f8c	-1.4418807
158	0x3f3a6854	0.7281544
159	0xbfaea221	-1.3643228
160	0x3e9fba8e	0.31197017
161	0xbdbfa9f4	-0.09358588
162	0x3e497976	0.1967524
163	0x3f9be078	1.2177877
164	0x3f9e99c0	1.2390671
165	0xbdcf237c	-0.1011419
166	0x40084356	2.1291099
167	0x3d6fafdb	0.05851732
168	0x3f00e766	0.50353086
169	0x3d5afaf9	0.053462002
170	0x3ed45932	0.414743
171	0xbfdeac3c	-1.7396312
172	0x3f9917d2	1.1960394
173	0x4028b438	2.6359997
174	0x3e64fbfb	0.22361748
175	0x3ea34e90	0.31895876
176	0xbf8fd3de	-1.1236532
177	0x400c7764	2.194787
178	0x3df978b5	0.12181226
179	0x3f489548	0.78352785
180	0xbf8c8ad6	-1.0979869
181	0xbd77dc01	-0.060512546
182	0xbfbe7eaa	-1.4882405
183	0xbfe0785a	-1.7536728
184	0xbff0f9f0	-1.8826275
185	0x3c19450a	0.009354839
186	0xbffd19b8	-1.9773474
187	0xbff511b5	-1.9146029
188	0x40093302	2.1437383
189	0xbf75bfca	-0.9599577
190	0xbf18cdc6	-0.59688985
191	0x3fd33627	1.6500901
192	0x3ea913d0	0.33022928
193	0xbf2a61d1	-0.66555506
194	0xbd6e5724	-0.058188573
195	0x3fe7321c	1.8062167
196	0xbf06dfc8	-0.52685213
197	0x3f4325fd	0.7622984
198	0x3f31c7eb	0.69445676
199	0x3fbdf1d8	1.483943
200	0xbf19c988	-0.6007314
201	0xbe029a21	-0.12754108
202	0x3f030b69	0.51189286
203	0xbef649f6	-0.48103303
204	0xbff4e939	-1.9133674
205	0x3f4661bd	0.77492887
206	0xbde9024d	-0.11377392
207	0xbfb71a72	-1.4304945
208	0xbf0c291a	-0.54750216
209	0xbfba91bf	-1.4575728
210	0xbf32b861	-0.6981259
211	0x3f7f71ae	0.99782836
212	0xc00efcdd	-2.2341835
213	0x3eea34cd	0.4574341
214	0xbf17afb8	-0.592525
215	0xbcf7f2d2	-0.030267153
216	0x3f2bd358	0.6711936
217	0x3f7b01a1	0.9804936
218	0xbef56d23	-0.47934827
219	0x3eea7b05	0.4579698
220	0x3facd1cd	1.3501526
221	0x3eddbe99	0.43309477
222	0xbf036e73	-0.5134041
223	0xbe3e0bf7	-0.18559252
224	0xbe59ba2c	-0.21262425
225	0x3de42b8a	0.11141117
226	0x3e9c922a	0.30580264
227	0xbf32c75a	-0.69835436
228	0x3e35eeda	0.17766896
229	0xbe4f0dd9	-0.20220126
230	0x3fc30b61	1.5237848
231	0xbe44ee52	-0.19231537
232	0xbb581ccf	-0.0032976156
233	0x3c7da2ca	0.0154807065

weight f4 [128, 76]
0	0x3e094333	0.1340454
1	0x3da12a07	0.07869344
2	0x3dd3b07c	0.10336396
3	0x3d46c571	0.04852814
4	0xbdae4e2a	-0.08511002
5	0x3dab8b55	0.08376185
6	0xbc9ddfa1	-0.019271674
7	0x3d3a2602	0.045446403
8	0xbdb882ad	-0.090092994
9	0xbc7fe397	-0.0156182265
10	0xbdffaf55	-0.12484614
11	0xbd9136bd	-0.070905186
12	0x3c6c0b28	0.014406957
13	0xbddd9308	-0.108190596
14	0x3abc6f4c	0.0014376431
15	0x3d24c3b0	0.040225685
16	0x3b825daf	0.003978453
17	0xbdb5db4f	-0.088797204
18	0xbdd4d813	-0.103927754
19	0xbd4d2c1b	-0.05009089
20	0x3d138341	0.036013845
21	0x3df3018d	0.1186553
22	0x3d9f0381	0.0776434
23	0xbbf7795e	-0.00755231
24	0x3c99fdd9	0.018797802
25	0xbdac4e01	-0.084133156
26	0xbd940feb	-0.072295986
27	0x3d9fd674	0.078045756
28	0xbd796ebd	-0.060896624
29	0x3d8dfa3c	0.06932494
30	0xbd609530	-0.054829776
31	0xbd1806db	-0.037115913
32	0xbde9c68c	-0.11414823
33	0x3d62bbf4	0.055355027
34	0xbb57f087	-0.0032949762
35	0x3dd21d12	0.10259451
36	0x3d84d1ed	0.06485353
37	0x3d925621	0.07145334
38	0xbc943836	-0.01809321
39	0xbd726e3a	-0.05918715
40	0x3a8e764c	0.0010868995
41	0x3c6c340e	0.014416708
42	0x3d7443cb	0.059634965
43	0xbdaed448	-0.08536583
44	0x3d9d063a	0.07667203
45	0xbc1451a3	-0.009052667
46	0xbdad4d2e	-0.084619865
47	0xbd0c1f7d	-0.034209717
48	0x3ded4edc	0.11587307
49	0x3dc5b6ce	0.09654008
50	0xbe0e8c87	-0.13920794
51	0x3da7d138	0.08194202
52	0x3d715409	0.058918033
53	0x3dbde424	0.0927203
54	0x3df8df7e	0.12152003
55	0xbd7d4d60	-0.06184137
56	0x3d0932d5	0.033495743
57	0x3d462df1	0.048383657
58	0xbd136a5e	-0.03599011
59	0x3d328735	0.043585975
60	0xbd2c55fd	-0.042074192
61	0x3daea187	0.08526903
62	0xbd34333d	-0.043994177
63	0xbd13dfe4	-0.03610219
64	0x3cb83723	0.022487229
65	0x3d575604	0.052572265
66	0xbd8a78fe	-0.06761359
67	0xbb68080a	-0.0035405182
68	0x3d83808b	0.06421002
69	0xbc926b9e	-0.017873581
70	0x3d235888	0.03987935
71	0xba95292f	-0.0011380072
72	0x3d34a4d4	0.044102505
73	0xbdb314ed	-0.08744226
74	0xbd6bc134	-0.0575573
75	0xbd86e7c9	-0.06587178
76	0x3e13610f	0.14392494
77	0x3bb064ed	0.005383125
78	0x3be762e7	0.0070613506
79	0xbd4629e3	-0.04837979
80	0x3df01a27	0.11723738
81	0x3de3fe60	0.111325026
82	0xbda261e0	-0.079288244
83	0xbdc206fb	-0.09473988
84	0xbdc12366	-0.0943058
85	0x3bff96ac	0.007799944
86	0xbcb4eb8a	-0.02208497
87	0xbd44f6c6	-0.048086904
88	0xbd19cf0b	-0.037550967
89	0x3cf3b302	0.029748444
90	0xbd9786e0	-0.07398772
91	0x3d035111	0.032059733
92	0xbc9ce8c6	-0.019153964
93	0xbd471611	-0.04860503
94	0x3ca09789	0.019603508
95	0x3dd1bcb4	0.102410704
96	0xbd8dbbd4	-0.06920591
97	0x3c5473cd	0.012967062
98	0xbd0c2187	-0.03421166
99	0x3e00f773	0.12594394
100	0xbde85d65	-0.113459386
101	0xbe19914e	-0.14996836
102	0x3dfb2f74	0.1226491
103	0xbd5450f9	-0.051835034
104	0x3ce317e0	0.027721345
105	0x3b041fc7	0.0020160542
106	0xbd1833e2	-0.037158854
107	0xbaeae9ea	-0.0017922495
108	0x3d720400	0.059085846
109	0x3bd18bdd	0.006394847
110	0xbdb84eed	-0.08999429
111	0xbd8c0dad	-0.06838546
112	0xbd61927f	-0.05507135
113	0x3d85271e	0.06501602
114	0xbdb2445c	-0.08704445
115	0x3de03f24	0.10949543
116	0xbcacf1c2	-0.021111373
117	0xbcde6bbb	-0.02715098
118	0x3de324eb	0.11091026
119	0x3d28987e	0.041161053
120	0x3db47bce	0.08812676
121	0x3d82c81b	0.06385823
122	0xbd092efc	-0.033492073
123	0xbda89757	-0.08231991
124	0xbbb0b6c1	-0.0053928797
125	0x3da8decb	0.082456194
126	0xbd0d524e	-0.03450232
127	0xbdd92a79	-0.10603804
128	0x3d31c306	0.04339888
129	0x3dd27813	0.102768086
130	0xbd37f2d9	-0.044909332
131	0xbdc0e313	-0.09418311
132	0xbdd8b721	-0.10581804
133	0x3cee7d3a	0.029112447
134	0xbc077c19	-0.008269333
135	0xbd7da5d2	-0.061925717
136	0x3cd42994	0.025898732
137	0x3d2c901d	0.042129625
138	0x3ddd8724	0.10816792
139	0x3da7e283	0.081975006
140	0xbc6f61a4	-0.014610682
141	0xbddc1b5a	-0.107474044
142	0xbdd43ca1	-0.103631265
143	0x3dc116fd	0.09428213
144	0x3d38de3d	0.045133818
145	0x3cfe7132	0.031059835
146	0xbdcb59bd	-0.099292256
147	0x3de322fa	0.110906556
148	0x3dd9cd6e	0.10634886
149	0x3dc8790e	0.09788714
150	0xbde1e8e4	-0.110307485
151	0xbd7612d3	-0.060076546
152	0xbda662e3	-0.0812433
153	0x3d859cbd	0.06524036
154	0xbd88893b	-0.066668
155	0xbd90431b	-0.07044049
156	0x3d7f5e18	0.062345594
157	0xbd7a06a3	-0.061041486
158	0xbd86f098	-0.06588858
159	0xbbd29ffa	-0.006427762
160	0xbc329cc7	-0.010901636
161	0xbdacceb7	-0.08437865
162	0x3de30ea8	0.1108678
163	0xbd8528cd	-0.06501923
164	0x3d46933c	0.048480257
165	0x3dce1fac	0.10064635
166	0x3d786963	0.06064738
167	0x3c9a4b18	0.018834636
168	0x3dbc2d10	0.091882825
169	0x3c32a150	0.010902718
170	0xbd4f2c7f	-0.050579544
171	0x3dd3b16a	0.103365734
172	0x3cb99575	0.022654274
173	0xbdeb682f	-0.11494481
174	0xbd0f42ab	-0.03497569
175	0xbdc14005	-0.09436039
176	0x3e051396	0.12995753
177	0x3c81905d	0.015815908
178	0xbde11271	-0.109898455
179	0xbc8b9aa2	-0.017041508
180	0x3d88609e	0.06659053
181	0x3d2c2b75	0.04203363
182	0x3cc7b01f	0.024375973
183	0xbc88ee60	-0.016715229
184	0x3d5b183c	0.05348991
185	0xbd5ab7e4	-0.053398028
186	0xbd3b7746	-0.045768045
187	0xbdc7e7f6	-0.0976104
188	0xbd2f9cb7	-0.042874064
189	0x3d641721	0.05568612
190	0xbd4fc690	-0.050726473
191	0x3c413c8f	0.011794223
192	0x3bdfd3e2	0.0068306783
193	0x382b2c67	4.081093e-05
194	0xbdd1a0cb	-0.10235747
195	0x3d81feeb	0.0634745
196	0xbd2da255	-0.04239114
197	0x3dd237a3	0.10264518
198	0xbdc9023a	-0.09814878
199	0xbcea49a0	-0.02859956
200	0x3d69890d	0.057015467
201	0xbd09b2e1	-0.033617858
202	0x3dc8270c	0.097730726
203	0xbda5ef69	-0.081023045
204	0xbdc4ad97	-0.09603422
205	0xbd8092fe	-0.062780365
206	0x3beca19f	0.007221415
207	0x3dcd10d5	0.10012976
208	0xbd3c1070	-0.045914114
209	0x3d0429ca	0.032266416
210	0xbce4e1c1	-0.02793968
211	0xbd19cf63	-0.037551295
212	0x3db77f7c	0.089598626
213	0xbde3e712	-0.111280575
214	0x3cf52686	0.029925596
215	0x3ddf2719	0.10896129
216	0xbc717844	-0.014738146
217	0x3daf6b78	0.0856542
218	0xbd0ff206	-0.03514292
219	0x3de03eaa	0.10949452
220	0xbdeedf34	-0.11663666
221	0xbcdeadb1	-0.027182432
222	0xbce2dd0f	-0.0276933
223	0x3d2be7e5	0.0419692
224	0x3d3961c8	0.045259267
225	0x3d9b57c0	0.07585096
226	0xbc577940	-0.013151467
227	0xbc2839ce	-0.010267688
228	0x3dd884ac	0.1057218
229	0xbca8754b	-0.020563742
230	0x3dbad315	0.09122292
231	0xbdada3fa	-0.08478542
232	0xbc9f58fb	-0.019451609
233	0xbc97fce1	-0.0185532
234	0x3d0e5aa2	0.034754403
235	0x3d9346df	0.07191252
236	0xbc4ab3bb	-0.012371953
237	0xbdbc01f8	-0.09180063
238	0x3d5b9bf9	0.053615544
239	0x3c27b94e	0.010237051
240	0x3d3d6b1b	0.04624472
241	0xbda4e6f7	-0.080518655
242	0x3d61c65a	0.055120803
243	0x3dd3d638	0.10343593
244	0x3c538057	0.012909017
245	0xbdd56f87	-0.10421663
246	0x3d9738b6	0.07383864
247	0xbda02a2a	-0.07820542
248	0x3d0839aa	0.033258118
249	0x3ca7f7f9	0.020503985
250	0xbd4ca451	-0.04996139
251	0x3d0cf287	0.03441098
252	0xbde2ab91	-0.1106788
253	0x3ce0a014	0.027420081
254	0xbd720541	-0.05908704
255	0xbb6db338	-0.0036270153

bias f4 [128]
0	0xbd70107a	-0.058609463
1	0xbd8e4512	-0.06946768
2	0xbda287a3	-0.07936027
3	0x3d650352	0.05591137
4	0x3caf138c	0.021371625
5	0x3ab2690f	0.0013611632
6	0x3d023ab7	0.031794276
7	0x3d89bcd2	0.06725468
8	0x3c84d31e	0.01621395
9	0x3d9c8da3	0.076442026
10	0xbc4ca244	-0.012489859
11	0x3d3dd06e	0.046341352
12	0x3d078891	0.033089224
13	0xbb43be70	-0.0029868148
14	0x3d9e8054	0.077393204
15	0x3dd2642b	0.10273012
16	0x3dbf477d	0.09339807
17	0xbcaa15bb	-0.020762315
18	0xbd0203f7	-0.031742062
19	0x3dd7f468	0.10544664
20	0xbd4ba7af	-0.049720462
21	0x3c0fdc69	0.008780577
22	0xbd8357d4	-0.06413236
23	0xbd00adde	-0.031415813
24	0xbd287dd1	-0.041135613
25	0x3d99e1e0	0.07513785
26	0xbd21b1b4	-0.03947611
27	0xbd5a3393	-0.05327184
28	0x3d4955c2	0.04915405
29	0x3be9c8a0	0.007134512
30	0x3c7d2de1	0.015452833
31	0xbdbfa54e	-0.09357701
32	0xbd30d178	-0.043168515
33	0x3d52b16b	0.05143873
34	0x3d494de7	0.04914656
35	0xbdcadfc3	-0.099059604
36	0xbda0fe92	-0.078610554
37	0x3d4c4dc1	0.04987884
38	0xbdb8db95	-0.09026257
39	0xbd7f6d5b	-0.06236015
40	0xbd842af0	-0.06453502
41	0xbdb456d2	-0.08805622
42	0xbd5912e3	-0.052996527
43	0x3dbb5cc3	0.09148552
44	0xbdce1020	-0.10061669
45	0x3dad5ee9	0.08465368
46	0xbdc29537	-0.09501117
47	0xbcafec2b	-0.021474918
48	0xbc9bbd59	-0.019011186
49	0x3d879b39	0.06621403
50	0xbdb7043c	-0.089363545
51	0xbd5ac1cb	-0.05340747
52	0xbdeb9121	-0.115022905
53	0xbccb6109	-0.024826543
54	0x3d2bd3d9	0.04195008
55	0x3dd3878d	0.10328589
56	0x3dc7c3cf	0.097541444
57	0xbd0b30a4	-0.033981934
58	0xbd57dbce	-0.052699856
59	0x3ca4d5d3	0.02012149
60	0x3d93abb2	0.07210483
61	0x3dcaab71	0.09895981
62	0x3db03678	0.08604139
63	0x3a72694e	0.0009247259
64	0xbdc230b2	-0.09481944
65	0xbd7317c8	-0.05934885
66	0x3d967b15	0.07347695
67	0xbdc86806	-0.09785466
68	0xbd958eb7	-0.07302611
69	0xbda0f908	-0.07859999
70	0xbcdeaad8	-0.027181074
71	0x3d57ad7a	0.052655675
72	0x3daec7c3	0.08534195
73	0x3db937e0	0.090438604
74	0x3d624b0b	0.055247348
75	0x3ce938fb	0.028469553
76	0xbd0ce0de	-0.034394138
77	0xbd93ed9b	-0.07223054
78	0xbd729847	-0.059227254
79	0x39d7633c	0.0004108193
80	0x3dc313df	0.095252745
81	0xbd1cfd79	-0.038327668
82	0xbcb33f41	-0.021880748
83	0xb9af51d2	-0.00033439562
84	0xbd4d6826	-0.05014815
85	0xbd655de5	-0.055997748
86	0x3cae8755	0.021304766
87	0xbda95ab9	-0.08269257
88	0xbbe79aca	-0.007068013
89	0xba99badc	-0.0011728662
90	0x3ce42cca	0.027853388
91	0xbc495160	-0.012287468
92	0xbd7dd485	-0.061970253
93	0xbd100a82	-0.03516627
94	0xbce89383	-0.028390652
95	0x3d7e4e5c	0.062086448
96	0x3cf060d1	0.02934304
97	0xbd0469c5	-0.032327432
98	0x3dc817ac	0.0977014
99	0x3c9402be	0.018067714
100	0x3d710c88	0.05884984
101	0xbd34b0fd	-0.0441141
102	0xbdb1aa17	-0.0867502
103	0xbdd69d27	-0.10479193
104	0xbd1ac660	-0.03778684
105	0x3d8f3543	0.06992581
106	0x3da75dac	0.08172163
107	0x3ce7b099	0.02828245
108	0x3d199a88	0.037500888
109	0xbd8f4251	-0.06995071
110	0xbd373f69	-0.044738207
111	0x3c8ceeec	0.01720377
112	0xbdc4bd8c	-0.09606466
113	0xbdc50a2a	-0.09621079
114	0xbda45929	-0.080248185
115	0x3cff6c16	0.03117947
116	0xbc4354f4	-0.01192211
117	0xbb280001	-0.0025634768
118	0x3d9ccc81	0.076561935
119	0xbd928c92	-0.07155718
120	0xbd864c59	-0.06557531
121	0xbce2e638	-0.027697667
122	0x3d8c17dd	0.06840489
123	0x3cb2a189	0.021805542
124	0xbdbfa485	-0.093575515
125	0x3dc99890	0.09843552
126	0xbd868d9f	-0.06569981
127	0x3dad2059	0.084534355

weight f4 [128, 128]
0	0x3cf649b1	0.030064436
1	0x3ce22d18	0.027609393
2	0x3d924a38	0.07143062
3	0x3ced044c	0.028932713
4	0xbdb16101	-0.0866108
5	0x3d1dc60e	0.038518958
6	0x3d9fd4d8	0.078042686
7	0xbd39b72c	-0.045340702
8	0x3d8073bc	0.062720746
9	0x3d8b8047	0.06811576
10	0xbca7a9c6	-0.020466696
11	0x3bb2e70d	0.0054596723
12	0xbcd780f1	-0.026306601
13	0x3d8dcc0c	0.069236845
14	0x3d068e10	0.032850325
15	0x3d825385	0.06363586
16	0xbda5d4cd	-0.08097229
17	0xbd280167	-0.041016962
18	0xbd6b128c	-0.057390735
19	0x3bef6408	0.007305626
20	0xbd26bfab	-0.040710133
21	0x3c9f52e8	0.019448712
22	0x3d2f6e97	0.042830076
23	0xbcc97cfc	-0.02459573
24	0x3d108109	0.035279308
25	0xbd93229b	-0.07184335
26	0xbc66ce02	-0.014087202
27	0x3c12bb35	0.008955766
28	0x3d93582c	0.07194552
29	0x3d0849a1	0.033273343
30	0x3c57f7b4	0.013181616
31	0x3d19aaab	0.037516277
32	0x3d9f94c9	0.077920504
33	0xbbd78ef7	-0.006578322
34	0x3daed24b	0.08536204
35	0xbd74a6b9	-0.05972931
36	0x3ce1778c	0.027522825
37	0x3b50046e	0.0031740922
38	0x3d5b8ce0	0.053601146
39	0xbdb864d5	-0.09003607
40	0x3d18f45b	0.03734241
41	0xbda036c3	-0.07822945
42	0xbcee2d77	-0.029074414
43	0xbd02282d	-0.031776596
44	0xbca309ee	-0.019902196
45	0xbceb7bab	-0.028745493
46	0xbda3a0c8	-0.07989651
47	0xbdbdecfe	-0.09273718
48	0xbca73998	-0.020413205
49	0x3d870da8	0.065944016
50	0xbcf62a38	-0.030049428
51	0xbd81c34c	-0.06336078
52	0xbce7f299	-0.028313922
53	0xbda5fb03	-0.08104517
54	0xbba84263	-0.005134867
55	0x3d9736ed	0.07383523
56	0xbdb3c454	-0.08777681
57	0x3d507dab	0.050901096
58	0x3d50577e	0.05086469
59	0x3d67b539	0.05656931
60	0xbd6c6d33	-0.057721328
61	0x3c157aa6	0.00912348
62	0x3d5d70ec	0.05406277
63	0xbd977a32	-0.07396354
64	0x3d87377c	0.0660238
65	0xbb9538a7	-0.0045538726
66	0xbdadf24c	-0.0849348
67	0xbce0c4bb	-0.027437558
68	0xbc23732a	-0.009976188
69	0xbd22a394	-0.03970678
70	0xbd00618a	-0.03134302
71	0xbbdab5fc	-0.0066745263
72	0x3d2e8952	0.042611428
73	0x3d13b43e	0.036060564
74	0xbdb60ac4	-0.08888772
75	0xbc0876fe	-0.008329151
76	0x3ccc49c7	0.024937524
77	0x3d8b9783	0.06816008
78	0x3d1e7f63	0.038695704
79	0x3d59ec68	0.05320397
80	0x3cc0feaa	0.023558933
81	0xbc7964b6	-0.015221765
82	0xbd361cfb	-0.04446123
83	0xbd1f1b9e	-0.038844697
84	0x3cce9597	0.025217814
85	0xbcbf1e9d	-0.023330027
86	0x3da62022	0.081115976
87	0xbd85f261	-0.06540371
88	0x3d75e860	0.060036063
89	0x3d60a460	0.05484426
90	0x3d5fcc22	0.054638036
91	0x3d73362e	0.05937784
92	0xbd41471f	-0.047186967
93	0x3d3a41a2	0.04547275
94	0xbdabe40c	-0.08393106
95	0xbd2b0ad4	-0.041758373
96	0xbca3e016	-0.020004313
97	0x3d9790d2	0.07400669
98	0xbc64d743	-0.013967338
99	0xbda3d924	-0.08000401
100	0xbda78bd2	-0.081809655
101	0x3b9c1227	0.004762906
102	0x3c1c492c	0.00953893
103	0x3bbd8510	0.0057836846
104	0xbcf9d51b	-0.030497124
105	0x3cef23e5	0.02919192
106	0x3c54467f	0.012956261
107	0xbcc4e01c	-0.024032645
108	0x3d50c733	0.05097122
109	0xbd93d35d	-0.07218049
110	0xbd552b30	-0.05204314
111	0x3ccc6bca	0.024953742
112	0xbcca1afe	-0.024671074
113	0x3ba1f47b	0.0049424744
114	0xbcf6d285	-0.03012968
115	0x3d3465cf	0.044042405
116	0x3da12603	0.07868578
117	0x3d8b6218	0.06805819
118	0x3c599ec5	0.0132824825
119	0xbd659e7c	-0.056059346
120	0xbd2126af	-0.039343532
121	0xbd099f4c	-0.033599183
122	0xbcb6eb0e	-0.02232888
123	0xbd551e0b	-0.052030604
124	0x3d3bd6d4	0.045859173
125	0xbdc0ac2d	-0.0940784
126	0x3b351f48	0.0027637053
127	0x3d75fdd4	0.060056522
128	0xbd45f5ba	-0.048330046
129	0xbb6055ae	-0.0034230757
130	0x3d1c0755	0.03809293
131	0xbce53f5c	-0.027984314
132	0xbd349c83	-0.044094574
133	0x3da2e97c	0.0795469
134	0xbd62a4c8	-0.05533293
135	0x3dbfd6b9	0.09367127
136	0x3dcfbdd5	0.101436295
137	0x3ac2944e	0.0014845224
138	0x3b8f081e	0.0043649813
139	0xbd06726c	-0.032823965
140	0x3cc67e1c	0.024230056
141	0xbd864942	-0.065569416
142	0xbc95dcc2	-0.018293742
143	0x3dace105	0.084413566
144	0x3d05f420	0.03270352
145	0x3d939cff	0.07207679
146	0x3d93070d	0.07179079
147	0x3da8c4d5	0.08240668
148	0x3c5f5566	0.0136312
149	0xbd5f5453	-0.054523777
150	0xbda8ecd6	-0.08248298
151	0x3d3b8d3f	0.045789
152	0x3dd4e22a	0.103947
153	0x3dc4d1a4	0.09610298
154	0xbd959da2	-0.07305457
155	0x3db0ba86	0.086293265
156	0xbd42801e	-0.047485463
157	0x3d16d0f1	0.036820356
158	0x3d3c6086	0.04599049
159	0xbd7c0a90	-0.06153351
160	0xbdc4d8bb	-0.096116506
161	0x3d61afdc	0.055099353
162	0xbdc18f8e	-0.09451209
163	0x3d45df9c	0.048308954
164	0x3d669f7a	0.056304432
165	0x3d64abad	0.055827785
166	0x3ac42103	0.0014963452
167	0xbcc6deac	-0.0242761
168	0x3baa3930	0.0051948056
169	0x3b411039	0.0029459132
170	0xbda9c2d3	-0.08289113
171	0x3c6e2906	0.014536148
172	0xbd852147	-0.06500488
173	0x3d8278c7	0.06370693
174	0xbd655893	-0.055992674
175	0xbb6c4329	-0.0036050773
176	0xbda65107	-0.081209235
177	0x3da176ee	0.07884012
178	0x3d7f4fe6	0.062332056
179	0x3da3f2a4	0.080052644
180	0x3d8097ad	0.0627893
181	0xbd60e8d4	-0.054909542
182	0x3db56573	0.088572405
183	0xbbfcfb39	-0.0077203778
184	0x3da3b8a8	0.07994205
185	0x3bfb3ac3	0.007666917
186	0x3d676266	0.056490324
187	0xbcc7087b	-0.024296036
188	0x3d33eed8	0.04392895
189	0x3ad0e9aa	0.0015938778
190	0xbd87411d	-0.06604216
191	0x3db4e037	0.08831828
192	0xbd3863ed	-0.04501717
193	0xbd954964	-0.07289389
194	0x3da76c01	0.08174897
195	0xbd874c8d	-0.06606398
196	0x3cb04076	0.021515112
197	0x3d8e73ac	0.069556564
198	0xbb3ec3f4	-0.0029108496
199	0xbd805036	-0.06265299
200	0xbd96fc67	-0.07372361
201	0x3c2cbfd3	0.010543781
202	0xbc0b3882	-0.008497359
203	0x3d8e0552	0.069346085
204	0x3da2eb14	0.07954994
205	0xbd34477f	-0.044013496
206	0xbad4f11a	-0.001624617
207	0xbda5bb3c	-0.08092353
208	0x3d0a62c8	0.03378561
209	0x3d4e9b9b	0.050441366
210	0xbcd5dfb6	-0.02610765
211	0x3c5ac8ad	0.013353509
212	0x3bbc6057	0.0057487893
213	0xbd85d7a1	-0.065352686
214	0x3db9b0c6	0.0906692
215	0x3ce482c4	0.027894385
216	0x3db50080	0.08837986
217	0xbdb45f75	-0.088072695
218	0xbd283bb5	-0.041072566
219	0xbce2452f	-0.02762088
220	0x3cfe7444	0.0310613
221	0xbc1a1f60	-0.009406894
222	0xbd264b56	-0.04059919
223	0x3dcb4679	0.09925551
224	0x3d96be73	0.07360544
225	0x3da550ad	0.08072028
226	0x3d88e0a3	0.06683471
227	0x3d5ed1ed	0.05439942
228	0xbd350720	-0.044196248
229	0x3ca7f599	0.020502852
230	0xbca98395	-0.020692626
231	0xbc827f44	-0.015929826
232	0x3cab8c08	0.020940796
233	0x3cdf8d9b	0.027289202
234	0xbd310aad	-0.04322307
235	0xbcce78e2	-0.025204126
236	0xbc883fd7	-0.016632004
237	0xbc0fc5f1	-0.00877522
238	0xbd42f645	-0.047598142
239	0xbd174e23	-0.03693975
240	0xbd898d16	-0.06716363
241	0xbd8c2890	-0.06843674
242	0x3bf45e1a	0.007457507
243	0xbd87a084	-0.06622413
244	0xbd954b03	-0.07289698
245	0x3d56b3a7	0.052417424
246	0xbd91b0e5	-0.07113818
247	0x3d9b129a	0.07571907
248	0x3c4575b9	0.012051993
249	0xbcbb8537	-0.02289067
250	0x3d879570	0.066203
251	0xbd64bdf9	-0.055845235
252	0x3d81b755	0.06333796
253	0x3d690a3b	0.056894522
254	0x3db975cb	0.0905567
255	0xbdad0a09	-0.0844918

bias f4 [128]
0	0xbba6a9b5	-0.0050861486
1	0x3d364b84	0.04450561
2	0x3d3c25f7	0.045934644
3	0xbd9aa86e	-0.07551657
4	0xbd222db2	-0.03959436
5	0xbd996dbf	-0.074916355
6	0xbdb81e11	-0.0899011
7	0x3d75d319	0.06001577
8	0x3d895b12	0.067068234
9	0xbd872b4d	-0.06600056
10	0xbcd90a56	-0.026494186
11	0x3d265fa4	0.040618554
12	0x3db27921	0.0871451
13	0x3da4aab8	0.080403745
14	0x3d6a6022	0.057220586
15	0xbd9cd814	-0.07658401
16	0xbd55df4d	-0.05221491
17	0x3d9df0ee	0.07711969
18	0xbd9a4939	-0.07533497
19	0xbd139180	-0.03602743
20	0xbd83bd95	-0.06432644
21	0xbd97c7aa	-0.0741113
22	0x3cfbcc14	0.03073696
23	0xbcc473ff	-0.023981092
24	0xbdac287c	-0.08406159
25	0xbd992831	-0.07478369
26	0x3da4248e	0.08014785
27	0x3da7ed05	0.08199505
28	0x3d21d574	0.039510205
29	0x3d38e7e5	0.045143027
30	0xbd3d9a1e	-0.046289556
31	0xbccc4d97	-0.024939341
32	0x3c158873	0.00912677
33	0x3d25fc63	0.040523898
34	0xbb7a6d78	-0.003821222
35	0x3cf0e1fc	0.029404633
36	0xbd47ca7e	-0.048777096
37	0xbd011dd3	-0.031522583
38	0x3d1dda73	0.038538408
39	0xbd97f2ad	-0.074193336
40	0xbb389bcb	-0.0028169032
41	0x3dabb441	0.0838399
42	0xbd87a00b	-0.06622323
43	0xbce502df	-0.02795547
44	0xbc2abf57	-0.010421596
45	0xbd03b492	-0.032154627
46	0x3d5ab026	0.053390644
47	0x3cb3290a	0.021870155
48	0x3dbf7dde	0.09350179
49	0xbc7ed3bd	-0.015553412
50	0x3d15a853	0.03653748
51	0x3ceee624	0.029162474
52	0xbd02f3f2	-0.031970926
53	0xbdacad88	-0.08431536
54	0x3d5e2a4b	0.054239552
55	0xbd4f424f	-0.050600346
56	0xbcf62a8c	-0.030049585
57	0xbc860625	-0.016360352
58	0xbdac8d01	-0.08425332
59	0x3d83e6e6	0.06440525
60	0xbcd7d2e3	-0.026345676
61	0xbd322456	-0.043491684
62	0xbda1835c	-0.07886383
63	0xbb8d55e3	-0.004313217
64	0x3a6e069d	0.0009079965
65	0xbc032db3	-0.008006501
66	0xbd1785cd	-0.036992837
67	0x3d307ce8	0.04308787
68	0xbc3f9b96	-0.011694809
69	0x3cb056a6	0.021525692
70	0x3d7c4e2a	0.06159798
71	0x3ce9240f	0.028459577
72	0xbd872ccf	-0.066003434
73	0xbc5cc20f	-0.013474002
74	0xbcfb98bd	-0.03071248
75	0xba8e3ab1	-0.0010851232
76	0x3d55af74	0.05216928
77	0xbb884fe9	-0.0041599167
78	0xbd050f97	-0.03248557
79	0xbd4bb367	-0.04973164
80	0x3d5ebb48	0.054377824
81	0xbc904138	-0.017609224
82	0x3bffb224	0.0078032184
83	0xbc376c83	-0.011195305
84	0xbd7fafd5	-0.062423546
85	0x3d08181e	0.033226125
86	0x3d910be1	0.07082344
87	0xbd4a0f99	-0.04933128
88	0x3c8eccd3	0.017431652
89	0x3d0d8149	0.034547124
90	0xbcd8d43a	-0.026468385
91	0xbc7086b2	-0.014680551
92	0x385d57e0	5.2772346e-05
93	0x3d58f7bf	0.052970644
94	0x3bcab538	0.0061861537
95	0xbdb57bcb	-0.08861502
96	0xbc9eba78	-0.019376025
97	0xbd39ac30	-0.045330226
98	0xbc237ad0	-0.009978011
99	0xbd2f7177	-0.042832818
100	0x3c3ec7ea	0.011644343
101	0xbc1aae7b	-0.009441013
102	0xbd1618d9	-0.03664479
103	0xbb0de2d0	-0.0021650083
104	0xbd8bbffd	-0.06823728
105	0xbd2fbec1	-0.042906526
106	0x3d41359f	0.047170278
107	0x3b19b796	0.0023455373
108	0x3d3a3d7b	0.04546879
109	0x3ca32688	0.019915834
110	0x3d804598	0.06263274
111	0x3dae909f	0.08523678
112	0x3da5518d	0.08072195
113	0xbc6e2c45	-0.014536922
114	0xbcde05fc	-0.027102463
115	0x3d93d761	0.07218815
116	0x3d2e44a3	0.042545926
117	0x3d9e15f3	0.0771903
118	0x3db331ca	0.08749731
119	0x3d476c22	0.048687108
120	0x3ba9bb44	0.0051797945
121	0x3b8265c4	0.0039794166
122	0xbd3ee8c4	-0.0466087
123	0x3db1a41f	0.08673882
124	0xbd0844b6	-0.033268653
125	0x3d534f7a	0.051589467
126	0x39ea3696	0.00044672628
127	0xbd410cd3	-0.04713137

weight f4 [128, 128]
0	0xbd87f98e	-0.06639396
1	0x3cfba557	0.030718489
2	0xbcb6996c	-0.022289954
3	0x3d1a6177	0.037690606
4	0xbd1cb07a	-0.03825424
5	0xbbd666dc	-0.0065430235
6	0x3cf91934	0.030407526
7	0x3da93633	0.08262291
8	0xbd9da7e2	-0.07698037
9	0xbd4f87a1	-0.050666455
10	0xbcc1b07c	-0.023643725
11	0x3c64d1fc	0.01396608
12	0x3dc1f712	0.09470953
13	0x3ba643c7	0.0050739977
14	0x3bf93b6b	0.00760596
15	0x3d91bd9c	0.07116243
16	0xbd8117ef	-0.06303393
17	0x3db55dbe	0.088557705
18	0x3dc6f11e	0.09713958
19	0xbd41bc61	-0.047298793
20	0xbc85661b	-0.01628404
21	0x3d33dc61	0.04391134
22	0xbd3d59e3	-0.0462283
23	0xbcd20a28	-0.025639609
24	0x3d8ab1ef	0.067722194
25	0x3d9dd703	0.07707026
26	0xbd85f795	-0.06541363
27	0x3d194cb1	0.037426654
28	0xbd43eba7	-0.047832157
29	0xbb0dc830	-0.0021634214
30	0xbdc76208	-0.09735495
31	0xbda2b11f	-0.079439394
32	0xbc8fb857	-0.017543955
33	0xbd958e6b	-0.07302555
34	0xbd44728e	-0.04796081
35	0x3d34d70e	0.044150405
36	0x3d2da98c	0.04239802
37	0xbd2e91e9	-0.04261962
38	0x3da018eb	0.07817253
39	0x3db3bf00	0.08776665
40	0xbc985a4d	-0.018597746
41	0x3d546f0a	0.051863708
42	0xbbe432c6	-0.0069640605
43	0xbb943867	-0.0045233252
44	0xbc1156c7	-0.008870787
45	0x3cc5e798	0.024158284
46	0x3dd1a6fa	0.102369264
47	0xbcaa635a	-0.020799328
48	0xbd2b60c9	-0.04184035
49	0x3dbd6bba	0.09249063
50	0x3dae6c42	0.08516742
51	0xbd90caa0	-0.07069898
52	0x3d8c301c	0.06845114
53	0x3b9207b7	0.004456486
54	0x3d38a6cc	0.045080945
55	0xbac68f83	-0.0015148971
56	0x3bcff81a	0.0063467147
57	0xbd49490c	-0.04914193
58	0x3b88fadc	0.0041802954
59	0xbd81877e	-0.06324671
60	0xbcc48d59	-0.023993181
61	0x3d5cebf6	0.053935967
62	0x3da8f52b	0.08249887
63	0xbd3991aa	-0.04530493
64	0x3d269455	0.040668804
65	0x3c372cb6	0.0111800935
66	0x3dadfe33	0.0849575
67	0x3d46e46c	0.048557684
68	0xbcf5b0b7	-0.02999149
69	0x3d3c9eeb	0.046049993
70	0x3ce9f57c	0.028559439
71	0x3d546498	0.051853746
72	0xbd4fb85f	-0.05071294
73	0x3d25a372	0.040439077
74	0xbd8ed43c	-0.06974074
75	0x3d61e86a	0.055153288
76	0xbcac84e8	-0.021059468
77	0x3d6a6849	0.05722836
78	0x3d6243eb	0.055240553
79	0x3bf87899	0.0075827357
80	0xbd8f24fd	-0.06989477
81	0xbd7faa30	-0.062418163
82	0x3bb39eeb	0.005481591
83	0xbd8aba31	-0.067737944
84	0x3d88a4e3	0.06672075
85	0xbc5e8b67	-0.013583041
86	0xbd86fe7e	-0.06591509
87	0x3d6c45ac	0.05768363
88	0x3cdef80e	0.027217891
89	0x3da29330	0.0793823
90	0x3c047a91	0.008085863
91	0x3d50a743	0.050940763
92	0x3d51984a	0.051170625
93	0x3d2804cd	0.041020203
94	0xbd815517	-0.06315058
95	0xbda48bea	-0.08034499
96	0x3c78326e	0.015148742
97	0x3db6d6f5	0.089277185
98	0x3d5e6abd	0.054301012
99	0xbd16433d	-0.036685217
100	0xbcaaadc2	-0.020834807
101	0x3dae4e08	0.08510977
102	0x3d9a3946	0.07530455
103	0x3d4b4d1a	0.049634077
104	0xbd712c6e	-0.058880262
105	0xbdad1934	-0.08452073
106	0x3d922438	0.071358144
107	0x3d9b0f11	0.07571233
108	0x3db262ca	0.08710249
109	0x3d233154	0.039841965
110	0xbcc8a951	-0.024494799
111	0x3c64d9c5	0.013967936
112	0x3dd00242	0.10156681
113	0x3a98af64	0.001164895
114	0xbd802d55	-0.062586464
115	0x3d322c8f	0.043499526
116	0xbd39e43a	-0.04538367
117	0x3d030bd9	0.03199372
118	0xbcf21348	-0.02955021
119	0xbc58eb03	-0.013239625
120	0x3d5c79af	0.053826984
121	0xbcb9b39e	-0.022668656
122	0x3b82b40c	0.0039887484
123	0xbd902e9a	-0.070401385
124	0x3bc19b4f	0.005908407
125	0xbd29eed3	-0.041487526
126	0x3d35350a	0.044240035
127	0x3db7e828	0.08979827
128	0xbd60cf2a	-0.054885067
129	0x3da49a97	0.08037298
130	0x3d005a01	0.031335834
131	0x3dcd8a9a	0.10036202
132	0x3bf5c470	0.007500224
133	0xbd629d2c	-0.055325672
134	0xbd7d6d1f	-0.061871644
135	0x3da2c539	0.079477735
136	0xbd3dcd4f	-0.046338376
137	0xbd7739a5	-0.06035771
138	0xbd44e8e3	-0.04807366
139	0xbd96faa2	-0.07372023
140	0xbc90fe65	-0.01769943
141	0x3c94f0c9	0.018181222
142	0x3cef3f62	0.029205028
143	0xbc57ce21	-0.013171704
144	0xbd378f2a	-0.044814266
145	0x3da00568	0.07813531
146	0xbd2d8220	-0.042360425
147	0xbda07032	-0.078338996
148	0x3dad0c89	0.084496565
149	0xbd885223	-0.06656291
150	0xbd88fc1e	-0.066887125
151	0xbda7c3c2	-0.08191635
152	0x3d55e10b	0.05221657
153	0x3c965814	0.018352546
154	0x3d9e1ad9	0.077199645
155	0x3d81ca15	0.06337372
156	0xbd369b67	-0.044581797
157	0x3c3d46ef	0.011552556
158	0x3cbf9617	0.023386998
159	0x3d84b3d1	0.0647961
160	0xbcdd7360	-0.027032554
161	0x3db4d1dd	0.08829091
162	0xbc71555d	-0.014729825
163	0xbd535369	-0.051593218
164	0x3aef6581	0.0018264503
165	0x3cd2f05d	0.02574938
166	0x3b61df0d	0.0034465224
167	0x3d89f2a6	0.06735735
168	0x3cf7794a	0.030209202
169	0x3d8e27ee	0.0694121
170	0x3cbb683c	0.022876851
171	0xbdae32a4	-0.08505753
172	0xbc813f68	-0.015777305
173	0xbca2fa2c	-0.019894682
174	0x3d87e58c	0.066355795
175	0x3d94810f	0.072511785
176	0x3d47b7df	0.048759338
177	0xbd36dbff	-0.0446434
178	0xbd4d8549	-0.05017594
179	0xbd270a99	-0.04078159
180	0xbd800c01	-0.062522896
181	0xbd68e0b1	-0.056854907
182	0x3d3e547a	0.046467282
183	0x3d6196e1	0.05507553
184	0x3b8c68a6	0.004284936
185	0x3d9adb84	0.075614005
186	0xbcd3ef1e	-0.025870856
187	0x3db82da1	0.08993078
188	0xbd503789	-0.050834212
189	0x3c3238fa	0.010877842
190	0xbd0785ce	-0.03308659
191	0x3c8c74a2	0.017145459
192	0x3d07e8d3	0.033181023
193	0x3d3bd365	0.0458559
194	0x3b10b45c	0.0022080159
195	0xbd64cfcc	-0.055862233
196	0x3d6b60cd	0.057465363
197	0x3d02959a	0.031880952
198	0x3d51eac5	0.051249284
199	0xbdae19b2	-0.08500995
200	0xbdaed111	-0.0853597
201	0x3d10a0a7	0.03530946
202	0x3d77594c	0.060387895
203	0xbd40e334	-0.047091678
204	0xbcad3e97	-0.02114801
205	0x3c673d29	0.014113703
206	0xbb839688	-0.0040157475
207	0xbd712820	-0.058876157
208	0xbd73e6f0	-0.05954641
209	0x3d17535a	0.036944725
210	0x3db5ff26	0.08886556
211	0x3d89768e	0.06712066
212	0xbd812ea6	-0.063077256
213	0x3d80dda9	0.06292278
214	0xbba4aa48	-0.005025182
215	0x3cc44f97	0.023963733
216	0xbdafbbe9	-0.08580763
217	0xbb70f335	-0.0036766056
218	0x3932d88a	0.0001705607
219	0xbb6d2857	-0.0036187374
220	0x3ccf1166	0.02527685
221	0x3c230afe	0.009951351
222	0x3cb24225	0.021760056
223	0x3c6f71a7	0.014614499
224	0xbd80ef28	-0.062956154
225	0x3d6b07b6	0.0573804
226	0xbd4bd741	-0.04976583
227	0x3cd87226	0.026421618
228	0xbd8d42c8	-0.06897503
229	0x3bb7112a	0.005586763
230	0x3d79bf9f	0.06097376
231	0xbd89ec84	-0.06734565
232	0x3d2900a3	0.041260373
233	0x3d850f29	0.06497032
234	0x3d50bcdd	0.050961364
235	0x3da1ea12	0.079059735
236	0xbd92b7b2	-0.07163943
237	0x3dc0fd14	0.09423271
238	0xbd254b00	-0.04035473
239	0xbd0935a1	-0.03349841
240	0x3c23e2c3	0.010002795
241	0xbd3e8c40	-0.04652047
242	0x3affb833	0.0019509852
243	0x3da1546a	0.07877429
244	0xbb9c4002	-0.0047683725
245	0xbd4a587a	-0.049400784
246	0xbd2deabc	-0.04246019
247	0x3d07cca3	0.03315414
248	0xbcde7044	-0.027153142
249	0xbd7e542b	-0.062091988
250	0x3d0cbd1e	0.034360044
251	0x3c55505f	0.01301965
252	0x3d97fc19	0.07421131
253	0x3c856947	0.016285552
254	0x3d001107	0.03126624
255	0xbd47157e	-0.04860448

bias f4 [128]
0	0x3dbcbc11	0.09215558
1	0xbb601770	-0.0034193657
2	0xbd4c987f	-0.04995012
3	0x3d7a0600	0.06104088
4	0x3d893d47	0.06701141
5	0x3d3be257	0.04587015
6	0xbc22fa00	-0.0099473
7	0xbd4884a9	-0.04895464
8	0x3d0ed894	0.034874514
9	0x3cf46616	0.029833835
10	0xbd98ed57	-0.07467144
11	0x3d23dc85	0.040005226
12	0x3d577d29	0.052609596
13	0x3d4f6f65	0.050643343
14	0xbd805c1d	-0.06267569
15	0x3d0f0a8e	0.034922175
16	0xbcc4b553	-0.024012243
17	0x3ba331c2	0.004980297
18	0xbbda1551	-0.006655373
19	0xbd177407	-0.036975887
20	0xbd0ad478	-0.033894032
21	0x3d76d7db	0.06026445
22	0xbbf93b0a	-0.007605915
23	0x3d45d91b	0.04830275
24	0x3d3f1684	0.046652332
25	0x3d8e68fe	0.069536194
26	0xbd485108	-0.048905402
27	0x3d214367	0.03937092
28	0x3d50814e	0.050904565
29	0xbd3448ab	-0.044014614
30	0xbd3fc0ee	-0.04681485
31	0x3d4fe859	0.050758693
32	0x3d219cf4	0.039456323
33	0xbc179c19	-0.009253525
34	0x3d59af94	0.05314596
35	0x3b3bbd55	0.0028646786
36	0x3d80ae9d	0.06283305
37	0xbafd37ba	-0.0019318976
38	0x3d5b9898	0.05361232
39	0x3d0097d6	0.031394802
40	0xbd9357ce	-0.07194482
41	0x3db106c8	0.086438715
42	0x3d9d4d10	0.07680714
43	0x3d0c00f5	0.0341806
44	0x3d1e126f	0.0385918
45	0x3d62bf83	0.05535842
46	0xbce251f2	-0.027626965
47	0x3d8428ec	0.06453118
48	0xbd942c9e	-0.072350726
49	0xbdad1557	-0.08451336
50	0xbc01db7a	-0.007925862
51	0xbd7da937	-0.061928954
52	0x3d0c6ae3	0.034281623
53	0x3c9adbde	0.018903669
54	0x3d0d834c	0.034549043
55	0x3da198fa	0.07890506
56	0xbcaec019	-0.021331834
57	0x3db79f3d	0.08965919
58	0x3d428497	0.04748973
59	0xbd95e7f1	-0.0731963
60	0xbca5560d	-0.020182634
61	0xbd49c112	-0.04925639
62	0x3d322d00	0.043499947
63	0x3d7a0670	0.061041296
64	0xbd53c545	-0.051701803
65	0xbd1192e9	-0.035540495
66	0xbdb99505	-0.09061626
67	0xbd9a024a	-0.07519968
68	0xbd04ad49	-0.03239182
69	0x3cb52bc2	0.022115592
70	0xbda3abba	-0.079917386
71	0x3d5c96ea	0.05385486
72	0x3d50c7f1	0.05097193
73	0x3c5de542	0.013543429
74	0x3dacd050	0.0843817
75	0x3d7e4fa7	0.06208768
76	0x3c3c7b82	0.011504056
77	0x3c0e78fe	0.008695839
78	0x3c854bdd	0.016271526
79	0xbd98091a	-0.07423611
80	0xbd25dbb2	-0.04049272
81	0xbd8490cc	-0.0647293
82	0xbd935e07	-0.07195669
83	0xbc8ddfcf	-0.017318634
84	0x3bfc2ca3	0.007695751
85	0xbd0c3fd8	-0.034240574
86	0x3d759d7d	0.059964646
87	0x3d2a8bc2	0.04163719
88	0xbbf966a7	-0.007611114
89	0xbd8cf12a	-0.06881936
90	0xbd853efb	-0.06506153
91	0xbd93ad38	-0.07210773
92	0xbbf0fa49	-0.007354055
93	0x3c8b6fe9	0.017021136
94	0x3d8595f1	0.0652274
95	0x3d43851d	0.04773437
96	0x3c9949ad	0.01871189
97	0x3d57dea7	0.052702572
98	0xbd8b0abb	-0.06789156
99	0x3c9b1d4c	0.018934868
100	0xbcb9a866	-0.022663306
101	0x3b736db3	0.0037144243
102	0x3d8788cb	0.06617888
103	0x3d1d85e9	0.038457785
104	0xbce3bee9	-0.027800994
105	0xbcaec006	-0.021331798
106	0xbd19b08d	-0.037521888
107	0xbd52c27b	-0.051455002
108	0xbd7d5c7f	-0.06185579
109	0xbd69b81b	-0.057060342
110	0x3d9c0288	0.0761767
111	0x3d38265b	0.044958454
112	0xbce2c2de	-0.02768081
113	0xbd06bd79	-0.03289554
114	0xbda25a38	-0.07927364
115	0xbd3d007a	-0.046143033
116	0x3d0a0f56	0.03370603
117	0xbd0cc64a	-0.03436879
118	0x3d198608	0.037481338
119	0xbcbb6b30	-0.02287826
120	0xbd975d29	-0.07390816
121	0x3d15282f	0.036415275
122	0x3d012625	0.031530518
123	0x3cdfbb0a	0.027310867
124	0xbd926928	-0.07148963
125	0xbc76ee68	-0.015071489
126	0x3daa1467	0.08304673
127	0x3a60a832	0.0008569985

weight f4 [128, 128]
0	0x3a55b986	0.00081529503
1	0x3cd1fbb8	0.025632724
2	0x3dc36c60	0.09542155
3	0x3daaa67c	0.083325356
4	0x3cd9ecbc	0.026602142
5	0x3d917dd3	0.07104077
6	0xbd1916aa	-0.03737513
7	0x3cf56031	0.029953094
8	0x3d7af28c	0.061266467
9	0xbdac7f65	-0.08422736
10	0xbd8c66ae	-0.06855522
11	0xbd96441d	-0.0733721
12	0xbd8c0595	-0.06837002
13	0x3d0f84be	0.035038702
14	0x3b84669d	0.004040553
15	0xbca536dd	-0.020167762
16	0xbc8ea777	-0.017413838
17	0xbd8facd0	-0.07015383
18	0xbd1b9d98	-0.03799209
19	0x3dc41498	0.095742404
20	0xbd24a89e	-0.04019987
21	0xbab43ce2	-0.0013751055
22	0xbd14a08b	-0.03628592
23	0xbd0748ee	-0.033028536
24	0x3d9bd473	0.07608881
25	0xbca8e719	-0.020618008
26	0x3c09ac4d	0.008402896
27	0x3d421ff8	0.04739377
28	0xbbfa5101	-0.007639051
29	0x3ca35175	0.019936303
30	0xbd469b9a	-0.048488237
31	0x3d833433	0.064064406
32	0xbc3aaf92	-0.011394398
33	0x3d2ebae7	0.042658713
34	0xbd985187	-0.07437425
35	0x3c37d6ac	0.011220615
36	0x3c201ed7	0.009772978
37	0xbd7efc52	-0.06225235
38	0x3d8fbc20	0.07018304
39	0xbd62932f	-0.055316146
40	0xbce68128	-0.028137758
41	0x3d7672b4	0.060167983
42	0xbd1a699a	-0.037698366
43	0x3d6adcce	0.057339482
44	0x3d92d314	0.07169166
45	0xbaa3cfa6	-0.0012497797
46	0x3cb48f09	0.02204086
47	0xbd60936e	-0.0548281
48	0xbcf3eac5	-0.029775033
49	0xbc79fd48	-0.015258141
50	0x3d8a621e	0.067569956
51	0x3d7b2615	0.061315615
52	0x3db62d21	0.088953264
53	0xbd111d05	-0.035428066
54	0xbd475546	-0.048665307
55	0x3d7bef10	0.061507285
56	0x3d665da1	0.056241635
57	0x3dc17f52	0.094481125
58	0x3da77aca	0.08177717
59	0xbd4356be	-0.047690146
60	0x3d566976	0.05234667
61	0x3d9aede0	0.07564902
62	0xbcc6de3a	-0.024275888
63	0xbd74fae5	-0.059809584
64	0xbd842680	-0.06452656
65	0xbcd4d516	-0.025980514
66	0x3d6ec78b	0.058295768
67	0x3c8cbe8c	0.017180704
68	0xbccd9ffa	-0.025100697
69	0xbd03bd46	-0.032162927
70	0x3d99a296	0.07501714
71	0x3c9b3291	0.01894501
72	0xbd62b123	-0.055344712
73	0x3d22f2f2	0.039782472
74	0xbd42161d	-0.04738437
75	0x3d87c7e0	0.0662992
76	0xbd8e24cf	-0.069406144
77	0x3cad4d0a	0.0211549
78	0x3d85b4ef	0.06528651
79	0x3d70554d	0.0586751
80	0xbc76e510	-0.015069261
81	0x3d6093d8	0.054828495
82	0xbc754c62	-0.014971824
83	0x3db3f068	0.08786088
84	0xbc54484b	-0.012956689
85	0xbd9a0f93	-0.07522502
86	0xbcb264ee	-0.021776643
87	0x3d126f96	0.035750948
88	0x3c292dbe	0.010325847
89	0xbd6a0f19	-0.057143304
90	0xbc848a7c	-0.016179316
91	0x3ce3b7ef	0.027797667
92	0x3d3cfc29	0.046138916
93	0x3da2a22f	0.0794109
94	0xbc80f275	-0.015740613
95	0x3cc5251c	0.024065547
96	0xbd417bae	-0.04723709
97	0xbdb81eed	-0.089902736
98	0xbc3a565f	-0.011373132
99	0xbc29a404	-0.010354046
100	0x3d943352	0.07236351
101	0xbd80d584	-0.06290725
102	0xbd88ae3b	-0.06673857
103	0xbd524e44	-0.05134417
104	0xbc7fb9ff	-0.01560831
105	0x3d7e44d5	0.062077362
106	0x3d89bad1	0.067250855
107	0xbbf8fe7c	-0.0075986963
108	0x3d05759f	0.032582875
109	0x3d48041c	0.048832044
110	0xbcb1a945	-0.02168716
111	0xbc2b78ab	-0.010465781
112	0x3d0ac6d7	0.033881035
113	0xbd2628a9	-0.04056612
114	0x3d95b274	0.07309428
115	0x3cd498a7	0.025951697
116	0xbc7aeac6	-0.015314763
117	0xbb732d53	-0.0037105873
118	0x3cbd8180	0.02313304
119	0x3d022356	0.03177198
120	0xbd8d431e	-0.06897567
121	0xbdc5a8cb	-0.09651335
122	0xb7f1f5e8	-2.8843948e-05
123	0xbd30252e	-0.043004207
124	0xbd5ffa45	-0.054682035
125	0x3d2c8a0b	0.042123836
126	0x3d6c0184	0.057618633
127	0xbd8022d6	-0.062566444
128	0x3b35bbf0	0.0027730428
129	0x3d78cdb2	0.06074304
130	0x3d6df919	0.058098886
131	0x3d05d03b	0.032669287
132	0xbba33e2e	-0.0049817776
133	0xbcfc58a3	-0.030803984
134	0x3da34e15	0.07973877
135	0xbd4eb034	-0.05046101
136	0x3c16eef1	0.0092122415
137	0xbd114d9c	-0.035474405
138	0x3bb69755	0.0055722394
139	0xbd790fba	-0.060806014
140	0xbc95ac8e	-0.018270757
141	0xbd17c117	-0.03704938
142	0x3d6f87d3	0.05847914
143	0x3cc04588	0.023470655
144	0x3bf0d9f3	0.0073502003
145	0xbcbf2c16	-0.023336452
146	0xbdb02cd4	-0.086023
147	0xbd76ff8a	-0.060302295
148	0x3d447fb4	0.04797335
149	0x3de2dc99	0.11077232
150	0xbd297448	-0.04137066
151	0xbd1f350a	-0.03886894
152	0x3d235784	0.039878383
153	0x3dc5e0e3	0.09662034
154	0xbd7ec1e3	-0.062196624
155	0xbcbb9365	-0.022897432
156	0xbd9d192d	-0.076708175
157	0x3c4be81f	0.012445479
158	0xbcefca6e	-0.02927133
159	0xbc86bcf5	-0.016447524
160	0x3dabb23d	0.08383606
161	0xbc65ca89	-0.014025339
162	0xbd53fde8	-0.051755816
163	0xbd8c1189	-0.06839282
164	0x3dd40fcf	0.10354578
165	0x3c7c2581	0.015389801
166	0x3d85dac5	0.065358676
167	0xbc921814	-0.017833747
168	0xbcad1f78	-0.02113317
169	0x3ccdcb4d	0.025121355
170	0x3d569925	0.052392144
171	0x3bbbb248	0.00572804
172	0xbd89c367	-0.06726723
173	0xbc924331	-0.017854305
174	0xbc2e95c9	-0.010655829
175	0x3d8307a2	0.0639794
176	0xbd6a3223	-0.05717672
177	0xbc834029	-0.016021805
178	0xbbd612b1	-0.00653299
179	0x3de2b53d	0.11069725
180	0x3cc7330a	0.02431633
181	0x3d9fd8bf	0.07805013
182	0xbd91a015	-0.07110611
183	0x3d259339	0.040423606
184	0xbbf4cd5e	-0.0074707707
185	0xbd5eedca	-0.054425992
186	0x3d581213	0.052751612
187	0xbd5b8b76	-0.053599797
188	0x3ced2b27	0.02895124
189	0xbd68cf01	-0.05683804
190	0x3c57e301	0.013176681
191	0xbd14ffd4	-0.03637679
192	0xbd04b8d8	-0.032402843
193	0x3d9deadf	0.07710814
194	0xbb5443d0	-0.0032389052
195	0x3c17ea68	0.009272195
196	0xbd97667d	-0.07392595
197	0xbd2022b5	-0.0390956
198	0x3c9aee4b	0.018912455
199	0x3db89cd4	0.090142876
200	0xbd231662	-0.039816268
201	0x3ddbf6ca	0.10740431
202	0xbc04d3e3	-0.008107158
203	0x3d8d5d4e	0.06902562
204	0x3d9c86bb	0.07642885
205	0xbd43be8d	-0.047789145
206	0x3d8018e8	0.062547505
207	0x3dbfe85c	0.09370491
208	0xbd4b9d62	-0.04971064
209	0xbced5888	-0.028972879
210	0xbd166505	-0.036717433
211	0xbdaa81a9	-0.08325512
212	0x3c043112	0.00806834
213	0xbc91ec11	-0.01781276
214	0x3d8019c4	0.062549144
215	0xbd2a8cf3	-0.041638326
216	0xbd7fd994	-0.062463358
217	0xbda533a6	-0.08066492
218	0x3ac77b02	0.0015219154
219	0xbc4b73b4	-0.0124177225
220	0x3ca3d1dc	0.01999753
221	0xbd7151c0	-0.058915854
222	0xbd328396	-0.04358252
223	0x3d1019a8	0.035180718
224	0x3c275135	0.010212232
225	0x3d84229b	0.06451913
226	0x3c98de38	0.01866065
227	0xbd515ba3	-0.051112782
228	0x3d9e5147	0.07730346
229	0xbd366d5e	-0.044537894
230	0x3d8d37ec	0.06895432
231	0x3dd0a7c6	0.1018825
232	0x3db189e2	0.08668877
233	0x3d775b1d	0.060389627
234	0xbb163cb9	-0.0022924377
235	0xbd7ce297	-0.06173953
236	0xbc5356ef	-0.012899145
237	0xbd4514a0	-0.048115373
238	0x3d066f1d	0.03282081
239	0x3d52f010	0.051498473
240	0x3c95d094	0.018287934
241	0x3ccabc93	0.024748122
242	0xbd1e8636	-0.038702212
243	0x3da562ef	0.08075511
244	0x3c774031	0.015090988
245	0xbb8e3726	-0.0043400703
246	0xbcef604b	-0.02922072
247	0xbd91629b	-0.070988856
248	0xbd61da95	-0.055140097
249	0x3dbb08fa	0.091325715
250	0xbc5e01ee	-0.013550265
251	0x3ce3e1d3	0.027817642
252	0xbd83519b	-0.064120494
253	0xbcd855c9	-0.026408093
254	0x3c4cb428	0.0124941245
255	0xbd669430	-0.056293666

bias f4 [128]
0	0xbc70edf5	-0.014705171
1	0x3b8b9b12	0.004260429
2	0x3cd8cb77	0.026464207
3	0x3d43815f	0.0477308
4	0x3bcb3a86	0.006202045
5	0xbc3a715b	-0.011379565
6	0xbd78cfcd	-0.06074505
7	0x3c13e586	0.009026891
8	0x3d1ab9ac	0.037774727
9	0xbb0f19fb	-0.0021835554
10	0x3d9aa32a	0.07550652
11	0xbd238284	-0.03991939
12	0xbd17a9ec	-0.037027285
13	0x3d2a5b8a	0.041591205
14	0xbc7f32ab	-0.015576045
15	0x3d9562ea	0.07294257
16	0x3dba9009	0.09109504
17	0x3cf63018	0.03005223
18	0x3dbd0a39	0.092304654
19	0xbb5dd311	-0.003384773
20	0x3d798090	0.060913622
21	0xbd8282fc	-0.063726395
22	0x3c019451	0.007908897
23	0xbccc901c	-0.02497106
24	0x3dae8597	0.08521574
25	0xbc5ded6e	-0.013545377
26	0x3d8fdea2	0.07024886
27	0x3c778fb0	0.015109941
28	0x3d26b17b	0.040696602
29	0x3ce60c56	0.028082054
30	0xbd4c7c70	-0.04992336
31	0x3d56053d	0.05225109
32	0xbbc619f1	-0.006045573
33	0xbb970b11	-0.0046094735
34	0x3b12fe19	0.0022429286
35	0xbcef695a	-0.02922504
36	0x3d6c5642	0.05769945
37	0xbd214d12	-0.03938014
38	0xbd4d5146	-0.050126337
39	0xbceee9ad	-0.02916416
40	0x3d888102	0.06665231
41	0xbd8dccc9	-0.06923825
42	0xbd1eb2c8	-0.038744718
43	0x3c6d4391	0.014481441
44	0x3bb3e3ff	0.0054898257
45	0x3b8a44e9	0.0042196405
46	0x3be14785	0.006874981
47	0x3d202d0d	0.039105464
48	0xbc46a7ee	-0.0121249985
49	0x3d8849a1	0.066546686
50	0xbd456198	-0.048188776
51	0xbd65ed9b	-0.0561348
52	0x3c20b47a	0.009808654
53	0x3d922e11	0.07137693
54	0xbd464e84	-0.048414722
55	0x3d2cfb3f	0.042231794
56	0x3d9f9254	0.07791582
57	0xbd071c5d	-0.032986034
58	0xbd3a3524	-0.045460835
59	0x3c8d417c	0.01724314
60	0x3d10151c	0.03517638
61	0xbd983a81	-0.07433034
62	0x3c4bf4f8	0.012448542
63	0xbcaf0a4d	-0.021367216
64	0x3b0c5f92	0.002141927
65	0x3d81f889	0.063462324
66	0x3dc3b4e4	0.095559865
67	0x3c426439	0.011864715
68	0xbcd3b3be	-0.025842544
69	0x3d9c9445	0.07645468
70	0x3d4185b0	0.047246635
71	0x3d36dc80	0.04464388
72	0x3daec240	0.08533144
73	0x3d9fb376	0.07797901
74	0xbce542de	-0.027985986
75	0xbd3187e3	-0.043342482
76	0xbb8dee9d	-0.0043314234
77	0x3d49cedb	0.04926954
78	0xbc6b1824	-0.014349017
79	0xbd8cc0f0	-0.068727374
80	0xbcf94316	-0.030427497
81	0xbd023806	-0.03179171
82	0xbd1c142c	-0.038105175
83	0xbc35f87a	-0.011106605
84	0xbb08974d	-0.0020842135
85	0x3d388651	0.04504997
86	0x3d2f033a	0.042727686
87	0x3db03268	0.08603364
88	0xbd0a0ad0	-0.033701718
89	0xbc5f05d1	-0.013612227
90	0x3d73fd99	0.05956802
91	0xbd5919eb	-0.053003233
92	0xbd694e47	-0.056959417
93	0x3d1d2ee1	0.038374785
94	0xbc913d9d	-0.017729575
95	0xbda6a834	-0.08137551
96	0xbd94202c	-0.07232699
97	0x3d200077	0.039062943
98	0x3c6e71c3	0.01455349
99	0xbc134a22	-0.008989843
100	0xbd225d7c	-0.039639935
101	0x3d4a3ed1	0.049376313
102	0x3b9f0dee	0.0048539555
103	0x3ce7c864	0.028293796
104	0x3d2ea985	0.042642135
105	0xbd398b63	-0.045298945
106	0xbb531dcf	-0.0032213812
107	0x3d1acad2	0.03779108
108	0xbd1dfa0c	-0.03856854
109	0x3d981055	0.0742499
110	0x3dcf20b1	0.10113657
111	0x3c2c9ed9	0.010535919
112	0x3d91fd16	0.071283504
113	0xbc44da68	-0.012014963
114	0x3d27dec5	0.040983934
115	0xbd37e544	-0.04489638
116	0x3b94ac8f	0.004537172
117	0xbd3eb878	-0.04656264
118	0x3d2267ad	0.039649654
119	0xbd142d9a	-0.0361763
120	0xbbbd82d6	-0.005783419
121	0x3cd8e180	0.026474714
122	0x3c4f3681	0.012647272
123	0x3d9560dc	0.07293865
124	0xbd27fb7f	-0.04101133
125	0xbd5821bd	-0.05276655
126	0x3c07bbc1	0.00828451
127	0xbb072eeb	-0.002062733
