models/multimodal/models/NeuralNetTorch_BAG_L1/S1F4/net.params (torch, 248949 bytes, 16 tensors)

weight f4 [6, 4]
-1.1199499 -1.1326363 -0.26230055 -0.42437252 0.84132004 0.69623613 -0.3224526 -2.1328633
0.4719836 -0.16008396 1.4435803 0.27104792 0.16080847 0.8768205 -0.13738358 -0.11068031
0.9401804 1.2500209 2.0139813 0.042327017 0.5576625 -0.35355115 -0.78005964 -2.2539573
00000000: 855a 8fbf 3afa 90bf 424c 86be 5b47 d9be
00000010: c060 573f 883c 323f 8218 a5be d580 08c0
00000020: d6a7 f13e 0ded 23be 3dc7 b83f cbc6 8a3e
00000030: faaa 243e 4f77 603f 48ae 0cbe 5cac e2bd
00000040: aaaf 703f af00 a03f 12e5 0040 185f 2d3d
00000050: f8c2 0e3f a804 b5be fdb1 47bf d640 10c0

weight f4 [6, 4]
-0.20867084 -0.7309427 0.55403054 0.25184652 -0.16915107 -0.6827744 0.95612884 0.50475454
-0.5607274 0.9226357 1.117928 1.292919 -1.4694935 2.569755 -0.49076858 0.32908085
-1.6503106 -0.5613204 -0.5015717 -0.49578094 -1.0056161 1.0535179 -0.0879469 0.74482286
00000000: cfad 55be 101f 3bbf f2d4 0d3f 07f2 803e
00000010: f035 2dbe 4eca 2ebf dcc4 743f 9837 013f
00000020: d58b 0fbf da31 6c3f 4418 8f3f 5f7e a53f
00000030: 5d18 bcbf de76 2440 0546 fbbe 497d a83e
00000040: 613d d3bf b2b2 0fbf 0167 00bf 00d7 fdbe
00000050: 07b8 80bf add9 863f 811d b4bd b6ac 3e3f

weight f4 [6, 4]
-0.104353145 0.67811054 -0.83275646 -0.012018246 0.83439255 -0.3979635 1.0479245 0.36283743
0.09054662 1.1263528 0.2903956 0.44286612 -0.81000966 -1.2940031 -0.7578272 -1.3182694
0.21903962 -0.35115454 -0.44726023 0.21664654 0.73597574 -0.12978624 -0.3112919 -1.148759
00000000: 1ab7 d5bd a798 2d3f 872f 55bf 2de8 44bc
00000010: c09a 553f dfc1 cbbe 6422 863f d4c5 b93e
00000020: 8270 b93d 542c 903f bbae 943e 59bf e23e
00000030: cb5c 4fbf e5a1 a5bf f700 42bf 0dbd a8bf
00000040: ec4b 603e 87ca b3be 4bff e4be 97d8 5d3e
00000050: e868 3c3f afe6 04be a761 9fbe 890a 93bf

weight f4 [6, 4]
-0.7055293 1.0533961 -0.59708697 -1.2671673 0.09735739 -0.67060333 0.61755866 -0.72985137
-0.28206787 0.089496076 0.26247424 1.1510664 0.285622 0.38816988 -0.1956584 -0.109703615
0.17030494 -0.76849324 -1.8988801 0.110248014 -0.64361775 0.25653857 0.10363832 0.32635614
00000000: 919d 34bf afd5 863f b1da 18bf 8a32 a2bf
00000010: 5063 c73d a9ac 2bbf 5318 1e3f 8ad7 3abf
00000020: 336b 90be b849 b73d 0663 863e 2556 933f
00000030: 0c3d 923e 34be c63e ad5a 48be 4aac e0bd
00000040: 6b64 2e3e f9bb 44bf 810e f3bf b6c9 e13d
00000050: 22c4 24bf 0659 833e 5440 d43d 2718 a73e

weight f4 [6, 4]
0.9762871 -1.0061035 0.30835742 -0.10952409 0.99204004 -0.4957663 0.7601747 0.6173739
0.97765297 -1.4908552 0.6124458 0.15573755 0.1023547 -0.8235284 0.6366677 -1.9292547
1.3117127 -0.1796811 0.7735528 1.0161647 0.3554463 -1.4471955 1.9740372 0.07952902
00000000: f4ed 793f 00c8 80bf 06e1 9d3e 2b4e e0bd
00000010: 56f6 7d3f 15d5 fdbe cf9a 423f 370c 1e3f
00000020: 7747 7a3f 58d4 bebf 3fc9 1c3f aa79 1f3e
00000030: 579f d13d c2d2 52bf a8fc 223f d1f1 f6bf
00000040: 34e6 a73f 53fe 37be 8e07 463f af11 823f
00000050: 0ffd b53e b43d b9bf 40ad fc3f 1ce0 a23d

weight f4 [26, 9]
-0.51939815 -1.6916676 -0.52637595 -0.49714404 -0.6504528 -1.4741853 -0.85754424 -2.096513
-1.0890677 -0.7120974 0.017878251 0.32477927 -0.27060765 1.2776926 0.02514931 -0.86131555
0.41647214 -0.025877709 1.3246747 -0.25750062 -0.53406507 -2.875901 -1.5042964 1.0212793
0.18241377 -0.7284128 1.7107813 0.33734253 1.0016756 1.4393463 -0.07478672 -0.6233574
-0.6546564 1.7524511 -0.9861793 -0.6474125 0.06975816 0.562986 0.5327721 1.2384068
-1.1085043 -1.7153741 1.5410267 0.007980947 -1.5803123 0.06936347 -0.60986614 0.72460544
1.169016 -0.16320236 -0.043698918 0.6357121 0.49565148 0.2113951 0.05564985 0.61808133
0.056832764 -1.0004538 0.7368927 1.100401 2.1223962 -0.9016307 -0.67959154 -0.5861105
1.5226407 -0.7410977 0.14591144 1.3348517 2.0542774 0.65275395 -0.75680274 -0.4831941
0.24163103 -0.5567023 0.9269189 0.4980445 -0.8242889 1.2578906 0.26514173 -0.6059617
-0.9006159 -0.6007521 0.14592598 -1.0356345 -0.720076 -2.2144313 -0.68841296 0.5215927
0.7918259 0.07650103 0.437705 -1.8845116 -1.1175392 0.118275724 0.5789675 1.3649745
-1.5564162 0.33851987 -1.3741891 -0.19948901 -0.2535743 -1.220156 0.63686746 -1.201102
-1.1034217 0.3747021 -0.7726303 -0.8859695 -0.7168144 0.52683103 0.37778825 0.62230974
-1.4354023 -0.8165718 1.2112718 -1.8455622 0.40925434 1.117826 0.44675446 -1.1535602
-0.41566578 -0.33670467 0.96746093 -0.4449771 -0.6299417 -0.3609063 -1.5001234 -0.5060436
1.1855205 0.79205936 0.4018473 0.27746937 -2.76429 -0.81137747 0.50593543 0.28077427
-1.1315624 0.017749907 -0.14952987 -0.23433352 2.4069011 1.6466459 -0.296918 -1.514269
-0.56292796 -0.8360466 -1.3858346 -0.4014558 -0.3160415 -0.070046864 0.512819 -1.5939595
0.37107664 -2.302817 -0.86661786 -1.663594 0.561406 -1.430379 0.71292675 -1.3521683
0.31936353 -0.10623371 0.19945295 1.2193738 1.2352796 -0.09566941 2.1390102 0.066417806
0.49345464 0.059547257 0.40398544 -1.7489668 1.1936584 2.6207476 0.23619068 0.3216117
-1.1214527 2.1949468 0.12006879 0.7658057 -1.0732712 -0.06873701 -1.4871454 -1.7544196
-1.8888642 0.024143863 -1.9823834 -1.917386 2.1398754 -0.96683323 -0.6023894 1.6561172
0.33074188 -0.66504693 -0.049077988 1.8086263 -0.53000593 0.7788056 0.6937039 1.4908745
-0.59025425 -0.11962557 0.5003578 -0.5043719 -1.9222296 0.77935684 -0.077098995 -1.4395708
-0.55078554 -1.455502 -0.6981545 0.9930156 -2.2600484 0.45508224 -0.5868345 -0.041889783
0.66559017 0.9833228 -0.47320163 0.46467692 1.3390547 0.44298372 -0.51553774 -0.18448357
-0.18341509 0.10700754 0.30068287 -0.69292986 0.17288008 -0.19732271 1.5182157 -0.18747066
-0.0025056798 0.013359131
00000000: 47f7 04bf 9088 d8bf 93c0 06bf aa89 febe
00000010: 1384 26bf 1bb2 bcbf 0588 5bbf 452d 06c0
00000020: 9266 8bbf 044c 36bf 6975 923c 7849 a63e
00000030: 168d 8abe 6e8b a33f ed05 ce3c 2d7f 5cbf
00000040: d63b d53e 7dfd d3bc f18e a93f 1fd7 83be
00000050: 7db8 08bf c30e 38c0 c98c c0bf 48b9 823f
00000060: adca 3a3e 4379 3abf e2fa da3f 29b8 ac3e
00000070: e836 803f 803c b83f c829 99bd 5a94 1fbf
00000080: 9097 27bf 5150 e03f 3f76 7cbf d3bc 25bf
00000090: 5edd 8e3d da1f 103f c163 083f 1d84 9e3f
000000a0: 78e3 8dbf 6191 dbbf 5d40 c53f 85c2 023c
000000b0: ac47 cabf 6f0e 8e3d 3020 1cbf be7f 393f
000000c0: 51a2 953f 851e 27be a3fd 32bd 07be 223f
000000d0: 08c6 fd3e f577 583e 19f1 633d 943a 1e3f
000000e0: 79c9 683d df0e 80bf 00a5 3c3f f1d9 8c3f
000000f0: 57d5 0740 45d1 66bf b6f9 2dbf 560b 16bf
00000100: e4e5 c23f 94b8 3dbf cf69 153e 6cdc aa3f
00000110: 4879 0340 e21a 273f d3bd 41bf 3865 f7be
00000120: 206e 773e 0b84 0ebf 8f4a 6d3f b0ff fe3e
00000130: 9904 53bf 8f02 a13f a8c0 873e 4e20 1bbf
00000140: c38e 66bf e4ca 19bf 9f6d 153e ac8f 84bf
00000150: e756 38bf 3eb9 0dc0 d53b 30bf 1987 053f
00000160: 1ab5 4a3f 92ac 9c3d df1a e03e ad37 f1bf
00000170: 860b 8fbf 8b3a f23d 3737 143f 7cb7 ae3f
00000180: a538 c7bf 7a52 ad3e 6ee5 afbf d946 4cbe
00000190: 7ed4 81be 122e 9cbf bf09 233f b6bd 99bf
000001a0: ec3c 8dbf f4d8 bf3e 19cb 45bf e6ce 62bf
000001b0: 2681 37bf 66de 063f 766d c13e b14f 1f3f
000001c0: 43bb b7bf d90a 51bf f40a 9b3f 623b ecbf
000001d0: c989 d13e ec14 8f3f 00bd e43e dca7 93bf
000001e0: 25d2 d4be 8e64 acbe 85ab 773f 0ad4 e3be
000001f0: dc43 21bf b6c8 b8be 0b04 c0bf 138c 01bf
00000200: 23bf 973f 67c4 4a3f eebe cd3e 7710 8e3e
00000210: 21ea 30c0 6fb6 4fbf fc84 013f a5c1 8f3e
00000220: 09d7 90bf 4168 913c 5c1e 19be 20f5 6fbe
00000230: ab0a 1a40 4bc5 d23f a305 98be 91d3 c1bf
00000240: 0c1c 10bf 2607 56bf 0763 b1bf 9d8b cdbe
00000250: 31d0 a1be bb74 8fbd 1b48 033f dd06 ccbf
00000260: c2fd bd3e 5b61 13c0 abda 5dbf a6f0 d4bf
00000270: 4eb8 0f3f a916 b7bf 5e82 363f da13 adbf
00000280: 9e83 a33e 0f91 d9bd 653d 4c3e 7114 9c3f
00000290: a41d 9e3f 53ee c3bd 8be5 0840 0f06 883d
000002a0: 16a6 fc3e d3e7 733d 2ed7 ce3e 25de dfbf
000002b0: ccc9 983f 54ba 2740 f8db 713e 4aaa a43e
000002c0: c38b 8fbf 027a 0c40 a0e6 f53d d80b 443f
000002d0: f360 89bf fdc5 8cbd c85a bebf d290 e0bf
000002e0: 4dc6 f1bf 5ac9 c53c bdbe fdbf e86c f5bf
000002f0: b8f3 0840 6282 77bf 3136 1abf a6fb d33f
00000300: 0057 a93e 8440 2abf 0006 49bd 1181 e73f
00000310: 78ae 07bf ce5f 473f 9496 313f fad4 be3f
00000320: e71a 17bf 40fe f4bd 7317 003f 841e 01bf
00000330: 9f0b f6bf ee83 473f 14e6 9dbd db43 b8bf
00000340: 4800 0dbf e44d babf 41ba 32bf 4536 7e3f
00000350: a2a4 10c0 8a00 e93e c93a 16bf 9f94 2bbd
00000360: 1e64 2a3f 0bbb 7b3f 7c47 f2be 22ea ed3e
00000370: 2566 ab3f c3ce e23e 48fa 03bf 43e9 3cbe
00000380: 2ad1 3bbe c526 db3d 1bf3 993e da63 31bf
00000390: 7a07 313e f70e 4abe e454 c23f 4ff8 3fbe
000003a0: 5536 24bb 42e0 5a3c

weight f4 [128, 76]
0.12178004 0.07430332 0.10254629 0.052887525 -0.0813711 0.092731975 -0.009708827 0.057251323
-0.09561291 -0.029859448 -0.11717103 -0.06996394 0.021799888 -0.09191533 0.01869693 0.04763567
0.011108243 -0.08162906 -0.09685055 -0.04421561 0.04201249 0.100512035 0.060156107 -0.016957842
0.017058777 -0.08846866 -0.066689864 0.060789596 -0.07941556 0.08146347 -0.057982534 -0.039590634
-0.09810433 0.03951347 -0.002682837 0.109514974 0.07057145 0.08346037 -0.026144126 -0.06178691
0.0028922139 0.010412743 0.05252294 -0.07748254 0.07354208 0.0078076185 -0.092699766 -0.04329766
0.10947068 0.09317913 -0.13703775 0.08423126 0.061510816 0.08484195 0.1147675 -0.07162229
0.03299446 0.036847305 -0.041807443 0.03860911 -0.022408765 0.06296551 -0.021999784 -0.051406
0.029019997 0.044998895 -0.07204942 0.011683326 0.06718732 -0.013485811 0.04360066 -0.005442594
0.05063985 -0.08259001 -0.06366701 -0.072416216 0.15614161 0.005454381 0.0052470956 -0.048681077
0.12063566 0.11510894 -0.08018743 -0.08700353 -0.097846314 0.010695523 -0.021091584 -0.06567912
-0.044916652 0.029847624 -0.0842983 0.028389525 -0.019573487 -0.049069475 0.01649312 0.0978212
-0.07383032 0.009851777 -0.03612159 0.129315 -0.121002235 -0.13956676 0.122904025 -0.045862164
0.026570898 0.012829481 -0.027674716 -0.009277101 0.05796349 0.0032188734 -0.08703361 -0.068961
-0.058219086 0.08034536 -0.08492868 0.09985585 -0.020599414 -0.025230046 0.11403603 0.03555394
0.08143763 0.07823575 -0.042745866 -0.07375953 -0.009952088 0.09167176 -0.043324023 -0.10492317
0.040347178 0.105096266 -0.04549061 -0.102605514 -0.10188869 0.021812038 -0.011934307 -0.06013793
0.026042998 0.040688742 0.092346326 0.078436084 -0.009206313 -0.10372232 -0.106104955 0.10282779
0.0414677 0.033074114 -0.10576184 0.10999514 0.11185285 0.100555085 -0.11075405 -0.060794365
-0.088360295 0.071864545 -0.043290194 -0.04233876 0.068719625 -0.05589763 -0.059825853 0.0039281114
-0.009167582 -0.091399714 0.106588915 -0.050776757 0.08156765 0.12308241 0.07350797 0.012650048
0.09311525 0.012002334 -0.040687904 0.096601665 0.015293089 -0.116681546 -0.036601797 -0.09050802
0.13695092 0.00019219777 -0.09968091 -0.02908029 0.05718083 0.05273437 0.03064347 -0.013974148
0.053731743 -0.042724833 -0.055602323 -0.09904174 -0.039517824 0.04255697 -0.05636701 0.012771075
0.044461064 -0.0066885147 -0.09232579 0.059654307 -0.035947558 0.1026401 -0.06741041 -0.03834625
0.059654348 -0.053541157 0.09640004 -0.083117306 -0.083743036 -0.060536172 0.028510634 0.083450474
-0.057372153 0.018333402 -0.043439593 -0.025574049 0.11243617 -0.11517355 0.019701378 0.10055047
-0.02040945 0.089023285 -0.047367737 0.114400946 -0.12106007 -0.03463753 -0.016887471 0.03279035
0.04586081 0.07039804 -0.021288717 -0.017204989 0.102452435 -0.013487611 0.08301381 -0.09329704
-0.029346101 -0.014890721 0.0341047 0.08575793 -0.026051177 -0.099320255 0.052309707 0.00830669
0.047992237 -0.073937245 0.06604434 0.104059845 0.008897079 -0.10830332 0.0722468 -0.0804543
0.030985836 0.021344773 -0.04958991 0.03790193 -0.11180265 0.02954397 -0.056655258 0.00096075685
00000000: d067 f93d 572c 983d ca03 d23d 97a0 583d
00000010: e4a5 a6bd 43ea bd3d c611 1fbc 5d80 6a3d
00000020: b4d0 c3bd cd9b f4bc 5df7 efbd 4149 8fbd
00000030: ae95 b23c 1b3e bcbd 4e2a 993c 9f1d 433d
00000040: 59ff 353c 232d a7bd 9559 c6bd 6d1b 35bd
00000050: 4a15 2c3d 41d9 cd3d 4066 763d 2ceb 8abc
00000060: d9be 8b3c 0f2f b5bd b294 88bd 83fe 783d
00000070: a0a4 a2bd 52d6 a63d 187f 6dbd ca29 22bd
00000080: ecea c8bd e0d8 213d 89d2 2fbb 6349 e03d
00000090: c487 903d 45ed aa3d 352c d6bc 4514 7dbd
000000a0: 4c8b 3d3b 369a 2a3c 4b22 573d 2aaf 9ebd
000000b0: 3b9d 963d 0dd7 ff3b 60d9 bdbd e358 31bd
000000c0: 2a32 e03d b3d4 be3d a053 0cbe 7081 ac3d
000000d0: c4f2 7b3d 9ec1 ad3d 390b eb3d b5ae 92bd
000000e0: 3325 073d 33ed 163d 483e 2bbd 9624 1e3d
000000f0: 9692 b7bc 10f4 803d e438 b4bc 198f 52bd
00000100: 58bb ed3c c350 383d a58e 93bd 6c6b 3f3c
00000110: 8199 893d 97f3 5cbc 9b96 323d ca57 b2bb
00000120: bb6b 4f3d f324 a9bd d963 82bd f44e 94bd
00000130: 96e3 1f3e aaba b23b d4ef ab3b cf65 47bd
00000140: d40f f73d 3cbe eb3d 4f39 a4bd e82e b2bd
00000150: a663 c8bd 463c 2f3c 42c8 acbc c682 86bd
00000160: 86fa 37bd 0183 f43c 96a4 acbd 2691 e83c
00000170: 9458 a0bc 13fd 48bd 941c 873c 7b56 c83d
00000180: 5a34 97bd 5969 213c 3bf4 13bd 276b 043e
00000190: 05d0 f7bd 97ea 0ebe 1bb5 fb3d f7d9 3bbd
000001a0: 36ab d93c be32 523c 16b6 e2bc fbfe 17bc
000001b0: 206b 6d3d bcf3 523b ad3e b2bd 6d3b 8dbd
000001c0: 2377 6ebd 1c8c a43d 16ef adbd 3981 cc3d
000001d0: 1ac0 a8bc 3eaf cebc b98b e93d 02a1 113d
000001e0: c6c8 a63d 113a a03d 4a16 2fbd 3d0f 97bd
000001f0: 150e 23bc 67be bb3d 8874 31bd f5e1 d6bd
00000200: 1543 253d b63c d73d 5d54 3abd d722 d2bd
00000210: 04ab d0bd 29af b23c 1d88 43bc 3153 76bd
00000220: 2058 d53c 3da9 263d 1220 bd3d 19a3 a03d
00000230: 13d6 16bc 5e6c d4bd 8e4d d9bd 6097 d23d
00000240: 09da 293d b978 073d aa99 d8bd 2245 e13d
00000250: 1b13 e53d d3ef cd3d 05d3 e2bd 8303 79bd
00000260: 3ef6 b4bd b82d 933d 0f51 31bd 686b 2dbd
00000270: e0bc 8c3d eaf4 64bd f40b 75bd 63b7 803b
00000280: a033 16bc c62f bbbd 4a4b da3d 4afb 4fbd
00000290: f10c a73d a112 fc3d 598b 963d 2642 4f3c
000002a0: 35b3 be3d 70a5 443c 5ca8 26bd 18d7 c53d
000002b0: dd8f 7a3c bcf6 eebd c4eb 15bd 455c b9bd
000002c0: dd3c 0c3e b288 4939 8125 ccbd ca39 eebc
000002d0: 7236 6a3d ffff 573d 0408 fb3c d3f3 64bc
000002e0: d115 5c3d 3c00 2fbd 43bf 63bd 65d6 cabd
000002f0: 71dd 21bd 3850 2e3d 18e1 66bd c53d 513c
00000300: ce1c 363d 542b dbbb 4e15 bdbd 1358 743d
00000310: bf3d 13bd f934 d23d 780e 8abd f510 1dbd
00000320: 1e58 743d f94d 5bbd 626d c53d 6839 aabd
00000330: 7881 abbd c7f4 77bd 228f e93c 15e8 aa3d
00000340: 10ff 6abd ee2f 963c b7ed 31bd ab80 d1bc
00000350: ef44 e63d 1ce0 ebbd c964 a13c 68ed cd3d
00000360: b831 a7bc d751 b63d ac04 42bd 0b4b ea3d
00000370: 58ee f7bd 15e0 0dbd 9857 8abc 2d4f 063d
00000380: 8bd8 3b3d d92c 903d ad65 aebc 7af1 8cbc
00000390: 95d2 d13d 24fb 5cbc 2503 aa3d 8512 bfbd
000003a0: 3c67 f0bc 36f8 73bc 5fb1 0b3d dba1 af3d
000003b0: 4769 d5bc 6b68 cbbd b442 563d c818 083c
000003c0: 8293 443d 696c 97bd 4142 873d 541d d53d
000003d0: 0ec5 113c 22ce ddbd 21f6 933d 39c5 a4bd
000003e0: 02d6 fd3c 3cdb ae3c ca1e 4bbd 0e3f 1b3d
000003f0: caf8 e4bd 3206 f23c 580f 68bd 4ddb 7b3a

bias f4 [128]
-0.065207675 -0.0663036 -0.07549024 0.059811994 0.023138575 0.004773103 0.025722327 0.068713635
0.015572904 0.07534553 -0.0033861788 0.04098121 0.028929006 0.0023211956 0.074632704 0.1003974
0.09315404 -0.025691735 -0.02978503 0.09539461 -0.04924481 0.001965809 -0.06821568 -0.026473518
-0.04010392 0.066301376 -0.03666212 -0.05411201 0.04897666 3.9236602e-05 0.013755766 -0.08661663
-0.040973853 0.05467007 0.03216871 -0.098374896 -0.07549714 0.05178683 -0.08413425 -0.05363227
-0.06353294 -0.0911345 -0.054822806 0.08748939 -0.105568506 0.08085857 -0.10565979 -0.02451961
-0.03466071 0.070567556 -0.09319651 -0.049590766 -0.11284079 -0.012593902 0.04203509 0.1077058
0.096626945 -0.023543198 -0.04653939 0.017371038 0.071203485 0.0948201 0.080220275 0.0026073465
-0.09459228 -0.063713945 0.06899426 -0.09886606 -0.07549318 -0.077987805 -0.020153884 0.058810655
0.08478639 0.090707295 0.05367219 0.027146036 -0.032305583 -0.075095735 -0.05539053 -0.002992978
0.09834758 -0.043493636 -0.016739648 -0.0019999975 -0.05194457 -0.054316755 0.01974834 -0.071683355
-0.008065131 -0.014335783 0.027396841 -0.017154125 -0.05853018 -0.03542544 -0.030491194 0.06798697
0.027159091 -0.035515483 0.09798017 0.016660845 0.060404774 -0.038892753 -0.09551559 -0.107361406
-0.035560567 0.07432718 0.074789494 0.031391025 0.038109552 -0.07113048 -0.04049181 0.022444127
-0.09742933 -0.10071797 -0.08149308 0.033897523 -0.012429083 -0.014474338 0.07950468 -0.07182902
-0.060981113 -0.033618093 0.06903244 0.017960588 -0.08704438 0.09848418 -0.06708722 0.0826843
00000000: 9a8b 85bd 2fca 87bd a09a 9abd 6cfd 743d
00000010: 1c8d bd3c b167 9c3b a1b7 d23c bcb9 8c3d
00000020: 7e25 7f3c c24e 9a3d a7ea 5dbb eadb 273d
00000030: 86fc ec3c 331f 183b 08d9 983d 279d cd3d
00000040: 8cc7 be3d 7977 d2bc bcff f3bc 405e c33d
00000050: edb4 49bd cdd4 003b aab4 8bbd fede d8bc
00000060: 0244 24bd 04c9 873d 052b 16bd 8ea4 5dbd
00000070: c09b 483d fb91 2438 dd5f 613c 0f64 b1bd
00000080: 33d4 27bd b9ed 5f3d 56c3 033d c778 c9bd
00000090: 3f9e 9abd 6d1e 543d 944e acbd 83ad 5bbd
000000a0: 8f1d 82bd baa4 babd e18d 60bd a32d b33d
000000b0: 4d34 d8bd 2e99 a53d 2964 d8bd 59dd c8bc
000000c0: 63f8 0dbd b985 903d d0dd bebd b01f 4bbd
000000d0: 1219 e7bd a756 4ebc fd2c 2c3d dc94 dc3d
000000e0: 59e4 c53d aadd c0bc 16a0 3ebd b54d 8e3c
000000f0: 22d3 913d 0a31 c23d 874a a43d 04e0 2a3b
00000100: 99b9 c1bd 757c 82bd dd4c 8d3d 4a7a cabd
00000110: 2b9c 9abd 12b8 9fbd c219 a5bc 71e3 703d
00000120: 7da4 ad3d bfc4 b93d 5fd7 5b3d 5d61 de3c
00000130: dc52 04bd cbcb 99bd 2ee1 62bd d725 44bb
00000140: 756a c93d 6226 32bd 9621 89bc 6412 03bb
00000150: d4c3 54bd 3f7b 5ebd 45c7 a13c b9ce 92bd
00000160: 9c23 04bc a2e0 6abc 576f e03c cf86 8cbc
00000170: 58bd 6fbd 441a 11bd abc8 f9bc c13c 8b3d
00000180: be7c de3c af78 11bd d4a9 c83d 537c 883c
00000190: ff6a 773d 024e 1fbd ad9d c3bd 4ce0 dbbd
000001a0: f5a7 11bd d938 983d 3c2b 993d e093 003d
000001b0: c318 1c3d dbac 91bd bdda 25bd bfdc b73c
000001c0: 0789 c7bd 3945 cebd d8e5 a6bd 21d8 0a3d
000001d0: 5aa3 4bbc c625 6dbc 5ad3 a23d 181b 93bd
000001e0: 55c7 79bd 20b3 09bd e160 8d3d 1522 933c
000001f0: 5344 b2bd 13b2 c93d 0665 89bd 6356 a93d

weight f4 [128, 128]
0.027085764 0.034150895 0.07259993 0.038555246 -0.08449948 0.030103285 0.088796176 -0.036459424
0.069841854 0.07634766 -0.020939283 0.0037657628 -0.012670199 0.07704904 0.03927723 0.06546506
-0.072494775 -0.041232727 -0.050713085 0.0027875232 -0.04326279 0.014719692 0.03728588 -0.036950536
0.03886012 -0.06495699 -0.002887647 0.016994545 0.06767994 0.03798943 0.007946838 0.032184426
0.0844355 -0.003619854 0.08844215 -0.052687783 0.027982298 0.010747871 0.056451425 -0.098235965
0.028273452 -0.075158305 -0.027107995 -0.020406635 -0.031769842 -0.037426896 -0.06542047 -0.08051288
-0.022311416 0.06671062 -0.03676171 -0.07753654 -0.027318373 -0.09183254 -0.010733811 0.069877796
-0.08886994 0.056995075 0.05238709 0.056199893 -0.05266426 0.019581623 0.056202956 -0.076918714
0.07255718 0.004076292 -0.071709 -0.025209192 -0.015058015 -0.035161912 -0.01995756 -0.0015804201
0.03485363 0.040709734 -0.09120279 -0.002835728 0.026243232 0.06772997 0.036764223 0.046625726
0.034646004 -0.007421572 -0.03751157 -0.042763326 0.027840912 -0.014737488 0.07277006 -0.06170457
0.057060983 0.060831632 0.04697922 0.06439206 -0.045828298 0.056977846 -0.08603562 -0.041550037
-0.014427134 0.07325575 -0.010512102 -0.079019845 -0.08159997 0.010989696 0.013505873 0.0036452278
-0.02590472 0.02336891 0.01266861 -0.018035496 0.059953194 -0.06634861 -0.051776364 0.022374813
-0.040713765 -0.0077614146 -0.020518536 0.041877948 0.08394153 0.0707929 0.018076148 -0.060427863
-0.03690866 -0.047825187 -0.021806546 -0.047686517 0.04301042 -0.10633092 0.0037244463 0.061360225
-0.06484822 -0.01714139 0.055922337 -0.026550943 -0.03848943 0.050773524 -0.049026135 0.09484774
0.077334866 0.002411871 0.028511208 -0.042470474 0.024646288 -0.06207729 -0.025938362 0.069546975
0.03589402 0.07782327 0.0577512 0.10108527 0.032389652 -0.05197848 -0.06711027 0.06536912
0.0662557 0.097923875 -0.05640044 0.088871405 -0.010691846 0.03554761 0.07031445 -0.062894925
-0.08528862 0.07419012 -0.087398365 0.052215993 0.06304097 0.072721414 0.0064356253 -0.013031082
0.025077492 -0.0031670977 -0.08656346 0.03008897 -0.038913682 0.060735445 -0.03944045 -0.0038382695
-0.06202851 0.081643455 0.06452477 0.09387449 0.064363144 -0.051394578 0.09766784 -0.005620267
0.090037555 0.014915822 0.060467884 -0.023008976 0.040564816 0.0011470668 -0.0703056 0.091935486
-0.04180892 -0.052317332 0.08279982 -0.0794043 0.040456563 0.07555075 -0.013746645 -0.083267055
-0.06544131 0.015735066 0.008610896 0.06815868 0.074895926 -0.040211167 -0.0049771294 -0.06501496
0.02365243 0.074391894 -0.027866557 0.0065303855 0.0029363632 -0.06862429 0.10805498 0.030494489
0.08964098 -0.07052272 -0.016572017 -0.018027795 0.02846626 -0.0071429033 -0.037173197 0.08056795
0.0767522 0.0964648 0.057455454 0.07371624 -0.052806955 0.012521558 -0.015720347 0.009719324
0.01691138 0.030666064 -0.05482327 -0.019172661 -0.03000578 -0.004593411 -0.05524367 -0.027146908
-0.04614689 -0.059159983 0.0107058985 -0.06540089 -0.06944464 0.07507713 -0.057242908 0.06767066
0.02038107 -0.017594416 0.07094004 -0.06011191 0.04798151 0.068715654 0.06972702 -0.0709738
00000000: f7e2 dd3c cfe1 0b3d 46af 943d 1bec 1d3d
00000010: 100e adbd 2a9b f63c c5da b53d 7a56 15bd
00000020: 3f09 8f3d 295c 9c3d dc88 abbc 04cb 763b
00000030: ab96 4fbc e3cb 9d3d 29e1 203d 8c12 863d
00000040: 2478 94bd a6e3 28bd 86b8 4fbd e1ae 363b
00000050: 5334 31bd dd2a 713c 14b9 183d 7259 17bd
00000060: ca2b 1f3d 2c08 85bd ad3e 3dbb 2538 8b3c
00000070: c89b 8a3d ce9a 1b3d 7433 023c d1d3 033d
00000080: 85ec ac3d 133b 6dbb 2821 b53d 25cf 57bd
00000090: 223b e53c d717 303c 9c39 673d f02f c9bd
000000a0: ba9d e73c 99ec 99bd 9611 debc d12b a7bc
000000b0: 1821 02bd f24c 19bd 2bfb 85bd f0e3 a4bd
000000c0: 6ec6 b6bc 949f 883d 7293 16bd 7acb 9ebd
000000d0: c8ca dfbc b312 bcbd dedc 2fbc 171c 8f3d
000000e0: 7101 b6bd ab73 693d d893 563d dc31 663d
000000f0: 7bb6 57bd a469 a03c 1235 663d 8f87 9dbd
00000100: dc98 943d 6a92 853b 2bdc 92bd 8283 cebc
00000110: e4b5 76bc f005 10bd 097e a3bc 1926 cfba
00000120: aec2 0e3d 40bf 263d 87c8 babd 9fd7 39bb
00000130: 0cfc d63c 03b6 8a3d 1596 163d 9efa 3e3d
00000140: f8e8 0d3d a930 f3bb bba5 19bd 9928 2fbd
00000150: a012 e43c 8175 71bc 7808 953d eebd 7cbd
00000160: c7b8 693d 972a 793d 486d 403d fcdf 833d
00000170: 74b6 3bbd 9a61 693d 7133 b0bd 5f30 2abd
00000180: c95f 6cbc 1c07 963d f43a 2cbc 28d5 a1bd
00000190: e31d a7bd 200e 343c bd47 5d3c c6e4 6e3b
000001a0: 2336 d4bc 2870 bf3c 0090 4f3c 2dbf 93bc
000001b0: 7b91 753d c8e1 87bd 7413 54bd 624b b73c
000001c0: 7ac3 26bd 7753 febb 7d16 a8bc 3688 2b3d
000001d0: 89e9 ab3d defb 903d 6e14 943c 3583 77bd
000001e0: 892d 17bd 58e4 43bd a4a3 b2bc f052 43bd
000001f0: b22b 303d 06c4 d9bd d715 743b dc54 7b3d
00000200: 25cf 84bd 1a6c 8cbc d20e 653d 5d81 d9bc
00000210: 18a7 1dbd e6f7 4f3d a1cf 48bd 883f c23d
00000220: be61 9e3d 7b10 1e3b 5690 e93c 85f5 2dbd
00000230: 03e7 c93c c244 7ebd b07c d4bc a56e 8e3d
00000240: 9c05 133d ce61 9f3d 868c 6c3d cb05 cf3d
00000250: 03ab 043d 63e7 54bd 1c71 89bd 3fe0 853d
00000260: 12b1 873d 508c c83d 2604 67bd 3602 b63d
00000270: da2c 2fbc 5f9a 113d 0601 903d 0ecf 80bd
00000280: cdab aebd fdf0 973d eafd b2bd 70e0 553d
00000290: a01b 813d f7ee 943d f0e1 d23b 5280 55bc
000002a0: 506f cd3c 158f 4fbb 2f48 b1bd 257d f63c
000002b0: f463 1fbd bbc5 783d 4f8c 21bd 7a8b 7bbb
000002c0: 9b11 7ebd af34 a73d 9025 843d 4541 c03d
000002d0: d3d0 833d 1f83 52bd 1406 c83d 372a b8bb
000002e0: 9c65 b83d 7e61 743c 2cad 773d 527d bcbc
000002f0: 4b27 263d 2d59 963a 62fc 8fbd ac48 bc3d
00000300: d53f 2bbd b34a 56bd f492 a93d b99e a2bd
00000310: c8b5 253d 5aba 9a3d 9c39 61bc eb87 aabd
00000320: 1806 86bd d3e6 803c b714 0d3c c796 8b3d
00000330: 0963 993d 77b4 24bd 3017 a3bb 9026 85bd
00000340: bec2 c13c c75a 983d 6848 e4bc d8fc d53b
00000350: 0070 403b e48a 8cbd ee4b dd3d 94cf f93c
00000360: b195 b73d 376e 90bd 0ac2 87bc 07af 93bc
00000370: 1332 e93c 040f eabb ec42 18bd cf00 a53d
00000380: 4230 9d3d 568f c53d 6956 6b3d 8af8 963d
00000390: 1b4c 58bd 3927 4d3c f5c7 80bc cd3d 1f3c
000003a0: bc89 8a3c 6637 fb3c 5d8e 60bd fc0f 9dbc
000003b0: aece f5bc 5384 96bb 3047 62bd 3163 debc
000003c0: 8504 3dbd bd51 72bd cb67 2f3c e7f0 85bd
000003d0: fe38 8ebd 0ac2 993d 8a77 6abd ea96 8a3d
000003e0: 34f6 a63c 2a22 90bc 0349 913d e837 76bd
000003f0: 4388 443d cbba 8c3d 0acd 8e3d b65a 91bd

bias f4 [128]
-0.0023748488 0.05037068 0.04263322 -0.069389515 -0.036635965 -0.07496048 -0.084224015 0.06334212
0.06726779 -0.05715753 -0.026065253 0.032386713 0.0870999 0.083843745 0.057785027 -0.07454604
-0.046512347 0.07480731 -0.0728984 -0.034780115 -0.06541547 -0.0718552 0.036066674 -0.02519361
-0.083079405 -0.07489005 0.08236656 0.084486604 0.040515672 0.044015512 -0.04732133 -0.022886217
0.0019798435 0.042374384 -0.0008637123 0.017973594 -0.030731168 -0.030356927 0.036630332 -0.07494693
0.00584838 0.085878626 -0.048736747 -0.028842626 -0.010225737 -0.036935262 0.04984189 0.024492124
0.092020705 -0.014546534 0.034114506 0.024963092 -0.048896387 -0.08074178 0.057355445 -0.0459095
-0.029046359 -0.02072347 -0.088197336 0.06921652 -0.015462343 -0.043595843 -0.078541994 -0.00018250845
-0.0013626573 -0.0174694 -0.0306533 0.044536233 -0.019225428 0.014917222 0.06750235 0.026517719
-0.06530609 -0.013789051 -0.026934583 0.0022034356 0.055107135 -0.002348927 -0.0283364 -0.03990795
0.052072763 -0.02165196 0.007775364 -0.020300312 -0.06686925 0.03250127 0.08473925 -0.051526792
0.016553339 0.031290393 -0.022065392 -0.004157802 1.1766384e-05 0.055048373 0.0026871206 -0.08660216
-0.0250941 -0.045395512 -0.0069333855 -0.04402198 0.013883423 -0.006758009 -0.0327131 -0.0068833623
-0.060080692 -0.042524435 0.044504955 0.009731853 0.036983177 0.017604377 0.058087505 0.08862127
0.08255495 -0.015025075 -0.030471917 0.07202422 0.040443182 0.079534985 0.08878938 0.051219054
0.008021899 0.00057991187 -0.04260356 0.09174818 -0.037930973 0.047960475 -0.005154442 -0.050483152
00000000: 5aa3 1bbb 7c51 4e3d 2ca0 2e3d 171c 8ebd
00000010: 980f 16bd e184 99bd a47d acbd 83b9 813d
00000020: b2c3 893d 041e 6abd cc86 d5bc eea7 043d
00000030: 6f61 b23d 45b6 ab3d feaf 6c3d 98ab 98bd
00000040: bb83 3ebd 9334 993d c24b 95bd 9875 0ebd
00000050: 8cf8 85bd d228 93bd a6ba 133d d462 cebc
00000060: 8925 aabd f45f 99bd cdaf a83d 5007 ad3d
00000070: c3f3 253d 9c49 343d 03d4 41bd e07b bbbc
00000080: 43c0 013b c390 2d3d c06a 62ba 5c3d 933c
00000090: eebf fbbc 17af f8bc b009 163d c77d 99bd
000000a0: c4a3 bf3b 22e1 af3d 2fa0 47bd 5f47 ecbc
000000b0: d989 27bc 6e49 17bd 0227 4c3d b5a3 c83c
000000c0: 5a75 bc3d 9654 6ebc a7bb 0b3d 667f cc3c
000000d0: 9447 48bd f25b a5bd 8bed 6a3d 9a0b 3cbd
000000e0: a1f2 edbc 44c4 a9bc cea0 b4bd 64c1 8d3d
000000f0: c455 7dbc 8e91 32bd a0da a0bd bd5f 3fb9
00000100: 319b b2ba fd1b 8fbc a11c fbbc a06b 363d
00000110: a57e 9dbc 5d67 743c ac3e 8a3d b03b d93c
00000120: 33bf 85bd 79eb 61bc eaa5 dcbc 8467 103b
00000130: 05b8 613d 75f0 19bb bd21 e8bc 8576 23bd
00000140: 404a 553d 745f b1bc 7bc8 fe3b d74c a6bc
00000150: bff2 88bd 0d20 053d c68b ad3d c20d 53bd
00000160: de9a 873c 5b2a 003d 7bc2 b4bc 2c3e 88bb
00000170: 3c68 4537 677a 613d 671a 303b 795c b1bd
00000180: 2492 cdbc a5f0 39bd 7431 e3bb 6450 34bd
00000190: 4c77 633c 4a72 ddbb 2cfe 05bd d48d e1bb
000001a0: 2c17 76bd 1a2e 2ebd d44a 363d 5a72 1f3c
000001b0: ac7b 173d 0e37 903c 2aed 6d3d 127f b53d
000001c0: 9212 a93d bb2b 76bc 3ea0 f9bc 6f81 933d
000001d0: c0a7 253d 3de3 a23d 35d7 b53d 12cb 513d
000001e0: 486e 033c 3a05 183a 1281 2ebd 78e6 bb3d
000001f0: 825d 1bbd 3472 443d 98e6 a8bb 6cc7 4ebd

weight f4 [128, 128]
-0.05817308 0.024183072 -0.02183798 0.03707011 -0.03627921 -0.007570615 0.01869789 0.081756994
-0.07320197 -0.042054165 -0.028137254 0.036501195 0.09730431 0.007502939 0.013431107 0.07099593
-0.06234074 0.08030604 0.09762782 -0.04225446 -0.012304035 0.025577474 -0.041540053 -0.018937396
0.0743079 0.07219853 -0.07131513 0.03767887 -0.040870853 -0.0006973848 -0.09714953 -0.0848566
-0.02239892 -0.07234333 -0.056521155 0.052559815 0.048557192 -0.047327 0.07604791 0.07966065
-0.023434084 0.053393304 -0.013863867 0.0024408752 -0.0052500796 0.022733565 0.097882345 -0.013514314
-0.039239712 0.09108238 0.08243165 -0.06129532 0.08307264 0.006013256 0.048824936 -0.0037056895
0.0032650332 -0.051995046 0.0043951743 -0.06273706 -0.0114579145 0.054035548 0.080150105 -0.0421555
0.038896948 -0.0003805838 0.08702933 0.04493141 -0.025130106 0.049476195 0.028535694 0.050173163
-0.052041262 0.03156547 -0.07578969 0.053654447 -0.015535916 0.05484514 0.054315317 0.021753294
-0.06914588 -0.061690196 0.0074650203 -0.063812055 0.048081744 -0.017126676 -0.07754207 0.0630802
0.031715754 0.08542575 0.004196458 0.038997907 0.050843105 0.0431396 -0.065840155 -0.07805314
0.016458673 0.09038553 0.056627527 -0.040804286 -0.016830975 0.08505242 0.078951746 0.05546986
-0.058297876 -0.08384395 0.066416204 0.070379555 0.09160165 0.04709333 -0.02340657 0.015564582
0.09905254 0.00012463226 -0.06247723 0.05288971 -0.0462898 0.027807167 -0.029865477 -0.008763059
0.054613393 -0.02367055 0.0032067583 -0.066485055 0.0047060368 -0.041128565 0.043779332 0.076809734
-0.058489412 0.09063356 0.03389674 0.09915027 0.008302157 -0.05539368 -0.051309913 0.08318395
-0.04945075 -0.06655683 -0.04573596 -0.09106099 -0.020660928 0.019347062 0.031424854 -0.007090023
-0.051182136 0.083872624 -0.042156756 -0.083839916 0.08622708 -0.055686753 -0.06923343 -0.08650799
0.042290684 0.02690488 0.08044627 0.066644475 -0.047910538 0.019294696 0.02116059 0.0678095
-0.015464458 0.09061332 -0.0024462007 -0.046457358 0.007336822 0.026995271 0.008998956 0.07968639
0.034447692 0.074278824 0.027082887 -0.08864381 -0.012738733 -0.025353268 0.06400598 0.073594026
0.042050745 -0.038895708 -0.045434944 -0.049435027 -0.07720299 -0.058586795 0.046619754 0.059576172
0.010251062 0.07931758 -0.021123204 0.0930778 -0.056580756 0.020524811 -0.029122712 0.0065921796
0.03765988 0.04204191 0.008307999 -0.040602483 0.05389892 0.031120542 0.0518998 -0.08300447
-0.090157196 0.035612296 0.06597455 -0.040895104 -0.023683917 0.02054686 0.004682343 -0.07320531
-0.05591766 0.035994004 0.0909201 0.06911413 -0.041082166 0.068658434 0.005871015 0.017600013
-0.08060666 -0.013811044 0.0062021962 0.008645571 0.028278861 0.008149155 0.029988904 0.02050466
-0.05994178 0.05582483 -0.051859733 0.034154434 -0.07494446 0.0077578006 0.05469918 -0.07287615
0.03346603 0.06742467 0.058372077 0.094479784 -0.07219008 0.08824564 -0.036858123 -0.034066267
0.020639423 -0.046280634 0.0021662414 0.075073875 0.0002096992 -0.04371444 -0.039544556 0.027293924
-0.03934767 -0.057791498 0.03652462 0.017497685 0.07783161 0.017352816 0.038831666 -0.022727119
00000000: e546 6ebd 941b c63c 90e5 b2bc d4d6 173d
00000010: 8299 14bd ec12 f8bb 512c 993c 3670 a73d
00000020: eaea 95bd fd40 2cbd 1980 e6bc 4782 153d
00000030: 7b47 c73d 37db f53b 250e 5c3c 5066 913d
00000040: 0159 7fbd 7e77 a43d 18f1 c73d 0313 2dbd
00000050: dd96 49bc da87 d13c e725 2abd 9922 9bbc
00000060: be2e 983d d3dc 933d ab0d 92bd 2955 1a3d
00000070: 3268 27bd b4d0 36ba 55f6 c6bd 4cc9 adbd
00000080: f17d b7bc bd28 94bd ba82 67bd f648 573d
00000090: e8e3 463d f5d9 41bd 02bf 9b3d 1f25 a33d
000000a0: d6f8 bfbc f0b2 5a3d 4625 63bc 17f7 1f3b
000000b0: dc08 acbb be3b ba3c 8a76 c83d 246b 5dbc
000000c0: d2b9 20bd 6689 ba3d edd1 a83d cd10 7bbd
000000d0: fd21 aa3d d90a c53b a8fc 473d 27db 72bb
000000e0: 2bfa 553b c2f8 54bd 6505 903b 4a7c 80bd
000000f0: fab9 3bbc 6154 5d3d bd25 a43d 3fab 2cbd
00000100: 6852 1f3d 1889 c7b9 6f3c b23d 000a 383d
00000110: a7dd cdbc 8da7 4a3d b0c3 e93c 6082 4d3d
00000120: 3829 55bd cb4a 013d a037 9bbd c4c4 5b3d
00000130: 5b8a 7ebc 4ca5 603d bd79 5e3d f733 b23c
00000140: 5b9c 8dbd dcae 7cbd 219d f43b e5af 82bd
00000150: 5df1 443d 3e4d 8cbc 60ce 9ebd 3130 813d
00000160: 61e8 013d b2f3 ae3d 7182 893b 45bc 1f3d
00000170: dc40 503d 26b3 303d 34d7 86bd 53da 9fbd
00000180: 57d4 863c 0c1c b93d 44f2 673d 6522 27bd
00000190: 1de1 89bc f72f ae3d 74b1 a13d 5d34 633d
000001a0: c1c9 6ebd 60b6 abbd 3805 883d 2823 903d
000001b0: a599 bb3d f0e4 403d 23bf bfbc 9702 7f3c
000001c0: 0fdc ca3d b8af 0239 20e8 7fbd e1a2 583d
000001d0: 609a 3dbd dbcb e33c 72a8 f4bc ef92 0fbc
000001e0: 4bb2 5f3d bee8 c1bc 7a28 523b 5129 88bd
000001f0: 1935 9a3b 6d76 28bd f551 333d 6c4e 9d3d
00000200: 9892 6fbd 179e b93d 4fd7 0a3d 4c0f cb3d
00000210: c505 083c 7ce4 62bd 582a 52bd 595c aa3d
00000220: df8c 4abd f34e 88bd a155 3bbd 2f7e babd
00000230: 1b41 a9bc bb7d 9e3c 59b7 003d 6c53 e8bb
00000240: 5ca4 51bd 69c5 ab3d 90ac 2cbd 43b4 abbd
00000250: d397 b03d cb17 64bd 42ca 8dbd 1a2b b1bd
00000260: ff38 2d3d 9f67 dc3c 04c1 a43d e67c 883d
00000270: d73d 44bd e90f 9e3c f958 ad3c b5df 8a3d
00000280: a35e 7dbc 7a93 b93d 7050 20bb 124a 3ebd
00000290: b969 f03b 3025 dd3c 5b70 133c 9e32 a33d
000002a0: 0619 0d3d 7f1f 983d eedc dd3c e38a b5bd
000002b0: 1eb6 50bc a8b1 cfbc 9115 833d 77b8 963d
000002c0: 673d 2c3d 1b51 1fbd fe19 3abd 627c 4abd
000002d0: 9a1c 9ebd b5f8 6fbd 5bf4 3e3d 2506 743d
000002e0: 12f4 273c 4171 a23d 920a adbc 939f be3d
000002f0: 39c1 67bd a623 a83c c192 eebc 3603 d83b
00000300: 3f41 1a3d 2334 2c3d 461e 083c ca4e 26bd
00000310: 1dc5 5c3d 82f0 fe3c e294 543d 3ffe a9bd
00000320: 56a4 b8bd 33de 113d aa1d 873d a081 27bd
00000330: c604 c2bc e351 a83c 576e 993b aaec 95bd
00000340: eb09 65bd 736e 133d 5134 ba3d b68b 8d3d
00000350: c645 28bd cb9c 8c3d a561 c03b e72d 903c
00000360: 1b15 a5bd b847 62bc cb3b cb3b 27a6 0d3c
00000370: 12a9 e73c 0984 053c 4aab f53c 64f9 a73c
00000380: 8385 75bd 94a8 643d df6a 54bd 85e5 0b3d
00000390: 7b7c 99bd 2635 fe3b 3f0c 603d 1740 95bd
000003a0: ad13 093d f215 8a3d 8f17 6f3d 9e7e c13d
000003b0: 65d8 93bd 21ba b43d 8bf8 16bd 1289 0bbd
000003c0: 0214 a93c c390 3dbd 80f7 0d3b 55c0 993d
000003d0: b3e2 5b39 ea0d 33bd 79f9 21bd 8297 df3c
000003e0: 062b 21bd c7b6 6cbd d79a 153d 4e57 8f3c
000003f0: 2e66 9f3d 7e27 8e3c f40d 1f3d 392e babc

bias f4 [128]
0.09291744 -0.00087397965 -0.050157238 0.06480436 0.067651495 0.046460524 -0.011138356 -0.043195657
0.0360445 0.027953604 -0.0752329 0.040776413 0.052157976 0.048654158 -0.06419858 0.032631613
-0.035390705 -0.0049182624 -0.01035664 -0.04129307 -0.03640637 0.06205552 -0.017761458 0.049609624
0.044159878 0.06650433 -0.051171344 0.034629688 0.04932707 -0.04428768 -0.04562741 0.048793573
0.037540603 -0.016249094 0.06378908 -0.0032886076 0.06357622 -0.0029114883 0.052699786 0.03050594
-0.06711736 0.08644211 0.06977181 0.0374504 0.028448086 0.058818456 -0.028312577 0.069123104
-0.06957411 -0.08373191 -0.005314801 -0.06419497 0.033464465 0.01960156 0.0365985 0.075059146
-0.023030264 0.087158345 0.040540073 -0.0724553 -0.015566196 -0.041773006 0.04138989 0.061663188
-0.062831804 -0.035848137 -0.08660713 -0.074902 -0.035450228 0.019660894 -0.07902829 0.05127361
0.054324243 0.011744757 0.08015279 0.06871384 0.011006363 0.00806105 0.014063538 -0.07340714
-0.049554534 -0.060673025 -0.07268966 -0.009271903 0.007476536 -0.034877915 0.05448964 0.044142004
-0.0022312084 -0.068043076 -0.07070822 -0.07582803 -0.011494737 0.025447426 0.06849631 0.054120738
0.019136067 0.055216905 -0.07120481 0.02203788 -0.017414609 0.0046254075 0.073712826 0.03535748
-0.025453156 -0.025496256 -0.028444335 -0.04251405 -0.07039252 -0.06948113 0.07748576 0.04922846
-0.025380466 -0.038745176 -0.07654315 -0.054638002 0.034039594 -0.035153717 0.033424385 -0.023554461
-0.076107815 0.038310822 0.03170693 0.025747783 -0.06732581 -0.01730229 0.085789256 0.0041249134
00000000: 804b be3d c81b 65ba ad71 4dbd 26b8 843d
00000010: de8c 8a3d 644d 3e3d a77d 36bc eeed 30bd
00000020: 66a3 133d f5fe e43c b513 9abd 2b05 273d
00000030: 9aa3 553d 9549 473d 8c7a 83bd baa8 053d
00000040: d8f5 10bd 6029 a1bb e6ae 29bc ec22 29bd
00000050: d91e 15bd ee2d 7e3d 7a80 91bc 7633 4b3d
00000060: fde0 343d 6c33 883d 0b99 51bd dcd7 0d3d
00000070: 2f0b 4a3d 0067 35bd cfe3 3abd c5db 473d
00000080: 2dc4 193d d21c 85bc d9a3 823d ae85 57bb
00000090: 4034 823d abce 3ebb bbdb 573d 98e7 f93c
000000a0: d474 89bd 9008 b13d 86e4 8e3d 9765 193d
000000b0: f60b e93c 9feb 703d c7ef e7bc 6a90 8d3d
000000c0: df7c 8ebd a37b abbd c827 aebb a778 83bd
000000d0: 0912 093d 7393 a03c 4fe8 153d 9cb8 993d
000000e0: f7a9 bcbc 1380 b23d 590d 263d 7263 94bd
000000f0: 5c09 7fbc 2c1a 2bbd 7288 293d 8a92 7c3d
00000100: f6ad 80bd 7fd5 12bd 145f b1bd 3866 99bd
00000110: 4234 11bd e20f a13c 96d9 a1bd 4704 523d
00000120: 1983 5e3d 156d 403c 2527 a43d d7b9 8c3d
00000130: 0854 343c 7f12 043c c16a 663c 7c56 96bd
00000140: b2f9 4abd 4784 78bd 51de 94bd 2ee9 17bc
00000150: bbfd f43b 25dc 0ebd 8730 5f3d 3fce 343d
00000160: 7739 12bb 2b5a 8bbd 79cf 90bd ba4b 9bbd
00000170: 6c54 3cbc 1f77 d03c cb47 8c3d b5ad 5d3d
00000180: 3ec3 9c3c 1f2b 623d d4d3 91bd c988 b43c
00000190: 15a9 8ebc bb90 973b c0f6 963d 01d3 103d
000001a0: 2383 d0bc 86dd d0bc 1804 e9bc 3623 2ebd
000001b0: f429 90bd 1f4c 8ebd dbb0 9e3d c8a3 493d
000001c0: b2ea cfbc 43b3 1ebd a8c2 9cbd 19cc 5fbd
000001d0: 1a6d 0b3d 58fd 0fbd 02e8 083d 49f5 c0bc
000001e0: 6ade 9bbd cfeb 1c3d 20df 013d 04ed d23c
000001f0: 1de2 89bd 88bd 8dbc 47b2 af3d 482a 873b

weight f4 [128, 128]
-0.0025622344 0.016732473 0.093619816 0.08657166 0.01937075 0.07697555 -0.03974906 0.039630752
0.061297256 -0.08162242 -0.065674886 -0.068923995 -0.07188408 0.03316186 0.0055278526 -0.016842969
-0.032310035 -0.070364706 -0.042172566 0.09444 -0.035985064 -0.004423161 -0.03288337 -0.037934728
0.07852149 -0.012951521 0.011651953 0.04574262 -0.008136048 0.015393837 -0.047735225 0.06235707
-0.006942623 0.049552392 -0.07850997 0.018424783 0.012490016 -0.06856791 0.07569785 -0.05345989
-0.033178043 0.06033131 -0.043922693 0.060624152 0.066412024 0.002614066 0.02476681 -0.053105187
-0.025480762 -0.014848384 0.067958094 0.0690054 0.08936824 -0.0369691 -0.05275385 0.06521604
0.060663268 0.09312327 0.0879689 -0.04456972 0.05135737 0.08994296 -0.024540111 -0.054664865
-0.050640587 -0.025667984 0.061160725 0.013424933 -0.021652443 -0.032528616 0.06928594 0.017941093
-0.050667875 0.049031444 -0.05160713 0.07061241 -0.074540466 0.024501015 0.05869703 0.059566647
-0.01712391 0.06323821 -0.015547973 0.09622166 -0.016064672 -0.07802336 -0.02385595 0.04088681
0.0044949064 -0.06081934 -0.020429393 0.022410776 0.04430003 0.084720895 -0.027256751 0.020315904
-0.044152983 -0.07607713 -0.004698846 -0.0062303552 0.06872 -0.066783294 -0.053484857 -0.05629934
-0.017617643 0.06442749 0.058666766 -0.0054766075 0.04278496 0.059365656 -0.02217646 -0.042425662
0.033466242 -0.04817832 0.07364308 0.032144982 -0.017067455 -0.01009598 0.021540126 0.030133452
-0.074386135 -0.096072994 -0.0023901816 -0.036804363 -0.056606818 0.036809497 0.054711595 -0.06147512
0.009018804 0.07012687 0.056616344 0.022966016 0.005988858 -0.029928481 0.08327364 -0.05883972
0.009958189 -0.03359293 0.00355496 -0.068171605 -0.011934602 -0.033658944 0.05869204 0.016155435
0.02027379 -0.0302765 -0.07969847 -0.061767824 0.0487983 0.1160644 -0.046698652 -0.030642185
0.041500546 0.08786146 -0.070976734 -0.019114194 -0.07673051 0.028360818 -0.013928387 -0.011494492
0.0852122 -0.016124565 -0.040016476 -0.07404032 0.109428585 0.015182584 0.06214989 -0.017168486
-0.015123888 0.028330276 0.05616385 -0.00045449892 -0.06518973 -0.017044567 -0.0036046708 0.068371475
-0.05884664 -0.018201772 0.0036754578 0.106899515 0.028529169 0.07756552 -0.065434225 0.043127812
-0.009202348 -0.052323647 0.043014802 -0.051887926 0.029997792 -0.06438105 0.014713877 -0.034696795
-0.054815333 0.07143695 0.0066907355 0.019016149 -0.07708294 -0.03059472 0.025696296 0.09165626
-0.038945444 0.09341865 0.004750099 0.069122836 0.06952673 -0.04962682 0.04846258 0.09013287
-0.054490507 -0.03778397 -0.03621526 -0.09151829 0.0069803954 -0.01857316 0.06787854 -0.04083311
-0.05305334 -0.07684964 0.0052668336 -0.00657123 0.014544825 -0.062055793 -0.03999904 0.041561358
0.011838731 0.051791694 0.011887122 -0.051415566 0.09223725 -0.044103656 0.055315636 0.10537792
0.08478001 0.05433168 0.026462018 -0.055726018 -0.031015307 -0.05632979 0.039758023 0.016846452
0.022633899 0.035958856 -0.032809503 0.07325572 0.016404739 0.00042621716 -0.02388384 -0.073164344
-0.050636776 0.08973479 -0.011002934 0.019673258 -0.049219258 -0.024217665 0.011707436 -0.05647203
00000000: 29eb 27bb 8a12 893c bfbb bf3d 7c4c b13d
00000010: 68af 9e3c 5ba5 9d3d e9cf 22bd db53 223d
00000020: d512 7b3d a829 a7bd 8e80 86bd 0628 8dbd
00000030: f637 93bd bbd4 073d fd22 b53b 44fa 89bc
00000040: 8757 04bd 5f1b 90bd 24bd 2cbd c269 c13d
00000050: 1365 13bd 2af0 90bb b6b0 06bd 7261 1bbd
00000060: e0cf a03d 9e32 54bc d5e7 3e3c 9d5c 3b3d
00000070: 0f4d 05bc 6f36 7c3c 0386 43bd 216a 7f3d
00000080: f17e e3bb 73f7 4a3d d6c9 a0bd 92ef 963c
00000090: eda2 4c3c 556d 8cbd 7907 9b3d c2f8 5abd
000000a0: b3e5 07bd f71d 773d 48e8 33bd 0851 783d
000000b0: 0703 883d c050 2b3b c4e3 ca3c d384 59bd
000000c0: 08bd d0bc a346 73bc 9d2d 8b3d b452 8d3d
000000d0: b206 b73d e96c 17bd 6c14 58bd fd8f 853d
000000e0: 0c7a 783d 6ab7 be3d 0a29 b43d bd8e 36bd
000000f0: 1b5c 523d 0434 b83d 5808 c9bc 44e8 5fbd
00000100: 816c 4fbd aa45 d2bc ab83 7a3d 40f4 5b3c
00000110: 7760 b1bc ba3c 05bd c9e5 8d3d 33f9 923c
00000120: 1e89 4fbd 32d5 483d ff61 53bd 3d9d 903d
00000130: aca8 98bd 5ab6 c83c 4c6c 703d 28fc 733d
00000140: 7147 8cbc 0983 813d edbc 7ebc dd0f c53d
00000150: 0f9a 83bc b6ca 9fbd 8e6d c3bc ed78 273d
00000160: 024a 933b b31d 79bd 8b5b a7bc ce96 b73c
00000170: f373 353d 2682 ad3d 8d49 dfbc 8a6d a63c
00000180: c2d9 34bd 54ce 9bbd c7f8 99bb 0228 ccbb
00000190: 12bd 8c3d aec5 88bd f012 5bbd 239a 66bd
000001a0: e052 90bc 8ff2 833d 904c 703d 1d75 b3bb
000001b0: 483f 2f3d 6729 733d 68ab b5bc 88c6 2dbd
000001c0: e613 093d a156 45bd 2fd2 963d 75aa 033d
000001d0: 0cd1 8bbc 9c69 25bc eb74 b03c 6eda f63c
000001e0: c257 98bd ebc1 c4bd 98a4 1cbb 2cc0 16bd
000001f0: 8ddc 67bd 8ec5 163d 4419 603d 56cd 7bbd
00000200: 9bc3 133c ad9e 8f3d 8ae6 673d 3a23 bc3c
00000210: 2f3e c43b 932c f5bc 5f8b aa3d eb01 71bd
00000220: ac27 233c bd98 09bd 55fa 683b 8e9d 8bbd
00000230: 5989 43bc f6dd 09bd 1167 703d 6758 843c
00000240: 3815 a63c 6c06 f8bc f438 a3bd 4200 7dbd
00000250: bae0 473d 2cb3 ed3d 1647 3fbd 5205 fbbc
00000260: 7afc 293d b6f0 b33d 405c 91bd 5f95 9cbc
00000270: e324 9dbd f254 e83c e433 64bc 6553 3cbc
00000280: bc83 ae3d aa17 84bc 51e8 23bd 74a2 97bd
00000290: 181c e03d 5fc0 783c e290 7e3d eda4 8cbc
000002a0: 2fca 77bc e514 e83c 110c 663d d049 eeb9
000002b0: 3182 85bd 0ca1 8bbc 573c 6cbb 5806 8c3d
000002c0: 2d09 71bd e21b 95bc f3df 703b 22ee da3d
000002d0: 01b6 e93c acda 9e3d 6102 86bd caa6 303d
000002e0: 72c5 16bc 5251 56bd 4a30 303d 6f88 54bd
000002f0: eebd f53c 36da 83bd 7912 713c 3a1e 0ebd
00000300: 0b86 60bd 894d 923d f53d db3b c1c7 9b3c
00000310: a9dd 9dbd c7a1 fabc 0a81 d23c 47b6 bb3d
00000320: 4285 1fbd 4752 bf3d b8a6 9b3b 4690 8d3d
00000330: 0864 8e3d 7e45 4bbd b380 463d 9597 b83d
00000340: 7031 5fbd 5dc3 1abd 7456 14bd f16d bbbd
00000350: cdbb e43b bd26 98bc e703 8b3d 9f40 27bd
00000360: 764e 59bd 5863 9dbd 6795 ac3b 7953 d7bb
00000370: 6b4d 6e3c 372e 7ebd 09d6 23bd 3e3c 2a3d
00000380: 3df7 413c 8723 543d 34c2 423c 2199 52bd
00000390: e2e6 bc3d 09a6 34bd a692 623d 61d0 d73d
000003a0: 24a1 ad3d e58a 5e3d e0c6 d83c f740 64bd
000003b0: d013 febc 11ba 66bd 4fd9 223d 9201 8a3c
000003c0: ba6a b93c 9849 133d 4263 06bd 1807 963d
000003d0: 3b63 863c e675 df39 0ba8 c3bc 30d7 95bd
000003e0: 8268 4fbd e0c6 b73d a645 34bc d029 a13c
000003f0: 229a 49bd 2064 c6bc 8cd0 3f3c 374f 67bd

bias f4 [128]
-0.014079294 0.006678792 0.026308617 0.053958725 0.0049081123 -0.011741644 -0.06312119 0.0077033984
0.02887215 -0.0016819626 0.07582748 -0.02858985 -0.0451575 0.047962308 -0.0027179248 0.07562323
0.08277239 0.029934075 0.09501385 0.0006073736 0.058695525 -0.06682501 0.009873036 -0.024313226
0.08156694 -0.014077961 0.070293926 0.017581869 0.040657513 0.024363386 -0.04740066 0.053676035
-0.007749179 -3.82208e-05 0.0014731936 -0.029996848 0.056916434 -0.042955935 -0.046694823 -0.031139495
0.07056479 -0.057014592 -0.03479091 0.014494623 -0.0022363907 0.004504669 0.0035634614 0.036601793
-0.015694037 0.06524488 -0.045629736 -0.052443482 0.0077409516 0.07244772 -0.046344627 0.04594175
0.07768331 -0.03273843 -0.05059781 0.013730582 0.03703886 -0.07361168 0.008097836 -0.02309052
0.003057113 0.06443665 0.09622385 0.015421606 -0.022957472 0.0761251 0.047422778 0.044286236
0.086399905 0.077429995 -0.027897473 -0.043473385 -0.0029916565 0.048563175 -0.013051365 -0.070292376
-0.030541917 -0.034582872 -0.038959358 -0.042806093 -0.0006246865 0.04612895 0.043413658 0.08566592
-0.035417944 -0.012906602 0.05807039 -0.044305865 -0.0555063 0.039075628 -0.017130898 -0.081199445
-0.06386258 0.041529626 0.0154007645 -0.008745265 -0.0385285 0.0482184 0.0091280695 0.025418835
0.04211415 -0.048583277 0.002677597 0.036386706 -0.03893663 0.07399246 0.09716275 0.018213205
0.07040561 -0.012646087 0.042220086 -0.04241197 0.004609913 -0.053862315 0.039571594 -0.03425628
-0.009401241 0.016982805 0.01352887 0.07399723 -0.045501284 -0.052908447 -0.0034996883 -5.6025365e-06
00000000: d7ac 66bc c5d9 da3b 2b85 d73c d303 5d3d
00000010: 3bd4 a03b 0660 40bc af45 81bd ca6c fc3b
00000020: 4a85 ec3c 4d75 dcba 704b 9b3d 4335 eabc
00000030: 12f7 38bd 2074 443d 361f 32bb 5ae0 9a3d
00000040: 9284 a93d 4e38 f53c 9f96 c23d 2738 1f3a
00000050: b86a 703d 8ddb 88bd 84c2 213c 882c c7bc
00000060: 910c a73d 40a7 66bc 43f6 8f3d da07 903c
00000070: 7e88 263d b995 c73c 3227 42bd 67db 5b3d
00000080: d3ec fdbb 464f 20b8 2d18 c13a f3bb f5bc
00000090: 3521 693d 90f2 2fbd 1243 3fbd 4118 ffbc
000000a0: 4684 903d 2288 69bd ea80 0ebd db7a 6d3c
000000b0: 6990 12bb e79b 933b f688 693b c3eb 153d
000000c0: c890 80bc 1c9f 853d 3fe6 3abd face 56bd
000000d0: cfa7 fd3b 785f 943d ddd3 3dbd 6b2d 3c3d
000000e0: 6d18 9f3d bb18 06bd a63f 4fbd 3cf6 603c
000000f0: 0fb6 173d b8c1 96bd c9ac 043c 5528 bdbc
00000100: d859 483b 5df7 833d 0311 c53d e7aa 7c3c
00000110: 4f11 bcbc 7ae7 9b3d 633e 423d 7c65 353d
00000120: 6ff2 b03d 9e93 9e3d 3e89 e4bc 2611 32bd
00000130: ab0f 44bb 2eea 463d 64d5 55bc 73f5 8fbd
00000140: 0b33 fabc c5a6 0dbd d993 1fbd 7155 2fbd
00000150: 00c2 23ba b6f1 3c3d 85d2 313d 9d71 af3d
00000160: 6812 11bd 3676 53bc 38db 6d3d 117a 35bd
00000170: 935a 63bd c40d 203d 1956 8cbc e54b a6bd
00000180: 62ca 82bd f81a 2a3d 7d53 7c3c 4d48 0fbc
00000190: 0fd0 1dbd a880 453d e68d 153c 293b d03c
000001a0: e37f 2c3d 42ff 46bd a07a 2f3b 3a0a 153d
000001b0: 047c 1fbd 5c89 973d 44fd c63d dc33 953c
000001c0: d130 903d 8931 4fbc f8ee 2c3d 2db8 2dbd
000001d0: c10e 973b bb9e 5cbd d315 223d 5050 0cbd
000001e0: aa07 1abc 861f 8b3c 32a8 5d3c dc8b 973d
000001f0: 8e5f 3abd 87b6 58bd 075b 65bb 6cfd bbb6
