models/agModels-predicttop10_votes/models/NeuralNetTorch_BAG_L1/S1F4/net.params (torch, 248949 bytes, 16 tensors)

weight f4 [6, 4]
00000000: 96c3 8dbf e7c1 93bf dc4f 85be 2666 d8be
00000010: 79ee 603f d163 233f 8a3d b4be d011 0bc0
00000020: 9211 f63e e104 35be 9ad9 c43f 77b2 8d3e
00000030: 61a0 093e 3e30 663f ee7d 18be 29ae a1bd
00000040: fdde 7a3f 9224 a43f 8dfd 0040 242f 5d3d
00000050: 986b f23e ef52 8cbe fe82 31bf 216f 0ac0
-1.1075313 -1.1543549 -0.2603749 -0.42265433 0.8786388 0.6382418 -0.352032 -2.1729622
0.4806028 -0.17677642 1.5378907 0.2767522 0.13440086 0.8991736 -0.14891788 -0.078945465
0.97996503 1.282366 2.0154755 0.054000035 0.47347713 -0.27407023 -0.69340503 -2.1630328

weight f4 [6, 4]
00000000: 18bb 4bbe fc90 39bf 1a83 073f d950 6c3e
00000010: 7857 14be 7b79 2ebf 96ab 793f b076 ee3e
00000020: 5be2 07bf 1d2d 6d3f 2593 963f dc18 a93f
00000030: 66d3 c0bf 66ed 2440 af8b 02bf 6800 a63e
00000040: f31e d2bf 3569 14bf 4ad2 02bf ca80 e4be
00000050: 2be3 6abf 7c17 773f dbae 11bd 4091 283f
-0.1989559 -0.72486854 0.5293442 0.23077716 -0.14486492 -0.68154114 0.97527444 0.46574926
-0.53079766 0.9264696 1.1763655 1.3210711 -1.5064514 2.5769897 -0.5099439 0.32422185
-1.6415695 -0.57973033 -0.51102126 -0.44629508 -0.9175288 0.9652021 -0.035567146 0.65846634

weight f4 [6, 4]
00000000: 8851 b6bd fb3a 2e3f 53f4 5dbf 68db 91bc
00000010: bd17 563f 4521 c0be bd0d 883f 7ee5 cc3e
00000020: 8dc4 bc3d 8de4 8f3f 8f37 9c3e 55f3 e93e
00000030: 1fee 4ebf e81e a6bf dfe0 41bf 55ae abbf
00000040: c79d 4b3e aea6 b3be 8f72 eebe 3df3 6a3e
00000050: a152 263f 0d1f 8bbd 2110 6fbe 85af 87bf
-0.089022696 0.6805875 -0.86700934 -0.017804816 0.8362997 -0.37525383 1.0629193 0.4001884
0.092171766 1.1241623 0.30511138 0.4569346 -0.80832094 -1.2978182 -0.7573375 -1.3412577
0.19884406 -0.35088104 -0.46571776 0.2294435 0.6496983 -0.06793032 -0.23345996 -1.0600439

weight f4 [6, 4]
00000000: 8de6 33bf b247 873f 4e4d 1dbf 15d8 a4bf
00000010: 94fd a13d 0b50 2dbf 3f8d 263f 512a 41bf
00000020: becd 8bbe 106b b83d 66c4 8a3e efe5 983f
00000030: d888 983e ae49 ca3e feee 6dbe 7c50 e5bd
00000040: 534d 3a3e aa33 49bf f419 f2bf cd1a 123e
00000050: f9eb 0ebf 78e2 393e ab0e 413d bed7 7d3e
-0.7027367 1.0568755 -0.6144608 -1.2878443 0.07909694 -0.6770026 0.65059274 -0.75455195
-0.27305406 0.090047956 0.27102965 1.194517 0.29791903 0.39509338 -0.232357 -0.11196992
0.1819356 -0.7859446 -1.891417 0.14268036 -0.55828816 0.18152797 0.04713313 0.2478933

weight f4 [6, 4]
00000000: 74ef 723f bba7 81bf 2e63 9a3e 9424 d6bd
00000010: 530a 803f b79c 07bf 5353 433f 68a5 1f3f
00000020: 7b99 7e3f c1de bebf c3ee 173f d56b 1a3e
00000030: ba0a c93d abbf 4ebf dc2d 1f3f c33d f6bf
00000040: eddd aa3f 018b 08be 142c 4c3f 19d6 823f
00000050: b742 8d3e 89c4 adbf a914 f13f e59e f33c
0.94896626 -1.0129312 0.30153793 -0.104561955 1.0003151 -0.529735 0.7629902 0.62361765
0.9945294 -1.4911729 0.59348696 0.15080197 0.09816499 -0.8076121 0.6217935 -1.9237598
1.3348976 -0.13334276 0.7975476 1.0221587 0.27589962 -1.3575603 1.883443 0.029738853

weight f4 [26, 9]
00000000: 55a8 0dbf 854d d4bf ff01 10bf 8df5 06bf
00000010: f101 1abf 3f56 b9bf 943e 52bf d2e7 05c0
00000020: 67a2 8fbf 2c0c 32bf b48e 933c 4c95 9e3e
00000030: 7a5e 93be 1582 a43f f305 163d 9d46 60bf
00000040: 4562 f53e 524a 98bc 4799 ab3f 0132 97be
00000050: b00b 0ebf a4c6 39c0 a564 c2bf d756 863f
00000060: d0f1 513e d442 35bf 9fa1 da3f 9444 a73e
00000070: e5f2 823f d938 b13f c445 00be 07c9 18bf
00000080: 3479 28bf 40bd e53f fbb2 6fbf d53c 28bf
00000090: 6d3f 8d3d 7cae 123f 6477 003f a0a1 9d3f
000000a0: 1cee 85bf a817 dfbf 69e1 c83f f00d 79bc
000000b0: 0752 d1bf 29d6 053d 9457 1ebf 540c 383f
000000c0: f6e7 923f c40f c9bd 588d e4bc 0675 273f
000000d0: 9144 f93e a814 213e c899 323d 8e22 133f
000000e0: c2ac d13d ba2c 78bf 222d 2c3f acb2 883f
000000f0: 326d 0640 c011 64bf 0b15 1ebf 41cd 1cbf
00000100: 0a5d c83f f174 46bf 3b06 f73d 67d0 af3f
00000110: 339e 0440 eade 323f 5596 3abf f373 09bf
00000120: 0741 5b3e 1ca7 12bf 0023 713f 5b5b f13e
00000130: d74d 55bf 302b a23f 9997 963e 9ce3 1fbf
00000140: b96e 68bf eb35 1cbf 7744 3d3e f721 89bf
00000150: 7fa9 3fbf eb3f 0dc0 16e0 2cbf 8c62 0a3f
00000160: edf7 473f 8e2c 1a3d 0ce0 d83e 11f9 e8bf
00000170: 1926 94bf 0fd5 d73d 0750 1c3f 4e7f ac3f
00000180: 5345 c6bf 0056 ae3e 76ff b2bf a9d6 24be
00000190: 2dad 92be 3b66 96bf f931 2f3f 492d a0bf
000001a0: 1bea 92bf d440 a53e cfee 3bbf 38c1 56bf
000001b0: b8d4 43bf ce31 0f3f 2843 b13e c82a 183f
000001c0: 83ae b3bf c35d 48bf 9885 9e3f 6ea3 e9bf
000001d0: 3bca ba3e 2b7c 913f 1a12 e33e f995 93bf
000001e0: b009 d0be 1832 91be 1015 7c3f 0d22 eabe
000001f0: 2f3e 21bf b5ff babe 604a b9bf f781 0fbf
00000200: 7596 9c3f 74f7 543f 0c73 b63e cbd6 8f3e
00000210: 6d98 32c0 5f1a 47bf 8cb9 053f 6524 973e
00000220: c41c 93bf f1c9 0bbb d49f 19be 8a3a 65be
00000230: 2d5d 1940 eaa3 d03f 1079 94be 26ad c3bf
00000240: 2079 13bf 75b8 46bf 27e3 b5bf 01fe c9be
00000250: 6a31 9bbe 837e d9bd 2da0 043f 3771 cebf
00000260: ed78 a43e fd14 13c0 d6d0 5dbf de5b d9bf
00000270: b759 083f 3f49 b9bf de26 383f 676f b0bf
00000280: 3315 ae3e b3e2 0ebe f719 533e 437b 9b3f
00000290: 07d7 9e3f 390a e6bd ee25 0940 dafe a23d
000002a0: ac86 ff3e d5b7 473d 123a d73e 062b dfbf
000002b0: 8cff 973f b6ba 2740 5853 573e b520 b33e
000002c0: d5af 90bf 6f27 0e40 b7c6 c03d 5529 4c3f
000002d0: 0786 8fbf 3f81 99bd 184c bebf 5bc7 dfbf
000002e0: 8330 f2bf a6fd a73b d8e9 fdbf f543 fabf
000002f0: 1128 0840 c053 75bf 3dc7 1fbf 7844 db3f
00000300: 4ac2 c43e 9a7b 47bf 185b 0fbd b723 e13f
00000310: 27f6 0dbf bcac 563f f5c9 433f b7db b53f
00000320: dff6 07bf 7ff7 67bd 244f d93e 145b 04bf
00000330: 6529 febf 9172 443f 3046 d8bc baa7 bcbf
00000340: 6644 01bf 1cd6 c1bf 410e 3abf 6d1c 863f
00000350: ded1 11c0 8537 f33e 2fd8 0dbf 8e2b 0ebe
00000360: 8e5b 2e3f aa7d 7d3f 24c1 efbe 9134 e63e
00000370: d7c9 b03f 8dbd ef3e 36d5 00bf e1f3 56be
00000380: 864f 1fbe 9da4 4b3d 1bb0 643e 9268 1bbf
00000390: 4ccc d63d 9dd3 01be 3dd6 b63f f271 f1bd
000003a0: 9973 1cb7 ff37 203a
-0.5533498 -1.6586157 -0.56253046 -0.5271843 -0.6015921 -1.4479445 -0.82126737 -2.0922742
-1.1221436 -0.6954982 0.018012382 0.3097328 -0.28783017 1.2852198 0.036626767 -0.8760775
0.47926536 -0.018590126 1.3406152 -0.29530337 -0.55486584 -2.902749 -1.5186964 1.0495251
0.205024 -0.70805097 1.7080573 0.32669508 1.0230376 1.3845474 -0.12526613 -0.59681743
-0.6580994 1.794838 -0.9363248 -0.6571782 0.06896863 0.5729749 0.50182176 1.2314949
-1.046329 -1.7429094 1.569379 -0.015201077 -1.6353158 0.032674942 -0.61852384 0.7189381
1.1477039 -0.0981746 -0.02789943 0.6541294 0.48685125 0.15730536 0.04360369 0.574746
0.10238029 -0.9694325 0.6725637 1.0679526 2.1004148 -0.89089584 -0.6175086 -0.6125069
1.5653393 -0.7752219 0.12061735 1.3735474 2.0721557 0.6987139 -0.7288564 -0.5369255
0.21411525 -0.5728624 0.9419403 0.4714001 -0.833219 1.266943 0.29412535 -0.6245668
-0.9079395 -0.6101977 0.18483149 -1.071349 -0.74868006 -2.2070262 -0.6752943 0.5405662
0.7811268 0.037640147 0.42358434 -1.8201009 -1.1574126 0.105386846 0.6105961 1.347635
-1.5489906 0.34049988 -1.398421 -0.16097511 -0.28647748 -1.1749948 0.6843563 -1.251382
-1.1477693 0.32276022 -0.7341127 -0.8388858 -0.7649646 0.5593537 0.3462155 0.5944028
-1.4037632 -0.7826807 1.238452 -1.8253 0.36482415 1.1366018 0.44349748 -1.1530143
-0.4063239 -0.2835853 0.9846964 -0.45729104 -0.6298551 -0.36523214 -1.4475822 -0.56057686
1.2233416 0.83190084 0.3563465 0.28093562 -2.7905533 -0.77774614 0.5223625 0.29519954
-1.1493154 -0.0021330083 -0.15002376 -0.22385612 2.396312 1.6300023 -0.28998613 -1.5287216
-0.576067 -0.7762521 -1.4209946 -0.39451602 -0.30311137 -0.10619833 0.5180691 -1.61283
0.3212351 -2.298156 -0.86646783 -1.6981161 0.53261894 -1.4475478 0.71934307 -1.3783997
0.3400055 -0.13953666 0.20615374 1.2146991 1.2409371 -0.112324186 2.14294 0.07958765
0.49907434 0.0487593 0.42036492 -1.7435005 1.1874862 2.620771 0.21027887 0.3498589
-1.130366 2.2211568 0.09412902 0.7975057 -1.1212777 -0.07495355 -1.4866972 -1.7482713
-1.8921055 0.005126673 -1.9836988 -1.9551989 2.1274455 -0.9583092 -0.6241339 1.713027
0.3842948 -0.77922976 -0.034998983 1.7589024 -0.55453724 0.8385732 0.76480037 1.4207677
-0.5311107 -0.056632515 0.42443192 -0.51701474 -1.9856383 0.76737314 -0.026400656 -1.4738686
-0.5049499 -1.5143466 -0.72678 1.0477425 -2.2784343 0.47503296 -0.55407995 -0.13883802
0.6810845 0.99019873 -0.46827042 0.4496198 1.3811597 0.46824303 -0.50325334 -0.2099147
-0.1555768 0.049717534 0.22332804 -0.60706437 0.10488185 -0.1267838 1.428413 -0.117893115
-9.325239e-06 0.00061118597

weight f4 [128, 76]
00000000: 890a 193e e9c8 073e 4b1b c93d 496a 163d
00000010: 8572 c6bd c3b3 e63d 6767 943b ee49 433d
00000020: 9dd5 cfbd c427 64bd c10d 02be 330d 84bb
00000030: 45b4 d8bb 3cc9 01be 4eeb 263d 20d1 123d
00000040: 32dd 593d 9dca 85bd e3da a8bd 6da9 02bd
00000050: cd1d 623d f293 f93d d7f1 9a3d 4119 45bc
00000060: d973 2e3d d5c3 e2bd 3147 c6bd 4d9a 683d
00000070: 6290 71bd c5ee 743d 9de1 abbd 1a0d 41bd
00000080: 8bcb bdbd 7b53 733d 57bd 0abc eafd ac3d
00000090: 3b08 a33d 02f3 8c3d c88e 123c 23f4 84bd
000000a0: 29e3 d3bc befe 843c 63d0 963d a2e5 80bd
000000b0: 93c6 ed3d 2d3d 4ebd e1fe 19be aafc 7cbd
000000c0: 03d6 de3d 544f f73d 3e33 c2bd 7492 8d3d
000000d0: d5e4 883d 3fa4 323d 82b5 ab3d db5a 4ebd
000000e0: b1e2 383d c8e3 843d f494 cbbc fc01 173d
000000f0: 5487 d1bc f285 143d 95a5 d5bb 6105 32bd
00000100: 6f70 e63c 5c2f 1c3d df15 66bd 1b69 debc
00000110: bdbb 933d 2418 39bd 5cfa f13c db16 3bbc
00000120: a330 9d3c 909c 8fbd 0349 b7bd 38b4 d0bd
00000130: 6959 e63d 71ee c9bc c875 1a3c cbe4 43bd
00000140: 2471 013e 4be1 043e 69d7 80bd fadf c9bd
00000150: fefd aebd 280a ce3c 10f0 82bd 0112 5cbd
00000160: 63e7 dfbc f800 c53c 2c5a 86bd 17da 7f3c
00000170: b537 94bc 4d76 30bd ef0e fa3c d734 d73d
00000180: 9643 88bd 179c 023c da7e 24bd bbf6 fe3d
00000190: c6a4 cabd 7e2e d1bd 21d6 f93d 7c02 82bd
000001a0: 811b 003d 46cb 013b 0521 80bc 5439 17bc
000001b0: cf4b a53d 3e50 073c 2c40 d1bd 00d2 74bd
000001c0: 3d4e c9bc 3fef 843d 347c 89bd fe26 f03d
000001d0: 677a 82bc 9c20 33bc a64f c03d f5bf 7d3d
000001e0: 8feb b13d 6bce bb3d f882 53bd 1092 bebd
000001f0: 5b4b e2bb 4a32 cf3d cd10 0fbc d504 ebbd
00000200: 723d 6b3d 82aa 8b3d 2363 81bd 5929 e7bd
00000210: ec1d eebd 327b 813c fb27 c8bc 2c64 38bd
00000220: 68fb ef3c f44d c23c 5c2c c83d 0baf 733d
00000230: 6d79 96bb 3bf6 ddbd 2fbc f6bd 4c58 0c3e
00000240: e6a9 813d f4ac 7c3d c60b f8bd d68b f93d
00000250: d3ef 053e 8f90 ee3d dd15 a6bd 86f4 57bd
00000260: 4297 5bbb 01ce 213e 949e 49bd 92d3 8bbd
00000270: 403b 213d 69d7 1bbd 5559 2abd edf7 b6bc
00000280: 4c09 83bc 32e7 9bbd 19ce a03d d090 30bd
00000290: 34c0 e53b 492a d03d f807 823d 8d4f 6b3a
000002a0: 4a2c 033e 63d1 9a3c 1706 51bd 45b3 e43d
000002b0: b866 083d 7207 d3bd 5918 6abc 0c4a 97bd
000002c0: 8916 e33d 7c3c 89bc 0071 ccbd 68fc b739
000002d0: 4a65 9b3d 5d8c 193d 7b4d 353d 45c8 9b3c
000002e0: 1b23 383d 8f55 afbc 8214 43bd 2864 dbbd
000002f0: 6633 c9bd e9cf 7d3d efd2 64bd bc48 a2bc
00000300: 0599 033d cb54 9b3b a8b3 aabd 7cfb cb3d
00000310: b515 52bd 11e5 bb3d 732b 1bbe 4868 4cbd
00000320: dcbd 913d 47c5 87bd 9ecd f53d eef3 b5bd
00000330: 3e26 b5bd b6fe c6bd 7698 b0bc 9e49 f53d
00000340: 9216 00bd 4596 873d 7cee 48bc 9e96 59bc
00000350: 45a8 c43d e41e d4bd 9218 7b3c 8a2f bb3d
00000360: c2a3 e4bb 9a01 b03d 436f 40bd 3b7d ac3d
00000370: eb1d bebd 38b6 26bc 2db8 36bd 2af8 993d
00000380: 735f 613d 79f3 d83d 82bb ab3b 1d0f dfbc
00000390: ee08 173e f8d6 313d 6356 d83d 4a3a 99bd
000003a0: 333a 93bc fa20 19bc c86e 5d3d b736 b73d
000003b0: 9b0e 84bc 7910 bdbd e607 5e3d 9180 c33c
000003c0: 2468 c03c 7150 bfbd ee36 cd3d 8037 ed3d
000003d0: f8cb 6b3d 0dc2 c3bd d1be b93d 9880 a6bd
000003e0: 02dd d03c 26cf bf3c a3bd 34bd cd8a 213d
000003f0: 01d5 c9bd cff8 e03c 9c43 8ebd 1928 dabb
0.14945425 0.13260235 0.09819659 0.036722455 -0.096898116 0.112647556 0.004528928 0.047677927
-0.101481654 -0.055701986 -0.12700559 -0.004029894 -0.0066132867 -0.12674421 0.040751748 0.03584397
0.053189464 -0.06532786 -0.08244874 -0.03189986 0.0552042 0.121864215 0.075656585 -0.012029947
0.04259095 -0.11072508 -0.096815474 0.056787778 -0.058975585 0.05979802 -0.08392642 -0.047131635
-0.09267338 0.059405785 -0.008467994 0.08446868 0.07960554 0.068822876 0.0089451745 -0.06491878
-0.025865154 0.016234752 0.07363965 -0.06293799 0.11610141 -0.05035131 -0.15038635 -0.061764397
0.10880663 0.120756775 -0.0948243 0.06912699 0.06684271 0.04361367 0.08384229 -0.050379615
0.045138065 0.06488758 -0.0248513 0.036867127 -0.025577225 0.036260553 -0.006519983 -0.04346216
0.028129784 0.038131103 -0.0561732 -0.027149728 0.072135426 -0.045189038 0.029538326 -0.011419023
0.01918823 -0.07012284 -0.08949473 -0.10190624 0.112475224 -0.02464983 0.009427495 -0.047825616
0.12640816 0.12976567 -0.06291086 -0.09857173 -0.08544539 0.025151327 -0.063934445 -0.053728107
-0.027332013 0.024048313 -0.06560168 0.0156159615 -0.01809297 -0.04308157 0.030524699 0.10508125
-0.06653516 0.007971785 -0.040160038 0.12449404 -0.09894709 -0.10213946 0.12199045 -0.0634813
0.03127623 0.0019804998 -0.015640745 -0.009229977 0.080711 0.008258877 -0.10217318 -0.059770584
-0.02457344 0.06490945 -0.06713143 0.11726187 -0.015927507 -0.010933068 0.09390192 0.061950643
0.08687507 0.091702305 -0.051638573 -0.09305203 -0.0069059557 0.10117014 -0.008732033 -0.11475531
0.057431646 0.06819631 -0.06317737 -0.11287183 -0.11626801 0.015805814 -0.024433127 -0.045017406
0.029294685 0.023718812 0.09774086 0.059493106 -0.004592112 -0.1083798 -0.12047612 0.13705558
0.06331234 0.06168838 -0.121116206 0.12184875 0.13079767 0.11648666 -0.08109639 -0.05272343
-0.0033506905 0.1580124 -0.049223498 -0.06827463 0.039363146 -0.038047228 -0.0415891 -0.022335017
-0.015995644 -0.076124564 0.0785181 -0.043106854 0.007011438 0.10164315 0.06349176 0.00089763926
0.12809864 0.018898671 -0.0510312 0.111670054 0.033301085 -0.103041545 -0.0142880315 -0.0738717
0.110882826 -0.016752474 -0.099824905 0.00035092537 0.07587679 0.037487376 0.044263344 0.019016394
0.044955354 -0.021403102 -0.04762698 -0.10712463 -0.098242566 0.061965857 -0.055865224 -0.019810073
0.032128353 0.0047403327 -0.08335048 0.09960076 -0.051290233 0.0917455 -0.15153293 -0.049904138
0.07116291 -0.066294245 0.12002109 -0.088844165 -0.08845185 -0.09716551 -0.021557074 0.11976932
-0.031271525 0.066204585 -0.01226389 -0.013280539 0.09602407 -0.103574544 0.015325682 0.09139927
-0.0069775293 0.085940555 -0.046981107 0.08422323 -0.0928305 -0.01017528 -0.044609237 0.07518037
0.055022668 0.10593314 0.0052408585 -0.027228886 0.147495 0.0434179 0.10563352 -0.07481821
-0.017972087 -0.009346241 0.054060727 0.08945983 -0.016120246 -0.092316575 0.05420675 0.023865016
0.023487158 -0.09341515 0.10020243 0.115828514 0.057567567 -0.095584966 0.090695985 -0.08129996
0.02549601 0.023414206 -0.044126164 0.03943901 -0.098550804 0.027462391 -0.06946489 -0.006657612

bias f4 [128]
00000000: 7bba 92bd b962 91bd af5a a6bd 4eca 6e3d
00000010: d39d 883c fb18 a9bb 2943 e43c 1a9b 6e3d
00000020: 48a8 103c 71f7 863d 831c 5dbc 96d4 2f3d
00000030: 06cc 153d b84f 333b d44b b53d 6c08 e93d
00000040: bc06 ba3d 0af9 cebc a794 aabc 94c8 d73d
00000050: c828 51bd f407 d03b 9f08 8dbd 8ab2 02bd
00000060: b020 38bd ba76 843d 7aba 4ebd 0424 87bd
00000070: 9991 273d b862 00bc c5ff 733c 4faf b6bd
00000080: 9f4d 41bd 1cb1 7e3d 0429 863d a02a d3bd
00000090: d87f aabd 4578 323d 7f5d cdbd b91c 87bd
000000a0: c5e0 98bd 53e3 c6bd 6f94 5dbd 3312 a03d
000000b0: cf0c ebbd 675a 9b3d c543 d2bd 17a9 0abd
000000c0: 2589 19bd ea9d 813d 5222 cfbd f33c 88bd
000000d0: 5be7 dfbd 487f aebb a98e 463d 7a62 c93d
000000e0: 52d3 b93d 3f4e f2bc 9e13 8dbd 0eaf ad3c
000000f0: afee 7f3d 9752 d03d 6e6c ac3d 8eb7 3dbb
00000100: d9bd d6bd 4663 8abd bb50 893d 4cff a8bd
00000110: aee6 b4bd e803 94bd 6233 07bd 7058 593d
00000120: 7829 9d3d 658f c33d 58dc 713d 5008 463c
00000130: d9e4 7abc df98 92bd d385 61bd 9442 56bc
00000140: df40 c33d 4f27 98bc b7cf aebc c93e 96ba
00000150: fd0b 6bbd 761e 7dbd b275 433d a02b b6bd
00000160: 4cc1 24bb bc32 15bc bb9a 853c 0385 4dbc
00000170: 7e8f 68bd 7fcf e2bc e16b 16bd 2b5a 293d
00000180: ca76 ac3c 353b 1abd ae09 ba3d 043f fe3a
00000190: 9645 6f3d eeb5 c7bc 0861 dabd 17be d0bd
000001a0: 333d 2cbd 9fb2 8a3d 0b09 623d 5976 493d
000001b0: 4d7f 343d ba70 8cbd 8fa8 0dbd e08b b63c
000001c0: d06b d4bd b27f 8fbd 7e00 9ebd 25a1 be3c
000001d0: 61c7 cfbc 77d7 9bbc 2d3b 8d3d c227 87bd
000001e0: 5a3e 93bd b89a b2bc 4340 693d e881 9c3b
000001f0: b372 c2bd e2f9 a53d c671 98bd ba9c aa3d
-0.071644746 -0.07098908 -0.08122765 0.0582984 0.016676819 -0.0051604486 0.027864056 0.058253385
0.008829184 0.065901645 -0.013495567 0.042927347 0.036571525 0.0027360748 0.08852354 0.113785595
0.09083316 -0.025265235 -0.020822836 0.10536304 -0.051064283 0.0063486043 -0.0688641 -0.03190855
-0.04495305 0.06467958 -0.050470807 -0.06598666 0.040910337 -0.007836036 0.014892523 -0.08920156
-0.047193166 0.062180623 0.06550792 -0.103108644 -0.083251655 0.04357173 -0.100275986 -0.06597275
-0.074647464 -0.097113274 -0.054096635 0.07815971 -0.114770524 0.07585602 -0.10266832 -0.033852663
-0.037484307 0.06328948 -0.10113968 -0.0665225 -0.109327994 -0.0053252317 0.048475895 0.09833236
0.09073509 -0.029578326 -0.06888507 0.021201637 0.062483486 0.10172003 0.08419119 -0.0028948518
-0.10485429 -0.06757216 0.06704851 -0.08251819 -0.08833061 -0.072273076 -0.033007987 0.053062856
0.07673925 0.09548835 0.059048027 0.012086943 -0.015313351 -0.07158064 -0.055059265 -0.013077397
0.095338576 -0.018573431 -0.02133928 -0.0011462803 -0.05738448 -0.061796628 0.047719665 -0.088950396
-0.0025139628 -0.009106334 0.016309133 -0.0125439195 -0.05677747 -0.027686832 -0.036723975 0.041345757
0.021052737 -0.03765412 0.090838775 0.0019397442 0.05841597 -0.024378743 -0.106630385 -0.10192507
-0.04205055 0.067723505 0.055184405 0.04918513 0.044066716 -0.068574384 -0.034584578 0.022283494
-0.10372126 -0.07006778 -0.077149376 0.0232702 -0.025363626 -0.01902364 0.068960525 -0.0659938
-0.07189627 -0.021802291 0.05694605 0.004776228 -0.094945334 0.08104302 -0.074435756 0.083306745

weight f4 [128, 128]
00000000: e435 d33c bbb3 db3c 4f53 963d d246 913c
00000010: 2e47 9fbd 06c6 983c f49e a13d fa4a 27bd
00000020: b125 b93d fead 943d 29b4 2ebd 1518 09bc
00000030: e89a 96bb c70f c43d 903f d83c 35b9 9d3d
00000040: 6ac7 a6bd 79e6 5cbd 36b8 e8bd 8673 f7bc
00000050: d718 fdbb 84e3 be3c 67cd 303d 7c2f 3abc
00000060: 1de3 c83a cc02 34bd f4c6 5ebc 5f91 803c
00000070: 8b78 8a3d d840 153d d7ce 2d3d 6d84 323d
00000080: 3730 873d dc3d e83b befc 493d 3726 5cbd
00000090: 908d 003d 2848 683c 2d9c 853d 76a6 e1bd
000000a0: d2eb ea3c 3312 b7bd 0ac4 d5bb 9da2 30bd
000000b0: eaf7 10bd 454a 4dbd 7fb4 a5bd 1a73 b7bd
000000c0: 5e28 08bd 7295 ba3d 2a40 34bd 8211 92bd
000000d0: 57d0 a0bc 1f74 71bb cd17 dbbb 8bcd 9a3d
000000e0: fc7e a1bd 7718 8c3d edf4 803d d8e3 a03d
000000f0: 13a6 67bd 8585 913c 8388 c23c 5ace 56bd
00000100: 7254 9b3d da98 c3bc 81ca 97bd c3d0 74bd
00000110: 20d4 9f3c aea0 87bc 50c6 1cbd 8984 31bb
00000120: 565b fa3c cf4a 983b 1b13 9fbd 0368 e2ba
00000130: 4805 c03c 666f 703d 105e 643d b045 553d
00000140: f9ce 853c ab3d ebbc e538 90bd 1149 eabc
00000150: c8a8 833d 9682 91bc 6d7e 393d 580b 49bd
00000160: 533d 603d ad7e 023d 406e 823d 0b6b 2c3d
00000170: 616e 32bd 1a34 343d 57fe bebd 429f 22bd
00000180: 80b3 c1bc 82af 993d c2ec 38bd d691 5cbd
00000190: d3ed 9ebd 98cc ac27 d6a2 89bc 23e8 7835
000001a0: 8878 d3bc df88 de3c 803d 453a ab43 663c
000001b0: ae2f 2c3d 4848 a8bd 7a7b 6fbd 2f65 8e3c
000001c0: 8907 8abc 3384 17bd d05b 26bd 64d3 433d
000001d0: 659e 913d 61e7 6b3d 9668 143d f51c cebd
000001e0: edec 37bd 836b 05bd 008b 7bbc 52c2 49bd
000001f0: e496 1e3d 7c0f d1bd 85f2 193a 69fd 7e3d
00000200: 5419 3fbd 769a 17bc ef2d 763d af7b 47bc
00000210: 5a10 27bd 2fb6 6d3d 1b35 8abd 1529 aa3d
00000220: 795d b73d 3f8b fb3b a24f 99bb d0f9 4cbd
00000230: c6dd a83d 1624 7abd e213 febc c85b 113d
00000240: 0509 d03c 2dd2 7d3d 76f8 59bc 5fd2 6a3d
00000250: 8fe9 563d 82a4 afbd 1105 b2bd 34eb c23d
00000260: b510 b93d 8898 f13d d304 58bd 1d5e a23d
00000270: 823b 1bbd 7f12 053d 25e9 133d 4a1f 9bbd
00000280: d4b5 53bd d4b8 933d 775b fbbd 1207 dc3c
00000290: 424d 9d3d fe75 213d d9aa 803b 6e94 49bd
000002a0: 5b51 31bd 94df 9dbc c745 4fbd 26ee a4ba
000002b0: ed90 3ebd bb9c 813d c5fd 1bbd 836a 8bbc
000002c0: 35eb 82bd e19a a83d 673d 4d3d 123e a33d
000002d0: 7676 983d a2d8 4fbb 610b 913d 11ae 9ebc
000002e0: 8145 a53d 1682 e93c 13d8 643d 78c6 31bd
000002f0: 8770 033d 15b0 5b3c 5c6c 9fbd e00a ac3d
00000300: 7884 5abd 72ab b2bd 031d 8e3d 5852 e5bd
00000310: 56d1 af3c ba15 763d cff5 0d3c 1e48 abbd
00000320: c362 58bd 5ecb adbc 06e2 053d e49a 813d
00000330: 84c6 5e3d c162 bbbc f1b4 9dbc 1940 8ebd
00000340: 5bfc 983c 34df 823c 6922 c8bc 253a 4b3c
00000350: 76e8 723c 84a7 92bd 63b6 463d c21f 553c
00000360: 521a d63d 52b5 87bd 9d12 08bd 7c8b 19bd
00000370: 3788 2c3d 03ff 56bc 53c0 47bd 6bbc 923d
00000380: b4bd 8f3d 717c d23d 61d3 a33c 9c10 513d
00000390: a963 4cbd db84 793b 6301 acbc e1ff de3c
000003a0: d5e1 be3c 19a7 583c 0be2 22bd ca1f 513d
000003b0: 1b36 f73c ba3a 7abd 3cb4 71bd 2b6d f3bc
000003c0: 2bc0 7abd a509 94bd d790 1bbc 3c11 9fbd
000003d0: 6161 a0bd e8c5 c73d a693 a1bd e271 1b3d
000003e0: f344 913c 2e85 d0bb 116d 853d 2a52 88bd
000003f0: 38b4 3e3d 9618 703d ab8d 8e3d b88b c9bd
0.025782533 0.0268191 0.073401086 0.017733965 -0.07777248 0.018649112 0.07891646 -0.040842988
0.09040392 0.07259749 -0.042652283 -0.008367558 -0.004596103 0.09573322 0.026397496 0.07701341
-0.08143504 -0.053930733 -0.113632604 -0.030206453 -0.0077239084 0.023301847 0.043164637 -0.01136386
0.0015326474 -0.04394798 -0.013597239 0.015694318 0.06761273 0.036438793 0.042433586 0.043583322
0.06600993 0.0070874523 0.0493133 -0.053747382 0.031385005 0.01417736 0.06523929 -0.11018078
0.028676901 -0.08939018 -0.006523614 -0.04312383 -0.03539268 -0.050119657 -0.080910675 -0.08957501
-0.033241622 0.09110536 -0.044006504 -0.071322456 -0.019630594 -0.0036842895 -0.006686187 0.075587355
-0.078855485 0.06840604 0.06296716 0.07855958 -0.056554865 0.017763862 0.023746734 -0.052442886
0.07584466 -0.023876596 -0.074116714 -0.059769403 0.019510329 -0.01655611 -0.038275063 -0.0027087054
0.03056113 0.0046475898 -0.07767316 -0.001727343 0.023440018 0.058699988 0.055753767 0.052068412
0.016334044 -0.028715929 -0.07042102 -0.028599294 0.06428677 -0.017762464 0.045286585 -0.049083084
0.054745983 0.03185909 0.06368685 0.04209427 -0.043562297 0.043995 -0.09325855 -0.03970266
-0.023645163 0.075041786 -0.045147665 -0.053850017 -0.07760205 4.796141e-15 -0.016801279 9.2725e-07
-0.02581431 0.027164875 0.0007524118 0.014054219 0.04203766 -0.082169116 -0.058467366 0.017382232
-0.016849296 -0.03699131 -0.040614903 0.04780902 0.071102895 0.057593707 0.036232553 -0.10064117
-0.044903684 -0.032573234 -0.015352964 -0.049257584 0.03871812 -0.102080315 0.0005872625 0.06225339
-0.046655014 -0.009253135 0.0601024 -0.012175485 -0.04078708 0.058035072 -0.0674841 0.08308617
0.08953375 0.0076765115 -0.0046786824 -0.050042927 0.08245425 -0.06106957 -0.03101534 0.03548792
0.025394926 0.061968017 -0.013303867 0.05732953 0.052468833 -0.08576299 -0.086923726 0.09517518
0.0903639 0.11796671 -0.052738976 0.07928107 -0.037898548 0.032488342 0.036111016 -0.07574327
-0.051687077 0.072129875 -0.12273305 0.02685884 0.076807514 0.039419167 0.0039266166 -0.04921382
-0.043290477 -0.01927165 -0.050603654 -0.0012583181 -0.04652493 0.06328722 -0.03808381 -0.017018562
-0.063925184 0.08232666 0.050107386 0.07970823 0.0744447 -0.0031714817 0.070822485 -0.01937011
0.080698974 0.028504413 0.055870127 -0.043402165 0.032089736 0.01340868 -0.0778434 0.08400512
-0.05334899 -0.08724107 0.06939127 -0.111973464 0.021462124 0.060079314 0.008664562 -0.08363365
-0.05282856 -0.021215137 0.032686256 0.06328371 0.054388538 -0.022874238 -0.019251319 -0.069458194
0.01867502 0.015975572 -0.02443047 0.012403999 0.014825931 -0.07160857 0.04851378 0.01300806
0.10454239 -0.06626381 -0.033220876 -0.03748654 0.042122092 -0.013122323 -0.0487674 0.07164844
0.07018605 0.102776416 0.019998254 0.05104123 -0.04989973 0.0038073573 -0.020996755 0.027221622
0.023301044 0.013223433 -0.039766353 0.051055707 0.030177167 -0.061091162 -0.059009776 -0.029715141
-0.061218422 -0.07228402 -0.009494982 -0.07766959 -0.078310736 0.097545445 -0.0788949 0.037950404
0.017733073 -0.0063635325 0.065149434 -0.066562966 0.04655859 0.058617197 0.06960615 -0.09841102

bias f4 [128]
00000000: c2c7 51ba 5f14 123d 918f 183d 894c b5bd
00000010: 8990 12bd 2cbb a0bd a171 adbd d259 523d
00000020: 6226 933d e8fb 9abd 42f7 d5bc 8f46 133d
00000030: 64a0 a63d a655 a23d b330 453d 142e a6bd
00000040: 82d2 53bd 48db 9b3d 6939 a0bd 82dd c3bc
00000050: 26ec 90bd d9a9 8cbd c522 b03c 4f9c cbbc
00000060: b37d a2bd 58e0 81bd 95cc 8f3d 1675 943d
00000070: 48ce 5d3d 557d 3d3d 6306 50bd c904 24bd
00000080: 4473 6d39 9087 2e3d 308a 303a 2b70 c43c
00000090: 7538 57bd aba9 cabc 0bac bb3c 9503 a4bd
000000a0: eb05 623c 2ef4 b03d e7fc 7cbd 8672 79bc
000000b0: 8d45 1fbc 56bf ffbc da64 6f3d 6c9c cc3c
000000c0: d652 be3d c79e dcbc b598 cf3c 335e ca3c
000000d0: 4a5d 3bbd dc5e a1bd 7bb5 7e3d 1cf5 65bd
000000e0: a541 e4bc a5a7 8fbc 3d2b cfbd 4b88 713d
000000f0: 0ceb 83bc ba69 34bd e88c 99bd 6648 e43c
00000100: 2681 73bc 68bd 30bc b7bc cdbc 186e ac3c
00000110: 7a7a b5bc 0264 603c dd37 7f3d 5618 883c
00000120: a8fd 84bd b8ce 8b3a 0cc9 ffbc 61e8 9abb
00000130: 8fc3 693d 9331 28bb 387b 0dbd 7029 1cbd
00000140: 89f6 563d c3be b7bc 5152 a03b 05fc 40bc
00000150: 4f2f 91bd 4d6e 033d 715f 8a3d 35f4 6ebd
00000160: e805 ba3c f084 e03c 0273 c0bc 92f5 5fbc
00000170: b11e 3ebc 95c9 423d 9c34 06bc a41c afbd
00000180: 2757 93bc af11 e7bc 2f70 833b 56fd 33bd
00000190: 658f 053c 96c0 7abb 0353 6bbd 9e6e dcbb
000001a0: 5256 65bd 4772 3dbd 4a6e 3c3d 6f40 f9ba
000001b0: 437b 383d f965 d13c 0add 793d 2d31 bb3d
000001c0: 8106 833d 0eb9 b9bc 0e57 2cbd ccfd 983d
000001d0: 402a 723d cdd8 883d b21d 9c3d cbd8 7e3d
000001e0: 1ccf 473c c64d babb 0f3c 39bd d6ed d63d
000001f0: 5523 29bd c241 3a3d 2276 9cbb decc 33bd
-0.00080024835 0.03566396 0.03724629 -0.088524885 -0.03578237 -0.078482 -0.084689386 0.05135519
0.07185055 -0.075675786 -0.026118878 0.03595596 0.08136061 0.079264924 0.048142146 -0.081142575
-0.051714428 0.07610184 -0.0782345 -0.023909334 -0.07076292 -0.06868333 0.021500954 -0.024854807
-0.079341315 -0.06341618 0.07021443 0.07248895 0.054151803 0.046262104 -0.05078734 -0.040043626
0.00022645021 0.04260975 0.0006734459 0.023979267 -0.052544076 -0.024739107 0.022909185 -0.08008496
0.013795356 0.086403236 -0.061764624 -0.015225058 -0.009721172 -0.031219166 0.05844579 0.024976932
0.092931435 -0.02693118 0.025341371 0.02470312 -0.045743264 -0.07879421 0.062184792 -0.056141958
-0.027863333 -0.017535994 -0.10115669 0.05896787 -0.01610329 -0.04404614 -0.07497579 0.027866554
-0.014862334 -0.0107873455 -0.0251144 0.02104859 -0.022153128 0.013695719 0.062309135 0.016613167
-0.064936936 0.0010666465 -0.031223796 -0.0047274088 0.057071265 -0.0025664314 -0.03454134 -0.038125455
0.052481208 -0.02242983 0.0048926254 -0.011778836 -0.070891015 0.032087613 0.06756485 -0.058338363
0.022707894 0.02740714 -0.02349234 -0.013669388 -0.011603997 0.047555525 -0.008191254 -0.08550385
-0.017985893 -0.028206674 0.004011176 -0.04394277 0.008151864 -0.0038261763 -0.057452213 -0.006727054
-0.055990525 -0.04625156 0.046003617 -0.0019016395 0.045039427 0.02556132 0.061001815 0.09140239
0.06397725 -0.022671249 -0.04207521 0.07470283 0.059122324 0.066819765 0.076228514 0.06221847
0.012195375 -0.005685541 -0.045223292 0.10494582 -0.04129346 0.045472868 -0.0047748247 -0.04389655

weight f4 [128, 128]
00000000: cf62 84bd 8589 c73c a751 cebc bd97 903d
00000010: 59aa 00bd 1c33 4dbc d802 8c3d 5b33 a33d
00000020: 9b48 96bd 300d 06bd 74ce c7bc e048 e63c
00000030: 0280 b63d 27be ee3c 29c2 9a3c 4e1d 7f3d
00000040: 34c3 80bd 69f9 ab3d 1b6f b23d 98f7 1bbd
00000050: e12c 83ba 2daa 0a3d bc6a 60bd c971 0cbd
00000060: 7d60 873d c5dc 8a3d 38a5 81bd ed11 1d3d
00000070: 63ef fbbc 49bc 6bbb 8b2c 96bd aa03 85bd
00000080: f1de 30bb 4c5d 66bd b155 20bd ec4d 483d
00000090: 875d 4e3d c111 1dbd 7555 853d ffe8 a23d
000000a0: 19b7 28bd 7631 3f3d afff d3bb f162 bf3a
000000b0: 0ec8 b6bb 2794 3d3d 29b0 a83d 3d3d 74bc
000000c0: cae6 82bc 696b b83d 7ddb 783d 6364 2cbd
000000d0: a5e4 9f3d 87af 15bd 62fe 6e3d 8e4b 3739
000000e0: 59c1 5b3c 83c5 8cbd e9d0 66ba e432 57bd
000000f0: 005f a03b 31cb 803d 3960 9b3d 4cef 77bd
00000100: f02f 383d deb0 103d e1c2 843d 73dc 843d
00000110: 1e29 0fbd 0145 493d 94ae 223d a612 5e3c
00000120: 4266 50bd eccb 793b a44e 7cbd dde0 1e3d
00000130: 2edb f7bc 0a06 ff3c b44e 823d b884 fe3c
00000140: 07ab 95bd 5d7e 4ebd d7a9 9d3c bd70 b3bd
00000150: e017 4f3d 259d 86bc 8c4e 90bd 5e75 843d
00000160: a68d 0e3d 458e d13d b9c4 103c f307 263d
00000170: a60f 4e3d 89fb 3b3d b91a edbc 3a1a 3abd
00000180: b3d3 2abb a812 e23d 5201 453d 615b febc
00000190: 5257 1cbd 1d9a a13d 16ef 643d 7cc0 1c3d
000001a0: e71c 8cbd b247 85bd 435a 863d 4bb2 db3d
000001b0: c163 cf3d 8d7d 483d 8c30 86bc 8622 a13c
000001c0: a09e 933d 7e28 a939 cd81 14bd 81db 3f3d
000001d0: 867e 07bd f2f1 173d 8ba9 0ebd 538b 01ba
000001e0: 086a 723d d0d8 e0bc 4259 dfbb f4c6 49bd
000001f0: e272 9b3c c9ed 1cbd 6188 353d 8236 a13d
00000200: 0a54 84bd 9c7a a63d b81a 163d 6ab8 9d3d
00000210: f538 d1ba c50a 35bd 1c4c 3538 cae8 a13d
00000220: d7b8 cbbc d65f 93bd 1fa3 38bd e5db 90bd
00000230: fd8f c4bc b387 c03c 73e1 b53c 5ed6 093c
00000240: a4da 23bd 9346 c33d 519b 7cbd f99a a9bd
00000250: 9d8f c13d bc1d 75bd 46e2 63bd 8105 afbd
00000260: 5610 473d d309 223d 557b a33d cfc7 d03c
00000270: 295f 81bd d317 843c 8c89 3a3d 3a42 613d
00000280: da0f 15bd 2b95 9b3d d8ab d53a 573f 2abd
00000290: c755 0c3c e604 813d 1325 ac3c 9df3 ba3d
000002a0: 5779 8f3b 3ac5 a43d b2e2 763c 570c d4bd
000002b0: 7233 66bc adeb 1dbd ef52 ad3d 1eb9 8b3d
000002c0: c9e8 3d3d 9965 22bd e64d 07bd 08f4 27bd
000002d0: 1788 bebd 8257 7dbc b809 4d3d baa8 4a3d
000002e0: ddce e03c a12d b43d a570 bbbc cb6d ed3d
000002f0: d3f0 fabc d1ce 3d3c ef38 d7bc 920e 013d
00000300: 4c32 d13c e95a ae3d a26e 2d3c 3b52 8ebd
00000310: 8e54 713d 1739 413d 44ef 433d fad6 abbd
00000320: ef40 74bd 8f89 a73d 9240 a03d e3c0 efbc
00000330: 0e36 f0ba 3755 013d c758 933b 0694 2abd
00000340: 6cc1 26bd 23c7 723d 0a92 9d3d 8c7c a43d
00000350: 2d00 22bd 4c0b 903d 10eb c939 a547 2c3d
00000360: 3c12 adbd e873 553b 0769 4e3c 17c9 0f3d
00000370: 5da6 953c 485b f7bc 8aed 823c c51e b63a
00000380: e53d 40bd 6c9a db3d f339 7fbd 0750 093d
00000390: 5644 95bd 898d 123c 4fbe 883d 61c8 5dbd
000003a0: b32e 3c3d 5d8f bf3d 5ccd 9d3d f2f3 ea3d
000003b0: fdd2 8bbd 1606 df3d c435 08bd 74b1 95bb
000003c0: 6071 3e3c bade 84bd 6591 d83b 3361 823d
000003d0: c450 053d fd18 1abd d8c8 0bbd f667 933d
000003e0: 9b02 5ebd 2a38 71bd 7e3a 4c3d 57ad b33c
000003f0: 61e5 4b3d c07b 583c e694 113d 830c 17bc
-0.06464159 0.024357567 -0.02518542 0.07060192 -0.031412456 -0.012524392 0.0683648 0.0796878
-0.07338067 -0.03272742 -0.024390437 0.028110921 0.08911134 0.029143406 0.01889141 0.062283807
-0.06287232 0.083971806 0.08712598 -0.03807792 -0.0010007882 0.0338537 -0.05478929 -0.0342882
0.066102006 0.0678039 -0.06330341 0.038347173 -0.030753797 -0.003597038 -0.07332715 -0.064948395
-0.0026988352 -0.05624132 -0.03914422 0.048902437 0.050382163 -0.03834701 0.0651044 0.07954597
-0.04119024 0.04667803 -0.006469689 0.001460163 -0.0055780476 0.046283867 0.08236725 -0.0149071785
-0.01597919 0.09004862 0.060756195 -0.042087924 0.07807282 -0.03654435 0.058348067 0.00017480386
0.013412797 -0.0687361 -0.0008804934 -0.052538767 0.0048941374 0.06288756 0.075867124 -0.060530946
0.04496759 0.035324924 0.06482483 0.0648736 -0.03495132 0.049138073 0.039717272 0.013554251
-0.05087877 0.0038115932 -0.061598435 0.038788665 -0.03025588 0.03113081 0.06362668 0.031069145
-0.073080115 -0.05041348 0.019246025 -0.087617375 0.05055988 -0.016432354 -0.070462316 0.064676985
0.034803055 0.10232214 0.008835965 0.040534925 0.050307892 0.04589418 -0.028943406 -0.045435168
-0.0026066124 0.11038715 0.048096962 -0.031049432 -0.038169213 0.07890723 0.055892073 0.038269505
-0.0684145 -0.065078154 0.06560185 0.10727366 0.101264484 0.04894786 -0.01638057 0.019669782
0.0720799 0.0003226436 -0.0362566 0.046840195 -0.033079647 0.03709597 -0.034829658 -0.00049417204
0.05918315 -0.027447134 -0.0068160603 -0.049262002 0.018975679 -0.038312707 0.044319514 0.07871725
-0.06461342 0.08128855 0.036646575 0.0770119 -0.0015962409 -0.044199724 4.3224645e-05 0.07905729
-0.024868412 -0.07196014 -0.04507744 -0.070731916 -0.02399444 0.023502206 0.02220223 0.0084129255
-0.040003434 0.09534945 -0.06167156 -0.08281512 0.0945122 -0.05984281 -0.055635713 -0.08545972
0.048599564 0.03956015 0.07982508 0.025485901 -0.063169785 0.016124642 0.04554133 0.0549948
-0.03639207 0.07596811 0.0016301824 -0.04156431 0.008565373 0.062997624 0.021013772 0.09128497
0.0043784785 0.080454305 0.015068697 -0.10353916 -0.014050351 -0.038554836 0.08463084 0.06822418
0.04636458 -0.039647672 -0.033033274 -0.04100421 -0.09303301 -0.015462758 0.050058097 0.049477316
0.02744239 0.087977655 -0.022880862 0.11593207 -0.030632412 0.011584953 -0.026272265 0.031508036
0.025536679 0.085134335 0.010585459 -0.06949278 0.05891853 0.047173586 0.047835603 -0.08390613
-0.059632238 0.08180534 0.07824816 -0.02926678 -0.0018326656 0.031575408 0.004496667 -0.041645072
-0.040711805 0.059271943 0.0769387 0.08031568 -0.03955095 0.07033405 0.00038512843 0.042060513
-0.084507436 0.0032570306 0.012598283 0.035103884 0.018267805 -0.030194893 0.015982408 0.0013894668
-0.046934027 0.10722813 -0.062311124 0.033523586 -0.07288425 0.008944877 0.066769235 -0.054146174
0.045942973 0.09353516 0.07705185 0.1147231 -0.06827352 0.10889833 -0.0332544 -0.004568273
0.01162371 -0.06487794 0.0066091293 0.063661955 0.032547727 -0.037621487 -0.034127086 0.07197563
-0.054201704 -0.058891453 0.04986047 0.02193324 0.0497793 0.013213098 0.03554239 -0.009219292

bias f4 [128]
00000000: 91ea bc3d 2702 023b 7585 41bd 7a91 663d
00000010: dd98 933d 35c3 5a3d 0935 19bc 2c66 6cbd
00000020: 200d 123d b712 ce3c c820 9ebd ba7d 473d
00000030: 89d8 2f3d ffa0 3c3d 987c 4dbd aa1b 103d
00000040: b25f 10bd 021d 233c a49b 5abb 423b f4bc
00000050: d8d7 26bd 4e3a 7a3d 368e 2abc 94b0 413d
00000060: 75fc 493d fccd 953d 37c2 3fbd 7d0c 1f3d
00000070: 3b53 233d e17e ecbc cce9 f7bc c318 343d
00000080: 263f 173d cdbf 8ebc 3f8e 613d 3176 f7bb
00000090: 94e8 7e3d f5d0 b7bb cf5f 523d ca94 093d
000000a0: fb02 78bd a44a b83d e7a0 9b3d 3f5d 3f3d
000000b0: bbdc 163d 9f98 793d da71 e4bc 4467 8d3d
000000c0: 0a21 a6bd c3a7 b7bd 185e 10bc ec0d 94bd
000000d0: b7e0 0a3d 95c7 b03c 5b36 ef3c 4186 973d
000000e0: c827 afbc 7225 ba3d 549f 403d 96f0 6fbd
000000f0: 83ff 3abd ef5e 05bd 4568 2f3d 2e8c 753d
00000100: f5c4 86bd 8e9d 3abd 7f6d b1bd 21bc 94bd
00000110: b8ef 11bd 9238 3d3b cadd 83bd b779 5c3d
00000120: 94db 3b3d 40dc 5b3c 0ac6 c63d 3d92 863d
00000130: 755e ba3c 4365 d43c 663c 1d3c 4156 a1bd
00000140: 99d6 9fbc 7825 87bd faec a7bd 756d 07bc
00000150: ebfc 263c 4f62 1cbd 922a 763d 0a65 233d
00000160: 71fa 5bbc 84da 88bd 533f 93bd 54a5 82bd
00000170: 87ca 1abc 819d de3c 82fe 7c3d 051a 633d
00000180: dce2 763c b15e 483d ddf7 82bd c194 b43c
00000190: 32c3 b8bc 7b82 f8bb 701e 9d3d b789 fe3c
000001a0: a967 2dbd 4121 b6bc 7124 0bbd 35a0 50bd
000001b0: 0673 87bd 7705 77bd 41c1 973d 0162 733d
000001c0: 17f7 abbc 5a63 0ebd 5db6 a1bd e98d 2dbd
000001d0: 55a6 0f3d 995b 0abd c2ea 173d a56d 99bc
000001e0: a395 a6bd 5f3b df3c 6954 083d 7c66 003d
000001f0: c150 82bd 05e0 16bc 2bc8 b43d a152 883c
0.092244275 0.0019837709 -0.047246415 0.05629108 0.07206891 0.05340882 -0.0093510235 -0.057714626
0.03565705 0.025155408 -0.07721096 0.048703887 0.042931113 0.046051975 -0.05016765 0.035182633
-0.035247512 0.0099556465 -0.003335693 -0.029813413 -0.04073319 0.06109076 -0.010409882 0.04728754
0.049313027 0.07314679 -0.046816077 0.03883027 0.039874297 -0.028869094 -0.03026285 0.043968927
0.036925457 -0.017425442 0.055067297 -0.0075519313 0.062233523 -0.0056096264 0.0513609 0.033589162
-0.060549717 0.089986116 0.07599049 0.046719786 0.0368316 0.060936566 -0.02788632 0.06904462
-0.081117705 -0.08967545 -0.008811496 -0.07229218 0.03390571 0.021579543 0.029200723 0.07398654
-0.021381274 0.090891734 0.047026947 -0.05857905 -0.04565383 -0.03256124 0.04282405 0.05994814
-0.06580535 -0.045560412 -0.08663463 -0.07262445 -0.035629004 0.002887283 -0.06438787 0.053827014
0.045863703 0.013419211 0.09705742 0.065708615 0.022750119 0.025927192 0.00959692 -0.0787778
-0.019511508 -0.065989435 -0.081994966 -0.008265843 0.010192136 -0.038179692 0.060099192 0.03989128
-0.013426409 -0.066823035 -0.071898125 -0.0637919 -0.0094477 0.027174713 0.061766155 0.055444736
0.015068736 0.04891843 -0.063949324 0.022043588 -0.022554014 -0.007583914 0.07671821 0.031071527
-0.042335186 -0.022232654 -0.0339703 -0.050934035 -0.06613736 -0.060307946 0.07409907 0.059419636
-0.020991845 -0.034762718 -0.07896111 -0.042371664 0.035070736 -0.03377876 0.037089117 -0.01872904
-0.0813401 0.02724999 0.033283625 0.031347737 -0.06363059 -0.009208684 0.088272415 0.016640963

weight f4 [128, 128]
00000000: d7a7 d9bb 07f6 343c 4b86 c53d 3d08 9f3d
00000010: 2df6 5c3c fca3 b33d f5a1 86bc 6fbf f53c
00000020: 393c 7a3d a2d2 a6bd 4f9f 93bd 188e 33bd
00000030: 3a5d 94bd 9dae e83c daf1 37bc b538 d4bc
00000040: dd5f f4bc 1a3b b9bd cbd0 09bd dfc2 d43d
00000050: a1d4 e7bc cf52 89bb 8346 28bd 9f39 2ebd
00000060: e432 a53d 2c8a 17bb 9297 65bc 220c 8f3d
00000070: e403 a4bc 1885 383d c57d b1bc a073 603d
00000080: ed75 28bc ee22 533d 2fed a2bd edd8 853c
00000090: b759 943c 2cb1 90bd faee 9a3d a74f 4abd
000000a0: 0e9f f7bc 4168 213d 9c9c 52bd b5ec 183d
000000b0: 26db 9b3d ec51 8abb c9b3 873c 7018 6cbd
000000c0: d560 47bd fbd0 31bc da64 7b3d 461e 903d
000000d0: d897 bd3d 8dd7 52bd 8470 32bd 1778 693d
000000e0: 1315 803d cbf1 cd3d 920d 993d a177 96bc
000000f0: 1315 9e3d 5f24 863d 8a9e 8abc 99c9 51bd
00000100: 8c00 6dbd 3cd6 8fbc 10ef 813d 1641 793c
00000110: c0c1 86bc 04d7 6fbc c061 c93d aa8f c53c
00000120: 0fb2 4abd ac19 1a3d e564 7ebd 3fa1 853d
00000130: a25a 64bd c1f9 4f3d 2686 1e3d b991 643d
00000140: 251e 91bc 1a6b 653d 6313 acbc e928 d23d
00000150: eafb 63bc 4782 99bd c8b3 62bc 87ac 293d
00000160: 3c29 783c 058a 4cbd 5778 8dbc f269 f43c
00000170: 81eb ae3a 5581 ca3d a24b e4bc 0247 a63c
00000180: f04d 45bd 852f c4bd 1c51 41bc 428b 8a3b
00000190: cc0f 923d f7df 8fbd 2926 67bd e97f 9cbc
000001a0: d554 d2bb 6535 753d be92 5d3d a5dd 95ba
000001b0: 8c62 1e3d ac83 a93d 606e b0bc 7fb6 8bbc
000001c0: acbe e73c 1105 28bd 66e9 8e3d d88f 9b3c
000001d0: 5020 c2bb de0f 67bc ed60 f73c c629 163d
000001e0: 64ee a5bd 8b54 b5bd cb61 613c d401 16bd
000001f0: 75a0 94bd ce91 d53c 924d 4a3d dc98 aabd
00000200: 7777 493c 3d82 9e3d 8d1f 513d c121 e83c
00000210: 596b b43c 679c 2cbd d04a 7e3d c976 5ebd
00000220: 373e 3c3b d039 10bd c4a1 9d3b fdfc a6bd
00000230: eddd babc 2849 bfbc 71d0 b43d 47ec b43c
00000240: 89ed c23c 29f9 fbba 10d3 bcbd aaef 9ebd
00000250: c2f0 313d b848 eb3d 7d4b 0cbd a8ae e2bc
00000260: 1fc4 1f3d 8d0e ae3d 897a 36bd 8d42 0abd
00000270: c5c0 89bd 5c0f c93c 2b13 3ebd 37e9 5bbb
00000280: 3225 a63d 0f8a 92bc f03a 18bd b6f1 83bd
00000290: f3b8 d03d f6c6 b63c 6503 663d 3651 8bbc
000002a0: 781b b1bc 992f 393d baf4 553d e417 2b3d
000002b0: 2fa1 8bbd cbed 83bc 5196 713a 8de2 973d
000002c0: 299c 3fbd 388e f9bb 501e 96bc 77a5 c23d
000002d0: 7c94 c73c 0c61 cd3d 9d6c 8fbd b40d 423d
000002e0: 3384 1abc 686a 78bd 269e 583d ee91 9dbd
000002f0: 36c7 5a3c bfef 0abd 44f9 4d3c 1484 0abd
00000300: 89fa 2ebd 745d 903d 289c 56bb 832c 423b
00000310: 248f a9bd 2c47 88bd 9fc3 e0bb 59a7 a73d
00000320: bf64 30bd 68bf d83d 89cb ee3c 547b 8c3d
00000330: c58f 913d 91a7 8abd 8505 ef3b bd38 c23d
00000340: 6142 86bc 5cf8 e3bc 5f19 dbbc dbad d3bd
00000350: 7857 c1bb cd3c 9bbc 5d2a 483d 915b 28bd
00000360: 9dd3 a7bd a8b3 b1bd 11e7 2abc c6ce cfbc
00000370: 2fcc 2d3d 2458 b5bd cb60 11bd ec83 2a3d
00000380: 4244 873b 1f55 a43d 170e a93c 965b 8cbd
00000390: e008 b33d 52b4 4abd 6e82 4d3d 7dac 903d
000003a0: 19be 863d d9bf 513d 708f 363c 34f5 98bd
000003b0: 1c9f 03bd 8172 a2bd 33d8 1e3d 34af 143d
000003c0: 423d ba3c ea65 ab3c 237a 0bbd 0ef1 bb3d
000003d0: 20d9 843c 930b ccbb 152f 1fbd 32a7 a2bd
000003e0: 34e1 47bd ccd9 b93d 4d20 04bd 605d e53c
000003f0: 7139 f5bc 08e5 2a3b 9904 853c 9011 11bc
-0.0066423225 0.011044986 0.09644755 0.07765243 0.013486427 0.08771512 -0.016434649 0.02999851
0.06109259 -0.08145644 -0.0720812 -0.043836683 -0.07244344 0.028403575 -0.0112270955 -0.025905946
-0.029830867 -0.09044476 -0.033646386 0.10388731 -0.028299632 -0.0041907798 -0.04108287 -0.04253542
0.08066347 -0.0023123128 -0.014013188 0.06984736 -0.020021386 0.045048803 -0.021666417 0.05479777
-0.010282022 0.051546983 -0.079553954 0.01633879 0.018109186 -0.07065043 0.075651124 -0.04939237
-0.03022721 0.039406065 -0.051418886 0.037335116 0.076101586 -0.0042211916 0.01656522 -0.057640493
-0.04867633 -0.0108530475 0.061375476 0.07037024 0.092574775 -0.051475096 -0.043564335 0.056999292
0.062540196 0.10055884 0.074732915 -0.01836759 0.07718863 0.06549906 -0.0169213 -0.05121765
-0.05786185 -0.01755821 0.06344426 0.015213272 -0.01644981 -0.014638666 0.098330975 0.024116356
-0.049486216 0.03762214 -0.06210794 0.06524896 -0.055750497 0.050775293 0.038702153 0.055803034
-0.01771457 0.056010343 -0.021005338 0.10261709 -0.013915041 -0.074955516 -0.0138368085 0.0414243
0.01514655 -0.049936313 -0.017269297 0.029835675 0.0013345332 0.098879494 -0.027868096 0.020297531
-0.04817003 -0.09579376 -0.011799123 0.0042280266 0.07131919 -0.0702514 -0.056432877 -0.019103961
-0.006418804 0.059865374 0.054095022 -0.0011433853 0.0386682 0.082770675 -0.021537006 -0.017054794
0.028289162 -0.041020457 0.06978111 0.018989488 -0.005924262 -0.014102904 0.030197585 0.036660932
-0.0810211 -0.08854016 0.013756226 -0.036622837 -0.07257167 0.026070502 0.049390383 -0.08329937
0.012296549 0.07739685 0.05105548 0.028336408 0.022023844 -0.042141344 0.062083066 -0.0543125
0.0028723606 -0.035211384 0.0048105437 -0.081537224 -0.0228109 -0.023350313 0.088288195 0.022085322
0.023794906 -0.0019224036 -0.092199445 -0.07760556 0.043442495 0.114884794 -0.03425168 -0.027671173
0.039005395 0.08498869 -0.044550452 -0.033754874 -0.06726221 0.024543457 -0.046405 -0.0033555755
0.08112563 -0.017888097 -0.037165582 -0.06442587 0.10191526 0.022311669 0.05615558 -0.017006498
-0.021619543 0.04521141 0.052235343 0.04177083 -0.06817853 -0.0161046 0.00092158193 0.07416258
-0.046779785 -0.0076158307 -0.018325001 0.09504216 0.024362795 0.10028276 -0.07003138 0.04737635
-0.009430933 -0.060648352 0.052885197 -0.076938495 0.01335316 -0.033920046 0.012571637 -0.033817366
-0.042719398 0.07049075 -0.0032746885 0.0029628582 -0.08279255 -0.066542 -0.0068592574 0.08186216
-0.04306483 0.10583383 0.029149788 0.068594605 0.071075 -0.06770242 0.007294359 0.09483478
-0.016389074 -0.027828388 -0.026745496 -0.10335895 -0.0059003197 -0.01894989 0.048868526 -0.04110295
-0.08194659 -0.08676845 -0.010431067 -0.025367152 0.042431053 -0.08854702 -0.0354927 0.041629717
0.00412801 0.08024048 0.020636601 -0.06853406 0.08741927 -0.049488373 0.050173216 0.070641495
0.06579227 0.05120835 0.011142597 -0.07468644 -0.03213416 -0.07931996 0.038780402 0.0362999
0.022734288 0.02092262 -0.034052026 0.09176837 0.016216815 -0.0062269657 -0.03886326 -0.07942046
-0.048798755 0.090747446 -0.032257367 0.027998626 -0.029934617 0.0026076455 0.016237544 -0.008854285

bias f4 [128]
00000000: e2c3 43bc e522 be3a 01ba f33c 2f69 6e3d
00000010: 8f5c ea3b d4f4 3ebc bbfa a6bd f027 273c
00000020: ad89 3c3d dab2 8abb b3a2 9d3d 4f83 0abd
00000030: 48cc 2bbd 4e91 773d d835 0abc 62b8 9b3d
00000040: 8e23 c43d 90ca 123d e79e bc3d d09d 1abc
00000050: cd90 693d 6f9d 7fbd df98 2e3c 72b0 12bd
00000060: 2e21 953d fb75 68bc fbf9 8e3d f3c9 f73b
00000070: cfb8 1e3d 5ab0 c93b a934 51bd bb7a 643d
00000080: f991 59bb 545d 30ba 7664 38bb f4e5 0bbd
00000090: 0163 6b3d c6e2 29bd b2b9 37bd 515a bfbc
000000a0: 7ed3 843d a2b4 75bd 1ef2 06bd 9f29 8e3c
000000b0: c739 e13b d63f 483b 8561 a03c effa 263d
000000c0: ac40 3abc cab1 673d faf6 32bd c616 2abd
000000d0: 4a4d 393c 9456 903d 13ed 46bd f550 5c3d
000000e0: 56da a23d 38c8 2abd cc7e 38bd 9141 5a3c
000000f0: b605 113d 7e19 b3bd 3426 523b 7007 bfbc
00000100: fce1 483c 10ef 873d d6e2 bd3d c32b 043c
00000110: f3c8 c0bc 842b 9d3d 5b6e 4e3d 1e2d 373d
00000120: 0f3e a63d 0e83 ab3d c791 ddbc b0ea 43bd
00000130: 53cb d6bb 3eb2 4c3d 4362 c13a 2dad 86bd
00000140: 99a4 23bd e5bf e0bc 2ff4 1ebd 7171 cebc
00000150: ef84 d4ba 5c4d 563d daff 283d 6f1a b43d
00000160: 617c 25bd f3e1 47bc 8f5d 723d d770 36bd
00000170: aa17 6abd ef49 2e3d b9d7 8cbc e3c2 abbd
00000180: b170 5fbd 02da 3b3d 8812 903c 440e 2dbc
00000190: 5698 2bbd c93e 533d 0989 ff3c 86ff 073d
000001a0: e6f0 283d cf4d febc 69cd 5f3c 0e13 0a3d
000001b0: 95eb 15bd f2c4 963d d35a a63d 832f 063c
000001c0: 9bd4 953d 66b2 1dbb b96c fb3c ac62 37bd
000001d0: 315b 723a 6e67 16bd bcf1 683d a9ec 23bd
000001e0: 25ff 07bb 2841 d33c 540f 63bc 2773 983d
000001f0: 0abf 4abd ac0c 58bd 869f 773c 8ca2 15bb
-0.011948558 0.0014506249 0.02975178 0.05820578 0.007152147 -0.011655051 -0.08153292 0.010202393
0.046029735 -0.0042327465 0.07697048 -0.033816632 -0.041942865 0.060441308 -0.008435689 0.076035276
0.09577094 0.03583771 0.09209996 -0.0094370395 0.05702286 -0.062406 0.0106565645 -0.035812803
0.07281719 -0.014188285 0.06981274 0.007561916 0.038750466 0.006155056 -0.05107561 0.055781107
-0.0033198579 -0.0006727774 -0.0028136051 -0.034154847 0.057467464 -0.041476034 -0.044854827 -0.023358496
0.064856514 -0.059986718 -0.032945745 0.01735383 0.0068733427 0.0030555627 0.019577751 0.040766653
-0.011367958 0.056566037 -0.043692566 -0.041525625 0.011309931 0.070477635 -0.048565935 0.053788144
0.079518005 -0.04169485 -0.045042798 0.013321296 0.035405837 -0.087450966 0.0032066228 -0.023318976
0.01226091 0.066373944 0.09271781 0.008067074 -0.02353332 0.076743156 0.050398212 0.04472076
0.081173055 0.08374606 -0.027047051 -0.047831237 -0.006555 0.049974672 0.0014754016 -0.065759994
-0.039951894 -0.027435252 -0.03880709 -0.025200577 -0.0016213934 0.05231987 0.041259624 0.08794104
-0.04040182 -0.012199867 0.059171256 -0.044541206 -0.057151474 0.042550977 -0.017192708 -0.08386781
-0.05455083 0.045862205 0.017586961 -0.010562483 -0.041893326 0.05157355 0.031193273 0.03320267
0.041245364 -0.031042961 0.013659813 0.03370958 -0.03660162 0.07361783 0.08122792 0.008190039
0.07315942 -0.0024062633 0.030691491 -0.044771835 0.0009245156 -0.036719732 0.05687116 -0.04002062
-0.0020751443 0.025787905 -0.013858635 0.074438386 -0.049498595 -0.05274646 0.015113717 -0.0022832481
