models/agModels-predicttop10_votes/models/NeuralNetFastAI_BAG_L1/S3F1/model-internals.pkl (torch, 194126 bytes, 23 tensors)

weight f4 [4, 3]
-0.008562922 0.011001128 -0.0107070925 0.017290004 0.0025761009 0.026325647 -0.025021266 -0.011898689
0.0041842996 -0.010210566 -0.005127143 -0.013166172
00000000: 7f4b 0cbc 133e 343c cd6c 2fbc c4a3 8d3c
00000010: cdd3 283b e2a8 d73c 66f9 ccbc b8f2 42bc
00000020: 731c 893b 384a 27bc 9801 a8bb eeb6 57bc

weight f4 [6, 4]
-3.3023975e-05 -0.0053420207 0.011681662 0.0039432663 -0.002278097 0.024455331 -0.024225067 0.013143841
0.00239139 -0.013802198 -0.014503118 -0.010880792 0.033034276 -0.011164012 0.0029776855 -0.021638425
-0.019430501 0.010125369 0.01668693 0.01785816 0.020795345 0.010168955 0.020468911 -0.008400282
00000000: 3983 0ab8 1e0c afbb 7164 3f3c 8436 813b
00000010: 204c 15bb 8c56 c83c a673 c6bc 4459 573c
00000020: deb8 1c3b 9d22 62bc 7c9e 6dbc 5945 32bc
00000030: f34e 073d 43e9 36bc 4625 433b 1143 b1bc
00000040: b72c 9fbc e0e4 253c 07b3 883c 474b 923c
00000050: 005b aa3c b09b 263c 6bae a73c 56a1 09bc

weight f4 [6, 4]
-0.0029925087 -0.0018769425 0.019150425 0.006898873 0.0021241067 -0.0050571896 -0.020934524 -0.00733304
-0.008711742 0.014882851 -0.0055009704 -0.008557871 -0.014840025 0.0061312425 -0.015031353 0.007881404
0.0005184227 -0.014518583 0.031394765 0.024039568 -0.0027139408 -0.031253256 -0.019324092 -0.0131165115
00000000: f71d 44bb bd03 f6ba 5ae1 9c3c f10f e23b
00000010: 9934 0b3b c8b6 a5bb e17e abbc ff49 f0bb
00000020: b2bb 0ebc 34d7 733c 7c41 b4bb 5036 0cbc
00000030: 9423 73bc 97e8 c83b 1046 76bc 0121 013c
00000040: c2e6 073a 5adf 6dbc cc97 003d a1ee c43c
00000050: 5fdc 31bb 6a03 00bd 8f4d 9ebc a3e6 56bc

weight f4 [6, 4]
0.011881484 -0.0015743703 -0.00045518266 0.00648184 0.012273294 0.007444768 -0.019653045 -0.0057986965
0.023005912 -0.026647048 -0.018256305 0.019248005 0.015213886 0.0019399298 0.00928492 0.0019010352
-0.02780075 0.03298641 0.024109418 -0.013615333 -0.0074857986 0.008547079 0.024606956 -0.008100145
00000000: 8eaa 423c 1a5b ceba 95a5 eeb9 9d65 d43b
00000010: ed15 493c 3ef3 f33b 6cff a0bc fe02 bebb
00000020: e576 bc3c e94a dabc 3f8e 95bc fead 9d3c
00000030: aa43 793c 3e45 fe3a c71f 183c 282c f93a
00000040: 66be e3bc c21c 073d 1d81 c53c d812 5fbc
00000050: 6e4b f5bb 0c09 0c3c 8794 c93c 78b6 04bc

weight f4 [6, 4]
0.0116795525 0.0077002756 0.003905008 0.0028945904 0.0080825025 -0.0025403786 -0.009732857 0.008151964
-0.021504184 0.017937042 0.00474569 0.0007536232 0.009080164 0.04291275 0.003238941 0.0063197333
0.03235692 0.0026089211 0.015989657 0.009709226 -0.024200335 0.015502947 -0.021343958 0.02216796
00000000: 985b 3f3c 9852 fc3b 2aeb 7f3b 2bb3 3d3b
00000010: 796c 043c 7b7c 26bb 9076 1fbc d18f 053c
00000020: 8b29 b0bc b4f0 923c bc81 9b3b cc8e 453a
00000030: f8c4 143c 48c5 2f3d 6a44 543b c415 cf3b
00000040: b188 043d 6ffa 2a3b befc 823c 7213 1f3c
00000050: c83f c6bc 1300 7e3c 86d9 aebc 9599 b53c

weight f4 [6, 4]
-0.0057506934 -0.0143189235 -0.0066587767 0.01016984 -0.012731114 -0.01397631 -0.027534485 -0.013576473
-0.010641547 -0.001075337 0.012279879 0.010737309 -0.011323687 0.024383724 0.007915268 0.017562024
0.014975374 -0.009052903 -0.013720983 -0.027071707 0.024068726 0.02727358 0.042093024 0.014291904
00000000: 5070 bcbb eb99 6abc de31 dabb 679f 263c
00000010: 2a96 50bc e5fc 64bc 0090 e1bc db6f 5ebc
00000020: e259 2ebc 52f2 8cba 8c31 493c 8aeb 2f3c
00000030: fc86 39bc 60c0 c73c 0aaf 013c 3cde 8f3c
00000040: 455b 753c a152 14bc f9cd 60bc 7cc5 ddbc
00000050: c72b c53c d86c df3c bc69 2c3d 9728 6a3c

weight f4 [25, 10]
-0.015539406 0.008053787 0.01965174 -0.0062171146 0.017451933 0.0063469904 0.021703895 -0.022188477
0.0019404849 4.932983e-05 -0.010897625 -0.026136769 0.014662253 0.013481952 0.018690625 0.02537097
-0.02133866 0.034116317 -0.00530082 0.00663305 0.029122494 0.0071372436 -0.015248006 0.003439337
0.0060323877 0.006249778 0.007945359 -0.014267528 -0.00092301203 0.023005405 -0.010641709 -0.002296067
-0.018063247 -0.00556818 -0.0022695495 0.006572119 -0.0011822823 0.006758654 -0.018087378 0.0069225496
-0.0014631127 -0.009702312 -0.01336672 0.015557137 -0.0165818 -0.0071364795 0.0005977498 0.021539332
-0.01269682 0.004716507 -0.00070920226 -0.011616221 -0.008491002 -0.0068735713 0.010202287 -0.005872761
-0.012032431 0.00384946 -0.02877054 -0.006707761 -0.02766694 0.007069643 0.006988856 0.026843226
-0.021650568 0.024409879 -0.004745238 -0.02111265 -0.02246445 -0.011344863 0.017972967 -0.0242329
-0.0026465165 -0.00050546124 0.007052078 -0.017817426 0.0038114297 -0.005467892 -0.0016708396 0.00026654475
-0.015332978 0.0012871992 -0.005071873 0.014647521 -0.005261402 -0.017791027 0.00914992 -0.029081909
0.019099006 -0.007324328 0.01466576 0.0015044468 -0.02284554 0.03981569 -0.03652304 -0.028314222
0.0132175535 -0.016577465 0.045343585 -0.026259258 0.0035693718 0.00052948284 0.025734978 -0.05061158
0.020846136 0.02391773 -0.03018643 0.037555538 -0.03719859 0.032740384 0.013011657 -0.010515239
0.028937537 -0.018740488 -0.015799189 -0.020152511 -0.03298417 -0.0023150824 -0.016074708 0.0067080706
0.022410324 0.0028534133 -0.020833276 0.0072530042 0.020897504 0.00859453 0.009686781 -0.013726769
0.010330282 0.018995691 0.009533539 0.011840337 -0.015736248 0.011587815 -0.0052317632 -0.0031352674
0.004831804 -0.03322338 0.03598899 0.020836383 -0.022724802 0.022148073 -0.00402555 0.023286102
-0.027093036 -0.008683302 -0.039762855 -0.0012821443 -0.027213687 -0.0071245325 0.018332873 0.0066673746
0.013922638 0.030870833 -0.019242657 -0.02666972 0.007949161 0.0017776076 0.015795788 -0.019390017
0.018810524 -0.0057128402 0.021665925 -0.021967335 0.026549116 0.043983027 -0.02989414 0.007918659
-0.023966255 0.02881822 0.0098507125 -0.019059785 -0.0014016234 0.03601975 -0.0018884239 -0.005868917
0.019018637 -0.0015008526 0.014307132 0.015732024 0.020332739 -0.0006076649 -0.010610936 0.0055229813
-0.007067536 -0.0076699923 0.008955798 -0.010920708 0.0023443766 0.0006977754 -0.019474765 -0.01293279
0.02299197 -0.026988672 0.0320301 0.02789028 -0.027580325 0.005036205 -0.008552989 0.040540777
0.0050123637 0.0081443535 -0.0003770782 0.018847145 -0.025558744 -0.011074804 -0.0008245971 0.017832156
0.029232286 0.005860279 0.024311744 0.01761274 0.013774129 -0.0073790117 0.033290923 0.01950685
-0.012618201 -0.02351165 -0.01676011 -0.020957645 -0.017143495 0.008140568 -0.01193442 0.028392786
0.0014122115 -0.01716546 0.015893292 -0.0154647585 0.027312022 -0.025839698 0.005654105 0.013558152
-0.008245647 0.015753543 -0.024351683 0.013072631 0.010333994 -0.022752427 -0.004338613 0.028107964
0.025875295 -0.00809313 -0.005095708 -0.019828167 0.012039263 -0.017579867 -0.03200758 -0.00283497
-0.011948576 -0.01891016
00000000: fe98 7ebc 08f4 033c b0fc a03c f0b8 cbbb
00000010: 5bf7 8e3c 6afa cf3b 5ecc b13c 9cc4 b5bc
00000020: de57 fe3a 80e7 4e38 f48b 32bc c71c d6bc
00000030: f239 703c 68e3 5c3c 151d 993c c8d6 cf3c
00000040: 6ace aebc 8dbd 0b3d 80b2 adbb 0e5a d93b
00000050: 4c92 ee3c 8adf e93b c6d2 79bc 8066 613b
00000060: 56ab c53b f0ca cc3b 402d 023c 5ac2 69bc
00000070: 4af6 71ba d575 bc3c 905a 2ebc 9d79 16bb
00000080: 60f9 93bc 4775 b6bb b9bc 14bb ee5a d73b
00000090: d0f6 9aba b377 dd3b fb2b 94bc 8ed6 e23b
000000a0: eac5 bfba 72f6 1ebc 1600 5bbc 5de3 7e3c
000000b0: 8ed6 87bc 21d9 e9bb 4fb2 1c3a 4173 b03c
000000c0: 5306 50bc ee8c 9a3b c2e9 39ba f651 3ebc
000000d0: d81d 0bbc b23b e1bb 7e27 273c 4a70 c0bb
000000e0: ac23 45bc 3947 7c3b 32b0 ebbc c7cc dbbb
000000f0: c7a5 e2bc 77a8 e73b c602 e53b 53e6 db3c
00000100: 885c b1bc 3af7 c73c f17d 9bbb 70f4 acbc
00000110: 5e07 b8bc cedf 39bc 0b3c 933c 1384 c6bc
00000120: 2e71 2dbb ee80 04ba 1e15 e73b daf5 91bc
00000130: 2ec9 793b 012c b3bb 1300 dbba 08bf 8b39
00000140: 2c37 7bbc 3db7 a83a f431 a6bb 28fc 6f3c
00000150: d767 acbb 7dbe 91bc 8ce9 153c 2f3d eebc
00000160: 8575 9c3c eb00 f0bb a848 703c dc30 c53a
00000170: 9226 bbbc c715 233d 2f99 15bd 3af3 e7bc
00000180: 708e 583c 77cd 87bc 32ba 393d a81d d7bc
00000190: 1fec 693b fecc 0a3a 29d2 d23c 174e 4fbd
000001a0: 84c5 aa3c 1eef c33c 8849 f7bc d6d3 193d
000001b0: 8c5d 18bd c81a 063d d82e 553c 1c48 2cbc
000001c0: 6a0e ed3c a785 99bc 4d6d 81bc e116 a5bc
000001d0: 691a 07bd a3b8 17bb 1baf 83bc 60cf db3b
000001e0: db95 b73c 5500 3b3b 8caa aabc 9caa ed3b
000001f0: 3e31 ab3c 12d0 0c3c 4eb5 1e3c 3ee6 60bc
00000200: 5840 293c da9c 9b3c 9032 1c3c f9fd 413c
00000210: 4ee9 80bc d2da 3d3c 366f abbb 0f79 4dbb
00000220: 1c54 9e3b 3d15 08bd 3169 133d 10b1 aa3c
00000230: 5d29 babc e06f b53c c3e8 83bb 7fc2 be3c
00000240: 37f2 ddbc 6944 0ebc 60de 22bd a00d a8ba
00000250: 3def debc e974 e9bb d22e 963c fe79 da3b
00000260: c71b 643c d4e4 fc3c c7a2 9dbc 757a dabc
00000270: 333d 023c 9dfe e83a 2b66 813c d0d7 9ebc
00000280: 8718 9a3c c732 bbbb bd7c b13c d7f4 b3bc
00000290: 887d d93c 8c27 343d 8ee4 f4bc 43bd 013c
000002a0: e154 c4bc 3014 ec3c e264 213c 4423 9cbc
000002b0: adb6 b7ba 7289 133d fe84 f7ba 0b50 c0bb
000002c0: f9cc 9b3c 42b8 c4ba 7668 6a3c 72e0 803c
000002d0: d890 a63c b34b 1fba 7ed9 2dbc 20fa b43b
000002e0: ca96 e7bb 8f54 fbbb 57bb 123c c5ec 32bc
000002f0: 1da4 193b eaea 363a 8b89 9fbc 0ee4 53bc
00000300: a859 bc3c 5917 ddbc fe31 033d 287a e43c
00000310: 22f0 e1bc c006 a53b d621 0cbc 160e 263d
00000320: c13e a43b e56f 053c 94b2 c5b9 5465 9a3c
00000330: 9260 d1bc 1873 35bc c629 58ba be14 923c
00000340: 8c78 ef3c 9507 c03b 6c29 c73c 9848 903c
00000350: e2ac 613c a3cb f1bb 105c 083d d4cc 9f3c
00000360: 92bc 4ebc 819b c0bc 804c 89bc 5eaf abbc
00000370: 8470 8cbc 0460 053c 9688 43bc fd97 e83c
00000380: f419 b93a 949e 8cbc a632 823c e65f 7dbc
00000390: 76bd df3c c6ad d3bc 1246 b93b 0323 5e3c
000003a0: c018 07bc 930d 813c 2e7d c7bc 972e 563c
000003b0: ea4f 293c 4c63 babc ec2a 8ebb ac42 e63c
000003c0: 6df8 d33c 0c99 04bc e6f9 a6bb ae6e a2bc
000003d0: 5440 453c a703 90bc 611a 03bd e7ca 39bb
000003e0: f6c3 43bc 7be9 9abc

weight f4 [44]
0.9911024 1.021823 1.0126916 1.0035077 0.99103165 1.0260704 0.9855926 1.0166548
0.98304725 1.0133938 0.99389666 1.0067984 1.0103261 0.994981 0.98027045 0.99114734
1.0168059 0.9808833 1.0002736 1.0026203 1.001095 1.0114602 0.9904575 0.9873739
0.9913678 0.9777957 1.0110148 0.98373765 1.0167183 1.005772 0.98632634 1.0019534
1.0036079 1.0002118 0.99696606 1.001059 0.9803134 1.0076334 1.008416 1.0108901
1.0172831 0.9930008 0.9791932 1.0162561
00000000: e3b8 7d3f 19cb 823f e19f 813f f172 803f
00000010: 40b4 7d3f 4656 833f cc4f 7c3f bf21 823f
00000020: fca8 7b3f e3b6 813f 0370 7e3f c5de 803f
00000030: 5e52 813f 13b7 7e3f 01f3 7a3f d5bb 7d3f
00000040: b226 823f 2b1b 7b3f f708 803f dd55 803f
00000050: e223 803f 8777 813f 9f8e 7d3f 89c4 7c3f
00000060: 48ca 7d3f d250 7a3f ef68 813f 3bd6 7b3f
00000070: d323 823f 23bd 803f e27f 7c3f 0240 803f
00000080: 3976 803f f106 803f 2b39 7f3f b422 803f
00000090: d2f5 7a3f 22fa 803f c713 813f d964 813f
000000a0: 5536 823f 4d35 7e3f 68ac 7a3f ae14 823f

bias f4 [44]
-0.012218001 -0.02117121 -0.003831913 -0.0025704997 0.0060805585 0.0076279636 -0.006588009 0.016335784
0.018954158 -0.0047528706 -0.01201631 -0.016301496 0.012830113 -0.013521512 0.0022961947 -0.0006283361
-0.005910986 0.005420787 -0.020367958 0.010799824 0.02178408 0.022626624 -0.014832569 0.01393031
-0.02167588 -0.000803686 0.016333656 -0.0053743348 0.0067073824 -0.0020287486 0.0036068324 -0.02093322
-0.0002988467 -0.025741493 0.013913618 0.016007029 -0.007446013 0.02410594 -0.018039007 -0.0072909887
0.009678736 -0.0064221984 -0.0036043194 -0.016214853
00000000: 032e 48bc 3f6f adbc d520 7bbb d475 28bb
00000010: 6c3f c73b fff3 f93b 3ae0 d7bb 9fd2 853c
00000020: c045 9b3c f8bd 9bbb 0fe0 44bc b78a 85bc
00000030: 6535 523c 5589 5dbc c17b 163b ecb6 24ba
00000040: f2b0 c1bb dba0 b13b b4da a6bc bff1 303c
00000050: 8774 b23c 785b b93c 4e04 73bc f43b 643c
00000060: 9d91 b1bc 74ae 52ba 29ce 853c 301b b0bb
00000070: 9ac9 db3b c1f4 04bb 9b60 6c3b 257c abbc
00000080: 86ae 9cb9 d3df d2bc f2f5 633c 2c21 833c
00000090: affd f3bb d279 c53c 8ac6 93bc 3fe9 eebb
000000a0: 9093 1e3c 4e71 d2bb 7236 6cbb 03d5 84bc

running_mean f4 [44]
-0.0037635514 0.0034231415 -0.0047806404 -0.0017422881 -0.0010922215 0.0033211727 0.003959666 0.004659693
0.0020059424 0.0017653302 0.00526123 0.0047302134 -0.007181301 0.003543515 0.0016921152 0.0019287823
-0.0044403546 -0.0015973641 -0.0030906084 0.008500507 0.0011030539 -0.002583631 -0.00338166 0.00252183
0.0008524796 -0.0030906084 0.0016225479 -0.00923906 -1.59911e-05 -0.0065014195 -0.007323784 0.0043746787
-0.0048705237 0.0016681557 -0.0011426259 0.0014857673 0.00023832245 0.00015800446 -4.1340572e-05 -0.0044805873
-0.002389127 -0.005230132 -0.00427095 -0.00048242917
00000000: eaa5 76bb c956 603b eba6 9cbb 7d5d e4ba
00000010: df28 8fba 08a8 593b 16c0 813b 57b0 983b
00000020: 2176 033b a762 e73a 6566 ac3b e8ff 9a3b
00000030: 1e51 ebbb 513a 683b f7c9 dd3a 32cf fc3a
00000040: 6580 91bb a55e d1ba ce8b 4abb b645 0b3c
00000050: 5994 903a 2352 29bb d79e 5dbb 4945 253b
00000060: f078 5f3a ce8b 4abb acab d43a 6d5f 17bc
00000070: a024 86b7 dc09 d5bb 5afc efbb 7759 8f3b
00000080: ea98 9fbb 04a6 da3a 2ac4 95ba 14be c23a
00000090: 32e6 7939 00ae 2539 1a65 2db8 e4d1 92bb
000000a0: e692 1cbb 8761 abbb 53f3 8bbb 8cee fcb9

running_var f4 [44]
1.0015131 1.0091728 0.99450475 0.9928743 0.9942323 1.0074792 0.87409616 0.9932695
0.5629574 0.5627845 0.5724749 0.57965803 0.5554152 0.5655177 0.5607829 0.55932134
0.5420518 0.5510015 0.53759915 0.6064387 0.56429684 0.5475662 0.52817076 0.5686256
0.561055 0.53759915 0.5666535 0.5101742 0.5589486 1.0070522 1.0055449 1.0125296
1.001023 0.99731743 0.9946904 1.0218728 1.007642 1.0019896 0.9962981 0.9850013
1.0007571 0.99130964 0.97354823 0.9975485
00000000: 9531 803f 932c 813f dd97 7e3f 032d 7e3f
00000010: 0286 7e3f 14f5 803f c4c4 5f3f e946 7e3f
00000020: fa1d 103f a512 103f b78d 123f 7864 143f
00000030: b12f 0e3f c5c5 103f 788f 0f3f af2f 0f3f
00000040: e8c3 0a3f 6f0e 0d3f 19a0 093f 913f 1b3f
00000050: c275 103f 4c2d 0c3f 3336 073f 7391 113f
00000060: 4da1 0f3f 19a0 093f 3410 113f c79a 023f
00000070: 4117 0f3f 16e7 803f b2b5 803f 929a 813f
00000080: 8621 803f 3250 7f3f 08a4 7e3f bacc 823f
00000090: 6afa 803f 3241 803f 640d 7f3f 0c29 7c3f
000000a0: cf18 803f 78c6 7d3f 753a 793f 575f 7f3f

weight f4 [200, 77]
-0.044101123 -0.10921146 0.011379413 -0.047087036 0.029937705 -0.07540146 -0.0778834 -0.004545625
-0.04805234 0.06976153 0.002478133 0.07990693 0.011682936 -0.030558638 0.079254545 -0.008606227
0.010535499 -0.04984726 0.0130296275 -0.015244887 -0.014709017 -0.09849513 -0.0011712234 -0.110338315
-0.01604268 0.06308223 -0.08158698 -0.084830195 -0.032546997 -0.03498584 0.0044766525 0.035549946
0.060909487 -0.095272794 -0.02365587 0.04056614 0.07564411 -0.0307499 -0.061274912 0.011593837
0.055367548 -0.065385826 -0.074936606 0.039701957 -0.012988754 -0.12293909 -0.076687396 0.033599306
-0.02032194 0.07746307 0.09696799 0.0119807925 -0.02411646 -0.03073113 -0.026549332 0.013540851
-0.08617592 -0.019862898 -0.09950104 0.09443875 -0.057167947 0.110736065 -0.045732692 -0.081027955
0.044197932 0.02321769 0.07367851 0.061224375 -0.10719893 0.07139443 -0.037170034 -0.045848664
0.059361074 0.06957719 -0.09972648 0.0033867368 0.109732196 0.03501352 0.09905565 -0.04780157
-0.08756883 0.102690265 0.059725 0.12976225 -0.0411351 -0.05902524 -0.013325019 -0.08801914
0.038017847 0.09685722 0.02558538 -0.02611145 0.07839551 -0.086202376 0.120039746 -0.13058281
-0.109521575 -0.041063372 0.08330838 -0.0059210295 0.04051794 -0.0704659 0.030333085 -0.013523091
0.05168341 0.06950827 0.04360128 -0.019709684 -0.0017866725 -0.07963902 -0.02905772 0.08577921
-0.043757554 0.06606783 -0.044170965 -0.045243584 -0.019841108 -0.09026263 0.007216312 -0.0094749145
-0.015815528 -0.019284088 0.073611245 0.090288736 -0.075772114 0.05770005 -0.08192091 -0.0845141
0.036694296 0.008616041 -0.04306229 -0.097409785 -0.05092974 0.045662247 -0.11004639 -0.10905956
0.035457294 -0.08522842 -0.09938115 -0.02737403 0.0023219027 -0.124982886 -0.05380409 -0.006862631
-0.12572038 -0.017730506 -0.06988905 -0.0858374 0.025625607 -0.07746688 -0.07661112 0.08321331
0.0008749729 0.08088617 -0.013702204 -0.041202478 -0.0042796466 0.006798867 0.09938962 -0.1132753
-2.4366658e-05 0.051103417 -0.069357514 -0.065845184 0.05374623 -0.116759144 0.018568885 -0.08112939
0.05700694 -0.11377276 0.080404446 -0.119460166 -0.08619245 0.0039271875 0.09865117 -0.08203528
-0.043328155 0.11570315 -0.015017425 0.045134448 -0.10769341 -0.031512175 -0.06320207 0.08583979
0.05930729 -0.087977216 0.0019560675 0.002769241 -0.045911264 -0.077223346 -0.053187262 0.0770495
-0.07786071 -0.077278234 -0.025762033 0.024996947 0.028426139 0.0039492254 -0.047364034 -0.049213614
-0.01232469 -0.05356619 0.072909154 -0.12324128 -0.08405495 -0.083706744 -0.018336687 0.09996813
0.093487635 -0.09399207 -0.009705425 0.049484078 0.059151247 0.0999076 -0.012603787 -0.059261248
0.0662138 -0.05283654 0.043652575 -0.02654829 0.0567152 0.105029516 0.110131845 -0.10589654
-0.09442016 -0.061857827 -0.083607845 0.10197968 -0.023521041 -0.07731769 -0.050058752 -0.05808298
0.056799132 -0.10903314 -0.10362307 -0.111341804 0.04086744 0.05600005 -0.055740714 0.01753356
0.084164396 0.012013576 -0.018518044 0.013056205 -0.019829795 0.052226808 -0.07302185 0.05629987
0.055588543 -0.06488645 0.0868697 0.10962334 -0.03100238 -0.025563229 0.044329017 -0.094223045
00000000: 61a3 34bd 42aa dfbd b870 3a3c 56de 40bd
00000010: eb3f f53c 156c 9abd 5581 9fbd 77f3 94bb
00000020: 88d2 44bd 22df 8e3d 2c68 223b 3fa6 a33d
00000030: c969 3f3c 1c56 fabc 3550 a23d 2201 0dbc
00000040: 169d 2c3c a42c 4cbd 387a 553c b1c5 79bc
00000050: 17fe 70bc d1b7 c9bd bc83 99ba 0ef9 e1bd
00000060: f06b 83bc 4231 813d 1317 a7bd 74bb adbd
00000070: 0050 05bd 504d 0fbd e2b0 923b d29c 113d
00000080: 3a7c 793d 621e c3bd f5c9 c1bc ae28 263d
00000090: 4deb 9a3d 37e7 fbbc 67fb 7abd 14f4 3d3c
000000a0: 15c9 623d 01e9 85bd 5d78 99bd 859e 223d
000000b0: c8ce 54bc 7dc7 fbbd 480e 9dbd 6d9f 093d
000000c0: 327a a6bc f5a4 9e3d 2797 c63d 164b 443c
000000d0: e28f c5bc dabf fbbc fc7d d9bc 72da 5d3c
000000e0: 007d b0bd 84b7 a2bc 34c7 cbbd 1a69 c13d
000000f0: f028 6abd 97c9 e23d 3452 3bbd fcf1 a5bd
00000100: e408 353d 0633 be3c c2e4 963d 69c6 7a3d
00000110: 1d8b dbbd 3e37 923d 9b3f 18bd cfcb 3bbd
00000120: 9924 733d 7c7e 8e3d 663d ccbd 04f4 5d3b
00000130: 46bb e03d 566a 0f3d b0dd ca3d 94cb 43bd
00000140: 4957 b3bd 464f d23d 34a2 743d 65e0 043e
00000150: 477d 28bd 73c4 71bd 2e51 5abc 6143 b4bd
00000160: 9ab8 1b3d 145d c63d 6e98 d13c aee7 d5bc
00000170: d38d a03d df8a b0bd 66d7 f53d 80b7 05be
00000180: d94c e0bd 1132 28bd 959d aa3d 3205 c2bb
00000190: 24f6 253d 6d50 90bd 177d f83c f48f 5dbc
000001a0: fcb1 533d 5a5a 8e3d 4197 323d 3476 a1bc
000001b0: c82e eaba c819 a3bd 750a eebc 03ad af3d
000001c0: 1f3b 33bd 924e 873d 9dec 34bd 5651 39bd
000001d0: d289 a2bc 9ddb b8bd d076 ec3b ac3c 1bbc
000001e0: 918f 81bc aaf9 9dbc 7ec1 963d 4de9 b83d
000001f0: 692e 9bbd e356 6c3d 26c6 a7bd ba15 adbd
00000200: c24c 163d 4c2a 0d3c 1562 30bd c87e c7bd
00000210: b49b 50bd 5608 3b3d 0060 e1bd 9e5a dfbd
00000220: ab3b 113d 3d8c aebd 5888 cbbd 803f e0bc
00000230: 102b 183b 07f7 ffbd ad61 5cbd ecdf e0bb
00000240: d8bc 00be 913f 91bc fe21 8fbd 85cb afbd
00000250: cbec d13c f5a6 9ebd 4ae6 9cbd bd6b aa3d
00000260: 705e 653a a6a7 a53d 367f 60bc eec3 28bd
00000270: 473c 8cbb 08c9 de3b c98c cb3d e1fc e7bd
00000280: 0067 ccb7 d151 513d 500b 8ebd d7d9 86bd
00000290: 0225 5c3d 6b1f efbd c61d 983c 2a27 a6bd
000002a0: 1c80 693d b101 e9bd 16ab a43d 88a7 f4bd
000002b0: ab85 b0bd a3af 803b a009 ca3d 1d02 a8bd
000002c0: dd78 31bd c6f5 ec3d a50b 76bc e6de 383d
000002d0: 5d8e dcbd e912 01bd 1670 81bd c6cc af3d
000002e0: 33ec 723d 662d b4bd 5e31 003b 287c 353b
000002f0: 730d 3cbd 4627 9ebd e3da 59bd 21cc 9d3d
00000300: 7075 9fbd 0d44 9ebd e60a d3bc 66c6 cc3c
00000310: efdd e83c 8168 813b ca00 42bd 3794 49bd
00000320: 7fed 49bc 3968 5bbd 6551 953d ed65 fcbd
00000330: 0025 acbd 716e abbd d236 96bc 17bc cc3d
00000340: 7276 bf3d ea7e c0bd 8103 1fbc d1af 4a3d
00000350: 9448 723d 5b9c cc3d 1d80 4ebc ecbb 72bd
00000360: 1a9b 873d 216b 58bd 0bcd 323d cd7b d9bc
00000370: 334e 683d b719 d73d ce8c e13d 49e0 d8bd
00000380: 5b5f c1bd a25e 7dbd 973a abbd b9da d03d
00000390: 33af c0bc bd58 9ebd 680a 4dbd 6be8 6dbd
000003a0: 35a6 683d c44c dfbd 5538 d4bd 2c07 e4bd
000003b0: 9e64 273d 4f60 653d 6050 64bd 8aa2 8f3c
000003c0: 625e ac3d 97d4 443c 27b3 97bc b1e9 553c
000003d0: 1872 a2bc c7eb 553d 7b8c 95bd b19a 663d
000003e0: d0b0 633d 30e3 84bd bee8 b13d 3482 e03d
000003f0: b4f8 fdbc fa69 d1bc 5892 353d 03f8 c0bd

weight f4 [200]
0.9843072 1.0123698 0.9933924 1.0047396 0.9874295 0.9883734 0.9939912 0.99607724
1.0108751 0.9928778 0.98448104 1.0005354 0.99767554 1.0053749 0.97920936 0.9996575
0.9895964 1.0164946 0.9845643 0.9895938 1.0106804 1.0035285 0.9963445 1.007882
0.991631 0.9818337 0.9835337 0.978559 1.0157882 1.0163221 1.0087341 0.9963593
1.0193251 0.98652095 1.0070698 0.9947607 1.0112402 1.0142701 0.98862094 0.98815125
0.99147296 1.0007262 1.0129784 0.985154 0.9842242 1.016728 0.98678744 1.0115758
0.9989041 1.0145918 0.9966022 1.0100663 1.0119063 1.0015135 0.9881884 1.0068568
0.98671055 1.0012157 0.98884124 1.0168588 1.0026728 1.0192907 1.0099188 1.0068951
0.9958532 0.9967466 0.99632674 0.9799151 1.0021595 1.0076785 0.98513675 1.0089592
0.99135727 1.0016046 1.001971 0.9999835 0.9951878 1.0122275 1.0082033 0.9906795
0.99659985 0.98780763 1.0080676 0.98218644 0.9893318 1.0138315 0.9988918 0.9902017
0.994113 1.0053124 1.0030451 1.0222121 1.0064967 1.0050272 0.9950372 1.0082232
0.9884071 1.0201448 1.0151093 0.99182 0.98347825 0.99573076 0.99717134 1.00615
1.0191425 0.9988816 0.99436975 0.99865466 0.9798632 0.9876637 1.0095239 0.9922077
1.0009346 1.0097127 1.0077795 1.0013701 1.0127532 0.9887412 0.99503756 1.0139276
1.0155779 0.9785654 0.9987988 1.010643 1.0161871 0.99915034 1.008295 0.99643856
1.0084224 1.0162255 1.0185333 0.98156816 1.0152785 0.97966963 0.9877621 0.99814063
0.99902034 1.0021288 0.9834084 1.0196515 1.001808 0.9905803 0.97717524 1.0054231
1.0109556 0.9987945 1.0041993 1.0029672 1.0195165 1.0086226 1.0083178 1.0106924
1.0092468 1.0189109 0.98449576 0.981617 0.9903028 0.98313296 0.993089 0.9809163
1.004716 0.998514 1.0188664 1.0141183 1.0047405 0.99242854 1.0049522 0.98951846
0.99873096 1.0155281 1.0044225 0.9887183 1.0110857 1.0009164 1.0023494 0.99701613
1.0236052 0.99674284 1.0008688 1.0189575 0.99945647 0.9976905 1.0021443 0.9961686
1.0124446 1.0025529 1.007135 0.9884165 1.0180118 0.9995663 0.98292106 0.99838936
0.9793605 0.9855741 1.0021918 1.0018768 1.0049793 1.012632 1.0099299 1.0090444
00000000: 8ffb 7b3f 5595 813f f74e 7e3f 4f9b 803f
00000010: 2ec8 7c3f 0a06 7d3f 3576 7e3f ebfe 7e3f
00000020: 5b64 813f 3d2d 7e3f f306 7c3f 8b11 803f
00000030: aa67 7f3f 20b0 803f 77ad 7a3f 8ee9 7f3f
00000040: 3156 7d3f 7f1c 823f 680c 7c3f 0556 7d3f
00000050: fa5d 813f 9f73 803f 6f10 7f3f 4702 813f
00000060: 87db 7d3f 7459 7b3f ddc8 7b3f d882 7a3f
00000070: 5905 823f d816 823f 331e 813f 6711 7f3f
00000080: 3f79 823f a38c 7c3f aae7 803f a3a8 7e3f
00000090: 5270 813f 9ad3 813f 4316 7d3f 7bf7 7c3f
000000a0: 2cd1 7d3f cc17 803f 47a9 813f 0d33 7c3f
000000b0: 1ef6 7b3f 2524 823f 1a9e 7c3f 517b 813f
000000c0: 2eb8 7f3f 25de 813f 5221 7f3f da49 813f
000000d0: 2586 813f 9831 803f eaf9 7c3f afe0 803f
000000e0: 1099 7c3f d627 803f b324 7d3f 6e28 823f
000000f0: 9557 803f 1e78 823f 0545 813f f0e1 803f
00000100: 3cf0 7e3f c92a 7f3f 450f 7f3f b7db 7a3f
00000110: c346 803f 9cfb 803f ec31 7c3f 9325 813f
00000120: 97c9 7d3f 9434 803f 9640 803f ebfe 7f3f
00000130: a1c4 7e3f ac90 813f ce0c 813f 2c9d 7d3f
00000140: 2b21 7f3f f6e0 7c3f 5c08 813f 9270 7b3f
00000150: d944 7d3f 3bc5 813f 5fb7 7f3f dc7d 7d3f
00000160: 317e 7e3f 14ae 803f c863 803f d9d7 823f
00000170: e2d4 803f bba4 803f c2ba 7e3f 750d 813f
00000180: 3f08 7d3f 1b94 823f 1aef 813f eae7 7d3f
00000190: 3bc5 7b3f 36e8 7e3f 9f46 7f3f 86c9 803f
000001a0: 4373 823f b4b6 7f3f 048f 7e3f d5a7 7f3f
000001b0: 51d8 7a3f 87d7 7c3f 1438 813f 5301 7e3f
000001c0: a01e 803f 443e 813f ebfe 803f e52c 803f
000001d0: e6a1 813f 251e 7d3f c8ba 7e3f 61c8 813f
000001e0: 75fe 813f 4383 7a3f 47b1 7f3f c05c 813f
000001f0: 6b12 823f 51c8 7f3f d00f 813f 9916 7f3f
00000200: fc13 813f ad13 823f 4d5f 823f 0d48 7b3f
00000210: a5f4 813f a1cb 7a3f fadd 7c3f 2586 7f3f
00000220: ccbf 7f3f c245 803f a7c0 7b3f f183 823f
00000230: 3f3b 803f ac96 7d3f 2828 7a3f b4b1 803f
00000240: fe66 813f ffb0 7f3f 9a89 803f 3b61 803f
00000250: 847f 823f 8c1a 813f 8f10 813f 5e5e 813f
00000260: 002f 813f ac6b 823f ea07 7c3f 404b 7b3f
00000270: 7c84 7d3f 9aae 7b3f 153b 7e3f 551d 7b3f
00000280: 899a 803f 9d9e 7f3f 376a 823f a1ce 813f
00000290: 569b 803f cc0f 7e3f 46a2 803f 1551 7d3f
000002a0: d5ac 7f3f d3fc 813f eb90 803f a41c 7d3f
000002b0: 426b 813f 071e 803f fc4c 803f 733c 7f3f
000002c0: 7f05 833f 8a2a 7f3f 781c 803f 336d 823f
000002d0: 61dc 7f3f a568 7f3f 4446 803f e804 7f3f
000002e0: c997 813f a753 803f cde9 803f dd08 7d3f
000002f0: 364e 823f 94e3 7f3f b7a0 7b3f 7296 7f3f
00000300: 5fb7 7a3f 964e 7c3f d247 803f 803d 803f
00000310: 29a3 803f ed9d 813f 6245 813f 5e28 813f

bias f4 [200]
0.014950834 -0.008314206 0.0058454312 0.02213679 -0.005222583 -0.014315395 0.0062177572 -0.01775805
-0.004113109 0.01564844 -0.0144420415 0.011429142 -0.0176601 0.0102239605 -0.0078063896 -0.0073818597
0.0015140094 -0.012610894 0.0020037424 -0.0042377054 0.004411224 0.013779757 0.003193783 -0.019880813
0.013477208 0.0056793964 -0.01199516 0.0028541004 -0.0113624735 -0.019574497 0.006430683 -0.0031132703
-0.016598891 0.0077190236 0.002161974 0.0026523762 -0.0020720824 0.012192218 0.014970717 -0.021021117
0.0062996093 0.0028054402 0.013882039 -0.013230571 -0.022526467 0.0032664072 0.022502108 0.008821573
-0.019592445 -0.015345343 0.026396027 0.0044201203 -0.0013295179 -0.00856943 -0.0042029666 -0.011077126
0.018347705 0.022120072 0.013650453 0.007234985 0.013027699 0.01766993 0.0058579715 -0.0010573422
0.015480794 -0.0013839286 0.02360384 -0.01873946 0.017574517 -0.0048307236 0.014697668 -0.008048967
-0.003996874 0.012707466 -0.0032151332 0.019761741 0.015197963 -0.021965994 0.0071247667 0.026953565
0.014303596 -0.011491758 0.011996627 0.008372755 0.013233674 -0.016710753 0.02071838 -0.009885409
-0.005998771 0.010196855 0.01931975 0.00996213 0.00835173 0.017737798 0.00014710496 -0.020164222
0.011248879 0.0033566835 0.009752825 0.009580308 -0.0069418903 -0.022975313 0.022556752 -0.021965303
-0.0075215744 -0.0032248262 0.023152653 0.012614075 0.020879561 0.017622288 -0.023215009 -0.0067342045
0.011529263 -0.012962114 0.0051784962 -0.005038946 0.011014496 -0.013273734 0.023212519 0.016047943
0.012354188 -0.018579572 0.0069493875 0.0130070625 0.004676711 0.0012284887 0.00045594398 0.0098938495
0.023370814 0.0010153857 -0.0064388476 0.007835833 0.003334406 -0.0014770669 0.0095273 0.011802051
0.02276168 0.0036275382 0.013706573 -0.008085784 0.009240199 0.02409421 -0.011887141 -0.012116994
-0.0078190835 -0.0037785005 -0.006368648 0.011675354 -0.028022038 0.008676012 0.014674543 0.0070272814
-0.016946778 0.008476429 0.012251538 -0.01492983 -0.0011951319 -0.0031852128 0.004402751 0.014593658
0.004841745 0.012705347 0.009942279 -0.010855117 0.0055214874 0.014400438 -0.011397583 0.007884001
0.009369331 0.0244346 0.0045947637 -0.0019535858 -0.0009751385 -0.0010722863 -0.0056327856 -0.0010689921
-0.009987116 0.014610333 0.009548144 0.004859875 0.013521565 0.0015466777 -0.010125981 -0.007157517
0.0066291727 -0.015968712 0.0010344926 0.020030374 -0.007853394 -0.0005398849 -0.0183452 -0.0073673404
0.008688491 -0.0061508 0.012277565 0.021635424 0.0134662045 -0.019445341 0.003089328 -0.0023694625
00000000: 58f4 743c 4f38 08bc 088b bf3b 3758 b53c
00000010: 3422 abbb 1e8b 6abc 54be cb3b 5479 91bc
00000020: 42c7 86bb 2831 803c 509e 6cbc 4c41 3b3c
00000030: eaab 90bc 6682 273c becc ffbb 87e3 f1bb
00000040: ba71 c63a ec9d 4ebc 3851 033b 73dc 8abb
00000050: 078c 903b 7dc4 613c ca4e 513b 16dd a2bc
00000060: 82cf 5c3c 3b1a ba3b 5987 44bc dc0b 3b3b
00000070: ab29 3abc b25a a0bc 7bb8 d23b 0208 4cbb
00000080: 66fa 87bc ddef fc3b e8af 0d3b 7dd3 2d3b
00000090: c6cb 07bb dec1 473c bd47 753c 7a34 acbc
000000a0: f46c ce3b 7adb 373b 7e71 633c 09c5 58bc
000000b0: 6d89 b8bc 3811 563b 5756 b83c 5c88 103c
000000c0: 5680 a0bc 096b 7bbc 7b3c d83c a8d6 903b
000000d0: 3843 aeba cb66 0cbc 0ab9 89bb d57c 35bc
000000e0: ed4d 963c 2735 b53c 26a6 5f3c 7413 ed3b
000000f0: 2172 553c 87c0 903c 3af4 bf3b 8496 8aba
00000100: 28a3 7d3c f064 b5ba d75c c13c 7f83 99bc
00000110: 6ff8 8f3c 0c4b 9ebb 7dce 703c d1df 03bc
00000120: 36f8 82bb fa32 503c fcb4 52bb 60e3 a13c
00000130: e100 793c 07f2 b3bc e076 e93b b9cd dc3c
00000140: a159 6a3c ed47 3cbc 808d 443c e12d 093c
00000150: 0dd2 583c fde4 88bc 98b9 a93c 69f6 21bc
00000160: 5791 c4bb b610 273c 7444 9e3c 3438 233c
00000170: b2d5 083c dc4e 913c 3040 1a39 702f a5bc
00000180: 384d 383c cefb 5b3b 50ca 1f3c b9f6 1c3c
00000190: cc78 e3bb b936 bcbc f0c8 b83c 94f0 b3bc
000001a0: 8a77 f6bb 9b57 53bb a2aa bd3c 44ab 4e3c
000001b0: 9d0b ab3c 9e5c 903c 672d bebc 9aaa dcbb
000001c0: 3ce5 3c3c 0c5f 54bc 60b0 a93b be1d a5bb
000001d0: 2576 343c 137a 59bc 2e28 be3c fa76 833c
000001e0: 3869 4a3c 3034 98bc b0b7 e33b 931b 553c
000001f0: 183f 993b 3e05 a13a c40b ef39 d019 223c
00000200: 2674 bf3c b116 853a f8fc d2bb de61 003c
00000210: 0d86 5a3b 249a c1ba 6418 1c3c 645d 413c
00000220: b476 ba3c febb 6d3b 8991 603c 3c7a 04bc
00000230: 3464 173c 3861 c53c 48c2 42bc 5b86 46bc
00000240: 9d1b 00bc b8a0 77bb 17b0 d0bb fc49 3f3c
00000250: 798e e5bc d525 0e3c 7f6d 703c 1c45 e63b
00000260: f8d3 8abc b8e0 0a3c adba 483c 3f9c 74bc
00000270: f9a5 9cba 01bf 50bb f444 903b 3d1a 6f3c
00000280: 80a7 9e3b 162a 503c f1e4 223c a9d9 31bc
00000290: 98ed b43b d1ef 6b3c eebc 3abc e62b 013c
000002a0: d381 193c 122b c83c ac8f 963b bb07 00bb
000002b0: 70a0 7fba f58b 8cba 3b93 b8bb 6c1d 8cba
000002c0: 00a1 23bc 2e60 6f3c d26f 1c3c 963f 9f3b
000002d0: 8e89 5d3c e4b9 ca3a 71e7 25bc 9b89 eabb
000002e0: 8839 d93b d1d0 82bc d097 873a bd16 a43c
000002f0: 86ab 00bc 1087 0dba ac48 96bc bb69 f1bb
00000300: 2c5a 0e3c a68c c9bb d727 493c c63c b13c
00000310: 5ba1 5c3c d64b 9fbc 5376 4a3b fc48 1bbb

running_mean f4 [200]
0.122410476 0.11319658 0.10145585 0.10820541 0.09897631 0.11177227 0.119597755 0.107755445
0.0991022 0.12311644 0.10408878 0.12614346 0.13338007 0.12053851 0.108655326 0.09284776
0.104664356 0.10651988 0.11523191 0.121757776 0.119489595 0.07765692 0.1244103 0.098015405
0.11607789 0.08449469 0.09206552 0.1274796 0.092730895 0.1120721 0.10562572 0.132722
0.1279339 0.12434888 0.10520033 0.11700915 0.09946683 0.13190158 0.09784148 0.09233532
0.1131602 0.104254894 0.1318619 0.09167064 0.14174467 0.108448535 0.110587336 0.11502888
0.11991698 0.11068039 0.12681635 0.13605267 0.13729444 0.10903836 0.10009483 0.10119524
0.11372755 0.11235261 0.13233696 0.10304592 0.107264385 0.09759474 0.08125963 0.13445757
0.08636765 0.13726015 0.10171406 0.11661302 0.12033009 0.122244835 0.13111937 0.12535593
0.12194284 0.11958642 0.09869205 0.11976336 0.09571889 0.096777946 0.117277585 0.08677782
0.11004271 0.12579899 0.11807423 0.14375429 0.08248809 0.102676116 0.111922525 0.09480113
0.11216026 0.093351245 0.11969836 0.11286393 0.13020387 0.1008861 0.10782997 0.13828734
0.11236059 0.106820755 0.101313464 0.10844234 0.1331091 0.11976603 0.11691331 0.12834589
0.10461219 0.10940734 0.1229797 0.08611603 0.14261612 0.10872384 0.11366948 0.1020429
0.13372843 0.1302861 0.12506537 0.12994027 0.12263402 0.08147064 0.15248282 0.13517818
0.09989703 0.13581997 0.09809183 0.10841653 0.11460265 0.11889822 0.119987085 0.09770096
0.10393638 0.15529913 0.1312349 0.098466456 0.11208763 0.103024326 0.13166308 0.108267695
0.11766119 0.10387888 0.10606364 0.12272347 0.12645504 0.12352207 0.1115879 0.11508946
0.10303339 0.13615099 0.11189068 0.10853244 0.10285182 0.13168095 0.122999206 0.122641325
0.13463758 0.123641714 0.13142636 0.13844548 0.10266503 0.13319354 0.117887475 0.09316434
0.11514558 0.12013782 0.11706409 0.13801345 0.10808088 0.10103415 0.103205584 0.09872417
0.12078498 0.10312507 0.1174564 0.09961445 0.11754318 0.11785387 0.11314411 0.102236524
0.1019108 0.11398524 0.07174419 0.111658715 0.11017844 0.100917205 0.11405987 0.121286154
0.10284088 0.096226275 0.12936695 0.09451555 0.09272622 0.13171867 0.14718819 0.10903524
0.11268551 0.12305053 0.12260971 0.14805447 0.11124546 0.13441835 0.108003594 0.09640171
00000000: 58b2 fa3d 9cd3 e73d 16c8 cf3d cc9a dd3d
00000010: 17b4 ca3d dce8 e43d abef f43d e3ae dc3d
00000020: 18f6 ca3d 7924 fc3d 802c d53d c02b 013e
00000030: c994 083e e5dc f63d af86 de3d f726 be3d
00000040: 445a d63d 1827 da3d b5fe eb3d 245c f93d
00000050: f6b6 f43d 970a 9f3d d4ca fe3d 4dbc c83d
00000060: 3fba ed3d 8d0b ad3d d98c bc3d 038a 023e
00000070: b2e9 bd3d 0f86 e53d 4c52 d83d 47e8 073e
00000080: 1b01 033e a0aa fe3d 4573 d73d 7ea2 ef3d
00000090: 44b5 cb3d 3511 073e 1d61 c83d 4d1a bd3d
000000a0: 89c0 e73d 9783 d53d ce06 073e d1bd bb3d
000000b0: 8425 113e 441a de3d 9d7b e23d 4394 eb3d
000000c0: 0997 f53d 66ac e23d 25dc 013e 6451 0b3e
000000d0: ea96 0c3e 814f df3d 85fe cc3d 733f cf3d
000000e0: fde9 e83d 2019 e63d 5783 073e bd09 d33d
000000f0: 6ead db3d c0df c73d 736b a63d 3faf 093e
00000100: 86e1 b03d ed8d 0c3e 764f d03d cfd2 ee3d
00000110: 9f6f f63d 805b fa3d 2844 063e 4e5d 003e
00000120: 2bbd f93d bae9 f43d 0f1f ca3d 7e46 f53d
00000130: 4408 c43d 8433 c63d 3b2f f03d 92b8 b13d
00000140: 135e e13d 73d1 003e e7d0 f13d 5334 133e
00000150: 84ef a83d db47 d23d a337 e53d 1827 c23d
00000160: 47b4 e53d f02e bf3d 6a24 f53d 3425 e73d
00000170: 2a54 053e 5f9d ce3d f6d5 dc3d 329b 0d3e
00000180: 4f1d e63d d7c4 da3d 6f7d cf3d 0417 de3d
00000190: c04d 083e e447 f53d 3f70 ef3d 1b6d 033e
000001a0: ea3e d63d f510 e03d c8dc fb3d 9a5d b03d
000001b0: f609 123e 9baa de3d 8bcb e83d defb d03d
000001c0: 1bf0 083e b869 053e 2311 003e 100f 053e
000001d0: 8c27 fb3d 14da a63d 7524 1c3e 266c 0a3e
000001e0: d096 cc3d 6414 0b3e 5fe4 c83d 7c09 de3d
000001f0: cbb4 ea3d e980 f33d cabb f53d 7117 c83d
00000200: 99dc d43d bc06 1f3e 7162 063e c8a8 c93d
00000210: 338e e53d 6bfe d23d b0d2 063e 74bb dd3d
00000220: 5af8 f03d 73be d43d e537 d93d 7156 fb3d
00000230: 6e7d 013e 24f9 fc3d 3288 e43d 06b4 eb3d
00000240: 2c03 d33d 2a6b 0b3e f126 e53d 4246 de3d
00000250: faa3 d23d 5fd7 063e 02e7 fb3d 602b fb3d
00000260: 6fde 093e de37 fd3d a294 063e a7c4 0d3e
00000270: 0b42 d23d e363 083e fd6e f13d f2cc be3d
00000280: 72d1 eb3d d10a f63d 4cbf ef3d 6653 0d3e
00000290: 8259 dd3d feea ce3d 735d d33d e62f ca3d
000002a0: 1e5e f73d 3d33 d33d fb8c f03d a902 cc3d
000002b0: 7bba f03d 5f5d f13d 19b8 e73d 6261 d13d
000002c0: 9cb6 d03d 1871 e93d 9eee 923d 53ad e43d
000002d0: 3ca5 e13d aead ce3d 3998 e93d e064 f83d
000002e0: 3d9e d23d 4812 c53d c578 043e 5e91 c13d
000002f0: 3fe7 bd3d 42e1 063e 80b8 163e de4d df3d
00000300: a9c7 e63d eb01 fc3d cd1a fb3d 979b 173e
00000310: a9d4 e33d f7a4 093e fd30 dd3d 426e c53d

running_var f4 [200]
0.35016176 0.32308134 0.3218067 0.3362304 0.3293001 0.31898314 0.34205708 0.31962213
0.32797617 0.33049417 0.3224592 0.34362924 0.34112054 0.32360804 0.33853704 0.30786088
0.3352627 0.32127407 0.35091883 0.33808556 0.33470067 0.31517592 0.32831982 0.3352276
0.3405208 0.3174368 0.32451388 0.33268127 0.3118855 0.32748827 0.31436494 0.34396607
0.33347017 0.3340404 0.33331782 0.3313322 0.32077676 0.3725064 0.32405764 0.3158339
0.32094592 0.33458516 0.3311494 0.32363242 0.34974816 0.32263136 0.32588425 0.33195585
0.33464605 0.333866 0.3360281 0.33651108 0.35626474 0.32193917 0.33919016 0.33097515
0.33148187 0.33342016 0.3469096 0.3182719 0.3336701 0.32432094 0.30854505 0.33048904
0.31759435 0.35491192 0.31861272 0.34430075 0.34839877 0.33545655 0.33981282 0.35043395
0.3246701 0.3417113 0.32219625 0.3415087 0.32026538 0.32784694 0.33899313 0.32279512
0.33414313 0.3361471 0.33338997 0.36279455 0.31227615 0.32336232 0.3437072 0.31612673
0.33240536 0.31765923 0.35562676 0.32200813 0.34738106 0.32144317 0.3406639 0.3432095
0.3270087 0.33370125 0.31891638 0.32843557 0.36589432 0.33517355 0.3442657 0.34276858
0.32698599 0.33822682 0.32902077 0.32314232 0.3753541 0.32780716 0.32736617 0.34915096
0.3559765 0.34325573 0.34357893 0.34693056 0.3272255 0.31382346 0.36728734 0.3373845
0.31396 0.34425807 0.32492858 0.3400008 0.33167344 0.33537826 0.3294856 0.32209027
0.33137885 0.3497942 0.34581596 0.32524192 0.3321804 0.34039107 0.3623216 0.31818402
0.32658118 0.3203572 0.32615492 0.33002675 0.34745124 0.3409825 0.3356683 0.33339605
0.33476025 0.3653368 0.3356226 0.33491242 0.3272761 0.3618909 0.32347518 0.3378295
0.3641917 0.3332022 0.357269 0.3524314 0.32141435 0.3376738 0.33720136 0.30903664
0.3245282 0.3387853 0.33569556 0.3528505 0.32120347 0.31766918 0.31058452 0.31784007
0.3415755 0.33236802 0.36032957 0.33949316 0.33819216 0.3221882 0.32525286 0.33123106
0.31463844 0.33639696 0.30637282 0.33392653 0.34073818 0.3261725 0.33128378 0.33777398
0.31766573 0.31891176 0.33634368 0.32835788 0.31268764 0.3660175 0.3772037 0.33022344
0.3437624 0.33764455 0.33396515 0.36163723 0.33307955 0.34508806 0.3432003 0.3370294
00000000: 6748 b33e eb6a a53e d9c3 a43e 6426 ac3e
00000010: 069a a83e c251 a33e 1b22 af3e 83a5 a33e
00000020: 7eec a73e 8836 a93e 5f19 a53e 2cf0 af3e
00000030: 5aa7 ae3e f4af a53e ba54 ad3e f19f 9d3e
00000040: 8da7 ab3e 097e a43e a2ab b33e 8d19 ad3e
00000050: e35d ab3e bd5e a13e 8919 a83e f4a2 ab3e
00000060: be58 ae3e 1487 a23e af26 a63e 3355 aa3e
00000070: 75af 9f3e 8bac a73e 71f4 a03e 521c b03e
00000080: 9abc aa3e 5807 ab3e a2a8 aa3e 60a4 a93e
00000090: da3c a43e 29b9 be3e e2ea a53e fbb4 a13e
000000a0: 0653 a43e bf4e ab3e 6a8c a93e 26b3 a53e
000000b0: 3112 b33e f02f a53e 4dda a63e 1ef6 a93e
000000c0: ba56 ab3e 7cf0 aa3e e00b ac3e 2e4b ac3e
000000d0: 5568 b63e 36d5 a43e 55aa ad3e 9375 a93e
000000e0: feb7 a93e 0cb6 aa3e 239e b13e 89f4 a23e
000000f0: cfd6 aa3e 650d a63e 9ef9 9d3e dc35 a93e
00000100: ba9b a23e 04b7 b53e 3521 a33e 3048 b03e
00000110: 5361 b23e f6c0 ab3e f2fb ad3e 146c b33e
00000120: 293b a63e c9f4 ae3e e8f6 a43e 3ada ae3e
00000130: d3f9 a33e 8edb a73e 8290 ad3e 6745 a53e
00000140: cf14 ab3e 791b ac3e 17b2 aa3e 35c0 b93e
00000150: a9e2 9f3e bf8f a53e 64fa af3e 5ddb a13e
00000160: 0931 aa3e 3ba4 a23e b614 b63e 40de a43e
00000170: eedb b13e 3394 a43e 806b ae3e 28b9 af3e
00000180: af6d a73e e4da aa3e 0249 a33e b528 a83e
00000190: 8056 bb3e de9b ab3e 9843 b03e 5d7f af3e
000001a0: b56a a73e 112c ad3e 6975 a83e e972 a53e
000001b0: 6a2e c03e 57d6 a73e 8a9c a73e eac3 b23e
000001c0: 8d42 b63e 37bf af3e 94e9 af3e e2a0 b13e
000001d0: 1a8a a73e 78ad a03e 160d bc3e a9bd ac3e
000001e0: 5dbf a03e 9842 b03e 0a5d a63e 9614 ae3e
000001f0: 1ad1 a93e b3b6 ab3e 56b2 a83e 04e9 a43e
00000200: 7daa a93e 3a18 b33e ca0e b13e 1c86 a63e
00000210: 8d13 aa3e bd47 ae3e 3782 b93e 04e9 a23e
00000220: a635 a73e dc05 a43e c7fd a63e 44f9 a83e
00000230: 21e5 b13e 4295 ae3e b7dc ab3e e3b2 aa3e
00000240: b265 ab3e 6d0d bb3e bad6 ab3e a479 ab3e
00000250: bc90 a73e c449 b93e 8a9e a53e fdf7 ac3e
00000260: 5677 ba3e 7b99 aa3e f6eb b63e e371 b43e
00000270: 6c90 a43e 95e3 ac3e a8a5 ac3e 0d3a 9e3e
00000280: 8f28 a63e 4475 ad3e 4ae0 ab3e d2a8 b43e
00000290: c874 a43e 89a5 a23e ef04 9f3e efbb a23e
000002a0: fce2 ae3e 242c aa3e 1e7d b83e 0cd2 ad3e
000002b0: 8627 ad3e daf5 a43e 8b87 a63e 1e97 a93e
000002c0: 4a18 a13e 393c ac3e e6dc 9c3e 6bf8 aa3e
000002d0: 3c75 ae3e 1500 a73e 079e a93e b6f0 ac3e
000002e0: 15a5 a23e 6748 a33e 3d35 ac3e 861e a83e
000002f0: 9818 a03e a566 bb3e d820 c13e 0c13 a93e
00000300: a001 b03e bfdf ac3e 7bfd aa3e 8428 b93e
00000310: 6789 aa3e 62af b03e f3b7 af3e 1e8f ac3e

weight f4 [100, 200]
0.017552005 -0.057276104 0.054536432 0.03966926 -0.037822787 0.030028006 0.013669379 -0.014682465
0.061061107 0.0062013287 -0.0283871 -0.005799165 -0.020596655 -0.05749926 0.05966969 0.034906566
-0.044407822 0.056785323 -0.03834669 0.050085314 0.011196982 -0.010199203 -0.07381341 -0.040624924
0.037997775 0.026348807 -0.0132108815 0.009077361 -0.024137573 -0.06831328 0.029941322 -0.03552823
0.054101743 -0.011486717 0.023101233 -0.013137016 0.018684072 0.04744648 -0.07652171 0.07711012
0.019376865 -0.057806134 -0.078762606 0.0022886926 -0.04811051 0.08710648 -0.039099913 0.07623535
0.030437317 -0.06254496 -0.042086095 0.04258001 -0.042129297 -0.029355777 -0.050920118 -0.006269774
0.029075364 -0.0021971704 0.009164549 0.032230526 -0.0034275767 0.023861738 0.03352187 -0.024872487
0.04316943 -0.015230626 0.004297793 -0.06269737 0.06421484 0.038454775 0.038962517 -0.04643228
0.011515209 0.04864003 0.00807246 -0.047597423 0.06743746 0.05059069 0.014270516 0.03216875
0.027722295 -0.0510876 -0.034001473 0.04537417 -0.00010583969 -0.07175914 -0.06783507 0.028443452
0.0034461275 0.046738256 -0.044660937 0.0061163944 -0.06213604 0.013751447 -0.06791748 -0.054637272
-0.058973964 -0.025958164 0.002504697 0.025544578 0.039486587 0.07067355 -0.035197277 0.0046323705
-0.028860014 -0.07069509 -0.0081989225 0.05071243 0.026900224 0.005722328 -0.07766617 -0.0138032
0.012915064 0.0690297 -0.016134566 -0.019593213 0.019517886 0.02905025 0.04160861 -0.024337193
0.047536608 0.023079861 -0.037132777 0.014424792 -0.0029306659 0.051917855 -0.04053866 0.037228864
-0.008466499 0.034358606 0.0081519745 -0.06744739 -0.06106398 -0.058090087 0.046615347 0.06573729
-0.021034406 0.009662572 0.026349232 -0.08850654 0.013984686 0.026567189 -0.041454446 -0.033278976
0.013166069 0.046675228 -0.010549353 0.03588415 0.030193593 -0.03721682 -0.047719803 0.05039884
-0.007361384 0.02223928 -0.0032939455 -0.013483165 0.026216881 -0.051313385 0.0066821394 0.011206215
-0.046273183 0.039398585 0.016092192 -0.05990235 0.026876891 -0.035121042 -0.057741858 -0.009124937
0.01722671 0.07263013 -0.0020333207 0.06347223 0.07255865 -0.032492213 0.011724793 -0.082280464
-0.02056001 0.040350594 -0.007147875 -0.003971778 -0.027254226 0.0451671 0.03665558 -0.055611327
0.039058976 -0.036463745 0.04039103 -0.013179929 -0.04088138 0.023737349 -0.08012008 0.014796024
0.0031461848 -0.050308485 -0.054237965 -0.05797688 -0.01696001 0.01985876 0.012105886 -0.035863385
-0.01861673 -0.009632215 0.04934115 0.014801195 -0.022506727 -0.019999715 -0.028001096 0.014543319
-0.021911912 0.03474933 -0.015780346 0.054254744 -0.03970947 -0.04907881 0.0048317593 0.006750626
-0.056962546 -0.060466047 0.068799846 0.06719982 0.048524335 0.053151984 0.04034518 0.052159704
0.020826854 -0.04990956 -0.060306836 0.02794535 0.009359716 0.087080635 0.05069884 0.06262217
-0.04512353 -0.0031909165 0.07234704 0.025387187 0.049725696 0.033125985 -0.053466577 0.01232792
0.010840362 0.0020233023 0.070590846 -0.053057794 0.07355568 0.0413982 0.029487558 0.0455574
0.016447958 -0.04118603 -0.030402206 0.072071806 -0.0018690479 0.007542157 0.006990336 0.06309877
00000000: 39c9 8f3c 599a 6abd 9861 5f3d 3c7c 223d
00000010: 11ec 1abd 4bfd f53c 88f5 5f3c b98e 70bc
00000020: 361b 7a3d 8434 cb3b 108c e8bc ec06 bebb
00000030: 51ba a8bc 5884 6bbd 3468 743d 30fa 0e3d
00000040: fae4 35bd ba97 683d 6b11 1dbd 4226 4d3d
00000050: 8c73 373c 8f1a 27bc 7c2b 97bd 5266 26bd
00000060: 8ea3 1b3d 74d9 d73c 7472 58bc 36b9 143c
00000070: 29bc c5bc d5e7 8bbd 8147 f53c 0d86 11bd
00000080: ca99 5d3d c832 3cbc cc3e bd3c a43c 57bc
00000090: 570f 993c 3d57 423d 6ab7 9cbd e9eb 9d3d
000000a0: 3bbc 9e3c 20c6 6cbd 4a4e a1bd e4fd 153b
000000b0: 870f 45bd e264 b23d 3b27 20bd 4721 9c3d
000000c0: ae57 f93c 9217 80bd 7862 2cbd 6068 2e3d
000000d0: c58f 2cbd 877b f0bc 9d91 50bd ad72 cdbb
000000e0: 752f ee3c 67fe 0fbb e826 163c 2804 043d
000000f0: 32a1 60bb b179 c33c 3a4e 093d 63c1 cbbc
00000100: 6ed2 303d e089 79bc 80d4 8c3b 7b67 80bd
00000110: 1283 833d c182 1d3d 2997 1f3d c62f 3ebd
00000120: 4aaa 3c3c c53a 473d 5a42 043c 84f5 42bd
00000130: a71c 8a3d 2f38 4f3d e2ce 693c 61c3 033d
00000140: de19 e33c 3b41 51bd 2145 0bbd 44da 393d
00000150: 40f6 ddb8 75f6 92bd 1ded 8abd 3e02 e93c
00000160: 6dd8 613b 9d70 3f3d 63ee 36bd 096c c83b
00000170: 5c82 7ebd c04d 613c 5218 8bbd 55cb 5fbd
00000180: af8e 71bd 37a6 d4bc d825 243b dd42 d13c
00000190: b0bc 213d 4bbd 903d 052b 10bd 24cb 973b
000001a0: d66b ecbc 96c8 90bd c654 06bc d6b7 4f3d
000001b0: dc5d dc3c 5e82 bb3b 710f 9fbd d126 62bc
000001c0: b499 533c 715f 8d3d a32c 84bc f281 a0bc
000001d0: f9e3 9f3c cafa ed3c ca6d 2a3d cb5e c7bc
000001e0: bfb5 423d fa11 bd3c 8a18 18bd f655 6c3c
000001f0: 6a10 40bb d1a7 543d de0b 26bd 4b7d 183d
00000200: 12b7 0abc 9cbb 0c3d dc8f 053c db21 8abd
00000210: 391e 7abd dfef 6dbd bcef 3e3d 46a1 863d
00000220: 5950 acbc c44f 1e3c 58da d73c eb42 b5bd
00000230: 0620 653c 6fa3 d93c 23cc 29bd 894f 08bd
00000240: 7fb6 573c 862e 3f3d 32d7 2cbc 42fb 123d
00000250: 8e58 f73c aa70 18bd d775 43bd 046f 4e3d
00000260: c437 f1bb 272f b63c 3cdf 57bb 7ee8 5cbc
00000270: c9c4 d63c fc2d 52bd d9f5 da3b 469a 373c
00000280: f388 3dbd 6960 213d c6d3 833c 2b5c 75bd
00000290: ed2c dc3c 15db 0fbd ba82 6cbd c280 15bc
000002a0: 081f 8d3c 1bbf 943d 7641 05bb bbfd 813d
000002b0: a199 943d 8e16 05bd 5919 403c a982 a8bd
000002c0: 776d a8bc aa46 253d b938 eabb b025 82bb
000002d0: 4144 dfbc 2301 393d 2924 163d b4c8 63bd
000002e0: 4efc 1f3d 025b 15bd 1171 253d a1f0 57bc
000002f0: 3c73 27bd d474 c23c ff15 a4bd 066b 723c
00000300: 3930 4e3b 4510 4ebd a128 5ebd 2a79 6dbd
00000310: b8ef 8abc d7ae a23c c457 463c 7ce5 12bd
00000320: 1d82 98bc 70d0 1dbc f219 4a3d b680 723c
00000330: 0760 b8bc 71d6 a3bc 8e62 e5bc 1a47 6e3c
00000340: 9c80 b3bc 5055 0e3d c945 81bc 393a 5e3d
00000350: 66a6 22bd dd06 49bd bc53 9e3b 5b34 dd3b
00000360: 8f51 69bd 3fab 77bd efe6 8c3d 0fa0 893d
00000370: 74c1 463d e5b5 593d fd40 253d 6aa5 553d
00000380: 149d aa3c f76d 4cbd 4d04 77bd a6ed e43c
00000390: 7f59 193c 5557 b23d 96a9 4f3d 0d40 803d
000003a0: 73d3 38bd b21e 51bb af2a 943d caf8 cf3c
000003b0: 2cad 4b3d 1daf 073d c5ff 5abd 0bfb 493c
000003c0: c69b 313c 6199 043b ef91 903d 2153 59bd
000003d0: 5ca4 963d 2991 293d e48f f13c 659a 3a3d
000003e0: debd 863c afb2 28bd 0c0e f9bc 629a 933d
000003f0: d7fa f4ba 3324 f73b 300f e53b ee39 813d

weight f4 [100]
0.9958528 0.9933936 0.9957585 0.99891394 0.98495996 0.9915265 0.98490936 0.9928514
0.9818206 0.98872113 0.99196565 0.9913385 1.0051867 0.983611 1.0116817 0.9967037
0.9878612 1.0238506 0.9805915 0.9852918 0.99193877 0.9917452 1.0013528 0.9897342
1.0177077 0.99147314 0.9955167 1.004746 0.98519087 0.98762983 0.9890261 0.9853581
0.98664075 1.0053759 1.0234035 0.9950399 0.99152845 0.9991066 0.9762808 0.9938195
1.0196524 0.9869059 0.99433064 1.007011 1.0026796 0.99111307 0.9985535 0.9979183
1.0006595 0.9983816 0.98628217 0.98582584 0.99031323 0.9933276 0.99624246 0.9749692
0.99124855 0.9879005 1.006567 1.0163004 0.995373 1.0026823 1.0260739 1.0022593
0.9924775 1.0052077 1.0135322 0.98599434 1.0101709 0.99438995 0.9852843 1.0093563
0.9943362 0.99935246 0.9945905 0.99724096 1.0030297 0.9939109 1.0037767 1.0080591
0.9802413 0.9891665 0.98939717 1.0091534 1.0143895 0.9856119 0.98629576 1.0147035
0.9953998 0.9824852 0.9838386 0.9834952 0.9965895 0.98004526 0.99019706 1.0014875
0.9993044 0.9864246 1.0080467 0.99612516
00000000: 36f0 7e3f 0b4f 7e3f 07ea 7e3f d3b8 7f3f
00000010: 5626 7c3f aed4 7d3f 0523 7c3f 822b 7e3f
00000020: 9858 7b3f d41c 7d3f 76f1 7d3f 5cc8 7d3f
00000030: f5a9 803f eecd 7b3f c97e 813f f927 7f3f
00000040: 79e4 7c3f 890d 833f 0b08 7b3f 153c 7c3f
00000050: b3ef 7d3f 03e3 7d3f 542c 803f 385f 7d3f
00000060: 3f44 823f 2fd1 7d3f 2fda 7e3f 849b 803f
00000070: 7835 7c3f 4fd5 7c3f d130 7d3f 6e40 7c3f
00000080: 7d94 7c3f 28b0 803f e3fe 823f efba 7e3f
00000090: cfd4 7d3f 73c5 7f3f 8aed 793f f46a 7e3f
000000a0: f883 823f dda5 7c3f 748c 7e3f bde5 803f
000000b0: ce57 803f 96b9 7d3f 34a1 7f3f 9377 7f3f
000000c0: 9c15 803f f095 7f3f fd7c 7c3f 155f 7c3f
000000d0: 2b85 7d3f b84a 7e3f bf09 7f3f 9597 793f
000000e0: 77c2 7d3f 0ce7 7c3f 30d7 803f 2216 823f
000000f0: c4d0 7e3f e557 803f 6456 833f 084a 803f
00000100: 0113 7e3f a5aa 803f 6cbb 813f 206a 7c3f
00000110: 484d 813f 5790 7e3f 983b 7c3f 9632 813f
00000120: d18c 7e3f 90d5 7f3f 7c9d 7e3f 2f4b 7f3f
00000130: 4763 803f f270 7e3f c17b 803f 1508 813f
00000140: 18f1 7a3f 043a 7d3f 2249 7d3f f02b 813f
00000150: 84d7 813f 1051 7c3f e17d 7c3f cee1 813f
00000160: 85d2 7e3f 2684 7b3f d9dc 7b3f 57c6 7b3f
00000170: 7d20 7f3f 3fe4 7a3f 8e7d 7d3f be30 803f
00000180: 6ad2 7f3f 5386 7c3f ad07 813f 0f02 7f3f
