models/agModels-predicttop10_votes/models/NeuralNetTorch_BAG_L1/S10F7/net.params (torch, 248949 bytes, 16 tensors)

weight f4 [6, 4]
0	0xbf92a4c7	-1.1456536
1	0xbf914c7e	-1.1351469
2	0xbe879d91	-0.264874
3	0xbedc99b2	-0.4308601
4	0x3f58a55b	0.8462731
5	0x3f2a3ea0	0.6650181
6	0xbead09fb	-0.33796677
7	0xc009a46e	-2.150661
8	0x3ef2d662	0.47429186
9	0xbe5696b2	-0.20955923
10	0x3fbba279	1.4658958
11	0x3e87e6fd	0.26543418
12	0x3e1f1f47	0.15539275
13	0x3f6591b3	0.89675444
14	0xbe0f724b	-0.14008443
15	0xbdc13b85	-0.094351806
16	0x3f77acc1	0.96747977
17	0x3f9fef36	1.2494876
18	0x4000cf63	2.0126579
19	0x3d29dd3f	0.041470762
20	0x3ef26b98	0.47347713
21	0xbe8c52ef	-0.27407023
22	0xbf3182fe	-0.69340503
23	0xc00a6f21	-2.1630328

weight f4 [6, 4]
0	0xbe65796e	-0.22409603
1	0xbf3b22e6	-0.73100126
2	0x3f10ad79	0.565147
3	0x3e788910	0.24271035
4	0xbe275e87	-0.16344653
5	0xbf2fbc28	-0.6864648
6	0x3f78eb95	0.9723447
7	0x3eecf7c7	0.4628279
8	0xbf05fffc	-0.52343726
9	0x3f6b532b	0.9192378
10	0x3f94b975	1.1619097
11	0x3fabea4f	1.343088
12	0xbfbe7be4	-1.4881558
13	0x40249386	2.571504
14	0xbf0106a8	-0.5040078
15	0x3e9e623d	0.30934325
16	0xbfd086f3	-1.6291183
17	0xbf0ed2d7	-0.55790466
18	0xbf07682c	-0.5289333
19	0xbeda65ec	-0.42655885
20	0xbf6ae32b	-0.9175288
21	0x3f77177c	0.9652021
22	0xbd11aedb	-0.035567146
23	0x3f289140	0.65846634

weight f4 [6, 4]
0	0xbdd4db60	-0.10393405
1	0x3f2d81ca	0.6777617
2	0xbf5a377b	-0.85240906
3	0xbc75a644	-0.014993254
4	0x3f5c8db5	0.8615373
5	0xbebba944	-0.36652577
6	0x3f877961	1.0583917
7	0x3ec773cc	0.38955534
8	0x3dcdadcb	0.10042914
9	0x3f8ef0f1	1.116728
10	0x3e9ea8b3	0.30988082
11	0x3ef27b4c	0.47359693
12	0xbf52ed0c	-0.82392955
13	0xbfa55c0e	-1.2918718
14	0xbf421901	-0.758194
15	0xbfaac5ea	-1.3341649
16	0x3e57d602	0.21077731
17	0xbeb6b16e	-0.35682243
18	0xbeebb250	-0.4603448
19	0x3e64ec37	0.22355734
20	0x3f2652a1	0.6496983
21	0xbd8b1f0d	-0.06793032
22	0xbe6f1021	-0.23345996
23	0xbf87af85	-1.0600439

weight f4 [6, 4]
0	0xbf315969	-0.69277054
1	0x3f85c756	1.0451458
2	0xbf1f54ac	-0.62238574
3	0xbfa46272	-1.2842543
4	0x3d816d51	0.063196786
5	0xbf310377	-0.6914591
6	0x3f233d44	0.6376536
7	0xbf41f9fb	-0.75772065
8	0xbe81d5aa	-0.25358325
9	0x3dcbefb1	0.09957827
10	0x3e809773	0.25115547
11	0x3f988633	1.1915954
12	0x3e9bff78	0.30468345
13	0x3eca1cfc	0.39475238
14	0xbe51c732	-0.20486143
15	0xbdca4df8	-0.098781526
16	0x3e4a3047	0.19744979
17	0xbf447ed4	-0.76756024
18	0xbff49a47	-1.9109582
19	0x3df8dd9f	0.12151646
20	0xbf0eebf9	-0.55828816
21	0x3e39e278	0.18152797
22	0x3d410eab	0.04713313
23	0x3e7dd7be	0.2478933

weight f4 [6, 4]
0	0x3f73f3e7	0.9529404
1	0xbf7e1a01	-0.9925843
2	0x3e97841c	0.2959298
3	0xbde17c3a	-0.110100225
4	0x3f7e937c	0.99443793
5	0xbf01e42f	-0.50738806
6	0x3f496804	0.7867434
7	0x3f23f346	0.6404308
8	0x3f7c1be0	0.98480034
9	0xbfbddc28	-1.4832811
10	0x3f1e4617	0.618257
11	0x3e055b92	0.13023213
12	0x3de7baa9	0.113148995
13	0xbf51deb3	-0.8198044
14	0x3f1b5b65	0.6068633
15	0xbff59a2f	-1.9187678
16	0x3fa9c937	1.3264531
17	0xbe1bebe2	-0.15226701
18	0x3f48aa9b	0.78385323
19	0x3f82af8e	1.0209825
20	0x3e8d42b7	0.27589962
21	0xbfadc489	-1.3575603
22	0x3ff114a9	1.883443
23	0x3cf39ee5	0.029738853

weight f4 [26, 9]
0	0xbf1188b4	-0.5684922
1	0xbfd3b59c	-1.6539798
2	0xbf0eb779	-0.5574871
3	0xbf063286	-0.5242084
4	0xbf21363f	-0.629734
5	0xbfbe0c83	-1.4847568
6	0xbf51ceda	-0.81956255
7	0xc00847ed	-2.12939
8	0xbf89ac90	-1.0755787
9	0xbf2de54b	-0.67928
10	0xbc0b303a	-0.008495385
11	0x3ea741b0	0.32667303
12	0xbe81637c	-0.25271213
13	0x3fa0e97d	1.2571255
14	0x3c824cf0	0.015905827
15	0xbf64dc9b	-0.8939912
16	0x3ee92686	0.45537204
17	0xbc7fa8a3	-0.015604171
18	0x3faac041	1.3339921
19	0xbe8cae54	-0.27476752
20	0xbf0c60da	-0.54835284
21	0xc03870bb	-2.8818805
22	0xbfc2a67f	-1.520706
23	0x3f85b3d5	1.0445505
24	0x3e443405	0.19160469
25	0xbf375c52	-0.71625245
26	0x3fdae3f8	1.710082
27	0x3e966d56	0.29380292
28	0x3f812925	1.0090681
29	0x3fb1ef55	1.3901163
30	0xbd6e08ee	-0.058113985
31	0xbf2cf459	-0.67560345
32	0xbf31da1f	-0.6947345
33	0x3fe594ec	1.7936072
34	0xbf6ed3d1	-0.93291956
35	0xbf2581fe	-0.6465148
36	0x3d3ba800	0.045814514
37	0x3f18f681	0.59751135
38	0x3f016a4e	0.50552833
39	0x3fa28ca7	1.2699174
40	0xbf883a24	-1.0642743
41	0xbfe172c0	-1.7613144
42	0x3fc61a70	1.5476818
43	0x3bfbb72c	0.007681748
44	0xbfce79e1	-1.6130944
45	0x3cf7f399	0.030267524
46	0xbf239f58	-0.63915014
47	0x3f363f7b	0.71190614
48	0x3f92d26f	1.1470469
49	0xbdcc74d3	-0.0998322
50	0x3b4ed8d9	0.0031562357
51	0x3f2cce93	0.6750271
52	0x3ef9c84a	0.4878562
53	0x3e4c3eb4	0.19945794
54	0x3dfe7b6a	0.12425883
55	0x3f154559	0.5830894
56	0x3dd020ca	0.10162504
57	0xbf805d8e	-1.0028551
58	0x3f305c5e	0.6889094
59	0x3f8cc8b6	1.0998752
60	0x4006b6fe	2.104919
61	0xbf5f873f	-0.87315744
62	0xbf27cd95	-0.6554807
63	0xbf253671	-0.64536196
64	0x3fc6bb2c	1.552587
65	0xbf454934	-0.77064824
66	0x3e1a1e35	0.15050586
67	0x3fab5ead	1.3388268
68	0x40037781	2.054169
69	0x3f34f412	0.7068492
70	0xbf3cb8ca	-0.73719466
71	0xbef551e5	-0.47914043
72	0x3e73d040	0.2380991
73	0xbf10899b	-0.5645997
74	0x3f7005b1	0.93758684
75	0x3ef4c474	0.47806132
76	0xbf55c565	-0.83504325
77	0x3fa3f77e	1.2809904
78	0x3e90ed6b	0.28306136
79	0xbf1cafbf	-0.6120567
80	0xbf6a2089	-0.91455895
81	0xbf1c4e02	-0.6105653
82	0x3e341cc2	0.17589095
83	0xbf88c1b9	-1.068412
84	0xbf3cef92	-0.73803055
85	0xc00e3de1	-2.2225268
86	0xbf342a7b	-0.7037732
87	0x3f0a16ed	0.5394123
88	0x3f4788df	0.77943224
89	0x3db85d10	0.09002125
90	0x3ec65991	0.3874021
91	0xbfe92efd	-1.8217465
92	0xbf9405c4	-1.156426
93	0x3e0b4ede	0.13604304
94	0x3f1cd566	0.6126312
95	0x3fab0f49	1.336404
96	0xbfc34835	-1.5256411
97	0x3eb0853c	0.3447665
98	0xbfb15dbe	-1.3856733
99	0xbe0bfbe2	-0.13670304
100	0xbe9ef139	-0.31043413
101	0xbf95f01d	-1.1713902
102	0x3f2d369e	0.67661464
103	0xbfa10344	-1.2579122
104	0xbf8dedf8	-1.1088247
105	0x3ea83149	0.32850102
106	0xbf37e91d	-0.7184008
107	0xbf630001	-0.8867188
108	0xbf45791b	-0.7713792
109	0x3f09d2ba	0.5383717
110	0x3eb9c027	0.36279413
111	0x3f239c71	0.63910586
112	0xbfb7276b	-1.4308904
113	0xbf513055	-0.81714374
114	0x3f9e1f98	1.2353392
115	0xbfeceac6	-1.8509147
116	0x3ec96f4a	0.3934272
117	0x3f8b893f	1.0901259
118	0x3ef51a45	0.47871605
119	0xbf958f93	-1.168444
120	0xbed5c5aa	-0.41752368
121	0xbe98f5b9	-0.29874972
122	0x3f7aa983	0.97914904
123	0xbedfdd5c	-0.4372357
124	0xbf237dab	-0.6386363
125	0xbebe484f	-0.37164542
126	0xbfb72fb2	-1.431143
127	0xbf11c733	-0.5694458
128	0x3f9d6bc6	1.2298515
129	0x3f54d005	0.8312991
130	0x3eb8af92	0.3607145
131	0x3ea1f6a0	0.31633472
132	0xc033f570	-2.8118553
133	0xbf480027	-0.7812523
134	0x3ee73a57	0.45161697
135	0x3eaf71af	0.3426642
136	0xbf96e783	-1.1789402
137	0x3d2b02d9	0.041750763
138	0xbdd8d6fb	-0.10587879
139	0xbe879ea3	-0.26488218
140	0x401a11e9	2.4073431
141	0x3fcb820e	1.5899065
142	0xbe871652	-0.26384217
143	0xbfc434cb	-1.5328611
144	0xbf1a20bd	-0.60206205
145	0xbf4fe2e7	-0.812056
146	0xbfba0361	-1.4532281
147	0xbecc1499	-0.39859465
148	0xbe9fa0da	-0.31177408
149	0xbdb756e1	-0.08952118
150	0x3f138737	0.57628196
151	0xbfcd4a96	-1.6038387
152	0x3ea8382a	0.3285535
153	0xc012f00f	-2.295902
154	0xbf5fc616	-0.8741163
155	0xbfd6a9f0	-1.6770611
156	0x3f0da08f	0.5532312
157	0xbfbd3cb0	-1.4784145
158	0x3f3bcdc7	0.73360866
159	0xbfb101e7	-1.3828706
160	0x3eaacbc5	0.3335859
161	0xbdfdf149	-0.12399537
162	0x3e56cbca	0.20976177
163	0x3f99d561	1.2018243
164	0x3f9f432a	1.2442372
165	0xbe067a01	-0.13132478
166	0x400a3a89	2.1598227
167	0x3d94c030	0.07263219
168	0x3ef78faf	0.4835181
169	0x3da1d214	0.07901397
170	0x3ed33806	0.4125368
171	0xbfe3fde1	-1.7811853
172	0x3f9e1ce0	1.2352562
173	0x4026ec19	2.6081603
174	0x3e529099	0.20562972
175	0x3ea0c88d	0.31403008
176	0xbf926e6b	-1.1439947
177	0x400e6830	2.225109
178	0x3db487c0	0.08814955
179	0x3f4dbd08	0.80366564
180	0xbf8aeb0b	-1.085298
181	0xbdb6673f	-0.089064114
182	0xbfbbf438	-1.4683905
183	0xbfe29190	-1.7700672
184	0xbff1d2eb	-1.8892492
185	0x3c88b084	0.016685732
186	0xbfff9aa1	-1.9969064
187	0xbffcfedc	-1.9765277
188	0x40095d4f	2.14632
189	0xbf62ee82	-0.88645184
190	0xbf1cc7c5	-0.61242324
191	0x3fdb7aec	1.7146888
192	0x3ebea6ab	0.37236533
193	0xbf4242fc	-0.7588346
194	0xba7e776e	-0.00097071275
195	0x3fe10325	1.7579085
196	0xbf134e4e	-0.5754136
197	0x3f4ad2af	0.7922773
198	0x3f441938	0.7660098
199	0x3fb90756	1.4455364
200	0xbf0e8b42	-0.5568124
201	0xbdecb636	-0.115581915
202	0x3eecd386	0.4625513
203	0xbeed2317	-0.46315834
204	0xbffbaa8d	-1.9661423
205	0x3f43ba4b	0.76456136
206	0xbd882ef5	-0.06649581
207	0xbfc1e217	-1.5147122
208	0xbf07b8e7	-0.53016514
209	0xbfc145c8	-1.509942
210	0xbf2fd9dd	-0.6869181
211	0x3f88363d	1.0641552
212	0xc01423a9	-2.3146765
213	0x3f00cc2d	0.5031155
214	0xbf13b6a6	-0.57700574
215	0xbd87e85e	-0.066361174
216	0x3f1ceff0	0.61303616
217	0x3f86f387	1.0543069
218	0xbf09daf9	-0.5384975
219	0x3ecca275	0.39967695
220	0x3fb32441	1.3995439
221	0x3ee9521c	0.45570457
222	0xbeecf3ba	-0.462797
223	0xbe6e10ba	-0.23248568
224	0xbe23b86a	-0.15988317
225	0x3d4ba49d	0.049717534
226	0x3e64b01b	0.22332804
227	0xbf1b6892	-0.60706437
228	0x3dd6cc4c	0.10488185
229	0xbe01d39d	-0.1267838
230	0x3fb6d63d	1.428413
231	0xbdf171f2	-0.117893115
232	0xb71c7399	-9.325239e-06
233	0x3a2037ff	0.00061118597

weight f4 [128, 76]
0	0x3e35e178	0.17761791
1	0x3e100016	0.14062533
2	0x3dca3394	0.09873119
3	0x3d346e71	0.044050638
4	0xbdc82bf0	-0.097740054
5	0x3e027228	0.1273886
6	0x3ca8f154	0.020622887
7	0x3d7f1fad	0.062286068
8	0xbdbb1fb6	-0.09136908
9	0xbd1950ef	-0.0374307
10	0xbdfde533	-0.12397232
11	0xbcfc2a50	-0.030781895
12	0x3bd02af1	0.0063527753
13	0xbdf66202	-0.12030412
14	0x3d27c866	0.0409626
15	0x3d52eaa5	0.051493306
16	0x3d505202	0.05085946
17	0xbd79860e	-0.06091886
18	0xbdb9b464	-0.0906761
19	0xbd1b179c	-0.037864313
20	0x3d4f24fa	0.050572373
21	0x3ded212e	0.11578594
22	0x3d8e87bb	0.06959482
23	0xbc8fb4a1	-0.017542185
24	0x3d1b05eb	0.03784744
25	0xbde8894b	-0.113543116
26	0xbdcc08b2	-0.09962596
27	0x3d666fc2	0.056258924
28	0xbd789e99	-0.060698126
29	0x3d6e1f85	0.058135528
30	0xbda07305	-0.07834438
31	0xbd51c9df	-0.05121791
32	0xbdc390ef	-0.09549128
33	0x3d69c9cc	0.057077214
34	0xbc34b71f	-0.011029988
35	0x3db0af52	0.0862719
36	0x3d92845e	0.07154153
37	0x3d8dc070	0.0692147
38	0x3c1754ed	0.0092365565
39	0xbd879c00	-0.066215515
40	0xbcfcc4a2	-0.03085548
41	0x3c37fbd3	0.011229473
42	0x3d98a87f	0.07454013
43	0xbd82c5dd	-0.06385396
44	0x3e019304	0.12653738
45	0xbd68b278	-0.056810826
46	0xbe28c44b	-0.1648113
47	0xbd566f9e	-0.05235254
48	0x3dd7cb57	0.10536831
49	0x3e074da8	0.13213217
50	0xbdcb66fb	-0.09931751
51	0x3d9528fd	0.072832085
52	0x3d826761	0.06367374
53	0x3d5e8ef0	0.054335535
54	0x3dc0e156	0.094179794
55	0xbd521ae4	-0.051295176
56	0x3d6509c9	0.055917535
57	0x3d8582bc	0.06519076
58	0xbca4662e	-0.020068254
59	0x3d1b3de8	0.037900835
60	0xbb2f3157	-0.002673229
61	0x3cf3809f	0.029724417
62	0x3c797de3	0.015227768
63	0xbd308b9f	-0.043101903
64	0x3d0b8a68	0.03406754
65	0x3d2e993e	0.042626612
66	0xbd6ad0f2	-0.057328172
67	0xbcbd40bc	-0.023102157
68	0x3d908da1	0.070582636
69	0xbd16d174	-0.036820844
70	0x3d131db5	0.035917003
71	0xbc5413da	-0.012944186
72	0x3d0091cc	0.031389043
73	0xbd84477a	-0.064589456
74	0xbdb87e5d	-0.09008477
75	0xbdafe63f	-0.08588838
76	0x3de7e58d	0.1132308
77	0xbd5ea012	-0.054351874
78	0x3c105db6	0.008811405
79	0xbd2a5c6d	-0.04159205
80	0x3e00b7ec	0.1257016
81	0x3dc1eb3a	0.09468694
82	0xbdf00e12	-0.11721434
83	0xbdec6c9d	-0.11544154
84	0xbdd53851	-0.10411132
85	0x3d1a180e	0.037620597
86	0xbd219d60	-0.039456725
87	0xbdc20a50	-0.09474623
88	0xbcc208b0	-0.023685783
89	0x3ce63873	0.028103089
90	0xbd3a4c93	-0.045483183
91	0x3d0e7862	0.034782775
92	0xbca7549e	-0.02042609
93	0xbd4902d8	-0.049074978
94	0x3cc47758	0.023982689
95	0x3de66b61	0.1125095
96	0xbd81395c	-0.063097686
97	0x3bd80f84	0.0065936465
98	0xbd1f481c	-0.03888713
99	0x3dfb4150	0.12268317
100	0xbdc9a540	-0.09845972
101	0xbdcf8d09	-0.10134322
102	0x3e02652e	0.1273391
103	0xbd7369a3	-0.059426915
104	0x3d0eb731	0.034842674
105	0xba707f22	-0.00091742177
106	0xbc696876	-0.014246097
107	0xbcdd14b5	-0.026987413
108	0x3da6eddc	0.08150837
109	0x3c34e9c9	0.011042067
110	0xbdd3d9eb	-0.10344299
111	0xbd3f7fbf	-0.046752688
112	0xbccd67bf	-0.025073884
113	0x3d89c742	0.067274585
114	0xbd850e28	-0.06496841
115	0x3dd65704	0.10465816
116	0xbc0fdd89	-0.008780845
117	0xbb7695df	-0.0037625951
118	0x3d96491b	0.073381625
119	0x3d26d9da	0.040735103
120	0x3da14933	0.0787529
121	0x3de05980	0.10954571
122	0xbd348c21	-0.04407895
123	0xbdd813e6	-0.1055067
124	0xbac826d9	-0.0015270367
125	0x3d963cef	0.07335841
126	0xbc738e78	-0.01486551
127	0xbdca2d76	-0.09871952
128	0x3d39c1b5	0.04535075
129	0x3dd66082	0.10467626
130	0xbd225099	-0.039627645
131	0xbde617e8	-0.112350285
132	0xbdf2620c	-0.11835107
133	0x3c1c575c	0.0095423125
134	0xbccbe573	-0.024889683
135	0xbd40c974	-0.04706712
136	0x3d2ad97d	0.04171132
137	0x3ca3519e	0.019936379
138	0x3dabacf7	0.083826
139	0x3d9e797b	0.07738014
140	0xbbb48581	-0.005509079
141	0xbde30aee	-0.11086069
142	0xbdcc387c	-0.09971711
143	0x3e1c6ca7	0.15275823
144	0x3d48d53e	0.04903149
145	0x3d79c5c0	0.060979605
146	0xbe032eb6	-0.12810788
147	0x3def2bde	0.11678289
148	0x3e007f1f	0.12548493
149	0x3df4b673	0.11948862
150	0xbd96fca0	-0.07372403
151	0xbcfc001e	-0.030761775
152	0x3ba1d4e4	0.0049387086
153	0x3e1fd47a	0.15608397
154	0xbd66d39c	-0.05635415
155	0xbd7c51ad	-0.06160133
156	0x3d36652a	0.04453007
157	0xbd06b4e4	-0.032887354
158	0xbd714498	-0.058903307
159	0xbb4b7502	-0.0031045084
160	0xbbb3f6d4	-0.0054920707
161	0xbd90b483	-0.0706568
162	0x3da34bdd	0.07973454
163	0xbd402b2f	-0.046916183
164	0x3ca8e2c7	0.020615948
165	0x3de139cc	0.10997352
166	0x3d9db7e8	0.07701093
167	0x3c3e8f47	0.01163084
168	0x3df24cab	0.118310295
169	0x3c59014b	0.013244937
170	0xbd7031e0	-0.058641315
171	0x3dd4a96c	0.10383877
172	0x3d013f35	0.03155442
173	0xbdd330af	-0.1031202
174	0xbc95c073	-0.018280244
175	0xbd9fe921	-0.07808138
176	0x3dd5fbdf	0.10448431
177	0xbc8e7f7b	-0.017394772
178	0xbdccb411	-0.099952824
179	0xbb8da9f3	-0.004323238
180	0x3d9ee63c	0.077587575
181	0x3d115521	0.035481576
182	0x3d2ab335	0.04167481
183	0x3c9806ff	0.018558023
184	0x3d3581ab	0.044313114
185	0xbcbcd688	-0.023051515
186	0xbd283b86	-0.04107239
187	0xbddc033b	-0.10742804
188	0xbdbcb044	-0.092133075
189	0x3d775e09	0.060392413
190	0xbd6b721a	-0.057481863
191	0xbc9a62ef	-0.018846003
192	0x3d0d44bf	0.03448939
193	0x3be7468f	0.007057972
194	0xbd9f161c	-0.07767889
195	0x3dda9844	0.106735736
196	0xbd3a3bbe	-0.04546713
197	0x3dd260ed	0.102723934
198	0xbe252703	-0.16128163
199	0xbcfc804e	-0.0308229
200	0x3d7f4061	0.062317256
201	0xbd6c1d29	-0.057644997
202	0x3dc92a5a	0.09822531
203	0xbdb18cb8	-0.08669418
204	0xbdbe7135	-0.09298936
205	0xbda480d2	-0.08032383
206	0xbb29417e	-0.002582639
207	0x3e0f5c20	0.13999987
208	0xbcd78d1d	-0.026312405
209	0x3dadb21a	0.08481236
210	0x3b14522e	0.002263199
211	0xbcc3af33	-0.023887252
212	0x3dbfc3a5	0.09363488
213	0xbdb66aad	-0.089070655
214	0x3cdbc170	0.026825637
215	0x3db95e32	0.090511695
216	0xbc39df03	-0.011344674
217	0x3db046b5	0.08607236
218	0xbd3df771	-0.046378557
219	0x3d9ae84c	0.07563838
220	0xbdcfda9a	-0.10149117
221	0xbd0497f9	-0.032371495
222	0xbd27f23c	-0.041002497
223	0x3d91c30f	0.071172826
224	0x3d1404b4	0.036137298
225	0x3dd1e0d3	0.1024796
226	0xbce40481	-0.027834179
227	0xbcb2e146	-0.021835934
228	0x3e25fcc3	0.16209702
229	0x3d4ef029	0.050522003
230	0x3dd05619	0.10172672
231	0xbd945755	-0.0724322
232	0xbc92ffcb	-0.017944237
233	0x3a94798f	0.0011327731
234	0x3d5ab7c7	0.05339792
235	0x3db173b2	0.08664645
236	0xbcb2be8c	-0.021819375
237	0xbdbb7a2e	-0.09154163
238	0x3d495f65	0.04916324
239	0x3cb7b26c	0.022423945
240	0x3c721561	0.014775605
241	0xbdb88642	-0.09009983
242	0x3da38109	0.07983596
243	0x3dda4e42	0.10659458
244	0x3d42f88a	0.047600307
245	0xbdcf614d	-0.101259805
246	0x3dac6e99	0.08419532
247	0xbda67264	-0.08127287
248	0x3cd35e5c	0.02580183
249	0x3c967b7c	0.018369429
250	0xbd52de68	-0.051481634
251	0x3d12ddba	0.035855986
252	0xbdd1609a	-0.102235034
253	0x3ce42a79	0.027852284
254	0xbd92f04c	-0.07174739
255	0xbc05ca84	-0.008165959

bias f4 [128]
0	0xbd8cf5b6	-0.06882803
1	0xbd9584f3	-0.07300749
2	0xbda4cc38	-0.08046764
3	0x3d72708a	0.059189357
4	0x3c44478f	0.0119799515
5	0xbbd2edbe	-0.0064370325
6	0x3ce13897	0.027492804
7	0x3d69ce29	0.057081375
8	0x3bed82b6	0.007248248
9	0x3d84d0b5	0.0648512
10	0xbc5354a6	-0.0128986
11	0x3d3277e1	0.043571357
12	0x3d1269d0	0.035745442
13	0xbb1766ab	-0.0023101966
14	0x3dc34faf	0.09536683
15	0x3de07527	0.10959845
16	0x3db947b0	0.090468764
17	0xbcd2551d	-0.02567535
18	0xbcb20ccd	-0.02173462
19	0x3dcb95ef	0.09940707
20	0xbd569e9c	-0.052397355
21	0x3bfe9991	0.0077697714
22	0xbd92f9f7	-0.07176583
23	0xbcf22933	-0.029560661
24	0xbd35a64a	-0.04434804
25	0x3d902260	0.070378065
26	0xbd64320a	-0.055711783
27	0xbd8aa397	-0.067694835
28	0x3d3ca988	0.046060115
29	0xbc159058	-0.0091286525
30	0x3c80ec25	0.015737602
31	0xbdb10e37	-0.086452894
32	0xbd3981f3	-0.045289945
33	0x3d77632d	0.060397316
34	0x3d8af95e	0.06785844
35	0xbdc94dda	-0.09829302
36	0xbd9dd6a2	-0.077069536
37	0x3d34f759	0.0441812
38	0xbdd72639	-0.10505337
39	0xbd8549f4	-0.06508246
40	0xbd801482	-0.062539116
41	0xbdcb543d	-0.099281766
42	0xbd5c9c64	-0.053860083
43	0x3d9fdbfa	0.07805629
44	0xbdef5287	-0.11685663
45	0x3d9e69cc	0.07735023
46	0xbddcde27	-0.1078456
47	0xbce31070	-0.027717799
48	0xbd354f46	-0.044265054
49	0x3d886378	0.06659597
50	0xbdd18179	-0.10229773
51	0xbd7ad14d	-0.06123476
52	0xbdde2361	-0.10846592
53	0xbb63b94a	-0.0034747892
54	0x3d3de028	0.04635635
55	0x3dc37045	0.09542898
56	0x3db90120	0.09033418
57	0xbceeb0e8	-0.02913709
58	0xbd8ee547	-0.06977325
59	0x3cd116b0	0.025523514
60	0x3d846408	0.06464392
61	0x3dcc5b3e	0.099783406
62	0x3db7c4ee	0.08973108
63	0xbbcf3323	-0.0063232346
64	0xbdcfaa0f	-0.10139858
65	0xbd87720c	-0.066135496
66	0x3d880bff	0.06642913
67	0xbdc4fae0	-0.09618163
68	0xbdaed283	-0.08536246
69	0xbd9514ae	-0.07279335
70	0xbcf849a0	-0.030308545
71	0x3d5022f8	0.0508146
72	0x3da4ab45	0.080404796
73	0x3dd07c91	0.10180009
74	0x3d433a30	0.047662914
75	0x3c6e3c2c	0.014540713
76	0xbc8fdcd7	-0.01756136
77	0xbd9137f9	-0.07090754
78	0xbd65d04e	-0.056106858
79	0xbc49a37e	-0.012307046
80	0x3dbdf882	0.09275915
81	0xb9180a14	-0.00014499604
82	0xbc94586e	-0.018108573
83	0xbb98b188	-0.0046598352
84	0xbd57c25a	-0.052675582
85	0xbd7e3ba0	-0.06206858
86	0x3d52ec3a	0.051494814
87	0xbdb7a21a	-0.08966465
88	0xbb942b44	-0.004521759
89	0xbbe10a3f	-0.0068676765
90	0x3c0e9a70	0.008703813
91	0xbc614488	-0.013749249
92	0xbd70360d	-0.058645297
93	0xbce398dd	-0.027782852
94	0xbd16c552	-0.036809273
95	0x3d106f29	0.03526226
96	0x3c92fa01	0.017941477
97	0xbd089b5a	-0.03335128
98	0x3dbe2430	0.09284246
99	0xbb180de1	-0.0023201632
100	0x3d6b5192	0.05745084
101	0xbced90d6	-0.028999727
102	0xbdda9217	-0.10672396
103	0xbdc0b32d	-0.09409175
104	0xbd24725e	-0.04014813
105	0x3d86c419	0.065803714
106	0x3d77e2df	0.060519096
107	0x3d4bda34	0.04976864
108	0x3d27cc74	0.040966466
109	0xbd865727	-0.06559592
110	0xbd170b7f	-0.036876198
111	0x3c8d5345	0.01725162
112	0xbdd335d5	-0.10313002
113	0xbdbc4788	-0.09193331
114	0xbdac7b99	-0.08422012
115	0x3cc6e90a	0.024281044
116	0xbcc4fa7b	-0.02404522
117	0xbc9b68e6	-0.018970918
118	0x3d87b8f6	0.066270754
119	0xbd95a4cc	-0.07306823
120	0xbd9316e8	-0.071821034
121	0xbcde1c10	-0.02711299
122	0x3d7c3f5d	0.061583865
123	0x3c1e18c3	0.009649458
124	0xbdd0be5a	-0.10192557
125	0x3d9ec643	0.07752659
126	0xbd9a6ea1	-0.07540632
127	0x3da87930	0.0822624

weight f4 [128, 128]
0	0x3c8e155a	0.017344166
1	0x3cdac825	0.026706764
2	0x3d8cf7a7	0.068831734
3	0x3ccf8365	0.025331208
4	0xbdaf3c10	-0.08556378
5	0x3cb43e8f	0.022002487
6	0x3dc99f97	0.098448925
7	0xbd17c504	-0.037053123
8	0x3d2f2262	0.0427574
9	0x3d930967	0.07179528
10	0xbc4440a6	-0.011978304
11	0x3b70e2a8	0.0036756191
12	0xbd21c4ab	-0.039494198
13	0x3dd3205c	0.103089064
14	0x3d515b08	0.051112205
15	0x3db92add	0.09041379
16	0xbdb25d90	-0.08709252
17	0xbd2d757f	-0.04234838
18	0xbcc08f53	-0.023505842
19	0x3cd067de	0.025440153
20	0xbd428f9a	-0.04750023
21	0x3cfe483b	0.031040302
22	0x3d4cf82a	0.050041355
23	0xbcd2d466	-0.025736045
24	0x3c43856f	0.0119336685
25	0xbd711e14	-0.058866575
26	0xbbdd2588	-0.006748859
27	0x3c59dbf9	0.0132970745
28	0x3d895a81	0.067067154
29	0x3d0e9dcf	0.034818467
30	0x3cf1d157	0.029518766
31	0x3d3ac9b3	0.04560251
32	0x3d6f6568	0.058446318
33	0xbbf66846	-0.0075197546
34	0x3df03cc7	0.11730342
35	0xbd3e3827	-0.04644027
36	0x3d4805e8	0.048833758
37	0x3c5c5bbb	0.013449605
38	0x3d89d394	0.067298084
39	0xbd943aea	-0.072377995
40	0x3d3724c3	0.044712793
41	0xbd912746	-0.07087569
42	0xbd31c6a0	-0.043402314
43	0xb9c29797	-0.00037115507
44	0xbcf5d980	-0.030010939
45	0xbcd3f601	-0.02587414
46	0xbd8cc889	-0.068741865
47	0xbd92bf71	-0.07165421
48	0xbc8c0a2f	-0.0170947
49	0x3d8f4b0e	0.069967374
50	0xbcb4aa66	-0.022053909
51	0xbd7f1336	-0.06227418
52	0xbd285524	-0.04109682
53	0x3a8cb55a	0.0010735199
54	0xba30f1b5	-0.00067498843
55	0x3d8dc767	0.069227986
56	0xbda62232	-0.08111991
57	0x3d2f70d7	0.04283222
58	0x3d86bd2a	0.06579049
59	0x3d6e6de5	0.058210272
60	0xbd6ea2cc	-0.058260724
61	0xbb41ac49	-0.0029552153
62	0x3d33f36c	0.043933317
63	0xbd8c993d	-0.068651654
64	0x3d8f5330	0.06998289
65	0x3b876f4c	0.0041331407
66	0xbda04237	-0.078251295
67	0x3a55b0c9	0.0008151648
68	0x3c2ab323	0.010418686
69	0xbce40c25	-0.027837822
70	0xbd0d42e9	-0.03448764
71	0xbca8e071	-0.020614835
72	0x3cf1570f	0.029460458
73	0x3d62fa95	0.055414755
74	0xbbf5712e	-0.0074902987
75	0xbb186a3f	-0.0023256687
76	0x3d44c5dc	0.048040256
77	0x3d4e99db	0.050439697
78	0x3d5a5143	0.053300153
79	0x3d49ea4a	0.0492957
80	0x3cb12599	0.021624373
81	0xaf1fbd01	-1.4528113e-10
82	0xbd42ebc2	-0.047588117
83	0xbd1278fa	-0.035759903
84	0x3d23ae1f	0.039960977
85	0xbc58b8a6	-0.013227617
86	0x3da74ab3	0.081685446
87	0xbd67cdd0	-0.056592762
88	0x3d00082b	0.03125779
89	0x3da4585b	0.08024665
90	0x3d812025	0.06304959
91	0x3dd48bb7	0.10378211
92	0xbd4c7dc8	-0.04992464
93	0x3d28b828	0.04119125
94	0xbdafa121	-0.08575655
95	0xbd484bc4	-0.04890038
96	0xbb848ec7	-0.0040453407
97	0x3d8b9b25	0.06816701
98	0xb805ae60	-3.187207e-05
99	0xbd8cec89	-0.06881053
100	0xbd95138c	-0.07279119
101	0x3cfc964c	0.030833386
102	0x3c2828c7	0.010263628
103	0x3c44f3d1	0.012021021
104	0xbceb627a	-0.02873348
105	0x3cb58f38	0.022163019
106	0x3bc81818	0.006106388
107	0xbcb63765	-0.022243211
108	0x3ceaf32f	0.028680412
109	0xbd0d39f3	-0.034479093
110	0xbd1e5ba4	-0.038661614
111	0x3b482bf3	0.0030543774
112	0xbcf1a87c	-0.029499285
113	0x3cfda5aa	0.030962784
114	0xbcc4b3ab	-0.024011454
115	0x3d329ccc	0.043606564
116	0x3d9e4894	0.07728687
117	0x3d6aa974	0.05729051
118	0x3cc84502	0.024446968
119	0xbcf3a8ad	-0.029743517
120	0xbd22d13d	-0.039750326
121	0xbcfa022e	-0.030518617
122	0xbc98f2b2	-0.018670414
123	0xbd4194c2	-0.047261007
124	0x3d38708f	0.04502922
125	0xbdb9abd9	-0.090659805
126	0xbbeac249	-0.007164274
127	0x3da3801a	0.07983418
128	0xbd584b9b	-0.052806478
129	0xbc27bc12	-0.010237711
130	0x3d72d3e4	0.059284106
131	0xbc97290b	-0.018452188
132	0xbd071ff9	-0.032989476
133	0x3d8272ba	0.063695386
134	0xbd9c65b7	-0.07636588
135	0x3dafb10a	0.085786894
136	0x3de03a65	0.10948638
137	0x3c3cc885	0.011522417
138	0xbae4d08c	-0.0017457171
139	0xbd3880d6	-0.045044743
140	0x3da69289	0.08133418
141	0xbd921577	-0.07133
142	0xbcec15d5	-0.028819004
143	0x3d02c91b	0.03193007
144	0x3cdb18c6	0.026745211
145	0x3d8accdc	0.06777355
146	0xbc55403f	-0.013015806
147	0x3da3e28d	0.080021955
148	0x3d79482d	0.060859848
149	0xbda846d8	-0.082166374
150	0xbdaf9f52	-0.0857531
151	0x3db7782e	0.08958469
152	0x3dbc8396	0.092047855
153	0x3db0cb25	0.08632497
154	0xbd450687	-0.048101928
155	0x3daf353d	0.08555076
156	0xbd1276cd	-0.03575783
157	0x3cf190b1	0.02948794
158	0x3d2a1128	0.041520268
159	0xbd8b01a3	-0.067874216
160	0xbd33a6ad	-0.043860126
161	0x3d7e6206	0.0621052
162	0xbe000f2f	-0.12505792
163	0x3c975c6b	0.018476686
164	0x3cdf07ff	0.027225493
165	0x3d539502	0.051655777
166	0x3a771ad5	0.00094263005
167	0xbd40ea98	-0.047098726
168	0x3cbb344f	0.022852091
169	0xbc9a35fc	-0.01882457
170	0xbd18bf01	-0.03729153
171	0xbb8af11b	-0.004240168
172	0xbd35a9a0	-0.04435122
173	0x3d539f91	0.051665846
174	0xbd2710a4	-0.040787354
175	0xbc823059	-0.015892195
176	0xbd91c95d	-0.07118485
177	0x3db38e31	0.08767355
178	0x3d5507fd	0.05200957
179	0x3d9b9881	0.07597447
180	0x3db7b0aa	0.08969243
181	0x3b869a3b	0.004107741
182	0x3da09c84	0.07842353
183	0xbc134739	-0.008989149
184	0x3d9a8620	0.075451136
185	0x3d152cd1	0.036419693
186	0x3d5c218e	0.053742938
187	0xbcf7ac7f	-0.03023362
188	0x3d302248	0.043001443
189	0x3c49bfbd	0.01231378
190	0xbd01ae8a	-0.031660594
191	0x3d9ab0d5	0.07553259
192	0xbd5f7bba	-0.054561354
193	0xbdb9b373	-0.0906743
194	0x3d8743f1	0.06604756
195	0xbdcf66b3	-0.1012701
196	0x3ceb5950	0.028729111
197	0x3d829816	0.06376664
198	0x3b118f2d	0.0022210584
199	0xbd89c504	-0.06727031
200	0xbd081b55	-0.03322919
201	0xbd10d09c	-0.035355195
202	0xbc2ec78e	-0.010667695
203	0x3d792f72	0.060836263
204	0x3d406ebd	0.04698061
205	0xbcf05adc	-0.0293402
206	0xbcce6434	-0.025194265
207	0xbd866579	-0.06562323
208	0x3cd9c20f	0.026581792
209	0x3b0afbef	0.0021207293
210	0xbc4ab2d1	-0.012371735
211	0xbb86195d	-0.004092379
212	0xbc277870	-0.010221586
213	0xbd9a403e	-0.075317845
214	0x3d9d88f7	0.076921396
215	0x3c94f5fe	0.018183704
216	0x3e051670	0.1299684
217	0xbdbf6e0e	-0.09347163
218	0xbcb59b92	-0.022168908
219	0xbd84f73e	-0.0649247
220	0x3d1bba6b	0.03801958
221	0xbc5903ca	-0.013245532
222	0xbd3a8a29	-0.045541916
223	0x3da0a4b7	0.07843917
224	0x3d9810ee	0.07425104
225	0x3dda5644	0.10660985
226	0x3cc9ea06	0.024647724
227	0x3d629073	0.05531354
228	0xbd535ee0	-0.05160415
229	0xbcf15e8c	-0.029464029
230	0xbca1fd25	-0.019774029
231	0x3ca9cfa7	0.0207289
232	0x3ca8b0a0	0.020592034
233	0x3cb85ec9	0.022506135
234	0xbd2c209c	-0.042023286
235	0x3d070821	0.032966737
236	0x3cc62a75	0.024190167
237	0xbd9917c4	-0.07475236
238	0xbd6706df	-0.056403037
239	0xbc77ff9e	-0.0151366275
240	0xbd5ccfd0	-0.053909123
241	0xbdd61e5b	-0.104550086
242	0xbacfcc4b	-0.0015853731
243	0xbd99e533	-0.075144194
244	0xbd9eb76d	-0.077498294
245	0x3dbe4c94	0.0929195
246	0xbd8d0a43	-0.06886723
247	0x3cc5c03d	0.024139518
248	0x3ca6b4a1	0.020349802
249	0x3a8930db	0.001046683
250	0x3d8e6314	0.069524914
251	0xbd66bb1d	-0.05633079
252	0x3d48bd07	0.049008396
253	0x3d94ef59	0.072722144
254	0x3d9fae85	0.07796959
255	0xbdcf8577	-0.10132878

bias f4 [128]
0	0x3817ce5a	3.6193385e-05
1	0x3d1964ec	0.037449762
2	0x3d12b665	0.035818476
3	0xbd9b5f31	-0.07586516
4	0xbcfde3b2	-0.030992363
5	0xbda0323f	-0.07822084
6	0xbdb08d13	-0.08620658
7	0x3d5eee51	0.054426495
8	0x3d8b2142	0.06793453
9	0xbd88554f	-0.06656896
10	0xbcb22f4f	-0.021751074
11	0x3d52a320	0.0514251
12	0x3d9d706a	0.07687457
13	0x3d9c46e0	0.07630706
14	0x3d2752c0	0.0408504
15	0xbdac3962	-0.084093824
16	0xbd4568bf	-0.048195597
17	0x3d933377	0.071875505
18	0xbda71cc4	-0.081597835
19	0xbd029b8b	-0.03188662
20	0xbd96a4af	-0.0735563
21	0xbd80ed5b	-0.06295272
22	0x3cbfab11	0.023397
23	0xbcc6b14e	-0.024254467
24	0xbd91b1ff	-0.07114028
25	0xbd8a9468	-0.067665875
26	0x3d8d293f	0.06892633
27	0x3d9860e0	0.074403524
28	0x3d2a7dc6	0.041623853
29	0x3d2310c2	0.039810903
30	0xbd71c42a	-0.059024967
31	0xbd18a8b3	-0.03727026
32	0xbb01b7f8	-0.0019793492
33	0x3d109898	0.035301775
34	0x3b81a298	0.0039561503
35	0x3cfa740f	0.03057292
36	0xbd190f1a	-0.037367918
37	0xbcb7e099	-0.022445964
38	0x3cd821ec	0.026383363
39	0xbda0478f	-0.07826149
40	0x3c4872e2	0.012234421
41	0x3daa2513	0.083078526
42	0xbd3d1315	-0.046160776
43	0xbca1e748	-0.019763604
44	0xbc0d707c	-0.008632775
45	0xbcd65bda	-0.026166845
46	0x3d80bf47	0.06286483
47	0x3ca01540	0.019541383
48	0x3db9abaf	0.09065949
49	0xbcea6172	-0.028610919
50	0x3d046bc0	0.03232932
51	0x3cd1af41	0.025596263
52	0xbd41a644	-0.047277704
53	0xbda30f21	-0.0796187
54	0x3d6bd163	0.057572734
55	0xbd6bf40f	-0.0576058
56	0xbcfdedfe	-0.030997273
57	0xbc93e5b9	-0.018053876
58	0xbdc79a20	-0.09746194
59	0x3d8046ff	0.062635414
60	0xbc9d7817	-0.019222302
61	0xbd40d1cf	-0.04707509
62	0xbda0cea9	-0.07851917
63	0x3ce1866d	0.02752992
64	0xbc213957	-0.009840331
65	0xbab2a1b4	-0.0013628514
66	0xbcdaab02	-0.026692871
67	0x3c8ebc8e	0.017423894
68	0xbca09a6f	-0.01960489
69	0x3c6768ec	0.014124136
70	0x3d7b34b0	0.061329544
71	0x3cc3437e	0.023835894
72	0xbd3f9097	-0.04676875
73	0xbcb32df2	-0.021872494
74	0xbd07a6b7	-0.033117976
75	0x3c3cb35d	0.011517373
76	0x3d6a6d67	0.05723324
77	0xbc0d774a	-0.008634398
78	0xbcf4fead	-0.029906595
79	0xbd0f37c3	-0.034965288
80	0x3d662c84	0.056194797
81	0xbc694743	-0.0142381815
82	0x3c246c24	0.010035548
83	0xbc296f56	-0.010341486
84	0xbda1d934	-0.07902756
85	0x3cdc056e	0.026858058
86	0x3da8759a	0.08225556
87	0xbd47c530	-0.048772037
88	0x3cb67892	0.02227429
89	0x3d0abc84	0.03387119
90	0xbcd58fc0	-0.026069522
91	0xbc64a856	-0.01395615
92	0xbbab50ec	-0.0052281525
93	0x3d430784	0.04761459
94	0xbb7cf21a	-0.0038596452
95	0xbda6d6a2	-0.08146407
96	0xbcc58aac	-0.024113975
97	0xbcbf8328	-0.02337797
98	0xbc611746	-0.013738459
99	0xbd3d50c5	-0.046219606
100	0x3bf00ed1	0.007325985
101	0xbb054117	-0.0020332986
102	0xbd25ba16	-0.04046067
103	0xbc18328f	-0.009289398
104	0xbd80f038	-0.06295818
105	0xbd3d5e07	-0.04623225
106	0x3d466ed3	0.048445534
107	0x3c1aecef	0.009455903
108	0x3d69373e	0.05693745
109	0x3cb105b8	0.021609172
110	0x3d4fc69b	0.050726514
111	0x3db51b3d	0.08843086
112	0x3d968a02	0.07350542
113	0xbcdae05a	-0.026718307
114	0xbd01aad8	-0.03165707
115	0x3d9cbd20	0.0765326
116	0x3d55b2c4	0.052172437
117	0x3d9c3519	0.07627315
118	0x3d923bcc	0.071403116
119	0x3d811b97	0.063040905
120	0x3c0079c7	0.007841534
121	0xbbe75310	-0.0070594624
122	0xbd3d647c	-0.046238407
123	0x3dcb0e19	0.09914798
124	0xbd36ad33	-0.04459877
125	0x3d325708	0.04354003
126	0xbbd4fb13	-0.006499657
127	0xbd3c7311	-0.046008173

weight f4 [128, 128]
0	0xbd725e38	-0.059171885
1	0x3ce05ffa	0.027389515
2	0xbcc65f1c	-0.024215274
3	0x3d81ca7b	0.06337448
4	0xbcf9d83e	-0.03049862
5	0xbca83138	-0.020531282
6	0x3c6a5d87	0.014304525
7	0x3da42f93	0.080168866
8	0xbdcac64e	-0.09901105
9	0xbbf6c339	-0.0075305966
10	0xbca7a122	-0.020462576
11	0x3d13508a	0.03596548
12	0x3db8dd17	0.090265445
13	0x3bb94d42	0.005654962
14	0x3cb2f319	0.021844434
15	0x3d4e954e	0.050435357
16	0xbd9b52c6	-0.07584147
17	0x3d87e3d8	0.066352546
18	0x3de1ce25	0.11025647
19	0xbd0d86b4	-0.03455229
20	0xbc33d65e	-0.010976402
21	0x3c84a43e	0.016191598
22	0xbd604cdd	-0.054760803
23	0xbd350c1b	-0.044200998
24	0x3d9a5059	0.07534856
25	0x3d7fc11b	0.06244002
26	0xbd9e8c32	-0.07741584
27	0x3d89db1b	0.06731244
28	0xbd07562e	-0.03304117
29	0xbbdeaa9e	-0.0067952415
30	0xbdd182ca	-0.10230024
31	0xbdbdf703	-0.09275629
32	0xbb1245ac	-0.002231936
33	0xbd3b3d9c	-0.045713052
34	0xbd5b03d6	-0.053470455
35	0x3d3b2832	0.04569263
36	0x3d9a6ea4	0.07540634
37	0xbd9d64fd	-0.076852776
38	0x3d533cef	0.051571783
39	0x3da20ee5	0.07912997
40	0xbce5b6a0	-0.028041184
41	0x3d095b20	0.03353417
42	0xbac441ea	-0.0014973257
43	0x3be523cb	0.0069927922
44	0xbc042e33	-0.008067655
45	0x3d34e628	0.044164807
46	0x3da6b1d4	0.08139387
47	0xbc447f27	-0.011993206
48	0xbd33be7b	-0.04388283
49	0x3db1ffe1	0.08691383
50	0x3db353c5	0.08756212
51	0xbd865ed3	-0.06561055
52	0x3db0608c	0.08612165
53	0xbd1cbef4	-0.038268045
54	0x3d8aef15	0.067838825
55	0x3b27ccb3	0.0025604188
56	0x3bc20942	0.005921514
57	0xbd729b32	-0.059230037
58	0x3bda1e02	0.0066564092
59	0xbd9a1db7	-0.07525199
60	0xbc840abf	-0.016118405
61	0x3d8b6a97	0.0680744
62	0x3d95fb00	0.07323265
63	0xbc755752	-0.014974432
64	0x3d57a323	0.052645814
65	0x3cd51216	0.0260096
66	0x3d8f5881	0.06999303
67	0x3d7a8fd1	0.06117231
68	0xbd07c199	-0.033143613
69	0x3d180763	0.03711642
70	0x3d6eed37	0.058331694
71	0x3d3dfbcf	0.04638272
72	0xbc261155	-0.010135968
73	0x3c91d4d6	0.017801683
74	0xbd98370d	-0.07432375
75	0x3c8daeed	0.017295325
76	0xbd11899a	-0.035531618
77	0x3d1254bd	0.035725344
78	0x3d6de935	0.05808373
79	0xbba4ff20	-0.005035296
80	0xbdb57a9f	-0.08861279
81	0xbd54066d	-0.05176394
82	0x3b928a87	0.00447208
83	0xbd9dd43e	-0.077064976
84	0x3d02f979	0.031976197
85	0xbc3615cb	-0.011113594
86	0xbd84ebcd	-0.06490288
87	0x3d15ef9d	0.036605466
88	0x3d0f835f	0.035037395
89	0x3d9835f0	0.07432163
90	0xbbc23118	-0.0059262626
91	0x3cdf42b9	0.027253496
92	0x3d68f284	0.056871906
93	0x3d5baa9b	0.0536295
94	0xbd5d3470	-0.054005086
95	0xbd72ce60	-0.059278846
96	0x3c27cf0d	0.010242236
97	0x3dd1b603	0.10239794
98	0x3d4a5a1b	0.049402338
99	0xbd1421c3	-0.03616501
100	0xbcacb3d7	-0.021081848
101	0x3dc0eedd	0.094205596
102	0x3d983d00	0.0743351
103	0x3d21048c	0.039310977
104	0xbd71d043	-0.059036504
105	0xbda9a04c	-0.08282527
106	0x3d3b37c9	0.045707498
107	0x3dc13166	0.0943325
108	0x3dc43bef	0.09581744
109	0x3d3e32ef	0.046435293
110	0xbcf16edb	-0.029471805
111	0xbabece16	-0.0014557268
112	0x3da04d23	0.07827213
113	0x3c434dd6	0.011920413
114	0xbd8ad05d	-0.067780234
115	0x3d425b09	0.0474501
116	0xbd07c1d3	-0.03314383
117	0x3ce82949	0.028339999
118	0xbd0bf5f8	-0.03417012
119	0xbce30431	-0.02771196
120	0x3d876fa1	0.066130884
121	0xbd038c03	-0.032115947
122	0xbc2238b2	-0.0099012125
123	0xbd97694d	-0.073931314
124	0x3d04fc93	0.032467436
125	0xbd0bb70b	-0.03411011
126	0x3d2eebea	0.042705454
127	0x3d833277	0.0640611
128	0xbd1337db	-0.03594194
129	0x3d9cb240	0.07651186
130	0x3cbaed62	0.022818271
131	0x3dbd850e	0.09253894
132	0x3c293e11	0.010329739
133	0xbd3f22ec	-0.046664163
134	0xbc0c4f9d	-0.008563903
135	0x3da3efd6	0.080047294
136	0xbd084e83	-0.033278
137	0xbd986940	-0.0744195
138	0xbd4180eb	-0.047242086
139	0xbdaad5f4	-0.083415896
140	0xbc566416	-0.013085386
141	0x3cfc7a9d	0.030820185
142	0xba561645	-0.00081667706
143	0x3b646892	0.0034852368
144	0xbce24465	-0.027620504
145	0x3dd78ce6	0.10524921
146	0xbd9ac4af	-0.07557046
147	0xbdbfbdf1	-0.093624
148	0x3db829c4	0.08992341
149	0xbd524dbb	-0.05134366
150	0xbd92e1a9	-0.071719475
151	0xbd9c63c5	-0.07636217
152	0x3d2ff5fc	0.0429592
153	0x3d12e9cc	0.035867497
154	0x3dc53c7b	0.09630676
155	0x3d0d8176	0.03454729
156	0xbd73116b	-0.059342783
157	0x3b608d10	0.0034263767
158	0x3d09398e	0.033502154
159	0x3d6a86be	0.057257406
160	0xbd0f31f9	-0.034959767
161	0x3db0a1be	0.086246
162	0xbbe764dc	-0.007061584
163	0xbd4aa61c	-0.04947482
164	0xbc242067	-0.010017491
165	0x3d7a7a4b	0.061151784
166	0x3d1173f4	0.035510972
167	0x3daf1382	0.08548643
168	0x3d2294a8	0.03969255
169	0x3db0350e	0.086038694
170	0x3cb21388	0.021737829
171	0xbdaf8739	-0.085707135
172	0xbc656091	-0.014000074
173	0xbcdd1e36	-0.026991945
174	0x3da09dc0	0.078425884
175	0x3d915d26	0.07097845
176	0x3d460597	0.048345175
177	0xbd3abb07	-0.04558852
178	0xbd5ade61	-0.053434733
179	0xbcf90f26	-0.030402731
180	0xbda136da	-0.0787179
181	0xbd54b9ac	-0.051934883
182	0x3d819043	0.06326344
183	0x3d31a61b	0.0433713
184	0x3bce36cf	0.006293155
185	0x3d985dde	0.07439779
186	0xbd13f395	-0.03612097
187	0x3df402ca	0.119145945
188	0xbc71c7ba	-0.014757091
189	0x39974870	0.00028854934
190	0xbcce1aa8	-0.025159195
191	0x3cf2d412	0.029642139
192	0x3cca3793	0.024684703
193	0x3d5d03e0	0.053958774
194	0x3b28f989	0.00257835
195	0xbd8380b8	-0.064210355
196	0x3d76f6df	0.06029403
197	0x3d16d9cc	0.0368288
198	0x3d2054a4	0.03914322
199	0xbdc4297f	-0.09578227
200	0xbd980c1a	-0.07424183
201	0x3d3404a3	0.043949734
202	0x3da5b0b5	0.08090345
203	0xbc691f7e	-0.0142287
204	0xbcc646cc	-0.02420368
205	0x3c8b7c10	0.017026931
206	0x3b613d19	0.0034368692
207	0xbd07371a	-0.033011533
208	0xbd8c8cb6	-0.06862776
209	0x3c3632cb	0.011120508
210	0x3debb9af	0.11510026
211	0x3d93789d	0.072007395
212	0xbcfc5e67	-0.030806733
213	0x3d8d4dd9	0.06899614
214	0xbc773485	-0.015088205
215	0x3d48f022	0.049057133
216	0xbdaa1522	-0.08304812
217	0x3c9bf66e	0.019038405
218	0x3c151f50	0.009101704
219	0x3d159bc9	0.03652552
220	0x3ca27ad3	0.019833958
221	0xbbbae2ca	-0.005703305
222	0x3cbb36ca	0.022853274
223	0x39bac03b	0.00035619907
224	0xbd77f1cd	-0.060533334
225	0x3db5397d	0.08848856
226	0xbd3db443	-0.04631449
227	0x3cfcb51e	0.030848082
228	0xbd7a3b25	-0.06109156
229	0x3bbd42e1	0.005775795
230	0x3d8303c6	0.06397204
231	0xbd8a42c7	-0.06751018
232	0x3cf74f4d	0.03018918
233	0x3d858ed3	0.06521382
234	0x3dd31e4e	0.103085145
235	0x3db7295a	0.08943434
236	0xbd9a3305	-0.075292625
237	0x3ddb5965	0.1071041
238	0xbcc291a2	-0.023751084
239	0x3be3929b	0.006944967
240	0x3c4deb63	0.012568328
241	0xbd58515f	-0.052811977
242	0x3cb78165	0.022400567
243	0x3dde8326	0.10864858
244	0x3d1ce690	0.03830582
245	0xbcc46c4c	-0.023977421
246	0xbd0e6000	-0.03475952
247	0x3d52af8a	0.05143694
248	0xbccd56a2	-0.025065724
249	0xbd415f16	-0.04720982
250	0x3d250e97	0.040297117
251	0x3d6237d6	0.05522903
252	0x3d23ca3e	0.039987795
253	0x3c4c536a	0.012471059
254	0x3d028e40	0.03187394
255	0xbc3ab93e	-0.011396704

bias f4 [128]
0	0x3db5360d	0.088482
1	0xba090fa3	-0.00052284653
2	0xbd622fed	-0.055221487
3	0x3d6c2177	0.057649102
4	0x3d92d4da	0.071695045
5	0x3d2c4a5d	0.042063106
6	0xbcab8c93	-0.020941054
7	0xbd46eb52	-0.048564263
8	0x3d051a69	0.03249589
9	0x3ce55ca7	0.027998282
10	0xbd9ca652	-0.076489106
11	0x3d52fa62	0.051508315
12	0x3d494fdb	0.04914842
13	0x3d4cf8f3	0.050042104
14	0xbd869640	-0.06571627
15	0x3d1c5540	0.03816724
16	0xbd046e4d	-0.032331754
17	0x3c64b2f6	0.013958683
18	0xbb7a54ec	-0.003819759
19	0xbd2373b2	-0.039905258
20	0xbd1465c8	-0.03622988
21	0x3d73884b	0.05945615
22	0xbc6d0e60	-0.014468759
23	0x3d607949	0.054803167
24	0x3d27d5c5	0.04097535
25	0x3d8b15e0	0.06791282
26	0xbd00ed20	-0.03147614
27	0x3d0f3a3c	0.034967646
28	0x3d503671	0.05083317
29	0xbc84bd8d	-0.016203666
30	0xbd0dc416	-0.03461083
31	0x3d3c15d8	0.04591927
32	0x3d0cf6e3	0.034415137
33	0xbbf5a8f7	-0.007496949
34	0x3d774813	0.06037147
35	0x3adb62eb	0.0016737854
36	0x3d7bd94c	0.061486527
37	0x3bad5b17	0.0052904
38	0x3d429026	0.047500752
39	0x3ceeaf73	0.029136395
40	0xbd7ab46f	-0.06120723
41	0x3d9b5b48	0.0758577
42	0x3da64e78	0.081204355
43	0x3d5533d3	0.052051377
44	0x3cd543e1	0.026033344
45	0x3d6695e2	0.056295283
46	0xbc85c081	-0.016327145
47	0x3d9c16f6	0.07621567
48	0xbd9b3552	-0.075785294
49	0xbda6fd89	-0.08153827
50	0xbc03d691	-0.008046762
51	0xbd75f268	-0.06004563
52	0x3cc376a6	0.023860287
53	0x3cb844e6	0.02249379
54	0x3cf35740	0.02970469
55	0x3da1ddaa	0.07903607
56	0xbcedfc2c	-0.029050909
57	0x3db3b292	0.08774294
58	0x3d45a66c	0.048254415
59	0xbd978223	-0.073978685
60	0xbd3d4243	-0.04620577
61	0xbd02da2d	-0.03194635
62	0x3d0a1f59	0.0337213
63	0x3d5903f1	0.052982274
64	0xbd5f66fd	-0.054541577
65	0xbd32fc21	-0.04369748
66	0xbda64985	-0.081194915
67	0xbd98f602	-0.07468797
68	0xbd1c8c37	-0.038219657
69	0x3ba1ead6	0.0049413247
70	0xbd937903	-0.072008155
71	0x3d48af46	0.04899528
72	0x3d6ca144	0.057770982
73	0x3c0c7afb	0.008574243
74	0x3dcd286b	0.10017475
75	0x3d883a8f	0.06651794
76	0xbb01506c	-0.0019731773
77	0x3c05ca5f	0.008165925
78	0x3c5ceca4	0.013484154
79	0xbd892836	-0.06697123
80	0xbd3568a5	-0.04428925
81	0xbd8e1f1a	-0.06939526
82	0xbd9f76d3	-0.07786336
83	0xbc45c057	-0.012069783
84	0x3c0008c5	0.007814591
85	0xbcc929a0	-0.024555981
86	0x3d7778a3	0.060417783
87	0x3d1219e3	0.03566922
88	0xbb1e6d05	-0.0024173867
89	0xbd8bded7	-0.06829613
90	0xbd84f8c5	-0.064927615
91	0xbd6ba2ad	-0.057528187
92	0xbd05c1f7	-0.032655682
93	0x3cf31657	0.029673738
94	0x3d8e2437	0.06940501
95	0x3d472098	0.04861507
96	0x3cb5f9da	0.022213865
97	0x3d899656	0.067181274
98	0xbd848504	-0.06470683
99	0x3cac8531	0.021059604
100	0xbc6ad2d1	-0.014332489
101	0xbc60f351	-0.013729886
102	0x3d9792c9	0.07401044
103	0x3c8d6e57	0.017264528
104	0xbd38171b	-0.04494391
105	0xbcbcadb8	-0.023032054
106	0xbd1448db	-0.036202293
107	0xbd652d2a	-0.055951275
108	0xbd8cadd3	-0.06869092
109	0xbd741e8d	-0.059599448
110	0x3d9e2d0f	0.07723438
111	0x3d67ef13	0.056624483
112	0xbcbb425e	-0.022858795
113	0xbcf683b8	-0.030092105
114	0xbda2984c	-0.079392046
115	0xbd2609e5	-0.04053678
116	0x3d172ad0	0.036906064
117	0xbd18ec3d	-0.03733467
118	0x3d09d48d	0.03364997
119	0xbce3cdc2	-0.027808074
120	0xbd9c204b	-0.07623347
121	0x3d1c20c3	0.03811718
122	0x3d0ca418	0.03433618
123	0x3cc5aaab	0.024129232
124	0xbd8084c9	-0.06275327
125	0xbc8c4f28	-0.017127588
126	0x3dac955e	0.08426927
127	0x3c8654ba	0.016397823

weight f4 [128, 128]
0	0xbb809556	-0.003924052
1	0x3c490f7a	0.012271756
2	0x3daec5b4	0.08533803
3	0x3db7f939	0.08983082
4	0x3c0fd2b8	0.008778267
5	0x3dc4b86f	0.096054904
6	0xbd0616e0	-0.03273666
7	0x3d1a2e80	0.037642002
8	0x3d5c0349	0.05371407
9	0xbda6d8ea	-0.08146842
10	0xbdb03d45	-0.08605436
11	0xbd4517fb	-0.048118573
12	0xbd861909	-0.06547744
13	0x3d30574a	0.043051995
14	0x3ba65148	0.0050756074
15	0xbcd97625	-0.026545594
16	0xbcb994f6	-0.022654038
17	0xbdce58af	-0.10075509
18	0xbd0f8fa7	-0.035049107
19	0x3db94e33	0.090481184
20	0xbd0e1a59	-0.034693096
21	0xbc56e908	-0.013117082
22	0xbd1228eb	-0.035683554
23	0xbd510ae0	-0.05103576
24	0x3da32e1b	0.07967778
25	0xbb8437f8	-0.0040349923
26	0xbbf8a36e	-0.0075878417
27	0x3d477a3d	0.04870056
28	0xbb617d18	-0.0034406837
29	0x3d6bde32	0.05758495
30	0xbcd0ed8b	-0.025503894
31	0x3d67cf94	0.056594446
32	0xbc40b1d6	-0.011761149
33	0x3d82fb5b	0.063955985
34	0xbda7097f	-0.08156108
35	0x3c593aaf	0.01325862
36	0x3c75b442	0.01499659
37	0xbd7e6b97	-0.062114324
38	0x3d9722f6	0.07379715
39	0xbd592f6e	-0.053023748
40	0xbd0b0da9	-0.033948574
41	0x3d581fd7	0.05276474
42	0xbd4966b0	-0.049170196
43	0x3d0d2bdd	0.03446566
44	0x3d8e9261	0.06961513
45	0xbc24c36e	-0.01005636
46	0x3b6e9cc5	0.003640936
47	0xbd768fd6	-0.060195766
48	0xbd4d7e7c	-0.050169453
49	0xbc48e409	-0.012261399
50	0x3d4821b4	0.048860267
51	0x3d719ef9	0.0589895
52	0x3d8d51b3	0.069003485
53	0xbd3c2251	-0.045931164
54	0xbd8a5990	-0.06755364
55	0x3d5905e8	0.05298415
56	0x3d8144a0	0.06311917
57	0x3dca02a1	0.09863783
58	0x3d90ca23	0.070698045
59	0xbd51ec5f	-0.05125081
60	0x3d9aa51f	0.075510256
61	0x3d78bd5f	0.060727473
62	0xbc9b7038	-0.018974409
63	0xbd46a97c	-0.048501477
64	0xbd659729	-0.05605236
65	0xbd0ae66f	-0.033911165
66	0x3d89a132	0.06720199
67	0x3bf731ac	0.007543763
68	0xbcaf6901	-0.021412374
69	0xbc85aad6	-0.016316812
70	0x3db47064	0.08810499
71	0x3c8a095b	0.016850164
72	0xbd2f8ddc	-0.042859897
73	0x3d00d812	0.03145606
74	0xbd782214	-0.060579374
75	0x3d82d1c4	0.06387666
76	0xbb105261	-0.0022021758
77	0x3d2046ec	0.039130136
78	0x3d6ab68d	0.057303
79	0x3d6b22c6	0.05740621
80	0x3a121f6f	0.0005574142
81	0x3d54da11	0.051965777
82	0xbc9be6ec	-0.01903101
83	0x3dcdafc7	0.100432925
84	0xbc76a2e2	-0.015053483
85	0xbd2b7de6	-0.041868113
86	0xbcdde59e	-0.02708703
87	0x3d27acff	0.040936466
88	0xbbb87529	-0.005629201
89	0xbd6ba8bf	-0.057533976
90	0xbc80a495	-0.015703479
91	0x3d174bcd	0.036937524
92	0x3c89ef8f	0.016837863
93	0x3dc1276b	0.094313465
94	0xbd038685	-0.03211071
95	0x3c90cacd	0.017674828
96	0xbd312972	-0.043252416
97	0xbd9512dc	-0.07278988
98	0xbc77ac75	-0.015116801
99	0xba29c946	-0.00064768305
100	0x3d95656b	0.072947346
101	0xbd8d49f4	-0.06898871
102	0xbd6a2c74	-0.0571713
103	0xbd0d4589	-0.034490142
104	0xbb2c5802	-0.0026297574
105	0x3d6635c6	0.056203626
106	0x3d5b6bef	0.05356973
107	0x3c1ce084	0.009575013
108	0x3d1d0668	0.038336188
109	0x3da40282	0.08008291
110	0xbd0225b0	-0.031774223
111	0xbc14a5df	-0.00907275
112	0x3cc8806f	0.024475304
113	0xbd2c923b	-0.042131644
114	0x3d949f09	0.07256896
115	0x3ca14c2c	0.019689642
116	0xbc15395d	-0.009107915
117	0xbc77518b	-0.015095125
118	0x3c8a7c37	0.016904933
119	0x3d002def	0.031293806
120	0xbd9d1108	-0.07669264
121	0xbdb86637	-0.09003871
122	0x3c023769	0.007947781
123	0xbd15be9b	-0.03655873
124	0xbd8bb125	-0.06820897
125	0x3ca565c2	0.020190123
126	0x3d6c9e16	0.05776795
127	0xbd6fd5d8	-0.058553547
128	0x3beab15c	0.007162256
129	0x3da4db34	0.08049622
130	0x3d866445	0.06562094
131	0x3ce9cb10	0.02853921
132	0x3c939e54	0.018019833
133	0xbd5ae1ae	-0.05343788
134	0x3d91ce30	0.07119405
135	0xbd484408	-0.048893005
136	0x3c259011	0.010105149
137	0xbd185205	-0.037187595
138	0x3c96e0f8	0.01841782
139	0xbdac7cb9	-0.084222265
140	0xbcce6afa	-0.025197495
141	0xbd18d02c	-0.037307903
142	0x3d42b9db	0.047540527
143	0x3d041ccb	0.03225402
144	0x3ca34b06	0.019933235
145	0x3b50f70a	0.0031885528
146	0xbdb93665	-0.09043578
147	0xbd638889	-0.055550132
148	0x3d492b6c	0.049113676
149	0x3e00b603	0.12569432
150	0xbd363f3d	-0.044493902
151	0xbc8e60fa	-0.017380226
152	0x3d4c502e	0.049881153
153	0x3da09dfe	0.078426346
154	0xbd0c769e	-0.03429281
155	0xbc3e70c3	-0.011623564
156	0xbda18d06	-0.07888226
157	0x3d1b07b7	0.037849154
158	0xbd09b863	-0.03362311
159	0xbbb78725	-0.0056008273
160	0x3da70962	0.081560865
161	0xbcadaed1	-0.021201523
162	0xbce47c3c	-0.02789127
163	0xbd733e5d	-0.059385646
164	0x3dd8f034	0.1059269
165	0x3c5ce7a7	0.013482965
166	0x3d6b3981	0.057427887
167	0xbc8e33e3	-0.017358726
168	0xbc74538f	-0.0149125
169	0x3cb0c967	0.021580411
170	0x3dc9397b	0.09825417
171	0x3d255f91	0.040374342
172	0xbd880e22	-0.066433206
173	0xbc1358af	-0.008993312
174	0x3c41e5ee	0.011834605
175	0x3d99ed76	0.07515995
176	0xbd1a9bcf	-0.037746247
177	0xbc0c2d7f	-0.008555769
178	0xbb03d272	-0.002011445
179	0x3decb254	0.11557451
180	0x3d41244b	0.047153752
181	0x3dc66ed3	0.09689107
182	0xbd718e64	-0.058973685
183	0x3d52fe15	0.051511843
184	0xbc8f97f3	-0.01752851
185	0xbd602127	-0.054719117
186	0x3d829006	0.063751265
187	0xbcf3021a	-0.029664088
188	0x3c661aa3	0.014044437
189	0xbcf97577	-0.03045152
190	0x3beba31d	0.0071910755
191	0xbd5c43ff	-0.053775784
192	0xbcd9f691	-0.02660683
193	0x3da1221c	0.07867834
194	0xbb702741	-0.003664449
195	0x3c432bec	0.011912327
196	0xbd99f2e7	-0.07517033
197	0xbd7cf688	-0.061758548
198	0x3c8f6c34	0.01750765
199	0x3db18463	0.08667829
200	0xbd1d135f	-0.03834855
201	0x3ddd5ba9	0.108084984
202	0x3cc3e62b	0.023913464
203	0x3d85ca42	0.06532718
204	0x3b61a5e3	0.0034431152
205	0xbd7c3fd3	-0.061584305
206	0x3d590ba8	0.052989632
207	0x3db948dc	0.090471
208	0xbce0a562	-0.02742261
209	0xbd039757	-0.03212675
210	0xbce7dc89	-0.028303402
211	0xbdc38e63	-0.095486425
212	0xbb238b55	-0.0024954875
213	0xbd21fac6	-0.039545797
214	0x3d8f15d8	0.06986588
215	0xbd330dd7	-0.04371437
216	0xbd902ff1	-0.07040394
217	0xbda2cd8e	-0.07949363
218	0xbc1134fe	-0.008862732
219	0xbcb4dd51	-0.022078188
220	0x3d030319	0.031985376
221	0xbda3b910	-0.07994282
222	0xbce28c03	-0.027654653
223	0x3d43e33f	0.04782414
224	0x3bd30dc8	0.006440852
225	0x3d4b5a9a	0.04964695
226	0x3c9b9e8c	0.0189965
227	0xbd88d958	-0.0668208
228	0x3db9bc59	0.090691276
229	0xbd471989	-0.048608337
230	0x3d847eef	0.06469523
231	0x3d9afed6	0.07568137
232	0x3d7b87ef	0.061408933
233	0x3d39780a	0.045280494
234	0x3c999f4e	0.01875272
235	0xbd9e4577	-0.07728093
236	0xbcf21ed7	-0.029555721
237	0xbd8ce85c	-0.068802565
238	0x3d4ac821	0.049507264
239	0x3d3b1a69	0.045679484
240	0x3cc04552	0.023470555
241	0x3cb31d35	0.021864513
242	0xbd1e801d	-0.038696397
243	0x3db9317f	0.09042644
244	0x3cb6fb27	0.022336556
245	0x3c6b0a77	0.014345757
246	0xbcd460d8	-0.025925085
247	0xbda0bb10	-0.07848179
248	0xbd363009	-0.044479404
249	0x3dc02c88	0.09383494
250	0xbc7f4e85	-0.015582685
251	0x3c9893d8	0.018625185
252	0xbd179424	-0.037006512
253	0x3b3d2a20	0.002886422
254	0x3c8c66ad	0.017138803
255	0xbced4058	-0.028961346

bias f4 [128]
0	0xbc8dde5d	-0.017317945
1	0x3c005bf7	0.007834426
2	0x3cfe1878	0.031017527
3	0x3d698429	0.057010803
4	0x3c0f220d	0.008736146
5	0xbc71d622	-0.014760526
6	0xbd98ffe4	-0.07470682
7	0x3b830266	0.0039980887
8	0x3ce7c82d	0.028293693
9	0xbbcc6246	-0.006237301
10	0x3da7d60a	0.081951216
11	0xbd03dbc8	-0.03219202
12	0xbd0723db	-0.03299318
13	0x3d47b5c4	0.04875733
14	0xbc493ddb	-0.012282814
15	0x3da2dec0	0.079526424
16	0x3d9fc4b4	0.0780119
17	0x3d1084e9	0.035283003
18	0x3db97905	0.09056286
19	0x3baf0223	0.005340831
20	0x3d481f88	0.048858196
21	0xbd834a90	-0.06410706
22	0x3c052ab7	0.00812786
23	0xbcc56b04	-0.02409888
24	0x3da6482e	0.08119236
25	0xbc82f443	-0.015985614
26	0x3d921e91	0.07134736
27	0x3cb6e286	0.022324812
28	0x3cf2b7b5	0.029628614
29	0x3c64181e	0.013921766
30	0xbd4356de	-0.047690265
31	0x3d3b83cb	0.045779984
32	0xbbb87a6c	-0.005629828
33	0x3ba6e218	0.0050928704
34	0xba06daf2	-0.000514432
35	0xbd0d5fdb	-0.034515243
36	0x3d7514b0	0.059834182
37	0xbd3918f1	-0.0451898
38	0xbd1bcef5	-0.038039166
39	0xbd0351c3	-0.032060396
40	0x3d6bda1c	0.057581052
41	0xbd9c5f08	-0.07635313
42	0xbd1f9a57	-0.03896555
43	0x3c5c65d8	0.013452016
44	0xbad2fd3e	-0.00160972
45	0x3bf9def1	0.0076254536
46	0x3c832170	0.016007155
47	0x3d32f4f9	0.043690655
48	0xbc2609a0	-0.010134131
49	0x3d5e546a	0.054279722
50	0xbd2c1687	-0.04201367
51	0xbd7284df	-0.059208747
52	0x3bf89c6a	0.0075870054
53	0x3d984d95	0.074366726
54	0xbd0471d7	-0.03233513
55	0x3d2e7b9f	0.042598363
56	0x3d9bc47f	0.07605838
57	0xbd1e1acb	-0.03859977
58	0xbd546f29	-0.051863823
59	0x3c9c0c2b	0.01904877
60	0x3d03dda7	0.032193806
61	0xbdabd7f5	-0.083908
62	0xbc87fa4c	-0.016598843
63	0xbc90458a	-0.017611284
64	0x3c4e039a	0.012574101
65	0x3d7fdc75	0.062466104
66	0x3da9542f	0.0826801
67	0xba32c97f	-0.00068201864
68	0xbcdb9a85	-0.02680708
69	0x3d9af190	0.07565606
70	0x3d56645a	0.052341796
71	0x3d2e982d	0.042625595
72	0x3d94a9d6	0.07258956
73	0x3db09f91	0.08624185
74	0xbd02469e	-0.031805627
75	0xbd3bd754	-0.04585965
76	0x3b1ed1fb	0.0024234045
77	0x3d4e45a3	0.05035938
78	0xbb690a5c	-0.0035559153
79	0xbd89b9f9	-0.067249246
80	0xbd12f80e	-0.035881095
81	0xbce26d6d	-0.027640069
82	0xbd1fb0ca	-0.03898696
83	0xbd017ffa	-0.03161619
84	0xbbbc0a9a	-0.0057385685
85	0x3d4ed6c0	0.05049777
86	0x3d3486f7	0.044074025
87	0x3db29c8a	0.08721264
88	0xbd11cb65	-0.035594363
89	0xbbdab543	-0.00667444
90	0x3d6f48ca	0.058419026
91	0xbd5a529e	-0.053301446
92	0xbd6b514c	-0.057450578
93	0x3d190415	0.03735741
94	0xbc84c20d	-0.016205812
95	0xbda9c65b	-0.082897864
96	0xbd522710	-0.051306784
97	0x3d2cbbee	0.04217141
98	0x3c960b24	0.01831586
99	0xbc55e722	-0.013055595
100	0xbd372218	-0.04471025
101	0x3d63afba	0.055587508
102	0x3c8a2b5d	0.01686638
103	0x3d0fc5aa	0.035100617
104	0x3d1819f9	0.037134144
105	0xbd0189c5	-0.031625528
106	0xba8d1205	-0.0010762817
107	0x3d304480	0.043034077
108	0xbd0c7328	-0.03428951
109	0x3d99df81	0.07513333
110	0x3d9c6c07	0.07637792
111	0xba18328d	-0.00058058725
112	0x3d99ef19	0.075163074
113	0xbbd45eeb	-0.0064810417
114	0x3d235598	0.03987655
115	0xbd383533	-0.04497261
116	0x3c1b1ce4	0.009467337
117	0xbd2341cf	-0.03985768
118	0x3d413402	0.04716874
119	0xbd330410	-0.043705046
120	0xbaca89c4	-0.0015452434
121	0x3d061e56	0.032743774
122	0xbb5f4753	-0.0034069612
123	0x3da5e491	0.08100236
124	0xbd49d4d7	-0.049275246
125	0xbd5c0f8f	-0.053725775
126	0x3c6865fe	0.014184473
127	0x3c32f9ff	0.0109238615
