models/agModels-predicttop10_votes/models/NeuralNetTorch_BAG_L1/S20F2/net.params (torch, 248949 bytes, 16 tensors)

weight f4 [6, 4]
00000000: f501 92bf 8801 94bf 2a44 86be dc92 d7be
00000010: d914 583f 4e7e 2c3f 4f7b 9dbe 09c3 08c0
00000020: 61b0 f03e 190c 2ebe 1595 b93f eef9 8c3e
00000030: 3df5 293e 6064 603f 32a2 14be ac9f d1bd
00000040: a007 723f 25e6 9f3f a1d8 0040 5ffc 2e3d
00000050: ae1b 0b3f 0ffa adbe aef8 43bf 9e4a 0fc0
-1.1406847 -1.1562967 -0.2622388 -0.42104232 0.8440681 0.67380226 -0.3075814 -2.136904
0.47009566 -0.16996802 1.4498621 0.2753443 0.16597457 0.8765316 -0.14514998 -0.10235533
0.94542885 1.249211 2.013222 0.04272115 0.5433911 -0.33979842 -0.7655133 -2.2389293

weight f4 [6, 4]
00000000: 1b83 44be 0b97 38bf 55cc 0b3f 254c 7b3e
00000010: 157e 10be d681 29bf 6f14 6e3f 2b4a ed3e
00000020: bf20 13bf 6f04 6a3f 22e9 903f 35d9 a63f
00000030: 1431 bebf f61a 2440 5ebc f5be ef17 aa3e
00000040: fdd7 d5bf ba36 13bf c3eb ebbe e634 e8be
00000050: 43ac 7dbf ebf6 843f ad1d 9ebd 95f5 3a3f
-0.19190638 -0.72105473 0.5460866 0.24540766 -0.14110596 -0.6621374 0.9299993 0.46345648
-0.5747184 0.91413015 1.1321146 1.3035036 -1.4858727 2.5641456 -0.47995275 0.33221385
-1.6706539 -0.5750538 -0.4607831 -0.45352858 -0.99090976 1.0387853 -0.07720504 0.7303098

weight f4 [6, 4]
00000000: 804e e7bd dac6 2a3f 7586 5abf b0d0 8bbc
00000010: be0e 5b3f 627d c5be c411 873f 2d22 c23e
00000020: 67cd c23d 4d82 903f 0ab1 9a3e 6734 ec3e
00000030: d40a 51bf ed3c a6bf 8ee1 41bf e373 aabf
00000040: 6976 573e d718 abbe 511f ddbe 4149 6f3e
00000050: 5cb2 383f 8b98 f1bd bf6e 98be 4f26 91bf
-0.112942696 0.66709673 -0.85361415 -0.017067283 0.8556937 -0.38572222 1.0552297 0.379167
0.09511834 1.1289765 0.30213195 0.4613373 -0.8165715 -1.2987343 -0.75734794 -1.3316616
0.21041264 -0.3341739 -0.43187955 0.23367788 0.72147155 -0.117966734 -0.29771993 -1.1339816

weight f4 [6, 4]
00000000: 5282 31bf bd2c 873f 34a2 1abf cd1e a4bf
00000010: 105c b03d 9397 2cbf 44cc 1d3f b265 3ebf
00000020: cd1b 8abe 1ffc c93d 2842 843e 1c5b 953f
00000030: 71de 993e 2773 cb3e 9d59 52be 77cb dfbd
00000040: 0d4d 323e cc87 4cbf 119a f0bf 9f72 073e
00000050: 8114 21bf 0a1d 793e 1347 bd3d 2e1c a03e
-0.6933948 1.0560528 -0.6040375 -1.28219 0.086113095 -0.67418784 0.6163981 -0.74373925
-0.26974335 0.098625414 0.25831723 1.1668429 0.30052522 0.39736292 -0.20541997 -0.1092748
0.17412205 -0.7989471 -1.8797017 0.13227318 -0.6292191 0.24327484 0.09242072 0.312715

weight f4 [6, 4]
00000000: ae23 733f e2f2 7cbf a41d 9e3e e75b eebd
00000010: d2d7 7b3f 40ac 04bf 1030 463f f9cf 1b3f
00000020: 8dab 7d3f 64c7 bbbf 9f6f 183f 7a15 283e
00000030: eb2e e63d 63cd 51bf 39fb 213f 7317 f6bf
00000040: 37c1 ab3f cab0 2abe 6081 423f c458 823f
00000050: 83f1 ae3e 1356 b7bf 0cc2 fa3f 5e80 8d3d
0.9497632 -0.9880811 0.3088199 -0.11638623 0.9837619 -0.5182533 0.7741709 0.60864216
0.9908989 -1.4670224 0.5954532 0.16414443 0.11239418 -0.8195402 0.6327396 -1.9225906
1.341834 -0.16669002 0.7597866 1.0183339 0.34168634 -1.4323143 1.9590468 0.0690925

weight f4 [26, 9]
00000000: ac5e 04bf 2d8d d7bf 9e05 06bf ca6e fbbe
00000010: d2b7 23bf 4d78 bdbf 5562 5abf 9d72 04c0
00000020: 0660 89bf fcc2 38bf 1adf dd3c 5881 a23e
00000030: 0595 8cbe cac5 a23f 6d3c 2a3c ffd8 5dbf
00000040: d9ef e03e 6ca1 9dba 9118 ac3f 0cc0 8dbe
00000050: f0ef 0cbf 437e 38c0 fc3d c2bf 4646 833f
00000060: 6a30 5e3e b590 36bf 9abb d93f c278 af3e
00000070: d550 813f 6d67 b63f e929 b2bd 1995 25bf
00000080: db7d 2dbf 5786 e03f f205 74bf adc4 19bf
00000090: d8f3 713d b263 143f d420 083f b455 9f3f
000000a0: b244 8abf 0cf0 dcbf 7ef2 c23f cfa4 c73b
000000b0: 3741 cbbf 5a17 9d3d cca8 25bf b609 423f
000000c0: 44c3 993f 4acb 11be 9112 edbc f6cb 1e3f
000000d0: 552a 063f 004b 4b3e ce9a 783d 4cc2 1f3f
000000e0: dacc 4f3d 308f 80bf e1ed 3a3f 763b 903f
000000f0: a19d 0840 802c 66bf ac43 2fbf f2b1 17bf
00000100: 680b c43f c497 3bbf 27af 123e 0720 ac3f
00000110: b80f 0140 98cd 2a3f ac56 37bf a34c e8be
00000120: 8066 843e 4699 17bf 536c 6e3f 5315 fe3e
00000130: ac6c 4fbf 73dd a43f db0e 873e acdd 1dbf
00000140: 9fc5 6ebf 33ca 11bf 4d72 013e 2a4c 84bf
00000150: bfd2 33bf 3fe6 0dc0 81bf 2bbf be0e fc3e
00000160: 0b7e 4a3f a9b5 883d 3a03 d63e 7d62 eabf
00000170: 1fd0 8fbf bb55 e33d 0e49 163f 3ee4 a93f
00000180: a6c8 c7bf 2785 b13e ce89 abbf 3003 4dbe
00000190: 5271 8ebe e591 9bbf 33dc 273f ddb6 9dbf
000001a0: 2be5 8bbf 4294 b43e f755 41bf eecb 68bf
000001b0: 16d8 3dbf e5e5 093f 127e c13e 865b 1d3f
000001c0: 303e b7bf 9d75 51bf 7229 9c3f e452 eabf
000001d0: 8265 e13e 7416 8d3f ee70 e63e 1efb 92bf
000001e0: b8b7 d2be f86c abbe cebe 6e3f fe14 e5be
000001f0: f1e8 1fbf 5756 b4be 30a3 bcbf b947 0abf
00000200: cb07 983f e9e2 4c3f c31b c23e e375 a33e
00000210: 9ec1 31c0 b16b 4dbf 3a3d eb3e 9574 923e
00000220: 26a3 91bf 8cbc d93b fbb2 1bbe 7ed0 75be
00000230: 168e 1a40 1b61 d13f a7e3 98be d44b c1bf
00000240: 85f3 10bf 7113 4dbf 230c b5bf e98b dbbe
00000250: 9dce a0be 27c6 b6bd 2218 0b3f 263b ccbf
00000260: 4d34 bf3e f6d3 12c0 4b95 5ebf f2a9 d6bf
00000270: 382d 0f3f ea6b b7bf 5c06 383f 2599 b0bf
00000280: 3583 a13e 9bf7 e2bd a9ba 523e 8506 9a3f
00000290: 0410 9f3f 7175 cebd c5d0 0840 7e55 943d
000002a0: 687d fb3e 84d3 3d3d 5ee1 d03e 9e5c e0bf
000002b0: 05ca 9a3f 0fb0 2840 9e80 523e 22b6 a53e
000002c0: 3d4d 91bf 6fd0 0d40 0b6b e93d 80d2 4c3f
000002d0: 7eb3 8abf bdb4 a8bd 6a9f bebf 0491 dfbf
000002e0: addc f2bf 0564 8e3c bb28 febf 91f2 f7bf
000002f0: 0603 0840 6230 6bbf a683 19bf ea7e d43f
00000300: eb8b ac3e b767 37bf bb88 adbb 5b6a e63f
00000310: a629 0bbf e7a4 3f3f 0f75 363f bb52 bc3f
00000320: 3cf5 18bf 6c5e fdbd 14fd fe3e 94b3 e0be
00000330: 0b2e f6bf 8148 3b3f 92a2 04be f98c b8bf
00000340: 1d5e 05bf b207 bbbf 57e5 36bf be4e 823f
00000350: e93e 12c0 32bc f53e 5aaf 09bf 30b5 bbbc
00000360: a435 2b3f 8995 7f3f a99a fabe 1c2e e23e
00000370: 84ff ae3f d38c de3e a6ab 01bf 99ab 44be
00000380: 0a22 32be bafe c33d 0807 933e 4db0 2dbf
00000390: 513b 243e e0f9 3cbe a16c c03f d2fe 32be
000003a0: e42e 96ba d2bc 0f3c
-0.5170696 -1.6839958 -0.5235232 -0.49107963 -0.6395236 -1.4802338 -0.8530629 -2.0694954
-1.0732429 -0.7217252 0.027083922 0.31739306 -0.27457443 1.271661 0.010390383 -0.86659235
0.4393299 -0.0012026257 1.3444997 -0.27685583 -0.55053616 -2.8827064 -1.5175166 1.0255821
0.21698156 -0.71314555 1.7010376 0.34271818 1.0102793 1.4250313 -0.086994 -0.6468063
-0.67770165 1.7540997 -0.9532157 -0.6006573 0.05907044 0.5796462 0.5317509 1.244803
-1.0802214 -1.7260756 1.5230253 0.0060926448 -1.5879277 0.076704696 -0.6471069 0.7579607
1.2012715 -0.14237705 -0.028939517 0.6202997 0.52408344 0.19852829 0.06069451 0.6240585
0.05073247 -1.0043697 0.73019224 1.1268146 2.134621 -0.8991165 -0.68462634 -0.592559
1.5315981 -0.7327845 0.14324628 1.3447274 2.0165844 0.6671996 -0.71616626 -0.4537097
0.2585945 -0.5921825 0.9313404 0.49625644 -0.81025195 1.2880081 0.2637852 -0.6166637
-0.93270296 -0.56949157 0.12641259 -1.0335743 -0.7024345 -2.217178 -0.67089087 0.49229997
0.79098576 0.06675274 0.41799337 -1.8311306 -1.1235389 0.11100336 0.5870522 1.3272779
-1.5608108 0.346719 -1.340143 -0.20020747 -0.27820832 -1.2153898 0.6557037 -1.232143
-1.0929312 0.35269362 -0.75521797 -0.9093617 -0.74157846 0.53866416 0.37791497 0.6146778
-1.4315853 -0.8182009 1.2200148 -1.8306546 0.44022757 1.1022477 0.45008034 -1.1482885
-0.4115579 -0.33481574 0.93259895 -0.44742578 -0.62464815 -0.35222122 -1.4737301 -0.5401569
1.1877378 0.8003374 0.37911806 0.31925878 -2.7774425 -0.8024245 0.4594515 0.2860457
-1.1377914 0.006644791 -0.15204994 -0.24005315 2.4149222 1.6357759 -0.29861185 -1.5101266
-0.5662158 -0.8010779 -1.4144329 -0.4288018 -0.31407633 -0.08924513 0.543337 -1.5955551
0.3734459 -2.294187 -0.86946553 -1.6770613 0.55928373 -1.4329808 0.71884704 -1.3796736
0.31545416 -0.11082383 0.20579018 1.203324 1.2426763 -0.10080994 2.1377423 0.07242869
0.49119115 0.046344295 0.40796942 -1.7528265 1.2092901 2.6357458 0.20556876 0.3236552
-1.1351696 2.2158468 0.1139737 0.800087 -1.0836027 -0.08237598 -1.4892399 -1.746613
-1.8973595 0.017381677 -1.985618 -1.93709 2.1251845 -0.918707 -0.59966505 1.6601231
0.337005 -0.7164263 -0.0052958406 1.8001207 -0.54360425 0.74860996 0.7127237 1.4712747
-0.597492 -0.12371525 0.49802458 -0.43887007 -1.9232801 0.7315751 -0.1295264 -1.4418021
-0.5209673 -1.4611723 -0.71443695 1.018028 -2.2850897 0.47995144 -0.5378319 -0.022913545
0.66878724 0.9983755 -0.4894612 0.44175804 1.3671727 0.43466815 -0.5065254 -0.19206084
-0.17395797 0.095700696 0.28716302 -0.6784714 0.16038252 -0.18454695 1.5033151 -0.17480019
-0.0011458066 0.008773046

weight f4 [128, 76]
00000000: 2c6f 263e ee83 fa3d b5c0 f03d 670c 7a3d
00000010: eee2 b0bd b50b cc3d 8618 843c b46f 863d
00000020: b324 a7bd 59ce 23bd e8a3 ecbd b90d 2cbd
00000030: 0ad7 aa3b 3c25 bdbd d971 033d 0f2b 813d
00000040: 90f2 423d 0a68 9dbd a902 babd 65bf 21bd
00000050: d8bc 453d 9bef dd3d 54d2 7d3d 770d abbc
00000060: 7781 053d 6314 f0bd b90d d2bd 3163 4b3d
00000070: 3fe6 88bd fd9b 4f3d 83e1 afbd 06cb 60bd
00000080: 131c cbbd eccb 623d 9bb7 7abc cb48 a43d
00000090: 8239 8c3d de62 703d ad41 a0ba 34b1 53bd
000000a0: 0e2c 00bd 09c0 2d3c 9fe9 7f3d 76cc 97bd
000000b0: 4bb6 f43d 5ce2 b7bc 43e3 18be 087c 5abd
000000c0: 83b8 e83d 24f4 e03d 661b d7bd bf40 803d
000000d0: 90b0 8f3d 4d3d 323d 0c62 b83d 0164 85bd
000000e0: 0f1f 093d 6038 363d c131 16bd e87a 203d
000000f0: 874c f1bc 0a3d 3f3d 523b 52bb 9e47 33bd
00000100: 64d7 d73c e69e 3a3d 13ed 85bd 3a74 d0b9
00000110: 8432 943d 3024 bfbc a939 ab3c 2f90 19bc
00000120: c393 df3c 4fc4 89bd b42c a6bd d1c1 8dbd
00000130: 795f 343e 7b4c ef3c 4f08 f13b 23aa 4ebd
00000140: 24dd e53d 741f f73d 8dd2 94bd 6ecd adbd
00000150: 6f03 b1bd 8485 c93a dfce cbbc 5b4f a6bd
00000160: 2187 34bd 160a 3e3b 1039 70bd 1dbb 0d3d
00000170: 8849 493b 348e 54bd 84cb 853c 25bc c53d
00000180: 117d 95bd ae56 b73b f571 26bd e109 e83d
00000190: 7de3 d9bd f4de e0bd 2738 ef3d 8d20 91bd
000001a0: a2f5 d43c 9796 fdbb 6045 b5bc fe85 92bc
000001b0: db9c 953d a429 cb3b 5472 debd 8c77 82bd
000001c0: 88c6 26bd 8927 6f3d baf8 96bd fd72 d23d
000001d0: db7e cbbc f4c2 a1bc 2b32 b53d 48cb 643d
000001e0: 5bdb e83d 6f4f 583d 49d5 a1bd cbeb 95bd
000001f0: 6bb5 3bbb 2b42 da3d 0578 ddbc aae3 f6bd
00000200: 55e4 6f3d d5a4 aa3d aec7 2cbd 93ad c6bd
00000210: 4fd0 cabd 227d 003d 1af0 ecbb 802f 60bd
00000220: e2ff a13c 6746 de3c f5c7 dc3d d0ba a63d
00000230: 777b 88bc 4ceb d3bd dc62 e6bd 8777 cf3d
00000240: 4261 5a3d ca10 323d 5466 ffbd efd2 fb3d
00000250: 0d1a da3d 5a80 e83d 88e5 c5bd 9686 33bd
00000260: 95f3 59bc d160 293e f7ee 19bd 3eb5 34bd
00000270: 26ea 7d3d fd76 4fbd e55f 3ebd a6bb 0c3c
00000280: f93f a63b d089 b8bd 14fe a63d e4d3 3abd
00000290: f157 093d 0f93 cf3d 5f46 893d 884a ff3c
000002a0: 3b92 0b3e 597d 143c 90ab 7bbd 710c cd3d
000002b0: b6e5 c83c 7e62 e7bd 628b d8bc 6c97 a8bd
000002c0: caad c33d 371f b9bc d420 dcbd 82bb 52bc
000002d0: d46f 913d bf5f d73c 5726 073d 9056 323c
000002e0: c031 203d 23e1 efbc 7676 48bd 332e ecbd
000002f0: b77b a0bd ef7c 3d3d 819d 92bd 36c4 a63c
00000300: eca0 ff3c 0283 493b c397 9dbd 7125 d93d
00000310: 1a32 1ebd 1e07 a23d b91c 10be feb7 39bc
00000320: 6f74 8a3d fc9e 41bd a91f a73d bf42 b0bd
00000330: 1591 c3bd e4cc 5ebd 17a3 9e3c 4de8 fa3d
00000340: 425c 0fbd a972 7b3d 8dce 26bc 0490 ebbc
00000350: 0ba7 863d bce4 b0bd 64cd 923c f933 ef3d
00000360: ca68 93bc c7d7 c03d c6db f3bc c8dd b93d
00000370: bcea c4bd 3304 9dbc 9de8 43bd 6b18 823d
00000380: 0fa1 403d bc9a c03d 890d e4bc 28f1 803b
00000390: 0c11 1d3e 62dc 2b3d e0ea da3d 1f3b 9dbd
000003a0: d511 c9bc 646d faba b0fc 683d d6f5 ca3d
000003b0: f4c8 c9ba cb91 debd 4729 883d 4135 b33c
000003c0: 9f7e 083d 55cc 94bd 5019 8c3d 2ca6 e73d
000003d0: 7087 3b3d 3cff d2bd 1ac2 b03d 0eb3 a9bd
000003e0: 0861 e23c e841 543c 58a7 42bd e538 1c3d
000003f0: 2c27 d1bd 0bcc cd3c 8057 96bd 9bd4 11bc
0.16253346 0.12232195 0.11755506 0.061046984 -0.086370334 0.099631704 0.016124975 0.065642744
-0.08161297 -0.03999171 -0.115547 -0.042005274 0.005213623 -0.092356175 0.032090995 0.06307041
0.047594607 -0.076858595 -0.09082539 -0.03948917 0.0482758 0.10836717 0.061968163 -0.020880444
0.03259417 -0.117226385 -0.10256524 0.049655143 -0.06684541 0.05068587 -0.08587935 -0.05488112
-0.09917464 0.055370256 -0.015302564 0.08021697 0.06846906 0.058688037 -0.0012226604 -0.051682666
-0.031292014 0.010604867 0.062478658 -0.07412045 0.11948832 -0.022446804 -0.14930443 -0.05334094
0.11363318 0.10984066 -0.10503273 0.06262349 0.070160985 0.043515492 0.09003076 -0.06513215
0.033476885 0.044487357 -0.036668543 0.039179713 -0.029455436 0.04668907 -0.0032078815 -0.04376947
0.026347823 0.045561694 -0.06539359 -0.00039759447 0.072361976 -0.023332685 0.020901518 -0.009372755
0.027292138 -0.06726896 -0.08113995 -0.06921733 0.17614545 0.029211273 0.007355727 -0.050455224
0.1122382 0.12066546 -0.07266722 -0.08486448 -0.08643233 0.0015374874 -0.024878917 -0.081206046
-0.04407418 0.002899771 -0.05864817 0.034602273 0.0030713994 -0.051893428 0.016332395 0.09655026
-0.07299245 0.00559505 -0.04063602 0.11330009 -0.10639093 -0.10980025 0.11680632 -0.07086287
0.025996033 -0.007738899 -0.022127807 -0.017886158 0.073053084 0.0062000323 -0.1086165 -0.06370458
-0.040716678 0.058387313 -0.073716596 0.102758385 -0.024840763 -0.019746281 0.088474594 0.055857927
0.11369964 0.05281013 -0.07902009 -0.073203646 -0.002864207 0.10657152 -0.027034769 -0.12055142
0.058567364 0.083322205 -0.042182617 -0.097010754 -0.09903013 0.031369336 -0.007230771 -0.0547328
0.019775335 0.02713318 0.10780326 0.081411004 -0.016660435 -0.10347614 -0.11249325 0.1013022
0.05331541 0.043473043 -0.124706894 0.12296092 0.106495 0.11352606 -0.0966292 -0.043829523
-0.013302703 0.16540839 -0.03758141 -0.04411816 0.06199088 -0.050650585 -0.04647817 0.008589661
0.005073544 -0.09010661 0.0815393 -0.04561223 0.033531133 0.10135471 0.06702875 0.031163469
0.13630001 0.009063088 -0.06144291 0.10012139 0.024523597 -0.11298083 -0.02643365 -0.082320064
0.09554632 -0.022597892 -0.10748449 -0.012862088 0.07101408 0.026290772 0.032995548 0.010884896
0.039109945 -0.029282158 -0.0489411 -0.11532249 -0.07836097 0.046261724 -0.07158948 0.020357233
0.031204663 0.0030748253 -0.07694962 0.106028445 -0.038622 0.07911514 -0.14073457 -0.011335371
0.06760489 -0.04727076 0.081603356 -0.08606481 -0.095491566 -0.054394618 0.019364877 0.12251339
-0.035000093 0.061388645 -0.0101810815 -0.028755195 0.0657483 -0.086373776 0.017920204 0.11679835
-0.017994303 0.09416156 -0.029767882 0.090755045 -0.096150845 -0.019167041 -0.04782926 0.063523136
0.047028597 0.09404513 -0.027838485 0.003934998 0.15338534 0.04195822 0.1068933 -0.07677292
-0.024544636 -0.0019106087 0.056881607 0.09910171 -0.0015394972 -0.108676516 0.06648498 0.02187598
0.03332388 -0.07265536 0.068407655 0.11310992 0.04578346 -0.10302588 0.08630772 -0.08286105
0.027634159 0.012955166 -0.047522873 0.038140196 -0.102125496 0.02512171 -0.07340908 -0.008900787

bias f4 [128]
00000000: e66a 85bd 682f 86bd ac4c 97bd 10a9 763d
00000010: b2e0 3a3c 036c 43bb d2a8 0a3d 9396 8a3d
00000020: 2104 0b3c 01b5 903d 24b1 58bc bb43 3c3d
00000030: fdc5 223d 3015 6e3b 780a b03d d2a5 ec3d
00000040: 3584 b83d 1208 e0bc 9618 b8bc 3f6c c03d
00000050: bb8b 4dbd 9877 1e3c a8f2 85bd 9d14 f7bc
00000060: 1b18 45bd 0eb2 853d 9e93 56bd 89cb 59bd
00000070: 6034 433d 9513 0fbc 2fe3 aa3c aa7d b1bd
00000080: 869e 30bd 25c6 693d b43b 843d c333 cebd
00000090: 190d 9abd 41ec 383d 9574 c7bd 9e9a 75bd
000000a0: b53d 8ebd 7325 b8bd 5e10 41bd 19db a23d
000000b0: 4057 dabd b3fa a33d de3c d5bd 5161 04bd
000000c0: 5082 02bd 2eb5 8f3d fe2b d1bd 3214 86bd
000000d0: a688 dcbd fe7f 13bb 5546 413d a586 cd3d
000000e0: 954f c33d 468e dabc 5d5e 83bd a944 b53c
000000f0: c6c5 973d 649a ce3d 5725 ae3d d409 19ba
00000100: 804a ccbd 1446 8fbd 527f 893d cd4e cfbd
00000110: a7c6 adbd d27c 89bd 9213 dcbc 8a31 553d
00000120: 0d10 9f3d 02b5 c23d e8a5 783d fce5 9a3c
00000130: 1875 8bbc 829c 90bd 8e0b 5dbd 5d8a b8bb
00000140: e632 c33d 6b9c bfbc addc 8ebc 5835 d5ba
00000150: 4c0b 5dbd c5e7 86bd 44a5 033d af73 adbd
00000160: 8dfa 6bbb 26fc 0ebc 3a8b 923c cca1 4bbc
00000170: 1e29 60bd 2e26 c7bc 3ebe 1abd 3d6f 453d
00000180: d8d1 da3c 8a40 03bd a538 b23d a1f3 0c3c
00000190: 58a5 713d cac2 22bd b077 c8bd 305c d2bd
000001a0: b9ef 1ebd 0892 883d 07e5 5f3d c957 513d
000001b0: fbfc 263d 922a 93bd fb7c 04bd 0907 ba3c
000001c0: 7f88 d4bd 1ef8 d2bd 337f b7bd 315a ff3c
000001d0: 0a26 a3bc 653f 99bc e33a 8c3d aa66 90bd
000001e0: 83a9 8cbd 6595 eebc 3137 873d c339 753c
000001f0: 560e babd c040 ac3d 0830 8dbd 9c1f bb3d
-0.0651453 -0.06552011 -0.07387671 0.060219824 0.011406111 -0.0029819019 0.033852406 0.06767001
0.008484871 0.07065774 -0.013225827 0.04596303 0.039739598 0.0036328547 0.08595747 0.11555065
0.090095915 -0.027347598 -0.022472661 0.09395646 -0.050182085 0.009672068 -0.06540424 -0.030161196
-0.048118692 0.06528102 -0.052386872 -0.053172622 0.04765737 -0.008732696 0.020860283 -0.08666547
-0.04311993 0.05707373 0.064567 -0.100684665 -0.075220294 0.045147184 -0.09739033 -0.059961908
-0.069453634 -0.08991518 -0.04713475 0.07951946 -0.10661173 0.080068015 -0.10412 -0.03231937
-0.031862557 0.07016979 -0.10213469 -0.06546821 -0.10768251 -0.002250671 0.047186214 0.10035447
0.095366634 -0.02667917 -0.06414483 0.022127466 0.07410769 0.100880414 0.08503216 -0.00058379513
-0.09975147 -0.06995788 0.067137375 -0.10122452 -0.084851556 -0.06713261 -0.0268648 0.052049197
0.07766733 0.09507181 0.060705096 0.018908493 -0.017023608 -0.070611015 -0.053966098 -0.0056317286
0.095311925 -0.023390016 -0.01743921 -0.0016266508 -0.05396585 -0.06587175 0.03214003 -0.084693305
-0.0036007494 -0.008727109 0.017888654 -0.012428712 -0.054726712 -0.024310198 -0.037779085 0.04820179
0.02671139 -0.03204397 0.0870221 0.0086030075 0.058995575 -0.039736547 -0.097884536 -0.102714896
-0.038802836 0.06668478 0.054661777 0.05110911 0.040768605 -0.07185854 -0.032345753 0.022708433
-0.10377597 -0.10301231 -0.08959808 0.031170936 -0.0199156 -0.018706987 0.06847169 -0.070508316
-0.06868269 -0.029123971 0.06602324 0.014967385 -0.090847656 0.084107876 -0.06893927 0.091368884

weight f4 [128, 128]
00000000: 9f1c 193d 4d0e d83c 31a1 913d f684 053d
00000010: 2263 a7bd 4f83 453d b7e4 a53d 8e69 0cbd
00000020: 7fea 933d ffdb 8e3d fdcd f4bc cfc8 bebb
00000030: 34e4 0b3c 9e5a 993d f263 4c3d 0853 733d
00000040: 2170 a1bd 8b5e 13bd 9ea6 babd 0246 533c
00000050: 2996 8fbc b553 d43c 515a 363d 82a5 63bc
00000060: 8aec 8c3b e6bc 3fbd d55b a4bc e228 713c
00000070: 52ab 7f3d 42a9 013d 6a88 b93c 7b0d 763d
00000080: f978 a23d 5a5f cb3c 1441 913d cf3d 85bd
00000090: b318 be3c d98e 58bb efce 893d a2ef debd
000000a0: 1878 ef3c 9aeb a1bd d987 0abd 458a 08bd
000000b0: d97a dcbc 4ebc 22bd 2690 a2bd 0ec3 a7bd
000000c0: 1003 90bc bd95 993d 5c2d bfbc 2c8a 6ebd
000000d0: 990d 70bc 2bf4 b0bc fde5 4cbc 774a 993d
000000e0: fb81 aebd 242e 813d 2caa 853d 375d 833d
000000f0: 9c56 44bd 8b4e 223c 2d85 143d 07ab 86bd
00000100: 6980 883d 7b84 3bba 4dfc 9abd 3210 93bc
00000110: fe92 c93b 81e1 19bd 9fea 09bd 51d1 763b
00000120: f636 303d 98df 9d3c 6d7b 99bd 01a7 d9bb
00000130: dabc 553c 3fab ae3d 9b6b 493d b8d3 843d
00000140: 9ee7 db3c f83b aebc bc23 60bd 2e80 24bd
00000150: b153 e53c 32b4 91bc 9fee a83d e768 69bd
00000160: 5bdc 843d 1563 093d ba3b 773d a9c8 683d
00000170: bf6e 64bd 1059 563d be52 c4bd c9a0 40bd
00000180: 9869 bbbc b51e 8f3d ed70 98bc 66b9 98bd
00000190: 13cb a9bd 1ed0 273b d1db e33b 7f8c 7b3c
000001a0: 3052 63bc 94aa 0e3d ceac 933a b0e3 95ba
000001b0: c264 543d c383 9dbd a82b 13bd 143a 953c
000001c0: 5e18 a2bc fd6c 8131 28eb 20bd 6191 493d
000001d0: 25b8 a33d 0f05 9d3d 2bfe d13c bb1a 97bd
000001e0: 4cee fabc 5b29 0dbd fe06 73bc eed2 36bd
000001f0: 1ebd 5a3d b6ef a7bd 4160 e03b 95ce 5c3d
00000200: 4094 65bd 3749 00bc 5499 5e3d 1c13 bfbc
00000210: d48b 20bd fe7a 643d 4cee 6ebd da08 bd3d
00000220: 793d bc3d 0f43 663c 19e2 833c d7b1 20bd
00000230: ab1e f73c 0751 64bd af69 b3bc 808e 813d
00000240: 4444 cb3c 382e 893d 9684 613d 5f8d a43d
00000250: e705 d03c e956 86bd dd13 a8bd 7550 7d3d
00000260: 6835 a73d 047d a33d c59e 71bd 5742 a93d
00000270: d77b dcbc 14fc f23c 38ef 463d 92da 7fbd
00000280: 128f 8dbd 9511 893d ed97 a8bd 93bb 0b3d
00000290: 8d7b 3e3d 6714 843d bc46 193c f20a a7bc
000002a0: b0dd 4a3b a152 d1bb c8bf 9dbd 3f5c b53c
000002b0: f2bc 38bd 0e30 863d 450a 18bd 809d bbbb
000002c0: 8810 5ebd 3bab b23d d473 703d 4ed1 ad3d
000002d0: f71e 8c3d dfd5 29bc 257d b83d b6bf 15bc
000002e0: b212 a83d 6d9b c53c e4d5 643d 94de f2bc
000002f0: f0b1 173d 9c32 863b a397 91bd f8aa 8b3d
00000300: 2d48 37bd 1ceb 6ebd e82e 9a3d f0bb 97bd
00000310: fefc 043d cb41 8e3d 7677 d9ba 88df 9abd
00000320: 49c0 8dbd cde3 38bb 6698 ef3b f757 8b3d
00000330: 06a9 a53d f63a 54bd 7632 a6bc 01b4 83bd
00000340: 10fb c63c 99bb 533d 6fbb 91bc 9910 1c3c
00000350: 20cb bb3a 6d8f 9bbd e4c4 b93d 4df1 c23c
00000360: 5924 d13d f213 86bd a886 81bc f79b 55bc
00000370: 16cc 153d da44 a8bb de42 1cbd 63a0 a43d
00000380: 5c85 9e3d 2fee cf3d 5250 573d df20 873d
00000390: 118f 32bd 06b7 9b35 a18a 9cbc 1b21 0fbb
000003a0: 88a6 953c f9c2 a23c 3e18 17bc 9657 183a
000003b0: 290c 84bc 4de7 16bd 2d1b 70bd 24ab 0dbd
000003c0: c32a 49bd 04c1 6cbd 18a4 aa3b 94d0 86bd
000003d0: 82e3 92bd f780 923d 86df 85bd 36f2 923d
000003e0: 7c16 913c cc1b 0dbc 441c 973d 6ae6 72bd
000003f0: eefe 6a3d 7722 893d 8d29 993d 1b63 abbd
0.03738081 0.026374007 0.07110823 0.032597505 -0.08173205 0.04822093 0.081002645 -0.034280352
0.07222461 0.06975555 -0.02988338 -0.005822278 0.008538295 0.07487987 0.049900003 0.059405357
-0.07882715 -0.035978835 -0.09113811 0.012895109 -0.017527657 0.02591882 0.044519726 -0.013894441
0.0043006586 -0.046811007 -0.02006332 0.01471922 0.062419243 0.031655557 0.022648055 0.06007145
0.0793323 0.02482574 0.07092491 -0.0650593 0.023205137 -0.0033044128 0.067289226 -0.1088555
0.02923207 -0.079062656 -0.03382096 -0.03333499 -0.026914047 -0.039730363 -0.079376504 -0.081915006
-0.017579585 0.074992634 -0.023337059 -0.05823724 -0.014651679 -0.021600803 -0.012506005 0.07484906
-0.085208856 0.06307629 0.06526598 0.06414264 -0.04793416 0.009906421 0.03625982 -0.065755896
0.06665117 -0.0007153225 -0.07567654 -0.017952058 0.006151556 -0.037568573 -0.033671018 0.0037661383
0.043021165 0.019271657 -0.07494245 -0.006642223 0.013045514 0.08528756 0.049174886 0.06485695
0.026843842 -0.02126883 -0.05472158 -0.040161304 0.027994009 -0.01778612 0.08248638 -0.05698481
0.06487342 0.033541758 0.060359694 0.05683199 -0.05576968 0.05233103 -0.09586094 -0.047028337
-0.0228775 0.06988279 -0.018608535 -0.07457237 -0.082906865 0.0025606225 0.0069536944 0.015353321
-0.0138745755 0.034830645 0.001126671 -0.0011435654 0.051853903 -0.07691147 -0.035930306 0.01821617
-0.01978701 3.7667847e-09 -0.039286762 0.04921091 0.07994107 0.076669805 0.025633892 -0.07378145
-0.030631207 -0.034463268 -0.01483321 -0.044634752 0.053403012 -0.08200018 0.006847412 0.05390795
-0.056049585 -0.007829956 0.054345444 -0.023324542 -0.03919585 0.055781357 -0.058332726 0.09230204
0.091914125 0.014054074 0.016099023 -0.0392321 0.03016599 -0.055741336 -0.02190098 0.06326008
0.024812825 0.06698269 0.055058084 0.08034777 0.02539344 -0.065595455 -0.082069136 0.061844308
0.08164483 0.07982829 -0.058989305 0.082646064 -0.02691452 0.029661216 0.04856798 -0.062464304
-0.06912054 0.06692807 -0.082321025 0.03411443 0.046504546 0.06449204 0.009355243 -0.020390961
0.003095489 -0.006388024 -0.07702595 0.022138713 -0.045102067 0.065521345 -0.03711917 -0.0057255626
-0.054214984 0.08724066 0.058704212 0.08487187 0.068418436 -0.010365932 0.090082444 -0.009139946
0.08206691 0.024121964 0.055868044 -0.02964715 0.03703493 0.0040953886 -0.071090005 0.06819719
-0.044746567 -0.058329687 0.07528478 -0.07408893 0.032467835 0.06946143 -0.0016591388 -0.075621665
-0.06921441 -0.0028211952 0.0073118685 0.06803887 0.08088879 -0.051814042 -0.020287734 -0.064308174
0.024289638 0.05169258 -0.01778957 0.009525442 0.0014327504 -0.07595716 0.09070757 0.023796702
0.10212011 -0.06546773 -0.01581128 -0.013037673 0.036571585 -0.005135161 -0.038149707 0.08038404
0.0774028 0.10152852 0.052566834 0.065980665 -0.04359347 1.1601667e-06 -0.019109072 -0.00218398
0.018267885 0.01986836 -0.009222088 0.0005811391 -0.01611908 -0.03684168 -0.058619667 -0.03458704
-0.049113046 -0.05780126 0.00520755 -0.06582752 -0.071723 0.07153504 -0.06536774 0.07175104
0.017710917 -0.008612584 0.07378438 -0.05930177 0.057372026 0.06696027 0.07478628 -0.08368512

bias f4 [128]
00000000: 1631 58ba d7dd 343d ff2c 183d 1781 a3bd
00000010: ef6d 0fbd 8e45 97bd 262a a4bd 25a7 543d
00000020: ec76 7d3d a09f 7abd 46f3 ebbc 8473 193d
00000030: cc98 c33d d721 9b3d aa15 373d 247b 9abd
00000040: 58fa 55bd 08e0 9d3d de77 9cbd 3644 12bd
00000050: 7de0 90bd 28f8 86bd ee41 b83c a7af debc
00000060: e3f6 93bd cfb5 86bd fb47 963d 76a6 963d
00000070: 4697 233d d59b 293d 76f8 4fbd 5893 0abd
00000080: 0a30 37bb 599e 1f3d d809 74bb 9726 b53c
00000090: fb21 48bd e7ab c9bc 1d05 0a3d 3664 a6bd
000000a0: 121b 343c e29e 893d acae 5dbd 7ebf b0bc
000000b0: d2bf 8abc 8015 e1bc d506 733d 90ec d53c
000000c0: 4c10 b73d 7884 d0bc b2cb da3c 5162 d03c
000000d0: 6636 38bd d2dc bcbd 864b 5d3d 9374 62bd
000000e0: 97da 10bd cfcb a2bc 80eb b4bd d33d 783d
000000f0: 29ed 89bc e5ff 30bd f46d a0bd c0f8 953c
00000100: bf5f 15bb 31eb 85bc 4e2a e8bc 667f f33c
00000110: 8d01 6fbc 8a3e 843c 533e 7a3d fd7a b23c
00000120: d73d 4abd aaca 8cbc cbc1 f6bc 1af3 82bb
00000130: 3b78 5a3d 0e14 a5bb 9014 01bd 4ccb 42bd
00000140: b60f 583d 75f4 cbbc a399 243c c79e 7fbc
00000150: 2314 90bd 78d7 fd3c 3205 943d 8ea4 63bd
00000160: 8e15 a13c 4dc7 983c 2c97 bbbc d3af 27bc
00000170: 3824 d5bb 33b6 3e3d 319a bebb 929b b9bd
00000180: dac7 efbc 53f1 1cbd f1d6 4ebc f296 44bd
00000190: ad71 283c c65e b3bb 75c0 50bd b9ac 0bbc
000001a0: 1f5d 7cbd f851 36bd 56cf 413d 887f 133b
000001b0: e0bb 3e3d acaa c73c a1dd 6a3d f0a7 b23d
000001c0: 7174 953d 0770 d7bc 2380 2bbd 6ab5 8c3d
000001d0: b6fc 5e3d aa88 a93d 043e a13d 1980 7b3d
000001e0: 57b9 4e3c 087a 44bb 253e 3abd d303 b63d
000001f0: d425 50bd 05b1 4b3d 75fb afbb 8b51 3abd
-0.00082470605 0.044156875 0.037152287 -0.07983606 -0.03501695 -0.073863134 -0.08015852 0.051917214
0.06188099 -0.061187387 -0.028802525 0.03746368 0.09550628 0.07574814 0.044698395 -0.075430185
-0.0522407 0.07708746 -0.0764005 -0.035709582 -0.07074068 -0.06590301 0.022492375 -0.027183367
-0.07224824 -0.06577646 0.07337948 0.07355969 0.039939187 0.04140838 -0.05077406 -0.033831924
-0.0027952217 0.03896937 -0.0037237313 0.022113128 -0.04886053 -0.024618102 0.033696283 -0.081245825
0.010992782 0.067197576 -0.05412166 -0.021575686 -0.01693717 -0.027476072 0.059332687 0.026113778
0.08938655 -0.025453791 0.026708458 0.025437506 -0.044973753 -0.09221806 0.054027103 -0.055286955
-0.035364714 -0.019872574 -0.088339806 0.060605835 -0.01683672 -0.04321279 -0.07833472 0.01830709
-0.0022792665 -0.0163475 -0.028340485 0.029723834 -0.014587772 0.016143102 0.061094593 0.021787161
-0.04937538 -0.017186482 -0.030121705 -0.003996265 0.053337317 -0.005037791 -0.03151375 -0.04755716
0.052749358 -0.02489684 0.0100463955 -0.01560182 -0.07035091 0.030986533 0.072275534 -0.055576853
0.019663598 0.018649722 -0.022899233 -0.010234791 -0.0065045618 0.046560477 -0.005816721 -0.09062876
-0.029270101 -0.038316082 -0.012624488 -0.047995515 0.010281009 -0.0054739444 -0.05096479 -0.008525067
-0.061612245 -0.044511765 0.04731687 0.0022506434 0.04656589 0.024373375 0.057340268 0.08723438
0.072976 -0.026298536 -0.041870248 0.068705395 0.054440223 0.0827802 0.07873157 0.06140146
0.012617431 -0.0029979963 -0.045469422 0.08887448 -0.050817326 0.049729366 -0.005370552 -0.04548792

weight f4 [128, 128]
00000000: 8ddd 5fbd b41f ed3c 0b24 9ebc b1c9 3f3d
00000010: 169f 13bd 1fb9 77bc 0c69 933c 8d96 ad3d
00000020: 25b4 93bd 3c02 36bd 785a f0bc fd26 fd3c
00000030: 606a c53d 1c0c ef3b 1611 693c 554e 7e3d
00000040: 4496 96bd 4976 923d f4c4 c03d b4f2 75bd
00000050: bbd9 84bc 74b1 ee3c e64f 4abd 7c07 09bd
00000060: 61ee 973d 0af4 703d 4058 95bd 1dbf 533d
00000070: 2394 4bbd 268c 06bc bbc1 cdbd dd71 9abd
00000080: 3ad8 35bc 69df 89bd 4e5e 49bd 986c 3e3d
00000090: 6205 493d 75fc 9ebd 0ca3 8a3d edeb a03d
000000a0: e628 03bd 4c1a 0e3d 3203 2e3b 84ab 9c3b
000000b0: fd35 4ebc 9746 1f3d bc63 a83d 42a8 a8bc
000000c0: bc92 d5bc 7fd8 bc3d 8f87 713d 86bd 7fbd
000000d0: ac3e ad3d 9d3d 86bc e624 323d 9f56 193b
000000e0: 1679 6dbc c0d8 5ebd f4ea 993b 688c a1bd
000000f0: d4c4 48b9 08a8 773d 6221 9f3d 99ba 2cbd
00000100: cfa1 533d 59f4 833a 4148 9b3d 7a58 7c3d
00000110: 578b 04bd a709 1b3d 7511 063d b20a 303d
00000120: f2ef f5bc 2cb2 523c 7e78 a0bd 9be2 383d
00000130: 5ac2 cbbc 1037 373d b472 803d 333b 843b
00000140: 7425 a2bd 7b84 84bd cc9e da3b f6d0 a0bd
00000150: c12f 3a3d 98c0 34bc 9990 7abd 56aa 3b3d
00000160: 14eb 073d 8154 973d 73a3 afbb 71ea dd3c
00000170: 183f 783d 65db 3d3d 33fa 51bd 1456 92bd
00000180: 5230 4e3b b61e a63d b734 433d eda6 14bd
00000190: ba14 1fbd 2682 b43d 2dab 7a3d 6aea 1c3d
000001a0: 3b67 75bd c5f6 a4bd 06a3 303d bdbe 8f3d
000001b0: 066f b33d f5df 373d 4f41 dabc 1856 b7bc
000001c0: 17e2 6c3d 51ac 133b 3003 57bd c033 513d
000001d0: 90bb 98bd a7cc 073d 3520 12bd 91be d2bc
000001e0: 90fa 803d 60f3 0cbd dbda edbb b664 9abd
000001f0: c953 463c b083 0ebd cd0d 4c3d 2930 883d
00000200: 60b9 5cbd 7d30 b23d c626 013d d4fd ac3d
00000210: 37c1 133c 109e 2bbd 74ae 11bd 6cca 9f3d
00000220: c6ca 2ebd f66c 70bd 2083 08bd 9951 b1bd
00000230: e380 8abc 2523 be3c a187 cc3b 3270 7f3b
00000240: 9a50 21bd 4496 bf3d e396 17bd 907f 8bbd
00000250: 0235 b03d 8806 57bd 1485 85bd a3a3 9dbd
00000260: 0a44 463d 7527 1d3d 883f a33d 8a21 4a3d
00000270: e551 27bd c637 b63c a3d6 123d fc60 513d
00000280: 2c8a dcbc 6ed5 c33d b66f 5dbc 553f 33bd
00000290: 607d 883b 86a2 8d3d 6a1f 943c ae71 bb3d
000002a0: dd60 3a3d e129 9c3d 9585 013d 461e b3bd
000002b0: 4edf 09bc eea1 00bd 46c7 a63d d16f 973d
000002c0: 36d5 2e3d 58ab 1cbd fe06 c7bc 386f 22bd
000002d0: ae07 92bd 8bc7 2fbd 8661 603d edf9 4c3d
000002e0: 98e2 b93c c9a4 ac3d c794 d0bc db36 c93d
000002f0: 7299 8cbd f455 293c 2c38 f2bc 5fb2 c43c
00000300: 4eb0 f53c 4e96 2e3d a584 803c f6e1 99bd
00000310: 8ff8 7e3d 3784 203d e70d 163d 2e41 a1bd
00000320: 0e18 cbbd a2fb 493d 2d1f 993d 0296 11bd
00000330: 413b e8bc d79f 003d 8e19 0bbb 8484 4cbd
00000340: 99fe 66bd 321d 2a3d 3a5a c53d 3dc7 a53d
00000350: 0db7 47bd f96c 8a3d 4f81 51bb c6c2 1f3d
00000360: 244a a4bd 1458 973a 56bb 3f3c c83e f33c
00000370: e73c 553c c4a5 1e3c a6ec 3d3c fc9e 753c
00000380: eea1 5fbd 41ea 8c3d 30a2 2abd b7f3 f53c
00000390: be3e 4bbd a196 053c 2c38 8d3d 3460 6abd
000003a0: 30ed 343d 419d 853d 44bd a63d 6b9f b63d
000003b0: 9b57 86bd c418 c93d 694c 02bd ddfd 033c
000003c0: a99e 173d 68fe 50bd d29a e5bb a071 973d
000003d0: ac24 f63c 4dc1 6ebd 0f49 09bd 8445 2b3d
000003e0: bda6 08bd f55d 3bbd 8925 543d 007f 0a3d
000003f0: 73f2 6e3d 62a0 1b3c ff05 123d d400 12bc
-0.054654647 0.028945781 -0.019304296 0.046823207 -0.036040388 -0.01511982 0.017994426 0.08475981
-0.07212094 -0.044435725 -0.029340014 0.03090238 0.0963943 0.0072951447 0.014225265 0.062086422
-0.0735288 0.07151467 0.09412566 -0.060045913 -0.016217103 0.02913735 -0.049392603 -0.033454403
0.07418514 0.058826484 -0.07292223 0.05169593 -0.04970182 -0.008212125 -0.10046717 -0.07541249
-0.011098916 -0.06732065 -0.0491622 0.04649028 0.0490774 -0.07762996 0.0676938 0.07857499
-0.032021426 0.034693047 0.0026552198 0.0047811884 -0.012586114 0.03888568 0.08222148 -0.020588044
-0.026070945 0.09220981 0.05896717 -0.062436603 0.08459219 -0.016386801 0.04349222 0.0023397577
-0.014494201 -0.054405928 0.004697198 -0.078881085 -0.0001914681 0.06046298 0.07770039 -0.04217014
0.051667985 0.0010067328 0.07582141 0.061607815 -0.032359447 0.037851002 0.032731492 0.04297895
-0.030021641 0.012859862 -0.07835482 0.045137983 -0.024872947 0.044730246 0.06271878 0.0040353774
-0.079173 -0.06470581 0.006671762 -0.07852356 0.045455698 -0.011032246 -0.061173055 0.045816742
0.033183172 0.07389165 -0.005360061 0.02708933 0.060607046 0.04635181 -0.051264 -0.07145324
0.0031461907 0.081113264 0.047657695 -0.036292005 -0.038838126 0.08813886 0.061198402 0.038309492
-0.0599129 -0.0805488 0.04312422 0.07018802 0.087614104 0.044891316 -0.02664247 -0.02237992
0.057832804 0.0022533129 -0.052493274 0.051074743 -0.0745765 0.033154156 -0.035675246 -0.025725635
0.06297791 -0.034411788 -0.0072587556 -0.0753874 0.012104937 -0.034793556 0.04981785 0.06649811
-0.053887725 0.08700655 0.031531118 0.084468514 0.009018234 -0.041898787 -0.035566762 0.07802281
-0.04267385 -0.058697663 -0.033328176 -0.08658142 -0.016907161 0.023210118 0.006241754 0.0038976786
-0.03938351 0.09354833 -0.03700913 -0.0681144 0.086038604 -0.052496463 -0.06519523 -0.07697227
0.04840473 0.038367707 0.07971102 0.04934839 -0.040849585 0.022243392 0.035849225 0.051117882
-0.026921354 0.09562193 -0.0135154035 -0.04376157 0.0041653365 0.069157645 0.018081386 0.09152542
0.045502532 0.07625175 0.031621534 -0.087460086 -0.008415056 -0.03140443 0.08143477 0.07394374
0.042683803 -0.038249344 -0.024295326 -0.039656848 -0.07130371 -0.04291491 0.054780506 0.050043035
0.022691056 0.08429868 -0.025461568 0.09824916 -0.06865205 0.010335434 -0.0295678 0.024010835
0.029991295 0.04262381 0.01568825 -0.07513802 0.062248763 0.03918859 0.036634352 -0.0787376
-0.099166974 0.04931224 0.074766494 -0.03554345 -0.028348567 0.031402435 -0.0021224949 -0.049931064
-0.056395147 0.04153175 0.0963635 0.08094642 -0.048758555 0.06759066 -0.0031967943 0.03900411
-0.08021954 0.0011546635 0.011702379 0.029693022 0.0130150085 0.009683076 0.011592066 0.014991518
-0.054597788 0.06880618 -0.04165858 0.030023439 -0.049620382 0.0081535885 0.068954796 -0.057220653
0.044171512 0.065241344 0.08141568 0.08917125 -0.06559678 0.09819177 -0.03181115 0.008056131
0.037016544 -0.05102387 -0.0070069814 0.07394719 0.030046783 -0.058289815 -0.03351694 0.041814342
-0.03336214 -0.0457439 0.05179361 0.033812523 0.058336686 0.009498687 0.03565025 -0.00891133

bias f4 [128]
00000000: 9922 b73d b4ae 3e3b f014 55bd f0d3 7e3d
00000010: 31f4 8c3d 47fb 203d ffda b6bc 0b93 41bd
00000020: a9fc ee3c 6a76 8f3c 2110 a6bd 3356 363d
00000030: 94b2 3d3d 6887 4e3d 5b2f 7abd dc15 173d
00000040: 6237 eebc 5aa8 cd3b bc9f 0abc a5e5 2abd
00000050: 0efb 22bd 439f 7b3d fa0a 67bc c87d 563d
00000060: c3da 2e3d 77f2 893d 0f8e 2cbd ce49 0c3d
00000070: 1544 493d 9a18 2cbd 66d8 30bd e74f 373d
00000080: 195d 0f3d 0bb8 1bbc c773 633d faa5 20bc
00000090: 6ae6 723d a11d 93ba a715 453d e373 fb3c
000000a0: 5699 78bd ea61 b23d eea6 963d d10d 353d
000000b0: 30c7 013d d330 633d 1f33 cdbc fe70 8f3d
000000c0: 5b35 9fbd 6363 aebd fa00 98bc 5123 70bd
000000d0: d186 013d b169 1f3c 866e cf3c 0178 a93d
000000e0: 1213 d2bc 8b20 b73d 6ccd 3f3d 0633 9abd
000000f0: b4c7 24bd c5db 3ebd 7659 053d 6c62 7a3d
00000100: 1f87 4ebd dd4c 1bbd 9115 adbd 9d1f 96bd
00000110: 430b 17bd 8a65 113b 2e1d 9cbd 1002 323d
00000120: 6e20 4a3d 019b 9b3a 88db c43d 1b0b 813d
00000130: 7718 b23b 9e8f 203c 9e5e 173c 5f50 a8bd
00000140: c212 ffbc a6c9 92bd 05b7 a6bd 2071 3fbc
00000150: 1c62 443c 9991 c8bc 4580 783d 6e3b 1b3d
00000160: 8196 35bc 9e42 91bd 621a 8abd 6784 90bd
00000170: c9be 8dbc ae78 c83c 2e5e 873d 53fb 573d
00000180: c8b0 a83c dd91 6e3d 048b 8fbd f6ae bd3c
00000190: 5f02 c3bc a40b afbb b017 953d eb84 a53c
000001a0: c79f 29bd c496 95bc 8961 e4bc 07fb 7abd
000001b0: 23fb 7bbd 69ee 90bd 57c7 953d 78ba 443d
000001c0: 68c1 d3bc 9a36 30bd b33b a1bd 9096 2fbd
000001d0: 835b 0c3d 382c 2abd 8eff fa3c 1be3 d2bc
000001e0: a59b aebd a3a7 0a3d 4b2c 193d 01c8 cd3c
000001f0: b97f 67bd f5be 82bc f379 ab3d 5e51 803b
0.08942146 0.002909583 -0.05202192 0.062213838 0.06882513 0.039302137 -0.022321222 -0.04725937
0.029173212 0.017512519 -0.08108545 0.0445158 0.046312883 0.050422102 -0.061080318 0.03688608
-0.029079143 0.0062761726 -0.008460935 -0.041722912 -0.039790206 0.06143118 -0.014101738 0.052366048
0.042689096 0.067356996 -0.042127665 0.034250073 0.049137194 -0.04201565 -0.043175124 0.044753935
0.035000894 -0.0095043285 0.055530336 -0.009805197 0.05930177 -0.001122404 0.048116352 0.030694908
-0.060693108 0.08710082 0.07356058 0.04420263 0.0316841 0.055466484 -0.02504879 0.070039734
-0.077738486 -0.0851505 -0.018555153 -0.05862743 0.03162271 0.009729789 0.025321256 0.08274842
-0.025643859 0.08941754 0.046826765 -0.07529263 -0.040229514 -0.046596307 0.03255602 0.06112902
-0.05042183 -0.0379151 -0.08451379 -0.073302485 -0.036875974 0.0022185766 -0.07622753 0.043459
0.049347334 0.0011871756 0.09612185 0.06300946 0.0054350453 0.009799866 0.009238867 -0.082184546
-0.031136874 -0.07167368 -0.08140377 -0.011684686 0.011986282 -0.024483489 0.060669202 0.037898473
-0.011083246 -0.07092784 -0.06743313 -0.07056504 -0.017302888 0.024471607 0.0660976 0.052729916
0.020592108 0.058244575 -0.07008937 0.023154717 -0.023804842 -0.005341964 0.07279909 0.020204982
-0.04141214 -0.018260367 -0.02787854 -0.061274555 -0.0615188 -0.07076723 0.07313412 0.048029393
-0.02584906 -0.043020822 -0.07872715 -0.042868197 0.03426696 -0.041546077 0.030639436 -0.025743058
-0.085257806 0.033851277 0.037395757 0.025119783 -0.05651829 -0.015960196 0.08372869 0.0039159497

weight f4 [128, 128]
00000000: 6bf9 bbbb cc1d 823c 1a72 b03d ff8d a53d
00000010: 1631 3a3c 9f25 a43d dde1 03bd 6db2 033d
00000020: 060a 653d 1dc8 a3bd 21d9 a5bd 9edd 80bd
00000030: 9716 95bd 765a 003d 025b 163c 5c38 c7bc
00000040: ef2f 26bd 1652 b6bd e324 28bd 00e6 b13d
00000050: f66c ebbc fb6b 18bc f916 11bd 657f 1dbd
00000060: a8d0 933d 5a74 60bc e760 003b b9a5 743d
00000070: 9e88 9fbb b4e9 bd3c 6c26 33bd ec67 6a3d
00000080: 71e5 b9bb 4998 613d ddd2 9fbd 7ff9 9c3c
00000090: 4a17 ba3c 6344 85bd 72e4 923d 838c 2ebd
000000a0: 0d0e 0dbd 50ae 603d 178c 26bd 01ce 2e3d
000000b0: c042 893d c821 2abc 11c3 6d3c 9ca6 5dbd
000000c0: 6e21 3ebd 603b 87bc 6abc 9e3d 005a 893d
000000d0: 9b4c b43d 3837 1ebd d0d9 8abd da18 7b3d
000000e0: e621 653d 1b7b be3d 17fa 993d 3e47 37bd
000000f0: 8042 8e3d 09ad a63d 111a 70bc 3b1d 59bd
00000100: 7e57 75bd 6ce5 07bd 8ac1 7d3d bb78 bb3b
00000110: 5eff 9dbc 1de5 17bc df0d a73d a8b7 863c
00000120: a70a 55bd aeb1 1d3d b862 5cbd 3098 843d
00000130: 21c4 b7bc 7433 ee3c dec3 603d 7580 713d
00000140: 7b8a 91bb fd1e 443d 4c2a 85bc 46fa b13d
00000150: be21 7cbc 1f19 9fbd 5c12 e7bc 7cbd 063d
00000160: e8d1 3f3c 10ab 57bd 2455 a6bc a9be de3c
00000170: ce90 cf3c 1b8f b53d 26d7 cbbc 88e3 983c
00000180: 6fa3 34bd 511c a0bd f633 1cbc 4161 8bba
00000190: 1af8 8f3d 84ed 98bd 4014 6dbd 96c2 3cbd
000001a0: 0425 503b 9836 613d 5f71 503d ad39 27bc
000001b0: ec86 153d 64be 3d3d a4c4 bfbc a5c2 37bd
000001c0: e291 d23c 4805 5bbd 8fc3 923d c87d bd3c
000001d0: f43f 883b afe8 e4bc 5a09 813c 5539 ce3c
000001e0: d129 9fbd 7f6d aabd be97 26bc 0eac 2bbd
000001f0: 71c4 86bd a020 9b3c e635 4e3d 481a 72bd
00000200: 779b 593b a8e1 8b3d a79d 843d ff11 093d
00000210: 5545 253c 4cb9 30bd c155 6b3d 6cd4 5bbd
00000220: b182 e03b 314f 3cbd 4540 383c 8310 9bbd
00000230: 607b 82bc 8949 ffbc d0ff 6b3d 0ce0 833c
00000240: 7807 143d 2a1c 38bc 7713 acbd 8c69 82bd
00000250: cc77 233d eac7 ec3d 0470 2dbd 8c56 05bd
00000260: 7bda 393d 7bde ac3d afc9 7bbd 4faa f8bc
00000270: 1d64 b4bd 5886 c03c ed6b ffbc 21bf 82bc
00000280: 5c84 8f3d c006 6fbc b842 38bd d0ed afbd
00000290: acd0 ba3d 393e 2d3c a027 663d cee6 a9bc
000002a0: 49e3 5bbc 1e5c b43c 979d 683d 6480 d03c
000002b0: d10d 78bd d226 80bc 7fb1 08bc 8009 833d
000002c0: 2067 54bd 26f3 5cbc ed28 febc 72f7 cc3d
000002d0: 2d2e 973c 79b8 843d f034 5bbd 6194 133d
000002e0: 9c95 89bc a54c 6abd b091 4f3d 1989 87bd
000002f0: 4174 9c3c 4539 7abd 4ea6 d4bb 6b81 41bd
00000300: 9954 fdbc b2c2 9c3d 9a46 193b 5074 663c
00000310: 5e78 b8bd b58f 85bd 5948 013c 43c4 ac3d
00000320: a55b 3abd 33f6 c43d ca0b 8d3c 30f2 803d
00000330: 5055 f73c 8306 6bbd 7a62 213d 7456 a23d
00000340: 2ad6 13bd b780 10bd 0530 25bd 3127 b0bd
00000350: e86d ae37 9b72 47bc e846 883d c012 25bd
00000360: 51c1 99bd d72e a5bd b56d 1fbb 9de4 b2bc
00000370: 5be2 cc3c fbba 96bd 9c34 34bd c59e 083d
00000380: 1af6 613b 4e62 623d 719d 193c 5296 82bd
00000390: 1c54 a43d 5dfe 36bd 980a 7c3d e0ed aa3d
000003a0: df30 563d 61f3 4a3d c5de 923c 4594 81bd
000003b0: 718a cfbc b84e 58bd 91be 063d 9a05 623d
000003c0: 55a6 bd3c 0fc0 9f3c 82a7 32bd a788 a23d
000003d0: 7a66 84bc aae7 bb3c 632f a5bc 3cdb 98bd
000003e0: 1b3b 74bd 099e a43d ad68 08bb f61c 583c
000003f0: e602 4cbd 26d5 243b 4294 863c 8e53 4abd
-0.00573652 0.015883349 0.08615513 0.08083724 0.011364242 0.08014988 -0.032197822 0.032152582
0.055917762 -0.07997153 -0.08098055 -0.0629227 -0.07279699 0.03133627 0.009176971 -0.024318866
-0.040573057 -0.089023754 -0.041050803 0.08686447 -0.02873848 -0.009303088 -0.0354223 -0.03845157
0.072175324 -0.013699615 0.0019589008 0.059728358 -0.004868581 0.023182727 -0.043737814 0.057228014
-0.0056731035 0.05507687 -0.07803891 0.019161938 0.022716183 -0.06507184 0.07172479 -0.04261447
-0.034437228 0.054853737 -0.040660944 0.04267693 0.06702185 -0.010384031 0.0145118395 -0.05411397
-0.0464186 -0.016507804 0.07750781 0.06706619 0.08803674 -0.03862688 -0.06779826 0.061302997
0.05594053 0.09300824 0.07518404 -0.044745676 0.069462776 0.081384726 -0.014654652 -0.053006392
-0.059897892 -0.033177778 0.06195215 0.0057211793 -0.019286808 -0.009270933 0.081569426 0.016444996
-0.052012112 0.038499527 -0.053805083 0.0647434 -0.022432389 0.02907727 0.054874294 0.058960397
-0.004441557 0.047881115 -0.01625552 0.08690314 -0.015388904 -0.07768463 -0.028206997 0.03289555
0.01170776 -0.052653372 -0.02030427 0.027190523 0.025337603 0.08865186 -0.024882864 0.018663183
-0.044101175 -0.07817901 -0.009533873 -0.0010633842 0.070297435 -0.074671775 -0.05788064 -0.04608401
0.0031760344 0.054983705 0.05088937 -0.010206622 0.036505625 0.04632415 -0.023409195 -0.044863362
0.025704328 -0.053471833 0.07166206 0.023131266 0.0041580144 -0.027942983 0.01575153 0.025173822
-0.07771648 -0.08321666 -0.010168014 -0.04191213 -0.06580437 0.018936455 0.05034437 -0.059107095
0.0033204237 0.0683015 0.06475382 0.033464428 0.010087331 -0.043145463 0.05745483 -0.05366938
0.006851517 -0.04597396 0.011245792 -0.07571509 -0.01592797 -0.031162994 0.05761701 0.016098045
0.036139935 -0.011237184 -0.0840215 -0.06367788 0.03990917 0.11561568 -0.042343155 -0.03255324
0.045374375 0.08440872 -0.061471637 -0.030354647 -0.088081576 0.02350156 -0.031179393 -0.015960278
0.070076674 -0.014589012 -0.044985503 -0.08590281 0.09121832 0.010573917 0.056190133 -0.020739939
-0.013420888 0.022016581 0.056790914 0.025451846 -0.06056005 -0.015643511 -0.0083431 0.06398296
-0.05185616 -0.0134857055 -0.031025374 0.10008134 0.018454636 0.06480498 -0.053517282 0.036030177
-0.016794972 -0.057202 0.050676048 -0.06617946 0.019098403 -0.061089773 -0.0064895516 -0.047242563
-0.030924128 0.07654323 0.002338803 0.014065817 -0.09007333 -0.065215506 0.007890784 0.084358715
-0.045497555 0.09617271 0.017217536 0.062961936 0.030192047 -0.057379257 0.039400555 0.07926646
-0.036092915 -0.035279002 -0.040328998 -0.08601225 2.0793595e-05 -0.01217332 0.06654149 -0.040301085
-0.07507575 -0.080655746 -0.0024326865 -0.021837527 0.025010278 -0.073598824 -0.043995485 0.03335454
0.0034478963 0.055269532 0.009375916 -0.063763276 0.08023855 -0.044676173 0.06153354 0.08346152
0.0522927 0.04954851 0.01792849 -0.06327108 -0.025334569 -0.052809447 0.032896582 0.055181123
0.023150602 0.01950076 -0.04361678 0.079362206 -0.016162146 0.022937614 -0.020164197 -0.07463691
-0.05962668 0.08037955 -0.0020814345 0.013190499 -0.04980745 0.002515146 0.016428117 -0.04939609

bias f4 [128]
00000000: 6097 8dbc 5724 53ba b5d2 d13c bfdd 393d
00000010: 3d7c 9f3b 85b6 49bc 70ba 97bd 679d 8d3b
00000020: 3fb9 103d 8fe8 93bb 6652 9c3d e2cd 10bd
00000030: ed8e 44bd 8736 613d c509 5abc 809f 9d3d
00000040: 4869 9c3d 1b76 eb3c 3787 9f3d 7b6f f93a
00000050: 9768 493d c8ce 85bd 3b03 8b3b 7b5b d8bc
00000060: a260 923d 85d4 bcbc 7e0f 843d 0e27 cf3c
00000070: b77e 0a3d c110 3c3c 7023 64bd a0c6 513d
00000080: f4ab b8bb 3939 7f3b b169 ddbb 9110 15bd
00000090: c4db 6d3d a690 4dbd d9df 26bd 0d53 0dbd
000000a0: 198b 683d 3666 99bd 81d3 3ebd af74 573c
000000b0: 2b7e 0bbc 8158 5f3b 5b62 a73b 5e2f 283d
000000c0: cb02 f4bc 92f1 703d 6ec2 35bd 01a0 67bd
000000d0: d8aa f83b 7024 8c3d a79a 30bd e5d4 373d
000000e0: b0b3 9c3d 4295 19bd a669 45bd 4e47 223c
000000f0: f079 fe3c 73d4 adbd 9822 d3bb 6284 bfbc
00000100: 0052 263c dec6 7e3d e981 b93d 79cc 0c3c
00000110: fd70 d9bc 3b25 993d 4e99 493d c83f 2e3d
00000120: 24fb a13d c000 a33d 69ae 02bd 171e 3cbd
00000130: 659b c4bb 351c 473d 2443 85bb 3a7f 96bd
00000140: 2736 1fbd 28a2 07bd c98a 23bd fca9 2dbd
00000150: ba36 1fbc c00a 433d e958 2f3d dd41 ac3d
00000160: e676 12bd 5f27 53bb d8d0 673d b01c 55bd
00000170: fe28 70bd 05c0 1c3d 3610 b5bc d6db adbd
00000180: 686f 92bd f4c2 0c3d 75c2 853c 116e 89bc
00000190: cf27 47bd 67ca 463d bfd8 413c 6208 f93c
000001a0: ce3a 1e3d 4493 2cbd 130a ccba 4a4f 103d
000001b0: 42b3 18bd 33c0 913d eb8b aa3d 3340 6fbb
000001c0: 8730 8e3d e054 16bc 3322 093d e6f5 6cbd
000001d0: 0b96 b33b 33d7 22bd 618a 523d fe39 2fbd
000001e0: 3a27 14bc 4445 c63c 185b 43bc fc0f 9a3d
000001f0: c94f 22bd 3c15 6cbd b2fd 5dbb 2007 cd3b
-0.017284095 -0.0008054426 0.025613168 0.04537749 0.0048671053 -0.012311582 -0.07408607 0.0043217423
0.035332914 -0.004513807 0.07632904 -0.035352595 -0.047987867 0.054983642 -0.013307993 0.07696438
0.07637268 0.02874284 0.07789462 0.0019030416 0.04917201 -0.06533581 0.0042423285 -0.026410809
0.071473375 -0.023050556 0.064482674 0.025287177 0.03381225 0.011478604 -0.05569786 0.051214814
-0.005635733 0.003894402 -0.006756984 -0.036392752 0.058070913 -0.050186776 -0.04074082 -0.03450303
0.05677328 -0.07490198 -0.046588425 0.013150378 -0.0085139675 0.0034079852 0.0051081604 0.041060798
-0.029786488 0.05882413 -0.044374876 -0.056549076 0.0075887255 0.068428874 -0.043116238 0.044880766
0.0765146 -0.03749586 -0.048196457 0.009904696 0.031064004 -0.08487787 -0.006443333 -0.023378555
0.010151386 0.062201373 0.090579815 0.008593672 -0.026543135 0.07477804 0.04921847 0.042541295
0.079092294 0.079591274 -0.03190461 -0.045927133 -0.00599997 0.048610885 -0.0040668417 -0.07348485
-0.038870003 -0.03311363 -0.039927278 -0.042398438 -0.009717638 0.047617674 0.0428094 0.08411
-0.03575792 -0.0032219512 0.056595653 -0.05202931 -0.058632843 0.03826906 -0.022102457 -0.08489196
-0.07150155 0.03436561 0.016328076 -0.016776117 -0.04862195 0.04853287 0.011831461 0.030399505
0.0386303 -0.04213263 -0.0015566967 0.035231866 -0.03728033 0.07116737 0.083274685 -0.0036506772
0.069428496 -0.009175509 0.03347988 -0.057851695 0.005480533 -0.03975601 0.0514015 -0.042779915
-0.0090425555 0.02420295 -0.011923574 0.0752258 -0.03962687 -0.05763744 -0.0033873138 0.006256953
