models/multimodal/models/NeuralNetTorch_BAG_L1/S1F2/net.params (torch, 255858 bytes, 17 tensors)

weight f4 [84, 19]
-1.1307179 -1.151665 -0.27595907 -0.4704608 0.82433575 0.6835817 -0.34303418 -2.0983243
0.2806102 -1.2764317 0.3771501 0.26700824 0.111059025 1.211486 1.1021367 -0.2690706
-1.3738163 -1.6787322 0.60562223 0.8188015 0.6230178 -1.5716052 -0.33671197 1.8453482
0.7325445 -0.60142934 -0.1497228 0.19094361 1.3714927 1.5988538 0.9251735 -0.8310032
-0.6375894 0.0109033175 -0.49815017 0.23110475 0.4533559 0.13606282 0.6473778 0.47839198
-0.1295883 0.7519341 -0.32559726 0.012468738 0.4961982 2.3406193 -1.4703746 -1.6091871
-0.66372406 0.82706904 1.0646673 0.16556956 -0.2671566 -0.4179907 0.5270569 -0.36992174
-0.39667377 0.7625876 1.5259001 3.405715 -1.5267031 -1.2527322 1.8087429 -0.56404656
-0.5573892 0.9272068 1.1158234 1.2906686 -1.4669485 2.5660653 -0.47048804 0.3385834
-1.6278962 -0.54766 -0.4900772 -0.5035496 -1.0785788 1.0970752 -0.11529843 0.8194027
-0.095230855 0.70161533 -0.8296378 -0.014469869 0.8398913 -0.38698378 1.0242608 0.3784794
-0.24859326 2.316839 -1.8638759 -0.036538575 -1.0284368 -0.9772796 0.016914576 0.7174078
1.6604877 -1.3447381 0.3376599 0.5376848 -2.6302779 -1.6924447 -0.20534408 0.30158964
0.2141881 0.09550186 0.32719716 0.46410152 0.42773846 -0.8847726 0.75289255 -0.9426965
-0.1913894 -2.406193 -0.058507133 0.0011032517 0.9390352 0.31017923 -0.8913204 -0.09714952
-0.6527413 -0.4230376 1.9381727 -0.43253502 0.15067409 1.1280481 0.94605446 1.361442
-0.92998946 -0.4479325 -0.8173194 0.59456897 0.6492306 0.48121387 1.9702718 -1.080501
-0.08429403 0.13922842 -0.6092319 -1.2564533 -0.08918132 -1.0122304 -0.33660334 0.23831306
-0.27443063 0.13132778 0.22611858 1.1415097 0.26225793 0.37015796 -0.17622678 -0.1054961
0.18349893 -0.79891646 -1.8734643 0.15543611 -0.71856314 0.33084658 0.1741916 0.36511403
0.9734932 -0.9563904 0.28104973 -0.0892533 0.9857446 -0.46535042 0.7800252 0.6310678
0.31944424 0.19014432 -0.1264701 0.35030267 -0.2925343 -1.0751079 0.23020425 -1.3768984
-0.08174192 -0.37549287 -1.5366566 -0.3332342 1.0645149 0.13442606 1.5666865 0.79284173
-1.0874623 -0.7351968 1.4456902 0.25877723 0.6806283 -0.97161883 -1.1667885 -1.1747146
-0.5682159 0.52387404 0.40213045 0.38887823 0.15963027 0.87879586 -0.2700351 1.0041785
-0.07059688 -1.0984674 0.39247182 0.58945775 0.6490355 -1.194875 0.6156741 -0.5390507
1.1838082 0.12101038 0.98162794 0.8092145 -1.2703259 0.98535043 -0.52344126 -1.3024298
0.97874427 1.295248 -0.6834997 0.5823816 0.2721137 -0.025102014 -1.085792 -0.14169304
-0.36944062 1.5359064 0.21731845 0.388996 -0.1340849 0.6681158 -0.31061268 -1.3480555
-0.15028861 -0.5638618 -0.53973746 0.8958893 -0.8891887 0.7976433 1.1725606 -1.7929697
-1.4676055 -1.7823277 0.043431863 -1.1170759 1.4182514 -0.08287807 0.6122726 -0.16085431
-0.070084326 1.0234449 0.9124534 -0.44311902 -0.8623481 0.13507825 1.8961583 0.37526843
00000000: 5dbb 90bf c269 93bf 824a 8dbe 3de0 f0be
00000010: ab07 533f 36ff 2e3f 2da2 afbe f24a 06c0
00000020: 24ac 8f3e 1d62 a3bf d119 c13e 4eb5 883e
00000030: ea72 e33d f911 9b3f d112 8d3f 9fc3 89be
00000040: 36d9 afbf b2e0 d6bf 0f0a 1b3f fa9c 513f
00000050: 187e 1f3f 5c2a c9bf 8365 acbe 5f34 ec3f
00000060: 0988 3b3f 46f7 19bf ef50 19be b986 433e
00000070: 138d af3f 3ea7 cc3f 2cd8 6c3f a0bc 54bf
00000080: 0f39 23bf d4a3 323c 8a0d ffbe b9a6 6c3e
00000090: 441e e83e 0d54 0b3e 8dba 253f cbef f43e
000000a0: ccb2 04be c17e 403f afb4 a6be ad49 4c3c
000000b0: b10d fe3e b5cc 1540 3c35 bcbf d8f9 cdbf
000000c0: d2e9 29bf ccba 533f 0547 883f 118b 293e
000000d0: c0c8 88be e102 d6be 33ed 063f 6266 bdbe
000000e0: d318 cbbe f138 433f b250 c33f 3cf7 5940
000000f0: 026b c3bf 8759 a0bf e384 e73f 5b65 10bf
00000100: 0fb1 0ebf 6d5d 6d3f 4dd3 8e3f a134 a53f
00000110: f8c4 bbbf 6a3a 2440 cfe3 f0be ce5a ad3e
00000120: e75e d0bf 7233 0cbf 66eb fabe a0e8 00bf
00000130: df0e 8abf f66c 8c3f 9521 ecbd 60c4 513f
00000140: 6508 c3bd 109d 333f 2563 54bf 0813 6dbc
00000150: 1e03 573f bd22 c6be fa1a 833f 0dc8 c13e
00000160: 3b8f 7ebe 1747 1440 7c93 eebf 79a9 15bd
00000170: d1a3 83bf ff2e 7abf 7090 8a3c 0aa8 373f
00000180: dc8a d43f 6120 acbf c2e1 ac3e b6a5 093f
00000190: 7956 28c0 07a2 d8bf b845 52be f569 9a3e
000001a0: 2054 5b3e 7b96 c33d 6386 a73e b79e ed3e
000001b0: 8900 db3e 7580 62bf 91bd 403f 8f54 71bf
000001c0: 95fb 43be 11ff 19c0 2da5 6fbd fc9a 903a
000001d0: 9c64 703f d0cf 9e3e 932d 64bf 54f6 c6bd
000001e0: 0e1a 27bf 6298 d8be 0b16 f83f 3b75 ddbe
000001f0: 4f4a 1a3e e163 903f a030 723f bb43 ae3f
00000200: ca13 6ebf 6957 e5be d83b 51bf ac35 183f
00000210: fa33 263f aa61 f63e de31 fc3f db4d 8abf
00000220: 59a2 acbd e591 0e3e 9ff6 1bbf 76d3 a0bf
00000230: b2a4 b6bd c490 81bf 4657 acbe 5708 743e
00000240: 2c82 8cbe ca7a 063e a18b 673e fd1c 923f
00000250: ac46 863e 5885 bd3e cb74 34be 570e d8bd
00000260: 25e7 3b3e ca85 4cbf aecd efbf a52a 1f3e
00000270: c1f3 37bf b964 a93e 485f 323e 3af0 ba3e
00000280: da36 793f 00d6 74bf c0e5 8f3e 6fca b6bd
00000290: c259 7c3f 6942 eebe bbaf 473f a98d 213f
000002a0: 328e a33e 31b5 423e 6181 01be df5a b33e
000002b0: 0ec7 95be 239d 89bf aaba 6b3e 353e b0bf
000002c0: 4f68 a7bd 9a40 c0be 2ab1 c4bf ac9d aabe
000002d0: 0642 883f fca6 093e 2f89 c83f adf7 4a3f
000002e0: f731 8bbf dc35 3cbf 600c b93f 737e 843e
000002f0: a83d 2e3f 03bc 78bf 5359 95bf 0c5d 96bf
00000300: 9976 11bf 9c1c 063f 0be4 cd3e 0c1b c73e
00000310: 1e76 233e c4f8 603f 0a42 8abe ec88 803f
00000320: 1995 90bd 949a 8cbf 11f2 c83e b4e6 163f
00000330: 3127 263f aaf1 98bf d19c 1d3f 3aff 09bf
00000340: 0787 973f 4ad4 f73d f84b 7b3f ae28 4f3f
00000350: 0a9a a2bf ed3f 7c3f 3f00 06bf 05b6 a6bf
00000360: fc8e 7a3f b0ca a53f d6f9 2ebf f616 153f
00000370: 7d52 8b3e bda2 cdbc 3bfb 8abf fb17 11be
00000380: 5227 bdbe 9598 c43f ba88 5e3e 7c2a c73e
00000390: 8d4d 09be a309 2b3f a008 9fbe 158d acbf
000003a0: 42e5 19be 3f59 10bf 3c2c 0abf 0059 653f
000003b0: dfa1 63bf 5a32 4c3f 7716 963f 0880 e5bf
000003c0: 7fda bbbf 5023 e4bf 9ce5 313d 58fc 8ebf
000003d0: 4389 b53f fabb a9bd e6bd 1c3f feb6 24be
000003e0: 5f88 8fbd 3e00 833f 8c96 693f 7fe0 e2be
000003f0: d8c2 5cbf f451 0a3e 51b5 f23f 2f23 c03e

weight f4 [6, 4]
-0.87079936 1.2855259 0.2669304 1.4244044 1.2122946 0.18879427 0.26970762 -0.4177518
1.438526 -2.2332716 -0.26551118 -0.64213294 -0.7545763 0.123289086 -0.1943327 -0.16389702
-1.012206 0.06746397 2.100585 -1.1495755 1.6987169 0.18485002 -0.4329354 -0.043060374
00000000: b5ec 5ebf 1d8c a43f 1aab 883e e252 b63f
00000010: 782c 9b3f 4953 413e 1e17 8a3e 90e3 d5be
00000020: 9f21 b83f eced 0ec0 15f1 87be d362 24bf
00000030: ea2b 41bf fd7e fc3d 27ff 46be 9fd4 27be
00000040: f78f 81bf 8d2a 8a3d fc6f 0640 4a25 93bf
00000050: 8e6f d93f 5349 3d3e b5a9 ddbe 1360 30bd

weight f4 [6, 4]
0.5059637 0.26505196 -1.2639701 0.7348907 -0.6956429 -0.059564576 0.5909054 1.3400782
-2.635023 0.43075866 0.029201224 0.034001194 0.21214327 -0.1915971 0.5375087 -0.58005285
0.93959194 0.7572393 0.313716 -0.8015792 0.118045114 -2.1116745 -0.5220434 1.9897142e-08
00000000: d686 013f e4b4 873e c6c9 a1bf cc21 3c3f
00000010: a715 32bf fcf9 73bd 9445 173f af87 ab3f
00000020: 38a4 28c0 668c dc3e 6837 ef3c d644 0b3d
00000030: 163c 593e 0832 44be 2c9a 093f 587e 14bf
00000040: 1989 703f 6fda 413f 629f a03e 4b34 4dbf
00000050: a3c1 f13d ad25 07c0 a3a4 05bf 47ea aa32

weight f4 [6, 4]
-1.3005759 0.6453594 -0.087582774 -1.0585064 -0.58164406 1.9782839 -0.031585388 0.70056105
-1.8981907 -1.2477281 2.031711 0.15591605 -1.2075119 0.64370215 -0.8366913 1.0121152
1.2679309 -0.8845496 -0.7190471 0.4416847 -1.6945053 0.3788619 -0.37202454 -0.5399966
00000000: 4579 a6bf 4636 253f 995e b3bd 237d 87bf
00000010: a0e6 14bf 6838 fd3f ae5f 01bd f857 333f
00000020: eaf7 f2bf 8eb5 9fbf 8e07 0240 75a8 1f3e
00000030: c08f 9abf aac9 243f 6731 56bf fe8c 813f
00000040: 8f4b a23f d871 62bf 7913 38bf 7f24 e23e
00000050: 8de5 d8bf 30fa c13e 007a bebe 383d 0abf

weight f4 [6, 4]
1.2805274 2.10397 -1.7075694 -1.1049834 -0.90001875 -0.5883265 -2.245381 -0.083890796
0.5472774 -0.016200338 -0.88749444 1.7324806 -0.3641203 0.054132275 0.22921085 -0.40508634
-0.46544272 1.0357208 0.16134156 -0.23163646 -0.5885257 1.2274593 0.58453536 0.7364172
00000000: 52e8 a33f 72a7 0640 a291 dabf 1970 8dbf
00000010: a167 66bf 919c 16bf 53b4 0fc0 f0ce abbd
00000020: 5f1a 0c3f 92b6 84bc d632 63bf edc1 dd3f
00000030: fa6d babe ceb9 5d3d 40b6 6a3e 7a67 cfbe
00000040: 824e eebe 8092 843f b936 253e 1c32 6dbe
00000050: 9fa9 16bf 631d 9d3f 1ca4 153f d685 3c3f

weight f4 [6, 4]
0.91488874 -1.3906714 -0.9733809 -0.3762499 0.13472742 0.22189085 -1.0549866 1.8686875
1.1633363 -0.084871344 0.45938462 -0.6141261 -0.11813277 0.9290056 0.32156137 0.04854507
1.2605202 -1.6369418 1.4257658 0.985703 1.2196845 -0.6437929 0.3551939 -1.2991577
00000000: 2636 6a3f 8501 b2bf 7e2f 79bf d4a3 c0be
00000010: fcf5 093e 5b37 633e cd09 87bf 2731 ef3f
00000020: 34e8 943f 07d1 adbd 7634 eb3e 5e37 1dbf
00000030: 98ef f1bd 50d3 6d3f b1a3 a43e 32d7 463d
00000040: ba58 a13f 4f87 d1bf 7e7f b63f 0857 7c3f
00000050: 9f1e 9c3f 9dcf 24bf fadb b53e cd4a a6bf

weight f4 [26, 9]
-1.0726653 -1.9009421 -1.262142 -0.7960073 2.1351216 -0.9301017 -0.512895 0.44810814
1.2705324 -0.5402238 -0.5030543 1.543795 0.045768138 0.99315906 -1.366084 -0.1956485
0.20822997 1.5394708 -0.20119521 0.16317432 -0.06609356 -0.36533827 -1.3306848 -0.4756402
-0.23238772 -0.44091818 -0.04997701 -0.11441927 0.64238364 1.0255198 0.5333234 -0.1567785
-0.0051103123 -0.44552273 1.082079 0.20417798 2.6026728 0.0018525891 -1.4792421 0.7592661
-0.5906653 0.076274455 -1.121645 -1.4051944 -1.5050119 -0.80017996 -0.16367207 -0.3171234
-0.008744994 -0.7710087 2.701234 -1.9640596 -0.39713308 -0.3747877 -0.81705713 0.40727606
-0.7132742 -2.5395908 -1.3676603 1.9472528 0.6937888 -0.6621594 -0.9385141 1.4570885
-0.9119941 0.43005627 -0.52148366 0.5048952 1.0094624 0.015979957 -0.6094275 0.17081068
-0.90847397 0.34633002 -0.788743 0.67023486 2.1199386 0.32883188 -0.28812733 -0.041154187
-0.45009306 -0.71166867 -0.03427684 -0.91979355 -0.7839969 0.03879312 -1.4849848 -1.5256115
-2.5904138 -0.8709304 0.16365139 0.056070846 -0.3025657 0.9831801 0.41997492 0.65264213
-0.25950813 -1.1986779 -0.36069477 0.23910218 -1.2070163 0.108684994 -1.442272 2.5682447
-0.034576215 -1.5025545 -1.0632917 -0.27773115 1.7578541 0.70914865 0.391235 -2.1059532
-1.190023 -0.034176607 0.5845786 -1.4225719 -0.28983364 -0.28231105 0.17741175 0.35090983
-0.31110436 -1.9199691 -1.0311067 -0.2024742 -1.15011 -1.1431205 0.057301126 0.1538418
0.4304248 0.5030991 -0.6413999 -0.78349257 0.9568137 -0.8415272 -0.48669535 1.0464094
-0.15373567 1.0872691 0.016335858 -0.44203767 -0.43105954 1.2945571 1.3149157 2.3308854
-0.91150004 -0.091649376 0.5699708 -0.141567 2.00033 0.29180673 0.50972146 -1.7639314
1.7912503 0.9429511 0.7139688 1.9047972 1.5978671 1.0763812 0.15991364 1.264438
1.1298156 0.14712164 -0.7314407 -0.655742 0.195658 -2.0623572 0.037266817 0.7119093
1.0446464 0.5056512 -0.91200364 -0.5711438 -1.6480876 1.0507221 -1.0585755 0.24525149
-1.4036863 -2.8737273 -0.05642774 0.52081174 0.32576308 -0.88776094 -0.65298665 0.100339204
-0.3069517 -0.3812498 0.09165414 -0.51169485 -1.827924 -0.5956995 -0.3250167 -1.8548077
1.2082345 -0.43935928 0.651337 -1.4902432 -0.72660905 1.06929 0.31880608 0.88258827
1.3653355 -0.6983237 -0.92021185 -0.59276927 0.27589384 -2.4065223 0.41241717 1.4335938
-0.28028986 0.35689855 -0.8446992 0.8179717 -0.42433465 -1.2345594 -1.6203847 -0.07579018
0.28591228 -0.5850575 -1.7744045 -0.8264863 0.6390998 0.88876057 0.48749152 -0.66216767
-0.41977456 -0.2446162 0.50532305 0.0071660182 -0.24190745 -0.23246685 0.33257672 -1.3632699
-1.0961716 -0.75027597
00000000: 194d 89bf 1252 f3bf de8d a1bf 22c7 4bbf
00000010: d5a5 0840 251b 6ebf 164d 03bf 6e6e e53e
00000020: cea0 a23f 1b4c 0abf 2bc8 00bf 139b c53f
00000030: 5f77 3b3d ac3f 7e3f d7db aebf 1558 48be
00000040: 3d3a 553e 610d c53f 1e06 4ebe 2b17 273e
00000050: 0f5c 87bd 9e0d bbbe e153 aabf 1d87 f3be
00000060: 0cf7 6dbe 07c0 e1be b1b4 4cbd a654 eabd
00000070: 4173 243f 3c44 833f e287 083f 8b8a 20be
00000080: 6874 a7bb 8e1b e4be 9181 8a3f 0814 513e
00000090: 3192 2640 93d2 f23a ce57 bdbf 435f 423f
000000a0: d735 17bf c835 9c3d 1092 8fbf 69dd b3bf
000000b0: 3ba4 c0bf 98d8 4cbf a799 27be 005e a2be
000000c0: 2a47 0fbc d360 45bf 05e1 2c40 4e66 fbbf
000000d0: 0755 cbbe 2ce4 bfbe a82a 51bf 7d86 d03e
000000e0: 2399 36bf a888 22c0 7e0f afbf 943f f93f
000000f0: 259c 313f 4783 29bf 7642 70bf e081 ba3f
00000100: 7278 69bf 5630 dc3e f47f 05bf d040 013f
00000110: 1036 813f 66e8 823c 7103 1cbf ffe8 2e3e
00000120: c091 68bf 2b52 b13e 10eb 49bf 8394 2b3f
00000130: 13ad 0740 a75c a83e 6d85 93be 4b91 28bd
00000140: 9972 e6be eb2f 36bf df65 0cbd 9777 6bbf
00000150: 05b4 48bf 89e5 1e3d fb13 bebf 3d47 c3bf
00000160: 57c9 25c0 4bf5 5ebf 3b94 273e 8baa 653d
00000170: e4e9 9abe b1b1 7b3f f406 d73e 8e13 273f
00000180: 40de 84be 476e 99bf fcac b8be 34d7 743e
00000190: 837f 9abf 3d96 de3d 5e9c b8bf 1f5e 2440
000001a0: ca9f 0dbd b553 c0bf f119 88bf c732 8ebe
000001b0: 5d01 e13f c48a 353f f44f c83e f0c7 06c0
000001c0: ac52 98bf c5fc 0bbd f1a6 153f d616 b6bf
000001d0: 1365 94be 138b 90be 6dab 353e 74aa b33e
000001e0: 1249 9fbe 8cc1 f5bf 4efb 83bf 6655 4fbe
000001f0: ce36 93bf c651 92bf 96b4 6a3d b488 1d3e
00000200: a460 dc3e 1acb 003f c932 24bf f892 48bf
00000210: bef1 743f 546e 57bf 2230 f9be bef0 853f
00000220: e26c 1dbe a22b 8b3f c7d2 853c c352 e2be
00000230: d6b3 dcbe 0cb4 a53f 284f a83f 3a2d 1540
00000240: 1158 69bf abb2 bbbd 9be9 113f f1f6 10be
00000250: 6805 0040 b167 953e 1b7d 023f 81c8 e1bf
00000260: b147 e53f 3e65 713f a9c6 363f 65d0 f33f
00000270: e986 cc3f dcc6 893f 67c0 233e 1bd9 a13f
00000280: cc9d 903f 0ea7 163e b33f 3bbf b5de 27bf
00000290: 925a 483e a9fd 03c0 17a5 183d b03f 363f
000002a0: f9b6 853f 5b72 013f 1279 69bf 7b36 12bf
000002b0: 89f4 d2bf 107e 863f 677f 87bf 3523 7b3e
000002c0: feab b3bf 26eb 37c0 c620 67bd eb53 053f
000002d0: 6bca a63e 4d44 63bf 222a 27bf a47e cd3d
000002e0: c628 9dbe 2c33 c3be 2ab5 bb3d 6ffe 02bf
000002f0: 6af9 e9bf c37f 18bf 9768 a6be 576a edbf
00000300: 6ea7 9a3f b3f3 e0be 06be 263f 4ac0 bebf
00000310: 0d03 3abf 7fde 883f 8d3a a33e 4ef1 613f
00000320: 50c3 ae3f 58c5 32bf 0193 6bbf babf 17bf
00000330: f541 8d3e 7604 1ac0 5828 d33e 0080 b73f
00000340: 2782 8fbe 68bb b63e 353e 58bf 9866 513f
00000350: 6442 d9be 0b06 9ebf c468 cfbf e237 9bbd
00000360: 1863 923e 54c6 15bf b01f e3bf 9b94 53bf
00000370: 0b9c 233f d085 633f 7d98 f93e d283 29bf
00000380: b1ec d6be ab7c 7abe da5c 013f ebd0 ea3b
00000390: 96b6 77be ca0b 6ebe 7f47 aa3e a17f aebf
000003a0: 5a4f 8cbf 1612 40bf

weight f4 [128, 76]
-0.061057895 0.052992962 -0.007626935 0.1051521 -0.12241994 -0.05845839 -0.07625232 -0.055425785
0.032746147 0.063401625 -0.082614474 0.06178218 0.08772295 -0.088967055 0.01758724 -0.055103257
0.04631734 -0.039878745 -0.03399524 -0.065885395 -0.108132936 0.09721206 -0.008889971 0.008038254
-0.04930674 0.06184591 -0.06633875 -0.02222404 -0.10506465 -0.0865314 0.097416386 -0.08402283
-0.011395838 -0.02706046 0.044607457 0.04648785 -0.09015036 0.09558502 -0.10523353 -0.009600585
0.020254849 -0.01806109 0.07745205 0.090394646 0.018233126 -0.051069546 0.07313316 0.058281537
0.026164774 -0.042995546 0.021230444 0.12958476 0.011178865 -0.028226601 -0.1288725 -0.056728657
0.090996414 -0.019376343 -0.005231506 0.044639964 -0.06629661 0.00049395906 -0.043599397 0.052171327
0.09729175 0.08055036 0.07058063 -0.09400821 -0.03197042 0.019306812 -0.098465405 0.029120024
-0.07657337 0.051313274 0.08630069 -0.10815672 0.13747604 0.04464114 -0.050357673 0.116906
-0.09311176 -0.07938981 -0.0336551 0.0180201 0.027931215 -0.057835426 -0.08326029 -0.017296849
0.095402114 0.1310469 0.057839084 0.021435792 0.02147211 -0.08579337 0.0466604 -0.11416349
-0.0625986 -0.029406399 0.08521493 -0.0013331918 -0.05092619 0.028424557 -0.10240189 -0.057541665
0.02671071 -0.000665158 -0.025719678 0.047855657 -0.089459926 -0.05190308 0.116473414 0.034523822
-0.03913649 0.052220624 0.08356811 -0.03169401 -0.034787476 -0.032707483 0.03614738 -0.030650584
0.053072315 -0.08223573 -0.039817013 0.09304844 -0.0034038299 0.028420249 0.028314237 -0.0052430793
-0.03550278 0.03368003 -0.049269598 -0.045099594 0.009953352 0.03584988 -0.014113655 -0.060176227
0.010131784 -0.039894205 0.06479342 -0.078289 0.092438355 0.05785342 -0.108213395 0.113581546
-0.121915825 0.005313082 -0.06976428 -0.10395002 0.004541212 -0.058885638 0.09701156 -0.08808785
0.10430444 0.05234654 0.10190291 -0.0007090597 -0.0369731 -0.045043245 0.10493833 -0.052181613
-0.013455114 -0.015809348 0.032297436 -0.07367131 0.074170835 -0.087444894 0.11153044 -0.06158062
-0.07176115 -0.0008707966 0.027817637 -0.027177352 -0.11048189 0.10984584 0.13927604 0.077830516
0.13692035 0.024234444 -2.2783074e-06 -0.070197865 -0.094394214 -0.079243846 -0.046818063 0.05274524
-0.031866223 -0.019080149 0.006440614 -0.069592714 0.0036167689 0.10409542 0.0935743 0.11215819
-0.037946332 0.00768011 0.042664684 -0.06274451 -0.025566766 0.08917946 -0.0074221063 -0.07794031
0.09527426 0.01861734 0.062112417 -0.06871806 0.0446979 0.06499453 -0.03824179 -0.06809266
0.058051858 0.07938783 0.017738603 0.007417845 -0.03227708 0.031358797 -0.0129138855 -0.049367975
0.03909354 0.04393693 0.016949452 -0.00491164 -0.0007810596 -0.0248758 0.038607996 -0.102213085
-0.10774475 0.047865234 -0.07321113 -0.012964576 0.07850496 0.0017552748 0.11456138 0.045943264
0.058487676 0.02311555 -0.013940339 0.012322679 0.05286248 -0.099075854 -0.03695428 -0.09092475
-0.060798828 0.10531248 -0.12825747 -0.10191485 0.020280175 -0.06422002 0.06915607 0.02003218
0.013971268 0.083568506 -0.11408016 0.111252606 0.06817779 -0.07818506 -0.018406164 0.0006206147
00000000: d817 7abd 260f 593d 5eeb f9bb fc59 d73d
00000010: 4eb7 fabd 1172 6fbd 2d2a 9cbd 2606 63bd
00000020: d320 063d b6d8 813d c731 a9bd 500f 7d3d
00000030: 17a8 b33d 5c34 b6bd 1e13 903c f4b3 61bd
00000040: 40b7 3d3d e557 23bd 983e 0bbd ecee 86bd
00000050: cd74 ddbd 1e17 c73d 3ea7 11bc e2b2 033c
00000060: ddf5 49bd 2352 7d3d 9cdc 87bd 310f b6bc
00000070: 232c d7bd 6037 b1bd 3e82 c73d 2914 acbd
00000080: 9cb5 3abc e6ad ddbc 4fb6 363d 0b6a 3e3d
00000090: c0a0 b8bd 14c2 c33d ad84 d7bd c64b 1dbc
000000a0: 7fed a53c daf4 93bc 2e9f 9e3d d420 b93d
000000b0: a35d 953c 4d2e 51bd d7c6 953d 9fb8 6e3d
000000c0: 8257 d63c 191c 30bd 78eb ad3c deb1 043e
000000d0: 8f27 373c 793b e7bc 27f7 03be 4f5c 68bd
000000e0: 545c ba3d 23bb 9ebc 0e6d abbb 65d8 363d
000000f0: 84c6 87bd 087d 013a 4895 32bd 9ab1 553d
00000100: e640 c73d 96f7 a43d 948c 903d 6087 c0bd
00000110: 6af3 02bd 5229 9e3c 3ba8 c9bd 1e8d ee3c
00000120: 80d2 9cbd de2d 523d 6bbe b03d 4581 ddbd
00000130: 85c6 0c3e a1d9 363d d943 4ebd 6a6c ef3d
00000140: 61b1 bebd 2097 a2bd eed9 09bd e49e 933c
00000150: 01d0 e43c d7e4 6cbd 5f84 aabd 1fb2 8dbc
00000160: 2f62 c33d 2931 063e ade8 6c3d 1d9a af3c
00000170: 47e6 af3c 6fb4 afbd fa1e 3f3d 8cce e9bd
00000180: b233 80bd b0e5 f0bc 2a85 ae3d 7ebe aeba
00000190: fb97 50bd 9eda e83c 15b8 d1bd cfb0 6bbd
000001a0: 6bd0 da3c ff5d 2eba 13b2 d2bc 4b04 443d
000001b0: c436 b7bd 5398 54bd 9d89 ee3d da68 0d3d
000001c0: 964d 20bd 4be5 553d c225 ab3d 94d1 01bd
000001d0: 507d 0ebd 48f8 05bd 460f 143d ef16 fbbc
000001e0: 5b62 593d 356b a8bd 2a17 23bd 2e90 be3d
000001f0: ca12 5fbb 95d1 e83c 42f3 e73c 23ce abbb
00000200: 5d6b 11bd 12f4 093d ebce 49bd 5aba 38bd
00000210: 6213 233c 53d7 123d f63c 67bc 597b 76bd
00000220: c8ff 253c 1b68 23bd 6ab2 843d fc55 a0bd
00000230: 5250 bd3d b5f7 6c3d fc9e ddbd 719d e83d
00000240: 01af f9bd 5d19 ae3b 93e0 8ebd c0e3 d4bd
00000250: 73ce 943b 1132 71bd ffad c63d 6767 b4bd
00000260: 919d d53d 5369 563d 79b2 d03d 31e0 39ba
00000270: 1b71 17bd 447f 38bd e8e9 d63d 63bc 55bd
00000280: d772 5cbc 9b82 81bc 514a 043d fce0 96bd
00000290: e1e6 973d 4f16 b3bd 126a e43d f63b 7cbd
000002a0: 83f7 92bd 2c46 64ba d0e1 e33c 0aa3 debc
000002b0: 5444 e2bd dbf6 e03d 619e 0e3e 9b65 9f3d
000002c0: d934 0c3e 5087 c63c 06e5 18b6 e6c3 8fbd
000002d0: c151 c1bd 994a a2bd 4cc4 3fbd 650b 583d
000002e0: 2886 02bd f94d 9cbc c90b d33b a086 8ebd
000002f0: 5007 6d3b fb2f d53d e2a3 bf3d 31b3 e53d
00000300: 9d6d 1bbd 6fa9 fb3b 2ac1 2e3d 3280 80bd
00000310: 6571 d1bc b9a3 b63d 2435 f3bb 2b9f 9fbd
00000320: 271f c33d 6483 983c 9769 7e3d 0ebc 8cbd
00000330: 2515 373d da1b 853d 6ca3 1cbd 2a74 8bbd
00000340: c9c7 6d3d 1696 a23d 8c50 913c 6511 f33b
00000350: f934 04bd 1572 003d c394 53bc 1336 4abd
00000360: 8c20 203d 36f7 333d 94d9 8a3c d3f1 a0bb
00000370: 06c0 4cba 55c8 cbbc 6b23 1e3d 1855 d1bd
00000380: 48a9 dcbd 560e 443d b8ef 95bd 5f69 54bc
00000390: 35c7 a03d 4011 e63a 289f ea3d 012f 3c3d
000003a0: c690 6f3d d25c bd3c 0566 64bc 10e5 493c
000003b0: 5486 583d 48e8 cabd 5f5d 17bd c136 babd
000003c0: 3108 79bd 12ae d73d ed55 03be bcb8 d0bd
000003d0: 9c22 a63c c985 83bd b3a1 8d3d 871a a43c
000003e0: bfe7 643c f725 ab3d dca2 e9bd 68d8 e33d
000003f0: cca0 8b3d 7d1f a0bd 86c8 96bc bfb0 223a

bias f4 [128]
0.08414329 -0.04617912 0.073679626 0.097255595 0.06428653 0.102659285 0.004511561 -0.09839973
0.096399985 0.008137482 -0.05116306 -0.012256668 -0.06966453 0.045516927 -0.107056595 0.04862486
-0.107928 -0.0606682 0.06810711 -0.009306567 0.08529912 0.08427578 -0.0352182 -0.002087275
-0.07728537 -0.040935192 0.04086741 -0.033876672 0.09305575 0.060513057 0.07852512 0.09039024
0.014162085 2.5477004e-05 -0.026562884 0.10848118 0.079621896 -0.09468942 0.037204824 -0.0328469
0.09929114 -0.064279616 -0.08962043 0.018202368 -0.07294837 0.09999951 0.11172797 -0.07499117
-0.01564874 -0.014313617 -0.108302526 -0.08268456 0.10784498 0.08909127 -0.048222538 0.052256286
-0.029266397 0.011068052 -0.0031408079 0.031217212 -0.055892434 0.09361542 -0.009108274 0.12213646
-0.0577984 -0.01728106 0.08252582 -0.09600023 0.0270169 0.052214812 0.00158657 -0.07482232
-0.07154843 0.05094553 -0.11657806 -0.06524977 0.08234639 -0.033684604 -0.09815443 -0.05066716
0.025434941 -0.049185425 -0.04079044 -0.062059417 0.092991576 0.099958435 -0.07858974 0.09124946
0.10980113 -0.04901142 0.04706569 -0.11218524 0.092095196 -0.06087418 -0.09730647 -0.07257979
-0.11721506 0.099136405 -0.096838355 -0.10257 0.04050694 0.067987904 -0.04705914 0.062876575
-0.02787296 -0.09112657 0.045108456 0.057644982 -0.107769765 -0.07401044 -0.010326839 -0.08463993
-0.09254069 0.01626803 0.009119401 0.0407074 -0.054885555 -0.05274215 -0.10503007 0.067359075
-0.084923714 0.028526584 0.086679146 0.031787883 0.064977385 0.0946419 0.00065899896 -0.03051414
00000000: 5153 ac3d 5126 3dbd 58e5 963d f12d c73d
00000010: a8a8 833d 083f d23d b7d5 933b cc85 c9bd
00000020: 5b6d c53d 1353 053c 5b90 51bd 31d0 48bc
00000030: 47ac 8ebd f56f 3a3d 7d40 dbbd dc2a 473d
00000040: 5b09 ddbd 387f 78bd be7b 8b3d 927a 18bc
00000050: 4eb1 ae3d c898 ac3d f640 10bd aaca 08bb
00000060: cb47 9ebd a9ab 27bd 9664 273d 44c2 0abd
00000070: 0394 be3d 8adc 773d c7d1 a03d 851e b93d
00000080: 1708 683c 73b7 d537 689a d9bc 622b de3d
00000090: ce10 a33d 87ec c1bd 1664 183d 798a 06bd
000000a0: 2759 cb3d 08a5 83bd ea8a b7bd 221d 953c
000000b0: f465 95bd 8bcc cc3d a2d1 e43d f894 99bd
000000c0: c931 80bc a983 6abc b7cd ddbd 8656 a9bd
000000d0: d4dd dc3d 7c75 b63d ff84 45bd b00a 563d
000000e0: 15c0 efbc c656 353c 03d6 4dbb 3dbb ff3c
000000f0: 77ef 64bd 71b9 bf3d df3a 15bc ae22 fa3d
00000100: 04be 6cbd 0291 8dbc 4c03 a93d c59b c4bd
00000110: 8c52 dd3c 33df 553d 75f4 cf3a 723c 99bd
00000120: fc87 92bd 43ac 503d 7ac0 eebd aca1 85bd
00000130: 39a5 a83d def8 09bd 3105 c9bd 5e88 4fbd
00000140: f05c d03c a876 49bd e013 27bd 0432 7ebd
00000150: 5e72 be3d 02b7 cc3d a8f3 a0bd ffe0 ba3d
00000160: 6adf e03d 33c0 48bd f4c7 403d 60c1 e5bd
00000170: 689c bc3d 3457 79bd 9d48 c7bd b7a4 94bd
00000180: 730e f0bd 0708 cb3d 3053 c6bd 3810 d2bd
00000190: 9bea 253d 3e3d 8b3d 16c1 40bd 6fc5 803d
000001a0: d555 e4bc 91a0 babd a5c3 383d 251d 6c3d
000001b0: 65b6 dcbd c992 97bd e731 29bc b357 adbd
000001c0: f985 bdbd 8844 853c 8a69 153c cdbc 263d
000001d0: adcf 60bd 2708 58bd 011a d7bd 8ef3 893d
000001e0: 7cec adbd 95b0 e93c d684 b13d 0334 023d
000001f0: dd12 853d 9dd3 c13d acc0 2c3a caf8 f9bc

weight f4 [128, 128]
0.0018119793 -0.06016218 -0.080454506 0.076733194 0.07590811 0.0059514376 -0.073943324 -0.06349246
0.06805183 0.004722981 -0.060452987 0.04325074 0.045822136 0.043045744 0.067324385 -0.053422328
0.056279577 -0.06937977 0.04382601 -0.076190725 -0.017799864 0.091087624 0.05057242 0.048992395
0.018647807 0.05016469 0.006442727 0.07425713 0.04054155 0.092196174 -0.019434346 0.055262875
0.06324934 0.04155979 -0.044174064 0.04460765 -0.045110025 -0.06559521 0.08437164 -0.07195238
0.07186344 -0.017898243 0.00837163 -0.082477376 -0.022693817 0.016538495 -0.07703188 0.06481225
0.01694047 0.08690386 -0.066983156 -0.06760898 -0.02272886 -0.012560778 -0.050791007 -0.0455413
-0.0793669 0.07178848 0.03568066 -0.064028494 -0.078249894 0.07911316 0.054342322 0.0039645713
-0.029294835 0.02515888 0.03592746 -0.025571682 0.027311778 0.07646918 0.067181095 -0.045179423
-0.001904324 -0.0170719 0.043531917 -0.04130534 -0.012772621 0.0681905 0.065751396 0.022219911
0.08289027 -0.05680153 0.08428487 -0.10097075 0.03668485 0.021709556 0.075094454 0.04289209
0.08589273 0.08295501 -0.06484568 0.08258526 -0.0330087 0.039600294 -0.08023707 -0.0981218
0.06922355 -0.08448385 0.027217884 0.08019549 0.041444086 -0.03727006 0.012253151 0.031757746
-0.07672437 -0.002166239 -0.07636445 -0.06600438 -0.032397874 -0.06707345 0.07895799 0.0030888638
0.005418888 -0.002602626 0.061772723 0.07654797 -0.004888701 0.07549639 0.0052820304 0.048375014
-0.06184724 0.07684317 -0.043049473 -0.051713187 -0.069320716 0.041238535 0.070869096 0.07267102
0.051694904 -0.043201327 -0.043428168 -0.014187281 -0.03963133 0.081569746 0.032341197 0.007935865
-0.056336716 0.040402494 -0.029499913 -0.016286546 -0.0186438 0.085049264 0.054438327 -0.045506172
0.016498096 -0.024731921 -0.0069889384 0.05142591 0.017214471 -0.00872814 0.09787187 0.026427576
0.044479955 -0.037868373 0.08394986 0.054919492 -0.03641626 -0.08147597 -0.020869441 -0.07947467
0.024970941 0.06533662 -0.07091473 -0.07506943 0.058897406 -0.06094259 0.008385348 -0.022842651
0.05804376 0.06624558 0.066052504 -0.06751912 -0.04434379 0.088592045 0.08772285 -0.024166185
-0.06872876 0.06768947 -0.021062536 0.078176886 -0.028152129 0.07828954 0.044569317 -0.00087250175
-0.01749481 0.10439196 0.047029838 -0.05864465 0.0807988 -0.050668348 0.021142012 -0.007954562
-0.072504185 0.07658491 0.070716836 0.04678797 -0.006611122 -0.032271523 -0.01391533 0.06958018
0.1019256 0.081849575 -0.015753105 0.045297954 -0.02627437 0.04011769 0.006972094 -0.058873992
0.065148704 -0.055257063 -0.004502793 -0.03197969 -0.029408602 0.101626135 0.06094454 0.099755436
-0.08244351 0.09187863 -0.0631192 -0.0038571912 0.077574074 0.004817719 0.03894656 0.026662733
-0.066774264 -0.031248083 -0.018954014 -0.006416134 0.020014657 -0.066253625 0.06302265 0.037776824
0.04283413 0.019203344 -0.06971808 0.009466675 -0.08735529 0.04966497 0.07496228 0.018637942
0.031102031 0.051224593 -0.018492008 0.0013274485 0.006890389 0.07216358 0.053771183 0.08889972
-0.045691017 -0.06195099 -0.041765895 0.09537743 -0.029359952 0.05989015 0.006679074 -0.08188358
00000000: f07f ed3a 9e6c 76bd 55c5 a4bd 4b26 9d3d
00000010: b675 9b3d 4704 c33b 996f 97bd 5608 82bd
00000020: c25e 8b3d 3cc3 9a3b 8d9d 77bd b027 313d
00000030: feaf 3b3d bc50 303d 5ee1 893d 5fd1 5abd
00000040: 6a85 663d fb16 8ebd e782 333d e209 9cbd
00000050: 05d1 91bc 268c ba3d 0725 4f3d 40ac 483d
00000060: 49c3 983c 7d79 4d3d 831d d33b 1f14 983d
00000070: e50e 263d 59d1 bc3d c734 9fbc 535b 623d
00000080: df88 813d 993a 2a3d ddef 34bd 83b6 363d
00000090: 4ac5 38bd c856 86bd 0acb ac3d c55b 93bd
000000a0: 242d 933d 569f 92bc 2929 093c e6e9 a8bd
000000b0: 62e8 b9bc bd7b 873c e4c2 9dbd 49bc 843d
000000c0: bec6 8a3c a7fa b13d 772e 89bd 9476 8abd
000000d0: e031 babc b9cb 4dbc 3b0a 50bd 8489 3abd
000000e0: 1d8b a2bd d705 933d e225 123d 5f21 83bd
000000f0: 7b41 a0bd 1506 a23d 0e96 5e3d 3ce9 813b
00000100: b9fb efbc ff19 ce3c ac28 133d b47b d1bc
00000110: f3bc df3c e09b 9c3d 3e96 893d 0f0e 39bd
00000120: 839a f9ba 5fda 8bbc 864e 323d ca2f 29bd
00000130: 4144 51bc 76a7 8b3d aba8 863d 8806 b63c
00000140: 60c2 a93d b9a8 68bd 8c9d ac3d c1c9 cebd
00000150: da42 163d 3dd8 b13c 1fcb 993d 9eaf 2f3d
00000160: 87e8 af3d 51e4 a93d d0cd 84bd 7622 a93d
00000170: 2134 07bd eb33 223d 5553 a4bd 15f4 c8bd
00000180: 14c5 8d3d de05 adbd 0af8 de3c 883d a43d
00000190: 46c1 293d 7ea8 18bd 71c1 483c 6914 023d
000001a0: ab21 9dbd 76f7 0dbb f764 9cbd 4e2d 87bd
000001b0: a2b3 04bd ce5d 89bd bab4 a13d 896e 4a3b
000001c0: ed90 b13b d290 2abb 6505 7d3d 2fc5 9c3d
000001d0: 6531 a0bb da9d 9a3d e214 ad3b e124 463d
000001e0: 8853 7dbd f45f 9d3d a554 30bd 35d1 53bd
000001f0: 05f8 8dbd bde9 283d d123 913d 8bd4 943d
00000200: 09be 533d e0f3 30bd bce1 31bd c571 68bc
00000210: 7654 22bd 0a0e a73d 3478 043d 6e05 023c
00000220: 54c1 66bd 167d 253d cda9 f1bc 5d6b 85bc
00000230: e2ba 98bc 4f2e ae3d b9fa 5e3d ae64 3abd
00000240: 0427 873c 999a cabc 7703 e5bb faa3 523d
00000250: 5d05 8d3c 7900 0fbc 0c71 c83d a57e d83c
00000260: 9d30 363d de1b 1bbd e7ed ab3d 43f3 603d
00000270: 3729 15bd e0dc a6bd 64f6 aabc 9ec3 a2bd
00000280: dc8f cc3c 35cf 853d be3b 91bd 00be 99bd
00000290: 683e 713d f09e 79bd b362 093c 8320 bbbc
000002a0: 4bbf 6d3d c3ab 873d 8946 873d 7747 8abd
000002b0: d5a1 35bd bf6f b53d 0aa8 b33d 2af8 c5bc
000002c0: aac1 8cbd c7a0 8a3d 578b acbc 341b a03d
000002d0: 4b9f e6bc 4456 a03d 518e 363d 9ab8 64ba
000002e0: 4751 8fbc 74cb d53d 5ca2 403d 5f35 70bd
000002f0: d779 a53d 9d89 4fbd 0332 ad3c da53 02bc
00000300: 137d 94bd 8dd8 9c3d fdd3 903d bea4 3f3d
00000310: 1ca2 d8bb 252f 04bd 20fd 63bc 0e80 8e3d
00000320: 5ebe d03d c0a0 a73d a80c 81bc 598a 393d
00000330: 593d d7bc 7252 243d 2a76 e43b db25 71bd
00000340: af6c 853d 3b55 62bd 2a8c 93bb 23fd 02bd
00000350: 4fea f0bc 5d21 d03d fba0 793d 944c cc3d
00000360: 25d8 a8bd dd2a bc3d a444 81bd eec8 7cbb
00000370: 28df 9e3d f5dd 9d3b 6e86 1f3d ce6b da3c
00000380: f2c0 88bd fbfb ffbc 7345 9bbc 6f3e d2bb
00000390: c7f5 a33c fbaf 87bd 0512 813d dfbb 1a3d
000003a0: d772 2f3d 5550 9d3c 5ac8 8ebd 1d1a 1b3c
000003b0: 55e7 b2bd 7f6d 4b3d d385 993d 99ae 983c
000003c0: b0c9 fe3c e1d0 513d 8d7c 97bc c8fd ad3a
000003d0: c6c8 e13b 80ca 933d 2c3f 5c3d 0e11 b63d
000003e0: 8126 3bbd 52c0 7dbd b712 2bbd 3e55 c33d
000003f0: 4884 f0bc 604f 753d 22dc da3b 94b2 a7bd

bias f4 [128]
-0.00703752 -0.08030237 0.0162069 -0.074705064 -0.071881615 -0.034261003 0.06580352 0.058821965
0.0021988547 -0.04190061 -0.0037454378 -0.0016138104 0.07123554 0.034800526 0.05085437 -0.043262847
-0.035860613 0.039969046 0.079702936 -0.031416003 -0.044814948 0.089415304 -0.06030365 -0.052671045
-0.022654157 0.04751022 -0.028600732 -0.06372924 -0.0034294783 -0.022384746 -0.06133769 0.037813567
-0.0067113047 0.081822425 -0.08091888 -0.022355627 0.08389009 0.05882925 -0.065678656 -0.04210926
0.05537844 -0.02250895 -0.06730541 0.06626899 0.0838979 -0.043758903 0.07462245 -0.08195497
0.017360916 0.056954034 0.04995251 0.025389701 0.03093336 0.00286362 0.08067005 0.07978792
-0.07732972 -0.084715754 0.0011772417 -0.037630297 -0.0018432925 -0.0649506 0.023145352 0.006108322
0.0066454927 0.09149749 0.08490461 0.07767266 0.013292553 -0.055623118 0.028961033 -0.057764683
-0.070922345 0.08408955 -0.041051526 -0.07837457 -0.053444367 0.056267258 0.057240594 -0.052170426
-0.074938044 0.06855514 0.0021508732 0.07163122 -0.067813836 -0.012780119 0.0037466947 0.035425927
-0.0030505892 0.07825185 0.036179405 0.016477562 0.034175444 -0.009301506 0.04673905 -0.023381034
0.038789313 0.008052027 0.038731776 0.07337315 0.011349629 -0.01902727 0.056370888 -0.055035684
-0.029540068 -0.06313091 0.016016178 -0.018305734 0.012940243 0.0061040483 -0.011789712 -0.056211937
0.08996155 -0.0028851132 -0.055845063 0.079076186 -0.025364945 -0.029253708 0.0022521815 0.027881185
0.049272373 -0.060597703 0.05392175 0.07373315 0.010873948 0.069059536 0.013722935 0.038682908
00000000: ff9a e6bb 9275 a4bd 55c4 843c f8fe 98bd
00000010: ab36 93bd 4455 0cbd ffc3 863d 4def 703d
00000020: a91a 103b f99f 2bbd 0576 75bb 7e86 d3ba
00000030: f0e3 913d ff8a 0e3d ac4c 503d 6234 31bd
00000040: 94e2 12bd 95b6 233d 4b3b a33d 11ae 00bd
00000050: e18f 37bd 5f1f b73d f600 77bd 98bd 57bd
00000060: 3695 b9bc 149a 423d 154c eabc 7a84 82bd
00000070: 19c1 60bb 3760 b7bc 3b3d 7bbd 66e2 1a3d
00000080: 81ea dbbb 8492 a73d ccb8 a5bd 2623 b7bc
00000090: 91ce ab3d f1f6 703d 8882 86bd c27a 2cbd
000000a0: 81d4 623d b164 b8bc 6bd7 89bd 09b8 873d
000000b0: aad2 ab3d 893c 33bd a8d3 983d 02d8 a7bd
000000c0: 7b38 8e3c a248 693d 019b 4c3d 10fe cf3c
000000d0: f567 fd3c 92ab 3b3b 5736 a53d d967 a33d
000000e0: 0b5f 9ebd 747f adbd ad4d 9a3a 3a22 1abd
000000f0: a29a f1ba d204 85bd 529b bd3c 5228 c83b
00000100: 6fc2 d93b 0963 bb3d 78e2 ad3d d812 9f3d
00000110: 02c9 593c 11d5 63bd b03f ed3c a99a 6cbd
00000120: bc3f 91bd 2437 ac3d a525 28bd d982 a0bd
00000130: 7be8 5abd 7f78 663d 1d75 6a3d a8b0 55bd
00000140: 1e79 99bd a366 8c3d aaf5 0c3b 64b3 923d
00000150: fbe1 8abd b463 51bc 1b8b 753b c71a 113d
00000160: 65ec 47bb 8242 a03d db30 143d f4fb 863c
00000170: 8dfb 0b3d 5865 18bc 7271 3f3d 9589 bfbc
00000180: 8be1 1e3d a6ec 033c 36a5 1e3d a944 963d
00000190: cbf3 393c 14df 9bbc 29e5 663d 196d 61bd
000001a0: 03fe f1bc c74a 81bd 5c34 833c e8f5 95bc
000001b0: 5003 543c 7804 c83b a329 41bc 7d3e 66bd
000001c0: c33d b83d 2b14 3dbb cbbd 64bd b2f2 a13d
000001d0: 25ca cfbc 79a5 efbc 5699 133b 1567 e43c
000001e0: d4d1 493d 4c35 78bd 0edd 5c3d 6801 973d
000001f0: a528 323c 166f 8d3d 29d6 603c f871 1e3d

weight f4 [128, 128]
0.017950162 -0.05312649 0.011099376 0.015704926 -0.03369804 -0.018382525 -0.08673694 -0.028918784
-0.04425313 0.04242541 -0.050479468 0.055987213 0.05958088 0.039959893 0.043089367 0.07068125
0.003338185 -0.040869735 -0.022759723 0.012588295 -0.03117439 0.07041326 -0.02724712 0.00826551
0.06636684 0.043382715 -0.06374589 0.07561109 -0.008087475 -0.012485856 -0.051424146 -0.009817754
-0.016647236 -0.0055976203 0.07487901 -0.049154516 -0.065867126 -0.005506 -0.07335898 0.028449317
0.10255644 -0.05547609 -0.050553 0.06022958 0.08168586 -0.009382072 -0.033195455 0.07299913
-0.04125802 0.08500214 0.02751705 0.08720079 0.0046195774 -0.020306233 0.003155262 -0.050527293
-0.062052142 0.081091344 0.07913696 -0.006421567 -0.003343851 0.055992186 0.047890253 -0.011696026
0.08260575 -0.033879254 -0.0058106114 0.07243644 -0.054249547 0.03584185 0.05299901 0.029174995
-0.072961316 0.036911078 -0.087379746 -0.0044195 0.0048151747 -0.022867732 0.007804129 0.039011918
-0.009733064 -0.050724655 -0.065649815 0.06536829 -0.04125282 -0.02070807 0.03078359 -0.062270932
-0.07862473 0.05203665 0.036443826 0.057922173 -0.08446623 0.007795273 -0.072881155 0.08004508
0.040556073 0.06955916 -0.051224697 0.02997281 0.0054467083 0.002364201 0.039674424 0.0058392133
0.0843892 0.09408435 0.104931846 -0.029037561 0.06859124 0.0030481203 0.043742046 -0.0855579
-0.05381341 0.0639742 -0.029078452 -0.0148808025 0.031116538 -0.08386668 0.010116563 -0.07162483
0.017198982 0.030934842 0.042140633 0.051392805 0.054616634 0.053563137 -0.042819194 -0.07936772
0.10342807 0.018460881 0.047929775 -0.00827158 -0.003505493 -0.010111956 -0.040087536 -0.049622394
0.058679737 0.04252719 0.06429351 0.10233051 0.080997564 -0.054940857 0.019705204 -0.03139183
-0.029277628 0.010099479 -0.066691205 -0.07136321 -0.058252983 0.07246179 0.044514097 -0.073978476
-0.033783246 -0.054092262 -0.03188351 0.01965508 0.08514395 0.069818325 0.0063241604 0.024797685
0.06087991 0.10164962 0.10959959 0.0060784426 0.018364688 0.027729413 -0.07057599 0.01807558
0.024688402 0.060683277 0.102971874 0.061487373 -0.041406468 -0.07027828 0.020464152 0.03435006
0.05990417 -0.018085308 -0.0008002381 0.017798958 0.021031188 0.019901913 0.06546002 0.00047363373
0.036392607 -0.069131725 -0.02005393 0.012771782 0.086234964 0.07451214 0.07254115 0.056103773
-0.028676823 -0.004818584 -0.022676053 -0.0004134336 0.043523915 0.074004896 0.045283627 -0.013209543
-0.040229645 -0.05205094 0.05455037 -0.023015672 -0.061524134 0.028294848 0.07548212 -0.055925034
0.0071626273 0.017792607 0.06018862 0.0787732 0.019246522 0.018151348 -0.011267215 -0.00088839134
-0.025994541 0.034478802 0.053206883 -0.034306876 -0.061482623 -0.027457625 0.015044523 0.05203284
-0.06320799 0.030319383 -0.053655867 -0.030825522 -0.04595401 0.015205474 0.10373828 0.0136335315
-0.05720886 0.09705274 0.050945636 -0.04431893 -0.008732783 0.11191641 0.029150479 0.07910315
0.03821911 0.0461799 0.080832 -0.027241874 0.09769952 -0.0010382688 -0.057329413 0.023708597
0.099295296 0.0845776 -0.029112274 -0.0049621025 0.029148392 -0.042159274 0.05316211 0.0075224754
00000000: 380c 933c 2a9b 59bd 28da 353c 9ea7 803c
00000010: f506 0abd f396 96bc 23a3 b1bd 16e7 ecbc
00000020: c542 35bd 44c6 2d3d 8fc3 4ebd d952 653d
00000030: 150b 743d fcac 233d 7a7e 303d 55c1 903d
00000040: 73c5 5a3b 0667 27bd 9972 babc 233f 4e3c
00000050: 6f61 ffbc d434 903d 5a35 dfbc 106c 073c
00000060: 56eb 873d 13b2 313d 358d 82bd fdd9 9a3d
00000070: 5481 04bc 7a91 4cbc 20a2 52bd a5da 20bc
00000080: c95f 88bc 3e6c b7bb 2b5a 993d 3f56 49bd
00000090: 58e5 86bd ad6b b4bb 3c3d 96bd 8b0e e93c
000000a0: 1c09 d23d e63a 63bd aa10 4fbd 4bb3 763d
000000b0: eb4a a73d 43b7 19bc f5f7 07bd 9180 953d
000000c0: 2bfe 28bd 9a15 ae3d 706b e13c 5496 b23d
000000d0: d35f 973b 4259 a6bc 83c8 4e3b b5f5 4ebd
000000e0: 632a 7ebd 3813 a63d 8f12 a23d 026c d2bb
000000f0: 8324 5bbb 1058 653d 9228 443d b0a0 3fbc
00000100: 342d a93d f9c4 0abd f166 bebb 8e59 943d
00000110: c634 5ebd e7ce 123d 7d15 593d 6600 ef3c
00000120: be6c 95bd 1230 173d 27f4 b2bd 74d1 90bb
00000130: 9dc8 9d3b 1c55 bbbc c7b9 ff3b f6ca 1f3d
00000140: 6e77 1fbc a8c4 4fbd 6973 86bd cfdf 853d
00000150: b8f8 28bd f8a3 a9bc de2d fc3c ce0f 7fbd
00000160: 0106 a1bd 6224 553d 1f46 153d cd3f 6d3d
00000170: a1fc acbd 7d6f ff3b b742 95bd adee a33d
00000180: 201e 263d 0875 8e3d fdd0 51bd 8a89 f53c
00000190: 4d7a b23b b6f0 1a3b a681 223d df56 bf3b
000001a0: 3fd4 ac3d 4caf c03d 82e6 d63d 2ee0 edbc
000001b0: 9079 8c3d f9c2 473b dc2a 333d fb38 afbd
000001c0: 736b 5cbd e804 833d ef35 eebc 9cce 73bc
000001d0: 1ce8 fe3c 4bc2 abbd f1bf 253c 0ab0 92bd
000001e0: e1e4 8c3c 116b fd3c a89b 2c3d 4381 523d
000001f0: b1b5 5f3d 0565 5b3d 2e63 2fbd 8b8b a2bd
00000200: 19d2 d33d 463b 973c 0352 443d 8585 07bc
00000210: 6abc 65bb 9eac 25bc d432 24bd da40 4bbd
00000220: 2a5a 703d fe30 2e3d 51ac 833d a992 d13d
00000230: 0de2 a53d aa09 61bd cf6c a13c b894 00bd
00000240: a3d7 efbc 4978 253c 6695 88bd e026 92bd
00000250: ae9a 6ebd d966 943d 6a54 363d 0782 97bd
00000260: 4d60 0abd d98f 5dbd 4998 02bd b103 a13c
00000270: f45f ae3d e9fc 8e3d e73a cf3b 8424 cb3c
00000280: 365d 793d ad2d d03d c075 e03d ac2d c73b
00000290: 8b71 963c cb28 e33c 258a 90bd 3d13 943c
000002a0: 553f ca3c 078f 783d ebe2 d23d 2fda 7b3d
000002b0: d499 29bd 0fee 8fbd 70a4 a73c a6b2 0c3d
000002c0: 135e 753d a427 94bc 12c7 51ba 1fcf 913c
000002d0: 9949 ac3c 5609 a33c e70f 863d 0b52 f839
000002e0: 6a10 153d ef94 8dbd 2448 a4bc bd40 513c
000002f0: f59b b03d d299 983d 7490 943d 12cd 653d
00000300: a8eb eabc 36e5 9dbb 21c3 b9bc 1ec2 d8b9
00000310: 2246 323d e18f 973d 537b 393d d76c 58bc
00000320: d7c7 24bd 5e33 55bd 3570 5f3d 5d8b bcbc
00000330: bb00 7cbd 99ca e73c 5f96 9a3d a611 65bd
00000340: 79b4 ea3b cdc1 913c 5888 763d d853 a13d
00000350: e2aa 9d3c 23b2 943c 209a 38bc efe2 68ba
00000360: 81f2 d4bc a539 0d3d 76ef 593d 5e85 0cbd
00000370: 34d5 7bbd d0ee e0bc 4e7d 763c 6320 553d
00000380: 3173 81bd 5b60 f83c 41c6 5bbd ce85 fcbc
00000390: 463a 3cbd 6120 793c bc74 d43d 2d5f 5f3c
000003a0: d653 6abd 96c3 c63d 5fac 503d c487 35bd
000003b0: f213 0fbc 6e34 e53d fccc ee3c d500 a23d
000003c0: a48b 1c3d 2327 3d3d 3f8b a53d 5a2a dfbc
000003d0: b016 c83d 8516 88ba 3fd2 6abd 8838 c23c
000003e0: 555b cb3d 0537 ad3d dd7c eebc 2299 a2bb
000003f0: 9cc8 ee3c 34af 2cbd 83c0 593d 197f f63b

bias f4 [128]
-0.06531307 -0.033241257 -0.016892603 -0.036273587 0.074364856 0.04077971 -0.003730614 -0.048429113
-0.040484093 0.024166254 -0.045268595 0.0027029149 -0.07265326 0.035890136 -0.0025627024 -0.058547337
-0.012673324 0.049696214 0.08777471 0.07709874 -0.03729662 -0.023452155 -0.0743723 -0.04513594
0.062474728 -0.038156964 -0.014635123 0.08264253 0.042259093 -0.027136851 -0.010515049 0.04060007
-0.047311537 0.025417058 0.033940036 -0.041199837 0.05700143 -0.024874458 -0.0670172 0.06313097
0.031150011 -0.03227313 -0.048362035 -0.03305297 0.061230518 -0.07658506 0.036484323 -0.038759604
0.087596856 0.0062464527 -0.00043463777 0.027535882 0.03847881 -0.017663684 0.0058162655 -0.01595465
0.06328158 0.09613864 -0.046158016 -0.059227373 0.07125504 0.04953792 -0.0065980884 0.01766345
-0.06730265 -0.026316503 0.0047329883 0.008770918 0.054786116 -0.002317947 -0.02031776 0.048374042
-0.055894416 -0.063855164 0.0011580555 -0.06980246 -0.0058037764 0.027157778 -0.032298397 0.091695525
-0.014473328 -0.07540752 -0.013780803 0.026734857 0.067412935 0.027635528 -0.067519344 0.043192863
0.0041898307 -0.023711888 -0.04179452 -0.057378434 -0.039552502 0.055151235 0.002532658 0.07864074
0.027757378 -0.059363242 -0.062428728 0.020212196 -0.05280006 -0.04849422 0.027633835 -0.060271744
-0.0012201323 0.08642141 -0.04037492 -0.020606933 0.052661184 0.03150042 -0.0664729 0.069831125
-0.01058808 -0.012729437 -0.025519088 0.07733262 0.06880112 -0.06242767 0.009232849 -0.048397534
0.033116616 0.0038355754 -0.023454372 -0.05158544 -0.035714485 -0.067360215 0.033547774 -0.00092878425
00000000: dcc2 85bd fc27 08bd 5b62 8abc 9d93 14bd
00000010: 9a4c 983d a008 273d 517d 74bb 9b5d 46bd
00000020: a6d2 25bd 4ff8 c53c 906b 39bd 6323 313b
00000030: 3bcb 94bd 8901 133d 03f3 27bb 55cf 6fbd
00000040: c6a3 4fbc 428e 4b3d 3ac3 b33d f2e5 9d3d
00000050: 57c4 18bd bc1e c0bc 8150 98bd 77e0 38bd
00000060: 80e5 7f3d 7a4a 1cbd 28c8 6fbc 7d40 a93d
00000070: df17 2d3d 1a4e debc 5047 2cbc 424c 263d
00000080: bec9 41bd 6f37 d03c b504 0b3d 29c1 28bd
00000090: 557a 693d 85c5 cbbc 5040 89bd cf4a 813d
000000a0: 4f2e ff3c d430 04bd 4517 46bd 8d62 07bd
000000b0: dacc 7a3d a1d8 9cbd 9670 153d 64c2 1ebd
000000c0: fb65 b33d 0baf cc3b 18e0 e3b9 ee92 e13c
000000d0: f59b 1d3d 6eb3 90bc 5f96 be3b 53b3 82bc
000000e0: c699 813d 56e4 c43d 3010 3dbd 6798 72bd
000000f0: 2aee 913d 46e8 4a3d c734 d8bb f1b2 903c
00000100: f9d5 89bd b595 d7bc 2f17 9b3b e5b3 0f3c
00000110: 6867 603d b3e8 17bb 6e71 a6bc dc23 463d
00000120: 8bf1 64bd 7fc6 82bd e5c9 973a 98f4 8ebd
00000130: 9b2d bebb fd79 de3c 534b 04bd ddca bb3d
00000140: 8a21 6dbc 426f 9abd e1c8 61bc 0f03 db3c
00000150: cb0f 8a3d e763 e23c 9547 8abd 00eb 303d
00000160: d94a 893b 6f3f c2bc bb30 2bbd a605 6bbd
00000170: ce01 22bd 43e6 613d f3fa 253b 650e a13d
00000180: 7163 e33c df26 73bd 44b5 7fbd 0c94 a53c
00000190: e044 58bd e0a1 46bd 5a60 e23c 81df 76bd
000001a0: d9ec 9fba b5fd b03d 2c60 25bd dfcf a8bc
000001b0: 41b3 573d 9606 013d f222 88bd 9f03 8f3d
000001c0: a079 2dbc 218f 50bc 680d d1bc 9160 9e3d
000001d0: 9ae7 8c3d 28b4 7fbd 6045 173c 7e3c 46bd
000001e0: 4aa5 073d 475e 7b3b 6223 c0bc 414b 53bd
000001f0: 5a49 12bd 27f4 89bd 6469 093d a879 73ba

weight f4 [128, 128]
0.029859057 -0.030990751 0.006859174 -0.08312768 -0.009271777 0.0714268 0.11321995 -0.061801367
0.041232836 0.04334246 -0.027408099 0.041215625 0.04456693 -0.01818343 -0.06962597 -0.06304647
0.069881044 0.09332707 -0.010540574 -0.07399403 0.022902226 0.033973563 -0.057235397 0.042234596
-0.034113653 -0.07950017 0.036136203 0.033324726 -0.058110017 -0.0263772 -0.012134358 0.032621637
-0.09125928 0.012757146 0.06128063 -0.05412238 -0.027816046 0.052503236 0.09690607 0.111770876
0.019868584 -0.035271607 0.0075760926 -0.014164884 -0.089663655 -0.025245463 -0.0744696 -0.013335276
-0.063817315 -0.0246354 -0.0101983035 0.0568647 0.037095852 -0.0370348 -0.090198636 0.031800184
-0.041851886 -0.07407968 0.07341602 -0.0513742 -0.07886854 0.083904795 -0.038360346 -0.06868618
-0.029345239 -0.035999555 0.01800729 -0.0676046 -0.012065109 0.03321186 0.0003292497 -0.05843666
-0.04089434 -0.07208107 -0.06226495 0.07927087 0.054213013 0.03925061 -0.04649597 0.07610601
-0.0525544 0.047672264 0.050465032 0.06410444 -0.060865548 -0.080067396 0.017335841 -0.06449895
-0.008298062 -0.026492592 -0.080920056 0.017224792 0.06472789 0.05012508 -0.04396839 0.066648014
-0.033559848 0.029900469 0.029563632 -0.011346934 -0.0442515 0.065210335 -0.04345741 -0.059463553
-0.027354484 -0.058125027 0.08858354 0.10508628 0.030540062 0.018781751 -0.0752399 0.026492989
0.03543344 -0.037276674 -0.04827051 -0.0075738127 0.078795925 0.082907565 0.013653892 -0.006646253
-0.005635841 0.013165458 -0.024573298 0.036117624 -0.09596978 0.0023004813 0.013167156 0.074654534
0.031548843 -0.0041861557 0.03253854 -0.034093983 -0.09219607 0.085228324 0.06816258 0.097471714
-0.06995219 0.024030726 0.05083017 0.07280105 0.0351694 -0.012293605 -0.03829665 0.056217648
0.015258559 0.06977215 -0.010586106 6.540962e-05 0.029616544 0.056462806 0.08928019 0.042994224
0.09742034 -0.0574598 0.010903899 -0.051154044 0.017653424 0.002503911 0.0078010056 0.04568612
0.061309095 0.008446975 -0.03815104 0.026355073 0.03598396 0.046989556 -0.012371673 -0.038993753
-0.054515064 -0.046947345 0.04002019 -0.05941944 0.021032928 0.004601526 -0.0067560216 -0.0011456223
-0.004869169 -0.026493344 -0.011415623 -0.08350858 0.0536707 -0.010757034 -0.025935913 -0.023918414
-0.085401684 -0.00899652 -0.009539502 -0.047786046 0.051886942 -0.021077473 0.020731121 -0.027637582
-0.041725192 -0.030667461 -0.0031709825 0.027039817 -0.011611416 0.00048931787 0.058986805 0.01909403
0.028538225 -0.028887657 0.027023518 0.041294012 -0.07896431 0.023655862 0.08365223 0.0421154
0.0020033245 -0.0073990487 0.001911641 -0.07253259 0.0995896 -0.04875188 -0.008767063 -0.0037209888
0.014700761 0.096528925 0.07761209 0.046582606 0.008183382 0.023174597 -0.054474197 0.06623542
-0.024702663 -0.039835893 0.020946378 0.028730145 -0.05760006 0.0066854963 0.07831835 0.0034584687
-0.0116160065 -0.027602043 -0.037663575 -0.021120565 -0.07388531 0.03835737 -0.06603473 0.10388972
0.06615591 -0.018966353 -0.057253115 -0.044897083 -0.05582909 0.050216507 -0.04698407 -0.016207818
-0.06904466 -0.0347257 -0.007929195 0.09590358 0.002728905 -0.0077788252 0.00071458693 -0.023238126
00000000: fb9a f43c 51e0 fdbc ecc2 e03b d83e aabd
00000010: a7e8 17bc 3748 923d dcdf e73d 6e23 7dbd
00000020: c3e3 283d dd87 313d f386 e0bc b7d1 283d
00000030: d08b 363d 6bf5 94bc 1098 8ebd 821e 81bd
00000040: cb1d 8f3d 4322 bf3d 5fb2 2cbc 2f8a 97bd
00000050: 739d bb3c dd27 0b3d aa6f 6abd 2ffe 2c3d
00000060: c2ba 0bbd fcd0 a2bd 8e03 143d 827f 083d
00000070: c504 6ebd ff14 d8bc 30cf 46bc 449e 053d
00000080: 25e6 babd 5903 513c 6601 7b3d 6eaf 5dbd
00000090: 7ade e3bc a20d 573d b176 c63d 21e8 e43d
000000a0: 71c3 a23c f678 10bd df40 f83b d413 68bc
000000b0: 94a1 b7bd 93cf cebc 8583 98bd 347c 5abc
000000c0: a7b2 82bd 2ed0 c9bc c916 27bc f6ea 683d
000000d0: d2f1 173d cdb1 17bd 10ba b8bd e940 023d
000000e0: e26c 2bbd 16b7 97bd 235b 963d c16d 52bd
000000f0: d485 a1bd 47d6 ab3d bd1f 1dbd 57ab 8cbd
00000100: 6d65 f0bc 4574 13bd 0684 933c 4874 8abd
00000110: bcac 45bc 2909 083d 269f ac39 475b 6fbd
00000120: d380 27bd 3d9f 93bd 8809 7fbd c458 a23d
00000130: 770e 5e3d 3fc5 203d 8f72 3ebd 78dd 9b3d
00000140: 4843 57bd fe43 433d 6cb4 4e3d 3049 833d
00000150: 274e 79bd 60fa a3bd e503 8e3c 0718 84bd
00000160: 98f4 07bc fe06 d9bc 6ab9 a5bd 021b 8d3c
00000170: 0e90 843d f54f 4d3d 3318 34bd c17e 883d
00000180: 0d76 09bd d4f1 f43c 6e2f f23c 7ee8 39bc
00000190: 1041 35bd ff8c 853d 6600 32bd 0e90 73bd
000001a0: 8316 e0bc 8214 6ebd 496b b53d 7a37 d73d
000001b0: 272f fa3c 30dc 993c 6017 9abd d307 d93c
000001c0: a822 113d 6daf 18bd 4cb7 45bd bf2d f8bb
000001d0: c25f a13d 71cb a93d 93b4 5f3c d0c8 d9bb
000001e0: dcac b8bb efb3 573c f14d c9bc 13f0 133d
000001f0: ce8b c4bd acc3 163b 0ebb 573c 7ae4 983d
00000200: 5c39 013d 052c 89bb 2247 053d 22a6 0bbd
00000210: 4bd1 bcbd 308c ae3d d398 8b3d 409f c73d
00000220: 1843 8fbd 16dc c43c 4c33 503d b818 953d
00000230: ca0d 103d 1e6b 49bc f3dc 1cbd 7a44 663d
00000240: 09ff 793c b3e4 8e3d 5971 2dbc 862c 8938
00000250: 659e f23c 8b45 673d 88d8 b63d b61a 303d
00000260: 5184 c73d f85a 6bbd 44a6 323c e786 51bd
00000270: ea9d 903c a818 243b 949f ff3b 5e21 3b3d
00000280: 3f1f 7b3d 2e65 0a3c 4444 1cbd 98e6 d73c
00000290: eb63 133d 1f78 403d 8fb2 4abc eab7 1fbd
000002a0: 304b 5fbd dc4b 40bd 36ec 233d cc61 73bd
000002b0: 3f4d ac3c 66c8 963b 9e61 ddbb b528 96ba
000002c0: 8d8d 9fbb 9208 d9bc 9808 3bbc 8c06 abbd
000002d0: cfd5 5b3d 453e 30bc 8d77 d4bc 8df0 c3bc
000002e0: 14e7 aebd 2466 13bc 924b 1cbc 4dbb 43bd
000002f0: 6787 543d aaaa acbc 50d4 a93c 3668 e2bc
00000300: 09e8 2abd 543a fbbc 42d0 4fbb 9b82 dd3c
00000310: cf3d 3ebc 9145 003a 269c 713d 156b 9c3c
00000320: ffc8 e93c cfa5 ecbc 6d60 dd3c e923 293d
00000330: 0ab8 a1bd f0c9 c13c dc51 ab3d 3381 2c3d
00000340: 354a 033b b873 f2bb 0790 fa3a f78b 94bd
00000350: a2f5 cb3d 0db0 47bd baa3 0fbc d5db 73bb
00000360: 76db 703c f5b0 c53d 16f3 9e3d 67cd 3e3d
00000370: 9813 063c a7d8 bd3c 5620 5fbd 70a6 873d
00000380: 3d5d cabc f62a 23bd bd97 ab3c 7b5b eb3c
00000390: 0aee 6bbd 0212 db3b 5f65 a03d 7aa7 623b
000003a0: 1051 3ebc ae1d e2bc 1f45 1abd 0905 adbc
000003b0: 2e51 97bd 9e1c 1d3d 373d 87bd 22c4 d43d
000003c0: c07c 873d 535f 9bbc 3e82 6abd 01e6 37bd
000003d0: 0bad 64bd d3af 4d3d 5e72 40bd 42c6 84bc
000003e0: 4967 8dbd 893c 0ebd 74e9 01bc 1969 c43d
000003f0: 6ed7 323b 84e5 febb 1e53 3b3a e25d bebc
