models/agModels-predicttop10_votes/models/NeuralNetTorch_BAG_L1/S19F7/net.params (torch, 248949 bytes, 16 tensors)

weight f4 [6, 4]
000000 21 79 94 bf d2 f0 96 bf ba 62 99 be ea ed ea be
       -1.1599466 -1.1792243 -0.29958135 -0.4588464
000010 9b 93 5c 3f 7c 7a 19 3f 86 26 b1 be f7 79 11 c0
       0.8616273 0.5995252 -0.34599704 -2.2730691
000020 18 f2 e1 3e d6 2d 3c be 07 c1 d1 3f a7 dc aa 3e
       0.44130015 -0.1837686 1.6387032 0.3337147
000030 75 00 16 3e 64 56 67 3f db d4 2b be eb ff 60 bd
       0.14648612 0.90366197 -0.16780417 -0.054931562
000040 50 ac 80 3f eb 20 a9 3f a9 2c fe 3f ad 28 55 3d
       1.0052586 1.3213171 1.9857379 0.052040745
000050 f6 ce 44 3e 8e c7 67 bd b3 bb c1 be ad 9a e5 bf
       0.19219574 -0.056586795 -0.37838516 -1.7937828

weight f4 [6, 4]
000000 4d 3f 6a be 07 ea 3e bf 86 68 05 3f 3e 42 49 3e
       -0.2287571 -0.7457585 0.52112615 0.19654176
000010 7a 3d 84 bd 51 8b 3c bf 15 44 87 3f 0e d7 ea 3e
       -0.06457038 -0.7365008 1.0567652 0.458672
000020 84 e8 0a bf 97 64 6e 3f a4 77 98 3f 39 9a af 3f
       -0.5426104 0.9312224 1.1911511 1.371894
000030 ae 74 bf bf 4e f6 24 40 e5 55 09 bf 50 4b a5 3e
       -1.4957483 2.5775332 -0.5364669 0.3228402
000040 0a 49 df bf ac 08 0b bf 37 40 11 bf ed b1 00 bf
       -1.7444165 -0.5431011 -0.5673861 -0.50271493
000050 01 64 15 bf 83 d6 20 3f 0b 76 b3 b7 83 e6 b1 3e
       -0.5835572 0.6282732 -2.139343e-05 0.3474618

weight f4 [6, 4]
000000 90 15 a5 bd ce 97 35 3f 74 cb 65 bf 96 9c 66 bd
       -0.08060753 0.7093476 -0.8976357 -0.056301676
000010 f1 6d 65 3f 56 b7 b0 be a7 f2 90 3f 59 cc d4 3e
       0.8962088 -0.34514874 1.1324052 0.41562155
000020 cd ab 54 3d 6e 11 94 3f 41 4e a2 3e 6c 24 09 3f
       0.051921654 1.1567819 0.31700328 0.535712
000030 4d 3c 50 bf 9d 0e a9 bf 66 6f 46 bf 9d 07 ad bf
       -0.8134201 -1.3207585 -0.7751373 -1.3517948
000040 0f 81 4e 3e 73 18 b7 be e2 3e 02 bf 49 eb 59 3e
       0.2016642 -0.3576084 -0.508772 0.2128116
000050 5d f5 ad 3e d4 6b db b9 e7 c7 16 bd ee cd 37 bf
       0.3397626 -0.00041851273 -0.036811735 -0.717986

weight f4 [6, 4]
000000 84 0d 2a bf 85 57 87 3f 5a cf 18 bf a8 d5 af bf
       -0.66426873 1.0573584 -0.59691393 -1.3737078
000010 1b c3 f0 3c 19 35 43 bf 1d 0f 34 3f f3 82 4b bf
       0.029389909 -0.76252896 0.7033556 -0.7949669
000020 9b c3 8c be 7d a8 e2 3d cb e9 64 3e 37 1c a5 3f
       -0.27492985 0.11067293 0.2235481 1.2899235
000030 26 fa a4 3e 45 39 e2 3e ae a4 73 be 5a f3 c3 bd
       0.32222098 0.44184318 -0.23793289 -0.095679
000040 ca af 2e 3e 3d 84 5a bf d8 1f f6 bf e5 0f 19 3e
       0.17059246 -0.8535803 -1.9228468 0.1494747
000050 83 c3 85 be e0 d0 8e 3c 60 69 a9 38 70 d3 31 3d
       -0.26125726 0.017433584 8.0781756e-05 0.043414533

weight f4 [6, 4]
000000 aa d3 65 3f 59 9a 7d bf 42 c1 7f 3e 0d 0a 33 bd
       0.897761 -0.9906364 0.24976066 -0.043710757
000010 b2 82 83 3f 43 90 f6 be f0 bd 4c 3f ae e1 2a 3f
       1.027426 -0.48156938 0.7997732 0.6675061
000020 f5 2b 81 3f 11 00 cb bf 14 6d 18 3f 89 6c 13 3e
       1.009154 -1.5859395 0.5954144 0.14396872
000030 c0 d8 b6 3d b4 89 4b bf 97 00 1d 3f 2b 4f f8 bf
       0.089280605 -0.79506993 0.61329025 -1.939916
000040 91 31 aa 3f 15 12 6d bd 1c b3 3d 3f d5 25 81 3f
       1.3296376 -0.057878572 0.74101424 1.008967
000050 95 c5 6b 3d a9 80 80 bf e3 51 c2 3f 11 1c 17 37
       0.057561476 -1.0039264 1.518124 9.006836e-06

weight f4 [26, 9]
000000 c8 7f 1d bf a1 3d d0 bf 4c 1e 10 bf 2e df 0c bf
       -0.61523104 -1.6268808 -0.5629623 -0.55028045
000010 e3 4b 11 bf 97 df c4 bf 14 02 48 bf 21 2b 08 c0
       -0.5675642 -1.5380734 -0.7812817 -2.1276324
000020 86 ed 86 bf f8 92 31 bf 50 9b 12 bc f8 5e a4 3e
       -1.0541236 -0.6936488 -0.008948162 0.32103705
000030 8f f6 9a be 5f 3f a5 3f 59 7f 64 3d b2 59 5f bf
       -0.30266234 1.2909964 0.05578551 -0.8724624
000040 94 9f f1 3e 9b cf ed 3c a0 cc b3 3f fa 16 94 be
       0.4719206 0.029029658 1.4046822 -0.2892378
000050 d6 57 12 bf a9 b4 3d c0 a6 b5 c3 bf 95 92 8d 3f
       -0.57165277 -2.9641516 -1.528981 1.1060358
000060 ad cc 53 3e 4e eb 20 bf 21 8e dd 3f 7f 2c ba 3e
       0.20683546 -0.62859046 1.7308999 0.36362073
000070 68 25 88 3f 98 c4 a9 3f 4c eb 21 be eb f2 07 bf
       1.0636415 1.3263121 -0.15812415 -0.5310504
000080 b2 26 29 bf 72 4a ec 3f bf f6 75 bf 5c 91 34 bf
       -0.6607467 1.8460219 -0.9607963 -0.705343
000090 75 53 98 3c 2d b0 11 3f c3 c6 0a 3f 45 26 a4 3f
       0.018594483 0.5690945 0.54209536 1.2824179
0000a0 dd 1b 8d bf fa 5f e9 bf 6a eb c8 3f 6b 7c 72 bb
       -1.1024128 -1.8232415 1.5696843 -0.0037000428
0000b0 36 e0 d4 bf 2c f1 b1 3d b6 21 1f bf c2 96 3d 3f
       -1.6630924 0.08688578 -0.62160814 0.74058163
0000c0 c9 2b 8d 3f 17 68 67 bd cd 80 23 3d 8e 80 29 3f
       1.1028987 -0.056495752 0.039917756 0.66211784
0000d0 65 fc 02 3f e0 1b 27 3e 75 50 1c 3e 14 53 06 3f
       0.51166373 0.16319227 0.15265067 0.5247052
0000e0 a3 d0 06 3e ae 88 72 bf fe a9 19 3f 67 5a 88 3f
       0.13165526 -0.94739807 0.6002501 1.0652589
0000f0 07 ad 06 40 0b 74 4c bf 56 fc 1a bf c8 c6 24 bf
       2.1043108 -0.7986457 -0.60541284 -0.64365816
000100 dd 24 c8 3f e4 e0 41 bf 4a c7 1b 3e 69 96 b2 3f
       1.563625 -0.7573378 0.15212741 1.3952152
000110 2b 20 01 40 e4 93 36 3f ad 26 49 bf a9 85 dd be
       2.0175884 0.71319413 -0.7857464 -0.43266037
000120 50 4b 71 3e 47 af 15 bf b5 34 6a 3f 3c b8 ed 3e
       0.23563886 -0.58470577 0.91486675 0.46429622
000130 b7 46 5c bf 40 5a a7 3f 91 4a 90 3e 1a f9 18 bf
       -0.860454 1.3074417 0.2818189 -0.597551
000140 78 cc 6e bf a8 e9 29 bf db fa 54 3e a3 6a 8a bf
       -0.93280745 -0.66372156 0.20798819 -1.0813793
000150 0b b5 47 bf 06 4c 0a c0 de 01 3d bf c6 9b 14 3f
       -0.78010625 -2.16089 -0.73830974 0.5805019
000160 13 08 42 3f b8 d7 2b 3c c0 06 e0 3e ac 83 e7 bf
       0.7579357 0.010488443 0.4375515 -1.8087058
000170 5f ca 96 bf 0f 48 d4 3d f3 36 27 3f 29 bb a9 3f
       -1.1780509 0.103653066 0.6531822 1.3260242
000180 f7 31 c0 bf 8c e5 a0 3e 18 98 b3 bf c7 45 3c be
       -1.5015248 0.3142513 -1.403079 -0.18385993
000190 05 2b 90 be 56 ae 98 bf 07 c6 2d 3f ba 64 a5 bf
       -0.2815782 -1.1928203 0.6788029 -1.2921364
0001a0 29 dc 94 bf 0d e8 a7 3e df 9f 47 bf 3e c3 5f bf
       -1.1629688 0.32794228 -0.7797832 -0.8740729
0001b0 16 62 52 bf 7a cd 11 3f d8 69 a2 3e ca d7 1a 3f
       -0.8218092 0.5695416 0.31721377 0.6048552
0001c0 2e e6 b3 bf 1e d7 5b bf ec 81 a3 3f 0d e2 ed bf
       -1.405462 -0.8587512 1.2774024 -1.858461
0001d0 7f fc b3 3e b2 01 8f 3f 05 7d b9 3e 78 2d 91 bf
       0.35153577 1.1172392 0.36228195 -1.1342001
0001e0 8b 1b ba be ae c8 86 be 26 bd 77 3f da d7 e6 be
       -0.3634914 -0.2632498 0.9677299 -0.45086557
0001f0 e0 7e 34 bf 41 82 db be fa 69 b2 bf 32 69 13 bf
       -0.70506096 -0.42872813 -1.3938591 -0.5758239
000200 85 58 9f 3f 9c e8 5d 3f b2 98 9d 3e e4 ac a2 3e
       1.2448889 0.8668306 0.3078056 0.3177253
000210 fb 99 36 c0 4d 3f 46 bf fd 02 fa 3e 7f 85 a0 3e
       -2.8531482 -0.7744034 0.48830405 0.3135185
000220 28 1c 98 bf f1 81 20 bd ad 39 30 be 64 ed 88 be
       -1.1883593 -0.03918642 -0.17209502 -0.26743615
000230 24 10 1c 40 15 8d d2 3f 96 dc 94 be 59 63 cc bf
       2.4384851 1.6449305 -0.29074544 -1.5967818
000240 c3 71 10 bf bd 87 4d bf d4 e4 b6 bf b9 fd c5 be
       -0.56423587 -0.80285245 -1.4288583 -0.38670138
000250 bd bb 83 be 13 9d 1b bd 94 b1 02 3f fe 22 c6 bf
       -0.2572917 -0.037991595 0.5105221 -1.5479429
000260 bd 42 b1 3e b5 14 10 c0 8b 77 57 bf 7c 04 d3 bf
       0.3462123 -2.2512639 -0.84166783 -1.6485744
000270 96 b6 09 3f dc 9c bc bf b9 1c 47 3f fb d3 b4 bf
       0.5379423 -1.473537 0.777782 -1.4127191
000280 cf 63 c6 3e 66 09 a8 bd cd 19 59 3e c7 8a 9b 3f
       0.38748023 -0.082049176 0.21201248 1.2151726
000290 78 25 a0 3f 4d 02 dd bd a2 a6 09 40 bb e8 8b 3d
       1.2511435 -0.107914545 2.1507955 0.06831499
0002a0 34 6d fa 3e 1f 7c 97 3d 6d b2 ce 3e ab 4c e6 bf
       0.4891144 0.07396721 0.40370503 -1.7992147
0002b0 e8 c5 9f 3f b1 39 29 40 e4 47 75 3e 60 e0 96 3e
       1.2482271 2.6441462 0.23953205 0.2946806
0002c0 62 45 90 bf e0 65 0f 40 89 da 14 3e 43 e0 5d 3f
       -1.1271174 2.240593 0.1453649 0.8667032
0002d0 7c a7 91 bf bc ed 87 bd 76 06 bb bf 90 84 dc bf
       -1.1379237 -0.06637141 -1.4611347 -1.7227955
0002e0 10 5d f2 bf d1 8e d9 b9 f7 0e fd bf 2f 82 fd bf
       -1.893465 -0.00041495872 -1.9770192 -1.9805354
0002f0 86 db 07 40 d3 6f 71 bf c2 a0 2e bf 3c 8f dd 3f
       2.1227736 -0.94311255 -0.68214047 1.7309337
000300 b3 55 e3 3e 6d b5 4e bf 00 84 c1 bc d8 64 da 3f
       0.4440132 -0.80745584 -0.023622513 1.7062025
000310 12 9c 27 bf 3c bc 54 3f 17 1d 55 3f b2 e2 b0 3f
       -0.6547252 0.8309972 0.8324751 1.3819182
000320 73 66 fd be a4 72 1a bd bf 7c c0 3e f1 53 c8 be
       -0.49492225 -0.037706986 0.37595174 -0.39126542
000330 ca fb 02 c0 dd 7e 48 3f 23 10 66 bd 5d 67 c2 bf
       -2.046618 0.7831858 -0.056167733 -1.5187794
000340 2c 75 0d bf a2 1b c7 bf 8d b7 50 bf 15 1b 8c 3f
       -0.55256915 -1.5555308 -0.81530076 1.0945765
000350 7a 94 17 c0 18 64 01 3f eb 55 12 bf 56 f4 32 be
       -2.3684373 0.50543356 -0.5716235 -0.1747602
000360 ff 82 1f 3f 4b 2d 89 3f db 75 1d bf 59 af a1 3e
       0.6230926 1.0716947 -0.6150796 0.31579092
000370 14 30 b5 3f c8 78 f1 3e db de f2 be b5 83 fd bd
       1.4155297 0.4716246 -0.4743565 -0.12378637
000380 17 a3 4f be 96 c4 d8 38 29 07 05 3d fb fd 9a be
       -0.20277058 0.000103362996 0.03247753 -0.30271897
000390 0f df 24 3b 0d 79 a8 bb a9 4e 89 3f 9b c9 80 bb
       0.0025157367 -0.0051413835 1.072713 -0.0039302832
0003a0 55 d7 2b 9c 01 e8 4f 29
       -5.6857464e-22 4.6164465e-14

weight f4 [128, 76]
000000 c7 f2 37 3e 51 90 0f 3e a1 f2 2e 3e c8 5d f9 3d
       0.17963706 0.14019896 0.17084743 0.121760905
000010 7f cd df bc 5b 7e f0 3d 4b 5e 40 3d 97 31 ac 3d
       -0.027319668 0.117428504 0.046964925 0.08407896
000020 d5 d0 d9 bd 7a 64 28 3c 16 81 22 be e3 55 2a bc
       -0.10635535 0.010277862 -0.15869555 -0.010396454
000030 f5 e3 85 bc 1c bd 32 be 4b f6 9f 3d 87 6d 53 3d
       -0.01634405 -0.17454952 0.078106485 0.051618125
000040 11 cb ac bc 98 4e 84 bd 40 d3 a4 bd 61 84 ea bc
       -0.021092923 -0.06460303 -0.08048105 -0.028627576
000050 dd 8a 58 3d 97 fe f3 3d 8d ee 88 3d ba 28 24 bc
       0.052866805 0.119137935 0.06686125 -0.010019476
000060 e0 a9 31 3d c2 38 de bd 78 74 c2 bd eb 8f 68 3d
       0.043374896 -0.108506694 -0.09494871 0.056777876
000070 ac ee 6b bd 3d 6d 82 3d 7a 5a 97 bd 17 6d 28 bd
       -0.057600662 0.06368492 -0.07390304 -0.04111966
000080 71 40 b9 bd 65 40 75 3d 28 37 b5 bb ee 2a b0 3d
       -0.09045494 0.059875865 -0.005530257 0.08601938
000090 26 8c 8c 3d ff a4 94 3d a6 83 4b 3c 67 e9 55 bd
       0.06862669 0.07258033 0.012421524 -0.052224543
0000a0 f0 9b e5 bc db 6c 6f 3c 18 ba 94 3d 47 92 7b bd
       -0.028028458 0.0146133555 0.07262057 -0.061418798
0000b0 ff 6a 00 3e f3 b2 63 bd 33 ef 40 be 61 dd 68 bd
       0.12540816 -0.05559058 -0.18841247 -0.05685175
0000c0 b4 13 b0 3d 36 8c 04 3e d0 f6 d0 bd db b3 91 3d
       0.08597508 0.12944111 -0.10203326 0.07114383
0000d0 2e be 51 3d 5e f5 5a 3d ea 30 b8 3d 85 8c 4e bd
       0.05120676 0.053456657 0.089937046 -0.05042698
0000e0 2d 93 59 3d 50 fc 8a 3d 84 d6 b4 bc 41 9b 45 3d
       0.053118873 0.06786406 -0.022074945 0.048243765
0000f0 5f ed 0b 3d 12 05 53 3c d0 2b 27 3d 44 6c 2a bd
       0.03416192 0.012879627 0.040813267 -0.041607156
000100 e2 cd 06 3d 9f 1b 11 3d ef 64 41 bd 47 70 70 bd
       0.03291119 0.035426732 -0.0472154 -0.058700826
000110 6d a1 a6 3d 83 36 87 bc b9 b3 4c 3d 1f 72 05 3d
       0.08136258 -0.016505485 0.049976084 0.032579537
000120 cf 7b 30 bb 4c 90 33 bd 3b d1 a5 bd 65 09 eb bd
       -0.0026929264 -0.043838784 -0.08096548 -0.11476401
000130 1d 97 17 3e fb 57 13 bd 0f 01 ac 3c d0 1c 6a bd
       0.14803739 -0.035972577 0.020996599 -0.057156384
000140 09 cc e5 3d f5 10 b2 3d 66 a5 d2 bd a1 60 da bd
       0.11220557 0.086946405 -0.102854535 -0.10662962
000150 7f 22 d1 bd 04 0e 75 bd d3 b2 2b 3b 12 c1 96 bd
       -0.10211658 -0.05982782 0.0026199117 -0.07361044
000160 9d 2c 38 bd b8 22 24 bd 9d 52 15 bd 00 85 82 3d
       -0.04496442 -0.040072173 -0.03645574 0.06373024
000170 fd aa 63 3d d0 d2 1f bd dd 46 c3 3c f7 d9 d7 3d
       0.05558299 -0.039019406 0.023837501 0.1053962
000180 8f 9e 6e bd 54 6f 77 3c 12 7a eb bc 2b 10 0a 3e
       -0.058256682 0.015102226 -0.028744731 0.1348273
000190 1a 2d bd bd 7c 55 d0 bd ee 53 06 3e 35 18 7d bd
       -0.09237118 -0.10172555 0.13117954 -0.061790664
0001a0 a1 07 39 3d 02 cf de 3b 5c 0f 30 bc d2 09 d2 bc
       0.04517329 0.0067995796 -0.010745849 -0.025639448
0001b0 db 23 a6 3d 6f 06 5d 3c ba 1e c9 bd 83 c1 3f bd
       0.08112308 0.013490303 -0.09820314 -0.046815407
0001c0 ef 91 1b bc dc 53 83 3d da ad 8b bd 8a 51 92 3d
       -0.0094952425 0.06412479 -0.06820269 0.071444586
0001d0 5d 72 29 ba 10 8c be 3b d2 f4 af 3d 91 83 7d 3d
       -0.000646388 0.0058150366 0.08591618 0.06189305
0001e0 6f 80 89 3d c2 a5 cc 3d c9 8c a1 bc fe 0f 58 bd
       0.0671395 0.09992553 -0.019720452 -0.052749626
0001f0 99 d5 3d 3c 62 51 3c 3c b4 18 bc bd ee 61 a8 bd
       0.01158657 0.011494013 -0.09184399 -0.082218036
000200 84 74 50 3d 39 60 1b 3e 00 89 c1 3b 58 5c 01 be
       0.050892368 0.15173425 0.0059062243 -0.12632883
000210 e9 65 d6 bd c6 f0 66 bc bd 3a 99 bc 56 41 91 bd
       -0.104686566 -0.014095491 -0.018704766 -0.0709254
000220 9b fc 4a 3d ab ef 7d 3c f4 79 4e 3e 43 07 34 3d
       0.04955731 0.015499036 0.20163709 0.043952238
000230 49 e5 19 3c 95 04 e1 bd e3 94 ff bd df ac b8 3d
       0.009393045 -0.10987202 -0.1247957 0.090173475
000240 7c 58 22 3d fa 77 57 3d 34 4e c5 bd ca 37 f7 3d
       0.039635167 0.052604653 -0.09634057 0.12071188
000250 a3 e2 b5 3d 41 05 b8 3d 38 44 28 bd c7 16 e9 bc
       0.08881118 0.08985377 -0.041080683 -0.028453244
000260 2d 7a a5 bd e0 e3 2e 3e f3 06 8d bd ea d9 bf bd
       -0.08079944 0.17079115 -0.06886091 -0.09367736
000270 84 f6 c8 bb 30 2f ab bd d3 9b f1 bc 46 b5 6b bd
       -0.0061329026 -0.0835861 -0.029493248 -0.057545923
000280 61 e0 70 bd 5b 69 a4 bd af 8d 5e 3d 6e c1 9a bd
       -0.058807734 -0.080279075 0.05433434 -0.07556425
000290 7d e0 cf 3c 16 3f ed 3d 25 32 e4 3d e9 6b 18 3d
       0.025375599 0.11584298 0.11142377 0.037212286
0002a0 c9 11 91 3d 14 66 81 3c 94 c3 5c bd 08 17 e0 3d
       0.070834704 0.015795745 -0.053897455 0.10941893
0002b0 a6 22 0b 3d 9a 91 cc bd 7b a9 9e bc 25 55 94 bd
       0.03396859 -0.09988709 -0.019367924 -0.072428025
0002c0 24 2d eb 3d 0f 9e 30 bc 9f b7 c3 bd fb 28 4c 3b
       0.11483219 -0.010779872 -0.09556507 0.0031152356
0002d0 11 75 b6 3d 13 5f 29 3d c8 51 4c 3d 89 df ab 3a
       0.089090474 0.041350435 0.04988268 0.0013112883
0002e0 07 99 50 3d 51 89 82 bc a2 86 18 bd 14 b9 cd bd
       0.05092719 -0.015934618 -0.03723777 -0.100450665
0002f0 ba 74 8a bd 7d de 7e 3d 21 63 68 bd 49 1e 41 3d
       -0.06760545 0.0622239 -0.05673516 0.047148023
000300 ac bf 34 3d 12 57 85 3c 90 c6 8d bd 4b 6a f6 3d
       0.044128105 0.01627687 -0.069226384 0.120319925
000310 f0 55 43 bd c9 e3 5a bc 09 5d d0 bd 21 9f f7 bc
       -0.04768938 -0.013359972 -0.10173995 -0.030227246
000320 4a ef e0 3d e1 dd d3 bd 8f b4 03 3e 89 61 83 bc
       0.10983141 -0.103450544 0.12861846 -0.01603772
000330 94 f6 ef bd 2b 47 24 3c 1b 4c 30 3d fe 3b 51 3d
       -0.11716953 0.010026733 0.04304133 0.051082604
000340 7f 6a 8f bd 1e a9 11 3c 75 53 87 bd 47 81 6b 3d
       -0.070027344 0.008890418 -0.06607715 0.057496335
000350 1b 26 24 3e 99 99 e5 bd 0e bb e1 3d 24 ea a1 3d
       0.16030161 -0.11210937 0.11022006 0.07905987
000360 25 c9 41 3b 95 ee bc 3d d1 e8 56 bd f0 6a 65 3e
       0.0029569354 0.092251934 -0.052468125 0.22404075
000370 0b b5 e7 bd f4 f6 9e bd e1 08 92 bd 84 db 58 3d
       -0.11313828 -0.07761946 -0.071306 0.05294372
000380 ff c6 0b 3e 8d a8 8b 3d bb cd c6 bc 02 4d 8f bd
       0.1365013 0.06819258 -0.024268022 -0.0699711
000390 97 8b 2f 3e 12 ca 62 3d 06 55 2c 3e 32 4d c2 bc
       0.17143093 0.05536849 0.16829309 -0.02371845
0003a0 a7 3a 45 3c 1b b0 93 bc 21 fd 67 3d a3 ca e5 3d
       0.01203791 -0.01802831 0.056637887 0.112202905
0003b0 c4 ff 6d 3c 24 34 9f bd 3c b7 12 3d 77 5f fd 3c
       0.014526311 -0.07773617 0.035819277 0.03092931
0003c0 9e bf 5a 3d 8a b9 10 bd 2b 10 df 3d 45 58 ed 3d
       0.053405397 -0.035333194 0.10891756 0.11589102
0003d0 ea c8 8f 3d 2d 30 ca bd e1 ab b6 3d 52 a1 98 bd
       0.07020743 -0.0987247 0.08919502 -0.074526444
0003e0 ea 91 04 3d 7a ab ba 3c 97 3c 37 bd 8d 8a 26 3d
       0.032365717 0.022786845 -0.044735517 0.040659476
0003f0 99 d6 c6 bd ec a1 fc 3c 97 89 89 bd 42 7f fc 38
       -0.097089 0.03083893 -0.06715696 0.0001204

bias f4 [128]
000000 96 45 97 bd 05 21 9c bd 67 21 b1 bd 27 67 5b 3d
       -0.07386319 -0.076234855 -0.08648949 0.05356517
000010 9e 25 1e 3c c6 5a b4 bb b3 a0 d6 3c e7 a4 63 3d
       0.009652523 -0.005503985 0.026199674 0.055577185
000020 36 f6 b7 3b 65 1c 72 3d 7c 92 84 bc 1b 8d f0 3c
       0.0056140674 0.05910911 -0.01618313 0.02936416
000030 60 cb 6a 3c 31 14 0a bb c2 3f aa 3d 1d 44 e8 3d
       0.014330715 -0.0021069164 0.08312942 0.113411166
000040 79 78 af 3d 24 ab f1 bc 9c 3c af bc 6f 94 d4 3d
       0.085679 -0.029500552 -0.021391205 0.10379874
000050 0c de 59 bd 13 6f dc 3b 36 4e 95 bd 28 11 ef bc
       -0.053190276 0.0067271083 -0.07290308 -0.029182985
000060 11 22 49 bd 01 a3 87 3d d6 c1 59 bd 2a be 9a bd
       -0.049104754 0.066228874 -0.053163372 -0.07555802
000070 43 51 2c 3d 02 91 47 bc 68 c7 6d 3c aa bc b2 bd
       0.042069685 -0.012180569 0.014512874 -0.08727391
000080 aa 0c 42 bd 51 ea 67 3d bf 72 7e 3d d3 32 e6 bd
       -0.04737536 0.056619946 0.06212115 -0.11240163
000090 e0 81 95 bd e3 08 33 3d 95 34 e1 bd 83 5d 91 bd
       -0.07300162 0.043709647 -0.10996357 -0.07097914
0000a0 28 0f 9c bd 35 a0 cf bd 0b f8 5b bd 90 dd a4 3d
       -0.07620078 -0.10137979 -0.05370335 0.08050072
0000b0 98 be 02 be 08 cb 9d 3d 00 0a ee bd eb 6d 2f bd
       -0.12768018 0.07704741 -0.11623001 -0.042829435
0000c0 31 1b 37 bd 92 43 74 3d 8e c0 d1 bd c6 4d 95 bd
       -0.044703666 0.059634753 -0.10241805 -0.07290225
0000d0 d3 59 e1 bd 30 13 5d bb 52 67 38 3d e8 04 c3 3d
       -0.11003461 -0.003373336 0.04502041 0.0952242
0000e0 49 81 ab 3d 80 ba fa bc 51 74 94 bd e3 85 ad 3c
       0.083742686 -0.030606508 -0.07248748 0.021182006
0000f0 92 47 6c 3d a3 21 ce 3d 97 5b b8 3d 0b 58 36 bb
       0.057685442 0.100650094 0.090018444 -0.0027823474
000100 0f d2 db bd 2f 9b 85 bd 0a 36 7b 3d 10 d7 c9 bd
       -0.10733425 -0.065237395 0.061330833 -0.09855473
000110 88 bb c2 bd ad 0b 99 bd b8 2d 0a bd 0a 0d 3a 3d
       -0.09508425 -0.0747293 -0.033735007 0.04542259
000120 c1 ac 9b 3d 34 a4 b5 3d e3 f6 73 3d 88 b4 c1 3a
       0.076013096 0.0886921 0.05956162 0.0014778534
000130 22 9a cb bc 33 b6 9e bd a3 d2 69 bd f4 8b 70 bc
       -0.02485377 -0.077495955 -0.057085644 -0.014681805
000140 cc 9a b6 3d de 02 a1 bc 98 e0 af bc 4e 26 ef ba
       0.08916244 -0.019654687 -0.0214694 -0.0018245669
000150 91 96 63 bd 76 ca 7d bd be c6 4e 3d 5e 71 c9 bd
       -0.055563513 -0.06196066 0.050482504 -0.09836076
000160 50 58 de bb e5 35 62 bc fd ae 34 3c 45 a5 55 bc
       -0.00678543 -0.013806795 0.011028049 -0.013039892
000170 a8 f9 6f bd 62 a6 02 bd c3 b9 20 bd 68 63 15 3d
       -0.0585877 -0.031896956 -0.039239656 0.036471754
000180 4b f8 86 3c 96 eb 1a bd f4 7f be 3d 96 99 5f bb
       0.016475817 -0.03782233 0.09301749 -0.0034118644
000190 1d 03 4a 3d 81 b4 06 bd e2 52 dc bd 9a b8 d9 bd
       0.049319375 -0.032886986 -0.10757996 -0.10630913
0001a0 a1 9b 33 bd a3 ae 85 3d 81 b2 4e 3d 03 03 52 3d
       -0.04384959 0.0652745 0.050463203 0.051272403
0001b0 ba 79 41 3d 60 2b 96 bd 86 be 15 bd 22 98 9f 3c
       0.047235228 -0.07332492 -0.03655865 0.019481722
0001c0 1d 83 da bd d2 a7 8d bd 11 96 95 bd 2d f2 5e 3c
       -0.10669539 -0.06916775 -0.073040135 0.013607544
0001d0 88 bd ef bc 95 fa 9f bc 4c 77 7a 3d 40 74 8e bd
       -0.02926518 -0.019528667 0.061148927 -0.06955767
0001e0 74 dc 9c bd bd 92 e2 bc c8 22 60 3d 1b c3 d5 3b
       -0.076592356 -0.02765786 0.05472067 0.0065235025
0001f0 36 2a da bd 09 c3 a3 3d c5 55 a3 bd 35 65 a1 3d
       -0.10652582 0.079961844 -0.079753436 0.07880632

weight f4 [128, 128]
000000 af 0c 8e 3c 61 4a d4 3c cb 7e 2c 3d 46 44 ac 3c
       0.017340032 0.025914373 0.042113107 0.021028649
000010 39 c8 d6 bd 38 cc ad 3c 80 74 a8 3d 0a b5 a4 bd
       -0.10487408 0.021215543 0.082253456 -0.08042343
000020 cc 33 35 3d ad df 86 3d 67 b9 48 bc 5f a9 de 3b
       0.04423885 0.065856315 -0.012251235 0.006795093
000030 e6 a1 0f bc af 6b f3 3d 4c 0e 5f 3d 09 30 ca 3d
       -0.008766627 0.118857734 0.054456994 0.09872443
000040 bd c9 9a bd cb 55 00 bd dd dc 08 3c 27 23 a3 3d
       -0.0755801 -0.03133182 0.008353439 0.07965689
000050 7e b7 79 bd d6 f1 88 3c 03 4b 24 3d 8b bf 71 bd
       -0.060966007 0.016716879 0.0401106 -0.05902056
000060 41 44 27 bc 43 55 b2 bd 7e 65 2f 38 13 06 dd 39
       -0.010209144 -0.08707669 4.1817773e-05 0.0004215693
000070 96 ab 1b 3d b5 6c 29 3c 38 0e da 3c ea ca 6f 3c
       0.038005434 0.010340859 0.026618108 0.014635781
000080 c2 73 1f 3d 99 24 1d 3d cc c2 32 3e 2e 9a 8b bd
       0.038928755 0.03836498 0.17457122 -0.06816517
000090 3e 29 a1 3d 16 23 b2 bb c2 65 91 3d f3 1a 64 bd
       0.078691944 -0.0054363115 0.07099487 -0.055689763
0000a0 8a 48 b3 3d 2d 1c a5 bd 96 5b 6f bd 5d e8 87 3c
       0.0875407 -0.08062015 -0.058436953 0.016590292
0000b0 98 a2 99 bc fe 84 02 3d 35 19 a8 bd 1d e8 98 bd
       -0.018754289 0.031865112 -0.08207933 -0.07466147
0000c0 d0 6c 44 bc cf 00 43 3d 73 3b 94 bc 83 37 74 bd
       -0.011988834 0.047608193 -0.018094754 -0.059623253
0000d0 2d cb d9 bc 77 32 2d bb e9 2b a9 3b 20 74 9f 3d
       -0.02658614 -0.0026427784 0.005162705 0.07785821
0000e0 ad b7 90 bd c0 03 b2 3c b9 ce 22 3d 3d eb 8f 3d
       -0.070662834 0.021730304 0.039747927 0.0702729
0000f0 c3 c5 7a bd aa 08 b0 bb 80 6c 0d 3e a3 86 c8 bd
       -0.061223757 -0.0053721266 0.1381092 -0.09791305
000100 b8 cc 91 3d 6f 89 f1 ba 1b dd 94 bd 34 7b d9 bb
       0.07119125 -0.0018427799 -0.07268735 -0.0066370014
000110 9f 5b 56 3c 05 f9 ae bc e0 83 ee bc a8 19 10 bd
       0.013083368 -0.021358976 -0.029115617 -0.035180718
000120 6d 1b ac 3c e2 42 9f 3d d2 d8 06 be c0 b5 26 3c
       0.021009171 0.07776429 -0.13168648 0.0101751685
000130 71 e6 16 3d b4 8e 92 3d e6 2e dc 3c e8 98 08 3d
       0.03684086 0.07156125 0.026877832 0.033348948
000140 56 2c d7 3c 41 5f a1 3d c1 30 9c bc 09 07 1c bd
       0.026266258 0.07879496 -0.019066216 -0.038092647
000150 5d 55 83 3d 02 bc fc bc 3a d8 37 3e 3a 3c 9b bd
       0.06412766 -0.030851368 0.17953578 -0.07579847
000160 aa 2e b2 3b 2d 60 aa 3d 8b 1f 33 3d f8 7f c3 3d
       0.0054376917 0.08319125 0.043731254 0.095458925
000170 fa f1 8f bd 0b dd 69 3d 33 24 8a bd 17 ef 43 bd
       -0.07028575 0.05709557 -0.06745186 -0.047835436
000180 c0 2c 98 bb c6 02 b1 3d 74 77 90 3d 04 b7 a7 bd
       -0.0046440065 0.08643107 0.07054034 -0.08189204
000190 fc da 79 bd b2 95 c2 3c 5f 13 89 3b ad 88 9d 3b
       -0.060999855 0.02375302 0.0041832174 0.004807553
0001a0 0d df 94 bc 1f 93 74 3c 34 90 27 3a da 1f 22 bd
       -0.018172765 0.0149276545 0.00063920324 -0.039581157
0001b0 76 1d aa bc 12 93 01 bc 15 fe 19 bd c5 1f ad ba
       -0.020766001 -0.007908599 -0.037595827 -0.0013208321
0001c0 e3 53 8f bc 4a be b9 3d 92 32 06 3d 63 21 32 3d
       -0.017496055 0.09069498 0.03276307 0.04348887
0001d0 ee 30 99 3d 36 2b a0 3d fc 38 13 3d c1 ac 84 bc
       0.07480036 0.07820742 0.035943016 -0.016195657
0001e0 7b 37 32 bc 19 5f ab bc 97 07 4b bc dd c4 69 bd
       -0.010877485 -0.02091937 -0.012391946 -0.05707251
0001f0 88 ca 4e 3d 9e 77 ba bd b4 24 02 bc cd dd df 3d
       0.050486118 -0.091048464 -0.007943321 0.10930977
000200 57 78 71 bd c8 62 32 bc be 2b 07 3d 93 ba 8b bc
       -0.058952656 -0.010887809 0.0330007 -0.017056739
000210 b0 c8 87 bd bd 3d 72 3d 37 02 a9 bd 87 2a b3 3d
       -0.06630075 0.05914091 -0.082523756 0.08748346
000220 62 3b 0d 3d 52 cd 46 bc d0 43 13 3c 80 4d 5f bd
       0.03448046 -0.012133913 0.008988336 -0.05451727
000230 26 14 93 3c 22 fe a7 bd 91 44 67 bc 5a de ad 3d
       0.017953943 -0.08202769 -0.014115469 0.08489676
000240 8a cf 1e 3b 29 f1 c0 3c 7a 35 5d 3d 24 64 ca 3d
       0.002423259 0.023552494 0.054006077 0.098823816
000250 74 13 e2 bb a5 b6 b3 bd 48 11 ce bd 17 e9 73 3d
       -0.0068992916 -0.08775071 -0.1006189 0.059548464
000260 0a 18 68 3d e3 9a 74 3d 6e 36 84 bd 32 23 5a 3d
       0.05666355 0.059718024 -0.06455694 0.05325622
000270 95 b0 1c bd bb a9 e9 3c 84 ba b4 3c 89 69 97 bd
       -0.03825434 0.028523317 0.022061594 -0.07393176
000280 8f 71 ad bd 7e 7a 23 3d 7c 66 c7 bd 9a 28 9a 3c
       -0.08468925 0.03991174 -0.09736344 0.018818188
000290 73 8d 98 3d 9d 8d 2e 3d 57 ed f0 bb 19 89 86 bd
       0.07448854 0.04261552 -0.007352512 -0.06569118
0002a0 b7 c1 e6 bc cf f7 e2 bc 2d 97 b1 bd 59 20 99 3c
       -0.028168542 -0.027706055 -0.086714126 0.018692182
0002b0 7d 70 4c bd 16 02 39 3d 0d b7 88 bd 2b 91 47 bc
       -0.049911965 0.045168005 -0.06675539 -0.012180607
0002c0 f4 e3 6f bd 73 c8 8f 3d be 1a bd 3d c0 1c a7 3d
       -0.058567002 0.070206545 0.09233616 0.081597805
0002d0 13 1d 85 3d 07 fa 51 bc b8 24 98 3d 9a 4d 97 bc
       0.06499686 -0.012815959 0.074288785 -0.01846962
0002e0 34 09 a2 3d 65 bd 15 3c 83 c3 6b 3d 64 3e 2c bd
       0.079119116 0.009139393 0.0575595 -0.042051688
0002f0 ea 1a 5e bc 13 19 82 bc 3b 41 b0 bc 39 bd 89 3d
       -0.0135562215 -0.015881097 -0.02151548 0.067255445
000300 ef 98 82 bd e7 87 bf bd da c8 c6 3c ca 26 a4 bd
       -0.06376826 -0.09352093 0.024265695 -0.08015211
000310 95 d3 ed 3a 26 7d 76 3d 1d d6 70 bd f1 d3 e9 bd
       0.0018144721 0.060177945 -0.058797944 -0.11417378
000320 50 0b bf bd 09 c4 5e 3c 75 71 17 3c 4d b4 53 3d
       -0.093283296 0.013596543 0.009243359 0.05168562
000330 df e2 94 3d a0 68 76 bd ba 04 5b bd af 00 d3 bd
       0.07269835 -0.060158372 -0.053471304 -0.10302865
000340 7e 65 06 3d 50 79 19 3d 42 72 3b bd 9a 8c c8 bc
       0.032811634 0.03746921 -0.04576326 -0.024481107
000350 b9 94 89 bc df e3 92 bd f3 9f a2 3d f5 7a 4d bc
       -0.01679455 -0.07172369 0.07940664 -0.012541522
000360 0c 68 a9 3d e6 e2 2d bd 94 88 4a bd 29 37 06 bd
       0.082717985 -0.042452715 -0.049446657 -0.03276745
000370 8f 3a 12 3d 7d 83 f2 bc 46 ba 08 bd ba 39 0b 3d
       0.035700377 -0.029603714 -0.03338077 0.0339906
000380 18 fa 4d 3d 99 da ad 3d aa 77 b6 3c 61 79 15 3d
       0.050287336 0.0848896 0.022273857 0.03649271
000390 c4 3e 59 bd 79 7c 8b bc 0f f9 14 bd cf f1 04 3a
       -0.053038374 -0.017027127 -0.036370333 0.00050714327
0003a0 4c 0f 30 bc a8 13 9c bc eb 0c 9a bc 91 5b a7 bc
       -0.010745835 -0.019052342 -0.018804988 -0.020429404
0003b0 c5 d5 ce bc 0d 80 86 bd fc f8 94 bd 38 c0 1e bd
       -0.025248418 -0.065673925 -0.072740525 -0.038757533
0003c0 21 70 79 bd bf 6e 8d bd 46 f7 c7 bc 21 67 e7 bd
       -0.06089795 -0.06905889 -0.024409901 -0.11298967
0003d0 86 c0 a9 bd fa 2a 8a 3d 04 d5 f6 bd d8 65 85 3d
       -0.08288674 0.067464784 -0.12052348 0.06513566
0003e0 fc 2d 6c 3c 66 11 83 bc 2b ce 53 3d ab a2 ab bd
       0.01441526 -0.015999507 0.05171029 -0.08380636
0003f0 2c 52 16 3d 46 de a4 3d a0 e2 21 3d 57 a5 a9 bd
       0.03669946 0.08050208 0.039522767 -0.08283489

bias f4 [128]
000000 99 45 bc b9 97 66 04 3b 1c 42 29 3d 30 b5 8e bd
       -0.0003591001 0.002020275 0.041322812 -0.069681525
000010 a9 86 fc bc 27 e9 a1 bd 3d 34 97 bd 94 00 22 3d
       -0.03082593 -0.079057984 -0.073830105 0.039551333
000020 fc 98 97 3d d9 42 4b bd 30 1d be bc 93 ef 24 3d
       0.07402226 -0.049624298 -0.023207277 0.04026754
000030 70 10 ae 3d e1 a6 85 3d 43 40 07 3d bb 8f b5 bd
       0.08499229 0.0652597 0.03302027 -0.08865305
000040 9c fb 39 bd 15 92 8d 3d 30 a8 a4 bd 68 cb a6 bc
       -0.04540597 0.069126286 -0.08039892 -0.020360664
000050 ce 7d 99 bd 57 8b 83 bd 24 c8 93 3c 77 99 86 bc
       -0.074946985 -0.06423061 0.01803977 -0.0164306
000060 a1 23 a1 bd 30 70 84 bd a2 1e 6d 3d b7 f0 8a 3d
       -0.07868124 -0.064667106 0.05789054 0.06784194
000070 61 86 28 3d ca 86 07 3d 2a 3b 69 bd f0 fe d5 bc
       0.04114378 0.03308753 -0.05694119 -0.02612254
000080 3f d5 17 bd 2b 35 0a 3d 3e 3e 81 39 0d 5c af 3c
       -0.0370686 0.03374211 0.0002465117 0.021406198
000090 33 9b 25 bd c0 41 c8 bc 04 4d 27 3d 2c 91 9d bd
       -0.040431213 -0.024445415 0.040844932 -0.07693705
0000a0 93 28 20 bc ce 8d 84 3d a6 50 29 bd 5b 1d 84 bc
       -0.009775299 0.064723596 -0.041336678 -0.016127279
0000b0 f8 61 85 bc a4 15 19 bd 07 e2 87 3d 45 82 e9 3c
       -0.016282067 -0.037374154 0.06634908 0.0285045
0000c0 ed 6f b1 3d d8 52 0f bd cd 01 15 3d c1 d0 72 3c
       0.08663926 -0.034991115 0.03637867 0.014820279
0000d0 f9 7e 60 bd 6c 12 94 bd f0 1c 51 3d b6 26 6a bd
       -0.05480859 -0.07230076 0.051052988 -0.057165824
0000e0 6a 77 d4 bc f4 69 99 bc 86 78 c2 bd 9a 95 56 3d
       -0.025935847 -0.01872728 -0.09495644 0.052388765
0000f0 d1 54 d4 bc 80 4f 39 bd 88 0f 91 bd 0d cf 98 3c
       -0.02591935 -0.045241833 -0.070830405 0.018653417
000100 e5 c1 23 bc e4 0a a0 bc 1c 7d ff bc 7c c0 47 3c
       -0.0099949585 -0.019536443 -0.031187586 0.012191888
000110 e1 87 f8 bc 23 6e 95 3c 7b a6 55 3d 5e 32 db 3b
       -0.03033823 0.018240994 0.05216072 0.006689354
000120 98 2c 5b bd 4d e8 7e bc 42 17 71 bc 07 ff 5c 3b
       -0.053509325 -0.0155583145 -0.014715018 0.0033721344
000130 d6 ce 63 3d 73 b2 c3 bb bd 84 16 bd 06 91 92 bc
       0.055617176 -0.0059722005 -0.036747683 -0.017891418
000140 3d a0 3d 3d 2b 1d 0f bd 00 5c 06 3c 81 05 9a bc
       0.046295393 -0.034939926 0.008200645 -0.018801453
000150 1b 3f 84 bd 9e f3 f0 3c 27 fb 8d 3d 07 cd 3a bd
       -0.06457349 0.02941304 0.06932669 -0.045605686
000160 c8 4a fb 3c e4 b0 ba 3c 35 3d 08 bd 9b 99 a1 bc
       0.030675307 0.022789426 -0.033261497 -0.019726565
000170 e2 24 91 ba a4 71 f9 3c 17 d2 09 bc a3 1a a4 bd
       -0.0011073614 0.030449696 -0.008411906 -0.08012893
000180 50 60 02 bd 80 5d 11 bd 51 49 d3 bc cc 3d 60 bd
       -0.031830132 -0.03548956 -0.025791796 -0.054746434
000190 3a 9e b3 3c 11 7c 9a bc 4e fb 32 bd b1 29 b8 bb
       0.021926034 -0.018857988 -0.043696694 -0.0056202044
0001a0 54 5c 8f bd 95 c8 3e bd 17 14 2b 3d a4 58 c0 3b
       -0.07000032 -0.04657801 0.041767206 0.005869942
0001b0 62 48 1e 3d ee ce b9 3c 57 53 6c 3d 54 ef 99 3d
       0.03864325 0.02268168 0.057696667 0.07516351
0001c0 2c 03 91 3d c6 7e d1 bc b8 ee f0 bc e5 6e 62 3d
       0.07080683 -0.025573146 -0.029410705 0.05528154
0001d0 2d 7e 39 3d a5 88 7b 3d 8c 0e a2 3d bc d4 46 3d
       0.045286346 0.06140961 0.07912931 0.048542723
0001e0 00 28 d6 3b 9b bf 67 bb d2 f8 2b bd 81 0a b2 3d
       0.00653553 -0.0035362008 -0.04198534 0.0869341
0001f0 c7 6a 25 bd 3c 14 41 3d cd e6 24 3a b7 18 50 bd
       -0.040385034 0.047138438 0.00062904955 -0.05080482

weight f4 [128, 128]
000000 1b af b4 bc 88 7b cd 3c f1 aa 85 ba 85 11 e0 3d
       -0.022056153 0.025083318 -0.0010198039 0.109408416
000010 a1 4e ca 3b 1b 2d f1 3b 67 2d 6b 3d b3 ef 9d 3d
       0.006173924 0.0073601133 0.057416346 0.077117346
000020 44 37 13 bd e2 84 f8 bc ce 20 49 3c 01 f2 7d 3d
       -0.035941377 -0.030336801 0.012275888 0.06199837
000030 bf de c3 3d f1 d7 0f 3d 75 28 b5 3c 74 21 94 3d
       0.0956397 0.035118047 0.022114018 0.07232943
000040 1c b1 7b bd 3b 43 9c 3d 12 51 cf 3d cd f1 cb 3c
       -0.0614482 0.07630011 0.10122885 0.024895573
000050 8f a0 4e bb 48 46 26 3d ad 9d 22 bd 14 6a ba bb
       -0.0031528806 0.04059437 -0.039701153 -0.005688915
000060 7d 23 d3 3d 89 0e 8c 3d b9 32 0b bd 06 ab 8e 3d
       0.10309503 0.0683871 -0.03398392 0.06966214
000070 7d 04 09 3c 7b c4 26 3c 99 bd 7b bd c6 13 82 bc
       0.0083628865 0.0101786805 -0.06146011 -0.01587857
000080 fa ff ba 3b 91 36 97 bc 63 7e 2b bd 56 58 9b 3d
       0.0057067843 -0.018458636 -0.04186858 0.07585208
000090 33 39 ba 3d 72 bf 1c bc 7c 1e d5 3d 4e 28 9f 3d
       0.09092941 -0.0095671285 0.10406205 0.077713594
0000a0 53 b5 7d 3b 1a f7 6d 3d 6a 41 ab 3c 55 fd 84 3d
       0.0038712814 0.058096983 0.020905215 0.06493632
0000b0 58 b2 77 bb 5f 6a 82 3d 73 07 b0 3d 6c 00 7b 3c
       -0.003779551 0.06367945 0.08595171 0.015319925
0000c0 02 ee 7f bc 77 aa dd 3d 72 3c 8c 3d b7 7b 00 bd
       -0.01562071 0.10823529 0.068474665 -0.031367984
0000d0 5e df c5 3d 1c 6c 2d bd b0 0f f3 3d 72 e5 96 3c
       0.096617445 -0.04233943 0.118682265 0.018419955
0000e0 5f 52 65 3d 8e 1e 05 bd ff 79 64 3b 48 2f 19 3d
       0.05598676 -0.032499842 0.0034862754 0.037398607
0000f0 91 11 3f 3d 67 58 9b 3d 74 96 d6 3d 1e d9 7e ba
       0.046647612 0.07585221 0.104779154 -0.0009721684
000100 50 49 81 3d 72 bb b4 3c 26 4a cb 3d 0a 15 a2 3d
       0.063128114 0.022062037 0.09926252 0.07914169
000110 7c 39 6a bc e3 4c 0c 3d 6b 91 9c 3d 09 91 46 3d
       -0.014295932 0.034253012 0.07644924 0.04847816
000120 57 33 dc bc 93 b6 bd bb 90 c7 a7 bc ca c9 80 bb
       -0.02687995 -0.005789587 -0.020480901 -0.003930305
000130 84 03 3f bd d0 8a 2c 3d 61 38 8b 3d 44 e9 12 3d
       -0.046634212 0.04212457 0.06797863 0.03586699
000140 e1 94 86 3c 11 ba fd bc 24 ff 8a 3d a5 b2 8c bd
       0.016428413 -0.030972512 0.067869455 -0.06870011
000150 b1 3b 70 3d de f0 a3 3c 79 a4 31 bd de 5d e6 3d
       0.058650676 0.020012315 -0.043369744 0.112483725
000160 ce a5 52 3d 18 c7 0f 3e 5b 65 b3 bc db e5 81 3d
       0.051427655 0.14040792 -0.021898916 0.063426696
000170 32 ff b7 3d 0c 4f c7 3d 93 38 3e bd 42 6d 1a bc
       0.089842215 0.09731874 -0.046440672 -0.009425463
000180 00 98 34 3c a3 c5 e7 3d 88 88 1b 3d 49 b5 41 bd
       0.011022568 0.11316993 0.037972003 -0.047292028
000190 33 67 99 3d 0d 9d 61 3d 0f 00 e1 3d 7d c9 86 3d
       0.07490387 0.055081416 0.10986339 0.065813996
0001a0 8f 73 5a bd e5 f1 e8 bd f0 b8 ec 3d de 00 1f 3e
       -0.05333286 -0.11374263 0.115587115 0.15527675
0001b0 0b 96 16 3e da 93 d6 3d 73 18 b7 3c 0f 24 3e 3d
       0.14705674 0.10477419 0.022350525 0.046421107
0001c0 a0 4e 0f 3e 10 5f 80 bb 1c 24 27 bd bd fa dc 3d
       0.13994837 -0.0039175823 -0.04080592 0.10790012
0001d0 48 bd ce bb 65 a6 52 3d 47 e8 6d bb e4 ba 6b 3c
       -0.006309185 0.051428217 -0.0036301778 0.01438782
0001e0 5a 61 50 3d 40 b7 86 3b c0 b7 bd 3c c2 e0 32 bc
       0.05087409 0.0041112006 0.023158908 -0.010917844
0001f0 a9 14 03 3d e6 7a db bc a0 f4 6d 3d ad 4d ec 3d
       0.032002125 -0.026792001 0.05809462 0.11538253
000200 90 d7 b9 bc b0 62 ba 3d 89 8b 2d 3d ca af 0e 3e
       -0.022685796 0.091008544 0.0423694 0.13934246
000210 59 90 9b 3a 74 0a 2c bd b8 63 43 ba 36 9a b3 3d
       0.001186858 -0.042002156 -0.0007453519 0.08769648
000220 7c 81 8a bc cd 86 99 bd 30 ce 4c bd bd 53 b3 bd
       -0.016907446 -0.07496414 -0.050001323 -0.08756206
000230 9e 44 63 bc 6a 9c 1c 3d c0 79 ae 3c 1b 4f ff 3b
       -0.01387134 0.038235106 0.02129829 0.0077914125
000240 af 27 e5 bc a8 a7 d9 3d ac 4a 5d bd 20 dd 9f bd
       -0.027973024 0.10627681 -0.05402629 -0.07805848
000250 ee 95 c1 3d a6 28 d6 bc 95 d8 ba bd e6 ad af bd
       0.09452425 -0.02614243 -0.09123341 -0.0857809
000260 a3 4e 37 3d f2 8f 0a 3d 41 e8 d1 3d af 71 9c 3b
       0.04475273 0.033828683 0.10249377 0.0047742943
000270 d8 4e 02 bd 8d 74 79 3c da 39 48 3d 7d 90 ac 3d
       -0.031813473 0.015225542 0.048883297 0.084259965
000280 11 e4 30 bd 82 f2 0f 3d bb 1b a7 3a 1c db f9 bc
       -0.04318625 0.035143383 0.0012749353 -0.030499987
000290 01 95 43 bd b0 fc a4 3d 80 8f 17 3d 08 b8 c1 3d
       -0.047749523 0.08056009 0.037002087 0.09458929
0002a0 62 52 31 3d 21 39 03 3e 49 d5 e6 3c 21 cb ce bd
       0.043291457 0.12814762 0.028177874 -0.100973375
0002b0 3d 59 87 bc 76 7c 93 bd 14 e6 ac 3d 28 53 44 3d
       -0.016522044 -0.072014734 0.084423214 0.047930866
0002c0 da 06 34 3d c1 33 10 bd fe fc 92 bd 33 3a 12 bd
       0.043951847 -0.035205606 -0.07177161 -0.035700034
0002d0 27 89 e0 bd 49 59 96 bc 52 21 22 3d 7b da a2 3d
       -0.1096366 -0.018353121 0.039582558 0.07951828
0002e0 40 ae d4 bb ac 81 98 3d 0a fc 15 bd 87 ff 0f 3e
       -0.006490499 0.07446608 -0.036617316 0.1406232
0002f0 fc ad f1 bb ec c6 fc b9 67 b5 08 bd 6c 93 71 3c
       -0.007375477 -0.00048213394 -0.033376124 0.014744621
000300 a3 c0 b8 3c b9 5a dc 3d 60 18 5c 3d 6d 02 f1 bd
       0.022552794 0.107594915 0.053734183 -0.11768041
000310 4c dd bc 3d b0 4d 35 3d 36 40 97 3d 3a 75 92 bd
       0.092218965 0.04426354 0.07385294 -0.071512654
000320 f1 13 c3 bd ef 49 e6 3d 6f cd ac 3d 7b 50 a3 bd
       -0.09525288 0.112445705 0.08437621 -0.07974335
000330 de d2 1f 3a f3 6f d5 3c 12 dd 7d 3c 34 93 e3 3b
       0.00060967903 0.026054358 0.015494602 0.006945038
000340 95 f4 b9 bc b0 50 82 3d 2f 19 f2 3d 71 56 98 3d
       -0.022699634 0.06363046 0.1182121 0.074383624
000350 43 e1 50 bc df d2 9e 3d 7e 6c 74 bd 8b 6a 1d 3c
       -0.012749019 0.07755064 -0.05967378 0.009607921
000360 ee 09 ad bd 83 da 76 bc f6 49 85 3c d4 d2 52 3d
       -0.084491596 -0.015066746 0.016270619 0.051470593
000370 67 7d 28 3d aa 47 55 bd bc 2f e7 3c ec aa 64 3c
       0.041135218 -0.052070297 0.028221004 0.013956767
000380 4c 34 75 bd ae 66 da 3d 12 e1 ab bc 0b 9b 18 3d
       -0.059864327 0.10664116 -0.020981345 0.037257235
000390 98 3f ac bd 8f 40 b5 bc 34 95 25 3d cb 48 73 bd
       -0.08410567 -0.02212551 0.040425494 -0.059395593
0003a0 e3 a4 43 3d f2 26 69 3d a8 5a bb 3d 12 75 9e 3d
       0.04776467 0.056921907 0.09148151 0.07737173
0003b0 6d ef b7 bd 98 c0 da 3d f3 8b 1f bd 89 77 cd 3c
       -0.08981214 0.106812656 -0.038951825 0.025081413
0003c0 8b 51 80 3c c9 51 6c bd b5 c9 a9 3b 17 8c 25 3d
       0.015663883 -0.057695184 0.005181516 0.040416803
0003d0 af 64 29 3d 5f 21 b8 bd 42 a5 0a bd 76 b7 8f 3d
       0.041355785 -0.0899074 -0.03384901 0.07017414
0003e0 88 3a 79 bd c4 d5 1e bd fd 1b 56 3d 81 03 99 3d
       -0.060846835 -0.03877808 0.052272785 0.074713714
0003f0 f3 00 1b 3d 30 94 a4 3c 8c bf 07 3d 99 54 ea 3c
       0.037842702 0.020090193 0.033141658 0.028604792

bias f4 [128]
000000 85 71 09 3e f3 90 09 3c 0f 20 2a bd 1a 28 7c 3d
       0.1342221 0.008396375 -0.04153448 0.06156168
000010 5d 37 a0 3d d1 59 6f 3d 6f 71 e9 3c f4 c0 94 bc
       0.0782306 0.058435265 0.028496472 -0.018158413
000020 93 2a 24 3d 4f ef 8a 3c 95 39 24 bd 0f 46 6f 3d
       0.040079664 0.016959814 -0.040093977 0.058416422
000030 ad 13 34 3d 5e 09 60 3d ec dd 94 bd 36 26 24 3d
       0.043964077 0.054696433 -0.07268891 0.040075503
000040 e0 42 29 bb a2 7c 3d 3c ed b2 17 b9 81 9a d5 bc
       -0.0025827214 0.011565359 -0.00014467137 -0.02607465
000050 51 37 b3 bc a2 41 71 3d 99 c9 24 3a d6 d2 5a 3d
       -0.021876963 0.058900483 0.0006286144 0.053423725
000060 e3 4b 57 3d eb ed a5 3d b0 1e 21 bd 49 82 e4 3c
       0.052562606 0.0810202 -0.039335907 0.027894156
000070 ab 7e 55 3d 13 78 69 bc eb 91 83 bc 04 a3 36 3d
       0.052122753 -0.014249819 -0.01606079 0.044589058
000080 36 9b 17 3d d2 70 b5 bc 76 90 94 3d c8 d5 b7 3b
       0.037013255 -0.022148523 0.07254116 0.0056102015
000090 84 ae 70 3d c8 3e 07 3c 85 29 65 3d d2 25 e3 3c
       0.05876018 0.008254714 0.0559478 0.027727995
0000a0 aa 4d 26 bd 26 65 b3 3d ed 81 c1 3d 05 87 4a 3d
       -0.04060141 0.08759527 0.094486095 0.04944517
0000b0 e0 f6 36 3d e0 b6 9c 3d 22 71 9e bc 54 e4 99 3d
       0.044669032 0.07652068 -0.019341055 0.07514253
0000c0 8d 36 b6 bd ad eb 69 bd 9c 5d 52 3c a1 60 4e bd
       -0.088971235 -0.057109524 0.012839701 -0.05038512
0000d0 ac 4b 2c 3d b0 2d dd 3c cd 77 4c 3d b5 3e a5 3d
       0.042064354 0.026999325 0.04991894 0.08068601
0000e0 d1 27 30 bc b5 82 c4 3d 35 25 42 3d 6c c2 9b bd
       -0.0107516805 0.09595243 0.047398765 -0.076054424
0000f0 26 df 33 bd fd 12 f1 bc 16 b9 21 3d d6 f5 8b 3d
       -0.043913983 -0.029428 0.039483152 0.06833999
000100 f2 fe 92 bd 57 31 d8 bc 98 b1 9c bd 64 6b 83 bd
       -0.07177533 -0.026390715 -0.07651061 -0.064169675
000110 5a a4 68 bc 4a 40 b3 3c c6 48 b1 bd ed 85 8b 3d
       -0.014199341 0.021881241 -0.086564586 0.06812654
000120 1f 11 99 3d ac 3e 64 3c 34 4a cb 3d dc f3 84 3d
       0.07473969 0.013930958 0.099262625 0.06491825
000130 98 db 04 3d 14 ae d6 3c fd b2 c4 3c eb 45 89 bd
       0.032435983 0.026206054 0.02401113 -0.06702789
000140 be 41 f0 bc a9 35 3e bd 4e b5 70 bd a4 00 04 bb
       -0.029328223 -0.046437893 -0.058766656 -0.0020141983
000150 fd 18 f4 3c 0a 1a db bb 60 72 14 3d 04 34 59 3d
       0.029797072 -0.0066864537 0.03624189 0.05302812
000160 08 12 bf bc a1 c9 71 bd f1 7a 7f bd 78 95 9e bd
       -0.023324028 -0.05903018 -0.062373105 -0.07743353
000170 1e 85 4e 3c 53 13 10 3d 14 cd 6d 3d 7e ab 6f 3d
       0.01260498 0.03517468 0.058056906 0.058513157
000180 fd 57 c7 3c 68 9b 8c 3d 72 25 52 bd 8f 6a a8 3c
       0.024333948 0.06865579 -0.051305242 0.020558624
000190 e4 1e e9 3b 67 0d 2d bb 39 45 9d 3d a5 7f 2b 3d
       0.007114278 -0.0026405693 0.07679219 0.04186978
0001a0 0a bc 70 bc 34 51 9c 3b 48 c2 96 bc a8 5c 2a bc
       -0.0146932695 0.0047704224 -0.018403187 -0.0103980675
0001b0 8d 22 4d bd ce 01 ee bc 71 41 97 3d 60 50 78 3d
       -0.05008178 -0.029053595 0.07385529 0.060623527
0001c0 e8 4f 3c bc e2 e1 54 bc 2d 08 40 bd ec 96 08 bd
       -0.0114936605 -0.012993308 -0.046882797 -0.033347055
0001d0 c0 00 4d 3d 12 04 4e bc b5 f1 0c 3d d5 c6 53 bc
       0.050049543 -0.012574213 0.034410197 -0.012925823
0001e0 36 ca 8c bd 5d bc 21 3d a4 6e 44 3d 5c 02 02 3d
       -0.06874506 0.039486278 0.047957078 0.03174053
0001f0 e3 31 6a bd a1 e5 2c bb 68 37 be 3d 0a c1 02 3d
       -0.057176482 -0.0026381987 0.09287912 0.031922378

weight f4 [128, 128]
000000 e0 2d be 3b 94 89 d0 3a 88 1d c7 3d 0f b5 d2 3d
       0.0058038086 0.0015910142 0.097224295 0.102884404
000010 7c bb c7 38 fe dc c2 3d 7b 95 0b bc 5f c1 a4 3d
       9.523981e-05 0.09514807 -0.008519526 0.08044695
000020 65 f4 a5 3d 8f 48 a1 bd 68 51 9d bd e8 ed d2 bc
       0.08103255 -0.078751676 -0.07681543 -0.025748208
000030 6e 1d 02 be c0 7e 61 3d 8a 4d 0e 3c a2 e0 f1 bc
       -0.12706539 0.05505252 0.008685479 -0.029526059
000040 9d a1 a5 3c 2a 1a d6 bd ff 0a 95 bc 0b 43 13 3e
       0.020218665 -0.10454209 -0.01819372 0.14381044
000050 d0 3c c2 3a ae ba 41 bc 40 3a 66 bd 50 59 2d bd
       0.0014819149 -0.011824293 -0.056207895 -0.042321503
000060 88 28 cc 3d 83 93 cc 3c 8b 1b 4c 3d 48 dc 2b 3d
       0.09968668 0.024972683 0.049830955 0.041958123
000070 4d 78 a5 3c a5 bc f7 3d 05 3b 39 3c f5 03 34 3d
       0.020198965 0.12096528 0.011305575 0.043949086
000080 40 ec 24 bc 46 64 07 3d 31 17 39 bd 08 d4 58 3c
       -0.010066092 0.033054613 -0.045188133 0.013234146
000090 a1 89 8a 3c 3c 72 b4 bd 82 de b0 3d 4c d4 3c bd
       0.01691133 -0.08810851 0.0863619 -0.0461009
0000a0 b4 82 13 bd e2 8e 9d 3d c3 26 47 3c 97 e9 b1 3c
       -0.03601332 0.07693268 0.012155238 0.02171783
0000b0 4d f0 ea 3d 32 26 18 bb 50 f3 39 bb 41 2f 82 bd
       0.11471615 -0.0023216126 -0.0028373785 -0.06356669
0000c0 44 d5 42 bd a3 22 8a bd f2 e1 07 3d e2 5a 76 3d
       -0.047566667 -0.06744888 0.033174463 0.060145266
0000d0 0d dd da 3d e8 92 43 bd 2a 7c e3 bc dc 77 80 3d
       0.10686693 -0.047747523 -0.027769167 0.06272861
0000e0 cc 90 d3 3d 24 17 04 3e ee 23 8f 3d ba ee 50 bd
       0.10330352 0.12899452 0.06989275 -0.051008917
0000f0 14 04 9d 3d 5c 3e 52 3d be e5 92 bc f3 e5 3e bd
       0.076667935 0.051329 -0.017931815 -0.046606015
000100 10 2f 62 bd 9c b9 6b bd 0e 0f 44 3d 32 a9 d6 3c
       -0.055220664 -0.057550058 0.04786592 0.026203725
000110 e2 4c 23 bd 3b 1a 24 bd fd e5 90 3d 4a e1 08 3d
       -0.039868243 -0.040064078 0.07075117 0.033417977
000120 e9 6b 22 bd 4f 2b e4 3c f0 01 94 bd 58 3c 9a 3d
       -0.039653692 0.027852682 -0.07226932 0.07531041
000130 2b 46 70 bc 60 83 a2 3d cb 29 e1 3d 4e 32 03 3d
       -0.014665167 0.07935214 0.109942995 0.032030396
000140 07 a1 22 bd e2 6f a7 3d 55 6b da bc 03 9d 0e 3e
       -0.03970435 0.08175637 -0.026662508 0.13927083
000150 75 a0 a4 bc ae 36 f3 bc 3d 53 c1 bc 07 f5 7b 3d
       -0.020096043 -0.02968916 -0.023599261 0.061512973
000160 20 5a 98 3c 36 bd 03 bd 11 0d 5f bb 8b 4b ba 3c
       0.018597662 -0.032162867 -0.0034034888 0.0227411
000170 04 b0 f0 bc 59 2e f3 3d 44 7a 10 bd d2 95 b0 3c
       -0.029380806 0.118740745 -0.03527285 0.021555815
000180 d2 b2 c6 bc 29 c6 51 bd 90 25 13 bd 4d 15 86 3c
       -0.02425519 -0.05121437 -0.035924494 0.016367579
000190 40 5b b6 3d 30 68 a9 bd d3 43 f2 bc ac 9e d2 3c
       0.08904123 -0.08271825 -0.029573357 0.025710426
0001a0 94 1b e6 bc 98 bf 23 3d c1 e8 42 3d 85 9d 8c 38
       -0.028089322 0.03997764 0.047585253 6.7050605e-05
0001b0 6e e4 94 bb 99 fb d3 3d 67 36 da bc d7 bb 9b 3c
       -0.0045438325 0.10350723 -0.02663727 0.019010467
0001c0 d6 f2 44 3d 1b e5 1d bb 4a 16 ab 3d f6 31 95 3c
       0.04808315 -0.0024092856 0.08353861 0.0182123
0001d0 27 80 97 bb 70 31 00 bb 6d 57 2c 3d 40 49 89 3d
       -0.0046234312 -0.0019560717 0.042075563 0.067034245
0001e0 2a ba b1 bd 4c 04 c2 bd c1 0c 03 3d f2 b1 28 bd
       -0.08678086 -0.09473476 0.031994585 -0.041185327
0001f0 0d 9a 9e bd 44 60 10 3d 4d 31 1a 3d e2 18 ab bd
       -0.077442266 0.035248056 0.037644673 -0.083543554
000200 94 c8 9e 3c 1a 53 c4 3d 03 71 6d 3d 87 b8 f4 3c
       0.019382752 0.09586163 0.057969104 0.029873146
000210 20 10 56 3d e5 9d 25 bd fa 38 a0 3d 18 1b a0 bd
       0.05226147 -0.040433783 0.078233674 -0.07817668
000220 35 81 43 bc 8a dd a2 bc f2 63 f0 3c 0b b0 b8 bd
       -0.011932661 -0.019881029 0.029344533 -0.090179525
000230 81 e4 ad 3d 99 55 1c bd 4f 49 69 3d f1 de 41 3d
       0.08490849 -0.03816757 0.05695468 0.047331754
000240 95 72 94 bc d2 0e 20 3c 60 25 c6 bd 13 83 ba bd
       -0.018121043 0.009769158 -0.096750975 -0.09107032
000250 ea 43 d0 3b 16 4a 07 3e 2a 3e 11 bc cf e2 6c bc
       0.0063557522 0.13211855 -0.008864919 -0.014458372
000260 5e de ea 3c 98 ed 69 3d 44 9a bb bd a1 e1 85 3b
       0.028670486 0.057111353 -0.09160283 0.004085735
000270 81 79 b9 bd c6 27 5b 3a dc f6 8b bd c2 73 9b 3c
       -0.09056378 0.0008360114 -0.06834194 0.018976096
000280 41 f1 c0 3d 3a 71 1d 3b 22 b6 8c bd bb 65 f9 bc
       0.094210155 0.0024023787 -0.068706766 -0.030444017
000290 e0 f7 fe 3d 0b 57 42 3d 9c 03 7a 3d 30 28 fd bb
       0.12449622 0.047446292 0.0610386 -0.007725738
0002a0 be b2 0e 3c 12 2f 87 bc 46 24 8e 3c 5a ad 67 3d
       0.008709608 -0.016501937 0.01735128 0.056561805
0002b0 83 54 c1 bd b0 10 52 3a cd d4 c3 3c 15 8f c2 3d
       -0.094399475 0.0008013351 0.023905182 0.09499947
0002c0 d1 33 3a bd 23 80 8a 3d be 1c 51 3d e8 96 03 3e
       -0.045459572 0.067627214 0.0510528 0.12850535
0002d0 54 ca 94 3c 77 2d 0a 3e bc b2 8d bd 3e c3 49 3d
       0.018162884 0.13493906 -0.069188565 0.049258463
0002e0 ad 04 f1 bc 9b ee ac bd 4b 1b 8c 3d 74 42 61 bd
       -0.029421175 -0.08443948 0.06841143 -0.054995015
0002f0 83 3c 90 3c e8 66 92 bc ae 1f f9 3c 2a e1 d3 bc
       0.01760698 -0.017871335 0.030410614 -0.025864203
000300 5a f9 40 bd 14 64 f3 3d df 5e 36 3d 63 00 20 3b
       -0.0471128 0.11884323 0.04452407 0.0024414293
000310 f7 41 6b bc 09 0c 2c bc 0f ff a8 3c 46 8d ac 3d
       -0.014358989 -0.010500916 0.020629434 0.08425383
000320 d1 7d d1 bc 7a 9b f4 3d 19 b8 89 3d ee 21 8b 3d
       -0.02557269 0.11943717 0.06724567 0.06793581
000330 5a c8 e6 3c f9 5c a6 bd 5f 91 d0 3c ce 3c 06 3e
       0.028171707 -0.08123202 0.025459943 0.13109133
000340 46 de 9d 3c c5 f1 58 bd 75 bc 56 bc 8d 08 f8 bd
       0.019271027 -0.052964944 -0.013106455 -0.12111006
000350 d0 19 ff 3c 9b 35 4f bc 2a 31 7f 3d 80 8d 80 bd
       0.031140238 -0.012647058 0.062302746 -0.06276989
000360 5a 0a 8e bd 9f 65 c1 bd 66 10 04 bc 55 63 0a bc
       -0.06935568 -0.09443211 -0.00806055 -0.008446534
000370 aa 5e d2 3d cc 33 be bd e1 7a 8f bc 9b de 3b 3d
       0.10271962 -0.09287223 -0.017514648 0.04586659
000380 8a 2f 6b bb c1 94 5f 3d 21 8f 44 3d b3 89 8f bd
       -0.003588649 0.054585222 0.04798806 -0.07008686
000390 07 4a b0 3d 13 bb 87 bc f1 f1 3f 3d 62 c9 37 3d
       0.086078696 -0.016568696 0.046861593 0.044869788
0003a0 45 09 01 3e 5e a4 b7 3d df 89 5a 3d e1 a0 11 bd
       0.12601192 0.089668974 0.05335414 -0.035553817
0003b0 74 3b 29 3d ac d7 95 bd ad 11 6d 3d 91 bb 49 3c
       0.041316465 -0.07316527 0.057878185 0.012312786
0003c0 05 5b 4f 3c 0c 7c 46 bc de ff 39 bd 10 1f c0 3d
       0.012655978 -0.012114536 -0.04541003 0.09380925
0003d0 c5 e7 22 3d 4b f8 15 3c 41 91 2b bd d0 2f d5 bd
       0.039771814 0.009153436 -0.04188657 -0.1040951
0003e0 be d6 16 bd 35 35 06 3e 44 9d 26 bd 45 62 19 3d
       -0.036825888 0.13106234 -0.040677324 0.037447233
0003f0 bc 1c f6 bc fa c1 52 bb 54 30 62 3d dc 71 79 3b
       -0.030042998 -0.0032159076 0.05522187 0.003806225
