models/agModels-predicttop10_votes/models/NeuralNetFastAI_BAG_L1/S11F3/model-internals.pkl (torch, 194382 bytes, 23 tensors)

weight f4 [4, 3]
0	0xbc0c3da6	-0.00855962
1	0x3c342c48	0.010996886
2	0xbc2f5b7c	-0.010702964
3	0x3d21a0e5	0.03946008
4	0x3c2d0905	0.010561232
5	0x3d1d1eb1	0.038359348
6	0xbbbac5eb	-0.005699863
7	0xbcdff4d6	-0.027338427
8	0x3d07c75a	0.0331491
9	0xbd1c683a	-0.038185336
10	0xbd008b3a	-0.031382777
11	0xbd1bb9a8	-0.038018852

weight f4 [6, 4]
0	0xb80a758c	-3.3011238e-05
1	0xbbaefad7	-0.005339961
2	0x3c3f518d	0.011677158
3	0x3b8129c2	0.0039417455
4	0xbc141592	-0.009038346
5	0x3ca9d9fb	0.020733824
6	0xbaf374f0	-0.0018574279
7	0x3cc238bd	0.023708696
8	0x3ccd8184	0.025086172
9	0xbcdee2a5	-0.027207682
10	0xbc93ced3	-0.018042957
11	0xbd378501	-0.044804577
12	0x3c28e667	0.010308838
13	0xbc661ab4	-0.014044452
14	0x3c868501	0.016420843
15	0x3b933296	0.0044921143
16	0xbc6a2de2	-0.014293166
17	0x3d0988c0	0.03357768
18	0x3c935e42	0.017989282
19	0x3cf1a6a4	0.029498406
20	0x3d83b134	0.06430283
21	0xbca11e2a	-0.019667704
22	0x3d16d91c	0.036828145
23	0xbcef5621	-0.029215874

weight f4 [6, 4]
0	0xbb440a9b	-0.0029913548
1	0xbaf5eb74	-0.0018762187
2	0x3c9cd1de	0.019143041
3	0x3be1f9a0	0.0068962127
4	0x3b776bb1	0.0037753398
5	0xbc3b9838	-0.011449866
6	0xbd279998	-0.040917963
7	0xba56ef1c	-0.0008199082
8	0xbd3737a9	-0.044730816
9	0x3d034b44	0.0320542
10	0xbd3074fe	-0.043080322
11	0x3b18c5e7	0.0023311318
12	0xbd14032f	-0.03613585
13	0x3d7810ea	0.060563006
14	0xbd39082e	-0.045173816
15	0xbc21b65e	-0.00987014
16	0x3cc2f80a	0.023799915
17	0xbd41d6d6	-0.047324024
18	0x3d79e89b	0.061012845
19	0x3d4f6c82	0.05064059
20	0x3c25dd54	0.0101235695
21	0xbd4b2af6	-0.049601518
22	0xbd1cb0c5	-0.038254518
23	0xbd6a01c1	-0.05713058

weight f4 [6, 4]
0	0x3c429756	0.011876902
1	0xbace46bc	-0.0015737633
2	0xb9ee8e06	-0.00045500713
3	0x3bd450a6	0.0064793406
4	0x3cfec1e2	0.03109831
5	0xbc17f524	-0.009274755
6	0xbd0e7206	-0.03477671
7	0x3b532f7a	0.0032224343
8	0x3cf2a7b1	0.029620977
9	0xbd55b57a	-0.052175023
10	0xbd24a042	-0.040191896
11	0x39c61f38	0.00037788763
12	0x3d3bda40	0.045862436
13	0x3c4bdb88	0.012442477
14	0x3c29d4e6	0.0103657
15	0xbcd54a58	-0.026036426
16	0xbd5a1829	-0.053245697
17	0x3d57c11b	0.052674394
18	0x3cf9e420	0.030504286
19	0x3ce685b9	0.028139936
20	0x3c4ea11b	0.012611653
21	0xbcaadbba	-0.020856727
22	0x3d27d94e	0.040978722
23	0xbc0bf9e0	-0.008543462

weight f4 [6, 4]
0	0x3c3f48b4	0.011675049
1	0x3bfc39b0	0.0076973066
2	0x3b7fd1e7	0.0039035024
3	0x3b3da072	0.0028934744
4	0x3cba6770	0.022754401
5	0xbc81c4b3	-0.015840864
6	0xbb3f365c	-0.0029176688
7	0x3cd2478d	0.025668884
8	0xbcbbe58e	-0.022936609
9	0x3d92723a	0.07150693
10	0xbbb71ab0	-0.005587898
11	0x3c8329da	0.016011167
12	0xbd2c5b08	-0.042079
13	0x3c6e481e	0.014543561
14	0x39531910	0.00020131865
15	0x3d58499a	0.052804567
16	0x3d6467e5	0.055763144
17	0x3c61bd08	0.013777979
18	0x3a866475	0.0010253327
19	0x3c66503c	0.014057215
20	0xbd027804	-0.031852737
21	0x3bba3ad5	0.005683283
22	0xbd001505	-0.031270046
23	0x3d3efa5f	0.04662549

weight f4 [6, 4]
0	0xbbbc5db5	-0.0057484754
1	0xbc6a82c3	-0.014313403
2	0xbbda1c54	-0.006656209
3	0x3c268ef4	0.010165919
4	0xbd128a94	-0.03577669
5	0x3c307bf2	0.010771738
6	0xbd28f81a	-0.041252233
7	0x38ae69f1	8.3167e-05
8	0xbc7f782f	-0.015592619
9	0x3cd46bce	0.025930312
10	0x3cdd7c4e	0.027036812
11	0x3cb6d8cb	0.022320172
12	0x3ce4b525	0.027918408
13	0x3d55e2f2	0.052218385
14	0x3c0a11d1	0.008427099
15	0x3c6e7714	0.014554758
16	0xba25c556	-0.0006323656
17	0xbd5877d6	-0.05284866
18	0xbd249f23	-0.040190827
19	0xbc9c7d45	-0.019102702
20	0x3d3b356d	0.045705248
21	0x3d0a7bd0	0.033809483
22	0x3d8d96d8	0.06913537
23	0x3cd73b1c	0.026273303

weight f4 [25, 10]
0	0x3d03efa5	0.032210965
1	0xbca5bd4c	-0.020231865
2	0x3ca113a3	0.019662684
3	0x3cc6bc9f	0.024259863
4	0xbb741a20	-0.0037247017
5	0xbb9acd2e	-0.0047241664
6	0x3d42ff31	0.04760665
7	0xbd0e346c	-0.034717962
8	0x39d01848	0.00039690943
9	0xbc1034cf	-0.008801653
10	0xbc8fc056	-0.017547768
11	0xbd1a97eb	-0.037742537
12	0x3c76f79c	0.015073683
13	0xbc051b25	-0.008124148
14	0x3cab8d2a	0.020941336
15	0x3d77d243	0.060503256
16	0xbd2810ca	-0.041031636
17	0x3ceb267a	0.02870487
18	0xbc8d0008	-0.017211929
19	0x3c84d75c	0.016215973
20	0x3d371fdc	0.044708118
21	0x3ccab2c2	0.024743441
22	0x3d1458d0	0.03621751
23	0x3c9205bf	0.017825006
24	0x3c82d966	0.015972804
25	0xbc7fd166	-0.015613889
26	0xbc42b374	-0.011883605
27	0x3ce219d1	0.0276002
28	0xbc89decd	-0.016829873
29	0xbc8151dc	-0.015786104
30	0xbd09e4a2	-0.033665307
31	0x3c06accd	0.00821991
32	0x3be1c8e9	0.0068904054
33	0xbd4828fa	-0.048867203
34	0x3d015d3a	0.03158305
35	0x3d53f8b3	0.05175085
36	0xbd3833da	-0.044971325
37	0x3815fba0	3.5758712e-05
38	0xbd4009b3	-0.04688425
39	0x3d316605	0.043310184
40	0xbc8042b4	-0.015656807
41	0xbd0a523b	-0.033769827
42	0xbc48cf64	-0.012256477
43	0x3babf982	0.0052482495
44	0x3bb05d12	0.0053821886
45	0xbc369f61	-0.011146397
46	0x3c207d66	0.009795522
47	0x3c877847	0.016536845
48	0x3b65f6ac	0.0035089655
49	0x3cc2dc40	0.023786664
50	0xbc063b2a	-0.008192817
51	0x3b9ed55a	0.004847211
52	0xbd0409d5	-0.03223594
53	0x3be56628	0.0070007034
54	0x3c639ee0	0.013892859
55	0x3b990edf	0.004670962
56	0x3c06e1e5	0.008232568
57	0x3d2c7e94	0.0421129
58	0xbd0de3cc	-0.034641072
59	0xbc80a77d	-0.015704865
60	0xbd8bf6bf	-0.068341725
61	0x3c0356b1	0.008016274
62	0x3d4cf8d8	0.050042003
63	0x3d1eda4e	0.03878241
64	0xbc728e53	-0.014804441
65	0xbcd836ad	-0.026393259
66	0xbcfd5855	-0.030925909
67	0xbc33e7d4	-0.010980565
68	0xbca99cda	-0.020704675
69	0xbc06fca6	-0.008238947
70	0x3d1151cc	0.0354784
71	0x3c5a8ca5	0.013339196
72	0x3c9a4952	0.01883379
73	0xbc42f840	-0.011900008
74	0x3c90c5ff	0.017672537
75	0xbadfed6c	-0.0017084307
76	0xbc609ded	-0.013709527
77	0x3b6f372a	0.0036501386
78	0xbd080323	-0.033206116
79	0x3b1a502c	0.0023546321
80	0xbcd8a4f3	-0.026445841
81	0x3d2f3db8	0.04278347
82	0xbc8862ba	-0.016648639
83	0x3d3b76c5	0.045767564
84	0xbc9fa81a	-0.019489337
85	0xbd86c1b5	-0.065799154
86	0x3d0fc77b	0.03510235
87	0xbd4bba55	-0.049738247
88	0x3d6924d6	0.056919895
89	0xbd49d05e	-0.04927098
90	0x3b402d20	0.0029323772
91	0xbc553dfa	-0.013015265
92	0xbcda9ecc	-0.026687048
93	0x3d8a6531	0.06757582
94	0xbd6446b5	-0.055731494
95	0xbd606353	-0.054782223
96	0x3d544f68	0.05183354
97	0xbd26a47e	-0.040684216
98	0x3d9aff41	0.07568217
99	0xbd2a7684	-0.04161693
100	0xbc18be08	-0.009322651
101	0x3cada3ab	0.021196207
102	0x3bc3394e	0.005957759
103	0xbd9e49b8	-0.077289045
104	0x3c01e4c1	0.007928074
105	0x3d5deab3	0.054178905
106	0xbd81e858	-0.06343144
107	0x3d4f0414	0.050541
108	0xbd3681df	-0.04455745
109	0x3d7089f4	0.058725312
110	0x3bdd8a1d	0.006760849
111	0xbd07ddba	-0.03317044
112	0x3d1eaf3f	0.038741346
113	0xbd115bd6	-0.035487972
114	0xbb5af189	-0.0033408126
115	0x3b9b5282	0.0047400603
116	0xbcc312fd	-0.023812765
117	0xbc75246c	-0.014962297
118	0xbb8daf8f	-0.0043239067
119	0x3c6753fc	0.0141191445
120	0x3d053eb8	0.032530516
121	0xbd36b6c1	-0.04460788
122	0x3c85bd9a	0.01632576
123	0x3cbabffb	0.022796622
124	0x3d3b8d3c	0.04578899
125	0x3bc0ae8a	0.0058801817
126	0x3b961930	0.0045806393
127	0xba6a7f08	-0.0008945321
128	0xbc13ac5e	-0.0090132635
129	0xb8437400	-4.6599656e-05
130	0x3ce35678	0.027751192
131	0x3bf66de7	0.0075204256
132	0xbd16f401	-0.036853794
133	0xbcb2cb85	-0.021825561
134	0xbb3dfff2	-0.0028991667
135	0x3cc2f22e	0.02379712
136	0xbc9b14d5	-0.018930832
137	0xbc95d15c	-0.018288307
138	0x3d316b92	0.043315478
139	0x3d265f66	0.040618323
140	0xbcb1f5b5	-0.021723608
141	0x3d291103	0.04127599
142	0xbc3a8e50	-0.011386469
143	0xbc935e7b	-0.017989388
144	0xbd627990	-0.055291712
145	0x3bd89dc1	0.0066106026
146	0xbd830264	-0.0639694
147	0x3d078786	0.03308823
148	0xbd35e2e1	-0.04440582
149	0x3c08cfad	0.008350295
150	0x38f00e60	0.00011446769
151	0xbcc2306d	-0.023704732
152	0x3c19f694	0.009397168
153	0x3d5dfda6	0.054196976
154	0xbc9c8a18	-0.019108817
155	0xbd21333d	-0.039355505
156	0x3ca9a797	0.020709796
157	0xbc8a71a8	-0.016899899
158	0x3be8a247	0.007099423
159	0xbd027077	-0.031845536
160	0xbb80dfa2	-0.003932909
161	0xbb4bd847	-0.0031104253
162	0x3c40acf5	0.011759986
163	0xbd4f906d	-0.050674845
164	0x3d331d4f	0.043729123
165	0x3d8bc8d9	0.06825418
166	0xbd8699cf	-0.065723054
167	0x3d11a137	0.035554137
168	0xbd44f575	-0.04808565
169	0x3d471baf	0.048610386
170	0x3caa1b47	0.02076496
171	0xbb0bb8eb	-0.0021319936
172	0x3add35cf	0.0016876998
173	0x3d630636	0.055425845
174	0xbade9a1c	-0.0016983184
175	0xbad1b0aa	-0.0015998085
176	0x3c9c822a	0.019105036
177	0xbc0661da	-0.008202041
178	0x3d572258	0.052522987
179	0x3ae18580	0.0017205924
180	0x3c00f488	0.007870801
181	0x3c07f1ae	0.008297367
182	0x3b054f7f	0.0020341573
183	0xbc2913f1	-0.010319696
184	0xbbc87321	-0.00611724
185	0xbc9f5988	-0.019451872
186	0xbbe2e790	-0.006924577
187	0xba8b5add	-0.0010631938
188	0xbb164970	-0.0022931956
189	0xbc639754	-0.01389106
190	0xbc8b4a65	-0.017003248
191	0xbc08a69d	-0.008340505
192	0x3cbce18c	0.023056768
193	0xbd087174	-0.033311322
194	0x3cfe4940	0.031040788
195	0x3d192c46	0.037395738
196	0xbd0b7738	-0.034049243
197	0xbc2e043b	-0.010621126
198	0xbce06225	-0.027390549
199	0x3d285ba4	0.04110302
200	0x3cddddc2	0.027083281
201	0xbd0cc22d	-0.034364868
202	0x3c3a7bc9	0.011382052
203	0x3d111133	0.035416793
204	0xbcad8526	-0.021181654
205	0xbb9c9246	-0.0047781793
206	0x3cbabbc5	0.022794614
207	0x3c66d39e	0.014088539
208	0x3ca29a11	0.019848855
209	0x3c4dbaf6	0.012556782
210	0x3d6b9ce8	0.057522684
211	0x3d475c76	0.048672162
212	0x3b99cac0	0.004693359
213	0xbc722226	-0.014778649
214	0x3cff927a	0.031197775
215	0x3ac3a1d6	0.001492555
216	0xbd281caf	-0.04104298
217	0xbd0d3c0a	-0.034481086
218	0xbd2cdfc6	-0.042205594
219	0xbcb83c34	-0.022489645
220	0xbca96098	-0.020675942
221	0x3c979271	0.018502446
222	0xbcd2761f	-0.02569109
223	0x3d21304c	0.0393527
224	0xbad89078	-0.0016522547
225	0xbd5ff602	-0.05467797
226	0x3d1f7840	0.03893304
227	0xbd26714c	-0.040635392
228	0x3d4d69cd	0.050149728
229	0xbd0ec6e4	-0.034857646
230	0x3c879f11	0.016555341
231	0x3c601830	0.013677642
232	0xbbaecec2	-0.005334706
233	0x3c72ce40	0.014819682
234	0xbcc1de2e	-0.023665514
235	0x3c87b0e6	0.016563844
236	0xbb7a9244	-0.0038234154
237	0xbc232d7a	-0.009959573
238	0x3be90d7f	0.0071122046
239	0x3d0eb343	0.034838926
240	0x3c8c088d	0.017093921
241	0xba8dd3f6	-0.0010820616
242	0x3c9e2f80	0.01930976
243	0xbd217234	-0.039415553
244	0x3cbc8905	0.023014555
245	0x3c8d619b	0.017258456
246	0xbd4eb0a1	-0.050461415
247	0xbcb896b3	-0.022532796
248	0xbd437ea6	-0.047728203
249	0x3ce4fe01	0.02795315

weight f4 [44]
0	0x3f7d1934	0.9886658
1	0x3f850b76	1.0394123
2	0x3f81e01d	1.0146519
3	0x3f80b922	1.0056498
4	0x3f7f8359	0.99809796
5	0x3f84abcf	1.0364932
6	0x3f78ec40	0.9723549
7	0x3f82571c	1.0182834
8	0x3f7c8068	0.9863343
9	0x3f7e6981	0.99379736
10	0x3f8018ef	1.0007609
11	0x3f7f9ccf	0.99848646
12	0x3f82a89d	1.0207707
13	0x3f7e0970	0.9923315
14	0x3f8187d7	1.011958
15	0x3f7e5ae5	0.99357444
16	0x3f80dd40	1.006752
17	0x3f76186c	0.96131015
18	0x3f7e473b	0.9932744
19	0x3f7f6f74	0.9977944
20	0x3f80620b	1.002992
21	0x3f8297a5	1.0202528
22	0x3f7b9fc3	0.9829065
23	0x3f7e6270	0.99368954
24	0x3f7d5b0a	0.9896704
25	0x3f7af669	0.9803224
26	0x3f7868cc	0.9703491
27	0x3f795481	0.9739457
28	0x3f838595	1.0275141
29	0x3f7ec750	0.99522877
30	0x3f788fb8	0.970943
31	0x3f7f00bb	0.9961049
32	0x3f809691	1.0045949
33	0x3f81ecde	1.0150411
34	0x3f7b8e33	0.98263854
35	0x3f7ded5d	0.9919031
36	0x3f789e72	0.9711677
37	0x3f82e124	1.0224957
38	0x3f85759e	1.0426519
39	0x3f7cd9e8	0.9877
40	0x3f820409	1.0157481
41	0x3f801014	1.0004907
42	0x3f7f2b85	0.9967578
43	0x3f7ce8f8	0.9879298

bias f4 [44]
0	0xbc2e6400	-0.010643959
1	0xbc892a0a	-0.016743679
2	0x3c821838	0.015880689
3	0x3c22d097	0.009937427
4	0x3bc1eeb6	0.005918349
5	0x3bb2d377	0.0054573375
6	0x3bc9b3f4	0.0061554853
7	0x3c865ae6	0.016400766
8	0x3d017e98	0.03161487
9	0xbc8c0a92	-0.017094884
10	0xbc93573a	-0.017985929
11	0xbc836522	-0.016039435
12	0xbcda5845	-0.026653418
13	0xbc831dc0	-0.016005397
14	0x3bd1a090	0.0063973144
15	0x3c45d5fb	0.012074943
16	0xbc37323f	-0.011181413
17	0x3c24625f	0.010033219
18	0xbcad1a29	-0.021130638
19	0xbc2e6e9a	-0.010646487
20	0x3b313259	0.0027038066
21	0x3c8ecf30	0.01743278
22	0xbb9d2800	-0.004796028
23	0xbbc89b61	-0.0061220382
24	0x3bf4b4aa	0.007467826
25	0xbb15df42	-0.0022868668
26	0x3d382759	0.0449594
27	0xbcd50dfa	-0.026007641
28	0xbb4fc108	-0.003170075
29	0xbcf5aebb	-0.029990545
30	0x3a60df88	0.00085782306
31	0xbc25e1e6	-0.010124659
32	0xbc4b79df	-0.012419193
33	0xbcdcd13c	-0.02695524
34	0x3bbec4b8	0.0058217905
35	0x3c9e13a9	0.019296484
36	0xbcff0f58	-0.031135246
37	0xbc4835e2	-0.012219878
38	0xbc078727	-0.008271969
39	0xbc6f4f70	-0.014606342
40	0xbc0a276e	-0.008432252
41	0x3c1c49f8	0.00953912
42	0xbc4da9a2	-0.012552651
43	0xbc54b34b	-0.0129822

running_mean f4 [44]
0	0x3bb6a288	0.0055735745
1	0x39a6ca51	0.00031812725
2	0xbaec093f	-0.0018008127
3	0x3aa5576e	0.0012614557
4	0x3ad40281	0.0016175063
5	0x3b285c1b	0.0025689665
6	0x3c0d9819	0.00864222
7	0x3c32a2c7	0.010903067
8	0xbb53f21f	-0.003234036
9	0xb9fce24e	-0.00048233796
10	0x3bb08ebf	0.0053881104
11	0xbbdab3ec	-0.0066742804
12	0x3b1a8052	0.002357502
13	0x3b938142	0.0045014927
14	0xbba3c0cc	-0.0049973484
15	0x3bb4d7a9	0.0055188728
16	0x3b034ca0	0.0020034686
17	0x3aea3d01	0.0017870964
18	0xbbbc603e	-0.0057487777
19	0xbbc42757	-0.005986135
20	0x3b8a62b9	0.0042231944
21	0x3ac76ecf	0.0015215519
22	0xba3bce7c	-0.00071642525
23	0x3b0b161a	0.002122289
24	0xbac1b7b0	-0.0014779475
25	0xbbbc603e	-0.0057487777
26	0xbbab342d	-0.0052247257
27	0xbb409173	-0.002938357
28	0xbaaeca3f	-0.001333542
29	0x3afa2fd3	0.0019087739
30	0x3a4afc05	0.00077432423
31	0xbc70b6f3	-0.014692056
32	0x3c4c2e34	0.012462188
33	0x3acd0659	0.001564215
34	0xbbd8f06c	-0.0066204574
35	0x3b87f17a	0.0041486593
36	0x3b8f80ec	0.0043793824
37	0xba2b2762	-0.0006529001
38	0xbbae7919	-0.0053244946
39	0x3c1a472e	0.009416385
40	0x3c1147f4	0.008867253
41	0x3b2686f5	0.002541003
42	0x3a64db54	0.0008730192
43	0xba96b01e	-0.0011496579

running_var f4 [44]
0	0x3f7f93c9	0.9983488
1	0x3f804e57	1.0023907
2	0x3f7f54e8	0.9973893
3	0x3f7ed621	0.99545485
4	0x3f7f086e	0.9962224
5	0x3f731111	0.94947916
6	0x3f5892f5	0.8459924
7	0x3f84184b	1.0319914
8	0x3ef74421	0.48294166
9	0x3efa4735	0.48882452
10	0x3f01206a	0.50440085
11	0x3eebf492	0.4608503
12	0x3efb24a0	0.4905138
13	0x3eff5be0	0.49874783
14	0x3ef73570	0.48282957
15	0x3efbc0b6	0.49170464
16	0x3efe55bf	0.49674794
17	0x3eff0623	0.4980937
18	0x3ee447fa	0.44586164
19	0x3ee6261d	0.44950953
20	0x3f02b677	0.5105967
21	0x3efe2eb0	0.49644995
22	0x3ef7ed10	0.48423052
23	0x3eff8b91	0.49911168
24	0x3ef9033b	0.48635277
25	0x3ee447fa	0.44586164
26	0x3eec9303	0.4620591
27	0x3ef33bc8	0.47506547
28	0x3ef88314	0.48537505
29	0x3f7df1b1	0.99196917
30	0x3f7f21a5	0.9966071
31	0x3f802f4f	1.0014437
32	0x3f80a8f6	1.0051563
33	0x3f80b26a	1.0054448
34	0x3f7face0	0.9987316
35	0x3f8135bc	1.0094523
36	0x3f82d9d7	1.022273
37	0x3f824a1b	1.0178865
38	0x3f7f68a7	0.9976906
39	0x3f86ffa6	1.0546768
40	0x3f8780bb	1.058616
41	0x3f80a9be	1.0051801
42	0x3f7f55b1	0.9974013
43	0x3f7f4bd6	0.9972509

weight f4 [200, 77]
0	0xbd54f111	-0.05198771
1	0xbe00fe3b	-0.12596981
2	0x3bba98bc	0.005694477
3	0xbd44b767	-0.04802647
4	0x3cae07d8	0.021243975
5	0xbd8fb352	-0.070166245
6	0xbdaedac1	-0.08537818
7	0x3d0323ba	0.032016493
8	0xbdb9d350	-0.09073508
9	0x3dcfcd72	0.101466075
10	0x3cdfd4a6	0.027323078
11	0x3d86e8a5	0.06587342
12	0x3d37db61	0.04488695
13	0xbc360f2c	-0.011112016
14	0x3d90cb81	0.07070065
15	0x3c597eb6	0.013274839
16	0x3cbf74be	0.023371097
17	0xbd220afd	-0.03956126
18	0xbb927bf6	-0.0044703437
19	0x3ab98956	0.0014155309
20	0xbd1764a4	-0.036961213
21	0xbdf8df47	-0.12151962
22	0xbd0e9896	-0.034813486
23	0xbdee51e5	-0.11636714
24	0x3b086b3c	0.002081587
25	0x3d848fb3	0.06472721
26	0xbd31fdba	-0.043454863
27	0xbda02c6f	-0.07820975
28	0xbd426645	-0.047460813
29	0xbcac7ee7	-0.021056606
30	0xbc95dd02	-0.018293861
31	0x3d76fc6e	0.06029933
32	0x3d351b47	0.044215467
33	0xbdfd1327	-0.12357169
34	0xbd3435e1	-0.043996695
35	0x3d30b876	0.043144666
36	0x3d937790	0.07200539
37	0xbcf8458d	-0.030306602
38	0xbdb94808	-0.09046942
39	0x3bdd8014	0.006759653
40	0x3d2d479d	0.042304624
41	0xbd84780a	-0.06468208
42	0xbd5048f4	-0.050850824
43	0x3d5b1a9a	0.053492166
44	0xbd2a5e2b	-0.04159371
45	0xbe0f33df	-0.13984631
46	0xbd5fb4d2	-0.054615803
47	0x3c54b423	0.012982401
48	0xbc838634	-0.016055204
49	0x3da45117	0.08023279
50	0x3dd88570	0.10572326
51	0x3c67aea1	0.014140756
52	0xbbf818ba	-0.007571307
53	0xbb4045c6	-0.0029338463
54	0xbcba7d92	-0.022764955
55	0x3c8269cc	0.015919589
56	0xbd587956	-0.05285009
57	0xbc6702a8	-0.014099754
58	0xbdc6efbd	-0.09713695
59	0x3db40f00	0.087919235
60	0xbd0b833a	-0.034060694
61	0x3e09c855	0.13455327
62	0xbcdbe4c6	-0.026842486
63	0xbd582ae2	-0.05277527
64	0x3d50caf1	0.05097479
65	0x3be5ad92	0.0070092166
66	0x3da1bc44	0.07897237
67	0x3d9a90a9	0.07547123
68	0xbdbb21be	-0.09137295
69	0x3dbde924	0.09272984
70	0xbc7dc359	-0.015488469
71	0xbd45f355	-0.048327763
72	0x3d91ac7f	0.07112979
73	0x3d74f292	0.059801646
74	0xbda6917e	-0.08133219
75	0x3c888f18	0.016669795
76	0x3deab707	0.11460691
77	0x3ae42abc	0.0017407755
78	0x3da52bdf	0.08065008
79	0xbd8a1440	-0.06742144
80	0xbd99eb0a	-0.07515533
81	0x3de5f673	0.11228647
82	0x3d70b6ec	0.058768198
83	0x3df5781b	0.11985799
84	0xbd0c1208	-0.034196883
85	0xbd4a7d90	-0.049436152
86	0x3a92ad08	0.0011190483
87	0xbd709f7e	-0.058745854
88	0x3a9d048a	0.0011979502
89	0x3e01d6e1	0.12679626
90	0x3d78b364	0.060717955
91	0xbbac0046	-0.005249056
92	0x3dd85e82	0.10564901
93	0xbdf56de5	-0.11983851
94	0x3dd5669a	0.1041996
95	0xbe27acd2	-0.1637452
96	0xbe191826	-0.14950618
97	0xbd15d1c2	-0.036576994
98	0x3db90850	0.090347886
99	0x3cbd796a	0.023129184
100	0x3d328968	0.043588072
101	0xbd70718b	-0.058702033
102	0x3d60de6e	0.054899625
103	0x3b0c708a	0.0021429383
104	0x3c9598d5	0.018261353
105	0x3d1e7367	0.038684275
106	0x3d9acf60	0.07559085
107	0xbd27dd8c	-0.040982768
108	0x3d1a963e	0.03774094
109	0xbdc7903c	-0.097443074
110	0xbd301768	-0.042991072
111	0x3dd89a80	0.105763435
112	0xbcd47334	-0.02593384
113	0x3db48329	0.08814079
114	0xbcce09f0	-0.025151223
115	0xbda9c454	-0.082894
116	0xbcf55911	-0.029949697
117	0xbdb9faec	-0.09081063
118	0x3c5867ec	0.013208371
119	0xbc78fa16	-0.015196344
120	0xbc476ee5	-0.012172435
121	0x38bf4f60	9.1223745e-05
122	0x3d8d2a5d	0.06892846
123	0x3dc50964	0.09620932
124	0xbd9588a1	-0.073014505
125	0x3cff50a7	0.031166388
126	0xbda31189	-0.07962329
127	0xbd6baac5	-0.057535905
128	0x3d843fee	0.06457506
129	0x3d0d26f1	0.034460966
130	0xbc978ac0	-0.018498778
131	0xbd7a90aa	-0.06117312
132	0xbd404047	-0.0469363
133	0x3d8d4950	0.06898749
134	0xbdd8a6cb	-0.10578688
135	0xbda6c632	-0.081432715
136	0x3c94709a	0.018120099
137	0xbd38272a	-0.044959225
138	0xbdbc7ebc	-0.0920386
139	0xbd0be787	-0.03415635
140	0x3b620d2f	0.0034492721
141	0xbe04e56a	-0.1297814
142	0xbd7902bf	-0.060793635
143	0x3d789aba	0.060694434
144	0xbdfe1209	-0.12405784
145	0xbcd536c4	-0.02602709
146	0xbd9aea0f	-0.075641744
147	0xbda81a5a	-0.08208151
148	0x3d54b0f8	0.051926583
149	0xbd852b73	-0.06502428
150	0xbd764391	-0.06012303
151	0x3db6b5fb	0.08921429
152	0x3b2f7915	0.0026775051
153	0x3dc5eb1c	0.09663984
154	0xbcfc5882	-0.030803923
155	0xbd6ad7fa	-0.057334878
156	0xbca76f88	-0.020438924
157	0xbad866d1	-0.0016510134
158	0x3dd1344b	0.10215052
159	0xbdbac3c9	-0.09119374
160	0x3c366752	0.011133032
161	0x3dc28baa	0.09499295
162	0xbde27f98	-0.11059493
163	0xbcd09cce	-0.025465395
164	0x3d69518f	0.056962546
165	0xbdd9d16e	-0.10635649
166	0x3d13a96d	0.03605025
167	0xbda41f95	-0.08013836
168	0x3d835597	0.06412809
169	0xbd993772	-0.074812785
170	0x3db1ef8d	0.08688269
171	0xbdb92671	-0.09040535
172	0xbdc7750e	-0.09739123
173	0x3d077aab	0.03307597
174	0x3da32871	0.07966698
175	0xbd930a68	-0.07179719
176	0xbd8ff15a	-0.07028456
177	0x3e000e19	0.12505378
178	0xbc863a6e	-0.016385283
179	0x3d006033	0.031341743
180	0xbdf377e5	-0.118881024
181	0xbd03fe0f	-0.03222471
182	0xbd792c3a	-0.060833193
183	0x3da68f5c	0.081328124
184	0x3d50dae8	0.050990015
185	0xbd9fd179	-0.078036256
186	0x3bd1c534	0.0064016823
187	0x3b977dba	0.004623142
188	0xbd848294	-0.06470218
189	0xbdcdbc4a	-0.10045679
190	0xbd9ed123	-0.077547334
191	0x3d6ecf4c	0.058303162
192	0xbdb99999	-0.090624996
193	0xbdc73372	-0.09726609
194	0xbd432e62	-0.047651656
195	0x3d401b12	0.046900816
196	0x3cc65aec	0.024213277
197	0x3bf1a8d0	0.0073748603
198	0xbd2705bf	-0.040776964
199	0xbcfb020c	-0.030640624
200	0xbd15c402	-0.03656388
201	0xbd66b15b	-0.056321483
202	0x3d581aa6	0.05275979
203	0xbdebf6b9	-0.11521668
204	0xbd84d7de	-0.06486486
205	0xbe044542	-0.12917045
206	0xbcf19204	-0.029488571
207	0x3da1cda5	0.07900552
208	0x3da91342	0.08255626
209	0xbdea6d87	-0.11446672
210	0xbcd62bbd	-0.026143903
211	0x3d9a9cdd	0.075494505
212	0x3c62169c	0.013799336
213	0x3db5fba9	0.08885891
214	0x3a5c874e	0.0008412496
215	0xbd4585ee	-0.04822343
216	0x3d8cfa40	0.06883669
217	0xbd630c41	-0.055431608
218	0x3d5ef85d	0.054436076
219	0xbd26cd3d	-0.040723074
220	0x3d9d9367	0.076941304
221	0x3dd499bd	0.10380886
222	0x3dd35c46	0.10320334
223	0xbdec354e	-0.115336046
224	0xbdd1f0c4	-0.102510005
225	0xbd6412cd	-0.055681992
226	0xbd898fee	-0.067169055
227	0x3df44061	0.11926342
228	0xbce8e090	-0.028427392
229	0xbdaaddaf	-0.08343064
230	0xbd591cf5	-0.05300613
231	0xbdc5237b	-0.09625908
232	0x3d2e806f	0.042602953
233	0xbe0d3b37	-0.1379212
234	0xbd9a0e6d	-0.07522283
235	0xbdfec0c0	-0.12439108
236	0x3cd6d820	0.026226103
237	0x3cff7554	0.031183876
238	0xbce4f2d6	-0.027947824
239	0x39b1f1f0	0.00033940328
240	0x3dd28242	0.10278751
241	0x3bd5d9c9	0.006526206
242	0xbc7abf5b	-0.015304412
243	0xbc3e8741	-0.011628927
244	0xbd35977a	-0.044333912
245	0x3d9b3c4f	0.07579862
246	0xbda00e86	-0.0781527
247	0x3d18ec23	0.037334573
248	0x3d5111a1	0.051042203
249	0xbdabe8ab	-0.08393987
250	0x3d999140	0.07498407
251	0x3db3aa60	0.08772731
252	0xbd90309f	-0.07040524
253	0xbd427153	-0.047471356
254	0x3d226ff7	0.03965756
255	0xbdc086f9	-0.09400744

weight f4 [200]
0	0x3f7e691f	0.9937915
1	0x3f7e65aa	0.9937388
2	0x3f7edd15	0.99556094
3	0x3f7c46be	0.98545444
4	0x3f77fcbe	0.9687003
5	0x3f7cf705	0.9881442
6	0x3f811ff8	1.0087881
7	0x3f819744	1.0124288
8	0x3f7f50b2	0.99732506
9	0x3f79e685	0.9761737
10	0x3f7fd83f	0.9993934
11	0x3f7c4b4c	0.98552394
12	0x3f808ac7	1.0042351
13	0x3f812449	1.0089198
14	0x3f7f4dda	0.9972817
15	0x3f802fc3	1.0014576
16	0x3f80ed89	1.007249
17	0x3f81deae	1.0146081
18	0x3f7b8bd0	0.9826021
19	0x3f838fcb	1.0278257
20	0x3f830334	1.0235353
21	0x3f815866	1.0105102
22	0x3f7f3ec5	0.99705154
23	0x3f83e232	1.0303404
24	0x3f7ab348	0.9792981
25	0x3f7e63d8	0.993711
26	0x3f765c71	0.96234804
27	0x3f7e71a9	0.9939218
28	0x3f81b485	1.0133215
29	0x3f833beb	1.025266
30	0x3f84e10e	1.0381181
31	0x3f7eb0eb	0.99488705
32	0x3f85366e	1.0407236
33	0x3f8206ed	1.0158364
34	0x3f80f04f	1.0073336
35	0x3f7f586b	0.9974429
36	0x3f819f03	1.0126652
37	0x3f839bb0	1.0281887
38	0x3f8213f9	1.0162345
39	0x3f77fcd7	0.9687018
40	0x3f7d411b	0.9892747
41	0x3f7cdd7c	0.9877546
42	0x3f81b3ac	1.0132957
43	0x3f7c78d2	0.9862186
44	0x3f7b7395	0.9822324
45	0x3f7f91af	0.9983167
46	0x3f80a2fa	1.0049736
47	0x3f83e065	1.0302855
48	0x3f811d71	1.008711
49	0x3f842237	1.0322942
50	0x3f8162d9	1.0108291
51	0x3f7bc454	0.9834645
52	0x3f7ce2a6	0.9878334
53	0x3f81b650	1.0133762
54	0x3f7f441d	0.9971331
55	0x3f7c393b	0.98524827
56	0x3f7b4cb9	0.98163944
57	0x3f7e1b70	0.99260616
58	0x3f80d76d	1.0065743
59	0x3f81140d	1.0084244
60	0x3f7bc844	0.98352456
61	0x3f7f37d5	0.9969457
62	0x3f7f560f	0.9974069
63	0x3f82986c	1.0202765
64	0x3f7f7d00	0.9980011
65	0x3f7d7280	0.9900284
66	0x3f7b4ea0	0.9816685
67	0x3f7e7cda	0.9940926
68	0x3f7d5ac2	0.9896661
69	0x3f826751	1.018778
70	0x3f7f207f	0.9965896
71	0x3f7abb86	0.9794239
72	0x3f8134d8	1.0094252
73	0x3f7fafe6	0.99877775
74	0x3f7afa46	0.98038137
75	0x3f7eaf8e	0.99486625
76	0x3f7ce2d0	0.9878359
77	0x3f80c75f	1.0060843
78	0x3f801d4a	1.0008938
79	0x3f7e56b9	0.9935108
80	0x3f81a743	1.0129169
81	0x3f7e3638	0.9930148
82	0x3f81f374	1.0152421
83	0x3f813786	1.009507
84	0x3f7ce611	0.98788553
85	0x3f82d6ce	1.0221803
86	0x3f806f0b	1.0033888
87	0x3f7c8957	0.98647064
88	0x3f7da6e5	0.99082786
89	0x3f80197a	1.0007775
90	0x3f7bb8bb	0.9832875
91	0x3f8345d7	1.0255688
92	0x3f8267e2	1.0187953
93	0x3f831d5a	1.0243332
94	0x3f7b3b5f	0.9813747
95	0x3f813ace	1.0096071
96	0x3f7ea053	0.99463385
97	0x3f854e29	1.0414478
98	0x3f80c477	1.0059956
99	0x3f7b94e0	0.9827404
100	0x3f7999ee	0.97500503
101	0x3f81ef3e	1.0151136
102	0x3f7ce2dd	0.98783666
103	0x3f7d9e02	0.99069226
104	0x3f837272	1.0269301
105	0x3f7d2201	0.9888001
106	0x3f78dfea	0.97216666
107	0x3f7ee406	0.99566686
108	0x3f7b09a6	0.980616
109	0x3f7c81bb	0.98635453
110	0x3f813053	1.0092872
111	0x3f7fc0b8	0.9990344
112	0x3f7caac1	0.9869805
113	0x3f7f96da	0.99839556
114	0x3f7ca382	0.98686993
115	0x3f7a6ce0	0.9782238
116	0x3f834121	1.0254251
117	0x3f7ab9d1	0.97939783
118	0x3f801a3b	1.0008005
119	0x3f829fc5	1.0205008
120	0x3f833875	1.0251604
121	0x3f7c36b0	0.98520947
122	0x3f833d20	1.0253029
123	0x3f7f589e	0.99744594
124	0x3f82d92d	1.0222527
125	0x3f7eedb5	0.9958146
126	0x3f80a5e9	1.0050632
127	0x3f7df35e	0.99199474
128	0x3f7d36bd	0.9891165
129	0x3f83d907	1.0300606
130	0x3f817215	1.011294
131	0x3f79af75	0.9753335
132	0x3f7b7361	0.9822293
133	0x3f7d7e85	0.9902118
134	0x3f80ad3e	1.0052869
135	0x3f812008	1.00879
136	0x3f7f8903	0.9981844
137	0x3f80696b	1.0032171
138	0x3f7b1161	0.98073393
139	0x3f84fe92	1.0390189
140	0x3f7e1340	0.99248123
141	0x3f7dd733	0.9915649
142	0x3f7a9ed9	0.9789863
143	0x3f8113ad	1.008413
144	0x3f7ed05f	0.995367
145	0x3f80d38b	1.0064558
146	0x3f82ca86	1.0218055
147	0x3f7f40da	0.9970833
148	0x3f7f6b0f	0.99772733
149	0x3f7e6eb3	0.99387664
150	0x3f81b65e	1.0133779
151	0x3f7b63b0	0.98198986
152	0x3f8179d9	1.011531
153	0x3f8187d7	1.011958
154	0x3f7850d1	0.96998316
155	0x3f79ac57	0.97528595
156	0x3f7fac72	0.99872506
157	0x3f79538f	0.97393125
158	0x3f7f6a57	0.99771637
159	0x3f7dfe31	0.9921599
160	0x3f8584aa	1.0431111
161	0x3f776248	0.9663434
162	0x3f809b59	1.0047408
163	0x3f82c74c	1.021707
164	0x3f83c0ae	1.0293176
165	0x3f796b2d	0.9742916
166	0x3f7b091b	0.9806077
167	0x3f7c4d58	0.9855552
168	0x3f7e958b	0.99446934
169	0x3f82a72e	1.0207269
170	0x3f7f328f	0.9968652
171	0x3f80ebc1	1.0071946
172	0x3f7f7b33	0.9979736
173	0x3f819e5f	1.0126456
174	0x3f8004ae	1.0001428
175	0x3f82e6f1	1.0226728
176	0x3f822d27	1.0170029
177	0x3f7e8af9	0.99430805
178	0x3f84fbdb	1.038936
179	0x3f8171c2	1.0112841
180	0x3f7ab5f1	0.9793387
181	0x3f7bab44	0.98308206
182	0x3f7df0d4	0.991956
183	0x3f7fc568	0.99910593
184	0x3f810b88	1.0081644
185	0x3f819ae7	1.0125397
186	0x3f7dfb9d	0.99212056
187	0x3f7e87b3	0.9942581
188	0x3f853c18	1.0408964
189	0x3f80e7dd	1.0070759
190	0x3f7923bc	0.9732015
191	0x3f80ca3c	1.0061717
192	0x3f789197	0.9709715
193	0x3f763805	0.9617923
194	0x3f82c637	1.021674
195	0x3f81668a	1.0109417
196	0x3f846798	1.0344114
197	0x3f8100aa	1.0078328
198	0x3f81e969	1.0149356
199	0x3f817775	1.011458

bias f4 [200]
0	0x3bb117b9	0.0054044393
1	0xbcd1fc02	-0.025632862
2	0x3d279f3f	0.040923353
3	0x3d180e2e	0.037122898
4	0x3c4e1f68	0.01258073
5	0x3b0a67c2	0.0021118973
6	0x3c08dbb1	0.00835316
7	0xbcd126a9	-0.02553113
8	0x3b16c81b	0.0023007456
9	0x3ce61e1b	0.028090527
10	0xbc3b93f6	-0.011448851
11	0x3cc4f40b	0.02404215
12	0xbc6e6680	-0.014550805
13	0x3b15f7b7	0.0022883245
14	0x3be969b8	0.0071231984
15	0x3abc86e8	0.0014383467
16	0xbbf1d70c	-0.007380372
17	0xbcb88560	-0.022524536
18	0xbbd0c2e0	-0.006370887
19	0xbc831b2a	-0.016004164
20	0xbb5140ac	-0.0031929417
21	0xbaf43e2f	-0.0018634255
22	0xbc91f9b6	-0.017819267
23	0xbbf69a19	-0.007525694
24	0x3c1ebc92	0.009688513
25	0x3cd4ed84	0.025992163
26	0xbbc41339	-0.005983737
27	0x3c026595	0.007958789
28	0xbc72b5cb	-0.014813851
29	0xbce63074	-0.028099276
30	0xbc49e48d	-0.012322557
31	0x3c0c22c2	0.008553209
32	0xbcffccc6	-0.031225573
33	0x3c9e831e	0.01934963
34	0x3c437913	0.011930722
35	0xba2274f4	-0.0006197237
36	0xbc8101d7	-0.015747948
37	0x3c13c434	0.009018946
38	0x3c85cc80	0.016332865
39	0xbcb89848	-0.02253355
40	0x3c655b6d	0.013998848
41	0x3c9098b6	0.017650943
42	0x3c2dfd3e	0.01061946
43	0xba045ab5	-0.0005048917
44	0xbca518c6	-0.020153414
45	0xbbae6ea5	-0.0053232484
46	0x3c73b097	0.014873645
47	0xbb4c0e24	-0.0031136358
48	0xbc516f32	-0.012782859
49	0xbbcb18be	-0.006198018
50	0x3c508648	0.012727328
51	0xbc9a626b	-0.018845757
52	0xbb8e7561	-0.0043474887
53	0xbc90cca0	-0.017675698
54	0xbb830fc9	-0.0039996845
55	0x3b263e36	0.002536667
56	0x3d0f847c	0.035038456
57	0x3a5e6795	0.0008484063
58	0xbbdf67a0	-0.006817773
59	0xbb281d27	-0.0025652142
60	0xbceb874a	-0.028751034
61	0x3d0584da	0.0325974
62	0x3d1dfdbe	0.038572066
63	0x3cb02a15	0.021504441
64	0xba9541f8	-0.0011387458
65	0xbcc76e67	-0.024344636
66	0x3c11da5e	0.00890216
67	0xbb657ab2	-0.003501576
68	0x3c154d12	0.009112613
69	0xbcf75857	-0.03019349
70	0x3c36c5cf	0.01115556
71	0x3bea0114	0.007141242
72	0xbb8a3a6d	-0.0042183907
73	0xbb0d1e72	-0.002153304
74	0xbccb1123	-0.024788445
75	0x3c08b9d9	0.008345091
76	0x3c69683b	0.014246042
77	0x3ca31b94	0.019910611
78	0x3d0eeb2c	0.034892246
79	0x3c9dbe5d	0.019255811
80	0x3c8ab066	0.016929816
81	0x3c8f5a26	0.01749904
82	0x3ca1626f	0.019700257
83	0xbcbd1f60	-0.02308625
84	0x3d194a68	0.037424475
85	0xbcb6a7a7	-0.02229674
86	0x3b843296	0.0040343506
87	0x3c7b6cc3	0.015345755
88	0xba778da1	-0.00094434066
89	0x3ce916fa	0.028453339
90	0x3c790cf5	0.015200843
91	0x3cad72e4	0.021172948
92	0x3ce6ee77	0.02818988
93	0xbad17028	-0.001597886
94	0xbc3583e3	-0.0110788075
95	0x3d06e3fc	0.032932267
96	0x3a3f0672	0.0007287032
97	0xbc99c291	-0.018769534
98	0x3ce2b20b	0.027672788
99	0xbb03436a	-0.0020029196
100	0x3c7d3d5b	0.015456523
101	0xbce0f326	-0.027459692
102	0x3cfc78ad	0.030819261
103	0xbc528991	-0.012850181
104	0xbc567023	-0.013088259
105	0x3be5a512	0.0070082033
106	0x3bce1c8d	0.0062900246
107	0x3baf0edc	0.0053423475
108	0x3cb120f7	0.021622164
109	0x3bdc9bdf	0.0067324485
110	0xbcc9902b	-0.024604877
111	0xbb7800cc	-0.0037842272
112	0x3af57ff2	0.0018730147
113	0xbc7be492	-0.01537432
114	0x3c77707a	0.0151025
115	0x3c0d556f	0.008626326
116	0xbb82f83e	-0.003996878
117	0xbcf0b3e5	-0.029382655
118	0x3c77d1e2	0.015125724
119	0x3cd4619b	0.025925448
120	0xbcc3f65b	-0.023921182
121	0xbc0b8d82	-0.008517625
122	0x3ae41358	0.0017400784
123	0x3cba509c	0.022743516
124	0x3c297fbc	0.010345396
125	0x3c1ea661	0.0096832225
126	0x3d2bb4f4	0.041920617
127	0xbcad2035	-0.021133522
128	0xbc189cfe	-0.009314774
129	0x3cd234b0	0.025659889
130	0x3c478734	0.012178231
131	0x3c321076	0.010868182
132	0x3cdba8d7	0.026813908
133	0xbb8a26bc	-0.0042160433
134	0x3c5bf44c	0.013424944
135	0xbbf5deec	-0.007503381
136	0x3d053d92	0.03252942
137	0x3bce13c4	0.0062889773
138	0x3cdbec5d	0.026846105
139	0x3cd51e27	0.026015354
140	0x3d228260	0.039675117
141	0x3c8dd5fa	0.017313946
142	0xbce8668c	-0.02836921
143	0x3bcab852	0.0061865235
144	0xbc7f3534	-0.015576649
145	0x3c6b6288	0.014366753
146	0x3c3beacf	0.011469557
147	0x3c6a6e4c	0.014308523
148	0xbd314b36	-0.043284617
149	0x3c12ef0d	0.008968127
150	0x3cc8047a	0.024416197
151	0x3b2dd15e	0.0026522498
152	0xbc28ad45	-0.010295217
153	0x3c68869f	0.014192252
154	0x3c6ff961	0.014646859
155	0xbbf93635	-0.007605339
156	0xbba95450	-0.0051675215
157	0x3c8a83b7	0.01690851
158	0x3c8f9e9a	0.017531682
159	0xbc66287a	-0.014047736
160	0x3b7dd56c	0.0038731946
161	0x3ca9afd7	0.02071373
162	0xbc45f34a	-0.01208193
163	0xbd08f385	-0.033435363
164	0x3c0e4f08	0.008685835
165	0x3c661437	0.0140429055
166	0x3c5c3761	0.013440938
167	0x3ce11406	0.027475368
168	0xbc8e25ba	-0.017351974
169	0x3cc056c2	0.02347887
170	0x3bcc3a28	0.0062325187
171	0x3c82df93	0.01597575
172	0x3bd161a9	0.006389816
173	0xbc6eaea3	-0.014568004
174	0x3bb4cd07	0.005517605
175	0x3c92fc3a	0.017942537
176	0xbc6e4542	-0.01454288
177	0x3b8ce104	0.004299285
178	0x3d25b6ae	0.04045742
179	0x3cb45df2	0.022017453
180	0x3c7c8fe9	0.01541517
181	0x3bcb8347	0.006210718
182	0xbcad94d7	-0.021189136
183	0x3c998699	0.018740939
184	0x3c79e04c	0.01525123
185	0xbbb08188	-0.005386535
186	0xbc3cda35	-0.011526634
187	0x3c868684	0.016421564
188	0xbd169ef7	-0.036772694
189	0xbb92ddc7	-0.0044820043
190	0xbb909c1d	-0.0044131414
191	0x3bf1e35a	0.0073818387
192	0xbd1637ae	-0.036674194
193	0xbaa53ea2	-0.0012607167
194	0xbc10985a	-0.008825386
195	0x3c404be5	0.011736845
196	0x3c8211ee	0.01587769
197	0x3c2729ac	0.010202806
198	0xbca8e7ff	-0.020618437
199	0x3bc9f3ff	0.00616312

running_mean f4 [200]
0	0x3e102b84	0.140791
1	0x3e02ccab	0.12773387
2	0x3dfb97d6	0.1228482
3	0x3dfa6e6a	0.12228091
4	0x3df17e49	0.11791665
5	0x3e09c6de	0.13454768
6	0x3e12541f	0.14289902
7	0x3dfe4cc9	0.12416989
8	0x3de51a2c	0.111866325
9	0x3e0e20f9	0.13879766
10	0x3df3e3e3	0.119087
11	0x3e11d6c2	0.1424208
12	0x3e1d9ff8	0.15393054
13	0x3e040fa6	0.12896594
14	0x3df57e21	0.11986948
15	0x3ddc5535	0.107584395
16	0x3dfef370	0.12448776
17	0x3df53f6c	0.119749874
18	0x3e0798d9	0.132419
19	0x3e11f2d9	0.14252795
20	0x3e0a824b	0.13526265
21	0x3db6e943	0.0893121
22	0x3e11d100	0.14239883
23	0x3deb07c8	0.114760935
24	0x3dfe652f	0.12421643
25	0x3dcb43f4	0.099250704
26	0x3de21a2b	0.110401474
27	0x3e0f1fb1	0.13976933
28	0x3dde2de6	0.10848598
29	0x3e036b80	0.12833977
30	0x3dfa9ea3	0.12237289
31	0x3e207962	0.15671304
32	0x3e14af9e	0.14520118
33	0x3e183441	0.14863683
34	0x3df1b734	0.11802521
35	0x3e06010f	0.13086341
36	0x3df4c019	0.11950702
37	0x3e1bc042	0.1521006
38	0x3df9df11	0.1220075
39	0x3de4fe9e	0.11181377
40	0x3e01bc49	0.12669481
41	0x3df4aa9c	0.11946604
42	0x3e209282	0.15680888
43	0x3dda09d7	0.10646408
44	0x3e2925ef	0.16518377
45	0x3e0280e5	0.12744482
46	0x3e022d89	0.12712683
47	0x3e068194	0.13135368
48	0x3e163209	0.14667524
49	0x3e04049b	0.12892382
50	0x3e14caa7	0.1453043
51	0x3e237b03	0.15964894
52	0x3e24d58c	0.16097087
53	0x3dffc93f	0.124895565
54	0x3de25206	0.11050801
55	0x3df20827	0.11817961
56	0x3e00b5e6	0.12569389
57	0x3e0395ac	0.12850064
58	0x3e168544	0.14699274
59	0x3df38ecf	0.11892473
60	0x3df4c6d3	0.11951985
61	0x3df548b6	0.11976759
62	0x3dd07223	0.1017802
63	0x3e210e95	0.15728219
64	0x3dc3815c	0.09546158
65	0x3e1fcf7d	0.15606494
66	0x3df95ba9	0.12175686
67	0x3e082d04	0.13298422
68	0x3e0bd6b7	0.13656126
69	0x3e0d96b6	0.13827023
70	0x3e1a4a9b	0.15067522
71	0x3e135a73	0.14389972
72	0x3e06fd08	0.13182461
73	0x3e088f39	0.13335885
74	0x3defdeff	0.11712455
75	0x3e0862be	0.13318917
76	0x3dda3de3	0.10656335
77	0x3deb1375	0.114783205
78	0x3e06eef8	0.13177097
79	0x3dde4f1c	0.10854933
80	0x3e020f27	0.12701093
81	0x3e1579d3	0.14597254
82	0x3e101d71	0.14073731
83	0x3e2599a5	0.16171892
84	0x3dc6b82f	0.09703099
85	0x3df7b757	0.12095516
86	0x3e045e78	0.12926662
87	0x3ddb5cc0	0.1071105
88	0x3e02dc97	0.12779461
89	0x3ddc2499	0.10749168
90	0x3e07007b	0.13183777
91	0x3e0568df	0.13028286
92	0x3e12aa69	0.14322819
93	0x3deb20cd	0.11480866
94	0x3dfe8fac	0.12429747
95	0x3e1f8e2b	0.15581577
96	0x3e07126a	0.13190618
97	0x3df90500	0.12159157
98	0x3de5ad6a	0.11214717
99	0x3e0119fb	0.12607567
100	0x3e24b1f8	0.16083515
101	0x3e0524c3	0.13002305
102	0x3e13e084	0.14441115
103	0x3e1a4c15	0.15068085
104	0x3dfc32fa	0.123144105
105	0x3e0279a1	0.1274171
106	0x3e1615e5	0.1465679
107	0x3dd74175	0.10510532
108	0x3e24886e	0.16067669
109	0x3df7e88a	0.121049
110	0x3e08e205	0.1336747
111	0x3df8bc8b	0.12145337
112	0x3e22822f	0.15869974
113	0x3e1ad9ac	0.15122098
114	0x3e0f1538	0.13972938
115	0x3e1691b0	0.14704013
116	0x3e0bb2bc	0.136424
117	0x3dc5baf6	0.096548006
118	0x3e37dada	0.17954579
119	0x3e1bc37f	0.15211295
120	0x3def0186	0.116702124
121	0x3e1ea389	0.15492071
122	0x3df15b99	0.11785049
123	0x3e09350c	0.13399142
124	0x3e018351	0.1264775
125	0x3e09ecd0	0.13469243
126	0x3e0c8b2c	0.13724965
127	0x3de1d43c	0.110268086
128	0x3df279a2	0.11839606
129	0x3e3e402e	0.1857917
130	0x3e181740	0.14852619
131	0x3dec3c63	0.11534955
132	0x3e0518ea	0.12997785
133	0x3e03eda9	0.12883629
134	0x3e10824c	0.14112204
135	0x3dfae7df	0.12251257
136	0x3e096007	0.13415538
137	0x3df1d5fa	0.11808391
138	0x3dfe58bd	0.12419269
139	0x3e160d1c	0.14653438
140	0x3e13119e	0.14362189
141	0x3e1af11b	0.15131037
142	0x3e05bb9a	0.13059846
143	0x3e0a5097	0.13507305
144	0x3deccbc7	0.11562305
145	0x3e20d55b	0.15706389
146	0x3e03367d	0.12813754
147	0x3df7f811	0.12107862
148	0x3df8d5f4	0.12150183
149	0x3e1ddf46	0.15417203
150	0x3e0c4801	0.13699342
151	0x3e0ef35b	0.1396002
152	0x3e224a32	0.15848616
153	0x3e1032ab	0.14081828
154	0x3e1aa979	0.15103711
155	0x3e233c12	0.15940884
156	0x3def4bf4	0.11684409
157	0x3e1b97ae	0.1519458
158	0x3e1101dc	0.14160866
159	0x3dd58dd2	0.10427441
160	0x3e08fa74	0.1337679
161	0x3e0f9976	0.14023384
162	0x3e046b1e	0.12931487
163	0x3e21e9fc	0.15811914
164	0x3e019ac3	0.12656693
165	0x3df0a294	0.11749759
166	0x3e0054d6	0.12532362
167	0x3de693d8	0.11258668
168	0x3e0d0a76	0.13773522
169	0x3df40cec	0.11916527
170	0x3e090e52	0.13384369
171	0x3de5795b	0.11204787
172	0x3e08a544	0.13344294
173	0x3e095ec2	0.13415053
174	0x3e07f394	0.13276511
175	0x3dfd79d4	0.123767525
176	0x3de55a80	0.11198902
177	0x3e075305	0.13215263
178	0x3db580a0	0.08862424
179	0x3e047b5b	0.12937681
180	0x3e0013a4	0.12507492
181	0x3def34a7	0.116799645
182	0x3e057f5b	0.13036864
183	0x3e0c5271	0.13703324
184	0x3dfb7c0a	0.12279518
185	0x3ddb03d0	0.106940866
186	0x3e16e086	0.14734086
187	0x3dd17dbb	0.10229059
188	0x3dd52337	0.10407107
189	0x3e1786cb	0.14797513
190	0x3e2c0b6c	0.16801232
191	0x3df6691a	0.12031765
192	0x3e042a59	0.1290678
193	0x3e197c32	0.14988783
194	0x3e059280	0.13044167
195	0x3e335e02	0.1751633
196	0x3dfeca4d	0.124409296
197	0x3e1c59cd	0.15268631
198	0x3df54280	0.119755745
199	0x3de65d99	0.11248321

running_var f4 [200]
0	0x3e891c14	0.26779234
1	0x3e6b4b43	0.22977929
2	0x3e6cc312	0.23121288
3	0x3e7b4a97	0.24540173
4	0x3e800bc4	0.25008976
5	0x3e6e78de	0.23288295
6	0x3e82226a	0.2541688
7	0x3e6b67d2	0.22988823
8	0x3e70450b	0.23463838
9	0x3e72703b	0.23675625
10	0x3e6da3bb	0.2320699
11	0x3e83b4c2	0.25723845
12	0x3e831f4e	0.2560982
13	0x3e6b08d5	0.22952588
14	0x3e789d78	0.2427882
15	0x3e5de0fa	0.21667853
16	0x3e794c86	0.24345598
17	0x3e6b6e9e	0.22991416
18	0x3e87c32c	0.26516092
19	0x3e7efbb8	0.2490071
20	0x3e7a055a	0.24416104
21	0x3e67b4f4	0.22627622
22	0x3e74c164	0.23901898
23	0x3e7db68b	0.24776666
24	0x3e802039	0.25024584
25	0x3e6ebf1c	0.2331509
26	0x3e755af7	0.23960482
27	0x3e777bfd	0.24168392
28	0x3e5fe950	0.21866345
29	0x3e6d6298	0.23182142
30	0x3e677cfe	0.22606274
31	0x3e860464	0.26175225
32	0x3e7c71d0	0.24652791
33	0x3e801ee4	0.25023568
34	0x3e75890a	0.23978058
35	0x3e791cc7	0.24327384
36	0x3e6c072b	0.2304961
37	0x3e8fbdfb	0.2807463
38	0x3e74ebf1	0.2391813
39	0x3e694db2	0.22783545
40	0x3e70d81f	0.23519944
41	0x3e790220	0.24317217
42	0x3e7d77a6	0.24752674
43	0x3e749a5f	0.23887013
44	0x3e887c38	0.2665727
45	0x3e6f52ae	0.23371384
46	0x3e76bdc9	0.24095835
47	0x3e773f12	0.24145153
48	0x3e8162f1	0.252708
49	0x3e7b1cc4	0.24522692
50	0x3e808ed5	0.25108972
51	0x3e812705	0.25225082
52	0x3e8f5a5d	0.2799863
53	0x3e6e7635	0.2328728
54	0x3e78b5e6	0.24288139
55	0x3e7b3e8c	0.24535578
56	0x3e79e6fc	0.2440452
57	0x3e774d8a	0.24150673
58	0x3e861460	0.2618742
59	0x3e661aae	0.22471115
60	0x3e7c2b4c	0.24625891
61	0x3e6e5e08	0.23278058
62	0x3e5d5df7	0.21617876
63	0x3e77a32e	0.24183342
64	0x3e6bffe7	0.23046838
65	0x3e8871d2	0.26649338
66	0x3e68bec5	0.22729023
67	0x3e8a01b7	0.26954433
68	0x3e84c289	0.2592967
69	0x3e7e0f6c	0.2481057
70	0x3e7f9595	0.24959405
71	0x3e86aa1c	0.26301658
72	0x3e6f7514	0.23384506
73	0x3e81e40e	0.25369304
74	0x3e6eba21	0.2331319
75	0x3e7f31de	0.24921367
76	0x3e698608	0.22805035
77	0x3e7beb83	0.2460156
78	0x3e7c0494	0.24611121
79	0x3e73f552	0.23824051
80	0x3e7707e1	0.241241
81	0x3e78317a	0.24237624
82	0x3e7be1e3	0.24597888
83	0x3e8b8370	0.27248716
84	0x3e602bd4	0.21891719
85	0x3e6cedf0	0.23137641
86	0x3e82cfd6	0.2554919
87	0x3e67c0ff	0.22632216
88	0x3e75575c	0.23959106
89	0x3e67e6ae	0.22646591
90	0x3e84f51c	0.25968254
91	0x3e69a971	0.22818543
92	0x3e82ac7d	0.25522223
93	0x3e6a9ae3	0.22910647
94	0x3e825e44	0.25462544
95	0x3e7d071a	0.2470974
96	0x3e769285	0.2407933
97	0x3e78f62a	0.24312654
98	0x3e6d3efd	0.2316856
99	0x3e710dd5	0.23540433
100	0x3e90c9f9	0.28279093
101	0x3e76a581	0.24086572
102	0x3e836c09	0.25668362
103	0x3e85e150	0.26148462
104	0x3e6fac8e	0.23405668
105	0x3e7a35be	0.24434564
106	0x3e79f211	0.24408747
107	0x3e6d5e9e	0.23180625
108	0x3e91b8b0	0.28461218
109	0x3e72454e	0.2365925
110	0x3e7471a2	0.23871472
111	0x3e8203e7	0.25393602
112	0x3e8dc4b7	0.27689144
113	0x3e854088	0.26025796
114	0x3e825945	0.25458732
115	0x3e88515f	0.2662458
116	0x3e740afa	0.23832312
117	0x3e665846	0.22494611
118	0x3e93c712	0.28862816
119	0x3e800761	0.2500563
120	0x3e62f6a3	0.22164397
121	0x3e82c0a5	0.255376
122	0x3e730b2d	0.23734732
123	0x3e7b4444	0.2453776
124	0x3e764c6c	0.2405259
125	0x3e7d3f7a	0.24731246
126	0x3e79de8c	0.24401301
127	0x3e6c5ce9	0.23082317
128	0x3e8296e5	0.25505748
129	0x3e8c371c	0.27385795
130	0x3e81cd46	0.25351924
131	0x3e6bfb0d	0.23044987
132	0x3e7a973d	0.24471755
133	0x3e84afb1	0.25915292
134	0x3e89e676	0.2693364
135	0x3e64b97c	0.22336382
136	0x3e7770d9	0.24164142
137	0x3e661ca4	0.22471863
138	0x3e74f6ed	0.2392232
139	0x3e7906a7	0.24318944
140	0x3e8342c3	0.25636873
141	0x3e887995	0.2665526
142	0x3e7d559f	0.24739693
143	0x3e8003a5	0.2500278
144	0x3e756fcf	0.23968433
145	0x3e90ee1a	0.28306657
146	0x3e7bdf22	0.24596837
147	0x3e73eb3d	0.23820205
148	0x3e75bb9f	0.23997353
149	0x3e8e1e1c	0.27757347
150	0x3e6f3c17	0.23362766
151	0x3e7f45be	0.24928948
152	0x3e8d3dc0	0.27586174
153	0x3e7a8a27	0.24466763
154	0x3e8a3444	0.26993
155	0x3e86fcc0	0.26364708
156	0x3e7131b4	0.23554116
157	0x3e813614	0.2523657
158	0x3e7b3e2d	0.24535437
159	0x3e5e6a74	0.21720296
160	0x3e6ede72	0.23327044
161	0x3e8131fa	0.25233442
162	0x3e7e55bc	0.24837393
163	0x3e897ccd	0.26853028
164	0x3e6e7404	0.23286444
165	0x3e68e629	0.22744049
166	0x3e6342b5	0.22193415
167	0x3e6ae33a	0.22938243
168	0x3e80facd	0.25191346
169	0x3e71696f	0.23575376
170	0x3e862cf7	0.2620618
171	0x3e799388	0.24372685
172	0x3e8336d0	0.25627756
173	0x3e705a6b	0.23471992
174	0x3e7a08e0	0.24417448
175	0x3e7b5216	0.24543032
176	0x3e675038	0.22589195
177	0x3e814a59	0.25252035
178	0x3e5e0733	0.21682434
179	0x3e80a30c	0.25124395
180	0x3e78c450	0.24293637
181	0x3e717124	0.23578316
182	0x3e736b1e	0.2377133
183	0x3e7cba92	0.24680546
184	0x3e693722	0.22774938
185	0x3e635d61	0.2220359
186	0x3e7dfc2d	0.24803229
187	0x3e6ff762	0.23434213
188	0x3e5f5a5f	0.21811818
189	0x3e90496d	0.2818102
190	0x3e96aa15	0.29426637
191	0x3e745157	0.23859154
192	0x3e805f18	0.2507255
193	0x3e8375cd	0.25675812
194	0x3e79e498	0.24403608
195	0x3e8a4f53	0.27013645
196	0x3e70605c	0.23474258
197	0x3e866456	0.26248425
198	0x3e8136ac	0.25237024
199	0x3e812293	0.2522169

weight f4 [100, 200]
0	0x3c10ec28	0.008845367
1	0xbd693293	-0.056932997
2	0x3d4e399b	0.050347906
3	0x3ce7a156	0.028275173
4	0xbd136d93	-0.03599317
5	0x3c210f9c	0.009830382
6	0xbafeb4d6	-0.0019432555
7	0x3c8bd4fd	0.017069334
8	0x3d934510	0.07190907
9	0x3c269fca	0.010169933
10	0xbbcee3fc	-0.006313799
11	0xbc1c026a	-0.00952206
12	0xbc0fdf39	-0.008781248
13	0xbd2dd425	-0.042438645
14	0x3d84f550	0.06492102
15	0x3d40d4e7	0.04707804
16	0xbd53e7c3	-0.051734697
17	0x3d6bb9a3	0.057550084
18	0xbd444e93	-0.047926497
19	0x3d2dca38	0.04242918
20	0x3cb6d35c	0.02231758
21	0xbcbc21f8	-0.022965416
22	0xbdb5caa0	-0.08876538
23	0xbd578a7c	-0.052622303
24	0x3d2038b6	0.039116584
25	0x3ca04f92	0.019569192
26	0xbcf39868	-0.029735759
27	0x3c8da42a	0.017290194
28	0xbc6c91ba	-0.014439041
29	0xbd93799b	-0.07200929
30	0x3d2fc68d	0.042913962
31	0xbd09cf10	-0.033644736
32	0x3ce327b2	0.02772889
33	0xbd03e065	-0.03219642
34	0x3c9e0778	0.01929067
35	0x3c978518	0.018496081
36	0x3c178b01	0.00924945
37	0x3d84e9de	0.06489919
38	0xbdba5c4a	-0.09099634
39	0x3d711e6a	0.058866896
40	0x3bcee244	0.006313594
41	0xbd89d1b2	-0.06729449
42	0xbdb86c0f	-0.090049855
43	0xbadf03f8	-0.0017014733
44	0xbd586235	-0.052828033
45	0x3dee9afc	0.11650655
46	0xbcbbcf18	-0.022925898
47	0x3dbe8f36	0.09304659
48	0x3d10c074	0.035339788
49	0xbd9ecab1	-0.07753504
50	0xbd2f17e5	-0.042747397
51	0x3c852d57	0.016256971
52	0xbd2e229e	-0.042513482
53	0xbce255e7	-0.027628852
54	0xbd4132b7	-0.047167506
55	0xbcbc7509	-0.023005025
56	0x3ce20a84	0.027592905
57	0x3c1d42e5	0.009598468
58	0xbaaa22e1	-0.0012980365
59	0x3d492da7	0.049115803
60	0x3c92f14d	0.017937327
61	0x3ccce9ae	0.02501377
62	0x3d063eb3	0.03277464
63	0xbc5229d0	-0.012827352
64	0x3d3d238f	0.04617649
65	0xbc6756fe	-0.014119862
66	0xbc404f4a	-0.011737654
67	0xbd97107e	-0.073761925
68	0x3d50bcd3	0.050961327
69	0x3d3cfeff	0.04614162
70	0x3c5b4670	0.013383493
71	0xbd2af0e9	-0.041733656
72	0x3d3005ec	0.042974398
73	0x3ca00f32	0.019538496
74	0x3c0973b1	0.008389399
75	0xbd2aba29	-0.041681442
76	0x3d93c50a	0.072153166
77	0x3d71260e	0.058874182
78	0xba60e785	-0.0008579421
79	0x3cd2e5b6	0.0257443
80	0x3c8820cf	0.016617207
81	0xbda8e073	-0.08245935
82	0xbd456a89	-0.048197303
83	0x3ce27151	0.027641924
84	0x3c4206b8	0.011842422
85	0xbdab356e	-0.083598
86	0xbd8172dc	-0.06320736
87	0x3c92212a	0.01783808
88	0xbc7920aa	-0.015205542
89	0x3d4251f5	0.04744144
90	0xbd328f80	-0.043593884
91	0x3cffd5f8	0.031229958
92	0xbd27368b	-0.0408235
93	0x3bc7ff62	0.006103442
94	0xbd6780fd	-0.056519497
95	0xbd5eb78a	-0.054374255
96	0xbd98d13d	-0.07461784
97	0xbcf567b4	-0.029956676
98	0xbc3ed996	-0.011648556
99	0x3c887878	0.016659006
100	0x3d33c2ea	0.043887056
101	0x3db0e037	0.086365156
102	0xbc9ebea7	-0.01937802
103	0xbbc6720c	-0.006056076
104	0xbcdfc606	-0.027316105
105	0xbd885981	-0.066576965
106	0x3c013906	0.007887131
107	0x3d54b300	0.05192852
108	0x3cf98184	0.030457266
109	0xbc99ca52	-0.018773232
110	0xbdb337fb	-0.08750912
111	0xbd32a642	-0.043615587
112	0x3c4ef142	0.0126307625
113	0x3d6d3fae	0.057922058
114	0xbc830fa7	-0.015998675
115	0xbcd1ac31	-0.025594803
116	0x3c7976b0	0.015226051
117	0x3d37af47	0.044844892
118	0x3d36ec86	0.04465916
119	0xbd3bc85d	-0.04584538
120	0x3d80e50c	0.06293687
121	0x3c882cc3	0.016622907
122	0xbd1f5137	-0.038895812
123	0xbc290878	-0.0103169605
124	0xbb815146	-0.003946456
125	0x3d628ab3	0.055308055
126	0xbd3c5224	-0.045976773
127	0x3d1903dd	0.0373572
128	0xbbb59b5a	-0.005542201
129	0x3d196470	0.0374493
130	0x3b5666ac	0.0032715006
131	0xbd9ba9ed	-0.0760077
132	0xbd409404	-0.04701616
133	0xbd9d68b1	-0.07685984
134	0x3d508076	0.05090376
135	0x3d9b6f4f	0.0758959
136	0xbd0e1ee6	-0.034697436
137	0x3c8aef5c	0.016959839
138	0x3cc6b6c4	0.024257071
139	0xbdd6e248	-0.104923785
140	0xbb158739	-0.0022816195
141	0x3d135ea8	0.035978943
142	0xbdad055c	-0.08448288
143	0xbd2c0d45	-0.042004842
144	0x3c2cff5a	0.010558927
145	0x3d1e148a	0.038593806
146	0xbc892d10	-0.01674512
147	0x3d814ffb	0.06314083
148	0x3d3b3fe6	0.045715235
149	0xbd16084e	-0.036629014
150	0xbd878275	-0.066166796
151	0x3d32e0dc	0.043671474
152	0xbc865b21	-0.016400876
153	0x3c855786	0.016277086
154	0xbbd5a412	-0.006519803
155	0xbc69517e	-0.014240621
156	0x3c8b133d	0.016976947
157	0xbd2e3d8e	-0.042539172
158	0xbd14ecf3	-0.036358785
159	0x3c1c9bae	0.009558601
160	0xbd859602	-0.06522752
161	0x3cde93f3	0.027170157
162	0x3c8727ed	0.01649853
163	0xbd5fbb1a	-0.054621793
164	0x3d2aeee2	0.041731723
165	0xbcb30f49	-0.021857874
166	0xbcdb8e17	-0.026801152
167	0xbbfbaec6	-0.0076807467
168	0x3b72ba19	0.0037037192
169	0x3d87c080	0.06628513
170	0xbc3906ae	-0.0112930965
171	0x3d98a7c9	0.074538775
172	0x3d8665f0	0.06562412
173	0xbcce8020	-0.02520758
174	0xbc0abbb9	-0.008467608
175	0xbd9b586d	-0.07585225
176	0xbd27ec79	-0.040997002
177	0x3d22f715	0.039786417
178	0xbbfa3832	-0.0076360935
179	0xbccb5744	-0.024821885
180	0xbd1cd3dc	-0.038287982
181	0x3c91aa00	0.017781258
182	0x3d042e2b	0.03227059
183	0xbd7c4f53	-0.061599087
184	0x3d44a266	0.048006438
185	0xbd39c871	-0.04535717
186	0x3d26ee13	0.04075439
187	0xbcd1418d	-0.025543952
188	0xbd3bb2e7	-0.04582491
189	0x3cb61cf5	0.022230605
190	0xbda3fce8	-0.080072224
191	0x3be68c2c	0.0070357528
192	0xbc06fd22	-0.0082390625
193	0xbd3f3be5	-0.04668798
194	0xbd786324	-0.060641423
195	0xbd977039	-0.07394452
196	0xbcc7c64f	-0.024386553
197	0x3d3f545b	0.046711307
198	0x3c50ed0f	0.012751832
199	0xbd1a1769	-0.037619982
200	0xbd157ee3	-0.03649796
201	0xbc2eabd3	-0.010661083
202	0x3d9ff437	0.07810252
203	0x3ca92eae	0.020652141
204	0xbc467b49	-0.012114354
205	0xbc8cc1b6	-0.017182212
206	0xbccc59c0	-0.02494514
207	0xb9740166	-0.00023270174
208	0xbcbb2e32	-0.022849176
209	0x3c09186e	0.008367641
210	0xbc8de24b	-0.017319819
211	0x3d6a450a	0.057194747
212	0xbcac9a74	-0.021069743
213	0xbd38a2e3	-0.045077216
214	0xbc22ca97	-0.0099359965
215	0x3b7a54ab	0.0038197439
216	0xbd7623eb	-0.060092848
217	0xbd69c997	-0.057077017
218	0x3d736d6c	0.059430525
219	0x3db3daa7	0.08781939
220	0x3d683f38	0.056700915
221	0x3d4d7c5c	0.050167426
222	0x3c9435d4	0.018092074
223	0x3d4a0705	0.0493231
224	0x3c754592	0.0149702
225	0xbd94c158	-0.0726344
226	0xbd83ccdc	-0.06435558
227	0x3c4903d9	0.012268984
228	0x3b506f6a	0.003180469
229	0x3dbfcf9a	0.09365769
230	0x3d310aa9	0.043223057
231	0x3d990412	0.074714795
232	0xbd8e8015	-0.069580235
233	0x3bbc1015	0.005739222
234	0x3d8265ec	0.06367096
235	0xbca0bb40	-0.019620538
236	0x3d04fb2b	0.032466095
237	0x3ca675a2	0.020319764
238	0xbd1b0fc7	-0.037856843
239	0x3c713cfa	0.014724011
240	0x3beb14fc	0.0071741324
241	0x3c436b11	0.011927382
242	0x3daa8d09	0.083276816
243	0xbd969005	-0.07351688
244	0x3d54e6f5	0.05197807
245	0x3d27d499	0.040974233
246	0x3d266980	0.040627956
247	0x3d4b610c	0.049653098
248	0x3ccd86db	0.025088718
249	0xbd5026ff	-0.05081844
250	0xbd1a89f6	-0.037729226
251	0x3d860b88	0.06545168
252	0xbb0ef0b5	-0.0021810953
253	0x3c95a041	0.018264892
254	0x3bae496a	0.00531881
255	0x3d774777	0.06037089
