models/agModels-predicttop10_votes/models/NeuralNetTorch_BAG_L1/S13F5/net.params (torch, 248949 bytes, 16 tensors)

weight f4 [6, 4]
0	0xbf93f3ad	-1.1558739
1	0xbf95e77d	-1.171127
2	0xbe8f71a8	-0.280164
3	0xbeddb8cb	-0.43305048
4	0x3f5ac048	0.8544965
5	0x3f28ce31	0.65939623
6	0xbeb2c255	-0.3491389
7	0xc00bd90f	-2.1851232
8	0x3ef7bbcc	0.48385465
9	0xbe648fc3	-0.22320466
10	0x3fc45431	1.5338193
11	0x3e9b7b4d	0.3036751
12	0x3e0daa50	0.138345
13	0x3f67e361	0.9058133
14	0xbe22bcea	-0.15892377
15	0xbda61de2	-0.081111684
16	0x3f7cecf9	0.9879909
17	0x3f9e3b99	1.2361938
18	0x400178c4	2.022996
19	0x3d1c591d	0.038170923
20	0x3ed38699	0.41313627
21	0xbe6142d1	-0.21998145
22	0xbf213c6f	-0.6298284
23	0xc00603de	-2.093986

weight f4 [6, 4]
0	0xbe646a59	-0.22306193
1	0xbf3d3b3c	-0.7391851
2	0x3f0891d9	0.53347546
3	0x3e5ff913	0.21872358
4	0xbdc254de	-0.094888434
5	0xbf2b9e08	-0.6703801
6	0x3f7d03bd	0.9883383
7	0x3efc6405	0.4929506
8	0xbf115390	-0.5676813
9	0x3f652f18	0.89524984
10	0x3f977136	1.1831424
11	0x3fae5155	1.361857
12	0xbfbe658b	-1.4874738
13	0x40253a11	2.581669
14	0xbf04a6c0	-0.5181694
15	0x3e9dc08c	0.30810964
16	0xbfde6efd	-1.7377621
17	0xbf1f1723	-0.6214468
18	0xbf07af6d	-0.53002053
19	0xbefed68d	-0.49773064
20	0xbf5a22fe	-0.85209644
21	0x3f66440b	0.89947575
22	0xbc6cf849	-0.014463493
23	0x3f186423	0.59527797

weight f4 [6, 4]
0	0xbde88b4d	-0.113546945
1	0x3f2c7ba2	0.6737615
2	0xbf6122a6	-0.87943494
3	0xbb6edb5f	-0.0036446673
4	0x3f5ab5d8	0.8543372
5	0xbeb5e765	-0.35528103
6	0x3f8b3b3b	1.0877451
7	0x3edd0f2e	0.43175644
8	0x3d5f7824	0.054557934
9	0x3f8d45b8	1.1036901
10	0x3e969454	0.2941004
11	0x3eea5787	0.45769903
12	0xbf52f565	-0.8240569
13	0xbfa4e43a	-1.2882149
14	0xbf400e54	-0.75021863
15	0xbfabd10a	-1.3423169
16	0x3e90118b	0.28138384
17	0xbeb9f2f8	-0.36318183
18	0xbef97038	-0.4871843
19	0x3e443b8d	0.19163342
20	0x3f162c43	0.5866129
21	0xbd1591b2	-0.0365159
22	0xbe39ee5e	-0.18157336
23	0xbf7e6a01	-0.993805

weight f4 [6, 4]
0	0xbf3d6e13	-0.73996085
1	0x3f85ce23	1.0453533
2	0xbf1ab168	-0.6042695
3	0xbfa1abc7	-1.2630547
4	0x3d8a0978	0.06740087
5	0xbf38f26d	-0.7224491
6	0x3f268b7d	0.6505659
7	0xbf44dba2	-0.76897633
8	0xbe7bef96	-0.24603114
9	0x3db3b332	0.08774413
10	0x3e5abed6	0.2136186
11	0x3f9bdcb3	1.2176727
12	0x3e993d07	0.29929373
13	0x3ed63c34	0.41842806
14	0xbe498860	-0.19680929
15	0xbde282e2	-0.1106012
16	0x3e36c2e9	0.1784779
17	0xbf47b71c	-0.7801378
18	0xbff5ecf1	-1.9212934
19	0x3e192e35	0.14959033
20	0xbefe2db8	-0.49644256
21	0x3e089a9f	0.13340233
22	0x3cb25d73	0.021773076
23	0x3e47d922	0.19516423

weight f4 [6, 4]
0	0x3f764f41	0.9621468
1	0xbf83c14d	-1.0293366
2	0x3e948cea	0.2901376
3	0xbe09e77f	-0.13467215
4	0x3f754ec5	0.9582332
5	0xbf0777e5	-0.5291732
6	0x3f4d83e5	0.8027938
7	0x3f1f125a	0.6213738
8	0x3f82e057	1.0224713
9	0xbfbddc05	-1.483277
10	0x3f1ec850	0.620244
11	0x3e20d2d2	0.15705422
12	0x3dd5b3e4	0.10434702
13	0xbf4ff75a	-0.81236804
14	0x3f1b311d	0.60621816
15	0xbff5c093	-1.9199394
16	0x3faf2838	1.3684149
17	0xbe0367d6	-0.12832579
18	0x3f3f945f	0.7483577
19	0x3f81602b	1.0107473
20	0x3e630b5a	0.22172299
21	0xbfa5237e	-1.2901456
22	0x3fe84bcb	1.814813
23	0x3c35f683	0.011106136

weight f4 [26, 9]
0	0xbf19b6b6	-0.6004442
1	0xbfd93040	-1.696785
2	0xbf14bab4	-0.58097386
3	0xbf131efc	-0.57469153
4	0xbf1fb48d	-0.62384874
5	0xbfc5d66e	-1.5456064
6	0xbf49806a	-0.7871157
7	0xc0064d36	-2.0984626
8	0xbf85fac5	-1.0467154
9	0xbf3ab1a5	-0.72927314
10	0xbd5a9fa3	-0.053374898
11	0x3e956f8a	0.2918666
12	0xbe83baf6	-0.25728577
13	0x3fa1726e	1.2613046
14	0x3d0c25b4	0.034215644
15	0xbf646948	-0.89223146
16	0x3eef63fa	0.46755964
17	0xbd6c60aa	-0.057709374
18	0x3facdaf5	1.350432
19	0xbe7c0e3b	-0.24614803
20	0xbf0a2e56	-0.53976953
21	0xc0396c88	-2.8972492
22	0xbfc3982d	-1.5280815
23	0x3f83d38d	1.0298935
24	0x3e51066c	0.20412606
25	0xbf412318	-0.75444174
26	0x3fdef401	1.7418214
27	0x3eb07c1f	0.34469697
28	0x3f78f196	0.9724363
29	0x3fb5ea44	1.4212117
30	0xbdb3b373	-0.087744616
31	0xbf254a29	-0.64566284
32	0xbf349a15	-0.7054761
33	0x3fe5ec63	1.7962765
34	0xbf64fc90	-0.8944788
35	0xbf21a8f1	-0.6314841
36	0x3d818631	0.06324423
37	0x3f0e1625	0.5550254
38	0x3f00ef8f	0.5036554
39	0x3f9d7c49	1.2303554
40	0xbf854a36	-1.0413272
41	0xbfe68195	-1.8008295
42	0x3fc9cf2b	1.5766348
43	0xbc83715b	-0.016045263
44	0xbfcd3d6d	-1.6034371
45	0x3d2944b6	0.041325293
46	0xbf2a260f	-0.6646432
47	0x3f343092	0.7038661
48	0x3f916337	1.1358403
49	0xbdb9ed35	-0.09078447
50	0xbc8f10fa	-0.01746415
51	0x3f299d6b	0.66255826
52	0x3f05d730	0.52281475
53	0x3e5fe4da	0.21864644
54	0x3dd1218d	0.102114774
55	0x3f1565d0	0.5835848
56	0x3de36e9a	0.1110508
57	0xbf6f58e1	-0.93494993
58	0x3f2ae5f5	0.66757137
59	0x3f958423	1.168095
60	0x40047d0b	2.070132
61	0xbf6dddc4	-0.9291651
62	0xbf290548	-0.66023684
63	0xbf25b2a7	-0.64725727
64	0x3fc4dd24	1.5379987
65	0xbf460ae3	-0.7736036
66	0x3de09d93	0.10967555
67	0x3faa4342	1.3301775
68	0x40013086	2.0185866
69	0x3f34f092	0.7067958
70	0xbf32b22f	-0.69803137
71	0xbee9aca3	-0.45639524
72	0x3e7a70f0	0.24457145
73	0xbf18af36	-0.5964235
74	0x3f705144	0.93874
75	0x3efaaeab	0.48961386
76	0xbf592085	-0.84815246
77	0x3fa7ea34	1.3118348
78	0x3e909e65	0.28245845
79	0xbf10b29c	-0.56522536
80	0xbf6f7e18	-0.9355178
81	0xbf213143	-0.6296579
82	0x3df2b356	0.11850612
83	0xbf8c2857	-1.0949811
84	0xbf3b85b6	-0.732509
85	0xc00f29d8	-2.236929
86	0xbf3b29d1	-0.7311068
87	0x3f0942cf	0.53617567
88	0x3f464e31	0.7746306
89	0x3d6edc6e	0.058315687
90	0x3ec7b0f6	0.39002198
91	0xbff28c99	-1.8949157
92	0xbf959ae9	-1.16879
93	0x3dacb362	0.08432652
94	0x3f1d65ae	0.61483276
95	0x3faa2248	1.3291712
96	0xbfc6719f	-1.5503424
97	0x3ed0f995	0.40815416
98	0xbfb09945	-1.3796774
99	0xbe3357a1	-0.17513897
100	0xbe8b4476	-0.2720067
101	0xbf967ae0	-1.1756248
102	0x3f3106f4	0.69151235
103	0xbfa42aff	-1.2825621
104	0xbf8b3bf8	-1.0877676
105	0x3ea9cadd	0.33162585
106	0xbf45df0c	-0.7729347
107	0xbf6e0c32	-0.9298736
108	0xbf4cf0c3	-0.80054873
109	0x3ef2f762	0.47454363
110	0x3eb4fdda	0.35349923
111	0x3f197eb2	0.59958947
112	0xbfb77783	-1.4333347
113	0xbf5d7ea1	-0.86521345
114	0x3fa22b7f	1.2669524
115	0xbfea9a5e	-1.8328359
116	0x3eca7959	0.39545706
117	0x3f8f785a	1.1208603
118	0x3ee1c018	0.44091868
119	0xbf9444f4	-1.1583543
120	0xbed9c636	-0.42534035
121	0xbe914097	-0.2836959
122	0x3f7c70b5	0.9860948
123	0xbeeef575	-0.46671644
124	0xbf292422	-0.6607076
125	0xbec06624	-0.37577927
126	0xbfb5f1b5	-1.4214388
127	0xbf06db80	-0.5267868
128	0x3f9cb54e	1.224283
129	0x3f575652	0.8411609
130	0x3eb6b44b	0.35684428
131	0x3eae073b	0.3398989
132	0xc03438bc	-2.8159628
133	0xbf4ec0c9	-0.80762917
134	0x3ee6cea6	0.45079535
135	0x3e9ce996	0.30646962
136	0xbf98f54f	-1.1949862
137	0xbbadbd60	-0.0053021163
138	0xbe16402e	-0.1467292
139	0xbe786f2c	-0.24261159
140	0x4017bccb	2.370898
141	0x3fd43b30	1.6580563
142	0xbe8f703a	-0.2801531
143	0xbfc8ea9e	-1.56966
144	0xbf0a5a14	-0.540437
145	0xbf5555a0	-0.8333378
146	0xbfb37b3b	-1.4021982
147	0xbed25d07	-0.410866
148	0xbe975743	-0.29558763
149	0xbdd225a7	-0.10261088
150	0x3f0c271f	0.54747194
151	0xbfce73bb	-1.6129068
152	0x3ec94050	0.3930688
153	0xc011d19f	-2.2784193
154	0xbf5f8098	-0.87305593
155	0xbfd5cb0f	-1.6702594
156	0x3f0d3f06	0.5517429
157	0xbfb9477b	-1.4474939
158	0x3f3f730f	0.7478494
159	0xbfaf807a	-1.3711083
160	0x3ec9a8a4	0.39386475
161	0xbddaac73	-0.10677423
162	0x3e537372	0.20649508
163	0x3fa07f69	1.2538882
164	0x3f9f8dc1	1.2465135
165	0xbdfd7690	-0.123761296
166	0x400afcc3	2.1716774
167	0x3d5bd402	0.053668983
168	0x3efddbc2	0.49581724
169	0x3d9e83c3	0.07739975
170	0x3edcf843	0.4315816
171	0xbfe01e71	-1.750929
172	0x3f9b6db8	1.2142859
173	0x402847bb	2.629378
174	0x3e519d52	0.20470169
175	0x3ea15061	0.31506637
176	0xbf90e42a	-1.131963
177	0x400cc510	2.1995277
178	0x3e0ab3e0	0.1354518
179	0x3f52e71b	0.8238389
180	0xbf8c0116	-1.0937831
181	0xbdc932fe	-0.09824179
182	0xbfbe2f9d	-1.485828
183	0xbfdecf97	-1.7407101
184	0xbff2533b	-1.893165
185	0x3d3351ac	0.04377906
186	0xbfff505e	-1.9946401
187	0xbffc4f1e	-1.9711645
188	0x40069a79	2.1031783
189	0xbf721928	-0.94569635
190	0xbf195a3d	-0.5990332
191	0x3fd7df71	1.6865064
192	0x3eba6837	0.36407635
193	0xbf428564	-0.7598479
194	0x3c2c0e2f	0.0105014285
195	0x3fe14a19	1.7600738
196	0xbf211e1b	-0.6293656
197	0x3f4481d2	0.7676059
198	0x3f497dda	0.7870766
199	0x3fbd2edd	1.4779927
200	0xbf0d207a	-0.5512768
201	0xbd2ec049	-0.042663846
202	0x3ed76ff8	0.42077613
203	0xbedaf91e	-0.42768186
204	0xc00056c1	-2.005295
205	0x3f24fa7a	0.64444697
206	0xbe2eeefc	-0.17083353
207	0xbfbf9468	-1.4967165
208	0xbf1b58ef	-0.60682577
209	0xbfbffd92	-1.4999259
210	0xbf3e8dca	-0.744351
211	0x3f8454ac	1.033834
212	0xc015be72	-2.3397489
213	0x3efd467e	0.49467844
214	0xbf009854	-0.50232434
215	0xbdaf00e9	-0.085450955
216	0x3f330adc	0.69938445
217	0x3f818b74	1.0120683
218	0xbef2b117	-0.47400734
219	0x3ef88bbb	0.48544106
220	0x3fb2bf4f	1.3964633
221	0x3ef23a95	0.4731032
222	0xbf050b6a	-0.5197054
223	0xbe70f21b	-0.23529856
224	0xbe0f1b0c	-0.13975161
225	0x3cc08e7b	0.02350544
226	0x3e303559	0.1720785
227	0xbf0b657a	-0.54451716
228	0x3d86fba9	0.06590969
229	0xbdad24b0	-0.08454263
230	0x3fae2e3a	1.3607857
231	0xbd9d7bfa	-0.07689662
232	0xb339d351	-4.326586e-08
233	0x37e2cfc1	2.7038042e-05

weight f4 [128, 76]
0	0x3de16996	0.11006467
1	0x3db5c4fb	0.08875462
2	0x3df1998a	0.117968634
3	0x3d17be2c	0.037046596
4	0xbddf6e68	-0.1090973
5	0x3dd03da7	0.10168009
6	0x3d11a4b1	0.035557453
7	0x3d4d9e9a	0.050200082
8	0xbdd4f52b	-0.103983246
9	0xbd9b89a1	-0.0759461
10	0xbde5ef9d	-0.11227343
11	0x3cd08c97	0.025457663
12	0x3ca9bcd7	0.020719929
13	0xbde7a5a3	-0.113108896
14	0x3d37071e	0.04468452
15	0x3b0b09ec	0.002121563
16	0x3c856165	0.016281793
17	0xbd959226	-0.07303266
18	0xbdb6c31d	-0.08923934
19	0xbd1b5ba6	-0.0379292
20	0x3d59cc9d	0.05317365
21	0x3dfe0647	0.12403541
22	0x3da8dc24	0.082451135
23	0xbc52ba6b	-0.012861828
24	0x3d217f57	0.03942808
25	0xbdebd4c1	-0.11515189
26	0xbdc6e54a	-0.09711702
27	0x3d80c13c	0.062868565
28	0xbd830f0b	-0.063993536
29	0x3d641c44	0.05569102
30	0xbd9f5bd3	-0.07781186
31	0xbd589b4c	-0.052882478
32	0xbdc6dc8c	-0.09710035
33	0x3d776ac3	0.06040455
34	0xbc8636a9	-0.016383486
35	0x3db2ba83	0.087269805
36	0x3d7fe21e	0.0624715
37	0x3d8fba00	0.070178986
38	0x3c2c200a	0.010505686
39	0xbd0026bf	-0.03128695
40	0xbccdaab2	-0.025105808
41	0x3c947814	0.018123664
42	0x3dacbcfd	0.08434484
43	0xbd4b2a4d	-0.049600888
44	0x3de5f730	0.11228788
45	0xbccc05ee	-0.024905171
46	0xbe0b2c76	-0.13591179
47	0xbd861a70	-0.06548011
48	0x3db9793a	0.09056325
49	0x3e04fb2d	0.12986441
50	0xbdb91067	-0.090363316
51	0x3d36bfb8	0.04461643
52	0x3dc49ee6	0.0960062
53	0x3cc3285f	0.023822961
54	0x3dbdc800	0.092666626
55	0xbd8e9c0e	-0.06963359
56	0x3d0ea799	0.034827802
57	0x3d0ef1d1	0.034898583
58	0xbd1e3377	-0.0386233
59	0x3d68d2e0	0.05684173
60	0xbc318f68	-0.010837413
61	0x3cdf2894	0.027241029
62	0xbc4c450a	-0.012467632
63	0xbd414beb	-0.04719154
64	0x3c913421	0.017725052
65	0x3d2278a7	0.039665844
66	0xbda067b3	-0.07832279
67	0xbd6b1dbf	-0.057401415
68	0x3d807676	0.06272595
69	0xbcc06c4b	-0.023489138
70	0x3cf957dc	0.030437402
71	0xbca8a258	-0.020585224
72	0xbca4043e	-0.020021554
73	0xbd4bf27c	-0.049791798
74	0xbda41040	-0.08010912
75	0xbdc34322	-0.09534289
76	0x3e0243ce	0.12721178
77	0xb995ddc4	-0.00028584723
78	0x3c686165	0.014183377
79	0xbd5a5153	-0.053300213
80	0x3dd56fe2	0.104217306
81	0x3df6b71c	0.12046644
82	0xbd3feb80	-0.04685545
83	0xbdc62377	-0.09674733
84	0xbdc49568	-0.095988095
85	0xbcdf5cb6	-0.027265888
86	0xbb937308	-0.004499797
87	0xbdbce89f	-0.092240565
88	0xbd301016	-0.04298409
89	0x3b87e86a	0.004147579
90	0xbd106201	-0.035249714
91	0xbb6b52e0	-0.0035907552
92	0xbc8996dc	-0.016795568
93	0xbd179c66	-0.037014388
94	0x3c960cde	0.018316682
95	0x3dcc11a7	0.099643044
96	0xbd841bea	-0.06450637
97	0x3c8b2d8b	0.01698949
98	0xbcf39ce2	-0.029737893
99	0x3dfe2722	0.12409808
100	0xbdc3c9ed	-0.09559999
101	0xbdd11274	-0.10208598
102	0x3e0041d9	0.12525119
103	0xbd7ee505	-0.06223013
104	0x3d06b6df	0.032889243
105	0x39908a78	0.00027568988
106	0xbc73b1c3	-0.014873925
107	0xbc0dc95b	-0.008653964
108	0x3da567e2	0.08076455
109	0x3c181471	0.009282217
110	0xbdd40e9d	-0.1035435
111	0xbd6f66d1	-0.058447663
112	0xbd145988	-0.036218196
113	0x3d8611f5	0.06546394
114	0xbd88b0e0	-0.06674361
115	0x3dd37b09	0.103262015
116	0xbc6b31cb	-0.014355133
117	0xbc165aa2	-0.009176882
118	0x3dc408cf	0.095719926
119	0x3d72e625	0.059301514
120	0x3de6f33e	0.112768635
121	0x3dea22ba	0.11432405
122	0xbe0eacce	-0.13933107
123	0xbdce835d	-0.10083649
124	0xbc0808bb	-0.008302863
125	0x3d9ec268	0.07751924
126	0xbc8ce13c	-0.017197244
127	0xbe04ab1e	-0.12955901
128	0x3d4bcd99	0.04975662
129	0x3d63cae7	0.055613425
130	0xbd9f4c8f	-0.07778274
131	0xbdc4fc10	-0.096183896
132	0xbdd73300	-0.10507774
133	0x3d160c89	0.03663305
134	0xbc3f22b7	-0.0116659915
135	0xbd277548	-0.040883332
136	0x3d24016d	0.040040422
137	0x3cf3462b	0.029696545
138	0x3da4e556	0.08051555
139	0x3dbb3596	0.0914108
140	0xbcc02c85	-0.023458729
141	0xbde421c4	-0.11139253
142	0xbdbdac55	-0.09261385
143	0x3e03e9f2	0.12882212
144	0x3d521382	0.051288135
145	0x3d7cbf88	0.061706096
146	0xbe0d2355	-0.1378301
147	0x3df724c8	0.12067562
148	0x3dbd3486	0.09238534
149	0x3e00e5a0	0.12587595
150	0xbdd1b197	-0.10238951
151	0xbd255698	-0.040365785
152	0xbc29276b	-0.010324339
153	0x3e281442	0.16413978
154	0xbcf38972	-0.029728625
155	0xbd51bc51	-0.051204983
156	0x3d5484be	0.051884405
157	0xbc6f0273	-0.014587986
158	0xbd227284	-0.03965999
159	0xbc5049d0	-0.012712911
160	0xbcb2f650	-0.021845967
161	0xbdab5bad	-0.08367095
162	0x3dbd7580	0.09250927
163	0xbd2c0247	-0.04199436
164	0xbbf85776	-0.0075787855
165	0x3de16d70	0.11007202
166	0x3dbf8779	0.09352011
167	0xbcd879b5	-0.026425222
168	0x3dc49a2c	0.095997185
169	0x3c9c94b0	0.019113868
170	0xbd5a0d33	-0.053235244
171	0x3ddf7337	0.10910647
172	0x3d0d59e0	0.03450954
173	0xbdd080f5	-0.101808466
174	0xbc40d45e	-0.011769382
175	0xbd998859	-0.074967094
176	0x3dd68af9	0.10475726
177	0xbc8c8e2f	-0.017157642
178	0xbdcd6e1f	-0.100307696
179	0xbb86aa37	-0.0041096467
180	0x3d9d8ec9	0.0769325
181	0x3d0fa74e	0.035071664
182	0x3d2780f8	0.04089448
183	0x3ccfa0ef	0.025345294
184	0x3d367a45	0.0445502
185	0xbcad0ffd	-0.021125788
186	0xbd3f1d75	-0.04665895
187	0xbddcf085	-0.10788063
188	0xbdd8c5c5	-0.105845965
189	0x3d78b581	0.06071997
190	0xbd69f802	-0.057121284
191	0xbd035ba1	-0.032069806
192	0x3d0772da	0.033068515
193	0x3beb12cd	0.007173872
194	0xbda8e943	-0.08247616
195	0x3dce13a9	0.100623436
196	0xbd1cf643	-0.03832079
197	0x3dc7a37f	0.09747981
198	0xbe314104	-0.17309958
199	0xbd7bf006	-0.0615082
200	0x3d51f216	0.05125626
201	0xbd74cd66	-0.059766196
202	0x3e047e49	0.12938799
203	0xbddaa24a	-0.106754854
204	0xbdadd445	-0.08487753
205	0xbdfb489d	-0.12269709
206	0xbd0796e1	-0.033102874
207	0x3e07fa90	0.13279176
208	0xbd15a817	-0.036537256
209	0x3d7b38a4	0.061333314
210	0xbb63f7e4	-0.0034785205
211	0xbc20dc8d	-0.009818208
212	0x3dd68b03	0.10475733
213	0xbdf2cd4a	-0.11855562
214	0x3c0e4339	0.008683019
215	0x3db5d7cf	0.08879053
216	0xbc41a8cc	-0.0118200295
217	0x3dabe977	0.08394139
218	0xbd5a37da	-0.05327592
219	0x3d86ed54	0.065882355
220	0xbde69995	-0.11259762
221	0xbccce172	-0.025009844
222	0xbd066a56	-0.032816254
223	0x3d9b7483	0.07590582
224	0x3c7f271e	0.015573291
225	0x3daef374	0.08542529
226	0xbae7e69c	-0.0017692628
227	0xbd01fc6a	-0.03173486
228	0x3e0eb157	0.13934837
229	0x3d624f56	0.055251442
230	0x3dfd35ca	0.12363775
231	0xbd7620c5	-0.060089845
232	0xbbfb5dd2	-0.0076710964
233	0xbcdfa044	-0.0272981
234	0x3d474551	0.04865009
235	0x3d9a59bb	0.07536646
236	0xbd0adb54	-0.033900574
237	0xbdad9acb	-0.0847679
238	0x3d216df9	0.03941152
239	0x3d6acb90	0.05732304
240	0x3c974d0a	0.018469352
241	0xbdcd7aef	-0.10033213
242	0x3dcde254	0.10052934
243	0x3e06021e	0.13086745
244	0x3d18755e	0.037221305
245	0xbdc78e4d	-0.097439386
246	0x3da69d1e	0.081354365
247	0xbdaaab38	-0.08333439
248	0x3cea7a9b	0.028622916
249	0x3cb54019	0.02212529
250	0xbd392134	-0.04519768
251	0x3d26d629	0.040731583
252	0xbdca6a54	-0.09883562
253	0x3cf5242e	0.029924478
254	0xbd8e46aa	-0.06947072
255	0xbb92264d	-0.004460132

bias f4 [128]
0	0xbd89a77e	-0.067214
1	0xbd91cfb8	-0.07119697
2	0xbda4a15f	-0.080385916
3	0x3d6765ef	0.056493696
4	0x3c3337be	0.010938583
5	0xbbeb85dc	-0.007187588
6	0x3ce04817	0.027378125
7	0x3d626239	0.055269454
8	0x3bf0d5d2	0.007349708
9	0x3d7a129b	0.0610529
10	0xbc804dec	-0.015662156
11	0x3cfd5b19	0.030927228
12	0x3d0b5d26	0.03402438
13	0xba9a35a8	-0.0011765258
14	0x3dba0945	0.09083799
15	0x3de1d4e3	0.11026933
16	0x3daeea35	0.08540765
17	0xbcc1a312	-0.023637328
18	0xbcbb77a1	-0.022884192
19	0x3dd026bc	0.10163638
20	0xbd555188	-0.052079707
21	0x3bf6cd3a	0.007531789
22	0xbd928aa1	-0.071553476
23	0xbd04ff85	-0.032470245
24	0xbd3ae65a	-0.045629837
25	0x3d8a2726	0.06745748
26	0xbd59aa15	-0.05314072
27	0xbd8d0e61	-0.06887508
28	0x3d2bc4a3	0.041935574
29	0xbbf8d7c3	-0.00759408
30	0x3c9c2809	0.019062059
31	0xbdb01772	-0.08598222
32	0xbd40af40	-0.04704213
33	0x3d6b8680	0.057501316
34	0x3d7e3cb0	0.062069595
35	0xbdd3557c	-0.10319039
36	0xbd95e454	-0.07318941
37	0x3d263475	0.04057737
38	0xbdd13db0	-0.10216844
39	0xbd64e41e	-0.055881612
40	0xbd97bdb0	-0.07409227
41	0xbdc84c35	-0.0978016
42	0xbd6553c9	-0.055988107
43	0x3da06053	0.078308724
44	0xbdefcdee	-0.117092
45	0x3da20722	0.07911517
46	0xbddd7998	-0.10814208
47	0xbd063860	-0.032768607
48	0xbd243fbc	-0.040099844
49	0x3d785662	0.060629256
50	0xbdcd1481	-0.100136764
51	0xbd82252c	-0.06354746
52	0xbde017b4	-0.10942021
53	0xbb3b3de0	-0.0028570816
54	0x3d3c07e9	0.04590598
55	0x3dcb8a9e	0.099385485
56	0x3db105b3	0.08643665
57	0xbce5945f	-0.02802485
58	0xbd899c0d	-0.067192174
59	0x3ccc80b5	0.024963716
60	0x3d7ebe06	0.06219294
61	0x3dd41356	0.103552505
62	0x3d92ae8b	0.07162198
63	0x3b5c3b3f	0.003360465
64	0xbdd293de	-0.1028211
65	0xbd89c3b6	-0.06726782
66	0x3d81a77a	0.06330772
67	0xbda62071	-0.081116565
68	0xbdbd4548	-0.0924173
69	0xbd9528dd	-0.07283185
70	0xbceea91c	-0.029133372
71	0x3d45fd39	0.048337195
72	0x3d9faf89	0.077971525
73	0x3dcc6c19	0.099815555
74	0x3d780b10	0.060557425
75	0x3c016495	0.007897516
76	0xbcc41a1d	-0.023938233
77	0xbd9dab17	-0.076986484
78	0xbd6bd05d	-0.057571758
79	0xbc389bae	-0.011267586
80	0x3dbd4358	0.092413604
81	0xbcb2d68e	-0.021830823
82	0xbc9455b8	-0.01810728
83	0xbb8470d2	-0.0040417695
84	0xbd52838b	-0.05139498
85	0xbd852f99	-0.06503219
86	0x3d482f77	0.04887339
87	0xbdbd8c6f	-0.09255301
88	0xbba0ba8f	-0.004905052
89	0xbc138291	-0.009003297
90	0x3c83ae99	0.016074466
91	0xbc6eb714	-0.014570016
92	0xbd696454	-0.056980446
93	0xbcf56e39	-0.029959785
94	0xbd240e91	-0.040052954
95	0x3d210310	0.03930956
96	0x3c8196e6	0.015819024
97	0xbd0f61bf	-0.035005327
98	0x3dbc2466	0.0918663
99	0x3adcde01	0.001685083
100	0x3d534313	0.05157764
101	0xbd0d858e	-0.034551196
102	0xbdd17f34	-0.1022934
103	0xbdd7e5b3	-0.105418585
104	0xbd31a76e	-0.043372564
105	0x3d7f2c50	0.06229812
106	0x3d5897f5	0.052879293
107	0x3d56f4ef	0.05247968
108	0x3d36400f	0.044494685
109	0xbd8d11a1	-0.06888128
110	0xbd088b4d	-0.033335973
111	0x3c786464	0.015160654
112	0xbde15a04	-0.11003497
113	0xbdb61e38	-0.088924825
114	0xbd9c86ac	-0.07642874
115	0x3cab36d8	0.020900175
116	0xbccfe382	-0.025377039
117	0xbc92490a	-0.017857093
118	0x3d80ba80	0.06285572
119	0xbd91dc7f	-0.071221344
120	0xbd9373e6	-0.0719984
121	0xbca2c59a	-0.019869614
122	0x3d6a87fd	0.057258595
123	0x3c177558	0.0092442855
124	0xbdca520c	-0.098789304
125	0x3da1652e	0.078806266
126	0xbda17772	-0.078841105
127	0x3da6294b	0.08113345

weight f4 [128, 128]
0	0x3cb5a015	0.02217106
1	0x3c517abc	0.01278561
2	0x3d7146fa	0.05890558
3	0x3cef3afe	0.029202934
4	0xbdbee5a3	-0.093211435
5	0x3c44795c	0.011991825
6	0x3d996bdd	0.074912764
7	0xbd7f774c	-0.06236963
8	0x3d68fbc8	0.056880742
9	0x3d7bacce	0.061444096
10	0xbca8360b	-0.020533582
11	0xbc28a046	-0.010292118
12	0xbca2a4d9	-0.019853996
13	0x3da9b223	0.0828593
14	0x3c4fd503	0.012685063
15	0x3d864d7b	0.06557747
16	0xbdab6114	-0.083681256
17	0xbd6c3f05	-0.057677288
18	0xbd54aa25	-0.051920075
19	0x3d1ebe00	0.038755417
20	0xbd4a4e7f	-0.049391266
21	0x3c54453b	0.012955959
22	0x3d0b6090	0.034027636
23	0xbd0e3d33	-0.034726333
24	0x3bcaa3de	0.0061840853
25	0xbd8f637d	-0.07001398
26	0xbc4370ab	-0.011928718
27	0x3b512806	0.0031914725
28	0x3d75b3d3	0.059985947
29	0x3d144c86	0.03620579
30	0x3cbefc9d	0.023313815
31	0x3cec0dc8	0.028815165
32	0x3d6c488c	0.057686374
33	0x3b6953aa	0.0035602846
34	0x3de19b41	0.110159405
35	0xbd733615	-0.05937775
36	0x3d1aa192	0.03775174
37	0x3bdb9540	0.0067011416
38	0x3d5eb254	0.054369286
39	0xbdb6c38a	-0.08924015
40	0x3d11bdde	0.035581462
41	0xbdaed80d	-0.08537302
42	0xbd13fd0b	-0.036129992
43	0xbc0b53b3	-0.008503842
44	0xbd19734c	-0.03746347
45	0xbd2ac000	-0.04168701
46	0xbda1285e	-0.078690276
47	0xbda1feaf	-0.07909905
48	0xbc8dddec	-0.017317735
49	0x3d718418	0.058963865
50	0xbced4c74	-0.02896712
51	0xbdaba66c	-0.08381352
52	0xbd33ace7	-0.043866064
53	0xb9e37cdd	-0.00043389844
54	0xbc9e6c0d	-0.019338632
55	0x3d78fcbd	0.060787905
56	0xbdbb55f9	-0.09147257
57	0x3d1e2603	0.03861047
58	0x3d55bf75	0.05218454
59	0x3d481687	0.04884961
60	0xbd83ee22	-0.064419046
61	0xbbba10ea	-0.005678286
62	0x3d4ac101	0.04950047
63	0xbd583fb7	-0.05279514
64	0x3d53fb55	0.05175336
65	0x3ad9d399	0.0016618847
66	0xbdab7e97	-0.083737545
67	0xba983451	-0.0011612271
68	0xbb6406e6	-0.003479415
69	0xbce308a1	-0.027714076
70	0xbd42e454	-0.047581032
71	0xbd0cf013	-0.03440864
72	0x3cbcd221	0.023049416
73	0x3d373df6	0.044736825
74	0xbde3abe9	-0.11116774
75	0xbc571edc	-0.013129916
76	0x3c8f781f	0.017513333
77	0x3da03af6	0.07823746
78	0x3d18c1e2	0.037294276
79	0x3d3271a5	0.04356541
80	0x3c9a0e24	0.01880557
81	0x3c84c3b3	0.016206598
82	0xbd650c66	-0.055920027
83	0xbd0979a6	-0.03356328
84	0x3cf651ea	0.030068357
85	0xbcc56ca9	-0.024099665
86	0x3dd2034c	0.10254535
87	0xbd84a5d2	-0.0647694
88	0x3cdbd825	0.026836464
89	0x3d8abc46	0.067741916
90	0x3d32282b	0.04349534
91	0x3dacd76b	0.08439525
92	0xbd845ed5	-0.064634
93	0x3d1068cd	0.035256196
94	0xbdbef1f5	-0.093234934
95	0xbd77cec7	-0.060499933
96	0xbc80f3f3	-0.015741324
97	0x3d856c98	0.06514853
98	0x3991dbc8	0.00027820305
99	0xbda958ae	-0.082688674
100	0xbd93b6a5	-0.07212571
101	0x3b093579	0.0020936413
102	0xbc0b5701	-0.00850463
103	0x30b7ae01	1.3364457e-09
104	0xbd381cc9	-0.044949327
105	0x3cc1f513	0.02367643
106	0x3b82bb0a	0.003989582
107	0xbc73f2f3	-0.014889467
108	0x3cdedeaa	0.027205784
109	0xbd2c914c	-0.042130753
110	0xbd84dbbd	-0.06487224
111	0x3cb34041	0.021881225
112	0xbd142700	-0.036170006
113	0x3bafbeeb	0.0053633354
114	0xbca63fed	-0.020294154
115	0x3d066c39	0.032818053
116	0x3d8d89ed	0.06911073
117	0x3d862284	0.06549552
118	0x3c696eb6	0.014247587
119	0xbd5fb25b	-0.054613452
120	0xbd4c6e5b	-0.04990993
121	0xbd705331	-0.058673088
122	0xbd1530c4	-0.03642346
123	0xbd511b09	-0.051051173
124	0x3cbbd4f5	0.022928694
125	0xbdb7f3a5	-0.089820184
126	0xb9efec04	-0.00045761478
127	0x3d96605c	0.07342598
128	0xbd7d048a	-0.061771907
129	0xbc584af9	-0.013201469
130	0x3d6f4d75	0.05842348
131	0xbced36d8	-0.028956816
132	0xbd3a2367	-0.04544392
133	0x3d127421	0.03575528
134	0xbd23c53b	-0.039983016
135	0x3dbc9679	0.09208388
136	0x3da7b6fa	0.08189197
137	0x3a953838	0.0011384552
138	0xbc7c04bd	-0.015381989
139	0xbd4b6a93	-0.049662184
140	0x3df3ee51	0.119106896
141	0xbd8a0a2a	-0.0674022
142	0xbd22dcf1	-0.039761487
143	0x3d60a1f2	0.054841943
144	0x3c3d7cbc	0.0115653835
145	0x3da9a4c9	0.082833834
146	0xbd1a4758	-0.037665695
147	0x3d7bd300	0.061480522
148	0x3db9a61e	0.090648875
149	0xbd99ebfe	-0.07515715
150	0xbdb10878	-0.086441934
151	0x3da947fa	0.082656816
152	0x3da3cc14	0.07997909
153	0x3de4fbf2	0.11180867
154	0xbc0a5903	-0.008444074
155	0x3d9ef230	0.07761037
156	0xbcf22bc8	-0.029561892
157	0x3d42048d	0.04736762
158	0x3cdcacc6	0.026937854
159	0xbd9b8b7e	-0.075949654
160	0xbd90c3c4	-0.07068589
161	0x3ddac047	0.10681205
162	0xbdf86997	-0.12129515
163	0x3cdd9c97	0.027052207
164	0x3d4865ef	0.048925336
165	0x3d683d54	0.056699112
166	0xbaf4ba17	-0.0018671182
167	0xbced9f24	-0.029006548
168	0xbd49d7d5	-0.0492781
169	0xbca9f6cd	-0.020747567
170	0xbd63c255	-0.05560525
171	0x3c371a9d	0.011175779
172	0xbd3245d0	-0.04352361
173	0x3dc7130f	0.09720432
174	0xbd419a44	-0.04726626
175	0xbcc5ca7d	-0.024144405
176	0xbda67260	-0.08127284
177	0x3da3fba1	0.08006979
178	0x3d70b707	0.0587683
179	0x3d9b1bea	0.075736836
180	0x3d7aa424	0.061191693
181	0x3bd851f2	0.0066015655
182	0x3d970090	0.07373154
183	0xbca30225	-0.019898484
184	0x3dac3b46	0.08409743
185	0x3ca944d3	0.0206627
186	0x3d911731	0.070845015
187	0xbd3db280	-0.04631281
188	0x3cd597b5	0.026073316
189	0xbc1f97a6	-0.009740746
190	0xbd81ed11	-0.06344045
191	0x3c86e85d	0.016468221
192	0xbd09502f	-0.033523735
193	0xbd93acfa	-0.07210727
194	0x3d979387	0.074011855
195	0xbde0bb6d	-0.10973249
196	0x3d047317	0.03233632
197	0x3d4aa868	0.04947701
198	0xbc59035b	-0.013245429
199	0xbdbc558d	-0.09196005
200	0xbcdd81d8	-0.027039453
201	0xbd404598	-0.04694137
202	0x3cabc523	0.020968026
203	0x3d87ab17	0.0662443
204	0x3d57604e	0.052582078
205	0xbc843874	-0.0161402
206	0xbccd8b53	-0.025090849
207	0xbd8be768	-0.068312466
208	0x3c531a68	0.012884714
209	0x3c5c0005	0.013427739
210	0xbc82b836	-0.01595698
211	0x3c3f2925	0.011667524
212	0xbb58230d	-0.0032979876
213	0xbd8169f7	-0.06319039
214	0x3d34a417	0.0441018
215	0x3c850356	0.016236942
216	0x3e02e8fc	0.12784189
217	0xbd8da530	-0.06916273
218	0xbceb274a	-0.028705258
219	0xbcd000a3	-0.025390929
220	0x3d134257	0.03595194
221	0xbd00d8fd	-0.031456936
222	0xbd682b63	-0.056682
223	0x3d718bdf	0.058971282
224	0x3d88f36d	0.06687055
225	0x3dc09e8f	0.09405243
226	0x3ba73d97	0.0051037776
227	0x3d44d762	0.048056968
228	0xbd6d666b	-0.057959
229	0xa30722bf	-7.3257224e-18
230	0xbd04e27e	-0.032442562
231	0xbb7cb655	-0.0038560827
232	0x3cbb7a83	0.022885567
233	0x3ca1250b	0.019670984
234	0xbd0de5b1	-0.03464288
235	0x3d00735d	0.03136002
236	0x3c6ecccc	0.014575195
237	0xbd81c3f7	-0.063362055
238	0xbd7abbb5	-0.061214168
239	0xbd938fe5	-0.0720518
240	0xbd877829	-0.066147156
241	0xbda931b9	-0.08261437
242	0xbd1a474a	-0.037665643
243	0xbda6308b	-0.081147276
244	0xbdbf0315	-0.0932676
245	0x3db5e7b1	0.08882082
246	0xbd965441	-0.07340289
247	0x3d06e362	0.032931693
248	0x3ad574c9	0.0016285415
249	0xbc99cd29	-0.018774586
250	0x3d8060fc	0.06268498
251	0xbd7611a2	-0.06007541
252	0x3cefb090	0.029258996
253	0x3d74cb73	0.059764337
254	0x3d9774e7	0.07395344
255	0xbdc19988	-0.09453112

bias f4 [128]
0	0xbc879595	-0.016550818
1	0x3d0af2d8	0.033923
2	0x3d09b37a	0.033618428
3	0xbdb10ebf	-0.08645391
4	0xbd02fc50	-0.031978905
5	0xbdb0d63f	-0.08634614
6	0xbdb4ac73	-0.088219546
7	0x3d5deaa1	0.054178838
8	0x3d885f44	0.066587955
9	0xbd6ba96e	-0.057534628
10	0xbc8c7fb5	-0.01715074
11	0x3d664e6a	0.056227125
12	0x3db12aa5	0.08650712
13	0x3d9b2d5d	0.07577012
14	0x3d19a311	0.037509028
15	0xbda37e0e	-0.079830274
16	0xbd5d2844	-0.05399348
17	0x3d8dfa03	0.069324516
18	0xbda087dc	-0.07838413
19	0xbd025473	-0.03181882
20	0xbd90e4b2	-0.0707487
21	0xbd88d423	-0.06681087
22	0x3cba66f9	0.02275418
23	0xbc9e8743	-0.019351607
24	0xbd9734b4	-0.07383099
25	0xbd90a62c	-0.07062945
26	0x3d9ca6d6	0.07649009
27	0x3d860eeb	0.06545814
28	0x3d36f3da	0.04466615
29	0x3d3246da	0.0435246
30	0xbd7ca88c	-0.061684176
31	0xbd321960	-0.04348123
32	0xbcba2564	-0.022722907
33	0x3cd4930c	0.025949024
34	0xb916d79f	-0.0001438544
35	0x3cc42b58	0.02394645
36	0xbcf80498	-0.030275628
37	0xbccfe830	-0.02537927
38	0x3cf8b101	0.03035784
39	0xbdaaed5b	-0.08346053
40	0x3c4c3e78	0.012466066
41	0x3d9708c8	0.07374722
42	0xbd55fe76	-0.052244626
43	0xbcb510d8	-0.022102758
44	0xbc0977c1	-0.008390368
45	0xbd06319d	-0.03276216
46	0x3d7a8a77	0.061167207
47	0x3cab2c00	0.020895004
48	0x3dc07173	0.09396639
49	0xbcfc6a3f	-0.03081238
50	0x3d0fb5e6	0.03508558
51	0x3cd9b10e	0.026573684
52	0xbd3eefdd	-0.04661547
53	0xbdab0a8f	-0.08351623
54	0x3d5aa0de	0.05337607
55	0xbd5d898a	-0.054086246
56	0xbd16b3a4	-0.036792412
57	0xbc929773	-0.017894482
58	0xbdbecf43	-0.09316876
59	0x3d74361c	0.059621915
60	0xbc6450b2	-0.013935255
61	0xbd34e35d	-0.044162143
62	0xbd9d5232	-0.07681693
63	0x3ccc3420	0.024927199
64	0x3b14a2aa	0.0022679963
65	0x3a25b456	0.00063211226
66	0xbca647da	-0.020297933
67	0x3c6577f7	0.014005653
68	0xbcbb4fa0	-0.022865117
69	0x3c593007	0.0132560795
70	0x3d41b15f	0.047288295
71	0x3c95b473	0.018274521
72	0xbd479453	-0.048725437
73	0xbc5ae374	-0.013359893
74	0xbcde6fcb	-0.027152916
75	0xbc7977fd	-0.015226361
76	0x3d49e4df	0.049290534
77	0xbbff45b6	-0.0077902926
78	0xbcffe592	-0.031237397
79	0xbced53ea	-0.028970677
80	0x3d4912c8	0.049090177
81	0xbc897cf3	-0.016783213
82	0x3c9d315c	0.019188575
83	0xbc82dfd5	-0.015975872
84	0xbd816c26	-0.06319456
85	0x3cf274fb	0.029596796
86	0x3d96390d	0.073351
87	0xbd358ea7	-0.044325497
88	0x3ccfa943	0.025349265
89	0x3cb831c9	0.022484677
90	0xbcd1ef3d	-0.025626773
91	0xbc88728f	-0.016656188
92	0xbc812c35	-0.01576815
93	0x3d451db5	0.048124034
94	0xbc3897ac	-0.01126663
95	0xbdb680e1	-0.089113005
96	0xbccdfd3d	-0.025145167
97	0xbcf8dee0	-0.030379713
98	0x3b81da28	0.003962774
99	0xbd408905	-0.047005672
100	0x3bcad335	0.0061897286
101	0xbb1724c1	-0.0023062679
102	0xbd39c86c	-0.045357153
103	0xbb466f9a	-0.0030278922
104	0xbd6a2284	-0.057161823
105	0xbd3af462	-0.045643218
106	0x3d3cffd1	0.046142403
107	0xbae5e347	-0.0017539047
108	0x3d53e734	0.051734164
109	0x3cdd9d30	0.027052492
110	0x3d900432	0.0703205
111	0x3dabe12e	0.08392559
112	0x3da93825	0.08262662
113	0xbcc6c47e	-0.024263617
114	0xbd329312	-0.04359729
115	0x3d9b9e7e	0.07598589
116	0x3d5e12fe	0.05421733
117	0x3da1ed1b	0.079065524
118	0x3d965544	0.07340482
119	0x3d8cc924	0.06874302
120	0x3be42d79	0.0069634286
121	0xbbe1fe19	-0.006896746
122	0xbd55d62f	-0.052206215
123	0x3dc351e4	0.09537104
124	0xbd502ef3	-0.050826024
125	0x3d28bace	0.041193776
126	0xbb63ad3d	-0.003474071
127	0xbd50716e	-0.050889425

weight f4 [128, 128]
0	0xbd7dea7e	-0.061991207
1	0x3d274404	0.04083635
2	0xbc5fb918	-0.01365497
3	0x3d6ceda7	0.05784383
4	0xbc286291	-0.010277406
5	0xbc1f3a65	-0.009718512
6	0xbc2ab2bf	-0.010418593
7	0x3dad20e6	0.084535405
8	0xbdb99c89	-0.0906306
9	0xbcee110e	-0.029060867
10	0xbc1abbae	-0.00944416
11	0x3d0a95e7	0.033834364
12	0x3dca19cb	0.09868201
13	0x3c0aea96	0.008478781
14	0x3cdae821	0.026722016
15	0x3d7917c1	0.06081367
16	0xbd9580fa	-0.07299991
17	0x3d866672	0.06562509
18	0x3d9c5eb5	0.076352514
19	0xbd740d0d	-0.05958276
20	0xbc6fcce2	-0.01463625
21	0x3c967b42	0.01836932
22	0xbd44cda0	-0.04804766
23	0xbd015150	-0.031571686
24	0x3da412c4	0.08011392
25	0x3d770657	0.06030878
26	0xbd92f7a1	-0.07176138
27	0x3d8a4f86	0.06753449
28	0xbc1e5c59	-0.009665572
29	0x3b1e25af	0.0024131348
30	0xbddbe8f3	-0.10737791
31	0xbd8d6634	-0.06904259
32	0x3b016caf	0.0019748618
33	0xbd7e6cf5	-0.06211563
34	0xbd6b3ea4	-0.057432786
35	0x3d3ff642	0.04686571
36	0x3cd7180e	0.026256587
37	0xbdc49cb0	-0.09600198
38	0x3d723d62	0.05914057
39	0x3d88e597	0.06684416
40	0xbd06219b	-0.032746892
41	0x3d8b02f8	0.067876756
42	0xbc19f7ff	-0.009397506
43	0xbc0c2912	-0.008554714
44	0x3be0a860	0.0068560094
45	0x3d8b1273	0.06790628
46	0x3daa5176	0.08316319
47	0x3b018868	0.0019765142
48	0xbd0476d8	-0.0323399
49	0x3dc163b9	0.09442849
50	0x3d7f5407	0.062335994
51	0xbd7984d7	-0.0609177
52	0x3db63b2e	0.088980064
53	0xbd5022b3	-0.05081434
54	0x3d9ff450	0.07810271
55	0x3b43fa1e	0.002990372
56	0x3d23b726	0.039969586
57	0xbd222498	-0.03958568
58	0x3bf651c5	0.007517072
59	0xbdb24184	-0.08703902
60	0xbc87194d	-0.016491557
61	0x3d8f5545	0.06998686
62	0x3da6f747	0.08152633
63	0xbc1656c5	-0.009175961
64	0x3d85315c	0.06503555
65	0x3d81b9b8	0.06334251
66	0x3da933a7	0.08261805
67	0x3d8f8778	0.070082605
68	0xbd16afe8	-0.03678885
69	0x3d0879c9	0.03331927
70	0x3b324857	0.0027203762
71	0x3d327d91	0.04357678
72	0xbca3fc54	-0.02001778
73	0xbcf54f29	-0.029944973
74	0xbd962a8d	-0.07332335
75	0x3d1b9be0	0.03799045
76	0x3ca4823d	0.020081634
77	0x3d243b6b	0.040095728
78	0x3d67aa0e	0.05655866
79	0x3c65b7e2	0.014020892
80	0xbdb1b890	-0.08677781
81	0xbd827125	-0.06369237
82	0x3cf0dde5	0.029402683
83	0xbd916675	-0.0709962
84	0x3ce5665f	0.028002916
85	0xbc0b3b9e	-0.008498101
86	0xbd1816df	-0.037131187
87	0x3d96f2b8	0.07370514
88	0x3d657350	0.056018174
89	0x3da1ae5d	0.07894585
90	0xbbed27dd	-0.007237418
91	0x3ca5b617	0.020228429
92	0x3d47653e	0.048680536
93	0x3dbdcdd6	0.09267776
94	0xbd4d9ce7	-0.05019846
95	0xbd363014	-0.044479445
96	0x3b99b67c	0.0046909433
97	0x3dd3217f	0.10309123
98	0x3daf386c	0.085556835
99	0xbd2ec2ce	-0.04266625
100	0xbcd9552a	-0.026529867
101	0x3dca908a	0.0989085
102	0x3dda2d6d	0.106531955
103	0x3d346f57	0.044051494
104	0xbd5f87bf	-0.054572817
105	0xbdb13fce	-0.08654748
106	0x3d3e3066	0.046432875
107	0x3d84f7e7	0.06492596
108	0x3dece36b	0.11566814
109	0x3d69881e	0.057014577
110	0xbc800d9e	-0.015631493
111	0xbcb3ec46	-0.02196325
112	0x3d79a866	0.060951613
113	0x3b08a341	0.002084926
114	0xbd819025	-0.063263215
115	0x3d966a84	0.07344535
116	0xbd935c7e	-0.07195376
117	0x3d5a7c06	0.053340934
118	0xbcf77bbc	-0.030210368
119	0xbd273ab8	-0.040827483
120	0x3da75ffc	0.081726044
121	0xbc8067c8	-0.015674487
122	0xbb7bdfca	-0.003843295
123	0xbd21e47b	-0.039524537
124	0x3cad1dca	0.021132369
125	0xbcf504cf	-0.02990952
126	0x3d4ec3fb	0.05047987
127	0x3d673148	0.056443483
128	0xbd3925bb	-0.045202
129	0x3d9a7e5d	0.07543633
130	0x3ce95649	0.028483527
131	0x3da9aa21	0.08284403
132	0xbaabc2f3	-0.0013104364
133	0xbd4c417c	-0.04986714
134	0x3c3e4efb	0.01161551
135	0x3da540a8	0.08068973
136	0xbcc11fea	-0.023574788
137	0xbd5e343b	-0.05424903
138	0xbcbbb66f	-0.02291414
139	0xbd33a37a	-0.043857075
140	0xbc505ebf	-0.012717902
141	0x3d1123b0	0.035434425
142	0x3c7c0cf6	0.0153839495
143	0x3bc03ced	0.005866638
144	0xbd0450e4	-0.032303706
145	0x3dd89b54	0.105765015
146	0xbd222cc1	-0.039593462
147	0xbd5bb83c	-0.053642496
148	0x3dac95c3	0.08427002
149	0xbd427c22	-0.047481664
150	0xbd81ddcc	-0.063411325
151	0xbda85c90	-0.0822078
152	0x3d24d3dd	0.04024111
153	0x3d24e49b	0.040257078
154	0x3d9b08dc	0.07570049
155	0x3d3854f1	0.04500288
156	0xbd4a4f3f	-0.04939198
157	0xb9930a0e	-0.00028045516
158	0x3cb151a4	0.021645375
159	0x3d069602	0.032857902
160	0xbd11c588	-0.03558877
161	0x3dad6d5a	0.08468123
162	0xbc3160cb	-0.0108263
163	0xbd16c5c4	-0.036809698
164	0x3d0439c1	0.03228164
165	0x3d96248b	0.07331189
166	0x3cb5fcce	0.022215273
167	0x3dc72bf2	0.09725179
168	0x3d547544	0.051869646
169	0x3d8827cf	0.06648218
170	0x3d2b6fc6	0.041854642
171	0xbd96e776	-0.073683664
172	0xbc289934	-0.010290433
173	0xbd3e6dbc	-0.04649137
174	0x3db35921	0.08757234
175	0x3d8a444b	0.06751307
176	0x3d5926cb	0.05301551
177	0xbd1676fe	-0.036734574
178	0xbd0a60a3	-0.033783566
179	0xbd066181	-0.03280783
180	0xbdb5626a	-0.088566616
181	0xbd1c01b0	-0.038087547
182	0x3d4c1cdc	0.04983221
183	0x3d3a0c98	0.045422167
184	0xbc24c88b	-0.010057579
185	0x3d8d84f5	0.06910125
186	0xbd0b0d86	-0.033948444
187	0x3dfc7fd9	0.123290725
188	0xbcafd6b3	-0.021464681
189	0x3bcb8c94	0.0062118266
190	0xbcecbfeb	-0.028900107
191	0x3cad2a9c	0.021138482
192	0x3cbf6b86	0.0233667
193	0x3d76d5a8	0.060262352
194	0x399b1a56	0.00029583526
195	0xbd0df4ea	-0.034657396
196	0x3d84ec34	0.06490365
197	0x3d219f7b	0.039458733
198	0x3de18c81	0.11013127
199	0xbd93a172	-0.072085276
200	0xbd8c8427	-0.068611436
201	0x3d849f9b	0.06475755
202	0x3db540fa	0.08850284
203	0xbd04e787	-0.032447364
204	0xbd366ff1	-0.04454035
205	0x3cdb5707	0.026774896
206	0xbb6aa1b6	-0.0035801954
207	0xbc4930da	-0.0122797135
208	0xbd236445	-0.039890546
209	0x3d320e90	0.04347092
210	0x3dc4a4b3	0.096017264
211	0x3d9cde66	0.07659607
212	0xbd078272	-0.033083387
213	0x3d9d6c4d	0.07686672
214	0xbcae3bfc	-0.021268837
215	0x3c232ec8	0.009959884
216	0xbd8d87ac	-0.06910643
217	0x3bf2c04a	0.0074081765
218	0x3bbf3137	0.0058347243
219	0x3d56cb55	0.052440006
220	0x3cd57b91	0.026059898
221	0xbcaa1def	-0.020766227
222	0x3cce69d6	0.02519695
223	0x3a2a1793	0.0006488498
224	0xbd5ee1b3	-0.054414462
225	0x3daf6019	0.08563251
226	0xbd8f01ca	-0.06982763
227	0x3d223b5f	0.039607402
228	0xbd825b49	-0.063650675
229	0x3beafdf8	0.0071713887
230	0x3d7df01b	0.06199656
231	0xbd82ce8c	-0.06387052
232	0x3d41ee5b	0.047346454
233	0x3d8de33b	0.069281064
234	0x3db1de89	0.08685023
235	0x3e1342a2	0.14380887
236	0xbd89db4d	-0.067312814
237	0x3dd6b3a6	0.10483484
238	0xbcb70001	-0.022338869
239	0x3c1a43b2	0.009415554
240	0x3d858a5c	0.065205306
241	0xbd64ab73	-0.05582757
242	0x3cf4e7b9	0.02989565
243	0x3da706cf	0.081555955
244	0x3ce3dc70	0.027815074
245	0xbcdb47af	-0.02676758
246	0xbd1587ea	-0.03650657
247	0x3d783393	0.06059606
248	0xbd05dcd8	-0.032681316
249	0xbd6d8a62	-0.0579933
250	0x3d105bdb	0.03524385
251	0x3c703d3c	0.014663037
252	0x3d410212	0.047121115
253	0x3c48985d	0.0122433575
254	0x3d0c7699	0.03429279
255	0x3b779b9f	0.0037781966

bias f4 [128]
0	0x3dc009f0	0.093768954
1	0x3b869993	0.004107663
2	0xbd4f6174	-0.050630048
3	0x3d734556	0.059392296
4	0x3d9501f5	0.07275764
5	0x3d2b0c16	0.041759573
6	0xbc884bb6	-0.016637664
7	0xbd180f20	-0.0371238
8	0x3d0ed180	0.034867764
9	0x3cbfdff2	0.023422215
10	0xbd885e7b	-0.06658646
11	0x3d5cda46	0.0539191
12	0x3d399cc0	0.045315504
13	0x3d4fe3f5	0.050754506
14	0xbd91f4c7	-0.07126766
15	0x3d174664	0.036932364
16	0xbd2f3fb7	-0.042785373
17	0x3c250a51	0.01007326
18	0xbb973fe0	-0.004615769
19	0xbcd1c0a2	-0.02560455
20	0xbd1df0cf	-0.03855973
21	0x3d7c4d41	0.061597113
22	0xbc1d36a4	-0.009595547
23	0x3d438828	0.04773727
24	0x3d3efdb2	0.04662866
25	0x3d8d3a4c	0.06895885
26	0xbd2d1ddd	-0.042264808
27	0x3d131da9	0.035916958
28	0x3d5d7be7	0.05407324
29	0xbd08d4f6	-0.03340622
30	0xbd134f98	-0.03596458
31	0x3d420962	0.04737223
32	0x3cf0862b	0.029360851
33	0xbc5ca754	-0.0134676285
34	0x3d52437e	0.051333897
35	0x3b635655	0.003468891
36	0x3d7d07a0	0.06177485
37	0x3a5cfd96	0.0008430121
38	0x3d56aa22	0.052408345
39	0x3d2b4949	0.041817937
40	0xbd8319c8	-0.06401402
41	0x3db8d57c	0.09025094
42	0x3d87a410	0.06623089
43	0x3d4f049e	0.050541513
44	0x3cadddee	0.021223988
45	0x3d7abedb	0.06121717
46	0xbc9ffd4b	-0.01952996
47	0x3d914bdb	0.070945464
48	0xbd925fd3	-0.07147183
49	0xbdc1d37a	-0.09464164
50	0xbc8408c3	-0.01611746
51	0xbd535cf7	-0.05160233
52	0x3d113635	0.035452086
53	0x3cb09d26	0.02155931
54	0x3d20f19d	0.03929292
55	0x3d94d6da	0.07267542
56	0xbcb02b6c	-0.02150508
57	0x3db113f8	0.08646387
58	0x3d358c2c	0.04432313
59	0xbd6c55a5	-0.057698864
60	0xbd36b30b	-0.044604342
61	0xbd0e4695	-0.03473528
62	0x3d3a4cd7	0.045483436
63	0x3d8451db	0.06460925
64	0xbd214ef8	-0.03938195
65	0xbd371874	-0.044701055
66	0xbd9832b6	-0.07431547
67	0xbd8bf91b	-0.068346225
68	0xbd114e39	-0.03547499
69	0x3c80dce3	0.015730327
70	0xbd91c6fd	-0.07118032
71	0x3d4173af	0.047229465
72	0x3d7495ce	0.059713177
73	0x3c960062	0.01831073
74	0x3dc4caaa	0.096089676
75	0x3d7d6aeb	0.061869543
76	0x3c767a0f	0.0150437495
77	0x3c918c4a	0.01776709
78	0x3cace7c8	0.021106616
79	0xbd9eb39d	-0.07749102
80	0xbcc82834	-0.024433233
81	0xbd7a77b5	-0.061149318
82	0xbda44bb1	-0.080222495
83	0xbb9fdffc	-0.004878996
84	0x3bbd089d	0.005768849
85	0xbcb2235f	-0.021745382
86	0x3d81adfc	0.06332013
87	0x3d3c3f3b	0.04595874
88	0x3bb0b29d	0.005392386
89	0xbd91a164	-0.07110861
90	0xbd88269f	-0.066479914
91	0xbd9e65b7	-0.07734244
92	0xbbec125c	-0.007204337
93	0x3cd57291	0.026055606
94	0x3d8b07e5	0.06788615
95	0x3d474ad6	0.048655353
96	0x3cb3652e	0.021898832
97	0x3d414978	0.047189206
98	0xbd6b7313	-0.05748279
99	0x3cbcd496	0.023050588
100	0xbc1d2da8	-0.009593405
101	0xbbd0c58a	-0.0063712047
102	0x3d9a26d9	0.07526941
103	0x3cfcbaf7	0.03085087
104	0xbd052963	-0.032510173
105	0x3c320037	0.010864309
106	0xbcc2b9f9	-0.02377032
107	0xbd2ab5af	-0.041677173
108	0xbd731555	-0.059346516
109	0xbd833584	-0.06406692
110	0x3d97708d	0.07394514
111	0x3d5eae25	0.054365296
112	0xbc7ef990	-0.01556243
113	0xbd149725	-0.036276955
114	0xbd707cfe	-0.05871295
115	0xbd2bf9a3	-0.04198612
116	0x3d3610b5	0.044449527
117	0xbd0d73e5	-0.034534354
118	0x3cf616e9	0.030040221
119	0xbca9c0ee	-0.020721879
120	0xbd97e989	-0.0741759
121	0x3d17af76	0.037032567
122	0x3d1f4ade	0.03888976
123	0x3cdebba8	0.02718909
124	0xbd76bfa1	-0.060241345
125	0xbb3d9a82	-0.0028931205
126	0x3db5a012	0.088684216
127	0x3c3e8367	0.011628008

weight f4 [128, 128]
0	0x3b054b76	0.0020339168
1	0x3ca98b81	0.020696403
2	0x3dbfd72a	0.09367211
3	0x3dbd5f68	0.09246713
4	0x3c1b5692	0.009481089
5	0x3dc41988	0.09575182
6	0xbb136e6c	-0.0022496236
7	0x3d4fd1e8	0.05073729
8	0x3d97d130	0.07412946
9	0xbdb1bea6	-0.086789414
10	0xbd87f3de	-0.06638311
11	0xbd03d8b0	-0.03218907
12	0xbddef7d6	-0.10887115
13	0x3d2a793b	0.04161952
14	0x3bc4cfd9	0.0060062227
15	0xbc9a30c8	-0.018822089
16	0xbcba3b52	-0.022733364
17	0xbdbd7455	-0.09250704
18	0xbcc19e4b	-0.02363505
19	0x3de81c85	0.11333565
20	0xbcf9ca1a	-0.030491877
21	0xbc9e1ceb	-0.019300899
22	0xbd55de3b	-0.05221389
23	0xbd2852eb	-0.0410947
24	0x3dae4ada	0.085103706
25	0x3aa3844e	0.0012475343
26	0xbccd299a	-0.025044251
27	0x3d5c73e8	0.053821474
28	0x3c41986c	0.011816125
29	0x3cb9f10d	0.02269795
30	0x3b2ecb7f	0.0026671586
31	0x3d5b8804	0.05359651
32	0xbb90894b	-0.004410898
33	0x3d4caee4	0.049971476
34	0xbd9c3fea	-0.07629378
35	0x3be96024	0.0071220566
36	0x3c5aa426	0.0133448
37	0xbd99fe7f	-0.075192444
38	0x3da5dc97	0.08098715
39	0xbd7c7711	-0.061636988
40	0xbd150d6b	-0.03638975
41	0x3da1a7be	0.078933224
42	0xbd57c562	-0.052678473
43	0x3d120134	0.03564568
44	0x3d7d4fd7	0.06184372
45	0xbbfeb53b	-0.007773069
46	0x3c4ec209	0.012619504
47	0xbd6a6dd1	-0.057233635
48	0xbd25345a	-0.04033313
49	0xbc4b4f19	-0.012408995
50	0x3d7ec01f	0.06219494
51	0x3d6b7c3e	0.057491533
52	0x3dc7e895	0.097611584
53	0xbd559950	-0.052148163
54	0xbd3382ae	-0.043825798
55	0x3d531de1	0.051542167
56	0x3db690aa	0.08914311
57	0x3dd7f8b6	0.10545485
58	0x3d96d3b1	0.07364596
59	0x3b630d16	0.003464525
60	0x3d9bb542	0.076029316
61	0x3d93c78c	0.07215795
62	0xbcc211ea	-0.023690183
63	0xbd77fe5d	-0.060545314
64	0xbd9cfa9f	-0.0766499
65	0xbc860239	-0.016358482
66	0x3dad5034	0.08462563
67	0x3c4dcb30	0.012560651
68	0xbbd0db0f	-0.00637377
69	0xbd0b9135	-0.034074027
70	0x3db45fde	0.08807348
71	0x3ce649b6	0.02811132
72	0xbd3d5169	-0.046220217
73	0x3d40b59f	0.047048207
74	0xbd95f118	-0.073213756
75	0x3d891376	0.06693165
76	0x3c48fea1	0.0122677395
77	0x3d583159	0.052781437
78	0x3d34aac5	0.04410817
79	0x3d4b3846	0.049614213
80	0xbccb89a4	-0.024845906
81	0x3d89f022	0.06735255
82	0xbcfb7027	-0.030693127
83	0x3de61349	0.11234147
84	0xbca0aed2	-0.01961461
85	0xbdbb109a	-0.09134026
86	0xbbd6800f	-0.0065460275
87	0x3d5e765b	0.05431209
88	0xbb5cf7e8	-0.00337171
89	0xbd2af4a1	-0.041737203
90	0xbc088c8a	-0.008334288
91	0x3ce0907c	0.027412646
92	0x3d44a610	0.048009932
93	0x3dbe157a	0.0928144
94	0xbd1bcfec	-0.038040087
95	0x3c9faa75	0.01949046
96	0xbd255e98	-0.040373415
97	0xbda428c8	-0.08015591
98	0xbce6fbdf	-0.028196273
99	0x3c2bbe19	0.0104823345
100	0x3db99af9	0.09062762
101	0xbda8a93c	-0.08235404
102	0xbd3bb8c2	-0.045830496
103	0x3b64dbcd	0.003492105
104	0xbcc83f23	-0.024444168
105	0x3c8e9075	0.017402867
106	0x3d8fb02e	0.070160255
107	0x3bb642f4	0.0055621807
108	0x3d8b833e	0.06812142
109	0x3db5ec05	0.08882908
110	0xbd0c8e00	-0.03431511
111	0xbcd88f69	-0.02643557
112	0x3ca0c820	0.019626677
113	0xbd43d3e9	-0.047809515
114	0x3d62db39	0.05538485
115	0x3cf296f4	0.029612996
116	0xbc9c9452	-0.019113693
117	0xbd37fb50	-0.044917405
118	0x3d03ce59	0.03217921
119	0x3d18bde2	0.03729046
120	0xbd9f4774	-0.077773005
121	0xbdb6e55f	-0.08930468
122	0x3ccb76ca	0.024836916
123	0xbd3ba1ab	-0.045808475
124	0xbd98bb0f	-0.074575536
125	0x3d02a9cf	0.031900223
126	0x3d1b53c3	0.03792168
127	0xbd912c69	-0.07088549
128	0x3bd1fb64	0.006408142
129	0x3da592e1	0.080846556
130	0x3d82c3a5	0.063849725
131	0x3cfda7ac	0.030963741
132	0x3ca4ab19	0.020101117
133	0xbd4ab65b	-0.049490314
134	0x3d54ab95	0.051921446
135	0xbd7b294f	-0.06131869
136	0xbb9e1433	-0.0048241853
137	0xbcc25492	-0.023721967
138	0x394b1d0a	0.00019370407
139	0xbdabe823	-0.08393886
140	0x3d058f48	0.032607347
141	0xbd135def	-0.035978254
142	0x3d82d01d	0.06387351
143	0x3cdeac2f	0.027181713
144	0x3b748dff	0.0037316082
145	0x39e46096	0.0004355951
146	0xbdb6b6cd	-0.08921585
147	0xbd99fe7c	-0.07519242
148	0x3d4344c2	0.047672994
149	0x3e08e7ec	0.13369721
150	0xbcddbbf4	-0.027067162
151	0xbc97ac07	-0.018514646
152	0x3d20739c	0.039172754
153	0x3d963ef6	0.073362276
154	0xbbe99f88	-0.0071296133
155	0xbc86aca0	-0.016439736
156	0xbdb9c602	-0.0907097
157	0x3d230f06	0.03980925
158	0xbd35f1be	-0.044419996
159	0x3aa89e01	0.0012864472
160	0x3da57025	0.080780305
161	0xbd0394c3	-0.032124292
162	0xbd422263	-0.047396075
163	0xbd582e27	-0.05277839
164	0x3ddce733	0.10786285
165	0x3d18928c	0.037249133
166	0x3d71f84d	0.05907469
167	0x3affde50	0.001952121
168	0xbbf73498	-0.0075441115
169	0x3ca397a5	0.01996977
170	0x3da21b5e	0.07915376
171	0x3d45c2d6	0.048281513
172	0xbd4ede26	-0.050504826
173	0xbbaff4d7	-0.0053697634
174	0xbadcbb74	-0.0016840533
175	0x3d9ab97c	0.075549096
176	0xbd4aba77	-0.049494233
177	0xbbe5e95d	-0.0070163445
178	0xbcd10a2e	-0.02551755
179	0x3dfee868	0.12446672
180	0x3cdf4879	0.027256237
181	0x3dbf7fc4	0.09350541
182	0xbd65c68e	-0.05609756
183	0x3d572c03	0.052532207
184	0xbcfd1b19	-0.03089671
185	0xbd786c5c	-0.060650215
186	0x3d6a2a1d	0.05716907
187	0xbdb826cd	-0.08991776
188	0x3c311e6c	0.010810476
189	0xbcfa90e2	-0.030586664
190	0x3cb25dce	0.021773245
191	0xbce9499d	-0.028477484
192	0x3bf5dcb4	0.0075031165
193	0x3d9d892e	0.076921806
194	0xbbb35015	-0.005472193
195	0x3c3efa7e	0.011656402
196	0xbdb44844	-0.08802846
197	0xbd180b33	-0.037120055
198	0x3cc5b0da	0.024132181
199	0x3da29f96	0.07940595
200	0xbd0aa582	-0.033849247
201	0x3dcb2f08	0.0992108
202	0x3d20ff69	0.039306078
203	0x3d8cb9d6	0.06871383
204	0x3c8dcff8	0.017311081
205	0xbd9b901d	-0.07595847
206	0x3d9eaa1f	0.07747292
207	0x3dda5b36	0.10661928
208	0x3bc7c357	0.0060962844
209	0xbd3f5549	-0.046712194
210	0xbcc1a1ce	-0.023636725
211	0xbdc63919	-0.09678859
212	0x3c5a7ede	0.013335912
213	0x3ca51603	0.020152098
214	0x3d4c4853	0.04987366
215	0xbd586877	-0.052834
216	0xbd622d9f	-0.05521929
217	0xbdb95d72	-0.090510264
218	0xbc5b61ca	-0.013390014
219	0xbc11e9f4	-0.008905876
220	0x3c7c50e1	0.015400142
221	0xbd8d55dc	-0.06901142
222	0xbc68bd67	-0.014205313
223	0x3d36540d	0.04451375
224	0x3bb95561	0.00565593
225	0x3d7a7453	0.06114609
226	0x3d355d9c	0.044278726
227	0xbd92351f	-0.07139038
228	0x3daa1b2a	0.083059624
229	0xbccf0d70	-0.025274962
230	0x3d5222aa	0.05130259
231	0x3d2d954e	0.042378716
232	0x3db10e4a	0.086453035
233	0x3d9dd9e5	0.07707576
234	0x3c461786	0.012090569
235	0xbd7f03c9	-0.06225947
236	0xbd569d77	-0.052396264
237	0xbd814241	-0.06311465
238	0x3d527889	0.051384483
239	0x3d1a8d2f	0.0377323
240	0x3d23cfb1	0.03999299
241	0x3cfdf874	0.03100226
242	0xbc9f21d8	-0.019425318
243	0x3dac1d51	0.08404029
244	0x3cef29ab	0.029194674
245	0x3d31ac93	0.04337747
246	0xbcfe6461	-0.031053724
247	0xbd9e65ee	-0.07734285
248	0xbd3c7cae	-0.04601734
249	0x3dca791b	0.0988638
250	0xbcd34260	-0.025788486
251	0x3cf3c55d	0.029757196
252	0xbcf24e5d	-0.029578382
253	0x3bbd9d2b	0.005786558
254	0x3ce442d7	0.027863903
255	0xba34a41d	-0.000689091

bias f4 [128]
0	0xbc1957ed	-0.009359342
1	0x3bbae26b	0.0057032607
2	0x3ceed488	0.029154077
3	0x3d7e5fec	0.062103197
4	0x3bda701c	0.0066661965
5	0xbc540322	-0.0129402
6	0xbd8de88c	-0.069291204
7	0x3c2e30fa	0.010631794
8	0x3cce0911	0.025150808
9	0xba774e33	-0.0009433955
10	0x3da4bc13	0.08043685
11	0xbcef2b8d	-0.029195571
12	0xbd631962	-0.05544413
13	0x3d6ba99e	0.057534806
14	0xbcd04076	-0.025421362
15	0x3da14c02	0.078758255
16	0x3dc50edc	0.09621975
17	0x3d140cbb	0.036144953
18	0x3dc0ee94	0.09420505
19	0x3bdb3f3d	0.006690888
20	0x3d6a532d	0.05720823
21	0xbd7137c1	-0.05889106
22	0x3c6d1f4c	0.014472794
23	0xbcd1c224	-0.025605269
24	0x3db07717	0.086164646
25	0xbc44aa8a	-0.01200355
26	0x3d9c12fd	0.07620809
27	0x3c0b95a7	0.008519567
28	0x3c9f3972	0.019436572
29	0x3c1c6d0c	0.009547483
30	0xbd48e34a	-0.049044885
31	0x3d3f93cb	0.046771806
32	0x3a386177	0.00070335664
33	0x3c17988f	0.009252681
34	0xbaefc1d2	-0.0018292016
35	0xbccaa3c8	-0.0247363
36	0x3d7a7559	0.061147068
37	0xbd3320f4	-0.0437326
38	0xbd250ba4	-0.040294304
39	0xbd1775ce	-0.03697758
40	0x3d7e9117	0.062150087
41	0xbda0e7cb	-0.07856711
42	0xbcf591fb	-0.029976835
43	0x3c8300a9	0.015991526
44	0xbc7679e4	-0.015043709
45	0x3c92c21b	0.017914822
46	0x3ce5845b	0.028017214
47	0x3d1e3f7d	0.038634766
48	0xbb4ea85c	-0.0031533455
49	0x3d93dc08	0.07219702
50	0xbd316731	-0.0433113
51	0xbd61b9fa	-0.055109
52	0x3c560ee4	0.013065074
53	0x3d9821d3	0.074283265
54	0xbd4ca543	-0.049962293
55	0x3d6578b4	0.056023315
56	0x3da2cdae	0.079493865
57	0xbd081aeb	-0.033228796
58	0xbd3681a1	-0.044557218
59	0x3c608ed7	0.013705931
60	0x3d16e637	0.036840644
61	0xbdade4f8	-0.08490938
62	0xbc16b006	-0.009197241
63	0xbca5cd0d	-0.020239377
64	0x3c8ece6a	0.01743241
65	0x3d8e1819	0.0693819
66	0x3da71bbf	0.08159589
67	0x3c6423c6	0.013924545
68	0xbcb5f31d	-0.022210652
69	0x3d9eecce	0.07760011
70	0x3d4c734c	0.049914643
71	0x3d35e668	0.044409186
72	0x3d9a3a14	0.07530609
73	0x3db12d21	0.08651186
74	0xbcdf1706	-0.027232658
75	0xbd4b5333	-0.04963989
76	0xba741140	-0.0009310432
77	0x3d4872ec	0.048937723
78	0xbbe1e433	-0.0068936585
79	0xbd8629da	-0.06550951
80	0xbd0ad235	-0.033891875
81	0xbca15b51	-0.019696863
82	0xbd0a2dee	-0.03373521
83	0xbd335537	-0.04378244
84	0x3b0b6708	0.0021271128
85	0x3d3c86a0	0.046026826
86	0x3d28e965	0.041238207
87	0x3db95422	0.0904925
88	0xbd6622d2	-0.05618555
89	0xbc85d1a4	-0.016335316
90	0x3d7d65c4	0.06186463
91	0xbd8fa236	-0.07013361
92	0xbd536044	-0.051605478
93	0x3d2cbe9a	0.04217396
94	0xbc9f45fb	-0.019442549
95	0xbda6015d	-0.08105729
96	0xbd4fdf80	-0.050750256
97	0x3d3e28dd	0.04642569
98	0x3c984d9d	0.018591696
99	0xbbdb3717	-0.006689917
100	0xbd702d31	-0.058636848
101	0x3d5da30c	0.05411057
102	0x3ca07a74	0.01958964
103	0x3cf3cd6a	0.029761035
104	0x3d2e9ed2	0.04263193
105	0xbd4561df	-0.04818904
106	0xbbad3886	-0.005286279
107	0x3d255e2d	0.040373016
108	0xbd0a71e6	-0.03380003
109	0x3d94dce7	0.07268696
110	0x3dc31af1	0.09526623
111	0x3c697b3d	0.014250574
112	0x3da22a3c	0.07918212
113	0xb9832c41	-0.0002501924
114	0x3d160a74	0.036631063
115	0xbd216e60	-0.039411902
116	0x3c09e4a0	0.008416325
117	0xbd0b376a	-0.033988394
118	0x3d7463d1	0.059665505
119	0xbd45fa5d	-0.04833447
120	0x3ba111ed	0.004915467
121	0x3d0548b6	0.032540046
122	0x3c4a1d06	0.012336021
123	0x3d9df420	0.07712579
124	0xbcf6622b	-0.030076107
125	0xbd49f6cc	-0.04930763
126	0x3c9b792c	0.018978678
127	0x3c4d9404	0.012547497
