models/tfidf/models/NeuralNetTorch_BAG_L1/S1F3/net.params (torch, 257653 bytes, 16 tensors)

weight f4 [6, 4]
000000 7c 30 91 bf 33 0c 95 bf 2f 22 7e be 9d c8 db be
       -1.1342921 -1.1644348 -0.24817728 -0.42926493
000010 f3 27 58 3f da 13 30 3f 1a af a0 be 6b 22 07 c0
       0.8443596 0.6878029 -0.31383592 -2.1114757
000020 68 90 f0 3e 50 c9 2d be a9 35 b8 3f 39 eb 89 3e
       0.46985173 -0.16971326 1.4391376 0.26937273
000030 f0 1e 2b 3e 67 84 60 3f e9 c0 14 be a5 b4 e2 bd
       0.1671102 0.8770203 -0.14526714 -0.110696115
000040 6c 84 71 3f fb a9 a1 3f 8f 58 00 40 36 1a 2b 3d
       0.94342685 1.2629999 2.0054052 0.041773044
000050 b2 83 11 3f a7 5b ba be 00 7e 4a bf cd f8 10 c0
       0.56841576 -0.3639805 -0.7909851 -2.2651856

weight f4 [6, 4]
000000 87 25 62 be 31 b5 38 bf a5 fa 14 3f 9f 34 87 3e
       -0.22084628 -0.72151476 0.58194953 0.26407334
000010 db 6b 26 be f6 8f 2f bf f4 73 71 3f 98 dd fc 3e
       -0.16252081 -0.6857904 0.94317555 0.49387813
000020 f7 99 0f bf c5 da 69 3f 49 a1 8d 3f c1 05 a5 3f
       -0.56094307 0.9134944 1.1064845 1.2892381
000030 c1 b1 be bf 5f ed 24 40 b5 db f0 be e8 b0 ad 3e
       -1.4897996 2.576988 -0.47042623 0.3392403
000040 11 64 d3 bf e9 1b 10 bf fb eb fa be bb 49 03 bf
       -1.6514913 -0.5629259 -0.49008164 -0.5128438
000050 59 21 82 bf 84 43 88 3f cf a4 c5 bd 5a 77 41 3f
       -1.0166427 1.0645604 -0.09650575 0.7557274

weight f4 [6, 4]
000000 0d 6a db bd 04 f6 2a 3f d3 6d 55 bf 44 86 8b bc
       -0.10713587 0.6678164 -0.83370703 -0.017031796
000010 7f 85 5a 3f 23 03 c6 be 1e d8 82 3f 0e 27 bc 3e
       0.8535995 -0.38674268 1.0222204 0.36748546
000020 3d 88 99 3d de fc 8e 3f 9e 89 90 3e 70 54 e3 3e
       0.074966885 1.1170919 0.28229994 0.44400358
000030 84 2c 4d bf 89 6b a6 bf ec 22 3e bf 6c 3a a8 bf
       -0.8014605 -1.3001567 -0.74272037 -1.3142829
000040 91 02 4d 3e 98 e1 af be f1 57 da be da f6 5f 3e
       0.2002051 -0.34351802 -0.4264522 0.2187151
000050 30 33 3f 3f 04 5a 0e be e7 a9 a4 be 4d 75 94 bf
       0.7468748 -0.13901526 -0.32160875 -1.1598297

weight f4 [6, 4]
000000 85 fd 31 bf ec a5 86 3f 9d 97 17 bf 9f ec a1 bf
       -0.69527465 1.0519385 -0.5921572 -1.2650336
000010 b5 f6 ca 3d d7 56 2a bf 00 77 19 3f 1d 41 3b bf
       0.09910337 -0.6653876 0.59947205 -0.7314623
000020 e2 d0 81 be a3 b4 d9 3d 20 84 7b 3e 5a 74 94 3f
       -0.25354677 0.10630157 0.2456212 1.1598008
000030 e4 ca 91 3e d6 9d c7 3e e1 51 41 be 3b 05 f2 bd
       0.28475106 0.38987607 -0.1887889 -0.11817404
000040 e8 34 3e 3e a1 e4 45 bf 34 b8 f2 bf 15 8b 05 3e
       0.1857487 -0.77301985 -1.8962464 0.13041337
000050 15 8a 27 bf 23 88 88 3e ea 62 e6 3d 0b 66 ac 3e
       -0.6544507 0.26666364 0.11249335 0.33671603

weight f4 [6, 4]
000000 ff 4a 76 3f 32 1c 7a bf 0e f5 95 3e 58 f8 fb bd
       0.96208185 -0.9769927 0.29288524 -0.12303227
000010 68 1f 7e 3f 73 68 fd be cd 8f 40 3f a8 17 1f 3f
       0.9926667 -0.4949375 0.7521942 0.6214547
000020 9f 66 7a 3f 5d f0 be bf d6 a6 17 3f 78 74 2b 3e
       0.9781284 -1.4917103 0.59238946 0.16743648
000030 7e 00 03 3e 25 f2 52 bf 5b 97 23 3f 73 da f5 bf
       0.12793157 -0.82400733 0.63902825 -1.920729
000040 86 13 a7 3f 16 40 6a be 99 8f 48 3f 69 1e 80 3f
       1.3052833 -0.2287601 0.7834411 1.000928
000050 a5 54 bb 3e 9c aa ba bf 67 1c fe 3f 85 03 b4 3d
       0.36588016 -1.4583316 1.9852418 0.08789734

weight f4 [26, 9]
000000 94 99 01 bf f6 e5 d8 bf 5a 71 05 bf fa e3 f3 be
       -0.50624967 -1.6945179 -0.52126086 -0.4763487
000010 c4 86 23 bf cd 3c b9 bf 8c 00 5c bf a4 59 05 c0
       -0.6387751 -1.447168 -0.85938334 -2.0835962
000020 a9 ff 89 bf 36 c9 37 bf 38 5d 9a 3c a2 48 aa 3e
       -1.0781146 -0.717914 0.018843278 0.3325854
000030 c8 0f 82 be 9e e1 a3 3f 70 1b d0 3c 5d 36 5f bf
       -0.25402665 1.2803228 0.025403708 -0.87192327
000040 56 fe db 3e 76 b5 15 bc 8f 7d ab 3f 56 2f 87 be
       0.4296748 -0.009137502 1.3397692 -0.26403302
000050 95 d8 0f bf e2 dd 38 c0 fd f5 c2 bf a3 b5 81 3f
       -0.5618985 -2.8885427 -1.523132 1.0133556
000060 1f 92 58 3e 98 7a 3b bf 17 5e da 3f 72 f6 b2 3e
       0.21149491 -0.7323394 1.7059964 0.34953648
000070 df ab 7e 3f 09 f2 b6 3f b9 c5 83 bd bd d7 1f bf
       0.99481004 1.4292613 -0.06434197 -0.62438565
000080 a5 d3 25 bf e8 6d df 3f 7a ab 78 bf cf c2 1c bf
       -0.6477607 1.7455416 -0.9713665 -0.61234754
000090 ce 31 9a 3d 25 bf 10 3f f1 2c 05 3f ae 58 9d 3f
       0.07529031 0.56541663 0.520217 1.2292688
0000a0 f5 82 8e bf c5 b3 d9 bf 70 25 c4 3f 8a 1b 1b bc
       -1.1133715 -1.7007986 1.5323925 -0.009467015
0000b0 1d 47 cb bf 8c 62 6b 3d d2 e9 1b bf e8 38 3c 3f
       -1.5881077 0.05746703 -0.60903656 0.7352433
0000c0 fb be 97 3f c2 10 0e be 15 67 01 bd f9 89 27 3f
       1.1855158 -0.1387358 -0.031592447 0.65444905
0000d0 5d ae 03 3f ef 02 67 3e 4a 12 43 3d 72 45 21 3f
       0.5143793 0.22559713 0.047624864 0.6299659
0000e0 5a 55 0f 3d 5d e9 80 bf a1 7a 3c 3f f9 29 8e 3f
       0.034993507 -1.0071217 0.73624617 1.1106559
0000f0 9b 5b 08 40 a4 9e 63 bf de fd 2c bf 64 0f 13 bf
       2.1305912 -0.8891394 -0.6757487 -0.5744536
000100 c3 ed c0 3f ab 84 3a bf 45 c1 24 3e 02 3e af 3f
       1.5072559 -0.72858685 0.16089351 1.3690798
000110 60 bd 03 40 6b 93 29 3f 09 57 43 bf 92 16 ec be
       2.0584335 0.66240567 -0.7630468 -0.4611097
000120 7c 60 83 3e 6c 3f 11 bf 08 39 70 3f 48 0d f9 3e
       0.2565955 -0.567374 0.9383702 0.48642945
000130 db d7 54 bf 99 fe a0 3f 18 78 89 3e d7 02 1c bf
       -0.8314187 1.2577697 0.26849437 -0.60941833
000140 c5 d6 69 bf 05 90 18 bf dd c4 19 3e a7 76 85 bf
       -0.9134334 -0.59594756 0.15016504 -1.0426835
000150 61 aa 38 bf c6 06 0e c0 b3 81 2e bf 3e 05 04 3f
       -0.7213498 -2.2191634 -0.68166655 0.515705
000160 d1 2d 4a 3f cd ac cb 3d 23 a6 d4 3e 68 67 ec bf
       0.7897616 0.099450685 0.41533002 -1.8469057
000170 76 2c 8f bf 0b 7d 06 3e 7b 95 16 3f b0 fd ae 3f
       -1.1185443 0.13133638 0.5882184 1.3671169
000180 56 ab c7 bf 24 97 af 3e 56 be aa bf 7e 50 53 be
       -1.5599163 0.34295 -1.3339336 -0.20636174
000190 7e 1e 8d be 7a 48 9a bf cd 14 27 3f 13 b6 9b bf
       -0.27562326 -1.2053368 0.65266114 -1.216494
0001a0 bb a0 91 bf 75 e1 b5 3e 14 08 40 bf b8 86 64 bf
       -1.1377176 0.35523573 -0.75012326 -0.89268064
0001b0 0d c7 3b bf 54 3e 08 3f 8c 86 c4 3e 4a 1d 20 3f
       -0.733506 0.53220105 0.383839 0.6254469
0001c0 ae dc b7 bf 8f e9 4d bf 4a 6d 9b 3f 39 3d eb bf
       -1.4364221 -0.8043451 1.2142727 -1.8378059
0001d0 fa 0c dc 3e be 95 8f 3f 9f 7e de 3e 0a b5 91 bf
       0.4297865 1.1217573 0.4345598 -1.1383374
0001e0 e8 2c cb be e1 13 a6 be 76 1f 71 3f 97 ba e7 be
       -0.39682698 -0.3243704 0.9418863 -0.45259544
0001f0 e5 f3 1b bf bc a1 b6 be 1f 68 bf bf 7f 87 06 bf
       -0.6091903 -0.3567027 -1.495365 -0.525505
000200 c7 23 98 3f d8 20 48 3f 61 7e c4 3e 81 be 88 3e
       1.1885918 0.78175116 0.3837767 0.26707843
000210 52 a7 31 c0 c1 73 4e bf 3a 66 ef 3e 2c 14 96 3e
       -2.7758374 -0.80645376 0.4675768 0.29312265
000220 91 a8 92 bf 30 6a 87 3c 9b 55 17 be 1b 47 7e be
       -1.1457692 0.016530126 -0.1477875 -0.24831812
000230 41 89 19 40 6d 29 cf 3f 1d 35 96 be 79 71 c3 bf
       2.3990023 1.6184517 -0.29337397 -1.5269004
000240 64 a8 12 bf 3e 07 4e bf 0f 59 b4 bf b5 4f d1 be
       -0.57288194 -0.804798 -1.4089679 -0.40881124
000250 d1 4b 9a be 94 c2 65 bd e2 39 08 3f 87 c1 cd bf
       -0.30135968 -0.056093767 0.5321332 -1.6074685
000260 e9 8b b7 3e a2 80 14 c0 e8 3f 5d bf c5 91 d6 bf
       0.3584893 -2.3203511 -0.8642564 -1.6763235
000270 fe 3a 0f 3f 34 b1 b6 bf a2 cd 38 3f 02 4d ad bf
       0.5594939 -1.4272828 0.7218877 -1.3539126
000280 96 84 a1 3e 23 dd be bd 22 5a 5d 3e 9c 16 9d 3f
       0.31546468 -0.09319522 0.21616414 1.2272525
000290 e4 ee 9e 3f db ab d8 bd d1 7c 08 40 bb a0 82 3d
       1.2416654 -0.10579654 2.1326182 0.06378313
0002a0 e5 a9 00 3f b8 d3 81 3d e3 e9 ce 3e ff 9f de bf
       0.5025924 0.0633921 0.40412816 -1.7392577
0002b0 4c 16 99 3f 27 77 27 40 22 6b 55 3e 15 94 aa 3e
       1.195993 2.6166475 0.20841649 0.33316103
0002c0 6d 4b 8e bf d7 f7 0c 40 e2 a8 e1 3d f3 f0 48 3f
       -1.1116768 2.202627 0.1101854 0.7849266
0002d0 0d a6 8b bf c4 d7 83 bd ad ef be bf 75 82 df bf
       -1.091005 -0.064376384 -1.4916893 -1.7461687
0002e0 d4 93 f2 bf 88 49 a4 3c 38 37 fc bf 85 d1 f7 bf
       -1.8951364 0.020054594 -1.9704351 -1.9360815
0002f0 31 09 09 40 74 cf 73 bf 67 2a 19 bf 68 36 d5 3f
       2.141186 -0.95238423 -0.59830326 1.6657228
000300 63 5b a3 3e 59 0e 34 bf 46 25 73 bd 09 cf e6 3f
       0.3190566 -0.7033439 -0.05936172 1.8031932
000310 96 9e 08 bf 08 5f 42 3f 53 74 2f 3f 8a 09 be 3f
       -0.5336698 0.75926256 0.6853687 1.4846661
000320 0b be 19 bf 6e 5c 0e be ba 60 f9 3e 67 26 02 bf
       -0.6005561 -0.13902447 0.4870661 -0.5083985
000330 55 7d f4 bf 74 2e 45 3f 4d c7 f5 bd 86 4a b9 bf
       -1.9100748 0.77024007 -0.12000904 -1.4475868
000340 c7 f8 0e bf 6a d2 ba bf a3 ed 30 bf e3 cd 81 3f
       -0.55848354 -1.4595463 -0.69112605 1.0140957
000350 88 80 0d c0 26 d8 ee 3e a1 ec 14 bf fb 58 08 bd
       -2.21097 0.46649283 -0.5817357 -0.033287983
000360 2e c4 29 3f 5f bc 7c 3f a4 50 f3 be 29 4e eb 3e
       0.6631497 0.9872493 -0.4752246 0.4595807
000370 7f b4 ac 3f e0 24 e0 3e 06 b4 06 bf 3a ee 37 be
       1.3492583 0.43778133 -0.52618444 -0.1796197
000380 14 ee 50 be 6e 66 ed 3d 19 37 9f 3e 3c 2c 34 bf
       -0.2040332 0.115918025 0.31096724 -0.70379996
000390 04 e9 3a 3e b7 1d 54 be 30 c2 c3 3f f3 f5 49 be
       0.18252951 -0.2071446 1.5293636 -0.19722728
0003a0 4c d2 8c bb 23 37 92 3c
       -0.0042975303 0.017848557

weight f4 [128, 93]
000000 7c 02 bd 3d a6 8a 34 3d 8b 98 d1 3d 24 8e 47 3d
       0.092289895 0.044077538 0.102341734 0.04871954
000010 76 d4 92 bd ee 6a c5 3d f4 58 74 3c c1 02 6b 3d
       -0.0716943 0.09639536 0.014913786 0.057375673
000020 30 3d a7 bd b6 9b 17 bd 61 b5 be bd 33 6f ea bc
       -0.081659675 -0.037013732 -0.09311939 -0.028617477
000030 21 0c dc 3c 75 2a 96 bd 41 f2 21 3d ce bc 8a 3d
       0.026861252 -0.07332317 0.039537672 0.06774293
000040 b7 4f db 3c c2 38 76 bd c0 ef 99 bd 3e 85 da bc
       0.02677141 -0.060112722 -0.07516432 -0.026674863
000050 29 2e 69 3d d7 e8 c0 3d 7a 13 4c 3d 0d 0b 68 3b
       0.056928787 0.09419411 0.04982326 0.0035406977
000060 ca e1 42 3d e5 b5 eb bd 7a e4 45 bd 7d 1d 89 3d
       0.04757861 -0.11509303 -0.048313595 0.066950776
000070 9e 3b 6f bd f1 22 19 3d 76 54 8d bd 24 5a 92 bc
       -0.058406465 0.03738684 -0.06900875 -0.017865248
000080 31 55 b2 bd a4 39 4a 3d 9a d7 08 bb e0 d9 80 3d
       -0.08707655 0.049371377 -0.0020880462 0.06291556
000090 ff 72 51 3d b3 90 85 3d e8 c0 e3 b8 cb 28 c5 bb
       0.05113506 0.0652174 -0.00010860135 -0.006016826
0000a0 2f 8f b7 bb 40 8a 6c 3c 4e 98 92 3c 54 f4 58 bd
       -0.0056017856 0.014437258 0.01789489 -0.052967384
0000b0 7a 49 8c 3d 62 70 3d bc 56 d5 3f bd ab 7c 41 bd
       0.06849952 -0.011562439 -0.046834312 -0.047238033
0000c0 42 78 ca 3d a3 27 69 3d 94 45 61 bd 33 49 0f 3d
       0.098862186 0.056922566 -0.054997995 0.034981918
0000d0 0f 5d 74 3d 2c fd 8a 3d b5 ae ae 3d b0 93 ad bc
       0.05965906 0.0678657 0.085294165 -0.021188587
0000e0 e6 af 20 3d 56 e2 41 3c 07 ca 37 bc 8d cd f0 3b
       0.03923025 0.011833748 -0.011217601 0.0073487223
0000f0 a8 2d 72 bc 50 c3 7e 3d 5a 46 94 bb 46 56 1c bc
       -0.014781393 0.062197983 -0.004524988 -0.009542054
000100 53 58 52 3c 0b 71 d5 3c b8 4f 72 bd 39 be 63 3c
       0.012838441 0.02605488 -0.059158057 0.013900333
000110 73 ea 93 3d 52 85 08 bd 6d 43 2b 3d cb 97 2d bd
       0.07222452 -0.03333027 0.04181235 -0.04238109
000120 f5 8e 19 3d b7 4b 88 bd 52 e4 73 bd e5 39 42 bd
       0.03748985 -0.066550665 -0.059543915 -0.047418494
000130 64 98 ad 3d f8 3b 47 bd 96 ab 83 3c ba 11 76 bd
       0.08476332 -0.048641175 0.01607303 -0.0600755
000140 80 ee d5 3d bb 77 d5 3d 78 38 b1 bd 84 81 88 bd
       0.10445881 0.104232274 -0.08653349 -0.06665328
000150 70 01 7e bd b1 ac e1 3b 7e 92 f1 bc 69 c3 9b bd
       -0.06201309 0.0068870415 -0.029488798 -0.07605631
000160 d3 60 11 bd 1b 90 ac 3c 3c 94 63 bd c3 e9 31 3c
       -0.03549273 0.021064809 -0.05556129 0.010858956
000170 81 e2 d2 bc 20 fe b7 bc 8f 61 21 3d 12 06 c6 3d
       -0.025742771 -0.022460043 0.03939968 0.096691266
000180 f6 de 75 bd a7 e1 27 3c 2b 81 b1 bc b8 59 ed 3d
       -0.060027085 0.010246671 -0.021668037 0.11589378
000190 ea 17 e5 bd d3 ab b1 bd ce 11 c0 3d fb 46 95 bd
       -0.11186202 -0.08675351 0.09378396 -0.07288929
0001a0 90 47 6f 3c 58 ea 68 bc a0 4a e5 bc 76 a8 11 bd
       0.014604464 -0.014216028 -0.027989686 -0.035561047
0001b0 c1 5e 73 3d 44 11 8d 3b a6 24 cc bd a8 11 78 bd
       0.059416536 0.0043050367 -0.09967928 -0.060563713
0001c0 0d 33 0e bd 45 9b 5b 3d aa 40 8e bd 05 03 c4 3d
       -0.034716655 0.053614873 -0.069459274 0.095708884
0001d0 ba cd d6 bc f3 2b b8 bc e2 d8 c5 3d 89 83 34 3d
       -0.026221145 -0.022481894 0.09660508 0.044070754
0001e0 9c c7 5d 3d 51 28 92 3d 68 dd d9 bb eb 13 75 bd
       0.05414544 0.07136596 -0.006648708 -0.05983345
0001f0 2c 06 4b bb 0a 7f 98 3d 41 18 f1 bc c4 9d da bd
       -0.003097902 0.07446106 -0.02943051 -0.10674623
000200 b7 c5 40 3d 36 50 e1 3d 26 18 b1 bc 12 47 b8 bd
       0.047063556 0.11001627 -0.02161796 -0.089979306
000210 fe de aa bd 46 2a 99 3c 9d 72 83 bb 09 2e 6c bd
       -0.08343314 0.018696915 -0.0040114657 -0.05766109
000220 b8 18 99 3c b3 b1 74 3d e6 49 a0 3d 70 b2 86 3d
       0.018688545 0.05973978 0.07826595 0.06577003
000230 3d c0 9c bc 00 6a 98 bd 49 8d b2 bd 9d 87 dd 3d
       -0.019134635 -0.07442093 -0.08718354 0.10816882
000240 bf b4 30 3d b8 53 3e 3d 6e f0 a7 bd 26 09 ad 3d
       0.043141123 0.04646656 -0.08200155 0.084490106
000250 a1 42 bd 3d fa 07 bd 3d d2 3a 99 bd e5 32 23 bd
       0.09241224 0.09230037 -0.07481922 -0.03984346
000260 8b c9 89 bd f4 92 c6 3d 82 a6 d8 bc 4c 46 4c bd
       -0.067278944 0.09695998 -0.026446585 -0.049871728
000270 db 87 5c 3d e7 58 33 bd 46 aa 3d bd 3f 7b 72 3b
       0.0538405 -0.043785956 -0.046304964 0.003699973
000280 2e 79 8c bb 84 ea b1 bd 89 60 b1 3d 6a bc 52 bd
       -0.0042869067 -0.086873084 0.08660991 -0.051449217
000290 0b 85 00 3d d2 01 be 3d 5d da 5c 3d 73 b0 b3 3c
       0.03137688 0.09277691 0.053919185 0.021934723
0002a0 e1 5f b6 3d 71 ea ab 3c 55 04 36 bd 1c 7e b9 3d
       0.08905006 0.020985814 -0.044437725 0.090572566
0002b0 67 00 ed 3c 34 c6 c8 bd 9e dc 00 bd 31 6b 8d bd
       0.028930856 -0.09803429 -0.031460397 -0.06905211
0002c0 82 37 c1 3d 1b 01 c6 bc bc 4b c2 bd 0b d6 62 bc
       0.094344154 -0.024170449 -0.094871014 -0.013844977
0002d0 49 ff 3a 3d 08 53 f6 3c 1e e8 f3 3c d3 98 42 3c
       0.045653615 0.03006889 0.029773768 0.011877256
0002e0 46 c5 0e 3d 9e d6 b5 bc e0 e6 94 bd 76 37 f3 bd
       0.034856103 -0.022197064 -0.072705984 -0.11875813
0002f0 cb 68 b3 bd f5 77 0e 3d fd 14 91 bd d9 1a ca 3c
       -0.08760222 0.03478237 -0.07084081 0.024671005
000300 f3 7f 16 3d 3a 10 7e ba ab 35 5c bd de 1d b9 3d
       0.036743116 -0.0009691749 -0.05376212 0.090389
000310 2e da 8b bd 70 5a 98 3d 90 49 b6 bd 98 bf 00 bd
       -0.06828724 0.074391246 -0.0890075 -0.031432718
000320 5a 1c 7b 3d a3 02 2c bd a6 f2 ac 3d 8d d7 95 bd
       0.061306335 -0.041994702 0.08444719 -0.07316504
000330 9e d4 bf bd 87 4a 5a bd b5 3e ca 3c cd 2e b7 3d
       -0.093667254 -0.05329373 0.024688104 0.089444734
000340 8a 9a 61 bd cf 8e 2e 3d 62 90 aa bc 76 ab cd bc
       -0.05507902 0.04261666 -0.0208208 -0.025106173
000350 d7 5f 95 3d b8 dd 6f bd 69 b7 02 3c b0 95 bd 3d
       0.072936706 -0.058561057 0.007978299 0.09257066
000360 36 9c 08 bc fe c8 93 3d 8e 7d 00 bd 6a 32 a0 3d
       -0.008338025 0.072160706 -0.03136974 0.07822116
000370 f4 7a b9 bd 78 8f 7b bc 64 99 04 bd 26 7f cb 3c
       -0.090566546 -0.01535403 -0.032372847 0.024840903
000380 92 86 3a 3d 29 30 a8 3d a5 77 29 3c 70 7f c0 bb
       0.045538493 0.08212311 0.010343467 -0.0058745667
000390 6d f9 61 3d e5 f7 cb bc 65 70 a3 3d 4f 5d 7a bd
       0.05516951 -0.024898479 0.07980422 -0.061124142
0003a0 6c 76 55 bc 75 9b b1 bc 2c 24 6a 3d 47 ac 6c 3d
       -0.013028722 -0.021680573 0.057163402 0.057781484
0003b0 33 fb 13 bd f5 c4 61 bd 5f bf 3c 3d 30 f8 e2 3c
       -0.036128234 -0.055119473 0.046080943 0.027706236
0003c0 c8 6f 2c 3d 98 80 a2 bd 71 0b a2 3d 04 86 d1 3d
       0.04209879 -0.079346836 0.079123385 0.102306396
0003d0 af 5c 25 b9 5f 6a ce bd 67 ff b7 3d 5a f4 a3 bd
       -0.00015770154 -0.100788824 0.08984261 -0.08005591
0003e0 07 de e7 3c cf 8f cd 3c 62 22 30 bd c3 02 07 3d
       0.028304113 0.025092987 -0.04300154 0.03296162
0003f0 d9 eb ae bd 77 64 9c 3c e3 e6 8e bd 16 cd 4c bc
       -0.08541078 0.019090874 -0.06977632 -0.012500068

bias f4 [128]
000000 5f 52 b5 bd 02 b8 0d 3d 10 f2 9d bd ae 47 1f 3d
       -0.08853602 0.03459931 -0.077121854 0.03888672
000010 3e 25 cc 3d cb 46 85 bd c3 22 17 bc 4d f7 cf 3d
       0.09968041 -0.06507643 -0.009224596 0.10154591
000020 03 59 44 3d 60 ff dc 3d 6e 5a 56 bd 8e 55 08 bc
       0.04793645 0.107908964 -0.052332334 -0.008321179
000030 4c c8 96 bd 51 9b 72 bd 4d 6e be 3c 3d c1 c5 3d
       -0.07362422 -0.059230153 0.023245955 0.09655998
000040 84 2f d7 3d c1 ba 2e bd 5a 0e ad 3d e2 e5 91 bd
       0.1050711 -0.04265857 0.08450003 -0.07123925
000050 c2 44 d2 bd 17 c5 58 3c b3 b6 b9 3d 55 cb 9c 3d
       -0.10267021 0.013230584 0.0906805 0.0765597
000060 36 7e a3 bd 62 f6 b8 bc f0 0e d5 3d 73 c2 72 3d
       -0.07983057 -0.022578422 0.1040324 0.059267472
000070 82 42 e3 38 f9 2f 2a bd 1a d2 97 3d 1c 2a cd 3d
       0.000108365915 -0.041549657 0.074131206 0.10017797
000080 9f 81 85 3d b1 0c 51 3d bc e6 35 bd 02 ac bc bd
       0.06518864 0.051037494 -0.0444095 -0.092124954
000090 4c ef c0 3d 5a 62 0d 3d ad d7 86 3c 32 4f 37 3d
       0.09420642 0.034517623 0.016460264 0.04475326
0000a0 83 3f 16 bd 95 4f 90 bd ef c5 5e 3d 69 ed 86 bc
       -0.036681663 -0.07046429 0.054387983 -0.016470628
0000b0 da 58 c7 bd 35 e4 be bc 5b 4c 52 bc a4 42 95 bd
       -0.09733744 -0.023302177 -0.012835587 -0.07288101
0000c0 85 c1 a0 bd bd 91 c6 bc d9 47 b0 bd 4b 27 64 3d
       -0.07849411 -0.024239415 -0.08607454 0.055701535
0000d0 31 69 c2 bd 8a 9d 4d bd 50 89 8b bd ee b2 fe bc
       -0.0949272 -0.05019907 -0.068133 -0.03109118
0000e0 3a 22 cc bd 8e 04 f3 bc 53 28 74 bd ed 5c 90 3d
       -0.09967466 -0.029665258 -0.05960877 0.07048974
0000f0 d2 c0 99 bd a9 c2 d4 3d 9f 97 d7 3d 96 a9 e5 3c
       -0.07507481 0.10388691 0.10526966 0.028034966
000100 fb 0b 55 bb 9c a5 87 bd de da 40 bd d5 b2 8b bd
       -0.0032508362 -0.06623384 -0.047083728 -0.06821219
000110 e4 f5 96 3c df ea c9 3d ab 4e c1 bc 6f f3 36 bd
       0.018427797 0.09859251 -0.023597082 -0.04466575
000120 ac cf d8 3c 35 a1 ce bd a4 c1 e4 bc 4d 4d 67 bd
       0.026466213 -0.100893416 -0.027924366 -0.056470204
000130 61 7a 80 bd 6e 8d 10 bd 7f ee b2 3d b1 b0 71 3d
       -0.06273342 -0.035291128 0.08736896 0.059006397
000140 79 d3 ba 3c 23 cd ba 3d dd 01 55 3d 41 04 43 3c
       0.022805916 0.09121158 0.05200373 0.01190287
000150 4e 83 d0 3c 80 04 79 bc 22 ae 7a 3d 73 73 f4 3c
       0.025453236 -0.015198827 0.061201222 0.029840207
000160 cd af 25 3d a5 f4 cd bd 23 ba 28 bc 63 b6 64 3d
       0.04045086 -0.10056428 -0.010298285 0.055838
000170 73 59 e0 3c 26 97 c3 3c 27 13 1c bd e6 69 8e 3d
       0.027386403 0.023875784 -0.038104203 0.06953792
000180 71 8e 90 bc 1c 18 29 bd 11 6e 9e bd 9a 2c 58 3c
       -0.017646046 -0.041282758 -0.07735837 0.013194228
000190 22 36 9f bd 0e a1 6c 3d 55 fc 44 3c 32 04 b6 bc
       -0.07773997 0.05777078 0.012023051 -0.022218797
0001a0 25 c8 cc 3d 20 0c bc bb 92 c2 84 3b c2 9e a2 3d
       0.09999112 -0.00573875 0.004051515 0.07940437
0001b0 37 01 a9 3c 78 8b 2b 3c c4 5a c4 3d 26 2a 9c bd
       0.020630462 0.010470264 0.09587625 -0.07625227
0001c0 c1 40 62 3d 4e 1a de 3c ad 37 29 bc c2 7e 1e 3d
       0.055237535 0.027112152 -0.010328216 0.038695104
0001d0 11 05 02 3a ba 00 74 bd 06 07 8d bd 5c d4 0f bd
       0.00049598614 -0.059571005 -0.06886105 -0.03511463
0001e0 5c cc bf 3d a3 b1 ad 3d a6 9c 15 bb 8d 5f 4f 3d
       0.0936515 0.08481147 -0.0022828965 0.050628234
0001f0 73 f7 91 3d a2 22 aa 3d 66 34 0c 3d a2 b4 b1 3d
       0.07127275 0.08307387 0.03422966 0.08677031

weight f4 [128, 128]
000000 24 b5 3b bc 35 25 ca 3c 93 5f 2e bd ad ed 76 bd
       -0.0114567615 0.024675945 -0.042571615 -0.06028526
000010 90 2c 0d bc 20 f3 84 bd d2 44 06 3d 7c 68 82 3d
       -0.008616582 -0.06491685 0.032780476 0.06367585
000020 10 5d 9e 3c 45 48 cd bd a1 33 39 3d c8 3d a5 3d
       0.019331485 -0.1002355 0.045215253 0.080684245
000030 ce fe 8f 3c 16 b3 98 bd 05 a7 e9 3b d2 87 b9 3d
       0.017577555 -0.07456033 0.007130506 0.09059109
000040 8d 73 f7 bc 58 a0 8d bd c7 33 8b 3d fd a7 90 3d
       -0.030206466 -0.06915349 0.06796985 0.07063291
000050 21 6c 9b ba 0c 15 a4 3d f5 a8 ab bd 07 cb 4e 3d
       -0.0011857786 0.08011827 -0.08381835 0.05048659
000060 08 87 96 bd c7 f3 ea bc 31 d7 ae 3d 89 e0 e7 bc
       -0.07349974 -0.028680695 0.08537138 -0.028305309
000070 10 47 83 bd 3d a1 12 3d a6 19 cb 3d 23 58 51 bb
       -0.064100385 0.0357983 0.099170014 -0.0031943403
000080 4e a4 83 bd b0 0d 54 3d d2 4c 98 3d 1e bc 34 bd
       -0.06427823 0.051770866 0.07436527 -0.044124715
000090 8c ac 26 bd 95 f9 4e 3d e1 1e 45 3d 97 c3 93 bd
       -0.040691897 0.05053099 0.04812515 -0.0721504
0000a0 18 a8 28 bc e2 f6 09 3c 2d f0 73 3c 25 1c 76 3d
       -0.010293983 0.008420678 0.014888805 0.060085434
0000b0 4f 76 46 3d 45 c8 98 3c 37 f5 99 3d fc 08 ce bd
       0.04845267 0.018650183 0.07517474 -0.100603074
0000c0 bb 41 05 3d b0 3e e7 bb 5d c6 66 bd 9a 20 e2 bb
       0.03253339 -0.0070570335 -0.056341518 -0.006900859
0000d0 63 7b a5 bb cd 17 95 bd 65 96 a4 3c dd e7 ab 3d
       -0.0050501092 -0.0727993 0.020091245 0.08393834
0000e0 c5 45 34 bd 40 74 82 3a 00 b3 12 bd 0a 90 5d bd
       -0.04401185 0.0009952858 -0.03581524 -0.054092444
0000f0 b4 60 70 3d 09 35 a6 bd 6c 4a ca 3d f0 f9 84 bd
       0.058685973 -0.081155844 0.09877476 -0.06492984
000100 87 0d 55 bc 62 84 60 bd 08 12 8f bd e1 fd b5 3d
       -0.013003713 -0.05481375 -0.06985861 0.08886314
000110 8a 4b 17 bc 4a 6e 59 3d 39 05 c4 bc 74 e4 d0 3b
       -0.0092343185 0.053083695 -0.023928272 0.00637489
000120 c8 66 32 bd 39 ab 9b 3d f5 16 a5 bd ad f7 71 bb
       -0.04355505 0.076010175 -0.08061019 -0.0036921308
000130 f1 17 ae 3d 8a f3 50 bd c4 bf 61 bc 67 7c 1c 3c
       0.0850066 -0.051013507 -0.013778631 0.009551144
000140 23 26 b3 3d d9 c4 d9 ba 59 87 90 bd 4a 1a 5c bd
       0.087475084 -0.0016614451 -0.070570655 -0.05373601
000150 f3 0b 69 3c 2b 00 98 3d 5c 01 c2 bd d3 01 2a bd
       0.01422404 0.07421907 -0.094729155 -0.041505646
000160 9a 70 87 bd a9 2a a4 bd 2e 68 ac 3c ca af 6e 3d
       -0.06613274 -0.08015949 0.02104577 0.058273114
000170 35 d5 52 bd c3 59 9b bb 1c ed 19 3d ea bb 1f 3d
       -0.05147286 -0.004740925 0.03757964 0.03899757
000180 5c be 28 3d 93 31 e9 bc dc 70 b4 bc c0 29 86 bd
       0.041197166 -0.028466022 -0.022026472 -0.06550932
000190 9c f0 8c bd 43 86 c7 3b c5 03 f5 3c 4f f7 1e 3c
       -0.0688183 0.0060890033 0.029909024 0.009702518
0001a0 46 d1 85 3d 2e 19 c4 3d bc 9f bb 3c a6 4b ff bc
       0.06534056 0.09575115 0.022903316 -0.031164002
0001b0 a2 a1 58 3d 37 50 d6 3c 51 4d dc bb 7b 83 81 bd
       0.05288852 0.026161296 -0.006723084 -0.06323906
0001c0 bc 73 89 bd 14 69 c1 3d 8d 16 d5 bc c7 4f d7 3d
       -0.06711528 0.0944387 -0.02601173 0.10513263
0001d0 13 b4 9f bd 76 87 1d bd e7 58 53 3b aa 1e c9 3d
       -0.07798018 -0.038459264 0.0032249035 0.09820302
0001e0 73 fb d4 3c 8e 8e 81 bd 41 89 b3 3d 05 be 02 3d
       0.025998807 -0.06326018 0.087664135 0.031919498
0001f0 5b 34 20 bd 59 82 b2 3d 36 96 b6 3d a0 15 82 bc
       -0.03911243 0.08716268 0.08915369 -0.015879452
000200 68 d0 81 bb 34 2a 44 3d ea 3b c5 3a d0 ad 6a bc
       -0.0039616115 0.04789181 0.0015047763 -0.014323667
000210 69 ce 07 3d 5d 2f c4 3d f6 8f 3c bc 0b 16 4d 3d
       0.033155832 0.09579346 -0.011508932 0.05006985
000220 25 93 05 bd 17 eb 87 bd 6c 06 30 3c c0 e2 83 3c
       -0.03261103 -0.06636637 0.010743719 0.016099334
000230 51 47 06 3d 3d 14 a3 bd fc 0e 93 bd 0d 9d 4d 3a
       0.032782856 -0.079628445 -0.071805924 0.0007843532
000240 9c 38 93 3c 73 4d a6 bd ba 4f 80 bd ec dc 4e bd
       0.01797133 -0.08120241 -0.06265207 -0.050503656
000250 86 b4 51 bd 32 78 8c 3d 48 06 76 3d 1b 45 aa 3d
       -0.05119755 0.06858863 0.060064584 0.08313962
000260 d1 ad a0 3d be 89 55 3d 59 bb 84 bd 8d 83 ab bd
       0.07845653 0.052133314 -0.06481046 -0.08374701
000270 0f a9 5a bd c3 af b1 bd 4c 0f 8d 3d c9 1e 80 bd
       -0.053383883 -0.08676102 0.06887683 -0.06255872
000280 fa 24 49 3d 8a 94 4d bc 06 db 40 bd 55 e9 77 38
       0.04910753 -0.0125476215 -0.047083877 5.9106696e-05
000290 a4 8e e4 bc 6b 00 4c bb e1 c4 11 3c d7 f0 99 bd
       -0.027900048 -0.0031128179 0.008897037 -0.0751664
0002a0 5b e4 b2 bd 60 04 be 3d f2 81 0e 3d 84 e2 55 bc
       -0.087349616 0.09278178 0.034791894 -0.013054494
0002b0 c7 e5 63 3d 07 dd 3a bc 5b 05 d0 3c fd 4d 4b bd
       0.055639055 -0.011405236 0.025393179 -0.049634922
0002c0 cd de 74 bd ab 15 f4 3c 36 42 53 3c a3 99 97 bc
       -0.059782792 0.029795488 0.012894204 -0.018505877
0002d0 0b d3 04 bd f2 a7 00 3d 87 4c 69 3d 27 29 99 3d
       -0.03242783 0.031410165 0.056957748 0.07478552
0002e0 11 b8 65 bd d8 f9 1c bd cb 0d 50 bc 8c 00 5a bc
       -0.056083743 -0.038324207 -0.012698601 -0.013305794
0002f0 14 84 a0 bc 77 1c 20 bc c9 5a 55 3d 0d 72 51 bd
       -0.01959423 -0.009772412 0.052088533 -0.051134158
000300 c3 b1 b4 3d 59 20 9a 3d 0a b2 c3 3d 4b 15 63 3d
       0.08822968 0.07525701 0.09555443 0.05544023
000310 7e 69 44 3d 87 19 92 bd f6 99 a0 3d 6b 5c b0 bd
       0.047952168 -0.07133775 0.07841866 -0.08611377
000320 5e 56 92 3c 4e 60 ba 3d d6 41 0f 3c 44 82 54 3c
       0.017863449 0.091004 0.008743724 0.012970511
000330 06 ba 40 bd de a0 94 bd 0e 02 bf 3c f0 07 23 3d
       -0.047052406 -0.072572455 0.02331641 0.03980249
000340 ab f1 79 bd d8 66 30 3c d0 3e e6 3b cc 8b 80 bd
       -0.06102149 0.010766707 0.007026531 -0.06276664
000350 4a 40 5e 3c 18 eb 93 bd 77 99 7a 3d 95 38 83 bd
       0.013565132 -0.07222575 0.06118151 -0.064072765
000360 2c fc 93 3d ee cd 95 3d 55 87 50 3d de 5d 76 bd
       0.07225832 0.073146686 0.050910313 -0.060148112
000370 66 3f d1 3c 12 3d 7d bb 7b ba ac bd 1a 80 83 3d
       0.025542926 -0.0038641137 -0.08434006 0.06420918
000380 26 a6 be 3d 24 86 2f 3d 0a 6c 85 bd ac b2 94 3b
       0.09309034 0.042852536 -0.065147474 0.004537901
000390 0f 0d 30 bc ca 1c b5 3d 84 e4 7d bd 47 65 5e bd
       -0.010745301 0.08843382 -0.061985508 -0.054295804
0003a0 58 66 4e 3d ca b5 bc 3c c7 de ae bc 83 9c bd bd
       0.05039057 0.023035903 -0.021346463 -0.09258368
0003b0 52 e0 91 bc 5f 43 a1 3d 93 98 9b 3d 57 e3 96 bb
       -0.01780716 0.07874178 0.075974606 -0.0046047377
0003c0 91 5e 58 bd 2d 34 8f 3c fc ab 56 3d 96 38 8a bd
       -0.05282456 0.017480934 0.05241011 -0.06749074
0003d0 c6 28 09 3d c0 72 6a 3d 86 4e 56 bc d0 88 ad bd
       0.03348615 0.05723834 -0.013080245 -0.084733605
0003e0 4f 9e 36 bd 2f ef b0 bd 78 8a 50 bc 6e 9d 76 3d
       -0.04458457 -0.08639371 -0.012728326 0.06020873
0003f0 93 ae 8a bc 6b 52 83 3d 5f 78 b4 bd b7 a8 b6 3d
       -0.016928947 0.06412204 -0.088120215 0.089188986

bias f4 [128]
000000 84 95 37 3c 3c 4b 8f bb 39 5b 11 bc 81 1e 89 bd
       0.011205081 -0.0043729823 -0.008871847 -0.06695271
000010 23 14 45 3d 9e bb 8e bd ba 10 9c bd 02 93 a5 bd
       0.048114907 -0.06969379 -0.07620378 -0.0808468
000020 96 4e 30 3d e1 01 60 3b 92 a4 01 bd 03 81 8b 3d
       0.043043695 0.0034180807 -0.031651087 0.068117164
000030 76 ca ae bd ea c6 f5 39 01 7a 6a 3d 16 4d 7e 3d
       -0.0853471 0.00046878244 0.05724526 0.062085234
000040 71 9f 56 bd dd 47 dd bc dc 5d c0 3d 73 1c 02 bd
       -0.05239815 -0.027011806 0.09392902 -0.031765413
000050 fc 0f 56 bd 4a a0 9d 3d 3d d7 a9 3d 2d e9 ea 3c
       -0.052261338 0.07696588 0.082930066 0.02867564
000060 d7 52 0e bd 88 d3 6f 3d bc d1 59 bd 15 29 9a bd
       -0.03474697 0.05855134 -0.053178534 -0.07527367
000070 d2 63 aa bc 16 f0 8e bd f8 02 6f 3c 58 c5 88 3d
       -0.020799551 -0.069793865 0.01458811 0.06678265
000080 24 d3 98 3d f8 54 41 bd 8d 9d cd 3a 23 d9 06 bd
       0.07462147 -0.047200173 0.0015687213 -0.03292192
000090 25 f0 7d 3d 19 18 15 3c ae 3d b3 3d 3c ac 30 bd
       0.061996598 0.009099984 0.08751999 -0.043133005
0000a0 2b d2 bd bc 33 a9 16 3c 9d 4f 98 bd b0 7b 27 3c
       -0.023171505 0.009195614 -0.0743706 0.0102223605
0000b0 84 16 15 3c 00 e5 71 3d c3 3b b2 3c 39 93 85 3d
       0.009099606 0.059056282 0.021757012 0.06522221
0000c0 ea 38 67 bd dd 74 01 3d 54 34 3e bd 59 d3 0b bd
       -0.05645076 0.03160559 -0.046436623 -0.034137104
0000d0 fb 10 4a 3d b3 d4 a3 bd 07 7e ad 3d 9b ac 91 bd
       0.0493326 -0.079995535 0.084713034 -0.07113
0000e0 f0 ce 54 3d cd ea 47 3c ba b6 99 3d 30 75 df 3c
       0.051955163 0.012201977 0.075055555 0.027277559
0000f0 06 00 9f bc 26 a9 14 bd 4d 7d 3a 3d 12 ef 0a bd
       -0.01940919 -0.036294125 0.045529652 -0.0339194
000100 23 1b c2 bc 49 63 44 3d 60 aa 0b bd c8 c6 59 bb
       -0.02369458 0.04794625 -0.03409803 -0.0033230055
000110 2e 73 44 bd bf 9a 7d bc 11 d1 bd bc 83 9c b1 bc
       -0.047961406 -0.015478789 -0.02317098 -0.021681076
000120 22 41 00 3c 90 85 13 3d f8 76 85 bd 48 63 30 bd
       0.007828029 0.036016047 -0.06516832 -0.043063432
000130 65 92 2d bc a4 30 05 bd 3c 8f d1 bb cd 41 5c 3d
       -0.010593985 -0.03251709 -0.0063952487 0.05377369
000140 37 5c 8a 3d 1a 2f 94 bc 40 8c 38 3d 42 98 f5 bc
       0.0675587 -0.018088866 0.045055628 -0.029979829
000150 f6 9e 1a 3d 1f 6e 93 bc 54 96 c4 3b 83 8d 91 bd
       0.037749253 -0.017996846 0.005999366 -0.07107069
000160 d7 8b 2e bc cd d7 ff bc ee 22 5b 3d 7f 49 12 bc
       -0.010653458 -0.031230832 0.05350011 -0.008928656
000170 a6 2d 98 bd 92 b2 2b 3d be 9f 3d bd c7 f6 53 3d
       -0.07430582 0.041918345 -0.04629492 0.051749017
000180 7e 4e 30 3c 72 31 c6 3c 22 3e 26 bd a6 9c a7 bd
       0.0107609015 0.0241935 -0.0405866 -0.08184175
000190 45 39 78 3d 65 48 13 bd 56 79 94 3d 34 ba 3e bd
       0.06060149 -0.035957713 0.072497055 -0.046564296
0001a0 b6 18 cd bb 28 74 d9 3c 13 22 a9 3d a3 dd a6 bc
       -0.0062590493 0.026544645 0.08258452 -0.020369356
0001b0 d9 a0 15 3d 3f 8b 8c 3d 5b cf 9d bd fa be a6 3d
       0.03653035 0.068624966 -0.077055655 0.08141895
0001c0 9b 07 54 3b 36 16 0b bd 39 5d 16 3c e2 72 b8 3c
       0.0032353166 -0.03395673 0.009177499 0.022515718
0001d0 ab ab 32 3d c7 83 9d bd b6 ea 25 3d 27 a6 2a 3d
       0.043620747 -0.0769115 0.04050704 0.04166236
0001e0 78 44 89 bd 21 1f f2 3c 75 29 b9 3d f1 60 52 39
       -0.067025125 0.029555859 0.090411104 0.00020063274
0001f0 78 bc 11 bd 41 0d c5 bc d7 d1 90 bd f9 cc 25 3d
       -0.03558013 -0.024054172 -0.07071274 0.04047868

weight f4 [128, 128]
000000 a7 e4 b2 bc 1c 77 8e bd 6a 27 9e bc 18 7f 8a bd
       -0.021837546 -0.06956312 -0.019305903 -0.067625225
000010 f3 ae 14 3d 4e 96 a6 3d 1f 3c ad bd 5d 7f 85 3c
       0.036299657 0.08134137 -0.08458733 0.016296083
000020 2e 72 3a bd 94 3a 28 bd 2d b4 05 3b b3 9d 77 bd
       -0.045519046 -0.04107149 0.0020401583 -0.060453128
000030 27 03 be 3d 3e 7d d1 3c 43 f6 5a bb 63 b1 60 bb
       0.09277945 0.025572415 -0.0033410944 -0.0034285418
000040 83 1c 9c 3d a0 12 e4 3c 18 ad 94 bd fa c3 9c bb
       0.07622626 0.027840912 -0.072595775 -0.0047841044
000050 94 0b ee bc 3a db 11 bd b2 77 73 bd 3b b4 24 3d
       -0.029058255 -0.03560946 -0.059440322 0.040210944
000060 50 35 df bb b2 ed b4 3d 39 f8 db bc 67 f4 95 bd
       -0.0068117753 0.08834399 -0.02685176 -0.07322007
000070 56 92 fa 3c 75 32 62 bd 98 c7 80 3d cc 23 86 3d
       0.030587357 -0.0552239 0.062880695 0.065497965
000080 94 6e d4 bc 6a 70 a4 bc a4 22 fe 3c 77 f2 49 bc
       -0.025931634 -0.020073134 0.031022377 -0.0123258745
000090 1f 87 82 bd 9f 8c 77 bd f9 78 87 3d eb 97 77 bc
       -0.063734286 -0.06043684 0.066148706 -0.015111904
0000a0 af dc 22 bd 16 fa 5a bc 31 02 d5 3c 13 28 a6 bb
       -0.03976124 -0.013365289 0.026002022 -0.005070695
0000b0 cc f4 12 bd 77 6e 09 ba 1c b3 84 3d 73 8c af bd
       -0.035877988 -0.0005242596 0.06479475 -0.085717104
0000c0 ef c7 df 3c 24 8c e3 bc ed 69 5b bd 16 d6 00 bc
       0.027317015 -0.027776785 -0.053567816 -0.007863542
0000d0 28 68 c4 3c f4 3e 8e bc 38 8e dd bc 42 19 44 bd
       0.023975447 -0.017364003 -0.027045354 -0.04787565
0000e0 2e 94 4f 3d 5a c8 20 bd a1 44 ab bd 50 4c 8c 3b
       0.050678425 -0.03925357 -0.08362699 0.004281558
0000f0 5a f4 79 3d 2f 54 7e bd c9 2d aa 3d 27 18 34 bd
       0.061024047 -0.062092002 0.08309514 -0.043968346
000100 e3 7e 98 3d f3 54 69 3b 60 4a 81 3d 69 fe 25 bd
       0.07446077 0.0035603612 0.06313014 -0.040525828
000110 19 1c 36 bc fb 22 94 3d 42 90 36 3c d7 07 92 bd
       -0.011115097 0.072332345 0.011142792 -0.071304016
000120 e8 30 b3 bc 75 bb 28 bb a2 d3 0b 3d 0b 8a a7 bd
       -0.021873906 -0.0025746499 0.034137376 -0.081806265
000130 fc 31 79 bd 82 d6 04 3d 09 b7 2a bb 55 f0 6a bc
       -0.060838684 0.032431133 -0.002604904 -0.014339526
000140 8a 2b 30 3d a7 35 09 3b 6b cf 17 bd b4 e0 03 3d
       0.043010272 0.002093652 -0.037063044 0.032196715
000150 46 7d 09 3d 8c 69 fe bc 0e 85 e0 bc ab fd a7 3d
       0.033566736 -0.031056188 -0.027407195 0.0820268
000160 b7 ea 64 ba ae d3 8c bd a6 90 78 3d a5 64 a5 3d
       -0.0008732485 -0.06876312 0.060684822 0.08075837
000170 f5 34 1a bc 2d 6c 91 bd 4f 15 75 3d 83 73 cb bc
       -0.00941204 -0.07100711 0.059834775 -0.024835354
000180 a7 00 9b 3d 35 cc 09 3a 98 a3 48 bc 0c ba 7e bc
       0.07568484 0.00052565645 -0.012246035 -0.015547287
000190 a0 31 a9 b9 0d 8a c8 3c dd 52 b8 3c e1 a5 00 3d
       -0.00032271165 0.02447989 0.02250045 0.031408194
0001a0 7a d7 82 ba 5d c6 92 3d 78 e0 58 3c 98 c5 2c bb
       -0.000998243 0.07166741 0.013237111 -0.0026362892
0001b0 00 2b 92 3d 91 d7 a1 3d 52 90 1e bd 2e 06 b9 3c
       0.07137108 0.07902444 -0.038711853 0.022585955
0001c0 64 a9 24 3d a8 b9 7f 3c e3 d6 9d 3d c6 14 98 bc
       0.040200606 0.015608229 0.07707002 -0.018564593
0001d0 a7 1b bb bc 07 86 0e 3c a5 b7 51 bd 76 80 5e 3c
       -0.022840334 0.008698947 -0.051200528 0.013580432
0001e0 ed 8d c2 3c 83 e1 3f 3d ef 0c aa 3c 50 42 08 bd
       0.023749316 0.046845924 0.02075812 -0.033266366
0001f0 01 fb 85 3c ce d2 e4 bc 69 18 06 bd ef d3 7a 3d
       0.01635504 -0.02793255 -0.032738123 0.061237272
000200 fb 1f f6 3c 1a 85 13 3c 17 77 08 bd 31 1d 76 3d
       0.030044546 0.009003902 -0.033316698 0.060086433
000210 38 fc 92 bd ea d8 52 bd 86 fa ef bc 0d 22 ac 3d
       -0.07177013 -0.051476397 -0.029294264 0.08404932
000220 e6 11 8e 3c ce 5b 81 3c 5b b9 f1 3c ca a1 cf bb
       0.017342519 0.015790846 0.02950733 -0.0063364254
000230 73 1c b8 bb a4 7f d3 3c a0 18 5d bd 8d 8a 07 bd
       -0.005618626 0.0258177 -0.053978562 -0.033091117
000240 1b fc f3 3c 69 1f 0e bc 91 0e 85 bd 00 78 46 bd
       0.0297833 -0.008674481 -0.06496919 -0.048454285
000250 4b 12 b7 bc 9d 6e 92 bd 00 32 23 bd 08 f0 9d bd
       -0.02234759 -0.07150004 -0.039842606 -0.07711798
000260 05 f1 0b 3d a3 8c 73 bc 02 db 16 3c 90 ce 42 3c
       0.0341654 -0.014865073 0.009207489 0.011890069
000270 57 60 3c bc 5a 34 52 3d de a8 69 bd 60 67 a3 3c
       -0.011497579 0.051319458 -0.05704581 0.019946754
000280 ff 12 ec 3b 3c b5 28 bd 2e b2 9c bb bf 6a 25 3d
       0.007204413 -0.041188464 -0.004781983 0.040385004
000290 23 8f bc 3d 55 7c 14 3d 52 a4 36 3d 25 9d a4 3d
       0.09206989 0.036251385 0.0445903 0.080377854
0002a0 92 7e 32 3d 96 d3 8a bd ba 71 28 bc 7b d3 10 3d
       0.043577738 -0.06778638 -0.010281021 0.035357933
0002b0 41 59 d4 bc 88 29 74 bd 73 21 67 3d d8 99 9a 3d
       -0.025921466 -0.05960992 0.056428384 0.075488746
0002c0 b3 a5 3b 3c ed 20 c7 3c de 5a 93 3c 12 9f cc bc
       0.01145308 0.024307692 0.017987665 -0.024978194
0002d0 5a c1 56 bd 09 7c 96 bd be e4 f1 bc ed 97 ae bc
       -0.05243049 -0.073478766 -0.029528018 -0.021312678
0002e0 54 71 53 3d 2d 2e 4a 3d f0 44 ba bc 6e 19 41 3d
       0.05162175 0.049360443 -0.02273795 0.047143392
0002f0 e8 9a 42 bd 82 f0 a9 3d 4c 12 5b bd d5 22 9a 3d
       -0.04751101 0.08297826 -0.053484246 0.07526175
000300 c9 d1 af 3d c8 97 9f 3d fd 68 70 bd c3 0c a3 bd
       0.08584935 0.07792622 -0.058693875 -0.079614185
000310 49 f5 aa 3d 04 68 d5 38 ea b9 03 bb bc 39 29 3d
       0.08347566 0.00010176006 -0.0020099827 0.041314825
000320 58 09 d4 bb e5 aa 67 3c 4f 84 97 bd 98 57 2b ba
       -0.0064708404 0.0141398655 -0.07398283 -0.0006536185
000330 43 c5 60 bb 4e 62 79 3d c9 2a a1 bd df fa 75 3d
       -0.0034297265 0.060884766 -0.07869489 0.060053702
000340 8d 38 19 bd 9f 84 fa bb bc fe dc 3b fc 20 7b 3c
       -0.037407447 -0.007645204 0.006744234 0.015327688
000350 a4 a3 40 bc 02 67 33 3d 6e c8 b4 bc aa b7 68 3d
       -0.011757765 0.043799408 -0.022068229 0.05681578
000360 6c ee a0 3b ee 45 32 bd d0 ad 0d bb f0 ae 9c bc
       0.0049112346 -0.04352372 -0.0021618493 -0.019126385
000370 b4 1c 0f bd a7 f5 a8 bc bf 25 30 3d 46 cd fa bc
       -0.034939483 -0.020624949 0.043004747 -0.03061546
000380 75 97 a0 3a a6 38 f6 bb 25 ca 97 bd 35 84 82 bd
       0.0012252169 -0.0075140772 -0.07411603 -0.06372873
000390 e4 42 9e bd ff 78 73 bd 03 6e ba bc da ca da 3c
       -0.07727602 -0.059441563 -0.022757536 0.026708055
0003a0 44 36 a3 39 8f 62 7b 3c fb 00 99 3d 0c fe 9d 3d
       0.00031130214 0.015343322 0.0747089 0.07714471
0003b0 a5 1d 6e 3c 53 ce 61 bd cd 93 a3 3d 19 60 4a 3c
       0.014533435 -0.055128407 0.07987175 0.012352013
0003c0 42 27 a2 3d 8e dd 89 bd 05 dd 69 bd 3f a9 0a 3d
       0.07917644 -0.06731711 -0.057095546 0.033852812
0003d0 35 92 9c 3d 0d 22 ec 3c 52 f0 97 3d 29 be 56 bd
       0.07645074 0.02882483 0.07418884 -0.052427445
0003e0 dd 71 8e 3d bf 5b 30 3d 29 06 72 bd c7 2b 43 3d
       0.069553114 0.043056246 -0.059087906 0.04764917
0003f0 2f 87 6a bd 35 8f a7 3d 4b fd b1 3d f9 37 14 bc
       -0.057257827 0.081816114 0.0869089 -0.009046548

bias f4 [128]
000000 c7 49 b1 bc 62 2d 6c ba 29 a4 66 3d 16 d1 9e 3d
       -0.021641625 -0.0009009448 0.0563089 0.07754724
000010 a9 92 40 3d c1 31 be 3c 68 8c 34 3d af 97 80 39
       0.047014866 0.023217084 0.044079214 0.00024527076
000020 a1 18 de bc e4 2e bb bc 48 a9 95 3d cb b3 b5 bb
       -0.027111353 -0.022849508 0.073076785 -0.0055451146
000030 e4 37 58 bd 5c 55 b1 3d ac 08 96 bd 97 ba b3 3d
       -0.052787676 0.08658859 -0.07325873 0.087758236
000040 33 8e 9f bd f9 bc 94 bd ab 15 46 bd d0 3e d0 bc
       -0.07790794 -0.07262606 -0.048360508 -0.025420576
000050 39 80 bd bc 7d 44 8f 3d d5 a4 9c 3d 47 6c 17 3d
       -0.02313243 0.06995485 0.07648627 0.036968496
000060 85 bd 72 bd e4 c0 a9 3d bf 21 d8 bc 53 84 1a bb
       -0.05926277 0.08288744 -0.026383279 -0.0023577407
000070 d1 80 cb 3a 09 29 90 3c d9 82 9e bd a8 00 9e bd
       0.0015526061 0.017597692 -0.07739801 -0.07714969
000080 4a 37 a7 3d a0 70 31 3d f3 9d 1a bd 26 7a c3 3d
       0.081648424 0.0433203 -0.03774829 0.09544782
000090 c8 9e ff bc b4 0d 89 bb 55 ca 8b bc 20 c2 8e bc
       -0.031203642 -0.0041825417 -0.017064253 -0.01742655
0000a0 4d 91 b3 3d 43 45 87 3c bc ef 67 3c 7d d2 07 bd
       0.08767948 0.016512519 0.014156278 -0.03315972
0000b0 3f 2a 45 3d 64 c7 88 bd 43 20 86 bd 4b 75 78 bc
       0.048135992 -0.06678656 -0.06549122 -0.015164684
0000c0 6d 01 27 3d 7a ab 82 3d dd a3 19 bd 05 cd 4e 3d
       0.040772844 0.06380363 -0.037509788 0.05048849
0000d0 1d e4 73 3d 64 87 96 3c 66 76 35 bd 1c d5 34 bc
       0.059543718 0.018375106 -0.044302367 -0.011037137
0000e0 9e 0f 76 ba c2 e4 e4 bc 31 f9 0d 3d f0 f7 97 3c
       -0.00093864824 -0.027941111 0.034661476 0.018550843
0000f0 68 1b 16 3d 57 86 95 3c b6 2c 9e 3d db 2c 2d bd
       0.03664723 0.018252535 0.07723372 -0.042279106
000100 a3 db 89 bc 1f 5f 3f 3d 0d 6c a7 3d f2 f0 12 3d
       -0.016828364 0.046721574 0.08174906 0.035874315
000110 d0 1a a9 3d 13 00 b3 3d d2 7a 8f bd c4 fe 6e bd
       0.08257067 0.087402485 -0.07005848 -0.058348432
000120 be 7e 8e bd 74 df 99 bd bc 05 4f 3d b7 8e c2 bd
       -0.06957768 -0.075133234 0.050542578 -0.09499877
000130 15 ea 19 bd 55 78 24 ba 3e a3 b2 3d 34 87 04 3d
       -0.037576754 -0.00062740344 0.08722542 0.032355502
000140 05 6c 65 bd 88 1a 62 bb 63 e9 1b bd e3 c8 68 bc
       -0.05601122 -0.0034500677 -0.03806437 -0.014208051
000150 9a 22 2b 3c e5 46 2f bb e5 2b 48 bd b5 b2 9c 3b
       0.010445261 -0.0026745137 -0.048869986 0.0047820457
000160 d1 b8 9f bd 2c 9c ac bd 0e 20 97 3d 58 1a 46 bc
       -0.07798923 -0.08428225 0.07379161 -0.012091242
000170 63 a3 4c bd 01 40 40 3c 74 46 4c bd 47 47 65 bd
       -0.049960505 0.01173401 -0.049871877 -0.05597618
000180 a0 ae a5 bd e9 3c a8 bd d6 04 03 3d 48 05 a5 bd
       -0.08089948 -0.08214743 0.031987034 -0.08057648
000190 7a 36 b3 bd 79 d9 a6 3c d7 4a 7b 3d 94 c0 c5 b9
       -0.08750625 0.02036737 0.06135067 -0.0003771825
0001a0 3a 30 5c 3d 82 66 d2 bb 2c cd 9c bd f6 b9 84 bd
       0.05375693 -0.0064209113 -0.07656321 -0.06480782
0001b0 8d b1 2f bd 46 a8 91 3d 05 2d bb bc 4c f3 95 bd
       -0.042893935 0.07112174 -0.022848615 -0.07321796
0001c0 a1 91 8f 3d b7 6f 5c 3d 2a ef 6c 3a f9 5f 9d 3b
       0.070101984 0.053817477 0.0009038324 0.0048027006
0001d0 76 d4 59 3c fe 06 60 3d 2e 35 7d bd 80 c6 8c bd
       0.013295284 0.05469417 -0.061818294 -0.06873798
0001e0 6f fa 9c 3d f0 8d 0e 3c f0 e1 18 3b 6f 68 9a 3d
       0.07664954 0.008700833 0.0023328029 0.075394504
0001f0 39 36 95 bd 33 f6 b5 3c 32 30 ab 3c 18 ee e6 3c
       -0.07285733 0.022212123 0.020897005 0.028189704

weight f4 [128, 128]
000000 59 6d 1d bd bb 58 25 3d e2 13 d3 3c f6 0b 5a bd
       -0.03843436 0.040367823 0.025766317 -0.053234063
000010 97 b4 8e 3d bc 29 5e 3d ab 47 7a 3d ba e7 bb 3d
       0.069680385 0.05423902 0.061103504 0.09175058
000020 e6 da 73 3d 78 df 48 3d f5 3c 9e bd 54 5f bc 3d
       0.05953493 0.04904124 -0.077264704 0.0919787
000030 43 38 45 bd 3c 8c 54 3b a4 35 64 bd 75 04 d7 3b
       -0.04814936 0.003243222 -0.05571522 0.0065618106
000040 86 35 a1 bd 31 43 45 3d c1 02 e8 bc 36 bd ae 3c
       -0.07871537 0.04815978 -0.028321626 0.021330457
000050 56 42 0a 3c b5 15 9b 3d b8 ed 71 bd 6c 22 47 3c
       0.008438667 0.075725 -0.059064597 0.012154203
000060 3c ac e1 bb 97 ec 3f bd 97 1f 3d 3d 44 ef 81 3c
       -0.006886987 -0.04685649 0.046172705 0.015861161
000070 20 dc 88 3d 9d 61 ae 3d 34 5d 85 bc 77 0f c9 3d
       0.066826105 0.08514712 -0.016279794 0.09817403
000080 76 42 fb bc fb d3 54 bd 65 5a 90 bd 12 79 c4 3c
       -0.03067134 -0.051959973 -0.070484914 0.023983512
000090 6f b7 77 3c 97 15 03 bc 95 3a 7c 3d ee 17 f4 3c
       0.015119418 -0.008000753 0.061579306 0.029796567
0000a0 83 56 1f bc 06 92 b2 3c 1e 7c fb bb c6 4b 03 bd
       -0.009725216 0.021798145 -0.007674708 -0.032054685
0000b0 ce 57 76 bd ee 82 82 3d ba fe 9a bd 27 d6 96 3d
       -0.06014233 0.06372629 -0.075681165 0.07365065
0000c0 24 4f e1 3d bc 95 24 bd 1e 81 b9 3d 97 7d bf bd
       0.11001423 -0.04018186 0.0905783 -0.09350126
0000d0 7e b2 5e bd e2 d1 85 3d 35 54 69 bd 2b f4 6e 3d
       -0.054369442 0.065341726 -0.05696507 0.058338325
0000e0 a7 a2 aa 3b d4 26 9f bd 6c 1f 56 3d 00 1b 99 bd
       0.005207378 -0.07771078 0.05227606 -0.07475853
0000f0 24 6a 93 bd ef de 7f bc 2b 39 74 3d e0 7f 8d 3d
       -0.07197979 -0.015617116 0.059624832 0.06909156
000100 9e e4 bb bc 7f 7c af 39 b5 6e 5d bc 2e 6a 8c bd
       -0.022936162 0.00033471358 -0.013515164 -0.0685619
000110 92 01 0c bd 27 11 6c 3d c8 90 28 3d b5 b7 cb bc
       -0.034181185 0.057633545 0.0411537 -0.024867872
000120 92 75 2b bd 5f bf 2f bd b1 54 a8 bd de c3 80 3d
       -0.04186017 -0.042907115 -0.082192786 0.06287359
000130 3d e4 cf bc c8 4c 40 3d 65 69 2c 3d de 56 e0 3c
       -0.025377387 0.046948224 0.0420927 0.027385172
000140 7c 2e 3e 3d ee 3c 91 3d 3f 39 9e 3d 9a 68 50 39
       0.04643105 0.070916995 0.077257626 0.00019875393
000150 2a eb b1 bd 27 2a 3c 3d 16 ad c5 bc 56 a5 96 3c
       -0.08687432 0.045938637 -0.024130385 0.018389385
000160 7a b3 0d 3d 15 96 86 3c af ec a6 bd 57 24 2a 3c
       0.03459499 0.016428987 -0.081506126 0.010384641
000170 0d 07 b7 3d 1c 45 76 bd 4d 05 46 bd c6 3f 42 bd
       0.08936892 -0.0601245 -0.0483449 -0.0474241
000180 b8 42 a9 bd e0 48 af 3b 1c 63 66 bc 6a 9b 63 3d
       -0.08264679 0.0053492635 -0.014061715 0.055568136
000190 4a d6 25 bd 8e 7b 42 3d 91 8a ba 3d 3c fd b1 3d
       -0.040487565 0.047481112 0.09108461 0.08690879
0001a0 36 0b 1a 3d d3 cc a4 3c f8 b5 8e bc 93 a0 47 bc
       0.037608348 0.020117199 -0.017420754 -0.01218428
0001b0 27 59 88 3b de 03 a1 3d d9 70 90 bd 9f 14 8e 3d
       0.0041610184 0.07862066 -0.07052774 0.06937527
0001c0 96 a7 91 3c f0 da 93 3d 56 0c 95 3d bd 9c 9b bc
       0.017780107 0.072194934 0.072777435 -0.018995637
0001d0 87 48 b3 3d b1 ea 2b bd 71 dd 76 bc 15 6b 93 bd
       0.08754068 -0.041971866 -0.015067444 -0.07198159
0001e0 f7 11 9f 3d eb 8b 22 bc 96 3a 33 bd 20 10 74 3d
       0.077670984 -0.009921054 -0.043757044 0.05958569
0001f0 8a bd 35 3d 98 5d 82 3d 34 91 47 3d d7 73 05 bd
       0.04437021 0.06365508 0.04872246 -0.032581177
000200 47 97 44 bd 37 36 d0 bc a4 d9 77 bd ac 7b 65 3d
       -0.04799583 -0.025416477 -0.060510293 0.056026146
000210 c5 b8 0f 3c f7 a2 3e bb da 48 2c 3d 00 87 49 bd
       0.00877208 -0.0029088834 0.042061664 -0.04920101
000220 29 3a 73 bd ec bd 10 3d ee 21 6e bd 53 23 a3 3c
       -0.059381638 0.035337374 -0.058137827 0.019914305
000230 eb 8c 78 3d c1 63 7f bd 3e e2 8e bc 04 ae 66 bd
       0.060681265 -0.062350992 -0.017441865 -0.056318298
000240 76 fd 5d bc cb e3 8a 3d 23 0c 6e bd 55 33 57 bc
       -0.013549199 0.06781729 -0.058117043 -0.013134797
000250 d6 5d 43 3d 43 5c 46 bd 33 2d a8 3d 5b 72 94 bb
       0.04769691 -0.04842783 0.08211746 -0.004530234
000260 38 4e ad bc 73 e3 03 bd fc 24 86 bd 74 f3 d9 3c
       -0.021155462 -0.032199334 -0.06550023 0.026605345
000270 ee 49 36 3d e0 16 d2 3c 2f ef 12 3d 8b 1a 7d 3d
       0.0445041 0.025645673 0.035872635 0.06179289
000280 79 0a 38 bd 25 ea 87 3c 95 ad 81 3d 56 5b 8f 3d
       -0.044931863 0.016591141 0.06331936 0.06999843
000290 58 47 78 3d 8f 07 4f 3b 00 65 b6 3c 57 3e 38 3d
       0.060614914 0.0031590199 0.022264957 0.044981327
0002a0 a8 2c b6 bd d5 1b 9e bd c9 b3 d5 3c 68 26 2b bc
       -0.08895236 -0.07720152 0.026086705 -0.0104461685
0002b0 34 96 e8 bc 6d 6a b0 bc 93 8b 03 bc 12 d5 38 3d
       -0.028391935 -0.021535123 -0.008028883 0.045125075
0002c0 8f 1e 79 bd 58 9c 31 3d 66 85 70 3d f4 23 94 bd
       -0.06082016 0.04336199 0.05872097 -0.0723342
0002d0 80 ca 2a bd 09 d6 32 bd 4e a7 14 bd 61 fb b9 3c
       -0.041697025 -0.04366115 -0.036292367 0.022702875
0002e0 3f e1 9c bd 57 10 89 3c cf b9 a9 bd 1b b2 79 bd
       -0.0766015 0.016731424 -0.08287393 -0.06096087
0002f0 56 21 34 bd 66 04 30 bd 24 e5 9e 3d 5b e2 9b bd
       -0.043977104 -0.042972945 0.07758549 -0.07611533
000300 78 cc 85 bd 22 d4 b3 bd 78 43 a9 ba 63 c2 af bb
       -0.0653314 -0.087806955 -0.0012913784 -0.005363749
000310 f6 54 c6 3c 70 49 02 3a be a1 1e 3b 79 67 4c 3d
       0.024210434 0.00049700495 0.0024205293 0.049903367
000320 01 a1 82 bc 6c 52 93 3d 0f c5 94 bd 41 1e 86 bd
       -0.015945913 0.07193455 -0.072641484 -0.06548739
000330 ee 5c 76 bd e6 8b 96 bd e1 a9 96 3a 0b 00 5b 3d
       -0.06014722 -0.07350902 0.001149472 0.053466838
000340 c6 bf 20 3c b6 83 2c bd a9 7d 49 bc 56 a2 a4 bd
       0.009811347 -0.042117797 -0.012298026 -0.080387756
000350 74 69 2c bd ae af 9e 3d 43 c2 24 3d 66 0b 8e b9
       -0.042092755 0.07748352 0.040224325 -0.00027092843
000360 26 e1 21 bd c2 c1 5d bd 2f 1a 3f bd 25 d7 95 bd
       -0.03952136 -0.05413986 -0.04665583 -0.07316426
000370 87 8c ca bc 7f b9 99 bd cb 81 ad 3d f5 71 85 bd
       -0.024725212 -0.07506084 0.08472022 -0.06515876
000380 8c 19 51 3d 2b 97 32 3b 5a 2d 98 3d c4 5c 6c 3c
       0.051049754 0.0027250748 0.07430525 0.014426414
000390 96 c7 07 3d a1 22 8c bd dc ae c1 3c ae fd 93 3d
       0.033149324 -0.068425424 0.02364295 0.0722612
0003a0 82 f2 13 3c 59 5a 33 bc d6 1a 4a bb 13 3d 9e bd
       0.009029986 -0.0109468335 -0.003083875 -0.07726493
0003b0 fe 71 a0 3d 22 b7 9b 3d 22 63 8a 3d 93 06 50 bd
       0.07834242 0.07603289 0.06757189 -0.05078752
0003c0 e2 3c 22 3c 48 10 ec bb 10 67 70 bd de 35 c4 bc
       0.009902211 -0.0072040893 -0.058692038 -0.023951467
0003d0 ab c4 70 bc 89 9c 6b bd 4d 3e 68 ba 93 a7 e8 bc
       -0.014695327 -0.05752233 -0.0008859381 -0.028400218
0003e0 01 2c 0e 3d 5d 5e 73 bb 38 e4 b5 bd 83 72 4f bd
       0.034709934 -0.0037135102 -0.0888142 -0.050646316
0003f0 91 ca 78 bd 86 80 8a 3d 1b 1d 27 3d 25 f7 8e ba
       -0.060740057 0.06762795 0.04079924 -0.0010907395
