models/agModels-predicttop10_votes/models/NeuralNetTorch_BAG_L1/S20F8/net.params (torch, 248949 bytes, 16 tensors)

weight f4 [6, 4]
-1.109434 -1.1498388 -0.24914102 -0.4172391 0.84406745 0.6588114 -0.30872536 -2.1455648
0.49752048 -0.18448703 1.4589083 0.2634112 0.1538577 0.8865176 -0.13183187 -0.09509301
0.9328055 1.2635229 1.9886199 0.04163809 0.51053405 -0.30854857 -0.7318095 -2.2037532
00000000: ef01 8ebf eb2d 93bf d31e 7fbe 5da0 d5be
00000010: ce14 583f dda7 283f 4011 9ebe ef50 09c0
00000020: 01bb fe3e 2bea 3cbe 82bd ba3f d5dd 863e
00000030: df8c 1d3e d1f2 623f effe 06be 20c0 c2bd
00000040: 57cc 6e3f 1ebb a13f 198b fe3f b48c 2a3d
00000050: 5cb2 023f 14fa 9dbe de57 3bbf 4b0a 0dc0

weight f4 [6, 4]
-0.21571758 -0.7328612 0.5456027 0.24740475 -0.123143755 -0.6714545 0.93983924 0.4674759
-0.5220734 0.9163438 1.1435754 1.2975503 -1.508349 2.5723803 -0.49091533 0.3314202
-1.6502188 -0.5777041 -0.47998154 -0.4528285 -0.9567129 1.0045102 -0.05530284 0.6967083
00000000: 12e5 5cbe cb9c 3bbf 9eac 0b3f ac57 7d3e
00000010: cb32 fcbd 71e4 2bbf 4e99 703f 0059 ef3e
00000020: 9aa6 05bf 8295 6a3f ae60 923f 2116 a63f
00000030: 9411 c1bf e1a1 2440 4159 fbbe e9af a93e
00000040: 5f3a d3bf 6ae4 13bf 24c0 f5be 23d9 e7be
00000050: 23eb 74bf ca93 803f 3b85 62bd 7a5b 323f

weight f4 [6, 4]
-0.1014028 0.6880266 -0.85896856 -0.00945967 0.84394276 -0.379201 1.0387222 0.37302694
0.09143972 1.1099693 0.3055215 0.44532144 -0.8163963 -1.2908491 -0.75811946 -1.3269316
0.2215527 -0.33906406 -0.43587205 0.25252846 0.6878972 -0.092745274 -0.26703212 -1.0995688
00000000: 45ac cfbd 8322 303f 5de5 5bbf bbfc 1abc
00000010: a20c 583f a226 c2be d9f4 843f 63fd be3e
00000020: bf44 bb3d 7913 8e3f 506d 9c3e 2c01 e43e
00000030: 59ff 50bf 8b3a a5bf 1e14 42bf e5d8 a9bf
00000040: b6de 623e ce99 adbe 9f2a dfbe 694b 813e
00000050: 081a 303f 3cf1 bdbd 6fb8 88be acbe 8cbf

weight f4 [6, 4]
-0.7025495 1.0393211 -0.58842975 -1.2888632 0.0724493 -0.672403 0.62650985 -0.742528
-0.24798322 0.09475512 0.25155535 1.191825 0.2977503 0.3940383 -0.19415057 -0.12106468
0.1816608 -0.78066593 -1.8971612 0.14496644 -0.5959698 0.21354836 0.06906186 0.28181222
00000000: 49da 33bf 7908 853f 55a3 16bf 78f9 a4bf
00000010: 4c60 943d 9a22 2cbf f362 203f 5116 3ebf
00000020: 50ef 7dbe f90e c23d ddcb 803e b98d 983f
00000030: ba72 983e 63bf c93e 68cf 46be c2f0 f7bd
00000040: 4a05 3a3e b9d9 47bf 2ed6 f2bf 1572 143e
00000050: 7a91 18bf 6cac 5a3e 4e70 8d3d b149 903e

weight f4 [6, 4]
0.9523708 -0.997005 0.3091096 -0.110779814 0.99290687 -0.47936264 0.7627579 0.6250884
0.98083466 -1.483163 0.6004157 0.14806075 0.11614597 -0.8382967 0.62784547 -1.9163457
1.322078 -0.15035334 0.78554004 1.0091567 0.31041402 -1.397584 1.9239854 0.04811603
00000000: 93ce 733f b83b 7fbf 9d43 9e3e 87e0 e2bd
00000010: 252f 7e3f 056f f5be 1a44 433f cb05 203f
00000020: fb17 7b3f 49d8 bdbf d8b4 193f 3d9d 173e
00000030: f0dd ed3d 9d9a 56bf 7bba 203f d14a f5bf
00000040: da39 a93f 3af6 19be 2719 493f 0c2c 813f
00000050: 96ee 9e3e 08e4 b2bf 2745 f63f 5015 453d

weight f4 [26, 9]
-0.5498835 -1.6656083 -0.5469866 -0.5135736 -0.6118527 -1.441078 -0.8314795 -2.0645432
-1.069679 -0.7237976 0.049799018 0.30191344 -0.2925272 1.2840484 0.008290075 -0.8559591
0.46420893 -4.152499e-05 1.3486698 -0.2934378 -0.5440271 -2.8671768 -1.5329068 1.0515914
0.18043005 -0.7216724 1.6948493 0.32022786 1.0024837 1.4114189 -0.092982724 -0.621355
-0.6329819 1.7712681 -0.9333764 -0.6035523 0.048762456 0.57997096 0.5124219 1.2464308
-1.0753163 -1.7005397 1.5613112 0.009602618 -1.6124907 0.036028747 -0.61015844 0.72974
1.1627102 -0.11514552 -0.021551462 0.6636151 0.552806 0.189023 0.08344693 0.59854454
0.078432746 -0.9868324 0.70883614 1.0740987 2.1202805 -0.91079015 -0.6854873 -0.62589735
1.5469791 -0.7501704 0.13622345 1.3399065 2.066784 0.67429996 -0.7044567 -0.46407717
0.26456413 -0.57965106 0.93219304 0.4901121 -0.80304414 1.2868367 0.26801008 -0.5819608
-0.9179225 -0.5937442 0.16656843 -1.0594786 -0.7259069 -2.212196 -0.67468107 0.522155
0.81139696 0.08892114 0.42883262 -1.8285247 -1.1437347 0.10609883 0.58768857 1.3762026
-1.551857 0.3696407 -1.3501143 -0.16783789 -0.2911239 -1.189531 0.6683133 -1.2536528
-1.1525074 0.34223998 -0.77488536 -0.8959959 -0.7702369 0.54944885 0.35368004 0.59876424
-1.4056658 -0.78249526 1.2282519 -1.7952114 0.4153298 1.0918598 0.47752318 -1.1751893
-0.43506244 -0.30834383 0.96877915 -0.45298573 -0.6271235 -0.35538268 -1.4632818 -0.55360824
1.206473 0.80763805 0.36596462 0.2579953 -2.7837977 -0.8363624 0.4621556 0.2997954
-1.1493858 0.014339196 -0.14852853 -0.24797985 2.3848803 1.6356392 -0.27533686 -1.5098039
-0.55244905 -0.81742877 -1.4131578 -0.4049017 -0.3110848 -0.071127556 0.52728474 -1.587784
0.35548422 -2.2903574 -0.8702993 -1.6825869 0.5464093 -1.456964 0.72733563 -1.3851433
0.34910944 -0.10468389 0.20067862 1.2119074 1.2473801 -0.10194253 2.1337092 0.07384893
0.48248944 0.048697002 0.41174787 -1.7770585 1.2115794 2.6168976 0.18943006 0.34946293
-1.1161903 2.2154565 0.1109509 0.8015143 -1.0868106 -0.07074333 -1.4767935 -1.7597885
-1.9028264 0.0031258848 -1.9873067 -1.9428573 2.1417985 -0.9158228 -0.61164725 1.6808056
0.36457357 -0.73904026 -0.07507999 1.7943039 -0.60425633 0.7729472 0.7414418 1.4562753
-0.5767894 -0.09555082 0.46777403 -0.50046724 -1.9372447 0.70930326 -0.112912826 -1.4722154
-0.5102224 -1.4883788 -0.71976334 1.0453192 -2.2265086 0.48674107 -0.51187533 -0.04811111
0.6453446 1.011621 -0.5007275 0.42043966 1.3743943 0.44199303 -0.48826227 -0.21122086
-0.17186716 0.072066955 0.2566378 -0.6450387 0.13304916 -0.15634525 1.4685273 -0.14692673
-0.00014495937 0.0028426428
00000000: 2ac5 0cbf a732 d5bf 5007 0cbf 8f79 03bf
00000010: 61a2 1cbf 3e75 b8bf d7db 54bf 7a21 04c0
00000020: 3eeb 88bf cd4a 39bf 0efa 4b3d 6694 9a3e
00000030: 20c6 95be b35b a43f 18d3 073c 2320 5bbf
00000040: cbac ed3e 1e2b 2eb8 36a1 ac3f 7b3d 96be
00000050: 5c45 0bbf d37f 37c0 4a36 c4bf 8c9a 863f
00000060: a8c2 383e 86bf 38bf d2f0 d83f e8f4 a33e
00000070: 6351 803f 60a9 b43f ba6d bebd 1f11 1fbf
00000080: 1a0b 22bf eab8 e23f c1f1 6ebf 6782 1abf
00000090: 24bb 473d fa78 143f 152e 033f 0b8b 9f3f
000000a0: f7a3 89bf 49ab d9bf 0cd9 c73f 4d54 1d3c
000000b0: 1866 cebf e192 133d 5833 1cbf 3ed0 3a3f
000000c0: b0d3 943f 6ad1 ebbd b18c b0bc aee2 293f
000000d0: b284 0d3f 3f8f 413e 39e6 aa3d 373a 193f
000000e0: 59a1 a03d 0ca1 7cbf 4976 353f 117c 893f
000000f0: adb2 0740 8b29 69bf 187c 2fbf cf3a 20bf
00000100: 6903 c63f 2b0b 40bf 297e 0b3e 0e82 ab3f
00000110: 3046 0440 ec9e 2c3f 4657 34bf 869b edbe
00000120: f374 873e 0364 14bf 34a4 6e3f f9ef fa3e
00000130: 4d94 4dbf 11b7 a43f 9e38 893e 62fb 14bf
00000140: f8fc 6abf 9fff 17bf ea90 2a3e ff9c 87bf
00000150: 09d5 39bf 9f94 0dc0 e6b7 2cbf f3ab 053f
00000160: b6b7 4f3f 491c b63d f38f db3e 190d eabf
00000170: e665 92bf 584a d93d c272 163f 6827 b03f
00000180: 40a3 c6bf 8c41 bd3e 8cd0 acbf b2dd 2bbe
00000190: 310e 95be 8d42 98bf 9516 2b3f b277 a0bf
000001a0: 5d85 93bf 143a af3e e35e 46bf fd5f 65bf
000001b0: 3f2e 45bf aea8 0c3f 8d15 b53e 9d48 193f
000001c0: dbec b3bf 9c51 48bf 5c37 9d3f 7dc9 e5bf
000001d0: 1ca6 d43e 10c2 8b3f eb7d f43e 9a6c 96bf
000001e0: 81c0 debe 3edf 9dbe e901 783f bfed e7be
000001f0: 2a8b 20bf b8f4 b5be d14c bbbf 45b9 0dbf
00000200: b56d 9a3f 5ec1 4e3f b75f bb3e f617 843e
00000210: be29 32c0 d91b 56bf a99f ec3e c87e 993e
00000220: 131f 93bf f2ee 6a3c dd17 18be 6eee 7dbe
00000230: e1a1 1840 a05c d13f f4f8 8cbe 4141 c1bf
00000240: 4d6d 0dbf 0343 51bf 5be2 b4bf 474f cfbe
00000250: 8246 9fbe 53ab 91bd 22fc 063f 823c cbbf
00000260: 0702 b63e 3795 12c0 efcb 5ebf 025f d7bf
00000270: 7be1 0b3f cc7d babf ab32 3a3f 604c b1bf
00000280: 79be b23e 8264 d6bd b27e 4d3e c81f 9b3f
00000290: 27aa 9f3f 3fc7 d0bd b18e 0840 1c3e 973d
000002a0: db08 f73e 8276 473d 9ed0 d23e a776 e3bf
000002b0: 0915 9b3f 407b 2740 f4f9 413e ceec b23e
000002c0: 53df 8ebf 0aca 0d40 3a3a e33d 0b30 4d3f
000002d0: 9c1c 8bbf e1e1 90bd 9207 bdbf c040 e1bf
000002e0: d18f f3bf a5db 4c3b 1160 febf 8caf f8bf
000002f0: 3a13 0940 5d73 6abf ea94 1cbf a324 d73f
00000300: 63a9 ba3e be31 3dbf 8ac3 99bd c0ab e53f
00000310: 8bb0 1abf dedf 453f 21cf 3d3f 3b67 ba3f
00000320: 78a8 13bf 26b0 c3bd 1480 ef3e 9f1e 00bf
00000330: a2f7 f7bf e694 353f d73e e7bd 8e71 bcbf
00000340: ef9d 02bf 3283 bebf 6942 38bf 05cd 853f
00000350: 1e7f 0ec0 2036 f93e 430a 03bf 2810 45bd
00000360: 4e35 253f cc7c 813f ad2f 00bf de43 d73e
00000370: 27ec af3f e94c e23e 83fd f9be 484a 58be
00000380: f2fd 2fbe d797 933d 0866 833e 4221 25bf
00000390: 0a3e 083e f818 20be b4f8 bb3f f673 16be
000003a0: 3c00 18b9 a24b 3a3b

weight f4 [128, 76]
0.1469162 0.111152485 0.118969604 0.06243139 -0.083375044 0.1097634 0.02228595 0.06543253
-0.08770113 -0.030797757 -0.11761653 -0.038716488 0.007898675 -0.10920623 0.025233893 0.038415477
0.027613739 -0.069789946 -0.08773589 -0.036937397 0.051479384 0.11391149 0.07247943 -0.013438682
0.03935532 -0.11371404 -0.093786545 0.05578793 -0.06321204 0.05378032 -0.085031 -0.05236063
-0.09566243 0.057531487 -0.012761689 0.087878115 0.06795278 0.067490436 0.007818156 -0.05618823
-0.026783923 0.014470497 0.0609629 -0.07789962 0.11567199 -0.015331272 -0.13895509 -0.07080317
0.10707596 0.11036058 -0.086953886 0.06286543 0.07611723 0.03206297 0.08426292 -0.07695143
0.031637907 0.03801015 -0.04638618 0.05127038 -0.0059081004 0.03751512 -0.0045937765 -0.05618639
0.027771574 0.04071198 -0.07558796 -0.010803379 0.06877074 -0.023811601 0.03150539 -0.013386909
0.01821597 -0.07995482 -0.061443996 -0.079224765 0.17947607 0.033837844 0.008370448 -0.046786007
0.1186644 0.1020996 -0.07397011 -0.077431664 -0.06996153 0.005030519 -0.03189303 -0.079981595
-0.044851203 0.016523868 -0.065419406 0.015701884 0.002135609 -0.05096296 0.016484963 0.09705261
-0.07085791 0.005326764 -0.04074733 0.11515173 -0.10435715 -0.10913542 0.117208414 -0.07088574
0.028016416 -0.003528566 -0.024012333 -0.017982874 0.073717475 0.0041157994 -0.10877245 -0.06170298
-0.03766046 0.061031196 -0.0708237 0.100685894 -0.022370098 -0.016768951 0.09806977 0.0646102
0.11746236 0.065696634 -0.093249075 -0.08052392 -0.0037668864 0.10606991 -0.018912857 -0.11682914
0.048798848 0.08620694 -0.049919106 -0.09859272 -0.098344356 0.029149903 -0.007291612 -0.049917784
0.019794028 0.02368269 0.10348325 0.07645242 -0.016419249 -0.10394682 -0.11272068 0.09437353
0.061607946 0.046419315 -0.11953524 0.12400168 0.098347105 0.116594076 -0.092333525 -0.057026885
-0.008988257 0.1716834 -0.03109365 -0.03944751 0.06524704 -0.047660228 -0.033971973 -0.0009296763
0.0013882336 -0.07367233 0.084684834 -0.041623645 0.028718503 0.110147 0.08244814 0.021877613
0.12106881 0.0151353525 -0.054147646 0.10819034 0.03410295 -0.10554758 -0.01642596 -0.07865688
0.10773664 -0.016581465 -0.099458896 -0.0012141796 0.077132344 0.03526278 0.04395177 0.020969823
0.04512671 -0.022547984 -0.044685833 -0.10488265 -0.10460934 0.06040892 -0.057093814 -0.000579282
0.036364302 0.0092785135 -0.070739165 0.11229428 -0.051963348 0.0814437 -0.13274053 -0.0414856
0.06307035 -0.059303313 0.11481026 -0.088628545 -0.093626074 -0.08270141 -0.007220808 0.10909663
-0.030949641 0.04724753 -0.014271637 -0.02210034 0.084016934 -0.09812788 0.025374591 0.09395793
-0.012554982 0.08613683 -0.044883363 0.0851996 -0.10428179 -0.02559086 -0.03816592 0.0592215
0.051805343 0.087702 -0.004880924 -0.022939045 0.14022087 0.049455266 0.10434242 -0.074081294
-0.017668184 0.010890804 0.076433666 0.09756182 -0.008714738 -0.09372292 0.050784554 0.024571056
0.01889476 -0.081502974 0.0851468 0.10997744 0.04325522 -0.10090921 0.08770435 -0.08067087
0.026756255 0.016922947 -0.04672927 0.040102098 -0.10030812 0.027324937 -0.07026218 -0.007436224
00000000: 3371 163e eaa3 e33d 56a6 f33d 0fb8 7f3d
00000010: 89c0 aabd a2cb e03d 0691 b63c 7e01 863d
00000020: a69c b3bd 944b fcbc efe0 f0bd 2e95 1ebd
00000030: 7269 013c 84a7 dfbd 4fb7 ce3c 8c59 1d3d
00000040: 3536 e23c 08ee 8ebd e0ae b3bd ab4b 17bd
00000050: 0cdc 523d 6d4a e93d 1870 943d eb2d 5cbc
00000060: 0b33 213d e8e2 e8bd 2913 c0bd e281 643d
00000070: 5075 81bd c148 5c3d bc24 aebd 1a78 56bd
00000080: aaea c3bd 23a6 6b3d 6716 51bc 71f9 b33d
00000090: d42a 8b3d 6d38 8a3d b917 003c a125 66bd
000000a0: f569 dbbc aa15 6d3c 3cb4 793d d689 9fbd
000000b0: 70e5 ec3d 0430 7bbc 3e4a 0ebe 4101 91bd
000000c0: a44a db3d ba04 e23d e114 b2bd 97bf 803d
000000d0: 5ae3 9b3d 7654 033d 0a92 ac3d b698 9dbd
000000e0: c096 013d 88b0 1b3d 6fff 3dbd e400 523d
000000f0: bd98 c1bb 74a9 193d 6487 96bb b323 66bd
00000100: 3681 e33c 9bc1 263d dccd 9abd a800 31bc
00000110: acd7 8c3d 8c10 c3bc cc0b 013d c454 5bbc
00000120: a839 953c 5abf a3bd b3ac 7bbd 9840 a2bd
00000130: 93c8 373e 8d99 0a3d 3424 093c afa2 3fbd
00000140: 5206 f33d 9819 d13d a47d 97bd 7e94 9ebd
00000150: fe47 8fbd 0dd7 a43b 44a2 02bd 64cd a3bd
00000160: e5b5 37bd 105d 873c 9cfa 85bd 3da1 803c
00000170: 93f5 0b3b 89be 50bd 790b 873c 85c3 c63d
00000180: f41d 91bd 238c ae3b ace6 26bd acd4 eb3d
00000190: 34b9 d5bd 6482 dfbd f70a f03d 8b2c 91bd
000001a0: af82 e53c 843f 67bb 83b5 c4bc d250 93bc
000001b0: 30f9 963d d4dd 863b 17c4 debd 44bc 7cbd
000001c0: db41 1abd d9fb 793d 040c 91bd 6834 ce3d
000001d0: 7f41 b7bc 0a5f 89bc ced8 c83d 5a52 843d
000001e0: 1b90 f03d f58b 863d 5ff9 bebd bae9 a4bd
000001f0: dedd 76bb 2e3b d93d 23ef 9abc 1e44 efbd
00000200: 4de1 473d 448d b03d fa77 4cbd fbea c9bd
00000210: c468 c9bd c7cb ee3c 7aee eebb 9776 4cbd
00000220: 1627 a23c 3302 c23c 07ef d33d 1693 9c3d
00000230: a981 86bc 12e2 d4bd 1ada e6bd e946 c13d
00000240: 9d58 7c3d 2e22 3e3d e4ce f4bd 98f4 fd3d
00000250: 356a c93d e0c8 ee3d 5c19 bdbd 0695 69bd
00000260: 7b43 13bc c6cd 2f3e 1cb8 febc b693 21bd
00000270: 3da0 853d 5f37 43bd 3226 0bbd 85b5 73ba
00000280: 64f5 b53a 85e1 96bd 3e6f ad3d 8e7d 2abd
00000290: 1143 eb3c c094 e13d 92da a83d ae38 b33c
000002a0: edf2 f73d 45fa 773c ecc9 5dbd e692 dd3d
000002b0: 89af 0b3d 5429 d8bd bc8f 86bc dc16 a1bd
000002c0: 07a5 dc3d dad5 87bc 1bb1 cbbd 1b25 9fba
000002d0: 90f7 9d3d b46f 103d c506 343d e8c8 ab3c
000002e0: c9d6 383d 8db6 b8bc 7e08 37bd b7cc d6bd
000002f0: 6c3d d6bd 586f 773d 34db 69bd f5da 17ba
00000300: bcf2 143d e804 183c b2df 90bd 8bfa e53d
00000310: 85d7 54bd f4cb a63d 22ed 07be ceec 29bd
00000320: 072b 813d 08e8 72bd a421 eb3d e282 b5bd
00000330: 07bf bfbd 5b5f a9bd 879c ecbb 0e6e df3d
00000340: 1a8a fdbc a086 413d 96d3 69bc c60b b5bc
00000350: 1211 ac3d 45f7 c8bd 60de cf3c 046d c03d
00000360: 69b3 4dbc 8268 b03d 9ed7 37bd 217d ae3d
00000370: b191 d5bd eca3 d1bc de53 1cbd 3e92 723d
00000380: d731 543d 1b9d b33d 28f0 9fbb aaea bbbc
00000390: 0f96 0f3e 9b91 4a3d 7bb1 d53d efb7 97bd
000003a0: debc 90bc 586f 323c 4189 9c3d 7ece c73d
000003b0: 43c8 0ebc cdf1 bfbd 7703 503d 3d49 c93c
000003c0: 2fc9 9a3c 08eb a6bd 7261 ae3d da3b e13d
000003d0: 632c 313d 7da9 cebd 579e b33d c536 a5bd
000003e0: ef2f db3c fea1 8a3c 3167 3fbd 1942 243d
000003f0: 586e cdbd 8cd8 df3c 9ee5 8fbd 91ab f3bb

bias f4 [128]
-0.0686531 -0.06582442 -0.08073432 0.0580663 0.01557963 -0.005389031 0.030856822 0.05741358
0.00931508 0.06687775 -0.011073937 0.04536683 0.037047353 -0.0012116552 0.09067584 0.11167103
0.093981974 -0.022102783 -0.021454426 0.10761385 -0.056325864 0.011196019 -0.06753977 -0.028285556
-0.04458899 0.067732826 -0.050618973 -0.055872113 0.04174019 -0.00855176 0.019921942 -0.08636736
-0.045638643 0.057259545 0.05916242 -0.10428504 -0.08655337 0.04781726 -0.10030374 -0.06439477
-0.07304684 -0.091767326 -0.05580803 0.08018725 -0.11431887 0.07697449 -0.10414363 -0.033305176
-0.036246423 0.062021628 -0.090932086 -0.06276622 -0.10667221 -0.00039003213 0.049012914 0.10660834
0.092862464 -0.031728305 -0.06438476 0.021674512 0.06651881 0.10088397 0.071911655 -0.0058631278
-0.098139785 -0.07195475 0.068098284 -0.0871643 -0.082943976 -0.070866145 -0.029287098 0.053113136
0.07792605 0.09842918 0.06423643 0.022697289 -0.025806993 -0.06754809 -0.05515563 -0.012881052
0.09334088 -0.017758075 -0.014239258 -0.0014054222 -0.05287839 -0.06649415 0.041879307 -0.08442384
-0.006857788 -0.008387082 0.020033756 -0.012978006 -0.05757208 -0.028525488 -0.031759992 0.040216397
0.027677115 -0.031385683 0.09323068 -0.0013233903 0.057597917 -0.032602753 -0.10428015 -0.032548685
-0.03848962 0.063728906 0.008754013 0.0037233613 0.0407683 -0.06862134 -0.029852586 0.022393098
-0.10258168 -0.10521518 -0.0866536 0.029770274 -0.020209871 -0.015091107 0.068231374 -0.071574174
-0.0657848 -0.028769923 0.06847016 0.014176748 -0.09337843 0.08543541 -0.074535236 0.086885355
00000000: ff99 8cbd f4ce 86bd 0958 a5bd eed6 6d3d
00000010: b441 7f3c 7896 b0bb 72c7 fc3c 812a 6b3d
00000020: 479e 183c 34f7 883d 756f 35bc 92d2 393d
00000030: f7be 173d 67d0 9eba 41b4 b93d c8b3 e43d
00000040: 9f79 c03d e510 b5bc 31c1 afbc a664 dc3d
00000050: f3b5 66bd 826f 373c 4a52 8abd 1cb7 e7bc
00000060: f2a2 36bd 82b7 8a3d d755 4fbd 28da 64bd
00000070: c3f7 2a3d ae1c 0cbc 5733 a33c 5fe1 b0bd
00000080: 96ef 3abd fc88 6a3d 4b54 723d 6593 d5bd
00000090: e542 b1bd 08dc 433d 0c6c cdbd 68e1 83bd
000000a0: 9599 95bd 82f0 bbbd f696 64bd 3739 a43d
000000b0: 0320 eabd cda4 9d3d 4149 d5bd 026b 08bd
000000c0: 2177 14bd 640a 7e3d 9a3a babd 938b 80bd
000000d0: f676 dabd 3a7d ccb9 c4c1 483d 7955 da3d
000000e0: ad2e be3d 8af5 01bd 28dc 83bd bf8e b13c
000000f0: 043b 883d 419c ce3d 6b46 933d 7b1f c0bb
00000100: 83fd c8bd 035d 93bd 1d77 8b3d 3283 b2bd
00000110: 88de a9bd 4522 91bd 7feb efbc 298d 593d
00000120: b197 9f3d 3d95 c93d 648e 833d aaef b93c
00000130: 3069 d3bc a756 8abd dfea 61bd 0c0b 53bc
00000140: 8129 bf3d 6279 91bc c74b 69bc 2536 b8ba
00000150: 0397 58bd 162e 88bd a389 2b3d 68e6 acbd
00000160: 4cb7 e0bb f969 09bc d51d a43c b4a1 54bc
00000170: b4d0 6bbd 49ae e9bc c416 02bd f3b9 243d
00000180: 1ebb e23c 468e 00bd baef be3d 9c75 adba
00000190: cbeb 6b3d 778a 05bd d590 d5bd c551 05bd
000001a0: 4ba7 1dbd 4d84 823d fe6c 0f3c a303 743b
000001b0: a9fc 263d 5889 8cbd 698d f4bc bb71 b73c
000001c0: 5816 d2bd 0e7b d7bd 7177 b1bd cae0 f33c
000001d0: 2c8f a5bc b140 77bc e4bc 8b3d 7b95 92bd
000001e0: 2eba 86bd e7ae ebbc 153a 8c3d 9745 683c
000001f0: 313d bfbd c3f8 ae3d eea5 98bd f3f0 b13d

weight f4 [128, 128]
0.019140849 0.010502703 0.06995464 0.031455718 -0.089247875 0.03683828 0.06527546 -0.059614062
0.054428607 0.056341674 -0.02393388 -0.003806406 -0.020187138 0.06453171 0.035215095 0.05363869
-0.09185371 -0.039792985 -0.076763175 0.010120952 -0.039136995 0.030502908 0.040763225 -0.023518072
0.0063367267 -0.06066104 -0.012103379 0.0021079471 0.053287502 0.02854708 0.0065827067 0.041094553
0.06888202 0.0026881576 0.09591231 -0.052267727 0.029300017 0.0013248264 0.059131335 -0.104761615
0.039734147 -0.080732286 -0.018414728 -0.016709654 -0.040220276 -0.055848278 -0.080626145 -0.0855487
-0.031797264 0.05817948 -0.03463015 -0.06236199 -0.034181267 -0.010237973 0.001156806 0.06536103
-0.09761297 0.04603624 0.04410802 0.056723863 -0.05683698 0.01306388 0.04962687 -0.07832653
0.043925088 -0.02524188 -0.09578225 -0.02180779 -0.013688999 -0.05524246 -0.049550693 -0.010403607
0.023221318 0.03316376 -0.075149685 -0.015221096 0.01915035 0.0630822 0.032333303 0.05128567
0.020282747 0.0033234912 -0.049325373 -0.045319688 0.011691138 -0.017594326 0.062492758 -0.066713095
0.085139245 0.035417654 0.04358556 0.057966437 -0.053280666 0.04908306 -0.08785962 -0.050521523
-0.022875955 0.07582925 -0.014018043 -0.0762355 -0.08680048 0.013109976 -0.006490205 2.7536415e-05
-0.034216315 0.025745708 8.0710336e-08 -0.0038877525 0.07178957 -0.07386606 -0.06570283 0.022566715
-0.027747473 1.1533412e-11 -0.024701372 0.04092426 0.076659575 0.07001387 0.0041636634 -0.05769426
-0.043363255 -0.05192715 -0.023270635 -0.048948396 0.048264872 -0.08634784 -0.0010594355 0.04880116
-0.060209725 -0.0062551084 0.06526559 -0.017282395 -0.042295787 0.06321968 -0.0711154 0.08400348
0.08237351 0.012447254 0.0021250055 -0.036884733 0.050198395 -0.0620705 -0.034853276 0.060385257
0.03037648 0.055095937 0.0344723 0.07639281 0.021119135 -0.067583404 -0.08315348 0.057961468
0.08722218 0.07140906 -0.057078786 0.08502619 -0.03403684 0.038286664 0.038863625 -0.071119934
-0.079334356 0.056215066 -0.07404851 0.026049474 0.059677064 0.055473708 0.011287498 -0.039075673
-1.1417193e-05 -0.010510201 -0.07490548 0.013057409 -0.04406628 0.048033774 -0.037780937 -0.004588246
-0.057790313 0.091206156 0.054940984 0.08330581 0.07742657 -0.0036158222 0.08978528 -0.008246305
0.08183126 0.0077771535 0.05767878 -0.027558615 0.039166793 0.009287524 -0.07103089 0.06727409
-0.042442597 -0.08399131 0.07008232 -0.09665922 0.03250557 0.0683625 0.003128347 -0.072374575
-0.06373446 -0.019004866 0.0039556106 0.06479708 0.075061336 -0.05324511 -0.029092051 -0.06903498
0.027850106 0.055568613 -0.009698971 0.009027383 0.0062725786 -0.07620862 0.07228792 0.01707169
0.10637725 -0.070616126 -0.02437799 -0.04132134 0.021013374 -0.01396089 -0.042142767 0.07580516
0.078278445 0.10159019 0.035757672 0.059314113 -0.04531499 -0.015963344 -0.02276109 -2.5012223e-08
0.022499247 0.018221213 -0.008613628 -0.0032825149 -0.016061751 -0.051284514 -0.051998995 -0.042492203
-0.052855503 -0.06044689 0.011710509 -0.07380994 -0.07951778 0.073994525 -0.06805887 0.05230512
0.015543527 0.0027676455 0.070030466 -0.064318314 0.050654497 0.06359572 0.06733656 -0.083852984
00000000: 45cd 9c3c 8713 2c3c 6144 8f3d b6d7 003d
00000010: 97c7 b6bd bce3 163d 24af 853d e02d 74bd
00000020: 88f0 5e3d 87c6 663d fc10 c4bc e574 79bb
00000030: 7f5f a5bc 3429 843d b43d 103d 3eb4 5b3d
00000040: cc1d bcbd f8fd 22bd 0336 9dbd 59d2 253c
00000050: 1d4e 20bd 3ce1 f93c 57f7 263d f9a8 c0bc
00000060: 51a4 cf3b b677 78bd 404d 46bc 7c25 0a3b
00000070: ff43 5a3d 91db e93c bfb3 d73b c352 283d
00000080: 0412 8d3d cd2b 303b ac6d c43d af16 56bd
00000090: 9706 f03c cca5 ad3a b333 723d 428d d6bd
000000a0: 46c0 223d f856 a5bd 7cda 96bc afe2 88bc
000000b0: 04be 24bd 2ac1 64bd 521f a5bd 2834 afbd
000000c0: d93d 02bd 9b4d 6e3d 58d8 0dbd 496f 7fbd
000000d0: a801 0cbd 2cbd 27bc f89f 973a 01dc 853d
000000e0: 4fe9 c7bd 7f90 3c3d 9caa 343d 4857 683d
000000f0: e5cd 68bd e209 563c 8b45 4b3d a969 a0bd
00000100: cbea 333d 0fc8 cebc 7c29 c4bd 40a6 b2bc
00000110: d347 60bc eb45 62bd abf5 4abd e473 2abc
00000120: a23a be3c b9d6 073d 14e8 99bd e761 79bc
00000130: 32e1 9c3c 3e31 813d ed6f 043d ec10 523d
00000140: 0128 a63c eece 593b 6709 4abd 23a1 39bd
00000150: 308c 3f3c fa21 90bc 68f8 7f3d e0a0 88bd
00000160: 7c5d ae3d 1a12 113d c686 323d 376e 6d3d
00000170: d43c 5abd 520b 493d bfef b3bd a8ef 4ebd
00000180: 5b66 bbbc 5e4c 9b3d efab 65bc 5c21 9cbd
00000190: 73c4 b1bd 3acb 563c c9ab d4bb 00fe e637
000001a0: 6826 0cbd aae8 d23c fa52 ad33 aac9 7ebb
000001b0: 6906 933d 1747 97bd 358f 86bd d5dd b83c
000001c0: ab4e e3bc dfe5 4a2d 885a cabc 32a0 273d
000001d0: b2ff 9c3d 6f63 8f3d 576f 883b d150 6cbd
000001e0: ab9d 31bd 90b1 54bd 0fa2 bebc 1d7e 48bd
000001f0: 63b1 453d 23d7 b0bd c2dc 8aba bae3 473d
00000200: 799e 76bd a7f7 ccbb f7a9 853d cf93 8dbc
00000210: 593e 2dbd 5279 813d f3a4 91bd 040a ac3d
00000220: 71b3 a83d 91ef 4b3c ad43 0b3b 7214 17bd
00000230: d59c 4d3d a33d 7ebd 4fc2 0ebd 8856 773d
00000240: 19d8 f83c 47ac 613d d432 0d3d d573 9c3d
00000250: 0902 ad3c 2b69 8abd 5f4c aabd 0169 6d3d
00000260: 8ba1 b23d ea3e 923d 72cb 69bd 3622 ae3d
00000270: 376a 0bbd 7ad2 1c3d 772f 1f3d 54a7 91bd
00000280: 0d7a a2bd c541 663d bfa6 97bd b565 d53c
00000290: f06f 743d 6638 633d 33ef 383c d00d 20bd
000002a0: 788c 3fb7 fa32 2cbc 0b68 99bd beee 553c
000002b0: d87e 34bd 10bf 443d 2fc0 1abd ff58 96bb
000002c0: 89b5 6cbd 4bca ba3d cc09 613d 3d9c aa3d
000002d0: d291 9e3d 6ef7 6cbb 58e1 b73d 831b 07bc
000002e0: 2697 a73d 7ed7 fe3b 9640 6c3d 9bc2 e1bc
000002f0: 5c6d 203d b32a 183c a578 91bd 00c7 893d
00000300: 4ad8 2dbd a303 acbd 5287 8f3d 45f5 c5bd
00000310: 9024 053d a301 8c3d f404 4d3b 1f39 94bd
00000320: 3687 82bd 18b0 9bbc 119e 813b 55b4 843d
00000330: c2b9 993d 8b17 5abd 7452 eebc 3662 8dbd
00000340: e825 e43c ea9b 633d 6fe8 1ebc 97e7 133c
00000350: 348a cd3b 4413 9cbd b00b 943d eed9 8b3c
00000360: 51dc d93d 309f 90bd 5ab4 c7bc 9140 29bd
00000370: 3d24 ac3c 37bc 64bc e59d 2cbd bc3f 9b3d
00000380: 7350 a03d 840e d03d a376 123d 5bf3 723d
00000390: 369c 39bd 8fc5 82bc 7775 babc 76da d6b2
000003a0: 5750 b83c a744 953c 2d20 0dbc 761f 57bb
000003b0: ef93 83bc b60f 52bd e6fc 54bd 4e0c 2ebd
000003c0: 037f 58bd 2897 77bd 6fdd 3f3c aa29 97bd
000003d0: 38da a2bd 718a 973d 7362 8bbd e53d 563d
000003e0: 47aa 7e3c 6361 353b 226c 8f3d 52b9 83bd
000003f0: 177b 4f3d 793e 823d c0e7 893d 1dbb abbd

bias f4 [128]
-0.012843112 0.04055097 0.03645156 -0.072904855 -0.03026797 -0.073143795 -0.07805593 0.053166997
0.06532867 -0.05513704 -0.02772403 0.039820477 0.094661854 0.07850529 0.046248015 -0.08127076
-0.05833116 0.07922323 -0.0755967 -0.02562751 -0.075363226 -0.07570516 0.022172432 -0.025060628
-0.072056085 -0.065531634 0.066797234 0.068626165 0.04153131 0.04021655 -0.051709387 -0.03529032
-0.005125455 0.032953467 0.002819697 0.024532704 -0.04103322 -0.018260626 0.02749954 -0.078913055
0.00993721 0.079304755 -0.04999832 -0.021609593 -0.008859932 -0.03103577 0.059760068 0.026240274
0.09464855 -0.022574842 0.0324516 0.02383314 -0.050915867 -0.08102778 0.0565564 -0.051655762
-0.03322611 -0.019331267 -0.09213837 0.062072046 -0.013055683 -0.042501006 -0.07809014 0.025747541
-0.011143921 -0.009981469 -0.028390603 0.021801712 -0.02553476 0.018299589 0.059985638 0.024609199
-0.006727797 -0.021577172 -0.02981625 0.0015199789 0.056453295 -0.009218901 -0.032218922 -0.024766646
0.056132093 -0.032901127 0.004079347 -0.01040933 -0.05654751 0.03374061 0.069398075 -0.047752846
0.022705153 0.019709138 -0.025604982 -0.012575019 0.0005946237 0.04569323 -0.0053536054 -0.07916689
-0.023210099 -0.037291694 -0.01323229 -0.047112927 0.0036475346 -0.0047531384 -0.04924888 -0.009105496
-0.06528986 -0.045883957 0.04573922 0.0070113703 0.053961627 0.023087999 0.05686086 0.081435315
0.07147828 -0.02882942 -0.034067526 0.06988119 0.053433225 0.076558076 0.07711648 0.06254351
0.009673664 -0.010681876 -0.04723465 0.08304263 -0.04678427 0.04612165 -0.004764341 -0.04811445
00000000: eb6b 52bc c618 263d 3b4e 153d 244f 95bd
00000010: 89f4 f7bc 6acc 95bd cadb 9fbd a3c5 593d
00000020: 0acb 853d 60d7 61bd 811d e3bc cc1a 233d
00000030: 13de c13d 62c7 a03d 8f6e 3d3d 4971 a6bd
00000040: a8ec 6ebd ca3f a23d 71d2 9abd c9f0 d1bc
00000050: 0958 9abd 4f0b 9bbd f6a2 b53c f24b cdbc
00000060: 2492 93bd 7335 86bd fdcc 883d e08b 8c3d
00000070: bc1c 2a3d 1cba 243d 39cd 53bd 958c 10bd
00000080: 6ff3 a7bb 37fa 063d aaca 383b cff8 c83c
00000090: 7312 28bd 4f97 95bc b746 e13c 2b9d a1bd
000000a0: aecf 223c 886a a23d 0acb 4cbd 9a06 b1bc
000000b0: 4029 11bc ba3e febc f9c6 743d d8f5 d63c
000000c0: 19d7 c13d e0ee b8bc f8eb 043d b83d c33c
000000d0: 288d 50bd e5f1 a5bd afa7 673d fe94 53bd
000000e0: 1a18 08bd 9b5c 9ebc 0bb3 bcbd 423f 7e3d
000000f0: 81e7 55bc 8915 2ebd b9ed 9fbd 82ec d23c
00000100: fe94 36bc 5189 23bc 6993 e8bc 8199 b23c
00000110: 462e d1bc 05e9 953c 80b3 753d 3b99 c93c
00000120: da74 dcbb 9cc2 b0bc 3541 f4bc 073a c73a
00000130: 923b 673d e00a 17bc fdf7 03bd 6ce3 cabc
00000140: c4ea 653d 55c3 06bd 0bac 853b e58b 2abc
00000150: 5d9e 67bd 9833 0a3d 9420 8e3d 7d98 43bd
00000160: 2800 ba3c 0f75 a13c 8ac1 d1bc 7407 4ebc
00000170: 85e0 1b3a d328 3b3d 4c6d afbb 4022 a2bd
00000180: 1b23 bebc 2dbf 18bd 3fcc 58bc 7cf9 40bd
00000190: 7a0b 6f3b 37c0 9bbb 32b9 49bd 382f 15bc
000001a0: b1b6 85bd d1f0 3bbd 0c59 3b3d a3bf e53b
000001b0: de06 5d3d 0b23 bd3c efe6 683d 8fc7 a63d
000001c0: 3463 923d ad2b ecbc 648a 0bbd df1d 8f3d
000001d0: ccdc 5a3d 7bca 9c3d 3fef 9d3d d016 803d
000001e0: 4a7e 1e3c 0903 2fbc 1f79 41bd 4112 aa3d
000001f0: dda0 3fbd 0eea 3c3d 301e 9cbb a813 45bd

weight f4 [128, 128]
-0.06019523 0.027144281 -0.026525067 0.05006264 -0.033637214 -0.01392343 0.010313429 0.07994545
-0.074166715 -0.026091857 -0.023063954 0.023830527 0.10195837 0.009884032 0.026941918 0.05918822
-0.06558264 0.07761509 0.08463184 -0.04470438 -0.009571651 0.040749487 -0.05499322 -0.03277704
0.07312963 0.06838461 -0.06749436 0.042692147 -0.03352464 -0.008630547 -0.09465877 -0.07678997
0.004574701 -0.057184175 -0.045399565 0.046782035 0.06479699 -0.06837501 0.06314792 0.07884651
-0.014773264 0.041808374 -0.008998126 0.009785313 -0.011910385 0.042846203 0.08081898 -0.016610915
-0.031874284 0.08823648 0.065167144 -0.055874467 0.07807792 -0.023432396 0.060069963 0.0069247615
-0.011355852 -0.05713115 0.0038938907 -0.07047441 -0.012732634 0.060714778 0.07352052 -0.048935056
0.043623444 0.015640995 0.07104736 0.061471485 -0.026358346 0.041930124 0.018700868 0.043579437
-0.004009308 0.013228513 -0.063686155 0.04743408 -0.03321727 0.038714338 0.06641736 0.038107708
-0.08026973 -0.062083863 0.016367486 -0.08245763 0.056633163 -0.0075150495 -0.07148659 0.049928147
0.033395488 0.08683214 0.00038167575 0.025578674 0.04906201 0.046645593 -0.043896165 -0.054949753
0.004090205 0.091163896 0.051091738 -0.033383537 -0.032224003 0.09614255 0.06736488 0.04241995
-0.06203585 -0.08568749 0.06346258 0.08516369 0.11366236 0.048524577 -0.028640931 -0.0019191477
0.08290012 0.0089867385 -0.053452104 0.051452894 -0.056290053 0.024431223 -0.035728782 -0.023784632
0.063942574 -0.030896815 -0.0032044163 -0.059696943 0.01969312 -0.029597912 0.043521974 0.072290696
-0.05496278 0.085428216 0.03131375 0.08879885 0.006515795 -0.04244491 -0.014367543 0.08303769
-0.031440973 -0.07458074 -0.038131602 -0.0838142 -0.029243369 0.030148324 0.012822725 0.006504242
-0.04705009 0.09593238 -0.042784624 -0.08232275 0.08803578 -0.07682977 -0.06371683 -0.08198666
0.049043704 0.028522715 0.07741405 0.046368234 -0.05639733 0.018535895 0.035911575 0.061123397
-0.03763647 0.08805453 -0.006147897 -0.04524085 -0.009568184 0.06551944 0.026949976 0.08304078
0.05416067 0.08138542 0.04173229 -0.08591488 -0.011950385 -0.040848516 0.08764277 0.06852703
0.046240218 -0.04357109 -0.012145274 -0.041690174 -0.07323709 -0.028841516 0.05673641 0.053682495
0.019635439 0.08485763 -0.020787256 0.11891807 -0.024285192 0.013285395 -0.030188112 0.021782689
0.042806778 0.058927406 0.014387112 -0.06804203 0.056565467 0.035479974 0.059658427 -0.083389476
-0.01595482 0.051943857 0.07550866 -0.04216469 -0.01162656 0.031052262 0.0036723863 -0.08060095
-0.041731335 0.035116855 0.09062852 0.072264135 -0.06386526 0.07383446 0.0007757824 0.03977615
-0.091143005 -0.012057412 0.0062852087 0.030846607 0.02562946 0.0060314047 0.02197943 0.00041549184
-0.057101287 0.08240584 -0.039932333 0.03221543 -0.057244454 0.00991716 0.07043547 -0.057691105
0.041050225 0.07202991 0.08114836 0.07312727 -0.07458405 0.09538741 -0.021528382 0.010320866
0.029253995 -0.050180018 0.00809655 0.086224 0.031418838 -0.04115027 -0.034288518 0.05169478
-0.028575003 -0.03766875 0.048068233 0.031874973 0.050335027 0.006673282 0.041845955 -0.009793045
00000000: 468f 76bd af5d de3c 194b d9bc 7c0e 4d3d
00000010: 2dc7 09bd 191f 64bc a8f9 283c 71ba a33d
00000020: b8e4 97bd 97be d5bc 9ef0 bcbc 3d38 c33c
00000030: 8dcf d03d a3f0 213c 4cb5 dc3c 596f 723d
00000040: 3150 86bd a9f4 9e3d 7553 ad3d f11b 37bd
00000050: 6ad2 1cbc efe8 263d 9240 61bd 3841 06bd
00000060: fdc4 953d 3b0d 8c3d 7c3a 8abd f6dd 2e3d
00000070: 2251 09bd 2367 0dbc 75dc c1bd 0f44 9dbd
00000080: 60e7 953b f439 6abd e5f4 39bd 859e 3f3d
00000090: 49b4 843d 3208 8cbd b253 813d 477a a13d
000000a0: 8f0b 72bc 423f 2b3d e06c 13bc 9452 203c
000000b0: c723 43bc 807f 2f3d 6c84 a53d 9d13 88bc
000000c0: 9c8e 02bd 54b5 b43d 5a76 853d a0dc 64bd
000000d0: 51e7 9f3d 4cf5 bfbc ec0b 763d 1ce9 e23b
000000e0: e50d 3abc 5a02 6abd a530 7f3b e354 90bd
000000f0: 8a9c 50bc 0fb0 783d ed91 963d 2070 48bd
00000100: 7fae 323d 8b21 803c 4781 913d 86c9 7b3d
00000110: 75ed d7bc ecbe 2b3d 9032 993c 5a80 323d
00000120: 8360 83bb 68bc 583c e36d 82bd 3d4a 423d
00000130: d50e 08bd ed92 1e3d d305 883d d416 1c3d
00000140: 7564 a4bd a64b 7ebd 1b15 863c 8cdf a8bd
00000150: 2df8 673d ce40 f6bb 9067 92bd 7581 4c3d
00000160: b5c9 083d 0dd5 b13d a71b c839 5e8a d13c
00000170: 3ff5 483d 730f 3f3d 77cc 33bd fe12 61bd
00000180: 2007 863b 23b4 ba3d 9245 513d 2dbd 08bd
00000190: 51fd 03bd 63e6 c43d 99f6 893d 8bc0 2d3d
000001a0: 4e19 7ebd ec7c afbd abf8 813d 4d6a ae3d
000001b0: d0c7 e83d b5c1 463d 63a0 eabc e98b fbba
000001c0: 8ac7 a93d 1d3d 133c 98f0 5abd 45c0 523d
000001d0: 6690 66bd fd23 c83c 5858 12bd fdd7 c2bc
000001e0: 53f4 823d 511b fdbc 2f01 52bb c884 74bd
000001f0: 7753 a13c 5277 f2bc 1944 323d 250d 943d
00000200: a720 61bd fdf4 ae3d d942 003d 2cdc b53d
00000210: 7382 d53b b7da 2dbd d865 6bbc aa0f aa3d
00000220: 40c8 00bd c9bd 98bd e22f 1cbd c7a6 abbd
00000230: ca8f efbc 9ef9 f63c 6816 523c 8921 d53b
00000240: 98b7 40bd 3278 c43d ee3e 2fbd d498 a8bd
00000250: 1a4c b43d ed58 9dbd f87d 82bd 9fe8 a7bd
00000260: 0de2 483d 78a8 e93c 428b 9e3d 9eec 3d3d
00000270: e300 67bd 97d8 973c 0418 133d 875c 7a3d
00000280: b328 1abd ef55 b43d 4c74 c9bb 784e 39bd
00000290: dfc3 1cbc 0e2f 863d 32c6 dc3c 4911 aa3d
000002a0: 94d7 5d3d 66ad a63d 7aef 2a3d 24f4 afbd
000002b0: 8ccb 43bc c650 27bd 0d7e b33d e657 8c3d
000002c0: 6266 3d3d 9977 32bd f9fc 46bc 51c3 2abd
000002d0: 54fd 95bd 0b45 ecbc 7064 683d 2de2 5b3d
000002e0: 80da a03c d6c9 ad3d 094a aabc 518b f33d
000002f0: bdf1 c6bc fcaa 593c 0f4d f7bc 9c71 b23c
00000300: 2956 2f3d dd5d 713d ecb7 6b3c 9f59 8bbd
00000310: 31b1 673d 7353 113d 655c 743d 1ac8 aabd
00000320: afb3 82bc 15c3 543d 49a4 9a3d e2b4 2cbd
00000330: 547d 3ebc 5061 fe3c 6bac 703b 1c12 a5bd
00000340: 7aee 2abd b1d6 0f3d 729b b93d 38ff 933d
00000350: cacb 82bd 8536 973d e05d 4b3a 51ec 223d
00000360: 2fa9 babd 748c 45bc 27f4 cd3b 06b2 fc3c
00000370: e0f4 d13c 17a3 c53b 350e b43c 5fd6 d939
00000380: 0ae3 69bd 65c4 a83d 1690 23bd 54f4 033d
00000390: 2979 6abd 957b 223c 7940 903d 824d 6cbd
000003a0: 4824 283d 6b84 933d 1d31 a63d c0c3 953d
000003b0: 86bf 98bd 795a c33d 4a5c b0bc d918 293c
000003c0: 13a6 ef3c 9089 4dbd 64a7 043c 3596 b03d
000003d0: 0ab1 003d 2f8d 28bd 1e72 0cbd e8bd 533d
000003e0: 2016 eabc 8c4a 1abd 32e3 443d 558f 023d
000003f0: 1a2c 4e3d 8cab da3b aa66 2b3d 0273 20bc

bias f4 [128]
0.091455966 0.0025830339 -0.049995445 0.0599198 0.070706 0.04160891 -0.014575519 -0.045482658
0.035734177 0.026024943 -0.07844131 0.053035427 0.045672577 0.04854919 -0.057860523 0.037005875
-0.03630247 0.009575947 -0.010130331 -0.041742664 -0.044622317 0.06212299 -0.012723904 0.051430937
0.043764982 0.06941788 -0.05006832 0.04109271 0.0473481 -0.02748033 -0.049679585 0.05286826
0.032651372 -0.004261494 0.06028209 -0.008303353 0.061346896 -0.0052439556 0.047972824 0.03113159
-0.06552863 0.085851334 0.080908634 0.046496406 0.028015485 0.05521515 -0.022464337 0.071307994
-0.07299902 -0.08170536 -0.018901747 -0.065139785 0.03329525 0.0024006686 0.030634215 0.07552178
-0.034415558 0.089984186 0.04516956 -0.06079496 -0.047502566 -0.04921229 0.04344505 0.06004087
-0.046607487 -0.045396253 -0.08912935 -0.07733572 -0.04000054 0.0040194094 -0.06895171 0.04969966
0.04949398 0.008866403 0.07428439 0.06490678 4.4657695e-09 -0.005466514 0.009567304 -0.07914846
-0.03461406 -0.06992236 -0.07489554 -0.010984187 -0.0037596433 -0.031238714 0.062401548 0.03920584
-0.015033849 -0.0698823 -0.0713763 -0.071983606 -0.009639063 0.027702106 0.06612829 0.049757484
0.01743123 0.065288626 -0.06826956 0.01868954 -0.01864415 -0.0073059266 0.07168762 0.026789865
-0.03468517 0.009659158 -0.027529113 -0.05808652 -0.06683535 -0.06684683 0.07153774 0.04359742
-0.028317314 -0.029813156 -0.0801101 -0.048806828 0.039004773 -0.03905651 0.03059085 -0.023838745
-0.08078313 0.033287585 0.03338722 0.021483148 -0.062039807 -0.017985906 0.09002464 0.0075054364
00000000: 444d bb3d 1e48 293b 06c8 4cbd 776e 753d
00000010: 4fce 903d 1b6e 2a3d 28ce 6ebc 064c 3abd
00000020: 005e 123d 4332 d53c d6a5 a0bd ad3b 593d
00000030: 2b13 3b3d 84db 463d 28ff 6cbd 7993 173d
00000040: e6b1 14bd 6fe4 1c3c b0f9 25bc 5bfa 2abd
00000050: e4c5 36bd ad74 7e3d ec77 50bc 3fa9 523d
00000060: e942 333d f62a 8e3d 7014 4dbd d450 283d
00000070: 15f0 413d 6e1e e1bc d27c 4bbd 638c 583d
00000080: 72bd 053d 01a4 8bbb 5aea 763d c90a 08bc
00000090: e246 7b3d 7dd5 abbb 277f 443d ad07 ff3c
000000a0: e033 86bd d3d2 af3d 6db3 a53d 0473 3e3d
000000b0: bb80 e53c 4829 623d 2107 b8bc ed09 923d
000000c0: 8380 95bd 2455 a7bd d6d7 9abc 0268 85bd
000000d0: 9a60 083d 8954 1d3b 9bf4 fa3c 2aab 9a3d
000000e0: 54f7 0cbd a149 b83d b703 393d 2304 79bd
000000f0: 0d92 42bd d492 49bd 70f3 313d 6aed 753d
00000100: 7ee7 3ebd 6cf1 39bd 7389 b6bd 3162 9ebd
00000110: 9bd7 23bd 40b5 833b 8e36 8dbd df91 4b3d
00000120: 33ba 4a3d 6444 113c 6a22 983d d9ed 843d
00000130: 5371 9931 7120 b3bb 2ec0 1c3c 9618 a2bd
00000140: 79c7 0dbd 7433 8fbd d562 99bd 05f7 33bc
00000150: 5964 76bb 55e8 ffbc c498 7f3d 4e96 203d
00000160: 8850 76bc 741e 8fbd bd2d 92bd 246c 93bd
00000170: 29ed 1dbc 87ef e23c 456e 873d 81ce 4b3d
00000180: f0cb 8e3c 0bb6 853d e9d0 8bbd ce1a 993c
00000190: 9ebb 98bc 8e66 efbb f5d0 923d 6b76 db3c
000001a0: 0912 0ebd 7241 1e3c bc84 e1bc 21ec 6dbd
000001b0: f9e0 88bd fee6 88bd 6182 923d 3593 323d
000001c0: b6f9 e7bc b83a f4bc c410 a4bd abe9 47bd
000001d0: 78c3 1f3d b8f9 1fbd aa99 fa3c 7949 c3bc
000001e0: a071 a5bd 9058 083d 0ac1 083d 6dfd af3c
000001f0: 741d 7ebd 2e57 93bc d75e b83d 2af0 f53b

weight f4 [128, 128]
-0.011117215 0.01685218 0.089343846 0.083507486 0.014426544 0.08634415 -0.018632086 0.034740724
0.054048683 -0.08662188 -0.08089378 -0.047560416 -0.08026798 0.026407436 -0.002386574 -0.020528266
-0.036336914 -0.09025395 -0.040168837 0.09385965 -0.018133366 -0.0006926223 -0.04665308 -0.05053433
0.072691016 -0.008936508 8.160605e-06 0.06585548 -0.008158885 0.047826182 -0.054474913 0.057506394
-0.0052813888 0.06531041 -0.06959298 0.022243328 0.019186834 -0.06212816 0.06874759 -0.046879254
-0.031173883 0.0536035 -0.019019362 0.042549875 0.067572124 -0.007070373 0.014967249 -0.051698726
-0.04336909 -0.012271266 0.07371727 0.06364426 0.08710628 -0.03341523 -0.06371243 0.058416504
0.049055852 0.09273454 0.07992776 -0.034536425 0.075854816 0.0798113 -0.017981218 -0.0473884
-0.06301372 -0.037539497 0.052075483 0.0067364196 -0.016301103 -0.014618808 0.094598345 0.020093644
-0.047845792 0.04110397 -0.049930986 0.06643044 -0.013502245 0.016976004 0.060046267 0.056621015
0.008497768 0.04510103 -0.025613246 0.08824305 -0.02834628 -0.071920805 -0.020197904 0.03489724
0.015508251 -0.06013059 -0.027958842 0.025107477 0.013068284 0.086074725 -0.035962407 0.017406538
-0.050212745 -0.07460352 -0.011710433 -0.008132236 0.07740354 -0.07612883 -0.068670236 -0.034966074
-0.012837697 0.02665228 0.055788677 -0.004579013 0.048355747 0.05567571 -0.026380198 -0.04231949
0.02143239 -0.04446794 0.07390823 0.02484324 0.003244034 -0.015010732 0.020813808 0.031115597
-0.08836806 -0.09243213 0.0051114294 -0.039207894 -0.066235065 0.01850265 0.047214393 -0.05274105
-0.0063045635 0.06985897 0.05137944 0.029016651 0.0004871308 -0.05733419 0.05516128 -0.051070787
0.003965595 -0.040408213 0.0014093216 -0.08028363 -0.008382856 -0.029227048 0.07133973 0.012754944
0.024333972 -0.012902922 -0.08040604 -0.06493666 0.024162216 0.107352324 -0.030969149 -0.026794065
0.043197244 0.07405126 -0.058674835 -0.03750046 -0.08100735 0.03619452 -0.026699582 -0.017604591
0.06985205 -0.032353275 -0.045290843 -0.085063435 0.10253356 -0.011745423 0.058775607 -0.015919821
-0.016666876 0.02317021 0.05922905 0.025062073 -0.060302194 -0.023338791 -0.0035799476 0.05880037
-0.063759714 -0.004753981 -0.02498695 0.099490896 0.021724816 0.05669315 -0.060043536 0.038296174
-0.015692778 -0.053418417 0.04420511 -0.06863801 0.011522306 -0.050286774 -0.0023136581 -0.052973986
-0.021083634 0.07419083 0.006432167 0.0037012873 -0.08224712 -0.065168016 0.011391929 0.07873216
-0.048926454 0.0943956 0.0005104179 0.059221305 0.01535023 -0.05134808 0.061496783 0.081439525
-0.044780143 -0.037473507 -0.031010443 -0.095957704 -0.0010962847 -0.014887479 0.053301714 -0.036715735
-0.08154398 -0.08340089 -0.0032551573 -0.012482662 0.032183956 -0.07895552 -0.0399893 0.032202184
-0.00618995 0.05346032 0.011433491 -0.05698154 0.069080345 -0.051185317 0.06838334 0.08284278
0.062949985 0.084157564 0.01274602 -0.067744985 -0.026592726 -0.06360004 0.038716312 0.018090187
0.023970822 0.020791981 -0.04114306 0.07322544 0.014222609 0.004908223 -0.027596371 -0.074236535
-0.042946436 0.088635206 -0.014245243 0.011500271 -0.05762657 -0.0038112584 0.019755367 -0.058824215
00000000: fb24 36bc 950d 8a3c e8f9 b63d f905 ab3d
00000010: 505d 6c3c 34d5 b03d 51a2 98bc 4a4c 0e3d
00000020: 2762 5d3d d066 b1bd a3ab a5bd b6ce 42bd
00000030: 8a63 a4bd 6854 d83c 1168 1cbb e52a a8bc
00000040: 04d6 14bd 10d7 b8bd 1488 24bd 7d39 c03d
00000050: 6d8c 94bc 1991 35ba 4d17 3fbd 16fd 4ebd
00000060: 07df 943d 6e6a 12bc 88e9 0837 3ddf 863d
00000070: d8ac 05bc 63e5 433d 1621 5fbd d38b 6b3d
00000080: 800f adbb 77c1 853d c486 8ebd a437 b63c
00000090: b52d 9d3c 197a 7ebd 89cb 8c3d 7604 40bd
000000a0: 5f60 ffbc 588f 5b3d 7ece 9bbc c748 2e3d
000000b0: 4163 8a3d 96ae e7bb 3139 753c 0bc2 53bd
000000c0: c9a3 31bd 6c0d 49bc 14f9 963d ec57 823d
000000d0: c764 b23d 69de 08bd aa7b 82bd 2546 6f3d
000000e0: caee 483d 9beb bd3d 2ab1 a33d 1176 0dbd
000000f0: c559 9b3d 1b74 a33d 594d 93bc 571a 42bd
00000100: 560d 81bd 04c3 19bd 1a4d 553d 2fbd dc3b
00000110: e489 85bc ba83 6fbc c7bc c13d 6d9b a43c
00000120: f3f9 43bd a35c 283d 6f84 4cbd af0c 883d
00000130: 8538 5dbc 4311 8b3c 13f3 753d 70eb 673d
00000140: 393a 0b3c dcbb 383d dfd2 d1bc c6b8 b43d
00000150: 7536 e8bc 374b 93bd 1376 a5bc 69f0 0e3d
00000160: 5216 7e3c 7e4b 76bd f109 e5bc 32ae cd3c
00000170: 5b1c 563c f247 b03d 514d 13bd 2898 8e3c
00000180: e1ab 4dbd bbc9 98bd 1edd 3fbc 123d 05bc
00000190: bf85 9e3d 6fe9 9bbd fba2 8cbd 9638 0fbd
000001a0: 3455 52bc e255 da3c ab82 643d 8c0b 96bb
000001b0: ad10 463d 370c 643d 491b d8bc 3457 2dbd
000001c0: fb92 af3c 0424 36bd 335d 973d 0d84 cb3c
000001d0: dc99 543b 93ef 75bc b881 aa3c 23e6 fe3c
000001e0: 50fa b4bd 0e4d bdbd c77d a73b 7598 20bd
000001f0: 40a6 87bd df92 973c e163 413d 0007 58bd
00000200: 8396 cebb 3812 8f3d 3f73 523d 54b4 ed3c
00000210: 9765 ff39 41d7 6abd cbf0 613d 9a2f 51bd
00000220: d2f1 813b 1583 25bd fcb8 b83a be6b a4bd
00000230: 3f58 09bc 906d efbc 901a 923d 1dfa 503c
00000240: 0a58 c73c c766 53bc ecab a4bd 83fd 84bd
00000250: d7ef c53c 89db db3d 03b3 fdbc 3a7f dbbc
00000260: 98ef 303d 30a8 973d 0655 70bd 159a 19bd
00000270: 2ee7 a5bd b440 143d 15b9 dabc 8137 90bc
00000280: 970e 8f3d de84 04bd e482 39bd bd35 aebd
00000290: 1dfd d13d e06f 40bc b1be 703d 496a 82bc
000002a0: f988 88bc 74cf bd3c 299a 723d fa4e cd3c
000002b0: 6fff 76bd fe30 bfbc 8e9d 6abb a8d8 703d
000002c0: 7494 82bd 48c7 9bbb 6fb1 ccbc e2c1 cb3d
000002d0: 3ef8 b13c 1437 683d 36f0 75bd 73dc 1c3d
000002e0: 248e 80bc 45cd 5abd 6b10 353d 1692 8cbd
000002f0: 0ec8 3c3c 81f9 4dbd bea0 17bb 40fb 58bd
00000300: 96b7 acbc 5df1 973d edc4 d23b 4c91 723b
00000310: 2e71 a8bd cf76 85bd 37a5 3a3c 543e a13d
00000320: 1b67 48bd 7b52 c13d 91cd 053a 0a92 723d
00000330: 887f 7b3c 5d52 52bd 0de4 7b3d c4c9 a63d
00000340: 626b 37bd d27d 19bd 9d09 febc 7985 c4bd
00000350: 36b1 8fba 9dea 73bc e652 5a3d 3d63 16bd
00000360: 8800 a7bd 16ce aabd 7a54 55bb 1484 4cbc
00000370: 53d3 033d 6fb3 a1bd d2cb 23bd 70e6 033d
00000380: 10d5 cabb 35f9 5a3d 8953 3b3c 7a65 69bd
00000390: ff79 8d3d b2a7 51bd 910c 8c3d 7aa9 a93d
000003a0: eceb 803d cd5a ac3d afd4 503c e2bd 8abd
000003b0: fdd8 d9bc bd40 82bd ff94 1e3d df31 943c
000003c0: 755e c43c f253 aa3c a085 28bd 38f7 953d
000003d0: f205 693c 29d5 a03b c911 e2bc 5309 98bd
000003e0: 9ae8 2fbd 6086 b53d e164 69bc a26b 3c3c
000003f0: d709 6cbd 4ec6 79bb 02d6 a13c a9f1 70bd

bias f4 [128]
-0.015653433 -0.0042336024 0.027530227 0.057151105 0.0063922643 -0.010614281 -0.07425969 0.00539713
0.023832422 -0.0047296993 0.075839914 -0.054209974 -0.0506927 0.040883068 -0.011947353 0.07482078
0.075123474 0.03213938 0.088440314 -0.01243345 0.04803949 -0.06999668 0.008516563 -0.032902103
0.070851356 -0.017233178 0.07022515 0.022732373 0.03499208 0.012973467 -0.05363878 0.05018132
-0.012842023 0.0041332 -0.0034494584 -0.029726638 0.056089416 -0.048125643 -0.04551816 -0.03301306
0.06337299 -0.07435963 -0.03709091 0.013514913 -0.006525969 0.0061102514 0.008476264 0.038548626
-0.010344853 0.06697661 -0.04382501 -0.060492456 0.0092495885 0.070250325 -0.03971161 0.04771655
0.077338114 -0.036845714 -0.050197598 0.010534367 0.03557326 -0.07422913 -0.008802027 -0.024640767
0.010823071 0.06239034 0.094680056 0.0070948745 -0.023382658 0.07443453 0.050269697 0.044969287
0.08643014 0.08246887 -0.03251262 -0.046082616 -0.002712641 0.048705295 -0.00386351 -0.07107412
-0.038936578 -0.027180728 -0.039938718 -0.036962785 -0.0043531535 0.05117544 0.04165584 0.087170884
-0.04007736 -0.009182104 0.05637503 -0.06355478 -0.05701698 0.04005994 -0.02559875 -0.084640875
-0.0694624 0.03980094 0.015319215 -0.010311553 -0.04487159 0.05099295 0.012758163 0.0286976
0.03350956 -0.039743055 -0.003960251 0.03744236 -0.034645103 0.069019645 0.081467606 0.00016763949
0.07219773 -0.009036833 0.038256235 -0.04483067 0.0074320193 -0.038968034 0.041827813 -0.042312667
-0.00912556 0.030000232 -0.0045969053 0.07691207 -0.04287738 -0.055539075 0.019707825 0.0039899834
00000000: a13b 80bc 08ba 8abb 1287 e13c 4717 6a3d
00000010: 3376 d13b 85e7 2dbc 7715 98bd 68da b03b
00000020: 363c c33c 98fb 9abb f551 9b3d 470b 5ebd
00000030: 26a3 4fbd 0175 273d d5be 43bc a33b 993d
00000040: 56da 993d 95a4 033d 3220 b53d abb5 4bbc
00000050: 0ec5 443d 6b5a 8fbd 0e89 0b3c 5bc4 06bd
00000060: 841a 913d 982c 8dbc 34d2 8f3d 3e39 ba3c
00000070: db53 0f3d aa8e 543c 56b4 5bbd ee8a 4d3d
00000080: 5967 52bc cb6f 873b 4f10 62bb 4785 f3bc
00000090: 04be 653d 651f 45bd 4071 3abd b438 07bd
000000a0: b3c9 813d dd49 98bd a3ec 17bd a76d 5d3c
000000b0: ccd7 d5bb 8138 c83b 07e0 0a3c 2ae5 1d3d
000000c0: 757d 29bc 082b 893d db81 33bd f0c6 77bd
000000d0: 968b 173c 67df 8f3d a4a8 22bd 6e72 433d
000000e0: 7263 9e3d 88eb 16bd ff9b 4dbd 5698 2c3c
000000f0: 44b5 113d 7105 98bd 6136 10bc 6fdb c9bc
00000100: 4053 313c 038d 7f3d 9ee7 c13d 1f7c e83b
00000110: fd8c bfbc 2271 983d 99e7 4d3d b731 383d
00000120: 4902 b13d 70e5 a83d f42b 05bd 20c1 3cbd
00000130: 90c6 31bb 347f 473d f132 7dbb 4f8f 91bd
00000140: f67b 1fbd 1eaa debc c896 23bd 4a66 17bd
00000150: e6a4 8ebb 579d 513d 509f 2a3d a686 b23d
00000160: 2828 24bd 8970 16bc 81e9 663d 0229 82bd
00000170: a38a 69bd e415 243d 78b4 d1bc 3258 adbd
00000180: 4e42 8ebd 4f06 233d 72fd 7a3c caf1 28bc
00000190: 46cb 37bd fcdd 503d 9d07 513c 3b17 eb3c
000001a0: 5241 093d 9dc9 22bd fec4 81bb 295d 193d
000001b0: 06e8 0dbd 2c5a 8d3d 7dd8 a63d 62c8 2f39
000001c0: 67dc 933d 3a0f 14bc 92b2 1c3d 5da0 37bd
000001d0: 4c88 f33b f29c 1fbd a453 2b3d 0c50 2dbd
000001e0: 5f83 15bc 0cc3 f53c a3a1 96bb 1384 9d3d
000001f0: 31a0 2fbd f17c 63bd 4e72 a13c 68be 823b
