models/agModels-predicttop10_votes/models/NeuralNetTorch_BAG_L1/S5F5/net.params (torch, 248949 bytes, 16 tensors)

weight f4 [6, 4]
0	0xbf90fa68	-1.1326418
1	0xbf91c6f2	-1.1388838
2	0xbe7f92a5	-0.24958284
3	0xbed7f747	-0.42180845
4	0x3f5b2825	0.8560813
5	0x3f250a77	0.64469093
6	0xbe9c0dcf	-0.30479285
7	0xc0090066	-2.1406493
8	0x3ef1e901	0.4724808
9	0xbe2a10b5	-0.16607936
10	0x3fbb8061	1.4648553
11	0x3e8ced30	0.2752471
12	0x3e232c1d	0.15934797
13	0x3f6421a9	0.8911386
14	0xbe17f5c7	-0.1483985
15	0xbdd1f964	-0.102526456
16	0x3f72a325	0.9478019
17	0x3f9e708d	1.2378098
18	0x40008e94	2.0087023
19	0x3d309e6c	0.043119833
20	0x3f0578c3	0.5213739
21	0xbea338ad	-0.31879178
22	0xbf3e32d3	-0.742963
23	0xc00dc9f0	-2.2154503

weight f4 [6, 4]
0	0xbe4a0cc3	-0.1973143
1	0xbf396389	-0.72417504
2	0x3f0e653c	0.5562322
3	0x3e7e544d	0.24836846
4	0xbe100751	-0.14065291
5	0xbf2d11e1	-0.67605406
6	0x3f733029	0.9499536
7	0x3ef923ed	0.48660222
8	0xbf0a12da	-0.53935015
9	0x3f6cafef	0.92455953
10	0x3f914e8c	1.1352096
11	0x3fa816b4	1.3131928
12	0xbfbf9f79	-1.4970542
13	0x402416df	2.563896
14	0xbef8d943	-0.48603258
15	0x3ea1e606	0.31620806
16	0xbfd30535	-1.6485964
17	0xbf129f6f	-0.57274526
18	0xbef79791	-0.48357823
19	0xbee754f8	-0.45182014
20	0xbf77d208	-0.9680486
21	0x3f820830	1.0158749
22	0xbd7e47ca	-0.062080182
23	0x3f3533f4	0.707824

weight f4 [6, 4]
0	0xbddf3bc4	-0.10900071
1	0x3f2dbafe	0.6786345
2	0xbf5ae71a	-0.85508883
3	0xbc490f76	-0.012271753
4	0x3f5e66ae	0.86875427
5	0xbebe1c76	-0.3713109
6	0x3f86bebe	1.052696
7	0x3ec5a1a1	0.38599876
8	0x3dc560a9	0.09637577
9	0x3f8f03e1	1.1173059
10	0x3e989de9	0.29807976
11	0x3ef38819	0.47564772
12	0xbf5246d9	-0.82139355
13	0xbfa65c83	-1.2996982
14	0xbf3f9718	-0.74839926
15	0xbfaaf6f9	-1.335662
16	0x3e4f907e	0.20269963
17	0xbeb1e5f0	-0.3474574
18	0xbee7cd90	-0.4527402
19	0x3e6c70ad	0.23089857
20	0x3f32f1d9	0.6990028
21	0xbdce544d	-0.10074673
22	0xbe8ddba2	-0.2770663
23	0xbf8e34bc	-1.1109843

weight f4 [6, 4]
0	0xbf350026	-0.7070335
1	0x3f861aca	1.0476925
2	0xbf197d20	-0.5995655
3	0xbfa40212	-1.2813132
4	0x3d98c60c	0.074596494
5	0xbf2d0ed3	-0.67600745
6	0x3f22a217	0.6352858
7	0xbf3e9b14	-0.7445538
8	0xbe846c55	-0.258639
9	0x3dd9db25	0.106375016
10	0x3e79e983	0.24405484
11	0x3f96ee74	1.179152
12	0x3e9963b2	0.29958874
13	0x3ecae161	0.39625075
14	0xbe505e72	-0.20348528
15	0xbde4457b	-0.11146065
16	0x3e32f0f5	0.1747473
17	0xbf49793e	-0.78700626
18	0xbff210f2	-1.8911421
19	0x3e0711f3	0.13190441
20	0xbf1b6166	-0.60695493
21	0x3e64950d	0.22322483
22	0x3d9c6a50	0.07637465
23	0x3e95775f	0.29192635

weight f4 [6, 4]
0	0x3f736bcc	0.9508636
1	0xbf805766	-1.0026672
2	0x3e9be871	0.30450776
3	0xbdf62d72	-0.12020387
4	0x3f78106a	0.96900046
5	0xbf04b5f6	-0.5184015
6	0x3f469abf	0.77579874
7	0x3f1be39f	0.608942
8	0x3f7ed6a0	0.9954624
9	0xbfbdc4c6	-1.4825675
10	0x3f17a967	0.5924286
11	0x3e215860	0.15756369
12	0x3df04d78	0.11733526
13	0xbf51d0ea	-0.819594
14	0x3f209c2c	0.627383
15	0xbff60c56	-1.9222515
16	0x3fad031e	1.3516576
17	0xbe2bdbef	-0.16783117
18	0x3f42f3fd	0.76153547
19	0x3f83cd09	1.0296947
20	0x3ea42e47	0.32066557
21	0xbfb45def	-1.4091166
22	0x3ff7c30d	1.93564
23	0x3d5f74f4	0.054554895

weight f4 [26, 9]
0	0xbf087ab7	-0.5331225
1	0xbfd69436	-1.676398
2	0xbf05d882	-0.5228349
3	0xbf0060ba	-0.50147593
4	0xbf1d1e92	-0.6137477
5	0xbfbd3e4c	-1.4784636
6	0xbf59c7c2	-0.8507043
7	0xc002e523	-2.0452354
8	0xbf88ccbb	-1.0687479
9	0xbf359d0c	-0.7094276
10	0x3d01cd47	0.03168991
11	0x3ea39a1e	0.3195352
12	0xbe8fd9e4	-0.28095925
13	0x3fa33ebe	1.2753522
14	0x3cacd99f	0.021099864
15	0xbf605e67	-0.87644047
16	0x3eecc79a	0.46246034
17	0x3a638ad3	0.0008680049
18	0x3fab0786	1.3361671
19	0xbe8d30ac	-0.27576196
20	0xbf0d1ae4	-0.55119157
21	0xc037b358	-2.8703213
22	0xbfc22aed	-1.516935
23	0x3f8416dc	1.0319476
24	0x3e4db438	0.20088279
25	0xbf38ae2c	-0.72140765
26	0x3fd94fb2	1.6977446
27	0x3ea229c4	0.3167249
28	0x3f81021d	1.007877
29	0x3fb67c1c	1.4256625
30	0xbd8b28af	-0.06794869
31	0xbf21b15e	-0.63161266
32	0xbf2f6cad	-0.685252
33	0x3fdf8869	1.7463504
34	0xbf6d9f84	-0.92821527
35	0xbf1c159b	-0.6097047
36	0x3d41d9f6	0.047327004
37	0x3f1406c9	0.57822853
38	0x3f06ce4a	0.5265852
39	0x3f9ea465	1.2393919
40	0xbf8b8112	-1.0898764
41	0xbfdcf5da	-1.7262528
42	0x3fc532dd	1.5406147
43	0x3c6b1a85	0.0143495845
44	0xbfcc7549	-1.5973293
45	0x3d1fd6d3	0.03902323
46	0xbf1bff99	-0.60936886
47	0x3f39969b	0.7249543
48	0x3f948cfe	1.1605527
49	0xbddd7791	-0.10813821
50	0xbbcb00c0	-0.0061951578
51	0x3f241101	0.64088446
52	0x3f09bc6f	0.5380315
53	0x3e6ac735	0.22927554
54	0x3dd1573e	0.10221718
55	0x3f1a61b0	0.6030531
56	0x3da136bd	0.078717686
57	0xbf7b817d	-0.9824446
58	0x3f32cca4	0.69843507
59	0x3f8f0928	1.1174669
60	0x400a3130	2.1592522
61	0xbf711597	-0.9417357
62	0xbf34184c	-0.70349574
63	0xbf1dd6cb	-0.61655873
64	0x3fc426c2	1.5324328
65	0xbf3b91b4	-0.732692
66	0x3e0e2412	0.13880947
67	0x3fae7c4e	1.3631685
68	0x40030952	2.0474439
69	0x3f28121c	0.6565263
70	0xbf2cf4c6	-0.67560995
71	0xbee61fc2	-0.44946104
72	0x3e810800	0.25201416
73	0xbf13ea6d	-0.5777958
74	0x3f6c0191	0.9218989
75	0x3ef28882	0.47369772
76	0xbf51d087	-0.8195881
77	0x3fa3545e	1.2760122
78	0x3e92f993	0.28706035
79	0xbf1b9f2a	-0.6078974
80	0xbf6a9814	-0.916383
81	0xbf159bfe	-0.5844115
82	0x3e1eec72	0.15519884
83	0xbf878c04	-1.0589604
84	0xbf3a5ddf	-0.72799486
85	0xc00dcdc5	-2.2156842
86	0xbf2eb31c	-0.6824205
87	0x3f04fad1	0.51945215
88	0x3f4f1430	0.8089018
89	0x3da5f7a9	0.08103878
90	0x3ecf051e	0.40433592
91	0xbfea9825	-1.8327681
92	0xbf910591	-1.1329824
93	0x3de8d367	0.11368447
94	0x3f1b5add	0.6068552
95	0x3fad272a	1.3527577
96	0xbfcb275b	-1.5871385
97	0x3ec64430	0.38723898
98	0xbfab4ed0	-1.3383427
99	0xbe339dc1	-0.17540647
100	0xbe8d1609	-0.27555874
101	0xbf9a3c48	-1.2049646
102	0x3f2764b6	0.6538805
103	0xbf9f4562	-1.2443049
104	0xbf8f0fed	-1.1176735
105	0x3ebda30a	0.3703845
106	0xbf4f414c	-0.8095901
107	0xbf67cb62	-0.9054471
108	0xbf41662d	-0.7554653
109	0x3f0898dd	0.5335825
110	0x3ec1c5e5	0.37846294
111	0x3f1c57d8	0.6107154
112	0xbfb59e7e	-1.4188993
113	0xbf4ce824	-0.8004172
114	0x3f9a9451	1.2076513
115	0xbfe619d2	-1.797663
116	0x3edfdf79	0.43725184
117	0x3f8e426d	1.1114022
118	0x3ee601cb	0.44923243
119	0xbf91b9e9	-1.138486
120	0xbecf5625	-0.4049541
121	0xbea3fe60	-0.3203001
122	0x3f76344a	0.96173537
123	0xbef43a0e	-0.47700542
124	0xbf186279	-0.5952526
125	0xbeb5c66c	-0.35502946
126	0xbfba5b00	-1.4559021
127	0xbf0ad409	-0.5422979
128	0x3f988c1e	1.191776
129	0x3f4e4cc4	0.80585885
130	0x3eb9413d	0.36182585
131	0x3ea35efc	0.31908405
132	0xc030b801	-2.7612307
133	0xbf5f3469	-0.87189347
134	0x3ee6f12a	0.4510587
135	0x3ea8e491	0.32986882
136	0xbf94c282	-1.1621859
137	0x3ca9c41c	0.020723395
138	0xbdff14de	-0.12455152
139	0xbe862e8e	-0.26207393
140	0x401b8a8e	2.4303317
141	0x3fd34a8f	1.6507128
142	0xbeaf66ad	-0.34258023
143	0xbfc5b9ef	-1.5447367
144	0xbf13477f	-0.5753097
145	0xbf51bec9	-0.8193174
146	0xbfb4c9be	-1.4124067
147	0xbed3c2b8	-0.41359496
148	0xbea19cb5	-0.3156487
149	0xbdba1d00	-0.090875626
150	0x3f01ff3b	0.50780076
151	0xbfcab66f	-1.5836924
152	0x3eb9e2b5	0.36305776
153	0xc013e0ff	-2.3106077
154	0xbf5d5266	-0.86453855
155	0xbfd897fb	-1.6921381
156	0x3f0cc6e5	0.5499099
157	0xbfb85a40	-1.4402542
158	0x3f343707	0.70396465
159	0xbfb2df30	-1.3974361
160	0x3ea8d0f6	0.32971925
161	0xbdde6929	-0.108599015
162	0x3e4815ec	0.19539613
163	0x3f9b9350	1.2154331
164	0x3f9dee06	1.2338264
165	0xbde3ad2c	-0.11117014
166	0x4008a252	2.1349072
167	0x3d6eb673	0.058279466
168	0x3efae246	0.49000758
169	0x3d8312b6	0.06400053
170	0x3ed6058e	0.41801113
171	0xbfe150c5	-1.7602774
172	0x3f9a5eba	1.2060158
173	0x40286391	2.631077
174	0x3e5d211b	0.2159466
175	0x3eb284f8	0.34867072
176	0xbf91e518	-1.1398039
177	0x400dcb28	2.2155247
178	0x3e1165de	0.14199015
179	0x3f4d1cf5	0.8012231
180	0xbf8a6ca3	-1.0814403
181	0xbd860bf9	-0.06545252
182	0xbfbd752f	-1.4801387
183	0xbfe0c57b	-1.7560266
184	0xbff1cc0a	-1.8890393
185	0x3ca0df3b	0.019637695
186	0xbfff24cb	-1.9933103
187	0xbff868d9	-1.9406997
188	0x4008b89d	2.136268
189	0xbf6a87e5	-0.9161361
190	0xbf1d9558	-0.61556005
191	0x3fd7cac0	1.6858749
192	0x3eb71325	0.35756794
193	0xbf3e7d0b	-0.7440955
194	0xbc5ea08d	-0.013588083
195	0x3fe6070e	1.7970903
196	0xbf1d54a1	-0.6145726
197	0x3f3c0411	0.73443705
198	0x3f3e8c9c	0.744333
199	0x3fbb573d	1.4635998
200	0xbf14b476	-0.5808786
201	0xbdccb7d0	-0.09995997
202	0x3eeaeb1b	0.45882496
203	0xbee314bc	-0.44351757
204	0xbff69d63	-1.9266781
205	0x3f2ed871	0.68299013
206	0xbe0d5ee1	-0.13805725
207	0xbfbc1141	-1.4692765
208	0xbf044326	-0.5166496
209	0xbfbcc8ca	-1.4748776
210	0xbf36c9a2	-0.7140142
211	0x3f870cec	1.0550818
212	0xc0109979	-2.2593672
213	0x3eec9346	0.4620611
214	0xbf007044	-0.50171304
215	0xbced492f	-0.02896556
216	0x3f2efeb2	0.68357384
217	0x3f7899f2	0.971099
218	0xbef6b563	-0.48185262
219	0x3eef4f54	0.4674021
220	0x3fad452b	1.3536733
221	0x3ee63117	0.44959328
222	0xbf028252	-0.50980103
223	0xbe53fc7c	-0.20701784
224	0xbe469bcd	-0.19395371
225	0x3da2c6ff	0.07948112
226	0x3e88814e	0.26661152
227	0xbf27f5a3	-0.65609187
228	0x3e113d2e	0.14183494
229	0xbe296ccf	-0.16545413
230	0x3fbd734d	1.4800812
231	0xbe1fa7c7	-0.15591346
232	0xb99c5822	-0.00029820303
233	0x3b8a738e	0.004225201

weight f4 [128, 76]
0	0x3e24b5b7	0.16084944
1	0x3df7dba7	0.12102442
2	0x3df376c9	0.11887891
3	0x3d712678	0.058874577
4	0xbdb221de	-0.08697866
5	0x3dde79b1	0.108630545
6	0x3d08f291	0.033434454
7	0x3d88f8ed	0.06688104
8	0xbda61aeb	-0.08110603
9	0xbd49aea0	-0.0492388
10	0xbdd19c36	-0.10234873
11	0xbd2f8519	-0.04285154
12	0xba8d1bd0	-0.0010765735
13	0xbdae498b	-0.08510121
14	0x3d12216e	0.035676412
15	0x3d76f9dd	0.060296882
16	0x3d3aec8b	0.04563574
17	0xbd8b39b4	-0.067981154
18	0xbdb7fe75	-0.08984081
19	0xbd21ecd9	-0.039532516
20	0x3d4b6e9d	0.049666036
21	0x3de50c45	0.11183981
22	0x3d870f07	0.06594663
23	0xbc9e2b83	-0.019307857
24	0x3d1c2490	0.038120806
25	0xbdeb4fce	-0.11489831
26	0xbdce6d9f	-0.10079502
27	0x3d5be829	0.053688202
28	0xbd835c62	-0.06414105
29	0x3d627fa3	0.055297505
30	0xbda992ba	-0.08279939
31	0xbd57196f	-0.05251449
32	0xbdc6577b	-0.09684654
33	0x3d67d145	0.05659606
34	0xbc10c890	-0.00883688
35	0x3daa6894	0.08320728
36	0x3d8a500d	0.0675355
37	0x3d8157ce	0.063155755
38	0x3b55d712	0.0032629413
39	0xbd6c3361	-0.057666186
40	0xbcf3da62	-0.029767219
41	0x3c3ceba0	0.011530787
42	0x3d88bdf6	0.06676857
43	0xbd8d3d1e	-0.06896423
44	0x3e0193c5	0.12654026
45	0xbd09a192	-0.03360135
46	0xbe260259	-0.16211833
47	0xbd63f5e2	-0.055654414
48	0x3dd29970	0.10283172
49	0x3de93b2c	0.11388239
50	0xbdd59ef9	-0.10430712
51	0x3d8aa9f7	0.067706995
52	0x3d796d82	0.06089545
53	0x3d3cad7d	0.04606389
54	0x3dae714a	0.08517702
55	0xbd5677fb	-0.052360516
56	0x3d24f12c	0.040269062
57	0x3d707948	0.058709413
58	0xbce042cd	-0.027375603
59	0x3d2e81e3	0.04260434
60	0xbcfcabfc	-0.030843727
61	0x3d46e819	0.04856119
62	0xbc855b79	-0.01627897
63	0xbd14a138	-0.036286563
64	0x3cea8c86	0.02863146
65	0x3d31decb	0.043425363
66	0xbd5d0d14	-0.05396755
67	0xbcacdf20	-0.021102488
68	0x3d824d41	0.06362391
69	0xbd092ede	-0.03349196
70	0x3cfa6d0e	0.03056958
71	0xbc7be374	-0.015374053
72	0x3c928e71	0.017890187
73	0xbd9ed9d2	-0.0775639
74	0xbd942ec6	-0.07235484
75	0xbd929114	-0.07156578
76	0x3dba98e3	0.09111192
77	0xbd630fc3	-0.055434953
78	0x3c21453b	0.009843166
79	0xbd3a22f3	-0.045443486
80	0x3df5c142	0.119997516
81	0x3dec2978	0.11531347
82	0xbda6802d	-0.08129916
83	0xbdda03aa	-0.1064523
84	0xbdcd3615	-0.10020081
85	0x3d0436b7	0.032278743
86	0xbd6cfc00	-0.057857513
87	0xbd6e8f45	-0.0582421
88	0xbc8e3d2d	-0.017363155
89	0x3c206d44	0.009791676
90	0xbd9bbd26	-0.076044366
91	0x3bcd97a2	0.0062741796
92	0xbd6dc640	-0.058050394
93	0xbd5014db	-0.05080114
94	0x3c959e6f	0.018264024
95	0x3dcf57e2	0.10124184
96	0xbd908122	-0.0705588
97	0x3c06a85e	0.008218853
98	0xbd2ee811	-0.042701785
99	0x3df7e507	0.121042304
100	0xbdd1422d	-0.102177
101	0xbdd6e58b	-0.104930006
102	0x3df3d1cc	0.1190525
103	0xbd8c961f	-0.06864571
104	0x3cd85ecf	0.026412396
105	0xbb334d9e	-0.0027359496
106	0xbcc74c7a	-0.024328459
107	0xbc981925	-0.018566677
108	0x3d9f957f	0.07792186
109	0x3bbb92bc	0.005724279
110	0xbdddf96c	-0.10838589
111	0xbd8674d9	-0.06565256
112	0xbd0c5f59	-0.034270618
113	0x3d832e7a	0.06405349
114	0xbd8a5b54	-0.06755701
115	0x3defab63	0.11702611
116	0xbca82edd	-0.020530159
117	0xbc7d36fa	-0.015455002
118	0x3db9897a	0.09059425
119	0x3d6d014c	0.057862565
120	0x3da9d344	0.08292249
121	0x3da0792a	0.0783561
122	0xbcd7b157	-0.02632968
123	0xbdc7491b	-0.09730741
124	0x3b531e1e	0.0032213996
125	0x3db4d1bd	0.08829067
126	0xbbfb4edb	-0.0076693124
127	0xbdf9318a	-0.12167652
128	0x3d919f07	0.0711041
129	0x3d91ef9f	0.07125782
130	0xbd3e1084	-0.04640247
131	0xbdf6eb8d	-0.120566465
132	0xbe05b1c8	-0.130561
133	0x3bde36ad	0.00678142
134	0xbd119b31	-0.035548393
135	0xbcd9da1c	-0.02659326
136	0x3d35af20	0.044356465
137	0x3b8d9a81	0.004321397
138	0x3db3c9a6	0.08778696
139	0x3d886661	0.06660152
140	0xbc514958	-0.012773834
141	0xbdd73d3b	-0.10509726
142	0xbe002ee5	-0.12517889
143	0x3df6ccc4	0.12050775
144	0x3d30aeb8	0.043135375
145	0x3d4849e7	0.048898604
146	0xbdd16992	-0.10225214
147	0x3db6ca69	0.089253254
148	0x3dde76bf	0.10862493
149	0x3dc68cb1	0.096948035
150	0xbdb74206	-0.0894814
151	0xbd4f5eb5	-0.05062743
152	0xbc5c30dd	-0.013439384
153	0x3e1f561b	0.1556019
154	0xbd07cf72	-0.03315682
155	0xbd2fccee	-0.042920046
156	0x3d823a7e	0.06358813
157	0xbd354659	-0.044256542
158	0xbd5b1235	-0.05348416
159	0xbc32f074	-0.010921586
160	0xbb8ad6d6	-0.004237036
161	0xbdb0dc53	-0.086357735
162	0x3db2aede	0.087247595
163	0xbd13f1bc	-0.036119208
164	0x3d153ca0	0.03643477
165	0x3df2b925	0.1185172
166	0x3d93aed6	0.07211082
167	0x3ccfb44d	0.025354529
168	0x3df1ab95	0.11800305
169	0x3c69f6e3	0.014280054
170	0xbd4f11fa	-0.050554253
171	0x3ddd3e40	0.10802889
172	0x3d0008a2	0.031258233
173	0xbdd946a9	-0.106091805
174	0xbc93c6db	-0.018039158
175	0xbd9dba87	-0.07701593
176	0x3dd7f84b	0.10545405
177	0xbc83213f	-0.016007064
178	0xbdcd2f88	-0.100188315
179	0xbbbf2851	-0.0058336635
180	0x3d9739c8	0.07384068
181	0x3d0df721	0.03465951
182	0x3d29725c	0.041368827
183	0x3c952387	0.018205417
184	0x3d3b30da	0.045700885
185	0xbcacccec	-0.021093808
186	0xbd2d03e4	-0.04224004
187	0xbdd895de	-0.1057546
188	0xbdc2b996	-0.09508054
189	0x3d7412f3	0.059588384
190	0xbd6df5fc	-0.058095917
191	0xbbca1e7e	-0.0061681857
192	0x3d0cfa23	0.034418236
193	0x3be18c0d	0.0068831504
194	0xbd9e90b0	-0.07742441
195	0x3ddf7108	0.10910231
196	0xbd259a7c	-0.04043053
197	0x3d9983d5	0.07495848
198	0xbe1c2e7d	-0.15252109
199	0xbcda37de	-0.026637968
200	0x3d827a2f	0.06370961
201	0xbd682f1a	-0.056685545
202	0x3dc79c0e	0.09746562
203	0xbdaf50fa	-0.08560367
204	0xbdc9ee70	-0.098599315
205	0xbd9b8780	-0.07594204
206	0xbc170ac0	-0.009218872
207	0x3e0432b6	0.1290997
208	0xbd1b8bce	-0.037975125
209	0x3d95d932	0.07316817
210	0xbc1cad66	-0.009562826
211	0xbca7fc9f	-0.020506201
212	0x3d8ece3e	0.06972931
213	0xbdb4057b	-0.08790108
214	0x3c2a8b8c	0.010409247
215	0x3dc8140c	0.09769449
216	0xbc4ed5e3	-0.012624237
217	0x3db08dd1	0.08620799
218	0xbd2c0715	-0.04199894
219	0x3da773ea	0.08176406
220	0xbdcdc7bd	-0.10047863
221	0xbc943b45	-0.018094668
222	0xbd151ee7	-0.036406424
223	0x3d7d3ceb	0.061825674
224	0x3d25a696	0.04044207
225	0x3dc408e5	0.09572009
226	0xba8f3847	-0.0010926806
227	0xbc2bb15a	-0.010479296
228	0x3e16d40f	0.14729331
229	0x3cb7fbf5	0.02245901
230	0x3df0fcb9	0.11766953
231	0xbd83ba5c	-0.064320296
232	0xbc14357c	-0.009045955
233	0xbc5945a7	-0.013261235
234	0x3d4e9049	0.05043057
235	0x3da9f757	0.082991295
236	0xbc2600d0	-0.01013203
237	0xbdd8bf4f	-0.10583364
238	0x3d875fc5	0.066100635
239	0x3cd9bf31	0.026580425
240	0x3d0f7889	0.03502706
241	0xbd7a131f	-0.06105339
242	0x3d9e3cb0	0.07726419
243	0x3de43247	0.11142402
244	0x3d1485f9	0.03626058
245	0xbdd42273	-0.10358133
246	0x3da968e3	0.08271959
247	0xbdaeb65a	-0.085308746
248	0x3cbb3e98	0.022856995
249	0x3c2eb0db	0.010662283
250	0xbd67bdfc	-0.056577668
251	0x3d0fc6da	0.03510175
252	0xbdd60aec	-0.10451302
253	0x3cc85861	0.024456205
254	0xbd99abb2	-0.075034514
255	0xbc2ef4a5	-0.010678445

bias f4 [128]
0	0xbd8a2fac	-0.06747374
1	0xbd880a1a	-0.06642552
2	0xbda5499c	-0.080706805
3	0x3d8031e7	0.06259518
4	0x3c4ca25d	0.012489882
5	0xbbaf6e69	-0.005353738
6	0x3ce899ab	0.028393587
7	0x3d7ac2db	0.061220985
8	0x3c05c5dc	0.008164849
9	0x3d902f2f	0.070402496
10	0xbc430f37	-0.011905483
11	0x3d393cf9	0.045224164
12	0x3d0bc80b	0.034126323
13	0xba8f63a2	-0.0010939727
14	0x3dc32f3f	0.09530496
15	0x3deb3e12	0.11486448
16	0x3db0dca5	0.086358346
17	0xbcd2ee9f	-0.025748549
18	0xbcbc5d42	-0.022993688
19	0x3dc5c8c5	0.096574344
20	0xbd4e0245	-0.050295133
21	0x3c0f50b4	0.0087472685
22	0xbd9103b3	-0.07080784
23	0xbce63869	-0.02810307
24	0xbd3fa906	-0.046792053
25	0x3d8534f9	0.06504244
26	0xbd4a7031	-0.0494234
27	0xbd7234ea	-0.059132494
28	0x3d4435b1	0.047902767
29	0xbc05a0d8	-0.008156024
30	0x3caf4f54	0.021400131
31	0xbda91e4b	-0.08257731
32	0xbd342d1a	-0.043988325
33	0x3d6df25f	0.05809247
34	0x3d87a909	0.06624038
35	0xbdcdc384	-0.10047057
36	0xbd96f34b	-0.07370623
37	0x3d456a84	0.048197284
38	0xbdbc3bbe	-0.091910824
39	0xbd794372	-0.060855336
40	0xbd8fc482	-0.07019903
41	0xbdb4aeb3	-0.08822384
42	0xbd6a58cf	-0.0572136
43	0x3da1e1bc	0.079043835
44	0xbddce244	-0.10785344
45	0x3db7d791	0.08976663
46	0xbddc1258	-0.10745686
47	0xbcd60a54	-0.026127972
48	0xbd1aa549	-0.037755284
49	0x3d7a61db	0.06112848
50	0xbdbe5391	-0.09293283
51	0xbd7f1f75	-0.06228586
52	0xbddb192f	-0.10698163
53	0xba3ccfe2	-0.0007202608
54	0x3d423e97	0.04742297
55	0x3dd67ec9	0.10473401
56	0x3dbd6531	0.09247816
57	0xbcdb37b7	-0.026759965
58	0xbd8b99a4	-0.06816414
59	0x3cdf20cb	0.027237317
60	0x3d993e86	0.074826285
61	0x3dce54fc	0.10074803
62	0x3db6361e	0.08897041
63	0xbb00557c	-0.0019582203
64	0xbdd1ca54	-0.10243669
65	0xbd8164b5	-0.063180365
66	0x3d8be79f	0.068312876
67	0xbdbea6c8	-0.09309155
68	0xbdb30e15	-0.0874292
69	0xbd9435e3	-0.072368406
70	0xbccee2c5	-0.025254617
71	0x3d503e4d	0.050840665
72	0x3d9e1032	0.07717933
73	0x3dd266bc	0.10273501
74	0x3d7baf61	0.06144655
75	0x3cb67047	0.022270335
76	0xbc83a3b3	-0.016069269
77	0xbd974758	-0.073866546
78	0xbd5f0790	-0.05445057
79	0xbc2fd731	-0.010732458
80	0x3dbe84c0	0.09302664
81	0xbca7a5c8	-0.020464793
82	0xbc854a84	-0.016270883
83	0x3bfdcb86	0.007745209
84	0xbd578cde	-0.052624576
85	0xbd813ad1	-0.063100465
86	0x3d393aef	0.04522222
87	0xbda3986f	-0.07988059
88	0xbb2a5b65	-0.0025994417
89	0xbb6a9886	-0.0035796477
90	0x3caba3f7	0.020952208
91	0xbc38147f	-0.011235355
92	0xbd5654ac	-0.052326843
93	0xbd011d25	-0.031521935
94	0xbd0d5526	-0.034505032
95	0x3d31a513	0.043370318
96	0x3ce1bb25	0.027555058
97	0xbcf15ed5	-0.029464165
98	0x3db56d57	0.088587455
99	0x3c07a150	0.008278206
100	0x3d55f7d1	0.05223829
101	0xbd11c665	-0.035589594
102	0xbdccce37	-0.1000027
103	0xbdc6dda5	-0.09710244
104	0xbd24c3ef	-0.04022592
105	0x3d8714a4	0.06595734
106	0x3d674540	0.056462526
107	0x3d51c647	0.051214483
108	0x3d132edf	0.03593337
109	0xbd901da7	-0.07036906
110	0xbd05e205	-0.032686252
111	0x3c88fac8	0.016721144
112	0xbdd1e471	-0.1024865
113	0xbdbcce1b	-0.09218999
114	0xbd9ba466	-0.07599716
115	0x3cfb56a0	0.030680954
116	0xbccb1ece	-0.024794962
117	0xbc901246	-0.017586838
118	0x3d8a777a	0.067610696
119	0xbda06661	-0.07832027
120	0xbd8a3b72	-0.067496195
121	0xbcf6144f	-0.03003898
122	0x3d883371	0.06650437
123	0x3c0c30d5	0.008556564
124	0xbdbfdbaf	-0.09368073
125	0x3da335a4	0.079692155
126	0xbd91a7dc	-0.07112095
127	0x3db2615c	0.08709976

weight f4 [128, 128]
0	0x3ca7f7ab	0.02050384
1	0x3c8620f1	0.01637313
2	0x3d6e37e7	0.05815878
3	0x3cf8dd8c	0.03037908
4	0xbdb27353	-0.087134026
5	0x3c8369ef	0.016041724
6	0x3dcb860c	0.09937677
7	0xbd0ca9f0	-0.034341753
8	0x3d3df9e1	0.04638088
9	0x3d8e8b8a	0.06960209
10	0xbc48e2da	-0.012261117
11	0xbbd4e75d	-0.006497307
12	0xbc6dceeb	-0.014514665
13	0x3db30435	0.08741037
14	0x3d4531aa	0.048143066
15	0x3d9f676a	0.077833965
16	0xbd981a39	-0.074268766
17	0xbd32095d	-0.04346596
18	0xbcc2f21f	-0.023797093
19	0x3d133b14	0.035945013
20	0xbd5a80bb	-0.053345423
21	0x3cc4b1ec	0.024010621
22	0x3d46d841	0.04854608
23	0xbccdbd94	-0.025114812
24	0x3b048649	0.0020221642
25	0xbd8be1fe	-0.06830214
26	0xbbb14d2d	-0.0054108114
27	0x3c44ec58	0.012019239
28	0x3d89cc49	0.067284174
29	0x3d2d233d	0.042269934
30	0x3d247bf5	0.040157277
31	0x3d0e5486	0.034748577
32	0x3d6f3869	0.058403406
33	0x3c102d1c	0.008799817
34	0x3dd0fc1d	0.10204337
35	0xbd687d1f	-0.05675995
36	0x3d5c3d3f	0.053769346
37	0x3c428506	0.011872536
38	0x3d6f6958	0.058450073
39	0xbda4d895	-0.08049122
40	0x3d54da7f	0.051966187
41	0xbda57191	-0.08078302
42	0xbd052494	-0.032505587
43	0xbb89d462	-0.004206226
44	0xbd09b719	-0.03362188
45	0xbd4212ba	-0.04738114
46	0xbd9173dc	-0.071021765
47	0xbda73895	-0.08165089
48	0xbc5d661a	-0.013513112
49	0x3d85b02d	0.065277435
50	0xbcc6c7e6	-0.02426524
51	0xbd6e4765	-0.058173556
52	0xbd2f6f53	-0.042830776
53	0xbc5a0e5a	-0.013309086
54	0xbb6d593f	-0.0036216525
55	0x3d8c855c	0.06861374
56	0xbdb26f78	-0.08712667
57	0x3d1c3235	0.03813382
58	0x3d86179e	0.06547473
59	0x3d848724	0.064710885
60	0xbd622716	-0.055213057
61	0x3c5e21ab	0.013557832
62	0x3d4d281b	0.050087076
63	0xbd8aa297	-0.06769293
64	0x3d95888a	0.073014334
65	0x3b8e7bdb	0.004348261
66	0xbd8caeb4	-0.068692595
67	0xbc4fcebf	-0.012683569
68	0x390949d8	0.00013092847
69	0xbca6acd8	-0.02034609
70	0xbd346b0f	-0.04404741
71	0xbcde6757	-0.027148886
72	0x3d18b48d	0.03728156
73	0x3d654a76	0.055979215
74	0xbddccac1	-0.1078086
75	0xbc24b3f7	-0.010052673
76	0x3d1595b0	0.036519706
77	0x3d97d4f7	0.07413667
78	0x3d346557	0.044041958
79	0x3d665446	0.056232713
80	0x3cbc7ba9	0.023008185
81	0x3ce8856c	0.028383933
82	0xbd82eef3	-0.06393232
83	0xbd12d69e	-0.035849206
84	0x3cc3f2aa	0.023919422
85	0xbcb0568d	-0.021525646
86	0x3dea4af3	0.11440077
87	0xbd60d5c8	-0.054891378
88	0x3d19a6b1	0.037512485
89	0x3d8c2b3f	0.06844186
90	0x3d50a079	0.05093429
91	0x3dbe9afa	0.09306903
92	0xbd372f1c	-0.04472266
93	0x3d45687c	0.048195347
94	0xbdb55186	-0.0885344
95	0xbd5351a4	-0.05159153
96	0xbca4c8c9	-0.020115273
97	0x3d7ff4cb	0.062489312
98	0xbc4b3d89	-0.012404808
99	0xbd8e8195	-0.069583096
100	0xbdac1c88	-0.084038794
101	0x3c451d01	0.012030841
102	0x37e4ac61	2.7259988e-05
103	0x3aa9256d	0.001290483
104	0xbcfffb7e	-0.03124785
105	0x3ce338f1	0.027737113
106	0x3bae87c8	0.005326245
107	0xbd0cde6d	-0.03439181
108	0x3c7a5606	0.015279299
109	0xbd056b79	-0.032573197
110	0xbd33058a	-0.043706454
111	0x3d203a25	0.03911795
112	0xbd1a103c	-0.03761314
113	0x3cb4e766	0.022082996
114	0xbb9029d1	-0.004399516
115	0x3d356193	0.044282507
116	0x3d9a3d3f	0.07531213
117	0x3d87be1f	0.066280596
118	0x3cc274c3	0.023737317
119	0xbd630e87	-0.055433776
120	0xbd28a0b0	-0.04116887
121	0xbd4be4a6	-0.049778603
122	0xbc8d2718	-0.017230555
123	0xbd660d18	-0.05616483
124	0x3d1bd59e	0.038045518
125	0xbdc06799	-0.0939476
126	0xbb3d1baa	-0.00288556
127	0x3da82f02	0.08212091
128	0xbd5e9cf2	-0.054348893
129	0xbc079735	-0.008275797
130	0x3d86511b	0.065584384
131	0xbcbd1bb4	-0.023084499
132	0xbd2b5192	-0.04182584
133	0x3d81ba61	0.06334377
134	0xbd91347f	-0.07090091
135	0x3da78057	0.08178776
136	0x3dc8d93c	0.09807059
137	0x3bd0e3c1	0.0063748066
138	0xbbfaa39a	-0.0076488974
139	0xbd3810df	-0.044937965
140	0x3d620aa4	0.05518593
141	0xbda2c37f	-0.07947444
142	0xbd2386b4	-0.039923385
143	0x3d2c40c9	0.04205397
144	0x3c92918a	0.017891664
145	0x3d9b1ed1	0.07574237
146	0x3ada5cc7	0.001665973
147	0x3d4df344	0.050280824
148	0x3d698717	0.057013597
149	0xbd92f222	-0.071750894
150	0xbdb289cf	-0.08717691
151	0x3da20650	0.0791136
152	0x3db918db	0.09037944
153	0x3dcb7ce1	0.09935928
154	0xbd848ef5	-0.064725794
155	0x3da5d665	0.08097533
156	0xbd09f0f1	-0.033677045
157	0x3d0fd308	0.035113364
158	0x3d155970	0.036462247
159	0xbd8ade3f	-0.06780671
160	0xbd8bcb9d	-0.068259455
161	0x3d89e151	0.06732429
162	0xbdc6ab79	-0.097006746
163	0x3cc45c2c	0.023969732
164	0x3cd30ffc	0.025764458
165	0x3d4a03bc	0.049319968
166	0x3bb439fa	0.0055000754
167	0xbd09df4f	-0.03366023
168	0xbc862b46	-0.016378056
169	0xbc599101	-0.0132792005
170	0xbd880aa6	-0.06642656
171	0xbc2c5ded	-0.0105204405
172	0xbd4359ef	-0.04769319
173	0x3da9a97f	0.08284282
174	0xbd2f295f	-0.042764064
175	0xbc3b274a	-0.011422941
176	0xbd83f007	-0.06442266
177	0x3da900df	0.08252119
178	0x3d613a00	0.054986954
179	0x3d9b222e	0.07574879
180	0x3da6ca13	0.08144011
181	0xbbab9dad	-0.0052373023
182	0x3d990e0a	0.07473381
183	0xbc61522e	-0.013752503
184	0x3da273dd	0.079322554
185	0x3cb5235b	0.022111585
186	0x3d531b2a	0.051539578
187	0xbcfcb98d	-0.030850196
188	0x3d10589d	0.03524076
189	0xbb52a15f	-0.0032139642
190	0xbd4cf9ec	-0.05004303
191	0x3d8e360e	0.06943904
192	0xbd4515fd	-0.048116673
193	0xbd9f89ea	-0.07789977
194	0x3d74c8ff	0.059761997
195	0xbd95ac50	-0.073082566
196	0x3ce710f6	0.02820633
197	0x3d59d934	0.053185657
198	0xbb95ba52	-0.0045693303
199	0xbd934161	-0.071902044
200	0xbd6d599d	-0.05794679
201	0xbce1bb96	-0.027555268
202	0x3c84787c	0.016170733
203	0x3d7a60b5	0.061127383
204	0x3d4b3abe	0.049616568
205	0xbd1cde43	-0.038297903
206	0xbcb85e06	-0.022505771
207	0xbd91eae6	-0.071248814
208	0x3cd4862e	0.025942888
209	0x3cc34fad	0.023841703
210	0xbbc2d261	-0.0059454893
211	0x3b74ec54	0.0037372308
212	0x3b225b15	0.0024773527
213	0xbd986504	-0.07441142
214	0x3d920d5e	0.07131456
215	0x3c72c07f	0.014816402
216	0x3dfbe276	0.12299053
217	0xbd93f2b6	-0.07224028
218	0xbcb4a77a	-0.022052515
219	0xbd36aec2	-0.044600256
220	0x3d2a57f9	0.041587804
221	0xbca7ffc8	-0.020507708
222	0xbd43394b	-0.04766206
223	0x3d998770	0.07496536
224	0x3d90c7af	0.070693366
225	0x3dd91388	0.105994284
226	0x3d11b159	0.035569523
227	0x3d558614	0.05212982
228	0xbd5c2f87	-0.053756263
229	0xbc6a28c9	-0.0142919505
230	0xbcb42aca	-0.02199306
231	0x3c9af4dd	0.018915588
232	0x3cad0ce5	0.021124313
233	0x3c95b4ee	0.01827475
234	0xbd272838	-0.04080984
235	0x3d0096f1	0.03139395
236	0x3b6d23c4	0.0036184648
237	0xbd9182d1	-0.071050294
238	0xbd440140	-0.047852755
239	0xbd95c286	-0.07312493
240	0xbd51c867	-0.05121651
241	0xbdb4654b	-0.088083826
242	0xbd0c4e36	-0.034254275
243	0xbda3a6fa	-0.079908326
244	0xbd9fabe8	-0.077964604
245	0x3da1cd01	0.079004295
246	0xbd8c5ba1	-0.06853414
247	0x3d71f1c3	0.059068453
248	0x3cbe3107	0.023216737
249	0x3c19784f	0.009367063
250	0x3d867f45	0.065672435
251	0xbd6e2c2d	-0.058147598
252	0x3d47e933	0.04880638
253	0x3d52cc56	0.0514644
254	0x3d8d31bd	0.068942524
255	0xbdc01e46	-0.09380774

bias f4 [128]
0	0xbb32c60c	-0.002727869
1	0x3d1a3b90	0.03765446
2	0x3d1e2b16	0.03861531
3	0xbda392a3	-0.07986953
4	0xbd1be593	-0.038060736
5	0xbd9a6757	-0.07539242
6	0xbd9bebf9	-0.076133676
7	0x3d3b257c	0.045690045
8	0x3d8f4c36	0.06996958
9	0xbd857ee1	-0.06518341
10	0xbcb1a1e1	-0.021683635
11	0x3d4a08ab	0.049324673
12	0x3dbb13e5	0.09134654
13	0x3d9a43aa	0.07532437
14	0x3d5014fc	0.050801262
15	0xbd9ddaf4	-0.077077776
16	0xbd4fa021	-0.05068982
17	0x3d993713	0.07481208
18	0xbdb4164f	-0.087933175
19	0xbcea67b3	-0.0286139
20	0xbd94052b	-0.07227548
21	0xbd83a522	-0.06427981
22	0x3cbdf8b3	0.023189878
23	0xbcc5df86	-0.024154436
24	0xbd919604	-0.07108691
25	0xbd78643e	-0.060642473
26	0x3d92cdb5	0.07168142
27	0x3da2148b	0.079140745
28	0x3d110035	0.035400588
29	0x3d3273b0	0.04356736
30	0xbd5fc99a	-0.05463562
31	0xbd16d2b7	-0.036822047
32	0xbb5906ad	-0.0033115551
33	0x3cc6cc07	0.02426721
34	0x3b16968b	0.0022977914
35	0x3ce20e9b	0.027594855
36	0xbcf952b0	-0.030434936
37	0xbcaecd59	-0.021338152
38	0x3d0be63b	0.03415511
39	0xbd9cd354	-0.07657495
40	0xbc0cf404	-0.0086031
41	0x3d979ebe	0.074033245
42	0xbd40bc89	-0.0470548
43	0xbc94ca41	-0.018162848
44	0xbc1e47a0	-0.009660631
45	0xbcd021c5	-0.025406728
46	0x3d801386	0.06253724
47	0x3cb92c5d	0.022604162
48	0x3db93e77	0.09045117
49	0xbcc4f525	-0.024042675
50	0x3ccca742	0.024982098
51	0x3cda3795	0.026637832
52	0xbd32fadc	-0.04369627
53	0xbdc42af5	-0.09578506
54	0x3d61ef2f	0.055159744
55	0xbd5fea5b	-0.05466686
56	0xbcf6834c	-0.030091904
57	0xbc6af6d9	-0.01434108
58	0xbdb52776	-0.08845417
59	0x3d68b9b8	0.05681774
60	0xbc9cd93b	-0.019146552
61	0xbd347e2c	-0.04406564
62	0xbd9ea292	-0.077458516
63	0x3ce828c4	0.028339751
64	0xbb2fb04b	-0.002680796
65	0xbc7cdcdf	-0.015433519
66	0xbcd40ad9	-0.025884079
67	0x3cf13b4b	0.029447218
68	0xbc7e5079	-0.015522116
69	0x3c8cb219	0.017174767
70	0x3d8779d3	0.06615033
71	0x3cc10979	0.023564087
72	0xbd8a08ce	-0.067399606
73	0xbb6cc484	-0.0036127875
74	0xbce71f9a	-0.028213311
75	0x3c2b119e	0.010441212
76	0x3d886e62	0.06661679
77	0xbbbdc254	-0.005790988
78	0xbd005a6b	-0.03133623
79	0xbca600b1	-0.020264002
80	0x3d432a9d	0.04764806
81	0xbcd50da5	-0.026007483
82	0x3b6d3ea0	0.0036200657
83	0xbc293229	-0.0103269005
84	0xbd74300c	-0.059616134
85	0x3d08cb18	0.03339681
86	0x3d9c148f	0.07621109
87	0xbd528361	-0.051394824
88	0x3ca78636	0.020449739
89	0x3cdbb9f7	0.026822073
90	0xbcf20713	-0.029544389
91	0xbc5a6034	-0.013328601
92	0xbbe1391a	-0.006873262
93	0x3d3bd1ba	0.045854308
94	0xbba32c70	-0.0049796626
95	0xbda1d6db	-0.079023086
96	0xbd0d1a5c	-0.034448966
97	0xbd0730c5	-0.033005495
98	0xbc8f93cb	-0.017526528
99	0xbd490b94	-0.049083307
100	0x3bbebd26	0.005820888
101	0xbb36fcc5	-0.0027921658
102	0xbd24c063	-0.040222537
103	0xbbdcf7f7	-0.006743427
104	0xbd82e2d3	-0.063909195
105	0xbd40a37d	-0.047030915
106	0x3d4d588b	0.05013327
107	0x3b96f409	0.004606728
108	0x3d3a9a47	0.045557287
109	0x3cc3f44c	0.0239202
110	0x3d6721d1	0.056428734
111	0x3dafd6fc	0.08585927
112	0x3d780312	0.060549803
113	0xbcd11f2d	-0.025527561
114	0xbd08b1f5	-0.033372838
115	0x3d93073d	0.07179115
116	0x3d5c940a	0.05385212
117	0x3da863c6	0.08222155
118	0x3da06fef	0.0783385
119	0x3d84087c	0.06446931
120	0x3c0be155	0.00853761
121	0xbb54a930	-0.0032449476
122	0xbd48161d	-0.048849214
123	0x3db6f286	0.089329764
124	0xbd634153	-0.05548222
125	0x3d442228	0.047884136
126	0xbba75d30	-0.0051075444
127	0xbd329d16	-0.04360684

weight f4 [128, 128]
0	0xbd7e3708	-0.0620642
1	0x3d07396d	0.03301375
2	0xbca27dfa	-0.01983546
3	0x3d67b102	0.056565292
4	0xbd044194	-0.032289103
5	0xbc70c31e	-0.014694957
6	0x3c31f23f	0.010860979
7	0x3dae634f	0.08515035
8	0xbda269f6	-0.07930367
9	0xbcf4fd08	-0.029905811
10	0xbce28e6e	-0.027655806
11	0x3d1190c8	0.035538465
12	0x3dbb48ef	0.0914477
13	0x3c127323	0.008938584
14	0x3c525fac	0.012840193
15	0x3d7a71fc	0.06114386
16	0xbd970a2e	-0.073749885
17	0x3d9e521e	0.07730506
18	0x3dbda1e4	0.09259394
19	0xbd3b5ec9	-0.04574469
20	0xbbde5fa5	-0.006786304
21	0x3cc11a8e	0.023572233
22	0xbd421d19	-0.04739103
23	0xbd0d7734	-0.03453751
24	0x3da0a0e6	0.07843189
25	0x3d808cec	0.06276879
26	0xbd8bfabe	-0.06834935
27	0x3d6e478e	0.05817371
28	0xbd09b6bd	-0.03362154
29	0x3a93bc49	0.0011271323
30	0xbdca4d9e	-0.098780856
31	0xbdaf465f	-0.08558344
32	0x3b79fadd	0.003814391
33	0xbd7cda06	-0.06173136
34	0xbd4afae5	-0.049555678
35	0x3d3480dd	0.044068206
36	0x3d19633f	0.037448164
37	0xbd865807	-0.06559759
38	0x3d82bec1	0.0638404
39	0x3d9f38e2	0.077745214
40	0xbcdf8673	-0.02728579
41	0x3d247e21	0.04015935
42	0xba95a437	-0.0011416738
43	0xbc06d535	-0.008229543
44	0xbc3e9a83	-0.011633518
45	0x3d4301dc	0.047609195
46	0x3da59c6e	0.08086477
47	0xbc594c1b	-0.013262774
48	0xbcef0101	-0.029175283
49	0x3db7b285	0.08969597
50	0x3d6cd657	0.057821598
51	0xbd56a7c8	-0.052406102
52	0x3db42e51	0.08797897
53	0xbc9df3fb	-0.019281378
54	0x3d61a860	0.055092216
55	0x3b9f4057	0.004859965
56	0x3a491b82	0.00076716405
57	0xbd2e001d	-0.042480577
58	0x3c14dd2c	0.009085935
59	0xbd9238c3	-0.07139733
60	0xbc8ef776	-0.017451983
61	0x3d8079ff	0.06273269
62	0x3d9bbd04	0.07604411
63	0xbcc7cd32	-0.024389837
64	0x3d80d687	0.06290918
65	0xbc0bc65e	-0.008531181
66	0x3d9b31c7	0.07577854
67	0x3d75471f	0.05988228
68	0xbd034180	-0.032044888
69	0x3d27da5a	0.04097972
70	0x3d348868	0.0440754
71	0x3d2d53fa	0.042316414
72	0xbd692d81	-0.05692816
73	0xbc106828	-0.008813895
74	0xbd9b80ec	-0.07592949
75	0x3cf1d17b	0.029518833
76	0xbcac0ef0	-0.021003217
77	0x3d3a6673	0.04550786
78	0x3d89720b	0.06711205
79	0x3d0a1d6e	0.033719473
80	0xbdb6f7a1	-0.0893395
81	0xbd778ae5	-0.060435195
82	0x3c961cde	0.018324312
83	0xbd941dc8	-0.07232243
84	0x3d49ea73	0.049295854
85	0xbc2c6ad6	-0.010523519
86	0xbd7fc648	-0.062444955
87	0x3d34baa1	0.044123296
88	0x3ca8b111	0.020592244
89	0x3db47286	0.08810906
90	0xb9dffe9b	-0.0004272357
91	0x3d0a7554	0.0338033
92	0x3d584dd8	0.052808613
93	0x3d667f4a	0.056273736
94	0xbd4a14f2	-0.04933638
95	0xbd5e2da3	-0.05424274
96	0x3bb45def	0.005504362
97	0x3dbf698d	0.09346304
98	0x3d4d0423	0.050052773
99	0xbd07cc58	-0.03315386
100	0xbd02c919	-0.031930063
101	0x3db05f2c	0.086119026
102	0x3d8ee013	0.069763325
103	0x3d274a44	0.04084231
104	0xbd5abf59	-0.05340514
105	0xbdabb0b4	-0.08383313
106	0x3d6df8ce	0.058098607
107	0x3d9c7c48	0.07640892
108	0x3dbdb72e	0.092634544
109	0x3d704cb8	0.058666915
110	0xbcb534d2	-0.022119913
111	0xbc56b228	-0.013103999
112	0x3d897c4c	0.06713161
113	0xba38506e	-0.0007031028
114	0xbd580e30	-0.052747905
115	0x3d809187	0.06277757
116	0xbd566e27	-0.052351143
117	0x3d27c0db	0.040955406
118	0xbd0948b8	-0.033516616
119	0xbc887d61	-0.016661348
120	0x3d83fe52	0.06444992
121	0xbce41ee0	-0.027846754
122	0xbb9f82fa	-0.0048679085
123	0xbda73116	-0.08163659
124	0x3c5146c7	0.012773222
125	0xbcf990fc	-0.030464642
126	0x3d4ccccb	0.049999993
127	0x3d8cf8e1	0.068834074
128	0xbd71de17	-0.059049692
129	0x3d94d6e3	0.07267549
130	0x3cc40af3	0.023931002
131	0x3d96fcf1	0.073724635
132	0x3b817b8c	0.0039514955
133	0xbd80dcd4	-0.062921196
134	0xbd94a8cd	-0.07258759
135	0x3d883908	0.06651503
136	0xbd86d357	-0.065832786
137	0xbd671db2	-0.056424804
138	0xbd0744d0	-0.03302461
139	0xbdc43b69	-0.09581644
140	0xbbe0e677	-0.006863411
141	0xbb43d3a5	-0.0029880789
142	0xbb12ca3f	-0.002239838
143	0xbc6a9951	-0.01431878
144	0xbd39d6e5	-0.045370955
145	0x3d921e3a	0.071346715
146	0xbd292ed9	-0.041304443
147	0xbd919b57	-0.07109707
148	0x3d726113	0.05917461
149	0xbd9cd50b	-0.07657822
150	0xbd968c53	-0.073509835
151	0xbdb53855	-0.08848635
152	0x3d172cbc	0.036907896
153	0x3c172a1f	0.009226351
154	0x3d825624	0.06364086
155	0x3d5b2fdd	0.053512443
156	0xbd1ee601	-0.038793568
157	0x3c4f2f4a	0.012645552
158	0x3bdd95e6	0.006762254
159	0x3d3344d3	0.043766808
160	0xbd27068b	-0.040777724
161	0x3d9061d9	0.07049913
162	0xbcfe2e98	-0.031028077
163	0xbd6e218f	-0.058137473
164	0xbb4d61da	-0.0031338842
165	0x3d27a394	0.040927485
166	0x3bef1c41	0.0072970693
167	0x3d88cae8	0.06679326
168	0x3cbfe3d9	0.023424076
169	0x3d952a04	0.072834045
170	0x3cc51317	0.024056954
171	0xbdbe9d0c	-0.09307298
172	0xbc4de05e	-0.0125657
173	0xbcaf0dce	-0.021368887
174	0x3d8b43a6	0.06800012
175	0x3d8f70c2	0.07003929
176	0x3ce16d47	0.027517928
177	0xbd47467f	-0.048651215
178	0xbcfc3bee	-0.030790295
179	0xbd6e2622	-0.058141835
180	0xbdbcc39e	-0.092169985
181	0xbd50e4bd	-0.05099939
182	0x3d7fb72f	0.062430557
183	0x3cddcced	0.027075255
184	0x3c881070	0.0166094
185	0x3d9057f0	0.07048023
186	0xbd200261	-0.03906477
187	0x3d960fe5	0.073272504
188	0xbd51297a	-0.051064946
189	0x3baa25b0	0.005192481
190	0xbcec8f28	-0.028876856
191	0x3d10acc1	0.035321
192	0x3ca36e18	0.019949958
193	0x3d2749f5	0.040842015
194	0x3b0f87d2	0.0021901024
195	0xbcd94dab	-0.026526293
196	0x3d5251c2	0.0513475
197	0x3ca04b1c	0.019567065
198	0x3d166dee	0.03672593
199	0xbda40437	-0.080086164
200	0xbdb041c3	-0.08606293
201	0x3d16fabf	0.036860224
202	0x3d399376	0.045306645
203	0xbd3c5efc	-0.04598902
204	0xbd13fcb8	-0.036129683
205	0x3cae5b9b	0.021283915
206	0xbcc685a1	-0.024233641
207	0xbd0d6713	-0.034522127
208	0xbda96d92	-0.08272852
209	0x3cdb0da4	0.026739903
210	0x3d965755	0.07340876
211	0x3d94061d	0.072277285
212	0xbd61bab5	-0.0551097
213	0x3d86df2e	0.06585537
214	0xbc3f9f18	-0.011695646
215	0x3cd72f40	0.026267648
216	0xbd877773	-0.0661458
217	0xbc4b1e9c	-0.012397435
218	0xbc00c237	-0.007858804
219	0x3c6ee24f	0.014580323
220	0x3c500626	0.012696778
221	0xbb0763e9	-0.0020658916
222	0xbc114d35	-0.008868505
223	0x3bbde920	0.005795613
224	0xbd4e58f8	-0.050377816
225	0x3d81eb4c	0.063437074
226	0xbd63335d	-0.055468906
227	0x3c899475	0.016794423
228	0xbd94dbcc	-0.072684854
229	0x3cf291c4	0.029610522
230	0x3d999e68	0.07500917
231	0xbd9a4b24	-0.07533863
232	0x3d25df36	0.040496074
233	0x3d55e74d	0.05222254
234	0x3d429456	0.047504745
235	0x3da2a815	0.07942215
236	0xbd7a03d1	-0.061038796
237	0x3d9629d4	0.07332197
238	0xbd348a2c	-0.044077083
239	0xbc8ebca6	-0.017423939
240	0x3cac2ae9	0.021016555
241	0xbd6ce243	-0.057832967
242	0xbc5c73e0	-0.013455361
243	0x3dbd99ab	0.092578255
244	0x39e1bb44	0.00043054868
245	0xbd52fbd8	-0.05150971
246	0xbd4135e4	-0.047170535
247	0x3cd20ee4	0.025641866
248	0xbcb5de9b	-0.022200873
249	0xbd4b9aea	-0.049708284
250	0x3cde17a2	0.027110878
251	0x3cb879a1	0.022518935
252	0x3d5ca20d	0.05386548
253	0xbc27d74a	-0.0102442
254	0x3d1ce46d	0.03830378
255	0xbd24cbe0	-0.040233493

bias f4 [128]
0	0x3dbdc546	0.092661425
1	0xbc6f9faa	-0.014625469
2	0xbd5595e7	-0.05214491
3	0x3d766fdc	0.06016527
4	0x3d8742e1	0.06604553
5	0x3d1f60dd	0.038910735
6	0xbc9bf501	-0.019037725
7	0xbd3abd81	-0.04559088
8	0x3cff3be9	0.031156497
9	0x3cab7699	0.020930575
10	0xbd9bc50a	-0.076059416
11	0x3d466da0	0.04844439
12	0x3d45975e	0.048240058
13	0x3d41f239	0.047350142
14	0xbd84ec15	-0.064903416
15	0x3d134893	0.035957884
16	0xbd0381bf	-0.032106157
17	0x3c5e6e39	0.013576084
18	0xbc031284	-0.00800002
19	0xbd365c7f	-0.044521805
20	0xbd301cfb	-0.042996388
21	0x3d8a5bcc	0.0675579
22	0xbc81f9fc	-0.015866272
23	0x3d473126	0.048630856
24	0x3d2b3914	0.04180248
25	0x3d88c55b	0.066782676
26	0xbd351a2a	-0.044214405
27	0x3d0281cd	0.03186207
28	0x3d455355	0.048175175
29	0xbcfa049b	-0.030519774
30	0xbd262c1f	-0.04056942
31	0x3d2c9d93	0.042142462
32	0x3d079e9e	0.033110254
33	0xbc8f5212	-0.017495189
34	0x3d81b39a	0.063330844
35	0x3b8290c8	0.0039845444
36	0x3d7c7447	0.06163433
37	0xbc0900fb	-0.00836205
38	0x3d4298ab	0.047508877
39	0x3d086f38	0.03330919
40	0xbd80fc72	-0.0629815
41	0x3d9ec385	0.07752136
42	0x3d96d297	0.073643856
43	0x3d3e0b63	0.046397578
44	0x3ccfe925	0.025379727
45	0x3d63ba4b	0.055597585
46	0xbcf985ac	-0.030459248
47	0x3d961576	0.07328312
48	0xbd8b606f	-0.068055026
49	0xbdb37674	-0.087628275
50	0xbca1eb86	-0.019765627
51	0xbd6b66f7	-0.05747124
52	0x3d09327a	0.033495404
53	0x3cb83da3	0.022490328
54	0x3ceec130	0.029144853
55	0x3d9b6cbf	0.07589101
56	0xbcf3f0ee	-0.02977797
57	0x3dbdeae9	0.09273321
58	0x3d365ec6	0.044523977
59	0xbd9b166f	-0.07572638
60	0xbd3dee51	-0.046369854
61	0xbd1a4eeb	-0.03767292
62	0x3d1c68c1	0.03818584
63	0x3d63f0d3	0.05564959
64	0xbd4995b3	-0.04921503
65	0xbd2bbb78	-0.04192683
66	0xbdaa5548	-0.08317047
67	0xbd9683d9	-0.07349367
68	0xbd1d21ac	-0.03836219
69	0x3abb3639	0.0014283127
70	0xbdaa06d6	-0.08302085
71	0x3d37ea4f	0.04490119
72	0x3d518250	0.051149666
73	0xba3049cc	-0.0006724864
74	0x3dc8fdd2	0.098140374
75	0x3d870245	0.0659223
76	0x3b8a114c	0.0042134877
77	0x3bc73907	0.0060797962
78	0x3c487493	0.012234825
79	0xbda4610e	-0.08026324
80	0xbd3ee6fd	-0.046607006
81	0xbd8ab070	-0.06771934
82	0xbd9c2f25	-0.076261796
83	0xbbba552a	-0.005686422
84	0x3c00a16d	0.007850987
85	0xbcec9675	-0.028880337
86	0x3d54663d	0.051855315
87	0x3d275115	0.04084881
88	0x3a4bb8f5	0.0007771396
89	0xbd947ac8	-0.07249981
90	0xbd88355c	-0.066508025
91	0xbd92d204	-0.071689636
92	0xbb851803	-0.0040617003
93	0x3cfb58c2	0.030681971
94	0x3d7fe542	0.062474497
95	0x3d457db3	0.04821558
96	0x3cad1213	0.021126783
97	0x3d754f95	0.05989035
98	0xbd8e5dc6	-0.069514796
99	0x3cab59c9	0.020916836
100	0xbca64581	-0.020296814
101	0xbbcec987	-0.006310645
102	0x3d9a10fc	0.07522771
103	0x3cdc2fa9	0.026878195
104	0xbd2785d3	-0.04089911
105	0xbc87c7ad	-0.016574705
106	0xbce18ad3	-0.027532017
107	0xbd4b1f31	-0.049590293
108	0xbd831ee3	-0.064023755
109	0xbd7ae800	-0.06125641
110	0x3d99bc94	0.075066715
111	0x3d7e4aa6	0.06208291
112	0xbcf2a61e	-0.029620226
113	0xbd16a932	-0.03678245
114	0xbda64cdc	-0.081201285
115	0xbd29189d	-0.04128324
116	0x3d238902	0.039925583
117	0xbd2105cf	-0.03931218
118	0x3cec3c4a	0.028837342
119	0xbcdfa5e4	-0.027300783
120	0xbdb106c2	-0.08643867
121	0x3d0a4d0b	0.03376488
122	0x3d0e6a10	0.034769118
123	0x3cd88f29	0.026435452
124	0xbd7c758d	-0.061635543
125	0xbc9fa289	-0.019486682
126	0x3daa83fe	0.08325957
127	0x3c3509d1	0.011049704

weight f4 [128, 128]
0	0xbc137d34	-0.009002019
1	0x3d16dc57	0.036831226
2	0x3da9fa7f	0.082997315
3	0x3dafc467	0.08582383
4	0x3cb8304a	0.022483964
5	0x3db25fb4	0.0870966
6	0xbd03cdf4	-0.032178834
7	0x3d02a723	0.031897675
8	0x3d660434	0.056156352
9	0xbda837e8	-0.08213788
10	0xbda70e2c	-0.08157
11	0xbd48a8a9	-0.04898897
12	0xbda48aad	-0.08034263
13	0x3cced967	0.02525015
14	0x3c101100	0.008793116
15	0xbca824b6	-0.020525318
16	0xbd0cbf8c	-0.03436236
17	0xbdbf7ad4	-0.093495995
18	0xbd248d8b	-0.04017405
19	0x3dac5f9a	0.08416672
20	0xbccee751	-0.025256785
21	0xbb547ae6	-0.0032421886
22	0xbd138da3	-0.036023747
23	0xbd3e7873	-0.046501588
24	0x3d96b471	0.07358635
25	0xbc33261d	-0.01093438
26	0xb9e55c0d	-0.00043746867
27	0x3d799c50	0.060940087
28	0xbc04fe1f	-0.008117228
29	0x3d1ecf7f	0.038772102
30	0xbd312acb	-0.0432537
31	0x3d5e70f6	0.054306947
32	0xbba477f0	-0.0050191805
33	0x3d5b69a4	0.053567544
34	0xbda4f7a2	-0.08055045
35	0x3cadd428	0.021219328
36	0x3cb35e0f	0.021895437
37	0xbd69702d	-0.056991745
38	0x3d990b9d	0.07472918
39	0xbd406205	-0.04696848
40	0xbd0e7231	-0.03477687
41	0x3d5d12c7	0.053972986
42	0xbd38348c	-0.044971988
43	0x3d2413f1	0.04005808
44	0x3d6a011d	0.057129968
45	0xbc2ae690	-0.010430947
46	0x3cbeb271	0.023278447
47	0xbd6c782e	-0.0577318
48	0xbd44ca80	-0.04804468
49	0xbc221545	-0.009892766
50	0x3d9760c6	0.07391505
51	0x3d857f3f	0.06518411
52	0x3db05dd0	0.08611643
53	0xbcd3f9bd	-0.02587592
54	0xbd8b51d5	-0.068027176
55	0x3d5beb86	0.05369141
56	0x3d6b5d3a	0.057461955
57	0x3dc19067	0.09451371
58	0x3da12f96	0.078704044
59	0xbd402b6b	-0.046916407
60	0x3d96b51b	0.07358762
61	0x3d9a0314	0.07520118
62	0xbbca87f9	-0.00618076
63	0xbd2ed57b	-0.04268406
64	0xbd8ba832	-0.0681919
65	0xbd25fbda	-0.040523387
66	0x3d7b1fd6	0.061309658
67	0x3c366dfa	0.011134619
68	0xbcac4569	-0.021029191
69	0xbc566b45	-0.0130870985
70	0x3d8bb3f6	0.06821434
71	0x3ca149e4	0.019688554
72	0xbd3e9392	-0.046527453
73	0x3d2874bd	0.041126955
74	0xbd814a62	-0.063130155
75	0x3d85cae7	0.06532841
76	0xbd9476ae	-0.07249199
77	0x3cc0cac6	0.02353419
78	0x3d852909	0.065019675
79	0x3d63443d	0.055485
80	0xbbbf184c	-0.005831754
81	0x3d373303	0.044726383
82	0xbc9fb922	-0.019497458
83	0x3da76525	0.08173589
84	0xbcae541d	-0.021280343
85	0xbd9d07c5	-0.076674975
86	0xbcc245b4	-0.023714878
87	0x3d129645	0.03578784
88	0xbb0230d7	-0.0019865537
89	0xbd63ac3a	-0.05558417
90	0xbcbc7d01	-0.023008825
91	0x3cf29001	0.029609682
92	0x3cc7f515	0.024408856
93	0x3dadac32	0.08480109
94	0xbce01a77	-0.02735637
95	0x3ca06498	0.019579217
96	0xbd275283	-0.040850174
97	0xbda92094	-0.08258167
98	0xbad7a621	-0.0016452709
99	0xbbd58ea8	-0.00651725
100	0x3d90d9bf	0.07072782
101	0xbd9ccc74	-0.07656184
102	0xbd79e223	-0.061006676
103	0xbd238463	-0.039921176
104	0xbb80e020	-0.003932968
105	0x3d75df8f	0.060027655
106	0x3d776da8	0.06040731
107	0xbc178255	-0.009247382
108	0x3d1e1410	0.03859335
109	0x3d68b43f	0.05681252
110	0xbcd7feb7	-0.026366575
111	0xbcbf1e5e	-0.02332991
112	0x3ca0468b	0.019564888
113	0xbd702c24	-0.058635846
114	0x3d96030d	0.07324801
115	0x3cdce0ab	0.026962599
116	0xbc2ea883	-0.0106602935
117	0xbcd7a648	-0.026324406
118	0x3bd02272	0.0063517625
119	0x3ca4cc75	0.020117024
120	0xbd9658dc	-0.07341167
121	0xbd80b38d	-0.062842466
122	0xb8353642	-4.3204294e-05
123	0xbd3f3dfb	-0.04668997
124	0xbd6a3805	-0.05718233
125	0x3c976d13	0.018484628
126	0x3d58ecf6	0.05296036
127	0xbd944383	-0.07239439
128	0x3bf516cb	0.007479524
129	0x3d2f2962	0.042764075
130	0x3d851d10	0.06499684
131	0x3ccab572	0.024744723
132	0x3bac9306	0.00526655
133	0xbd2e7435	-0.042591292
134	0x3d803a17	0.0626108
135	0xbd5a6095	-0.053314764
136	0x3be27fae	0.0069121933
137	0xbd1441f2	-0.036195703
138	0x3c853514	0.016260661
139	0xbd9f9479	-0.07791991
140	0x3c0a62d4	0.008446414
141	0xbcf02b4d	-0.029317522
142	0x3d426eca	0.047468938
143	0x3c8fb3c4	0.017541774
144	0x3d05147d	0.032490242
145	0xbb9fca0d	-0.0048763813
146	0xbdac1234	-0.084019095
147	0xbd65c444	-0.056095377
148	0x3d359c3f	0.04433846
149	0x3de95632	0.113933936
150	0xbd4bdf23	-0.049773347
151	0xbc99741e	-0.018732127
152	0x3d3c6ee3	0.046004187
153	0x3da16474	0.07880488
154	0xbd23cedc	-0.0399922
155	0xbcd7ba02	-0.026333813
156	0xbdb0a6f0	-0.08625591
157	0x3c4ee493	0.0126277385
158	0xbd0c333e	-0.034228556
159	0xbc5df418	-0.013546966
160	0x3da35596	0.079753086
161	0xbc8c72ea	-0.017144639
162	0xbcd90c64	-0.026495166
163	0xbd842552	-0.06452431
164	0x3ddc7e66	0.10766296
165	0x3a202e67	0.000611043
166	0x3d6bc2f6	0.057558976
167	0xbc933a0e	-0.017972019
168	0xbb7a9cf7	-0.003824053
169	0x3cabc6f9	0.020968901
170	0x3d578a8b	0.05262236
171	0x3d1d2e46	0.038374208
172	0xbd4a46d0	-0.04938394
173	0xbc113db5	-0.00886481
174	0xbbcb017a	-0.0061952444
175	0x3d971da0	0.073786974
176	0xbd151e0a	-0.0364056
177	0xbc939d16	-0.01801924
178	0xbcf46efe	-0.029838081
179	0x3dec37fb	0.11534115
180	0x3ce7e15a	0.028305698
181	0x3da28e5d	0.0793731
182	0xbd40d3d3	-0.04707701
183	0x3d2f40cb	0.0427864
184	0xbc4584dc	-0.012055602
185	0xbd77f904	-0.060540214
186	0x3d6ba8c0	0.05753398
187	0xbd68e60b	-0.05686001
188	0x3c812c14	0.015768088
189	0xbd3545ff	-0.044256207
190	0xbbb0c258	-0.0053942613
191	0xbd3ca857	-0.04605898
192	0xbc1d70a9	-0.00960938
193	0x3d8f46c3	0.069959186
194	0x3821e3dd	3.8597605e-05
195	0x3c83ef62	0.016105358
196	0xbd9da358	-0.07697171
197	0xbd85c266	-0.06531219
198	0x3c590767	0.013246394
199	0x3da93394	0.08261791
200	0xbd5ea2c8	-0.05435446
201	0x3dc6c286	0.09705071
202	0x3cc13aee	0.02358767
203	0x3d81e45f	0.063423865
204	0x3da7c8f5	0.081926264
205	0xbd72ffb5	-0.059325892
206	0x3d0188b1	0.0316245
207	0x3dbb3439	0.0914082
208	0xbd51274a	-0.05106286
209	0xbced63ba	-0.028978217
210	0xbcf7dbb9	-0.03025614
211	0xbd9dab0e	-0.07698642
212	0x3c3e5279	0.011616343
213	0xbb17f9d9	-0.0023189692
214	0x3d5ca465	0.053867716
215	0xbd305a4b	-0.04305486
216	0xbd88ebbf	-0.0668559
217	0xbda7ba23	-0.081898
218	0xbbd48470	-0.0064855143
219	0xbca40710	-0.020022899
220	0x3c8f3099	0.017479228
221	0xbd8a9ed2	-0.06768574
222	0xbd0d4167	-0.0344862
223	0x3d30a281	0.043123726
224	0x3b8bf1d5	0.004270772
225	0x3d64bd46	0.055844568
226	0x3c545ace	0.012961103
227	0xbd7d9579	-0.061910126
228	0x3daa9a70	0.08330238
229	0xbd10b97f	-0.035333153
230	0x3d57c8ec	0.05268185
231	0x3d8286e7	0.06373387
232	0x3d872abc	0.06599948
233	0x3d4bc725	0.049750466
234	0x3ca6c75f	0.02035874
235	0xbd6e57b5	-0.058189113
236	0xbcc66219	-0.024216698
237	0xbd9b09d5	-0.07570235
238	0x3d242aaa	0.04007975
239	0x3d3f5b87	0.046718147
240	0x3cec986c	0.028881274
241	0x3cb267c0	0.021777987
242	0xbd166783	-0.03671981
243	0x3da863fa	0.08222194
244	0x3c892e5e	0.016745742
245	0x3cafd0e4	0.021461911
246	0xbc9c20c6	-0.019058596
247	0xbd80a7b6	-0.06281988
248	0xbd939416	-0.072059795
249	0x3da48fb2	0.0803522
250	0xbbf57cd3	-0.007491687
251	0x3cfdc215	0.030976335
252	0xbd4aa7a3	-0.049476277
253	0xba2441f8	-0.00062659336
254	0x3c9d1484	0.019174822
255	0xbd0f0010	-0.03491217

bias f4 [128]
0	0xbc81fc46	-0.015867364
1	0x3b685800	0.0035452843
2	0x3ce0f516	0.027460616
3	0x3d1bc0a0	0.0380255
4	0x3bd93b02	0.0066293487
5	0xbc99122a	-0.01868542
6	0xbd9453c7	-0.07242542
7	0x3b627090	0.0034551956
8	0x3cd6cc22	0.026220385
9	0xbbb1b130	-0.0054227337
10	0x3da20824	0.07911709
11	0xbd6663ba	-0.05624745
12	0xbd396ef9	-0.045271847
13	0x3d14bacf	0.036310967
14	0xbbd26484	-0.006420674
15	0x3da2d55e	0.07950853
16	0x3dc0cdf5	0.09414283
17	0x3d0db114	0.034592703
18	0x3db1e136	0.08685534
19	0xbbef7db7	-0.0073086875
20	0x3d65809f	0.056030866
21	0xbd80fdf2	-0.06298436
22	0x3be6ef96	0.007047604
23	0xbce15cb4	-0.027510025
24	0x3daea1d6	0.085269615
25	0xbca4c46a	-0.020113189
26	0x3d98f9e8	0.07469541
27	0x3c32394f	0.010877921
28	0x3cf6d7e6	0.030132245
29	0x3c4eba68	0.012617685
30	0xbd65e372	-0.056125112
31	0x3d52293a	0.051308848
32	0xbbf3ea88	-0.00744373
33	0x3ac0432d	0.0014668457
34	0xbbc3a908	-0.005971078
35	0xbd2b1674	-0.04176946
36	0x3d6b4c7c	0.057445988
37	0xbd48c8dc	-0.04901968
38	0xbd282374	-0.041049436
39	0xbd161e08	-0.036649734
40	0x3d7119cb	0.05886249
41	0xbd9d900d	-0.07693491
42	0xbd12bcbd	-0.035824526
43	0x3c75c9be	0.015001712
44	0xbb601dfa	-0.0034197555
45	0x3c52e5bd	0.012872157
46	0x3bd80942	0.0065929005
47	0x3d279dc0	0.040921926
48	0xbc74f02c	-0.01494984
49	0x3d85c6c5	0.06532053
50	0xbd35d2aa	-0.044390358
51	0xbd70b93a	-0.058770396
52	0x3c0b68f6	0.008508911
53	0x3d90e842	0.0707555
54	0xbcf2f2c8	-0.029656783
55	0x3d37d8f3	0.044884633
56	0x3d9c9c31	0.07646979
57	0xbd1d7ee8	-0.038451105
58	0xbd50c188	-0.050965816
59	0x3c392582	0.011300446
60	0x3cfdab14	0.030965365
61	0xbdaceac3	-0.08443215
62	0xbc28d096	-0.010303637
63	0xbcbe2b55	-0.023214022
64	0x3c1e7654	0.009671766
65	0x3d7bf34b	0.06151132
66	0x3dac2f8a	0.08407505
67	0xba8f4c74	-0.0010932819
68	0xbcd7ffd2	-0.026367102
69	0x3d971200	0.0737648
70	0x3d4d4678	0.050116032
71	0x3d2d5abf	0.04232287
72	0x3d93b011	0.072113164
73	0x3da66937	0.08125537
74	0xbcf57cb9	-0.029966699
75	0xbd421ded	-0.04739182
76	0xbae8e3aa	-0.0017768044
77	0x3d49d3d8	0.049274296
78	0xbae2f906	-0.0017316646
79	0xbd901c14	-0.070366055
80	0xbd218db1	-0.039441768
81	0xbd0daaa6	-0.03458657
82	0xbd1f8f62	-0.0389551
83	0xbd3f92da	-0.046770908
84	0xbbc7aa00	-0.0060932636
85	0x3d425af4	0.04745002
86	0x3d2c5bbd	0.042079676
87	0x3daaee2f	0.08346211
88	0xbd25e978	-0.040505856
89	0xbc16c203	-0.009201529
90	0x3d705d3e	0.058682673
91	0xbd66d460	-0.05635488
92	0xbd7211db	-0.05909906
93	0x3d0ff556	0.03514608
94	0xbca8a64a	-0.020587105
95	0xbdac45d5	-0.08411757
96	0xbd866f0e	-0.06564151
97	0x3d226241	0.039644483
98	0x3c8d8bd7	0.017278595
99	0xbbfa8321	-0.0076450263
100	0xbd54d167	-0.051957514
101	0x3d528779	0.051398728
102	0x3c9d1b0e	0.01917794
103	0x3ce03eb7	0.027373655
104	0x3d034642	0.032049425
105	0xbd490ee1	-0.049086455
106	0xbb9f7d0a	-0.0048672007
107	0x3d178e17	0.03700074
108	0xbd14a69a	-0.036291696
109	0x3d95652b	0.07294687
110	0x3db0565e	0.08610223
111	0x3c04ee11	0.0081134
112	0x3d964611	0.07337583
113	0xbc66326e	-0.014050109
114	0x3d14fbdb	0.036373
115	0xbd4a20fe	-0.04934787
116	0x3b15328e	0.0022765729
117	0xbd1ac3f5	-0.037784535
118	0x3d57e8d2	0.05271227
119	0xbd346910	-0.044045508
120	0xbbc61bb6	-0.006045784
121	0x3cfcb95b	0.030850103
122	0xbabcb274	-0.0014396445
123	0x3da0b8e2	0.078477636
124	0xbd4b142c	-0.049579784
125	0xbd69903a	-0.05702231
126	0x3c855f04	0.016280659
127	0x3bda4753	0.0066613345
