models/agModels-predicttop10_votes/models/NeuralNetTorch_BAG_L1/S6F3/net.params (torch, 248949 bytes, 16 tensors)

weight f4 [6, 4]
0	0xbf90b50b	-1.130525
1	0xbf912414	-1.1339135
2	0xbe87b64b	-0.26506266
3	0xbed6aab5	-0.41927114
4	0x3f60052e	0.87507904
5	0x3f23f93f	0.64052194
6	0xbeacae7c	-0.3372687
7	0xc00afb63	-2.1715934
8	0x3ee76506	0.45194262
9	0xbe306069	-0.17224278
10	0x3fbe6624	1.4874921
11	0x3e9bf9d0	0.3046403
12	0x3e173d54	0.14769489
13	0x3f66a25f	0.9009151
14	0xbe14a10d	-0.14514561
15	0xbdc715a3	-0.09720924
16	0x3f7c2c5d	0.98505193
17	0x3f9d4b85	1.2288672
18	0x400336c3	2.0502174
19	0x3d5d1460	0.05397451
20	0x3eed20d5	0.4631411
21	0xbe877b6b	-0.26461348
22	0xbf2ebfa6	-0.6826118
23	0xc009b182	-2.1514592

weight f4 [6, 4]
0	0xbe43e1b0	-0.19129062
1	0xbf3b7aa0	-0.73233986
2	0x3f0eca93	0.55777854
3	0x3e814db5	0.25254598
4	0xbe135169	-0.14386524
5	0xbf2e9c49	-0.6820722
6	0x3f7893f8	0.9710078
7	0x3eeb709d	0.45984355
8	0xbf0e6b31	-0.5563231
9	0x3f6c846a	0.9238955
10	0x3f940910	1.1565266
11	0x3faa1600	1.3287964
12	0xbfbd7a08	-1.4802866
13	0x4024f8a3	2.5776756
14	0xbf016dd3	-0.50558203
15	0x3ea53767	0.3226883
16	0xbfd8ac4f	-1.6927584
17	0xbf166590	-0.5874872
18	0xbefb056a	-0.49027568
19	0xbee98166	-0.45606536
20	0xbf680e8d	-0.906472
21	0x3f744020	0.95410347
22	0xbcfe09f5	-0.031010607
23	0x3f25d182	0.6477281

weight f4 [6, 4]
0	0xbdda6aa2	-0.1066487
1	0x3f2b4442	0.6690103
2	0xbf5b72bb	-0.8572194
3	0xba93c619	-0.0011274248
4	0x3f58eb84	0.8473437
5	0xbeb37599	-0.35050657
6	0x3f88e364	1.0694394
7	0x3eccd961	0.40009597
8	0x3d98d397	0.074622326
9	0x3f8db136	1.1069705
10	0x3e944894	0.28961623
11	0x3eebf861	0.46087936
12	0xbf5112ab	-0.8166911
13	0xbfa6f51e	-1.3043554
14	0xbf43597c	-0.7630842
15	0xbfab70b4	-1.3393769
16	0x3e69aa7d	0.22818942
17	0xbeac9f36	-0.33715218
18	0xbee38566	-0.44437712
19	0x3e722103	0.23645405
20	0x3f2393d7	0.6389746
21	0xbd7ce47e	-0.061741345
22	0xbe65b23f	-0.22431277
23	0xbf864173	-1.0488724

weight f4 [6, 4]
0	0xbf32ac05	-0.6979373
1	0x3f85cb94	1.0452752
2	0xbf1ad6ec	-0.60484195
3	0xbfa37be6	-1.2772186
4	0x3d88d167	0.06680565
5	0xbf2c168b	-0.672219
6	0x3f27aa5d	0.6549433
7	0xbf3f2793	-0.7466976
8	0xbe87402b	-0.26416144
9	0x3dc607fd	0.096694924
10	0x3e7f3abe	0.24924752
11	0x3f987f11	1.1913778
12	0x3e9f1b47	0.31075498
13	0x3eca8155	0.39551798
14	0xbe5a4655	-0.21315892
15	0xbde97f3e	-0.11401223
16	0x3e1e05bb	0.15431874
17	0xbf4e043a	-0.804752
18	0xbff780b1	-1.9336149
19	0x3e27837d	0.16358753
20	0xbf0c38a5	-0.5477393
21	0x3e310f8e	0.1729109
22	0x3d2b8df5	0.041883428
23	0x3e745ace	0.23862764

weight f4 [6, 4]
0	0x3f7387e7	0.95129246
1	0xbf7f57cb	-0.99743336
2	0x3e9911fa	0.29896528
3	0xbdee8234	-0.11645928
4	0x3f7fe26e	0.9995488
5	0xbeff775e	-0.49895757
6	0x3f4b97ba	0.7952839
7	0x3f1e2b5f	0.6178493
8	0x3f78fbe1	0.97259337
9	0xbfc3824f	-1.5274142
10	0x3f1806cd	0.5938538
11	0x3e299cfc	0.16563791
12	0x3dd57206	0.10422139
13	0xbf521093	-0.8205654
14	0x3f1dae62	0.6159421
15	0xbff5e6b6	-1.9211032
16	0x3fb2cd01	1.3968812
17	0xbda6bd3c	-0.08141562
18	0x3f3f352a	0.74690497
19	0x3f83d609	1.0299693
20	0x3e886998	0.26643062
21	0xbfac50f7	-1.3462209
22	0x3fef9b62	1.8719294
23	0x3cd1b92a	0.025600988

weight f4 [26, 9]
0	0xbf0e2cb7	-0.5553698
1	0xbfd4cbd9	-1.6624709
2	0xbf0c404e	-0.5478562
3	0xbf018865	-0.50598747
4	0xbf25f2f8	-0.64823866
5	0xbfbde9f2	-1.483702
6	0xbf57d9c8	-0.8431668
7	0xc003a404	-2.0568857
8	0xbf8cacc8	-1.0990229
9	0xbf295834	-0.6615021
10	0xbc7ec8dd	-0.015550819
11	0x3eacbcfe	0.3373794
12	0xbe538051	-0.20654418
13	0x3fa32581	1.274582
14	0x3cf03d6b	0.029326161
15	0xbf6b63b1	-0.9194899
16	0x3ee31042	0.4434834
17	0xbd3a45e3	-0.045476805
18	0x3fa97738	1.3239508
19	0xbe9177e9	-0.28411797
20	0xbf0ce7bf	-0.55041116
21	0xc039ae2c	-2.9012556
22	0xbfc2e7dc	-1.5227008
23	0x3f866cad	1.0501915
24	0x3e4bda35	0.19907458
25	0xbf3608bf	-0.71107095
26	0x3fd8ff17	1.6952847
27	0x3eb1d833	0.3473526
28	0x3f819b56	1.012553
29	0x3fb60db2	1.422293
30	0xbdc2ea72	-0.09517373
31	0xbf1eac37	-0.6198153
32	0xbf2f0024	-0.6835959
33	0x3fe4d82d	1.7878472
34	0xbf6d8bd7	-0.92791504
35	0xbf2a8bc7	-0.66619533
36	0x3d876135	0.06610338
37	0x3f1593bd	0.58428556
38	0x3f0038ef	0.50086874
39	0x3f9c3a41	1.2205278
40	0xbf8782de	-1.0586812
41	0xbfdf0061	-1.7421991
42	0x3fc44ee5	1.5336577
43	0xbcf7794f	-0.030209212
44	0xbfcfed3f	-1.6244277
45	0x3ca54f03	0.020179277
46	0xbf1d3b06	-0.6141819
47	0x3f32fd76	0.69918
48	0x3f8ff78b	1.1247419
49	0xbdd87180	-0.105685234
50	0xbc8212b2	-0.015878055
51	0x3f276b24	0.6539786
52	0x3f1037c9	0.5633512
53	0x3e4a76f4	0.1977194
54	0x3cf75507	0.030191911
55	0x3f110757	0.56651825
56	0x3dc708e9	0.09718496
57	0xbf74f316	-0.9568342
58	0x3f30ef21	0.6911488
59	0x3f8c190b	1.0945143
60	0x40068876	2.102079
61	0xbf6b7d8d	-0.9198845
62	0xbf242b2f	-0.6412839
63	0xbf1d7301	-0.6150361
64	0x3fc7d21b	1.5610994
65	0xbf42a33d	-0.7603033
66	0x3e01a33b	0.12659924
67	0x3fa841bd	1.3145062
68	0x4002c017	2.0429742
69	0x3f2d9616	0.6780714
70	0xbf3079bd	-0.6893576
71	0xbef84d49	-0.48496464
72	0x3e76ec67	0.24113618
73	0xbf11bb90	-0.5692682
74	0x3f6f5a76	0.9349741
75	0x3eec245d	0.46121493
76	0xbf4eb7d7	-0.8074927
77	0x3fa9a667	1.3253907
78	0x3ea21ad1	0.31661084
79	0xbf11b4f0	-0.56916714
80	0xbf67fc5c	-0.90619445
81	0xbf1eee7a	-0.62082636
82	0x3e3d1918	0.18466604
83	0xbf898eba	-1.0746682
84	0xbf3dec6e	-0.7418889
85	0xc00eb822	-2.2299886
86	0xbf30c53c	-0.69050956
87	0x3f0a4f01	0.540268
88	0x3f441fdd	0.7661112
89	0x3dade364	0.08490637
90	0x3ee4c3f2	0.44680744
91	0xbfe8ab46	-1.8177269
92	0xbf92139d	-1.1412235
93	0x3df694f4	0.12040129
94	0x3f0f9cc9	0.5609861
95	0x3fac4436	1.3458316
96	0xbfc9394b	-1.572061
97	0x3ec8fb33	0.3925415
98	0xbfb172b2	-1.3863127
99	0xbe1b54b3	-0.15169029
100	0xbe904b8c	-0.28182638
101	0xbf974624	-1.181828
102	0x3f30842c	0.6895168
103	0xbfa01da3	-1.2509044
104	0xbf8ef425	-1.1168257
105	0x3ebbad53	0.36655673
106	0xbf4471be	-0.76736057
107	0xbf63f7f7	-0.8905024
108	0xbf3abde3	-0.72945994
109	0x3f0f3d91	0.5595332
110	0x3eb5e189	0.35523632
111	0x3f18a948	0.596333
112	0xbfb59467	-1.4185914
113	0xbf567857	-0.83777374
114	0x3f9de88c	1.2336593
115	0xbfe6814f	-1.8008212
116	0x3ed124b4	0.40848315
117	0x3f90ec28	1.1322069
118	0x3ef1bdb0	0.47215033
119	0xbf95642e	-1.1671197
120	0xbed29bbc	-0.4113444
121	0xbe94b8b1	-0.29047158
122	0x3f74262a	0.95370734
123	0xbee46cc3	-0.4461423
124	0xbf191e70	-0.5981207
125	0xbec550cb	-0.38538203
126	0xbfb67a19	-1.4256011
127	0xbf12aa97	-0.5729155
128	0x3f9d551a	1.2291596
129	0x3f56d8fa	0.8392483
130	0x3ec219e9	0.37910393
131	0x3e8f1731	0.2794738
132	0xc0313e16	-2.7694144
133	0xbf4cafc0	-0.79955673
134	0x3eee17b2	0.46502453
135	0x3ea3dfea	0.3200677
136	0xbf933d77	-1.1503133
137	0xbbca6a7b	-0.0061772442
138	0xbe206402	-0.1566315
139	0xbe5b04f3	-0.21388607
140	0x401a80ef	2.4141195
141	0x3fd267eb	1.6437963
142	0xbe961aa4	-0.293172
143	0xbfc582bc	-1.5430522
144	0xbf0ee6a3	-0.55820674
145	0xbf4ee3de	-0.8081645
146	0xbfb6fe99	-1.4296447
147	0xbed88809	-0.42291287
148	0xbea01185	-0.31263366
149	0xbdab2bc4	-0.08357957
150	0x3f05e9cb	0.52309865
151	0xbfcf64c4	-1.6202626
152	0x3eb7cb7e	0.3589744
153	0xc0118ed6	-2.274343
154	0xbf63d6b5	-0.8899949
155	0xbfd7499f	-1.6819342
156	0x3f0ac7b5	0.5421098
157	0xbfbdf8bc	-1.4841533
158	0x3f3d77ba	0.74010813
159	0xbfb59f2c	-1.41892
160	0x3eba5a78	0.36397147
161	0xbde73500	-0.11289406
162	0x3e4c1011	0.19928004
163	0x3f9bf2f4	1.2183518
164	0x3f9fc28e	1.2481248
165	0xbdf0eb65	-0.11763648
166	0x400a9f57	2.1659753
167	0x3d8c62c1	0.06854773
168	0x3ef31d5c	0.47483337
169	0x3d971aec	0.07378182
170	0x3ed88737	0.4229066
171	0xbfe01845	-1.7507406
172	0x3f9c814b	1.2226957
173	0x40275f4e	2.615192
174	0x3e5aece3	0.21379428
175	0x3e9dab95	0.3079497
176	0xbf945af2	-1.1590254
177	0x400efa31	2.2340205
178	0x3dd221da	0.10260363
179	0x3f48abf5	0.78387386
180	0xbf8ba42f	-1.090948
181	0xbd9b2482	-0.07575323
182	0xbfbcecb3	-1.4759735
183	0xbfe0dbda	-1.7567093
184	0xbff28db7	-1.8949498
185	0x3c059f77	0.008155695
186	0xbfff8c7d	-1.9964749
187	0xbffba979	-1.9661094
188	0x40089d15	2.1345875
189	0xbf784d11	-0.96992594
190	0xbf209cff	-0.6273956
191	0x3fd7dbfe	1.6864011
192	0x3ec2fea8	0.38084912
193	0xbf41dd0d	-0.7572792
194	0x3b774478	0.003773002
195	0x3fe3c797	1.7795285
196	0xbf230155	-0.6367391
197	0x3f4e3d3f	0.80562204
198	0x3f4193ed	0.7561634
199	0x3fb912dd	1.4458882
200	0xbf1264b6	-0.5718492
201	0xbda1ee9d	-0.0790684
202	0x3ef389e4	0.4756614
203	0xbee23d18	-0.44187236
204	0xbff9df0e	-1.9521196
205	0x3f2e658e	0.6812371
206	0xbdb29a65	-0.08720855
207	0xbfbcf511	-1.4762288
208	0xbefc2a26	-0.49250907
209	0xbfc1ec2b	-1.5150198
210	0xbf3a8934	-0.72865605
211	0x3f822be6	1.0169647
212	0xc0139b3c	-2.3063498
213	0x3ee5a023	0.44848737
214	0xbf064894	-0.52454495
215	0xbd87171e	-0.06596206
216	0x3f2bf00d	0.67163163
217	0x3f7c25b6	0.9849504
218	0xbefb2c7c	-0.49057376
219	0x3ee6703e	0.4500751
220	0x3fac8470	1.3477917
221	0x3ee5dafc	0.44893634
222	0xbf018963	-0.5060026
223	0xbe5df488	-0.21675313
224	0xbe22b50a	-0.15889373
225	0x3d359631	0.044332687
226	0x3e5b69ba	0.2142705
227	0xbf18aec7	-0.5964169
228	0x3dc7d4ac	0.09757361
229	0xbdf3b84e	-0.11900388
230	0x3fb561ac	1.4170432
231	0xbde1e0d5	-0.110292114
232	0xb687031e	-4.0236764e-06
233	0x39c66fc5	0.00037848778

weight f4 [128, 76]
0	0x3e27cd8f	0.16387008
1	0x3de2a06b	0.110657535
2	0x3dc90707	0.098157935
3	0x3d1c3b81	0.038142685
4	0xbdd21161	-0.10257221
5	0x3df815b8	0.121135175
6	0x3d1e20bf	0.038605448
7	0x3d736810	0.059425414
8	0xbdacdffe	-0.084411606
9	0xbcf558c5	-0.029949555
10	0xbe02bcc9	-0.12767328
11	0xbd0935da	-0.033498622
12	0x3ae01dff	0.0017098783
13	0xbdd99f95	-0.10626141
14	0x3d0b686c	0.03403513
15	0x3d5d0b25	0.053965706
16	0x3d013caa	0.031551994
17	0xbd8612e1	-0.065465696
18	0xbdabca14	-0.08388153
19	0xbd121a5f	-0.03566968
20	0x3d5c9bb8	0.053859442
21	0x3df513aa	0.11966641
22	0x3d987154	0.074434906
23	0xbc600161	-0.013672204
24	0x3d253416	0.040332876
25	0xbde52d3d	-0.11190269
26	0xbdc5d676	-0.09660046
27	0x3d7979f7	0.06090733
28	0xbd7a4b53	-0.06110699
29	0x3d6f22a4	0.058382645
30	0xbda602c4	-0.08105996
31	0xbd5fa21a	-0.05459795
32	0xbdc034f3	-0.09385099
33	0x3d747298	0.059679598
34	0xbbcf36e4	-0.006323682
35	0x3db4b90b	0.08824357
36	0x3d9264c6	0.07148127
37	0x3d8c8a65	0.06862334
38	0x3c1075d0	0.008817151
39	0xbd613ebf	-0.05499148
40	0xbcf08764	-0.029361434
41	0x3c3d4be9	0.011553743
42	0x3d8fa949	0.070147105
43	0xbd882e7c	-0.06649491
44	0x3dedde58	0.11614674
45	0xbd495588	-0.049153835
46	0xbe207791	-0.15670611
47	0xbd724b95	-0.059154112
48	0x3de4102d	0.11135898
49	0x3dec6cd7	0.11544197
50	0xbdbd8e7b	-0.092556916
51	0x3d6ead97	0.058271017
52	0x3d8d78ef	0.06907832
53	0x3cd7e50f	0.02635434
54	0x3d942202	0.07233049
55	0xbd5f6b63	-0.05454577
56	0x3cf9405d	0.030426199
57	0x3d692200	0.05691719
58	0xbd037e91	-0.032103125
59	0x3d5c70e6	0.053818606
60	0xbc2887c9	-0.01028628
61	0x3c9f0baa	0.019414742
62	0x3bbb7005	0.005720141
63	0xbd3eba69	-0.046564493
64	0x3d10ba1f	0.03533375
65	0x3d2791f6	0.040910684
66	0xbd80d38e	-0.06290351
67	0x3b5385c6	0.003227578
68	0x3da36e42	0.079800144
69	0xbd4c9272	-0.04994435
70	0x3cf52a42	0.029927377
71	0xbc60f216	-0.013729593
72	0x3bc4fe0f	0.0060117315
73	0xbd9c107f	-0.07620334
74	0xbd8ca018	-0.06866473
75	0xbdc66a4e	-0.09688245
76	0x3d2fb6cc	0.042898938
77	0xbd77cea7	-0.060499813
78	0xbbcb4ca0	-0.006204203
79	0xbd837d50	-0.06420386
80	0x3dda1016	0.106475994
81	0x3df597e0	0.119918585
82	0xbd9d72a0	-0.076878786
83	0xbdbd100a	-0.09231575
84	0xbda38cf8	-0.07985872
85	0x3d33a73e	0.043860666
86	0xbd8ed872	-0.069748774
87	0xbd92c3b0	-0.07166231
88	0xbc0b7c60	-0.00851354
89	0x3ca85316	0.020547431
90	0xbd3e66a6	-0.046484612
91	0x3d3b04ec	0.04565899
92	0xbd25eb8f	-0.04050785
93	0xbd462f77	-0.04838511
94	0x3cbcc3c0	0.02304256
95	0x3dc409fd	0.095722176
96	0xbd8e9a8d	-0.06963072
97	0x3c358b44	0.011080567
98	0xbd463296	-0.048388086
99	0x3e0266d7	0.12734543
100	0xbdcc7afd	-0.09984396
101	0xbdd560a0	-0.104188204
102	0x3df11e62	0.11773373
103	0xbd801edb	-0.06255885
104	0x3cd7533a	0.026284803
105	0xbb665b2d	-0.003514956
106	0xbc69dc88	-0.01427377
107	0xbc8b2ece	-0.016990092
108	0x3da11a04	0.0786629
109	0x3c0879d8	0.008329831
110	0xbdda1926	-0.10649328
111	0xbd70d7e7	-0.05879965
112	0xbca37567	-0.019953443
113	0x3d776cff	0.06040668
114	0xbd9260c5	-0.071473636
115	0x3e13d2e3	0.14435916
116	0xbc87c82a	-0.016574938
117	0xbc498024	-0.0122986175
118	0x3db82ad9	0.089925475
119	0x3d682706	0.05667784
120	0x3da4062a	0.08008988
121	0x3dab6edc	0.08370754
122	0xbcefe7af	-0.02928528
123	0xbdcc25c3	-0.0996814
124	0xbb89eb28	-0.004208941
125	0x3da37506	0.07981305
126	0xbc86b601	-0.016444208
127	0xbdd4ee38	-0.10396999
128	0x3d1c6445	0.038181562
129	0x3dd78c7d	0.10524843
130	0xbd495ce7	-0.049160864
131	0xbdf5e268	-0.12006074
132	0xbdf1582c	-0.117843956
133	0x3b91e748	0.0044526197
134	0xbcea02c5	-0.028565774
135	0xbd2c2e62	-0.04203642
136	0x3d1aa500	0.037755013
137	0x3c67b67f	0.014142632
138	0x3db4b4a1	0.08823515
139	0x3db5f27b	0.0888414
140	0xbc670cbc	-0.014102157
141	0xbdd86d20	-0.10567689
142	0xbdbcfdfc	-0.09228131
143	0x3e0833e0	0.13301039
144	0x3d8729c8	0.06599766
145	0x3d7a9975	0.061181504
146	0xbdcdfa5a	-0.100575164
147	0x3dde8178	0.10864538
148	0x3df80e6e	0.12112127
149	0x3db064e7	0.086129956
150	0xbd9b9d61	-0.07598377
151	0xbd1ec78c	-0.03876452
152	0xbb71cb07	-0.0036894695
153	0x3e316d0e	0.17326757
154	0xbd86366f	-0.06553351
155	0xbd9e885b	-0.077408515
156	0x3cfe0d3a	0.031012166
157	0xbcd87e32	-0.026427362
158	0xbd706e6b	-0.058699053
159	0xbc0cc7a5	-0.008592521
160	0xbb40c83e	-0.0029416229
161	0xbdc02d6b	-0.09383663
162	0x3daf0c58	0.08547276
163	0xbd37350c	-0.044728324
164	0x3d0f40cf	0.034973916
165	0x3dc7e38f	0.097602
166	0x3d9e37f7	0.07725518
167	0x3c2482ae	0.010040922
168	0x3e0402dc	0.12891716
169	0x3cc07daa	0.023497421
170	0xbd54bc91	-0.051937643
171	0x3de2ae6e	0.11068426
172	0x3d1487ad	0.036262203
173	0xbdcac9d2	-0.099017754
174	0xbc0d00a5	-0.008606111
175	0xbd93e650	-0.07221663
176	0x3de1d224	0.11026409
177	0xbc5fba17	-0.013655207
178	0xbdc5707f	-0.096405976
179	0x3b09ac62	0.002100729
180	0x3da6d6de	0.081464514
181	0x3d1e3158	0.038621277
182	0x3d332805	0.043739337
183	0x3c914111	0.017731221
184	0x3d44d2b9	0.048052523
185	0xbca0e293	-0.019639289
186	0xbd2b06a8	-0.041754395
187	0xbdd91003	-0.10598757
188	0xbdb15e23	-0.08660533
189	0x3d8124d6	0.06305854
190	0xbd60fe39	-0.054929946
191	0x3c09c4bd	0.0084087225
192	0x3d0f79e8	0.03502837
193	0x3bd34ea3	0.006448583
194	0xbd9d44e1	-0.07679153
195	0x3dda6c77	0.10665219
196	0xbd39efc8	-0.04539469
197	0x3d41470f	0.047186907
198	0xbe119598	-0.14217222
199	0xbcea5694	-0.028605737
200	0x3d8b421a	0.06799717
201	0xbd8cd7c9	-0.06877095
202	0x3dbbef9b	0.091765605
203	0xbdab5538	-0.083658636
204	0xbdc05fc1	-0.093932636
205	0xbdaf9b01	-0.085744865
206	0xbc57dac7	-0.013174719
207	0x3e0e9e48	0.13927567
208	0xbcec3979	-0.028835999
209	0x3d9f2d27	0.07772284
210	0x3b4c1567	0.0031140686
211	0xbc959d5c	-0.018263511
212	0x3da03954	0.078234345
213	0xbdd78ed5	-0.1052529
214	0x3c3b0282	0.011414172
215	0x3db5cb05	0.088766135
216	0x3bd8c7d4	0.0066156182
217	0x3daf7249	0.0856672
218	0xbd3abb3d	-0.04558872
219	0x3dc03c60	0.093865156
220	0xbdc94a58	-0.09828633
221	0xbcffb07f	-0.03121209
222	0xbd40d3cc	-0.047076985
223	0x3d54b873	0.051933717
224	0x3d66726a	0.056261458
225	0x3dc06af8	0.09395403
226	0xbc35a87f	-0.011087536
227	0xbc57cbcd	-0.0131711485
228	0x3e0d03c2	0.13770965
229	0x3d04642a	0.032322086
230	0x3db976e8	0.09055883
231	0xbdb6a766	-0.089186475
232	0xbcebac3b	-0.02876865
233	0xbc4bf9b8	-0.012449674
234	0x3d60ebad	0.054912258
235	0x3dbe2cb4	0.0928587
236	0xbc7d3ccb	-0.015456389
237	0xbdbd963d	-0.09257171
238	0x3d571c41	0.05251718
239	0x3c8e283e	0.017353173
240	0x3c5f41e3	0.013626548
241	0xbdc4af54	-0.09603754
242	0x3db54e1c	0.08852789
243	0x3e08ad14	0.13347274
244	0x3d4910d1	0.049088303
245	0xbdc90781	-0.098158844
246	0x3daffdf5	0.0859336
247	0xbdab93d1	-0.08377803
248	0x3cd3e5b6	0.02586637
249	0x3c950150	0.018189102
250	0xbd37a9b4	-0.044839576
251	0x3d331e2e	0.043729953
252	0xbdc98aec	-0.0984095
253	0x3cec9f23	0.028884476
254	0xbd8fa2a3	-0.07013442
255	0xbb8b47e8	-0.0042505153

bias f4 [128]
0	0xbd8fecfa	-0.070276216
1	0xbd8bfcc2	-0.06835319
2	0xbdab69e4	-0.083698064
3	0x3d6b5134	0.05745049
4	0x3c10097f	0.008791327
5	0xbbbbcddf	-0.005731329
6	0x3cf57ac5	0.029965768
7	0x3d6808ed	0.056649137
8	0x3bc6b5cb	0.006064152
9	0x3d8746fa	0.066053346
10	0xbc742eab	-0.014903705
11	0x3d26a280	0.040682316
12	0x3d1187a4	0.035529748
13	0xbb67af7e	-0.0035352404
14	0x3daa19f7	0.08305734
15	0x3de2176b	0.11039623
16	0x3db69ce6	0.08916645
17	0xbccdd122	-0.025124136
18	0xbc99fc5f	-0.018797098
19	0x3dd697a2	0.104781404
20	0xbd565133	-0.05232353
21	0x3c3887eb	0.011262874
22	0xbd90181b	-0.07035848
23	0xbcfc9803	-0.030834204
24	0xbd4cc2a6	-0.04999032
25	0x3d8c3257	0.06845539
26	0xbd4b148f	-0.049580153
27	0xbd7de458	-0.061985344
28	0x3d37938b	0.044818442
29	0xbc4874d9	-0.01223489
30	0x3c99eb7a	0.018789042
31	0xbdb01c0b	-0.08599099
32	0xbd4e93d0	-0.050433934
33	0x3d710007	0.058837917
34	0x3d7ee266	0.06222763
35	0xbdd1929e	-0.10233043
36	0xbdaec17a	-0.085329965
37	0x3d31f259	0.04344401
38	0xbdd73163	-0.10507467
39	0xbd827f3f	-0.063719265
40	0xbd90894e	-0.07057439
41	0xbdc6944c	-0.09696254
42	0xbd4a47f4	-0.049385026
43	0x3da1ffa3	0.07910087
44	0xbdf3c3a0	-0.11902547
45	0x3d954859	0.0728919
46	0xbdde9838	-0.10868877
47	0xbd0e96df	-0.03481185
48	0xbd1c2c50	-0.038128197
49	0x3d8b04ad	0.06788001
50	0xbdc783d4	-0.09741941
51	0xbd8e535d	-0.06949494
52	0xbddecffb	-0.10879513
53	0xbbc1214b	-0.0058938614
54	0x3d2498cf	0.040184792
55	0x3dcd0553	0.10010781
56	0x3db8f601	0.090312965
57	0xbce56984	-0.028004415
58	0xbd8a5c8a	-0.06755932
59	0x3cbf6c35	0.023367027
60	0x3d882687	0.066479735
61	0x3dcd89b7	0.10036033
62	0x3dc27aba	0.094960645
63	0xba9a275f	-0.0011761001
64	0xbdced860	-0.10099864
65	0xbd801bd0	-0.06255305
66	0x3d83872d	0.06422267
67	0xbdb37533	-0.08762588
68	0xbdb29031	-0.087189086
69	0xbd94209a	-0.07232781
70	0xbd0613b5	-0.032733638
71	0x3d4ff5b2	0.050771423
72	0x3db05ec9	0.08611829
73	0x3db9b926	0.090685174
74	0x3d72e2ee	0.05929845
75	0x3be6cd21	0.0070434962
76	0xbc9a1b2c	-0.018811785
77	0xbd945ce2	-0.072442785
78	0xbd6ab364	-0.057299986
79	0xbc9051ee	-0.017617192
80	0x3dbc39f5	0.09190742
81	0xbcc34eba	-0.02384125
82	0xbcb3cb1c	-0.021947436
83	0x3aafde1c	0.0013417634
84	0xbd51da5e	-0.05123364
85	0xbd83b58e	-0.06431113
86	0x3d3f95d2	0.04677374
87	0xbdb483f9	-0.08814234
88	0xbbaca231	-0.005268358
89	0xbc11fbd9	-0.008910143
90	0x3c84540a	0.016153354
91	0xbc283abe	-0.0102679115
92	0xbd679d4e	-0.0565465
93	0xbcf77e44	-0.030211575
94	0xbd141528	-0.03615299
95	0x3d2330c7	0.03984144
96	0x3c8fa54b	0.017534873
97	0xbd090208	-0.033449203
98	0x3dc13f73	0.0943593
99	0x3867cec8	5.526727e-05
100	0x3d69bd21	0.057065133
101	0xbd22e982	-0.03977347
102	0xbde2bee5	-0.110715665
103	0xbdcc1b09	-0.09966094
104	0xbd213c79	-0.03936431
105	0x3d86a20d	0.065738775
106	0x3d9d3551	0.07676185
107	0x3d4aa282	0.049471386
108	0x3d2a9de9	0.0416545
109	0xbd8bebef	-0.0683211
110	0xbd063d0e	-0.03277307
111	0x3cb73859	0.022365736
112	0xbdd6be7e	-0.10485552
113	0xbdb7bdaf	-0.08971726
114	0xbdb45354	-0.08804956
115	0x3cb30e9f	0.021857558
116	0xbcbd0638	-0.023074254
117	0xbc7864a4	-0.015160713
118	0x3d839f7f	0.06426906
119	0xbd90166a	-0.07035525
120	0xbd94a9a8	-0.07258922
121	0xbcdc0990	-0.026860029
122	0x3d7cb0e7	0.061692145
123	0x3c2f4595	0.010697742
124	0xbdc85eb0	-0.09783685
125	0x3da829bc	0.08211085
126	0xbd9a79e0	-0.07542777
127	0x3dad5695	0.0846378

weight f4 [128, 128]
0	0x3cececf8	0.02892159
1	0x3ca23f29	0.019805508
2	0x3d8150aa	0.063142136
3	0x3d03a984	0.032144085
4	0xbdafa174	-0.085757166
5	0x3c95c664	0.018283077
6	0x3db94613	0.09046569
7	0xbd0d8537	-0.03455087
8	0x3d43da95	0.047815878
9	0x3d847150	0.06466925
10	0xbc9e84bc	-0.019350402
11	0xbb532339	-0.003221704
12	0xbc7da467	-0.015481091
13	0x3dc3c0f6	0.09558289
14	0x3cf1a18b	0.029495975
15	0x3dbfdd73	0.0936841
16	0xbda53cfd	-0.08068273
17	0xbd3310c1	-0.04371715
18	0xbc80b5dd	-0.01571172
19	0x3d2cf6f5	0.042227704
20	0xbd7b8854	-0.06140931
21	0x3cb51649	0.022105353
22	0x3d30a823	0.043129098
23	0xbd17a24c	-0.037020013
24	0xbb212b70	-0.002459254
25	0xbda40002	-0.08007814
26	0x3c386e13	0.0112567125
27	0x3c7cf9d6	0.015440425
28	0x3d718804	0.058967605
29	0x3d59cbb5	0.053172786
30	0x3cbfba5f	0.023404298
31	0x3ccb053e	0.024782773
32	0x3d49cf9c	0.049270257
33	0x3c526855	0.0128422575
34	0x3e04d9c8	0.12973702
35	0xbd551f50	-0.052031815
36	0x3cb8e23c	0.022568814
37	0xbbea791f	-0.007155552
38	0x3d7493c4	0.059711233
39	0xbd8aec7d	-0.06783388
40	0x3d81ade9	0.06331999
41	0xbd8589ad	-0.065204
42	0xbd3c8f5d	-0.04603516
43	0xbc6ed193	-0.014576334
44	0xbcda7cb8	-0.026670799
45	0xbd525d5b	-0.051358562
46	0xbd8d75c3	-0.06907227
47	0xbd9dc5a4	-0.077037126
48	0xbc9fe234	-0.019517042
49	0x3d8c9377	0.06864064
50	0xbca99d30	-0.020704836
51	0xbd5a6549	-0.05331925
52	0xbd20b50f	-0.03923517
53	0xbb2f3172	-0.0026732353
54	0x3bcbd5cb	0.0062205545
55	0x3d92ad14	0.07161918
56	0xbda236cc	-0.07920608
57	0x3d0248b2	0.03180761
58	0x3d85d864	0.06535414
59	0x3d654d67	0.05598202
60	0xbd765a15	-0.060144503
61	0x3bf555da	0.007487041
62	0x3d921c8f	0.07134353
63	0xbd969de2	-0.073543325
64	0x3d91972b	0.07108911
65	0x3b3de357	0.0028974616
66	0xbd872d7d	-0.06600473
67	0xbcaaba48	-0.020840779
68	0x3b834273	0.004005724
69	0xbcffb83d	-0.031215781
70	0xbd42eaeb	-0.047587316
71	0xbce325bd	-0.027727956
72	0x3d4e21a4	0.05032505
73	0x3d963c87	0.073357634
74	0xbdfe3b01	-0.12413598
75	0xbb385132	-0.0028124568
76	0x3cfb2cd9	0.030661033
77	0x3da66303	0.08124354
78	0x3d0fbf1c	0.035094365
79	0x3d74ab87	0.059733894
80	0x3cc336ba	0.023829807
81	0x3d1de14f	0.03854495
82	0xbd645fe9	-0.05575553
83	0xbd3856b4	-0.04500456
84	0x3ce231e7	0.027611686
85	0xbcbe2619	-0.023211526
86	0x3df11fe7	0.11773663
87	0xbd5dda21	-0.054163102
88	0x3cf8740a	0.03032877
89	0x3dc0e5a3	0.094188
90	0x3d7408cc	0.0595787
91	0x3de025d3	0.109447144
92	0xbd72068f	-0.059088286
93	0x3d49da8c	0.04928069
94	0xbda96f6b	-0.082732044
95	0xbd5eb07c	-0.054367527
96	0xbc8b9999	-0.017041015
97	0x3d7f161b	0.06227694
98	0xbc860fc2	-0.016364936
99	0xbd898c40	-0.06716204
100	0xbda55266	-0.08072357
101	0x252960d8	1.4691225e-16
102	0x3bddfb1f	0.0067743207
103	0x3bc1648f	0.00590188
104	0xbd20a8eb	-0.039223593
105	0x3cbd8a00	0.023137093
106	0x3cb4f87d	0.022091145
107	0xbced2976	-0.028950434
108	0x3c00c836	0.007860234
109	0xbc715d09	-0.014731654
110	0xbd35e3fb	-0.044406872
111	0x3cc3d4cc	0.02390518
112	0xbd091e78	-0.033476323
113	0x3d254f7c	0.040359005
114	0xbcd4ff8a	-0.026000757
115	0x3d3a1190	0.045426905
116	0x3da2169d	0.079144694
117	0x3d9174f7	0.071023874
118	0x3ce6aec2	0.028159503
119	0xbcedf879	-0.029049145
120	0xbd1d28f6	-0.03836914
121	0xbd369dd7	-0.04458412
122	0xbcad72dd	-0.021172935
123	0xbd744216	-0.059633337
124	0x3d316c2b	0.043316048
125	0xbdae8b3a	-0.08522649
126	0xbb77efc1	-0.0037832113
127	0x3daded8b	0.08492573
128	0xbd768f0a	-0.060195006
129	0xbc0b1bc6	-0.008490508
130	0x3d60b47d	0.054859627
131	0xbcbc6afc	-0.023000233
132	0xbd2bc7e8	-0.041938692
133	0x3d4f8a3a	0.050668932
134	0xbd87b2c8	-0.06625897
135	0x3db5313a	0.0884728
136	0x3ddc7cc8	0.10765988
137	0x3bb3015a	0.0054628076
138	0xbc3ffaf0	-0.011717543
139	0xbd2932be	-0.041308157
140	0x3dac13a3	0.08402183
141	0xbdaf1ad4	-0.08550039
142	0x3c78d4a2	0.015187414
143	0x3cc7e237	0.02439986
144	0x3caaf97d	0.020870918
145	0x3d9b06fa	0.0756969
146	0xbc8b1f56	-0.016982716
147	0x3d6add61	0.05734003
148	0x3d9d2b3d	0.07674263
149	0xbda4be54	-0.08044115
150	0xbdb3c82a	-0.08778413
151	0x3dcb0c58	0.09914464
152	0x3dd0ae07	0.10189443
153	0x3e01933e	0.12653825
154	0xbd9fed2c	-0.07808909
155	0x3da835b9	0.08213372
156	0xbcb4c801	-0.022068026
157	0x3ce835cc	0.028345965
158	0x3d2de461	0.042454127
159	0xbd531c0c	-0.05154042
160	0xbd2a3a05	-0.041559238
161	0x3d8b2622	0.06794383
162	0xbdede5d4	-0.11616102
163	0x3cd88635	0.026431182
164	0x3d973b99	0.07384414
165	0x3d6246d3	0.055243324
166	0x3b4f4228	0.0031625126
167	0xbd3266d4	-0.043555096
168	0xbd1f86ba	-0.038946845
169	0xbca8841e	-0.02057081
170	0xbd6a0d7e	-0.057141773
171	0xbbca7bd3	-0.006179312
172	0xbd516690	-0.0511232
173	0x3da8edb8	0.08248466
174	0xbd246dc7	-0.040143754
175	0xbc4d8d55	-0.012545903
176	0xbd6d77e2	-0.057975657
177	0x3dae609f	0.08514523
178	0x3d5d771d	0.054068673
179	0x3d991272	0.07474221
180	0x3d9ca718	0.07649058
181	0xbbc627d7	-0.0060472297
182	0x3dc013e7	0.09378796
183	0xbc8c1670	-0.017100543
184	0x3d9f93b8	0.07791847
185	0x3d057b52	0.03258831
186	0x3d6395a3	0.055562627
187	0xbd0149b9	-0.031564448
188	0x3d17a994	0.037026957
189	0xbba2187c	-0.0049467664
190	0xbdaf48e4	-0.08558825
191	0x3da17c64	0.07885054
192	0xbd49bf53	-0.049254727
193	0xbd832dcf	-0.06405222
194	0x3d7fde3d	0.062467802
195	0xbdbb0e29	-0.0913356
196	0x3cc785f5	0.024355868
197	0x3d8451d2	0.064609185
198	0xbb02bc7a	-0.0019948767
199	0xbd984316	-0.074346706
200	0xbda36d02	-0.07979776
201	0xbd17d5db	-0.037069183
202	0x3d07d292	0.0331598
203	0x3d71458c	0.058904216
204	0x3d420cc3	0.04737545
205	0xbd311e1e	-0.043241613
206	0xbc31dda8	-0.01085607
207	0xbd8a06cd	-0.067395784
208	0x3c9bcccd	0.019018555
209	0x3bfa2f8c	0.0076350626
210	0xbc9a63cc	-0.018846415
211	0x3c2d3aef	0.010573133
212	0xb9860824	-0.00025564537
213	0xbd88090a	-0.06642349
214	0x3d700d49	0.05860642
215	0x3c756fd4	0.014980275
216	0x3e045a46	0.12925062
217	0xbdb70a13	-0.089374684
218	0xbccef7fc	-0.025264733
219	0xbd62cf64	-0.055373564
220	0x3d517bf1	0.05114359
221	0xbce3e01b	-0.027816823
222	0xbd529a06	-0.05141642
223	0x3d911fea	0.07086165
224	0x3d953e69	0.072872944
225	0x3dd7e727	0.10542136
226	0x3d7205b8	0.059087485
227	0x3d5df80e	0.05419164
228	0xbd3632f7	-0.044482198
229	0x3b666860	0.0035157427
230	0xbce1469e	-0.027499493
231	0x3c714499	0.014725828
232	0x3ca6bba0	0.020353138
233	0x3c6e378f	0.014539613
234	0xbd80e632	-0.06293906
235	0x3d20ece2	0.03928841
236	0x3c5e4959	0.013567292
237	0xbd99c52c	-0.07508311
238	0xbd608dce	-0.054822735
239	0xbd2fd8f4	-0.042931512
240	0xbd77b72f	-0.060477432
241	0xbde07ae1	-0.10960937
242	0xbb26cd38	-0.002545191
243	0xbda63474	-0.081154734
244	0xbdac6c5e	-0.08419107
245	0x3d3dc64e	0.046331696
246	0xbd90b3b7	-0.07065528
247	0x3cc74f90	0.02432993
248	0x3be48b40	0.0069746077
249	0x3c7e5876	0.01552402
250	0x3d8160c3	0.06317284
251	0xbd832403	-0.06403353
252	0x3d28e942	0.041238077
253	0x3d6a4c65	0.05720176
254	0x3d87a245	0.06622747
255	0xbdc64593	-0.09681239

bias f4 [128]
0	0xbafe434a	-0.0019398716
1	0x3d0eaf3d	0.03483509
2	0x3d0c5fa4	0.034270898
3	0xbdaafb07	-0.08348661
4	0xbd0e9224	-0.03480734
5	0xbda66fb7	-0.08126777
6	0xbd9e68f3	-0.07734861
7	0x3d6d6ed9	0.05796704
8	0x3d914ec0	0.070950985
9	0xbd93393b	-0.0718865
10	0xbcdb786e	-0.026790824
11	0x3d182da3	0.037152898
12	0x3dab239c	0.08356401
13	0x3d9afc8e	0.07567702
14	0x3d56276c	0.05228369
15	0xbdaec9ed	-0.08534608
16	0xbd561211	-0.052263323
17	0x3d9f65b2	0.07783069
18	0xbda06e5d	-0.0783355
19	0xbd205e70	-0.039152563
20	0xbd912694	-0.07087436
21	0xbd85f019	-0.065399356
22	0x3cb47b20	0.022031367
23	0xbcef7c20	-0.029233992
24	0xbd9cb5d9	-0.07651872
25	0xbd867d63	-0.06566884
26	0x3d8a49bb	0.06752344
27	0x3d962f7b	0.07333275
28	0x3d3e425d	0.046450008
29	0x3d1b7939	0.037957404
30	0xbd5b2626	-0.053503178
31	0xbd0bf3fc	-0.03416823
32	0xbb544969	-0.0032392389
33	0x3d2de67f	0.042456146
34	0x3b236d53	0.0024936988
35	0x3ce04d23	0.027380532
36	0xbcdbd790	-0.026836187
37	0xbcd07f12	-0.025451217
38	0x3d07e983	0.03318168
39	0xbd9b322f	-0.07577931
40	0x3bef3c2a	0.0073008733
41	0x3da88541	0.08228541
42	0xbd52962e	-0.051412754
43	0xbcb806aa	-0.022464115
44	0xbc2d704c	-0.010585856
45	0xbce59a7e	-0.02802777
46	0x3d7a28ed	0.061074186
47	0x3c859ca9	0.016310053
48	0x3dc5a0d5	0.09649817
49	0xbceef677	-0.029170258
50	0x3cfa8b5d	0.030584032
51	0x3cc664ca	0.024217982
52	0xbd469551	-0.048482243
53	0xbd9ea835	-0.07746927
54	0x3d6f841d	0.058475602
55	0xbd583b06	-0.052790664
56	0xbcae1b4e	-0.021253254
57	0xbc9ab1a7	-0.01888354
58	0xbdb74638	-0.0894894
59	0x3d7762ec	0.060397074
60	0xbc3dd193	-0.011585611
61	0xbd366819	-0.04453287
62	0xbd987005	-0.07443241
63	0x3cce7009	0.025199907
64	0xbc0340e3	-0.008011076
65	0xbbb4ee2d	-0.005521557
66	0xbccdf4c4	-0.025141127
67	0x3ca088db	0.019596508
68	0xbc830d13	-0.015997445
69	0x3c76bc22	0.015059503
70	0x3d75ad11	0.059979502
71	0x3cb9b9c1	0.022671582
72	0xbd65df2c	-0.056121036
73	0xbbe02ef3	-0.0068415343
74	0xbce865fa	-0.028368939
75	0xbc62ab0b	-0.013834725
76	0x3d4acf29	0.04951397
77	0xbc0f281b	-0.008737589
78	0xbd03b8dc	-0.032158718
79	0xbcd8ded0	-0.026473433
80	0x3d53ea4d	0.05173712
81	0xbcba8685	-0.022769222
82	0x3c3e13b0	0.011601374
83	0xbc98c5b9	-0.018648969
84	0xbd874ef3	-0.06606855
85	0x3ced580e	0.028972652
86	0x3d929334	0.07156983
87	0xbd58b1b4	-0.052903846
88	0x3cc42316	0.023942512
89	0x3ccaf4ad	0.024774874
90	0xbca44f72	-0.020057414
91	0xbc1c48da	-0.009538854
92	0xbcaf522e	-0.021401491
93	0x3d5744f9	0.05255601
94	0xbbc9c0e3	-0.006157027
95	0xbda19aa1	-0.07890821
96	0xbcd4b96f	-0.025967328
97	0xbcd5e9c9	-0.026112454
98	0xbc935c2e	-0.01798829
99	0xbd3a5e03	-0.045499813
100	0x3c91eeb4	0.017814018
101	0xbaa59d08	-0.00126353
102	0xbd0e5dc6	-0.034757398
103	0xbc5ff626	-0.013669526
104	0xbd772e79	-0.060347054
105	0xbd480a63	-0.04883803
106	0x3d3b4b15	0.0457259
107	0x3c3f5316	0.011677524
108	0x3d4f0f3a	0.05055163
109	0x3caa0566	0.020754527
110	0x3d7017d6	0.05861648
111	0x3d90fb3b	0.070791684
112	0x3d923c2d	0.07140384
113	0xbcf9d7de	-0.030498441
114	0xbcf74f34	-0.030189134
115	0x3d98d6f3	0.07462873
116	0x3d677946	0.05651214
117	0x3d958e70	0.073025584
118	0x3d96b056	0.07357852
119	0x3d706636	0.058691226
120	0x3c38e98b	0.01128615
121	0xbbf962dd	-0.0076106624
122	0xbd806b08	-0.062704146
123	0x3db986a3	0.09058883
124	0xbd331263	-0.043718707
125	0x3d3f5381	0.046710495
126	0xbb989429	-0.004656334
127	0xbd5482dc	-0.05188261

weight f4 [128, 128]
0	0xbd8f1da7	-0.069880776
1	0x3d0a1334	0.03370972
2	0xbcd08bbf	-0.025457261
3	0x3d7b440d	0.061344195
4	0xbcd8455d	-0.026400262
5	0xbc7d11f3	-0.015446174
6	0x3c29a740	0.010354817
7	0x3da636cd	0.08115921
8	0xbdab9660	-0.08378291
9	0xbcb4524a	-0.022011895
10	0xbcfb2231	-0.030655952
11	0x3ccead78	0.0252292
12	0x3daa7d99	0.08324737
13	0x3983cc88	0.00025138655
14	0x3cf19533	0.029490089
15	0x3d6e272c	0.058142826
16	0xbd8ac8c8	-0.06776577
17	0x3d96fe3b	0.07372709
18	0x3dec2925	0.11531285
19	0xbd796284	-0.060884967
20	0xbc65be0c	-0.0140223615
21	0x3ca01518	0.019541308
22	0xbd643536	-0.05571481
23	0xbd027bef	-0.031856474
24	0x3da5929e	0.08084606
25	0x3d80e9b4	0.06294575
26	0xbd98f2a2	-0.074681535
27	0x3d803d7e	0.06261729
28	0xbd24a947	-0.040200498
29	0xbbc47852	-0.0059957886
30	0xbde1f592	-0.11033167
31	0xbd8ccfe5	-0.0687559
32	0x3bdfc006	0.006828311
33	0xbd996bde	-0.07491277
34	0xbd56e1cc	-0.05246143
35	0x3d27637e	0.040866368
36	0x3da2f593	0.07956996
37	0xbd997501	-0.0749302
38	0x3d668b29	0.056285057
39	0x3d9911e7	0.07474118
40	0xbcf32470	-0.02968046
41	0x3cbe22a8	0.023209885
42	0xbbd7a550	-0.006580986
43	0x3cd74663	0.02627868
44	0x3b0bbcfd	0.0021322363
45	0x3d3239d2	0.043512173
46	0x3daa7c4d	0.0832449
47	0xbce56961	-0.02800435
48	0xbcf6312c	-0.030052744
49	0x3db6a31b	0.08917829
50	0x3da91e84	0.082577735
51	0xbd5fa74b	-0.054602902
52	0x3daa7f68	0.08325082
53	0xbd3d8d69	-0.046277437
54	0x3d4994b8	0.049214095
55	0xb83e47b4	-4.536631e-05
56	0xbb561634	-0.0032667043
57	0xbd58ede8	-0.05296126
58	0x3b5e3227	0.0033904405
59	0xbdacc676	-0.08436291
60	0xbc52efb1	-0.01287453
61	0x3d72fcab	0.059322994
62	0x3d985fb3	0.07440128
63	0xbd2985d8	-0.04138741
64	0x3d4f9a79	0.050684426
65	0xbc67288d	-0.014108789
66	0x3da10c8c	0.07863721
67	0x3d7f56ff	0.062338825
68	0xbd07ec58	-0.03318438
69	0x3d0e4c0e	0.0347405
70	0x3d49062e	0.04907816
71	0x3d3ea02e	0.046539478
72	0xbccd0acb	-0.02502956
73	0xbc5b184c	-0.013372492
74	0xbdb9df16	-0.090757534
75	0x3d1f8fc9	0.038955484
76	0x3c5eed20	0.01360634
77	0x3d1b8c11	0.037975375
78	0x3d6abf37	0.057311263
79	0x3cbb933c	0.022897355
80	0xbdc1a615	-0.09455506
81	0xbd842208	-0.064518034
82	0x3c7d38f3	0.015455472
83	0xbdaeb7df	-0.085311644
84	0x3d8ce2ba	0.06879182
85	0xbc36fd0c	-0.0111687295
86	0xbd840f47	-0.064482264
87	0x3d76480a	0.060127296
88	0x3cfb1911	0.030651601
89	0x3d9a331d	0.0752928
90	0xbb78ef6a	-0.0037984499
91	0x3c9dd10f	0.019264726
92	0x3d4ee195	0.0505081
93	0x3d668330	0.056277454
94	0xbd4d14b3	-0.05006857
95	0xbd5023d0	-0.050815403
96	0xbc10bd59	-0.0088342065
97	0x3d9add49	0.07561738
98	0x3d58caf6	0.052927934
99	0xbd29c32d	-0.0414459
100	0xbcb987a1	-0.02264768
101	0x3dba4a2d	0.09096179
102	0x3da148bb	0.078752
103	0x3d14ac04	0.03629686
104	0xbd83056f	-0.06397521
105	0xbdc9d080	-0.09854221
106	0x3d4548a2	0.04816497
107	0x3d6b1764	0.057395354
108	0x3dd27ca0	0.102776766
109	0x3d65f787	0.056144264
110	0xbceb5095	-0.028724948
111	0xbbfba803	-0.0076799407
112	0x3d89cfe9	0.06729109
113	0xbcab9c4f	-0.020948557
114	0xbd6e3ca6	-0.058163308
115	0x3d897120	0.0671103
116	0xbd8d5fff	-0.069030754
117	0x3d479dca	0.048734464
118	0xbd0bafca	-0.034103192
119	0xbcbc1bff	-0.022962568
120	0x3dc5f67f	0.09666156
121	0xbcedb10a	-0.029015083
122	0xbbd059a9	-0.0063583446
123	0xbd669176	-0.056291066
124	0x3b261a5e	0.0025345306
125	0xbd1cbf98	-0.038268656
126	0x3d27367e	0.040823452
127	0x3d6326ea	0.055457033
128	0xbd22f434	-0.03978367
129	0x3d978e3e	0.074001774
130	0x3cd8b2cf	0.02645245
131	0x3d8059b6	0.06267111
132	0x3b7b1dfb	0.003831743
133	0xbd492b6a	-0.04911367
134	0xbcaf7281	-0.021416904
135	0x3d9d37df	0.07676672
136	0xbd1af1b5	-0.037828166
137	0xbd9b81b7	-0.075931005
138	0xbd48d4ce	-0.04903107
139	0xbd9c2036	-0.07623331
140	0xbcd08805	-0.025455484
141	0x3d0d7b87	0.034541633
142	0xbc886c2a	-0.01665314
143	0x3bd3093e	0.0064403107
144	0xbd78badb	-0.060725074
145	0x3dc669b2	0.096881285
146	0xbd8e89de	-0.0695989
147	0xbd8af7f6	-0.06785576
148	0x3db74742	0.08949138
149	0xbd53b37d	-0.051684845
150	0xbd838ee3	-0.06423738
151	0xbdaf06e3	-0.085462354
152	0x3d200636	0.039068423
153	0x3d18c50e	0.0372973
154	0x3daec668	0.08533937
155	0x3d063804	0.032768264
156	0xbd01485d	-0.03156315
157	0x3c1b5808	0.0094814375
158	0x3d16c21e	0.03680622
159	0x3d40fce0	0.04711616
160	0xbd2d5329	-0.042315636
161	0x3ddc69a4	0.10762337
162	0xbb018e6b	-0.0019768726
163	0xbd35b535	-0.044362266
164	0xbc932de6	-0.017966222
165	0x3d93eac1	0.0722251
166	0x3d23c9ae	0.03998726
167	0x3dab861b	0.08375188
168	0x3d268749	0.04065636
169	0x3dbfc498	0.09363669
170	0x3c9c03e1	0.019044818
171	0xbdd3737b	-0.103247605
172	0xbcc763d5	-0.024339596
173	0xbd1080c4	-0.03527905
174	0x3d9f39f0	0.077747226
175	0x3da7b17c	0.08188149
176	0x3d3de6e4	0.046362773
177	0xbd34e3c6	-0.044162534
178	0xbd3ab192	-0.0455795
179	0xbd314a34	-0.043283656
180	0xbda090bc	-0.07840106
181	0xbca1ad6e	-0.019736018
182	0x3d6ff499	0.058582876
183	0x3d4dad4b	0.050214093
184	0x3beaa23a	0.007160452
185	0x3daad565	0.08341483
186	0xbcdc9a3b	-0.026929012
187	0x3df71578	0.12064642
188	0xbd348882	-0.044075496
189	0x3c4659d1	0.012106375
190	0xbcfcc994	-0.030857839
191	0x3c74ccd2	0.014941411
192	0x3cfaf0b9	0.030632364
193	0x3dc0d7eb	0.09416183
194	0x3a5f4f6c	0.00085186097
195	0xbd9f0dfc	-0.07766339
196	0x3d82ecde	0.06392835
197	0x3d30526a	0.043047346
198	0x3cb77a07	0.022397054
199	0xbdbb91eb	-0.09158691
200	0xbdd2a262	-0.10284878
201	0x3d82e82f	0.06391942
202	0x3db52490	0.08844864
203	0xbcf231bd	-0.029564733
204	0xbd55cf4b	-0.052199643
205	0x3cd780e1	0.026306571
206	0x3b7d2b54	0.0038630562
207	0xbd9c0790	-0.0761863
208	0xbd155404	-0.036457077
209	0x3d24f421	0.040271882
210	0x3dc29807	0.09501653
211	0x3d8ff872	0.07029809
212	0xbd9b6611	-0.07587827
213	0x3d849fbe	0.06475781
214	0xbc74817f	-0.014923452
215	0x3ca05f48	0.019576684
216	0xbdb21cfc	-0.086969346
217	0x392172bf	0.00015396903
218	0x3c414a39	0.011797481
219	0x3d145cbb	0.036221247
220	0x3c6327e8	0.013864495
221	0xbbea3c17	-0.0071482765
222	0x3c96b782	0.01839805
223	0x39b1249c	0.00033787347
224	0xbd1399b6	-0.036035262
225	0x3db22327	0.08698111
226	0xbd4b0999	-0.0495697
227	0x3d176c3f	0.036968466
228	0xbda1430c	-0.07874116
229	0xbadd6ae3	-0.0016892817
230	0x3d668cc7	0.0562866
231	0xbd6a31e4	-0.057176486
232	0x3d2f253e	0.042760126
233	0x3da7e83d	0.08198593
234	0x3dae0bf9	0.08498377
235	0x3debf869	0.1152199
236	0xbd9a4250	-0.07532179
237	0x3db2c210	0.08728421
238	0xbce5a3d0	-0.028032213
239	0x3c0e424b	0.008682798
240	0x3d3e370f	0.046439227
241	0xbd01465d	-0.031561244
242	0x3a754e4a	0.0009357674
243	0x3dacf5f9	0.08445353
244	0x3cf7a658	0.030230686
245	0xbda07a0b	-0.07835778
246	0xbd2dc62d	-0.042425323
247	0x3d3d6a72	0.046244092
248	0xbd8c1a57	-0.068409614
249	0xbd3b714c	-0.045762345
250	0x3d2d1974	0.042260602
251	0x3c05567f	0.008138298
252	0x3d89203d	0.06695602
253	0x3c3f2135	0.011665632
254	0x3d0e570d	0.034750987
255	0x3ab19171	0.0013547373

bias f4 [128]
0	0x3db195cb	0.08671149
1	0x3a12851d	0.00055892934
2	0xbd4df02d	-0.050277878
3	0x3d7d115e	0.06178414
4	0x3d93f7d2	0.07225002
5	0x3d2671f3	0.040636014
6	0xbc2e3a23	-0.010633978
7	0xbd36d1ae	-0.04463356
8	0x3d069325	0.03285517
9	0x3cb8cd73	0.022558903
10	0xbd9b607c	-0.07586762
11	0x3d79171a	0.060813047
12	0x3d1b2396	0.037875734
13	0x3d4a401d	0.04937755
14	0xbd745536	-0.059651576
15	0x3d3366bb	0.043799143
16	0xbd07f3cc	-0.033191487
17	0x3c32e0f4	0.010917891
18	0xbc01d897	-0.007925174
19	0xbd27e3a3	-0.040988576
20	0xbd1226ec	-0.03568165
21	0x3d8b5aa6	0.06804399
22	0xbc215c5d	-0.009848681
23	0x3d4d06fe	0.050055496
24	0x3d3d5f8b	0.046233695
25	0x3d88ef81	0.06686307
26	0xbcda9064	-0.026680179
27	0x3d12d8a1	0.035851125
28	0x3d30c938	0.043160647
29	0xbcc6ba32	-0.024258707
30	0xbd1519b1	-0.036401454
31	0x3d272a36	0.04081174
32	0x3d14c035	0.036316115
33	0xbcb102e7	-0.02160783
34	0x3d809a09	0.0627938
35	0x3a088bba	0.0005208809
36	0x3d85c079	0.06530852
37	0x3b620639	0.0034488572
38	0x3d520fee	0.051284723
39	0x3d0b8792	0.034064837
40	0xbd80ae0d	-0.062831976
41	0x3dad794c	0.08470401
42	0x3d8616e7	0.06547337
43	0x3d37073d	0.044684637
44	0x3cbaeab7	0.022816999
45	0x3d59fec4	0.05322148
46	0xbcb044b2	-0.021517131
47	0x3d98de48	0.07464272
48	0xbda3ed05	-0.08004192
49	0xbdb2172f	-0.08695828
50	0xbc6d9f1d	-0.014503268
51	0xbd710e80	-0.05885172
52	0x3d0a7b5d	0.033809055
53	0x3cb4e33f	0.022081016
54	0x3d074c34	0.033031657
55	0x3d988f7c	0.074492425
56	0xbcf6b58d	-0.030115867
57	0x3dbb8856	0.091568634
58	0x3d3c53c0	0.045978308
59	0xbd9dc276	-0.07703106
60	0xbd3b3831	-0.045707885
61	0xbd02ec3b	-0.03196357
62	0x3d2d796a	0.042352118
63	0x3d8bff20	0.068357706
64	0xbd8b156e	-0.06791197
65	0xbd44a0f7	-0.04800507
66	0xbdba3b20	-0.090933084
67	0xbd91d1d0	-0.07120097
68	0xbd1c60a6	-0.03817811
69	0xbae6a0a8	-0.0017595487
70	0xbd914f50	-0.07095206
71	0x3d481e9b	0.048857313
72	0x3d4de40d	0.050266314
73	0x3bfa1772	0.0076321894
74	0x3dcc5527	0.09977179
75	0x3d6a3c21	0.05718625
76	0xbbabb718	-0.0052403323
77	0x3c657746	0.014005488
78	0xbc0ce7cc	-0.008600187
79	0xbd995e44	-0.07488683
80	0xbc9c90a6	-0.019111942
81	0xbd8ccb25	-0.06874684
82	0xbd986b64	-0.07442358
83	0xbc5c213a	-0.013435656
84	0x3abd53ef	0.001444457
85	0xbd217047	-0.039413717
86	0x3d72bba1	0.059260968
87	0x3d133894	0.03594263
88	0xbc322257	-0.010872445
89	0xbd8fcb3b	-0.07021185
90	0xbd8dc644	-0.06922582
91	0xbd7ead13	-0.062176775
92	0xbc80fbc3	-0.01574505
93	0x3cdefa4e	0.027218964
94	0x3d8af77a	0.06785484
95	0x3d658fd6	0.056045376
96	0x3ca0bbda	0.019620825
97	0x3d866c79	0.06563658
98	0xbd764de2	-0.06013287
99	0x3caa9ee2	0.020827714
100	0xbc8a4441	-0.01687825
101	0xbbc05a64	-0.0058701504
102	0x3d8e8152	0.0695826
103	0x3cdfcc83	0.027319198
104	0xbd49c0ac	-0.04925601
105	0x3b760fc9	0.003754603
106	0xbd09b0f2	-0.033616014
107	0xbd4a6498	-0.04941234
108	0xbd86f3a8	-0.065894425
109	0xbd7c4ff5	-0.06159969
110	0x3d9d42dc	0.07678768
111	0x3d860a70	0.065449595
112	0xbc86d900	-0.016460896
113	0xbcff1d84	-0.031142004
114	0xbd875fbf	-0.06610059
115	0xbd3836fc	-0.044974312
116	0x3d40ff5d	0.047118533
117	0xbd08f84f	-0.03343993
118	0x3d0f6da2	0.035016663
119	0xbcba6cb7	-0.022756917
120	0xbd9d7743	-0.07688763
121	0x3d2c14df	0.04201209
122	0x3d0080d5	0.031372864
123	0x3cd76e77	0.02629779
124	0xbd7a05be	-0.061040632
125	0xbc4f4686	-0.012651091
126	0x3db38a97	0.08766668
127	0x3c372efe	0.011180637

weight f4 [128, 128]
0	0x3b3625ff	0.0027793644
1	0x3c7d129e	0.015446333
2	0x3dbf1b40	0.093313694
3	0x3db2e4d9	0.087350555
4	0x3c255849	0.01009185
5	0x3dbbe9d2	0.09175457
6	0x3ad59d7c	0.0016297544
7	0x3d326053	0.043548893
8	0x3d80bcd3	0.06286015
9	0xbd90e274	-0.070744425
10	0xbd97dc20	-0.074150324
11	0xbc74480d	-0.014909756
12	0xbd9de19b	-0.077090465
13	0x3d05c568	0.032658964
14	0xbc3b7cfd	-0.011443374
15	0xbc8cceac	-0.017188393
16	0xbcfd4d08	-0.03092052
17	0xbdb4986e	-0.08818136
18	0xbd03a10a	-0.032136
19	0x3dd1c405	0.10242466
20	0xbce70075	-0.02819846
21	0xbada27b7	-0.0016643916
22	0xbd398d17	-0.04530057
23	0xbd2fcd82	-0.042920597
24	0x3d9c2d0e	0.07625781
25	0xbc2e6704	-0.010644678
26	0xbbe81bf8	-0.0070834123
27	0x3d6f267c	0.05838631
28	0x3bc6e8eb	0.0060702465
29	0x3cbf5318	0.023355052
30	0xbd2541d9	-0.040346
31	0x3d78b33c	0.060717806
32	0xbb917bba	-0.004439798
33	0x3d615974	0.05501695
34	0xbd9d3649	-0.0767637
35	0x3cb201aa	0.02172931
36	0x3c471ce4	0.012152884
37	0xbd86216c	-0.065493435
38	0x3d9e3d07	0.07726484
39	0xbd270f98	-0.040786356
40	0xbd094dc0	-0.033521414
41	0x3d1b20c3	0.03787304
42	0xbd411719	-0.04714117
43	0x3da4a864	0.080399305
44	0x3d98d3f8	0.07462305
45	0xbb485f5d	-0.003057442
46	0x3b3415d7	0.0027478838
47	0xbd5c199d	-0.053735364
48	0xbd38bdf5	-0.045103032
49	0xbc52d41d	-0.012867955
50	0x3d68cf12	0.056838103
51	0x3d85c0ac	0.0653089
52	0x3dbd1fd3	0.092345856
53	0xbd2cd62b	-0.042196434
54	0xbd52f6c1	-0.051504854
55	0x3d750102	0.059815414
56	0x3d8b9fe6	0.068176076
57	0x3dcb6832	0.09931983
58	0x3da58382	0.08081724
59	0xbd478e4b	-0.048719686
60	0x3d97bdd4	0.07409254
61	0x3d7a672c	0.06113355
62	0xbcd6c884	-0.02621866
63	0xbd2e067f	-0.042486664
64	0xbd62287a	-0.055214383
65	0xbc1540e7	-0.009109712
66	0x3d483aa7	0.04888406
67	0x3c379913	0.011205929
68	0xbcc1a269	-0.023637014
69	0xbc877bb9	-0.016538488
70	0x3dc9df7b	0.09857079
71	0x3cd58904	0.02606631
72	0xbd401a35	-0.046899993
73	0x3d19c7c6	0.037544034
74	0xbd7de6b4	-0.061987594
75	0x3d847e82	0.06469442
76	0xbc6d8770	-0.014497623
77	0x3d0b043d	0.03393959
78	0x3d4009c1	0.046884302
79	0x3d606ab3	0.054789256
80	0xbcd02249	-0.025406973
81	0x3d552eb4	0.052046493
82	0xbcb42149	-0.021988528
83	0x3dd3e4e3	0.10346391
84	0xbc8310dc	-0.01599925
85	0xbd8f98be	-0.07011555
86	0xbcc7b361	-0.024377527
87	0x3d246e47	0.04014423
88	0x3c4d4992	0.012529748
89	0xbd56e157	-0.052460995
90	0xbc7048eb	-0.0146658225
91	0x3c4fd587	0.012685186
92	0x3cf02ff0	0.029319733
93	0x3dbe3c2e	0.09288822
94	0xbcec67f5	-0.028858164
95	0x3c98bd9a	0.018645097
96	0xbd1dff7d	-0.03857373
97	0xbd699602	-0.057027824
98	0xbc9687cb	-0.018375298
99	0x3b9e476c	0.0048302915
100	0x3db3689e	0.087601885
101	0xbd99cbd9	-0.07509584
102	0xbd627518	-0.05528745
103	0xbc5ec889	-0.013597616
104	0xbb3c529e	-0.0028735767
105	0x3d431c31	0.047634307
106	0x3d82b292	0.06381716
107	0x3c842541	0.016131045
108	0x3d2639c8	0.04058245
109	0x3d84687e	0.06465243
110	0xbccb2a06	-0.024800312
111	0xbc709a18	-0.014685176
112	0x3c82d636	0.015971284
113	0xbd1fdfa6	-0.039031647
114	0x3da17343	0.078833126
115	0x3c85f5a5	0.016352484
116	0x3ca142ed	0.019685233
117	0xbd23cbeb	-0.039989393
118	0x3ca5f612	0.020258937
119	0x3d02feea	0.031981386
120	0xbdb58773	-0.088637255
121	0xbdaef80f	-0.08543407
122	0x3be4e8f7	0.0069857794
123	0xbd24147e	-0.040058605
124	0xbd589736	-0.05287858
125	0x3d0d04df	0.034428474
126	0x3da30ad3	0.07961049
127	0xbd5c6dfc	-0.053815827
128	0xb918d227	-0.00014574137
129	0x3da837e8	0.08213788
130	0x3d7d1827	0.06179061
131	0x3cdfaccd	0.027304078
132	0x3cb790fa	0.022407997
133	0xbd4b1701	-0.049582485
134	0x3d3debb4	0.046367362
135	0xbd56b6f1	-0.05242056
136	0x3b1de615	0.0024093438
137	0xbd399e99	-0.045317266
138	0x3c335924	0.010946546
139	0xbdc497d5	-0.09599272
140	0xbc8a911f	-0.016914902
141	0xbd0afd47	-0.03393295
142	0x3d9ddcd6	0.07708137
143	0x3cf07731	0.02935371
144	0x3d07bc5a	0.03313861
145	0x3bc70c75	0.006074483
146	0xbdb825ff	-0.08991622
147	0xbd80394d	-0.06260929
148	0x3d50945b	0.050922733
149	0x3e053bc4	0.1301108
150	0xbce552b5	-0.02799354
151	0xbcafb958	-0.021450683
152	0x3d3ca479	0.04605529
153	0x3dad5912	0.084642544
154	0xbcb4c503	-0.022066599
155	0xbc36ac39	-0.0111494595
156	0xbdaaf9f6	-0.083484575
157	0x3d65d832	0.056114383
158	0xbcfc7c78	-0.03082107
159	0x3b821002	0.0039691934
160	0x3da5c095	0.08093373
161	0xbca44d2e	-0.020056333
162	0xbcece2e0	-0.028916776
163	0xbd91a009	-0.071106024
164	0x3debd5b2	0.115153685
165	0x3d1c1a2e	0.038110904
166	0x3d7b0d30	0.061291873
167	0xba8ea5ba	-0.0010883131
168	0xbc322647	-0.010873384
169	0x3d31697b	0.043313485
170	0x3d8e6112	0.069521084
171	0x3c355429	0.011067429
172	0xbd90ef43	-0.070768856
173	0xbc8cfbf1	-0.017209979
174	0x3cbf0402	0.02331734
175	0x3d93a841	0.07209826
176	0xbd45853b	-0.04822276
177	0xbc47720e	-0.012173189
178	0xba9287d9	-0.0011179402
179	0x3de786f5	0.11305038
180	0x3ce103b9	0.027467595
181	0x3db7756b	0.089579426
182	0xbd8fc5dd	-0.07020161
183	0x3d38ff8a	0.045165576
184	0xbcb11c37	-0.0216199
185	0xbd7dfc4b	-0.062008183
186	0x3d6a8b1a	0.057261564
187	0xbd62862c	-0.055303738
188	0x3c7e55c2	0.015523376
189	0xbd04e8c0	-0.03244853
190	0x3cb0600f	0.02153018
191	0xbcefaf53	-0.029258406
192	0xbd42ebca	-0.047588147
193	0x3d8a2211	0.06744779
194	0x3c01623b	0.007896955
195	0x3c4c7197	0.012478254
196	0xbd9e7b6b	-0.07738384
197	0xbd76df0a	-0.0602713
198	0x3c14be04	0.009078506
199	0x3dadb33a	0.084814504
200	0xbd248a6b	-0.04017107
201	0x3dd8b10a	0.105806425
202	0x3d0fd495	0.035114843
203	0x3d8ae39e	0.06781696
204	0x3c902210	0.017594367
205	0xbd740448	-0.059574395
206	0x3c984d77	0.018591626
207	0x3dc1441d	0.0943682
208	0xbbc16ebc	-0.005903093
209	0xbcfb0fb8	-0.030647144
210	0xbca67138	-0.020317659
211	0xbdcba724	-0.09943989
212	0x3c5f1798	0.013616465
213	0xbca34725	-0.019931385
214	0x3d70decb	0.058806222
215	0xbd21dc79	-0.0395169
216	0xbd90de7b	-0.07073685
217	0xbdb31cf5	-0.087457575
218	0xbbfef79a	-0.0077809813
219	0x3ca92655	0.020648161
220	0x3ca8ffbd	0.020629758
221	0xbd8bf158	-0.06833142
222	0xbcde570d	-0.027141118
223	0x3d4d830d	0.050173808
224	0xb9d26ca4	-0.00040135265
225	0x3d400334	0.046878055
226	0x3d0422e9	0.032259855
227	0xbd8aff71	-0.06787003
228	0x3d972b46	0.07381301
229	0xbd26f8f2	-0.040764757
230	0x3d5b7c62	0.053585418
231	0x3d87d72c	0.06632838
232	0x3d7cddee	0.061735086
233	0x3dc439f6	0.09581368
234	0x3cc4c76a	0.02402087
235	0xbd9e2430	-0.07721746
236	0xbd0afd68	-0.033933073
237	0xbd7d5145	-0.061845083
238	0x3d4cfe40	0.05004716
239	0x3d4a2d7d	0.049359787
240	0x3d291fd6	0.041290127
241	0x3ca8b4cc	0.020594023
242	0xbcfdd347	-0.030984534
243	0x3dc8ff9c	0.098143786
244	0xba587a4e	-0.0008257971
245	0x3d2153f8	0.03938672
246	0xbcd75aa6	-0.026288342
247	0xbd8d7af2	-0.069082156
248	0xbd105abe	-0.03524279
249	0x3dca2de0	0.09872031
250	0xbc820c6b	-0.015875062
251	0x3cf68bb8	0.03009592
252	0xbd58874a	-0.052863397
253	0xbbf94895	-0.0076075294
254	0xbbb2c1c9	-0.00545523
255	0xbce0dd56	-0.027449291

bias f4 [128]
0	0xbc560f3c	-0.013065156
1	0x3bda9c43	0.00667146
2	0x3cf6bce4	0.030119367
3	0x3d1dfaaf	0.03856915
4	0x3bbed39b	0.005823565
5	0xbc3194ed	-0.010838729
6	0xbd9d5daf	-0.07683884
7	0x3bbfbea1	0.005851582
8	0x3cd64ae5	0.02615876
9	0xbbae6a27	-0.005322713
10	0x3da587c6	0.08082537
11	0xbcec04c3	-0.028810864
12	0xbd09eb42	-0.033671625
13	0x3d13f3ad	0.03612106
14	0xbb4d7372	-0.0031349328
15	0x3da9b809	0.08287055
16	0x3dcbb901	0.09947396
17	0x3d106944	0.03525664
18	0x3dbd36cb	0.092389666
19	0xbc224218	-0.009903453
20	0x3d7a1312	0.061053343
21	0xbd842fbd	-0.06454418
22	0x3bd57966	0.006514716
23	0xbce0e178	-0.027451262
24	0x3d89b7d7	0.06724518
25	0xbc93728b	-0.017998954
26	0x3d8fb5b9	0.07017083
27	0x3cd59399	0.026071357
28	0x3d15a267	0.036531832
29	0x3c5fb62e	0.013654275
30	0xbd519ac4	-0.051172987
31	0x3d335303	0.043780338
32	0xbb8c55ef	-0.004282705
33	0x3b8d7051	0.0043163677
34	0xbb62526f	-0.0034533998
35	0xbd2d0c41	-0.042248014
36	0x3d791e04	0.06081964
37	0xbd441c1f	-0.04787838
38	0xbd246a87	-0.040140655
39	0xbd05a7ef	-0.032630857
40	0x3d7986e0	0.060919642
41	0xbd7fd4b4	-0.06245871
42	0xbd1029a9	-0.03519598
43	0x3c3c4027	0.0114899045
44	0x3a9dd08a	0.0012040299
45	0x3c4706de	0.012147633
46	0x3bf4bd0d	0.0074688257
47	0x3d287e56	0.04113611
48	0xbc4871d0	-0.012234166
49	0x3d747397	0.059680548
50	0xbd31f2ee	-0.043444566
51	0xbd72ff6e	-0.059325628
52	0x3be2af4f	0.006917871
53	0x3d939b82	0.07207395
54	0xbd22a133	-0.039704513
55	0x3d42ae5d	0.047529567
56	0x3d9f9302	0.077917114
57	0xbd17ae79	-0.037031624
58	0xbd52c9bf	-0.05146193
59	0x3c1eaf8f	0.009685411
60	0x3d11b4f8	0.035572976
61	0xbdb0720b	-0.08615502
62	0xbc1904d4	-0.00933953
63	0xbcb89f28	-0.02253683
64	0x3c4e335f	0.01258549
65	0x3d8118da	0.06303568
66	0x3dbd124f	0.09232008
67	0x3c2e462a	0.010636846
68	0xbcd6691c	-0.026173167
69	0x3d961c5d	0.073296286
70	0x3d515ceb	0.051114004
71	0x3d312d6b	0.043256205
72	0x3d974e76	0.07388012
73	0x3dade043	0.0849004
74	0xbcf5c1e4	-0.02999968
75	0xbd458e04	-0.04823114
76	0xbba5ca03	-0.005059482
77	0x3d4bd4d8	0.04976353
78	0xbb95c3fd	-0.0045704828
79	0xbd902372	-0.07038011
80	0xbd1f1858	-0.038841575
81	0xbce16fd1	-0.027519139
82	0xbd22753a	-0.039662577
83	0xbd455b54	-0.0481828
84	0xbab1089c	-0.0013506594
85	0x3d49429d	0.049135793
86	0x3d327cbb	0.043575983
87	0x3db905d1	0.090343125
88	0xbd0b6617	-0.034032907
89	0xbc1f2f1e	-0.009715823
90	0x3d6a11f1	0.057146017
91	0xbd315c24	-0.043300763
92	0xbd6dd11d	-0.058060754
93	0x3d165164	0.036698714
94	0xbd0756a0	-0.033041596
95	0xbdad15e0	-0.08451438
96	0xbd5820ba	-0.052765585
97	0x3d203c12	0.039119788
98	0x3c591e9c	0.013251927
99	0xbc502233	-0.012703466
100	0xbd222a62	-0.0395912
101	0x3d67093a	0.056405284
102	0x3ca3ee28	0.020011023
103	0x3d09b0b3	0.03361578
104	0x3d2143c3	0.039371263
105	0xbd079a2b	-0.03310601
106	0xbb95c540	-0.004570633
107	0x3d0029be	0.03128981
108	0xbd119226	-0.03553977
109	0x3d96c43c	0.073616475
110	0x3daf8315	0.08569924
111	0x3c34fa45	0.011045997
112	0x3d9ad9d2	0.07561077
113	0xbb49c517	-0.003078764
114	0x3cf177c9	0.029476063
115	0xbd292de9	-0.04130355
116	0x3bde78b4	0.0067892913
117	0xbd137d8b	-0.0360084
118	0x3d3e9992	0.046533175
119	0xbd389910	-0.045067847
120	0xb93e7452	-0.00018163145
121	0x3cfa3d67	0.030546857
122	0x3c3b96f1	0.011449561
123	0x3d9f5fc8	0.07781941
124	0xbd073680	-0.03301096
125	0xbd5aec91	-0.053448264
126	0x3c9a2ee4	0.018821187
127	0xbaee5b00	-0.0018185079
