models/agModels-predicttop10_votes/models/NeuralNetTorch_BAG_L1/S12F6/net.params (torch, 248949 bytes, 16 tensors)

weight f4 [6, 4]
-1.1299833 -1.1483853 -0.24763031 -0.42614886 0.8515539 0.6376047 -0.3032812 -2.1438038
0.46718037 -0.15597743 1.482796 0.2859003 0.16412406 0.8895529 -0.15413235 -0.10408534
0.9410306 1.2645392 1.983406 0.05611541 0.4891908 -0.28858447 -0.7097441 -2.180443
00000000: 4ba3 90bf 4afe 92bf cd92 7dbe 2f30 dabe
00000010: 70ff 593f 103a 233f ac47 9bbe 1534 09c0
00000020: 4432 ef3e 8cb8 1fbe 42cc bd3f 8661 923e
00000030: 2310 283e bdb9 633f dfd4 1dbe b22a d5bd
00000040: 62e7 703f 6cdc a13f 3fe0 fd3f 46d9 653d
00000050: 3777 fa3e 58c1 93be cab1 35bf 618c 0bc0

weight f4 [6, 4]
-0.19304775 -0.7303297 0.5442541 0.2430796 -0.11969081 -0.6608692 0.9571002 0.4853558
-0.54729867 0.9194424 1.1614013 1.3231258 -1.4928937 2.5678678 -0.49997935 0.30849323
-1.696594 -0.5916545 -0.4886717 -0.45207238 -0.93422914 0.98195976 -0.043283947 0.67473006
00000000: 4fae 45be e3f6 3abf 3d54 0b3f dce9 783e
00000010: 7520 f5bd b92e 29bf 8504 753f 8e80 f83e
00000020: c41b 0cbf 9460 6b3f cca8 943f 305c a93f
00000030: 2417 bfbf f257 2440 4bfd ffbe d3f2 9d3e
00000040: fe29 d9bf ab76 17bf 2d33 fabe 0876 e7be
00000050: a429 6fbf b761 7b3f 824a 31bd 1cbb 2c3f

weight f4 [6, 4]
-0.094718404 0.6942847 -0.84380054 0.004580057 0.8526731 -0.37691393 1.0537918 0.38674763
0.09793981 1.1280259 0.32440883 0.47894576 -0.8242733 -1.2944832 -0.7624884 -1.3313787
0.21664761 -0.35955006 -0.45641407 0.21095464 0.665942 -0.07796027 -0.24755229 -1.0769019
00000000: b9fb c1bd a4bc 313f 5003 58bf 4e14 963b
00000010: c948 5a3f ddfa c0be a6e2 863f c903 c63e
00000020: ab94 c83d 2763 903f ea18 a63e 6138 f53e
00000030: 9303 53bf a0b1 a5bf 7132 43bf 9e6a aabf
00000040: dfd8 5d3e f216 b8be 1baf e9be 7e04 583e
00000050: 2d7b 2a3f a2a9 9fbd 597e 7dbe ecd7 89bf

weight f4 [6, 4]
-0.7190243 1.033703 -0.5877458 -1.2751001 0.081372894 -0.68572026 0.63269705 -0.756049
-0.25449494 0.09317532 0.22256604 1.1838539 0.2925209 0.39890364 -0.18354216 -0.10574009
0.18711334 -0.7751767 -1.9214906 0.13409738 -0.574292 0.19489768 0.055842366 0.2621471
00000000: fa11 38bf 6150 843f 8276 16bf 7b36 a3bf
00000010: d5a6 a63d 5d8b 2fbf 6ff8 213f 6d8c 41bf
00000020: 294d 82be b4d2 be3d 5ae8 633e 8688 973f
00000030: 4dc5 953e 193d cc3e 7af2 3bbe 438e d8bd
00000040: a49a 3f3e fb71 46bf 67f3 f5bf d350 093e
00000050: cd04 13bf 4293 473e f7ba 643d 2538 863e

weight f4 [6, 4]
0.939368 -0.97272104 0.30721784 -0.105604485 0.98199385 -0.4836841 0.7725829 0.61410266
0.99821025 -1.4792912 0.5821577 0.16505001 0.11434864 -0.8356873 0.62255263 -1.92
1.3208941 -0.16608846 0.8040908 1.0084273 0.29043064 -1.3746489 1.9007713 0.036846865
00000000: 6c7a 703f 3f04 79bf a84b 9d3e 2a47 d8bd
00000010: f363 7b3f 71a5 f7be fec7 453f d535 1d3f
00000020: b58a 7f3f 6a59 bdbf 4908 153f df02 293e
00000030: 9f2f ea3d 9aef 55bf 9c5f 1f3f 8fc2 f5bf
00000040: 0f13 a93f 1813 2abe e5d8 4d3f 2514 813f
00000050: 53b3 943e 7ff4 afbf 794c f33f bdec 163d

weight f4 [26, 9]
-0.5692077 -1.6623863 -0.55201274 -0.52228755 -0.63059276 -1.4681292 -0.81652796 -2.0496716
-1.0801924 -0.7122119 0.0034473743 0.300348 -0.2847504 1.2750038 0.038325686 -0.8625931
0.46166232 -0.027862996 1.330385 -0.25782722 -0.563362 -2.887594 -1.5339189 1.0470754
0.20543854 -0.70500696 1.6957005 0.3238772 1.0312543 1.4132913 -0.08892006 -0.6557985
-0.67254037 1.7875562 -0.94316095 -0.6068202 0.0569147 0.59159344 0.52724665 1.2532779
-1.0574914 -1.7409376 1.5562723 -0.03284911 -1.6087245 0.05025064 -0.63651025 0.7140646
1.14922 -0.10514327 0.0041864915 0.666232 0.5303675 0.19138715 0.110562034 0.5879116
0.08670505 -0.9566233 0.70139813 1.0871749 2.080946 -0.9322476 -0.64279175 -0.63603055
1.5411943 -0.7618816 0.12674515 1.3550965 2.0777717 0.70349455 -0.664994 -0.4868051
0.2681116 -0.597134 0.945011 0.4779859 -0.8165827 1.2676861 0.26964906 -0.6027558
-0.9157491 -0.5615767 0.11211538 -1.0176938 -0.6851273 -2.232445 -0.70821595 0.4766811
0.8086936 0.058305457 0.40335605 -1.8388641 -1.1517366 0.10346083 0.61446434 1.3851075
-1.5324869 0.37601155 -1.385967 -0.17752282 -0.27002844 -1.1859018 0.66973335 -1.2539985
-1.161762 0.33856934 -0.7613808 -0.8946624 -0.7748142 0.5537062 0.36174655 0.60733336
-1.4124323 -0.8013743 1.2449095 -1.8099729 0.41294914 1.0723983 0.46655446 -1.1718512
-0.42949894 -0.30257434 1.0057815 -0.41071784 -0.62210333 -0.36453986 -1.4556274 -0.54680514
1.2092092 0.81340533 0.3670023 0.27343428 -2.7918184 -0.8245233 0.46805507 0.3068504
-1.1390927 -0.018590845 -0.17794035 -0.23741725 2.4271898 1.666901 -0.28519052 -1.5074325
-0.5558161 -0.8281741 -1.4137615 -0.4019608 -0.2997318 -0.066691846 0.530465 -1.60114
0.35405308 -2.2906666 -0.8551816 -1.6732057 0.55518717 -1.4598619 0.7249653 -1.3841739
0.3588969 -0.11111628 0.20941135 1.2135391 1.2380252 -0.11394516 2.1477437 0.063160405
0.48690966 0.05556594 0.4092052 -1.766492 1.2308474 2.61652 0.20579992 0.35391456
-1.1533864 2.2171094 0.11892473 0.8080071 -1.096592 -0.10470184 -1.4709468 -1.7383763
-1.9085023 0.010916034 -1.9990518 -1.9658394 2.1330063 -0.9146373 -0.61880976 1.6961308
0.3664268 -0.77449524 -0.043509237 1.7653085 -0.6008953 0.8000601 0.7645805 1.4405318
-0.56243414 -0.080674335 0.46234462 -0.4908812 -1.9697582 0.6733073 -0.11392861 -1.4846418
-0.5388656 -1.4848832 -0.7036114 1.0401727 -2.2615695 0.48277083 -0.5200714 -0.067399964
0.6620695 0.9949173 -0.48513797 0.4377061 1.376356 0.45692354 -0.49562043 -0.19175002
-0.1751379 0.05861833 0.23729819 -0.62320393 0.11646052 -0.13900964 1.4455435 -0.12987375
-3.1435728e-05 0.0012139513
00000000: 99b7 11bf 13c9 d4bf b550 0dbf a3b4 05bf
00000010: 876e 21bf a8eb bbbf fa07 51bf d22d 03c0
00000020: bf43 8abf 8553 36bf 58ed 613b 37c7 993e
00000030: ceca 91be 5333 a33f 65fb 1c3d e7d2 5cbf
00000040: 015f ec3e f040 e4bc 0e4a aa3f ee01 84be
00000050: 7e38 10bf 57ce 38c0 7457 c4bf 9106 863f
00000060: 7b5e 523e 567b 34bf b70c d93f 3bd3 a53e
00000070: 2400 843f bbe6 b43f b81b b6bd 69e2 27bf
00000080: 9b2b 2cbf a4ce e43f ff72 71bf 9258 1bbf
00000090: 631f 693d ab72 173f a3f9 063f 696b a03f
000000a0: e15b 87bf 0bd7 debf ee33 c73f ca8c 06bd
000000b0: afea cdbf 9dd3 4d3d 56f2 22bf f0cc 363f
000000c0: a419 933f 5b55 d7bd d62e 893b 2e8e 2a3f
000000d0: 2ac6 073f fefa 433e 596e e23d 6081 163f
000000e0: 6b92 b13d 44e5 74bf d48e 333f 8c28 8b3f
000000f0: 382e 0540 c7a7 6ebf 008e 24bf e6d2 22bf
00000100: db45 c53f ac0a 43bf 7bc9 013e cd73 ad3f
00000110: 36fa 0440 3818 343f 0c3d 2abf 853e f9be
00000120: ec45 893e c6dd 18bf 3eec 713f 91ba f43e
00000130: 900b 51bf 8a43 a23f 710f 8a3e 344e 1abf
00000140: 886e 6abf 7ec3 0fbf c09c e53d ca43 82bf
00000150: 8164 2fbf 61e0 0ec0 a44d 35bf 8c0f f43e
00000160: 8b06 4f3f b4d1 6e3d af84 ce3e e65f ebbf
00000170: 1b6c 93bf 46e3 d33d 894d 1d3f 344b b13f
00000180: 8828 c4bf 9684 c03e 5e67 b1bf 8bc8 35be
00000190: 2b41 8abe a1cb 97bf a573 2b3f 0683 a0bf
000001a0: 9eb4 94bf f658 ad3e dae9 42bf 9808 65bf
000001b0: 395a 46bf b1bf 0d3f d836 b93e 337a 1b3f
000001c0: 95ca b4bf de26 4dbf 3259 9f3f 31ad e7bf
000001d0: 126e d33e 5944 893f 3ae0 ee3e 38ff 95bf
000001e0: 49e7 dbbe 06eb 9abe 73bd 803f 9c49 d2be
000001f0: 2a42 1fbf f8a4 babe 0052 babf 6cfb 0bbf
00000200: 5ec7 9a3f 553b 503f bae7 bb3e 94ff 8b3e
00000210: 27ad 32c0 f613 53bf eaa4 ef3e 7f1b 9d3e
00000220: cacd 91bf d44b 98bc ff35 36be 821d 73be
00000230: 1457 1b40 035d d53f 7e04 92be 8cf3 c0bf
00000240: f749 0ebf 3803 54bf 23f6 b4bf cecd cdbe
00000250: 7276 99be bc95 88bd 8ecc 073f 28f2 ccbf
00000260: 7246 b53e 489a 12c0 2eed 5abf 9b2b d6bf
00000270: bf20 0e3f c1dc babf 5397 393f 9c2c b1bf
00000280: 56c1 b73e ef90 e3bd ee6f 563e 4055 9b3f
00000290: 9c77 9e3f 145c e9bd a274 0940 3e5a 813d
000002a0: 394c f93e 1c99 633d 5883 d13e 691c e2bf
000002b0: 688c 9d3f 1075 2740 37bd 523e 4a34 b53e
000002c0: 2aa2 93bf 1fe5 0d40 cf8e f33d 8ed9 4e3f
000002d0: 205d 8cbf eb6d d6bd fc47 bcbf 1d83 debf
000002e0: ce49 f4bf 2ad9 323c eee0 ffbf a0a0 fbbf
000002f0: 2d83 0840 ac25 6abf 516a 1ebf d01a d93f
00000300: 4b9c bb3e 5245 46bf be36 32bd a1f5 e13f
00000310: 46d4 19bf bdd0 4c3f 8cbb 433f 5963 b83f
00000320: affb 0fbf 9638 a5bd 6fb8 ec3e c854 fbbe
00000330: 0921 fcbf de5d 2c3f 6753 e9bd be08 bebf
00000340: 19f3 09bf a710 bebf e01f 34bf 6124 853f
00000350: 8ebd 10c0 bd2d f73e 6623 05bf fe08 8abd
00000360: 637d 293f e6b2 7e3f 0164 f8be 041b e03e
00000370: 6f2c b03f e2f1 e93e f6c1 fdbe 1e5a 44be
00000380: 5a57 33be c619 703d 4cfe 723e 4b8a 1fbf
00000390: da82 ee3d 8b58 0ebe 9207 b93f a0fd 04be
000003a0: dbd9 03b8 721d 9f3a

weight f4 [128, 76]
0.10748833 0.06475185 0.10495481 0.04113698 -0.09425862 0.11507246 0.013957272 0.059153013
-0.08470753 -0.010853338 -0.1496275 -0.004000758 0.010141768 -0.09896852 0.045472767 0.036130056
0.00065242924 -0.07120515 -0.08910923 -0.037550963 0.054168724 0.12277336 0.076861 -0.013416951
0.040057942 -0.114617795 -0.102456935 0.056335084 -0.06264871 0.055727832 -0.08149229 -0.047170646
-0.09656626 0.05794776 -0.015425094 0.089714654 0.07980443 0.07183162 0.012459082 -0.04214036
-0.026700398 0.014501066 0.077347174 -0.061297927 0.100642845 -0.012667787 -0.10950692 -0.08389071
0.11397384 0.10411717 -0.07775319 0.050487 0.084256575 0.02328261 0.08412635 -0.06395153
0.05471037 0.054413456 -0.029121798 0.037619755 -0.019917836 0.05184101 -0.017372873 -0.04677255
0.017613197 0.0398532 -0.06759235 0.012898349 0.07372371 -0.009690981 0.038187917 -0.014515849
0.037530433 -0.056006048 -0.065270044 -0.09033344 0.10889382 -0.01239262 0.022699213 -0.038171425
0.1299804 0.09889526 -0.072789036 -0.076199204 -0.067218475 0.021454813 -0.056239616 -0.06585194
-0.03723986 0.030326119 -0.063634 0.0090142675 -0.003039549 -0.051010594 0.021253183 0.1023048
-0.06416319 0.003997366 -0.042359214 0.124530636 -0.098511264 -0.101661704 0.12481142 -0.062753156
0.030902099 -8.703125e-05 -0.015063322 -0.0070973174 0.08118924 0.011791333 -0.10166596 -0.053358767
-0.020679766 0.06816615 -0.06379257 0.12138197 -0.011905284 -0.006576029 0.09892384 0.06835399
0.09228291 0.08205699 -0.05820784 -0.089434914 -0.0030407042 0.07841727 -0.02298418 -0.122733146
0.0590789 0.06825233 -0.06297071 -0.09762866 -0.09856914 0.03729274 -0.009321532 -0.052561034
0.013577989 0.04876073 0.08725667 0.08129237 -0.012336547 -0.109917834 -0.100919075 0.12445346
0.0664331 0.064497665 -0.0995035 0.11827887 0.11858307 0.12781198 -0.08255063 -0.05479912
0.008455709 0.17785108 -0.043572526 -0.058412082 0.04916156 -0.034712665 -0.043811437 -0.0010446148
0.0033233946 -0.09101054 0.09403379 -0.044056285 0.015225015 0.10349082 0.09516065 0.017808482
0.12527843 0.017868144 -0.058461744 0.10855724 0.034638293 -0.10307803 -0.0134950755 -0.08057103
0.1060487 -0.01705034 -0.0991628 0.0032230152 0.07627491 0.037296772 0.04429636 0.023039415
0.04465786 -0.020139674 -0.044139903 -0.10680046 -0.09613741 0.06320302 -0.054571413 -0.01730383
0.034903627 0.007952625 -0.07289499 0.11050543 -0.050957832 0.075848676 -0.13114722 -0.046917576
0.07392613 -0.0715182 0.12088247 -0.09039768 -0.08430954 -0.08728728 -0.00053402066 0.13670117
-0.015801184 0.07702585 0.006746198 -0.027219415 0.08144776 -0.090419196 0.029929297 0.09489889
-0.013068535 0.08504877 -0.043357953 0.10084052 -0.094648674 -0.0059360247 -0.026814947 0.06810277
0.06194056 0.10736461 0.001310762 -0.023945881 0.14764112 0.046525996 0.105709836 -0.07491149
-0.013136716 -0.014521453 0.059764873 0.0891104 -0.013539429 -0.090625204 0.04228114 0.044269778
0.028978603 -0.08387584 0.09851417 0.11319329 0.056137793 -0.100735046 0.08488053 -0.08126746
0.023251303 0.019652998 -0.04543258 0.038149547 -0.10066943 0.028042337 -0.07085578 -0.008470756
00000000: d722 dc3d 9e9c 843d 8cf2 d63d 407f 283d
00000010: aa0a c1bd 1cab eb3d 0bad 643c 6e4a 723d
00000020: 247b adbd 33d2 31bc f437 19be ca18 83bb
00000030: a829 263c 02b0 cabd a741 3a3d 1cfd 133d
00000040: c907 2b3a 01d4 91bd e67e b6bd 0acf 19bd
00000050: 06e0 5d3d 9970 fb3d 4d69 9d3d c5d2 5bbc
00000060: cc13 243d bcbc eabd f1d4 d1bd 9ebf 663d
00000070: f84d 80bd de42 643d 6ee5 a6bd 0236 41bd
00000080: 88c4 c5bd a15a 6d3d 89b9 7cbc 51bc b73d
00000090: 8170 a33d 751c 933d 2d21 4c3c 5f9b 2cbd
000000a0: cbba dabc e195 6d3c 3268 9e3d 8913 7bbd
000000b0: d61d ce3d 8d8c 4fbc 2a45 e0bd e4ce abbd
000000c0: 1e6b e93d 623b d53d 113d 9fbd 75cb 4e3d
000000d0: b68e ac3d 2cbb be3c 704a ac3d 05f9 82bd
000000e0: fb17 603d a5e0 5e3d d690 eebc 2c17 1a3d
000000f0: bb2a a3bc 3d57 543d 8e51 8ebc 9394 3fbd
00000100: 8d49 903c 1c3d 233d dc6d 8abd 9953 533c
00000110: 75fc 963d ecc6 1ebc ef6a 1c3d e2d3 6dbc
00000120: 83b9 193d 9966 65bd 4dac 85bd bd00 b9bd
00000130: b903 df3d 6a0a 4bbc b3f3 b93c a459 1cbd
00000140: 9519 053e 9989 ca3d 6b12 95bd 540e 9cbd
00000150: d7a9 89bd 01c2 af3c 835b 66bd 62dd 86bd
00000160: d388 18bd 7b6e f83c 8b52 82bd 94b0 133c
00000170: 2c33 47bb 7cf0 50bd 281b ae3c 2e85 d13d
00000180: fe67 83bd 56fc 823b db80 2dbd eb09 ff3d
00000190: 46c0 c9bd 0334 d0bd 219d ff3d ba84 80bd
000001a0: 6626 fd3c 8c84 b6b8 27cc 76bc 9d90 e8bb
000001b0: 8b46 a63d 6f30 413c 3e36 d0bd b98e 5abd
000001c0: 9d68 a9bc b29a 8b3d aea5 82bd 1c97 f83d
000001d0: 610e 43bc bb7b d7bb 9598 ca3d 2dfd 8b3d
000001e0: d3fe bc3d 7f0d a83d 586b 6ebd a729 b7bd
000001f0: 8d46 47bb 3c99 a03d 5249 bcbc 845b fbbd
00000200: b7fc 713d e1c7 8b3d caf6 80bd 89f1 c7bd
00000210: 9ede c9bd 46c0 183d 57b9 18bc 3d4a 57bd
00000220: 3776 5e3c 55b9 473d a0b3 b23d 9d7c a63d
00000230: 3a1f 4abc 9a1c e1bd a9ae cebd 75e1 fe3d
00000240: 140e 883d 5a17 843d 7ec8 cbbd 313c f23d
00000250: aedb f23d 25e1 023e 4e10 a9bd 0b75 60bd
00000260: d089 0a3c 981e 363e 1b79 32bd 8241 6fbd
00000270: a25d 493d de2e 0ebd 9f73 33bd 75eb 88ba
00000280: 4fcd 593b bc63 babd ca94 c03d 5d74 34bd
00000290: 5772 793c fff2 d33d 96e3 c23d 18e3 913c
000002a0: fd48 003e 3760 923c 9575 6fbd 4253 de3d
000002b0: e2e0 0d3d 931a d3bd 731a 5dbc 6d02 a5bd
000002c0: 1030 d93d 28ad 8bbc de15 cbbd 3939 533b
000002d0: 0536 9c3d 80c4 183d 1a70 353d 28bd bc3c
000002e0: 29eb 363d f5fb a4bc 0bcc 34bd 33ba dabd
000002f0: b1e3 c4bd 9670 813d 4686 5fbd c3c0 8dbc
00000300: 1bf7 0e3d ba4b 023c f849 95bd ac50 e23d
00000310: 29b9 50bd 8d56 9b3d 754b 06be a52c 40bd
00000320: 9566 973d 2278 92bd 3a91 f73d 6b22 b9bd
00000330: 7baa acbd acc3 b2bd 85fd 0bba 64fb 0b3e
00000340: 7c71 81bc bbbf 9d3d 360f dd3b 40fb debc
00000350: 15ce a63d b32d b9bd 492e f53c 595a c23d
00000360: 691d 56bc 0d2e ae3d 1c98 31bd 7985 ce3d
00000370: 2ad7 c1bd fc82 c2bb 05ab dbbc 7779 8b3d
00000380: 62b5 7d3d fae1 db3d e0cd ab3a 272a c4bc
00000390: 3c2f 173e 0b92 3e3d 667e d83d 326b 99bd
000003a0: 613b 57bc 63eb 6dbc 03cc 743d 837f b63d
000003b0: 7bd4 5dbc b599 b9bd fd2e 2d3d 3a54 353d
000003c0: 8964 ed3c 19c7 abbd ccc1 c93d e2d1 e73d
000003d0: bef0 653d 2d4e cebd d8d5 ad3d 8e6f a6bd
000003e0: 8479 be3c 53ff a03c 8317 3abd b342 1c3d
000003f0: c62b cebd 0bb9 e53c d61c 91bd edc8 0abc

bias f4 [128]
-0.06774852 -0.07215887 -0.08199439 0.059662502 0.010063419 -0.005180066 0.029430885 0.058551706
0.0072749844 0.060431115 -0.011770073 0.04012473 0.03773826 -0.0049785813 0.08989347 0.10782282
0.086014695 -0.022441862 -0.023480035 0.104418516 -0.052969582 0.008605188 -0.0700349 -0.031010069
-0.046276182 0.067971386 -0.05216082 -0.059811186 0.045530885 -0.009971203 0.010165144 -0.08953284
-0.047399625 0.056325253 0.06393936 -0.10345474 -0.075920224 0.045103785 -0.10178923 -0.06372609
-0.07157981 -0.09321653 -0.056589182 0.07880226 -0.11898049 0.087794214 -0.10667983 -0.03045456
-0.041217018 0.064275384 -0.09489441 -0.06701409 -0.108796306 -0.000105728075 0.04166872 0.10517681
0.08909077 -0.02891581 -0.06452551 0.024771076 0.071574554 0.100998245 0.0815799 0.0031088693
-0.09890306 -0.07248935 0.06847073 -0.101338245 -0.088049285 -0.07509985 -0.029806117 0.050994292
0.07159291 0.09901024 0.04928499 0.01701964 -0.019066943 -0.06909352 -0.055511396 -0.011700497
0.091677524 -0.021089425 -0.014154056 -0.003712835 -0.05176485 -0.062199716 0.05029002 -0.08580854
-0.0037664005 -0.008554093 0.015680408 -0.01529735 -0.0582405 -0.026415339 -0.039307117 0.039285716
0.021059329 -0.032341596 0.09232993 0.0064186356 0.05471827 -0.041289534 -0.10967512 -0.094980136
-0.039599575 0.06651665 0.059210848 0.048934206 0.050889898 -0.0659159 -0.031754214 0.026644642
-0.10250729 -0.07004022 -0.07263469 0.025260514 -0.021442609 -0.016672196 0.06658149 -0.065161295
-0.07287261 -0.02342567 0.05973489 0.009898973 -0.09501071 0.08267792 -0.070392095 0.08501739
00000000: bcbf 8abd 08c8 93bd adec a7bd ab60 743d
00000010: 0ae1 243c 8bbd a9bb 0a19 f13c ead3 6f3d
00000020: fe62 ee3b 9e86 773d 44d7 40bc d459 243d
00000030: 6f93 1a3d 5e23 a3bb 111a b83d 36d2 dc3d
00000040: 7928 b03d ffd7 b7bc 3459 c0bc 60d9 d53d
00000050: a2f6 58bd c6fc 0c3c 756e 8fbd d408 febc
00000060: 188c 3dbd 9534 8b3d 96a6 55bd 93fc 74bd
00000070: 987e 3a3d 425e 23bc b48b 263c fe5c b7bd
00000080: 1c26 42bd 4fb5 663d a4f2 823d 14e0 d3bd
00000090: 107c 9bbd bfbe 383d df76 d0bd d382 82bd
000000a0: 6f98 92bd 4fe8 bebd 0fca 67bd 1463 a13d
000000b0: 0bac f3bd 74cd b33d f47a dabd d77b f9bc
000000c0: 2dd3 28bd d0a2 833d 0058 c2bd af3e 89bd
000000d0: 99d0 debd 54ba ddb8 d2ac 2a3d f066 d73d
000000e0: 3975 b63d d9e0 ecbc f325 84bd b6ec ca3c
000000f0: ae95 923d 2bd8 ce3d 5d13 a73d 2cbe 4b3b
00000100: b08d cabd 4c75 94bd 623a 8c3d 6d8a cfbd
00000110: 2f53 b4bd f3cd 99bd f52b f4bc 64df 503d
00000120: 4e9f 923d e1c5 ca3d 0fdf 493d c66c 8b3c
00000130: 4732 9cbc e780 8dbd eb5f 63bd 71b3 3fbc
00000140: 6dc1 bb3d bbc3 acbc 6ae6 67bc 0953 73bb
00000150: 6107 54bd 21c5 7ebd e8fc 4d3d 63bc afbd
00000160: b7d5 76bb 7726 0cbc 3374 803c bca1 7abc
00000170: 978d 6ebd fb64 d8bc 8000 21bd 0fea 203d
00000180: 9d84 ac3c 9f78 04bd 7917 bd3d 6b53 d23b
00000190: 4420 603d 371f 29bd 599d e0bd f284 c2bd
000001a0: 2a33 22bd e239 883d 1387 723d 3c6f 483d
000001b0: ed71 503d eafe 86bd b510 02bd dd45 da3c
000001c0: 58ef d1bd 3f71 8fbd 7fc1 94bd 23ef ce3c
000001d0: 69a8 afbc 2194 88bc e05b 883d 4973 85bd
000001e0: 3c3e 95bd 31e7 bfbc 92ac 743d 4d2f 223c
000001f0: fa94 c2bd 0b53 a93d bb29 90bd 991d ae3d

weight f4 [128, 128]
0.03840976 0.03437588 0.07775075 0.034255926 -0.07870565 0.034309737 0.07376566 -0.03566306
0.08239979 0.08188702 -0.054356914 -0.0011305084 0.04884387 0.061042726 0.0414001 0.055668704
-0.06706273 -0.048228323 -0.12001239 0.0038159334 0.0017760991 0.008636955 0.042562976 -0.008326179
0.0140795065 -0.027172387 -0.019496365 0.023630071 0.062737525 0.046818487 0.009693829 0.058333393
0.065173715 0.0322398 0.02496767 -0.058936547 0.001876825 -0.011771196 0.06962581 -0.121610254
-0.0055613606 -0.075580135 0.010312604 -0.04616578 -0.026784493 -0.031383995 -0.07597093 -0.083285645
-0.03176714 0.08111057 -0.030179309 -0.053190567 1.721509e-05 -0.0058215447 -0.012376187 0.07589596
-0.08108364 0.082325526 0.07306853 0.0694499 -0.047132663 0.016882116 0.024661321 -0.073666714
0.076995365 -0.023819167 -0.07572499 -0.018107887 0.010606955 -0.026029604 -0.027252682 0.0019743433
0.020044703 -0.010430856 -0.07967799 0.00010843313 0.0036695027 0.109683126 0.053028423 0.063526526
0.025747854 -0.05764592 -0.05763044 -0.045994718 0.041508768 -0.009753593 0.0331205 -0.047187503
0.07509284 0.0068099224 0.05987045 0.049454622 -0.084696814 0.03917256 -0.09067345 -0.041235015
-0.021393312 0.078316346 -0.019400615 -0.06571493 -0.073772356 1.3414838e-13 0.011856474 0.0045906375
-0.02801095 0.03198025 0.0013017564 0.025438229 0.089465536 -0.08912515 -0.04395391 0.022430418
-0.024103409 -0.056846768 -0.030083409 0.04749323 0.07616162 0.07710237 0.033995245 -0.10849193
-0.03574882 -0.041145712 -0.014809991 -0.038995657 0.053398803 -0.08258068 0.008217406 0.06935061
-0.059002068 -0.013571801 0.060391087 -0.021911774 -0.04551386 0.054609 -0.0731067 0.08079815
0.100986406 0.0085788155 -0.0053393547 -0.046678953 0.09268857 -0.066678554 -0.02520139 0.04520003
0.023192847 0.058748875 -2.9688374e-05 0.0633546 0.06644045 -0.081314586 -0.092680454 0.102323174
0.08190238 0.11327287 -0.07564266 0.08291288 -0.0322382 0.030720504 0.03972803 -0.05317546
-0.060495075 0.08517676 -0.12570634 0.03061716 0.013328207 0.04298868 0.0053635356 -0.034475006
-0.034174718 -0.016658325 -0.04831106 0.0017073893 -0.046833593 0.08338193 -0.043180045 -0.014671048
-0.06490685 0.079062544 0.05271376 0.07451501 0.08337554 -0.0016311316 0.08495447 -0.01196434
0.080077864 0.029551204 0.052480463 -0.04028067 0.036340065 0.005045519 -0.053421397 0.047318134
-0.054976467 -0.07535459 0.067560814 -0.07782553 0.021396507 0.05483707 -0.0029019923 -0.074142
-0.06342915 -0.043334357 -0.008543708 0.060774334 0.064652026 -0.020115437 -0.023460707 -0.06655905
0.025256528 0.014002135 -0.018286586 -0.032066956 0.0043193046 -0.06959426 0.06144303 0.018698784
0.12629843 -0.09626623 -0.023119438 -0.023644252 0.031022657 -0.014559515 -0.04556439 0.07304534
0.07194026 0.097047724 0.014918668 0.052937053 -0.04921994 1.478494e-10 -0.02273998 0.035678174
0.022273175 0.030393306 -0.0013263506 0.05333865 0.031413455 -0.056022245 -0.04932693 -0.021667901
-0.05791117 -0.051775794 0.01480188 -0.07986303 -0.08516747 0.09583419 -0.074205406 0.05157722
0.016303014 0.010475423 0.0639526 -0.06406991 0.041403808 0.059074137 0.068588 -0.086065255
00000000: 8d53 1d3d b9cd 0c3d c93b 9f3d f14f 0c3d
00000010: 6e30 a1bd 5e88 0c3d 7312 973d 6e13 12bd
00000020: 39c1 a83d 62b4 a73d 5ba5 5ebd 912d 94ba
00000030: 8310 483d f007 7a3d 2793 293d de04 643d
00000040: 2f58 89bd 108b 45bd 0ec9 f5bd bd14 7a3b
00000050: ffcb e83a 0482 0d3c 8456 2e3d 876a 08bc
00000060: bbad 663c a098 debc d7b6 9fbc da93 c13c
00000070: 887c 803d bec4 3f3d ded2 1e3c ffee 6e3d
00000080: cc79 853d e10d 043d 0089 cc3c 7367 71bd
00000090: ccff f53a f9db 40bc fa97 8e3d cc0e f9bd
000000a0: 133c b6bb c2c9 9abd 32f6 283c 5418 3dbd
000000b0: 276b dbbc 818c 00bd a696 9bbd aa91 aabd
000000c0: 431e 02bd 4c1d a63d 993a f7bc 5ade 59bd
000000d0: 2069 9037 a8c2 bebb 7ec5 4abc 576f 9b3d
000000e0: 2e0f a6bd 499a a83d f4a4 953d c03b 8e3d
000000f0: 2e0e 41bd 5d4c 8a3c 8a06 ca3c 93de 96bd
00000100: bfaf 9d3d 6a20 c3bc b415 9bbd fe56 94bc
00000110: cbc8 2d3c 093c d5bc 0441 dfbc fc63 013b
00000120: ca34 a43c 2ee6 2abc 372e a3bd 9866 e338
00000130: 0a7c 703b 8ca1 e03d 5534 593d 321a 823d
00000140: 2aed d23c 211e 6cbd e50d 6cbd f564 3cbd
00000150: 1905 2a3d 89cd 1fbc 5da9 073d af47 41bd
00000160: 46ca 993d c525 df3b b83a 753d ee90 4a3d
00000170: 8675 adbd 6873 203d 00b3 b9bd 0ce6 28bd
00000180: 0741 afbc 5264 a03d 0aee 9ebc 8d95 86bd
00000190: f615 97bd a309 172a a841 423c 0f6d 963b
000001a0: 3877 e5bc b9fd 023d b29f aa3a d563 d03c
000001b0: b539 b73d 3f87 b6bd 0409 34bd ffbf b73c
000001c0: 8374 c5bc 28d8 68bd 7b71 f6bc 4388 423d
000001d0: a0fa 9b3d d9e7 9d3d 993e 0b3d 0431 debd
000001e0: 5b6d 12bd 6888 28bd 9ba5 72bc e9b9 1fbd
000001f0: b4b8 5a3d 0f20 a9bd 4da2 063c b107 8e3d
00000200: 27ac 71bd 425c 5ebc a55c 773d 5280 b3bc
00000210: be6c 3abd b0ad 5f3d f7b8 95bd 8079 a53d
00000220: f6d1 ce3d 298e 0c3c c1f5 aebb 6e32 3fbd
00000230: 81d3 bd3d c48e 88bd 2573 cebc ab23 393d
00000240: edfe bd3c a9a2 703d 4c0b f9b7 0ec0 813d
00000250: ee11 883d 4388 a6bd 40cf bdbd d08e d13d
00000260: 6fbc a73d 9bfb e73d 8aea 9abd 3ace a93d
00000270: 340c 04bd 91a9 fb3c dcb9 223d 83ce 59bd
00000280: afc9 77bd 2771 ae3d 2ab9 00be d7d0 fa3c
00000290: 8d5e 5a3c e614 303d 99c0 af3b aa35 0dbd
000002a0: cafa 0bbd 0a77 88bc d1e1 45bd 7aca df3a
000002b0: 95d4 3fbd 25c4 aa3d 8fdd 30bd d65e 70bc
000002c0: e2ed 84bd 8beb a13d 62ea 573d 539b 983d
000002d0: ccc0 aa3d b2cb d5ba 9cfc ad3d 1406 44bc
000002e0: ddff a33d 5e15 f23c c1f5 563d 58fd 24bd
000002f0: 52d9 143d e254 a53b 65d0 5abd a9d0 413d
00000300: 012f 61bd 8253 9abd 535d 8a3d fe62 9fbd
00000310: ba47 af3c d69c 603d 5a2f 3ebb c3d7 97bd
00000320: 24e7 81bd 5e7f 31bd e9fa 0bbc 82ee 783d
00000330: 4868 843d 21c9 a4bc ab30 c0bc 1c50 88bd
00000340: c7e6 ce3c 3669 653c c0cd 95bc a458 03bd
00000350: f488 8d3b 6f87 8ebd b0ab 7b3d 312e 993c
00000360: 6054 013e 3b27 c5bd fa64 bdbc 97b1 c1bc
00000370: 3a23 fe3c 088b 6ebc baa1 3abd cc98 953d
00000380: 6a55 933d f5c0 c63d 6e6d 743c 86d4 583d
00000390: d99a 49bd e88f 222f 3249 babc 4723 123d
000003a0: 3c76 b63c 62fb f83c f1d8 adba a179 5a3d
000003b0: 65ab 003d 9577 65bd 090b 4abd e280 b1bc
000003c0: 4334 6dbd db12 54bd 9683 723c 3a8f a3bd
000003d0: 486c aebd b744 c43d 01f9 97bd a342 533d
000003e0: e68d 853c 1ca1 2b3c 95f9 823d 1637 83bd
000003f0: 0a97 293d b9f7 713d de77 8c3d fb42 b0bd

bias f4 [128]
0.0005824407 0.035606787 0.033233006 -0.08498528 -0.034994345 -0.075690344 -0.07794864 0.053252056
0.06503208 -0.062163033 -0.024212653 0.033787757 0.08661845 0.078978516 0.040577475 -0.07821901
-0.05457013 0.0726725 -0.07734672 -0.03532939 -0.07326084 -0.06495041 0.017782103 -0.025284845
-0.074582085 -0.06623237 0.07146377 0.07309961 0.039181624 0.04051912 -0.055032328 -0.038046118
0.00088407524 0.046082277 0.0025492904 0.023740225 -0.03665693 -0.01982441 0.024752792 -0.07951475
0.009141148 0.07852225 -0.05122111 -0.02817416 -0.009707117 -0.029534008 0.06279721 0.016346708
0.09394693 -0.023960765 0.025088323 0.023988742 -0.046331186 -0.084108226 0.05631754 -0.056784105
-0.028545469 -0.016292887 -0.091269426 0.062069643 -0.0149719445 -0.043511864 -0.07805192 0.022940174
0.003914873 -0.00884666 -0.027884386 0.020803776 -0.0102265 0.017182078 0.0671145 0.022247901
-0.049499318 -0.006618888 -0.02917418 -0.0058168117 0.05967172 -0.00504826 -0.034371756 -0.044236183
0.054693714 -0.03142459 0.004230994 -0.009498504 -0.067974634 0.026560245 0.07423508 -0.046538666
0.020880498 0.03373197 -0.021500211 -0.008721094 -0.0023946245 0.047488216 -0.0021553626 -0.08411925
-0.023519957 -0.039972786 -0.007168229 -0.04613175 0.005806973 -0.002723513 -0.04426479 -0.009149378
-0.06301034 -0.049231563 0.04851555 0.01582071 0.05487736 0.024382837 0.06033407 0.089174286
0.075747 -0.020235304 -0.034283806 0.077817716 0.05375673 0.077038966 0.07896797 0.05951628
0.011556246 -0.007338803 -0.050852083 0.08453328 -0.05020476 0.049638905 -0.007577986 -0.04635377
00000000: efae 183a 6cd8 113d 551f 083d c30c aebd
00000010: 3b56 0fbd 8a03 9bbd 89a3 9fbd d41e 5a3d
00000020: 8a2f 853d aa9e 7ebd 9d59 c6bc 0865 0a3d
00000030: 0465 b13d 7dbf a13d 9134 263d 4a31 a0bd
00000040: ee84 5fbd 52d5 943d f567 9ebd 8db5 10bd
00000050: c709 96bd b804 85bd c6ab 913c 2a22 cfbc
00000060: 7ebe 98bd d6a4 87bd 995b 923d 40b5 953d
00000070: e97c 203d 60f7 253d 9469 61bd 3fd6 1bbd
00000080: 49c1 673a c5c0 3c3d ff11 273b dc7a c23c
00000090: 9425 16bd cd66 a2bc 5ec6 ca3c a1d8 a2bd
000000a0: c1c4 153c 46d0 a03d 3acd 51bd 7fcd e6bc
000000b0: 9a0a 1fbc 4ef1 f1bc d39b 803d 88e9 853c
000000c0: 3f67 c03d 5e49 c4bc 0786 cd3c 0a84 c43c
000000d0: c5c5 3dbd ef40 acbd 39ad 663d 7396 68bd
000000e0: 30d8 e9bc a978 85bc 77eb babd bd3c 7e3d
000000f0: e34c 75bc 7f39 32bd afd9 9fbd 08ed bb3c
00000100: 5648 803b 95f1 10bc cc6d e4bc ae6c aa3c
00000110: 0d8d 27bc 6ec1 8c3c 5473 893d 3b41 b63c
00000120: ccbf 4abd 42e3 d8bb b1fe eebc f49a bebb
00000130: 556a 743d e06b a5bb 66c9 0cbd 0031 35bd
00000140: 8406 603d 12b7 00bd 26a4 8a3b 9d9f 1bbc
00000150: 4936 8bbd df94 d93c 9008 983d 549f 3ebd
00000160: 940d ab3c 892a 0a3d 3621 b0bc ebe2 0ebc
00000170: 22ef 1cbb 0183 423d fc40 0dbb b746 acbd
00000180: edac c0bc 81ba 23bd 77e3 eabb a5f4 3cbd
00000190: 6c48 be3b f77c 32bb ff4e 35bd 46e7 15bc
000001a0: 910b 81bd 09a7 49bd 3eb8 463d 6f9a 813c
000001b0: 15c7 603d 84be c73c dc20 773d 02a1 b63d
000001c0: 3e21 9b3d 82c4 a5bc 2d6d 0cbd e55e 9f3d
000001d0: 0430 5c3d 9bc6 9d3d f6b9 a13d 58c7 733d
000001e0: 6956 3d3c 577a f0bb 464a 50bd c91f ad3d
000001f0: 82a3 4dbd 2a52 4b3d c150 f8bb 73dd 3dbd

weight f4 [128, 128]
-0.05276706 0.03073746 -0.018465318 0.047316883 -0.016501846 -0.013447598 0.0015120691 0.08421097
-0.08631817 -0.031487606 -0.021534758 0.029978514 0.12215841 0.0044433507 0.01694341 0.061277427
-0.06728011 0.06655326 0.08984433 -0.06895632 -0.01715508 0.027148642 -0.046261232 -0.031089345
0.07681899 0.060626682 -0.06815351 0.07376215 -0.03855669 -0.0032779863 -0.09718031 -0.06467421
0.020548154 -0.069769934 -0.049472548 0.044798546 0.06670896 -0.085227095 0.07317751 0.08212042
-0.02636223 0.031534966 -0.011016644 -0.010884727 0.0006069456 0.05126922 0.08683892 -0.014610811
-0.03595554 0.092427574 0.06643809 -0.061127998 0.089331724 -0.043505155 0.031038567 0.010008127
0.00022104172 -0.044449054 0.009530062 -0.08563517 -0.029097898 0.06607675 0.080031395 -0.016087536
0.052561797 -0.03740846 0.079152144 0.074496016 -0.027020777 0.03699514 0.034352742 0.048524734
-0.02784647 -0.023869276 -0.07894668 0.03929976 -0.028221095 0.04464697 0.06140517 0.00021736634
-0.09262049 -0.07820455 0.01444932 -0.06931568 0.046925418 0.000781266 -0.06018855 0.07358615
0.03950067 0.069442324 -0.0077437214 0.02289434 0.052281473 0.05311766 -0.04701383 -0.0587261
0.01109531 0.08183006 0.064297825 -0.032171085 -0.031506028 0.093708426 0.07955549 0.04446349
-0.05984709 -0.080295146 0.05265066 0.08407733 0.1009472 0.056087308 -0.024194801 -0.00894607
0.058815595 -0.0049485518 -0.059674677 0.06446749 -0.06824648 0.02917273 -0.028922249 -0.014655109
0.08149468 -0.017550463 -0.0009464276 -0.07739418 0.0101744 -0.02930913 0.047945693 0.06516572
-0.052683573 0.07273169 0.027523484 0.09550662 0.0013666983 -0.04319423 -0.014327336 0.0799685
-0.03769897 -0.06730381 -0.040421683 -0.07595698 -0.015785502 0.02950559 0.014294709 0.0037221431
-0.046593685 0.100275934 -0.047225285 -0.051130153 0.09690376 -0.057379656 -0.07278437 -0.07902951
0.04357373 0.036716733 0.0941614 0.02655409 -0.048721895 0.008194829 0.020425303 0.048363056
-0.044227697 0.098214716 -0.0015919092 -0.04395673 -0.0066604353 0.08117524 0.017787732 0.08477889
0.04486016 0.102157034 0.047232095 -0.073601104 -0.013292721 -0.046834677 0.07726509 0.06492016
0.048009455 -0.04284141 -0.03323237 -0.03543422 -0.082056165 -0.025941703 0.08543437 0.044300023
0.022554358 0.075227864 -0.025149526 0.12018777 -0.024214145 0.00336782 -0.032290764 0.01802378
0.026091687 0.09499714 0.0060445485 -0.06726993 0.06301519 0.04135494 0.062952 -0.08615739
-0.088826366 0.08494777 0.08124067 -0.034269284 -0.017759465 0.02108328 -0.0003202535 -0.040533934
-0.030780494 0.0538133 0.09087246 0.07716778 -0.035938103 0.06354153 -0.009496469 0.013858126
-0.07750521 0.00045145914 0.013821693 0.038204513 0.026293058 0.0016522828 0.019592686 0.01751498
-0.058771804 0.08223923 -0.047342215 0.030059664 -0.062035047 -0.0046363017 0.0599696 -0.062817834
0.038578995 0.058575295 0.088565476 0.095111035 -0.071509525 0.0985556 -0.028361127 0.006902247
0.055743635 -0.03362562 0.0039073504 0.08052521 0.034240123 -0.044762466 -0.043435387 0.047173005
-0.042197637 -0.044761635 0.0375678 0.040756322 0.058944978 0.009109896 0.030349212 -0.010167666
00000000: 4622 58bd 20cd fb3c 9444 97bc 59cf 413d
00000010: e12e 87bc 5053 5cbc 9f30 c63a cd76 ac3d
00000020: 95c7 b0bd 26f9 00bd a969 b0bc 8095 f53c
00000030: 302e fa3d 8799 913b e8cc 8a3c 0afe 7a3d
00000040: 28ca 89bd 134d 883d 4e00 b83d f938 8dbd
00000050: cf88 8cbc d466 de3c 6b7c 3dbd 15af febc
00000060: 4653 9d3d af53 783d 1194 8bbd 9c10 973d
00000070: 9fed 1dbd 7cd3 56bb 7806 c7bd ea73 84bd
00000080: 9a54 a83c 8ae3 8ebd baa3 4abd ae7e 373d
00000090: b59e 883d 8b8b aebd 17de 953d c02e a83d
000000a0: 9af5 d7bc cf2a 013d 277f 34bc db55 32bc
000000b0: 6e1b 1f3a acff 513d 9bd8 b13d 2f62 6fbc
000000c0: 1e46 13bd ab4a bd3d b110 883d 5a61 7abd
000000d0: 8df3 b63d 7632 32bd 9844 fe3c 21f9 233c
000000e0: 6fc7 6739 3610 36bd fa23 1c3c 7e61 afbd
000000f0: b75e eebc 3f53 873d 80e7 a33d 02ca 83bc
00000100: 0a4b 573d 9d39 19bd 851a a23d 5e91 983d
00000110: ad5a ddbc 3788 173d 76b5 0c3d dfc1 463d
00000120: 481e e4bc 8089 c3bc ccae a1bd c9f8 203d
00000130: ed2f e7bc bedf 363d fd83 7b3d d5ec 6339
00000140: d0af bdbd b529 a0bd d7bc 6c3c 61f5 8dbd
00000150: de34 403d e0cd 4c3a 4588 76bd 56b4 963d
00000160: 74cb 213d c737 8e3d 0bbf fdbb e98c bb3c
00000170: 1925 563d e791 593d 9391 40bd c78a 70bd
00000180: 1ac9 353c 8596 a73d 94ae 833d d4c5 03bd
00000190: 770c 01bd 34ea bf3d fded a23d 591f 363d
000001a0: 3922 75bd c871 a4bd 38a8 573d bc30 ac3d
000001b0: 68bd ce3d cebb 653d 2d34 c6bc 8a92 12bc
000001c0: 9fe8 703d 7627 a2bb 6f6d 74bd 8807 843d
000001d0: cfc4 8bbd a6fb ee3c 5aee ecbc fb1b 70bc
000001e0: afe6 a63d fdc5 8fbc ae19 78ba d780 9ebd
000001f0: 87b2 263c b319 f0bc b462 443d 9b75 853d
00000200: bbca 57bd 5af4 943d ee78 e13c fa98 c33d
00000210: c922 b33a 6fec 30bd 34bd 6abc 86c6 a33d
00000220: 3c6a 1abd 94d6 89bd 3591 25bd 558f 9bbd
00000230: 9950 81bc b5b5 f13c 5b34 6a3c 33ef 733b
00000240: 05d9 3ebd 785d cd3d 4d6f 41bd da6d 51bd
00000250: 7b75 c63d ee06 6bbd f90f 95bd 39da a1bd
00000260: 5e7a 323d 4964 163d b1d7 c03d f787 d93c
00000270: 9c90 47bd 9b43 063c f752 a73c 5718 463d
00000280: 1a28 35bd cc24 c93d 9ca7 d0ba f90b 34bd
00000290: c83f dabb 343f a63d 94b7 913c 8ea0 ad3d
000002a0: 4abf 373d b537 d13d 7176 413d 2dbc 96bd
000002b0: b6c9 59bc b8d5 3fbd 293d 9e3d dcf4 843d
000002c0: 90a5 443d 797a 2fbd aa1e 08bd 7923 11bd
000002d0: 100d a8bd b283 d4bc 37f8 ae3d f173 353d
000002e0: ebc3 b83c 1111 9a3d 6106 cebc 0125 f63d
000002f0: be5c c6bc a5b6 5c3b 5243 04bd 9ba6 933c
00000300: 3cbe d53c dc8d c23d 5911 c63b d1c4 89bd
00000310: 1c0e 813d cc63 293d faec 803d 4973 b0bd
00000320: 99ea b5bd 19f9 ad3d 8261 a63d f35d 0cbd
00000330: 4c7c 91bc d8b6 ac3c b2e7 a7b9 e906 26bd
00000340: 6027 fcbc 566b 5c3d 571b ba3d 240a 9e3d
00000350: d533 13bd 1022 823d 1497 1bbc 310d 633c
00000360: 0dbb 9ebd d2b1 ec39 6274 623c 567c 1c3d
00000370: 8a64 d73c 6991 d83a d780 a03c 937b 8f3c
00000380: b4ba 70bd 0b6d a83d e9e9 41bd af3f f63c
00000390: 7618 7ebd 1eec 97bb afa2 753d a3a6 80bd
000003a0: 0205 1e3d a6ec 6f3d d161 b53d 93c9 c23d
000003b0: 9673 92bd 85d7 c93d 9855 e8bc 3f2c e23b
000003c0: 7053 643d 05bb 09bd 3b09 803b 67ea a43d
000003d0: 5f3f 0c3d d958 37bd 4ee9 31bd 7b38 413d
000003e0: 6ed7 2cbd fa57 37bd b2e0 193d 1af0 263d
000003f0: 4a70 713d ac41 153c e99e f83c 4896 26bc

bias f4 [128]
0.09317867 3.1947864e-05 -0.04769906 0.05706303 0.07107471 0.04414417 -0.010395028 -0.048967186
0.034390707 0.025290746 -0.07522118 0.047600757 0.044248525 0.05543075 -0.061350245 0.040261533
-0.038646065 0.010417039 -0.0073956344 -0.033504967 -0.042955954 0.063365236 -0.011808162 0.051589306
0.0443178 0.06974935 -0.041906673 0.039420567 0.05072486 -0.03714442 -0.037784338 0.049214505
0.03246288 -0.018208524 0.0625364 0.0025644407 0.0570489 -0.00042705672 0.053821485 0.03377444
-0.06439733 0.07443592 0.084263675 0.046137866 0.036074106 0.05477342 -0.029876934 0.07697046
-0.077658676 -0.08730442 -0.0062910286 -0.06601517 0.03340945 0.0025630882 0.027240848 0.07408003
-0.03382717 0.08821299 0.043345504 -0.064142406 -0.044780143 -0.033201244 0.0360549 0.06523325
-0.05974769 -0.042786885 -0.08555522 -0.07191208 -0.039462615 0.0026703724 -0.08047447 0.046942413
0.055213984 0.00977873 0.08528813 0.065208994 -0.009081036 0.015904626 -0.002194091 -0.07878145
-0.046219233 -0.070022196 -0.076312706 -0.008267668 0.00256335 -0.017823461 0.05711367 0.03587009
-0.007607567 -0.070109054 -0.06702927 -0.068634965 -0.019104162 0.023690829 0.06445061 0.054459464
0.023002489 0.047165263 -0.06430298 0.025535649 -0.018512579 -0.004697098 0.07646759 0.035548773
-0.029752817 0.016602706 -0.0310327 -0.05160098 -0.06522603 -0.072591774 0.07298697 0.03992948
-0.028897328 -0.035310555 -0.07961375 -0.046930753 0.042572923 -0.03477228 0.034287598 -0.027185913
-0.07863922 0.038053177 0.03728637 0.017818218 -0.06198933 -0.017909158 0.090670615 0.0129671665
00000000: 75d4 be3d c2ff 0538 1760 43bd ecba 693d
00000010: 9e8f 913d 84d0 343d e84f 2abc d191 48bd
00000020: 45dd 0c3d 8a2e cf3c 900d 9abd 03f9 423d
00000030: f13d 353d 5b0b 633d 654a 7bbd 47e9 243d
00000040: 564b 1ebd 3aac 2a3c 1457 f2bb 813c 09bd
00000050: 95f2 2fbd a2c5 813d 0577 41bc 4f4f 533d
00000060: 9586 353d bfd8 8e3d 55a6 2bbd 7677 213d
00000070: dfc4 4f3d bf24 18bd c0c3 1abd 2695 493d
00000080: ccf7 043d 0b2a 95bc 1613 803d 2d10 283b
00000090: 1bac 693d 95e6 dfb9 eb73 5c3d 1157 0a3d
000000a0: bfe2 83bd dc71 983d 6f92 ac3d 0ffb 3c3d
000000b0: 71c2 133d 185a 603d 79c0 f4bc b0a2 9d3d
000000c0: 830b 9fbd a9cc b2bd f924 cebb f632 87bd
000000d0: 59d8 083d 7cf9 273b 3328 df3c 45b7 973d
000000e0: 5c8e 0abd 03a9 b43d 0e8b 313d 185d 83bd
000000f0: 626b 37bd 07fe 07bd 4eae 133d 0399 853d
00000100: feb9 74bd 4d41 2fbd 9337 afbd a446 93bd
00000110: 8da3 21bd 6a01 2f3b cdcf a4bd b046 403d
00000120: 0f28 623d f736 203c 8bab ae3d 4b8c 853d
00000130: a0c8 14bc 6b4a 823c bdca 0fbb 2b58 a1bd
00000140: 6150 3dbd cc67 8fbd d649 9cbd 1d75 07bc
00000150: e0fd 273b 8202 92bc 06f0 693d 84ec 123d
00000160: e648 f9bb 5695 8fbd a446 89bd 7d90 8cbd
00000170: 5580 9cbc 4513 c23c aefe 833d e310 5f3d
00000180: b76f bc3c 5d30 413d 48b1 83bd 2330 d13c
00000190: b1a7 97bc 1dea 99bb 0a9b 9c3d 979b 113d
000001a0: 2ebc f3bc 6602 883c 4a38 febc 8d5b 53bd
000001b0: 3a95 85bd ffaa 94bd 317a 953d 188d 233d
000001c0: 17ba ecbc cda1 10bd 890c a3bd 763a 40bd
000001d0: f260 2e3d 616d 0ebd 2771 0c3d feb4 debc
000001e0: 990d a1bd a6dd 1b3d 98b9 183d 83f7 913c
000001f0: 86e8 7dbd 3ab6 92bc 84b1 b93d 3d74 543c

weight f4 [128, 128]
-0.0011066592 0.024090946 0.089620635 0.081716634 0.016180785 0.08815602 -0.0015786166 0.037135627
0.06088669 -0.07869023 -0.07208739 -0.058059637 -0.074403696 0.03552211 -0.0018527351 -0.018299423
-0.036535032 -0.0844314 -0.030224228 0.09253289 -0.019558132 -0.0070738085 -0.038356714 -0.045908984
0.07527646 -0.00859856 -0.0059769074 0.06063181 0.0015632886 0.0352764 -0.041610666 0.05483978
-0.007311949 0.048981234 -0.08160543 0.015862206 0.01581963 -0.063881814 0.07244707 -0.050830066
-0.028045218 0.05635252 -0.0007220317 0.04726792 0.078462265 -0.006474544 0.017259965 -0.054802317
-0.048488382 -0.010014687 0.05745906 0.069356844 0.095836185 -0.037715413 -0.060667593 0.0595645
0.06518578 0.10312803 0.079255596 -0.038913686 0.074899025 0.0707232 -0.015606452 -0.056002446
-0.057555597 -0.026555052 0.060106736 0.01341936 -0.026619246 -0.011608879 0.082075074 0.023907287
-0.045220375 0.044818476 -0.06285969 0.07101291 -0.015882924 0.052356273 0.041496493 0.05331745
-0.0047057257 0.052677065 -0.018865515 0.0941557 -0.02696178 -0.08574973 -0.018433677 0.040573124
-0.007082857 -0.05201889 -0.017793426 0.04338327 0.031066447 0.08368884 -0.022760186 0.015759232
-0.041629337 -0.0851818 -0.013723937 -0.001436515 0.07781025 -0.07838646 -0.05406519 -0.030905576
-0.016709462 0.014600127 0.059133563 -0.0012149154 0.043132592 0.04610137 -0.02834842 -0.033977076
0.02157545 -0.053206496 0.07268941 0.030840594 -0.005880745 -0.00875484 0.030447822 0.033616412
-0.08226937 -0.09287733 0.017952368 -0.034870084 -0.0686941 0.03376854 0.050991487 -0.076916635
0.0049175867 0.07711571 0.05376949 0.021295482 0.0237797 -0.047439795 0.062135108 -0.04906207
0.000798494 -0.039501786 0.0005444893 -0.061315767 -0.016041901 -0.033170342 0.06506376 0.031204715
0.03928874 -0.016889574 -0.08475317 -0.067192756 0.021751529 0.12887208 -0.042261433 -0.026614439
0.043559592 0.07868219 -0.053053055 -0.024436427 -0.078607865 0.0343965 -0.027700568 -0.016667752
0.07092749 -0.028255397 -0.042498868 -0.06651325 0.09949743 0.015641315 0.058146156 -0.011988229
-0.019251939 0.019032808 0.06984468 0.030625232 -0.07255114 -0.022555504 -0.0061296816 0.075226404
-0.054226715 -0.019318845 -0.007911378 0.10102859 0.03337304 0.064866126 -0.07741322 0.043673553
-0.015866442 -0.0539612 0.04231383 -0.083297424 0.014488402 -0.0422835 0.009494296 -0.051133137
-0.041808322 0.07680735 -0.00031921247 -0.0051230364 -0.08832405 -0.06712696 0.014385398 0.077565745
-0.04646432 0.091492645 0.009337183 0.05825089 0.01701615 -0.053282008 0.038040023 0.086370304
-0.028836926 -0.043118585 -0.039312895 -0.10754205 0.0022519054 0.020528037 0.048315175 -0.03477207
-0.06982375 -0.078285 -0.0033702827 -0.013379836 0.023598341 -0.06785516 -0.040337477 0.034497198
-0.0084921075 0.056314353 0.02107591 -0.06026403 0.08086548 -0.048010565 0.05138273 0.11129667
0.07108448 0.07717965 0.012084277 -0.062413998 -0.030415554 -0.05252638 0.04588398 0.0155231245
0.030562816 0.013633978 -0.038266394 0.07685717 0.044596504 -0.00030821678 -0.018827932 -0.07803129
-0.035057582 0.09185878 -0.022445876 0.014601347 -0.026808517 -0.009788853 0.025918039 -0.013183888
00000000: 520d 91ba 605a c53c 068b b73d 0d5b a73d
00000010: 918d 843c 258b b43d 95e9 ceba 871b 183d
00000020: 5264 793d 5828 a1bd 8ea2 93bd f1cf 6dbd
00000030: f760 98bd a27f 113d 79d7 f2ba ace8 95bc
00000040: c2a5 15bd 5fea acbd cd98 f7bc e281 bd3d
00000050: 6038 a0bc 68cb e7bb ee1b 1dbd 0f0b 3cbd
00000060: 8b2a 9a3d f9e0 0cbc efd9 c3bb 1059 783d
00000070: 43e7 cc3a fd7d 103d f26f 2abd ad9f 603d
00000080: 1399 efbb 8ca0 483d bf20 a7bd 75f1 813c
00000090: 2b98 813c 78d4 82bd 215f 943d 3033 50bd
000000a0: 16bf e5bc e6d1 663d ba46 3dba 029c 413d
000000b0: d3b0 a03d 6928 d4bb c564 8d3c 6578 60bd
000000c0: c19b 46bd a414 24bc 315a 6b3d f60a 8e3d
000000d0: c345 c43d 7a7b 1abd 957e 78bd e8f9 733d
000000e0: 1f80 853d ca34 d33d c250 a23d f563 1fbd
000000f0: a964 993d 53d7 903d 34b2 7fbc d262 65bd
00000100: 6bbf 6bbd fb89 d9bc 7b32 763d e0dc 5b3c
00000110: 9b10 dabc 2b33 3ebc fa16 a83d 37d9 c33c
00000120: 0039 39bd 9493 373d 95bc 80bd 376f 913d
00000130: e81c 82bc 8873 563d 3af8 293d 6663 5a3d
00000140: 7d32 9abb e8c3 573d da8b 9abc b4d4 c03d
00000150: f3de dcbc 8e9d afbd 3902 97bc 0130 263d
00000160: 5017 e8bb c211 55bd 85c3 91bc a8b2 313d
00000170: 107f fe3c 0e65 ab3d 9273 babc 8119 813c
00000180: 8683 2abd cc73 aebd 5dda 60bc 7249 bcba
00000190: fb5a 9f3d 1589 a0bd 7673 5dbd b12d fdbc
000001a0: 48e2 88bc 5f35 6f3c 0936 723d cc3d 9fba
000001b0: cdab 303d cad4 3c3d f23a e8bc 8c2b 0bbd
000001c0: 00bf b03c 0eef 59bd 2fde 943d 6aa5 fc3c
000001d0: 44b3 c0bb 7670 0fbc b66d f93c 5db1 093d
000001e0: d87c a8bd 7836 bebd d810 933c efd3 0ebd
000001f0: 7eaf 8cbd e150 0a3d 73dc 503d 7886 9dbd
00000200: b523 a13b d7ee 9d3d 663d 5c3d dd73 ae3c
00000210: a5cd c23c 3b50 42bd 6281 7e3d 4ff5 48bd
00000220: 0652 513a a0cc 21bd 0fbc 0e3a 3e26 7bbd
00000230: 4e6a 83bc a0dd 07bd 2640 853d 08a1 ff3c
00000240: 3bed 203d 015c 8abc 1293 adbd 5b9c 89bd
00000250: 4330 b23c 0bf7 033e 531a 2dbd 8606 dabc
00000260: 8b6b 323d 2124 a13d 294e 59bd e72e c8bc
00000270: 29fd a0bd 58e3 0c3d 4dec e2bc cf8a 88bc
00000280: 6f42 913d dd77 e7bc 4b13 2ebd 1938 88bd
00000290: 4fc5 cb3d 3722 803c aa2a 6e3d 476a 44bc
000002a0: 3eb6 9dbc b1ea 9b3c ba0a 8f3d c4e1 fa3c
000002b0: b195 94bd 52c6 b8bc 7fdb c8bb 4d10 9a3d
000002c0: d51c 5ebd 8e42 9ebc b99e 01bc 14e8 ce3d
000002d0: 2bb2 083d 88d8 843d d38a 9ebd 0ae3 323d
000002e0: 57fa 81bc 6b06 5dbd 4451 2d3d d797 aabd
000002f0: c360 6d3c 7731 2dbd f78d 1b3c fb70 51bd
00000300: 343f 2bbd 2c4d 9d3d f95b a7b9 25df a7bb
00000310: 3de3 b4bd dc79 89bd bbb0 6b3c cada 9e3d
00000320: 5f51 3ebd 7f60 bb3d fcfa 183c 7c98 6e3d
00000330: 7465 8b3c 3c3e 5abd dbcf 1b3d eae2 b03d
00000340: 6b3b ecbc 1d9d 30bd 8f06 21bd 023f dcbd
00000350: b494 133b 6a2a a83c 22e6 453d 286d 0ebd
00000360: c1ff 8ebd e353 a0bd f6df 5cbb 1a37 5bbc
00000370: 4f51 c13c a5f7 8abd e938 25bd ef4c 0d3d
00000380: 7b22 0bbc e1a9 663d 63a7 ac3c 6ad7 76bd
00000390: cd9c a53d baa6 44bd b376 523d 82ef e33d
000003a0: bd94 913d 5d10 9e3d 22fd 453c d2a5 7fbd
000003b0: 0a2a f9bc e725 57bd d7f0 3b3d b454 7e3c
000003c0: df5e fa3c 0c61 5f3c 39bd 1cbd 4b67 9d3d
000003d0: d3aa 363d 2898 a1b9 093d 9abc dece 9fbd
000003e0: 8a98 0fbd 7520 bc3d 6ae0 b7bc 7d3a 6f3c
000003f0: 899d dbbc 6d61 20bc 1152 d43c 3c01 58bc

bias f4 [128]
-0.012708124 -0.0031986393 0.027984897 0.05176837 0.002870895 -0.016442345 -0.074739076 0.007283733
0.025751578 -0.0037182958 0.07738702 -0.035666417 -0.034484286 0.034420576 -0.012884281 0.078227915
0.07476434 0.033905342 0.090762965 -0.011847146 0.059999388 -0.07244349 0.009344561 -0.03444616
0.09271613 -0.0146531975 0.07141931 0.0072771786 0.03495858 0.012833483 -0.05347532 0.043578506
-0.005799696 0.003457656 -0.004044014 -0.03139666 0.056816686 -0.043158066 -0.044178028 -0.03447734
0.061749384 -0.07765075 -0.03481967 0.013811135 4.7475936e-05 0.014623304 0.0016680151 0.03806375
-0.0053172144 0.06176339 -0.04430527 -0.059021417 0.0112582445 0.075269386 -0.051658664 0.050075922
0.07922203 -0.03506816 -0.048535503 0.011384058 0.037459243 -0.08444405 -0.005809472 -0.022987928
0.012210895 0.065163806 0.089916974 0.009143261 -0.024133349 0.07432493 0.04759054 0.04567867
0.07267909 0.07934962 -0.027270056 -0.04893301 -0.0010624301 0.04617248 -0.0018677029 -0.070164084
-0.036327295 -0.031831115 -0.0399978 -0.041806675 -0.004120967 0.04897878 0.04163942 0.09052779
-0.05679773 -0.0075170416 0.058169175 -0.04646895 -0.052822623 0.041123513 -0.021406012 -0.08236367
-0.075665854 0.0425309 0.017134806 -0.00800077 -0.04237722 0.048985217 0.0100158695 0.026017332
0.03813076 -0.048416954 -0.0045848633 0.032044765 -0.03555353 0.06905339 0.080244035 0.0036809451
0.07504862 -0.008489799 0.041762 -0.046508692 0.0054909545 -0.03703037 0.05172623 -0.045392986
-0.0005093756 0.032060552 0.0040968126 0.07554099 -0.038386546 -0.053223025 0.011313369 0.005274531
00000000: bc35 50bc 43a0 51bb 9540 e53c 120b 543d
00000010: a025 3c3b 19b2 86bc cd10 99bd 62ac ee3b
00000020: f9f4 d23c a7ae 73bb 167d 9e3d f316 12bd
00000030: 653f 0dbd 97fc 0c3d 9718 53bc f535 a03d
00000040: 0c1e 993d 54e0 0a3d efe1 b93d 881a 42bc
00000050: ebc1 753d 415d 94bd ee19 193c 6b17 0dbd
00000060: f4e1 bd3d f713 70bc 4a44 923d 6675 ee3b
00000070: ba30 0f3d 8743 523c f008 5bbd 607f 323d
00000080: 600b bebb d799 623b a683 84bb c999 00bd
00000090: 9db8 683d 83c6 30bd 05f4 34bd 1c38 0dbd
000000a0: ecec 7c3d 5b07 9fbd 129f 0ebd 1948 623c
000000b0: e620 4738 9596 6f3c 4da1 da3a bce8 1b3d
000000c0: 073c aebb 9cfb 7c3d 7179 35bd 71c0 71bd
000000d0: 8074 383c d626 9a3d 0998 53bd 691c 4d3d
000000e0: 293f a23d a2a3 0fbd 2acd 46bd 3384 3a3c
000000f0: dd6e 193d 01f1 acbd 625d bebb 2e51 bcbc
00000100: 3510 483c 9a74 853d 6426 b83d 9ecd 153c
00000110: 4db3 c5bc ab37 983d 4cee 423d 8f19 3b3d
00000120: c6d8 943d 0e82 a23d 7465 dfbc fb6d 48bd
00000130: 3d41 8bba 5b1f 3d3d b6cd f4ba 30b2 8fbd
00000140: eecb 14bd 5861 02bd bcd4 23bd 7a3d 2bbd
00000150: 2d09 87bb f99d 483d 198e 2a3d a266 b93d
00000160: bda4 68bd 8451 f6bb cd42 6e3d 3a56 3ebd
00000170: 895c 58bd 2171 283d a95b afbc 49ae a8bd
00000180: b3f6 9abd e234 2e3d 4b5e 8c3c a915 03bc
00000190: bc93 2dbd b9a4 483d 9a19 243c 4d22 d53c
000001a0: 002f 1c3d db50 46bd 9f3c 96bb 5f41 033d
000001b0: 94a0 11bd dd6b 8d3d fc56 a43d 033c 713b
000001c0: 17b3 993d cc18 0bbc a20e 2b3d e67f 3ebd
000001d0: 77ed b33b 28ad 17bd e2de 533d ffed 39bd
000001e0: 9e87 05ba ed51 033d 8e3e 863b 3cb5 9a3d
000001f0: 363b 1dbd 6300 5abd b55b 393c f9d5 ac3b
