models/agModels-predicttop10_votes/models/NeuralNetTorch_BAG_L1/S8F8/net.params (torch, 248949 bytes, 16 tensors)

weight f4 [6, 4]
000000 c2 d5 8f bf f8 67 93 bf 9b 13 75 be e5 e1 dd be
       -1.1237109 -1.1516104 -0.2393326 -0.43336406
000010 56 a1 57 3f fb 18 2f 3f f7 2d 98 be 58 8e 08 c0
       0.84230554 0.6839749 -0.29722568 -2.133688
000020 4e 2c f2 3e 54 46 26 be 2c 3d ba 3f 93 9d 89 3e
       0.47299427 -0.16237766 1.4549918 0.26878032
000030 77 72 2b 3e 46 40 5f 3f 0b be 0b be 61 13 d8 bd
       0.16742884 0.8720745 -0.13646714 -0.10550571
000040 10 cd 72 3f f7 f7 9f 3f 69 e2 fd 3f 45 36 33 3d
       0.9484415 1.2497548 1.983472 0.043752927
000050 ae 1b 0b 3f 0f fa ad be ae f8 43 bf 9e 4a 0f c0
       0.5433911 -0.33979842 -0.7655133 -2.2389293

weight f4 [6, 4]
000000 17 5e 5c be a8 02 3c bf aa c3 0d 3f 00 48 84 3e
       -0.21520267 -0.73441553 0.55376685 0.25836182
000010 ef b8 13 be cf 26 2b bf ea 0e 6f 3f be a5 f5 3e
       -0.14426015 -0.6685609 0.9338213 0.47978014
000020 fc bf 0b bf 64 ce 69 3f 6d 72 90 3f 1c 3b a6 3f
       -0.5458982 0.9133055 1.128492 1.2986789
000030 54 48 be bf 2e d9 24 40 cb fb f8 be 59 a6 a9 3e
       -1.4865823 2.5757556 -0.48629603 0.33134726
000040 96 cb d1 bf 69 be 13 bf 99 56 f0 be 4e f2 f6 be
       -1.6390254 -0.5771242 -0.4694107 -0.4823174
000050 43 ac 7d bf eb f6 84 3f ad 1d 9e bd 95 f5 3a 3f
       -0.99090976 1.0387853 -0.07720504 0.7303098

weight f4 [6, 4]
000000 e9 36 c9 bd a4 fc 2f 3f eb 05 58 bf bf 57 a6 bb
       -0.098249264 0.68744874 -0.8438403 -0.005076378
000010 19 a7 5c 3f 2b c1 be be 1d e3 86 3f 20 56 c1 3e
       0.8619247 -0.3725675 1.053806 0.3776102
000020 cf 98 a4 3d 4a eb 8c 3f 58 56 92 3e a4 31 e3 3e
       0.080369584 1.1009305 0.285815 0.4437381
000030 94 f5 51 bf e0 6e a6 bf 71 c7 41 bf 6f 5a aa bf
       -0.8201535 -1.3002586 -0.7569495 -1.3308848
000040 35 4d 5e 3e d8 c7 a7 be 3a 9f d9 be 03 e3 7f 3e
       0.2170914 -0.32769656 -0.42504293 0.24988942
000050 5c b2 38 3f 8b 98 f1 bd bf 6e 98 be 4f 26 91 bf
       0.72147155 -0.117966734 -0.29771993 -1.1339816

weight f4 [6, 4]
000000 bb e5 31 bf d3 bb 84 3f c7 85 19 bf da 9a a2 bf
       -0.69491166 1.0369819 -0.59969753 -1.2703507
000010 1d 75 a7 3d ea 1f 2d bf 39 45 23 3f e1 01 3e bf
       0.081766345 -0.6762682 0.637775 -0.74221617
000020 1e 60 84 be 8b 57 e2 3d d0 79 7e 3e f6 9a 96 3f
       -0.25854582 0.11051854 0.24851155 1.176604
000030 d0 05 99 3e 5d a4 cb 3e fd 9e 52 be 5d 64 de bd
       0.29887247 0.39773837 -0.20568462 -0.108589865
000040 c8 8c 35 3e a3 dc 4a bf 93 c7 f2 bf 3e 07 0b 3e
       0.17729485 -0.79242915 -1.8967155 0.13576981
000050 81 14 21 bf 0a 1d 79 3e 13 47 bd 3d 2e 1c a0 3e
       -0.6292191 0.24327484 0.09242072 0.312715

weight f4 [6, 4]
000000 89 a4 73 3f 88 58 7a bf 2d f5 97 3e 5c f8 d7 bd
       0.95172936 -0.9779134 0.29679242 -0.10545418
000010 52 9f 7b 3f d5 24 01 bf a6 cd 43 3f 79 82 1b 3f
       0.9828998 -0.50446826 0.7648567 0.6074596
000020 03 cc 7b 3f 83 14 bf bf 21 2c 15 3f 95 be 1c 3e
       0.9835817 -1.4928135 0.5827046 0.15307076
000030 2d e0 f3 3d f1 9b 4f bf e1 6b 23 3f 9c 3f f5 bf
       0.119079925 -0.8109732 0.63836485 -1.9160037
000040 f1 f2 a8 3f a2 76 32 be 8a 9a 45 3f 22 b5 81 3f
       1.319914 -0.17428067 0.7718893 1.0133402
000050 83 f1 ae 3e 13 56 b7 bf 0c c2 fa 3f 5e 80 8d 3d
       0.34168634 -1.4323143 1.9590468 0.0690925

weight f4 [26, 9]
000000 ce 69 03 bf d1 c4 d7 bf a4 59 07 bf 6d 49 ff be
       -0.5133332 -1.6856939 -0.52871156 -0.49860707
000010 19 79 23 bf a7 20 bd bf b1 7e 5c bf 26 0f 04 c0
       -0.63856655 -1.477559 -0.86130816 -2.0634246
000020 eb cd 89 bf dd fd 31 bf 18 64 ab 3c 48 54 a4 3e
       -1.0765966 -0.6952799 0.020921752 0.32095551
000030 4c fb 8a be 89 a3 a2 3f a2 f4 e6 3b 1f 5f 5d bf
       -0.2714485 1.2706157 0.0070482055 -0.8647327
000040 ee 37 e6 3e 64 83 9a 3b db 25 aa 3f bc ce 89 be
       0.44964546 0.00471537 1.3292803 -0.26915538
000050 7f b2 10 bf fb e5 38 c0 49 ef c3 bf 12 28 82 3f
       -0.56522363 -2.889037 -1.5307399 1.0168478
000060 45 31 5d 3e 00 e8 36 bf 79 f3 da 3f f2 cd b4 3e
       0.21600826 -0.71447754 1.7105552 0.35313374
000070 b2 ba 7f 3f b6 da b5 3f 78 13 98 bd 8d fa 22 bf
       0.9989425 1.420737 -0.07425588 -0.6366356
000080 b3 5d 2c bf 4e 06 de 3f b2 c1 70 bf e4 a4 1d bf
       -0.67330474 1.7345674 -0.94045556 -0.6157973
000090 98 40 88 3d dc b7 14 3f 9e 57 05 3f e3 0a 9e 3f
       0.06652945 0.5809305 0.5208682 1.2347072
0000a0 7b 39 8b bf 33 71 dc bf 6a 1b c5 3f 8f 07 e3 3c
       -1.0876917 -1.7222046 1.5398991 0.027713565
0000b0 f9 9e cc bf 66 55 79 3d c9 d6 1c bf 42 c4 38 3f
       -1.5986015 0.060872458 -0.61265236 0.72174466
0000c0 19 8c 94 3f cc 60 0d be 41 18 8a bd 94 2f 2a 3f
       1.1605254 -0.13806456 -0.06742907 0.6647885
0000d0 c3 fb 0a 3f 56 fd 75 3e 97 45 3f 3d b5 01 1e 3f
       0.5429041 0.24022421 0.046697225 0.61721355
0000e0 61 91 87 3d 92 80 7e bf 95 8c 36 3f 25 63 91 3f
       0.06619526 -0.9941493 0.7130826 1.1358382
0000f0 d1 35 08 40 36 6a 69 bf 6e 87 32 bf 78 4d 17 bf
       2.1282847 -0.9117769 -0.697379 -0.5910258
000100 e2 90 c4 3f 18 f5 3e bf c1 e3 06 3e bd 8b af 3f
       1.5356715 -0.74592733 0.13172819 1.371452
000110 29 67 02 40 c1 7a 2b 3f 78 11 35 bf 9c 37 e2 be
       2.0375464 0.6698418 -0.7072978 -0.44183052
000120 46 a1 7c 3e 37 48 17 bf 9f 83 70 3f 0b 17 ff 3e
       0.24670896 -0.59094566 0.9395084 0.49822268
000130 86 ca 52 bf 92 f6 a4 3f 86 60 87 3e 57 5e 1e bf
       -0.82340276 1.2887747 0.2644083 -0.618627
000140 c9 be 6b bf 5b 3c 12 bf 65 c8 04 3e 84 f4 82 bf
       -0.9208799 -0.57123345 0.1296707 -1.023087
000150 99 ef 32 bf a8 82 0d c0 9a be 28 bf 69 ae fa 3e
       -0.69896847 -2.2110996 -0.65915835 0.4896119
000160 0f c4 46 3f d3 a1 86 3d 43 40 e0 3e b3 70 eb bf
       0.7764291 0.06573834 0.43799028 -1.8393768
000170 5b 55 90 bf 2b ae ee 3d 31 a9 1a 3f 22 3f ab 3f
       -1.1276048 0.11654314 0.60414416 1.3378642
000180 94 f9 c6 bf 93 b8 be 3e e9 25 ac bf 02 0b 48 be
       -1.5544915 0.37250194 -1.3449069 -0.19535449
000190 60 85 8c be 5b 98 9a bf 29 59 26 3f 7c 4a 9e bf
       -0.27445507 -1.2077745 0.649798 -1.2366481
0001a0 9b 94 8d bf 1c da b8 3e 35 17 49 bf f7 5d 65 bf
       -1.1060976 0.36103904 -0.78551036 -0.89596504
0001b0 ab eb 38 bf 49 4e 07 3f 6c 2e c0 3e 55 e2 1e 3f
       -0.722346 0.5285383 0.37535417 0.62064105
0001c0 da 7f b7 bf 6c 84 4f bf 11 51 99 3f f8 8b e8 bf
       -1.4335892 -0.81061435 1.1977865 -1.8167715
0001d0 da 10 dc 3e d0 0d 90 3f e1 7f e2 3e 3e 80 92 bf
       0.42981607 1.1254215 0.4423819 -1.1445386
0001e0 25 dd cf be 7b c4 a3 be 72 2d 72 3f a0 3a ed be
       -0.40598407 -0.3198584 0.94600594 -0.4633379
0001f0 ad 01 1a bf 01 2a b4 be 27 8d bd bf 43 ad 0a bf
       -0.6015881 -0.35188296 -1.4808701 -0.54170626
000200 44 2d 99 3f 6d 2a 4e 3f 3c b5 c2 3e 0f c6 a0 3e
       1.1966939 0.80533487 0.38028896 0.31401107
000210 6d 58 31 c0 26 e4 51 bf d5 10 eb 3e 18 93 93 3e
       -2.771022 -0.8198875 0.4591128 0.2882316
000220 24 1a 91 bf 56 11 6f 3b 5e 6b 1d be f2 58 7b be
       -1.1336102 0.003647884 -0.15372989 -0.24545649
000230 73 8e 1a 40 8b 10 d1 3f db 8f 99 be 38 a8 c2 bf
       2.4149444 1.6333174 -0.29992566 -1.5207586
000240 83 c5 0c bf 8c 59 4f bf 06 5f b5 bf 7d 9c d8 be
       -0.5498888 -0.8099601 -1.4169624 -0.4230689
000250 ee 5c 9d be 58 11 81 bd 88 e6 09 3f 51 4f cb bf
       -0.30734962 -0.06302136 0.5386739 -1.588358
000260 4a 2c bc 3e 8c f3 13 c0 3f ce 5d bf 12 45 d6 bf
       0.3675254 -2.31174 -0.8664283 -1.6739829
000270 7d bc 0f 3f 14 83 b9 bf 9b 98 34 3f 96 be b2 bf
       0.56146985 -1.4493127 0.7054536 -1.3964412
000280 07 89 a6 3e bd ec d9 bd 41 60 43 3e f5 90 9b 3f
       0.3252642 -0.10640857 0.19079687 1.2153612
000290 2c f6 9e 3f 37 b8 c3 bd 27 e0 08 40 5a 15 77 3d
       1.2418876 -0.095566206 2.1386812 0.060323097
0002a0 b5 9f fa 3e 4a 1a 5b 3d 1e a2 cf 3e 0f ba e0 bf
       0.48949972 0.053491868 0.40553373 -1.755678
0002b0 72 e7 9a 3f 16 05 28 40 be 51 56 3e 22 4b ab 3e
       1.2101882 2.6253104 0.2092962 0.3345576
0002c0 32 49 92 bf d2 97 0d 40 f8 2f 03 3e 4c 9c 4c 3f
       -1.1428587 2.2123914 0.12811267 0.7992599
0002d0 15 56 8c bf 14 00 a6 bd 00 ac bc bf 23 c8 de bf
       -1.096377 -0.08105484 -1.473999 -1.7404827
0002e0 9b 5a f3 bf a2 2b c4 3c 1f d7 fe bf 4a 3c f9 bf
       -1.9012026 0.023946587 -1.99094 -1.9471524
0002f0 36 e7 07 40 61 c4 74 bf 14 fc 19 bf bc eb d6 3f
       2.123487 -0.9561215 -0.60150266 1.679069
000300 6d 8d af 3e 6c fe 34 bf bf 78 b9 bb 5d 6c e6 3f
       0.34287587 -0.70700717 -0.005660146 1.800182
000310 70 03 14 bf e8 72 3f 3f f2 34 33 3f ab a9 bb 3f
       -0.57817745 0.7478471 0.70002663 1.4661154
000320 c3 f8 15 bf 5a 9b e9 bd b7 cb f6 3e 66 72 e6 be
       -0.58582705 -0.11406584 0.48202297 -0.45009154
000330 dc 03 f5 bf ee 63 35 3f 24 39 0b be 08 c7 b6 bf
       -1.9141803 0.70855606 -0.13596016 -1.427949
000340 e5 38 06 bf 7d cc bc bf 45 e4 36 bf 2b 91 83 3f
       -0.52430564 -1.4749905 -0.7144206 1.0278677
000350 92 cf 11 c0 74 be f9 3e 68 c5 06 bf 05 cb a4 bc
       -2.278294 0.48778117 -0.5264497 -0.020116339
000360 01 b1 2a 3f f3 1f 7f 3f 19 0a fe be db f4 e0 3e
       0.66676337 0.99658126 -0.4961708 0.4393681
000370 94 58 af 3f 4b 41 e6 3e 6e 6d 01 bf c2 e6 40 be
       1.3698907 0.4497169 -0.505576 -0.18838027
000380 a5 32 3e be ba fe c3 3d 08 07 93 3e 4d b0 2d bf
       -0.18574007 0.095700696 0.28716302 -0.6784714
000390 51 3b 24 3e e0 f9 3c be a1 6c c0 3f d2 fe 32 be
       0.16038252 -0.18454695 1.5033151 -0.17480019
0003a0 e4 2e 96 ba d2 bc 0f 3c
       -0.0011458066 0.008773046

weight f4 [128, 76]
000000 59 4c 92 3d 55 82 ef 3c 30 00 d7 3d 2a 1e 25 3d
       0.071434684 0.029236952 0.10498083 0.04031197
000010 f9 c2 c6 bd 6f 45 ea 3d 1e 56 82 3c ff 01 4e 3d
       -0.09705157 0.11439025 0.015910204 0.050294872
000020 fa dd c3 bd 2f 09 dd bc 48 eb ef bd 16 46 49 bd
       -0.09563823 -0.026981918 -0.11714798 -0.049139105
000030 73 55 8a 3c 15 b0 c4 bd e0 19 d6 3c 76 b3 1c 3d
       0.016886448 -0.096038975 0.026135385 0.038257085
000040 87 68 91 bc 06 e5 9e bd e9 b8 b4 bd be a8 11 bd
       -0.017750038 -0.077585265 -0.08824331 -0.035561316
000050 9c 83 5f 3d 8c 67 f0 3d cd d2 8e 3d 9d 8c 28 bc
       0.05456887 0.117385 0.06973801 -0.010287431
000060 fa 8d 26 3d 03 dc ea bd 34 6f ce bd 82 6d 61 3d
       0.040662743 -0.11467745 -0.10079804 0.055036075
000070 4c 4f 8d bd 5a 3b 5d 3d ce d4 a6 bd 90 fc 7b bd
       -0.0689989 0.05401168 -0.08146058 -0.06152016
000080 bb e3 c5 bd a9 54 74 3d 23 a9 5c bc 22 0b a7 3d
       -0.09662577 0.05965105 -0.01346806 0.0815642
000090 20 3f 96 3d d2 c1 86 3d 64 f5 c6 3b 30 8b 1c bd
       0.07336259 0.06579937 0.0060717333 -0.038218677
0000a0 18 95 eb bc f7 35 3d 3c 62 92 80 3d 88 bb 97 bd
       -0.028757617 0.011548511 0.0627792 -0.074088156
0000b0 e6 82 b1 3d 91 57 0b bb 0d 15 9b bd 32 84 a5 bd
       0.08667545 -0.002126191 -0.075723745 -0.08081855
0000c0 48 5b e0 3d b2 99 a5 3d 60 67 be bd f4 03 72 3d
       0.109549105 0.08085956 -0.09297061 0.0590858
0000d0 ac a0 ae 3d 59 a5 a8 3c 78 89 ad 3d 0f c7 ae bd
       0.085267395 0.020586656 0.08473486 -0.08534061
0000e0 0c 4c c7 3c 07 20 ca 3c e1 78 57 bd a7 2b 65 3d
       0.024328254 0.024673475 -0.052605513 0.055949833
0000f0 e0 78 00 bc da c1 38 3d ce 5b f4 bc f9 0b 88 bd
       -0.007841319 0.045106746 -0.029828932 -0.066429086
000100 f3 4f ba 3c f9 a3 22 3d a6 35 b4 bd 28 a7 09 3c
       0.0227432 0.039707158 -0.08799295 0.00840167
000110 8a 53 98 3d f6 94 57 bc 66 df 4c 3d 54 fa f0 bc
       0.07437809 -0.013158074 0.050017737 -0.02941624
000120 28 0b ce 3c bd 17 b3 bd e7 55 83 bd 85 57 93 bd
       0.025151804 -0.08744762 -0.06412869 -0.071944274
000130 be 86 32 3e 9b 90 ea 3c 7c 42 9d 3b 4e 90 45 bd
       0.17434213 0.028633406 0.0047991853 -0.048233323
000140 f4 f6 e2 3d ae 92 e8 3d 3a 38 99 bd 98 10 a5 bd
       0.11082259 0.11356102 -0.074814275 -0.08059806
000150 7d 74 8f bd ab ab 59 bb 69 d3 dd bc f4 fa 97 bd
       -0.0700464 -0.0033213894 -0.027078347 -0.074209124
000160 d2 e1 45 bd fd f3 34 3d 84 07 81 bd 3d a5 4f 3c
       -0.048311062 0.044177998 -0.063002616 0.012673673
000170 97 38 76 3b fb e3 5e bd 05 4a 84 3c 48 29 c2 3d
       0.0037570351 -0.054416638 0.016148577 0.0948053
000180 a3 3d 9a bd fb fc f7 3a e9 bc 3b bd e6 3f e3 3d
       -0.075312875 0.0018919999 -0.045834456 0.11096172
000190 b7 7a df bd 44 32 e2 bd 34 28 ee 3d cd 74 97 bd
       -0.10912078 -0.11044744 0.11628762 -0.07395325
0001a0 5b 2f cb 3c 7e 79 f7 bb 51 5a d5 bc 5f 2d 94 bc
       0.024802854 -0.007552325 -0.026044043 -0.01808804
0001b0 d5 49 94 3d a2 9e 63 3b dc 7f e5 bd b6 5e 86 bd
       0.07240645 0.0034732004 -0.11206028 -0.065610334
0001c0 6e ef 31 bd 19 84 72 3d 1b 31 95 bd 3b ff d2 3d
       -0.04344123 0.05920801 -0.07284757 0.103025876
0001d0 a6 d3 cb bc 6a 40 a2 bc f7 ea bc 3d b7 c6 72 3d
       -0.024881195 -0.019806106 0.092245035 0.05927154
0001e0 92 e8 f8 3d 6b 92 4d 3d a2 c7 b1 bd 9d ee 9c bd
       0.12153734 0.050188463 -0.08680655 -0.07662699
0001f0 88 ff 6d b9 0f 44 bb 3d 5e 22 0f bd 4d f7 e2 bd
       -0.00022697274 0.091438405 -0.034944884 -0.11082325
000200 8c 27 38 3d f1 12 d5 3d b5 eb 1f bd b3 0a a9 bd
       0.04495959 0.104040034 -0.039043147 -0.08253994
000210 ba f5 cd bd 66 78 29 3d e3 26 25 3a 6a 8b 74 bd
       -0.10056634 0.041374587 0.0006300045 -0.059703268
000220 ee 09 86 3c 4d 13 22 3d c4 78 c7 3d 1d be b6 3d
       0.016362157 0.039569188 0.09739831 0.0892298
000230 8e 23 aa bc eb 37 d2 bd 53 c0 d8 bd d7 01 d1 3d
       -0.020768907 -0.10264572 -0.10583558 0.10205429
000240 52 75 57 3d 5a f8 c4 3c 96 a4 00 be 17 c1 f6 3d
       0.05260212 0.024044205 -0.12562785 0.12048548
000250 2e 28 c1 3d fd 81 ed 3d 12 0a d7 bd 90 c9 62 bd
       0.09431492 0.11597059 -0.10499968 -0.055368006
000260 c3 57 54 bc f2 93 23 3e 36 94 2d bd 90 31 42 bd
       -0.012960377 0.15974405 -0.042377673 -0.047410548
000270 b3 8e 6a 3d 9b d1 49 bd f6 68 44 bd b5 9c 95 bb
       0.057264995 -0.04927216 -0.04795166 -0.0045658
000280 f6 73 47 bb ba 2f bf bd 0b 39 bf 3d 0d e0 37 bd
       -0.0030434108 -0.09335275 0.09337052 -0.044891406
000290 a9 00 ed 3c 6b 34 f0 3d 87 a0 a5 3d 7a 52 c2 3c
       0.028930979 0.11728748 0.08087259 0.023720969
0002a0 a3 62 01 3e af 39 7b 3c c8 13 6f bd 6f c3 d0 3d
       0.12635283 0.015333577 -0.058368474 0.10193526
0002b0 ac 94 02 3d 20 22 da bd 69 fb 7d bc b5 f9 a4 bd
       0.031880066 -0.1065104 -0.015501835 -0.0805544
0002c0 f9 d0 d5 3d c8 41 9d bc f5 42 d1 bd 94 f5 f0 bb
       0.10440249 -0.019196406 -0.10217849 -0.007353494
0002d0 fe e1 9d 3d 1f 79 05 3d 9c af 10 3d fa cc a5 3c
       0.0770912 0.032586213 0.035323724 0.020239342
0002e0 c6 20 2e 3d a6 50 c9 bc c6 e5 3a bd 75 86 d9 bd
       0.042511724 -0.024574589 -0.045629285 -0.10621349
0002f0 b7 e6 c1 bd 51 c2 59 3d 18 35 84 bd c5 81 bb 3b
       -0.094678335 0.05316383 -0.06455439 0.005722257
000300 f4 85 16 3d 27 9f 0f 3c 3f 04 8d bd ee 58 ef 3d
       0.03674884 0.008765972 -0.068855755 0.11686884
000310 fe 50 42 bd e9 cd 9f 3d aa 7c 05 be ac 53 e6 bc
       -0.04744052 0.07802946 -0.13035837 -0.02811607
000320 3a e6 88 3d 94 4d 6b bd 65 eb c2 3d 68 8c ac bd
       0.06684537 -0.05744703 0.09517554 -0.08425218
000330 be eb c9 bd 04 43 89 bd 0e cf 7a 3b 81 da fe 3d
       -0.098594174 -0.06702235 0.0038270387 0.1244402
000340 4c da 09 bd a3 80 7a 3d e3 aa 0e bc 7c 07 d4 bc
       -0.03365545 0.061157834 -0.008707735 -0.025882475
000350 2b 82 8d 3d 77 da ac bd 44 45 be 3b a8 45 d2 3d
       0.06909593 -0.08440106 0.005806597 0.10267192
000360 a7 99 5f bc 7c e1 b5 3d 33 9c 21 bd b5 cd bd 3d
       -0.013647473 0.08880898 -0.039455604 0.09267751
000370 cd 65 bf bd da 0c af bc 0b d5 03 bd 7b 25 94 3d
       -0.09345589 -0.021368433 -0.032185595 0.07233711
000380 f5 c3 38 3d 14 7b cf 3d bc 03 8e bb 95 cd 5f bc
       0.045108754 0.10130897 -0.0043339413 -0.013659854
000390 57 2e 14 3e 7c f1 13 3d 9f a4 d2 3d bd c0 98 bd
       0.14470802 0.03611897 0.10285305 -0.07458637
0003a0 d2 f3 a4 bc 79 33 6a 3a fb 02 64 3d 0b bd bf 3d
       -0.020135794 0.00089340616 0.055666905 0.09362229
0003b0 ec 25 3c bc cf 56 c6 bd 6e cd 55 3d 0f 85 02 3d
       -0.011483651 -0.09684526 0.052197866 0.031865176
0003c0 2a 41 1c 3d bb 2a 94 bd 09 81 99 3d 7c 91 d7 3d
       0.038148083 -0.07234713 0.07495315 0.10525796
0003d0 34 a4 17 3d 45 ad d8 bd d3 c6 a8 3d 06 fb af bd
       0.03702183 -0.105799235 0.08241048 -0.08592801
0003e0 5d cc ba 3c a3 b9 64 3c 7a 8d 4c bd 3b 27 18 3d
       0.022802526 0.013960275 -0.04993961 0.037146788
0003f0 64 a9 d3 bd 84 91 d9 3c 52 aa 96 bd 25 58 44 bc
       -0.10335043 0.026558645 -0.07356705 -0.011983906

bias f4 [128]
000000 2f a2 8a bd 56 20 83 bd 9b b5 a0 bd ba e6 79 3d
       -0.06769215 -0.06402652 -0.078471385 0.061011054
000010 d4 f0 38 3c d1 fd b4 bb f8 7b 0a 3d f9 f5 88 3d
       0.011287887 -0.0055234213 0.033809632 0.066875406
000020 75 cb 0d 3c ff 5e 87 3d fd 9b 4b bc 5c bd 42 3d
       0.008654465 0.06609916 -0.012427327 0.04754387
000030 2f cb 18 3d 09 50 d4 ba bd 8a ac 3d 2f b2 e7 3d
       0.037303146 -0.0016198169 0.084249 0.11313283
000040 f8 ec ba 3d ac a8 b0 bc 58 43 16 bd f2 58 c0 3d
       0.091272295 -0.021564804 -0.036685318 0.09391965
000050 3d db 35 bd 96 e7 b1 3b 60 c6 8b bd 3d 36 e8 bc
       -0.044398535 0.0054292185 -0.068249464 -0.028346175
000060 c2 a3 3c bd d8 23 92 3d 1c 34 52 bd 2d 9b 63 bd
       -0.04605461 0.07135743 -0.051319227 -0.05556791
000070 cc 86 3d 3d 7a 8a 20 bc bf e5 bd 3c 24 f3 b2 bd
       0.04627113 -0.00979864 0.02318084 -0.08737782
000080 6a b3 3b bd c5 cc 6b 3d 38 93 3d 3d 86 83 e1 bd
       -0.0458254 0.05756833 0.046282977 -0.11011414
000090 27 4f b0 bd 3e d0 50 3d 72 32 c7 bd 04 37 7d bd
       -0.08608847 0.050979845 -0.097264186 -0.061820045
0000a0 89 15 85 bd 7a 0d b4 bd 7a ba 58 bd e9 be a4 3d
       -0.06498248 -0.08791633 -0.052912213 0.08044226
0000b0 ec bb de bd fe 3f a7 3d 75 eb d3 bd e5 45 e3 bc
       -0.10875687 0.081665024 -0.10347644 -0.02774329
0000c0 a6 77 1b bd 9d 57 8f 3d d1 af c5 bd 0a ab 7e bd
       -0.037955903 0.06999133 -0.09652675 -0.062174834
0000d0 02 81 d8 bd fe 7f 13 bb b5 33 44 3d 77 02 dd 3d
       -0.10571481 -0.002250671 0.047900874 0.10791486
0000e0 1d 87 c4 3d df fb df bc 82 42 80 bd af c8 a0 3c
       0.09596083 -0.027341781 -0.06262685 0.019626943
0000f0 7d 83 9a 3d 63 08 cc 3d 98 fd a2 3d e4 f6 be ba
       0.07544611 0.09962537 0.079585254 -0.0014569429
000100 22 3f c6 bd 59 32 95 bd d7 ca 8e 3d e9 cc c8 bd
       -0.096800104 -0.07284994 0.069722824 -0.098047085
000110 ab a6 af bd ac a6 8a bd e7 3d c8 bc a5 93 53 3d
       -0.08576711 -0.067700714 -0.02444358 0.051654477
000120 d3 2c 90 3d a8 0f c5 3d 88 2c 6f 3d c8 40 ae 3c
       0.070397995 0.09622127 0.058392078 0.021271124
000130 4e 84 63 bc 15 8c 83 bd a7 bb 61 bd 0a d0 f6 bb
       -0.013886524 -0.06423203 -0.0551106 -0.0075321244
000140 83 9a d1 3d e0 b3 fb bc eb 99 67 bc 70 2f 19 bb
       0.10234549 -0.03072542 -0.014135818 -0.0023374222
000150 69 e5 58 bd e6 e1 68 bd 2b 9d 2c 3d d4 bc a4 bd
       -0.052953158 -0.05685606 0.042142075 -0.080438286
000160 f3 17 9c bb 30 65 ec bb ba 56 c4 3c e0 36 45 bc
       -0.004763597 -0.007214211 0.023967136 -0.012037009
000170 58 04 6b bd b8 9a e6 bc 9a 7d 09 bd 50 b9 4b 3d
       -0.05737719 -0.028149948 -0.03356705 0.049737275
000180 f1 0b c5 3c cf ba ff bc 14 7a b1 3d ca ed 74 3c
       0.024053546 -0.031217007 0.08665863 0.014949271
000190 b6 b0 66 3d fc 2d 34 bd 47 e7 cc bd 6c 7c d6 bd
       0.05632087 -0.043989167 -0.1000505 -0.1047295
0001a0 ae dc 1c bd ae 62 94 3d 1a ba 86 3d 9c 83 50 3d
       -0.038296394 0.07245384 0.06578465 0.050906762
0001b0 c7 2a 4a 3d 61 16 8e bd 2a 8c 00 bd b9 69 af 3c
       0.049357202 -0.06937862 -0.03138367 0.021412717
0001c0 51 49 d2 bd b5 a0 b9 bd e1 b8 b4 bd fc 76 ff 3c
       -0.1026789 -0.090638556 -0.08824325 0.031184666
0001d0 df 0f 92 bc 49 71 ad bc 05 2b 93 3d c4 3a 95 bd
       -0.017829834 -0.021172183 0.0718594 -0.07286599
0001e0 72 97 85 bd 5a b5 07 bd 5f b3 88 3d 3f 1d 14 3c
       -0.065230265 -0.033131935 0.06674837 0.009040176
0001f0 10 83 bc bd 31 49 ab 3d e3 ca 92 bd 9e 45 af 3d
       -0.09204686 0.083635695 -0.07167604 0.085582

weight f4 [128, 128]
000000 9b f6 b2 3c 50 f5 7d 3c 51 ff 83 3d 8f 62 e7 3c
       0.021846106 0.015500382 0.06445182 0.028245239
000010 bc 63 bd bd 06 2b c2 3c 28 9b 8a 3d 2b 33 4e bd
       -0.092475384 0.023702156 0.06767875 -0.050341766
000020 27 a2 78 3d 71 4b 83 3d 22 a7 0c bd d2 3e 1f bc
       0.060701516 0.06410874 -0.034339078 -0.009719567
000030 70 5e 17 bc 34 f7 90 3d ad 21 0c 3d 7d f4 6a 3d
       -0.009238824 0.070784 0.034211803 0.05736207
000040 3e 3e a8 bd 7c 85 27 bd 41 cc 8f bc bd 28 8a 3c
       -0.08214997 -0.040898785 -0.01755345 0.016865129
000050 7d 17 13 bd 43 f3 89 3c 21 04 0e 3d a0 7e 00 bd
       -0.035911072 0.016839629 0.034671906 -0.03137076
000060 5f dd 8e 3b 51 61 90 bd b8 ab 2a bc 2b 0e c7 3a
       0.0043598856 -0.07049812 -0.0104169175 0.0015186718
000070 6e 18 52 3d 0c cb e3 3c 22 59 53 3c 2d ad 03 3d
       0.05129283 0.027806781 0.012899669 0.032147575
000080 74 4c 78 3d 2e a0 16 bb 3e 98 a0 3d a5 f3 76 bd
       0.060619786 -0.0022983658 0.07841538 -0.06029095
000090 9f ce f4 3c 26 e0 12 bc 61 10 5e 3d a1 77 cb bd
       0.02988368 -0.008964574 0.05421484 -0.09934927
0000a0 7d 33 de 3c 2b d2 a8 bd 82 cd e3 bc f0 45 f5 bc
       0.02712416 -0.08243211 -0.027807955 -0.029940575
0000b0 c0 71 23 bd fb 8c 72 bd b0 56 a7 bd c8 75 a8 bd
       -0.039903402 -0.05921648 -0.08170831 -0.0822559
0000c0 f6 53 04 bd 55 7f 80 3d a2 f6 04 bd a6 50 82 bd
       -0.032306634 0.06274287 -0.03246177 -0.06363039
0000d0 72 d1 fd bc 2b f4 b0 bc 06 65 85 bc 87 3d 7b 3d
       -0.03098366 -0.021600803 -0.016283523 0.061337974
0000e0 f4 75 c3 bd cf f5 38 3d 50 c5 58 3d 9f c1 50 3d
       -0.09543982 0.045156296 0.052922547 0.0509659
0000f0 aa 98 81 bd 02 d6 bd 3b 76 be 46 3d 62 4a 9b bd
       -0.063279465 0.005793334 0.04852148 -0.07582547
000100 8f 22 66 3d 67 ca 4f bc c7 bf b9 bd 82 3f 9b bc
       0.0561853 -0.012682534 -0.09069782 -0.018951181
000110 23 fc fc bb 9a b2 3e bd 74 78 29 bd 5d ab a4 bc
       -0.0077204867 -0.046557046 -0.04137464 -0.020101244
000120 1d 17 b8 3c a4 a9 0a 3d a5 39 a9 bd f4 0e 73 bc
       0.022471959 0.03385319 -0.08262948 -0.014835108
000130 b8 68 eb 3b 47 94 7e 3d aa 21 04 3d b7 b3 39 3d
       0.0071841143 0.062153127 0.032258667 0.045337405
000140 52 07 55 3c 8a 38 98 b6 aa 4e 7a bd 7c a4 3d bd
       0.013002234 -4.536535e-06 -0.061110176 -0.046299443
000150 60 dd bb 3c a0 c2 da bc f2 5c 9d 3d 63 45 88 bd
       0.022932708 -0.026704133 0.076837435 -0.066538595
000160 10 a2 6c 3d b9 64 24 3d 2b 92 48 3d 3c c2 68 3d
       0.057771742 0.04013512 0.04896752 0.05682586
000170 fa 44 6f bd 1a fa 22 3d 34 7a bd bd c4 dd 69 bd
       -0.05841539 0.039789297 -0.09251824 -0.057096258
000180 60 c2 d2 bc 52 17 81 3d 20 6c 63 bc 5e a1 a4 bd
       -0.02572745 0.06303276 -0.0138807595 -0.08038591
000190 ba 2a b1 bd e1 27 3f 3b b3 d1 42 bb 96 a8 c0 39
       -0.086507276 0.0029168057 -0.0029727041 0.000367467
0001a0 6a d3 1f bd 80 94 81 3c 56 ea 3c 39 ed 3f ae bc
       -0.03901998 0.01581788 0.00018016374 -0.021270717
0001b0 92 60 13 3d 27 e3 8f bd c3 47 79 bd 43 19 8d 3c
       0.03598077 -0.07025748 -0.060859453 0.01722396
0001c0 80 e8 17 bd fd 6c 81 31 ab 6e ff bc eb b0 27 3d
       -0.037086964 3.7667847e-09 -0.0311807 0.040940206
0001d0 41 97 95 3d b5 db 85 3d 2c bc 76 3c 6f 85 78 bd
       0.0730424 0.065360464 0.015059512 -0.060674127
0001e0 f9 01 31 bd f1 62 40 bd 14 74 d2 bc 11 4f 64 bd
       -0.043214772 -0.046969358 -0.025690116 -0.055739466
0001f0 3c 66 35 3d cc 2d c4 bd 5b 65 d6 bb 19 56 62 3d
       0.04428695 -0.095790476 -0.006542844 0.05525789
000200 fe f6 7f bd d7 2b b1 bb 7f 60 85 3d a0 aa 3a bc
       -0.06249141 -0.0054068374 0.06512546 -0.011393219
000210 7a 9a 12 bd 19 9d 68 3d 72 60 8a bd 7a a1 af 3d
       -0.03579185 0.056790445 -0.06756677 0.08575721
000220 cf 4f cf 3d 9a 3f d9 3b 03 5d 17 3c 6a ae 26 bd
       0.10122644 0.0066298964 0.009238484 -0.040693678
000230 4e a3 69 3d 4d 0a 92 bd c4 07 a3 bc 46 bb 22 3d
       0.057040505 -0.07130871 -0.019901164 0.03972938
000240 e7 a6 19 3d e1 ad 8b 3d 85 ae 56 3d a9 70 99 3d
       0.037512686 0.06820274 0.05241253 0.07492191
000250 7a 19 c6 3c 0c 74 82 bd 90 66 b0 bd 32 81 8d 3d
       0.02418207 -0.063697904 -0.08613312 0.06909408
000260 ef 72 b3 3d bd 2c c3 3d bc 5e 8b bd 6e 5b ae 3d
       0.08762156 0.095300175 -0.068051785 0.085135326
000270 79 f4 0d bd fe 37 10 3d 0d 36 12 3d d9 b7 80 bd
       -0.034656975 0.03520965 0.035696078 -0.06285066
000280 ba 94 88 bd 96 55 8e 3d b3 5b 9e bd 1d a5 46 3d
       -0.06668992 0.06949918 -0.07732334 0.048497308
000290 7f d9 57 3d e7 28 2d 3d 2c dd 14 3c 82 27 9f bc
       0.052697655 0.042275336 0.009085935 -0.019428018
0002a0 ad 08 b9 3a e0 46 23 bc 2e 90 92 bd ef 9c e9 3b
       0.0014116965 -0.009965628 -0.07156406 0.0071293036
0002b0 ef 53 42 bd 2e c0 62 3d a5 0e 15 bd 8c ce f8 bb
       -0.047443327 0.055359058 -0.03639092 -0.0075929817
0002c0 d4 21 7f bd 62 78 ba 3d b0 74 5b 3d c3 76 a8 3d
       -0.06228812 0.091049924 0.05357808 0.08225777
0002d0 d3 d0 a0 3d df d5 29 bc c6 c0 aa 3d 79 2c 31 bc
       0.0785233 -0.010365932 0.0833755 -0.010813826
0002e0 91 91 9d 3d aa 1f c2 3c 19 ee 62 3d bd 1b 3a bd
       0.0769378 0.02369674 0.05540285 -0.04543661
0002f0 d7 25 27 3d 5d e0 63 bb df dc 5a bd 89 59 82 3d
       0.04080757 -0.0034771182 -0.053433295 0.06364734
000300 99 4c 52 bd 61 36 95 bd c8 14 8f 3d 9c 87 8e bd
       -0.05134258 -0.072857626 0.069863856 -0.06959459
000310 7c 07 fb 3c 50 9e 6c 3d f5 16 b7 3b b5 50 90 bd
       0.030643217 0.057768166 0.0055874535 -0.07046644
000320 c5 42 8f bd 37 11 d5 bc 75 03 27 3c d9 9c 87 3d
       -0.06995157 -0.026009185 0.010193695 0.06621713
000330 4a 68 4b 3d 06 31 30 bd 89 7c d4 bc eb ca 8a bd
       0.049660005 -0.043015502 -0.02593829 -0.06776985
000340 f1 ca da 3c 46 20 4b 3d 27 f0 f5 bb de 7e 4a bc
       0.026708098 0.049591325 -0.007505435 -0.012359349
000350 11 e1 c5 bb 42 ef 8f bd 5a b3 8f 3d 8b c6 ba 3c
       -0.006038793 -0.07028057 0.070166305 0.02279975
000360 f3 8d d5 3d 36 f8 94 bd 82 b3 b0 bc a2 08 11 bd
       0.10427465 -0.07273905 -0.021569971 -0.035408624
000370 f0 c5 20 3d 0d e3 2a bc 7a f2 4d bd f5 6a a5 3d
       0.039251268 -0.01043011 -0.05028007 0.08077041
000380 38 60 98 3d 33 3e d4 3d d9 0e 30 3d 6f 28 77 3d
       0.07440227 0.10363426 0.04298291 0.060341295
000390 9e 98 3b bd 4a 55 92 3b 21 e7 95 bc 5b d3 1f 3b
       -0.045799844 0.0044657337 -0.018298687 0.0024387452
0003a0 21 4f c3 3c c4 bb 9a 3c 7f e2 38 bd 19 13 98 3c
       0.023841443 0.018888362 -0.04513788 0.018563794
0003b0 d8 52 ea 37 cf 0e 67 bd da 07 43 bd 07 96 4e bd
       2.793355e-05 -0.056410607 -0.04761491 -0.050436046
0003c0 99 b3 5a bd 04 67 a6 bd 72 c0 2e 3b 9f fe 95 bd
       -0.053393934 -0.081251174 0.0026665 -0.07323956
0003d0 60 e4 99 bd f7 52 9f 3d ed 7a 8f bd 17 7e 60 3d
       -0.07514262 0.07779496 -0.07005868 0.05480775
0003e0 ee 8c 9b 3c a9 a8 63 3a 06 41 91 3d fc df 83 bd
       0.018988099 0.0008684495 0.0709248 -0.06439206
0003f0 84 96 66 3d 06 12 8e 3d 9b 07 9a 3d 32 48 ba bd
       0.056295887 0.069370314 0.07520982 -0.090958014

bias f4 [128]
000000 ad b6 56 bc 4d 5b 25 3d 6b 95 11 3d 43 af 9f bd
       -0.013105077 0.040370274 0.035542887 -0.077971004
000010 ff 72 14 bd 25 a6 8d bd be 63 a6 bd 17 6f 57 3d
       -0.03624248 -0.06916455 -0.08124493 0.052596178
000020 79 8b 90 3d 9e da 6f bd db b1 c8 bc b3 dd 2b 3d
       0.07057852 -0.0585581 -0.02449887 0.041959476
000030 84 5f b8 3d cd 5b 97 3d 76 c6 1f 3d 1f ba 99 bd
       0.09002593 0.073905565 0.039007626 -0.07506203
000040 85 bb 49 bd 93 30 99 3d ad 59 ab bd 19 03 1a bd
       -0.0492511 0.07479968 -0.08366714 -0.03760061
000050 b7 b9 8f bd 1c 1f 96 bd 33 b8 be 3c 3a ca e4 bc
       -0.07017844 -0.073301524 0.023281192 -0.02792846
000060 a2 5e 95 bd 9c 8c 85 bd 78 49 9e 3d d2 94 94 3d
       -0.072934404 -0.0652096 0.07728857 0.07254948
000070 fa e7 0c 3d a8 b8 27 3d d6 82 56 bd 64 99 ff bc
       0.034400918 0.040947586 -0.05237087 -0.031201072
000080 67 2c 2e bc 26 25 1f 3d 29 b9 bb b8 c6 e0 bc 3c
       -0.0106307035 0.038853787 -8.9513436e-05 0.0230564
000090 61 72 0d bd 8d 4f 0e bd 54 9f fc 3c 1a 6d 98 bd
       -0.03453291 -0.034743834 0.030837692 -0.074426845
0000a0 9f f0 bb ba 9a fb 9b 3d 4f 91 6a bd 95 54 cc bc
       -0.0014338678 0.076163486 -0.057267483 -0.024942676
0000b0 bb 04 92 bc 9c d4 02 bd b9 d6 6e 3d af f3 a0 3c
       -0.017824521 -0.03194104 0.058310244 0.019647447
0000c0 97 84 bf 3d 57 bd d2 bc 30 44 f4 3c 23 91 b6 3c
       0.093514614 -0.02572505 0.02981767 0.022286003
0000d0 18 37 47 bd 3b 8f b0 bd 04 6c 4d 3d e1 d1 65 bd
       -0.048636526 -0.08621069 0.05015184 -0.05610836
0000e0 dd 8a ee bc f8 7d 9b bc 61 df a9 bd e0 90 7a 3d
       -0.02911895 -0.018980965 -0.08294559 0.06117332
0000f0 3f f6 8a bc 38 95 37 bd 86 19 a1 bd eb 09 ad 3c
       -0.016963122 -0.04482004 -0.07866196 0.021122893
000100 a8 c9 42 3a 86 84 15 bc 49 74 d4 bc c9 08 d3 3c
       0.0007430562 -0.009125834 -0.025934355 0.025761025
000110 7e 86 6a bc d2 56 84 3c d2 82 78 3d 58 af c3 3c
       -0.014314292 0.01615468 0.060671635 0.023887321
000120 ed 9a 8b bd 32 ce b5 bb 40 41 f7 bc fb 04 6e bb
       -0.06816659 -0.005548262 -0.03018248 -0.0036318887
000130 6e 49 57 3d 4e 1e b1 bb e1 97 fb bc 10 df 31 bd
       0.052560262 -0.005405224 -0.03071207 -0.04342562
000140 70 45 4f 3d fb 2e f4 bc ff 7c c1 3b 58 d7 1c bc
       0.05060333 -0.029807558 0.0059047933 -0.009572826
000150 ca c4 94 bd 7d 20 05 3d e6 ca 96 3d 0e a2 62 bd
       -0.07264097 0.032501686 0.073629186 -0.05533033
000160 17 4e a7 3c 13 51 c2 3c 80 9a da bc d9 da e6 bb
       0.020422978 0.0237203 -0.026685 -0.0070451316
000170 9a 9b eb bb fa ae 57 3d 40 cd 70 bb dc ee ae bd
       -0.00719018 0.052657105 -0.0036743432 -0.085416526
000180 35 5b b7 bc f8 e8 34 bd b1 6a 46 bc 08 ea 3b bd
       -0.022382358 -0.04416749 -0.012110398 -0.045877486
000190 3e 09 26 3c 14 c2 68 bb db 8a 20 bd dc f7 f1 bb
       0.010134039 -0.003551607 -0.039194923 -0.0073842835
0001a0 04 21 7e bd 35 78 47 bd 47 8b 4b 3d 26 55 be 3b
       -0.062043205 -0.048698623 0.049693372 0.0058084903
0001b0 a1 15 37 3d db 6e e1 3c 95 2e 6e 3d d2 5b b0 3d
       0.04469836 0.02751868 0.058149893 0.08611263
0001c0 b8 e8 7c 3d 7e 8b d2 bc 1f c9 0a bd 75 74 85 3d
       0.061745375 -0.02570128 -0.03388321 0.06516353
0001d0 a3 b2 60 3d 07 3c 92 3d b4 99 9f 3d 78 61 86 3d
       0.05485786 0.071403556 0.077929884 0.065615594
0001e0 03 bb 5c 3c 0f 4a d1 bb a7 a4 45 bd 76 d9 aa 3d
       0.013472321 -0.0063870023 -0.048252728 0.08342259
0001f0 2c 4b 34 bd 88 1a 40 3d 81 e8 d6 ba 09 aa 40 bd
       -0.044017002 0.046900302 -0.0016396196 -0.04703716

weight f4 [128, 128]
000000 4e 4a 8c bd 55 fb e2 3c d9 82 ac bc be 4d 61 3d
       -0.0685011 0.027707735 -0.021058487 0.05500578
000010 46 b8 fb bc a2 d7 6d bc 57 c1 c1 3c 42 ba a6 3d
       -0.030727517 -0.014516743 0.023651762 0.081409946
000020 88 f9 ae bd e9 44 00 bd 24 e4 0f bd 13 d7 98 3c
       -0.08543688 -0.031315718 -0.03512968 0.018657243
000030 7a 3e d2 3d 23 13 30 3c 64 87 c3 3b 7c 86 7b 3d
       0.10265823 0.01074675 0.0059670676 0.06140755
000040 9c cb 8f bd ea c8 a6 3d 6b 5a b6 3d f8 ab 70 bd
       -0.07021257 0.0814379 0.089039646 -0.058757752
000050 75 11 6e bc cc 5e 0c 3d 85 e1 49 bd 4b 18 02 bd
       -0.014530529 0.034270093 -0.049287338 -0.03176145
000060 aa ae 8d 3d 61 62 91 3d c4 4d 9e bd b3 76 49 3d
       0.0691808 0.070988424 -0.07729676 0.049185466
000070 7a 73 39 bd 43 02 92 bb de 43 cb bd b0 4c 9c bd
       -0.045276143 -0.004455836 -0.09925054 -0.076318145
000080 0a 9e a0 ba b4 bc 94 bd 9b a2 46 bd d7 18 38 3d
       -0.001225413 -0.07262555 -0.048494916 0.044945564
000090 9c 43 35 3d 95 c0 9c bd 0b 47 5e 3d a1 54 ac 3d
       0.04425393 -0.076539196 0.05426697 0.08414579
0000a0 84 12 cd bc 13 7d 2c 3d 4e e2 89 bb 16 16 72 3a
       -0.025033243 0.042111468 -0.004207886 0.00092348584
0000b0 31 e4 0a bc 23 ce 01 3d 9d d1 ae 3d 59 e1 60 bc
       -0.008477257 0.031690728 0.08536074 -0.013725602
0000c0 a7 10 1f bd 21 03 b9 3d d4 ef 86 3d 57 02 76 bd
       -0.03883424 0.090338 0.06588712 -0.060060825
0000d0 82 a4 ab 3d 01 c7 a9 bc 53 14 e8 3c d6 2a 13 3a
       0.08380987 -0.020724775 0.028330004 0.0005613988
0000e0 cf 5a 43 bb d2 ce 3e bd 63 88 8c 3b c8 76 9e bd
       -0.0029808765 -0.046583958 0.0042887195 -0.077374995
0000f0 39 f2 93 bc c6 53 6e 3d e4 13 a0 3d b8 f9 cc bc
       -0.018059837 0.05818536 0.07816294 -0.025021419
000100 4b c5 35 3d ac b8 12 bc 30 a2 93 3d 25 5c 80 3d
       0.044377606 -0.008955162 0.07208669 0.06267575
000110 06 04 0d bd b8 e8 2c 3d 12 e7 b2 3c 4b 84 54 3d
       -0.034427665 0.042214125 0.021838699 0.051883977
000120 34 25 60 bd 66 5b e1 3a e7 c6 91 bd 91 29 28 3d
       -0.05472298 0.0017193377 -0.07118016 0.041055266
000130 ff 7d c0 bc a7 4a 2d 3d c0 5e 7b 3d 6a 27 af 3b
       -0.02349758 0.042307522 0.061369658 0.0053452747
000140 68 18 b1 bd 74 4e 8b bd 99 b8 69 3c f8 84 93 bd
       -0.08647233 -0.06802073 0.014265203 -0.07203096
000150 09 07 51 3d 34 32 5e bc 4a 8a 72 bd 07 6f 32 3d
       0.0510321 -0.013561774 -0.059213914 0.043562915
000160 10 1d c7 3c 9a fa bb 3d 89 cc 52 39 f8 43 c4 3c
       0.02430585 0.09178658 0.00020103356 0.023958191
000170 d8 39 61 3d 53 0c 18 3d c1 4c 54 bd 79 61 77 bd
       0.054986805 0.03712113 -0.05183101 -0.06039569
000180 c9 fb d2 3b ca 5b ac 3d c4 f6 44 3d cb 35 f9 bc
       0.0064387065 0.08415945 0.048086897 -0.030421158
000190 57 e9 01 bd 8e de a9 3d 98 b8 8b 3d ca 70 2f 3d
       -0.03171667 0.08294402 0.06822318 0.042832173
0001a0 6a 52 85 bd c7 24 9d bd ad 4e 1d 3d 67 fe 85 3d
       -0.0650986 -0.0767303 0.03840511 0.06542664
0001b0 cc 7d ab 3d ef 07 30 3d 98 40 fe bc eb 51 8f bc
       0.08373603 0.042976316 -0.03103666 -0.017495116
0001c0 14 52 8b 3d 10 84 e0 ba a0 4b 76 bd 3b b7 20 3d
       0.068027645 -0.0017129201 -0.060130715 0.039237242
0001d0 33 86 97 bd d4 2b a3 3c 45 33 05 bd 87 9e a4 bc
       -0.07398643 0.01991836 -0.032519598 -0.020095123
0001e0 63 be 8e 3d f3 03 1a bd 05 2a 81 bb 77 6e 8f bd
       0.06969907 -0.037601423 -0.0039417767 -0.07003491
0001f0 d6 25 19 3c e5 4f dd bc a4 ba 3b 3d 15 6b 6f 3d
       0.0093474 -0.027015636 0.04583229 0.05845173
000200 55 c7 26 bd 72 50 9d 3d 3a 47 fe 3c 88 76 af 3d
       -0.04071744 0.07681359 0.031039823 0.0856753
000210 14 d6 4e 3b f3 72 3d bd 38 59 4c bd a7 b5 9d 3d
       0.0031560706 -0.046252202 -0.049889773 0.07700663
000220 98 5d eb bc 23 2b 96 bd 01 b3 1d bd 7f ac 8f bd
       -0.028731152 -0.073324464 -0.03850079 -0.07015323
000230 bd c5 de bc 75 e5 a8 3c 02 dc d3 3b ae 60 e2 ba
       -0.027193898 0.020617226 0.006465436 -0.0017271244
000240 63 bf 46 bd df de ad 3d 5e 18 35 bd e3 77 85 bd
       -0.048522364 0.08489775 -0.04421269 -0.06517007
000250 60 f4 af 3d f9 99 8d bd 35 a8 86 bd bc 87 ae bd
       0.08591533 -0.069141336 -0.06575052 -0.08521983
000260 6a 6b 28 3d 19 41 c4 3c e7 ee a4 3d 97 11 2a 3d
       0.041118063 0.023956822 0.080533795 0.04152068
000270 28 e3 46 bd 6a 0c 93 3c 51 5f ff 3c e7 f3 59 3d
       -0.048556477 0.017950255 0.03117338 0.05321112
000280 b8 c8 1b bd d5 19 c5 3d 0b bc 22 bc 21 cf 33 bd
       -0.038033217 0.09624068 -0.009932528 -0.043898705
000290 5e e7 c6 bb e1 3e 78 3d 0e 39 e4 3c 68 f1 a4 3d
       -0.0060700616 0.06060684 0.027859237 0.08053857
0002a0 14 db 13 3d c4 60 93 3d a8 9b f2 3c 99 20 b0 bd
       0.0360976 0.07196191 0.029615238 -0.085999675
0002b0 fb 14 35 bc 9d b4 d4 bc 50 17 a4 3d d1 cb 7a 3d
       -0.011052365 -0.02596503 0.08012259 0.06122953
0002c0 f4 e3 41 3d 86 48 30 bd 13 5a 06 bd 72 a0 2f bd
       0.047336534 -0.043037914 -0.032800745 -0.042877622
0002d0 fa 84 9d bd 0f 42 34 bd 0d cd 8b 3d 5e d9 52 3d
       -0.07691379 -0.04400831 0.0682622 0.05147683
0002e0 e6 e7 a5 3c db 1d 99 3d 3d 91 c3 bc 2d eb dd 3d
       0.02025218 0.074763976 -0.023872966 0.10835872
0002f0 26 e8 39 bd e7 33 5f 3c f0 db ea bc 40 54 9a 3c
       -0.04538741 0.013623214 -0.028669327 0.018839002
000300 26 2e e6 3c be c8 6b 3d 3d a1 10 3c 4b 4d 94 bd
       0.028098177 0.05756449 0.008827505 -0.07241305
000310 59 73 7d 3d 44 c9 0b 3d f7 4f 42 3d f6 3a ad bd
       0.061877582 0.03412749 0.04743954 -0.084585115
000320 8a 3a 78 bd 5e 0a 57 3d e9 6a 88 3d 6c b3 16 bd
       -0.060602702 0.05250012 0.066610165 -0.036792204
000330 7d 37 d5 bc 08 ee ed 3c dd ec 0f bb 1c b8 64 bd
       -0.026027435 0.029044166 -0.002196125 -0.055839643
000340 88 aa 5b bd 3b 4b 1c 3d 12 97 ad 3d 64 6d 99 3d
       -0.05362943 0.038157683 0.0847608 0.07491568
000350 d6 e9 43 bd 65 c8 89 3d 41 c6 3b bc 44 a6 37 3d
       -0.047830425 0.06727675 -0.011460842 0.044836298
000360 a6 41 b4 bd a0 10 a1 bc f8 be a1 3b e1 a2 12 3d
       -0.08801584 -0.019661248 0.0049360953 0.035799865
000370 09 97 7e 3c 00 67 66 3c 69 cb 8f 3c b4 ed 82 ba
       0.015538939 0.014062643 0.017553048 -0.0009989054
000380 d3 92 72 bd c4 ac 86 3d fd 70 1e bd c2 d2 d5 3c
       -0.059222054 0.06575921 -0.038681973 0.026101474
000390 3a ce 79 bd 51 91 9e 3b f1 7c 75 3d c8 81 82 bd
       -0.06098769 0.0048391004 0.059933607 -0.0637241
0003a0 91 57 42 3d dc cb 70 3d b1 5a a7 3d 47 f2 bb 3d
       0.04744679 0.058788165 0.08171595 0.0917707
0003b0 e4 79 8e bd 97 7f cc 3d e6 ad 06 bd b9 f1 cb 3b
       -0.069568425 0.09985273 -0.032880686 0.006223884
0003c0 c8 4d c6 bb 8c 56 63 bd a5 4b 8a bb 94 8b ac 3d
       -0.0060517527 -0.05550246 -0.0042204433 0.0842506
0003d0 72 ff 01 3d 01 2c 39 bd b3 3c 25 bd b5 09 35 3d
       0.031737752 -0.04520798 -0.04034109 0.04419871
0003e0 4d c2 31 bd 79 ab 3b bd 03 22 34 3d f6 23 a7 3c
       -0.04339819 -0.045817826 0.04397775 0.02040289
0003f0 8e 57 8f 3d 20 61 4e 3a 96 76 0c 3d af 40 d1 bb
       0.069991216 0.0007872749 0.03429278 -0.0063858847

bias f4 [128]
000000 4d 44 b9 3d db 53 67 b9 4b cf 4f bd 96 b4 56 3d
       0.090462305 -0.00022061115 -0.0507348 0.052418314
000010 db fa 89 3d 79 9d 34 3d 60 81 84 bc 45 07 49 bd
       0.067373 0.04409549 -0.016174972 -0.0490792
000020 62 da 04 3d 7f ce da 3c 36 bf 99 bd 28 cd 42 3d
       0.03243483 0.026709793 -0.07507174 0.047558933
000030 47 51 63 3d d6 2e 42 3d df 8d 87 bd 70 41 0a 3d
       0.055497434 0.047407947 -0.06618857 0.033753812
000040 4a fd 07 bd cd db 49 3c d3 78 14 bc c5 ba 25 bd
       -0.03320054 0.012320471 -0.00906201 -0.04046132
000050 d1 4e 2b bd da 65 78 3d f2 89 5c bc 1d 33 4d 3d
       -0.041823212 0.06064401 -0.013460623 0.050097574
000060 e5 ac 34 3d 32 f7 86 3d 5c c8 38 bd 0f 05 2a 3d
       0.044110198 0.065901175 -0.045112953 0.04150873
000070 22 7e 30 3d ba d5 27 bd fe fd 52 bd 58 5a 43 3d
       0.04308904 -0.04097531 -0.051511757 0.04769358
000080 e8 57 07 3d a4 99 35 bc 51 fd 71 3d 0e 01 29 3b
       0.03304282 -0.011083994 0.059079472 0.0025787982
000090 c2 fa 6e 3d 2f da 1a bc 34 39 4b 3d 22 85 16 3d
       0.05834461 -0.009451433 0.0496151 0.03674806
0000a0 92 4b 88 bd bd d5 99 3d 4d 5f a0 3d 52 f6 4a 3d
       -0.06655039 0.075114705 0.07830677 0.049551316
0000b0 c6 11 ff 3c 9a 9b 61 3d d5 0b cb bc 8d 3c a3 3d
       0.031136405 0.055080034 -0.024785915 0.079705335
0000c0 d5 b5 99 bd 52 3d a6 bd ab ea ba bb b9 f1 7f bd
       -0.07505385 -0.08117165 -0.005704244 -0.062486384
0000d0 35 83 e8 3c c6 18 8e 3a f5 bb 06 3d e5 1d 94 3d
       0.028382877 0.0010841123 0.032894094 0.072322644
0000e0 05 68 11 bd 31 84 b8 3d 6a 86 32 3d 2a c2 8a bd
       -0.03549959 0.090095885 0.04358522 -0.06775315
0000f0 66 90 37 bd 5f 44 3d bd bb 42 1b 3d 88 b8 69 3d
       -0.044815443 -0.046207782 0.037905436 0.05706075
000100 76 ff 7d bd b1 15 1d bd 45 3d b4 bd 0f e1 8e bd
       -0.062011205 -0.038350765 -0.08800749 -0.0697652
000110 27 0c 04 bd 52 79 cb 3b 8f ad 94 bd 18 f1 24 3d
       -0.032238152 0.006209531 -0.07259666 0.040268987
000120 db 38 51 3d af 58 55 3b 16 be a2 3d b1 7a 85 3d
       0.051079612 0.003255408 0.07946412 0.06517542
000130 9f 91 91 3a a0 a9 4b 3b fe 14 82 ba 20 b0 9c bd
       0.001110602 0.0031076446 -0.0009924469 -0.07650781
000140 c5 e0 24 bd 5b 24 96 bd 37 68 9d bd cf 67 41 bc
       -0.04025342 -0.07331153 -0.07685893 -0.011804535
000150 e2 11 8c 3b 32 d9 ac bc 96 dc 7c 3d b3 e8 2a 3d
       0.0042745927 -0.02109966 0.061733805 0.041725826
000160 3b cc 25 ba 64 e7 96 bd 74 55 95 bd a4 4c 96 bd
       -0.0006324683 -0.07368353 -0.072916895 -0.07338837
000170 f0 dd 35 bc c4 92 eb 3c ea 3c 8d 3d c0 e5 4c 3d
       -0.011100277 0.028756507 0.06896384 0.050023794
000180 e4 2e b7 3c bc a0 56 3d 90 dd 90 bd c7 a0 be 3c
       0.022361226 0.052399382 -0.0707351 0.023270024
000190 89 d9 bc bc 7b aa 4b bc 2e 70 93 3d 00 53 ef 3c
       -0.023052948 -0.012430782 0.07199131 0.029214382
0001a0 e0 79 1a bd 4c 15 84 bc 4f 9f 17 bd 05 7c 4b bd
       -0.037713885 -0.016123436 -0.037017163 -0.04967882
0001b0 ca 4b 8b bd 4c 41 81 bd 58 35 94 3d b8 be 40 3d
       -0.06801565 -0.063112825 0.07236737 0.047056884
0001c0 26 61 a7 bc 8e 44 02 bd 7d 60 a0 bd 40 30 37 bd
       -0.020432066 -0.03180366 -0.07830904 -0.04472375
0001d0 08 07 d1 3c e7 21 ff bc cd 3b c1 3c 59 24 c5 bc
       0.025516048 -0.031144096 0.023588086 -0.024065183
0001e0 f6 ad 99 bd da 84 fc 3c 6c 56 0b 3d 2b 77 c9 3c
       -0.075038835 0.030825067 0.034017965 0.024592957
0001f0 bc 3f 88 bd bd 17 ad bc 62 4c b3 3d 22 85 29 ba
       -0.06652781 -0.021129483 0.08754803 -0.0006466677

weight f4 [128, 128]
000000 91 e9 d1 bb c7 9a b0 3c 84 2d b3 3d 5b 5d 9c 3d
       -0.006406017 0.021558179 0.08748916 0.07634994
000010 ef 20 96 3c 46 d6 ae 3d 1b 00 05 bd c1 6b fd 3c
       0.01832625 0.08536963 -0.032470804 0.03093517
000020 c2 d6 5d 3d ec cb ad bd e7 eb a6 bd 83 c1 73 bd
       0.054159887 -0.08486161 -0.081504636 -0.05951072
000030 f1 20 a0 bd 24 96 c0 3c fe a8 41 3b e8 f4 c6 bc
       -0.07818783 0.023509093 0.002955019 -0.024286702
000040 09 5c 10 bd 4f 44 ae bd 83 18 39 bd 40 4d a4 3d
       -0.03524402 -0.085091226 -0.04518939 0.08022547
000050 38 92 de bc 7d f0 06 3b f0 93 29 bd ea 32 39 bd
       -0.027169332 0.002059012 -0.04140085 -0.04521457
000060 98 8c 86 3d 94 e9 3a bc b6 37 05 3c c6 22 7f 3d
       0.06569785 -0.011408228 0.008130958 0.062289022
000070 33 ec 61 bc c9 0e d3 3c 7c c6 64 bd b2 2a 61 3d
       -0.013789224 0.025763886 -0.055853352 0.054972358
000080 0e 7a 03 bc 26 03 4a 3d d3 fc 93 bd ef 31 9c 3c
       -0.008024706 0.04931941 -0.07225957 0.019066779
000090 d7 ef 93 3c 70 1f 6d bd f7 82 8b 3d 29 82 4b bd
       0.0180587 -0.05789131 0.06812089 -0.049684677
0000a0 84 36 fc bc 4d dd 5e 3d 1e 93 59 bd 5d 4f 45 3d
       -0.030787714 0.054410268 -0.053118818 0.04817139
0000b0 74 89 83 3d d3 57 14 bc d0 01 45 3c bb 39 6d bd
       0.064227015 -0.009054142 0.012024358 -0.057916384
0000c0 f4 31 26 bd 90 5f c0 bb 69 ae 8a 3d bc f2 85 3d
       -0.040574983 -0.005870767 0.06771547 0.065404385
0000d0 22 04 a3 3d f0 07 fb bc 42 0d 78 bd 80 61 6a 3d
       0.07959773 -0.030643433 -0.06055952 0.05722189
0000e0 b6 d3 32 3d 08 93 bc 3d 56 92 aa 3d 16 51 2c bd
       0.043658935 0.092077315 0.083286926 -0.042069517
0000f0 62 3a 98 3d da 21 a0 3d 2e bb 86 bc 1c c8 5d bd
       0.07433011 0.07818957 -0.016446676 -0.054145917
000100 22 61 59 bd 53 60 08 bd ef 6d 6d 3d fd 0d 39 3c
       -0.05307115 -0.033294987 0.05796617 0.011294839
000110 19 3c ab bc f6 d9 6b bc c1 6f aa 3d 3a e6 c0 3c
       -0.02090268 -0.014395228 0.083220966 0.02354728
000120 37 0d 66 bd 64 03 33 3d b1 7f 54 bd 1a ea 8c 3d
       -0.056164946 0.043704405 -0.05187959 0.06880589
000130 4b 05 cb bc a0 d5 b6 3c df 8e 3b 3d 1f 1d 7d 3d
       -0.024782797 0.022318661 0.04579055 0.06179535
000140 a0 e2 16 bc 6c 07 23 3d 40 8d 77 bc 39 9b b7 3d
       -0.009209305 0.039802 -0.01510936 0.08965153
000150 70 ad 76 bc 51 b2 8f bd 5e 78 df bc 7d aa 03 3d
       -0.015055999 -0.07016433 -0.027279075 0.032145012
000160 13 cf 13 3c 6a 60 78 bd 76 0a df bc 51 89 cd 3c
       0.009021538 -0.060638823 -0.027226668 0.025089892
000170 72 41 04 3d 49 c9 ad 3d 01 ca de bc fe 3b ad 3c
       0.032288976 0.08485658 -0.027195932 0.02114677
000180 01 61 29 bd c6 7d af bd ec 4f a3 bb 6f d3 f1 bb
       -0.041352276 -0.08568911 -0.0049838927 -0.007379941
000190 40 08 93 3d 9a 33 89 bd b9 bf 78 bd ed f4 3b bd
       0.07179308 -0.06699295 -0.060729716 -0.045887876
0001a0 d2 55 84 bb 96 1e 53 3d bc 16 75 3d 62 d8 1f bc
       -0.004038551 0.05154284 0.059836134 -0.0097561795
0001b0 ec 51 1d 3d f2 5e 73 3d 26 ef ec bc 0f 59 2d bd
       0.038408205 0.05941672 -0.028922629 -0.04232126
0001c0 c6 c5 84 3c 39 2b 50 bd 1b fe 90 3d 77 07 e9 3c
       0.016207587 -0.05082247 0.07079717 0.028445942
0001d0 f3 3d 6e bb b3 01 42 bc e0 78 b9 3b 3a 98 cd 3c
       -0.0036352843 -0.011841225 0.0056601614 0.025097001
0001e0 f4 ea ad bd 10 a7 9a bd e5 35 99 bb b2 21 2a bd
       -0.084920794 -0.07551396 -0.004675614 -0.04153604
0001f0 94 2a 69 bd 41 66 cf 3c f4 62 76 3d 19 84 5e bd
       -0.05692537 0.025317313 0.060152963 -0.054325197
000200 de 70 2f b9 69 09 8b 3d 05 0c 78 3d 70 78 16 3d
       -0.00016731347 0.06788904 0.060558338 0.036735952
000210 fc ec ba 3b ed 2b 55 bd 26 66 86 3d 69 60 42 bd
       0.0057045203 -0.052043844 0.06562452 -0.047455225
000220 c1 f8 b6 3b 35 d9 33 bd 42 32 37 3c 5f a8 94 bd
       0.005583853 -0.043908317 0.011181416 -0.07258677
000230 c9 2d 8d bc 5e 48 e5 bc 0b 9a 8a 3d c4 ef 0b 3c
       -0.017233746 -0.027988609 0.067676626 0.008541051
000240 be 5d 06 3d 42 6e a2 bc ac 99 b4 bd c5 ae 7d bd
       0.032804243 -0.019827966 -0.08818373 -0.06193425
000250 d9 08 17 3d e3 8e e5 3d 17 70 28 bd 07 c7 d0 bc
       0.036873672 0.11208894 -0.041122522 -0.025485529
000260 de 84 52 3d 48 c9 b0 3d 73 6e 89 bd 21 46 0b bd
       0.051396243 0.08632141 -0.0671052 -0.034002427
000270 11 85 9e bd f9 3d d0 3c 7e cf 95 bc 28 fc 8d bc
       -0.07740224 0.025420176 -0.018287417 -0.017332152
000280 23 18 8f 3d ca 7c b5 bc 57 98 41 bd 04 ae 94 bd
       0.069870256 -0.02215423 -0.047264423 -0.07259753
000290 da 7d c2 3d 5a 56 13 bc b1 5b 78 3d 4d ce 80 bc
       0.094966605 -0.008992756 0.06063432 -0.015723372
0002a0 ca 49 af bc 78 d7 ba 3c 3f 68 7b 3d 25 e4 d7 3c
       -0.02139749 0.022807822 0.061378714 0.026353905
0002b0 fb af 92 bd 21 42 90 bc e0 0d 8f bb ff 64 8a 3d
       -0.07162472 -0.017609658 -0.0043656677 0.06757545
0002c0 dc df 54 bd 78 99 8a bc fb 1c 5f bc c6 e0 d3 3d
       -0.0519713 -0.016918883 -0.013617749 0.103456065
0002d0 3b 2f e9 3c ed 6d 5d 3d 67 bd 89 bd d2 b8 1f 3d
       0.028464904 0.05405991 -0.06725579 0.038994618
0002e0 8e 14 4b bc d9 c9 69 bd 5e 6a 48 3d b7 09 8d bd
       -0.012395037 -0.057077263 0.048929565 -0.068866186
0002f0 4b 09 8c 3c 35 b1 43 bd d7 d6 53 ba 0f 5f 4b bd
       0.017094275 -0.04777642 -0.0008081025 -0.0496512
000300 83 a3 69 bd 71 55 96 3d 8d 83 f9 3b 23 a9 02 3c
       -0.057040703 0.073405154 0.007614559 0.007974896
000310 17 96 a4 bd a7 c7 7d bd 3e b8 8f 3c af 8a 9b 3d
       -0.0803644 -0.06195798 0.017543908 0.07594811
000320 d1 a7 20 bd 5b fa bf 3d 4f 04 89 3b 4b 8b 80 3d
       -0.039222542 0.093739234 0.004181422 0.06276568
000330 7d dd 05 3d a9 6e 3b bd e2 b9 6a 3d 3a b4 a0 3d
       0.03268193 -0.04575983 0.057306178 0.078468755
000340 2b 5c 3e bd 65 dd ff bc 80 9f 17 bd ed 74 b6 bd
       -0.046474617 -0.031233499 -0.037017345 -0.089090206
000350 c5 52 a6 bb e8 57 e3 bc 34 70 87 3d 8e 4b 1f bd
       -0.005075785 -0.027751878 0.06613198 -0.038890414
000360 76 c2 89 bd f8 a0 95 bd 0b 32 89 bb e8 f7 69 bc
       -0.067265436 -0.07306093 -0.004186874 -0.014280297
000370 05 c5 b3 3c b6 be 99 bd 6e ab 1f bd 4b e7 08 3d
       0.021944532 -0.07507078 -0.038981847 0.033423703
000380 8f 0e 8a 3b 64 f4 6e 3d 20 b9 3d 3c c2 3d 7a bd
       0.0042131613 0.058338538 0.011579782 -0.061094053
000390 61 f7 9a 3d d7 3e 65 bd 7d eb 81 3d 47 15 a2 3d
       0.07566715 -0.055968132 0.06343744 0.079142146
0003a0 36 46 95 3d 34 c2 6f 3d 5f a1 6c 3b 6e 56 7e bd
       0.07288782 0.058534816 0.0036106927 -0.062094145
0003b0 da a7 0b bd 35 90 6b bd b5 74 15 3d f2 cb 5f 3d
       -0.034095623 -0.057510573 0.036488254 0.054637857
0003c0 86 d6 17 3d d0 b2 f6 3c a3 44 18 bd 8d 9a 95 3d
       0.03706982 0.030114561 -0.037174832 0.07304869
0003d0 cc fa 22 bc 1d 61 9a 3a b5 41 4f bc e3 a2 98 bd
       -0.00994749 0.001177821 -0.012649943 -0.07452943
0003e0 c9 78 32 bd c7 6a 9d 3d 83 0a 1b bc da 5b 1f 3c
       -0.04357222 0.07686382 -0.009462955 0.009726489
0003f0 84 67 62 bd c7 c8 2a bc b9 55 23 3c ec ca 68 bd
       -0.0552745 -0.010423846 0.009969168 -0.056834146
