models/agModels-predicttop10_votes/models/NeuralNetTorch_BAG_L1/S11F2/net.params (torch, 248949 bytes, 16 tensors)

weight f4 [6, 4]
-1.1297592 -1.1601124 -0.2817017 -0.42271313 0.8975779 0.62025297 -0.36946237 -2.206012
0.42584363 -0.2103624 1.5503194 0.32005578 0.1584073 0.9146358 -0.14359573 -0.071781486
0.92790097 1.3096118 1.9872274 0.04828813 0.43280315 -0.23730186 -0.6507061 -2.116898
00000000: f39b 90bf 907e 94bf 353b 90be db6d d8be
00000010: aac7 653f e6c8 1e3f 2c2a bdbe 4d2f 0dc0
00000020: 2d08 da3e 3e69 57be de70 c63f 5ade a33e
00000030: 8635 223e 9225 6a3f c20a 13be 2c02 93bd
00000040: eb8a 6d3f 5ca1 a73f 785d fe3f c6c9 453d
00000050: 6098 dd3e 42ff 72be ad94 26bf 427b 07c0

weight f4 [6, 4]
-0.1932896 -0.7267773 0.547098 0.24465309 -0.113938645 -0.6776264 1.0000882 0.49761242
-0.53889173 0.91996235 1.170345 1.3424867 -1.5041165 2.5734797 -0.5190416 0.30958197
-1.6941552 -0.59279895 -0.54462373 -0.48132107 -0.8736663 0.92115515 -0.019933872 0.61601067
00000000: b5ed 45be 140e 3abf 9d0e 0c3f 5786 7a3e
00000010: aa58 e9bd ec78 2dbf e402 803f 0ec7 fe3e
00000020: cff4 09bf a782 6b3f ddcd 953f 9bd6 ab3f
00000030: e486 c0bf e4b3 2440 e9df 04bf 8781 9e3e
00000040: 14da d8bf acc1 17bf 766c 0bbf b76f f6be
00000050: 98a8 5fbf d3d0 6b3f 5c4c a3bc e0b2 1d3f

weight f4 [6, 4]
-0.07864761 0.67413265 -0.86849356 -0.019654581 0.8437182 -0.36868608 1.0436412 0.4018218
0.0746912 1.120032 0.31485194 0.4872087 -0.81036294 -1.2984465 -0.7497693 -1.3433309
0.22075363 -0.33653122 -0.4604428 0.2240367 0.6073071 -0.04549684 -0.19806746 -1.0156751
00000000: 0012 a1bd f593 2c3f 9855 5ebf a502 a1bc
00000010: eafd 573f 6cc4 bcbe 0996 853f 96bb cd3e
00000020: b3f7 983d 355d 8f3f 4634 a13e 6b73 f93e
00000030: f273 4fbf 7f33 a6bf e1f0 3fbf 44f2 abbf
00000040: 3d0d 623e d24d acbe 29bf ebbe e069 653e
00000050: 7a78 1b3f e55a 3abd 32d2 4abe a401 82bf

weight f4 [6, 4]
-0.7036674 1.0505643 -0.5943557 -1.2973175 0.054195113 -0.7194165 0.6977738 -0.76543206
-0.2549332 0.10757066 0.2216238 1.2008672 0.31390738 0.41090488 -0.24124989 -0.10164237
0.19492908 -0.7819128 -1.9339614 0.15440689 -0.5166724 0.14848873 0.028657714 0.21197437
00000000: 8c23 34bf e478 863f b227 18bf 800e a6bf
00000010: b2fb 5d3d ae2b 38bf 4ea1 323f 5bf3 43bf
00000020: 9b86 82be 024e dc3d 59f1 623e 04b6 993f
00000030: 78b8 a03e 2062 d23e 360a 77be e029 d0bd
00000040: 7d9b 473e 702b 48bf 0c8c f7bf d71c 1e3e
00000050: a444 04bf 6e0d 183e 95c3 ea3c cf0f 593e

weight f4 [6, 4]
0.9379882 -1.0395207 0.32081407 -0.11553575 0.96931595 -0.4946385 0.77246124 0.6454544
1.0336024 -1.4914491 0.5793804 0.12914315 0.10695991 -0.83367383 0.6249258 -1.922025
1.3249424 -0.13349895 0.7879183 1.0199275 0.23907642 -1.3124526 1.8375705 0.015783604
00000000: ff1f 703f 040f 85bf be41 a43e 029e ecbd
00000010: 1725 783f 4241 fdbe 05c0 453f 803c 253f
00000020: 154d 843f cee7 bebf 4652 143f 1a3e 043e
00000030: cc0d db3d a66b 55bf 23fb 1f3f ea04 f6bf
00000040: b697 a93f f3b3 08be 04b5 493f fc8c 823f
00000050: 73d0 743e 72fe a7bf 8335 eb3f 9e4c 813c

weight f4 [26, 9]
-0.5881293 -1.6709818 -0.5735045 -0.5602008 -0.6232427 -1.5097679 -0.8034479 -2.0992947
-1.0224591 -0.6949503 -0.015776202 0.30647624 -0.26741567 1.2522763 0.037300825 -0.8915349
0.48040873 -0.040768404 1.3181672 -0.25659147 -0.5641273 -2.9047444 -1.5112914 1.0325466
0.23321508 -0.70738477 1.7305661 0.3533877 1.039838 1.4070852 -0.12129772 -0.6279207
-0.6462601 1.8101948 -0.918878 -0.60440105 0.06334569 0.5793681 0.54332644 1.2467258
-1.047193 -1.7726419 1.5340277 -0.0044447863 -1.6307988 0.03955793 -0.6026661 0.7251445
1.1317515 -0.091232695 -0.00093247293 0.68170756 0.49593028 0.21406467 0.04717506 0.55878323
0.102550864 -0.9386956 0.6399563 1.0866917 2.0743349 -0.915623 -0.6808524 -0.6529567
1.5379002 -0.77490443 0.11267804 1.3365822 2.097381 0.7261795 -0.6912607 -0.4560232
0.27043766 -0.611637 0.9480024 0.5004994 -0.8260728 1.3019737 0.2726978 -0.5983565
-0.9182185 -0.5960056 0.16983412 -1.0854447 -0.7477602 -2.2209466 -0.6778177 0.5138551
0.8233506 0.061780013 0.40533257 -1.8439709 -1.1625302 0.091051556 0.60468507 1.3098866
-1.5586195 0.3637379 -1.3607439 -0.16276658 -0.27902526 -1.1707354 0.68596125 -1.2715282
-1.1047575 0.33373898 -0.76571023 -0.93864983 -0.778045 0.5593322 0.3443982 0.5783556
-1.4119459 -0.833253 1.262455 -1.838477 0.43415347 1.1030506 0.48277748 -1.1527295
-0.41734305 -0.28764954 0.9360586 -0.4397779 -0.6532958 -0.33784294 -1.4162356 -0.5449106
1.230731 0.84114367 0.35807103 0.2943426 -2.8041983 -0.79508007 0.43749103 0.29555523
-1.1426241 -0.023171026 -0.17760277 -0.2355744 2.4510825 1.6550735 -0.27157173 -1.5674758
-0.57808304 -0.79504335 -1.4077374 -0.3900057 -0.32328904 -0.12859468 0.5031472 -1.6018646
0.39732966 -2.2751963 -0.8958932 -1.6749527 0.5504158 -1.4610515 0.7654533 -1.4099201
0.37487024 -0.1240484 0.22492252 1.221698 1.245238 -0.109140225 2.1736538 0.07191846
0.48056564 0.06441178 0.40866894 -1.7662095 1.2282732 2.5961533 0.16900975 0.34910074
-1.1578015 2.2481165 0.12998673 0.86518186 -1.117545 -0.068289906 -1.471254 -1.7284474
-1.8998797 -0.01706855 -1.9953951 -1.9694873 2.1069186 -0.9706378 -0.6543288 1.7017772
0.39435133 -0.80169207 -0.009717409 1.7352375 -0.64398855 0.73705786 0.77069235 1.4267333
-0.5598734 -0.06791039 0.45552266 -0.44484156 -1.9942286 0.736336 -0.18193603 -1.5053087
-0.52019066 -1.5003961 -0.7346569 1.0521125 -2.314074 0.49332163 -0.53432053 -0.03776949
0.6611256 1.0227821 -0.49732444 0.41058502 1.4224447 0.4753968 -0.46967652 -0.18618667
-0.12616342 0.030679623 0.18833376 -0.5650102 0.07760914 -0.09744275 1.3831716 -0.08933821
-2.8239356e-07 8.143281e-05
00000000: a48f 16bf bbe2 d5bf 31d1 12bf 5269 0fbf
00000010: d58c 1fbf 1340 c1bf c3ae 4dbf d85a 06c0
00000020: f1df 82bf 43e8 31bf 183d 81bc 74ea 9c3e
00000030: b5ea 88be 974a a03f c0c8 183d a23b 64bf
00000040: 22f8 f53e c5fc 26bd b4b9 a83f f55f 83be
00000050: a66a 10bf 55e7 39c0 ff71 c1bf 7d2a 843f
00000060: efcf 6e3e 2b17 35bf 3183 dd3f 3cef b43e
00000070: 6919 853f 5e1b b43f f06a f8bd 69bf 20bf
00000080: 4d71 25bf 77b4 e73f 973b 6bbf 07ba 1abf
00000090: 63bb 813d 7851 143f 7117 0b3f b694 9f3f
000000a0: 6c0a 86bf eee5 e2bf 055b c43f 92a5 91bb
000000b0: 04be d0bf 7f07 223d 5348 1abf 12a3 393f
000000c0: 3cdd 903f 35d8 babd 3371 74ba 6384 2e3f
000000d0: 93ea fd3e c533 5b3e a33a 413d 6b0c 0f3f
000000e0: 3006 d23d 5b4e 70bf 2dd4 233f b718 8b3f
000000f0: e7c1 0440 4566 6abf 584c 2ebf 2c28 27bf
00000100: ead9 c43f 2360 46bf bfc3 e63d 2015 ab3f
00000110: 7e3b 0640 e6e6 393f 76f6 30bf df7b e9be
00000120: ce76 8a3e 3e94 1cbf 49b0 723f bb20 003f
00000130: 8279 53bf 13a7 a63f 0c9f 8b3e e42d 19bf
00000140: 5e10 6bbf d393 18bf ffe8 2d3e daef 8abf
00000150: 366d 3fbf fd23 0ec0 7685 2dbf 028c 033f
00000160: 1bc7 523f 0a0d 7d3d c087 cf3e 3d07 ecbf
00000170: cacd 94bf 3d79 ba3d a4cc 1a3f 5daa a73f
00000180: d880 c7bf db3b ba3e db2c aebf 48ac 26be
00000190: 66dc 8ebe a8da 95bf 289b 2f3f 70c1 a2bf
000001a0: b268 8dbf d6df aa3e 9605 44bf 5b4b 70bf
000001b0: f52d 47bf 6530 0f3f f654 b03e 1d0f 143f
000001c0: a5ba b4bf 1250 55bf 2098 a13f 3753 ebbf
000001d0: 5d49 de3e c330 8d3f 9c2e f73e a48c 93bf
000001e0: fdad d5be cd46 93be 89a1 6f3f 922a e1be
000001f0: 653e 27bf c0f9 acbe 3547 b5bf 437f 0bbf
00000200: 9888 9d3f 3155 573f 1655 b73e 13b4 963e
00000210: fc77 33c0 5e8a 4bbf d3fe df3e 0453 973e
00000220: 8241 92bf 2ad1 bdbc 80dd 35be 6a3a 71be
00000230: 89de 1c40 73d9 d33f 730b 8bbe 0ca3 c8bf
00000240: 40fd 13bf f687 4bbf bd30 b4bf d4ae c7be
00000250: 2486 a5be 53ae 03be 41ce 003f e609 cdbf
00000260: cb6e cb3e d19c 11c0 4259 65bf da64 d6bf
00000270: 0de8 0c3f bc03 bbbf bff4 433f 4378 b4bf
00000280: feee bf3e 160d febd 1752 663e 9a60 9c3f
00000290: f563 9f3f e984 dfbd 251d 0b40 fc49 933d
000002a0: b30c f63e 53ea 833d 0e3d d13e 2713 e2bf
000002b0: 0e38 9d3f 6027 2640 e410 2d3e 55bd b23e
000002c0: d732 94bf 24e1 0f40 3e1b 053e 8f7c 5d3f
000002d0: b70b 8fbf 94db 8bbd 0d52 bcbf c43d ddbf
000002e0: 422f f3bf 58d3 8bbc 1b69 ffbf 2918 fcbf
000002f0: c1d7 0640 b87b 78bf 1882 27bf d6d3 d93f
00000300: 6be8 c93e b13b 4dbf c435 1fbc 431c de3f
00000310: 6fdc 24bf d3af 3c3f 184c 453f 329f b63f
00000320: dd53 0fbf 9a14 8bbd 443a e93e 46c2 e3be
00000330: e242 ffbf 8480 3c3f 704d 3abe f5ad c0bf
00000340: 372b 05bf fb0c c0bf 7912 3cbf 9fab 863f
00000350: ca19 14c0 a794 fc3e 3bc9 08bf 2eb4 1abd
00000360: 873f 293f 86ea 823f 4fa1 febe 3338 d23e
00000370: ab12 b63f 3667 f33e 7179 f0be b8a7 3ebe
00000380: fc30 01be d553 fb3c 91da 403e 82a4 10bf
00000390: 8af1 9e3d 1190 c7bd c40b b13f f4f6 b6bd
000003a0: e09b 97b4 e8c6 aa38

weight f4 [128, 76]
0.15905662 0.15496428 0.124110006 0.06822192 -0.07462762 0.11203995 0.03248161 0.057102874
-0.09154179 -0.037582785 -0.13216998 -0.012125723 0.014966137 -0.124114074 0.045941126 0.040160216
0.04973535 -0.06518493 -0.08483636 -0.034636166 0.05350541 0.11918855 0.0756473 -0.013699348
0.03989564 -0.11044558 -0.09591256 0.061011598 -0.056745645 0.058898024 -0.07740927 -0.045210626
-0.09239379 0.05954161 -0.007690089 0.087068304 0.07228335 0.070663475 0.01063183 -0.06294965
-0.0228413 0.01934966 0.07184227 -0.060789432 0.12666352 -0.042014495 -0.18095571 -0.053693607
0.10867025 0.09967962 -0.11164002 0.06327545 0.06645496 0.028340926 0.07606637 -0.05154419
0.04983317 0.06235721 -0.022973036 0.040861208 -0.0069903363 0.019884102 0.0127415545 -0.037333205
0.017707303 0.03619608 -0.050513286 -0.028054371 0.07172786 -0.039876133 0.01413291 -0.007376457
0.0144858835 -0.068061605 -0.07157908 -0.07978307 0.028965605 -0.08098016 0.03277487 -0.032015648
0.14564113 0.09050055 -0.07095661 -0.11061377 -0.103411146 -0.0025988994 -0.016770918 -0.083938725
-0.03458918 -0.0016867227 -0.0616523 0.013803298 -0.05124187 -0.038348943 0.025384936 0.10345919
-0.06123329 0.019902393 -0.03432924 0.1293111 -0.09409688 -0.09525517 0.12358313 -0.06356372
0.03140864 0.0028092284 -0.011518894 -0.012159712 0.08759547 0.015877632 -0.0999148 -0.05321205
-0.028062621 0.06651528 -0.06540132 0.115456074 -0.008345274 -0.0037269974 0.09308922 0.059056733
0.071923226 0.061927397 0.0023935628 -0.081357926 -0.009550415 0.07763156 -0.044420756 -0.10644631
0.05426556 0.0904165 -0.042414363 -0.10761171 -0.10667569 0.01234768 -0.015434263 -0.0482848
0.025724083 0.00928864 0.08696926 0.07827645 -0.008375479 -0.113161154 -0.09865216 0.10872968
0.04306122 0.04602569 -0.10657535 0.093508035 0.11415018 0.08234644 -0.081818596 -0.039344944
-0.005826563 0.16464125 -0.028210727 -0.048699245 0.05047261 -0.03589103 -0.051041007 -0.010764525
-0.0043144315 -0.103560954 0.09081885 -0.035752982 0.018583458 0.10437915 0.1067793 -0.0071353726
0.10277005 0.015907 -0.053207763 0.11314148 0.034285802 -0.10244832 -0.0115849115 -0.080774136
0.10685742 -0.016767489 -0.0989766 0.007829756 0.07952769 0.03596911 0.046087917 0.017749501
0.04494043 -0.018193986 -0.043508146 -0.10562031 -0.09293681 0.0647429 -0.053329423 -0.018656902
0.038270656 0.011937676 -0.075065486 0.113396496 -0.05490912 0.084396094 -0.13027693 -0.03446665
0.07650877 -0.0898178 0.09929127 -0.109177776 -0.076259024 -0.13196965 -0.039602496 0.13684666
-0.009908758 0.079785734 0.009263007 0.0008613766 0.09965227 -0.11710502 0.02340609 0.09452914
-0.015618264 0.08372953 -0.048860453 0.07515611 -0.09424741 -0.01124847 -0.05078908 0.074802324
0.07214018 0.08318149 0.004222097 -0.0053443327 0.15101649 0.06496834 0.09666736 -0.08001091
-0.032128815 -0.013185122 0.06844292 0.08664414 -0.021249682 -0.10468253 0.059855968 0.027098184
0.015503444 -0.10127227 0.10798921 0.11216928 0.041193653 -0.09944398 0.089360304 -0.07621636
0.02973206 0.019025637 -0.04869316 0.041150223 -0.09782292 0.027586078 -0.068312384 0.000105474035
00000000: bddf 223e f5ae 1e3e 632d fe3d efb7 8b3d
00000010: 5ed6 98bd 3475 e53d 700b 053d b4e4 693d
00000020: 437a bbbd 68f0 19bd 9157 07be f8aa 46bc
00000030: 8734 753c 852f febd c32c 3c3d 0a7f 243d
00000040: 4bb7 4b3d ad7f 85bd afbe adbd a7de 0dbd
00000050: 7d28 5b3d 2019 f43d f9ec 9a3d 3b73 60bc
00000060: 9c69 233d 4b31 e2bd ce6d c4bd 4ce7 793d
00000070: 1f6e 68bd 0e3f 713d c088 9ebd c72e 39bd
00000080: f538 bdbd e7e1 733d 24fd fbbb de50 b23d
00000090: 4b09 943d 03b8 903d 2131 2e3c bfeb 80bd
000000a0: ae1d bbbc 2e83 9e3c 0a22 933d 57fe 78bd
000000b0: 15b4 013e 6417 2cbd 744c 39be d4ed 5bbd
000000c0: 828e de3d d424 cc3d 86a3 e4bd 8f96 813d
000000d0: 8a19 883d 3b2b e83c afc8 9b3d 0020 53bd
000000e0: de1d 4c3d 466a 7f3d f331 bcbc 155e 273d
000000f0: 310f e5bb fce3 a23c f4c1 503c b4ea 18bd
00000100: e80e 913c 5742 143d 05e7 4ebd 48d2 e5bc
00000110: 0ee6 923d 2855 23bd b98d 673c 35b6 f1bb
00000120: 3356 6d3c e263 8bbd 0d98 92bd 4e65 a3bd
00000130: 4749 ed3c edd8 a5bd f13e 063d d722 03bd
00000140: f322 153e 5a58 b93d b351 91bd 7989 e2bd
00000150: 39c9 d3bd 4c52 2abb 2a63 89bc 11e8 abbd
00000160: 62ad 0dbd 0615 ddba 1f87 7cbd 3a27 623c
00000170: ffe2 51bd c813 1dbd 12f4 cf3c 69e2 d33d
00000180: c2cf 7abd 580a a33c d19c 0cbd 216a 043e
00000190: ddb5 c0bd 2415 c3bd 2719 fd3d b22d 82bd
000001a0: 59a6 003d 081b 383b beb9 3cbc 8739 47bc
000001b0: 4165 b33d cf11 823c 21a0 ccbd e1f4 59bd
000001c0: 95e3 e5bc 2a39 883d 21f1 85bd 3c74 ec3d
000001d0: 9eba 08bc a440 74bb 90a5 be3d 79e5 713d
000001e0: 7c4c 933d 95a7 7d3d 52dd 1c3b fc9e a6bd
000001f0: 5879 1cbc 4cfd 9e3d 8af2 35bd 8600 dabd
00000200: 9045 5e3d 492c b93d afba 2dbd 8763 dcbd
00000210: c978 dabd ec4d 4a3c fedf 7cbc 48c6 45bd
00000220: 50bb d23c 612f 183c f01c b23d 674f a03d
00000230: 4e39 09bc 09c1 e7bd 250a cabd abad de3d
00000240: f660 303d 6f85 3c3d 2d44 dabd 2481 bf3d
00000250: 92c7 e93d 40a5 a83d 8290 a7bd 2a28 21bd
00000260: c1ec bebb b797 283e 2f1a e7bc dc78 47bd
00000270: 5ebc 4e3d 7902 13bd 6010 51bd b15d 30bc
00000280: 1360 8dbb c417 d4bd 3cff b93d b871 12bd
00000290: 563c 983c bcc4 d53d 1baf da3d d8cf e9bb
000002a0: 1b79 d23d 664f 823c 62f0 59bd b8b6 e73d
000002b0: 456f 0c3d 6dd0 d1bd a4ce 3dbc e96c a5bd
000002c0: 10d8 da3d f95b 89bc 3eb4 cabd 6048 003c
000002d0: 6adf a23d 5854 133d afc6 3c3d 6767 913c
000002e0: 7513 383d 8e0b 95bc 9935 32bd 764f d8bd
000002f0: a755 bebd ed97 843d f46f 5abd 5cd6 98bc
00000300: b1c1 1c3d 3e96 433c efbb 99bd 6c3c e83d
00000310: 63e8 60bd dcd7 ac3d 5167 05be e72c 0dbd
00000320: a1b0 9c3d 65f2 b7bd 3959 cb3d 9998 dfbd
00000330: b12d 9cbd 0d23 07be 3a36 22bd 8821 0c3e
00000340: 5858 22bc b466 a33d dec3 173c 01ce 613a
00000350: 7d16 cc3d c2d4 efbd 21be bf3c 7e98 c13d
00000360: bfe3 7fbc 637a ab3d e621 48bd 72eb 993d
00000370: c904 c1bd 814b 38bc 3608 50bd f631 993d
00000380: 3bbe 933d 0f5b aa3d 8459 8a3b 831f afbb
00000390: 11a4 1a3e 1f0e 853d 89f9 c53d c3dc a3bd
000003a0: 8199 03bd 6906 58bc cd2b 8c3d 7c72 b13d
000003b0: d013 aebc cb63 d6bd 882b 753d 03fd dd3c
000003c0: 2802 7e3c d667 cfbd 7229 dd3d 02b9 e53d
000003d0: adba 283d 49a9 cbbd 8902 b73d 5317 9cbd
000003e0: a690 f33c a7db 9b3c 7b72 47bd 238d 283d
000003f0: 6257 c8bd 33fc e13c 5de7 8bbd f131 dd38

bias f4 [128]
-0.07192532 -0.07441008 -0.082945004 0.05575343 0.009363411 -0.0075849537 0.026935108 0.055995263
0.0065958053 0.061729103 -0.014397746 0.041069955 0.03558265 -0.0026741393 0.08680816 0.11305381
0.09008476 -0.025103701 -0.021922152 0.088925205 -0.049448773 0.0077535883 -0.072912745 -0.027830807
-0.047211953 0.06611895 -0.054662377 -0.06907894 0.042174496 -0.009293225 0.015660083 -0.09074871
-0.04490036 0.059958216 0.065381 -0.10307919 -0.077695645 0.044768855 -0.104706876 -0.06764854
-0.07169144 -0.0968222 -0.057142347 0.08290869 -0.12175294 0.0815576 -0.11101452 -0.03943068
-0.044187143 0.059375856 -0.101584345 -0.06481045 -0.10865371 -0.002721737 0.040617455 0.094546884
0.08665267 -0.029706176 -0.06961453 0.025466012 0.06285127 0.10218619 0.0711564 0.003912088
-0.09987476 -0.06514088 0.06297715 -0.08206526 -0.09091088 -0.072490044 -0.032305032 0.05079238
0.07965442 0.09567939 0.066473804 0.01161702 -0.019725965 -0.06812466 -0.058264475 -0.010428086
0.09034633 -1.1468694e-05 -0.020684343 0.0028250793 -0.05244288 -0.06347517 0.055037446 -0.09106274
-0.0045484775 -0.01349145 0.011594656 -0.011690298 -0.064158745 -0.03128841 -0.037989568 0.03452978
0.01931963 -0.032450333 0.09254067 -0.0008337754 0.05219193 -0.041764118 -0.1084604 -0.10643366
-0.040649902 0.06609151 0.058631003 0.054454464 0.023648577 -0.068796985 -0.034902625 0.019522877
-0.105178475 -0.07877055 -0.06611216 0.019319534 -0.02500309 -0.016305985 0.064715855 -0.0655125
-0.07315917 -0.024352867 0.06212492 0.010058726 -0.10326673 0.08162102 -0.07534387 0.08259875
00000000: 954d 93bd 5064 98bd 12df a9bd b55d 643d
00000010: fe68 193c 348b f8bb 04a7 dc3c 4a5b 653d
00000020: a021 d83b a8d7 7c3d 86e4 6bbc f838 283d
00000030: 1dbf 113d 9d40 2fbb 7ac8 b13d c288 e73d
00000040: 5c7e b83d 47a6 cdbc 1696 b3bc 6b1e b63d
00000050: cc8a 4abd d011 fe3b 4753 95bd 6ffd e3bc
00000060: 5261 41bd 5f69 873d a8e5 5fbd 4279 8dbd
00000070: 2abf 2c3d 9c42 18bc 9349 803c 76da b9bd
00000080: 71e9 37bd bf96 753d 79e6 853d 2f1b d3bd
00000090: e51e 9fbd 8c5f 373d 8f70 d6bd 518b 8abd
000000a0: f6d2 92bd b84a c6bd 180e 6abd 08cc a93d
000000b0: 9b59 f9bd ac07 a73d 955b e3bd 1182 21bd
000000c0: 94fd 34bd 1934 733d 740b d0bd 57bb 84bd
000000d0: d685 debd 2b5f 32bb 7d5e 263d cca1 c13d
000000e0: f476 b13d 5e5a f3bc 1092 8ebd 199e d03c
000000f0: 2bb8 803d fe46 d13d 72ba 913d f930 803b
00000100: 238b ccbd 9568 85bd 2afa 803d d511 a8bd
00000110: 7c2f babd a975 94bd 4852 04bd ac0b 503d
00000120: db21 a33d 8ef3 c33d 6b23 883d 5055 3e3c
00000130: 5998 a1bc f184 8bbd bba6 6ebd 90da 2abc
00000140: 7f07 b93d aa69 40b7 3672 a9bc f724 393b
00000150: 58ce 56bd 45ff 81bd f26e 613d 1a7f babd
00000160: 650b 95bb 3e0b 5dbc 83f7 3d3c aa88 3fbc
00000170: a965 83bd 4728 00bd f39a 1bbd 196f 0d3d
00000180: 3344 9e3c a4ea 04bd f685 bd3d b891 5aba
00000190: 35c7 553d da10 2bbd 7c20 debd e4f9 d9bd
000001a0: 8380 26bd fc5a 873d 1027 703d a50b 5f3d
000001b0: a9ba c13c 6fe5 8cbd 0ef6 0ebd 71ee 9f3c
000001c0: d067 d7bd 7452 a1bd d065 87bd 0044 9e3c
000001d0: 48d3 ccbc 2194 85bc bf89 843d 6b2b 86bd
000001e0: 7ad4 95bd aa7f c7bc b376 7e3d 5bcd 243c
000001f0: 827d d3bd ec28 a73d e34d 9abd 8929 a93d

weight f4 [128, 128]
0.032372955 0.015286019 0.03934215 0.032312226 -0.082040004 0.02363282 0.09494203 -0.037309203
0.046883788 0.05964567 -0.0105910925 -0.016030256 -0.048672765 0.09800843 0.044004478 0.07441836
-0.102029204 -0.06460663 -0.0028675625 0.018985087 -0.0770803 -0.0062851105 0.028762277 -0.017538507
0.020341234 -0.07638334 -0.0045941216 0.0065029655 0.07310048 0.051866878 0.03135503 0.031166274
0.07801706 0.011695337 0.13603894 -0.04453332 0.04197971 -0.01221119 0.050977144 -0.085365616
0.026913293 -0.07512856 -0.042302176 0.0001873218 -0.03303841 -0.0075985943 -0.08739758 -0.06913642
-0.0122979265 0.048335865 -0.006784344 -0.091489226 -0.058464427 0.0055678934 -0.0006107546 0.05542937
-0.09662988 0.04421492 0.07387448 0.0500811 -0.06805358 -0.019301217 0.049888227 -0.07382902
0.05950977 0.0044147065 -0.059776995 0.008215037 -0.013772416 -0.031381473 -0.05170179 -0.0389825
0.04856313 0.064478956 -0.094066225 -0.012902978 0.019697625 0.082364656 0.025877077 0.06171073
0.029186996 -1.0429758e-13 -0.057787754 -0.043718293 0.015922451 0.0018168845 0.13150945 -0.0606433
0.014951657 0.091820434 0.066376746 0.12738793 0.0015831395 0.045021925 -0.09256283 -0.060263347
-0.019878842 0.059440292 -0.005011036 -0.09667837 -0.08112845 0.0022835091 0.021823404 1.2967766e-08
-0.025179107 0.028558029 0.0030179697 -0.02273517 0.04076557 -0.03144426 -0.02918992 0.017853716
-0.04540623 1.904155e-18 0.0030071859 0.0325039 0.06921614 0.08901935 0.01612175 -0.013087976
-0.053248983 -0.060032222 -0.05939072 -0.040421434 0.038107015 -0.06969931 -0.0106923 0.071713954
-0.06710037 -0.0071093477 0.05714163 -0.02017822 -0.043848764 0.04953728 -0.07309871 0.07852817
0.08104978 0.002602477 0.0074761147 -0.049238037 0.11175683 -0.05416086 0.013664294 0.04950268
0.019901749 0.058661267 -0.02415809 0.07226177 0.061979767 -0.08032023 -0.09017981 0.0967003
0.09632109 0.11286005 -0.033634026 0.07684438 -0.031256735 0.05677411 0.044279683 -0.07714498
-0.014144387 0.061230555 -0.09649927 0.022528112 0.04053612 0.061937038 0.006529688 -0.042001646
-0.038938865 -0.02531566 -0.029241892 -0.008887132 -0.05126025 0.031755313 -0.04194612 -0.028636165
-0.0797097 0.082135975 0.051895868 0.07107602 0.082068525 0.008302481 0.083889686 -0.019023843
0.08735713 0.020557117 0.05252806 -0.03295195 0.027837664 -0.0027084106 -0.07053571 0.05205256
-0.045392938 -0.071678996 0.06968012 -0.109989546 0.0368998 0.06876017 -0.008842734 -0.089969024
-0.03252705 -0.032689925 0.028021133 0.06257054 0.08364717 -0.039157365 -0.018124074 -0.07061408
0.01966933 0.00044615433 -0.012534593 0.008337974 -0.0011770417 -0.06820028 0.036353428 0.014701998
0.14008917 -0.05462046 -0.022949964 -0.06559699 0.0074066715 -0.013242705 -0.051770497 0.06411797
0.072319366 0.095730394 -0.012359351 0.045722876 -0.05090105 0.0017912893 -0.025757726 -0.0027102248
0.02038044 0.024370799 -0.021005332 0.039561894 -0.037762526 -0.07722801 -0.048508324 1.26260275e-05
-0.060891796 -0.05988546 0.05226289 -0.083444424 -0.09007742 0.09505153 -0.06892295 -0.0057618553
0.010492643 0.01966167 0.058640048 -0.07085721 0.03392792 0.056297366 0.06800092 -0.0841755
00000000: 8199 043d 3672 7a3c 3c25 213d d359 043d
00000010: 9704 a8bd 9e99 c13c f870 c23d 89d1 18bd
00000020: 3709 403d 054f 743d 4386 2dbc e251 83bc
00000030: 185d 47bd a5b8 c83d 0a3e 343d a768 983d
00000040: b0f4 d0bd 7b50 84bd b7ed 3bbb 9d86 9b3c
00000050: 47dc 9dbd 54f3 cdbb de9e eb3c eaac 8fbc
00000060: a9a2 a63c de6e 9cbd 498a 96bb d416 d53b
00000070: b4b5 953d 5d72 543d 226e 003d 6a50 ff3c
00000080: 69c7 9f3d cc9d 3f3c cb4d 0b3e 9268 36bd
00000090: ebf2 2b3d 7111 48bc 69cd 503d 2bd4 aebd
000000a0: 4479 dc3c 01dd 99bd 0c45 2dbd d06b 4439
000000b0: 4953 07bd a1fd f8bb 81fd b2bd 6597 8dbd
000000c0: 3e7d 49bc d4fb 453d 344f debb b45e bbbd
000000d0: 6578 6fbd e072 b63b 0c1b 20ba e809 633d
000000e0: e3e5 c5bd b41a 353d 814b 973d d721 4d3d
000000f0: ad5f 8bbd 961d 9ebc 9957 4c3d ab33 97bd
00000100: 84c0 733d 3ea9 903b b9d8 74bd 5d98 063c
00000110: b3a5 61bc dc89 00bd 42c5 53bd 1dac 1fbd
00000120: 22ea 463d 8b0d 843d cba5 c0bd 0367 53bc
00000130: ea5c a13c cdae a83d 2afc d33c 64c4 7c3d
00000140: 9119 ef3c 76db eaa9 dab2 6cbd f411 33bd
00000150: cd6f 823c 8724 ee3a 6aaa 063e 1c65 78bd
00000160: cbf7 743c 5a0c bc3d 88f0 873d fb71 023e
00000170: 5981 cf3a e968 383d 9591 bdbd b3d6 76bd
00000180: f4d8 a2bc aa77 733d 9e33 a4bb 4fff c5bd
00000190: ac26 a6bd eda6 153b ffc6 b23c d7c8 5e32
000001a0: 6a44 cebc 87f2 e93c 21c9 453b 1b3f babc
000001b0: ccf9 263d b2cb 00bd b31f efbc f541 923c
000001c0: e2fb 39bd 7980 0c22 3514 453b cf22 053d
000001d0: 31c1 8d3d c74f b63d c311 843c f36e 56bc
000001e0: 9b1b 5abd 59e4 75bd af43 73bd f290 25bd
000001f0: 1a16 1c3d 83be 8ebd c22e 2fbc c4de 923d
00000200: eb6b 89bd 88f5 e8bb 580d 6a3d cb4c a5bc
00000210: c39a 33bd 9ae7 4a3d c7b4 95bd 61d3 a03d
00000220: 6dfd a53d 528e 2a3b 32fa f43b d3ad 49bd
00000230: c4e0 e43d c7d7 5dbd 34e0 5f3c 52c3 4a3d
00000240: fe08 a33c cc46 703d 30e7 c5bc fbfd 933d
00000250: 7fde 7d3d ef7e a4bd 31b0 b8bd cf0a c63d
00000260: fe43 c53d 2b23 e73d d5c3 09bd 9660 9d3d
00000270: 1007 00bd f88b 683d 9d5e 353d 30fe 9dbd
00000280: dcbd 67bc e4cc 7a3d 69a1 c5bd e08c b83c
00000290: 3409 263d b1b1 7d3d fef6 d53b eb09 2cbd
000002a0: 5c7e 1fbd c962 cfbc b18c efbc 559b 11bc
000002b0: 45f6 51bd dc11 023d b2cf 2bbd 6496 eabc
000002c0: d73e a3bd e836 a83d c390 543d 4e90 913d
000002d0: 8b13 a83d 2107 083c 5bce ab3d e4d7 9bbc
000002e0: 4ce8 b23d 6667 a83c aa27 573d a0f8 06bd
000002f0: d00b e43c 977f 31bb 0775 90bd 1135 553d
00000300: f2ed 39bd 70cc 92bd 73b4 8e3d 3342 e1bd
00000310: 3f24 173d 22d2 8c3d 1de1 10bc ae41 b8bd
00000320: 153b 05bd dfe5 05bd 938c e53c fc24 803d
00000330: 354f ab3d 7963 20bd f078 94bc 1d9e 90bd
00000340: 9321 a13c d2e9 e939 e55d 4dbc ff9b 083c
00000350: f746 9aba 97ac 8bbd 55e7 143d a6e0 703c
00000360: 8973 0f3e b4b9 5fbd 9001 bcbc b757 86bd
00000370: aab3 f23b eef7 58bc 4d0d 54bd 4850 833d
00000380: 2d1c 943d 4c0e c43d e07e 4abc e947 3b3d
00000390: 9f7d 50bd b2c9 ea3a de01 d3bc 079e 31bb
000003a0: e1f4 a63c 45a5 c73c 6013 acbc a70b 223d
000003b0: e1ac 1abd b829 9ebd aab0 46bd 60d4 5337
000003c0: ad69 79bd 754a 75bd 9d11 563d e9e4 aabd
000003d0: 837a b8bd 60aa c23d 7a27 8dbd f2cd bcbb
000003e0: 56e9 2b3c 8311 a13c 8c30 703d 961d 91bd
000003f0: 01f8 0a3d 1198 663d 1144 8b3d 3464 acbd

bias f4 [128]
-0.010935424 0.035191797 0.041389517 -0.06941433 -0.033293113 -0.07609663 -0.08111141 0.049288753
0.06514 -0.0663447 -0.022241866 0.03339637 0.081859775 0.07090037 0.044564508 -0.08457972
-0.045763906 0.0737601 -0.07359233 -0.02489866 -0.07608068 -0.07873537 0.017117815 -0.022138199
-0.07102228 -0.06637601 0.07316817 0.073073916 0.045891877 0.039214622 -0.058533534 -0.031819202
-0.011221378 0.03780275 0.0050418046 0.025744168 -0.03110948 -0.029971479 0.033721764 -0.07781299
-0.0032599315 0.07836766 -0.04887033 -0.018963138 -0.007886463 -0.029514527 0.06485038 0.015669145
0.09154276 -0.028262248 0.03185713 0.019347668 -0.055498436 -0.09772016 0.054341845 -0.05501153
-0.023347484 -0.01900563 -0.09889085 0.05759647 -0.011273244 -0.048602454 -0.07888902 0.023523875
-0.0010747598 -0.015856145 -0.026824834 0.021606028 -0.022279736 0.017672515 0.050607953 0.020747643
-0.042634368 -0.009652558 -0.029197298 0.009778032 0.06359847 -0.011533643 -0.037283167 -0.022004984
0.049396094 -0.019519445 0.007170612 -0.017708268 -0.072974265 0.028060758 0.07894902 -0.04353068
0.024000783 0.030196574 -0.020211881 -0.015325487 -0.0026223685 0.0551036 -0.0054030204 -0.08444614
-0.023565277 -0.031700164 0.0066379607 -0.042110264 0.019922739 0.0044671074 -0.035729356 -0.013091116
-0.07086711 -0.051228944 0.048878003 -0.008300323 0.053349197 0.0285612 0.056303155 0.08349594
0.07642696 -0.022622691 -0.030337514 0.0668936 0.046978563 0.0710888 0.07619314 0.06603642
0.004422826 -0.0049379566 -0.049112294 0.09072214 -0.049043614 0.039401457 -0.0005581607 -0.04523577
00000000: 7e2a 33bc 4625 103d 0e88 293d 1a29 8ebd
00000010: 5c5e 08bd 8dd8 9bbd bd1d a6bd 01e3 493d
00000020: 1f68 853d bbdf 87bd 9334 b6bc a2ca 083d
00000030: 19a6 a73d 3734 913d 4689 363d 2238 adbd
00000040: ef72 3bbd 890f 973d 93b7 96bd 46f8 cbbc
00000050: 30d0 9bbd 0240 a1bd a93a 8c3c 2b5b b5bc
00000060: 2174 91bd 25f0 87bd 32d9 953d c7a7 953d
00000070: 1ff9 3b3d 839f 203d dcc0 6fbd da54 02bd
00000080: dfd9 37bc 0ed7 1a3d b935 a53b 6fe5 d23c
00000090: 4fd9 febc bf86 f5bc d51f 0a3d 6b5c 9fbd
000000a0: 93a4 55bb 397f a03d 412c 48bd 9558 9bbc
000000b0: 3936 01bc 73c8 f1bc 47d0 843d 945c 803c
000000c0: c57a bb3d 3b86 e7bc 9f7c 023d 007f 9e3c
000000d0: 5452 63bd 8221 c8bd 8e95 5e3d c553 61bd
000000e0: 3943 bfbc b2b1 9bbc 4987 cabd 47ea 6b3d
000000f0: 6ab3 38bc 5e13 47bd 9190 a1bd 24b5 c03c
00000100: f4de 8cba bfe4 81bc c1bf dbbc 20ff b03c
00000110: fe83 b6bc f3c5 903c 494a 4f3d f6f6 a93c
00000120: 60a1 2ebd c325 1ebc 2c2f efbc 0a34 203c
00000130: ea3f 823d 9bf7 3cbc 3cb6 18bd cc43 b4bc
00000140: 8f53 4a3d 3ee7 9fbc 74f7 ea3b ee10 91bc
00000150: 8873 95bd addf e53c 06b0 a13d 3a4d 32bd
00000160: 4a9d c43c ce5e f73c 6393 a5bc c017 7bbc
00000170: 0bdc 2bbb 50b4 613d d20b b1bb 19f2 acbd
00000180: f80b c1bc 08d8 01bd 4083 d93b d07b 2cbd
00000190: 0335 a33c d060 923b f258 12bd 1f7c 56bc
000001a0: c622 91bd 71d5 51bd 4d34 483d 14fe 07bc
000001b0: b084 5a3d 2df9 e93c 239e 663d ebff aa3d
000001c0: bd85 9c3d 3953 b9bc 6186 f8bc 83ff 883d
000001d0: 986c 403d 0197 913d 260b 9c3d 1a3e 873d
000001e0: 5bed 903b 95ce a1bb f929 49bd 88cc b93d
000001f0: f5e1 48bd 6c63 213d 8851 12ba 2549 39bd

weight f4 [128, 128]
-0.04661396 0.021244764 -0.035171833 0.10462755 -0.023896435 -0.008228421 0.08435632 0.08309783
-0.076653324 -0.029364657 -0.0139188515 0.03960333 0.074230015 0.04312772 0.036673084 0.06306466
-0.065968215 0.101703905 0.086631805 -0.03419444 0.011006551 0.040528063 -0.05840851 -0.031122498
0.078725085 0.07015052 -0.039364666 0.045159113 -0.033675116 -0.0027613426 -0.07627337 -0.089644514
0.015689053 -0.042848255 -0.045940474 0.043338355 0.03305387 -0.055232015 0.081763074 0.07948845
-0.011319264 0.08019356 -0.0048155794 -0.0021399143 -0.0022345416 0.030039545 0.08520485 -0.0064469283
-0.016706377 0.091888994 0.0514433 -0.023058886 0.075900495 -0.0154300975 0.05878187 0.01595156
-0.0024614155 -0.046943046 0.0037816342 -0.012315684 0.005784381 0.06320381 0.07805047 -0.04111344
0.057346154 0.05021992 0.07289611 0.06041691 -0.019813865 0.062746175 0.09218942 0.021289544
-0.05513809 0.0053018397 -0.04888132 0.04751286 -0.023800692 0.032134384 0.06319556 0.024310024
-0.038790997 -0.065961346 0.051526394 -0.08596442 0.06785564 -0.014566747 -0.05521758 0.08264233
0.028698104 0.07876302 0.0056790775 0.04335544 0.06587823 0.07038265 -0.025737857 -0.0510957
0.011155282 0.106704004 0.052803658 -0.019955147 -0.063809276 0.08594603 0.05941439 0.040881146
-0.07208006 -0.07635483 0.10441309 0.111267574 0.09297682 0.06881853 -0.0082726 0.016018433
0.06634086 -0.010310023 -0.045014217 0.071122624 -0.022212118 0.058403425 -0.029272752 0.010253054
0.060395584 -0.024245718 -0.00027996258 -0.02862151 0.033570655 -0.028046284 0.035797663 0.061003942
-0.029868167 0.073474094 0.02721636 0.09955853 -0.00071979436 -0.03694276 -0.006859242 0.07869461
-0.027993798 -0.061791755 -0.0411448 -0.067808084 -0.020823974 0.035435855 0.024205191 0.006801299
-0.030626608 0.10470088 -0.04112695 -0.08067692 0.094079286 -0.06580303 -0.06358555 -0.0876606
0.044531804 0.035924707 0.09855888 0.028334837 -0.05581672 0.020308746 0.040928468 0.063104875
-0.03750696 0.052971475 -0.009205735 -0.05157021 -0.022637611 0.06380325 0.032463536 0.09062954
0.030627819 0.11616135 0.02673125 -0.10537797 -0.029440276 -0.0351328 0.08931869 0.060005065
0.039884344 -0.036269862 -0.056929175 -0.026921814 -0.07697512 -0.040012557 0.05896556 0.049525365
-0.007896085 0.0845702 -0.024824936 0.12147223 -0.0550314 0.007888824 -0.027303087 0.014130692
0.03044487 0.085674345 0.0058503277 -0.072884776 0.051647305 0.046256762 0.08194128 -0.08377923
-0.11717342 0.08583085 0.08527506 -0.009322601 -0.002632944 0.028834298 0.0071374546 -0.033505507
-0.040143725 0.03351008 0.10563342 0.06820214 -0.039905347 0.06469409 -0.0027853302 0.060323447
-0.08184904 -0.0020968718 0.012814408 0.038231894 0.02829397 0.0014738727 0.022639817 -0.01355151
-0.06051351 0.104120925 -0.04977963 0.03649032 -0.07175508 0.0050726156 0.07211896 -0.06639039
0.046809718 0.06432529 0.08661872 0.107435174 -0.07557772 0.10016682 -0.027824784 0.004376137
0.048391614 -0.073138855 0.0004298917 0.096472144 0.05232188 -0.02487079 -0.033634294 0.03856884
-0.04225378 -0.042638972 0.045974005 0.061771546 0.06555614 0.016127413 0.032698806 -0.004195709
00000000: 48ee 3ebd 8009 ae3c 5710 10bd f846 d63d
00000010: 75c2 c3bc 80d0 06bc 02c3 ac3d 322f aa3d
00000020: 6bfc 9cbd 268e f0bc e50b 64bc 1a37 223d
00000030: e805 983d b1a6 303d 8436 163d 0b28 813d
00000040: 581a 87bd 234a d03d 046c b13d 780f 0cbd
00000050: d254 343c c100 263d c33d 6fbd 9cf4 febc
00000060: 9e3a a13d 13ab 8f3d d83c 21bd c3f8 383d
00000070: ebee 09bd a4f7 34bb 3635 9cbd 8b97 b7bd
00000080: 5486 803c a781 2fbd 142c 3cbd 8f83 313d
00000090: 7f63 073d f73a 62bd 6673 a73d d7ca a23d
000000a0: 6f74 39bc 853c a43d 02cc 9dbb ce3d 0cbb
000000b0: 6371 12bb 7e15 f63c e17f ae3d c140 d3bb
000000c0: d0db 88bc 4c30 bc3d 36b6 523d fde5 bcbc
000000d0: b871 9b3d 85ce 7cbc 42c5 703d d9ac 823c
000000e0: b34f 21bb 5a47 40bd 4bd5 773b b9c7 49bc
000000f0: e88a bd3b 0071 813d edd8 9f3d 9166 28bd
00000100: cde3 6a3d 67b3 4d3d 8e4a 953d b977 773d
00000110: b050 a2bc 1181 803d cecd bc3d 6967 ae3c
00000120: 7ad8 61bd 0ebb ad3b c737 48bd d89c 423d
00000130: abf9 c2bc 589f 033d ac6c 813d d125 c73c
00000140: 4fe3 1ebd be16 87bd 570d 533d 1d0e b0bd
00000150: e6f7 8a3d 5da9 6ebc d42b 62bd 6240 a93d
00000160: 4918 eb3c 824e a13d 8e17 ba3b 7995 313d
00000170: 2aeb 863d c724 903d 33d8 d2bc ba49 51bd
00000180: a5c4 363c a187 da3d a648 583d fa78 a3bc
00000190: 70ae 82bd 7904 b03d 815c 733d fd72 273d
000001a0: b69e 93bd ec5f 9cbd 88d6 d53d 41e0 e33d
000001b0: a26a be3d bbf0 8c3d cd89 07bc 1739 833c
000001c0: b8dd 873d 5feb 28bc d460 38bd bda8 913d
000001d0: 30f6 b5bc 6e38 6f3d 69cd efbc 6dfc 273c
000001e0: 5c61 773d f59e c6bc f1c7 92b9 a877 eabc
000001f0: 6281 093d 52c1 e5bc 92a0 123d 45df 793d
00000200: 16ae f4bc 9679 963d d8f4 de3c 58e5 cb3d
00000210: 95b0 3cba 4b51 17bd 7ec3 e0bb a42a a13d
00000220: 4053 e5bc 5a19 7dbd 7387 28bd f7de 8abd
00000230: 0a97 aabc 3025 113d f749 c63c 6edd de3b
00000240: a7e4 fabc 6a6d d63d bc74 28bd f139 a5bd
00000250: a4ac c03d bdc3 86bd 2439 82bd 6787 b3bd
00000260: fb66 363d c925 133d 3dd9 c93d 761e e83c
00000270: 13a0 64bd 875e a63c 9ca4 273d 213d 813d
00000280: e6a0 19bd 9ef8 583d a7d3 16bc 493b 53bd
00000290: 8372 b9bc 47ab 823d 7cf8 043d fb9b b93d
000002a0: 31e7 fa3c 00e6 ed3d 7ffb da3c 68d0 d7bd
000002b0: bc2c f1bc 69e7 0fbd b8ec b63d dfc7 753d
000002c0: c45d 233d b58f 14bd 912e 69bd 238b dcbc
000002d0: 22a5 9dbd 35e4 23bd df85 713d 1cdb 4a3d
000002e0: 955e 01bc 2433 ad3d aa5d cbbc 6fc6 f83d
000002f0: 9b68 61bd 2040 013c b9aa dfbc 6b84 673c
00000300: 8567 f93c 0876 af3d 1bb4 bf3b 9d44 95bd
00000310: 208c 533d bb77 3d3d d4d0 a73d 7294 abbd
00000320: 9ef8 efbd 16c8 af3d b1a4 ae3d d3bd 18bc
00000330: 788d 2cbb e835 ec3c 4fe1 e93b 123d 09bd
00000340: bf6d 24bd de41 093d 5656 d83d 90ad 8b3d
00000350: ca73 23bd 567e 843d 168a 36bb b815 773d
00000360: 78a0 a7bd ac6b 09bb 86f3 513c 0c99 1c3d
00000370: c1c8 e73c f62e c13a 2377 b93c 2707 5ebc
00000380: 04dd 77bd 5a3d d53d bae5 4bbd e076 153d
00000390: 54f4 92bd 2f38 a63b 1bb3 933d aff7 87bd
000003a0: 8cbb 3f3d fabc 833d 2865 b13d f906 dc3d
000003b0: 7ec8 9abd 4324 cd3d cdf0 e3bc b365 8f3b
000003c0: 4936 463d d3c9 95bd 1663 e139 3093 c53d
000003d0: 784f 563d d4bd cbbc 1dc4 09bd 5cfa 1d3d
000003e0: 4d12 2dbd 34a6 2ebd 3d4f 3c3d 2904 7d3d
000003f0: 4c42 863d a31d 843c 2fef 053d 287c 89bb

bias f4 [128]
0.09704611 0.002740729 -0.048937764 0.06902945 0.0726221 0.042242542 -0.010381829 -0.055416785
0.03860516 0.0282422 -0.07474868 0.049322397 0.055586353 0.04846529 -0.05430529 0.04227527
-0.029665902 0.010610745 -0.0031280483 -0.041876577 -0.045266204 0.062490404 -0.009116461 0.045774736
0.04760851 0.073432736 -0.02876014 0.033713188 0.063228734 -0.035060335 -0.028099097 0.052848898
0.03357857 -0.017655224 0.060777944 0.0017853259 0.061081458 0.0020364788 0.055069037 0.03036288
-0.06260979 0.07653234 0.07588761 0.050992154 0.022553355 0.05668121 -0.032493882 0.07527513
-0.077904485 -0.0760114 -0.004043096 -0.06272239 0.0345537 0.02262647 0.03116233 0.07799386
-0.023882013 0.09200012 0.041529153 -0.072128996 -0.04767644 -0.055532143 0.03899412 0.04872652
-0.04794576 -0.040529866 -0.0754551 -0.07583124 -0.026763976 -0.0030324138 -0.084078215 0.047580887
0.050256673 0.007006846 0.082813956 0.069739416 -0.0024939657 0.02717719 0.019067716 -0.074203864
-0.0415238 -0.06617846 -0.09188958 -0.009448205 0.009684232 -0.006961913 0.064019114 0.038563415
-0.013993329 -0.07002527 -0.073391326 -0.07372053 -0.016568916 0.036489468 0.06791892 0.042867843
0.022168625 0.06572034 -0.06438843 0.0231828 -0.021419415 0.0013146674 0.07124667 0.03176121
-0.042304784 0.009280567 -0.018398898 -0.049462177 -0.053283315 -0.056941923 0.078479 0.05901613
-0.018083097 -0.030076226 -0.07817953 -0.044977453 0.04490831 -0.03817183 0.031598058 -0.020725047
-0.07702762 0.038861863 0.0328729 0.01881435 -0.06337032 -0.0116325 0.0873389 0.021026459
00000000: 1cc0 c63d cd9d 333b f772 48bd 505f 8d3d
00000010: e5ba 943d 8406 2d3d 8c18 2abc b6fc 62bd
00000020: 7220 1e3d 305c e73c d615 99bd 4806 4a3d
00000030: 84ae 633d 8a83 463d 396f 5ebd d528 2d3d
00000040: e805 f3bc b1d8 2d3c f1ff 4cbb c686 2bbd
00000050: 0e69 39bd f0f5 7f3d 355d 15bc 4a7e 3b3d
00000060: 2401 433d e763 963d 639a ebbc d716 0a3d
00000070: 117e 813d 6d9b 0fbd 1430 e6bc 1678 583d
00000080: af89 093d b0a1 90bc 4bf2 783d 9901 ea3a
00000090: 8d30 7a3d 7276 053b 1290 613d 93bb f83c
000000a0: 9039 80bd fdbc 9c3d f76a 9b3d 26dd 503d
000000b0: d0c1 b83c 8e2a 683d 4e18 05bd d929 9a3d
000000c0: 638c 9fbd ddab 9bbd f37b 84bb 9974 80bd
000000d0: 2e88 0d3d 265b b93c 2548 ff3c 3fbb 9f3d
000000e0: 36a4 c3bc 8f6a bc3d 791a 2a3d 5eb8 93bd
000000f0: 5f48 43bd ac75 63bd 4cb8 1f3d 7695 473d
00000100: c662 44bd a502 26bd 3488 9abd 694d 9bbd
00000110: 2040 dbbc 76bb 46bb 3331 acbd 2de4 423d
00000120: f1d9 4d3d af99 e53b 5d9a a93d 8ad3 8e3d
00000130: cd71 23bb b3a2 de3c e633 9c3c 32f8 97bd
00000140: dc14 2abd 9388 87bd 9b30 bcbd a5cc 1abc
00000150: 9daa 1e3c c220 e4bb 741c 833d acf4 1d3d
00000160: 4744 65bc 6969 8fbd 314e 96bd cafa 96bd
00000170: 89bb 87bc fb75 153d 1319 8b3d 3196 2f3d
00000180: fa9a b53c 6398 863d 15de 83bd dbe9 bd3c
00000190: c577 afbc eb50 ac3a c6e9 913d 0b18 023d
000001a0: c847 2dbd 850d 183c 49b9 96bc da98 4abd
000001b0: 9b3f 5abd ef3b 69bd 99b9 a03d e6ba 713d
000001c0: 0123 94bc 6b62 f6bc 971c a0bd 473a 38bd
000001d0: c7f1 373d 115a 1cbd f76c 013d 93c7 a9bc
000001e0: a8c0 9dbd 9e2d 1f3d bca5 063d 8d20 9a3c
000001f0: 4cc8 81bd 3e96 3ebc bdde b23d ae3f ac3c

weight f4 [128, 128]
-0.008750547 0.007726441 0.096315816 0.09936664 0.00470566 0.09359297 -0.0017386851 0.01890366
0.06210343 -0.06867708 -0.07785514 -0.044355713 -0.09344358 0.044984132 0.0025800944 -0.032071233
-0.038490485 -0.09733474 -0.031127138 0.09044103 -0.021106534 -0.020758905 -0.042942174 -0.050000805
0.090570904 -0.0016805208 0.045086186 0.052276563 -0.016997555 0.056500953 -0.021966605 0.055764508
-0.0099978745 0.049274083 -0.06618309 0.046341263 0.018070377 -0.069975376 0.07327217 -0.050342526
-0.025648147 0.059528615 -0.04520941 0.03565776 0.06266741 -0.0058626663 0.022377362 -0.056317214
-0.042908918 -0.0031941147 0.046081986 0.061403234 0.09263061 -0.056577295 -0.07168595 0.053739034
0.06258676 0.10855309 0.07569818 -0.05055639 0.07740158 0.09692861 -0.014000731 -0.03899766
-0.062997095 -0.016001606 0.066451944 0.021216327 0.0018183001 -0.013325409 0.06916238 0.022144148
-0.035110585 0.038841054 -0.04552298 0.04931516 -0.037468057 0.062110502 0.08983143 0.05774087
-0.0010555522 0.054562524 -0.0008167514 0.10946847 -0.009032701 -0.047035955 -0.013398708 0.04629745
0.009822882 -0.04788815 -0.01452323 0.027782366 0.024722343 0.10635674 -0.032916628 0.016873438
-0.04015633 -0.06906794 0.022381919 0.0033200134 0.08109797 -0.071171865 -0.049616292 -0.024493411
-0.01723914 0.033387873 0.05044031 -0.021708205 0.010130126 0.074664384 -0.024721738 -0.024751073
0.043748014 -0.034648452 0.07141992 0.015301541 0.026977565 -0.03782747 0.036210936 0.039314494
-0.08505572 -0.046117 0.015167467 -0.035583258 -0.06481215 0.02715656 0.04555482 -0.040028106
0.019422421 0.08911575 0.056029834 0.016093576 0.043337435 -0.051828563 0.047068283 -0.033449963
0.010693417 -0.034640078 0.014045945 -0.0743566 0.015272008 -0.028520226 0.07585916 0.041569747
0.031585235 0.00290419 -0.090963036 -0.06016884 0.026401669 0.1340495 -0.028774276 -0.011057667
0.035917655 0.07332456 -0.060797594 -0.012309358 -0.051818144 0.025505971 -0.044178944 0.0030502884
0.0844082 -0.015596567 -0.037826885 -0.086201675 0.098171085 0.034786854 0.06876579 -0.015327308
-0.019040465 0.023575818 0.075592615 0.04402327 -0.06061948 -0.011216368 -0.008817297 0.07675318
-0.04272543 -0.004723976 0.008816932 0.119148806 0.032232765 0.10442869 -0.021310886 0.052407928
-0.011746847 -0.071684964 0.059174124 -0.043966625 0.0035323412 -0.06871723 0.0015690734 -0.07334355
-0.011544458 0.06721689 0.002464506 0.0048591197 -0.105449505 -0.067298345 0.027200697 0.08985999
-0.058399096 0.10631861 0.010363108 0.09519414 0.06200254 -0.06605666 0.01955371 0.09619774
-0.047069073 -0.029093832 -0.06930945 -0.100402705 0.0075057773 -0.0033254302 0.052051116 -0.04704455
-0.09783886 -0.078519866 -0.0021649087 -0.020409383 0.032681976 -0.088480964 -0.021248784 0.04530931
0.009492931 0.049369425 -0.039585058 -0.06856911 0.0719171 -0.03702163 0.058841016 0.07744406
0.07966971 0.07471802 0.035670288 -0.036502026 0.024629697 -0.07289342 0.051533986 0.039949074
0.011079171 0.012087505 -0.035152256 0.09391931 0.006118687 0.029873017 -0.034652844 -0.085873134
-0.03293653 0.07265695 -0.024193572 0.01946759 -0.033350654 0.017110981 0.03324875 -0.040181246
00000000: 745e 0fbc 162e fd3b 3a41 c53d bd80 cb3d
00000010: f031 9a3b acad bf3d 97e4 e3ba d9db 9a3c
00000020: 2b60 7e3d 92a6 8cbd 8472 9fbd 56ae 35bd
00000030: 595f bfbd 4841 383d cd16 293b 205d 03bd
00000040: 33a8 1dbd 7057 c7bd 57fe febc 2639 b93d
00000050: 9ce7 acbc 940e aabc 22e4 2fbd a5cd 4cbd
00000060: 3d7d b93d ec44 dcba 4bac 383d f31f 563d
00000070: 753e 8bbc 8b6d 673d 4ff3 b3bc 5369 643d
00000080: 20ce 23bc 9fd3 493d 008b 87bd 56d0 3d3d
00000090: 5408 943c 404f 8fbd b80f 963d f733 4ebd
000000a0: 101c d2bc 47d4 733d 812d 39bd df0d 123d
000000b0: c557 803d 9c1b c0bb bb50 b73c e1ac 66bd
000000c0: 43c1 2fbd 5a54 51bb 77c0 3c3d f581 7b3d
000000d0: 1eb5 bd3d 98bd 67bd 15d0 92bd 761d 5c3d
000000e0: 7d2d 803d 1551 de3d a607 9b3d 3814 4fbd
000000f0: b884 9e3d 8282 c63d 5263 65bc 03bc 1fbd
00000100: 9f04 81bd cd15 83bc f517 883d ddcd ad3c
00000110: 0754 ee3a d152 5abc 02a5 8d3d a567 b53c
00000120: 1ed0 0fbd cc17 1f3d 4e76 3abd b1fe 493d
00000130: 1b78 19bd 9567 7e3d 8af9 b73d b181 6c3d
00000140: 745a 8aba f47c 5f3d 421b 56ba 0131 e03d
00000150: e5fd 13bc c6a8 40bd 4186 5bbc 65a2 3d3d
00000160: 27f0 203c 5d26 44bd d7f2 6dbc d897 e33c
00000170: 8386 ca3c 90d1 d93d 96d3 06bd 2a3a 8a3c
00000180: f77a 24bd 7e73 8dbd 495a b73c 9594 593b
00000190: b116 a63d 8ec2 91bd 743a 4bbd 68a6 c8bc
000001a0: 1939 8dbc b9c1 083d 809a 4e3d 68d5 b1bc
000001b0: d4f8 253c a4e9 983d 3e85 cabc c3c2 cabc
000001c0: 1e31 333d 89eb 0dbd 9b44 923d 51b3 7a3c
000001d0: 0e00 dd3c faf0 1abd eb51 143d 3c08 213d
000001e0: b131 aebd 2ee5 3cbd f880 783c c0bf 11bd
000001f0: 3cbc 84bd 6f77 de3c b197 3a3d 83f4 23bd
00000200: c51b 9f3c 5182 b63d 8a7f 653d add6 833c
00000210: 9882 313d 304a 54bd acca 403d d402 09bd
00000220: 7133 2f3c c1e2 0dbd f720 663c 4648 98bd
00000230: 7237 7a3c 40a3 e9bc 0c5c 9b3d 0a45 2a3d
00000240: 855f 013d 3954 3e3b d44a babd 9a73 76bd
00000250: 5048 d83c 4644 093e 08b8 ebbc 382b 35bc
00000260: 641e 133d 302b 963d e606 79bd 31ad 49bc
00000270: 433f 54bd e6f1 d03c fbf4 34bd 59e7 473b
00000280: 35de ac3d be88 7fbc 5df0 1abd 818a b0bd
00000290: ec0d c93d a97c 0e3d 14d5 8c3d 641f 7bbc
000002a0: c0fa 9bbc 1322 c13c 4dd0 9a3d bf51 343d
000002b0: 224c 78bd dbc4 37bc 6d76 10bc c530 9d3d
000002c0: dc00 2fbd 95cb 9abb e574 103c 4a04 f43d
000002d0: 8106 043d b6de d53d 2b94 aebc b2a9 563d
000002e0: d975 40bc 91cf 92bd 9160 723d 5916 34bd
000002f0: da7e 673b 9ebb 8cbd 5ea9 cd3a 2535 96bd
00000300: f724 3dbc 02a9 893d 8d83 213b 4039 9f3b
00000310: e9f5 d7bd b7d3 89bd ffd3 de3c 8408 b83d
00000320: e433 6fbd 92bd d93d 06ca 293c 25f5 c23d
00000330: 60f6 7d3d b748 87bd 1a2f a03c 5203 c53d
00000340: 80cb 40bd 3056 eebc 1df2 8dbd ef9f cdbd
00000350: 06f3 f53b 76ef 59bb 8d33 553d c9b1 40bd
00000360: bd5f c8bd 06cf a0bd 24e1 0dbb 9431 a7bc
00000370: 89dd 053d 8235 b5bd ee11 aebc 4196 393d
00000380: 3d88 1b3c 9837 4a3d f123 22bd f66d 8cbd
00000390: 4649 933d fea3 17bd 4703 713d fe9a 9e3d
000003a0: df29 a33d c305 993d 021b 123d 2683 15bd
000003b0: 38c4 c93c 2549 95bd 4d15 533d a4a1 233d
000003c0: 6985 353c ac0a 463c d0fb 0fbd c458 c03d
000003d0: 447f c83b 42b8 f43c 24f0 0dbd 41de afbd
000003e0: 74e8 06bd 2bcd 943d 9931 c6bc 7f7a 9f3c
000003f0: b29a 08bd 542c 8c3c d72f 083d 1795 24bd

bias f4 [128]
-0.010783081 0.009935154 0.029633373 0.055237357 0.008208991 -0.013672794 -0.075837076 0.006979336
0.026728278 -0.0022391386 0.07822288 -0.025260488 -0.032381386 0.043852463 -0.009681152 0.07967226
0.075666554 0.033496406 0.08992363 -0.00942992 0.051866956 -0.05608108 0.008987688 -0.0244975
0.069467776 -0.017502517 0.0706278 0.025838926 0.04007869 0.02977783 -0.04749824 0.053998895
-0.0072636274 0.0034752998 0.0009094411 -0.026373502 0.061151028 -0.041855693 -0.041062523 -0.03270327
0.056127094 -0.077790156 -0.035483856 0.016052244 0.0071192393 0.0020286317 0.016610302 0.04358786
-0.006519133 0.061768647 -0.0439117 -0.033444643 0.009224238 0.07565482 -0.008917513 0.059711594
0.07694205 -0.038452443 -0.042774905 0.017837502 0.04111792 -0.081068896 0.0025470762 -0.019913124
0.00955468 0.06584941 0.08199298 0.014912534 -0.026757792 0.075648546 0.053114243 0.042186886
0.08827918 0.08329976 -0.027935743 -0.042787973 0.0009783504 0.05099831 -0.0005283949 -0.06980114
-0.03941393 -0.027693432 -0.036934543 -0.029852107 -0.005147436 0.052311074 0.03900442 0.09099108
-0.030263016 -0.0048574507 0.058056682 -0.042271182 -0.058969982 0.04290657 -0.019171841 -0.081858255
-0.076082826 0.04687767 0.015752949 -0.008255467 -0.04068328 0.055332 0.008990171 0.032955863
0.026697129 -0.028370436 0.001925252 0.044044107 -0.03947077 0.062233057 0.09114753 0.010570924
0.07411793 -0.011147429 0.034487646 -0.04458325 0.006784445 -0.0576923 0.057504483 -0.044599768
-0.0015331666 0.031335644 -0.010129409 0.07677419 -0.034332793 -0.053366292 0.010411798 0.011709613
00000000: 85ab 30bc 0ec7 223c b0c1 f23c 9140 623d
00000010: 017f 063c db03 60bc 7850 9bbd eab2 e43b
00000020: 43f5 da3c 83be 12bb 5133 a03d 15ef cebc
00000030: 58a2 04bd a49e 333d b29d 1ebc 362b a33d
00000040: 11f7 9a3d 8733 093d e129 b83d f47f 1abc
00000050: 7272 543d 46b5 65bd 1941 133c fbae c8bc
00000060: 1f45 8e3d 7061 8fbc 4fa5 903d 28ac d33c
00000070: 8d29 243d a3f0 f33c 848d 42bd f22d 5d3d
00000080: b903 eebb dbc1 633b 8f67 6e3a 3e0d d8bc
00000090: 8079 7a3d e070 2bbd 2d31 28bd ddf3 05bd
000000a0: 86e5 653d 7250 9fbd 8557 11bd ff7f 833c
000000b0: 8248 e93b cbf2 043b 5412 883c 2f89 323d
000000c0: 749e d5bb 1f01 7d3d c1dc 33bd 40fd 08bd
000000d0: 4221 173c eaf0 9a3d c31a 12bc 2594 743d
000000e0: cb93 9d3d 4f80 1dbd bd34 2fbd f41f 923c
000000f0: 446b 283d 7307 a6bd d9ec 263b d920 a3bc
00000100: 3c8b 1c3c 0edc 863d efeb a73d b353 743c
00000110: 2833 dbbc a0ed 9a3d 528e 593d 28cc 2c3d
00000120: b7cb b43d 1199 aa3d 80d9 e4bc 7142 2fbd
00000130: fe3b 803a 9be3 503d fb83 0aba e6f3 8ebd
00000140: 8070 21bd 56dd e2bc ad48 17bd 688c f4bc
00000150: d3ab a8bb 2344 563d 19c3 1f3d 8859 ba3d
00000160: 25ea f7bc 402b 9fbb d8cc 6d3d 8c24 2dbd
00000170: 828a 71bd cdbe 2f3d 440e 9dbc 4da5 a7bd
00000180: 50d1 9bbd cd02 403d 540c 813c f041 07bc
00000190: 83a3 26bd cfa3 623d 834b 133c bafc 063d
000001a0: f0b3 da3c 1e69 e8bc bd58 fc3a 9867 343d
000001b0: 1aac 21bd 17e8 7e3d 8eab ba3d ab31 2d3c
000001c0: 24cb 973d b5a3 36bc eb42 0d3d ed9c 36bd
000001d0: 0d50 de3b c34e 6cbd d289 6b3d 3fae 36bd
000001e0: 89f4 c8ba ce59 003d d2f5 25bc c93b 9d3d
000001f0: 8ba0 0cbd 9d96 5abd 3f96 2a3c add9 3f3c
