models/agModels-predicttop10_votes/models/NeuralNetTorch_BAG_L1/S9F4/net.params (torch, 248949 bytes, 16 tensors)

weight f4 [6, 4]
00000000: be35 91bf 42aa 92bf 8e05 84be 0cb0 d5be
00000010: a440 573f f39a 2b3f 063b 9fbe 2233 08c0
00000020: 5f82 f03e a702 23be 5e46 ba3f 107f 8b3e
00000030: 66a5 2a3e 81e2 5e3f f12e 0bbe 2c52 dbbd
00000040: de12 733f a3d6 9e3f 6f18 ff3f a571 433d
00000050: c378 053f ad38 a3be d332 3ebf f0c9 0dc0
-1.1344526 -1.1458209 -0.25785488 -0.41735876 0.8408301 0.6703331 -0.3109972 -2.128121
0.46974465 -0.1591898 1.4552724 0.27245378 0.16664657 0.8706437 -0.13592125 -0.107090324
0.94950664 1.2409252 1.9929332 0.0477158 0.5213739 -0.31879178 -0.742963 -2.2154503

weight f4 [6, 4]
00000000: ed1e 42be bc41 39bf fa7d 0e3f 2d2d 873e
00000010: 2f12 14be f6d8 2dbf fa0b 733f b1d1 013f
00000020: ed15 0dbf 8118 6c3f e83a 903f 85b9 a53f
00000030: 0e85 bebf 88de 2440 2efe fdbe 3f8b a33e
00000040: db93 d4bf eec0 15bf cb3d eebe 8a29 ecbe
00000050: 08d2 77bf 3008 823f ca47 7ebd f433 353f
-0.1895711 -0.7236593 0.55660975 0.26401654 -0.14460061 -0.6790918 0.9494015 0.5071059
-0.5511158 0.9222489 1.1267977 1.2947241 -1.4884355 2.5760822 -0.49607986 0.31942174
-1.6607622 -0.5849751 -0.4653152 -0.46125442 -0.9680486 1.0158749 -0.062080182 0.707824

weight f4 [6, 4]
00000000: 95f1 ddbd 0ff6 2c3f ec9b 5abf c9ab 07bc
00000010: 0c7a 5d3f 8e8f bebe 8303 873f c954 c83e
00000020: b260 b33d 3a49 8f3f 4d6a 973e fc6f ea3e
00000030: 05f4 51bf 7a4e a7bf 2aa2 40bf 2895 aabf
00000040: 9fe7 573e bc3c aebe fb4e e6be c43f 683e
00000050: d9f1 323f 4d54 cebd a2db 8dbe bc34 8ebf
-0.10837094 0.67562956 -0.8539417 -0.008280703 0.86514354 -0.372189 1.0547947 0.39127186
0.087586775 1.1194222 0.2957329 0.45788562 -0.8201297 -1.3070824 -0.7524744 -1.3326769
0.2108445 -0.34030712 -0.44982132 0.22680575 0.6990028 -0.10074673 -0.2770663 -1.1109843

weight f4 [6, 4]
00000000: 833d 35bf 394f 863f 02e2 13bf 5cf1 a4bf
00000010: 7c43 983d c84e 2fbf a81b 213f 9034 40bf
00000020: b6f5 85be aa13 da3d b7b1 773e d47f 953f
00000030: 7cca 9b3e 1c94 ca3e 31fe 4fbe 9a8e e4bd
00000040: 4132 323e 4408 47bf eade f3bf 08ac 033e
00000050: 6661 1bbf 0d95 643e 506a 9c3d 5f77 953e
-0.70796984 1.0492927 -0.57766736 -1.2886157 0.074347466 -0.68479586 0.62932825 -0.75080204
-0.26164025 0.10648282 0.24188887 1.1679635 0.3042792 0.39566123 -0.2031181 -0.111600116
0.17401983 -0.7774699 -1.9052403 0.12858593 -0.60695493 0.22322483 0.07637465 0.29192635

weight f4 [6, 4]
00000000: f9b8 6f3f 20d8 80bf dd79 933e 00f7 eebd
00000010: 3ad7 783f 178a 02bf db9a 453f e898 1e3f
00000020: 63d7 7c3f 80b7 bdbf a52a 143f 0b98 293e
00000030: fa5d f73d 4b21 51bf 51b5 223f 5107 f6bf
00000040: ad20 a93f 5c51 33be 84cc 453f b432 823f
00000050: 472e a43e ef5d b4bf 0dc3 f73f f474 5f3d
0.9364162 -1.0065956 0.28803912 -0.11668205 0.9720341 -0.5099196 0.77189416 0.61952066
0.98766154 -1.4821625 0.5787757 0.16561906 0.120784715 -0.81691426 0.63557917 -1.9220983
1.3213097 -0.17511505 0.7726519 1.0171723 0.32066557 -1.4091166 1.93564 0.054554895

weight f4 [26, 9]
00000000: ebc4 06bf 2c3e d8bf 104d 0bbf c23f 04bf
00000010: 1606 2abf 024b c0bf 1dc7 57bf 0cdc 04c0
00000020: db09 89bf 522a 34bf 231c ba3c a741 a03e
00000030: 2031 8ebe bc47 a33f 2402 b03b 3d24 5fbf
00000040: 5601 e73e 1600 94bb f1f2 a73f 7799 8abe
00000050: 1816 0ebf 437f 39c0 255c c3bf 5ff5 803f
00000060: 8686 643e 4ff8 33bf 59bd db3f 0920 b03e
00000070: 3f71 803f 15db b43f 0221 a7bd 219b 26bf
00000080: ae0c 2dbf 882f e23f 7a95 71bf f70e 1bbf
00000090: cc37 9a3d 629a 153f 2c6e 043f 691d 9e3f
000000a0: aa71 8abf 7e82 dcbf 03c9 c53f c69e 8fbc
000000b0: 48f4 ccbf 7d74 fc3c 18a2 20bf f961 393f
000000c0: e3d6 943f c2eb f7bd 4acd 33bd 6300 273f
000000d0: 4d3a 023f 5724 563e b346 7a3d 0205 1a3f
000000e0: d121 a43d 51d8 7abf a6a9 3c3f 888c 923f
000000f0: a428 0840 af6a 62bf a808 31bf 6135 14bf
00000100: c45e c23f 427d 3dbf 7cf6 143e 0e16 ab3f
00000110: e52e 0140 a4f3 283f 4682 3dbf 706c f0be
00000120: edf2 803e 5356 12bf d70a 713f 02fe f73e
00000130: 222f 4fbf 52f9 a23f 70ec 883e 8db9 1abf
00000140: b2a5 6bbf 4678 13bf 2126 193e cfdd 84bf
00000150: a841 38bf 26bb 0ec0 17fd 2cbf 367c 023f
00000160: 3a76 483f 9e47 a53d ce19 dd3e 43b8 eabf
00000170: b544 92bf 2ec7 d83d 02cd 0f3f 5d9e a93f
00000180: aa62 cabf f7e6 c13e 20a2 aebf 9533 45be
00000190: 0aef 86be 94d5 98bf a559 293f 72f6 9cbf
000001a0: 57a2 8cbf 77a6 b43e f8e6 3fbf 8b34 66bf
000001b0: a4c3 37bf 7b7f 063f bb76 bb3e c049 1c3f
000001c0: 71ae b7bf 4dbe 4abf 05e8 9a3f 17be e8bf
000001d0: 91f0 d73e 1ac9 8f3f 42b7 e73e 93d1 93bf
000001e0: 0763 cebe 0b57 a9be 37f9 703f 8163 eabe
000001f0: 8b4b 18bf ff79 b5be b3a8 bbbf 13a8 09bf
00000200: b303 9a3f 9a79 4e3f 9f9c ca3e 690f a33e
00000210: 7cd1 30c0 e708 50bf fa55 ec3e 7e96 9a3e
00000220: 84c4 91bf d6ac 763b 12f9 18be e34e 68be
00000230: a9ca 1b40 cc81 d33f fca3 95be f1a3 c1bf
00000240: 8583 09bf 5fd2 4dbf 4acf b5bf 49ef d6be
00000250: 9be7 a7be c4c3 a9bd aaa0 0a3f 2192 cfbf
00000260: b124 bb3e a6e9 12c0 9e09 5abf 104a d8bf
00000270: f3c0 093f 7a80 bbbf 1ca5 353f 4466 afbf
00000280: 2083 a73e 590c cdbd 196e 4c3e ebaa 9a3f
00000290: 8493 9f3f 291f d2bd ac40 0940 5ef7 9d3d
000002a0: 5413 fc3e d48d 5d3d 3995 d43e ebe7 e2bf
000002b0: a12f 9a3f 07da 2740 8b06 623e 0449 aa3e
000002c0: f6f6 91bf ecbf 0e40 07aa fb3d 82c0 4a3f
000002d0: 0560 8cbf 77fe babd be98 bbbf c20e debf
000002e0: f14a f1bf 8492 a13c 8a67 00c0 d70d fabf
000002f0: a125 0840 8d96 7bbf 3bc6 16bf 15a8 d73f
00000300: ff02 b03e b739 37bf 8a05 aabc 2e5d e53f
00000310: f08a 10bf c6a3 413f 2f59 383f 3620 bc3f
00000320: cf16 13bf 6773 cdbd d23c 063f 85f7 dcbe
00000330: fa53 f7bf fcae 363f ebdb dfbd b16f b8bf
00000340: 3110 0abf a853 bebf 8ef8 35bf 63d7 803f
00000350: 76d7 11c0 d2c6 e93e fa5b 0cbf c745 74bd
00000360: 1596 253f 146a 813f 2cae fcbe 5b9c d93e
00000370: 9188 af3f e220 df3e 0cc1 f9be 5536 56be
00000380: ed5a 24be ffc6 a23d 4e81 883e a3f5 27bf
00000390: 2e3d 113e cf6c 29be 4d73 bd3f c7a7 1fbe
000003a0: 2258 9cb9 8e73 8a3b
-0.5264422 -1.6893973 -0.54414463 -0.51659787 -0.66415536 -1.502289 -0.842882 -2.0759306
-1.0706133 -0.70377076 0.022718495 0.3130009 -0.27771854 1.2756267 0.005371349 -0.8716467
0.45118207 -0.004516612 1.3121015 -0.2707021 -0.5550246 -2.8983924 -1.5262495 1.0074881
0.22316942 -0.70300764 1.7167159 0.3439944 1.003456 1.4129359 -0.081605926 -0.6508046
-0.6759747 1.7670755 -0.9436871 -0.6056971 0.07530174 0.58438694 0.5173061 1.2352725
-1.0815938 -1.7227323 1.5451969 -0.017531764 -1.6012049 0.030817265 -0.62747335 0.7241512
1.1628078 -0.12105514 -0.04389695 0.65234965 0.5087021 0.209123 0.06110258 0.6016389
0.080142625 -0.9798632 0.7369636 1.1449137 2.1274805 -0.88444036 -0.69153833 -0.5789395
1.518517 -0.74019253 0.14547151 1.3366106 2.0184872 0.65996766 -0.74026906 -0.4695773
0.25185338 -0.5716297 0.94157165 0.4843598 -0.80931294 1.2732337 0.26742887 -0.6043938
-0.92049706 -0.576054 0.14955951 -1.0380191 -0.71975183 -2.2301726 -0.67573684 0.5097078
0.783054 0.080703005 0.4318375 -1.8337482 -1.1427218 0.105848655 0.5617219 1.3251454
-1.581136 0.37871525 -1.3643227 -0.19257958 -0.26354247 -1.1940179 0.6615241 -1.2262709
-1.0987042 0.35283253 -0.74961805 -0.89923924 -0.717829 0.5253827 0.36614022 0.61050034
-1.435011 -0.79196626 1.2102057 -1.8183011 0.42175725 1.1233246 0.45257002 -1.1548332
-0.40309927 -0.3307422 0.9413027 -0.4577904 -0.5949027 -0.35444638 -1.4660858 -0.53772086
1.2032379 0.806543 0.39572617 0.31847695 -2.762786 -0.81263584 0.46159345 0.3019294
-1.1388097 0.003763964 -0.14938763 -0.22686343 2.4342444 1.6523986 -0.29226673 -1.5128156
-0.5371631 -0.80399126 -1.4203885 -0.41979435 -0.32793888 -0.082892925 0.54151404 -1.621647
0.3655143 -2.2955108 -0.85170925 -1.6897602 0.5381004 -1.4648583 0.7095506 -1.3703084
0.32717228 -0.10012121 0.19963874 1.208341 1.2466893 -0.102598496 2.1445723 0.07713197
0.49233496 0.054090336 0.41520098 -1.7727026 1.2045785 2.6226823 0.22072808 0.33258832
-1.1403491 2.230464 0.122882895 0.79199994 -1.0966803 -0.091305666 -1.4655988 -1.7348254
-1.8850995 0.019723184 -2.0063195 -1.9535474 2.1272967 -0.982766 -0.58896226 1.684817
0.34377286 -0.7157244 -0.020754594 1.7919061 -0.56462 0.75640523 0.72011083 1.469733
-0.5745668 -0.10031777 0.52436554 -0.43157592 -1.9322503 0.71360755 -0.10930618 -1.4409086
-0.53930956 -1.486928 -0.7108239 1.0065731 -2.2787757 0.456595 -0.54827845 -0.059636857
0.6468213 1.0110497 -0.49351633 0.42502102 1.3713552 0.43579775 -0.48780096 -0.20919164
-0.1605031 0.07948112 0.26661152 -0.65609187 0.14183494 -0.16545413 1.4800812 -0.15591346
-0.00029820303 0.004225201

weight f4 [128, 76]
00000000: 2971 123e a264 9e3d 0ec9 d23d 6128 373d
00000010: 1e00 c2bd c939 ea3d 12e4 963c 6882 253d
00000020: 648b e6bd 19f3 9fbc ffd2 0dbe db1e a4bc
00000030: dce4 a53c 681d ebbd 05e7 e83c 9626 5c3d
00000040: 647f c53c 3532 8fbd 78f6 b2bd a7fe 0ebd
00000050: f995 4d3d 8f37 ef3d a895 8b3d 9ec4 54bc
00000060: 5807 213d d830 ecbd caad d8bd ec0f 683d
00000070: 6d23 83bd ee72 593d 5925 a9bd 932b 5bbd
00000080: 8838 c7bd c646 683d d273 20bc a97d a73d
00000090: e7c0 923d aac2 843d 9694 aa3b dc11 84bd
000000a0: c701 01bd bb77 163c 296a 973d 1d8e 7fbd
000000b0: 5d90 d13d 5efe bdbc ec76 e6bd fd47 9ebd
000000c0: 8cba e83d c91a c03d f610 b6bd 473c 6c3d
000000d0: a415 a13d 94f7 e13c adea 9a3d 0aed 98bd
000000e0: f0a5 bb3c af73 203d beb8 49bd 4ac7 773d
000000f0: 3fa9 993b dfab 8e3c f714 02bc 7b96 6abd
00000100: 294e 983c 251f 233d a2b2 acbd a459 633c
00000110: d1cb 8c3d 85ba c4bc fd05 1e3d 9ab6 96bc
00000120: 2291 f73c 1f7f 94bd 687e 8abd 4831 b9bd
00000130: 6954 9a3d 1291 9fbd d302 023a 9f3c 60bd
00000140: b03b ef3d 2eb8 e93d 8984 b2bd 66f4 ccbd
00000150: befa c5bd e087 bf3c 4881 46bd 1c46 97bd
00000160: 0ae8 02bd 0a97 2c39 634f 8abd 077c 9a3c
00000170: b035 5bbd 3138 4dbd fa30 973c 1ebb c93d
00000180: b0ac 8bbd 596f c63b 23ed 26bd 51f6 f73d
00000190: 7a8a d2bd 0e8d d7bd ae10 f23d 8a46 8abd
000001a0: 51f7 e73c 2388 e6bb be45 a7bc 79ad d9bc
000001b0: 1fee 9e3d c8ee fc3b c1aa d9bd d838 7dbd
000001c0: 6e85 d7bc 4854 783d 36b0 91bd 1728 de3d
000001d0: 37e7 84bc 4172 43bc a4dc b73d def8 643d
000001e0: dc17 9f3d c711 893d 7995 653b c859 b6bd
000001f0: bc45 65b9 efb4 933d 933c eebc 9ddf e7bd
00000200: 5e9b 833d b64d b73d 8566 17bd ab1f 02be
00000210: 7f15 f7bd 5430 49b9 6687 0abd 8de2 18bd
00000220: 2578 3b3d 2503 a43c 766e c33d e56b 8e3d
00000230: b6dd 74bc 7054 d6bd 98b1 f5bd d6a2 f53d
00000240: 9651 383d ed3a 4e3d 8cf3 d5bd c023 c63d
00000250: 5176 ea3d 81e9 bd3d 5cff a4bd fffc 32bd
00000260: b1ae ae39 b777 253e 8776 2fbd af46 51bd
00000270: 4c2d 593d 6b6b 53bd f227 80bd 0dc6 ae3b
00000280: 5e41 86ba 95df acbd a391 9c3d d4f0 08bd
00000290: f2e1 0a3d e1e8 ce3d 330f a03d 493a 053d
000002a0: febc ee3d 7e11 8f3c 3428 63bd ce1a db3d
000002b0: 3f75 0c3d fe77 d4bd 0dbf 78bc a68c 9cbd
000002c0: e97b da3d f6a9 7cbc bc59 cdbd 6389 d9ba
000002d0: e370 9c3d 78cc 153d 87fa 303d 39f9 b23c
000002e0: 0997 3d3d a7cc 8fbc f29a 34bd a7bd d6bd
000002f0: b6ab bfbd 02e5 6f3d e734 72bd 9d9c 423b
00000300: 548f 133d 919a f83b 166d 94bd d7ae e33d
00000310: 937b 67bd 8dc5 b53d 9540 09be 7b78 ecbc
00000320: e978 833d 7377 5dbd b638 cf3d 33c0 a6bd
00000330: 1aaa d7bd ce4c 8ebd c886 c7bb 125a 0a3e
00000340: 9fb2 f4bc 43f0 9c3d d49e 90b8 81a6 8ebc
00000350: 1e1b b13d af0e d1bd 6322 d63c 8e39 cf3d
00000360: c9a2 66bc d240 ae3d c87c 0cbd f521 d63d
00000370: c5eb dfbd c7c2 adbc 9ec2 debc e7e0 753d
00000380: d435 353d dc27 c53d 1cfb dfba b180 f6bc
00000390: 04f0 233e ce71 313d e4d4 e23d 6b8c 90bd
000003a0: ac61 72bc 6617 15bc 9986 233d 2527 c63d
000003b0: 4638 d8bb 0c09 dfbd 6a42 803d f61b b73c
000003c0: e900 bd3c d176 8dbd 295b 8e3d bfd3 f53d
000003d0: cc7f 403d d720 d4bd 76f4 ad3d e08c abbd
000003e0: 80a4 cc3c 45e7 7c3c decb 3abd e80a 1a3d
000003f0: 8619 d0bd d68a c13c 2b63 97bd 1a1c fcbb
0.1430098 0.07734038 0.102922544 0.044716243 -0.094726786 0.11436803 0.0184193 0.04040757
-0.112570554 -0.019525098 -0.1385002 -0.020034244 0.02025073 -0.11480218 0.028430471 0.053747736
0.024108596 -0.06991998 -0.087384164 -0.034910824 0.050191853 0.11680519 0.06815654 -0.01298633
0.039313644 -0.11532754 -0.10580023 0.05665581 -0.06403241 0.05308812 -0.082590766 -0.053508352
-0.09727579 0.05670812 -0.009793239 0.08178265 0.071656995 0.06482442 0.005205701 -0.06448719
-0.031495836 0.009183819 0.07393295 -0.06239139 0.10232613 -0.02319258 -0.11253151 -0.077285744
0.11363706 0.09380109 -0.08889954 0.057674672 0.07865456 0.027583875 0.07564292 -0.074670866
0.022906274 0.039172824 -0.04924845 0.06049279 0.004689365 0.017415939 -0.007939569 -0.057272416
0.018591957 0.039824624 -0.08432509 0.013876352 0.068748124 -0.02401472 0.03857993 -0.018397618
0.030220572 -0.07250809 -0.06762391 -0.09042603 0.07535631 -0.07791342 0.0004959527 -0.054745313
0.11681306 0.114120826 -0.08716685 -0.10007553 -0.09666966 0.02338022 -0.048463136 -0.07386419
-0.03195957 0.00016459465 -0.06753423 0.018857969 -0.053517997 -0.050102416 0.018455971 0.09850143
-0.06820047 0.006055754 -0.040753495 0.12107528 -0.102803186 -0.10524951 0.11819588 -0.067517355
0.028316172 -0.0070352717 -0.020418998 -0.026571976 0.07760262 0.0077188946 -0.10628272 -0.06182179
-0.026308741 0.060627252 -0.07113688 0.1084749 -0.016223533 -0.011929096 0.08977631 0.0559014
0.07768223 0.06692844 0.003503172 -0.08903843 -0.0002186512 0.07212245 -0.029081618 -0.11321948
0.06426118 0.08950369 -0.036963005 -0.12707393 -0.12064647 -0.00019186857 -0.033820532 -0.03732543
0.045768876 0.02002103 0.09542553 0.06954173 -0.014945438 -0.10465324 -0.11996764 0.11993949
0.04499968 0.050349165 -0.104468435 0.096747875 0.11448348 0.09273053 -0.080565184 -0.043698307
0.0003331802 0.16158949 -0.042837646 -0.0510928 0.053021714 -0.051616114 -0.06257619 0.005333668
-0.001024287 -0.084410824 0.076449655 -0.033432797 0.033906884 0.10103012 0.07815399 0.03252629
0.11657141 0.017464396 -0.055458263 0.10698472 0.034291502 -0.10374449 -0.015182269 -0.07644014
0.10668165 -0.015421381 -0.10026881 -0.001659673 0.07638719 0.03657195 0.04320767 0.021847354
0.046286616 -0.01755364 -0.04409308 -0.10485392 -0.09358923 0.05856801 -0.059132483 0.00296954
0.03602536 0.007586785 -0.07247369 0.111173324 -0.056514334 0.088755704 -0.13403542 -0.028866043
0.06419546 -0.054068994 0.10118239 -0.08142128 -0.10530491 -0.06948243 -0.006089065 0.13510922
-0.02987033 0.07663014 -6.896039e-05 -0.01741338 0.0864775 -0.10207879 0.026139444 0.101183996
-0.014076897 0.08508457 -0.03429869 0.104556955 -0.10933641 -0.021211041 -0.02719241 0.060028937
0.044240788 0.09626743 -0.0017088386 -0.030090662 0.16009527 0.043321423 0.11075762 -0.070580326
-0.014793795 -0.009099817 0.039923284 0.09675435 -0.006598505 -0.108903974 0.062626675 0.0223522
0.023071723 -0.06907428 0.06950981 0.12003278 0.046996877 -0.10357826 0.08493893 -0.08376479
0.024980783 0.015435998 -0.04560458 0.037608057 -0.10161118 0.023625772 -0.07391962 -0.0076937797

bias f4 [128]
00000000: 4f4d 89bd 83b3 87bd 191a a8bd be4a 763d
00000010: e5a5 173c 8d15 a3bb 6e4c f13c 2a3c 753d
00000020: a34d 193c 9253 8b3d 739e 1fbc 54d0 233d
00000030: 5c4a 1f3d b211 08bb e6e1 a33d bab0 e43d
00000040: cf60 bc3d a4bc c3bc acb8 c2bc 89a0 d93d
00000050: 21a8 54bd 24a8 fc3b 6e0b 89bd 0fce 00bd
00000060: 56fd 37bd b096 853d f4ae 4abd 12d4 67bd
00000070: 5f1d 383d 72f3 15bc 0492 863c cc29 b7bd
00000080: 9f8c 3cbd fd04 6a3d 4106 6b3d 400e e2bd
00000090: 58ee adbd c2a7 313d 8b6b c9bd 5278 75bd
000000a0: 7dc6 8fbd f815 bdbd b8f5 8bbd 5660 a23d
000000b0: da40 ecbd 1cdf ae3d 700b e9bd 0096 07bd
000000c0: b2a4 35bd 50c3 8e3d f76b c6bd d6f7 85bd
000000d0: ef56 dfbd e2cf 3cba aee6 483d 0b41 e43d
000000e0: 1e01 bd3d 83eb c6bc 1842 89bd 7d10 a93c
000000f0: 8a97 933d 40a9 ca3d dd28 b13d 582a 0dbc
00000100: 9102 d7bd 635a 8ebd 7da1 863d 40ab b8bd
00000110: f465 adbd ed43 8ebd 426b e6bc 9517 533d
00000120: 659e 9d3d 90d3 cb3d 6b7f 7a3d 0f1e cd3c
00000130: b635 6dbc 67ab 77bd f59a 61bd 2354 0fbc
00000140: 9fda cc3d bda8 b9bc d683 88bc 6bc0 f8ba
00000150: 0548 4abd 7dd7 62bd a5e8 3f3d 51db a5bd
00000160: fc54 c9bb fa9c fcbb d063 973c cb51 4fbc
00000170: 36be 7bbd e1f1 e6bc a720 06bd 1bd7 273d
00000180: 8f1b ab3c 1181 f1bc 19fb b83d 0cfb 083c
00000190: cad0 603d 60bf 19bd 78c0 d2bd f606 c1bd
000001a0: 5a7b 22bd 889c 8c3d 83bf 783d fe84 533d
000001b0: 66fc 363d a680 87bd 813d f8bc 419b bf3c
000001c0: 00c9 cbbd 0b0a 9bbd 27b1 b0bd eedc d63c
000001d0: 29bb 53bc 885b a3bc b53a 8d3d ccd9 92bd
000001e0: 01ac 9abd f037 a8bc a1ba 863d 59e4 243c
000001f0: 7495 c2bd c7d8 a03d 9530 9fbd 66e8 ab3d
-0.067041986 -0.06626036 -0.08208103 0.060129873 0.009255861 -0.0049769343 0.02945539 0.05987183
0.009356889 0.06803049 -0.009742367 0.0399936 0.038889274 -0.00207625 0.08002071 0.111665204
0.09198152 -0.023893662 -0.023769699 0.10626323 -0.051918153 0.0077104736 -0.06691633 -0.031446513
-0.044919334 0.06522882 -0.049483255 -0.05659873 0.044949885 -0.00915228 0.016427048 -0.08943519
-0.046032544 0.057133663 0.05737901 -0.11037874 -0.08492726 0.043372877 -0.09834965 -0.0599292
-0.070202805 -0.09232706 -0.068339765 0.07928531 -0.11535807 0.085386485 -0.11379135 -0.033102036
-0.04434652 0.06970847 -0.096885614 -0.065414116 -0.10905253 -0.0007202608 0.04904812 0.111452185
0.09228729 -0.024282223 -0.067020595 0.020637745 0.07206638 0.09895563 0.08650372 -0.008616053
-0.104985364 -0.06950834 0.0657377 -0.09017038 -0.08466712 -0.069465496 -0.028127316 0.05153616
0.07696227 0.09952462 0.06115667 0.025038747 -0.014478138 -0.060466196 -0.05507942 -0.008748087
0.10002636 -0.022663468 -0.016664427 -0.0018978243 -0.04938509 -0.055381287 0.046852726 -0.08098472
-0.006144164 -0.0077091428 0.018480211 -0.012653778 -0.061460696 -0.028191509 -0.032745983 0.040976625
0.020887164 -0.029480489 0.09032268 0.0083606355 0.054886617 -0.037536025 -0.10290617 -0.09425156
-0.03966842 0.068657935 0.060729515 0.051640503 0.0446743 -0.066163346 -0.030302765 0.02338946
-0.09950447 -0.07570275 -0.08627539 0.026228394 -0.01292304 -0.019941106 0.06895963 -0.07170448
-0.075523384 -0.020534486 0.065785654 0.010064208 -0.09501162 0.07853847 -0.07772938 0.08393936

weight f4 [128, 128]
00000000: f32c dd3c ed6b 313c 8cce 6d3d 51f1 fd3c
00000010: 6b3b cbbd f46c 8c3c 925d ad3d 05f2 25bd
00000020: 470e 643d a0fa 7a3d 3935 ccbc d075 71bc
00000030: aff4 16bc 8b67 983d a39d 143d ead7 8e3d
00000040: 0e4b b0bd 4417 5abd dca6 00bd 5357 b53c
00000050: bbdf 31bd 7870 443c d936 f23c c8f2 f1bc
00000060: 3561 90bb 119f a6bd 562b 10bc 08d4 86b9
00000070: c362 533d 6125 d03c f46f 1a3d fdd0 113d
00000080: e392 863d f9ee ed3b 2c75 b23d 1607 6cbd
00000090: c05e c83c 55a4 7bbc 366f 543d a2fc bfbd
000000a0: 0dcb 3a3d 256e b3bd 2fca d4bc ac1c bebc
000000b0: a2bf 1dbd 4a2d 37bd dbea a5bd 485b afbd
000000c0: 8573 fdbc d184 723d 3bcd 14bd f295 87bd
000000d0: c017 dcbc 5a0e 5abc 5be1 aebc 0d10 673d
000000e0: bb89 c5bd e699 103d e591 823d 0e7d 6b3d
000000f0: d60a 8fbd 74b1 aebb b633 823d 5625 8dbd
00000100: 9305 813d 5599 74bb 57e3 a5bd ec98 8dbc
00000110: 92e8 96bb 7bba 1fbd c3da 2ebd 11d3 dfbc
00000120: 2393 d33c a8e7 413d 8289 c5bd d6d1 95bc
00000130: 2884 553b 6d3d 973d e8fd 2a3d d668 513d
00000140: d44f 4d3c 2dfa 163c 5ba0 7dbd 2b33 04bd
00000150: e961 c23c 1d03 bcbc 71c4 a33d 96d7 85bd
00000160: c017 1d3d e05b 953d 1db3 393d a638 963d
00000170: f46b 42bd 04d0 363d e981 cdbd 5d7e 63bd
00000180: 38d9 cdbc db99 5d3d 0eb9 afbc bc04 a8bd
00000190: cded b2bd 96ce 88ae 3860 13ba f7d2 643b
000001a0: 2f24 08bd 7568 ab3c 0c54 9f3b c5a2 c8bc
000001b0: 96bf ec3c 8958 81bd 554c 5abd 15b1 d63c
000001c0: f900 16bd 0c17 102f 6719 d9bc 4041 0b3d
000001d0: b3a3 883d bb06 973d 5448 383c 5813 7cbd
000001e0: 30e9 39bd 9ff7 4ebd 7ae3 ebbc 29f3 5dbd
000001f0: f75c 1d3d 56df c2bd 4a15 7fbb 9092 743d
00000200: 4103 5cbd f162 33bc ce1f 8c3d c352 8dbc
00000210: 076e 17bd 1318 673d c441 80bd 8b52 b43d
00000220: a43a c03d b3d3 363c bc84 33bb 6304 1ebd
00000230: a94e 9b3d 6e5d 93bd b124 f8bc 7a49 083d
00000240: 4855 0e3d 11a6 673d ef15 aabb 605f 833d
00000250: 48d3 433d 1c87 92bd 5df5 a3bd 6771 b93d
00000260: 2971 aa3d b33a f83d 02e3 89bd e837 a93d
00000270: 5b7d 05bd 88d1 363d 07cf e73c 5b3e 79bd
00000280: 1f9c 94bd 6a03 993d 1d49 adbd bca9 4f3d
00000290: bd8c 923d 234c 4c3d 4cb2 d13b 373f fbbc
000002a0: 1c8b 8cba 47e3 10bc e567 9dbd a4d5 593b
000002b0: 2544 36bd b7f0 8f3d 59ac 18bd 08a0 1abc
000002c0: 7b7d 60bd 449a ab3d 8b22 5a3d c828 af3d
000002d0: fdb1 a43d ad9d abbb 9f10 a63d a027 16bc
000002e0: b839 a63d 7fe7 863c 5cbc 6d3d 8f10 09bd
000002f0: 52cb 1b3d dec5 c93b 0a31 92bd 1ec1 613d
00000300: 7b63 54bd d83a 8fbd d082 883d 46ac a8bd
00000310: d1fc ea3c cd92 703d 07d5 983a 7e1e 91bd
00000320: 4246 87bd 7b04 08bd 68eb 023d c777 883d
00000330: 6ef8 7b3d 00e9 6ebd dc9b d1bc 45c4 89bd
00000340: 4140 e83c 98e9 1a3d 9779 13bc 7b25 59bb
00000350: cb73 cd3a 18c3 98bd a258 a53d cb83 ad3c
00000360: 0730 e43d ac5b bfbd a616 adbc 04b8 d3bc
00000370: 1d58 003d 0c7b d8bb c64f 43bd 0c86 a13d
00000380: 523a 983d 8657 d83d 498c 2a3d 41d1 6c3d
00000390: 3050 46bd 1522 ba3a 055a a9bc 785b 913c
000003a0: 8756 003d 544a ac3c 45f6 38bd 1b39 de3c
000003b0: 026f 113b 3c9f 3bbd 79cd 33bd a7d0 4ebd
000003c0: bcbd 47bd 7f28 80bd e482 9e3c d05a 9cbd
000003d0: 2c44 95bd 9e0d 9a3d a65e 84bd 5d23 553d
000003e0: 3fa7 cc3c da26 30bb c37d 8d3d 114f 85bd
000003f0: 4ca8 4d3d d5a9 833d 4de6 913d fb89 b4bd
0.026998973 0.010828954 0.058058307 0.030998858 -0.099234425 0.017141797 0.08465113 -0.04051401
0.05567768 0.06127417 -0.024927722 -0.014737561 -0.009213611 0.07441624 0.036283147 0.06974776
-0.086080655 -0.053244844 -0.03140913 0.022136366 -0.043426257 0.011989705 0.029567169 -0.029534712
-0.004406119 -0.08135808 -0.008799395 -0.00025716447 0.05160786 0.025408449 0.037704423 0.035599697
0.06570985 0.007261154 0.08713755 -0.057623945 0.024459243 -0.015359004 0.05186387 -0.09374358
0.0456038 -0.08761243 -0.025975315 -0.023207031 -0.038512833 -0.044720925 -0.08101436 -0.085623324
-0.030938873 0.059208695 -0.036328536 -0.06620397 -0.026866794 -0.013309086 -0.021347692 0.05641179
-0.096454106 0.03530302 0.063754834 0.05749231 -0.06984489 -0.0053312127 0.06357519 -0.06891887
0.06299891 -0.0037322838 -0.08100002 -0.017284833 -0.0046053613 -0.0389962 -0.042689096 -0.027322324
0.025826996 0.047340065 -0.09645368 -0.018288534 0.0032579992 0.07384763 0.04174605 0.05112537
0.01253124 0.00921492 -0.061920505 -0.03227536 0.023728328 -0.022950703 0.079964526 -0.065352604
0.038352728 0.072929144 0.04533683 0.073350236 -0.047466233 0.044631973 -0.10034544 -0.05554043
-0.025127992 0.054101806 -0.021450546 -0.08204028 -0.08736763 -6.221261e-11 -0.00056219427 0.0034915784
-0.033237632 0.020923832 0.004862314 -0.024491677 0.028899949 -0.06315715 -0.053295452 0.026207486
-0.03662202 1.3104912e-10 -0.02650137 0.033997774 0.06671848 0.073743306 0.011247713 -0.061541885
-0.0453884 -0.05052912 -0.028794993 -0.054186974 0.038418736 -0.09515254 -0.0038922601 0.059710085
-0.05371404 -0.010948882 0.06842004 -0.017251378 -0.036970165 0.056419443 -0.06262544 0.08804806
0.09386185 0.011158871 -0.0027392348 -0.038578402 0.075833626 -0.07195555 -0.030290933 0.033273198
0.0347493 0.056554858 -0.005190603 0.06414676 0.047808915 -0.07154676 -0.08005784 0.09054833
0.08322365 0.12120571 -0.067327514 0.082626164 -0.03259025 0.04463342 0.02829696 -0.060850482
-0.0725634 0.07471354 -0.08461211 0.05069898 0.0715575 0.049877297 0.0063994285 -0.030669792
-0.001072261 -0.00884325 -0.07685832 0.0033238912 -0.04449858 0.070283346 -0.03727374 -0.0094375685
-0.054807168 0.08379033 0.0532556 0.085527 0.08041761 -0.0052373023 0.08108639 -0.009164721
0.08116478 0.016467808 0.05804096 -0.033463057 0.0380357 0.006157621 -0.0713826 0.05511581
-0.051852684 -0.069936454 0.066655755 -0.082359836 0.028685005 0.05873375 0.0011660167 -0.07085894
-0.066051975 -0.033207398 0.031962782 0.06663471 0.061516218 -0.058327675 -0.025587015 -0.067268886
0.028350951 0.03782043 -0.009001157 -0.0033133912 0.0015674768 -0.07459086 0.08073546 0.021181008
0.11141973 -0.09343657 -0.021128964 -0.025844581 0.03133403 -0.006606465 -0.0476835 0.078868955
0.07432999 0.10563569 0.041637693 0.057816748 -0.048416317 0.0014200831 -0.020672807 0.017743811
0.03133252 0.021031536 -0.045156736 0.02712684 0.002219141 -0.045806155 -0.043897126 -0.050491955
-0.04876493 -0.06257724 0.019349523 -0.076345086 -0.072883934 0.075221285 -0.06463365 0.05203568
0.024982093 -0.0026878626 0.06908753 -0.06509221 0.05020933 0.06428877 0.071240045 -0.0881538

bias f4 [128]
00000000: 8bd3 42bc b1c1 2a3d b3b8 123d c2e1 bdbd
00000010: f6ca ffbc 84aa 94bd e6d9 9cbd 9947 4b3d
00000020: ff78 943d 4ce3 8bbd 4876 e3bc ca40 2c3d
00000030: 1413 b43d 8586 9a3d 477f 553d 8f84 a0bd
00000040: 165d 6abd ba6b 993d b02e a8bd 2a52 05bd
00000050: dc31 94bd 2efb 92bd 0a08 a03c da0b b7bc
00000060: b2bb 90bd 1ea8 7fbd d547 983d a726 963d
00000070: 45aa 303d 78d5 293d ffb2 56bd 50e9 25bd
00000080: 834d 29bc 8e51 153d 8206 7aba 391f c73c
00000090: fad3 3dbd 0638 aebc 9663 163d f1b5 9abd
000000a0: 89be 1b3c 4e8d b13d 6327 56bd 1bd7 bebc
000000b0: 7ce9 4fbc 91a3 c2bc 9041 7b3d a776 893c
000000c0: 6f02 be3d 4e9b c7bc 2fd6 f93c d4c9 c13c
000000d0: 713c 3abd 63b8 a8bd 4829 5d3d d45a 5fbd
000000e0: fb3e d9bc bb97 4abc cddc c5bd bc8a 813d
000000f0: a94b 9bbc a6a4 37bd 650e 9ebd 9c61 8f3c
00000100: 9765 bebb c0e2 9cbb 9c4a e5bc 079a da3c
00000110: f9af 8abc f4c5 6e3c 6bd9 753d 2ff5 d03c
00000120: 8e3e 85bd 964d 14bc e8f2 f1bc 7eaa b3bb
00000130: 3f1c 443d 09ef a9bb bed2 0fbd 00f7 90bc
00000140: 9cc6 6e3d ed9f cfbc 0fc7 d13b 22bc 32bc
00000150: f6d6 85bd 5862 063d c860 9e3d bdde 49bd
00000160: cc04 b63c 585c f83c bc76 eebc 5373 efbb
00000170: f92a d5ba f12b 443d 17be 93bb 989e bfbd
00000180: e67a dfbc 2582 20bd 8eca 44bc 7d3b 3abd
00000190: 704c 2f3c b463 ccbb 3c3d 35bd ebaa 21bc
000001a0: 56ad 80bd a1c2 48bd e7b2 463d a18d 1e3b
000001b0: 3c9b 193d c899 e83c b1c1 6d3d 0dd5 b73d
000001c0: 86c1 903d 7c8f e0bc 18e2 d1bc 1e5b 983d
000001d0: 2287 5a3d 6286 a43d aa6a a23d d058 813d
000001e0: 257f 2e3c 7868 a8bb 2c41 42bd 11df c93d
000001f0: 5d1a 60bd b720 323d ae2c aeb9 52d6 5dbd
-0.011891256 0.041688625 0.035820674 -0.092715755 -0.031224709 -0.07259086 -0.07658748 0.049628828
0.07249641 -0.06830463 -0.027766362 0.042053975 0.08792701 0.07545189 0.052123334 -0.078377835
-0.05721768 0.0749125 -0.0821203 -0.03254906 -0.072360724 -0.07176815 0.019535083 -0.022344518
-0.0706705 -0.06241619 0.07435576 0.07331591 0.04313113 0.041463345 -0.052416798 -0.040505707
-0.010333422 0.03645473 -0.0009537713 0.02430688 -0.046344735 -0.021266948 0.036716066 -0.07554234
0.009505876 0.0866953 -0.052283656 -0.02329593 -0.012689944 -0.023759635 0.061341822 0.01678021
0.09277808 -0.024366047 0.030497639 0.02365581 -0.045467798 -0.08238294 0.053994447 -0.05452998
-0.02651929 -0.012365277 -0.09661255 0.063252896 -0.018956976 -0.044834755 -0.07717589 0.017502598
-0.0058104503 -0.004787773 -0.027989678 0.026684774 -0.016929613 0.014573563 0.0600218 0.025507538
-0.06506072 -0.009051701 -0.029534772 -0.0054829707 0.0478785 -0.005185966 -0.03511309 -0.017695904
0.058294877 -0.025344813 0.0064019035 -0.010909112 -0.06535141 0.03280863 0.07733303 -0.049284685
0.022219084 0.03031747 -0.029109351 -0.007307449 -0.0016263417 0.04789347 -0.0045087445 -0.09356421
-0.027280282 -0.039186615 -0.012011183 -0.04546689 0.010699376 -0.0062374715 -0.04424785 -0.00986741
-0.06283061 -0.049013738 0.04851046 0.0024193304 0.03750156 0.028393641 0.058046047 0.08976183
0.07068162 -0.027412169 -0.025620505 0.07439254 0.05335153 0.08033444 0.07930501 0.06315768
0.010650431 -0.005139407 -0.047425434 0.09857 -0.054712642 0.04348823 -0.00033221155 -0.05415947

weight f4 [128, 128]
00000000: 9773 89bd 3d8a e83c 3466 afbc a41a 613d
00000010: 1180 19bd e847 70bc 5657 2f3c 6f2e a53d
00000020: aff3 9dbd dfda 36bd adf4 fcbc 54e1 0b3d
00000030: 0b65 ae3d 3992 ab3b 10f8 a83c f3a6 773d
00000040: 4b8c 94bd 0492 a23d de1c c43d a45c 6dbd
00000050: 48c0 f2bb 30ea 0e3d 5fe8 4cbd 0af6 03bd
00000060: 4ef0 883d bfec 7b3d faa4 83bd 68a3 713d
00000070: 1219 3cbd d8cb 19bb fddf c8bd 277c 89bd
00000080: 4b3b 25bc a147 8abd ba6d 61bd d876 333d
00000090: ee2a 253d 88a2 8dbd f522 8b3d 3f72 9c3d
000000a0: 115a debc 668b 333d dde0 a0bb e386 f73a
000000b0: b49d 07bc 1ea0 223d ddb1 a03d eebd 8ebc
000000c0: 0dfd fabc 30f9 b83d 402c 573d 754d 74bd
000000d0: c6c6 a73d b79b 12bd 0f3b 7a3d 660d d13b
000000e0: 6977 90b7 cdc3 59bd 6df4 a03b 23e9 99bd
000000f0: e74e 67bb 3ae3 6f3d 6555 913d 84e0 29bd
00000100: 18cd 473d cde3 a8bc 43f5 8d3d 0e60 883d
00000110: e1c8 f3bc ed6a 1e3d d231 983c 37a8 423d
00000120: 9a0a 4dbd cb0c 0dbb 7b87 98bd 2eea 1f3d
00000130: 5ad9 9fbc b079 273d ecd9 803d 3c52 803a
00000140: 9ba5 99bd 756d 85bd e6fe 923c ab74 9abd
00000150: 4c4a 483d 14ec 4dbc 3ad2 7cbd d0ee 743d
00000160: 6170 b13c 1083 9b3d e3ac bf3a f23b 113d
00000170: fa7d 533d 9756 573d b7f4 3fbd 87f4 90bd
00000180: 9459 7fba df02 9a3d ae6b 6e3d 9c75 0ebd
00000190: 8f8e 0bbd 37a5 a93d 276f aa3d 0e07 273d
000001a0: 87f6 84bd cf27 b2bd 5b28 553d 7603 873d
000001b0: ba6c b33d 2a8d 3a3d 20f2 e5bc 4567 21bc
000001c0: bfb4 7d3d 50b4 ecba 3200 74bd f8d1 583d
000001d0: 2b8f 8cbd fce0 0d3d 6cc6 07bd 6ee4 95bc
000001e0: ee0e 773d 7125 02bd d666 81ba cff9 6ebd
000001f0: 6b46 863c b846 17bd 8552 2d3d bbda 993d
00000200: 30b6 06bd e3ff a33d bf0e d63c b01f ab3d
00000210: 4373 273c da95 43bd 248f cebc 9504 9c3d
00000220: 8f2e 0fbd e9ad 67bd 288d 20bd 9c8c babd
00000230: 6334 63bc 7c38 0b3d b113 a23c f281 d93a
00000240: 9c2c 00bd 3daf aa3d c928 44bd 0149 9dbd
00000250: c343 a93d 77ee 97bd 6782 8dbd 729f b0bd
00000260: 6641 5f3d 20bd 163d 639e 953d 0204 ee3c
00000270: ef1d 28bd 9e4e 3c3c d6a2 0b3d 78c8 333d
00000280: d092 efbc 6819 ca3d e048 91bb e7c2 31bd
00000290: 4a1a e7b4 87bf 883d 93a9 6f3c f524 af3d
000002a0: d26e 1f3d 0cca 923d 6daa 0b3d c815 abbd
000002b0: bfc4 973b 7e3a ddbc 742b ab3d 8298 823d
000002c0: 31ae 5a3d ba5c 35bd 1586 e8bc b59c 16bd
000002d0: 7a06 9fbd e906 c0bc b33a 6a3d 41d1 3f3d
000002e0: a80f 5e3c 726a a83d d4c5 e7bc 0d9e e03d
000002f0: 6c32 39bd 27c6 423c 2df2 ffbc 5025 303c
00000300: 33b9 c33c 53f8 b43d 8f23 933c 765f 91bd
00000310: 90bb 833d 65d3 153d 5bae 8b3d dbca acbd
00000320: cf86 a5bd c6f5 833d 6a49 903d 3537 fdbc
00000330: 6f57 e1bc e321 e43c 15a4 0eb9 8917 bfbc
00000340: 2b98 46bd 39f7 333d 4def b03d d0d1 953d
00000350: 22cd 2abd 7126 963d 635d 6dbc 4f24 953c
00000360: 8669 9bbd 7bea df3b 8b5a 333b 52ac f93c
00000370: 869d 913c 1802 59bb f3e2 8a3c 1629 623c
00000380: cd1d 49bd 6313 b83d ca60 46bd 4b28 da3c
00000390: 6796 60bd 1541 323b ffda 7d3d 17fd 6ebd
000003a0: 7d2b 3b3d 0364 903d 6c8e 9f3d c0f6 ce3d
000003b0: 7aae 49bd 9d0c c93d 7986 fcbc ffc4 e93b
000003c0: d449 153d 2e0c 53bd 3409 7c3a 308f 9c3d
000003d0: cc25 d93c 6bcb 89bd 1801 20bd 7780 2a3d
000003e0: 5f26 23bd b13c 44bd feac 273d 641f 8d3b
000003f0: b632 503d 9d39 2b3c a6be f93c 8ed6 90bc
-0.067115 0.02838623 -0.021411039 0.054957047 -0.03747565 -0.014665581 0.010701975 0.08065497
-0.077124946 -0.044642325 -0.03087839 0.034150437 0.08515366 0.005235937 0.020626098 0.06046195
-0.07253321 0.079380065 0.095758185 -0.057949677 -0.0074081756 0.034891307 -0.050026294 -0.032217063
0.066864595 0.061505076 -0.06427951 0.058993727 -0.045922346 -0.0023467448 -0.098083474 -0.06713133
-0.010084937 -0.067519434 -0.055036284 0.04381451 0.040324144 -0.06915766 0.06793777 0.07638978
-0.027142556 0.043834113 -0.0049096183 0.0018884804 -0.008277345 0.03970348 0.07846425 -0.01742455
-0.030638242 0.09031904 0.052532434 -0.05964418 0.0819221 -0.035793032 0.06109148 0.006379771
-1.7221742e-05 -0.053165246 0.0049119503 -0.075151704 -0.0035294832 0.05856631 0.07096366 -0.04147388
0.048779577 -0.020616436 0.069315456 0.06658946 -0.029758872 0.03867619 0.018578444 0.047523703
-0.05005894 -0.0021522518 -0.07447716 0.03904169 -0.019512821 0.040887535 0.06291565 0.0009790133
-0.0750229 -0.06515018 0.01794381 -0.07541784 0.04889898 -0.012568492 -0.061723925 0.05979806
0.021660032 0.075933576 0.0014623668 0.03545756 0.051633812 0.052572813 -0.046864238 -0.0707789
-0.0009740826 0.07520079 0.05820816 -0.03478013 -0.0340715 0.08283465 0.08321982 0.040778212
-0.06492334 -0.08698999 0.05204044 0.06592457 0.08760972 0.04554478 -0.028069556 -0.0098512815
0.06193995 -0.0018059108 -0.0595705 0.052934617 -0.068632446 0.03463839 -0.033148214 -0.0182974
0.060316972 -0.03177399 -0.0009872566 -0.058343705 0.016391 -0.036932677 0.042315025 0.07512423
-0.03288859 0.08007791 0.026130078 0.08355653 0.010220352 -0.04775033 -0.02521474 0.076180615
-0.03495651 -0.056562338 -0.039197117 -0.0910885 -0.01386747 0.033989415 0.01978478 0.0016594513
-0.031292543 0.08334205 -0.04789046 -0.0767994 0.08264878 -0.074185304 -0.06909638 -0.08624162
0.05450573 0.036801457 0.073056005 0.029054645 -0.041044172 0.011493353 0.03409084 0.043892354
-0.02924481 0.09868127 -0.004433736 -0.043398764 -4.304623e-07 0.06677156 0.014627832 0.08551971
0.038924046 0.07167444 0.034098078 -0.08353764 0.0046316083 -0.02700543 0.083578974 0.06376745
0.053388778 -0.044277884 -0.028384248 -0.03677054 -0.07764907 -0.023440795 0.057184886 0.04683042
0.013553537 0.08223428 -0.028292574 0.10967646 -0.0452141 0.0118880635 -0.031243408 0.0107510835
0.02389202 0.088364266 0.017961292 -0.07098286 0.06432259 0.036578555 0.06820365 -0.08437129
-0.08082353 0.06443362 0.070452526 -0.030910114 -0.027507512 0.02784819 -0.000136033 -0.023326652
-0.048484962 0.04393694 0.08639393 0.07315409 -0.041699536 0.07331551 -0.014487597 0.01820579
-0.075884864 0.006833372 0.00273672 0.030477677 0.017775308 -0.003311282 0.016953921 0.013803741
-0.049100686 0.08988073 -0.04843215 0.026630541 -0.054830935 0.0027199436 0.06197643 -0.058346834
0.04569577 0.07050326 0.07790837 0.101056576 -0.04923866 0.09816859 -0.03082584 0.0071340795
0.03644736 -0.051525287 0.00096144085 0.07644498 0.02650728 -0.06728252 -0.039063543 0.04162642
-0.039831515 -0.047909442 0.040936463 0.0043067206 0.05082961 0.010450748 0.030486416 -0.017680433

bias f4 [128]
00000000: 1273 b93d 32ba 61ba 6cf6 5cbd 94bd 863d
00000010: 8f25 903d 52e3 343d 75ad 36bc 7228 36bd
00000020: bef3 053d ebad cf3c 65dd 9ebd c4fb 443d
00000030: 6809 3d3d e2a5 3d3d fd5a 8cbd 4613 0e3d
00000040: 2e93 01bd d965 253c 353f 3fbc 6c0c 29bd
00000050: 327f 40bd df0f 843d 0867 3fbc 72b2 4d3d
00000060: 882e 2a3d b98d 813d 30ec 62bd 2310 083d
00000070: 3318 493d 1700 01bd 3060 39bd 6442 5a3d
00000080: e852 073d 5f00 6dbc 3445 5f3d 8399 1ebc
00000090: 7144 6a3d 993a ecb9 a8fb 4d3d 219a f83c
000000a0: 4651 83bd a9e1 b83d b385 913d 7665 3d3d
000000b0: cb25 d73c 7fc9 623d e909 b9bc 9077 9a3d
000000c0: 8bd0 a1bd 38ec babd 13f3 9ebc 030c 88bd
000000d0: 06a1 083d 9307 d83b dee3 d23c cb3a 973d
000000e0: 2bea f1bc 77ab b43d d531 273d a88c 95bd
000000f0: 9f75 3abd 7ffc 53bd 39e3 0f3d 01ef 533d
00000100: cd70 80bd 516e 24bd 2f60 b6bd 666d 99bd
00000110: 5fb5 17bd 6595 2c3b cb8a a2bd 9ed7 4a3d
00000120: 7a90 483d bf0b 083c 1e09 c23d 2903 803d
00000130: 134d 2f3c 5ded 173b 4893 523c f68b a8bd
00000140: 1e55 07bd 7fbd 8ebd cb65 9fbd 9201 08bc
00000150: bd12 213b d90e b9bc 6b99 793d f439 163d
00000160: 1852 e0b9 3835 93bd 581b 8dbd 443e 8fbd
00000170: 75d4 afbc 4419 d33c cf62 873d 143f 4d3d
00000180: 0d88 b73c 9431 4e3d 0da3 82bd 93fb b43c
00000190: 2740 aebc 95d4 f9bb 964c 8d3d cf40 0e3d
000001a0: 547c 41bd 0ff1 543b b7ad fcbc d978 7dbd
000001b0: 85b3 7ebd c09c 96bd 5715 953d 4cdf 6c3d
000001c0: 5ec6 d3bc a426 f7bc 6c9f a4bd 51b0 2bbd
000001d0: df99 083d f772 f9bc ba16 e83c ec69 d0bc
000001e0: 8b8b 9ebd 0ee9 ef3c dfd7 173d 8a32 ac3c
000001f0: 43b9 82bd 4506 6abc 864d ae3d 0344 bb3b
0.09055151 -0.0008610814 -0.053945944 0.06579128 0.07038414 0.044162102 -0.011149754 -0.044472165
0.032703154 0.025351485 -0.077570714 0.048091665 0.04615155 0.046300776 -0.06853292 0.03468635
-0.031634502 0.010095083 -0.011672785 -0.041271612 -0.046996303 0.0644834 -0.011682279 0.050219007
0.041548282 0.063258596 -0.055401027 0.033218514 0.049095344 -0.031494226 -0.045257747 0.05328597
0.03303805 -0.0144654205 0.054509357 -0.009680155 0.057194177 -0.00045057086 0.050288826 0.030346932
-0.06411986 0.09027416 0.07105579 0.04623934 0.026263138 0.055367943 -0.022587733 0.07542336
-0.079011045 -0.091270864 -0.019403016 -0.06642916 0.03335669 0.0065927 0.025743421 0.07384261
-0.029530605 0.08821767 0.040819008 -0.07302219 -0.04552233 -0.05175447 0.035128806 0.051741604
-0.06271515 -0.04014427 -0.08905064 -0.07491569 -0.037038203 0.0026334163 -0.07936629 0.049522035
0.04896591 0.008303582 0.09474395 0.06250603 0.010699528 0.002318225 0.012852497 -0.082298204
-0.03304016 -0.06969737 -0.07783087 -0.008301156 0.002457782 -0.022590088 0.060937326 0.036676362
-0.00042785774 -0.07187885 -0.06889981 -0.06994298 -0.021463612 0.025768884 0.06610643 0.050108984
0.022403741 0.05034025 -0.06378756 0.022092616 -0.021270825 -0.0076242187 0.06899373 0.034729775
-0.04723771 0.0032492315 -0.030844552 -0.061882827 -0.062182922 -0.073541164 0.07279461 0.05783014
-0.025851425 -0.030169792 -0.0803822 -0.041916195 0.033349868 -0.030450327 0.02833115 -0.025441132
-0.077414595 0.029285934 0.037071105 0.021020193 -0.06382992 -0.014283721 0.0851088 0.0057148947

weight f4 [128, 128]
00000000: d949 39bc 2703 883c c77c b53d 4aed b83d
00000010: ecff 4f3c b83f b13d 95d3 d4bc 5d01 223d
00000020: 158f 7b3d d401 adbd 26e2 a2bd 9efb 8abd
00000030: 6332 98bd e1a9 de3c b3ec d73b 82fd a3bc
00000040: ca68 ffbc 65a2 babd 2901 17bd f15f ad3d
00000050: a87c cfbc bf5b ddbb 026c 30bd 49d5 3ebd
00000060: 1f46 963d 0428 a2bc b314 a13b 014a 533d
00000070: 36c4 60bb 03ba 023d c1e6 29bd 13dd 693d
00000080: b456 bfbb 8aad 4f3d 2966 a2bd 0b51 ec3c
00000090: 3a11 8b3c d066 8fbd 6131 943d d3a3 44bd
000000a0: ee8f f3bc 2b0a 3b3d e0c0 28bd 2763 333d
000000b0: cc38 8b3d 242b d9bb fc18 613c fa43 6ebd
000000c0: 39e3 22bd 057c 55bc fdca 9e3d 538f 883d
000000d0: 51a1 ad3d 9b14 1abd 1c42 77bd 993d 623d
000000e0: bb42 753d 66c1 cc3d fc88 a63d 43be 4ebd
000000f0: bfc3 9e3d c141 a43d 5d01 79bc 7a0b 45bd
00000100: a3ec 5ebd 4884 98bc a563 843d 00ae 143c
00000110: 82b2 bbbc b937 70bc 2edb 9c3d b206 ba3c
00000120: 67e5 50bd 0f2d 213d 6f07 74bd 73ba 893d
00000130: 34ce 94bd eae0 9c3c 369d 713d 0c23 533d
00000140: dc02 3bbb 3f00 373d 5413 b4bc 5446 cb3d
00000150: 132a 96bc a9ee 95bd 979b cebc fad8 013d
00000160: 66bd 783a 5736 66bd 6f75 bfbc cfdb ea3c
00000170: 5759 ce3c 083a b33d d72a d8bc b429 923c
00000180: 527c 34bd 24e3 b1bd a11f 83bc 24cd 12bc
00000190: e0b1 853d 926b 98bd b748 84bd 15ca 4abd
000001a0: e937 14bb 9c26 2a3d fd5c 5b3d 57d0 28bc
000001b0: 6597 3c3d f7e6 7c3d d2a1 d7bc 2e2e cebc
000001c0: 59dd b83c 0a9b 55bd 846d 973d c487 dc3c
000001d0: af09 44bc 8340 29bc 8bd7 a83c 8d00 fa3c
000001e0: 90fc aebd 65ec a6bd 3902 893c 0506 38bd
000001f0: b491 82bd 77aa 943c 1bd6 5e3d 7166 86bd
00000200: 9c9b b53b 039f 883d caee 823d 2e51 ce3c
00000210: 110d 6a3c a927 55bd d976 983d 7dd1 4bbd
00000220: 5cb6 1c3b 4c41 25bd dc29 cb3b 8a97 8dbd
00000230: e79b e9bc 9bb3 d1bc 9407 623d f8de ba3b
00000240: f400 cc3c 7365 58bc 208c b9bd ddde 74bd
00000250: 3979 043d 8d97 db3d d101 2cbd f787 c7bc
00000260: 37d3 3e3d 3fa6 af3d 1e8b 85bd 35c3 dabc
00000270: 08ae a7bd 0c31 b43c f0a3 cdbc 1399 8bbc
00000280: eaea 8e3d b4e5 86bc 10b7 32bd 8110 a7bd
00000290: 11af ca3d d225 c23c ec76 713d ee3b 52bc
000002a0: 3bdd 86bc 13c0 183d cb6d 793d 45d9 013d
000002b0: 6ceb 91bd 2cfc 8ebc 1915 24bb 0df9 853d
000002c0: 97f6 61bd 32e6 31bc 018e e6bc 36e4 ca3d
000002d0: 5fe1 e73c 1570 833d 2c3a 74bd 24ee 183d
000002e0: f639 30bc 2654 60bd 7d49 373d a520 75bd
000002f0: 517f 6d3c 133b 5dbd 001b 10bb ec04 78bd
00000300: 9bdd 65bd 8889 8b3d 24fd c63a 45e0 573c
00000310: c08c adbd 8230 84bd 482b 3e3c 0a65 a13d
00000320: b807 43bd d4a3 c63d d14a 8a3c 0b3b 8a3d
00000330: c58d 943d e07b 6ebd 920c 3a3d 0859 ac3d
00000340: 4e52 46bd ddd3 ffbc 7ea4 22bd 4d0d c8bd
00000350: 38fd 723b fd1d c3bc a301 803d aab7 00bd
00000360: 28c3 6ebd aef1 a9bd f67a afba 2ba8 d1bc
00000370: f9c6 fd3c 1eff 8cbd 0739 4bbd 0433 0e3d
00000380: f6c2 323b bfbc 7d3d aa5b 4d3c 1e9f 63bd
00000390: 1da1 ad3d 6089 47bd c04a 923d ca7e d43d
000003a0: a46c 6e3d 6b76 903d 5fd5 7f3c 3613 6ebd
000003b0: 3c17 3cbd eec7 95bd 82c9 0b3d f80d 3e3d
000003c0: 96d9 e83c 1794 c13c 9fc4 1cbd 8dd9 973d
000003d0: b240 9e3c 0a62 c13b f46b c0bc d002 97bd
000003e0: 92e0 4dbd d647 c03d d4df c7bc ebc6 9e3c
000003f0: 2961 4bbd 147f d23b dad0 ee3b 02b8 42bd
-0.011309111 0.016603066 0.0886169 0.09029634 0.012695294 0.086547315 -0.025979796 0.03955208
0.06141575 -0.08447614 -0.07953291 -0.067862734 -0.074314855 0.027180614 0.006589496 -0.020018343
-0.031177897 -0.091130055 -0.03686634 0.08465565 -0.025327995 -0.0067553218 -0.043071754 -0.046590123
0.07337593 -0.019794472 0.0049157976 0.051584247 -0.0034296638 0.031915676 -0.04147983 0.0570956
-0.0058391932 0.05070261 -0.07929642 0.028847238 0.016975988 -0.07002032 0.07235981 -0.048007797
-0.029731717 0.045663994 -0.041199565 0.04379573 0.067979425 -0.006627457 0.013738867 -0.058170296
-0.039767478 -0.013030057 0.07753561 0.06667962 0.08478034 -0.037617307 -0.06036578 0.055234525
0.059878092 0.09997825 0.081315964 -0.050474416 0.07752179 0.08020354 -0.015198079 -0.048106648
-0.054424893 -0.018617764 0.06464318 0.009074688 -0.022912268 -0.014661723 0.07658993 0.02270827
-0.051000025 0.03934961 -0.0595774 0.067250155 -0.072658926 0.019150216 0.05898782 0.051547095
-0.002853564 0.04467797 -0.021981873 0.099255234 -0.01833061 -0.073209114 -0.025220675 0.031701066
0.0009488672 -0.056204166 -0.023371426 0.028669266 0.025189085 0.08751303 -0.026387615 0.017842151
-0.044063874 -0.08685902 -0.016006293 -0.008960042 0.065280676 -0.074423924 -0.06459182 -0.049509127
-0.0022616333 0.041540727 0.053555477 -0.010303578 0.04604282 0.061743703 -0.02632228 -0.025168505
0.022566484 -0.05214981 0.07393935 0.026920207 -0.011965199 -0.010330322 0.020610591 0.03051784
-0.08544266 -0.081505574 0.016724693 -0.044927616 -0.06375447 0.01814769 0.054403406 -0.06562508
0.0055422317 0.06670954 0.06393202 0.025185194 0.014285342 -0.052039776 0.074445434 -0.04976033
0.0023912406 -0.040345475 0.0062000584 -0.069136694 -0.028516723 -0.025598338 0.05518301 0.0057028495
0.024902798 -0.013207781 -0.0905993 -0.05978285 0.03234217 0.107222654 -0.04199392 -0.024356825
0.04658815 0.08576631 -0.06520675 -0.02670441 -0.08187491 0.021996044 -0.025102586 -0.017040765
0.069784 -0.016466953 -0.043631613 -0.08157445 0.098966725 0.023699675 0.058951303 -0.012831671
-0.016462913 0.03729255 0.060895722 0.031701345 -0.07124981 -0.01745423 -0.002503699 0.06541643
-0.055166807 -0.0108581055 -0.028143885 0.09906809 0.028305707 0.06417862 -0.05962579 0.037336484
-0.010756006 -0.05476775 0.04474782 -0.059845585 0.014495687 -0.054011416 -0.002198875 -0.06055157
-0.056119543 0.068133414 0.0015181643 0.013176029 -0.084741116 -0.06454565 0.011606999 0.078806
-0.047614783 0.096992165 0.016881378 0.06749543 0.07253603 -0.058223605 0.045422144 0.08415419
-0.048418336 -0.031228954 -0.039707653 -0.09768162 0.00370772 -0.02381801 0.06250312 -0.031425156
-0.058291584 -0.0829805 -0.0013388086 -0.025592884 0.030978667 -0.06884597 -0.049614932 0.03471662
0.002727685 0.06194758 0.012534061 -0.055571668 0.084779955 -0.048714995 0.07143164 0.103757456
0.058209077 0.070538364 0.0156148365 -0.05812379 -0.045920596 -0.07313524 0.03412772 0.04640004
0.028424066 0.023630185 -0.03827345 0.074145414 0.019317959 0.0059015797 -0.023488976 -0.07373583
-0.050262995 0.093887016 -0.024398722 0.01938196 -0.049653206 0.0064238403 0.0072880806 -0.047538765

bias f4 [128]
00000000: 6dd6 82bc 4691 ccb9 fde1 e23c 3845 4e3d
00000010: 7b41 743b 0bc1 3dbc 645b 9fbd e3ee b93b
00000020: da6a cd3c 325d a1bb 03d4 9e3d b675 10bd
00000030: 5bb1 54bd 76c8 5f3d 7071 d2bc c550 943d
00000040: d1c4 b13d 442c f83c dc30 b53d 9cad d2bb
00000050: 9140 683d 8c3e 94bd cc02 ec3b a0a9 d9bc
00000060: 9263 b63d e0b1 96bc 0ebd 933d 344b c63b
00000070: 5857 fb3c ed56 5c3c 4701 5fbd a13a 483d
00000080: c7dd 1bbc a56c 9b3b fb40 57bb 4980 2abd
00000090: c64f 723d 3ea0 3ebd 447a 3abd e6d8 0abd
000000a0: 1c6a 813d ca06 9ebd eebe 32bd 2816 573c
000000b0: bef3 233a 479f df3b 2388 773b e5c1 2d3d
000000c0: 8b76 b0bc c742 743d c42d 3dbd f47e 5dbd
000000d0: 5197 0e3c 34a1 903d e71e 51bd 35d4 4a3d
000000e0: 0246 9e3d 36c1 19bd cbb3 48bd 07c5 423c
000000f0: f4c2 113d f4ff a9bd 7f16 1439 0daa c3bc
00000100: fbb7 4e3c ee6f 7d3d 3707 a83d e3c1 9b3b
00000110: 478d e0bc dda1 973d f35d 473d 5e68 373d
00000120: 035c 943d 507c a83d 5545 00bd e9ad 3cbd
00000130: f7b8 24bc 340b 4c3d 5559 85bb 8a38 8ebd
00000140: 0f10 1ebd 0292 f2bc cbba 24bd 45ab 2dbd
00000150: d35c 75bb 2789 313d 9a79 343d 828d b33d
00000160: 1756 28bd edb6 28bc 5207 683d ab25 85bd
00000170: ef61 68bd b573 253d a4db 88bc 5024 b1bd
00000180: 4e81 96bd 240f 2f3d 324a 5b3c 97bf 18bc
00000190: 57fb 35bd fbfc 4b3d e58d 4c3c f867 e93c
000001a0: f4a4 1e3d a3db 20bd 15d8 83bb 39fd 083d
000001b0: 17f3 16bd 2d5e 953d ab9d b13d 6422 9a3b
000001c0: df74 923d cda5 29bc 73d5 143d f784 29bd
000001d0: 929d 853b fa17 20bd 38f9 383d 8575 2cbd
000001e0: f280 8fbb 3adf df3c d0fb 163c 3e6a 9d3d
000001f0: 1909 44bd af8f 66bd 1336 4c3c 5493 663b
-0.015971387 -0.0003901815 0.02769565 0.05035898 0.0037270475 -0.01158167 -0.07781103 0.0056742295
0.025075365 -0.00492444 0.07755282 -0.035268508 -0.05192695 0.054634534 -0.025688857 0.07241968
0.08680118 0.030294545 0.0884721 -0.0064293873 0.0567022 -0.07238492 0.007202482 -0.026570141
0.0890571 -0.018395364 0.07213794 0.0060514454 0.030681297 0.013448459 -0.054444578 0.048884038
-0.009513325 0.004743176 -0.0032845128 -0.04162625 0.05915811 -0.046539538 -0.045526758 -0.033898257
0.06319067 -0.07716139 -0.043639116 0.013127841 0.0006254277 0.0068244073 0.0037770353 0.04242124
-0.0215409 0.059633996 -0.046186224 -0.05407615 0.008703069 0.07061997 -0.05105486 0.049518783
0.07728197 -0.037537776 -0.04899959 0.011887795 0.035586312 -0.08300772 0.0001412276 -0.023884797
0.012617107 0.061874323 0.08204501 0.0047533377 -0.027411116 0.0740392 0.04867358 0.044777267
0.07244112 0.08226836 -0.03131612 -0.04606429 -0.010053865 0.04981537 -0.004069487 -0.06944378
-0.038589533 -0.029610638 -0.040217202 -0.042399663 -0.003743936 0.04334369 0.04406128 0.08767225
-0.041097727 -0.010297519 0.056647606 -0.06501325 -0.05673402 0.04039355 -0.016706295 -0.08649504
-0.07348882 0.04273905 0.013384389 -0.009323022 -0.04442915 0.049801808 0.012485002 0.028491959
0.03873153 -0.039271962 -0.0040235617 0.033444617 -0.036852922 0.07293353 0.08672651 0.0047038067
0.07151198 -0.010354471 0.036336374 -0.04138657 0.0040776217 -0.039085366 0.04515955 -0.042104263
-0.004379385 0.027328122 0.00921531 0.0768628 -0.04786024 -0.05628937 0.012464064 0.003518303
