models/agModels-predicttop10_votes/models/NeuralNetTorch_BAG_L1/S4F2/net.params (torch, 249461 bytes, 16 tensors)

weight f4 [6, 4]
00000000: 5913 93bf 63ff 97bf 1e64 8ebe 4668 ddbe
00000010: 5bfe 583f bb82 303f 91bb a6be 1134 09c0
00000020: 7ec4 f33e 10ff 34be 228c b63f 2c3a 803e
00000030: 5477 263e 3563 5f3f 7189 f9bd daf8 a0bd
00000040: 0039 703f d9c9 a23f db60 0140 36d6 643d
00000050: 9fe6 ff3e 49d2 98be 3282 38bf 1c4b 0cc0
-1.149028 -1.1874813 -0.27810758 -0.43243617 0.84763116 0.6894948 -0.32564977 -2.143803
0.4761085 -0.17675424 1.4261515 0.25044382 0.16256458 0.8726075 -0.12184418 -0.07859965
0.93836975 1.2717849 2.0215366 0.05586835 0.49980637 -0.29847935 -0.7207366 -2.1920843

weight f4 [6, 4]
00000000: ca3d 63be 65fe 37bf 585d 083f 1d01 663e
00000010: 8197 13be ff07 2fbf 66a7 723f 7c99 003f
00000020: 5f63 0cbf 473a 673f 8c29 923f 1efe a93f
00000030: 29fe bcbf 7d9c 2540 100d f8be cf88 9e3e
00000040: 93c2 d2bf f7fd 12bf f9ac eebe 06aa eebe
00000050: 5a08 72bf b342 7e3f edde 48bd 8a88 2f3f
-0.2219154 -0.7187255 0.5326743 0.22461362 -0.14413263 -0.68371576 0.9478668 0.502342
-0.5483913 0.903233 1.1418929 1.3280675 -1.4765064 2.5876763 -0.48447466 0.30963752
-1.6465629 -0.5741877 -0.46616343 -0.46614093 -0.94543993 0.99320525 -0.049040724 0.6856772

weight f4 [6, 4]
00000000: 2aaf f8bd 7a98 283f 3ee0 5bbf cdee a0bc
00000010: 1827 5a3f 8690 c4be a530 863f 50ae ba3e
00000020: bbdb 9e3d b26e 903f b772 933e 131f de3e
00000030: 9437 50bf 91ff a6bf 8c87 41bf 8da4 a8bf
00000040: ded6 543e fdef a5be 085b dabe 7b9f 653e
00000050: d047 2d3f 2f63 aebd eaae 83be 684a 8bbf
-0.12142785 0.6585766 -0.8588904 -0.01964512 0.852159 -0.38391513 1.0483595 0.36461115
0.07756754 1.1283782 0.28798458 0.43383083 -0.81334805 -1.3046743 -0.75597453 -1.3175217
0.2078509 -0.3240966 -0.42647576 0.22424118 0.676877 -0.085150115 -0.25719386 -1.0882082

weight f4 [6, 4]
00000000: 8d46 2cbf faf2 883f 2538 21bf 8922 a3bf
00000010: 9050 8a3d 5155 2fbf 28d5 203f 43cb 3fbf
00000020: f2bc 8abe 37ac f13d 37e7 753e d806 923f
00000030: dbfc 973e b134 c83e a7e7 4abe c050 ccbd
00000040: 0861 483e ba77 43bf 0008 f6bf 7ed0 053e
00000050: f4c7 15bf 1301 513e c8d9 7e3d 9734 8b3e
-0.6729515 1.069915 -0.62976295 -1.2744914 0.06753647 -0.6848956 0.6282525 -0.7491953
-0.2709728 0.118004255 0.24013983 1.1408339 0.296851 0.391027 -0.19814931 -0.09976339
0.19568264 -0.76354563 -1.9221191 0.13067815 -0.5850823 0.20410566 0.06221941 0.2718856

weight f4 [6, 4]
00000000: 8fc9 733f de8f 78bf 0e0f 8d3e ba31 07be
00000010: 7c94 803f e88a fdbe 8933 3f3f 6447 203f
00000020: 7055 773f 4b99 bdbf 49cf 0e3f 7b7d 1d3e
00000030: 98b4 cf3d 2779 4ebf 7044 243f 6b8d f5bf
00000040: 5adc ab3f 4b38 82be dc00 513f 611e 813f
00000050: 95c5 993e 8e6b b1bf 4bc8 f43f c6ec 2c3d
0.9522943 -0.97094524 0.27550548 -0.13202563 1.0045314 -0.4952004 0.7468801 0.62608933
0.9661474 -1.4812406 0.5578504 0.15379898 0.101418674 -0.80653614 0.6416693 -1.9183782
1.3426621 -0.25433573 0.81641936 1.0087396 0.30033556 -1.3860948 1.9123625 0.042217992

weight f4 [26, 9]
00000000: 3814 02bf 5f53 d6bf e06a 06bf fe03 01bf
00000010: 8b9d 16bf 8321 bdbf 9ef5 5fbf e0fe 05c0
00000020: 638f 8ebf c0bc 36bf a743 7dbc 158c a33e
00000030: c4fb 8abe 5aa9 a23f bdaf 2f3d 6833 63bf
00000040: 419e e03e a05e c5bc a4f3 ad3f 9198 96be
00000050: 45ab 01bf 8c40 39c0 b891 bfbf 7772 823f
00000060: ddfe 4c3e 58d5 3bbf 394c d83f 2b61 b43e
00000070: 59b6 7b3f 90d3 bb3f c255 dbbd 0790 20bf
00000080: 7eb5 32bf e931 df3f 726b 7fbf fc33 30bf
00000090: 9851 553d 6b0e 093f dc33 0f3f 71ad a13f
000000a0: d1e2 8ebf 75c3 dfbf 5dab c33f f8cf 1a3c
000000b0: fba2 cbbf bd0c 3a3d 3a59 23bf 9747 413f
000000c0: 71da 933f ff02 1fbe 8434 7abd 7aa5 2d3f
000000d0: 9636 fa3e d7cd 3c3e 0265 963d e50c 1e3f
000000e0: cb4f 113d 1873 78bf 2ca9 333f 5b00 943f
000000f0: 274d 0740 9d72 5cbf 602c 20bf 37b8 15bf
00000100: 1bb3 c13f 5fe8 36bf f101 cc3d 130c b83f
00000110: 640f ff3f 4e44 283f f399 51bf 0e66 0cbf
00000120: 096d 873e ebea 0ebf 6d1f 6b3f 3bd6 fe3e
00000130: 82d1 58bf ec39 a53f ad42 903e ccae 12bf
00000140: b0e8 61bf 32a3 1cbf 53da 373e aa83 87bf
00000150: 413e 3cbf 7eda 0ac0 408c 30bf ec1d 073f
00000160: 6521 453f 1b76 bb3d 9019 d43e 8a37 eebf
00000170: 2340 91bf 4b50 c33d ff14 1a3f 0917 a83f
00000180: ab20 c9bf 27f3 9f3e 5dbe b1bf b394 77be
00000190: d5d3 97be c4fb 9cbf b932 303f 3855 a2bf
000001a0: fa54 8bbf 24bf bf3e 9f08 3abf e661 53bf
000001b0: 2afd 3bbf 23c9 043f fb56 ca3e 5d2f 1c3f
000001c0: 07f7 b3bf ae08 53bf ee17 9b3f 6be9 ecbf
000001d0: 974d c73e cd5c 8f3f 70fe d73e 1e9b 93bf
000001e0: 75b6 d2be 6868 a2be 3da6 703f bcf6 d7be
000001f0: dff6 23bf 6b91 cbbe 3e87 c0bf cb44 09bf
00000200: 965a 933f 75e9 533f 577b b03e e388 a53e
00000210: 7267 30c0 1fba 48bf f2a3 083f fac7 933e
00000220: 2bc7 90bf 1730 c43c 65b4 10be b988 83be
00000230: 2c08 1a40 3fa3 d03f dee4 95be 0de3 bdbf
00000240: 2758 0ebf 716e 4fbf 931c b5bf 14b2 e3be
00000250: f20e 87be a6e5 a8bd 79d6 023f 2068 d1bf
00000260: 9203 a43e 0704 13c0 5b8d 57bf 481b d7bf
00000270: 7846 033f 6457 b2bf 983f 333f bd24 b1bf
00000280: a3fd 933e 5875 09be ab62 5d3e 26bc 9d3f
00000290: 171e a03f caf7 aabd 41c1 0740 a12e 903d
000002a0: 102c f73e 8add 933d e153 ce3e 43a7 debf
000002b0: 314e 9e3f 67e8 2840 aeae 2c3e 2e9e b93e
000002c0: b239 93bf a2be 0d40 3c5f 643d a0c0 3c3f
000002d0: e5ea 8bbf a25e 9abd 6fb1 bdbf 26f1 dcbf
000002e0: 1608 f6bf 6713 3b3d 711d febf a86c f2bf
000002f0: f331 0b40 521d 79bf b729 18bf 7d1a d03f
00000300: 7640 be3e 2219 3abf 5642 9c3a 5a60 e53f
00000310: bc10 00bf 14ed 5b3f 98e8 313f 72e8 bc3f
00000320: b259 1dbf 73ad 9fbd 00b3 db3e 901a d9be
00000330: 3cda f6bf 8261 513f 5a18 3cbc 4a55 b6bf
00000340: 201e 15bf 90d5 bbbf ca31 37bf 6645 853f
00000350: 6b17 12c0 0b72 e93e 5054 1fbf bc2a d6bd
00000360: e5b8 263f 961c 823f c787 f8be ff83 e23e
00000370: 5241 ae3f b115 e03e 883e 02bf ff87 4ebe
00000380: c0e9 46be 8b5a 853d 94ca 7c3e d152 22bf
00000390: 6629 ff3d 1e12 17be 777f ba3f 7a90 0dbe
000003a0: 1b86 8fb8 bacb f53a
-0.508121 -1.6744193 -0.5250683 -0.50396717 -0.5883414 -1.4775852 -0.8748416 -2.0936813
-1.1137508 -0.7138176 -0.015458024 0.31942812 -0.27145207 1.2707932 0.042892206 -0.88750315
0.43870738 -0.024092972 1.3589978 -0.29413274 -0.5065196 -2.8945646 -1.4966345 1.0191182
0.20019098 -0.7337241 1.6898261 0.35230383 0.98325115 1.4673939 -0.107097164 -0.6271977
-0.69808185 1.7437106 -0.99773324 -0.6882932 0.052079767 0.53537625 0.55938506 1.2631055
-1.1162969 -1.7481524 1.5286671 0.009448998 -1.5909113 0.045422304 -0.63808024 0.7549986
1.1551038 -0.15528487 -0.06108524 0.6783062 0.4886977 0.18437897 0.073434845 0.61738425
0.035476487 -0.9705062 0.7018001 1.1562608 2.114084 -0.86112386 -0.6256771 -0.58484215
1.5132784 -0.7144832 0.09961308 1.4378685 1.9926572 0.65729225 -0.8187553 -0.54843223
0.26450375 -0.55827206 0.91844827 0.4977282 -0.84694684 1.2908301 0.2817587 -0.5729797
-0.8824568 -0.61186516 0.17954378 -1.0587056 -0.7353249 -2.1695857 -0.68964005 0.5278003
0.7700408 0.09153386 0.41425753 -1.8610699 -1.1347698 0.09536799 0.6018829 1.313203
-1.5713094 0.31240198 -1.3886219 -0.24177818 -0.29653803 -1.2264333 0.68827397 -1.2682257
-1.0885308 0.37450516 -0.72669405 -0.82571256 -0.7343317 0.5186941 0.39519486 0.6100977
-1.4059762 -0.8243512 1.2116678 -1.8508734 0.38926384 1.1200196 0.42186308 -1.1531713
-0.4115483 -0.3172028 0.9400366 -0.4218043 -0.6404857 -0.39759383 -1.5041273 -0.53620595
1.151202 0.827781 0.344691 0.32331 -2.7563138 -0.78409 0.5337516 0.28863508
-1.1310781 0.023948712 -0.14131315 -0.2569025 2.4067488 1.6299819 -0.29276174 -1.4834915
-0.5560326 -0.81027895 -1.4149345 -0.444718 -0.2637859 -0.08246927 0.5110851 -1.6359901
0.32033974 -2.2971208 -0.84200066 -1.68052 0.512794 -1.393292 0.7001891 -1.3839337
0.28904447 -0.1342367 0.2161967 1.2323043 1.2509183 -0.08348043 2.1211703 0.07040144
0.48275805 0.072199896 0.4029837 -1.7394794 1.2367612 2.6391847 0.1686351 0.36253494
-1.1501982 2.2147603 0.055754885 0.7373142 -1.0931059 -0.07537581 -1.4819773 -1.7261093
-1.9221218 0.0456728 -1.9852735 -1.8939409 2.1749237 -0.97310364 -0.5943865 1.6258084
0.37158555 -0.726946 0.0011921625 1.7920029 -0.50025535 0.8590863 0.69495535 1.4758437
-0.6146499 -0.07796755 0.42910004 -0.42403078 -1.928535 0.8178941 -0.011480415 -1.4244778
-0.5824909 -1.4674549 -0.7156035 1.0411804 -2.2826793 0.4559482 -0.62238026 -0.1045737
0.65125877 1.0164974 -0.4854109 0.4424133 1.3613684 0.4376655 -0.50876665 -0.20169066
-0.19425106 0.0651141 0.24686652 -0.6340762 0.12459068 -0.14753005 1.4570149 -0.13824645
-6.8437505e-05 0.0018752732

weight f4 [128, 77]
00000000: 9494 fb3d d473 b93d dc01 fc3d b227 913d
00000010: 38a8 79bd ac7f fc3d 86de 003c e605 093d
00000020: 3d39 fdbd 57ab d1bc f6d2 06be a75d 15bd
00000030: 14c7 b13c 3382 00be 16d3 ff3c 7605 a13d
00000040: b3c4 413c 35de 93bd 5494 a8bd 20b2 f8bc
00000050: c394 5d3d 7c2f d53d f1af 693d 3f6f 3abc
00000060: 3a6a 373d b471 e0bd bf4e cdbd 23e7 583d
00000070: 5c90 7abd ed8a 783d e6f2 a4bd ed9d 60bd
00000080: 22b7 bbbd 2493 6b3d 7b62 4dbc 1afa b63d
00000090: e1aa be3d b57c 803d 4746 2fbc 9e5f 05bd
000000a0: ab04 babc dc0d 963c ba9b 6a3d 5f52 98bd
000000b0: 4c98 933d 491d a3bc 0850 c5bd 31da 93bd
000000c0: eb27 d63d 35c7 eb3d 1cb8 f9bd 65b8 993d
000000d0: 3489 7c3d 1387 8a3d e299 e33d a8dd 40bd
000000e0: ab99 1e3d 8fae 133d 38b9 d6bc ace7 0a3d
000000f0: 82ba c1bc d7d5 883d 83f6 37bd 3201 10bd
00000100: bfb3 e23c af7c 223d 5966 6bbd 5bd7 2b3c
00000110: 6c0e 713d 2019 8cbc 435a dc3c 0bb5 20bc
00000120: ddbf 273d 5067 bbbd 98d3 50bd 65d8 79bd
00000130: 43f4 883d 71de c5bd 87da 42bd 3599 63bd
00000140: 4570 d93d 9d96 d43d a68a c3bd f848 dfbd
00000150: 90bf a1bd b516 6e3c 054d 3dbd db13 60bd
00000160: 8c74 57bd 9f11 853b 6a23 1fbd 78ec 6c3c
00000170: 1e31 cebc c62f c2bd 84c1 cd3c 8c9c c33d
00000180: 3cae 9dbd 0efd f43b d25b dbbc 320e f03d
00000190: 683d d7bd 890c d7bd 92b7 f33d a4a9 81bd
000001a0: 5fd7 e73c 37e1 02bc b5e2 c4bc e0c3 e0bc
000001b0: 9ebf a03d 0e2a 473c 6c1d d1bd 8d54 8cbd
000001c0: f41a 00bd 55d7 7f3d 2061 8abd 604a cf3d
000001d0: bfb2 d3bc 3dbe a9bc 7d0e aa3d 9acf 463d
000001e0: da51 953d c629 6a3d d072 9c3c 03a2 a5bd
000001f0: 15b0 9a3b cfbb b53d 5490 74bd af84 e0bd
00000200: 4e30 053d f1b1 eb3d a4df 05bd 8740 cbbd
00000210: eb8b debd ee90 ef3c 03dc d43b 341b 5fbd
00000220: 36e1 ed3c b83b e93c e9c0 933d 1c88 d13d
00000230: 2730 42bd 026f bcbd ff06 cfbd 5abf ce3d
00000240: 5f46 763d 916d d43d 0422 e1bd d0b1 ee3d
00000250: e9a0 f63d e562 9c3d b27b bebd 1579 84bd
00000260: 16bf 9ebd 28bf eb3d fd70 07be 211a fcbd
00000270: e70c 353d b4aa 91bd 55c0 95bd a437 98bb
00000280: 72dc 85bb f8c2 b8bd 14eb b63d ad53 4bbd
00000290: c187 363d ef65 d83d 7ee0 493d 2002 c33a
000002a0: 840b ac3d ea91 9f3b 049f c9bd 50f2 d73d
000002b0: d704 f73c 7ff2 dcbd c367 01bd 89da 8cbd
000002c0: 64e7 c33d f124 32bc eeb5 dabd 4aee b5bb
000002d0: b14a 873d 26bd 073d 27f1 143d 4715 fd3b
000002e0: 5c8c 2e3d 70a4 c6bc e914 33bd 3ebe dbbd
000002f0: 0c5c acbd 702d 463d 3888 9cbd 4666 843c
00000300: d66a 293d ed21 dc39 bb37 a7bd 8371 e13d
00000310: 7281 89bd 8485 823d e58c acbd d8bd ff3c
00000320: 2b89 813d 5e41 31bd b92b bc3d c18a b0bd
00000330: 3e84 e1bd dc24 95bd 8312 fc3b 1b5f f23d
00000340: 97cc a3bd 51d3 f03c 2c55 fcbc be8b adbc
00000350: a856 9d3d 3c96 b3bd 4330 7c3c 991b f83d
00000360: b4e2 4cbd d747 9e3d 73d2 d0bc 7ad4 b03d
00000370: c09c e2bd 92ff 16bc 44d9 da3a 6bf3 d13c
00000380: 33e5 3f3d 80a3 d43d 9c07 2cbd b161 04bd
00000390: dff9 4c3d 0f60 1dbd 92b2 df3d 955d 1bbe
000003a0: 275e 9dbd 3b70 8cbb e18a 5e3d e80f a73d
000003b0: 570b a6bb ee19 e6bd 8ba0 3e3d 1c52 cc3c
000003c0: 0296 603d 862f 8ebd 64bd 953d fe8b c63d
000003d0: 832a 823c 6457 edbd 679c 8c3d 9f61 0fbe
000003e0: f48e bf3c 7eb8 9e3c 475d 34bd 9551 0d3d
000003f0: b6d7 b0bd 66f2 cd3c 570e 8ebd d8e1 a7bc
0.122841984 0.090552956 0.12305042 0.070876494 -0.06095144 0.12329039 0.007865554 0.03345289
-0.12364433 -0.025594397 -0.13166413 -0.036466267 0.021701373 -0.12549667 0.031228583 0.0786237
0.011826682 -0.07220117 -0.08231416 -0.030358374 0.05409695 0.104094476 0.057052556 -0.011379062
0.04477904 -0.10959187 -0.10024785 0.052954804 -0.061172828 0.060679365 -0.08054142 -0.05483811
-0.09165789 0.05751337 -0.012535687 0.08934422 0.09309936 0.06273786 -0.010697908 -0.03256189
-0.022707304 0.018317156 0.05727742 -0.07437586 0.07206783 -0.019911425 -0.096344054 -0.07219351
0.104568325 0.11512605 -0.12193319 0.075058736 0.061654285 0.067640446 0.11113335 -0.047086388
0.038720768 0.036055144 -0.026211366 0.033912346 -0.023648504 0.06681412 -0.044912826 -0.03515739
0.0276736 0.03966969 -0.057470653 0.010488356 0.058851644 -0.017101824 0.026898509 -0.009808789
0.04095446 -0.09150565 -0.05098304 -0.060997386 0.06687214 -0.09661568 -0.047571685 -0.05556603
0.10617117 0.1038029 -0.095479295 -0.109025896 -0.07897866 0.014531781 -0.04621603 -0.054706436
-0.052601382 0.0040609385 -0.038852133 0.014460675 -0.025169905 -0.09481768 0.02511669 0.09551343
-0.07699248 0.0074764555 -0.026777182 0.117214575 -0.10509759 -0.10500438 0.11900248 -0.063311845
0.02830094 -0.007988266 -0.024033884 -0.02743715 0.07849048 0.012156023 -0.1021069 -0.06852064
-0.031275705 0.062461216 -0.067568064 0.10121608 -0.025842069 -0.020720595 0.08303545 0.048537828
0.072910026 0.057168745 0.019097716 -0.08087542 0.0047206976 0.08873712 -0.059707955 -0.109628074
0.03251677 0.11508549 -0.032683983 -0.09924417 -0.10866531 0.029243913 0.006495954 -0.054469302
0.029038053 0.028470859 0.07214529 0.10231039 -0.047409203 -0.092008606 -0.10108756 0.10095091
0.060125705 0.10372461 -0.10992816 0.11655009 0.1204241 0.0763605 -0.09300937 -0.06468407
-0.077512905 0.115110695 -0.13226695 -0.12309671 0.044201758 -0.07112637 -0.07312075 -0.0046453048
-0.004085117 -0.09021562 0.08931556 -0.049640346 0.04456306 0.10566317 0.049286358 0.0014877953
0.08400634 0.0048696892 -0.09844783 0.10544264 0.030153675 -0.1078844 -0.031593096 -0.0687762
0.09565619 -0.010873065 -0.106792316 -0.005552088 0.06606043 0.03313937 0.036362793 0.0077234837
0.042614326 -0.024248332 -0.043721113 -0.10729645 -0.08415994 0.048383176 -0.07643169 0.016162049
0.041361652 0.00041986947 -0.081649266 0.11007979 -0.06714143 0.06373122 -0.08425311 0.031218454
0.06324991 -0.04327523 0.09188027 -0.08620215 -0.11011551 -0.07282421 0.0076926365 0.11834546
-0.07998007 0.029397639 -0.030802332 -0.021184798 0.07682544 -0.08768889 0.015392366 0.12114639
-0.05002089 0.07728546 -0.025490975 0.08634277 -0.11065054 -0.009216206 0.001669683 0.025628766
0.04684944 0.10382748 -0.041999444 -0.03231973 0.050042983 -0.038421687 0.109227315 -0.15172417
-0.07683974 -0.00428584 0.054331664 0.08157331 -0.00506727 -0.112354144 0.046539824 0.024941497
0.05483056 -0.06942658 0.07311514 0.0969467 0.015889412 -0.11588934 0.06865769 -0.14002083
0.023383595 0.019375082 -0.04403427 0.03450163 -0.086348936 0.025139999 -0.06936329 -0.020493433

bias f4 [128]
00000000: 3bc9 213d 3db5 d23c 44f7 c43d 5861 373d
00000010: 6ddb eabd 5671 243d f113 db3d 6367 3cbd
00000020: 265d b03d 6eef ac3d a288 d5bc 4925 c0bb
00000030: 1845 fdba b19f fa3d 8ca4 1b3d 57b2 9b3d
00000040: a9f7 d0bd 2e37 14bd 8bc4 89bd 47b2 813c
00000050: 4958 26bd ada5 c03c 7c29 703d 9322 d5bc
00000060: 7175 c03b c561 b1bd c79b 8dbc 9d10 683c
00000070: e538 a33d ae06 ee3c 9996 bc3c 5322 6e3d
00000080: e8c1 c03d 8bfd 6933 1db6 e33d 0509 95bd
00000090: 8c87 fd3c 7d75 203b 93c7 b73d f25e fcbd
000000a0: f9ab 3d3d 00f1 d4bd b23c 18bd 964a 0cbd
000000b0: 3e9c bdba 11fe 6abd 24b8 b6bd 5cce c5bd
000000c0: bc58 93bc 1b19 d43d 8d30 40bc e7c0 92bd
000000d0: 7981 16bd 2686 ccbd 7699 ed3a 9bf7 cb3d
000000e0: 622f eebd b10f 883d 67a1 9f3d 94af 963d
000000f0: 67b1 75bd da76 9f3c 6cbf 703d 7c36 cbbd
00000100: 91a5 b03d 7bc4 bcbb cdf0 c8bd a787 d4bc
00000110: 8b11 f43a 99d5 28bd 04e1 74bd 8c76 deba
00000120: e25c 2e3d dcfe 923d cd89 f8bd 9ad0 2cbc
00000130: ffa1 fe3c 98b5 be3d be2a 413d 2848 903d
00000140: 4373 1c3d e324 b6bb 6e86 3dbd af70 31bd
00000150: 0e97 1f3d e4a4 afbc 3940 d63d 9f7f 94bd
00000160: 5862 7e3d 11a9 923d eb3d 993d 3168 c03d
00000170: 629e 5ebd 4a7f 623d 197e f1bd 5744 69bd
00000180: 871c 183c b911 da3d f3a6 c7bc 685c c6bd
00000190: 53d3 cfbd 5dc8 80bb 1a83 323c 73ab d53c
000001a0: 65a6 17bd 2ce9 023d 4f07 9a3c 6967 d2bc
000001b0: d6b3 813d fae4 92bd 6861 6ebd e27b 27bb
000001c0: 86f0 04bd b3c7 18bc dee3 0bbd fd12 653d
000001d0: b733 e73d 2ce6 bd3d d281 183d e96e 73bd
000001e0: f01d 11bd 6f55 5fbd 54e3 a0bc fa15 78bd
000001f0: fa73 623d 747e edbd 8f93 0abb 163f 9c3d
0.03949855 0.025721187 0.09617475 0.04477057 -0.114676334 0.040147148 0.10697163 -0.045997035
0.08611517 0.08444105 -0.026066128 -0.0058638197 -0.001932296 0.1223749 0.03799872 0.07602375
-0.102034874 -0.036185436 -0.06726941 0.01583208 -0.04061154 0.0235165 0.058633313 -0.026017463
0.005873375 -0.08661226 -0.017286194 0.014164117 0.07969836 0.02905592 0.02302103 0.058138203
0.09411985 5.4480136e-08 0.1111872 -0.07277111 0.030948423 0.002448409 0.08973613 -0.12322797
0.046306584 -0.103975296 -0.03716726 -0.03425082 -0.001446612 -0.057371203 -0.08921841 -0.096585006
-0.017986648 0.10356351 -0.011730325 -0.071656995 -0.03674457 -0.09986524 0.00181274 0.09959336
-0.11630131 0.06643618 0.07794457 0.073577076 -0.059983637 0.019465853 0.058776304 -0.099225014
0.08625329 -0.005760727 -0.09811554 -0.02594359 0.0018620951 -0.041219328 -0.059784904 -0.0016972586
0.04256905 0.07177517 -0.121356584 -0.010547781 0.031083105 0.0931198 0.047159903 0.07045013
0.03819586 -0.0055585965 -0.04627078 -0.043320354 0.038962416 -0.02144093 0.10461468 -0.07250904
0.062105507 0.07161153 0.07482513 0.09394873 -0.054350264 0.055297174 -0.11791629 -0.05694994
0.009284145 0.106479116 -0.0243716 -0.09685594 -0.10147729 -0.003930135 0.010895515 0.02608273
-0.03702392 0.03196065 0.018802313 -0.025684075 0.06333129 -0.0717258 -0.058198363 -0.0025556018
-0.032455944 -0.009324956 -0.034152858 0.05592631 0.11289161 0.092724174 0.03723318 -0.059431944
-0.03542894 -0.054524835 -0.019639648 -0.060567833 0.055286385 -0.11596385 -0.002114508 0.0762922

weight f4 [128, 128]
00000000: 32f9 7ebd 28aa 14bc 1fbe 783d 25c8 a7bc
00000010: 552a 07bd 1347 603d 8409 5dbd 7e99 cf3d
00000020: 52a2 813d 7d19 303c bcc7 9c3c 8a88 2fbd
00000030: 1620 bfbc f2e8 983c 4ad1 90bc 1ee5 e33b
00000040: db56 c43c e21b d83d d8da 6f3d 0db7 be3d
00000050: f52f 753c 2c93 6fbd f1bb 92bd c67e 803d
00000060: b039 833d 0055 c43d 751b 5ebd 494a aa3d
00000070: 766a f5bc b732 0e3d 94ea 983d e3c9 70bd
00000080: 98f3 c1bc ba4d 5e3b ad7b 81bd 83dd 393d
00000090: 9a01 9b3d 75f8 bc3d 3b93 e0bc 90e3 e8bc
000000a0: 8760 983c 83cf 44bc cb4c 99bd 6ee3 883c
000000b0: 7b15 44bc 4efc 9b3d 1468 84bb 56a3 a3bc
000000c0: a236 98bd edf9 9e3d 2ed0 7f3d df56 ab3d
000000d0: dcfc 7a3d 3a47 2fbd 247c d73d 7d70 9bbb
000000e0: eff1 cf3c 9ab9 523d cfff bb3d 633e dfbc
000000f0: 2233 d5bb 3945 c6bc 3d1d 8dbd 2314 ae3d
00000100: 769c 80bd 8d28 52bd b123 613d c909 9cbd
00000110: 8914 e23c 1711 a33d 44de 98bb 01b4 0abd
00000120: 75f6 91bd 0f8c f1bc 88c7 c8bb 5aed ad3d
00000130: 9d01 043d 315d 10bd c12c 0bbc b767 84bd
00000140: 542b 953d 3fcd e93d 6dc5 49bd 1653 bdbc
00000150: 49a3 36bc 4f2c 6cbd c05e bf3d 9634 f33c
00000160: 4b4d 0b3d fbd9 95bd 222e fbbc b0c5 98bb
00000170: d7d1 b13c 7e07 ecbb fb37 3bbd 8a64 bd3d
00000180: 6765 ac3b 0aff 1d3e ba67 5e3d 5949 893d
00000190: 37e9 d3bc ab5a 8e3c 2a43 86bd 7a40 65bc
000001a0: c01c 183d 7def 143d 693b 93bd 482e 01bc
000001b0: 8a9e 06bd 8f42 3bbd 332c 6cbd 5c5a 94ba
000001c0: b974 7cbd f493 5dbd 3930 063c 3e95 9dbd
000001d0: 575d aebd b56e 6b3d 3681 00bc 09d7 c43c
000001e0: b020 813c 421c caba 09d4 503d d1ec a4bd
000001f0: 7f90 583d 0c67 8e3d 2d8c 313d 8fce b0bd
00000200: 193c 753c d50c 96bb 2949 9dbd b685 903d
00000210: f465 e6bc c6ee 993d 8922 00bd 7ced a2bc
00000220: 5d29 2d3d 7ac0 723c f9c3 773d bc50 2d3d
00000230: a0a1 c43d a4f7 6cbd fc8e c03c f616 ad3b
00000240: 574d 76bd b882 adbd 529b 153d d8a0 7fbd
00000250: b4a8 79bd 43cd 8bbd 90fa 273c 5505 523c
00000260: 7a42 9cbd ca75 773d f83f a03c ccff 633d
00000270: 204a a5bd 6278 a9bd 492d a2bd e28e bdbc
00000280: 301c fbbd 6b8b 7e3a b2fe d4bb c40b 0dbd
00000290: d32a b63d 8fed 00bc 2f50 573d e57c dbbc
000002a0: 2d98 4dbc 27a1 8fbd 465e 5dbd fe1a c33d
000002b0: dd13 7cbc d0ff 633d 495f 603d d2cb 733d
000002c0: 5e91 a43d 8003 ca3d 9db7 aa3c 84de ca3b
000002d0: 8c16 72bc 8e4f d2bd 5a70 a33c a22b 9dbc
000002e0: bc21 253d 6c16 6ebd 64d4 553c 988d 613a
000002f0: ebf1 e33d e98b bf3d 26f7 123d 3afa e3bb
00000300: d0b1 2f3d 1b9a 19bd 221d 6d3d 2acc 963d
00000310: f64d a23c 7e49 8fbc 051e bb3b eea1 693d
00000320: aba2 583c 59a0 7cbc a2b4 85bc b538 dabd
00000330: 968f 4c3c 578e aebd 6fa5 9f3c 0190 a43c
00000340: 8149 2a3d cc8a 20bd 522a b53c 6f59 d33c
00000350: eb2a a4bc ce3b 26bd 1fc8 f9bc b4cd 0cbd
00000360: 8f68 de3c 938d 383d a359 0b3d e9a1 793d
00000370: 7da4 5a3c df60 7f3c cd27 55bd a277 233d
00000380: 4da0 3e3d 6f83 80bc bdb9 79bd 9d51 1b3c
00000390: f6eb abbd e9bc 9bbd 6ef6 d13d df05 433d
000003a0: 303c 373d 8027 ca3c 0f23 823b 33ab 273d
000003b0: d6d9 b4bc 7d7d 48bd 440f ffbc 36b1 04bb
000003c0: d729 983d fd61 b3bd 9365 9c3d 0fa7 1eba
000003d0: 4dcf 253c f270 a23d 3fa2 abbd c79f 88bc
000003e0: c941 bc3c 024f 3abc ccc3 2d3d 35e4 ad3d
000003f0: 1342 913b 0d36 653d ef87 273c 6d0d 4e3d
-0.06224937 -0.009073772 0.06072819 -0.020481179 -0.032999355 0.05475528 -0.053964153 0.10136698
0.06329788 0.010748264 0.01913821 -0.042854823 -0.02333073 0.018665764 -0.017677922 0.006954803
0.023967197 0.10552193 0.058558315 0.09312258 0.014965047 -0.058489963 -0.07164753 0.0627418
0.064074874 0.09586525 -0.054225404 0.0831495 -0.029957991 0.034716334 0.07466617 -0.058786284
-0.023675725 0.003392084 -0.063224174 0.045377266 0.07568665 0.09227077 -0.027413955 -0.028428823
0.018600715 -0.012012365 -0.0748535 0.01671001 -0.011968012 0.07616483 -0.0040407274 -0.019975346
-0.074322954 0.07762513 0.062454395 0.08366179 0.0612763 -0.042792536 0.10521725 -0.0047436343
0.025383918 0.051446535 0.09179651 -0.027251428 -0.0065063396 -0.02420293 -0.068903424 0.084999345
-0.062798426 -0.051308203 0.05496568 -0.07619054 0.027597683 0.07962244 -0.004665168 -0.03386307
-0.07127086 -0.02948573 -0.0061273016 0.08492537 0.0322281 -0.035245124 -0.008494557 -0.064650945
0.07283655 0.11416101 -0.049260546 -0.023110908 -0.011147329 -0.057659443 0.09344244 0.02968816
0.03400926 -0.07316967 -0.030661646 -0.004662238 0.021706505 -0.0072030416 -0.045707684 0.09247692
0.0052611115 0.15429321 0.05429814 0.06703443 -0.025868041 0.017377218 -0.06555779 -0.013992423
0.037136793 0.036361206 -0.07189066 -0.0078845695 -0.03286604 -0.045717772 -0.05765934 -0.0011318433
-0.061634753 -0.054096177 0.008190208 -0.07694481 -0.08513897 0.057478625 -0.007843306 0.024028318
0.015762657 -0.0015419798 0.050983462 -0.08052982 0.052872177 0.069532484 0.043346573 -0.08633148
0.014967942 -0.0045791664 -0.0767997 0.07056753 -0.028124787 0.075162455 -0.031282935 -0.019888632
0.042275775 0.014816398 0.06048963 0.042313322 0.0960114 -0.057853356 0.02350568 0.005282278
-0.06013235 -0.08472198 0.036525078 -0.062409252 -0.060951903 -0.0682626 0.01025261 0.012818654
-0.07629867 0.060415067 0.019561753 0.05566387 -0.08070779 -0.08274914 -0.07918794 -0.02313942
-0.12261236 0.0009710106 -0.0065000886 -0.03443505 0.08894887 -0.007869138 0.052566703 -0.026792953
-0.012548489 -0.07013159 -0.054044984 0.09526633 -0.015385595 0.055663884 0.05477837 0.05952055
0.08035539 0.09863949 0.020839507 0.0061910767 -0.014775883 -0.1026908 0.019951034 -0.019185845
0.040315375 -0.058126852 0.013051126 0.0008604168 0.111301266 0.093528576 0.03588023 -0.0069573196
0.042894185 -0.037500482 0.05788911 0.0736316 0.019812565 -0.017491098 0.0057103657 0.057039194
0.013222377 -0.015419089 -0.016321484 -0.10655347 0.012485405 -0.08523243 0.019488065 0.020088198
0.041574005 -0.039194867 0.022114906 0.025799481 -0.020039996 -0.040584378 -0.030490933 -0.03437586
0.027149467 0.04505689 0.03402103 0.060945425 0.013344881 0.015587061 -0.05203991 0.039909013
0.046539593 -0.015687672 -0.06096815 0.009479907 -0.08394615 -0.07604391 0.10252081 0.04761302
0.044735134 0.024677038 0.0039714645 0.040934753 -0.022076529 -0.0489478 -0.031135209 -0.0020247228
0.07429855 -0.08758924 0.07636561 -0.00060521154 0.010120225 0.07931699 -0.08380555 -0.01667775
0.022980588 -0.011371376 0.042423055 0.08490793 0.0044329255 0.05595975 0.01022528 0.050305773

bias f4 [128]
00000000: a517 60bd c520 e53c dbbf a5bc 9d65 5e3d
00000010: a15d 01bd 0479 91bc 232a bf3c 50e3 a23d
00000020: a6a2 b5bd 0d5b 3cbd f4ac 44bd 4224 df3c
00000030: 84e1 923d 8a59 4f3c fc31 c03b 6f36 693d
00000040: 4d15 73bd 2e0f bc3d 4966 cc3d 80ba 6bbd
00000050: 1670 5eb9 7a23 b73c 018f 46bd 62ad 21bd
00000060: 8ca3 843d 58e4 7d3d 9b6c 8abd f430 373d
00000070: 6ea8 60bd 0a39 2ebc 9bdc b6bd 9bb1 9fbd
00000080: 42e3 ca3a 3437 66bd a73e 38bd 9794 223d
00000090: 93ac 443d 5d61 79bd a445 833d 5a71 ab3d
000000a0: 07b4 abbc bd48 0d3d 6595 89bc c025 113c
000000b0: c214 c5bc cb9f b73c 8acd d03d 9863 c3bc
000000c0: c03f cbbc c25a aa3d 42de 803d 15e1 68bd
000000d0: 55a5 ba3d 88c6 8bbc 46d0 e73c 5bb8 933c
000000e0: ec0c e2bb 59ee 6abd 7998 253c e56f 5dbd
000000f0: 562c 5fbc 45bd 533d ba6f 9c3d 12d4 6ebd
00000100: 7364 283d 001e 4b36 16f8 813b c751 843d
00000110: e0cd 05bd d0e8 343d 3906 bf3c 0fdd 303d
00000120: 2ec9 43bd bbb1 843c 7526 96bd 80c2 3e3d
00000130: fc90 d4bc 43bd 1f3d 68b2 883d 1e32 393c
00000140: 06e3 82bd 596f 91bd ba6f 813c 8914 b4bd
00000150: b76e 1f3d ecfe 7fbc fc4e 9bbd 469b 593d
00000160: 3244 a33c 6b1c ad3d b67d 1cbc afdc 153d
00000170: a7bd 563d 68d4 293d 8f41 11bd e755 a0bd
00000180: 2c05 2cbb 0cda a53d 7a44 793d 0ebc debc
00000190: 3264 eebc a021 6d3d f285 703d e185 253d
000001a0: b0f1 97bd f40f babd 96b0 8d3d a6c8 9f3d
000001b0: 7450 a93d 77fa 343d 2c50 d4bc e69d 81bb
000001c0: f35f ab3d ad06 36bb 59ac 41bd 2231 553d
000001d0: 5072 5dbd c8a4 aa3c e98c 18bd 6ba7 fbbb
000001e0: c860 f93c aa50 5cbd 1b2b 623a fdfd 96bd
000001f0: b114 923c 284d 0dbd 1a48 013d 006d 963d
-0.05471005 0.027969727 -0.020233085 0.054296125 -0.031583432 -0.0177579 0.023335522 0.07953513
-0.08868913 -0.04598527 -0.048016503 0.027238969 0.0717192 0.012655625 0.0058653336 0.056936678
-0.059346486 0.09182583 0.09980447 -0.057550907 -0.00021213325 0.022355784 -0.048476223 -0.03947199
0.064765066 0.061985344 -0.06758996 0.04472442 -0.054848127 -0.010633716 -0.08928796 -0.077975474
0.0015479105 -0.05620499 -0.044981625 0.039692488 0.048016142 -0.06088387 0.06409767 0.083712295
-0.020959867 0.034493197 -0.01679487 0.008859098 -0.02405775 0.022415062 0.101954535 -0.023851201
-0.024810672 0.08318092 0.06292392 -0.05685528 0.09113566 -0.01706244 0.028297555 0.018032243
-0.006898513 -0.057356212 0.010107153 -0.05406179 -0.01362141 0.051694173 0.07638498 -0.058307715
0.04111142 3.026682e-06 0.0039663417 0.0646091 -0.03266704 0.04416734 0.023318397 0.043179568
-0.04779928 0.01619803 -0.07331554 0.04657221 -0.02594804 0.038998853 0.06674653 0.011303453
-0.063909575 -0.07101316 0.015800346 -0.08792979 0.038923945 -0.015624743 -0.075834244 0.053126596
0.019929979 0.08452686 -0.009551456 0.036587413 0.05242696 0.041462332 -0.035462912 -0.078288846
-0.00262482 0.0809823 0.06085632 -0.02718928 -0.029100511 0.057893395 0.05872149 0.04041088
-0.07419145 -0.09085074 0.06918447 0.078019425 0.08267298 0.044184174 -0.025917135 -0.0039555905
0.0836791 -0.0027774975 -0.047283504 0.05204881 -0.054064095 0.020830527 -0.037243757 -0.00767987
0.030441657 -0.053787865 0.0008627639 -0.07372663 0.017832132 -0.03449741 0.031562902 0.07345009

weight f4 [128, 128]
00000000: d677 9bbd dc98 f63d 6177 633d 14ba a23d
00000010: 9411 f33b c3b0 35bd 3ca6 8dbd a242 cb3d
00000020: bc91 59bd e56d 5cbd e94a babc 51a2 bdbd
00000030: 5a61 a33b 447b d63b f029 753c 0fa8 f3ba
00000040: c188 71bd 5d54 d83d eece 67bd 8720 98bd
00000050: bf8c 853d 00c0 70bd f15b 0abd cf07 9fbd
00000060: 0aa8 573d 33f5 973b 829b 823d 369c 133d
00000070: 37ba cabc 9594 013d 6ee8 c63c 2a0d 853d
00000080: b052 68bd ec94 9c3d 0192 21bd a412 69bd
00000090: e158 e93c 360f 253d eadc 123d edcf c83d
000000a0: 2547 a93c 555c c23d bf82 243d 128c c3bd
000000b0: 6c93 e1b9 8ac7 debc 7c02 d03d d2e0 973d
000000c0: 9c35 103d e8a3 56bd adf5 51bd 90dd 26bd
000000d0: 3d3f 97bd cb79 14bd 23bd bc3d ae22 a93c
000000e0: 943f ef3c 2478 963d caf2 57bd f74e cb3d
000000f0: 9ce6 9bbd ff42 453c 34f2 1fba 5fee 153d
00000100: b987 363d 2605 953d 91a5 a8bb 227c 99bd
00000110: 1739 6e3d 517f e23c 1493 603d 1ae9 8abd
00000120: 4812 e7bd 2e16 9b3d df40 7c3d 3bec 79bd
00000130: 3d71 103a d3c1 a53c 1c7b 67bc da92 acbd
00000140: 08fc b2bd d85a 9a3c e7dd ac3d 7403 b33d
00000150: 0615 5bbd c578 d73d 696b 903c 6395 1b3c
00000160: d118 82bd a876 b8bc 1187 13bc b52d df3c
00000170: f0c1 0c3c 4b87 53bc 067b 8cbc 9c31 d53b
00000180: d552 3ebd bd15 743d aa6b ffbc 6634 0a3d
00000190: d37d 9dbd ea86 d33c d153 8d3d 849c 77bd
000001a0: 3819 703d 700e 773d 7daf 133d 78a2 b33d
000001b0: 7ad0 aebd 9598 8e3d f0d1 61bc 7950 a9bc
000001c0: e69d 473d 35f3 f7bc dd46 013c 9351 8a3d
000001d0: 5594 a53c 251d 4fbd 9385 3abd 7382 dd3c
000001e0: 7715 b5bc 0d15 35bd 5f59 c43c b775 a83c
000001f0: d5b6 663d 053d dd3c d17d 8a3d 28d8 24bc
00000200: 852a 1d3d ca30 b23c 6953 bc3d 6b79 b1bc
00000210: c637 97bd dfd9 473c 56e2 d33c dc76 c13d
00000220: 3cb0 a0bd b505 a83c 8ca9 663d 6b99 0ebd
00000230: f80c a0bc 17c6 b93c f7a1 683d df4c 743d
00000240: 49b0 833d 5f0e 013d 914e 4c3d 77ea 33bd
00000250: 99dc 27bd 3ed1 8c3d bae8 45bd 2a53 ca3d
00000260: c663 013c f54b e23b 1105 0bbd 6ee8 53bd
00000270: e0d5 d8bb 3416 743d a021 2cbd 4e32 1bbd
00000280: a54d bbbd e90c b93c b678 da3c a158 66bc
00000290: f606 c63d 1dec 8f3c 00f1 d1b6 796c a1bc
000002a0: 4f64 90bc 855d 633d 7ba0 ba3c 3d13 a2bd
000002b0: d3b6 8fbd 6216 813d 850d 80ba cd84 8fbd
000002c0: 5cd1 b5bb 7ff0 1b3d 1c22 b6bd 4477 273c
000002d0: 4349 b9bd 7866 143c 1d46 bf3d 24fd 6dbc
000002e0: c5a1 87bd 6ced 933c 356f afbd 2a95 f73c
000002f0: 87e8 17bd a46e 253d 66fd 913d a6a0 d6bc
00000300: 821e af3d d944 243d f3c5 753b 2ca4 7cbd
00000310: 4735 403d a1bc 2c3d 509c 82bd 1651 6ebd
00000320: 4530 713d 7db6 613d e37d 8dbd 98ad 133d
00000330: 9e89 5bbd eee0 9cbb 1c08 b6bd 37ac 72bd
00000340: 5d18 813b 20e4 9ebb 459a 143d 916a 8b3c
00000350: 266c 063c 7ec6 2b3d b814 093d 1feb c6bd
00000360: a2c2 573d 918b 8ebd 898a a8bc 9cbd 083c
00000370: 304c 8bbd 799c a8bd a786 883d 5552 0cbd
00000380: 74b9 ce3c ecbe 03bd 3e14 6dbd 0b7a 2ebd
00000390: f15e 173d b8c8 113c 5da9 88bd e8e9 2e3d
000003a0: 191e 2a3d 4038 e0bb c07a f6bb 40ac 47bc
000003b0: 4124 5fbd e09b 9abd ae5a 52bd c5d9 6f3d
000003c0: fc24 e33c 6b8a b83d 4090 cdbb 07e4 66bc
000003d0: c1d4 613c 1aff 9dbd 4c1e 893d 9dae a0bb
000003e0: d241 983d 0364 d8bc 999c 233d fa93 a13d
000003f0: 55d7 a33d 12c7 d03d 2f6c 703d e4bc ae3b
-0.07591216 0.12040874 0.05553377 0.07945648 0.007417867 -0.044358026 -0.06916472 0.099248186
-0.0531175 -0.05381574 -0.022740798 -0.09259475 0.0049859704 0.006545456 0.014963612 -0.0018589514
-0.05896831 0.10562966 -0.056593828 -0.07428079 0.06520986 -0.058776855 -0.03377909 -0.07765161
0.05265049 0.0046373843 0.06377317 0.036037646 -0.024746997 0.03163584 0.024280753 0.064966515
-0.056719482 0.07645592 -0.03944588 -0.056902543 0.028484764 0.04029771 0.03585521 0.09805284
0.020663807 0.09490267 0.04016375 -0.09548201 -0.00043025182 -0.027194757 0.10156724 0.07415928
0.035207376 -0.052402407 -0.051259685 -0.040738642 -0.073851086 -0.036248963 0.092157625 0.02064642
0.029205121 0.07347134 -0.052721776 0.09927171 -0.076123446 0.012039899 -0.000610146 0.03660428
0.04456303 0.072763726 -0.00514669 -0.074943796 0.058159914 0.0276486 0.054827765 -0.06782742
-0.11282784 0.0757259 0.061585303 -0.061016303 0.0005510038 0.020234024 -0.014128473 -0.08426447
-0.087394774 0.018842146 0.08440762 0.08740893 -0.053486846 0.10521082 0.017629342 0.009496066
-0.063523896 -0.022517517 -0.00900437 0.027243474 0.00859116 -0.012910674 -0.017148506 0.006506158
-0.046465714 0.059591044 -0.031179268 0.033741377 -0.07690015 0.025821168 0.06900752 -0.060452
0.0586178 0.060316503 0.03605603 0.08771223 -0.085358575 0.069626965 -0.013782963 -0.020668255
0.048734568 -0.030267337 0.00789043 0.0675384 0.020212332 -0.050564904 -0.045537543 0.027039742
-0.022104962 -0.04420953 0.023968397 0.020563943 0.056326706 0.027006635 0.06762279 -0.010061301
0.038370628 0.02175178 0.09195597 -0.021664342 -0.07383685 0.012197941 0.025864761 0.09446499
-0.07846114 0.020510534 0.056314036 -0.03481428 -0.019537434 0.022677464 0.056795087 0.059643622
0.06430108 0.031507846 0.049879614 -0.043924775 -0.040981863 0.06875847 -0.04831765 0.098791435
0.007897323 0.0069060274 -0.03394038 -0.051735334 -0.0066172928 0.059591487 -0.042024255 -0.03788977
-0.09145669 0.022589164 0.026668888 -0.014059217 0.096692964 0.017568642 -6.2567415e-06 -0.019705044
-0.017625956 0.05550911 0.022781601 -0.07913826 -0.07017293 0.06303097 -0.0009769654 -0.070077516
-0.005548639 0.03807115 -0.088932246 0.010221306 -0.09047177 0.009057634 0.09339545 -0.014525685
-0.06622652 0.018057548 -0.08566133 0.030222494 -0.03708699 0.04038872 0.0712841 -0.02619965
0.08550741 0.04010472 0.003750202 -0.061680004 0.04692581 0.042172078 -0.063774705 -0.0581828
0.058883924 0.055105675 -0.069087766 0.036054224 -0.05359804 -0.004787556 -0.088882655 -0.059246268
0.003939672 -0.004848972 0.036279935 0.017018588 0.0082044955 0.041937344 0.033467025 -0.097128145
0.05267585 -0.06960214 -0.020573871 0.008345988 -0.06801641 -0.0823297 0.06666308 -0.034258205
0.025234915 -0.0321645 -0.057880633 -0.042596858 0.036955778 0.008897953 -0.066729285 0.04270354
0.04153261 -0.006842643 -0.007521957 -0.012187064 -0.054477934 -0.07549262 -0.05135601 0.05855729
0.027727596 0.09010776 -0.0062732995 -0.014092452 0.013783635 -0.077146724 0.06695232 -0.004903628
0.07434429 -0.026414877 0.039944265 0.078895524 0.08000056 0.1019422 0.058696922 0.005332576

bias f4 [128]
00000000: 4d09 e7bb 1bca d53c d432 bd3d 71d1 a03d
00000010: b24d 1c3d c93c a53d 7304 09bd 7608 063d
00000020: 01dc 863d 17f5 b4bd 6b64 b2bd ece6 9fbd
00000030: f414 9bbd 8c1b ce3c abca e8bb 787d 4f3c
00000040: ff58 02bd b9ba 98bd 339c 3dbd 73d7 ae3d
00000050: 12e0 0fbd d2b8 8c3c 2537 fabc 9f77 0fbd
00000060: c410 913d d87a 8eb9 f986 383c 8959 493d
00000070: 8078 0abb 30e4 ef3c 9a13 85bd 6c1e 4f3d
00000080: 589d 40bc 832d 383d a4c0 a3bd 214a 093c
00000090: 4b91 c63c 1c04 82bd e54f 6a3c 58e3 19bd
000000a0: 4443 bebc f838 193d 516f 3bbd 2d32 5b3d
000000b0: b162 723d 638c 87bc 3317 b93c 78c1 61bd
000000c0: 094e 64bd 0c88 a8bb 2ba1 973d 1e0b 793d
000000d0: 1b18 b23d 1147 01bd dac2 83bd 01d7 9a3d
000000e0: fede 693d 729a ae3d 5ec2 bc3d 5490 55bd
000000f0: d5f4 833d 7bc8 bb3d 7f0f 48bc 173d 5bbd
00000100: ec3a 33bd 6b65 1fbd 5308 7a3d 438c 92bb
00000110: 2eb9 c1bb c913 88ba 5a59 a33d 833f be3c
00000120: b5d4 0bbd 6349 623d 490b 39bd 975c 903d
00000130: a886 94bd 4e38 063d ae58 203d f7e7 763d
00000140: f6d3 ecbb 0f16 393d 8bcf 55bc bcf1 ab3d
00000150: 81d4 b6bc 1989 a0bd 0083 aabc 20d5 e33c
00000160: 40df 903c 536e 8dbd 5459 03bd b9ad 063d
00000170: efaf de3c f159 b63d 752e b9bc e824 fe3c
00000180: 27ca 13bd aa79 9fbd a279 cd3b 5b83 b0bc
00000190: 37cb 963d 9e62 7cbd 2b12 89bd 211e 83bd
000001a0: 65dc 92bc 5dce 643d 3165 683d 1506 8ebc
000001b0: 9bff 363d 13d3 3d3d 926a c0bc b478 0bbd
000001c0: 3475 d33c 7297 29bd 4f82 a43d 5c76 043d
000001d0: 77c5 2dbc d8e6 75bc 2cb3 ba3b 03df 4c3c
000001e0: 4fd1 95bd ec92 82bd 529a 22bb 9938 1abd
000001f0: ebe3 4bbd 83ac c93b 784a 4f3d b992 86bd
-0.0070506693 0.026097348 0.0923821 0.07852448 0.038160034 0.080682345 -0.03345151 0.032722913
0.06584931 -0.0883581 -0.087105595 -0.07807717 -0.07572356 0.02515962 -0.007104238 0.012664191
-0.031823155 -0.074574895 -0.04629154 0.085371874 -0.0351258 0.017177973 -0.030543873 -0.03502619
0.07083276 -0.00027175876 0.011262649 0.049157653 -0.0021128953 0.029283613 -0.06497879 0.050566122
-0.011756264 0.04496528 -0.07995728 0.00837949 0.024239203 -0.0634844 0.014301275 -0.037570328
-0.023225434 0.037407845 -0.045760456 0.05351465 0.05917615 -0.016546434 0.02259407 -0.055116147
-0.055738483 -0.005143171 0.07403787 0.060801618 0.08696004 -0.031561915 -0.06433649 0.0756054
0.057097428 0.08525552 0.0921676 -0.052139595 0.064431824 0.09169098 -0.012210726 -0.053525057
-0.043757364 -0.03891508 0.061043095 -0.004472287 -0.0059119677 -0.0010381873 0.07976027 0.023223644
-0.0341384 0.05524577 -0.045176778 0.0704891 -0.07252246 0.03276854 0.03914707 0.060279813
-0.007227416 0.045187052 -0.01304997 0.083957165 -0.022318127 -0.07838649 -0.020814419 0.027811587
0.017684579 -0.06905808 -0.03206761 0.03288052 0.027183501 0.08903874 -0.02260516 0.031023458
-0.03608146 -0.077868775 0.0062706033 -0.02154701 0.07362979 -0.061617486 -0.066929184 -0.06402231
-0.017927358 0.055860866 0.05673713 -0.017336885 0.044677358 0.046343874 -0.023488317 -0.03405066
0.025812723 -0.041404195 0.08032667 0.03233944 -0.010606161 -0.015008651 0.0056976285 0.012504342
-0.07315313 -0.063756794 -0.002481122 -0.037651632 -0.049777906 0.006154598 0.05060813 -0.06570954

weight f4 [128, 128]
00000000: f382 d8bb 8794 1e3d 34e2 583d d168 e83c
00000010: 45b3 61bc 7bb9 65bd 3d99 873d 9ba8 e0ba
00000020: 5e41 fbba 06fd 63bd 463f df2d 9c8e 8fbd
00000030: 4311 bbbc 4b07 07bd 5025 693d af05 56bc
00000040: c36d 903c bc49 13bd 15f6 adbd 5bdb 85bd
00000050: 07d8 e73c 1764 a03d 7ac3 80bd 53d0 2ebd
00000060: c9f9 0e3d 5146 9f3d 67dd 90bd 9c12 4fbd
00000070: 593c 9bbd fadc d73c d661 c3bc 0952 e9bc
00000080: 4300 7e3b 0b66 8cbc 7630 6bbd 8dee a6bd
00000090: 0803 983d 7ef0 70bc 9400 17ba 1e5b 5fbc
000000a0: 09de 01bd e70d c23c d280 513b 639a 533b
000000b0: 9e84 84bd ae3c d3bc 42f4 f7bc 4970 443d
000000c0: 6556 60bd b9fa e6bb 9bf7 d1bc 3d15 a83d
000000d0: ca9f b13c 7b4a 633d d3ee 84bd 63d3 853c
000000e0: 400e 74bc 6eb3 59bd b09d 953c c23a abbb
000000f0: 37e1 803c d906 79bd 3d63 70bc cfc0 76bd
00000100: 5a22 5cbd 32e4 973d 84ab b639 9763 103c
00000110: 654a 9ebd 2c29 e2bc a884 843c 53c0 723d
00000120: fc50 49bd dd9c 833d 9bd2 d7bb cffa aa39
00000130: a1a6 373d 880b 44bd e4d3 6d3d 6e76 893d
00000140: 7bec 90bd d68a 09bd e1c0 87bd f923 babd
00000150: 347b b6bb 9add a0bc 66cd 543d c432 27ba
00000160: 46bc aabd 0a72 9cbd e67a 963b f147 bdbc
00000170: 66dd 903c feaa abbd 2197 78bd 20a1 b23c
00000180: 45e9 c92c f86f 863b 5a42 18bc 632c 56bd
00000190: cc1f 8d3d 3b0a 80bd 252b 8a3d aead a43d
000001a0: 5c23 803d bc96 6e3d 0e55 aabb cb21 86bd
000001b0: bb28 2fbd a9d2 6ebd c43f d236 45c9 563d
000001c0: 00f4 cf3c f82f d53c bafb 3ebd 0447 753d
000001d0: 4b2c 30bc 20bc 00bb 900f acbc db86 9fbd
000001e0: 9c47 90bd a831 6b3d 2d62 b5bc 1814 eb3b
000001f0: 42b8 90bd c7f5 6bbb 481f 993a 9b5f 3fbb
00000200: 8a17 113d 3f7c 6c3d e802 8cbd de85 d73c
00000210: 7566 343d ff8e 8bbc 4ac5 58bd fdf6 0dbd
00000220: 5775 3cbc 2168 ab3d 10dc 993d dd34 21bd
00000230: 623b d33b 70fd 863c df6d 233d 4afb 80bc
00000240: 40ea 13bd d82a 94bb 0456 83bd 2ef8 9d3d
00000250: c15a 8a3d 957d 873c a51e 933d 81e2 63bd
00000260: 4633 3dbd 0417 5dbd 218f 48bc 6d3b 3a3d
00000270: 573a 833c a101 ecbc f4be 6dbd 3c59 653c
00000280: d72d 893d db90 14bd 7525 a2bd 19e7 933d
00000290: a48c f23c 713c a13c fcaa 83bc 2936 8e3d
000002a0: cac7 9abd 7c52 043d c8e8 5dbd 6228 a5bd
000002b0: 1cf2 97bd b0c0 ab3d 3caf 8d3d 2111 86bd
000002c0: 8b4c 27bd d923 9fbd 3dc2 24bd 8476 263d
000002d0: fdb8 77bd c310 af3d b4f6 3cbd e563 1c3d
000002e0: 881a 6ebd e31b 75bd c5a0 133d ca87 073a
000002f0: 3aa5 2e3d 6e9a 8ebc c3b9 713d 50d6 d13c
00000300: a740 42bd 2ee2 dfbb 2fdc 28bd 9572 a7bc
00000310: eb9d 95bc f991 3a3c ed28 ac3c ecaa 78bc
00000320: cc63 423c 053e 393c db5d 0bbd d7b8 bcbd
00000330: 26a6 063c 2b97 d7bd 4b7f 893d c5be 993c
00000340: 82e7 853d 4987 3fbd a486 25bd 4d50 53bd
00000350: 9700 85bb 9351 7d3d 7e49 813b 1269 61bd
00000360: 58e3 92bd 2d30 893d 9554 25bc bc4c 603d
00000370: f2f6 c3bd 50ac babc 9f71 6f3c 753f 753d
00000380: 8fce 0abc f53b b2bc c564 c33c 2bb2 15bd
00000390: 8552 a0ba a8b1 37bb 90d2 a3bc 2773 173c
000003a0: 382b 4fbd 7783 2e3c bdc3 9bbd 5226 d2bc
000003b0: b553 bdbd 0c59 9dbc 6311 dc39 b8dd 283d
000003c0: d309 bebb fb45 8bbc fcc6 a4bd fe8e 58bc
000003d0: cabd 9bbd b422 323d 799f 7f3d 1a9b 6ebc
000003e0: 1636 b83a c2bb f03c c1e6 fabc de96 afbc
000003f0: 44af 7b3d 0e82 96bd e776 be3c 0fb4 8bbd
-0.0066074072 0.038715865 0.0529501 0.028370293 -0.013775651 -0.05608509 0.06621025 -0.0017140092
-0.0019169261 -0.055661224 2.5380264e-11 -0.070096225 -0.02283538 -0.03296594 0.05692035 -0.0130628785
0.017630463 -0.03595899 -0.08494202 -0.06535979 0.028301252 0.078315906 -0.06287284 -0.042679142
0.034906182 0.07777084 -0.07073479 -0.050554857 -0.0757987 0.026350487 -0.023850363 -0.0284815
0.003875748 -0.017138502 -0.057419263 -0.08150969 0.07422453 -0.014705775 -0.0005760279 -0.013632564
-0.03170589 0.02368827 0.0031967652 0.0032288067 -0.06470607 -0.02578577 -0.030267838 0.047958646
-0.054769892 -0.0070489314 -0.025630763 0.08207176 0.021682639 0.055490952 -0.064908646 0.016336149
-0.014895976 -0.053149633 0.018263668 -0.0052255103 0.01573239 -0.060797546 -0.014672098 -0.06024247
-0.053743698 0.07416572 0.00034841534 0.008812807 -0.077290334 -0.027607523 0.016176537 0.059265446
-0.0491495 0.06426404 -0.0065863854 0.00032611794 0.044836644 -0.04786256 0.058063403 0.06712042
-0.07076355 -0.03357967 -0.066285856 -0.090888925 -0.005568886 -0.019636918 0.051953696 -0.0006378109
-0.083366916 -0.07638939 0.0045922874 -0.023105593 0.017683696 -0.083822235 -0.060691003 0.021805346
5.7386617e-12 0.004102703 -0.009293163 -0.052288424 0.068908304 -0.06251951 0.067465104 0.08040939
0.06256744 0.05824922 -0.0051981276 -0.06549414 -0.042763453 -0.05830637 6.265911e-06 0.05243804
0.025384903 0.02602385 -0.046626784 0.05988218 -0.010752748 -0.0019643381 -0.021003515 -0.077893935
-0.070449084 0.057420403 -0.02214154 0.007174026 -0.070663944 -0.003600465 0.0011682296 -0.0029201272
0.03542284 0.057735678 -0.06836492 0.02630895 0.044043023 -0.01703596 -0.052922525 -0.034659375
-0.011502585 0.083694704 0.07512677 -0.039357055 0.006446288 0.01647827 0.039899703 -0.015744824
-0.03611207 -0.004521709 -0.064128906 0.07713352 0.06755591 0.016539374 0.07183579 -0.055635933
-0.046191476 -0.053977028 -0.012241156 0.04546683 0.01601903 -0.02880937 -0.058043435 0.013998326
0.066981964 -0.036270957 -0.079173006 0.07221813 0.029608078 0.019682141 -0.016072743 0.06943924
-0.07557638 0.032305226 -0.054177076 -0.08064343 -0.074192256 0.083863616 0.06918189 -0.06546236
-0.04084448 -0.07770509 -0.040224303 0.04064037 -0.060479153 0.08548119 -0.046133712 0.038181204
-0.05813077 -0.059841048 0.036041994 0.00051700755 0.04263804 -0.017407622 0.059015047 0.025614887
-0.04742494 -0.0068323826 -0.04122561 -0.02044038 -0.018263778 0.011387342 0.021015609 -0.01517747
0.011864614 0.0113062905 -0.034025054 -0.09214943 0.008218324 -0.1052688 0.06713732 0.018767724
0.06538297 -0.046759877 -0.040411606 -0.051590253 -0.004058908 0.061845373 0.0039455285 -0.055031843
-0.07172269 0.06698642 -0.010090967 0.05476068 -0.095685855 -0.022787243 0.014614492 0.05987497
-0.008472099 -0.021757105 0.023851762 -0.036546867 -0.0012231624 -0.0028029475 -0.019997865 0.009243763
-0.050578326 0.010651461 -0.076056935 -0.025653038 -0.092444815 -0.0192075 0.00041974624 0.041227072
-0.005799511 -0.017001143 -0.08045766 -0.013217686 -0.07604559 0.043490127 0.062407944 -0.014563346
0.0014054205 0.029386405 -0.03062761 -0.021434244 0.061446443 -0.07349025 0.023250056 -0.06821453

bias f4 [128]
00000000: 8e4b adbd 00b3 8fbd fa66 a73d fb83 51bd
00000010: b423 833d 98e0 dd3b ce83 b13d 6d25 06bd
00000020: f48b 863d e49e fbbc 395b 173d ae9a 07bc
00000030: 7058 b0bd c55a 8f3d 52bd ab3d aaa9 663d
00000040: 7038 23bd a9e4 d2bb b2e2 1e3c 757e 48bd
00000050: 8159 42bd 4f70 85bd 163a 38bd 2bbc aabd
00000060: 1770 abbc 617e e9bb 8d04 56bd 2712 a0bd
00000070: e7f2 8cbc 8093 70bd a4b9 a13d 1870 523d
00000080: 266c 2bbc b24d 55bd 1cff 863d 6b2a eb3c
00000090: dcd7 5b3d 41de 713b 317e df3c 8ed9 e3bc
000000a0: 62a0 93bd f8cb c2bc 6ce7 70bd 473c c0bc
000000b0: 9d1c 873d 52c5 70bb 62f2 bfbc 936d d4bb
000000c0: 90d9 a03b 0f6e 3b3d 4925 083d 47e4 a13d
000000d0: 7ba1 f3bc 930b c03d 75b9 90bd 12cb d4bc
000000e0: adb1 98bd ef80 2a3d 05ad 1fbc 7454 393d
000000f0: dfef 96bc 9b80 7bbc 1109 293d 942e d2bc
00000100: 55bb f03c 70af dbbc fb55 93bc 7719 5ebd
00000110: 33bc 553c 4d28 b0bb 033b b63d 793c 1cbd
00000120: fbdb 6f3d e040 a73d a38f 69bd e522 db3b
00000130: f3aa 903d 0386 a1bc 7a2e 793d 63ea 60bd
00000140: 64c6 563d 12fb 183b 7959 daba d4e0 19bd
00000150: 762e a8bd 7491 163d eaef a53d d68c 9e3d
00000160: 36f3 8ebd e1dc a23d c686 8cbd c166 863d
00000170: d351 b639 6059 4fbd 9ee7 1a3d 823c a13c
00000180: 71a7 48bd 47eb f0bc 0953 20bd c6b0 a53d
00000190: 107f 1f3d 3f7b fa3c a6e9 3a3d eec6 a23c
000001a0: 948b 91bd 9ace ee3c fcf3 00bd b05a 73bd
000001b0: b7a2 c53d 56d7 883d 1387 113d 0b0b a93c
000001c0: e136 b4bb 728b 7abd c486 23bd 0e14 10bd
000001d0: 7379 82bd cf9a 87bd 4d3f 23bd 32dd 743d
000001e0: 8932 993d c16b f7bc 13b6 983d 8293 c0bc
000001f0: 5239 ab3d c6f5 8dbd 2acb a2bd 484d 693b
-0.084616765 -0.070165634 0.08173938 -0.051151257 0.06403294 0.0067711584 0.08667718 -0.032750536
0.06569663 -0.030715413 0.03695223 -0.008276625 -0.08610618 0.06999735 0.08385719 0.056314148
-0.039848745 -0.00643595 0.009697603 -0.048948724 -0.04744864 -0.06515562 -0.04497727 -0.083366714
-0.020927472 -0.0071256612 -0.052250434 -0.07815962 -0.017205669 -0.058734417 0.07896736 0.051376432
-0.010462796 -0.05207605 0.06591627 0.02870675 0.053672656 0.0036906155 0.027281852 -0.0278137
-0.07208325 -0.0237789 -0.05881445 -0.023466242 0.065972544 -0.0036738706 -0.023431007 -0.006482789
0.004908748 0.045759257 0.033238683 0.079048686 -0.029740086 0.093772076 -0.07066623 -0.025975738
-0.07455764 0.041626867 -0.009745841 0.045246556 -0.018424926 -0.015350486 0.041268412 -0.025656976
0.029386202 -0.026817054 -0.017985335 -0.054223504 0.0130453585 -0.005375898 0.08897974 -0.03814361
0.0585594 0.08166671 -0.05702175 0.0066875094 0.07063856 -0.019717222 0.06083534 -0.05491103
0.052435294 0.002334301 -0.0016658745 -0.03756793 -0.08211987 0.03675981 0.081024006 0.07741706
-0.069799826 0.079522856 -0.068616435 0.065625675 0.0003477471 -0.050622344 0.037818544 0.019682173
-0.04898781 -0.029409064 -0.03914169 0.080903575 0.038939536 0.030576346 0.04563298 0.019870248
-0.071067005 0.02915125 -0.03148268 -0.05941266 0.09650176 0.06681697 0.035529207 0.020635149
-0.005499706 -0.06116814 -0.039923444 -0.035175376 -0.06370821 -0.06621324 -0.03985529 0.05978126
0.07480342 -0.030202748 0.07456603 -0.023507837 0.08360542 -0.06931643 -0.07948907 0.0035599042
