models/agModels-predicttop10_votes/models/NeuralNetTorch_BAG_L1/S3F4/net.params (torch, 249461 bytes, 16 tensors)

weight f4 [6, 4]
-1.1542534 -1.1539445 -0.26116756 -0.41560927 0.8496572 0.7039614 -0.30567342 -2.1329012
0.48042452 -0.16453163 1.4364122 0.24977498 0.16141489 0.85407203 -0.13404004 -0.09859692
0.9380297 1.2721786 1.9967604 0.054329656 0.5323262 -0.3292085 -0.7541975 -2.2271755
00000000: 93be 93bf 74b4 93bf c1b7 85be bdca d4be
00000010: 2283 593f d036 343f 3a81 9cbe 7481 08c0
00000020: 34fa f53e fb7a 28be 5bdc b73f 03c5 7f3e
00000030: f249 253e 77a4 5a3f cb41 09be 2fed c9bd
00000040: b722 703f c0d6 a23f d895 ff3f c688 5e3d
00000050: 8846 083f 048e a8be 1613 41bf 0b8a 0ec0

weight f4 [6, 4]
-0.21945563 -0.72502124 0.5374582 0.23380567 -0.16039532 -0.68572044 0.9415042 0.500934
-0.5548665 0.91837144 1.1114126 1.2925643 -1.4642643 2.5763297 -0.4741473 0.3158403
-1.6014459 -0.5645028 -0.45951965 -0.4615519 -0.97944736 1.0272999 -0.0693796 0.7190243
00000000: fab8 60be fe9a 39bf dc96 093f c16a 6f3e
00000010: ac3e 24be 608b 2fbf 6b06 713f 363d 003f
00000020: bb0b 0ebf 641a 6b3f c542 8e3f bf72 a53f
00000030: 036d bbbf 96e2 2440 6fc3 f2be d2b5 a13e
00000040: 2efc ccbf 4183 10bf 2946 ebbe 8850 ecbe
00000050: 10bd 7abf 907e 833f e416 8ebd fa11 383f

weight f4 [6, 4]
-0.110420175 0.6619408 -0.85797644 -0.014421414 0.8539853 -0.38242933 1.048095 0.36285996
0.0813134 1.1273974 0.28578907 0.4335493 -0.80929095 -1.3052505 -0.7534712 -1.3202384
0.20338917 -0.3389289 -0.43482202 0.22127083 0.7101942 -0.10915425 -0.2872958 -1.1224551
00000000: f923 e2bd f474 293f 58a4 5bbf cb47 6cbc
00000010: c89e 5a3f c7cd c3be fa27 863f c8c8 b93e
00000020: a487 a63d 8f4e 903f f252 923e 2dfa dd3e
00000030: b12d 4fbf 7312 a7bf 7de3 40bf 92fd a8bf
00000040: 4045 503e 1788 adbe fea0 debe d294 623e
00000050: 49cf 353f 438c dfbd 6f18 93be 9cac 8fbf

weight f4 [6, 4]
-0.67731386 1.0506625 -0.6077715 -1.2693357 0.08145625 -0.67135024 0.6052313 -0.76341605
-0.29077607 0.09990133 0.25132135 1.1495681 0.30485064 0.39156204 -0.19982879 -0.09605878
0.1802601 -0.7746223 -1.8978599 0.12574135 -0.61803794 0.23313403 0.08416062 0.3022275
00000000: 7164 2dbf 1c7c 863f ea96 1bbf 9879 a2bf
00000010: 89d2 a63d 9cdd 2bbf 70f0 1a3f 3c6f 43bf
00000020: 9ae0 94be 1299 cc3d 31ad 803e 0c25 933f
00000030: 6215 9c3e d27a c83e eb9f 4cbe 77ba c4bd
00000040: 1b96 383e a64d 46bf 13ed f2bf 57c2 003e
00000050: bc37 1ebf b0ba 6e3e 675c ac3d 90bd 9a3e

weight f4 [6, 4]
0.9445875 -0.9651254 0.30154854 -0.11978121 0.9906714 -0.48506048 0.7622416 0.61564535
0.9908645 -1.4853706 0.5794222 0.16166689 0.10605751 -0.8180042 0.63271624 -1.9256817
1.336035 -0.24438596 0.7857257 1.0104595 0.3310898 -1.4206933 1.9473271 0.06154484
00000000: 7dd0 713f 7512 77bf 9264 9a3e da4f f5bd
00000010: a49c 7d3f d959 f8be 4422 433f ef9a 1d3f
00000020: 4ca9 7d3f a020 bebf 0355 143f 018c 253e
00000030: ae34 d93d b968 51bf b1f9 213f bd7c f6bf
00000040: 3203 ab3f 5040 7abe 5225 493f bd56 813f
00000050: 9a84 a93e 47d9 b5bf 0442 f93f 7116 7c3d

weight f4 [26, 9]
-0.4983413 -1.6776086 -0.53508836 -0.5067041 -0.5940271 -1.5012708 -0.9095233 -2.105654
-1.1177769 -0.7052164 0.04129223 0.31291655 -0.30069944 1.3135328 -0.022365835 -0.9173047
0.39510763 -0.037549496 1.3405234 -0.28201294 -0.5186317 -2.8638437 -1.5134041 1.0402007
0.20660806 -0.71916264 1.7112361 0.35564187 0.9926453 1.4438003 -0.06826005 -0.6094021
-0.66668504 1.7027638 -0.9757172 -0.65818673 0.051574364 0.54801583 0.513035 1.2404633
-1.0908211 -1.7215663 1.5206909 -0.012097623 -1.5975319 0.050442543 -0.62766826 0.72651577
1.1655346 -0.15596111 -0.062154096 0.6400974 0.5060438 0.18691091 0.06729882 0.6210366
0.05179315 -0.99248993 0.7084501 1.1447941 2.1688247 -0.8773056 -0.65007675 -0.5560982
1.532746 -0.7175419 0.14328681 1.4058697 1.9859452 0.60164386 -0.78778684 -0.51990545
0.24294804 -0.58881736 0.93311214 0.5072873 -0.8573214 1.2984848 0.30063835 -0.5738554
-0.8640375 -0.5924206 0.17282993 -1.0545461 -0.733006 -2.1855488 -0.6871375 0.502798
0.77944535 0.08681951 0.42927116 -1.8339055 -1.1260334 0.11052752 0.6107842 1.3067173
-1.6088289 0.32524404 -1.3789277 -0.22456214 -0.28172386 -1.2081939 0.6725461 -1.2585645
-1.0696288 0.42802536 -0.7360652 -0.8289758 -0.72575 0.5381427 0.3692218 0.6119928
-1.4041164 -0.8342708 1.1719111 -1.8646319 0.3912951 1.1208521 0.424518 -1.1476722
-0.39702395 -0.3278368 0.933433 -0.47448477 -0.618258 -0.3774371 -1.510939 -0.53165776
1.1828239 0.79902494 0.35165602 0.32159132 -2.7175426 -0.7960202 0.51819295 0.26824456
-1.1346436 0.010738627 -0.13467476 -0.2677857 2.441357 1.6640648 -0.27855265 -1.4864649
-0.5464616 -0.80793023 -1.4306242 -0.4292868 -0.26257536 -0.09153991 0.48276827 -1.6417079
0.3518478 -2.294194 -0.8483757 -1.7009127 0.5241376 -1.3964381 0.6986285 -1.3903219
0.2957122 -0.12550226 0.20888679 1.2150773 1.2449034 -0.09436838 2.1266446 0.072104186
0.4979013 0.070083596 0.4064531 -1.7272522 1.20637 2.6323767 0.20162365 0.3372767
-1.1421689 2.1754644 0.087623656 0.75093645 -1.0986623 -0.074593276 -1.499352 -1.7494354
-1.8953061 0.0052985954 -1.9606926 -1.9225788 2.144837 -0.9855795 -0.59626883 1.6533853
0.33176908 -0.7098205 -0.00682534 1.8693095 -0.5237 0.8312358 0.67532593 1.4665695
-0.59742886 -0.096231215 0.43659204 -0.4187254 -1.8351828 0.7989395 -0.031212505 -1.4042664
-0.5652712 -1.4773129 -0.71355927 1.0484846 -2.2933493 0.3904182 -0.60156775 -0.08423842
0.66973984 0.99040437 -0.47670415 0.4582482 1.3625717 0.43230256 -0.51440215 -0.17532603
-0.19282642 0.08735887 0.2767868 -0.6672359 0.15094665 -0.17485525 1.491677 -0.16520517
-0.000594526 0.0061531835
00000000: 9726 ffbe e1bb d6bf 8dfb 08bf 5cb7 01bf
00000010: 2912 18bf a429 c0bf 85d6 68bf 09c3 06c0
00000020: 5013 8fbf 1089 34bf 0b22 293d 9936 a03e
00000030: 47f5 99be d821 a83f 8e38 b7bc 7bd4 6abf
00000040: 8c4b ca3e 80cd 19bd 4596 ab3f 0064 90be
00000050: 0cc5 04bf 3749 37c0 3ab7 c1bf 4c25 853f
00000060: 1091 533e 0b1b 38bf c909 db3f b116 b63e
00000070: 011e 7e3f 73ce b83f edcb 8bbd c701 1cbf
00000080: dfab 2abf 2af4 d93f 9ac8 79bf ed7e 28bf
00000090: a43f 533d c44a 0c3f 4356 033f 80c7 9e3f
000000a0: 07a0 8bbf 495c dcbf 00a6 c23f 1c35 46bc
000000b0: ed7b ccbf d79c 4e3d deae 20bf f0fc 393f
000000c0: 3d30 953f 45b4 1fbe 4b95 7ebd 6cdd 233f
000000d0: 168c 013f 9365 3f3e f7d3 893d 41fc 1e3f
000000e0: 0e25 543d d213 7ebf fc5c 353f 9d88 923f
000000f0: 06ce 0a40 1a97 60bf 6e6b 26bf 745c 0ebf
00000100: 0531 c43f d3b0 37bf c7b9 123e 8af3 b33f
00000110: 7433 fe3f 5505 1a3f 66ac 49bf 8618 05bf
00000120: 5fc7 783e bcbc 16bf 70e0 6e3f 95dd 013f
00000130: 6a79 5bbf c034 a63f 45ed 993e 30e8 12bf
00000140: 9031 5dbf e0a8 17bf 54fa 303e 5efb 86bf
00000150: 48a6 3bbf 08e0 0bc0 3ee8 2fbf 5fb7 003f
00000160: bb89 473f 6dce b13d 6ec9 db3e 6abd eabf
00000170: dd21 90bf 415c e23d 5a5c 1c3f 8342 a73f
00000180: 1bee cdbf 6386 a63e b480 b0bf 9ef3 65be
00000190: 1c3e 90be 19a6 9abf fb2b 2c3f a418 a1bf
000001a0: 99e9 88bf 2426 db3e c56e 3cbf c237 54bf
000001b0: c1ca 39bf b8c3 093f a40a bd3e 8fab 1c3f
000001c0: 16ba b3bf c592 55bf 2f01 963f 42ac eebf
000001d0: d557 c83e 1578 8f3f 6c5a d93e ece6 92bf
000001e0: b946 cbbe 3ada a7be 77f5 6e3f abef f2be
000001f0: 2846 1ebf 703f c1be 7366 c1bf b91a 08bf
00000200: c666 973f e68c 4c3f 420c b43e 9ea7 a43e
00000210: 38ec 2dc0 fbc7 4bbf 4ba8 043f 5a57 893e
00000220: 003c 91bf 11f1 2f3c 2ee8 09be 351b 89be
00000230: 313f 1c40 1300 d53f 749e 8ebe 7b44 bebf
00000240: e8e4 0bbf 84d4 4ebf b21e b7bf 7bcb dbbe
00000250: 4770 86be 4779 bbbd 672d f73e 7c23 d2bf
00000260: 6525 b43e 13d4 12c0 262f 59bf 82b7 d9bf
00000270: e22d 063f 7cbe b2bf 51d9 323f 11f6 b1bf
00000280: 9767 973e aa83 00be 6be6 553e a787 9b3f
00000290: ff58 9f3f 3644 c1bd f21a 0840 5cab 933d
000002a0: ebec fe3e fd87 8f3d 9f1a d03e 9a16 ddbf
000002b0: 556a 9a3f dc78 2840 6e76 4e3e 88af ac3e
000002c0: 9732 92bf cf3a 0b40 0874 b33d 5f3d 403f
000002d0: f7a0 8cbf 5cc4 98bd c4ea bfbf 80ed dfbf
000002e0: 6499 f2bf d79f ad3b faf7 fabf 1017 f6bf
000002f0: 0245 0940 f04e 7cbf 13a5 18bf 21a2 d33f
00000300: a3dd a93e ccb6 35bf 1aa7 dfbb 8945 ef3f
00000310: 3411 06bf dfcb 543f 29e2 2c3f 8db8 bb3f
00000320: 19f1 18bf df14 c5bd fe88 df3e 2d63 d6be
00000330: 45e7 eabf 4d87 4c3f 5eb1 ffbc 00bf b3bf
00000340: 9db5 10bf 9718 bdbf d2ab 36bf be34 863f
00000350: 3cc6 12c0 e5e4 c73e 5800 1abf 3185 acbd
00000360: 1274 2b3f 248b 7d3f 9112 f4be 829f ea3e
00000370: c068 ae3f c356 dd3e dcaf 03bf ab88 33be
00000380: 4a74 45be 35e9 b23d 00b7 8d3e f9cf 2abf
00000390: c291 1a3e 410d 33be 46ef be3f 8b2b 29be
000003a0: f7d9 1bba a5a0 c93b

weight f4 [128, 77]
0.12673172 0.097392075 0.12565443 0.06908943 -0.06384079 0.09001003 0.033020906 0.048581667
-0.09791651 -0.036751132 -0.11241367 -0.05080781 0.012129667 -0.10138184 0.053676043 0.08173887
0.026803745 -0.074405216 -0.081841856 -0.03249432 0.052349836 0.11025782 0.058551587 -0.008096264
0.04284055 -0.110733055 -0.10365758 0.05109678 -0.06393804 0.05835575 -0.08033255 -0.059652332
-0.092799164 0.057172596 -0.008127995 0.08530774 0.07074488 0.065635905 -0.0028235025 -0.03301629
-0.023010358 0.02892868 0.069673225 -0.071326755 0.054994084 -0.019363333 -0.09762644 -0.05405661
0.11889585 0.10900066 -0.116563745 0.053562433 0.0672652 0.052599203 0.111953065 -0.061391294
0.051449783 0.04682529 -0.014711491 0.04606283 -0.034040686 0.071519606 -0.04668725 -0.029477185
0.0314845 0.04583677 -0.055298045 0.014530798 0.055129986 -0.01833943 0.024772746 -0.0084176
0.045748126 -0.080417365 -0.0592543 -0.06352994 0.07539842 -0.09975199 -0.058328353 -0.055807453
0.11417728 0.11444194 -0.09966728 -0.10225905 -0.08745951 -0.0043497104 -0.032514386 -0.065490074
-0.04163224 0.00029257653 -0.05965323 0.019755147 -0.027935293 -0.08406749 0.023233244 0.10265901
-0.0760128 0.0091267 -0.032076962 0.11690517 -0.10446624 -0.10583059 0.1182032 -0.0667092
0.024787307 -0.0048621832 -0.024735434 -0.02114612 0.07840342 0.011357043 -0.10474032 -0.0684672
-0.03259625 0.05743677 -0.070377536 0.09919446 -0.023786819 -0.01936276 0.086609624 0.053138144
0.07567351 0.086218834 -0.00044524524 -0.07898798 -0.004353692 0.08233452 -0.047352295 -0.110161975
0.046539985 0.11327428 -0.033214334 -0.09856 -0.10788948 0.021215197 0.0008836596 -0.06299641
0.021943547 0.041995898 0.0948651 0.08846891 -0.038746443 -0.0933048 -0.09975584 0.10246127
0.06073815 0.09344491 -0.10326927 0.104070246 0.11185924 0.07645739 -0.088458456 -0.049335703
-0.089619115 0.11325549 -0.12271933 -0.12039662 0.057721395 -0.05581621 -0.055021465 -0.0008174822
-0.019142248 -0.09045565 0.08505231 -0.053500473 0.04099671 0.10740365 0.029812874 0.0035563451
0.0812064 0.0080108065 -0.08783835 0.10613695 0.036393628 -0.111596614 -0.030319491 -0.071383454
0.09776256 -0.014212176 -0.10550227 -0.0039597354 0.07010523 0.031974677 0.038312897 0.009355649
0.04274823 -0.02313366 -0.042128783 -0.10424691 -0.08542267 0.049913026 -0.071973324 0.019264119
0.025989264 0.006045458 -0.07624296 0.11525316 -0.06292008 0.0680734 -0.06519985 0.014601449
0.0602093 -0.031754546 0.08153923 -0.08148128 -0.100095525 -0.04356462 0.011059776 0.11884017
-0.0721935 0.0379095 -0.03746538 -0.027981164 0.072754234 -0.09459011 0.022999143 0.122369155
-0.038091205 0.07492473 -0.028961774 0.094642796 -0.11019174 -0.011792857 0.01041744 0.027022436
0.04148203 0.09276991 -0.043648295 -0.0065936605 0.0651642 -0.039268043 0.102907136 -0.1609229
-0.08181697 -0.013199242 0.046483513 0.08171129 -0.00083150645 -0.103060514 0.04613234 0.014595501
0.03814185 -0.06193487 0.079041086 0.09537672 0.0032047345 -0.12350305 0.06084817 -0.13139635
0.022189 0.02049626 -0.053532954 0.033399314 -0.09547153 0.018798307 -0.07068187 -0.020976346
00000000: f6c5 013e 7f75 c73d 8eab 003e c27e 8d3d
00000010: f6be 82bd 2e57 b83d ee40 073d 92fd 463d
00000020: 7488 c8bd 5b88 16bd 2339 e6bd da1b 50bd
00000030: 83bb 463c 48a1 cfbd 69db 5b3d b566 a73d
00000040: 8793 db3c c361 98bd b49c a7bd c418 05bd
00000050: c86c 563d dace e13d cad3 6f3d 31a6 04bc
00000060: 9379 2f3d 03c8 e2bd 6d4a d4bd db4a 513d
00000070: f2f1 82bd 7006 6f3d 6485 a4bd 0156 74bd
00000080: 7d0d bebd d02d 6a3d 482b 05bc d3b5 ae3d
00000090: b1e2 903d 1e6c 863d 830a 39bb 173c 07bd
000000a0: 3880 bcbc d7fb ec3c d6b0 8e3d c313 92bd
000000b0: 7a41 613d da9f 9ebc 5ff0 c7bd 776a 5dbd
000000c0: ab7f f33d bd3b df3d f9b8 eebd 4864 5b3d
000000d0: 56c2 893d 4372 573d a647 e53d 7075 7bbd
000000e0: 02bd 523d e0cb 3f3d 7708 71bc 61ac 3c3d
000000f0: 3f6e 0bbd df78 923d 213b 3fbd 237a f1bc
00000100: e4f5 003d 56bf 3b3d 3480 62bd 9612 6e3c
00000110: fbcf 613d 933c 96bc 37f0 ca3c f9e9 09bc
00000120: 6362 3b3d dcb1 a4bd a3b4 72bd fc1b 82bd
00000130: 7d6a 9a3d c54a ccbd b6e9 6ebd 5b96 64bd
00000140: c7d5 e93d 8960 ea3d 5c1e ccbd 316d d1bd
00000150: f91d b3bd 0488 8ebb ce2d 05bd a91f 86bd
00000160: 9186 2abd f564 9939 f256 74bd 8cd5 a13c
00000170: 8ed8 e4bc 942b acbd a553 be3c e33e d23d
00000180: 99ac 9bbd 2888 153c 2263 03bd fa6b ef3d
00000190: 65f2 d5bd b5bd d8bd 8514 f23d d59e 88bd
000001a0: c00e cb3c f352 9fbb f7a1 cabc a13a adbc
000001b0: f991 a03d e412 3a3c 1882 d6bd 8838 8cbd
000001c0: a583 05bd d242 6b3d 1922 90bd 7726 cb3d
000001d0: 93dc c2bc a79e 9ebc 6360 b13d 62a7 593d
000001e0: b7fa 9a3d 8093 b03d ce6f e9b9 73c4 a1bd
000001f0: 6aa9 8ebb 009f a83d 7bf4 41bd 9a9c e1bd
00000200: b6a0 3e3d 59fc e73d c10b 08bd d3d9 c9bd
00000210: 29f5 dcbd 7ecb ad3c 64a5 673a 4304 81bd
00000220: f4c2 b33c e403 2c3d a248 c23d 302f b53d
00000230: 97b4 1ebd 9616 bfbd ca4c ccbd 37d7 d13d
00000240: 91c8 783d 0c60 bf3d d77e d3bd c822 d53d
00000250: 7516 e53d b195 9c3d b529 b5bd 3c14 4abd
00000260: 3a8a b7bd 7ff2 e73d 4654 fbbd 8192 f6bd
00000270: 456d 6c3d 8a9f 64bd 305e 61bd 4d4c 56ba
00000280: 34d0 9cbc d040 b9bd e82f ae3d 5023 5bbd
00000290: 2bec 273d 72f6 db3d 213a f43c 9211 693b
000002a0: 8b4f a63d c23f 033c 98e4 b3bd 545e d93d
000002b0: 7c11 153d c48c e4bd 9560 f8bc 7d31 92bd
000002c0: bd37 c83d 30da 68bc 9311 d8bd abc0 81bb
000002d0: 5593 8f3d e1f7 023d fced 1c3d 7048 193c
000002e0: c518 2f3d cd82 bdbc 3b8f 2cbd 677f d5bd
000002f0: 15f2 aebd 9a71 4c3d c066 93bd c9cf 9d3c
00000300: 70e7 d43c fa18 c63b 4525 9cbd d909 ec3d
00000310: 3edc 80bd 116a 8b3d 8087 85bd ea3a 6f3c
00000320: 079e 763d 0e11 02bd 0afe a63d a8df a6bd
00000330: e2fe ccbd d170 32bd 1034 353c 7a62 f33d
00000340: 30da 93bd fe46 1b3d 4c75 19bd c138 e5bc
00000350: 2c00 953d 76b8 c1bd b368 bc3c ae9c fa3d
00000360: 8605 1cbd 2372 993d 3e41 edbc 15d4 c13d
00000370: 35ac e1bd d436 41bc e9ad 2a3c 285e dd3c
00000380: 10e9 293d 27fe bd3d 8ec8 32bd a20f d8bb
00000390: cf74 853d 87d7 20bd fac0 d23d f9c8 24be
000003a0: a88f a7bd a241 58bc 7f65 3e3d 4058 a73d
000003b0: 74f9 59ba 6411 d3bd 44f5 3c3d f821 6f3c
000003c0: a13a 1c3d 6baf 7dbd 4be0 a13d df54 c33d
000003d0: 8606 523b 2bef fcbd ee3b 793d c48c 06be
000003e0: b5c5 b53c c6e7 a73c 5f45 5bbd b8cd 083d
000003f0: 9486 c3bd e8fe 993c a8c1 90bd 96d6 abbc

bias f4 [128]
0.040639866 0.026593845 0.09428005 0.04727064 -0.1171223 0.03960867 0.10851397 -0.045219537
0.09111903 0.08851156 -0.027585236 -0.0034594415 -0.0048055253 0.12684672 0.0415269 0.09143229
-0.10143768 -0.041047785 -0.069375426 0.021733686 -0.04050393 0.033595193 0.06091666 -0.02570684
0.014606505 -0.085365474 -0.018952582 0.01794423 0.079602584 0.034459673 0.024881043 0.052769057
0.09819924 3.6015e-06 0.117706105 -0.064770795 0.033129934 0.0037894952 0.08193334 -0.11328028
0.050571743 -0.10272268 -0.03439165 -0.030821834 -0.0071247704 -0.059059117 -0.088605516 -0.09778421
-0.023112062 0.09739142 -0.022642702 -0.074982695 -0.038606454 -0.09596267 -0.008244497 0.10071301
-0.10803588 0.06403377 0.078681216 0.073405854 -0.060520377 0.014907524 0.057066955 -0.09517726
0.09468302 -0.0024892034 -0.0935397 -0.026575498 0.0051883035 -0.03936663 -0.059376936 -0.0025894165
0.043037526 0.057615735 -0.116318166 -0.015081095 0.035046756 0.10318515 0.05113108 0.0702773
0.025328338 -0.007927709 -0.064902216 -0.047438003 0.037526567 -0.017470667 0.10067249 -0.07421815
0.060648967 0.07257527 0.0781079 0.09228169 -0.05466856 0.05633263 -0.11682794 -0.05797104
-0.0079793455 0.10976067 -0.028739583 -0.08947877 -0.09265588 -0.0056520724 0.014842403 0.027697258
-0.035180047 0.026905423 0.015019317 -0.025025312 0.059383627 -0.07042647 -0.06538169 0.008921262
-0.033331804 -0.010136622 -0.032439712 0.057961546 0.11213881 0.09560075 0.035895128 -0.064650245
-0.03571636 -0.05621662 -0.0186138 -0.06197116 0.06232413 -0.11208037 0.007779902 0.07702713
00000000: fd75 263d 56db d93c e615 c13d dc9e 413d
00000010: d1dd efbd b33c 223d 933c de3d 1f38 39bd
00000020: 9d9c ba3d 8c45 b53d 6ffa e1bc ccb7 62bb
00000030: ab77 9dbb 1be4 013e 1c18 2a3d da40 bb3d
00000040: 8fbe cfbd b921 28bd b414 8ebd d80a b23c
00000050: 73e7 25bd 1d9b 093d bf83 793d 2797 d2bc
00000060: 1f50 6f3c 18d4 aebd 7242 9bbc c7ff 923c
00000070: ae06 a33d 9625 0d3d 54d3 cb3c 5e24 583d
00000080: af1c c93d 4db1 7136 e60f f13d 8da6 84bd
00000090: 41b3 073d 2e59 783b abcc a73d 7eff e7bd
000000a0: 5124 4f3d 4560 d2bd 42de 0cbd 127e fcbc
000000b0: e876 e9bb f9e7 71bd cf76 b5bd 1743 c8bd
000000c0: 8255 bdbc 2775 c73d 307d b9bc 8790 99bd
000000d0: cd21 1ebd 1488 c4bd ed13 07bc 9f42 ce3d
000000e0: ea41 ddbd 2324 833d 9e23 a13d cf55 963d
000000f0: 37e4 77bd b03e 743c 0abf 693d 4cec c2bd
00000100: 2ce9 c13d e721 23bb be91 bfbd dcb4 d9bc
00000110: a502 aa3b e73e 21bd 3b35 73bd 33b3 29bb
00000120: 1e48 303d 7afe 6b3d 3838 eebd b216 77bc
00000130: 308d 0f3d bc52 d33d d36e 513d 8ced 8f3d
00000140: 607d cf3c 39e3 01bc 74eb 84bd 5a4e 42bd
00000150: 75b5 193d a51e 8fbc 612d ce3d afff 97bd
00000160: 0d6b 783d 58a2 943d 09f7 9f3d 2ffe bc3d
00000170: 24ec 5fbd 0bbd 663d 7d43 efbd 0b73 6dbd
00000180: cdbb 02bc 34ca e03d 466f ebbc a540 b7bd
00000190: 5ec2 bdbd 0535 b9bb 8d2d 733c 5ce5 e23c
000001a0: f418 10bd c368 dc3c 9513 763c e201 cdbc
000001b0: 3f3c 733d c13b 90bd d6e6 85bd 7c2a 123c
000001c0: ee86 08bd 1314 26bc 81df 04bd 1669 6d3d
000001d0: 08a9 e53d 53ca c33d c506 133d 5967 84bd
000001e0: 514b 12bd 6643 66bd f87b 98bc 79d5 7dbd
000001f0: 9647 7f3d 658a e5bd 8cee fe3b 66c0 9d3d

weight f4 [128, 128]
-0.07044949 -0.018114442 0.0590524 -0.022243189 -0.043582063 0.05524977 -0.060107972 0.09475895
0.06763166 0.0055271983 0.026016276 -0.04323718 0.0043520187 -0.010779855 -0.018605305 0.026697416
0.035866898 0.06567669 0.013417932 0.0876702 0.021850983 -0.060057636 -0.06931455 0.065948755
0.063428335 0.08160648 -0.055175073 0.08055426 -0.026565911 0.027183326 0.06363685 -0.07062431
-0.08892898 0.009384684 -0.06697445 0.04377682 0.05329321 0.07534571 -0.0005278179 -0.028132375
0.016994676 -0.0082039405 -0.08835362 0.032041177 -0.0034924129 0.07414191 -0.017943604 -0.016083915
-0.07148745 0.09979992 0.059055775 0.08364998 0.053234793 -0.052098244 0.09469017 -0.0037171466
0.08461186 0.04474067 0.05456762 -0.032695908 0.024258144 -0.016586317 -0.07665687 0.07693981
-0.03509865 -0.07535153 0.0650056 -0.07892742 0.03699846 0.07994134 -0.014792355 -0.06837103
-0.06480365 -0.0037534432 -0.013492784 0.08686188 0.042266984 -0.047372237 -0.009842068 -0.07337029
0.021104777 0.09640444 -0.017112149 -0.010040381 -0.015344566 -0.090045676 0.092029855 0.04481045
0.033591453 -0.06448603 -0.010785736 -0.03159683 0.021041116 -0.024129527 -0.04374154 0.0639412
0.015002211 0.121788815 0.05135449 0.07501548 -0.035323102 0.007652659 -0.029232467 -0.011530444
0.014594006 0.022502968 -0.050208956 -0.0020881982 -0.023110634 -0.029894609 -0.043639068 -0.011528831
-0.06699932 -0.047789715 -0.009207391 -0.088621624 -0.06654955 0.06379607 -0.02395367 0.010913223
0.016512487 -0.008571048 0.056332804 -0.061656192 0.050123915 0.062012702 0.08402518 -0.088125505
0.0037183976 -0.009190607 -0.06708604 0.06837731 -0.016923854 0.06439995 -0.041391745 -0.041958217
0.033319112 0.009016395 0.051545452 0.043268804 0.04054135 -0.041376077 0.020687314 0.032212097
-0.03660477 -0.052091442 0.061333828 -0.07956392 -0.06380414 -0.080785856 0.026389807 0.012363345
-0.07915544 0.060055077 0.025127046 0.03507458 -0.0906763 -0.0811261 -0.07744989 -0.03272515
-0.06640383 0.0038619959 -0.0033482132 -0.04163358 0.077413544 0.018978551 0.006431626 -0.04411437
-0.027113197 -0.074968904 -0.051638495 0.084808305 -0.008853129 0.046314303 0.06376898 0.05512844
0.06033916 0.081968926 0.030165011 0.00864136 -0.018147562 -0.08253395 0.037129205 -0.019087845
0.021310074 -0.01855125 0.050522953 0.0028088095 0.05358218 0.06665529 0.022989698 -0.0066288747
0.042030323 -0.049928516 0.061449528 0.072247855 0.012200748 -0.011486287 0.015222311 0.07615694
0.014438445 -0.034324385 -0.020246886 -0.08977703 -0.008719394 -0.07505412 0.02382229 0.0115485145
0.0653468 -0.019260196 -0.009190602 0.0013760646 -0.033803716 -0.025797013 -0.034640614 -0.0359749
-0.0058120424 0.030932663 0.020918619 0.07472465 -0.022461839 0.025692273 -0.06872424 0.051724948
0.017262183 0.038268544 -0.050617967 0.0009655222 -0.068878114 -0.09124948 0.06819799 0.039686408
0.06462145 0.05366402 -0.0165565 0.03949247 -0.0389063 -0.06937491 -0.017936412 -0.01246429
0.08603505 -0.07429927 0.07881169 -0.014402284 0.0056425366 0.07593442 -0.04839199 -0.0011423217
0.032145847 -0.02295151 0.015674407 0.051404893 0.0054874728 0.054856542 -0.0414145 0.033239543
00000000: d247 90bd bd64 94bc eee0 713d 5937 b6bc
00000010: 1b83 32bd 954d 623d c733 76bd fb10 c23d
00000020: 7882 8a3d 801d b53b 1620 d53c 7819 31bd
00000030: 619b 8e3b fd9d 30bc 276a 98bc 8ab4 da3c
00000040: 2be9 123d 8081 863d e3d6 5b3c 6f8c b33d
00000050: d500 b33c fffe 75bd c9f4 8dbd 2410 873d
00000060: b7e6 813d 4c21 a73d 42ff 61bd a2f9 a43d
00000070: c1a0 d9bc 91af de3c 0954 823d 7aa3 90bd
00000080: 6620 b6bd 38c2 193c e729 89bd 534f 333d
00000090: fb49 5a3d da4e 9a3d 425d 0aba de75 e6bc
000000a0: 6b38 8b3c d269 06bc bef2 b4bd 9c3d 033d
000000b0: f7e0 64bb b7d7 973d 77fe 92bc 6ac2 83bc
000000c0: 0368 92bd e763 cc3d 78e4 713d ae50 ab3d
000000d0: ba0c 5a3d f864 55bd ebec c13d 5f9b 73bb
000000e0: fc48 ad3d fe41 373d 4c82 5f3d 25ec 05bd
000000f0: 04b9 c63c 07e0 87bc 47fe 9cbd 9e92 9d3d
00000100: 9ac3 0fbd e751 9abd a821 853d b3a4 a1bd
00000110: b28b 173d 49b8 a33d a25b 72bc 1c06 8cbd
00000120: c7b7 84bd 54fc 75bb d710 5dbc a4e4 b13d
00000130: 2520 2d3d 6409 42bd a040 21bc 2a43 96bd
00000140: ede3 ac3c b16f c53d c72e 8cbc 6980 24bc
00000150: c667 7bbc de69 b8bd 267a bc3d 2a8b 373d
00000160: 3197 093d 4011 84bd a8b6 30bc ad6b 01bd
00000170: 6b5e ac3c 49ab c5bc 542a 33bd 9bf3 823d
00000180: d5cb 753c 6a6c f93d 1659 523d b7a1 993d
00000190: f5ae 10bd 28c3 fa3b ed78 efbc 30ea 3cbc
000001a0: b31b 6f3c 2558 b83c e8a7 4dbd 27da 08bb
000001b0: 8352 bdbc 8ae5 f4bc e1be 32bd 6ce3 3cbc
000001c0: f136 89bd 26bf 43bd 99da 16bc 417f b5bd
000001d0: 214b 88bd 84a7 823d 7d3a c4bc 60cd 323c
000001e0: 3245 873c 956d 0cbc 3abd 663d 348b 7cbd
000001f0: bc4e 4d3d 0801 7e3d 6515 ac3d 257b b4bd
00000200: 5cb0 733b 3394 16bc 6864 89bd 6709 8c3d
00000210: e5a3 8abc 1fe4 833d 648a 29bd 61dc 2bbd
00000220: 9f79 083d 80b9 133c 5321 533d a13a 313d
00000230: b00e 263d f679 29bd 7178 a93c d5f0 033d
00000240: e2ee 15bd d65d 55bd 2e39 7b3d 69f2 a2bd
00000250: bfab 82bd 0e73 a5bd 702f d83c a18f 4a3c
00000260: 3f1c a2bd 50fc 753d 3cd7 cd3c 5daa 0f3d
00000270: 7fb4 b9bd 7125 a6bd 0c9e 9ebd cf0a 06bd
00000280: bbfe 87bd 8a19 7d3b b26d 5bbb f987 2abd
00000290: fe8a 9e3d e878 9b3c 64c0 d23b 45b1 34bd
000002a0: 7f1c debc 4c89 99bd e382 53bd faaf ad3d
000002b0: b70c 11bc 11b4 3d3d 5099 823d 5cce 613d
000002c0: 3226 773d 53df a73d 9d1c f73c 7e94 0d3c
000002d0: 32aa 94bc 8f07 a9bd cb14 183d 1d5e 9cbc
000002e0: 7792 ae3c cbf8 97bc 28f1 4e3d 0114 383b
000002f0: fd78 5b3d 9282 883d e454 bc3c 0837 d9bb
00000300: fd27 2c3d d881 4cbd 80b2 7b3d aff6 933d
00000310: a5e5 473c fb30 3cbc 0067 793c 2bf8 9b3d
00000320: 3a8f 6c3c ba97 0cbd ccdc a5bc 05dd b7bd
00000330: cadb 0ebc f9b5 99bd f726 c33c fb35 3d3c
00000340: 8bd4 853d 8fc7 9dbc 2e94 16bc 115d b43a
00000350: c475 0abd 4254 d3bc 51e3 0dbd 6b5a 13bd
00000360: f272 bebb 7f66 fd3c 865d ab3c 3d09 993d
00000370: e401 b8bc 9a78 d23c 4bbf 8cbd 8add 533d
00000380: 6c69 8d3c 7abf 1c3d c954 4fbd 191b 7d3a
00000390: f80f 8dbd 02e1 babd 63ab 8b3d 378e 223d
000003a0: 4058 843d cece 5b3d 7fa1 87bc dbc2 213d
000003b0: 365c 1fbd 6f14 8ebd 62ef 92bc 0537 4cbc
000003c0: 2533 b03d 372a 98bd 0668 a13d 8ff7 6bbc
000003d0: 07e5 b83b 8183 9b3d ae36 46bd f5b9 95ba
000003e0: 5dab 033d ce04 bcbc 9d67 803c f08d 523d
000003f0: 42d0 b33b 41b1 603d 40a2 29bd 3026 083d

bias f4 [128]
-0.059886996 0.021730194 -0.032842483 0.054826725 -0.03448934 -0.017075364 0.028380712 0.0840363
-0.091031194 -0.042417046 -0.05047264 0.020273551 0.06888986 0.013303197 0.009284881 0.05586164
-0.06073902 0.090500906 0.084262356 -0.0611639 -0.0069365124 0.033527207 -0.049694292 -0.037385993
0.06408269 0.06370542 -0.067876965 0.04497425 -0.04111454 -0.013230717 -0.08372735 -0.07002935
-0.0017787168 -0.058112364 -0.06033285 0.04059219 0.047516834 -0.06319216 0.05759667 0.08428257
-0.015234993 0.027913054 -0.0037620505 -0.011973726 -0.020112937 0.025560888 0.09418829 -0.028866472
-0.028949974 0.08516913 0.07034193 -0.060379893 0.07821906 -0.022796378 0.031797227 0.0118889
-0.00724004 -0.055853777 0.010000611 -0.0551354 -0.015388109 0.048034713 0.070254505 -0.054430943
0.044826873 0.0036882956 0.047038216 0.063802175 -0.027814057 0.045601033 0.028482612 0.044521745
-0.04799481 0.0058768187 -0.07601771 0.044872634 -0.023886226 0.037989162 0.06643127 0.011891253
-0.06527795 -0.05084749 0.009152496 -0.08734805 0.03986857 -0.013241512 -0.07170354 0.05728333
0.020595204 0.08717253 -0.003477647 0.03910241 0.052017972 0.03452324 -0.040497918 -0.07774466
-0.010173897 0.08194719 0.06017274 -0.029976342 -0.039688643 0.06783099 0.06163293 0.03830823
-0.0756073 -0.08395489 0.06105529 0.08360878 0.07713876 0.047426388 -0.01932323 0.00322001
0.082343124 -0.002836242 -0.050342087 0.04020757 -0.06529113 0.023268627 -0.03902954 -0.012614486
0.0358225 -0.034719888 0.0050850757 -0.06751131 0.015456758 -0.024999067 0.037488617 0.06310498
00000000: 114c 75bd 8503 b23c d785 06bd fd91 603d
00000010: b244 0dbd a2e1 8bbc ab7e e83c 391b ac3d
00000020: 906e babd 7fbd 2dbd 66bc 4ebd b814 a63c
00000030: 2016 8d3d a7f5 593c 9d1f 183c 2dcf 643d
00000040: 7bc9 78bd 8a58 b93d be91 ac3d ff86 7abd
00000050: af4b e3bb d353 093d 3e8c 4bbd 0e22 19bd
00000060: c93d 833d fd77 823d 1403 8bbd eb36 383d
00000070: b867 28bd a6c5 58bc 3f79 abbd 8c6b 8fbd
00000080: d523 e9ba 3b07 6ebd 941f 77bd ff43 263d
00000090: 03a1 423d e46a 81bd 7cea 6b3d 579c ac3d
000000a0: 319c 79bc eba9 e43c bc8c 76bb 722d 44bc
000000b0: e3c3 a4bc 1165 d13c cae5 c03d 6179 ecbc
000000c0: 7f28 edbc 276d ae3d 6e0f 903d e850 77bd
000000d0: 5131 a03d 78bf babc cf3d 023d a9c9 423c
000000e0: dc3d edbb eec6 64bd 9ad9 233c a8d5 61bd
000000f0: 681e 7cbc 0cc0 443d 98e1 8f3d fbf2 5ebd
00000100: 629c 373d 55b7 713b 25ab 403d b7aa 823d
00000110: 4eda e3bc 26c8 3a3d 5e54 e93c 6f5c 363d
00000120: 3596 44bd 5492 c03b 2caf 9bbd 5ecc 373d
00000130: 0cad c3bc 869a 1b3d 1e0d 883d 88d3 423c
00000140: 72b0 85bd 7545 50bd 5af4 153c 89e3 b2bd
00000150: 3a4d 233d edf2 58bc 4ed9 92bd eda1 6a3d
00000160: 46b7 a83c 8387 b23d 3ce9 63bb d929 203d
00000170: cc10 553d 3e68 0d3d 25e1 25bd 9838 9fbd
00000180: 6bb0 26bc eed3 a73d b177 763d f290 f5bc
00000190: 8f90 22bd f9ea 8a3d d072 7c3d 17e9 1c3d
000001a0: 00d8 9abd 8bf0 abbd 1d15 7a3d 143b ab3d
000001b0: edfa 9d3d 2c42 423d c04b 9ebc ce06 533b
000001c0: 83a3 a83d 3fe0 39bb 8133 4ebd b1b0 243d
000001d0: 5bb7 85bd d99d be3c 70dd 1fbd fdac 4ebc
000001e0: 9dba 123d 7136 0ebd b5a0 a63b 5f43 8abd
000001f0: 583e 7d3c d8ca ccbc aa8d 193d 2f3d 813d

weight f4 [128, 128]
-0.06767444 0.09809583 0.027579473 0.08519831 0.001623801 -0.03599929 -0.06825344 0.08905992
-0.056286085 -0.056241766 -0.029278671 -0.07776806 0.004258369 0.013103481 0.016526373 -0.008686358
-0.052540064 0.11094819 -0.04809741 -0.07539353 0.06730392 -0.07123558 -0.04228814 -0.06703268
0.044578485 0.008350258 0.06019011 0.04806674 -0.04016131 0.03132196 0.0016542462 0.053963926
-0.04386702 0.0761921 -0.017979927 -0.05146495 -0.020489817 0.029769793 0.03077766 0.090262175
0.024597134 0.08130128 0.035244476 -0.083935864 -0.002812366 -0.023432085 0.09365222 0.06958788
0.015882507 -0.031779435 -0.039614342 -0.048815258 -0.08572144 -0.03761332 0.0864992 0.046628248
0.02159737 0.07513068 -0.044814456 0.10108042 -0.06581253 0.02375282 -0.005065438 0.03716663
0.04947174 0.05932018 0.0056730183 -0.08322402 0.055111602 0.030927517 0.06271274 -0.07097691
-0.10961785 0.060824893 0.056475975 -0.052095734 -0.0077552423 0.012014478 -0.019487133 -0.05959779
-0.08558293 0.040979385 0.07907064 0.08720027 -0.036801197 0.09684096 0.001389417 0.023053594
-0.06824086 -0.020634113 -0.001116874 0.026451308 0.018342506 -0.0016333148 -0.01312179 0.016698822
-0.047110748 0.054512046 -0.028543042 0.031562593 -0.060727052 0.031510375 0.06394679 -0.05580627
0.04702587 0.044058498 0.04313373 0.0974185 -0.080902174 0.08446384 -0.049469743 -0.012117577
0.046628155 -0.031230219 -0.007130965 0.08563257 0.005822165 -0.05659764 -0.04142638 0.0199439
-0.022270111 -0.038269002 0.027153011 0.015069587 0.05161178 -0.0027065414 0.061257243 -0.024554053
0.039761715 -0.00072942436 0.07656817 -0.013865103 -0.084352344 0.010290137 0.02522535 0.08113377
-0.082734354 0.015126443 0.05380222 -0.022019476 -0.022304934 0.025775854 0.05567511 0.057399683
0.08066359 0.01842476 0.043776155 -0.0462056 -0.05293533 0.062311552 -0.054077316 0.09970903
0.009297861 0.006335981 -0.0296811 -0.044708252 -0.01414449 0.054869354 -0.05604143 -0.053646654
-0.082245015 0.017891772 0.037659597 -0.012254886 0.06799947 0.0118262395 0.005389582 -0.020629238
-0.016226435 0.047128614 0.015673224 -0.082358584 -0.0725515 0.06490514 -0.008359888 -0.074045315
-0.017132798 0.047141947 -0.08964552 0.0010764175 -0.09299103 0.013366086 0.094404474 -0.0013226366
-0.072125174 0.019045768 -0.0829274 0.027169129 -0.037786674 0.04613618 0.058393184 -0.03077662
0.08382624 0.026033541 0.012439568 -0.0608088 0.039210603 0.03962195 -0.054198995 -0.06996805
0.06122885 0.04223743 -0.07350845 0.043063387 -0.059482753 -0.004331138 -0.09763939 -0.049155455
0.01126767 -0.012161369 0.03452638 0.0165033 0.012023976 0.040429685 0.016252749 -0.09002813
0.049254797 -0.071019575 -0.013619676 -0.0016562692 -0.06327928 -0.07301172 0.068709105 -0.02843974
0.02442656 -0.035625417 -0.064425655 -0.04784074 0.044903602 -0.010283842 -0.06965159 0.040853143
0.03359678 -0.016973406 -0.008404561 -0.019443393 -0.03793316 -0.07287408 -0.074818395 0.06749168
0.02249265 0.08611812 -0.018987939 0.006075381 0.0048358887 -0.080142684 0.069249086 -0.008116339
0.07244424 -0.019837717 0.03919979 0.06968195 0.0781835 0.082313426 0.057769045 -0.0037879455
00000000: e698 8abd 77e6 c83d 59ee e13c 747c ae3d
00000010: b8d5 d43a fe73 13bd 76c8 8bbd 0c65 b63d
00000020: 3d8c 66bd c45d 66bd d3d9 efbc dc44 9fbd
00000030: ca89 8b3b fcaf 563c 5162 873c 3a51 0ebc
00000040: 4034 57bd ce38 e33d ca01 45bd ec67 9abd
00000050: a3d6 893d f6e3 91bd 5436 2dbd 6e48 89bd
00000060: ee97 363d 85cf 083c e889 763d a1e1 443d
00000070: 3080 24bd 754b 003d 4bd3 d83a 4709 5d3d
00000080: e8ad 33bd 9b0a 9c3d a44a 93bc e9cc 52bd
00000090: 43da a7bc c8df f33c 6e21 fc3c 60db b83d
000000a0: ee7f c93c 4981 a63d 835c 103d 91e6 abbd
000000b0: ac4f 38bb a5f4 bfbc bccc bf3d 1784 8e3d
000000c0: 081c 823c 272b 02bd a642 22bd 82f2 47bd
000000d0: b98e afbd 6d10 1abd 7e26 b13d 43fd 3e3d
000000e0: f8ec b03c 1dde 993d 5d8f 37bd 4003 cf3d
000000f0: b8c8 86bd 4695 c23c f9fb a5bb 093c 183d
00000100: e1a2 4a3d b8f9 723d bae4 b93b 5b71 aabd
00000110: b4bc 613d b45b fd3c 896f 803d 585c 91bd
00000120: 537f e0bd 8623 793d 5a53 673d 5662 55bd
00000130: b01f febb 60d8 443c 7ba3 9fbc d01c 74bd
00000140: 1a46 afbd 00da 273d caef a13d 0e96 b23d
00000150: dabc 16bd 8e54 c63d 191d b63a e4da bc3c
00000160: ddc1 8bbd df08 a9bc 1364 92ba 6ab0 d83c
00000170: 0643 963c f314 d6ba c7fc 56bc f8cb 883c
00000180: 33f7 40bd 0648 5f3d 19d3 e9bc c747 013d
00000190: eebc 78bd 0611 013d 89f6 823d 1e95 64bd
000001a0: 339e 403d af76 343d feac 303d 5a83 c73d
000001b0: 0ab0 a5bd 61fb ac3d c9a0 4abd cd88 46bc
000001c0: 2afd 3e3d 84d6 ffbc dfaa e9bb 2160 af3d
000001d0: dcc7 be3b edd2 67bd b5ae 29bd 6461 a33c
000001e0: cf6f b6bc f5bf 1cbd fe6f de3c 6ee6 763c
000001f0: e066 533d 3b60 31bb e0e8 7a3d 9525 c9bc
00000200: 2edd 223d d736 3fba c6cf 9c3d 752a 63bc
00000210: ecc0 acbd f697 283c 65a5 ce3c 7629 a63d
00000220: a170 a9bd e6d4 773c b75f 5c3d 3062 b4bc
00000230: d6b8 b6bc e227 d33c 960b 643d ee1b 6b3d
00000240: f432 a53d 86ef 963c a04e 333d 1542 3dbd
00000250: b7d2 58bd 663a 7f3d 2d80 5dbd 3f34 cc3d
00000260: 0e56 183c 109e cf3b c725 f3bc 0020 37bd
00000270: 4abe 67bc b0be 603d b38b 65bd 98bc 5bbd
00000280: 1370 a8bd c491 923c f340 1a3d b8c8 48bc
00000290: 4e43 8b3d d8c2 413c 179b b03b a6fe a8bc
000002a0: 4ded 84bc ef09 413d 2265 803c 9eab a8bd
000002b0: e195 94bd fcec 843d e9f7 08bc 12a5 97bd
000002c0: 155a 8cbc ea17 413d 1298 b7bd 9416 8d3a
000002d0: 1572 bebd 6efd 5a3c 2257 c13d 525c adba
000002e0: 5db6 93bd df05 9c3c d7d5 a9bd cb91 de3c
000002f0: 33c6 1abd 4bf9 3c3d b12d 6f3d 401f fcbc
00000300: 17ad ab3d 4b44 d53c 54cf 4b3c a612 79bd
00000310: 4c9b 203d a04a 223d c4ff 5dbd 694b 8fbd
00000320: 1acb 7a3d 2801 2d3d 998b 96bd 3c63 303d
00000330: 30a4 73bd 38ec 8dbb 29f7 c7bd 3b57 49bd
00000340: 099c 383c 7b40 47bc 896b 0d3d ee31 873c
00000350: 3600 453c 9999 253d 7c24 853c ab60 b8bd
00000360: 66bf 493d b672 91bd 1025 5fbc 2c17 d9ba
00000370: 9198 81bd 2b87 95bd 5cb7 8c3d 75fa e8bc
00000380: 361a c83c f5eb 11bd 99f1 83bd a7f4 43bd
00000390: d7ec 373d 8f7d 28bc 7ea5 8ebd a055 273d
000003a0: c79c 093d d00b 8bbc 49b3 09bc c047 9fbc
000003b0: cd5f 1bbd 013f 95bd 633a 99bd 1439 8a3d
000003c0: 8242 b83c b25e b03d 988c 9bbc fd13 c73b
000003d0: 6076 9e3b d921 a4bd 77d2 8d3d 65fa 04bc
000003e0: a55d 943d b582 a2bc f68f 203d 69b5 8e3d
000003f0: ac1e a03d f193 a83d 3c9f 6c3d 2e3f 78bb

bias f4 [128]
-0.0084810965 0.024093473 0.0847899 0.07396702 0.03693088 0.080179095 -0.038552616 0.015957918
0.06029687 -0.080223374 -0.08681844 -0.069128536 -0.08462072 0.017355567 0.0056273406 0.005055418
-0.035671514 -0.07275134 -0.04410259 0.08449258 -0.02374957 0.0004585695 -0.031557113 -0.05027189
0.06867699 -0.0046858145 0.013063202 0.05418704 -0.0202039 0.028540393 -0.056497872 0.05550367
-0.009101985 0.0511671 -0.07558798 0.019512929 0.01810514 -0.058864288 0.04226651 -0.054366067
-0.034498256 0.050057877 -0.036211167 0.06122164 0.055493232 -0.017073493 0.01774864 -0.060625777
-0.04161229 0.0047897245 0.074704304 0.06080982 0.085923254 -0.026709858 -0.0698312 0.07487946
0.05241472 0.08437142 0.0953829 -0.028192807 0.06626884 0.09028671 -0.014669923 -0.054198142
-0.058504764 -0.042346127 0.045089398 -0.0011922851 -0.013660545 -0.00593725 0.07451763 0.028109567
-0.04135091 0.054807168 -0.04359572 0.07358147 -0.07242028 0.024093805 0.044182744 0.055610217
-0.0039332625 0.044655927 -0.010800822 0.080905624 -0.021223104 -0.08178288 -0.020749606 0.008071169
0.011749403 -0.066325866 -0.027966915 0.03105153 0.025369236 0.09278957 -0.011956344 0.028917298
-0.051866863 -0.0885589 0.006398783 -0.02550477 0.07245585 -0.06391922 -0.06790776 -0.04609941
-0.007174243 0.057047565 0.05928669 -0.007424658 0.04773242 0.048860222 -0.01579415 -0.041012622
0.02382464 -0.055352904 0.07706165 0.034462523 -0.009333793 -0.017588576 0.0047518937 0.016343523
-0.074298255 -0.06970448 -0.0034124325 -0.039979864 -0.058637597 0.019970642 0.05443221 -0.06493235
00000000: 4cf4 0abc ad5f c53c 54a6 ad3d 057c 973d
00000010: d644 173d f034 a43d 59e9 1dbd 2eba 823c
00000020: daf9 763d 274c a4bd decd b1bd 4393 8dbd
00000030: a14d adbd 432d 8e3c 8e65 b83b eba7 a53b
00000040: 4b1c 12bd a8fe 94bd eba4 34bd 720a ad3d
00000050: 758e c2bc 286c f039 0842 01bd e6e9 4dbd
00000060: 86a6 8c3d 768b 99bb 0a07 563c 3bf3 5d3d
00000070: a682 a5bc 8bcd e93c 506a 67bd d157 633d
00000080: 7e20 15bc 9894 513d dfcd 9abd 94d9 9f3c
00000090: 3b51 943c ae1b 71bd a61f 2d3d f4ae 5ebd
000000a0: 0b4e 0dbd 7d09 4d3d 2952 14bd 8bc3 7a3d
000000b0: df4c 633d b6dd 8bbc 9965 913c bc52 78bd
000000c0: a671 2abd 1ff3 9c3b 92fe 983d b813 793d
000000d0: 88f8 af3d a2ce dabc a903 8fbd 675a 993d
000000e0: d1b0 563d ecca ac3d 1c58 c33d 9af4 e6bc
000000f0: f5b7 873d 3de8 b83d 1e5a 70bc dffe 5dbd
00000100: b1a2 6fbd 2273 2dbd a9af 383d 7346 9cba
00000110: 7bd0 5fbc 438d c2bb b39c 983d 0946 e63c
00000120: 925f 29bd 7b7d 603d 6d91 32bd e2b1 963d
00000130: 1551 94bd 5f60 c53c f7f8 343d 8ac7 633d
00000140: 99e2 80bb 22e9 363d eef5 30bc d9b1 a53d
00000150: 13dc adbc c87d a7bd 14fb a9bc f03c 043c
00000160: 9180 403c dbd5 87bd df1a e5bc c75f fe3c
00000170: 25d3 cf3c 7508 be3d 8be4 43bc f8e3 ec3c
00000180: 5972 54bd 5e5e b5bd e2ac d13b 61ef d0bc
00000190: bc63 943d 14e8 82bd 3913 8bbd bcd2 3cbd
000001a0: ea15 ebbb b5aa 693d 9ad6 723d 8c4a f3bb
000001b0: 1283 433d a821 483d bc62 81bc dafc 27bd
000001c0: e42b c33c bab9 62bd 80d2 9d3d 9328 0d3d
000001d0: c4ec 18bc eb15 90bc c6b5 9b3b dae2 853c
000001e0: af29 98bd 39c1 8ebd 1ea3 5fbb edc1 23bd
000001f0: fa2d 70bd 7999 a33c 4ff4 5e3d 40fb 84bd

weight f4 [128, 128]
-0.0011411548 0.04383242 0.051564503 0.031445663 -0.01894949 -0.046872303 0.07254506 -0.0057729958
0.0006774541 -0.054662686 2.6399972e-08 -0.060623035 -0.011887169 -0.032739248 0.018024812 -0.0039292574
0.021361724 -0.032267433 -0.08301423 -0.057592195 0.02769925 0.08743238 -0.060971167 -0.041410875
0.029824972 0.08439299 -0.07533661 -0.047513332 -0.03243383 0.03038542 -0.016708253 -0.030189043
0.010324661 -0.012115921 -0.05830223 -0.0754244 0.07485103 -0.009109177 0.007075128 -0.00026999178
-0.022744164 0.021044672 0.007616314 -0.0012396297 -0.0637248 -0.02614341 -0.020292958 0.0502738
-0.020837171 -0.0018222835 -0.017080825 0.0843493 0.027212314 0.060296435 -0.05457861 0.022539936
-0.012503685 -0.05122571 0.022475775 -0.027596144 0.020524288 -0.05594601 -0.010467322 -0.059980184
-0.058730677 0.069795616 0.002097405 9.2375194e-07 -0.04104447 -0.012035365 0.021789206 0.042929463
-0.008739115 0.029528862 -0.0028804562 0.014597865 0.071280256 -0.052764513 0.05823971 0.065962836
-0.077858746 -0.03271335 -0.07161086 -0.0890085 -0.0011577458 -0.022176111 0.05093036 -0.002870866
-0.08592002 -0.079450265 0.0078483 -0.01628164 0.022473687 -0.074303895 -0.060422856 0.024889383
-0.0044029136 0.010754893 -0.007894629 -0.05626841 0.07559727 -0.064773984 0.072697796 0.08816357
0.059588477 0.06670519 -0.0052669393 -0.063943855 -0.03887633 -0.050905354 0.017526153 0.061619926
0.02686105 0.037078444 -0.045135505 0.06125029 -0.005542595 0.0031665394 -0.011215994 -0.07050888
-0.066321835 0.06283333 -0.010369458 0.012615901 -0.067172065 -0.0046441145 -0.0075697433 -0.008432133
0.03857517 0.06287304 -0.06661245 0.027190112 0.04456564 -0.017155405 -0.05019651 -0.023934515
-0.012842276 0.07564524 0.07358417 -0.03521859 0.012093949 0.015593471 0.049934246 0.008119037
-0.024356928 -0.0015765888 -0.06539318 0.0752281 0.06771146 0.027353447 0.06915364 -0.0506326
-0.037843503 -0.04454022 -0.02012988 0.043083306 0.020851154 -0.031170653 -0.06182743 0.012445251
0.066201955 -0.038178947 -0.080350496 0.06905613 0.03556424 0.023271313 -0.0064782756 0.02553904
-0.06119551 0.03244182 -0.06169055 -0.032108247 -0.072300695 0.080718875 0.06957514 -0.061417818
-0.03686188 -0.07002051 -0.04158723 0.038095266 -0.05986998 0.07838094 -0.048858386 0.039802372
-0.06059854 -0.057560436 0.03379178 0.016573638 0.045469306 -0.00480375 0.062300347 0.024074657
-0.02346134 -0.007993453 -0.038445592 0.00021615317 -0.019922426 0.009565177 0.022808617 -0.015010715
-0.0040542097 0.018074773 -0.035195097 -0.081704594 -0.0012654142 -0.09293449 0.0684252 0.017493105
0.07074442 -0.04246331 -0.0456625 -0.053405456 -0.00304838 0.06488673 0.0038297637 -0.005775411
-0.06978241 0.07403772 -0.011285782 0.04969626 -0.08877436 -0.024522712 0.0050191833 0.05822057
-0.00017405492 -0.02217073 0.0234651 -0.043649368 0.0011890378 0.002417026 -0.011538593 0.0028988956
-0.058238428 0.009229854 -0.07332993 -0.02931321 -0.09175305 -0.029715609 0.035871528 0.049858373
-0.0024299251 -0.013654144 -0.07566622 -0.017781394 -0.07423328 0.04182176 0.056005348 -0.010105446
0.0027863644 0.036231525 -0.027825441 -0.021489741 0.0726651 -0.07475606 0.018069891 -0.07129516
00000000: cd92 95ba a089 333d 4d35 533d 2bcd 003d
00000010: f63b 9bbc 2cfd 3fbd 8192 943d 662b bdbb
00000020: 2d97 313a fbe5 5fbd 27c6 e232 dc4f 78bd
00000030: 67c2 42bc 9719 06bd c5a8 933c 00c1 80bb
00000040: c8fe ae3c db2a 04bd 5d03 aabd cbe5 6bbd
00000050: 8ae9 e23c bf0f b33d e7bc 79bd 739e 29bd
00000060: 8053 f43c 3bd6 ac3d 154a 9abd 579d 42bd
00000070: 56d9 04bd d8ea f83c bfdf 88bc 034f f7bc
00000080: c428 293c db81 46bc 52ce 6ebd 1c78 9abd
00000090: 7f4b 993d a83e 15bc 7ad6 e73b af8d 8db9
000000a0: f851 babc e065 ac3c 4692 f93b 127b a2ba
000000b0: 2682 82bd b42a d6bc 6b3d a6bc e6eb 4d3d
000000c0: b7b2 aabc b0d9 eeba 16ed 8bbc 53bf ac3d
000000d0: 5cec de3c 65f9 763d d28d 5fbd aca5 b83c
000000e0: 42dc 4cbc 0dd2 51bd 1e1f b83c 4f11 e2bc
000000f0: 8d22 a83c a527 65bd 217f 2bbc c8ad 75bd
00000100: 948f 70bd 01f1 8e3d 9e74 093b c0f7 7735
00000110: 3f1e 28bd fb2f 45bc 477f b23c ced6 2f3d
00000120: 812e 0fbc 83e6 f13c 09c6 3cbb e22b 6f3c
00000130: 62fb 913d 9a1f 58bd c38c 6e3d 8617 873d
00000140: 6874 9fbd 6ffe 05bd b7a8 92bd 174a b6bd
00000150: 81bf 97ba adaa b5bc 5a9c 503d 2425 3cbb
00000160: d6f6 afbd d2b6 a2bd 2896 003c 1361 85bc
00000170: bd1a b83c a42c 98bd f57d 77bd d2e4 cb3c
00000180: 5146 90bb 4a35 303c 7958 01bc b479 66bd
00000190: bed2 9a3d 39a8 84bd 95e2 943d 1a8f b43d
000001a0: 0c13 743d bb9c 883d 4a96 acbb fff4 82bd
000001b0: c93c 1fbd 2282 50bd 0293 8f3c 2d65 7c3d
000001c0: b40b dc3c 91df 173d 02e0 38bd 96e1 7a3d
000001d0: a89e b5bb b785 4f3b 4ac3 37bc f666 90bd
000001e0: bed3 87bd c3ae 803d a9e4 29bc edb2 4e3c
000001f0: 8291 89bd a82d 98bb 9c0b f8bb ee26 0abc
00000200: ff00 1e3d 95c3 803d 1c6c 88bd ccbd de3c
00000210: 768a 363d 7e89 8cbc db9a 4dbd 5112 c4bc
00000220: 6968 52bc e4eb 9a3d 4cb3 963d 5e41 10bd
00000230: b325 463c c27b 7f3c da87 4c3d b605 053c
00000240: 2e88 c7bc 8ba5 ceba dcec 85bd 3111 9a3d
00000250: 4eac 8a3d 5614 e03c 6ca0 8d3d 2164 4fbd
00000260: ca01 1bbd ce6f 36bd 6be7 a4bc 1f78 303d
00000270: 0ad0 aa3c 9959 ffbc c23e 7dbd 2be7 4b3c
00000280: e494 873d 8761 1cbd cd8e a4bd 4d6d 8d3d
00000290: cfab 113d 7ba3 be3c b747 d4bb 4037 d13c
000002a0: 25a8 7abd b7e1 043d 3baf 7cbd f083 03bd
000002b0: 6312 94bd f04f a53d 697d 8e3d 4091 7bbd
000002c0: 7cfc 16bd ea66 8fbd 5f57 2abd c809 1c3d
000002d0: 393a 75bd 3086 a03d bb1f 48bd d007 233d
000002e0: 2d36 78bd 7ec4 6bbd 4069 0a3d 70c5 873c
000002f0: 063e 3a3d c768 9dbb a62e 7f3d 3738 c53c
00000300: ff31 c0bc f9f6 02bc 2079 1dbd 2da7 6239
00000310: 5b34 a3bc 43b7 1c3c 23d9 ba3c 81ef 75bc
00000320: 2dd9 84bb 8c11 943c bc28 10bd bd54 a7bd
00000330: 41dc a5ba 7054 bebd 8322 8c3d b34d 8f3c
00000340: 73e2 903d 02ee 2dbd 9a08 3bbd aebf 5abd
00000350: 54c7 47bb 55e3 843d c6fc 7a3b a93f bdbb
00000360: 15ea 8ebd 17a1 973d 00e8 38bc 4e8e 4b3d
00000370: 55cf b5bd dbe3 c8bc f677 a43b b178 6e3d
00000380: 8382 36b9 649f b5bc e239 c03c aec9 32bd
00000390: 7dd9 9b3a f866 1e3b 5e0c 3dbc 66fb 3d3b
000003a0: 6b8b 6ebd d038 173c 012e 96bd 4222 f0bc
000003b0: 06e9 bbbd 266e f3bc 06ee 123d 4b38 4c3d
000003c0: 613f 1fbb a1b5 5fbc e4f6 9abd 49aa 91bc
000003d0: 9e07 98bd 4b4d 2b3d dd65 653d 5091 25bc
000003e0: 709b 363b 8267 143d 2ef2 e3bc 410b b0bc
000003f0: 71d1 943d b519 99bd 4f07 943c 3203 92bd

bias f4 [128]
-0.0775156 -0.06821809 0.07917114 -0.051255308 0.062333737 0.008994692 0.08833142 -0.04170612
0.054650582 -0.033910975 0.041260537 -0.003226848 -0.0831713 0.06817864 0.08541328 0.05448418
-0.03681631 -0.0056542563 0.0082579125 -0.052473444 -0.055108443 -0.065148 -0.04586892 -0.08096906
-0.023005662 -0.011334985 -0.04363733 -0.08699152 -0.015630413 -0.055861644 0.087054096 0.052533012
-0.014716907 -0.05566039 0.06501413 0.035015907 0.0498335 0.0043096556 0.00947432 -0.04476611
-0.069008045 -0.026352987 -0.055941638 -0.036266536 0.054840855 -0.0062417905 -0.002177041 -0.0032066167
0.014559847 0.04361252 0.034480043 0.07766134 -0.017690172 0.09171052 -0.06990556 -0.038745694
-0.08101996 0.040246062 -0.016089793 0.04571841 -0.023911234 -0.008254324 0.041050054 -0.02590198
0.02821314 -0.037650432 -0.019566879 -0.049330447 0.021261372 -0.0074343192 0.086789005 -0.02260775
0.05512357 0.07998248 -0.056219976 -0.00507726 0.07371793 -0.036380522 0.059175786 -0.06591948
0.056392875 0.0011543853 -0.013839927 -0.051572084 -0.08339231 0.03322136 0.08150734 0.0793155
-0.0772001 0.080843024 -0.069602005 0.06734523 0.0047183824 -0.041641086 0.03725612 0.019777661
-0.053155027 -0.029879045 -0.046862233 0.07965323 0.038551647 0.027601847 0.04454581 0.007902618
-0.05977378 0.036828626 -0.034555472 -0.060030546 0.09494208 0.06666414 0.0325692 0.017603807
-8.5794244e-07 -0.059460945 -0.042884715 -0.0315077 -0.06364354 -0.06588184 -0.037753902 0.057462547
0.07273822 -0.020823523 0.074614696 -0.02540438 0.08031824 -0.06782569 -0.058427658 -0.00039791496
00000000: 80c0 9ebd edb5 8bbd 7b24 a23d 16f1 51bd
00000010: a951 7f3d 795e 133c 1be7 b43d 09d4 2abd
00000020: 4ad9 5f3d 3ce6 0abd cf00 293d 8779 53bb
00000030: b755 aabd 3ea1 8b3d 28ed ae3d ce2a 5f3d
00000040: b3cc 16bd 5747 b9bb 324c 073c 65ee 56bd
00000050: 64b9 61bd 516c 85bd 0ce1 3bbd 1bd3 a5bd
00000060: 5f76 bcbc 5fb6 39bc 0fbd 32bd 9c28 b2bd
00000070: 5a0b 80bc 2ecf 64bd 6b49 b23d db2c 573d
00000080: 2f1f 71bc 26fc 63bd 2126 853d d76c 0f3d
00000090: 361e 4c3d 0338 8d3b 2e3a 1b3c ab5c 37bd
000000a0: 1754 8dbd 38e2 d7bc 0f23 65bd 388c 14bd
000000b0: cea0 603d ef87 ccbb b0ac 0ebb 1a26 52bb
000000c0: 6d8c 6e3c 0ba3 323d f23a 0d3d e90c 9f3d
000000d0: fbea 90bc bad2 bb3d a52a 8fbd ceb3 1ebd
000000e0: cbed a5bd 0ed9 243d bece 83bc 3a43 3b3d
000000f0: 7ee1 c3bc 253d 07bc 1a24 283d 6430 d4bc
00000100: 3e1f e73c 5737 1abd b84a a0bc b90e 4abd
00000110: 542c ae3c 979b f3bb 6fbe b13d e333 b9bc
00000120: 41c9 613d dbcd a33d eb46 66bd 255f a6bb
00000130: 6df9 963d be03 15bd 4f62 723d cb00 87bd
00000140: 37fc 663d be4e 973a dcc0 62bc 403d 53bd
00000150: 96c9 aabd 1f13 083d 52ed a63d 2a70 a23d
00000160: 161b 9ebd 0791 a53d 7f8b 8ebd 4cec 893d
00000170: a99c 9a3b d88f 2abd e099 183d c304 a23c
00000180: 16b9 59bd e6c4 f4bc 9df2 3fbd 3c21 a33d
00000190: 55e8 1d3d 451d e23c ab75 363d fb79 013c
000001a0: 5ad5 74bd 9dd9 163d 0a8a 0dbd 97e2 75bd
000001b0: fe70 c23d 3587 883d 4867 053d dc35 903c
000001c0: 5b4d 66b5 528d 73bd e2a7 2fbd 380e 01bd
000001d0: 8b57 82bd 0fed 86bd d6a3 1abd d95d 6b3d
000001e0: c7f7 943d 1896 aabc 97cf 983d d91c d0bc
000001f0: e47d a43d 32e8 8abd d751 6fbd 3e9f d0b9
