models/tfidf/models/NeuralNetTorch_BAG_L1/S1F4/net.params (torch, 257653 bytes, 16 tensors)

weight f4 [6, 4]
000000 b9 71 91 bf aa f0 92 bf 15 25 83 be 5c 2b e7 be
       -1.136283 -1.1479695 -0.2561423 -0.45150268
000010 b0 af 5a 3f f4 70 31 3f f4 e9 a0 be d0 7a 0a c0
       0.8542433 0.6931298 -0.31428492 -2.1637459
000020 1d d6 f6 3e 7a b8 50 be 70 b3 bc 3f 14 19 9c 3e
       0.4821023 -0.20382872 1.474226 0.30487883
000030 69 99 20 3e ee 28 61 3f f7 33 26 be 60 76 ea bd
       0.15683521 0.8795308 -0.1623076 -0.114483595
000040 18 ad 79 3f 8b 14 a7 3f 39 ce 02 40 8c 44 9b 3d
       0.97529745 1.3053144 2.0438368 0.07581434
000050 31 5a f3 3e 37 2e 8d be 50 ff 31 bf 5a 90 0a c0
       0.47529748 -0.27574322 -0.695302 -2.1650605

weight f4 [6, 4]
000000 d6 7c 76 be d8 13 3b bf f7 20 12 3f b5 ec 7c 3e
       -0.24071059 -0.73077154 0.5708155 0.24699672
000010 d5 1e 26 be bd b1 30 bf 21 2b 79 3f 94 03 f6 3e
       -0.16222699 -0.6902121 0.97331434 0.48049605
000020 bd 10 10 bf ca 29 6b 3f 60 45 8f 3f dd ae a8 3f
       -0.5627554 0.9186064 1.1193047 1.3178364
000030 27 33 bc bf af 54 24 40 f3 e4 00 bf 67 7f ab 3e
       -1.470311 2.5676687 -0.5034935 0.33495638
000040 65 99 d8 bf 10 19 0d bf cf bf fb be a2 21 07 bf
       -1.6921812 -0.5511637 -0.49169776 -0.52785695
000050 5e 62 6b bf 2a 97 77 3f d4 24 15 bd f8 0c 29 3f
       -0.9194697 0.96715033 -0.036412075 0.66035414

weight f4 [6, 4]
000000 04 d9 be bd dd 41 2a 3f 03 47 5a bf da 89 03 bc
       -0.09318736 0.6650675 -0.85264605 -0.008028472
000010 46 9a 5c 3f 7b f2 c2 be 52 ef 84 3f 80 38 be 3e
       0.861729 -0.38075623 1.0385535 0.3715248
000020 46 a3 3b 3d d8 36 90 3f db 5d 9c 3e 7e eb e8 3e
       0.045810007 1.1266737 0.30540356 0.45492166
000030 82 aa 4a bf fb a3 a5 bf 26 44 43 bf 71 03 a7 bf
       -0.79166424 -1.2940668 -0.7627586 -1.3047925
000040 15 46 3e 3e d1 02 be be f9 ee d9 be 2f 91 35 3e
       0.18581422 -0.37111524 -0.42565134 0.17731164
000050 2f ce 26 3f 22 6c 8d bd 12 b9 70 be c1 ef 87 bf
       0.6515836 -0.0690539 -0.23508099 -1.0620042

weight f4 [6, 4]
000000 1d ea 3a bf 52 68 85 3f 0c ae 1d bf eb 63 a5 bf
       -0.7301348 1.0422461 -0.615937 -1.2921118
000010 9f dc db 3d 64 28 37 bf 09 4d 22 3f b3 dc 3b bf
       0.107354395 -0.71546006 0.63398796 -0.73383635
000020 23 89 8e be 18 c4 03 3e c8 e1 8e 3e e7 93 97 3f
       -0.27839002 0.12867773 0.27906632 1.1842011
000030 22 21 90 3e b5 11 d5 3e f9 a4 59 be 0d 1c df bd
       0.28150278 0.41615072 -0.21254338 -0.10894022
000040 54 2a 2e 3e 13 05 46 bf 25 cc f3 bf 3a 91 04 3e
       0.17008334 -0.7735149 -1.9046675 0.12946025
000050 9c 65 0f bf 2f 74 3b 3e 76 01 45 3d ea 85 7f 3e
       -0.5601442 0.1830604 0.048097096 0.24953428

weight f4 [6, 4]
000000 99 d0 7b 3f 1f 83 7e bf 12 5f 9a 3e f8 a1 f4 bd
       0.9836517 -0.99418825 0.30150658 -0.119449556
000010 0b 79 7b 3f 52 d3 f9 be fe e7 40 3f 32 44 24 3f
       0.9823157 -0.48794037 0.7535399 0.6416656
000020 ac 1f 7f 3f e1 8f c1 bf bf 30 18 3f af 94 2c 3e
       0.996577 -1.5122033 0.5944938 0.16853593
000030 1d 93 ec 3d 8f e9 4c bf 1e b9 23 3f 80 54 f6 bf
       0.11551497 -0.8004388 0.6395434 -1.9244537
000040 81 d3 a8 3f 38 93 60 be 16 04 4c 3f 14 63 7c 3f
       1.3189546 -0.2193116 0.79693735 0.9858868
000050 44 1e 8e 3e b1 05 ae bf ca 56 f1 3f e9 f2 f9 3c
       0.27757466 -1.3595487 1.8854611 0.030511336

weight f4 [26, 9]
000000 eb 3f 0b bf 8d 50 d6 bf d1 8c 0e bf d3 40 05 bf
       -0.54394406 -1.6743332 -0.5568362 -0.5205204
000010 f3 1f 1f bf 55 8c b8 bf 10 1a 5a bf 44 93 07 c0
       -0.62158126 -1.4417826 -0.8519602 -2.1183634
000020 92 b8 93 bf 92 bc 40 bf 52 b5 28 3d 62 12 a1 3e
       -1.1540701 -0.75287735 0.041188546 0.31459337
000030 dd 68 9b be 84 ff a5 3f 27 fd b9 3c b3 cd 57 bf
       -0.30353442 1.2968602 0.02270372 -0.8429825
000040 d5 b9 d2 3e 6d ca dc bc d7 12 b1 3f be 07 80 be
       0.41157404 -0.026951993 1.3833874 -0.25005907
000050 56 4f 0d bf 88 a9 38 c0 46 d4 c7 bf d7 fa 80 3f
       -0.5519918 -2.8853474 -1.5611656 1.007655
000060 11 4d 72 3e 8b 8b 38 bf 5e 02 d9 3f f3 20 9e 3e
       0.23662211 -0.72087926 1.6953847 0.30884513
000070 e3 a4 86 3f 24 ab b2 3f 47 e4 b1 bd 7e 27 1b bf
       1.051907 1.3958478 -0.086861186 -0.60607135
000080 a9 91 22 bf c6 eb e7 3f 74 f2 82 bf eb c9 23 bf
       -0.6350351 1.8118827 -1.0230241 -0.6397998
000090 b7 49 a2 3d 21 91 0c 3f 7c 81 01 3f d0 a6 99 3f
       0.07924216 0.5490895 0.505882 1.2004032
0000a0 47 d1 93 bf 00 78 df bf 4f 09 bf 3f c8 d7 17 3c
       -1.1548241 -1.7458496 1.4924716 0.009267755
0000b0 6a 64 c9 bf 2a 0a 3e 3d 95 36 16 bf 0a 2c 31 3f
       -1.5733769 0.046396412 -0.58677036 0.69207823
0000c0 74 40 92 3f c9 be d6 bd 23 8b 36 3c a1 52 29 3f
       1.142592 -0.10485608 0.011141571 0.66141707
0000d0 fa a3 ef 3e 85 55 27 3e 14 56 8c 3c c2 70 19 3f
       0.46804792 0.16341217 0.017130889 0.5993768
0000e0 34 b1 9d 3d 95 52 7c bf 64 49 3c 3f d3 a2 87 3f
       0.076998144 -0.9856351 0.73549485 1.0596565
0000f0 fa 34 09 40 bb 79 59 bf a7 ca 1c bf ea 0b 22 bf
       2.1438584 -0.8495137 -0.6124672 -0.6329943
000100 72 fe c0 3f 9a e9 43 bf 82 63 3a 3e ab 7d b0 3f
       1.507765 -0.7652832 0.18202022 1.3788351
000110 fe 64 06 40 3e 77 2d 3f 11 49 4c bf 82 62 0c bf
       2.099914 0.67760074 -0.7979899 -0.5483781
000120 f9 a7 56 3e de 85 0c bf 2d 74 6d 3f aa c6 f0 3e
       0.20962514 -0.54891765 0.92755395 0.4702657
000130 00 98 59 bf cb 27 a5 3f 30 c3 93 3e 18 c9 1d bf
       -0.8499756 1.2902769 0.28859854 -0.6163497
000140 75 11 64 bf 3a 01 21 bf 16 00 28 3e 04 33 85 bf
       -0.8908914 -0.62892497 0.16406283 -1.0406194
000150 e4 01 35 bf 72 ff 0d c0 0c a9 31 bf 73 30 04 3f
       -0.7070601 -2.2187161 -0.6939857 0.5163643
000160 b5 5a 4a 3f c1 c5 a1 3d 22 86 ca 3e cc fa ea bf
       0.7904466 0.07899047 0.3955546 -1.8357787
000170 61 f8 92 bf 7e 28 e6 3d 07 24 1f 3f d6 2c b1 3f
       -1.1482049 0.11238192 0.6216435 1.3841808
000180 08 e6 ca bf c4 19 9f 3e 5e e2 ad bf 2e 1b 33 be
       -1.585145 0.31074345 -1.3584707 -0.17490837
000190 fa 1d 8a be f5 b0 97 bf a0 5a 2c 3f 2e 6d 9b bf
       -0.26975995 -1.1850878 0.6732578 -1.2142694
0001a0 61 70 96 bf bd 20 aa 3e 03 3c 3e bf 65 50 5d bf
       -1.1753045 0.33228102 -0.7431032 -0.864508
0001b0 b8 0f 39 bf 77 26 0a 3f 23 3a b6 3e fa 2d 19 3f
       -0.7228961 0.5396494 0.3559123 0.5983578
0001c0 73 df b4 bf e1 01 52 bf 35 4c 9b 3f 30 7e ee bf
       -1.4130691 -0.82034117 1.2132632 -1.8632259
0001d0 19 74 c0 3e 4b ee 8b 3f 21 95 ea 3e 60 0c 9a bf
       0.37588575 1.0932096 0.458169 -1.2035027
0001e0 6d 27 e2 be 63 f5 86 be cc 46 7d 3f 4d c2 dc be
       -0.44170704 -0.2635909 0.9893615 -0.4311699
0001f0 56 89 2c bf 67 e6 da be af a3 ba bf ee cf 0c bf
       -0.6739706 -0.42753908 -1.4581202 -0.55004776
000200 d6 d4 9b 3f 93 80 48 3f a8 47 b1 3e 4c 71 71 3e
       1.2174327 0.7832119 0.34624982 0.23578376
000210 3e e6 32 c0 04 01 48 bf 15 53 f8 3e 20 dc aa 3e
       -2.7953029 -0.7812655 0.48500887 0.33371067
000220 54 53 91 bf ec af 0c 3d 1c a5 00 be 1e 56 76 be
       -1.1353555 0.03434746 -0.12562984 -0.24056289
000230 50 67 18 40 f2 60 cf 3f 63 97 8a be fc 73 c4 bf
       2.3813057 1.620146 -0.27068624 -1.5347896
000240 1c 78 06 bf 3f 75 54 bf 0f d7 af bf d1 6c ce be
       -0.5252702 -0.82991403 -1.3737506 -0.40317395
000250 6e e2 ab be 6e 49 94 bd 6e e0 02 3f bd 97 c9 bf
       -0.3357119 -0.07240568 0.511237 -1.5749432
000260 9b 43 ba 3e c6 8f 12 c0 74 99 5b bf 8d 9e d2 bf
       0.36379704 -2.2900252 -0.85781026 -1.6454636
000270 50 44 15 3f 2a c5 b5 bf 08 ec 29 3f 46 b4 ae bf
       0.5830736 -1.4200795 0.6637578 -1.3648765
000280 5c 05 b5 3e 0b b1 c0 bd 8f 98 62 3e dd 7a 9b 3f
       0.3535565 -0.09408768 0.22128509 1.214687
000290 4d 7a 9d 3f 1d ad ee bd 0b 7e 09 40 a4 aa 73 3d
       1.2302948 -0.116541125 2.148318 0.059488907
0002a0 43 81 f9 3e 6a 33 86 3d 94 63 c8 3e 3b 3d e0 bf
       0.4873143 0.06552775 0.39138472 -1.7518686
0002b0 78 cd 9b 3f 1b 6e 26 40 2a dc 56 3e e2 e8 b4 3e
       1.2172079 2.6004703 0.20982423 0.35333925
0002c0 d2 e0 8d bf dd 99 0d 40 41 f6 c4 3d 50 a7 45 3f
       -1.1084235 2.212516 0.09617282 0.77208424
0002d0 e7 a1 8c bf d7 4d 50 bd b4 89 c0 bf b9 e7 df bf
       -1.0986909 -0.050855484 -1.5042024 -1.7492591
0002e0 67 00 ef bf a1 dd e7 3c 94 af fb bf 8f b6 f8 bf
       -1.8671998 0.028303923 -1.9662957 -1.9430712
0002f0 26 9c 09 40 f0 52 74 bf 40 17 25 bf e2 11 db 3f
       2.1501555 -0.9543905 -0.644886 1.7114832
000300 ab 71 b3 3e ec 25 3d bf 02 e9 d4 bc 28 05 e6 3f
       0.3504766 -0.7388599 -0.025990013 1.7970324
000310 e3 6d 03 bf d8 15 5c 3f e5 f4 3b 3f 09 51 b9 3f
       -0.5133955 0.8597083 0.73420554 1.4477855
000320 47 0b 0d bf 96 42 d7 bd ff 6e da 3e e1 61 0c bf
       -0.5509533 -0.10510747 0.42662808 -0.5483685
000330 2d 65 fb bf a0 aa 57 3f db 81 8c bc 93 66 be bf
       -1.9640251 0.8424473 -0.017151764 -1.4875053
000340 5b 47 0b bf ad f4 bf bf 89 87 37 bf 6a 74 84 3f
       -0.54405755 -1.4996544 -0.71691185 1.0348027
000350 44 f6 0e c0 20 da e8 3e 32 cc 19 bf 24 14 f8 bd
       -2.2337809 0.45478916 -0.600772 -0.121132165
000360 28 4b 36 3f 5c 12 80 3f 5b 79 dc be b8 0c 01 3f
       0.7120843 1.0005603 -0.43061337 0.5041003
000370 75 56 ab 3f 67 d4 e4 3e 45 71 03 bf 8f 70 19 be
       1.338576 0.446933 -0.5134471 -0.14984344
000380 3d 03 2a be 9c af 4f 3d 25 55 66 3e 4c e3 1b bf
       -0.16602798 0.050704584 0.22493418 -0.608937
000390 86 7c d9 3d 91 40 03 be 93 17 b7 3f 01 3c f4 bd
       0.10619454 -0.12817599 1.4304069 -0.11925507
0003a0 cb cc 34 b7 95 ed 2d 3a
       -1.0776518e-05 0.0006634829

weight f4 [128, 93]
000000 4e 38 0a 3e ea 09 38 3d ba cc 84 3d e3 e0 f9 3b
       0.13498041 0.04493133 0.06484361 0.0076256855
000010 f8 c4 ef bd 24 02 a7 3d cd bb aa bb 78 2d a5 3d
       -0.11707491 0.08154705 -0.005210376 0.08065313
000020 68 a8 bd bd 5f d3 f7 bc 77 16 d5 bd 87 77 5d bd
       -0.092606366 -0.030252157 -0.104046755 -0.05406907
000030 9c 3d 8b 3d 64 c8 87 bd 4d 2a 97 3d 5e 67 85 3d
       0.067988604 -0.06630018 0.07381115 0.06513856
000040 0e df 05 3d 28 1a 95 bd 25 a9 b5 bd 3c 70 24 bd
       0.032683425 -0.072803795 -0.088701524 -0.040146098
000050 15 cb 86 3d c8 6d c9 3d cd ac 52 3d 65 2c 0b bc
       0.065817036 0.09835392 0.051434327 -0.008494471
000060 b0 8f 19 3d e9 83 fe bd da cd bd 3b 3e 63 bf 3d
       0.037490547 -0.124275036 0.0057923617 0.09345101
000070 85 8c c1 bd 34 9c a6 bc e0 1e 73 bd 68 e4 ce bc
       -0.0945063 -0.020338155 -0.059355617 -0.025255397
000080 cf c7 8a bd e5 53 3e 3b af 89 25 3d 4b f2 5b 3d
       -0.06776392 0.0029041704 0.04041451 0.053697865
000090 7c f7 df 3a ec 2a 94 3d de cf 9a 3b e8 6a df bc
       0.0017087306 0.07234749 0.0047244867 -0.027272657
0000a0 9e 39 e0 b5 25 c1 ab 3b 5d c1 84 3c 88 47 8c bd
       -1.6706069e-06 0.0052415305 0.016205484 -0.06849581
0000b0 65 b4 93 3d 61 d7 0a bc 8a 53 e9 3b 35 0b 44 3c
       0.07212142 -0.008474202 0.0071205543 0.011965563
0000c0 20 e5 0a 3e e7 10 82 3c ab d3 f2 bc 51 9b da 3d
       0.13563967 0.0158772 -0.029641947 0.106741555
0000d0 77 a3 82 3d aa 11 da 3d ac a7 be 3d 9d 79 1f bd
       0.06378835 0.106479004 0.093093246 -0.03893434
0000e0 05 75 9e 3d 8e 63 59 39 df 29 26 3c 05 bb 29 3c
       0.077371635 0.0002073182 0.010141819 0.01035953
0000f0 5e 69 ea 3b 93 b0 18 3d 08 58 52 b7 2e 71 e9 b8
       0.007153674 0.03727777 -1.2537472e-05 -0.00011131387
000100 00 99 14 ba 5d 3d 33 3d a4 bd cd bd 31 af 6b 3c
       -0.0005668551 0.043759692 -0.10045937 0.014385031
000110 7f 52 7b 3d a3 63 b7 bc 09 ac 31 3d 9f 99 0c bd
       0.06135797 -0.022386378 0.043376956 -0.034326192
000120 55 72 6d 3c db c9 89 bd e0 11 a5 bd 70 81 78 bd
       0.014492591 -0.06727954 -0.0806005 -0.060670316
000130 c3 c7 b6 3d 31 17 64 bd ae a4 f7 3c bc f9 83 bd
       0.0892482 -0.05568618 0.030229893 -0.064441174
000140 41 0b d6 3d 72 d2 b6 3d 75 c7 9a bd 46 e7 a3 bd
       0.10451365 0.08926858 -0.07557575 -0.08003096
000150 20 36 18 bd 64 8f 2d 3d 1e dc ea 3b 6f c0 74 bd
       -0.037160993 0.042373076 0.0071673533 -0.05975383
000160 86 24 4d 39 c5 8c c3 3c 10 fb 08 bd 32 ce 1c 3d
       0.0001956393 0.023870835 -0.033442557 0.03828258
000170 94 ad 33 bd e8 01 33 bd 19 bc 2a 3d db 70 e7 3d
       -0.04386671 -0.04370299 0.04168329 0.11300822
000180 d8 1b 2e bd 47 4c ec 3c 3c 88 e6 bc e6 62 d3 3d
       -0.042507023 0.028844966 -0.028141133 0.10321598
000190 6f 85 0c be 5e 27 9b bd 2c 7d de 3d f8 6f b3 bd
       -0.13722776 -0.07575868 0.108637184 -0.08761591
0001a0 6c 1d 3c 3b 34 6a 3c bc 0e 06 21 bd 4b fb 1f bd
       0.002870406 -0.01149993 -0.039312415 -0.03905801
0001b0 f8 ad 8b 3d f9 ad 44 3c c8 4c b3 bd fd 05 4d bd
       0.06820291 0.012004369 -0.08754879 -0.05005454
0001c0 f9 3f c6 bc 02 ea 29 3d a8 c1 7a bd 61 49 d6 3d
       -0.024200426 0.041482933 -0.06121984 0.10463215
0001d0 69 ad b6 bc 78 98 8f bc 6c 33 ba 3d ec 50 0b 3d
       -0.022299485 -0.017528757 0.09091839 0.03401272
0001e0 8f 55 79 3d 94 86 3b 3d c8 40 3f bc 49 46 6a bd
       0.06087261 0.04578264 -0.01167316 -0.057195935
0001f0 13 81 e0 bb ea ff 9b 3d ee 29 d7 bc 79 5a f7 bd
       -0.0068513243 0.07617171 -0.02626511 -0.12077803
000200 3f ec 55 3d 99 13 a7 3d 6e c5 1d bd c2 60 b2 bd
       0.052227255 0.08158035 -0.03851836 -0.08709861
000210 56 2c b0 bd 44 ef 19 3d 6c 23 01 bc 33 9f 92 bd
       -0.086022064 0.037581697 -0.00788198 -0.07159271
000220 47 28 d8 3c 37 e2 96 3d c8 be a2 3d 80 94 7a 3d
       0.026386393 0.07367366 0.07946545 0.061176777
000230 c2 1f eb bc 4e dc b2 bd 31 9e d6 bd 54 8f 96 3d
       -0.028701667 -0.08733426 -0.10479391 0.073515564
000240 ae dd 43 3d 3b c4 2f 3d 60 9a d6 bd 96 63 c1 3d
       0.047818832 0.04291175 -0.104786634 0.09442823
000250 7c 6e c0 3d b7 a5 9b 3d 9b b2 a2 bd 97 f9 1f bd
       0.09396073 0.07599967 -0.079442225 -0.039056387
000260 5c d8 b2 bd 82 01 e0 3d f2 f2 2d bd 13 96 2f bd
       -0.087326735 0.109377876 -0.04246802 -0.04286773
000270 83 26 6b 3d c7 9b 31 bd 28 98 a4 bd 18 d1 03 3d
       0.057409775 -0.04336145 -0.08036834 0.03218183
000280 3a 54 54 bb f4 1c 94 bd 13 c7 97 3d 0f e9 5e bd
       -0.0032398836 -0.07232085 0.07411017 -0.05442148
000290 2c d0 81 3c 61 56 a9 3d ae 0b 68 3d 0e 97 f6 3b
       0.015846334 0.082684286 0.056651764 0.0075253313
0002a0 81 22 ae 3d 07 be 8b 3c 1f 4d 4c bd 94 bc b3 3d
       0.08502675 0.017058386 -0.049878236 0.08776203
0002b0 d0 c9 65 3c 17 52 d5 bd 06 db bf bc 61 10 a6 bd
       0.014025167 -0.10416048 -0.023419868 -0.08108593
0002c0 6d 1e cc 3d 9f fd 4d bc 16 ed c9 bd 42 11 fe bb
       0.09966741 -0.012572675 -0.09859674 -0.007753522
0002d0 de 85 6b 3d 03 67 dc 3c aa c9 5a 3d 1b 85 1a 3c
       0.057500713 0.026904589 0.053414978 0.009431149
0002e0 27 e4 10 3d 3d c1 f1 bc 07 ab 87 bd 14 7e cd bd
       0.035373833 -0.029511089 -0.06624418 -0.10033813
0002f0 55 82 9f bd 7e fd 27 3d 7b 6c 84 bd 6a bc 6f 3c
       -0.07788531 0.041013233 -0.064660035 0.014632324
000300 a2 9d c3 3c 33 84 b0 bc 90 9f 66 bd 97 18 f7 3d
       0.023878876 -0.021547412 -0.056304514 0.12065237
000310 d3 67 af bd 0e 5f 86 3d 51 e4 da bd 98 9b 77 bd
       -0.08564725 0.06561099 -0.10688079 -0.06045112
000320 76 79 30 3d 9b 36 1a bd 95 99 a3 3d 7e 48 7d bd
       0.043084584 -0.037649732 0.07988278 -0.061836712
000330 2c 55 b9 bd 42 5e 4d bd 45 53 e3 3b 85 9d bf 3d
       -0.09049448 -0.05013872 0.0069374167 0.09356216
000340 62 0a 53 bd 1a 54 73 3d 69 de 39 ba f4 29 6d bc
       -0.051523574 0.059406377 -0.00070903316 -0.014475334
000350 11 dd 10 3d bc a9 88 bd 49 59 34 3c 98 66 a4 3d
       0.035367075 -0.06672999 0.011007615 0.08027381
000360 0c 32 19 bc 9b b4 8f 3d a2 41 dd bc 5a 78 ad 3d
       -0.009350311 0.0701687 -0.027008835 0.08470221
000370 79 72 e8 bd 8d 34 1e 3c 30 b2 30 bd a0 76 be 3c
       -0.11349959 0.009656084 -0.043138683 0.023249924
000380 1f 46 82 3d 11 6a 48 3d 87 5c 71 3c bc 60 61 3c
       0.06361031 0.048929278 0.014731533 0.013755973
000390 43 2c a3 3d bc 70 4a bd d4 5d b1 3d fb 5f 36 bd
       0.07967427 -0.049423918 0.086604744 -0.044525128
0003a0 19 c9 29 bd ab 19 0a bd 65 ba 5f 3d e5 c5 8c 3c
       -0.041451547 -0.033715885 0.05462112 0.017184207
0003b0 24 9b 6d bd 22 99 4b bd d9 e7 35 3d a0 33 d8 bb
       -0.05800928 -0.049706586 0.04441056 -0.006597951
0003c0 12 b0 4c 3d 23 bd ab bd d0 b0 86 3d 65 b7 04 3e
       0.0499726 -0.08385684 0.06576693 0.12960584
0003d0 46 69 d4 ba 2d c7 96 bd 66 d5 f8 3d f5 a4 ce bd
       -0.001620569 -0.073622085 0.121500775 -0.10090057
0003e0 c9 25 2a 3d cf 38 80 3d 05 8b e2 bc 9c 0b 64 3c
       0.04153994 0.062608354 -0.02765418 0.0139187835
0003f0 73 e2 9c bd 81 c6 33 bb d7 9c 63 bd 37 10 1f bd
       -0.07660379 -0.002743155 -0.055569496 -0.038833823

bias f4 [128]
000000 3a 46 9d bd 7c b2 c2 3c e7 35 a2 bd 03 62 f6 3c
       -0.0767941 0.023766749 -0.07920437 0.030076033
000010 4e c0 ce 3d 93 6e 86 bd 45 15 54 bc b4 47 ab 3d
       0.10095273 -0.06564059 -0.012944524 0.08363286
000020 7a 3e 16 3d a8 87 d1 3d 6c 68 63 bd c0 4c c2 b9
       0.036680676 0.102309525 -0.055519506 -0.00037059747
000030 31 c8 73 bd bf e8 71 bd 92 9e bd 3c 28 2f dd 3d
       -0.05951709 -0.059059855 0.023146901 0.1080001
000040 e4 a7 ce 3d 7c bb 39 bd 85 2b a1 3d c0 7f 64 bd
       0.10090616 -0.045344815 0.07869629 -0.055785894
000050 cb f6 d7 bd ca 2a 8c 3a 34 37 c2 3d 8c 9d 8e 3d
       -0.10545119 0.0010693904 0.094831854 0.069636434
000060 72 13 ae bd e8 fa cf bc 5d 14 dc 3d ff 96 67 3d
       -0.08499803 -0.025388196 0.107460715 0.056540485
000070 16 b1 a2 3c 82 ae 36 bd e7 e0 82 3d 6c 79 c2 3d
       0.019859832 -0.044600017 0.06390553 0.09495816
000080 73 7a 8e 3d 6a 51 1c 3d 7e e8 53 bd 79 35 b7 bd
       0.06956949 0.03816358 -0.051735394 -0.08945746
000090 a9 68 ba 3d a8 4f ec 3c 10 2c 8c 3c 29 2e 46 3d
       0.091019936 0.028846577 0.017110854 0.048383866
0000a0 21 e7 21 bd 0a fb 94 bd 53 74 65 3d 44 57 72 bc
       -0.039527062 -0.072744444 0.05601914 -0.014791314
0000b0 38 f7 d4 bd 48 83 f2 bc 5d 4b a3 bc 7a 13 a2 bd
       -0.10398716 -0.029603615 -0.019933397 -0.07913871
0000c0 7b d1 ac bd 9f d4 01 bd 99 de a8 bd 08 c4 3d 3d
       -0.08438393 -0.031696912 -0.08245582 0.046329528
0000d0 73 51 c9 bd ac 67 49 bd c8 0f 88 bd a8 4f fd bc
       -0.09829988 -0.049171135 -0.06643635 -0.030921772
0000e0 c5 78 db bd e0 63 fd bc 6e 19 6e bd 5f e6 7e 3d
       -0.10716394 -0.030931413 -0.05812972 0.062231418
0000f0 7c 78 94 bd 7c b4 b9 3d 15 50 d1 3d 48 e0 fc 3c
       -0.07249543 0.09067628 0.102203526 0.030868664
000100 15 1e 5d bc 5c eb 85 bd dd 42 27 bd 3a b6 99 bd
       -0.013495942 -0.06539032 -0.04083525 -0.0750546
000110 2c b4 b7 3c 81 1e ca 3d 16 dd 3b bc 62 70 1f bd
       0.02242478 0.098690994 -0.011466285 -0.038925536
000120 4f 48 aa 3c 88 1f cb bd f9 ed 31 bd 9d e5 88 bd
       0.020786433 -0.099181235 -0.04343984 -0.0668442
000130 4a 8e 96 bd 73 af 2a bd c0 9a ab 3d 38 ab 60 3d
       -0.07351358 -0.041671228 0.083791256 0.054850787
000140 0e 3f a6 3c 5a 98 a9 3d 80 6c 7b 3d 9a 33 23 3b
       0.020293739 0.08281012 0.06138277 0.0024902583
000150 11 79 af 3c f2 3a cd bc b9 a5 66 3d 39 ba 0f 3d
       0.021420034 -0.025052521 0.05631039 0.035089705
000160 40 ff 34 3d 5a 3d c5 bd d7 29 8b bc 19 1a 5e 3d
       0.044188738 -0.096308425 -0.016987724 0.054224107
000170 1b d8 d6 3c 42 aa 82 3c 50 f3 3b bd fc 93 80 3d
       0.026226094 0.015950326 -0.045886338 0.06278226
000180 e3 77 71 bc ea b5 58 bd 48 38 a1 bd cc 90 ff 3c
       -0.014738056 -0.05290786 -0.07872063 0.031196974
000190 90 00 a0 bd 34 1a 83 3d 6e be fe 3b 01 8c dd bc
       -0.07812607 0.06401482 0.007774166 -0.027044298
0001a0 f4 41 b3 3d f3 fb b4 bb ef 34 35 3b bb 3e 95 3d
       0.08752814 -0.0055231987 0.002764996 0.072873555
0001b0 85 e2 d1 3c 2f 77 b7 3b 49 3d c5 3d 54 4c b6 bd
       0.025620708 0.0055989246 0.0963083 -0.08901277
0001c0 95 12 50 3d c1 99 d8 3c b2 63 5d 3c 1b 90 0d 3d
       0.05079897 0.026440503 0.013512539 0.034561258
0001d0 24 f8 16 3c 71 ca 7d bd 96 a8 6d bd b7 82 63 bd
       0.009214435 -0.06196064 -0.058022104 -0.05554458
0001e0 88 71 b1 3d 47 45 8e 3d 94 59 66 3b f7 46 32 3d
       0.086642325 0.06946807 0.0035148608 0.04352471
0001f0 1f cc a5 3d 70 3e b9 3d 71 ab cd 3c 51 f3 95 3d
       0.08095574 0.09045112 0.025106164 0.073217995

weight f4 [128, 128]
000000 02 ca 48 3c cb 41 fe 3c 53 8d 39 bd 9f 03 94 bd
       0.012255194 0.031037232 -0.045300793 -0.07227253
000010 bb 8d 57 bc e0 00 73 bd f0 14 cc bb 54 72 66 3d
       -0.01315635 -0.059327006 -0.006228082 0.056261376
000020 db 30 a6 3c dc b2 04 be ec 02 40 3d ae c8 a7 3d
       0.020286968 -0.12958854 0.046877787 0.081925735
000030 79 7d d3 bb 3f 78 88 bd cc b4 a7 3c dc 17 e5 3d
       -0.0064541665 -0.0666356 0.020471953 0.111861914
000040 6e 39 37 bd e1 45 90 bd 8f c3 7d 3d 09 ca 80 3d
       -0.044732504 -0.07044578 0.061954077 0.06288535
000050 07 4a 82 3c 02 d1 aa 3d 92 cb 9e bd 9b 22 5d 3d
       0.01590444 0.08340646 -0.07753672 0.05398808
000060 af 24 94 bd d6 f5 60 bc c8 6a c0 3d e6 b3 ad bc
       -0.07233559 -0.013730487 0.09395367 -0.021203946
000070 24 be a4 bc 4d c4 0e 3d 30 77 b0 3d 9f b1 86 3b
       -0.020110197 0.034855176 0.08616483 0.0041105296
000080 49 87 8c bd 96 56 5a 3d 23 00 a9 3d 08 39 b2 bc
       -0.06861741 0.05330523 0.08251979 -0.02175571
000090 9f fb 29 bd 51 b3 56 3d 4f 56 c7 3d d1 8f c8 bd
       -0.04149973 0.052417103 0.09733259 -0.09793056
0000a0 e0 f6 02 bd 2a 3a 85 bb 18 84 3f 3c 5d 86 13 3d
       -0.03197372 -0.0040657716 0.011689208 0.03601681
0000b0 0f b6 61 3d b5 b4 7f 3c 69 9a 97 3d 4e c2 d8 bd
       0.055105265 0.015607049 0.07402498 -0.10583936
0000c0 d3 1a ac 3c d9 6a 20 bc a6 1b a2 bd b0 dd 2b bc
       0.021008885 -0.0097910995 -0.0791543 -0.010489866
0000d0 3a d7 30 3d cf 84 d6 bc 9d f6 7a 3c 95 70 66 3d
       0.043174006 -0.026186375 0.015317586 0.05625971
0000e0 47 50 36 bd 24 a9 8c ba a1 a2 98 bd de 8a 8c bd
       -0.044510152 -0.001073156 -0.07452894 -0.06862424
0000f0 71 3b 99 3d 03 a8 8b bd 10 a7 b7 3d 3b f2 48 bd
       0.07482041 -0.06819155 0.089674115 -0.049059134
000100 de 42 9d bc 14 0c 69 bd cb 7a 00 bd ef 48 62 3d
       -0.019196924 -0.056896284 -0.031367105 0.055245336
000110 c2 87 cf bc 90 21 bb 3d df 9a 73 bd b2 d8 9d 3a
       -0.025333289 0.09137261 -0.05947387 0.001204273
000120 65 af 34 bd 33 c8 cc 3d dd 2f 9f bd 72 00 3e 3b
       -0.04411258 0.099991225 -0.07772801 0.0028991965
000130 cf 08 6e 3d 01 8b 7b bd 09 e8 e8 bc 98 1b 41 3c
       0.05811387 -0.06141186 -0.028430955 0.011786364
000140 5b ca c4 3d 83 09 7f 3c 00 74 92 bd 2f 64 d3 bd
       0.09608909 0.015566233 -0.071510315 -0.10321843
000150 d5 6f cd 3c 72 dc 9c 3d c1 23 e1 bd c3 7e 59 bd
       0.02507774 0.07659234 -0.10993148 -0.053099405
000160 b9 b7 a6 bd 0b fd b6 bd ea 3c 89 3c ce 2c 8b 3d
       -0.08140511 -0.08934983 0.016752679 0.06795655
000170 29 44 86 bd 97 6b 3d ba 99 94 98 3b 30 7d ec 3c
       -0.06555969 -0.000722581 0.004656386 0.028868288
000180 c4 44 b0 3d 4a 59 97 bc f2 30 bd bb 25 fc c2 bd
       0.08606866 -0.018475194 -0.005773657 -0.09520749
000190 2b 62 86 bd 94 34 2e 3c 7d 6c 32 3d 14 d0 4d 3c
       -0.06561693 0.010632653 0.043560494 0.012561817
0001a0 23 0a 57 3d 24 a3 1c 3e cb a3 bf 3c be 48 ce bc
       0.0524999 0.15296608 0.023393532 -0.02518117
0001b0 b3 1f 50 3d 34 b3 1b 3d 44 dc 9b bb 19 56 55 bd
       0.05081148 0.0380127 -0.0047564823 -0.052084062
0001c0 03 ac 73 bd fa ab c5 3d 86 f6 62 bc b2 d3 43 3d
       -0.059490215 0.096519426 -0.013852721 0.04780931
0001d0 e7 65 a6 bd d2 2c f0 bc f8 45 20 3d 50 34 16 3e
       -0.08124905 -0.029318247 0.039129227 0.14668393
0001e0 1f c8 82 3c d0 52 6b bd eb 4a d8 3d 1b ad c1 3c
       0.015964566 -0.057452023 0.105611645 0.023642113
0001f0 ee d6 11 bd 84 83 aa 3d 36 09 e8 3d 46 40 b5 bc
       -0.035605364 0.08325866 0.11329882 -0.022125375
000200 8d ac 9f 3c 10 95 2f 3d 79 bd 51 3a 24 1e 15 3c
       0.019491458 0.042866766 0.0008000951 0.009101424
000210 03 f5 c7 3c d0 c5 c8 3d d5 03 c6 bc e0 d9 0c 3d
       0.024408823 0.09803355 -0.02417175 0.03438747
000220 50 51 1b bd a9 0e af bd cc 6c 78 3c 68 0e f1 bb
       -0.037919343 -0.08547718 0.015162658 -0.0073564537
000230 e1 45 66 3c b1 14 bc bd 2b ed 3b bd eb e7 94 3c
       0.014054746 -0.09183634 -0.045880478 0.018176993
000240 54 21 0b 3d 9d a8 ae bd 39 1f aa bd 7c ab 48 bd
       0.03396733 -0.08528254 -0.083067365 -0.048991665
000250 df fe 7b bd 2b a5 48 3d 0c b7 2d 3d d5 50 66 3d
       -0.06152236 0.04898564 0.042410895 0.05622943
000260 5d d7 a0 3d eb 67 2e 3d 82 34 06 bd df 1e a8 bd
       0.07853577 0.042579573 -0.03276492 -0.08209013
000270 b1 b2 54 bd ad ad 88 bd ce bd 85 3d 2e e1 b3 bc
       -0.051928226 -0.06673751 0.06530343 -0.02195796
000280 e5 10 88 3d 5a 80 fe bc 13 3d 82 bd f0 b3 b8 3c
       0.066438474 -0.031067062 -0.06359305 0.022546738
000290 2f 72 ff bc bd 1c 0f 3c fd 02 82 3d 0d 11 c4 bd
       -0.031182377 0.008734879 0.06348226 -0.09573565
0002a0 4d d3 c7 bd 76 cf b1 3d bf d0 d0 3c 91 47 ae bc
       -0.09757099 0.08682148 0.025490163 -0.02127436
0002b0 b5 6a 21 3d c9 0e 78 bb 57 08 f4 3c 8f 01 b0 bd
       0.039408404 -0.003785061 0.029789133 -0.08594047
0002c0 1f c0 45 bd 34 80 1d 3c 1f aa 20 3c 02 60 6b bc
       -0.048278924 0.009613086 0.009806185 -0.014366152
0002d0 08 bb a0 3c b6 83 7e 3d eb cd a0 3d 7b 44 50 3d
       0.019620433 0.062137328 0.07851776 0.050846558
0002e0 92 fd 20 bd 54 a4 1a bd 53 0e 05 bd 11 71 45 bd
       -0.039304323 -0.03775437 -0.032484364 -0.04820353
0002f0 63 c4 d1 3c 65 82 cd 3b ef 2d 72 3d fe ae 59 bd
       0.02560634 0.0062716478 0.059125837 -0.0531454
000300 bb a8 68 3d 94 49 78 3d 45 0b cb 3d 17 21 68 3d
       0.05680154 0.060617045 0.09914259 0.056672182
000310 01 83 07 3d d3 01 9b bd 79 23 4d 3d 78 da bf bd
       0.03308392 -0.07568707 0.050082657 -0.093678415
000320 12 87 d6 3b 6e 33 c7 3d 70 66 9e 3b 57 95 06 bc
       0.0065468634 0.09726606 0.004833989 -0.008214316
000330 52 1d 88 bd eb 6e ab bd 54 8d 0f 3c 4b dc 84 3b
       -0.066462174 -0.08370765 0.008761723 0.0040545813
000340 52 8b 5c bd fb 7d e8 bb 6e 29 df 3b 55 cc 89 bd
       -0.053843804 -0.007095096 0.0068103587 -0.06728426
000350 8c fb 2b bb d8 59 a9 bd 13 d3 dc 3c e5 c5 4f bd
       -0.0026242463 -0.082690895 0.026956117 -0.050725836
000360 fe 47 38 3d 53 8d 8c 3d 3d 3b 3e 3d 58 4f 44 bd
       0.044990532 0.06862893 0.046443213 -0.04792723
000370 e8 52 0b 3d c0 7a 3b 3b 5f 81 9d bd 02 f6 93 3d
       0.034014612 0.00286071 -0.07690691 0.07224657
000380 e8 aa d9 3d db cb ca 3c e5 c3 a4 bd 4b 9c 42 bd
       0.10628301 0.024755409 -0.080451764 -0.047512334
000390 fa 30 b2 3a c1 46 9f 3d 95 0c ab bd ff c6 77 bd
       0.0013594918 0.07777167 -0.08352009 -0.06049251
0003a0 3a 34 e0 3c 0b 0c 3d 3d 1f 55 32 bd fa 65 93 bd
       0.027368654 0.046154063 -0.04353821 -0.07197185
0003b0 a2 61 85 bc 79 1e 51 3d 45 4e a3 3d a5 8b cd 3b
       -0.016281907 0.05105445 0.07973913 0.0062727504
0003c0 85 a6 3d bd 9e 3b 06 3d bc 53 2c 3d e2 ae fb bc
       -0.046301384 0.0327717 0.042072043 -0.030723039
0003d0 95 b6 33 3c be b2 7a 3d b5 7d a5 3b 08 ee 7d bd
       0.010968824 0.061205618 0.005050386 -0.061994582
0003e0 1a e3 54 bd 70 80 d3 bd 61 eb bf 3c 1a bb 75 3d
       -0.051974393 -0.10327232 0.023427667 0.059992887
0003f0 69 8b fa 3c e1 70 7b 3d 4b c1 66 bd 28 e5 87 3d
       0.030584054 0.061386947 -0.056336682 0.06635505

bias f4 [128]
000000 f4 1f 7a 3c ef 8c 47 bc f9 6c 5a bc 04 23 94 bd
       0.015266407 -0.012179597 -0.013331645 -0.07233241
000010 5a 09 4c 3d ab c5 9a bd cc 8b 9e bd f2 06 87 bd
       0.049813606 -0.075572334 -0.07741508 -0.065931216
000020 ff 48 22 3d 46 5d cb 3b 58 e1 f8 bc 8a 4d 93 3d
       0.039620396 0.0062061874 -0.03038089 0.07192524
000030 23 61 ab bd b9 e1 99 bb 13 a1 70 3d c8 af 8f 3d
       -0.08368137 -0.0046960977 0.058747362 0.070159495
000040 40 82 77 bd 37 30 ba bc 9e 0b 91 3d 30 fa fe bc
       -0.06042695 -0.022728069 0.07082294 -0.031125158
000050 cf 86 4d bd 12 05 9c 3d 35 57 ad 3d d4 b4 b8 3c
       -0.05017739 0.076181546 0.08463899 0.022547163
000060 48 88 20 bd 9b 3c 5d 3d 9b 58 5f bd 28 e2 86 bd
       -0.039192468 0.054012876 -0.05452786 -0.06586105
000070 43 64 b7 bc 67 09 8e bd f3 94 c3 3c 7a 1b 86 3d
       -0.022386676 -0.06935387 0.023874735 0.065482095
000080 30 26 7d 3d 43 0a 15 bd b5 99 81 3c a2 e0 10 bd
       0.061803997 -0.03638674 0.015820364 -0.035370477
000090 f7 60 77 3d d2 f5 c5 3b 14 69 a4 3d 0a f0 1b bd
       0.060395207 0.006041267 0.080278546 -0.038070716
0000a0 c6 a4 eb bc 85 d2 e9 ba 20 1a 8e bd f0 29 f9 3b
       -0.028765094 -0.0017839229 -0.06938577 0.0076038763
0000b0 15 b3 35 bb 60 d0 6a 3d 32 be 8b 3c 60 d0 91 3d
       -0.002772515 0.057327628 0.017058466 0.071198225
0000c0 a3 07 61 bd dc 11 da 3c 89 c5 23 bd 95 75 08 bd
       -0.054938924 0.026619844 -0.039983306 -0.03331526
0000d0 07 10 48 3d 27 d6 9f bd 0d 7f 98 3d 26 e6 6d bd
       0.04884341 -0.07804518 0.07446108 -0.058080815
0000e0 bb b9 31 3d 05 95 66 3c 97 91 a2 3d 31 cd 00 3d
       0.043390017 0.014073615 0.07937925 0.031445686
0000f0 fb 00 a2 bc 90 34 22 bd c1 94 2b 3d a1 6e 20 bd
       -0.019775858 -0.03960091 0.04188991 -0.039168004
000100 79 2a f2 bc e4 9c 21 3d ab 23 0e bd 2d 9a ad ba
       -0.029561268 0.039456263 -0.034701984 -0.00132448
000110 b7 49 5e bd 5b cf 21 bc 3e f0 b5 bc 2c 56 5e bc
       -0.05426952 -0.009876098 -0.022209283 -0.01357035
000120 e1 f4 16 3b bb 7e 03 3d 91 57 34 bd bf ed 10 bd
       0.0023034143 0.03210328 -0.044028822 -0.035382982
000130 7c 01 44 bc 68 31 46 bd d7 91 1a bc 4a 47 49 3d
       -0.0119632445 -0.04838696 -0.009434185 0.049140252
000140 7b bc 83 3d ec 79 8f bc c7 0a 5b 3d 8d 08 cd bc
       0.06432434 -0.017514192 0.053477075 -0.025028491
000150 6e e0 04 3d 48 d4 f4 bc 6d ac 64 3a dd 8b 88 bd
       0.032440595 -0.02988638 0.0008723203 -0.06667302
000160 c5 08 62 bc c1 70 1e bd 9b 8b 6f 3d b7 aa f8 bb
       -0.013796036 -0.03868175 0.058482748 -0.00758871
000170 44 d9 a9 bd bd bc e7 3c a7 63 4a bd 97 1a a5 3d
       -0.08293393 0.02828824 -0.049411442 0.08061712
000180 45 3f 82 3c 24 b8 01 3d ef 31 f3 bc 5c a6 b8 bd
       0.01589931 0.03166975 -0.029686896 -0.090161055
000190 43 62 7c 3d e1 b4 29 bd eb e0 6d 3d de 9d 46 bd
       0.061617147 -0.041432265 0.058075827 -0.048490398
0001a0 f5 e1 5c bc db 06 e2 3c 64 64 b7 3d 0e 0b 97 bc
       -0.013481607 0.02759116 0.08954695 -0.018437888
0001b0 85 88 f0 3c 1d bf 94 3d d4 eb 9d bd 04 14 b0 3d
       0.029361973 0.072630145 -0.07710996 0.08597568
0001c0 5b df 52 3c 22 5b 08 bd 78 0f 0c 3c 96 af 06 3d
       0.012870635 -0.033290036 0.00854861 0.032882296
0001d0 93 77 24 3d 6d db 87 bd e2 87 19 3d 59 a2 2b 3d
       0.040153097 -0.06633649 0.037483104 0.041902874
0001e0 eb a3 9a bd ed 79 dc 3c 6e 42 a6 3d 01 06 0e 3c
       -0.07550796 0.026913607 0.08118139 0.008668424
0001f0 a1 29 e0 bc ad be aa bc fb dd 92 bd cf 45 69 3d
       -0.0273636 -0.020842874 -0.07171246 0.05695134

weight f4 [128, 128]
000000 da 69 97 bc 19 f3 8e bd 1c bb 46 bc 65 18 4e bd
       -0.018483091 -0.06979961 -0.012129571 -0.050316233
000010 62 da b1 3c 02 1c 7a 3d 37 b1 50 bd 56 34 c0 3c
       0.021710578 0.061061867 -0.050950255 0.023462456
000020 b6 c3 2e bd 58 f3 0b bd eb 32 fc 3b 17 18 73 bd
       -0.042667113 -0.034167618 0.0076964996 -0.059349146
000030 48 ec ff 3d 1c 6a 11 3d 0f 90 ba 3c ba cf 08 3d
       0.12496239 0.035501584 0.02277377 0.03340123
000040 65 11 c1 3d 7d 61 23 3d dd 35 46 bd d2 c3 18 3d
       0.09427146 0.039887894 -0.04839121 0.037296124
000050 e7 11 73 bc f8 ac 0b bd a7 54 6b bd 1c b2 9b 3d
       -0.014835811 -0.034100503 -0.057453778 0.07602331
000060 0d b5 08 bd f2 30 13 3e 9b dd 25 bc 5b 0c 3e bd
       -0.03337579 0.1437414 -0.010123636 -0.0463985
000070 12 01 0f 3d 92 c4 59 bd 67 16 c1 3d cd 8d b7 3d
       0.03491313 -0.05316598 0.09428101 0.08962593
000080 2a f2 5b bc 4c 44 20 3c 49 7e 8d 3d e7 5c 39 3c
       -0.013424436 0.009781908 0.069088526 0.011313654
000090 f9 6f 4f bd 69 c6 7b bd 65 c1 ae 3d 4b 8c 0d bd
       -0.050643895 -0.061468516 0.08532981 -0.034557622
0000a0 f3 67 a5 bb 65 85 ca bc 06 1f 5e 3d 55 94 41 3b
       -0.005047792 -0.02472181 0.054228805 0.0029537876
0000b0 54 c4 59 bd ed 7c e6 3b fc 44 ba 3d cd 3e 98 bd
       -0.05316575 0.0070339353 0.09095189 -0.07433853
0000c0 ce 7c 5f 3d aa c8 03 bd a9 86 db bc 85 65 50 bb
       0.054562382 -0.03217379 -0.02679761 -0.0031798792
0000d0 a1 bb 19 3d 54 70 8f bc 55 50 01 bd b0 a8 26 bc
       0.037532452 -0.017509617 -0.03157075 -0.010172054
0000e0 b2 f9 69 3d c4 69 68 bd ae 5c a9 bd 23 e9 9a 3c
       0.057122894 -0.05674149 -0.0826963 0.018909996
0000f0 e2 88 4f 3d 38 a9 52 bd e4 d1 b7 3d 6f e3 63 bd
       0.05066765 -0.05143091 0.0897558 -0.05563682
000100 f8 72 20 3d 23 07 bc 3b d2 f2 b3 3d 0e 62 ec bc
       0.039172143 0.0057381555 0.08786549 -0.02885535
000110 da 8d 06 3d 8c 22 cb 3d c5 f0 c6 3b 24 b1 88 bd
       0.032850124 0.09918699 0.0060711824 -0.06674412
000120 05 2f a7 b9 63 5d f5 3b 10 bd 4e 3d 7b ea b0 bd
       -0.00031887754 0.007487939 0.050473273 -0.086384736
000130 e8 a5 98 bd 4b 8f 0b 3d 31 84 a0 3c 2b 14 b2 bc
       -0.07453519 0.0340722 0.019594284 -0.021738132
000140 b0 a0 67 3d c2 86 90 3c 31 23 df bc a1 56 9a 3c
       0.056549728 0.017642383 -0.02723846 0.018840136
000150 a9 17 25 3d 82 c6 c8 3c 36 fa 30 bb d4 66 cb 3d
       0.040305767 0.024508718 -0.0027004606 0.09931722
000160 87 70 2b 3c 12 58 5e bd 6d 5f 8f 3d 44 59 a1 3d
       0.01046384 -0.05428321 0.07000623 0.07878354
000170 cb ac 40 bc 3b 1c 71 bd 68 b1 c7 3d 2f 7e d2 bb
       -0.011759947 -0.058864813 0.097506344 -0.0064237337
000180 e0 72 d8 3d cc 5c 25 bd 2d fb b2 3b d6 b9 7f bc
       0.10568786 -0.0403717 0.0054620714 -0.015608272
000190 17 3d 32 bb 5c 62 af 3c 08 84 ab 3c 96 8b 17 3d
       -0.0027197057 0.021409206 0.02093698 0.036998354
0001a0 b2 d0 9b 3c 2c 08 8c 3d 05 55 05 3d 35 cf 34 3d
       0.019020412 0.06837496 0.032551784 0.04414292
0001b0 47 40 ba 3d 69 f9 f4 3d ab af 02 bd dd b7 d9 3c
       0.09094291 0.11961634 -0.03190581 0.02657693
0001c0 b8 13 bf 3d 93 91 f6 3c 6f 2e 93 3d 19 70 04 bd
       0.09329933 0.030098712 0.07186591 -0.032333467
0001d0 7f 88 8b 3b f8 b7 15 3c ef 1f 88 bd e0 5c fb 3c
       0.004258215 0.0091381 -0.06646716 0.030683935
0001e0 d0 42 b6 3c 53 8d 6a 3d d3 19 bc 3c 9b 52 14 bc
       0.022248656 0.057263684 0.022961533 -0.009052898
0001f0 e6 c4 eb 3c 86 4d d8 bc a8 fc 02 bd 15 d2 d5 3d
       0.028780412 -0.026404154 -0.031979233 0.104404606
000200 fa 0d cc 3c 80 1d ec 3b f9 c1 44 bd 98 10 6e 3d
       0.024909008 0.007205665 -0.04803655 0.058121294
000210 3f 63 a2 bd 1a 1f 73 bd 77 aa 16 bd ce 21 a9 3d
       -0.07929086 -0.059355833 -0.03678366 0.08258401
000220 18 77 31 3c 1d 9d 49 3c b8 0d a2 3c c4 aa 95 bb
       0.010831617 0.012305525 0.019781932 -0.004567476
000230 ca 07 31 bc 9d 3c 86 3c 74 a6 5e bd 29 f5 16 bd
       -0.01080508 0.016386325 -0.05435796 -0.036854897
000240 a1 7f 0d 3d 5d c4 5a bc 30 16 92 bd cc d2 70 bd
       0.034545545 -0.013352481 -0.07133138 -0.05879478
000250 47 1f a2 bc 7d e5 8f bd 20 8e 2d bd b4 d1 a7 bd
       -0.019790305 -0.07026193 -0.04237187 -0.081942946
000260 2c c6 1b 3d 04 b9 f9 bc aa 9c af 3a 88 e7 2e 3c
       0.03803079 -0.03048373 0.001339813 0.010675319
000270 ab ce 87 bc b7 62 2c 3d 31 23 83 bd 98 b7 2e 3c
       -0.01657804 0.04208633 -0.064031966 0.010663889
000280 0e b6 ee ba 24 36 58 bd cf 84 26 bb 98 40 19 3d
       -0.0018212216 -0.052786008 -0.002540875 0.037415117
000290 a6 8a a0 3d 00 ed 07 3d ef a3 16 3d 5e 37 aa 3d
       0.07838945 0.033185005 0.036777433 0.08311342
0002a0 01 38 23 3d 91 83 a2 bd 5c 3a 42 bc 36 cc e7 3c
       0.03984833 -0.079352506 -0.011854734 0.028295618
0002b0 90 a9 00 bd 1b 07 83 bd 45 a5 93 3d bc 3f 8c 3d
       -0.031411707 -0.0639784 0.07209257 0.06848094
0002c0 6b 99 16 3c 4b 3c a9 3c c7 b5 cb 3c f5 f8 07 bd
       0.009191851 0.020658633 0.024866952 -0.03319641
0002d0 66 0c 6f bd 6e 79 9c bd 25 43 1d bd 11 98 c5 bc
       -0.058361433 -0.076403484 -0.038394112 -0.024120362
0002e0 ba 7c 5c 3d c0 2f 3c 3d aa 2c 0e bd 6d c9 1f 3d
       0.053829886 0.045943975 -0.034710564 0.039010454
0002f0 21 30 55 bd 8c 34 a7 3d 77 64 67 bd e3 c5 9a 3d
       -0.052047852 0.081643194 -0.056492295 0.07557275
000300 05 84 ad 3d 8c 91 8a 3d db db 6e bd 27 53 a9 bd
       0.08472446 0.06766042 -0.05831514 -0.08267813
000310 f7 d0 a2 3d 4d 44 da ba 5c 42 2c bc a9 7f 1d 3d
       0.07950013 -0.0016652435 -0.010513868 0.038451824
000320 29 a9 36 bc 9b f2 68 3c 6a a2 ab bd d1 85 be bb
       -0.011148729 0.014217998 -0.083805874 -0.005814292
000330 15 7a 70 bb 71 5d 6a 3d 96 46 ba bd 5c 73 66 3d
       -0.003669386 0.05721802 -0.090954944 0.05626236
000340 d3 e5 2b bd 4c 77 a6 bc 7c 48 e8 39 4c 16 5c 3c
       -0.041967224 -0.020320557 0.00044304493 0.01343305
000350 c1 82 71 bc 3f 61 1e 3d da e3 f3 bc dc 9b 63 3d
       -0.014740647 0.03866696 -0.029771734 0.05556856
000360 d6 9d 7f bb 27 d1 48 bd 24 5c 53 b9 53 45 0f bd
       -0.003900399 -0.04902759 -0.00020156853 -0.034978222
000370 df 8d 38 bd e0 b9 d3 bc 49 a0 03 3d fa 1d 1f bc
       -0.045057174 -0.025845468 0.03213528 -0.009711737
000380 d7 da ca bb cf 03 13 bd 1a bc 9c bd 0c 46 23 bd
       -0.0061906385 -0.035892304 -0.07653065 -0.039861724
000390 a4 81 9d bd 7e 0f 87 bd 05 5e bd bc ef ed 4c 3c
       -0.076907426 -0.06594752 -0.023116121 0.0125079
0003a0 e2 91 0d bc 83 20 1a 3c 4a 3e 8f 3d 78 92 95 3d
       -0.008640738 0.009407165 0.069943026 0.07303327
0003b0 8a d5 96 3b 3f cf 86 bd 14 4d a1 3d 11 f3 18 3c
       0.0046030926 -0.06582498 0.078760296 0.009335295
0003c0 3c 68 8e 3d 0a 7c 90 bd 10 30 82 bd d0 e7 d3 3c
       0.06953475 -0.070549086 -0.063568234 0.025867373
0003d0 e2 2b 9d 3d 05 70 e3 3c f6 29 94 3d 7c d6 67 bd
       0.076743856 0.027763376 0.07234566 -0.056601033
0003e0 4c 7d 8a 3d ed 94 28 3d d2 7f 80 bd 24 b8 3a 3d
       0.0676218 0.04115765 -0.0627438 0.045585766
0003f0 f4 8a 6e bd 20 4c 9c 3d a6 8e b0 3d b2 02 e0 bb
       -0.058237985 0.07631707 0.08620958 -0.006836259

bias f4 [128]
000000 96 b1 66 bc e9 69 bf bb 76 30 80 3d 6a 5d b2 3d
       -0.014080426 -0.005841483 0.06259243 0.087092236
000010 88 d4 49 3d 3b c9 b5 3c d8 10 fa 3c 1a b9 69 bc
       0.04927495 0.02219068 0.03052561 -0.014265323
000020 39 f6 eb bc d2 5b f0 bc d7 0c 98 3d 56 9f b3 bb
       -0.028803932 -0.029340658 0.07424324 -0.005481641
000030 f0 f8 80 bd 8b 22 ac 3d c8 0b a4 bd 95 8c b3 3d
       -0.06297481 0.08405026 -0.080100596 0.08767048
000040 c9 fa 8a bd 47 82 97 bd 46 fe 49 bd d0 e2 0a bd
       -0.06786115 -0.07397895 -0.04931476 -0.03390771
000050 04 64 94 bc c2 17 7e 3d 7a f5 94 3d 09 70 21 3d
       -0.018114097 0.062034376 0.072733834 0.039413486
000060 da 3b 5b bd 63 85 c7 3d 8a bb dc bc e3 7b 43 bc
       -0.053523876 0.097422384 -0.026944894 -0.011931392
000070 2e 28 5a bb f8 e4 6f 3c 06 1b a1 bd 2f 4a b1 bd
       -0.003328811 0.014641993 -0.078664824 -0.086567275
000080 0d 15 a9 3d a2 a2 44 3d 11 ea 39 bd 77 73 cc 3d
       0.08255968 0.04800666 -0.04538924 0.09982961
000090 d0 97 f6 bc 72 a2 4b bc 2e bc 2d bc 98 d3 71 bc
       -0.030101687 -0.012428867 -0.010603948 -0.014759921
0000a0 bd c4 b5 3d b4 b8 8c 3c d7 50 eb 3c 91 bd a7 bc
       0.088754155 0.017177917 0.02872507 -0.020476134
0000b0 41 8c 19 3d 87 32 78 bd 03 aa 82 bd e4 ec 13 bd
       0.037487272 -0.06059506 -0.063800834 -0.03611459
0000c0 f7 d6 39 3d 2d cf 87 3d 39 e9 12 bd 75 47 2f 3d
       0.045371022 0.066313125 -0.03586695 0.042792756
0000d0 be 1d 75 3d 05 e1 02 3d cb af 22 bd 5d 6c bf bb
       0.059842817 0.031952877 -0.03971843 -0.0058417753
0000e0 f4 b7 1f 3c 17 7a 83 bc 27 31 5b 3d e2 01 1a 3c
       0.009748448 -0.016049428 0.053513672 0.009399863
0000f0 ee 04 27 3d 29 12 52 3c a0 d7 b0 3d 5a e9 3a bd
       0.040776186 0.0128217125 0.08634877 -0.045632698
000100 73 3b 4e bc 33 b0 5d 3d 65 4b aa 3d 24 c0 fe 3c
       -0.012587416 0.054123115 0.083151616 0.03109748
000110 49 ad a1 3d fa 97 c1 3d 84 3a 62 bd 74 17 52 bd
       0.0789438 0.09452815 -0.055231586 -0.051291898
000120 ad 3b 31 bd 9d 24 8d bd 25 f0 33 3d 80 1f bb bd
       -0.043269802 -0.06891749 0.04393019 -0.091368675
000130 73 b8 00 bd 55 1f ba 3b 6c 04 be 3d fe c4 f4 3c
       -0.031425904 0.0056800046 0.09278187 0.02987909
000140 51 b4 3b bd 44 e2 84 bb e2 bc 3a bd 35 94 90 bc
       -0.04582626 -0.0040552933 -0.04559029 -0.017648796
000150 ad 58 4f 3c 56 91 f0 3b 46 e1 39 bd 0c 4a 2d 3c
       0.012655419 0.007341544 -0.045380853 0.010576736
000160 7e 5e 91 bd 73 39 b4 bd fc ee 85 3d 9e 04 db bc
       -0.07098101 -0.0880002 0.06539723 -0.0267356
000170 e9 39 46 bd 25 33 99 3b 6e 1e 3f bd de b3 64 bd
       -0.04839507 0.0046752864 -0.04665988 -0.055835597
000180 fb 5a a6 bd 1d 68 94 bd 31 3e 9c 3c bc a6 9e bd
       -0.08122822 -0.072464205 0.019072624 -0.07746646
000190 09 fd b8 bd 9e 18 e6 3c 85 a9 89 3d fd 66 52 3c
       -0.090326376 0.02808791 0.067217864 0.012841937
0001a0 b5 7e 84 3d 5e 5e 45 bb f1 81 a7 bd d3 3d 63 bd
       0.0646948 -0.0030116062 -0.08179081 -0.055478882
0001b0 da 4f 52 bd 5a 85 91 3d 61 72 99 bc 75 ee 85 bd
       -0.051345684 0.07105513 -0.018731298 -0.06539623
0001c0 45 8e 8d 3d aa 04 70 3d e8 7c 13 3c be 84 43 3c
       0.069119014 0.058598198 0.009001948 0.011933504
0001d0 cc e0 b0 3c 40 be 7b 3d b0 ac 8d bd ec dc 83 bd
       0.021591567 0.061460733 -0.06917703 -0.06438622
0001e0 1e 95 97 3d 5e 88 b3 3a 98 55 80 3c ab 25 c9 3d
       0.07401489 0.0013697257 0.015665814 0.09821638
0001f0 1f f7 9d bd 8b 69 0f 3d f6 98 e9 3c 12 5a 41 3d
       -0.0771315 0.035012763 0.02851532 0.04720504

weight f4 [128, 128]
000000 d7 96 87 bd fa a3 29 3d 96 57 45 3d a3 5d 54 bd
       -0.06620567 0.041416146 0.04817923 -0.05184711
000010 fb b2 98 3d e3 d7 58 3d a6 70 60 3d 6d 34 95 3d
       0.07456013 0.05294026 0.05479493 0.0728539
000020 78 bc 91 3d 80 3c 86 3d 00 eb a3 bd 49 c9 b4 3d
       0.07116026 0.06554508 -0.08003807 0.088274546
000030 4c 59 b2 bc 71 6a 17 bc 19 26 bd bd 96 f3 a5 3b
       -0.021771096 -0.009241686 -0.09235782 0.005064438
000040 75 ed b5 bd ff 66 0e 3d d4 a5 28 bd 0a 10 6c 3c
       -0.08883182 0.034766193 -0.04117377 0.014408121
000050 71 78 f2 bb bd 74 71 3d c2 ea 78 bc c1 7f 6c 3d
       -0.0073996116 0.05894922 -0.015192689 0.057739023
000060 22 a3 9e bc ce 8d 3f bd 1a a4 a4 3c 2d 36 88 3c
       -0.019364897 -0.046766095 0.020097781 0.016627396
000070 bf 4d 36 3d b9 7e 9f 3d b1 80 c3 bc 6c 86 ac 3d
       0.04450774 0.07787842 -0.023865076 0.084240764
000080 87 99 21 bd af 09 47 bd 0d 81 91 bd 77 09 b1 3c
       -0.039453056 -0.04859322 -0.071046926 0.021610959
000090 bb 75 26 3c 5f 5c a1 3b be 28 58 3d 61 46 d7 3c
       0.010159905 0.0049243416 0.05277323 0.026278676
0000a0 74 fa 80 3b 16 ab e2 3c a8 ab 37 bc ba f3 d6 3b
       0.0039361063 0.02766947 -0.01121036 0.006559816
0000b0 26 cf 54 bd 65 14 c9 3d 04 69 a7 bd b5 84 37 3d
       -0.051955365 0.09818343 -0.08174327 0.044804294
0000c0 80 e3 e8 3d 81 2a 5d bd 62 58 dc 3d 48 52 ca bd
       0.11371517 -0.053995613 0.10759045 -0.09878975
0000d0 06 f7 74 bd c8 cc 68 3d 6a 6d 59 bd a0 50 5e 3d
       -0.059805892 0.05683592 -0.05308286 0.05427611
0000e0 22 a7 63 3d e0 39 a9 bd bd fe c8 3d 32 bf 84 bd
       0.055579312 -0.08262992 0.098142125 -0.0648178
0000f0 49 3f a8 bd 96 06 36 bd 68 2a 6b 3d 9f 43 50 3d
       -0.08215196 -0.044439875 0.05741349 0.05084574
000100 e3 95 bc 3b 47 44 01 bc 32 5d 3b bc e9 8e 9b bd
       0.0057551726 -0.007889814 -0.011435794 -0.07595617
000110 8b d4 5b bd e5 ed aa 3d 3d 5f 58 3d 0e bf c0 bb
       -0.053669494 0.08346156 0.0528252 -0.0058821505
000120 1e 5d 19 bd af 68 fb bc 66 96 af bd 73 34 82 3d
       -0.03744232 -0.030689565 -0.08573608 0.0635766
000130 a3 5e 09 bd 64 61 60 3d 4f a9 4e 3d aa 2b 9f 3c
       -0.03353752 0.05478038 0.050454434 0.01943
000140 f5 99 1c 3d b6 3a ba 3b d4 4e 83 3d f3 84 96 bc
       0.038232762 0.0056832684 0.0641152 -0.018373942
000150 e5 0a bb bd 4d cf 66 3d e3 c1 d1 bc 13 e8 e7 3c
       -0.09132937 0.05635004 -0.025605148 0.028308904
000160 98 a3 8d 3d 7e fa 93 3b d6 e1 80 bd 77 6b 95 3b
       0.06915969 0.004515945 -0.06293075 0.00455993
000170 3c 88 8f 3d 6b a0 68 bd f6 6e 38 bd bd 02 7d bd
       0.070084065 -0.05679361 -0.045027696 -0.06177019
000180 59 01 51 bd f8 05 4b 3c 14 d0 c9 3b bc 9c 85 3d
       -0.051026676 0.01239156 0.006158838 0.06524035
000190 ab 54 05 bd 18 dc 90 3d 46 54 d1 3d 7b d2 dd 3d
       -0.03255145 0.070732296 0.10221152 0.108311616
0001a0 56 ea f7 3c 33 51 e0 3c 57 32 36 bc 1d 54 b1 bc
       0.030263107 0.027382469 -0.0111204 -0.021646554
0001b0 57 0b ae 3a b4 11 ba 3d cd 58 39 bd 6c 19 a8 3d
       0.0013278526 0.09085408 -0.045250703 0.08207974
0001c0 56 c2 d5 3b d3 fa df 3d 24 5c 97 3d 92 50 29 bd
       0.006523411 0.10936513 0.07390621 -0.041336603
0001d0 68 b8 ac 3d 8b 52 2f bc a8 d4 a7 3b 99 bd 6a bd
       0.0843361 -0.010700832 0.005121786 -0.05730972
0001e0 9f 63 7b 3d 3b 4e 61 bc 0d 64 6a 3c 73 98 e2 3d
       0.061374303 -0.013751562 0.0143060805 0.11064234
0001f0 a7 d4 0e 3d ef ac 83 3d 44 ea 16 3d 4b 93 05 bd
       0.03487077 0.06429469 0.036844507 -0.032611173
000200 88 22 59 3a f8 89 f3 bc 0e 2c 93 bd c6 40 78 3d
       0.00082830386 -0.029728875 -0.07186137 0.060608648
000210 bb 7e 00 3c 0c e2 32 3b 86 90 40 3d 31 85 58 bd
       0.007842715 0.002729538 0.04701283 -0.052861396
000220 a8 c7 ad bc c0 9f 20 3d a4 df 1a bd 0e d5 cf 3c
       -0.021213368 0.03921485 -0.037810937 0.025370147
000230 c7 3f 78 3d bd 36 3c bd df bc 1d 3c 03 84 60 bd
       0.060607698 -0.04595064 0.00962755 -0.054813396
000240 4e e9 b9 3b 62 3b 78 3d 63 ef 18 bd e6 87 c4 3b
       0.005673564 0.060603507 -0.037337672 0.0059976457
000250 03 33 a1 3d f3 30 0c bd d2 9b 8f 3d 60 4c 88 bc
       0.07871058 -0.03422637 0.07012142 -0.016637981
000260 67 92 62 3c 5c e3 0d bc f4 9a 69 bd cf da cc 3c
       0.01382885 -0.008660164 -0.05703254 0.02500668
000270 0d 3c 8c 3d 4e 02 e2 3c dc 48 5c 3d c0 ee 65 3d
       0.06847391 0.02758899 0.05378042 0.056135893
000280 d3 64 70 bc 50 23 81 3c 37 0e a6 3d 8a 0d 8e 3d
       -0.014672476 0.015763909 0.0810818 0.06936176
000290 8c 8f c7 3d cf 68 f4 38 bf fb 35 3d fa 4d 42 3d
       0.09744176 0.00011654349 0.044429537 0.047437645
0002a0 98 a1 b9 bd 90 f5 8d bd 7c 06 82 3d 8f 8b b9 b9
       -0.09064025 -0.06931603 0.06348893 -0.0003538993
0002b0 15 71 98 bc 6d e2 c6 bc 89 35 90 bb 09 4b 6c 3d
       -0.01860861 -0.02427789 -0.004400913 0.057688747
0002c0 c3 7b 6c bd 68 74 85 3d 24 a0 87 3d a4 24 6e bd
       -0.057735216 0.06516343 0.06622341 -0.058140412
0002d0 9b 39 ba bc 9c 0d d8 bc 8d 61 f2 bc 3d dd 23 3d
       -0.022732547 -0.026373677 -0.029587531 0.04000591
0002e0 43 0a ca bd 34 78 20 3d 86 63 c3 bd b1 ca 80 bd
       -0.098652385 0.039177135 -0.09540467 -0.0628866
0002f0 40 e4 1a bd 6a ec 20 bd b4 c2 ba 3d 9f 6d 9d bd
       -0.037815332 -0.039287962 0.09119168 -0.07686924
000300 99 10 93 bd e0 db b2 bd 02 c1 80 3b 13 96 85 3c
       -0.071809 -0.08733344 0.0039292583 0.016306913
000310 7c fc 2e 3d 8c d3 ed 3a 94 d5 f7 ba 16 7c 4c 3d
       0.042721257 0.0018144711 -0.0018908256 0.049923025
000320 56 e7 ba bc 42 4f db 3d 63 0c 85 bd eb 36 84 bd
       -0.022815388 0.107084766 -0.06496503 -0.06455787
000330 35 1b e9 bc c7 07 ae bd 28 a2 55 bb cc 86 69 3d
       -0.028455356 -0.08497577 -0.0032597873 0.057013318
000340 11 e3 34 3d d4 67 fb bc 28 0a 9b 3c b6 09 2b bd
       0.04416186 -0.030689158 0.018925741 -0.041757308
000350 9c e7 91 ba b6 75 ad 3d df bc 97 3d 17 ab cf bb
       -0.0011131647 0.08469717 0.07409071 -0.006337534
000360 3d 49 64 bd 10 36 2a bd 8b ed 7d bd cf 22 8c bd
       -0.055733908 -0.041555464 -0.061994117 -0.06842577
000370 fd 4a f8 bb 36 3a 63 bd d8 84 ab 3d 1d 24 38 bd
       -0.0075772987 -0.055475436 0.08374947 -0.044956315
000380 6d 4e 4f 3d 7d 27 f4 3c 49 c3 92 3d b1 13 1b 3d
       0.050611902 0.029803986 0.07166154 0.037860576
000390 81 42 29 3d 44 d8 a9 bd 24 67 43 3d e9 09 93 3d
       0.04132319 -0.082932025 0.047705784 0.071796246
0003a0 a5 81 5c 3d 3e eb bd bc b3 5e 47 3c 1c b9 67 bd
       0.053834576 -0.023183461 0.012168574 -0.05657302
0003b0 90 3a a3 3d 36 16 a0 3d 8e cd a6 3d fc c5 65 bd
       0.07970154 0.078167364 0.08144675 -0.056097016
0003c0 d3 92 8a 3c 5f dd 00 bd b9 0c 6a bd 18 50 3d bd
       0.016915714 -0.031461116 -0.05714104 -0.04621896
0003d0 70 d3 f6 3a b4 e8 96 bd 1c bb 3d 3c a5 ce 20 bc
       0.0018831324 -0.07368603 0.011580255 -0.009814893
0003e0 22 4b 32 3d 03 d3 65 3c 86 d7 ca bd 17 d3 5d bd
       0.043528683 0.01402736 -0.09904389 -0.05415639
0003f0 85 9f 88 bd f8 9b be 3d 8e 22 8d 3d 67 13 a9 3c
       -0.06671051 0.093070924 0.068913564 0.020639135
