models/agModels-predicttop10_votes/models/NeuralNetTorch_BAG_L1/S6F8/net.params (torch, 248949 bytes, 16 tensors)

weight f4 [6, 4]
0	0xbf910be7	-1.1331757
1	0xbf926d3e	-1.1439588
2	0xbe83ad65	-0.25718227
3	0xbed75f04	-0.4206468
4	0x3f59baf9	0.8505092
5	0x3f301af9	0.68791157
6	0xbe9f0a30	-0.3106246
7	0xc007bf4c	-2.1210508
8	0x3ef3146b	0.47476515
9	0xbe279815	-0.16366608
10	0x3fbab76d	1.4587227
11	0x3e87080d	0.2637333
12	0x3e2a9ea5	0.1666208
13	0x3f604baa	0.87615454
14	0xbe1223b6	-0.14271435
15	0xbddd9b00	-0.108205795
16	0x3f70546c	0.9387882
17	0x3f9ff7d4	1.2497506
18	0x40002d8c	2.00278
19	0x3d29dbfe	0.041469567
20	0x3f13c793	0.577264
21	0xbebec5ec	-0.37260377
22	0xbf4cc9be	-0.79995334
23	0xc0118f33	-2.2743652

weight f4 [6, 4]
0	0xbe4ff440	-0.20308018
1	0xbf393e9f	-0.7236118
2	0x3f0b8fb4	0.5451615
3	0x3e7ae948	0.24503052
4	0xbe2ae1cb	-0.16687696
5	0xbf2d027c	-0.67581916
6	0x3f6fdda6	0.93697584
7	0x3ef78adb	0.48348126
8	0xbf13460a	-0.57528746
9	0x3f680b38	0.9064212
10	0x3f914817	1.1350125
11	0x3fa760f8	1.3076468
12	0xbfbd16ae	-1.4772546
13	0x4024e535	2.5764897
14	0xbefb9d7c	-0.4914359
15	0x3ea6f4c1	0.32608607
16	0xbfd25c3f	-1.6434401
17	0xbf11b643	-0.56918734
18	0xbeeaf61e	-0.45890898
19	0xbef36b66	-0.47542876
20	0xbf834989	-1.0256816
21	0x3f896c10	1.0736103
22	0xbdd4a83b	-0.1038365
23	0x3f43c223	0.76468104

weight f4 [6, 4]
0	0xbdd6d290	-0.1048938
1	0x3f2d0ef8	0.67600965
2	0xbf57ef53	-0.84349555
3	0xbc059fe8	-0.0081558
4	0x3f5ae57f	0.85506433
5	0xbec5955a	-0.3859051
6	0x3f8601cb	1.0469297
7	0x3ebe51cb	0.37171778
8	0x3dbbf205	0.09177021
9	0x3f90d42d	1.1314751
10	0x3e95f187	0.29285833
11	0x3eea89ad	0.45808163
12	0xbf4fad9c	-0.8112428
13	0xbfa7b561	-1.3102227
14	0xbf3fe0d3	-0.7495243
15	0xbfa9d197	-1.3267087
16	0x3e53ddde	0.20690104
17	0xbea9e2e2	-0.3318091
18	0xbedfa19f	-0.43677995
19	0x3e722b89	0.2364942
20	0x3f417db9	0.7558246
21	0xbe165516	-0.14680895
22	0xbea909f8	-0.33015418
23	0xbf959e81	-1.1688997

weight f4 [6, 4]
0	0xbf2f6a62	-0.685217
1	0x3f861bd3	1.0477241
2	0xbf171b6c	-0.5902622
3	0xbfa49ae8	-1.2859774
4	0x3dac7608	0.0842095
5	0xbf2d7271	-0.6775275
6	0x3f1be0a1	0.6088963
7	0xbf39f999	-0.7264648
8	0xbe8d2e7f	-0.27574536
9	0x3dc98680	0.09840107
10	0x3e751d10	0.23936868
11	0x3f969d0d	1.1766678
12	0x3e9ac341	0.30227092
13	0x3ecbf0a5	0.39832035
14	0xbe3ffb52	-0.18748215
15	0xbe0076bd	-0.12545295
16	0x3e3f2112	0.18664959
17	0xbf46e86c	-0.776984
18	0xbff2ce16	-1.8969142
19	0x3e0b11d5	0.13581021
20	0xbf29d193	-0.6633541
21	0x3e8cd6c5	0.27507606
22	0x3df5d19a	0.12002869
23	0x3eb0c9fe	0.34529108

weight f4 [6, 4]
0	0x3f7539bc	0.9579122
1	0xbf7e2de8	-0.992888
2	0x3e9b81d4	0.30372488
3	0xbdedad63	-0.116053365
4	0x3f80acd9	1.0052749
5	0xbefb722a	-0.49110538
6	0x3f42bef4	0.7607262
7	0x3f203b77	0.62590736
8	0x3f7c44bf	0.985424
9	0xbfbda499	-1.4815856
10	0x3f143ac9	0.579022
11	0x3e2b759c	0.16744083
12	0x3de797a5	0.11308221
13	0xbf52c6bc	-0.82334495
14	0x3f22cf16	0.6359724
15	0xbff6e337	-1.928809
16	0x3fa9a2c7	1.3252801
17	0xbe49573a	-0.1966218
18	0x3f46d3af	0.77666754
19	0x3f815653	1.0104469
20	0x3ebfbf52	0.37450653
21	0xbfbbd54e	-1.467447
22	0x3fff48a8	1.9944048
23	0x3dc2c1df	0.09509634

weight f4 [26, 9]
0	0xbf054eed	-0.52073556
1	0xbfd8d0a3	-1.6938671
2	0xbf048a33	-0.51773375
3	0xbef83a39	-0.4848192
4	0xbf2445a2	-0.6416875
5	0xbfba6905	-1.45633
6	0xbf5c3c63	-0.8602964
7	0xc003c475	-2.0588658
8	0xbf8ae168	-1.0850039
9	0xbf39d6dd	-0.7259348
10	0x3c512593	0.012765306
11	0x3eabed3d	0.33579436
12	0xbe8960dd	-0.26831713
13	0x3fa2d2b3	1.272055
14	0x3cb102f9	0.021607863
15	0xbf6118ee	-0.87928665
16	0x3ee195d8	0.44059634
17	0xbb8b264b	-0.0042465082
18	0x3faae6e8	1.3351717
19	0xbe8e16d2	-0.27751786
20	0xbf0c82a3	-0.54886836
21	0xc03862e6	-2.8810363
22	0xbfc1de9a	-1.5146058
23	0x3f832a60	1.0247307
24	0x3e43c439	0.19117822
25	0xbf3b9040	-0.73266983
26	0x3fd986e7	1.6994294
27	0x3eaf5ba2	0.34249598
28	0x3f7e4344	0.9932139
29	0x3fb79575	1.4342486
30	0xbd6709bd	-0.05640577
31	0xbf259647	-0.6468243
32	0xbf26d8ff	-0.6517486
33	0x3fdd929a	1.7310364
34	0xbf71c038	-0.9443393
35	0xbf1ed567	-0.62044376
36	0x3d96b1e1	0.073581465
37	0x3f0ffc0e	0.5624398
38	0x3f074ac4	0.5284846
39	0x3f9f5bdd	1.244991
40	0xbf8c737c	-1.0972743
41	0xbfdc78b0	-1.7224331
42	0x3fc2738b	1.5191511
43	0xbb81a6f3	-0.0039566695
44	0xbfcda312	-1.606539
45	0x3d7c43e3	0.06158818
46	0xbf23376a	-0.6375643
47	0x3f404fd6	0.7512182
48	0x3f988b83	1.1917576
49	0xbe1200a4	-0.14258057
50	0xbd320ff9	-0.043472264
51	0x3f218182	0.6308824
52	0x3f0509d7	0.5196814
53	0x3e547f40	0.20751667
54	0x3d6af34d	0.057360936
55	0x3f21de09	0.63229424
56	0x3d2a9dd7	0.041654434
57	0xbf81bced	-1.013578
58	0x3f3be372	0.7339393
59	0x3f8e33fc	1.1109614
60	0x4008fcdd	2.1404335
61	0xbf69195e	-0.9105433
62	0xbf2d242d	-0.67633325
63	0xbf176f03	-0.59153765
64	0x3fc1ffd6	1.51562
65	0xbf37a93f	-0.71742624
66	0x3e2a9b13	0.16660719
67	0x3fac21a6	1.3447769
68	0x4003758b	2.0540493
69	0x3f285894	0.6576016
70	0xbf3554ce	-0.70832527
71	0xbeefb5e8	-0.4681847
72	0x3e8ac535	0.27103582
73	0xbf15d86f	-0.58533376
74	0x3f6f30ca	0.9343382
75	0x3ef8cf56	0.48595685
76	0xbf525561	-0.8216153
77	0x3fa0e091	1.2568532
78	0x3e88aee0	0.2669592
79	0xbf20e46d	-0.6284855
80	0xbf6b095c	-0.91811156
81	0xbf15dbf6	-0.5853876
82	0x3e1a48b6	0.150668
83	0xbf854bee	-1.0413797
84	0xbf38c1dc	-0.72170806
85	0xc00dbde9	-2.2147162
86	0xbf2ea09b	-0.68213814
87	0x3f03bbc8	0.51458406
88	0x3f4b24f3	0.79353255
89	0x3daa2496	0.083077595
90	0x3ed8ba73	0.4232975
91	0xbfecb338	-1.8492193
92	0xbf8e9d68	-1.1141787
93	0x3e110165	0.14160688
94	0x3f15af4d	0.5847061
95	0x3fae17e2	1.3601038
96	0xbfc7bba1	-1.5604135
97	0x3ebf3be1	0.3735037
98	0xbfacf0b4	-1.3510957
99	0xbe4412ec	-0.19147843
100	0xbe884672	-0.26616246
101	0xbf9c1ee6	-1.219693
102	0x3f226687	0.63437694
103	0xbf9b86d3	-1.215052
104	0xbf8f75c7	-1.1207818
105	0x3ec015d2	0.37516648
106	0xbf49b9b2	-0.78798974
107	0xbf6347c6	-0.8878139
108	0xbf3b3788	-0.7313161
109	0x3f065864	0.52478623
110	0x3ec177a1	0.37786582
111	0x3f210a7f	0.6290664
112	0xbfb878bf	-1.4411849
113	0xbf4c35f9	-0.79769856
114	0x3f99f90c	1.2029128
115	0xbfe8393b	-1.8142465
116	0x3ed9c82f	0.4253554
117	0x3f8fcd06	1.1234443
118	0x3edd441f	0.43216035
119	0xbf91accc	-1.1380858
120	0xbec81a4c	-0.39082563
121	0xbeaaaca0	-0.33334827
122	0x3f74c4a3	0.95612544
123	0xbee7de73	-0.45286903
124	0xbf1c26b9	-0.60996586
125	0xbeb77bb2	-0.3583656
126	0xbfbdefb6	-1.4838779
127	0xbf08191a	-0.531633
128	0x3f972950	1.1809483
129	0x3f46cfb0	0.77660656
130	0x3ecd378d	0.40081444
131	0x3e8f5ba2	0.27999598
132	0xc03126aa	-2.7679849
133	0xbf585f37	-0.84520286
134	0x3ef0f093	0.47058544
135	0x3e951aaa	0.29121906
136	0xbf913d74	-1.1346879
137	0x3ba6f32c	0.0050949063
138	0xbe1cc718	-0.15310323
139	0xbe6f9498	-0.23396528
140	0x4019b062	2.4013906
141	0x3fd0d700	1.6315613
142	0xbe9e91f3	-0.30970725
143	0xbfc0ce11	-1.5062886
144	0xbf11dbab	-0.5697581
145	0xbf507790	-0.8143244
146	0xbfb3cbbf	-1.4046553
147	0xbed30fc6	-0.41222972
148	0xbea33654	-0.31877387
149	0xbd5b5ae8	-0.05355349
150	0x3f07baf0	0.5301962
151	0xbfcae6c7	-1.5851678
152	0x3ebcd24f	0.36879203
153	0xc012ee62	-2.2957997
154	0xbf5db225	-0.8659995
155	0xbfd6e0b6	-1.6787326
156	0x3f0d611b	0.55226296
157	0xbfb90f0d	-1.4457718
158	0x3f388148	0.7207227
159	0xbfafc791	-1.3732778
160	0x3ea726ef	0.3264689
161	0xbdcda6ad	-0.100415565
162	0x3e4f8c3d	0.2026834
163	0x3f9b402f	1.2128962
164	0x3f9e81fb	1.2383417
165	0xbdd81fcb	-0.10552939
166	0x4008a23f	2.1349027
167	0x3d8825f9	0.06647868
168	0x3efb7875	0.4911534
169	0x3d75ccad	0.060009647
170	0x3ece916f	0.40345332
171	0xbfe059ba	-1.7527382
172	0x3f9a71cd	1.2065979
173	0x40285374	2.6300936
174	0x3e5ffafc	0.21873087
175	0x3ea54db8	0.32285857
176	0xbf8f1abd	-1.1180035
177	0x400cfca1	2.2029192
178	0x3e05a728	0.13052046
179	0x3f4ba34f	0.79546064
180	0xbf8bc810	-1.0920429
181	0xbd922306	-0.071355864
182	0xbfbe8999	-1.4885741
183	0xbfe0ef0d	-1.7572953
184	0xbff28402	-1.8946536
185	0xb8387162	-4.3974615e-05
186	0xbffdc280	-1.9824982
187	0xbff88b7e	-1.941757
188	0x400878cb	2.1323726
189	0xbf75f72e	-0.9608029
190	0xbf13ee07	-0.57785076
191	0x3fd42f61	1.6576959
192	0x3e9efcd8	0.3105228
193	0xbf315fdd	-0.692869
194	0xbd36d4c5	-0.044636507
195	0x3fe9d455	1.8267924
196	0xbf0faf89	-0.5612722
197	0x3f447f74	0.7675698
198	0x3f344cfd	0.70429975
199	0x3fbf31fb	1.4937128
200	0xbf1d5e7a	-0.61472285
201	0xbe198d6f	-0.14995359
202	0x3f026d96	0.50948465
203	0xbef5d150	-0.48011255
204	0xbff33f4f	-1.9003695
205	0x3f38f18f	0.7224359
206	0xbdebb280	-0.115086555
207	0xbfb5b985	-1.4197241
208	0xbf0bb16a	-0.5456759
209	0xbfb8f4d2	-1.4449713
210	0xbf2d66c6	-0.67734945
211	0x3f81e63d	1.0148388
212	0xc00eaf81	-2.229462
213	0x3eea94cd	0.4581665
214	0xbf086d3e	-0.5329169
215	0xbd353e82	-0.044249065
216	0x3f28e1ab	0.6596934
217	0x3f80c908	1.006135
218	0xbefd67e7	-0.49493334
219	0x3ee36068	0.4440949
220	0x3fac829f	1.3477362
221	0x3ee3b90f	0.44477126
222	0xbf0085f2	-0.50204384
223	0xbe322830	-0.17398143
224	0xbe3b13a4	-0.18269211
225	0x3dfce92e	0.12349163
226	0x3ea39432	0.31949002
227	0xbf367572	-0.7127296
228	0x3e433019	0.19061317
229	0xbe5c83f7	-0.21534716
230	0x3fc4ed26	1.5384872
231	0xbe525071	-0.20538498
232	0xbbd4319c	-0.0064756405
233	0x3cb67191	0.02227095

weight f4 [128, 76]
0	0x3dab54c0	0.08365774
1	0x3d174678	0.03693244
2	0x3ddc3f6d	0.10754285
3	0x3d4cd3de	0.05000674
4	0xbdac32e7	-0.08408146
5	0x3dc8a6e6	0.09797458
6	0x3c0efc65	0.008727168
7	0x3d3063fd	0.043064106
8	0xbdd0d029	-0.101959534
9	0xbcc68ecf	-0.024238018
10	0xbdf34deb	-0.11880096
11	0xbd312982	-0.043252476
12	0x3cde3fd7	0.02713005
13	0xbdc1a0b6	-0.09454481
14	0x3d05f560	0.03270471
15	0x3d5b5618	0.053548902
16	0xbb38b467	-0.00281837
17	0xbd9c38ab	-0.07627996
18	0xbdb07cd4	-0.08617559
19	0xbd090db2	-0.033460326
20	0x3d523b16	0.05132588
21	0x3dead836	0.1146702
22	0x3d843faf	0.06457459
23	0xbc36a981	-0.011148811
24	0x3d2dfaa0	0.042475343
25	0xbde20550	-0.110361695
26	0xbdc97e98	-0.09838599
27	0x3d6d9d6f	0.05801147
28	0xbd83ae53	-0.06429734
29	0x3d6af3f5	0.05736156
30	0xbd9df931	-0.07713545
31	0xbd685514	-0.05672176
32	0xbdbd0d05	-0.09230999
33	0x3d80b1d6	0.062839195
34	0xbc21c97c	-0.009874698
35	0x3db57d50	0.08861792
36	0x3d951acb	0.07280501
37	0x3d8bd07a	0.06826873
38	0x3c0da730	0.008645818
39	0xbd185ff3	-0.03720088
40	0xbcd1b917	-0.025600953
41	0x3c734c33	0.01484971
42	0x3d61781a	0.05504618
43	0xbda7b757	-0.08189266
44	0x3da9138e	0.08255683
45	0x3afa6406	0.0019103296
46	0xbda0acb3	-0.0784544
47	0xbd91bda4	-0.07116249
48	0x3dcfb2dd	0.10141537
49	0x3dc97e69	0.09838564
50	0xbdc874f5	-0.09787933
51	0x3d993622	0.07481028
52	0x3d8c0d31	0.068384536
53	0x3d4f57ad	0.050620724
54	0x3dba2d3e	0.090906605
55	0xbd9fbb5f	-0.0779941
56	0x3cd67a4f	0.026181368
57	0x3d00f547	0.031483915
58	0xbd426727	-0.047461655
59	0x3d36e525	0.044652123
60	0xbc85771f	-0.016292153
61	0x3d53eccc	0.0517395
62	0xbcc7908b	-0.024360916
63	0xbd5b9e46	-0.05361774
64	0x3cf191f6	0.029488545
65	0x3d194527	0.037419464
66	0xbd87410a	-0.06604202
67	0x3caad0df	0.02085155
68	0x3d90cfd0	0.07070887
69	0xbb833297	-0.0040038335
70	0x3d1491a4	0.036271706
71	0xbcd74d1a	-0.026281882
72	0x3d1e4159	0.03863654
73	0xbdae40c4	-0.08508447
74	0xbd6fd197	-0.05854949
75	0xbd692c2d	-0.056926895
76	0x3d9827c8	0.07429463
77	0xbd73cc38	-0.05952093
78	0xbad02739	-0.001588083
79	0xbd6867b4	-0.056739524
80	0x3deced58	0.11568707
81	0x3de39f16	0.111143276
82	0xbdb84865	-0.08998183
83	0xbdd62a43	-0.104572795
84	0xbdcccbff	-0.09999847
85	0x3c0a5221	0.008442433
86	0xbd0289d8	-0.03186974
87	0xbd9dfc53	-0.07714143
88	0xbd0db3d3	-0.034595322
89	0x3c93538c	0.017984174
90	0xbd8ccf96	-0.068755314
91	0x3cb8846f	0.022524087
92	0xbd2c5e8b	-0.04208235
93	0xbd5696ae	-0.052389793
94	0x3ca3db0a	0.020001907
95	0x3dce9070	0.10086143
96	0xbd95540a	-0.0729142
97	0x3bb76130	0.0055963024
98	0xbd2ef38c	-0.042712733
99	0x3dee6dfd	0.11642072
100	0xbdde0769	-0.10841257
101	0xbde2e4ae	-0.110787734
102	0x3de73778	0.11289877
103	0xbd97019b	-0.07373353
104	0x3cccb6c2	0.02498949
105	0xbc0e5aa9	-0.008688607
106	0xbcdadde9	-0.026717143
107	0xbcd5a199	-0.026078032
108	0x3d9396f0	0.072065234
109	0x3b8228b3	0.003972137
110	0xbde30f97	-0.11086958
111	0xbd8b1ece	-0.06792985
112	0xbd223d84	-0.039609447
113	0x3d61a033	0.05508442
114	0xbd9d6939	-0.07686085
115	0x3ddb7416	0.10715501
116	0xbcb33557	-0.02187602
117	0xbc8f5892	-0.017498288
118	0x3daa960a	0.08329399
119	0x3d50b278	0.05095145
120	0x3da7518b	0.0816985
121	0x3d9883a5	0.07446984
122	0xbc0e8bb9	-0.008700305
123	0xbda2342a	-0.07920106
124	0xbbc0bf4a	-0.0058821784
125	0x3db878a8	0.09007388
126	0xbd20d910	-0.039269507
127	0xbde426f4	-0.11140242
128	0x3d71c9a2	0.059030183
129	0x3dc95c76	0.09832089
130	0xbd12b8ee	-0.035820894
131	0xbdd95466	-0.10611801
132	0xbde9ff9e	-0.11425708
133	0x3c9054d0	0.017618567
134	0xbca1d062	-0.019752685
135	0xbd3bc31a	-0.04584036
136	0x3d160719	0.036627863
137	0x3ce70eca	0.028205294
138	0x3db1334a	0.08652361
139	0x3da37c22	0.07982661
140	0xbc7a2b90	-0.015269175
141	0xbdd048c8	-0.10170132
142	0xbde9275e	-0.11384462
143	0x3de0a114	0.10968223
144	0x3d3b6edf	0.04576003
145	0x3d431290	0.047625124
146	0xbdc5d529	-0.09659798
147	0x3dcb60a6	0.099305436
148	0x3de43d03	0.111444496
149	0x3dcb4bb0	0.099265456
150	0xbdbf0a1e	-0.093281016
151	0xbd2489bc	-0.040170416
152	0xbd75e45c	-0.060032234
153	0x3df9afc2	0.12191726
154	0xbd46836d	-0.04846518
155	0xbd516d05	-0.05112936
156	0x3d7c6254	0.06161721
157	0xbd69d8a2	-0.057091363
158	0xbd5819bc	-0.052758917
159	0x3b960dc5	0.004579278
160	0x3a072c67	0.0005156458
161	0xbdac1721	-0.08402849
162	0x3db3e48d	0.08783827
163	0xbd47c645	-0.04877307
164	0x3d183af7	0.03716561
165	0x3dc8bd83	0.098017715
166	0x3d7f2ce7	0.06229868
167	0x3ce23ac9	0.027615922
168	0x3de61537	0.11234515
169	0x3c3cc6ab	0.0115219755
170	0xbd6894b7	-0.05678245
171	0x3dd6f34a	0.104956225
172	0x3cbdcfc8	0.023170367
173	0xbde7d861	-0.11320568
174	0xbd0b4db4	-0.03400965
175	0xbda26b17	-0.07930582
176	0x3dc8deb9	0.09808106
177	0xbcafeb00	-0.021474361
178	0xbdde4ed2	-0.108548775
179	0xbc34bfdf	-0.011032074
180	0x3d8d269e	0.06892131
181	0x3ce3d517	0.02781157
182	0x3d022215	0.031770784
183	0x3bdf761f	0.006819501
184	0x3d24cbd0	0.040233433
185	0xbcf8b85c	-0.030361347
186	0xbd4d317d	-0.050096024
187	0xbde68cb1	-0.112573035
188	0xbdad5c5f	-0.08464884
189	0x3d44896e	0.047982626
190	0xbd8e8921	-0.06959749
191	0x3cc9d3e1	0.024637165
192	0x3d0bb1e5	0.0341052
193	0x3bb605a0	0.00555487
194	0xbd930270	-0.07178199
195	0x3de42376	0.11139576
196	0xbd68dce1	-0.05685127
197	0x3dba8f6f	0.09109389
198	0xbddb84d6	-0.10718696
199	0xbcd37a00	-0.02581501
200	0x3d8b5056	0.06802432
201	0xbd570ff4	-0.05250545
202	0x3dbceb5c	0.09224579
203	0xbda7770d	-0.08177004
204	0xbdc2df6c	-0.095152706
205	0xbd5c822e	-0.053835087
206	0x3c8d40d1	0.017242821
207	0x3de0d0f1	0.109773524
208	0xbd5e9143	-0.05433775
209	0x3d45c228	0.048280865
210	0xbcd9a6e6	-0.026568841
211	0xbcbb320d	-0.022851015
212	0x3da82c51	0.08211578
213	0xbdb798b6	-0.08964674
214	0x3c537e8b	0.012908588
215	0x3de350ef	0.11099421
216	0xbc64af77	-0.01395785
217	0x3dc02598	0.093821704
218	0xbd11181a	-0.035423376
219	0x3dbfcb29	0.093649216
220	0xbdda6557	-0.1066386
221	0xbc801821	-0.015636506
222	0xbcb5abfb	-0.022176733
223	0x3d2d090b	0.042244952
224	0x3d3a544c	0.045490548
225	0x3dbc843d	0.0920491
226	0xbc82ab1e	-0.015950736
227	0xbb940ab0	-0.0045178756
228	0x3def7aa5	0.116933145
229	0x3c3c004b	0.011474679
230	0x3dd1b50e	0.102396116
231	0xbda178f4	-0.07884398
232	0xbc991d0c	-0.018690608
233	0xbbca9f01	-0.0061835055
234	0x3d660c90	0.056164324
235	0x3dcc937c	0.09989068
236	0x3b2b6cd6	0.00261574
237	0xbde15029	-0.110016175
238	0x3d8f7420	0.07004571
239	0x3c975a5a	0.0184757
240	0x3cfa2000	0.030532837
241	0xbd7af80e	-0.06127172
242	0x3da791f4	0.08182135
243	0x3dfbd517	0.12296503
244	0x3d04a1f3	0.03238101
245	0xbdd8bcbc	-0.10582873
246	0x3d9fdbd8	0.07805604
247	0xbdb3a6f1	-0.08772076
248	0x3cd1e5f3	0.025622344
249	0x3c7a5518	0.015279077
250	0xbd4e71ab	-0.05040137
251	0x3d163e84	0.036680713
252	0xbdd20e7f	-0.10256671
253	0x3cd4b042	0.025962953
254	0xbd97cdfd	-0.07412336
255	0xbc4cd24c	-0.012501311

bias f4 [128]
0	0xbd9379a6	-0.07200937
1	0xbd8219ca	-0.06352575
2	0xbd983bde	-0.07433294
3	0x3d7dcbd7	0.061961975
4	0x3c821c29	0.015882568
5	0xbb13e02b	-0.0022564034
6	0x3cfca980	0.030842543
7	0x3d88d2ca	0.0668083
8	0x3c1d3ac0	0.009596527
9	0x3d97d6ce	0.074140176
10	0xbc3e4320	-0.011612684
11	0x3d413692	0.047171183
12	0x3cd1930d	0.025582815
13	0xbb2ce402	-0.002638102
14	0x3db5a4ff	0.08869361
15	0x3de28e3a	0.11062284
16	0x3dc1801c	0.09448263
17	0xbccbe714	-0.02489046
18	0xbccc61d0	-0.024948984
19	0x3dc16eef	0.09444987
20	0xbd56ec5b	-0.0524715
21	0x3c09c6d8	0.008409224
22	0xbd857eea	-0.065183476
23	0xbcfff7ab	-0.031246027
24	0xbd31062a	-0.04321877
25	0x3d8f0c29	0.06984741
26	0xbd5c36bc	-0.053763136
27	0xbd5b0bca	-0.05347804
28	0x3d4bb437	0.049732413
29	0xbb96df99	-0.0046042916
30	0x3c492dae	0.012278957
31	0xbdb7215b	-0.08941909
32	0xbd5ce4ec	-0.053929254
33	0x3d78a192	0.06070096
34	0x3d61e4b1	0.055149738
35	0xbde0db6d	-0.10979352
36	0xbdaf7d2e	-0.08568798
37	0x3d49530a	0.049151458
38	0xbdc66824	-0.09687832
39	0xbd8a4817	-0.06752031
40	0xbd82a75e	-0.06379579
41	0xbdb05f38	-0.086119115
42	0xbd65cf4f	-0.056105908
43	0x3d9d6641	0.07685519
44	0xbde60829	-0.11232025
45	0x3da02fde	0.0782163
46	0xbdcf9793	-0.10136332
47	0xbce9a34d	-0.02852025
48	0xbd218ae1	-0.039439086
49	0x3d953ba9	0.0728677
50	0xbdb3e2bc	-0.087834805
51	0xbd7adc88	-0.06124547
52	0xbdd310a9	-0.10305912
53	0xbc1e3872	-0.009657012
54	0x3d3dce15	0.046339113
55	0x3dd9e2f4	0.10638991
56	0x3dc7f224	0.097629815
57	0xbcd78d3a	-0.02631246
58	0xbd863241	-0.06552554
59	0x3cc5c3dc	0.024141245
60	0x3d9a3d15	0.07531182
61	0x3dcdcf50	0.10049307
62	0x3d9d04f0	0.076669574
63	0xba00ce2c	-0.00049135345
64	0xbdc55dfc	-0.09637067
65	0xbd7d0e3d	-0.061781157
66	0x3d99b7e5	0.07505778
67	0xbdc4dda9	-0.09612591
68	0xbdab7ae3	-0.08373048
69	0xbd930ab2	-0.07179774
70	0xbcbb2d1c	-0.022848658
71	0x3d50a4c2	0.050938375
72	0x3d9f2891	0.07771409
73	0x3dc963fe	0.09833525
74	0x3d622722	0.0552131
75	0x3ca5db49	0.020246165
76	0xbcd16280	-0.025559664
77	0xbd8ba161	-0.0681789
78	0xbd5c9aec	-0.053858683
79	0xbb2f9711	-0.0026792923
80	0x3dc888d6	0.097917244
81	0xbc6b9258	-0.014378153
82	0xbc41ec1c	-0.011836078
83	0x3bf917fb	0.0076017356
84	0xbd5a2ab8	-0.053263396
85	0xbd789620	-0.060690045
86	0x3cccaf6e	0.024985995
87	0xbda01455	-0.07816378
88	0xbbf3670a	-0.0074280547
89	0xbc71b45c	-0.014752474
90	0x3ce353af	0.027749864
91	0xbc9913f5	-0.018686274
92	0xbd785c7b	-0.06063507
93	0xbcd6487f	-0.026157616
94	0xbcefab99	-0.029256629
95	0x3d4439a0	0.047906518
96	0x3cb5d354	0.022195496
97	0xbcfbf65a	-0.030757118
98	0x3da86592	0.08222498
99	0x3bdc534d	0.0067237974
100	0x3d74ae92	0.059736796
101	0xbd2cd125	-0.042191643
102	0xbdbeb0ab	-0.093110405
103	0xbdd23255	-0.10263506
104	0xbd21419c	-0.03936921
105	0x3d8d4207	0.06897359
106	0x3d7b9911	0.061425272
107	0x3d41b349	0.04729012
108	0x3cf71197	0.030159755
109	0xbd9234af	-0.07138955
110	0xbd154499	-0.036442373
111	0x3c84c731	0.016208263
112	0xbdccdca8	-0.10003024
113	0xbdbea32a	-0.09308465
114	0xbdb0c8b4	-0.08632031
115	0x3d074b88	0.033031017
116	0xbc83f4bb	-0.016107908
117	0xbca37387	-0.019952549
118	0x3d8dca32	0.06923331
119	0xbd97804a	-0.07397516
120	0xbd8a742e	-0.06760441
121	0xbcae8c84	-0.021307237
122	0x3d84ad42	0.06478359
123	0x3ca65892	0.020305905
124	0xbdbebf98	-0.09313887
125	0x3da3d4c0	0.07999563
126	0xbd909053	-0.07058778
127	0x3db4cdd0	0.08828318

weight f4 [128, 128]
0	0x3cea815e	0.02862614
1	0x3cec3be4	0.028837152
2	0x3d8c32b9	0.06845612
3	0x3cf44c40	0.029821515
4	0xbdaac1f7	-0.08337777
5	0x3ce7ba67	0.028287126
6	0x3dc88ff1	0.0979308
7	0xbcf2c937	-0.029636962
8	0x3d7c3924	0.06157793
9	0x3d92cd7d	0.071681
10	0xbc13d1f9	-0.009022229
11	0x3ad05881	0.0015895517
12	0xbc9c8271	-0.019105168
13	0x3daa4126	0.08313207
14	0x3d22ec5a	0.039776184
15	0x3d9ade63	0.07561948
16	0xbda3fcc9	-0.08007199
17	0xbd0adcf7	-0.033902135
18	0xbd431cc5	-0.04763486
19	0x3c3ca2d8	0.011513434
20	0xbd485b77	-0.048915353
21	0x3cf483cd	0.029848004
22	0x3d4237f2	0.047416635
23	0xbce2cb23	-0.027684754
24	0x3c1fdf57	0.009757838
25	0xbd8900d5	-0.06689612
26	0xbc1609a6	-0.009157574
27	0x3c757d62	0.014983507
28	0x3d97b895	0.07408253
29	0x3d31239f	0.04324686
30	0x3d06e1e0	0.032930255
31	0x3d450305	0.048098583
32	0x3d8c8044	0.06860402
33	0x3c216037	0.0098496
34	0x3db60e1d	0.08889411
35	0xbd49ebbc	-0.04929708
36	0x3cf29f59	0.029616999
37	0x3c998d7f	0.018744228
38	0x3d8aa6eb	0.06770118
39	0xbda64166	-0.081179425
40	0x3d354c4a	0.044262208
41	0xbd93fc52	-0.07225861
42	0xbce8719e	-0.02837449
43	0xbcc053e0	-0.023477495
44	0xbce14268	-0.027497485
45	0xbd364496	-0.044499002
46	0xbd9b4beb	-0.075828396
47	0xbd97dc9e	-0.07415126
48	0xbcbdc8cb	-0.023167035
49	0x3d97bd7f	0.074091904
50	0xbc7c765f	-0.015409081
51	0xbd5d0b4b	-0.053965848
52	0xbd28ccc6	-0.041210912
53	0xbd259223	-0.04042257
54	0xbae408fa	-0.0017397695
55	0x3d9657d3	0.0734097
56	0xbda30c64	-0.07961348
57	0x3d3c843f	0.046024557
58	0x3d915228	0.07095748
59	0x3d94a085	0.07257179
60	0xbd5517a7	-0.05202451
61	0x3c2b2e15	0.0104479985
62	0x3d533a7c	0.051569447
63	0xbd955edd	-0.07293484
64	0x3d97b693	0.0740787
65	0x3b58b018	0.0033063944
66	0xbd9812c0	-0.07425451
67	0xbc4ad098	-0.012378834
68	0x3c1e72e0	0.009670943
69	0xbcc2ce14	-0.023779906
70	0xbd1ac734	-0.03778763
71	0xbc379448	-0.011204787
72	0x3cedebef	0.029043166
73	0x3d5551d3	0.052079987
74	0xbdbbd00f	-0.091705434
75	0xbb2182fc	-0.0024644723
76	0x3ccda632	0.025103662
77	0x3d91b775	0.0711507
78	0x3d5a12e8	0.053240687
79	0x3d815bd4	0.06316343
80	0x3ccd81d1	0.025086315
81	0xb9867d77	-0.0002565195
82	0xbd727915	-0.059197504
83	0xbd2af482	-0.041737087
84	0x3d18c5b7	0.03729793
85	0xbc1bf6c8	-0.009519286
86	0x3d91b8b8	0.071153104
87	0xbd4db847	-0.05022457
88	0x3d409e4d	0.047025967
89	0x3d77de54	0.060514763
90	0x3d79a679	0.060949776
91	0x3d8e3d52	0.0694529
92	0xbd3488e4	-0.04407586
93	0x3d435c60	0.047695518
94	0xbda797a7	-0.08183222
95	0xbd3e4ecd	-0.04646187
96	0xbc06ece1	-0.008235187
97	0x3d8c915f	0.06863665
98	0xbc6441af	-0.013931676
99	0xbd80d69f	-0.06290936
100	0xbd9cffd8	-0.07665986
101	0x363228a9	2.6547734e-06
102	0x3ba53f0e	0.005042917
103	0x3c48a6f7	0.012246839
104	0xbcf8b57c	-0.030359976
105	0x3cefbe8b	0.029265663
106	0x39a586be	0.00031571643
107	0xbcc88f25	-0.02448232
108	0x3d2f948f	0.042866286
109	0xbd520b9c	-0.051280603
110	0xbd1faf63	-0.03898562
111	0x3c9f7270	0.019463748
112	0xbcfbbff6	-0.030731183
113	0x3bd4dc8b	0.0064960173
114	0xbce939e3	-0.028469985
115	0x3d5fda98	0.054651827
116	0x3d9f92fa	0.077917054
117	0x3d96b478	0.073586404
118	0x3ce277a2	0.027644936
119	0xbd62c30a	-0.055361785
120	0xbd313d4f	-0.04327136
121	0xbd1b70d3	-0.037949394
122	0xbc8082bf	-0.015687345
123	0xbd1c825e	-0.038210265
124	0x3d352e54	0.044233635
125	0xbdb1ab7b	-0.086752854
126	0x3b585bfd	0.0033013814
127	0x3d9b95b6	0.075969145
128	0xbd86695e	-0.06563066
129	0xbc72988c	-0.014806878
130	0x3d6b4634	0.057439998
131	0xbc9298ab	-0.017895063
132	0xbd1f3898	-0.03887233
133	0x3d5d8560	0.054082274
134	0xbd8f0906	-0.06984143
135	0x3db04da5	0.086085595
136	0x3dafdaea	0.085866764
137	0x3bf689fb	0.007523773
138	0x3b4511a8	0.0030070338
139	0xbd288b1d	-0.041148294
140	0x3d0c7bc3	0.034297716
141	0xbd873874	-0.066025645
142	0xbce8d9b4	-0.028424121
143	0x3d613408	0.05498126
144	0x3cefaf1a	0.0292583
145	0x3d7bdb54	0.061488464
146	0x3d243608	0.04009059
147	0x3db87464	0.09006575
148	0x3d0f6f08	0.035017997
149	0xbd93c31c	-0.072149485
150	0xbdaa6e91	-0.0832187
151	0x3d89c669	0.06727297
152	0x3da4fc52	0.08055939
153	0x3dae9dec	0.08526215
154	0xbd5ea41a	-0.05435572
155	0x3da6ec27	0.08150511
156	0xbd10bd36	-0.035336696
157	0x3caf23d7	0.021379394
158	0x3d4aa5d3	0.04947455
159	0xbd8ba71f	-0.06818985
160	0xbda5bb3d	-0.080923535
161	0x3d761b96	0.0600849
162	0xbd9cabab	-0.076499306
163	0x3d2d1a88	0.04226163
164	0x3d43e632	0.047826953
165	0x3d3f22b1	0.046663944
166	0x3bdafd53	0.0066830306
167	0xbce4d461	-0.027933301
168	0x3ae37edd	0.0017356534
169	0xbc06f1d5	-0.008236368
170	0xbdabcddc	-0.08388874
171	0x3c909190	0.017647535
172	0xbd491b7a	-0.04909847
173	0x3d84e14c	0.064882845
174	0xbd1af4ca	-0.037831105
175	0xbc281b8a	-0.010260472
176	0xbd7cf335	-0.061755378
177	0x3dab6645	0.08369116
178	0x3d489689	0.048971687
179	0x3d99290a	0.07478531
180	0x3d99b469	0.07505114
181	0xbccb0dde	-0.024786886
182	0x3db058e2	0.08610703
183	0xbc4c65dc	-0.012475457
184	0x3d9d3bc5	0.07677416
185	0x3c8a3228	0.01686962
186	0x3d5af65f	0.053457614
187	0xbd161d74	-0.036649182
188	0x3d25622b	0.040376823
189	0x3b458fed	0.00301456
190	0xbd8a01c5	-0.06738619
191	0x3d867f10	0.06567204
192	0xbd48c3ca	-0.049014844
193	0xbd8af275	-0.06784526
194	0x3d920417	0.07129686
195	0xbda5e8d2	-0.081010476
196	0x3cf645dd	0.03006261
197	0x3d7bd958	0.061486572
198	0xb8d259fa	-0.0001003034
199	0xbda1c511	-0.078989156
200	0xbd8191a8	-0.0632661
201	0xbc5f5516	-0.013631126
202	0xbb60cca2	-0.0034301658
203	0x3d7d87f4	0.061897233
204	0x3d974ece	0.07388078
205	0xbd5d513f	-0.05403256
206	0xbcec2684	-0.02882696
207	0xbd8fb221	-0.07016397
208	0x3cb7809c	0.022400193
209	0x3d08a86e	0.033363752
210	0xbbc60b52	-0.00604383
211	0x3bca3820	0.0061712414
212	0xbc09883d	-0.008394298
213	0xbda20f20	-0.07913041
214	0x3db12e73	0.086514376
215	0x3c97af35	0.018516162
216	0x3dbb2620	0.09138131
217	0xbd6e637f	-0.058200356
218	0xbcb19a52	-0.021680031
219	0xbcbf15c6	-0.023325812
220	0x3d073d59	0.03301749
221	0xbc734411	-0.014847771
222	0xbd522e00	-0.0513134
223	0x3d9c3a53	0.07628312
224	0x3d94ad8d	0.07259665
225	0x3dc5d9c5	0.09660677
226	0x3d4ec65e	0.050482146
227	0x3d605321	0.054766778
228	0xbd5b3980	-0.053521633
229	0x3b85a7e5	0.0040788525
230	0xbcc83daa	-0.024443466
231	0x3b856431	0.0040707816
232	0x3c8c2972	0.017109606
233	0x3c8d6f70	0.017265052
234	0xbd02285c	-0.03177677
235	0x3ba119fb	0.004916427
236	0xbd0097d3	-0.03139479
237	0xbd14ae2f	-0.036298927
238	0xbd6f82f0	-0.05847448
239	0xbd22a69e	-0.03970968
240	0xbd55987d	-0.052147377
241	0xbd8ed831	-0.06974829
242	0xbafb5ede	-0.0019178053
243	0xbd977bbb	-0.073966466
244	0xbd9e4471	-0.07727898
245	0x3d84f7d3	0.06492581
246	0xbd88dd03	-0.0668278
247	0x3d7fcab4	0.062449172
248	0x3caa1bc4	0.020765193
249	0xbc321baa	-0.010870853
250	0x3d915b11	0.07097448
251	0xbd8bd80f	-0.06828319
252	0x3d5cbfeb	0.053893965
253	0x3d87d9bc	0.066333264
254	0x3d8ca5ad	0.06867538
255	0xbdbc5fba	-0.09197946

bias f4 [128]
0	0x3b345166	0.0027514338
1	0x3d1b93a0	0.037982583
2	0x3d0d60f7	0.0345163
3	0xbdaf3d59	-0.08556623
4	0xbd0db964	-0.03460063
5	0xbd94d8a2	-0.07267882
6	0xbda27f91	-0.079344876
7	0x3d6071a0	0.05479586
8	0x3d812c54	0.06307283
9	0xbd847636	-0.064678594
10	0xbcd745d4	-0.026278414
11	0x3d33ddc1	0.043912653
12	0x3db236b1	0.08701838
13	0x3d9d2a7c	0.07674119
14	0x3d56cc4b	0.052440923
15	0xbd993588	-0.074809134
16	0xbd58fd31	-0.052975837
17	0x3d98dcbd	0.074639775
18	0xbdaa1dac	-0.08306441
19	0xbd1ef11f	-0.03880417
20	0xbd963e90	-0.073361516
21	0xbd92128d	-0.071324445
22	0x3c8bd19b	0.017067721
23	0xbcc32030	-0.02381906
24	0xbd93738b	-0.071997724
25	0xbd86035c	-0.065436095
26	0x3d93a6d7	0.072095565
27	0x3d9203c0	0.071296215
28	0x3d333663	0.04375304
29	0x3d2b0ccf	0.041760262
30	0xbd4b004c	-0.04956083
31	0xbd195cd5	-0.037442047
32	0xbc24c2ff	-0.010056256
33	0x3cf10e71	0.029425832
34	0x3ac0d94e	0.0014713199
35	0x3cb41f7c	0.02198767
36	0xbd3d0bbe	-0.046153776
37	0xbcb82457	-0.022478266
38	0x3d19e970	0.03757614
39	0xbd9b8156	-0.07593028
40	0x3c299aca	0.010351846
41	0x3da5efcf	0.081023805
42	0xbd4bba21	-0.049738053
43	0xbcd686cd	-0.026187325
44	0xbc20e576	-0.009820333
45	0xbcfa6496	-0.030565541
46	0x3d78da79	0.060755227
47	0x3cd9b35d	0.026574785
48	0x3db964cc	0.090524286
49	0xbcb3fc3c	-0.02197086
50	0x3d0eb00d	0.034835864
51	0x3ccb80a8	0.024841622
52	0xbd3dcf1d	-0.046340097
53	0xbdb168bf	-0.08662557
54	0x3d421a6a	0.04738847
55	0xbd689885	-0.05678608
56	0xbcb77a93	-0.022397315
57	0xbc881961	-0.016613664
58	0xbdbaa791	-0.09113992
59	0x3d6f8e7b	0.05848549
60	0xbc8a0dbc	-0.016852252
61	0xbd386e68	-0.045027167
62	0xbda13af8	-0.078725755
63	0x3ca365ea	0.019946057
64	0xbb63ae27	-0.0034741254
65	0xbc7b7e0c	-0.015349876
66	0xbcd810a3	-0.02637512
67	0x3cdc310a	0.026878852
68	0xbc948921	-0.018131794
69	0x3c877fb9	0.016540395
70	0x3d84a445	0.064766444
71	0x3ccdb422	0.025110308
72	0xbd8780dd	-0.066163756
73	0xbc418aec	-0.011812907
74	0xbd07532a	-0.033038296
75	0x3be8bac3	0.007102342
76	0x3d7787ba	0.060432173
77	0xbbd2e6c3	-0.0064362003
78	0xbd08835f	-0.03332841
79	0xbd29f085	-0.041489143
80	0x3d56fd0c	0.052487418
81	0xbcc06ade	-0.023488458
82	0x3ba6041d	0.0050664083
83	0xbc0b9a76	-0.008520713
84	0xbd910185	-0.07080368
85	0x3ce46b6d	0.027883256
86	0x3da763de	0.08173345
87	0xbd6f8635	-0.0584776
88	0x3c8b0320	0.016969264
89	0x3ce702dd	0.028199608
90	0xbcccd878	-0.025005564
91	0xbc5a0d6a	-0.013308862
92	0xbbcee9e8	-0.006314505
93	0x3d53896f	0.05164474
94	0xbb71dda0	-0.003690578
95	0xbdae2538	-0.08503193
96	0xbcacfd45	-0.021116862
97	0xbd0c6e21	-0.034284715
98	0xbc4fa5e0	-0.012673825
99	0xbd4c1f01	-0.049834255
100	0x3c0873cd	0.00832839
101	0xbb58d29e	-0.0033084522
102	0xbd276daa	-0.04087607
103	0xbbfc447e	-0.0076985946
104	0xbd867b64	-0.06566504
105	0xbd318c3f	-0.04334664
106	0x3d41df91	0.04733235
107	0xbb00fb1d	-0.0019680925
108	0x3d311295	0.04323061
109	0x3cf024e2	0.029314462
110	0x3d79e240	0.061006784
111	0x3db836b4	0.08994809
112	0x3d8c259e	0.068431124
113	0xbcd83d20	-0.026396334
114	0xbd10effc	-0.035385117
115	0x3d945e50	0.07244551
116	0x3d1b7da6	0.037961625
117	0x3da43bfd	0.08019254
118	0x3da5565a	0.08073111
119	0x3d6068bd	0.054787386
120	0x3c33d10d	0.010975135
121	0x385f8259	5.328874e-05
122	0xbd509770	-0.050925672
123	0x3dae5231	0.085117705
124	0xbd361982	-0.04445792
125	0x3d452455	0.048130352
126	0xbb79de88	-0.0038127024
127	0xbd4dfb73	-0.05028863

weight f4 [128, 128]
0	0xbd84bbc1	-0.06481124
1	0x3ce4ea46	0.027943742
2	0xbc986f7e	-0.018607851
3	0x3d6016ab	0.054709118
4	0xbd224c5e	-0.03962361
5	0xbc609de5	-0.01370952
6	0x3cc50605	0.024050722
7	0x3da6a2f7	0.08136552
8	0xbd8f6fcb	-0.07003745
9	0xbd454ae6	-0.04816713
10	0xbd1d9150	-0.03846866
11	0x3d00a8b9	0.031410906
12	0x3da4ac20	0.08040643
13	0x3c46d80b	0.01213647
14	0x3c8a947b	0.016916504
15	0x3d7e7230	0.062120616
16	0xbd880baa	-0.0664285
17	0x3dac2362	0.08405186
18	0x3db2ca9e	0.087300524
19	0xbd827a5b	-0.06370994
20	0xbc12567c	-0.008931752
21	0x3d0f65a6	0.03500905
22	0xbd4dd48b	-0.050251525
23	0xbd054eff	-0.03254604
24	0x3d9a8a6e	0.075459346
25	0x3d836d76	0.064173624
26	0xbd8726b1	-0.06599177
27	0x3d199fd2	0.037505932
28	0xbd40349c	-0.046925172
29	0xbb48bc2e	-0.0030629742
30	0xbdb67031	-0.089081176
31	0xbd843397	-0.064551525
32	0xbbc9cac6	-0.0061582057
33	0xbd782e45	-0.060591
34	0xbd452791	-0.048133437
35	0x3d34934b	0.044085782
36	0x3d58fa7c	0.052973256
37	0xbd9a3fdf	-0.07531714
38	0x3d88dd7f	0.06682872
39	0x3daa339d	0.08310626
40	0xbcd11fab	-0.025527796
41	0x3d06167b	0.032736283
42	0xba866118	-0.0010252325
43	0xbbbcd27e	-0.0057623973
44	0xbc174cb9	-0.009234601
45	0x3cdf03a6	0.02722342
46	0x3daa4cf3	0.08315458
47	0xbc9d7c69	-0.019224362
48	0xbd06c267	-0.03290024
49	0x3db841a1	0.08996893
50	0x3d7a2c85	0.061077613
51	0xbd72331f	-0.059130784
52	0x3db46819	0.088089176
53	0xbc57714b	-0.01314957
54	0x3cc3a7f8	0.023883805
55	0x3c4a354b	0.012341808
56	0xbc616732	-0.013757514
57	0xbd49d7f4	-0.049278215
58	0x3b96e6ff	0.0046051736
59	0xbd85178e	-0.06498633
60	0xbc5f0ef2	-0.013614403
61	0x3d7019e7	0.058618452
62	0x3d91e753	0.071242
63	0xbd3b36f6	-0.04570671
64	0x3d37396a	0.04473249
65	0xbbfee26d	-0.007778457
66	0x3d9a66ec	0.07539162
67	0x3d7cacf8	0.061688393
68	0xbcf9659a	-0.030443955
69	0x3d29425d	0.041323055
70	0x3cdcdce3	0.026960796
71	0x3d3b785f	0.04576909
72	0xbd6608bf	-0.056160685
73	0x3c835b85	0.01603485
74	0xbd9abf33	-0.075559996
75	0x3d2c1a23	0.042017113
76	0xbcee2841	-0.029071929
77	0x3d2a3813	0.041557383
78	0x3d8db1bf	0.06918668
79	0x3bd1bb8a	0.00640053
80	0xbd94ea92	-0.07271303
81	0xbd8f4426	-0.0699542
82	0x3c987d83	0.018614536
83	0xbd9a5c7c	-0.07537171
84	0x3d48ee42	0.049055345
85	0xbc981ab8	-0.018567428
86	0xbd7b480c	-0.061348006
87	0x3d40b85f	0.04705083
88	0x3cc2da3a	0.0237857
89	0x3da1d885	0.07902626
90	0xbb5b9a09	-0.003350856
91	0x3d18dd1a	0.037320234
92	0x3d45627b	0.04818962
93	0x3d3bd255	0.045854885
94	0xbd35f9ad	-0.044427563
95	0xbd823f6a	-0.063597515
96	0x3b60bd03	0.0034292347
97	0x3d90d2e4	0.07071474
98	0x3d4a6a21	0.04941762
99	0xbd0b246b	-0.033970278
100	0xbd0fc7f9	-0.03510282
101	0x3d9b1e24	0.07574108
102	0x3d8e8956	0.069597885
103	0x3d3432cf	0.043993767
104	0xbd897bfd	-0.06713102
105	0xbda5a29a	-0.080876544
106	0x3d668ced	0.05628674
107	0x3d901110	0.070345044
108	0x3dab2989	0.083575316
109	0x3d458bd6	0.04822906
110	0xbce9b8da	-0.028530527
111	0xbc07739a	-0.008267308
112	0x3d8c2872	0.06843652
113	0xbb96287b	-0.0045824624
114	0xbd601349	-0.05470589
115	0x3d22ea85	0.039774437
116	0xbd6987a9	-0.05701414
117	0x3cddd082	0.027076963
118	0xbd0a51de	-0.03376948
119	0xbc912c91	-0.017721446
120	0x3d444220	0.047914624
121	0xbd1506b2	-0.03638334
122	0xbb02fd1c	-0.001998729
123	0xbd934c28	-0.0719226
124	0x3c5ab614	0.013349075
125	0xbcf6b1a1	-0.030113997
126	0x3d2bbdf3	0.041929197
127	0x3d8c8848	0.06861931
128	0xbd496612	-0.049169607
129	0x3da2ea18	0.07954806
130	0x3cef2582	0.02919269
131	0x3da3a731	0.079908736
132	0x3bce5c3c	0.0062976163
133	0xbd49d6ea	-0.049277224
134	0xbd6840fb	-0.056702595
135	0x3d9c0442	0.076179996
136	0xbd46d168	-0.04853955
137	0xbd59a56b	-0.05313627
138	0xbd2be7cb	-0.041969102
139	0xbdb420bb	-0.08795305
140	0xbb6f4534	-0.0036509754
141	0x3c5b3963	0.013380381
142	0x3be79792	0.007067629
143	0xb9c206c0	-0.00037007593
144	0xbd3cac53	-0.04606278
145	0x3d9c5503	0.07633402
146	0xbd2623bc	-0.040561423
147	0xbd9837f9	-0.07432551
148	0x3d987345	0.07443861
149	0xbd87e0a8	-0.06634647
150	0xbd847153	-0.064669274
151	0xbda8509b	-0.08218499
152	0x3d343824	0.043998852
153	0x3cec50bf	0.028847096
154	0x3d91e1cc	0.071231455
155	0x3d53359f	0.05156481
156	0xbd3569cf	-0.04429036
157	0x3c87f537	0.01659642
158	0x3c7d2aef	0.015452131
159	0x3d2f0816	0.04273232
160	0xbd02e044	-0.031952158
161	0x3d9a0f93	0.07522502
162	0xbc37db36	-0.011221698
163	0xbd4098e6	-0.047020815
164	0xbc0bd11f	-0.008533745
165	0x3d800048	0.06250054
166	0x3c83111c	0.01599937
167	0x3da8dbf4	0.08245078
168	0x3d34ba3c	0.04412292
169	0x3da1db34	0.07903138
170	0x3cbf6741	0.023364665
171	0xbdaeb2ad	-0.085301735
172	0xbc750595	-0.014954944
173	0xbce3b5e1	-0.027796688
174	0x3da2ff74	0.0795888
175	0x3d919fa1	0.07110525
176	0x3d23e3d1	0.040012185
177	0xbd308c74	-0.043102697
178	0xbcf02af3	-0.029317355
179	0xbd4ba995	-0.049722273
180	0xbdab2a85	-0.08357719
181	0xbd44538d	-0.047931243
182	0x3d98c77c	0.074599236
183	0x3d255f73	0.04037423
184	0x3cbd3abb	0.023099294
185	0x3d95df97	0.07318037
186	0xbce8de68	-0.028426364
187	0x3dad37d1	0.08457912
188	0xbd3f5f3a	-0.046721675
189	0x3c24a12a	0.01004819
190	0xbce42f24	-0.02785451
191	0x3cba9e3d	0.022780532
192	0x3cee116f	0.029061047
193	0x3d4c626d	0.049898554
194	0x3c4689ac	0.0121177845
195	0xbd8560c9	-0.06512601
196	0x3d736984	0.0594268
197	0x3d0964ec	0.033543512
198	0x3d43852f	0.047734436
199	0xbda34414	-0.07971969
200	0xbda7a7af	-0.0818628
201	0x3d6a3ede	0.05718886
202	0x3d826bae	0.063681945
203	0xbcc9e87e	-0.024646994
204	0xbcb6d92d	-0.022320354
205	0x3cfb3003	0.030662542
206	0xbc413d63	-0.011794421
207	0xbd58d555	-0.052937824
208	0xbd88f4f5	-0.06687347
209	0x3d12abd9	0.035808418
210	0x3d9e4178	0.07727331
211	0x3d9f0af0	0.07765758
212	0xbd3a935e	-0.045550697
213	0x3d8f0f5f	0.06985354
214	0xbba3219e	-0.0049783727
215	0x3cfa7e53	0.030577814
216	0xbd9513da	-0.07279177
217	0xbbebe6d8	-0.0071991496
218	0x3bcd3046	0.006261858
219	0x3c9d7f48	0.019225731
220	0x3cb584a4	0.022157975
221	0x3b32b8dd	0.0027270832
222	0x3c1ed2bf	0.0096938005
223	0x3ba723db	0.00510071
224	0xbd6909f1	-0.056894246
225	0x3da0b238	0.078464925
226	0xbd336f7c	-0.04380749
227	0x3ce1741c	0.027521186
228	0xbd76bb13	-0.060237
229	0x3be9503b	0.00712016
230	0x3d865933	0.06559982
231	0xbd8721e7	-0.06598263
232	0x3d3b6317	0.045748796
233	0x3d804d08	0.062646925
234	0x3d8abfce	0.06774865
235	0x3db30fea	0.0874327
236	0xbd7c8424	-0.061649457
237	0x3dbc7e71	0.09203804
238	0xbd106909	-0.03525642
239	0xbbe871d8	-0.0070936494
240	0x3cefad85	0.029257545
241	0xbd34b3ef	-0.04411691
242	0xba837339	-0.0010028846
243	0x3db14d79	0.08657355
244	0xba15795d	-0.00057019835
245	0xbd646202	-0.05575753
246	0xbd2b2c8b	-0.041790526
247	0x3cf1e1bc	0.029526584
248	0xbc8bfbc7	-0.01708783
249	0xbd3aa899	-0.045570944
250	0x3d1da55f	0.03848779
251	0x3ca70638	0.020388708
252	0x3d6b7cf6	0.05749222
253	0x3b26c885	0.0025449109
254	0x3d238d07	0.039929416
255	0xbcc93a7a	-0.024564017

bias f4 [128]
0	0x3db897e5	0.090133466
1	0xbb7c3839	-0.003848566
2	0xbd511cb6	-0.05105277
3	0x3d7911c7	0.06080797
4	0x3d826be8	0.06368238
5	0x3d233c1d	0.03985225
6	0xbc933c8e	-0.01797321
7	0xbd445a94	-0.047937945
8	0x3ced1157	0.028938932
9	0x3cb2c5bf	0.021822808
10	0xbd93debb	-0.07220217
11	0x3d2ff35e	0.042956702
12	0x3d464750	0.048407853
13	0x3d52c79d	0.051459897
14	0xbd7c2bb1	-0.061565105
15	0x3d0d76f7	0.03453728
16	0xbd010076	-0.03149458
17	0x3c277c89	0.010222563
18	0xbc11a0ba	-0.008888418
19	0xbd0a669d	-0.033789266
20	0xbd40a206	-0.047029518
21	0x3d824c63	0.06362226
22	0xbc812395	-0.015764037
23	0x3d427c24	0.04748167
24	0x3d3fddc6	0.04684236
25	0x3d821559	0.06351728
26	0xbd4e8025	-0.050415177
27	0x3cfe9037	0.031074626
28	0x3d42c0b0	0.047547042
29	0xbd1bf991	-0.038079802
30	0xbd442141	-0.047883276
31	0x3d470e1f	0.04859745
32	0x3cfe78ad	0.031063402
33	0xbc871094	-0.016487397
34	0x3d69ae61	0.057051066
35	0xbba54f7a	-0.0050448747
36	0x3d649049	0.055801664
37	0x3ae26043	0.001727112
38	0x3d459030	0.04823321
39	0x3cbfec5e	0.023428138
40	0xbd96e7ae	-0.07368408
41	0x3da82b4e	0.08211385
42	0x3d8258d0	0.06364596
43	0x3d405974	0.04696031
44	0x3d11d9f8	0.03560826
45	0x3d64fe74	0.055906728
46	0xbcb7b3ef	-0.022424666
47	0x3d9a80bc	0.075440854
48	0xbd96299c	-0.07332155
49	0xbda63652	-0.081158295
50	0xbc9b8c2b	-0.018987736
51	0xbd6cb62c	-0.05779092
52	0x3d016a05	0.03159525
53	0x3b956fc3	0.004560442
54	0x3cf1bcc1	0.02950895
55	0x3d96ef9f	0.07369923
56	0xbd10c46f	-0.035343584
57	0x3db0f93a	0.08641286
58	0x3d2e3bef	0.042537626
59	0xbd908b26	-0.070577905
60	0xbd31e840	-0.04343438
61	0xbd31eb86	-0.043437503
62	0x3d001145	0.03126647
63	0x3d478d09	0.048718486
64	0xbd60c4b8	-0.054875106
65	0xbd080a88	-0.03321317
66	0xbda83ac5	-0.082143344
67	0xbd9ee7de	-0.07759069
68	0xbd0585e5	-0.032598395
69	0x3b9b8d05	0.0047470354
70	0xbd8eaa0d	-0.06966028
71	0x3d2b25bf	0.041784044
72	0x3d3b2463	0.045688998
73	0x3b890c75	0.004182393
74	0x3dba1e32	0.090877905
75	0x3d83a65e	0.064282164
76	0x3a15394f	0.00056924386
77	0x3bc3d9d2	0.005976894
78	0x3bd2d645	0.0064342343
79	0xbda2736c	-0.07932171
80	0xbd24f5c2	-0.040273435
81	0xbd98266d	-0.07429204
82	0xbd9ea3db	-0.07746097
83	0xbc63a517	-0.013894341
84	0x3b91e6fb	0.004452584
85	0xbce98252	-0.028504524
86	0x3d6a7cb2	0.057247825
87	0x3d22d50b	0.039753955
88	0xbb8618cf	-0.004092313
89	0xbd986844	-0.07441762
90	0xbd8f235a	-0.06989165
91	0xbd90d5e7	-0.07072049
92	0xbc22f637	-0.0099463975
93	0x3cdaba7b	0.026700249
94	0x3d86557f	0.06559276
95	0x3d453165	0.04814281
96	0x3c982515	0.01857237
97	0x3d5c98c0	0.05385661
98	0xbd93280e	-0.07185374
99	0x3cb92045	0.022598395
100	0xbcb56a0c	-0.022145294
101	0xbc426a3a	-0.011866147
102	0x3d941cc8	0.07232052
103	0x3c9d7bc3	0.019224053
104	0xbd2e910f	-0.042618807
105	0xbb1988a7	-0.0023427398
106	0xbcbbbf0b	-0.022918245
107	0xbd80d624	-0.06290844
108	0xbd859612	-0.06522764
109	0xbd8c0660	-0.068371534
110	0x3d943777	0.072371416
111	0x3d3fd6fe	0.046835892
112	0xbcc9d0b4	-0.02463565
113	0xbd0f18c1	-0.034935717
114	0xbda4d9aa	-0.080493286
115	0xbd354421	-0.044254426
116	0x3d0f0dd2	0.03492529
117	0xbd16d4d6	-0.03682407
118	0x3cf78ab6	0.03021751
119	0xbcef43ae	-0.029207077
120	0xbdb1ff46	-0.08691268
121	0x3cb4e342	0.022081021
122	0x3cfcec3e	0.030874368
123	0x3ca900d3	0.020630276
124	0xbd857fcc	-0.06518516
125	0xbc8d6c9b	-0.017263701
126	0x3dabe9e2	0.08394219
127	0x3c53b5e4	0.012921784

weight f4 [128, 128]
0	0xbc1a7fdf	-0.009429901
1	0x3cd2e40c	0.025743507
2	0x3dab20fc	0.08355901
3	0x3d9e0c9f	0.07717251
4	0x3cb08159	0.021546053
5	0x3daf18db	0.08549663
6	0xbd15ecc4	-0.03660275
7	0x3ce4e855	0.027942816
8	0x3d57e3b5	0.052707393
9	0xbdaf2bf2	-0.08553304
10	0xbdab1453	-0.08353486
11	0xbd85c7f9	-0.065322824
12	0xbda439e6	-0.08018856
13	0x3cb730c6	0.022362124
14	0x3b83e603	0.0040252223
15	0xbcac0c7c	-0.021002047
16	0xbd013a83	-0.03154994
17	0xbdae466d	-0.085095264
18	0xbd3919eb	-0.045190733
19	0x3daf7e4c	0.08569011
20	0xbcc9f335	-0.024652103
21	0xbbbcfb8b	-0.005767291
22	0xbcf0ff9a	-0.029418755
23	0xbd2a3d15	-0.04156216
24	0x3d972926	0.07380895
25	0xbc5ab223	-0.013348135
26	0x3bf99072	0.007616096
27	0x3d735be3	0.059413802
28	0xbc4e452e	-0.012589736
29	0x3ce67cf2	0.02813575
30	0xbd53fce4	-0.051754847
31	0x3d5ec6b1	0.054388706
32	0xbba93c8d	-0.005164689
33	0x3d51214c	0.051057145
34	0xbda1f900	-0.07908821
35	0x3c86cdb2	0.016455505
36	0x3cb9ce89	0.022681491
37	0xbd836ccf	-0.06417238
38	0x3d8c855c	0.06861374
39	0xbd2e3230	-0.04252833
40	0xbcfe543b	-0.031046024
41	0x3d686bfd	0.05674361
42	0xbd308489	-0.043095145
43	0x3d484e23	0.048902642
44	0x3d8e74fa	0.06955905
45	0xbc17505c	-0.009235468
46	0x3c89a9e0	0.016804636
47	0xbd694162	-0.05694712
48	0xbd3fa3a5	-0.046786923
49	0xbbf733c3	-0.0075440123
50	0x3d97898c	0.07399282
51	0x3d8dcf2c	0.069242805
52	0x3da4407c	0.08020112
53	0xbd06d8ea	-0.03292171
54	0xbd96ac52	-0.07357086
55	0x3d759131	0.05995292
56	0x3d323e6e	0.04351657
57	0x3db65fe2	0.08905007
58	0x3daa15b4	0.08304921
59	0xbd542e67	-0.051802065
60	0x3d944e62	0.07241513
61	0x3d910e91	0.070828564
62	0xbc9f65d8	-0.019457743
63	0xbd354718	-0.044257253
64	0xbd79a554	-0.060948685
65	0xbd3d750a	-0.046254195
66	0x3d5fe292	0.054659434
67	0x3c05f1fb	0.008175368
68	0xbca273d0	-0.019830614
69	0xbc602d7b	-0.013682718
70	0x3da6cd64	0.08144644
71	0x3ca9e3c7	0.020738496
72	0xbd473802	-0.048637398
73	0x3d3a2d27	0.045453217
74	0xbd453214	-0.04814346
75	0x3d850f5a	0.06497069
76	0xbda3bbbb	-0.07994791
77	0x3cb796a7	0.022410704
78	0x3d2f9a22	0.042871602
79	0x3d58b2f2	0.05290503
80	0xbb9be3a1	-0.00475736
81	0x3d2a374d	0.041556645
82	0xbc338e95	-0.010959287
83	0x3db2ac84	0.08724311
84	0xbce3202e	-0.027725305
85	0xbda417fd	-0.08012388
86	0xbcbe7ff9	-0.023254381
87	0x3d0fe490	0.035130084
88	0x3c054bce	0.008135749
89	0xbd7937c5	-0.0608442
90	0xbccf0348	-0.02527012
91	0x3ce37ba6	0.027768921
92	0x3d0458c6	0.032311223
93	0x3dadae35	0.08480493
94	0xbcdb5371	-0.026773186
95	0x3c97d3ac	0.01853355
96	0xbd3e187c	-0.04641007
97	0xbdb0337f	-0.08603572
98	0xbb998337	-0.0046848315
99	0xbc1af6a1	-0.009458215
100	0x3d878849	0.06617791
101	0xbd901dcf	-0.070369355
102	0xbd6b2eb7	-0.057417598
103	0xbd40cb2a	-0.047068752
104	0xbb8b1fd3	-0.004245737
105	0x3ce34f40	0.02774775
106	0x3d60e721	0.05490792
107	0xbca3c275	-0.019990185
108	0x3d1a28dc	0.037636623
109	0x3d584f45	0.052809972
110	0xbcb43bfd	-0.02200126
111	0xbd21a7a9	-0.039466534
112	0x3cbd2239	0.023087608
113	0xbd40ab67	-0.047038462
114	0x3d99c3cc	0.075080484
115	0x3cf3c915	0.02975897
116	0xbc69e4ba	-0.014275724
117	0xbcb66bf6	-0.022268277
118	0x3c91c78a	0.017795343
119	0x3c7c3a6f	0.015394791
120	0xbdab75c9	-0.08372075
121	0xbda72a53	-0.081623696
122	0xbb159f90	-0.0022830702
123	0xbd436f80	-0.047713757
124	0xbd6e5790	-0.058188975
125	0x3cb4f1cf	0.02208796
126	0x3d56937f	0.052386757
127	0xbd89c196	-0.06726377
128	0xb918f5c3	-0.00014587403
129	0x3d7cf8a2	0.061760552
130	0x3d75e2a8	0.06003061
131	0x3cf96c6d	0.03044721
132	0xbba0778a	-0.0048970627
133	0xbd51a7d2	-0.051185437
134	0x3d8adf42	0.06780864
135	0xbd5b6b87	-0.053569343
136	0x3befceed	0.0073183686
137	0xbd3514a0	-0.044209123
138	0x3c5ebae6	0.013594365
139	0xbd9704c7	-0.07373958
140	0xbc206893	-0.009790557
141	0xbd00e545	-0.03146865
142	0x3d7cd8aa	0.061730064
143	0x3b8c3d4d	0.0042797686
144	0x3cd913aa	0.026498634
145	0xbc950698	-0.01819162
146	0xbdb27300	-0.08713341
147	0xbd6d2822	-0.0578996
148	0x3d008955	0.03138097
149	0x3dde286d	0.10847554
150	0xbd515c27	-0.051113274
151	0xbd0a16e1	-0.033713225
152	0x3d1f78f3	0.038933706
153	0x3dac959b	0.084269725
154	0xbd896830	-0.06709325
155	0xbd1ebb36	-0.038752757
156	0xbda36e6c	-0.07980046
157	0x3d0570a8	0.03257814
158	0xbcded4b9	-0.027201043
159	0xbc90ee52	-0.017691765
160	0x3d911d44	0.0708566
161	0xbcb5687c	-0.022144549
162	0xbd406d2f	-0.046979126
163	0xbdac6820	-0.08418298
164	0x3daf2b45	0.08553175
165	0x3b2bf949	0.0026241115
166	0x3d591f86	0.05300858
167	0xbc59606d	-0.013267619
168	0xbccf8a8d	-0.02533462
169	0x3cbe3373	0.023217892
170	0x3ce24c3b	0.02762424
171	0x3ca446bb	0.020053258
172	0xbd865e10	-0.0656091
173	0xbc93ad26	-0.0180269
174	0xbc2f7427	-0.010708845
175	0x3d84ccff	0.064844124
176	0xbd4924ec	-0.049107477
177	0xbcb0cbb5	-0.02158151
178	0xbccad08e	-0.02475765
179	0x3dc516cb	0.09623488
180	0x3cee7fe3	0.029113716
181	0x3d6db88b	0.058037322
182	0xbd4f40eb	-0.05059902
183	0x3d0798fc	0.03310488
184	0xba6a2f50	-0.0008933442
185	0xbd60d6a9	-0.054892216
186	0x3d351361	0.044207934
187	0xbd77f131	-0.060532752
188	0x3c910784	0.017703779
189	0xbd34daed	-0.044154096
190	0xbc2bd805	-0.010488515
191	0xbd84c24b	-0.06482371
192	0xbd19cd9d	-0.037549604
193	0x3db6a62f	0.08918416
194	0x3bd30d2b	0.0064407787
195	0x3bd07aed	0.00636231
196	0xbdabc12e	-0.083864555
197	0xbd88b204	-0.06674579
198	0x3bceaad8	0.0063069873
199	0x3da1a57f	0.07892894
200	0xbd6340ac	-0.055481598
201	0x3db5b018	0.08871478
202	0xbb50c829	-0.0031857586
203	0x3d850a26	0.06496076
204	0x3d954183	0.07287886
205	0xbd6c4743	-0.057685148
206	0x3d294b59	0.041331623
207	0x3daef29f	0.0854237
208	0xbd49cab8	-0.049265593
209	0xbcd0211e	-0.025406417
210	0xbd35e713	-0.044409823
211	0xbdc59796	-0.09648053
212	0x3b95b55a	0.004568738
213	0xbcb0541a	-0.021524478
214	0x3d6861f6	0.056734048
215	0xbd3d9ee5	-0.04629411
216	0xbd91d121	-0.07119966
217	0xbda0fac5	-0.078603305
218	0xbaeca233	-0.001805371
219	0xbc668fa5	-0.014072333
220	0x3c7d5e9a	0.015464449
221	0xbd9732e2	-0.07382752
222	0xbd299bc1	-0.041408304
223	0x3d0e44bb	0.034733515
224	0x3bde80c1	0.006790251
225	0x3d7b6815	0.061378557
226	0x3b80055a	0.003906888
227	0xbd824017	-0.063598804
228	0x3dab998a	0.083788946
229	0xbd5bf3e9	-0.053699408
230	0x3d779c93	0.060452055
231	0x3dabc3a4	0.08386925
232	0x3d8159f6	0.06315987
233	0x3cfeadfa	0.031088818
234	0x3c5b6fb7	0.013393334
235	0xbd8094c9	-0.062783785
236	0xbce2f187	-0.02770306
237	0xbd7b91ad	-0.061418224
238	0x3cfb9fcf	0.030715851
239	0x3d584a86	0.052805446
240	0x3cca3ec0	0.024688125
241	0x3cb99017	0.022651715
242	0xbd2a917c	-0.04164265
243	0x3d908546	0.0705667
244	0x3b1afcd2	0.0023649228
245	0x3b4adc18	0.003095394
246	0xbcc90827	-0.02454002
247	0xbd8a815f	-0.06762957
248	0xbd59c14f	-0.05316287
249	0x3d7b3e06	0.061338447
250	0xbc94c7cb	-0.018161675
251	0x3c9983c6	0.018739592
252	0xbd59ac8f	-0.05314308
253	0xbbbd2da6	-0.005773264
254	0x3c39aab5	0.011332204
255	0xbd1edede	-0.03878676

bias f4 [128]
0	0xbc8e7e8b	-0.017394325
1	0xbb31c441	-0.0027125033
2	0x3ccbe1cc	0.024887942
3	0x3d446965	0.047952075
4	0x3bc6064c	0.006043231
5	0xbc5b149a	-0.013371611
6	0xbd974153	-0.073855065
7	0x3b327584	0.002723069
8	0x3cc635f9	0.024195658
9	0xbb876e1f	-0.0041330005
10	0x3d961a2e	0.07329212
11	0xbd499b59	-0.049220417
12	0xbd3bf5e7	-0.045888808
13	0x3d454fe8	0.048171908
14	0xbc9efbb3	-0.019407129
15	0x3d9889d8	0.074481666
16	0x3da46fd0	0.08029139
17	0x3cf1a8e2	0.029499475
18	0x3dac97ae	0.08427368
19	0xb9ea972c	-0.0004474459
20	0x3d4cf566	0.050038718
21	0xbd8b8b89	-0.068137236
22	0x3b3633fc	0.0027801981
23	0xbd071816	-0.032981955
24	0x3da95382	0.08267881
25	0xbcea5af2	-0.02860782
26	0x3d82e4d5	0.063913025
27	0x3c4997e3	0.012304279
28	0x3ce4384c	0.027858876
29	0x3cac3ba7	0.021024538
30	0xbd7405c9	-0.05957583
31	0x3d42cdbe	0.047559492
32	0xbc106fdb	-0.008815731
33	0xbad5c99c	-0.0016310695
34	0xbc2491ee	-0.010044558
35	0xbd2434d3	-0.04008944
36	0x3d63f61d	0.055654634
37	0xbd5199da	-0.051172115
38	0xbd40e4b2	-0.0470931
39	0xbcfb15cf	-0.030650048
40	0x3d6af114	0.057358816
41	0xbda090f2	-0.07840146
42	0xbd261ccc	-0.040554807
43	0x3c4f01ee	0.012634737
44	0xbc00857b	-0.007844324
45	0x3bfd1ef7	0.0077246386
46	0x3c31f688	0.010862
47	0x3d20d94d	0.039269734
48	0xbc5c7a84	-0.013456944
49	0x3d78d8a5	0.060753483
50	0xbd3d5945	-0.046227712
51	0xbd662088	-0.056183368
52	0x3bf1e45b	0.0073819584
53	0x3d8f41c2	0.06994964
54	0xbd43b9ab	-0.04778449
55	0x3d3b9d8f	0.045804556
56	0x3d9e94fa	0.07743259
57	0xbd1ce7b5	-0.03830691
58	0xbd771ae0	-0.060328364
59	0x3c7a0345	0.015259569
60	0x3d007c33	0.031368446
61	0xbdb0780a	-0.08616646
62	0xbbe47270	-0.00697165
63	0xbcd1732b	-0.025567612
64	0x3be638c2	0.007025809
65	0x3d7daaa3	0.06193031
66	0x3dbbca40	0.091694355
67	0xbc10822a	-0.008820096
68	0xbcf50d1a	-0.029913474
69	0x3d9a52fe	0.07535361
70	0x3d4ab2a5	0.049486775
71	0x3d2f2907	0.042763736
72	0x3da3bddc	0.07995197
73	0x3da0d331	0.078527816
74	0xbcfc7626	-0.030818056
75	0xbd37bc7e	-0.044857495
76	0xbc0eaeb1	-0.008708642
77	0x3d426d8a	0.047467746
78	0xb995ac10	-0.0002854769
79	0xbd9985e7	-0.07496243
80	0xbd305177	-0.04304644
81	0xbd00d470	-0.031452596
82	0xbd21aa98	-0.03946933
83	0xbd3281f2	-0.043580957
84	0xbc0cc021	-0.008590729
85	0x3d4e6ffe	0.050399773
86	0x3d2abe02	0.04168511
87	0x3d99aded	0.07503877
88	0xbd4c028e	-0.049807124
89	0xbc529be3	-0.012854549
90	0x3d617990	0.05504757
91	0xbd629644	-0.055319086
92	0xbd75d5a1	-0.060018186
93	0x3d1b5ad1	0.037928406
94	0xbcf7f824	-0.03026969
95	0xbdabcc8b	-0.08388623
96	0xbd8db66e	-0.06919561
97	0x3d060b86	0.032725833
98	0x3c78acd4	0.015177924
99	0xbc501e9b	-0.012702609
100	0xbd63d8fe	-0.05562686
101	0x3d464028	0.048401028
102	0x3c53d015	0.012928029
103	0x3cdfac28	0.02730377
104	0x3d0bec3d	0.03416084
105	0xbd35bf0d	-0.044371653
106	0xbc0ea20c	-0.008705627
107	0x3d0eb807	0.03484347
108	0xbd1821b0	-0.037141502
109	0x3d85fc19	0.065422244
110	0x3dab60e1	0.083680876
111	0xbb0804ff	-0.002075493
112	0x3d8d9f16	0.06915109
113	0xbc825eef	-0.015914408
114	0x3d1df43d	0.038563002
115	0xbd3ddc80	-0.046352863
116	0x3b8ee9ae	0.004361353
117	0xbd5e4ffe	-0.054275505
118	0x3d36d524	0.04463686
119	0xbd2e563b	-0.042562705
120	0xbc08cdb3	-0.008349824
121	0x3ce3b9dd	0.027798587
122	0xba8261d4	-0.0009947368
123	0x3d9a91db	0.07547351
124	0xbd4f0fca	-0.050552167
125	0xbd6d79ff	-0.057977673
126	0x3c6a9bce	0.014319373
127	0x3bb8abcb	0.0056357137
