models/agModels-predicttop10_votes/models/NeuralNetTorch_BAG_L1/S9F8/net.params (torch, 248949 bytes, 16 tensors)

weight f4 [6, 4]
000000 46 71 90 bf 50 73 93 bf 46 2b 7f be 86 1a de be
       -1.1284568 -1.1519566 -0.24918851 -0.4337961
000010 56 32 59 3f 51 e7 30 3f 81 a5 a2 be 47 6e 07 c0
       0.8484243 0.6910296 -0.31766894 -2.1161058
000020 13 13 f1 3e f9 e6 1f be 56 d5 b8 3f 48 31 87 3e
       0.47084865 -0.15615453 1.4440105 0.26404786
000030 78 3a 2b 3e 7c eb 5f 3f 06 4d 12 be f7 3a e3 bd
       0.16721523 0.87468696 -0.14287195 -0.11095231
000040 fc b1 6e 3f e2 fd a0 3f b0 1f 00 40 43 99 4f 3d
       0.9324033 1.2577479 2.001934 0.05068327
000050 3e b6 1c 3f b1 5b d0 be 99 cb 55 bf 28 d8 13 c0
       0.6121558 -0.40694955 -0.8351379 -2.3100681

weight f4 [6, 4]
000000 ce 42 5d be 8a cf 3d bf da 41 0f 3f 82 af 84 3e
       -0.21607515 -0.74144804 0.55959857 0.25915152
000010 6c 68 33 be 99 c5 2d bf 78 80 70 3f cb 27 fc 3e
       -0.17520303 -0.67879635 0.9394603 0.4924911
000020 c6 1b 12 bf f0 19 6b 3f 77 5c 8e 3f fa 8b a5 3f
       -0.5707363 0.9183645 1.1121968 1.2933342
000030 ff e5 bc bf c3 6d 24 40 92 48 f1 be 94 25 aa 3e
       -1.4757689 2.5691993 -0.4712568 0.33231795
000040 2d a9 d0 bf f5 39 0d bf b1 b8 f4 be a4 dc fd be
       -1.6301628 -0.5516656 -0.47797158 -0.49582398
000050 19 d0 87 bf 8b f3 8d 3f 2e 54 0a be a9 c1 4c 3f
       -1.0610381 1.1089948 -0.13508675 0.79983

weight f4 [6, 4]
000000 e5 09 be bd 30 a6 2f 3f 30 fe 55 bf 89 90 6b 3a
       -0.09279231 0.68612957 -0.83590984 0.0008986076
000010 c5 63 58 3f 75 87 cb be 97 44 85 3f 97 06 b9 3e
       0.84527236 -0.39751783 1.0411557 0.3613784
000020 c0 01 9d 3d 03 b9 8e 3f f2 d3 8f 3e 27 0b e0 3e
       0.076663494 1.1150211 0.2809139 0.4375851
000030 bc 24 4e bf e1 0c a6 bf c3 7d 3f bf b9 35 a8 bf
       -0.805248 -1.297268 -0.7480127 -1.3141395
000040 80 dc 54 3e 55 7a a9 be d6 b9 db be 31 3a 71 3e
       0.20787239 -0.33101144 -0.4291522 0.23557355
000050 a1 7c 4a 3f 50 76 37 be ff 86 ba be 90 27 9a bf
       0.7909642 -0.17916226 -0.3643112 -1.2043324

weight f4 [6, 4]
000000 7c 5d 33 bf 44 bc 84 3f f7 40 1a bf 7b c9 a3 bf
       -0.7006452 1.0369954 -0.6025538 -1.2795862
000010 46 6d b6 3d 94 6a 2b bf b9 03 1c 3f ba 3f 3b bf
       0.08907561 -0.669595 0.6094318 -0.73144114
000020 55 21 86 be c2 a1 ec 3d d0 49 7b 3e e8 ea 94 3f
       -0.26197305 0.1155429 0.24539876 1.1634188
000030 da 66 95 3e 7d 79 c7 3e 3f b7 4a be 15 51 f3 bd
       0.29180032 0.38959876 -0.19796465 -0.118806995
000040 72 5c 41 3e b2 d8 45 bf fd f7 f2 bf c6 c3 03 3e
       0.18882921 -0.77283776 -1.898193 0.1286765
000050 1a c9 32 bf d7 29 9e 3e a8 68 1b 3e 7d 50 c2 3e
       -0.69838107 0.30891296 0.15176642 0.37952033

weight f4 [6, 4]
000000 61 99 77 3f 3f 75 7d bf 62 31 9a 3e 55 56 df bd
       0.9671841 -0.9900703 0.301158 -0.109051384
000010 11 65 7e 3f 63 49 fe be ee 7a 43 3f 41 34 1e 3f
       0.99372965 -0.49665365 0.7635945 0.61798483
000020 8d 17 7c 3f 3f 4e be bf 8f fd 15 3f 4e 7a 21 3e
       0.98473436 -1.4867629 0.58590025 0.15769312
000030 c2 e6 e8 3d eb 02 52 bf 80 c3 21 3f ce 43 f5 bf
       0.113721386 -0.820357 0.63188934 -1.9161317
000040 ed 7f a7 3f 95 9e 53 be e6 cf 48 3f fb 97 7d 3f
       1.3085915 -0.20665963 0.7844223 0.9906003
000050 1b 56 d1 3e 09 62 c0 bf 9e ec 01 40 ad 0e 01 3e
       0.40886006 -1.5029918 2.030067 0.12603255

weight f4 [26, 9]
000000 6a 18 02 bf 44 34 db bf 6f c9 01 bf 6d 2f f1 be
       -0.508185 -1.7125325 -0.5069799 -0.47106495
000010 02 00 22 bf 74 c5 bb bf d8 25 60 bf ac b3 04 c0
       -0.6328126 -1.4669633 -0.87557745 -2.0734663
000020 15 60 8c bf e7 9b 38 bf 94 1f 2f 3c ae b5 ad 3e
       -1.0966822 -0.7211289 0.010688681 0.33927673
000030 1d cd 86 be d2 84 a3 3f 66 45 8c 3c 28 de 61 bf
       -0.26328364 1.2774909 0.017122936 -0.8822961
000040 ef 90 df 3e ab 6e 15 bc 2f 35 ab 3f f0 7d 8f be
       0.43665263 -0.009120624 1.3375605 -0.2802577
000050 da 2c 0d bf 07 c1 38 c0 dc 2b c1 bf 16 00 83 3f
       -0.55146563 -2.8867815 -1.509151 1.0234401
000060 39 f5 45 3e 7f 1a 3c bf 51 7e d9 3f e8 25 b1 3e
       0.19331826 -0.7347793 1.6991674 0.34599233
000070 3d 24 79 3f cd f1 b9 3f 12 a9 4f bd b1 69 21 bf
       0.9732092 1.4526917 -0.050698347 -0.630519
000080 b5 e8 27 bf 0d 42 dc 3f b7 6e 76 bf 64 a0 22 bf
       -0.6558946 1.7207657 -0.9626269 -0.63525987
000090 11 46 94 3d 0d 8c 0e 3f 51 56 07 3f a9 f0 9d 3f
       0.072399266 0.5568245 0.52866083 1.2339069
0000a0 6a 5d 8d bf 85 7b db bf 64 00 c4 3f 93 9d 0d bb
       -1.1044133 -1.714707 1.5312619 -0.0021608814
0000b0 1a f7 cc bf ef 63 72 3d ae e1 20 bf 2d ec 3e 3f
       -1.601291 0.059177335 -0.6284436 0.74579126
0000c0 d8 3d 98 3f 79 3e 1e be 67 0f 3a bd 86 7f 25 3f
       1.1893873 -0.15453519 -0.045424845 0.6464771
0000d0 bc 3f 06 3f 97 d8 5d 3e 65 fb 7b 3d 10 4a 25 3f
       0.52441 0.21664654 0.061519045 0.64566135
0000e0 92 ff fa 3c 94 dd 82 bf b1 0d 3c 3f c3 c5 8e 3f
       0.030639444 -1.022387 0.7345839 1.1154102
0000f0 38 5e 09 40 f9 34 68 bf 89 0f 2c bf b3 60 14 bf
       2.1463757 -0.9070583 -0.67211205 -0.5796005
000100 41 17 bf 3f 33 c7 32 bf 2b 24 3b 3e f1 d3 ad 3f
       1.4928972 -0.69835204 0.18275516 1.3580304
000110 ba 62 02 40 2f 68 24 3f ca 48 3b bf 5a 34 f9 be
       2.0372758 0.6422147 -0.7315794 -0.48672754
000120 16 1c 85 3e ef ed 10 bf 83 85 6c 3f 7f c4 f5 3e
       0.2599799 -0.5661306 0.9239122 0.48001477
000130 65 74 53 bf 22 c5 a2 3f 2e f2 8c 3e 98 c6 1c bf
       -0.8259948 1.271641 0.27528518 -0.6124053
000140 01 f8 68 bf 89 9c 16 bf 15 c9 16 3e 9b 9e 84 bf
       -0.91003424 -0.58832604 0.14725144 -1.0360903
000150 b6 55 37 bf 76 81 0d c0 75 22 2e bf b2 45 03 3f
       -0.7161516 -2.2110267 -0.6802133 0.5127822
000160 17 b2 49 3f e4 34 a4 3d df 28 d6 3e a3 92 ee bf
       0.7878737 0.080179006 0.41828057 -1.86385
000170 1b d4 8c bf 17 cc 0d 3e 08 fa 13 3f 5c d7 ab 3f
       -1.100223 0.13847385 0.5780339 1.3425097
000180 64 2d c9 bf 36 67 b6 3e fa 7e ac bf 09 6a 56 be
       -1.5716977 0.3562562 -1.347625 -0.20938887
000190 fe 67 80 be b3 dc 9d bf 7a 5f 20 3f 63 37 9c bf
       -0.2507934 -1.2332977 0.62645686 -1.2204403
0001a0 df 06 8f bf 8b 36 c2 3e b0 43 47 bf cf 4b 60 bf
       -1.1173972 0.37932238 -0.7783766 -0.87615675
0001b0 81 0d 3b bf 7a 3a 03 3f bb e3 ca 3e 4e 2b 24 3f
       -0.7306748 0.51261103 0.3962687 0.6412858
0001c0 7a c8 b8 bf f8 5d 4e bf 58 09 99 3f 65 85 ea bf
       -1.443618 -0.80612135 1.1955976 -1.8321959
0001d0 a6 4a d6 3e b3 61 90 3f 8d 0d da 3e 91 21 91 bf
       0.41853827 1.1279815 0.42588463 -1.1338369
0001e0 8d 4e c5 be f5 1b ac be 16 51 73 3f 02 e5 eb be
       -0.38536492 -0.3361508 0.950456 -0.46073157
0001f0 59 f6 1b bf 69 b2 b8 be 82 d6 c0 bf 27 b4 01 bf
       -0.6092277 -0.36073616 -1.5065463 -0.50665516
000200 de 37 95 3f 1e 9f 44 3f d6 53 c8 3e a6 97 94 3e
       1.1657674 0.76805294 0.39126462 0.2902195
000210 2e 3a 30 c0 7c 5d 54 bf 0c 91 f9 3e 4c 26 94 3e
       -2.753551 -0.82955146 0.48743474 0.28935468
000220 38 d9 90 bf ba 79 6f ba 4c c6 27 be 05 a4 7b be
       -1.131629 -0.0009135265 -0.16384238 -0.24574287
000230 dd b4 1a 40 0e 55 d2 3f 82 19 9f be 43 c3 c1 bf
       2.417289 1.6432207 -0.31074148 -1.5137714
000240 b1 7f 10 bf a4 c8 54 bf 7a 34 b2 bf 4f c3 cb be
       -0.5644484 -0.83118653 -1.3922265 -0.39797446
000250 ce 34 9f be cf de 65 bd a2 a7 04 3f c4 1d cc bf
       -0.31094974 -0.05612069 0.5181829 -1.5946584
000260 50 22 b7 3e 5b 09 13 c0 80 82 5e bf 4c 3a d6 bf
       0.35768366 -2.297446 -0.8691788 -1.6736541
000270 a5 1e 10 3f 51 c7 b7 bf 4c ae 37 3f 3a 78 af bf
       0.5629676 -1.4357702 0.7175033 -1.3708565
000280 96 fa a3 3e 19 9b cd bd 01 a8 53 3e b2 b8 9b 3f
       0.3202712 -0.10039348 0.20669557 1.216574
000290 0a 30 9e 3f 06 0e cf bd 31 bc 08 40 ae 7a 8d 3d
       1.235841 -0.10110097 2.1364863 0.06908165
0002a0 2b 86 fd 3e fc 95 63 3d 3a 8f cf 3e 19 d0 de bf
       0.49516425 0.055562958 0.4053896 -1.7407256
0002b0 60 86 98 3f 67 ad 28 40 12 49 69 3e f3 f0 a5 3e
       1.1916008 2.6355836 0.2278178 0.32410392
0002c0 c0 eb 8e bf c6 60 0c 40 4c 2d f2 3d 0e 5d 47 3f
       -1.1165695 2.1934066 0.11825046 0.77876365
0002d0 07 cc 8b bf 08 7c 7e bd 54 ff be bf c0 69 e1 bf
       -1.0921639 -0.062130004 -1.492167 -1.7610397
0002e0 a5 b4 f2 bf 19 e1 01 bb a5 80 fc bf 26 b2 f7 bf
       -1.8961378 -0.0019818007 -1.9726759 -1.9351242
0002f0 33 03 09 40 b1 bc 75 bf 57 6c 10 bf 0a 07 d2 3f
       2.1408203 -0.95991045 -0.56415313 1.6408398
000300 68 00 98 3e cd 68 2f bf db e4 23 bd 82 91 eb 3f
       0.2968781 -0.6851929 -0.040013175 1.840378
000310 1a bd 0d bf 49 cb 48 3f c9 03 2f 3f aa d9 c1 3f
       -0.5536667 0.7843519 0.6836515 1.5144551
000320 d5 e1 22 bf fc 71 29 be d1 32 fd 3e 70 8f f3 be
       -0.6362584 -0.16547388 0.49452832 -0.47570372
000330 db a3 f1 bf a6 ea 3e 3f 69 d0 c4 bd 39 18 b7 bf
       -1.887813 0.74576795 -0.096100636 -1.4304267
000340 b8 93 12 bf 85 f2 b6 bf 0f 15 2a bf e1 cf 81 3f
       -0.5725665 -1.4292761 -0.6643838 1.0141565
000350 25 a9 0f c0 0f c8 de 3e f7 ed 0e bf b6 65 60 bd
       -2.2446988 0.43512008 -0.55831856 -0.0547845
000360 28 7d 28 3f c5 8c 7e 3f 47 01 f8 be c8 4e e7 3e
       0.65815973 0.9943355 -0.48438475 0.45177293
000370 5c d7 ac 3f e6 d5 dd 3e 40 03 03 bf 82 5d 3f be
       1.3503222 0.43327254 -0.51176834 -0.18688014
000380 85 e3 45 be 60 0c 1f 3e 1e 0a b5 3e 23 71 3f bf
       -0.19325073 0.15532064 0.3535928 -0.7478201
000390 35 07 65 3e f4 a5 7e be 8e 7a c9 3f 18 56 74 be
       0.2236603 -0.24867994 1.5740526 -0.23860967
0003a0 a2 aa c3 bc 76 ea 3d 3d
       -0.023885075 0.046366177

weight f4 [128, 76]
000000 5a 03 c1 3d 28 78 67 3d 48 f9 ea 3d a0 9c 70 3d
       0.094244674 0.056511074 0.11473328 0.05874312
000010 e7 4f 99 bd d5 87 c4 3d b9 87 c0 3b 53 78 5d 3d
       -0.07485943 0.095962204 0.0058755544 0.05406983
000020 06 fc bc bd 9c bc 03 bd c8 c2 e7 bd 9a 55 37 bd
       -0.09227757 -0.032162294 -0.113164485 -0.04475937
000030 19 63 b9 3c 51 43 b5 bd b4 32 0a 3d 7f 12 6d 3d
       0.022630261 -0.0885073 0.03373976 0.057878967
000040 15 db 46 3c 6a da 9e bd f3 71 b9 bd e3 a5 12 bd
       0.012137194 -0.07756503 -0.09054937 -0.035802733
000050 c6 72 47 3d 52 87 e7 3d 65 a4 84 3d 16 0b 5d bc
       0.04869344 0.11305107 0.06476668 -0.013491413
000060 25 a6 23 3d a2 19 e7 bd d5 46 c9 bd 36 99 58 3d
       0.03995337 -0.11284186 -0.09827963 0.05288049
000070 1f 1f 86 bd f1 ad 60 3d 3c 6a a5 bd 5d 07 68 bd
       -0.06548905 0.054853383 -0.08076903 -0.056647647
000080 35 21 c2 bd b8 e7 72 3d 84 eb 4a bc a2 63 b5 3d
       -0.0947899 0.059303015 -0.012385253 0.08856894
000090 0c 2c 90 3d 51 92 82 3d 28 28 88 3b eb 02 15 bd
       0.07039651 0.06375564 0.0041551776 -0.036379736
0000a0 c5 2a db bc 41 c2 5a 3c c8 7c 65 3d 03 3b a6 bd
       -0.026753793 0.013351978 0.056027204 -0.08116724
0000b0 b5 1a bd 3d 5e f9 12 bc 71 81 be bd 50 f1 82 bd
       0.092336096 -0.008970587 -0.09302033 -0.06393683
0000c0 80 1d d3 3d 71 e5 d4 3d d3 1a d5 bd d8 42 a0 3d
       0.10308361 0.10395325 -0.10405507 0.078252494
0000d0 9d 6d 77 3d e0 36 82 3d 0e 45 c2 3d 67 6a 87 bd
       0.06040727 0.06358123 0.094858274 -0.066120915
0000e0 c9 73 04 3d 12 e3 2f 3d 93 8a 1c bd 5f cb 2a 3d
       0.032336984 0.04294116 -0.038218092 0.041697856
0000f0 f4 84 e8 bc 91 34 87 3d 5a eb 01 bd d5 54 36 bd
       -0.02838371 0.06601823 -0.03171859 -0.044514496
000100 54 82 ea 3c 3f b6 29 3d a2 7b 72 bd 8f f3 5f 3c
       0.028626598 0.04143357 -0.059199937 0.013668909
000110 0d 5c 88 3d 6a a3 31 bc d4 ed 0b 3d a4 5f df bc
       0.06658182 -0.010842184 0.034162357 -0.027267285
000120 55 31 27 3d f0 fb ab bd 1d 6f 8d bd 26 4e 6a bd
       0.04081853 -0.08397663 -0.06905959 -0.057203434
000130 4b 0d db 3d 8c 9e 01 bd 30 49 d0 b9 49 df 60 bd
       0.10695895 -0.031645343 -0.0003972738 -0.05490044
000140 f3 c9 eb 3d 7a d9 e4 3d da 5f b2 bd 77 b3 bb bd
       0.11513128 0.11174293 -0.087096885 -0.091650896
000150 51 7f b0 bd e6 83 0b ba ff b8 e7 bc e2 3a 9f bd
       -0.08618034 -0.00053220836 -0.028286455 -0.07774903
000160 a6 bc 29 bd 88 7d a4 3c 1a c3 75 bd 48 e7 df 3c
       -0.041439675 0.02007939 -0.060000516 0.027331963
000170 9f 60 d3 bc 70 bc 5a bd d1 01 8d 3c 38 39 c6 3d
       -0.025802908 -0.053402364 0.01721278 0.09678882
000180 5c cd 9a bd b1 f5 ef 3b d3 11 24 bd 01 30 eb 3d
       -0.075587004 0.00732299 -0.04005606 0.114837654
000190 de 43 da bd ae bf dd bd c9 a9 eb 3d 33 6b 91 bd
       -0.10657476 -0.108275756 0.11506993 -0.07100525
0001a0 aa 38 c4 3c 6b d1 fb bb 4b 18 b3 bc ab 1a be bc
       0.0239528 -0.0076848767 -0.02186217 -0.023206076
0001b0 63 bd 98 3d 27 c5 f6 3b 19 a2 e0 bd 7e f5 86 bd
       0.07457998 0.0075308266 -0.10968418 -0.06589793
0001c0 b2 48 19 bd 70 9e 75 3d d8 6b 93 bd 47 4c de 3d
       -0.037422843 0.05996555 -0.07198304 0.108543925
0001d0 28 62 bf bc 39 ea 96 bc 2c 52 ba 3d a1 b9 70 3d
       -0.023362234 -0.018422233 0.09097704 0.05877078
0001e0 5a d7 c3 3d 0d 6d 88 3d 96 04 15 bd 07 16 9f bd
       0.095625594 0.06661425 -0.036381327 -0.07767873
0001f0 a7 dd 2f bc 46 d7 bf 3d bf 93 17 bd 77 db d5 bd
       -0.010733998 0.09367232 -0.037006136 -0.1044225
000200 30 81 3b 3d 32 e7 e3 3d ce 32 0a bd f2 a0 be bd
       0.0457775 0.111280814 -0.033739857 -0.09308042
000210 02 d4 d3 bd 86 77 f7 3c 62 71 e6 bb b4 ed 72 bd
       -0.10343172 0.03020836 -0.0070325593 -0.059308723
000220 a4 60 b6 3c fa 5a 2f 3d 26 d3 bd 3d a4 15 b2 3d
       0.022262879 0.04281137 0.09268789 0.08695534
000230 f4 a5 76 bc c2 35 d3 bd c5 90 d1 bd 8a d8 da 3d
       -0.015054215 -0.10312988 -0.10232691 0.10685833
000240 1d 3f 4b 3d 91 1c 4c 3d 58 69 c4 bd cd 2b d8 3d
       0.049620736 0.04983193 -0.09590405 0.10555229
000250 73 08 de 3d 84 5b d7 3d 3f fc c1 bd ef b1 3c bd
       0.10841455 0.10515502 -0.0947194 -0.04606813
000260 d9 10 98 bd 6b 39 e8 3d ec 2c 48 bd 12 89 54 bd
       -0.074250884 0.113390766 -0.048870966 -0.051888533
000270 f9 51 78 3d af 85 58 bd 32 d5 5f bd fc 0b ee bb
       0.06062505 -0.052861866 -0.05464668 -0.0072646122
000280 0d bb 0c bc 29 bc bb bd fc ab c7 3d 4f b6 52 bd
       -0.008589518 -0.09166748 0.097496 -0.051443394
000290 2f f2 1f 3d 6c 23 ca 3d a7 e1 7e 3d 11 74 a9 3c
       0.039049324 0.098700374 0.062226918 0.020685228
0002a0 41 da cf 3d a3 3d 83 3c f3 25 5d bd 84 05 e0 3d
       0.101490505 0.016020602 -0.05399127 0.10938552
0002b0 bd 72 df 3c bd 08 e3 bd 8a ae ff bc 74 41 9e bd
       0.027276391 -0.11085651 -0.031211156 -0.07727328
0002c0 13 d2 d0 3d 79 03 92 bc 3b 2c d4 bd 6f 4c ce bb
       0.101963185 -0.017823922 -0.10359999 -0.0062957327
0002d0 07 5f 96 3d 8e 1c fb 3c 33 67 18 3d 27 cb 4b 3c
       0.07342344 0.030653264 0.037207793 0.012438572
0002e0 7d c0 33 3d 55 52 db bc 6e 03 36 bd 87 17 da bd
       0.043884743 -0.026772657 -0.044436865 -0.10649019
0002f0 7b c4 ad bd e4 50 50 3d 69 c0 88 bd 40 c4 8c 3c
       -0.08484741 0.050858393 -0.06677324 0.017183423
000300 06 58 19 3d cd be 06 3c aa 14 97 bd 05 fd e1 3d
       0.03743746 0.008224201 -0.07376988 0.11034588
000310 f0 a2 85 bd 17 4a bc 3d b2 99 c3 bd 5c 98 dc bc
       -0.065252185 0.09193819 -0.095507994 -0.02692812
000320 bb e5 78 3d b2 ca 3a bd 54 77 c4 3d 53 5c 9e bd
       0.060765963 -0.04560346 0.095930725 -0.07732453
000330 7b c2 ca bd 99 ee 47 bd b4 a1 92 3c d2 da e0 3d
       -0.099003755 -0.04881153 0.017899372 0.10979237
000340 98 1e 55 bd 25 83 39 3d fd 77 ce bc 94 09 de bc
       -0.05203113 0.045291085 -0.0252037 -0.027104177
000350 91 0c a6 3d f0 06 b0 bd e2 84 83 3c f4 8e e1 3d
       0.081078656 -0.08595073 0.016054574 0.11013594
000360 5c f5 73 bc 87 c4 b4 3d 20 81 03 bd 41 d0 ba 3d
       -0.014890041 0.08826547 -0.032105565 0.091217525
000370 aa 0c e5 bd 96 9f 8e bc 1d 34 ab bc 67 e2 17 3d
       -0.11184056 -0.01741008 -0.020898873 0.03708115
000380 99 4b 36 3d 4d b5 b6 3d b0 56 94 bc b6 e1 95 bb
       0.04450569 0.08921299 -0.018107742 -0.004574026
000390 5f b4 9b 3d a2 12 08 bd 7c be cc 3d 03 40 9d bd
       0.076027624 -0.033220895 0.099972695 -0.07678225
0003a0 63 fa 4e bc 8f 64 97 bb 2b b4 4c 3d 6a 4e 9f 3d
       -0.012632939 -0.004620142 0.04997651 0.07778628
0003b0 c7 73 a1 bc 64 0d bc bd 13 67 5b 3d 1c d1 15 3d
       -0.019708527 -0.091822416 0.053565096 0.036576375
0003c0 6f 25 33 3d 7b b2 8e bd 10 62 91 3d 9d 9a d9 3d
       0.04373687 -0.06967636 0.07098782 0.10625193
0003d0 bb 19 df 3b f5 2d db bd 28 e3 a6 3d 8d 89 ad bd
       0.006808487 -0.10702125 0.08148795 -0.08473501
0003e0 e5 ac d9 3c e2 2c 86 3c 48 b4 5e bd ca 24 23 3d
       0.0265717 0.016378824 -0.05437115 0.039830007
0003f0 0c 36 d2 bd e9 7d d8 3c f7 ab 94 bd fe 51 42 bc
       -0.10264215 0.026427226 -0.07259362 -0.011860369

bias f4 [128]
000000 11 68 8e bd e8 e3 85 bd 1b 6a a1 bd 01 bf 7b 3d
       -0.06953443 -0.0653761 -0.07881566 0.061461452
000010 ae 4f 90 3c ef 14 19 bc 60 85 04 3d 65 11 87 3d
       0.01761612 -0.00934337 0.03235376 0.065951146
000020 5a de 15 3c 69 f1 98 3d ae 39 74 bc a6 ca 39 3d
       0.009147251 0.0746792 -0.01490633 0.045359276
000030 22 bb b4 3c 06 87 ad b8 f3 14 ab 3d 32 2a e1 3d
       0.022061888 -8.274433e-05 0.08353605 0.10994376
000040 18 6f b7 3d 06 5a dd bc 7b 0b 1c bd 8a cf bd 3d
       0.08956736 -0.027020466 -0.038096886 0.092681006
000050 5c 60 56 bd 8e af 32 3c 03 96 81 bd 2d e9 ed bc
       -0.05233799 0.010906113 -0.063274406 -0.029041851
000060 1f 67 30 bd 7e 10 93 3d 47 08 44 bd 23 68 4e bd
       -0.043067094 0.0718088 -0.047859456 -0.05039228
000070 0f e2 45 3d ad 2c 08 bc 69 3c f2 3b 15 db ad bd
       0.04831129 -0.008311433 0.0073924554 -0.08489052
000080 7e a8 4a bd 5e b0 6e 3d 3a c4 4c 3d 68 54 d7 bd
       -0.049477093 0.058273666 0.049991824 -0.10514146
000090 b9 e5 a6 bd d5 ca 10 3d e1 96 b9 bd fd 35 6d bd
       -0.08149285 0.035349686 -0.09061981 -0.057912815
0000a0 ee ba 87 bd f3 58 b6 bd 8b 7c 6d bd 85 70 a6 3d
       -0.06627451 -0.089036845 -0.0579801 0.0812693
0000b0 15 35 dc bd c0 91 9e 3d c8 91 cd bd 0d e2 ec bc
       -0.10752312 0.07742643 -0.10037571 -0.028916383
0000c0 41 f6 16 bd 86 44 96 3d 91 ad bd bd 59 4e 6c bd
       -0.03685594 0.073372886 -0.09261621 -0.057691906
0000d0 f3 a2 e5 bd bf ff ee bc eb 56 42 3d df dc de 3d
       -0.11212721 -0.029174684 0.047446173 0.108819716
0000e0 6b 3c d0 3d f8 53 f3 bc 9e 9b 7f bd f8 42 d4 3c
       0.10167774 -0.029703125 -0.062404267 0.02591084
0000f0 08 d5 a0 3d 66 1f d0 3d 28 01 9c 3d bd 25 f9 ba
       0.078531325 0.10162239 0.07617408 -0.0019008439
000100 96 f6 c5 bd 38 c3 90 bd c4 3f 93 3d ea 11 ca bd
       -0.09666173 -0.07068485 0.07189897 -0.09866698
000110 5b 99 ac bd a7 4a 95 bd 3e fa f7 bc e1 d4 54 3d
       -0.08427688 -0.072896294 -0.030270692 0.05196083
000120 85 b7 9d 3d 41 bc b2 3d b0 cc 5a 3d 88 70 dc 3c
       0.07701019 0.08727313 0.05341786 0.026909128
000130 a7 a7 fe bc 89 4c 8e bd 14 82 74 bd d2 b6 97 bb
       -0.031085802 -0.06948192 -0.059694365 -0.004629948
000140 07 f9 c9 3d 44 b9 2a bd 56 3d 9e bc 87 cb 18 bb
       0.09861951 -0.04168059 -0.019316357 -0.002331467
000150 e0 fd 4a bd 7f 38 64 bd e9 9d 04 3d b2 59 a4 bd
       -0.04955852 -0.05571794 0.032377157 -0.080249205
000160 bf 87 e9 bb 79 5c bf bc 43 c3 bd 3c 37 1a 87 bc
       -0.007126778 -0.023359524 0.023164397 -0.016491992
000170 33 c3 72 bd 0a 88 00 bd d3 c7 db bc 06 ce 4c 3d
       -0.059268188 -0.031379737 -0.026828682 0.050001167
000180 17 1f c7 3c 56 ee 07 bd 8d 00 b7 3d 88 d3 34 3c
       0.024306817 -0.03318628 0.08935652 0.011036761
000190 8e 7c 7b 3d 8f b7 24 bd dd 58 ca bd 37 19 e0 bd
       0.06139808 -0.040214118 -0.098802306 -0.10942309
0001a0 20 da 16 bd 08 68 93 3d be 00 89 3d 03 9a 0c 3d
       -0.036829114 0.07197577 0.06689595 0.034326565
0001b0 c2 e0 fe 3c 7c 9f 9e bd 50 a1 0b bd 1c 54 3f 3c
       0.031113032 -0.07745263 -0.034089386 0.011677768
0001c0 8e f2 c6 bd 75 62 d1 bd aa a6 af bd 19 e7 17 3d
       -0.097142324 -0.10223857 -0.085767105 0.037085626
0001d0 68 e7 71 bc 1e 65 94 bc f5 03 95 3d d6 23 a2 bd
       -0.014764644 -0.018114623 0.07276145 -0.079169914
0001e0 a7 5d 92 bd 77 3f c0 bc d7 e6 91 3d 09 b9 9a 3c
       -0.07146769 -0.023467762 0.07124107 0.01888706
0001f0 ad 20 c6 bd d9 98 a3 3d ee 57 84 bd 7a 5e b3 3d
       -0.09674201 0.07988138 -0.06462084 0.08758254

weight f4 [128, 128]
000000 51 71 08 3d 5e 6c c8 3c 7d a3 98 3d f2 ca 03 3d
       0.033311192 0.024465736 0.07453058 0.032175966
000010 cc 8d b2 bd 6a 5d 14 3d e5 c9 ad 3d 95 3d 0e bd
       -0.08718452 0.0362219 0.08485774 -0.034726698
000020 10 04 88 3d 4b f0 94 3d e1 01 ae bc c6 90 6d 39
       0.066414 0.07272395 -0.02124113 0.00022656014
000030 ac c2 09 bc 62 c4 9d 3d ff 4f 13 3d bd a0 80 3d
       -0.00840823 0.07703473 0.035964962 0.062806584
000040 f3 e4 9d bd e1 bd 10 bd 06 59 7e bd 32 38 8f 3c
       -0.07709684 -0.035337333 -0.062096618 0.01748285
000050 17 ca 18 bd 6f 88 d3 3c 19 e0 40 3d 3d 5a cd bc
       -0.037302103 0.025821893 0.047088716 -0.025067443
000060 c0 05 3b 3c fb f5 89 bd 33 ee 0b bc 47 38 74 3c
       0.011414945 -0.0673637 -0.008540678 0.014905996
000070 25 02 7c 3d 78 be 0d 3d c4 88 be 3c a9 f7 33 3d
       0.061525483 0.034605473 0.023258574 0.04393736
000080 6d a1 8b 3d aa ee e7 3b fd 3c af 3d 98 7a 5c bd
       0.06817899 0.0070780115 0.085565545 -0.053827852
000090 bf 0d e5 3c d1 01 94 3a 14 32 88 3d fb 89 af bd
       0.027960656 0.0011292045 0.06650177 -0.085712396
0000a0 3e 1b 2e 3d d0 8c 9c bd 8e 8a c7 bc f7 ab e4 bc
       0.04250645 -0.07644045 -0.02435806 -0.02791403
0000b0 f7 23 f0 bc 18 7a 30 bd 39 e3 91 bd c9 3b 9c bd
       -0.029314024 -0.043085188 -0.071234174 -0.076285906
0000c0 71 9e 8f bc c2 0d 96 3d 0b 8c be bc e5 10 72 bd
       -0.017531605 0.07326843 -0.023260137 -0.059098143
0000d0 2c 56 d1 bc 47 86 8a bd 2f 4f d2 bb 3e 01 96 3d
       -0.025553785 -0.067638926 -0.006418131 0.07324456
0000e0 fb bc af bd 9f 5c 44 3d 2e 0f 88 3d 76 04 83 3d
       -0.08580967 0.047939893 0.0664352 0.06397335
0000f0 fe d3 56 bd 53 a7 3d 3c 96 29 41 3d 36 39 9e bd
       -0.052448265 0.011575538 0.0471588 -0.07725756
000100 e6 95 8c 3d 31 4a 07 bc a2 6f 9d bd da 6c b3 bc
       0.06864528 -0.008257435 -0.07687308 -0.02190249
000110 b5 3b 2c 3b 33 ab 11 bd 18 26 0f bd 9a 12 01 bc
       0.0026280705 -0.03556366 -0.03494844 -0.00787797
000120 e5 49 e5 3c cf 93 1f 3d d2 87 b0 bd ce df af bb
       0.027989337 0.03895932 -0.08619656 -0.005367256
000130 6d 59 b2 3c c7 9b 8f 3d 27 ba 30 3d 60 d5 7c 3d
       0.021771157 0.07012134 0.04314628 0.061726928
000140 68 ab d9 3c 2a 79 c5 bb e3 bc 44 bd bd 6e 16 bd
       0.02657099 -0.006026407 -0.0480317 -0.036726702
000150 80 68 e1 3c aa 25 99 bc 61 0e a5 3d 68 12 5e bd
       0.02751565 -0.018694717 0.08059383 -0.054216772
000160 ba 02 74 3d 18 26 53 3d 87 3e 72 3d 8d 76 8c 3d
       0.059572913 0.05155 0.059141662 0.06858549
000170 fd 3e 57 bd e2 b4 50 3d cb a1 b0 bd 4b 22 3c bd
       -0.052550305 0.050953753 -0.086246096 -0.04593114
000180 c0 02 66 bc 14 d5 98 3d e1 10 8e bc ee dc 90 bd
       -0.014038742 0.074625164 -0.017342033 -0.07073389
000190 21 c8 a3 bd 41 99 6f 3a 19 d6 f3 3b fc 7d 8f 3c
       -0.07997156 0.0009139963 0.007441294 0.017516129
0001a0 4d 1b c3 bc 71 21 f2 3c d5 9c d6 3b be a9 9c bc
       -0.023816729 0.029556962 0.0065494576 -0.019123908
0001b0 f4 6b 3e 3d 7c 05 80 bd b4 18 3c bd 3f 50 c7 3c
       0.04648967 -0.06251046 -0.045921996 0.024330257
0001c0 17 4f c7 bc 92 a8 9e ba d4 2c 02 bd 62 f7 53 3d
       -0.024329705 -0.0012104681 -0.031781033 0.051749595
0001d0 9e d7 ad 3d a2 2a 9b 3d 02 51 bf 3c 3d b2 6a bd
       0.08488391 0.07576491 0.023354057 -0.057298888
0001e0 de 6a fc bc 4b 33 26 bd 78 91 70 bc 6b d4 31 bd
       -0.030812677 -0.04057626 -0.01468312 -0.04341547
0001f0 1f ae 56 3d ee 3b ad bd 63 fc 83 3b 0a c4 82 3d
       0.05241215 -0.08458696 0.0040278896 0.06385048
000200 01 ab 8b bd 5b 98 81 bc 6c 77 54 3d 62 99 ed bc
       -0.06819726 -0.015819719 0.051871702 -0.029003803
000210 1a 32 2a bd 49 61 47 3d 0b b3 81 bd d7 2e b4 3d
       -0.041551687 0.048676763 -0.06332978 0.087979965
000220 83 4c a4 3d 53 e2 9a 3b 58 43 5b 3c 9e 2f 34 bd
       0.08022406 0.004726687 0.013382755 -0.043990724
000230 19 c8 ac 3c a0 78 87 bd 3e 9a b6 bc 1d ea 8d 3d
       0.021091508 -0.06614804 -0.022290345 0.06929419
000240 58 fe d3 3c d4 fb 80 3d a0 58 68 3d 36 30 ae 3d
       0.025878116 0.062980324 0.056725144 0.08505289
000250 cd 5f c2 3c 34 b9 82 bd e7 01 a3 bd cc e9 66 3d
       0.023727322 -0.06382981 -0.07959347 0.05637531
000260 8e 43 95 3d 39 67 ae 3d 49 e9 71 bd 17 68 a6 3d
       0.07288276 0.08515782 -0.05906037 0.08125322
000270 63 cf 03 bd 46 b2 c4 3c 03 bf 6f 3d 65 43 8d bd
       -0.0321802 0.024010789 0.058531772 -0.0689762
000280 dc 46 b0 bd 56 0d 66 3d dc c2 a7 bd 69 8b 2e 3d
       -0.08607265 0.056165062 -0.08191463 0.04261342
000290 ef fd 4c 3d 6b 78 82 3d 51 25 63 3b 89 61 ba bc
       0.050046857 0.06370624 0.0034659693 -0.022751587
0002a0 74 cb 67 3c 0d bc 1c bc cd cd a4 bd 85 1e a0 3c
       0.014147628 -0.009566319 -0.08047066 0.019545803
0002b0 a5 64 48 bd 9a 98 84 3d d8 f9 1d bd a6 3c 86 bc
       -0.048924107 0.06474419 -0.038568348 -0.016386341
0002c0 3d f4 86 bd 80 d8 a6 3d 75 d6 4d 3d da b0 9d 3d
       -0.065895535 0.08146763 0.05025335 0.076997474
0002d0 37 e8 5a 3d 19 98 4a bd b2 07 b0 3d cb 8b 40 bc
       0.053444114 -0.049461458 0.08595218 -0.011752079
0002e0 c1 c1 a6 3d 6b 29 28 3c e1 af 66 3d d0 da 14 bd
       0.081424244 0.010263781 0.056320075 -0.03634149
0002f0 8f d5 10 3d 81 89 81 ba 52 2d 87 bd a6 7d 88 3d
       0.035359915 -0.0009882898 -0.06600441 0.066645905
000300 a9 75 47 bd 6f 52 7b bd 25 18 90 3d 24 ba a0 bd
       -0.048696194 -0.06135791 0.07035855 -0.078480035
000310 c4 6b f9 3c 37 8b 8c 3d 1f e7 48 bc d8 0c ad bd
       0.030446894 0.068624906 -0.012262135 -0.084497154
000320 aa a4 90 bd 80 50 90 bb 2f ba 43 bc e0 4a 7b 3d
       -0.07062657 -0.0044041276 -0.011946245 0.061350703
000330 d0 57 91 3d 49 fc 5e bd 81 45 d2 bc 7d 4c 8f bd
       0.07096827 -0.054439817 -0.025667908 -0.06997011
000340 48 97 a5 3c f1 d0 80 3d e7 d3 d8 bc 60 53 18 3b
       0.020213738 0.062898524 -0.02646823 0.0023243055
000350 22 40 ff bb 5c 72 a0 bd f6 90 ad 3d 7f 9a a6 3c
       -0.0077896276 -0.07834312 0.08474915 0.020337341
000360 80 eb a8 3d f6 93 92 bd 2a 8d d9 bc 6e 71 ad bc
       0.08248043 -0.071571276 -0.02655657 -0.021172252
000370 7e 95 e7 3c ab e6 a5 bc 95 d2 53 bd 9b 2d 96 3d
       0.028269526 -0.020251593 -0.0517145 0.07332917
000380 c7 b3 8d 3d 77 ef bc 3d fc 92 4f 3d 19 ce 6d 3d
       0.069190554 0.09225362 0.050677285 0.05805788
000390 85 3f 6d bd b3 ef 8f 3b 2f 0f d1 bc 40 36 b7 bb
       -0.057921905 0.004392588 -0.025519935 -0.005591184
0003a0 7d 56 d7 3b ae 92 a3 3c b3 94 41 bd 6d 52 52 bc
       0.0065715895 0.019967403 -0.04726095 -0.012837035
0003b0 4d 3b 24 bd ee 2f be bc 0e 6e 6d bd 44 05 43 bd
       -0.040095616 -0.023216214 -0.057966284 -0.047612444
0003c0 17 8b 80 bd 06 3f 76 bd 4b a5 b0 bb e2 d9 98 bd
       -0.06276529 -0.060118698 -0.005390798 -0.07463433
0003d0 95 33 a8 bd 7d 8a 7b 3d 33 a0 85 bd 88 fe 79 3d
       -0.082129635 0.06141137 -0.06524696 0.061033756
0003e0 8b 17 28 3c 6f b3 43 bc cf cf 8d 3d 97 2f 8e bd
       0.010259519 -0.011944636 0.06924402 -0.06942671
0003f0 c3 10 37 3d b2 08 7c 3d d2 9c 90 3d 80 db ab bd
       0.04469372 0.06153173 0.07061161 -0.08391476

bias f4 [128]
000000 ce 0c 06 3a 2a f7 15 3d 38 81 16 3d 55 13 ae bd
       0.00051136024 0.036612667 0.036744326 -0.08499781
000010 cd b1 04 bd 46 24 97 bd b1 18 ae bd cd 75 6c 3d
       -0.032396127 -0.073799655 -0.08500803 0.05772953
000020 5a 88 8a 3d ba 91 7c bd 35 6e 08 bd 30 a4 36 3d
       0.06764288 -0.061662413 -0.033308227 0.044590175
000030 16 25 a5 3d 8d db 9c 3d a0 75 5d 3d bd 75 9a bd
       0.08063714 0.076590635 0.054067254 -0.07541988
000040 2a 8d 4f bd f1 6c 8f 3d 2e be a2 bd cd b6 1b bd
       -0.050671734 0.07003201 -0.0794643 -0.03801613
000050 26 94 92 bd 1e c1 8d bd 87 6c a4 3c f1 be e5 bc
       -0.07157163 -0.069216 0.020071281 -0.02804515
000060 05 cd a2 bd f4 43 88 bd cb e8 9a 3d 6d 7a 92 3d
       -0.079492606 -0.06653586 0.07563933 0.07152257
000070 73 86 28 3d 04 63 21 3d ff 5b 59 bd e8 07 03 bd
       0.041143846 0.03940107 -0.05306625 -0.03198996
000080 60 49 74 bb b6 69 05 3d 6c a5 12 3a 80 eb b7 3c
       -0.003727518 0.032571517 0.0005594108 0.022451162
000090 5b e4 2e bd 69 8f 01 bd d8 99 09 3d c8 0f a6 bd
       -0.042698245 -0.031630907 0.033593982 -0.08108479
0000a0 1a 1d e9 3b 98 b4 a1 3d cc 7e 68 bd e1 21 95 bc
       0.007114065 0.07895774 -0.056761548 -0.018204631
0000b0 68 2a 6a bc ad 54 fe bc cb 0d 61 3d 00 a0 a0 3c
       -0.014292337 -0.031046236 0.054944795 0.019607544
0000c0 b7 ed a9 3d fb 69 b6 bc e8 ea eb 3c 18 2c c3 3c
       0.08297294 -0.022267332 0.028798535 0.023824736
0000d0 d3 de 43 bd 2f 85 b2 bd 8c aa 43 3d 69 e7 74 bd
       -0.047819924 -0.08716809 0.047770068 -0.059791002
0000e0 75 c5 ea bc df a1 87 bc 4c 56 ae bd c9 f3 65 3d
       -0.028658608 -0.016556678 -0.085125536 0.056140695
0000f0 08 24 c2 bc 3a f2 34 bd c1 1c a2 bd 03 13 47 3c
       -0.023698822 -0.044176318 -0.079156406 0.012150529
000100 b5 51 54 bb 97 f8 5d bc 4b 56 05 bd 8f ae 00 3d
       -0.0032397334 -0.013548038 -0.032553 0.031416472
000110 56 99 91 bc 62 05 23 3c 14 f7 66 3d 06 18 c6 3c
       -0.017773312 0.009950014 0.056387976 0.024181377
000120 19 b6 81 bd 57 42 72 bc e0 d7 07 bd f5 25 15 3c
       -0.063335605 -0.014786324 -0.03316486 0.009103288
000130 0d f7 60 3d 64 b3 19 bc 6d 0c 0d bd 5f a3 2d bd
       0.054923106 -0.009381149 -0.03443568 -0.04239213
000140 da 89 48 3d 1d b0 d1 bc c1 82 a3 3b be 57 8f bc
       0.04895959 -0.025596673 0.0049899523 -0.017497893
000150 f2 93 87 bd b2 f0 10 3d 51 04 93 3d 05 b3 55 bd
       -0.06620015 0.035385795 0.07178558 -0.05217268
000160 78 b7 2e 3c e3 dd da 3c ad fa d4 bc e7 9a 5d bc
       0.01066386 0.026717132 -0.025998438 -0.013525701
000170 bd c7 b9 ba 7c 37 4f 3d b0 26 a5 bb f4 5d b6 bd
       -0.0014173907 0.050590023 -0.0050400123 -0.08904639
000180 dd 5f e2 bc 66 61 25 bd 0d 1a 02 bc 69 60 3f bd
       -0.027633602 -0.04037609 -0.007940781 -0.046722803
000190 67 01 3b 3c 36 93 71 bc 5e 0a 35 bd 11 5a e0 bb
       0.011413909 -0.0147445705 -0.04419934 -0.0068466743
0001a0 05 95 83 bd a9 fd 3b bd 62 45 3d 3d 23 8d 65 3b
       -0.064249076 -0.045896206 0.046208747 0.003502675
0001b0 f4 4d 46 3d 50 2f ce 3c a6 55 71 3d b6 8c a6 3d
       0.048414186 0.025169045 0.05891957 0.08132307
0001c0 44 77 89 3d 33 d9 b0 bc 84 60 0a bd 55 51 8c 3d
       0.06712201 -0.021587944 -0.03378345 0.0685145
0001d0 e0 c7 36 3d 54 87 9e 3d c5 ee a9 3d b5 b5 73 3d
       0.04462421 0.077406555 0.08297495 0.05949946
0001e0 39 14 2e 3c fb 2a ec ba 73 15 49 bd b6 7a ad 3d
       0.010624939 -0.001801818 -0.04909272 0.08470671
0001f0 51 53 44 bd 03 21 4e 3d d8 3e f1 bb 19 ba 48 bd
       -0.04793102 0.05032445 -0.007362228 -0.0490056

weight f4 [128, 128]
000000 d5 6a 86 bd 6c 46 be 3c 64 6b e5 bc d3 98 50 3d
       -0.06563345 0.02322694 -0.02800531 0.050926995
000010 76 78 2b bd ad cb 7b bc ce 74 da 3c f2 b5 aa 3d
       -0.041862927 -0.015368384 0.026667025 0.083354846
000020 2e 03 9b bd 33 2e 49 bd 16 71 56 bd 2a 8d c4 3c
       -0.07568966 -0.049116325 -0.05235394 0.023993094
000030 ed c8 97 3d 67 86 6e 3c ee 15 15 3c 50 c6 76 3d
       0.074113704 0.014558411 0.009099467 0.06024772
000040 65 95 8c bd 65 9b ad 3d 9e 51 b2 3d 7c 0e 74 bd
       -0.06864432 0.08476905 0.087069735 -0.059584126
000050 26 11 7f bb 7a 69 1a 3d d2 9f 60 bd f0 d6 25 bd
       -0.0038920133 0.037698247 -0.054839917 -0.040488183
000060 9f f3 83 3d 1a 3f 89 3d 91 05 8b bd 1b 9e 18 3d
       0.064429514 0.06701489 -0.06788171 0.037260156
000070 9b 8e 35 bd 8e 2c 19 bc eb dd b8 bd 21 54 97 bd
       -0.044325452 -0.009349002 -0.090267025 -0.07389093
000080 8a 10 ef bb 2c 0c 7d bd a5 0c 45 bd 79 ad 35 3d
       -0.007295673 -0.061779186 -0.048107762 0.04435489
000090 b0 e8 4b 3d 7d 49 87 bd 85 c6 81 3d d4 56 ad 3d
       0.049782455 -0.06605814 0.06336693 0.08463827
0000a0 ff 78 b6 bc 3f c9 0e 3d f2 65 1f bc 37 23 a6 bb
       -0.022274492 0.034859892 -0.0097288955 -0.005070116
0000b0 d5 ce 9f bc f4 14 b1 3c 2c 4e a7 3d 93 8f e2 bc
       -0.019507805 0.021616437 0.08169207 -0.027656352
0000c0 f6 c6 ee bc 79 bb b0 3d a6 28 83 3d 29 ae 72 bd
       -0.029147606 0.086295076 0.064042374 -0.059248123
0000d0 3e 30 a8 3d 49 8f 95 bc 06 f3 ca 3c 11 9b 3e 3c
       0.082123265 -0.0182568 0.024774086 0.01163365
0000e0 45 56 3e bc 90 84 57 bd f0 56 87 3b fd a3 81 bd
       -0.011617248 -0.052616656 0.004130237 -0.063301064
0000f0 bf c3 6f bc 61 a8 5f 3d 64 5e 89 3d 25 40 5e bd
       -0.014634072 0.054603938 0.06707457 -0.05426039
000100 d1 b4 25 3d 21 85 af ba e5 a9 85 3d 75 51 7b 3d
       0.040455643 -0.0013391116 0.065265454 0.06135698
000110 ac 55 f7 bc 4a b9 39 3d ab 01 cd 3c 98 85 15 3d
       -0.030192219 0.04534272 0.02502521 0.036504358
000120 f1 dd 5f bd ac be 68 3c 8d 63 96 bd ad 71 3c 3d
       -0.05465502 0.014205616 -0.073432066 0.046006847
000130 cc 38 c5 bc 27 39 16 3d e8 0d 88 3d bc d4 09 3c
       -0.024074934 0.0366756 0.066432774 0.008412536
000140 7b c2 8e bd 04 2f 83 bd 77 7a 6f 3c ea 45 b1 bd
       -0.06970688 -0.06405452 0.0146166 -0.08655913
000150 b5 cd 43 3d e3 1a b2 bc 56 9c 8a bd 9a c0 5c 3d
       0.0478036 -0.021741336 -0.067681 0.053894617
000160 e6 9f 4f 3c ec 27 a1 3d df 88 16 3b 8a f7 0d 3d
       0.0126724 0.078689426 0.0022969765 0.0346599
000170 91 fa 50 3d 40 09 2b 3d 56 88 23 bd 12 5d 90 bd
       0.05102021 0.04175687 -0.039924942 -0.07049002
000180 ec 55 da bb 6b ac ac 3d 23 b5 58 3d b5 95 f4 bc
       -0.0066630747 0.084313236 0.05290712 -0.029856542
000190 99 07 0b bd 39 6f 80 3d f1 8e 64 3d 21 aa 26 3d
       -0.033942793 0.06271214 0.055800382 0.04068959
0001a0 bf e4 96 bd b3 32 a7 bd 6c 4a 73 3d ae f6 9b 3d
       -0.073678486 -0.08163967 0.059397146 0.0761541
0001b0 03 83 a2 3d d9 70 39 3d ba fe 07 bd 2a 8b 34 bc
       0.07935145 0.045273636 -0.03320191 -0.011019507
0001c0 e0 64 9b 3d 26 5c 46 bb 95 f0 60 bd 0e 7a 1d 3d
       0.075876 -0.0030267327 -0.054916937 0.03844648
0001d0 3b a5 7a bd f1 ff ce 3c a1 a4 1d bd 4a f6 85 bc
       -0.061192732 0.025268527 -0.03848708 -0.016352791
0001e0 8a 87 33 3d 73 b6 27 bd a2 48 6b b8 05 5e 9a bd
       0.043830432 -0.04094548 -5.609601e-05 -0.07537464
0001f0 9e 17 68 3c f8 df ff bc 3a 43 17 3d d2 e7 92 3d
       0.014165787 -0.031234726 0.036929347 0.071731225
000200 26 f5 5f bd a2 0b af 3d 78 3a 15 3d 12 19 a0 3d
       -0.05467715 0.08547141 0.036432713 0.07817282
000210 2d d9 0c 3c 75 07 4c bd ff 53 8c bd 25 50 9a 3d
       0.008596701 -0.0498118 -0.068519585 0.075348176
000220 fb c4 54 bd 62 39 63 bd 50 9d e5 bc 27 3a b5 bd
       -0.051945668 -0.055474646 -0.028029114 -0.08848982
000230 c1 a1 06 bb 37 56 5a 3b 79 4e 5d 3c 62 18 48 ba
       -0.002054319 0.0033315548 0.013507479 -0.0007633028
000240 f3 89 49 bd 3f aa 9c 3d 4e 08 1f bd c6 f0 9b bd
       -0.049203824 0.07649659 -0.03882628 -0.07614283
000250 01 9d 8d 3d a8 e6 8d bd e0 35 82 bd ab ae a3 bd
       0.06914712 -0.0692876 -0.06357932 -0.079923
000260 51 a5 47 3d a0 26 b4 3c b2 c4 89 3d 96 ed 58 3d
       0.048741642 0.021991074 0.0672697 0.052960955
000270 27 56 49 bd f6 cc ac 3c 10 21 09 3c 23 10 58 3d
       -0.049154427 0.021093827 0.008369699 0.052749764
000280 03 01 21 bd 99 d8 9a 3d 81 03 81 bc 80 a6 43 bd
       -0.039307605 0.07560844 -0.015748741 -0.04776621
000290 73 2e dd bb 96 8e 28 3d bc 3e 62 3c 5b cf 93 3d
       -0.006749922 0.041151606 0.013808902 0.07217284
0002a0 c5 65 f1 3c b5 4a a4 3d 9e 6e d5 3c 46 a8 b5 bd
       0.029467473 0.08022062 0.026053723 -0.08869986
0002b0 4f 25 b1 bb b5 50 e4 bc ce d1 99 3d b8 b4 9f 3d
       -0.005406059 -0.027870515 0.0751072 0.07798141
0002c0 88 6f c7 3c b8 e7 21 bd bd 53 e2 bc 65 0a 5e bd
       0.024345174 -0.039527625 -0.02762782 -0.05420913
0002d0 7c fa 9c bd 7d 67 32 bd 11 74 8e 3d 5d 6b 1d 3d
       -0.076649636 -0.043555725 0.06955732 0.038432468
0002e0 7a 22 8e 3c d7 75 a0 3d ac 3a f7 bc 1b fc a6 3d
       0.017350424 0.07834976 -0.030179344 0.08153554
0002f0 50 4b 55 bd 5a 54 6c 3c 80 d3 b2 bc 37 70 11 3d
       -0.052073777 0.014424408 -0.021829367 0.035507407
000300 7e a9 dd 3c 11 30 26 3d f4 0c 99 3c fe b0 90 bd
       0.02705836 0.040573183 0.018682934 -0.070650086
000310 ef 18 59 3d 61 94 cc 3c de a0 29 3d 1f ae 8f bd
       0.053002294 0.024973096 0.04141318 -0.07015633
000320 c0 71 aa bd be a2 4e 3d c2 90 77 3d a1 1c 37 bd
       -0.08322477 0.05044817 0.060440786 -0.044705037
000330 20 df dc bc f5 d2 09 3d 96 a8 47 bc 19 59 72 bd
       -0.026961863 0.03364845 -0.01218619 -0.059167
000340 2e b7 97 bd 84 80 f2 3c 16 5e a0 3d 0a 73 a9 3d
       -0.07407986 0.029602297 0.078304455 0.08273895
000350 1e 02 39 bd b7 57 96 3d b6 ca 89 ba 33 ea cd 3c
       -0.045168035 0.07340949 -0.0010512683 0.025136089
000360 a9 1c 94 bd 6b af 22 bc 27 5b e1 ba 79 27 54 3c
       -0.07232029 -0.009929518 -0.0017193303 0.012948864
000370 8e d8 a7 3c 25 69 9b 3a 8e 79 33 3a 34 c4 3a 3c
       0.020489004 0.0011856897 0.0006846421 0.0113993175
000380 d8 70 39 bd a7 5a 84 3d e6 38 51 bd d4 ff b5 3c
       -0.04527363 0.06462603 -0.051079653 0.022216715
000390 08 da 83 bd 36 77 a3 3c 7f 17 97 3d be b2 84 bd
       -0.064380705 0.019954305 0.073775284 -0.06479405
0003a0 3a f4 53 3d 9b b3 6a 3d 47 24 70 3d 55 6e a7 3d
       0.051746584 0.05730019 0.058628347 0.08175341
0003b0 4b 07 7a bd e9 e9 b4 3d ba c4 14 bd 32 71 78 bc
       -0.06104211 0.08833677 -0.036320426 -0.015163707
0003c0 be 22 df 3c 1a 5a 65 bd 62 59 24 bc 56 eb ae 3d
       0.027238246 -0.05599413 -0.010031076 0.085409805
0003d0 c3 ee d9 3b 99 5c 4a bd 6e a1 12 bd 1b 0a 04 3d
       0.006650777 -0.049404714 -0.035798483 0.0322362
0003e0 6e 95 bb bc a5 72 2f bd 5e f3 05 3d a8 93 a9 3c
       -0.022898402 -0.042833943 0.032702796 0.02070029
0003f0 4e bc 6b 3d 88 41 67 3a e5 00 36 3d 8f fc cd bc
       0.05755263 0.00088217156 0.044434447 -0.025144843

bias f4 [128]
000000 d1 bc b3 3d 4e 4f 7c bb 40 7a 57 bd ac 27 78 3d
       0.08776248 -0.0038499418 -0.05260682 0.06058471
000010 12 14 81 3d 2b 7d 22 3d da 32 a0 bc fe ed 35 bd
       0.06302656 0.03967015 -0.019555498 -0.04441642
000020 a2 68 e7 3c e2 e4 79 3c 69 7b 9b bd 4a 28 37 3d
       0.028248135 0.015252324 -0.07591898 0.044716157
000030 9c d4 53 3d d5 e0 47 3d e3 58 75 bd a0 6d 10 3d
       0.051716432 0.0487984 -0.059899222 0.035260797
000040 8f fe f2 bc 6f cb a0 3b f8 62 01 bc 43 ce 16 bd
       -0.029662399 0.0049070637 -0.007897131 -0.0368178
000050 5a c4 26 bd a4 4c 41 3d 77 e8 8a bc 32 54 54 3d
       -0.0407146 0.04719223 -0.016956551 0.051838107
000060 f9 5f 29 3d 06 c1 84 3d 53 19 45 bd bb 16 02 3d
       0.041351292 0.06482129 -0.048119854 0.03175996
000070 99 02 3e 3d 32 fd 1f bd cb 97 3b bd e1 35 3f 3d
       0.046389196 -0.039059825 -0.045799058 0.046682242
000080 ec 97 fc 3c cc c9 73 bc 6c bb 63 3d f1 55 d0 bb
       0.03083416 -0.014879655 0.05559866 -0.0063579013
000090 c8 be 64 3d 05 68 1e bc f3 9d 43 3d 65 40 16 3d
       0.055846006 -0.009668355 0.047758054 0.036682505
0000a0 28 4b 8b bd 86 30 ab 3d 01 b2 8e 3d 8c 03 20 3d
       -0.06801444 0.083588645 0.06967545 0.039065883
0000b0 36 0b 1a 3d 74 95 73 3d 80 14 d8 bc 5a 6e 97 3d
       0.037608348 0.0594687 -0.026376963 0.07394095
0000c0 e9 e7 98 bd c6 18 a9 bd 6f 67 89 bc 3c 4b 7c bd
       -0.07466108 -0.08256678 -0.016772954 -0.061595187
0000d0 8c ce 01 3d 43 82 04 3c e8 2b db 3c 24 64 90 3d
       0.03169112 0.008087697 0.026754335 0.0705035
0000e0 7b 23 08 bd 09 91 ae 3d 2e ff 29 3d 01 1c 8b bd
       -0.03323696 0.08523757 0.041503124 -0.06792451
0000f0 96 06 2c bd 2c 56 39 bd d1 2f 09 3d ed 84 54 3d
       -0.04199847 -0.045248196 0.033492867 0.05188458
000100 98 ee 63 bd 79 08 2e bd 88 f6 b1 bd 6d f2 a0 bd
       -0.055647463 -0.04248855 -0.086896 -0.07858739
000110 4b c3 f7 bc b5 a7 9f 3b a2 06 a0 bd 31 1b 11 3d
       -0.03024449 0.004872287 -0.07813765 0.035426322
000120 fe dd 48 3d d1 0e e4 3a c3 31 b0 3d 8c 3f 87 3d
       0.049039833 0.0017399435 0.08603241 0.066039175
000130 f1 7c c3 3b 38 4e 83 3b 42 0a f7 b8 8a 32 ad bd
       0.005965822 0.004007127 -0.000117797885 -0.08456905
000140 7a 8c 38 bd 10 08 92 bd 46 11 ac bd 43 92 8c bc
       -0.045055844 -0.07130444 -0.08401732 -0.017159587
000150 46 5a 77 3b 88 c4 fe bc c0 e4 71 3d 08 30 1f 3d
       0.0037743016 -0.031099573 0.059056044 0.038864166
000160 74 0c fe bb ea 21 9c bd 35 73 96 bd 81 89 82 bd
       -0.0077529494 -0.07623656 -0.07346193 -0.06373883
000170 bf 6e 4a bc 7d d6 cc 3c 2b 10 7c 3d 85 8b 3d 3d
       -0.0123555055 0.02500462 0.061538856 0.046275634
000180 e5 41 9d 3c 39 10 58 3d f9 b5 9a bd 8b 43 99 3c
       0.01919646 0.052749846 -0.0755424 0.018708965
000190 49 8d b3 bc a2 53 23 bc 21 e9 81 3d 21 e0 85 3c
       -0.021917956 -0.00996867 0.06343294 0.016342225
0001a0 2c 34 25 bd 60 8f 75 bc a5 69 e5 bc 09 b6 71 bd
       -0.040332958 -0.014987797 -0.028004477 -0.059011493
0001b0 69 6b 82 bd 64 fd 8b bd 20 8c 90 3d 00 5f 4d 3d
       -0.06368143 -0.0683544 0.07057977 0.050139427
0001c0 f9 23 cf bc a9 26 28 bd 05 4b a2 bd 44 b1 41 bd
       -0.025285708 -0.041052494 -0.07924465 -0.047288194
0001d0 dd dd 00 3d 41 c2 1a bd 20 9c d2 3c ba 09 dc bc
       0.031461585 -0.03778291 0.025709212 -0.026860107
0001e0 3a 9a b3 bd eb f2 bc 3c 7e cc e8 3c 7a 07 c4 3c
       -0.08769651 0.023065051 0.028417822 0.023929346
0001f0 79 1b 88 bd bc 69 a1 bc 5f 8d a4 3d 8e c5 a9 3b
       -0.06645865 -0.019703738 0.08034777 0.005181021

weight f4 [128, 128]
000000 97 29 19 bc b1 03 d3 3c c1 48 a9 3d 7f 75 9f 3d
       -0.009348295 0.025758596 0.0826583 0.077860825
000010 a9 62 d9 3c 94 d9 a8 3d dd 90 20 bd 6b 13 b0 3c
       0.026536303 0.08244625 -0.039200652 0.021493634
000020 be 15 4f 3d 92 2e ac bd 46 1b a9 bd 5a 64 8e bd
       0.050557844 -0.0840732 -0.08257155 -0.06952734
000030 ca df 9f bd d2 f5 9b 3c 94 01 a2 3b 5c d2 9b bc
       -0.07806356 0.019038115 0.004944036 -0.019021206
000040 70 ea 0d bd 9b 77 a0 bd 67 f6 49 bd 6e 1e b1 3d
       -0.034647405 -0.07835313 -0.049307253 0.08648382
000050 97 3d d4 bc 53 91 d1 3b 70 bc 0f bd f2 70 2c bd
       -0.025908275 0.006395498 -0.035091817 -0.0420999
000060 ca 2c 80 3d 07 84 85 bc 1b 26 8a 3b 12 27 7c 3d
       0.06258543 -0.016298307 0.0042159683 0.061560698
000070 46 a9 78 bc 8f be ca 3c 4a 0f 5f bd 95 81 70 3d
       -0.015177077 0.024749069 -0.05445794 0.05871733
000080 78 c6 89 bb 88 4a 41 3d 72 4e 9f bd eb 29 6d 3c
       -0.0042045675 0.04719022 -0.07778634 0.014475326
000090 cb aa c2 3c a6 e2 73 bd 7b 54 83 3d 2b 3b 4e bd
       0.023763081 -0.05954232 0.06412598 -0.050349396
0000a0 6d e4 08 bd 3b 37 63 3d e8 a7 37 bd dc 29 70 3d
       -0.03342097 0.055472594 -0.044837862 0.05863367
0000b0 5a 9d 83 3d 9c 9a 1f bc cf 7c b5 3c dc ae 66 bd
       0.06426497 -0.009741452 0.02215424 -0.056319103
0000c0 a4 0e 43 bd aa 2d 2e bc 30 ff 94 3d 02 f6 8f 3d
       -0.047621384 -0.010631004 0.07275236 0.07029344
0000d0 6b b2 a1 3d df f5 14 bd 72 e5 8e bd 9e 59 80 3d
       0.07895359 -0.036367293 -0.06977357 0.06267093
0000e0 d9 9d 3d 3d 9a f1 a9 3d 50 9b b1 3d 1e d5 3f bd
       0.046293113 0.08298035 0.08672202 -0.046834104
0000f0 95 61 95 3d 19 a9 a3 3d 4a 71 89 bc bd 6c 43 bd
       0.07294003 0.07991237 -0.016777653 -0.047711123
000100 44 7c 5b bd 48 9e 29 bd 5a 50 5e 3d 4c bc 7b 3b
       -0.053585306 -0.041410714 0.054275848 0.0038411794
000110 6a a2 9e bc f7 a0 67 bc b8 e9 99 3d ba 69 94 3c
       -0.019364554 -0.014137498 0.075152814 0.01811682
000120 80 85 54 bd 33 d8 37 3d 23 e1 58 bd f1 06 7c 3d
       -0.051885128 0.044883918 -0.052949082 0.061530057
000130 86 4c 98 bd 53 7e b7 3c 3c 2b 26 3d 21 0a 77 3d
       -0.07436471 0.022399103 0.040568575 0.060312394
000140 3a b1 e5 bb f1 41 24 3d 87 c0 1c bb ee 39 9f 3d
       -0.0070096524 0.04010195 -0.0023918466 0.07774721
000150 b6 4d de bc 44 17 a0 bd 98 d8 ce bc c6 b3 c3 3c
       -0.027136665 -0.078169376 -0.025249764 0.023889434
000160 04 32 1b 3c c1 fc 89 bd cf c7 13 bd 88 6d f9 3c
       0.009472374 -0.06737662 -0.036079224 0.030447736
000170 3b ef e6 3c d5 07 a4 3d a4 29 a2 bc f3 aa b7 3c
       0.028190246 0.08009306 -0.019795246 0.022420382
000180 6c ad 41 bd 41 b1 b8 bd b5 cf 11 bb bd 27 9c bc
       -0.04728453 -0.090181835 -0.0022249047 -0.019061917
000190 21 07 90 3d c0 d2 94 bd d7 01 96 bd c3 83 57 bd
       0.0703261 -0.0726676 -0.0732457 -0.052615892
0001a0 dc 83 97 bb e0 31 59 3d ac ba 6f 3d d4 d4 74 bc
       -0.004623873 0.05302608 0.058527634 -0.01494332
0001b0 5a 99 1d 3d 7e 36 4d 3d 0c 0f b6 bc a0 66 2d bd
       0.038476326 0.050100796 -0.022223972 -0.0423342
0001c0 12 58 9e 3c 2c 0a 6b bd 04 aa 98 3d 17 1f 09 3d
       0.019329105 -0.057382748 0.07454303 0.033476915
0001d0 3f 6e 44 bc 3b b7 c5 bc 13 46 bd 3b 26 63 79 3c
       -0.011989175 -0.024135223 0.0057761758 0.015221393
0001e0 99 67 a4 bd b5 cb a5 bd a8 e1 10 bc ac 53 3a bd
       -0.08027572 -0.08095495 -0.008842863 -0.045489952
0001f0 97 c5 67 bd c0 d4 4e 3c 1e 19 73 3d 95 de 78 bd
       -0.05658492 0.012623966 0.059350125 -0.060759146
000200 83 2c 0a bb 9a 14 3b 3d 2e 95 67 3d a7 2f f7 3c
       -0.002108366 0.045673944 0.056538753 0.03017409
000210 65 d4 33 bc ee ab 57 bd aa 97 87 3d 58 c7 44 bd
       -0.010975932 -0.0526542 0.066207245 -0.04804167
000220 21 00 4f 3b 1c 3b 62 bd fe fa 92 3b 92 58 88 bd
       0.003158577 -0.055232152 0.004485487 -0.066575184
000230 f0 df bc bc a1 07 04 bd a9 06 6c 3d 2a ac 40 3a
       -0.023056 -0.032233838 0.05762354 0.0007349873
000240 21 16 d3 3c 11 91 0f bd 14 07 b3 bd e9 26 86 bd
       0.025767388 -0.035050455 -0.087415844 -0.0655039
000250 f5 87 f0 3c 44 26 b3 3d bd e4 60 bd f3 79 2d bd
       0.029361704 0.08747533 -0.05490564 -0.042352628
000260 b8 50 3c 3d 92 1a b0 3d 23 66 8b bd f8 5c 3b bd
       0.045975417 0.08598818 -0.068065904 -0.04574296
000270 d9 f3 a7 bd 35 9d ea 3c 44 01 9e bc fc bb e5 bc
       -0.08200807 0.028639415 -0.019287713 -0.02804374
000280 bd 68 76 3d 5f 69 a2 bc 24 e4 55 bd 18 76 a7 bd
       0.06015848 -0.019825635 -0.052219525 -0.081768215
000290 5b b5 9f 3d d5 64 1a bc c3 8b 60 3d 4d d3 b6 bc
       0.07798263 -0.009423454 0.054820787 -0.022317553
0002a0 6f 6a c0 bc be e9 a3 3c 80 97 58 3d 44 9e 98 b9
       -0.023488251 0.020008918 0.052878857 -0.00029109616
0002b0 bf b9 87 bd fb 97 d6 bc 31 57 ca bc 66 a8 5a 3d
       -0.06627225 -0.026195517 -0.02469978 0.053383254
0002c0 a0 6e 58 bd 28 a6 98 bc 03 54 c5 bc fe 6a ac 3d
       -0.052839875 -0.018633917 -0.024087911 0.08418845
0002d0 58 77 ae 3c 07 ca 77 3d 27 d7 7b bd 57 d4 c1 3c
       0.021297142 0.060495403 -0.061484482 0.023660822
0002e0 81 7f 62 bc 9d 8e 56 bd b0 fb 00 3d 98 18 7e bd
       -0.013824345 -0.0523821 0.031490028 -0.062035173
0002f0 b3 64 83 3c fa bb 67 bd 9d c3 21 bc fd 19 82 bd
       0.016039228 -0.056575753 -0.009873298 -0.06352613
000300 3f ad 5c bd 68 5f 9a 3d 24 38 d9 3a b5 7d 03 3c
       -0.053876158 0.075377285 0.0016572517 0.008025576
000310 2a f9 b3 bd 75 5d 8a bd 73 37 6b 3c bd 90 96 3d
       -0.08787759 -0.06756107 0.014356482 0.073518254
000320 2b 46 62 bd 84 ad ae 3d fa 48 cb ba 65 d3 7d 3d
       -0.0552427 0.08529189 -0.001550942 0.06196918
000330 0e 77 9f 3d bb 29 5f bd 95 fc 70 3d 2e e8 93 3d
       0.0778638 -0.054483157 0.05883463 0.07222019
000340 59 ca 75 bd 6e ce ef bc 8a 53 83 bd 15 99 b3 bd
       -0.060007427 -0.029273238 -0.06412418 -0.087694325
000350 d1 96 8f bb f1 8a be bc 25 57 5d 3d 0c 5b 29 bd
       -0.0043819924 -0.023259612 0.054038186 -0.041346595
000360 e7 12 9a bd 76 72 a0 bd 1c 99 99 3b 66 6a af bc
       -0.075231366 -0.07834332 0.0046874415 -0.02141304
000370 c7 0c a9 3c d7 c8 97 bd 47 c2 79 bd 85 ad 9d 3c
       0.020635976 -0.07411354 -0.060976293 0.01924778
000380 0f ba 9c 3b 4b c6 77 3d 01 08 bb bb 8d 52 66 bd
       0.004782922 0.06049184 -0.0057077412 -0.05623107
000390 81 c8 96 3d 89 c3 7b bd 4e 53 8f 3d 81 0e a7 3d
       0.07362462 -0.061465774 0.06998311 0.08157063
0003a0 ac a0 7f 3d 8e 55 69 3d 87 38 35 ba 68 65 91 bd
       0.062409088 0.056966357 -0.0006913025 -0.0709942
0003b0 9a a5 0c bd 4d ff 73 bd 7e 53 a4 3c 76 9f 66 3d
       -0.034337617 -0.059569646 0.020059343 0.056304418
0003c0 86 ba e2 3c 36 f8 ee 3c 4e 25 21 bd f2 c9 78 3d
       0.027676832 0.02917109 -0.039342217 0.060739465
0003d0 05 e1 d9 bb cd a0 18 3a 2c c6 97 bc d5 fc 93 bd
       -0.006649139 0.0005822301 -0.018527113 -0.07225958
0003e0 64 24 80 bd a5 4a 82 3d de c0 88 bc b2 a2 37 3c
       -0.06256941 0.063618936 -0.016693529 0.011208223
0003f0 20 ca 89 bd c1 a4 9e bb f2 c8 19 bc e9 25 61 bd
       -0.067280054 -0.0048414175 -0.009386288 -0.054967795
