models/agModels-predicttop10_votes/models/NeuralNetTorch_BAG_L1/S7F8/net.params (torch, 248949 bytes, 16 tensors)

weight f4 [6, 4]
-1.1233325 -1.1518273 -0.2686242 -0.438711 0.82988816 0.6577724 -0.32598126 -2.1606197
0.48026073 -0.19019641 1.4643365 0.29316223 0.16452068 0.89228785 -0.13763626 -0.09306656
0.95637524 1.2486365 2.00999 0.04522716 0.51053405 -0.30854857 -0.7318095 -2.2037532
00000000: 5cc9 8fbf 146f 93bf 1c89 89be ba9e e0be
00000010: 8d73 543f c663 283f 04e7 a6be 9847 0ac0
00000020: bce4 f53e d9c2 42be 616f bb3f 5c19 963e
00000030: 1c78 283e fa6c 643f 85f0 0cbe ae99 bebd
00000040: 02d5 743f 52d3 9f3f ada3 0040 1d40 393d
00000050: 5cb2 023f 14fa 9dbe de57 3bbf 4b0a 0dc0

weight f4 [6, 4]
-0.19291593 -0.7239289 0.5556358 0.23639837 -0.13710003 -0.6727486 0.9376547 0.48520932
-0.5379222 0.91496235 1.1363807 1.3265086 -1.5027598 2.5733464 -0.48900756 0.31020084
-1.6453458 -0.5731444 -0.48774067 -0.46059218 -0.9567129 1.0045102 -0.05530284 0.6967083
00000000: c18b 45be 6853 39bf 263e 0e3f 6a12 723e
00000010: f363 0cbe 4139 2cbf 230a 703f 5b6d f83e
00000020: 45b5 09bf f93a 6a3f ec74 913f 09cb a93f
00000030: 6f5a c0bf b5b1 2440 335f fabe a5d2 9e3e
00000040: b19a d2bf 97b9 12bf 25b9 f9be bdd2 ebbe
00000050: 23eb 74bf ca93 803f 3b85 62bd 7a5b 323f

weight f4 [6, 4]
-0.10120369 0.6736186 -0.86578923 -0.010141968 0.8548488 -0.3900527 1.0444092 0.39268413
0.09396109 1.1323828 0.29704913 0.46250907 -0.8183587 -1.2919543 -0.7485673 -1.3365834
0.21964669 -0.34731147 -0.43729958 0.22973326 0.6878972 -0.092745274 -0.26703212 -1.0995688
00000000: e143 cfbd 4572 2c3f 5da4 5dbf 7f2a 26bc
00000010: 5fd7 5a3f fdb4 c7be 33af 853f e50d c93e
00000020: ac6e c03d ebf1 903f d316 983e fdcd ec3e
00000030: f57f 51bf c25e a5bf 1ba2 3fbf 2a15 abbf
00000040: 10eb 603e cfd2 b1be bbe5 dfbe 323f 6b3e
00000050: 081a 303f 3cf1 bdbd 6fb8 88be acbe 8cbf

weight f4 [6, 4]
-0.69286627 1.0478129 -0.62612015 -1.2889414 0.087163664 -0.67447925 0.6380869 -0.73615897
-0.25087187 0.09476486 0.24377137 1.1944338 0.29707462 0.39753616 -0.20708738 -0.11909456
0.164839 -0.79467005 -1.876729 0.14455578 -0.5959698 0.21354836 0.06906186 0.28181222
00000000: af5f 31bf bc1e 863f 6949 20bf 08fc a4bf
00000010: dd82 b23d acaa 2cbf aa59 233f ea74 3cbf
00000020: 4772 80be 1414 c23d 349f 793e 35e3 983f
00000030: 2a1a 983e dc89 cb3e b70e 54be d9e7 f3bd
00000040: 8ecb 283e 7f6f 4bbf a838 f0bf 6e06 143e
00000050: 7a91 18bf 6cac 5a3e 4e70 8d3d b149 903e

weight f4 [6, 4]
0.95047176 -1.0012177 0.30715695 -0.11455649 0.9789642 -0.49614826 0.7788438 0.61362475
0.98509735 -1.4709452 0.59052795 0.15189812 0.11663679 -0.8326546 0.6269235 -1.9187832
1.337785 -0.14957295 0.77510566 1.0087559 0.31041402 -1.397584 1.9239854 0.04811603
00000000: 1e52 733f e727 80bf ad43 9d3e 989c eabd
00000010: 669d 7a3f 2507 febe 4f62 473f 8316 1d3f
00000020: 572f 7c3f ef47 bcbf d72c 173f 2e8b 1b3e
00000030: 45df ee3d da28 55bf 0f7e 203f b09a f5bf
00000040: 8a3c ab3f a729 19be 536d 463f ea1e 813f
00000050: 96ee 9e3e 08e4 b2bf 2745 f63f 5015 453d

weight f4 [26, 9]
-0.5498428 -1.6683828 -0.54284596 -0.5180041 -0.61969644 -1.459767 -0.82555795 -2.0803113
-1.0658418 -0.7325191 0.061724268 0.28804365 -0.3144863 1.303049 0.055182204 -0.824864
0.44646406 0.009942959 1.3377777 -0.27144408 -0.5608289 -2.883567 -1.5261143 1.0298003
0.1894403 -0.71530765 1.6981808 0.29946926 1.0224153 1.4170626 -0.09360153 -0.62409747
-0.67082983 1.7781347 -0.9497396 -0.6035978 0.044564296 0.5847711 0.5280487 1.2408996
-1.0670229 -1.7333438 1.5381794 -0.0027929696 -1.6117445 0.019509854 -0.60110927 0.7150004
1.1519507 -0.10871424 -0.026316056 0.6633809 0.52920085 0.20395844 0.070604704 0.6070662
0.06620219 -0.9876814 0.69412094 1.0882739 2.1157622 -0.92042845 -0.6773719 -0.61750907
1.5530807 -0.75475264 0.118898034 1.3815817 2.0755293 0.7003645 -0.72940576 -0.44376308
0.25424686 -0.5939001 0.95286155 0.5004734 -0.8260177 1.2630392 0.25276873 -0.60277814
-0.91589046 -0.6138965 0.18116467 -1.0622842 -0.75120103 -2.182905 -0.6629234 0.546762
0.7814067 0.096187234 0.42708972 -1.8206801 -1.1461592 0.09843018 0.6166819 1.3815744
-1.526168 0.3532173 -1.3535435 -0.15963937 -0.2892498 -1.1856525 0.6687783 -1.2589273
-1.122656 0.34457836 -0.7595837 -0.90011424 -0.76994145 0.5545142 0.3598355 0.5910023
-1.4071344 -0.7819878 1.2417805 -1.8235164 0.43525 1.1045231 0.4439085 -1.1353947
-0.41198495 -0.31633532 0.9968161 -0.44767863 -0.6108343 -0.35465112 -1.4657446 -0.5577822
1.2099093 0.8208369 0.36620933 0.2832193 -2.8062592 -0.7973681 0.45544308 0.29619762
-1.143215 0.007829521 -0.14553706 -0.2532968 2.4115345 1.6294731 -0.2887581 -1.5206553
-0.5306544 -0.83198917 -1.4075955 -0.40152395 -0.30835226 -0.06835095 0.516955 -1.5943538
0.36011747 -2.3042266 -0.86916846 -1.6739807 0.563768 -1.4719005 0.70242035 -1.3971231
0.3341431 -0.11609073 0.20516887 1.212496 1.2425079 -0.09557007 2.1351395 0.07010511
0.49197376 0.06722739 0.40577194 -1.7816081 1.2196859 2.6304553 0.20335317 0.34732458
-1.1452159 2.2190812 0.10099039 0.80114 -1.0976033 -0.08677373 -1.4775872 -1.7506399
-1.9184012 0.018540984 -1.9897448 -1.9413769 2.1290317 -0.9115247 -0.6318905 1.6893764
0.3604308 -0.75240433 -0.053641886 1.789062 -0.5611308 0.7560958 0.7479658 1.4434762
-0.5751712 -0.091407135 0.46508417 -0.49041167 -1.955915 0.724614 -0.13352643 -1.4485843
-0.5169167 -1.4915203 -0.7217839 1.0727338 -2.2509944 0.48696887 -0.54615825 -0.04200205
0.669115 1.0047671 -0.49354827 0.43933648 1.3770652 0.43691242 -0.50248307 -0.20620288
-0.17542055 0.072066955 0.2566378 -0.6450387 0.13304916 -0.15634525 1.4685273 -0.14692673
-0.00014495937 0.0028426428
00000000: 7fc2 0cbf 918d d5bf f4f7 0abf eb9b 04bf
00000010: 6da4 1ebf a5d9 babf c457 53bf d223 05c0
00000020: 816d 88bf 5f86 3bbf 96d2 7c3d 757a 933e
00000030: 5904 a1be 4fca a63f bc06 623d 492a 53bf
00000040: f096 e43e cbe7 223c 4d3c ab3f b8fa 8abe
00000050: 7c92 0fbf 5d8c 38c0 b757 c3bf 7fd0 833f
00000060: a3fc 413e 671e 37bf fd5d d93f 0954 993e
00000070: 81de 823f 4f62 b53f 29b2 bfbd dac4 1fbf
00000080: 81bb 2bbf eb99 e33f 2222 73bf 6385 1abf
00000090: 0d89 363d 8fb3 153f 332e 073f ccd5 9e3f
000000a0: 3594 88bf 36de ddbf 10e3 c43f 410a 37bb
000000b0: a54d cebf 21d3 9f3c 4ce2 19bf 440a 373f
000000c0: 1f73 933f 92a5 debd c594 d7bc 55d3 293f
000000d0: b579 073f 7bda 503e 3399 903d b168 1b3f
000000e0: 0495 873d b0d8 7cbf e9b1 313f 8f4c 8b3f
000000f0: a668 0740 33a1 6bbf 3f68 2dbf 1315 1ebf
00000100: 59cb c63f 7837 41bf d080 f33d abd7 b03f
00000110: 79d5 0440 164b 333f 56ba 3abf ea34 e3be
00000120: a52c 823e d609 18bf bcee 733f 061f 003f
00000130: e575 53bf 45ab a13f e76a 813e ab4f 1abf
00000140: cc77 6abf 5228 1dbf 3b83 393e eef8 87bf
00000150: b64e 40bf b7b4 0bc0 59b5 29bf 98f8 0b3f
00000160: 450a 483f d0fd c43d 81ab da3e 0c0c e9bf
00000170: 58b5 92bf c395 c93d ddde 1d3f 6ed7 b03f
00000180: 7959 c3bf e6d8 b43e ea40 adbf 8178 23be
00000190: 8d18 94be 76c3 97bf 0e35 2b3f 8824 a1bf
000001a0: 31b3 8fbf 936c b03e 1474 42bf e36d 66bf
000001b0: e21a 45bf a5f4 0d3f 5c3c b83e ed4b 173f
000001c0: fb1c b4bf 5a30 48bf aaf2 9e3f fc68 e9bf
000001d0: 17d9 de3e 0361 8d3f fa47 e33e 9d54 91bf
000001e0: b1ef d2be b4f6 a1be 572f 7f3f 2236 e5be
000001f0: a35f 1cbf d594 b5be 859d bbbf d0ca 0ebf
00000200: 4fde 9a3f 5e22 523f ca7f bb3e 1f02 913e
00000210: c099 33c0 5120 4cbf d62f e93e 37a7 973e
00000220: de54 92bf 6447 003c ab07 15be 1eb0 81be
00000230: 9556 1a40 9392 d03f 1ad8 93be d5a4 c2bf
00000240: f7d8 07bf 3efd 54bf 172c b4bf 8c94 cdbe
00000250: 59e0 9dbe 95fb 8bbd 2a57 043f c913 ccbf
00000260: 5161 b83e 7378 13c0 d381 5ebf 0045 d6bf
00000270: 1a53 103f 3c67 bcbf d2d1 333f eed4 b2bf
00000280: ce14 ab3e fac0 edbd ca17 523e 1233 9b3f
00000290: 800a 9f3f 3eba c3bd 20a6 0840 4593 8f3d
000002a0: fce3 fb3e 84ae 893d 57c1 cf3e bc0b e4bf
000002b0: ab1e 9c3f 6159 2840 d03b 503e 87d4 b13e
000002c0: 6f96 92bf 6d05 0e40 0dd4 ce3d 8317 4d3f
000002d0: 447e 8cbf 6db6 b1bd 9421 bdbf f814 e0bf
000002e0: 2c8e f5bf 43e3 973c f5af febf 0a7f f8bf
000002f0: 0e42 0840 af59 69bf 93c3 21bf 7c3d d83f
00000300: 638a b83e 929d 40bf 98b7 5bbd fcff e43f
00000310: 45a6 0fbf 7f8f 413f b07a 3f3f d4c3 b83f
00000320: 6b3e 13bf aa33 bbbd 831f ee3e 3d17 fbbe
00000330: 6c5b fabf 4e80 393f 27bb 08be 366b b9bf
00000340: a754 04bf 23ea bebf d4c6 38bf 574f 893f
00000350: 4b10 10c0 fc53 f93e 07d1 0bbf 570a 2cbd
00000360: 1f4b 2b3f 359c 803f 5cb2 fcbe b6f0 e03e
00000370: ac43 b03f fcb2 df3e bba2 00bf d926 53be
00000380: 72a1 33be d797 933d 0866 833e 4221 25bf
00000390: 0a3e 083e f818 20be b4f8 bb3f f673 16be
000003a0: 3c00 18b9 a24b 3a3b

weight f4 [128, 76]
0.15915734 0.14253174 0.11967795 0.060805332 -0.07820308 0.103852674 0.010042171 0.057336472
-0.08954732 -0.05418081 -0.10685088 -0.029313112 0.012377887 -0.10305014 0.0571204 0.06286921
0.04641562 -0.0647013 -0.08453915 -0.03155974 0.052748643 0.11220062 0.07465342 -0.011256578
0.04149981 -0.11128138 -0.09671388 0.053837236 -0.05989248 0.05849315 -0.08248671 -0.04789096
-0.0932296 0.0584476 -0.0058813654 0.08674217 0.072948635 0.066591784 0.0066329627 -0.058742333
-0.023298377 0.018415635 0.06893374 -0.06717765 0.12094782 -0.047115445 -0.15410042 -0.06329094
0.10195861 0.11869148 -0.09706537 0.076558046 0.054946594 0.05971587 0.09160192 -0.05686323
0.052482065 0.054402776 -0.02321644 0.02136254 -0.034128364 0.060352862 -0.0021396345 -0.03765077
0.029379282 0.039282825 -0.04946946 -0.012449261 0.07501865 -0.03338049 0.019629816 -0.013083237
0.036061417 -0.061489243 -0.07768676 -0.08046758 0.17500898 0.04112477 0.010898592 -0.04404342
0.1178785 0.105691545 -0.062312223 -0.073738314 -0.06010687 0.00745587 -0.03074738 -0.077730745
-0.0493836 0.040132362 -0.059232052 0.029066807 0.007651868 -0.05042794 0.021462604 0.10000453
-0.06711779 0.0096588805 -0.035750188 0.116571456 -0.10121345 -0.10483315 0.12521227 -0.06306638
0.031720754 -0.0013266435 -0.0140816495 -0.01491312 0.07801938 0.008712275 -0.10440469 -0.058813844
-0.030780109 0.06585443 -0.06632773 0.10860162 -0.019654308 -0.01458376 0.09333669 0.061086528
0.116936274 0.060131926 -0.09853697 -0.08235434 -0.0040867226 0.09558679 -0.021789998 -0.11345045
0.051153757 0.0842831 -0.052851625 -0.093681194 -0.094474606 0.0374537 -0.0042326506 -0.06087178
0.006548505 0.0427091 0.102947764 0.072972186 -0.008338876 -0.10666762 -0.11249601 0.10231978
0.055622667 0.0345447 -0.12147868 0.12093003 0.09255082 0.12708272 -0.10106247 -0.06886697
-0.011742018 0.16107668 -0.050663117 -0.060755275 0.044095356 -0.03656724 -0.039796464 -0.00086830906
0.002860291 -0.08845839 0.092305444 -0.040313054 0.03249338 0.11491695 0.066382475 0.017019575
0.117997214 0.014126905 -0.05191088 0.107606165 0.03452732 -0.10361961 -0.013976194 -0.076189294
0.10804537 -0.01340941 -0.09927702 -0.0022539187 0.077953026 0.03470391 0.045151718 0.020563675
0.04829862 -0.02157406 -0.045136653 -0.106122114 -0.09054552 0.056915674 -0.06077639 0.01512151
0.033108883 0.0056607095 -0.07463593 0.10990787 -0.04673883 0.092948735 -0.1468401 -0.033925865
0.06740428 -0.0591744 0.10673124 -0.08711944 -0.092832685 -0.07796576 -0.0062287087 0.11271476
-0.040864483 0.054420933 -0.018827375 -0.025617832 0.07762564 -0.09245094 0.030512877 0.097967066
-0.009835751 0.086431526 -0.042157605 0.09552676 -0.0953931 -0.020326592 -0.053126443 0.06590491
0.033594754 0.10537207 -0.009469254 -0.01644813 0.1396329 0.039359987 0.10888639 -0.074193284
-0.021511039 0.0070206034 0.067301415 0.10717265 0.004500427 -0.10139791 0.057078015 0.029085323
0.027300991 -0.07748212 0.08375338 0.1070596 0.035911765 -0.09997339 0.090077296 -0.07957742
0.026028428 0.016214645 -0.04717226 0.039116587 -0.10011756 0.029521985 -0.06935046 -0.0075947875
00000000: 24fa 223e d7f3 113e b719 f53d 030f 793d
00000010: f028 a0bd b6b0 d43d eb87 243c a6d9 6a3d
00000020: 9664 b7bd b2ec 5dbd a2d4 dabd 0d22 f0bc
00000030: 9fcc 4a3c f40b d3bd 15f7 693d 93c1 803d
00000040: 4e1e 3e3d 1d82 84bd dd22 adbd c944 01bd
00000050: f60e 583d 70c9 e53d e4e3 983d 836d 38bc
00000060: b4fb 293d 7ee7 e3bd ed11 c6bd 6f84 5c3d
00000070: d151 75bd 8396 6f3d cbee a8bd 5029 44bd
00000080: 29ef bebd c066 6f3d 78b8 c0bb e1a5 b13d
00000090: 1866 953d 4661 883d 5359 d93b cd9b 70bd
000000a0: 3ddc bebc 63dc 963c 222d 8d3d 7094 89bd
000000b0: 7eb3 f73d 20fc 40bd 80cc 1dbe ae9e 81bd
000000c0: adcf d03d 8514 f33d 35ca c6bd 77ca 9c3d
000000d0: ae0f 613d a198 743d ca99 bb3d 6be9 68bd
000000e0: 6ff7 563d 72d5 5e3d 6730 bebc 7e00 af3c
000000f0: 2fca 0bbd 9034 773d 1c39 0cbb b237 1abd
00000100: d2ac f03c 07e7 203d 7da0 4abd fcf7 4bbc
00000110: 61a3 993d fbb9 08bd b5ce a03c 135b 56bc
00000120: 23b5 133d 25dc 7bbd 3c1a 9fbd 30cc a4bd
00000130: 8e35 333e 7272 283d 0290 323c e066 34bd
00000140: 486a f13d cf74 d83d 1a3b 7fbd 1d04 97bd
00000150: 9f32 76bd 5f50 f43b eee1 fbbc 4c31 9fbd
00000160: 7546 4abd d561 243d 4f9d 72bd 831d ee3c
00000170: 85bc fa3b 878d 4ebd 58d2 af3c 2dcf cc3d
00000180: 0d75 89bd 4840 1e3c ca6e 12bd 04bd ee3d
00000190: ff48 cfbd c3b2 d6bd a537 003e f228 81bd
000001a0: 9fed 013d c5e2 adba b8b6 66bc 2956 74bc
000001b0: a0c8 9f3d eebd 0e3c 20d2 d5bd c9e6 70bd
000001c0: 9126 fcbc b0de 863d d5d6 87bd 876a de3d
000001d0: 1202 a1bc b9f0 6ebc 4e27 bf3d de35 7a3d
000001e0: 497c ef3d e54c 763d c0cd c9bd 64a9 a8bd
000001f0: eae9 85bb 02c3 c33d f080 b2bc b658 e8bd
00000200: 9a86 513d 9e9c ac3d f27a 58bd eddb bfbd
00000210: e77b c1bd 0d69 193d 0cb2 8abb b054 79bd
00000220: d794 d63b bdef 2e3d 47d6 d23d 7172 953d
00000230: c89f 08bc 8e74 dabd 4f64 e6bd 088d d13d
00000240: 98d4 633d be7e 0d3d d0c9 f8bd 2aaa f73d
00000250: 498b bd3d f921 023e d7f9 cebd 200a 8dbd
00000260: 9861 40bc 49f1 243e 2184 4fbd 86da 78bd
00000270: 559d 343d 88c7 15bd 9e01 23bd 3c9f 63ba
00000280: b873 3b3b ac29 b5bd a30a bd3d 4d1f 25bd
00000290: c717 053d 9459 eb3d 89f3 873d a36c 8b3c
000002a0: 86a8 f13d 8974 673c 81a0 54bd 9f60 dc3d
000002b0: 856c 0d3d 8536 d4bd 68fc 64bc 2209 9cbd
000002c0: e446 dd3d 24b3 5bbc c051 cbbd 7bb6 13bb
000002d0: d6a5 9f3d b025 0e3d 02f1 383d 2775 a83c
000002e0: c6d4 453d 15bc b0bc 36e1 38bd 8d56 d9bd
000002f0: ee6f b9bd 6920 693d aaf0 78bd 36c0 773c
00000300: 2e9d 073d 797d b93b b9da 98bd 6117 e13d
00000310: 3771 3fbd e85b be3d 405d 16be d9f5 0abd
00000320: 410b 8a3d db60 72bd e995 da3d ad6b b2bd
00000330: 101f bebd 83ac 9fbd 321a ccbb ffd6 e63d
00000340: 8461 27bd 7ce8 5e3d de3b 9abc 7ddc d1bc
00000350: 31fa 9e3d eb56 bdbd 24f6 f93c f5a2 c83d
00000360: 2126 21bc 0303 b13d 74ad 2cbd 89a3 c33d
00000370: 755d c3bd f483 a6bc 1d9b 59bd 27f9 863d
00000380: a79a 093d 50cd d73d ee24 1bbc 3bbe 86bc
00000390: edfb 0e3e f037 213d d4ff de3d a6f2 97bd
000003a0: eb37 b0bc 170d e63b 53d5 893d 567d db3d
000003b0: 5178 933b b5a9 cfbd a3ca 693d 5844 ee3c
000003c0: 54a6 df3c f2ae 9ebd e486 ab3d 1042 db3d
000003d0: 3718 133d d9be ccbd 727a b83d 7df9 a2bd
000003e0: 9239 d53c 93d4 843c b337 41bd b738 203d
000003f0: 6f0a cdbd 17d8 f13c 9d07 8ebd b2dd f8bb

bias f4 [128]
-0.07109007 -0.06964112 -0.081370704 0.058154173 0.013359566 -0.004775635 0.030706916 0.06313271
0.0083888685 0.066114746 -0.0124445995 0.045227423 0.03645687 -0.0017427957 0.09346648 0.11305498
0.09259508 -0.023073291 -0.020094166 0.09757965 -0.0505942 0.007856909 -0.06862553 -0.028304871
-0.04828066 0.0713122 -0.05320606 -0.057680905 0.043887418 -0.008558855 0.02033085 -0.08780822
-0.047758963 0.054201763 0.062275242 -0.107548885 -0.074716985 0.0450267 -0.09651608 -0.060794987
-0.07385902 -0.09435033 -0.05201267 0.08137755 -0.11093718 0.07078961 -0.10814969 -0.032358915
-0.040713374 0.0649573 -0.09508435 -0.06624596 -0.10780507 -0.00039003213 0.045500703 0.10079157
0.08919332 -0.027070817 -0.06532912 0.026190745 0.06902127 0.102340326 0.08827863 -0.002817098
-0.10369343 -0.07203783 0.06834259 -0.08881465 -0.08847573 -0.06930183 -0.024342969 0.050536208
0.07917171 0.08997475 0.058490552 0.016855037 -0.016773669 -0.071598135 -0.055343837 -0.012548442
0.092812374 -0.022627147 -0.016011048 -0.002013075 -0.050729793 -0.059099503 0.047032636 -0.085658476
-0.0022666145 -0.008950265 0.013044827 -0.012698719 -0.060927477 -0.023803335 -0.038792614 0.043285765
0.022133343 -0.035533596 0.0897803 0.0035248473 0.05254391 -0.04341801 -0.10434827 -0.11559562
-0.040138863 0.06348808 0.0618686 0.053848118 0.041680347 -0.06885827 -0.032737285 0.017695459
-0.10127738 -0.100810215 -0.075657524 0.02758148 -0.023939325 -0.0220825 0.06870592 -0.07095184
-0.07390917 -0.027943226 0.06709081 0.008489703 -0.09535606 0.08219608 -0.07345298 0.08841099
00000000: ac97 91bd 01a0 8ebd afa5 a6bd 1233 6e3d
00000010: 15e2 5a3c ee7c 9cbb 128d fb3c b94b 813d
00000020: 7771 093c 2b67 873d 6fe4 4bbc 6440 393d
00000030: cd53 153d 856e e4ba 5b6b bf3d 5f89 e73d
00000040: 7da2 bd3d 3304 bdbc 859c a4bc d7d7 c73d
00000050: dd3b 4fbd 44ba 003c 8b8b 8cbd 9edf e7bc
00000060: f1c1 45bd 210c 923d 99ee 59bd d042 6cbd
00000070: 4bc3 333d 713a 0cbc e28c a63c ccd4 b3bd
00000080: e79e 43bd ab02 5e3d 5314 7f3d 9742 dcbd
00000090: 3805 99bd eb6d 383d 39aa c5bd 2a04 79bd
000000a0: 6643 97bd bf3a c1bd 3d0b 55bd 46a9 a63d
000000b0: 0833 e3bd 25fa 903d 967d ddbd c88a 04bd
000000c0: 11c3 26bd 5508 853d 95bb c2bd f6ab 87bd
000000d0: e8c8 dcbd 3a7d ccb9 f25e 3a3d d06b ce3d
000000e0: fdaa b63d 9ec3 ddbc 46cb 85bd f98d d63c
000000f0: 065b 8d3d ce97 d13d 6dcb b43d 109f 38bb
00000100: 395d d4bd 9288 93bd 33f7 8b3d 75e4 b5bd
00000110: c332 b5bd 1eee 8dbd e86a c7bc 0eff 4e3d
00000120: c724 a23d af44 b83d ca93 6f3d 9313 8a3c
00000130: ef68 89bc 0ba2 92bd 38b0 62bd fb97 4dbc
00000140: 6a14 be3d 915c b9bc 9a29 83bc cbed 03bb
00000150: 0bca 4fbd 5212 72bd 4ba5 403d b66d afbd
00000160: 7b8b 14bb 22a4 12bc f8b9 553c 4a0e 50bc
00000170: 178f 79bd 36ff c2bc 01e5 1ebd 6a4c 313d
00000180: fc50 b53c ad8b 11bd bcde b73d 2001 673b
00000190: 4838 573d 15d7 31bd 8cb4 d5bd 65bd ecbd
000001a0: a668 24bd 0a06 823d ee69 7d3d d88f 5c3d
000001b0: 03b9 2a3d 9105 8dbd 8817 06bd 11f6 903c
000001c0: 846a cfbd 9675 cebd 55f2 9abd 8ef2 e13c
000001d0: 671c c4bc 5ce6 b4bc b0b5 8c3d 334f 91bd
000001e0: b15d 97bd 31e9 e4bc e866 893d 6518 0b3c
000001f0: 0a4a c3bd 6b56 a83d 846e 96bd d210 b53d

weight f4 [128, 128]
0.023327062 0.013537588 0.061351296 0.027301753 -0.09885898 0.023798544 0.08139476 -0.044249445
0.054522566 0.06408751 -0.034592085 -0.0130043775 0.016130412 0.07510585 0.028657895 0.0598508
-0.082312785 -0.048958477 -0.06575756 -0.0033809755 -0.03873502 0.013371431 0.031332914 -0.03088695
-0.00063304533 -0.068776354 -0.01414163 0.0040229345 0.050437327 0.032015827 0.024064513 0.04193858
0.055405293 0.00048011614 0.08575977 -0.06229328 0.03005934 -0.015391026 0.05395889 -0.09004612
0.037718497 -0.08558897 -0.025867112 -0.028430186 -0.042089034 -0.050138015 -0.08096809 -0.087608546
-0.025800847 0.059099503 -0.03533576 -0.06539625 -0.027775722 -0.010237973 -0.017767183 0.057050798
-0.09397938 0.04265376 0.060101237 0.054679815 -0.063814655 -0.0008876812 0.04946549 -0.07391557
0.06455587 -0.011186584 -0.08386316 -0.01612245 -0.0042781853 -0.045195155 -0.044385973 -0.018848589
0.03303121 0.033101212 -0.07599136 -0.014604344 0.017344128 0.06374318 0.034913547 0.05249135
0.015559853 0.009404415 -0.055497464 -0.036574442 0.026948592 -0.02567432 0.07342507 -0.06613448
0.044366017 0.042653024 0.048916798 0.06818173 -0.05144352 0.04367064 -0.098851874 -0.05712249
-0.021851176 0.06593619 -0.020452334 -0.08444557 -0.08740637 -2.6626369e-05 -0.00433309 2.7536415e-05
-0.02826208 0.01912048 8.0710336e-08 -0.016576547 0.03627173 -0.06006828 -0.04815237 0.019676423
-0.02985411 1.1533412e-11 -0.03696396 0.03904464 0.071303345 0.06951511 0.012699213 -0.06297325
-0.038457427 -0.054989006 -0.02595349 -0.052189797 0.043298256 -0.09149792 -0.0074769547 0.055972997
-0.067551844 -0.0085924715 0.05612157 -0.02314976 -0.04201575 0.054724496 -0.060751222 0.08714914
0.092317164 0.0052641877 0.0064007235 -0.043100096 0.06567378 -0.07399593 -0.029389314 0.029703883
0.025625635 0.057354882 0.02693591 0.12145145 0.04881036 -0.07209201 -0.07859639 0.081294596
0.07795692 0.089624435 -0.07242395 0.08296277 -0.032515317 0.02244456 0.05633222 -0.05894796
-0.06346606 0.054874428 -0.09910068 0.047715623 0.024631577 0.055376824 0.002384174 -0.035150737
-0.0138695305 -0.012440975 -0.06060725 0.0124018565 -0.04757263 0.066823594 -0.044827327 -0.006557531
-0.06239877 0.08420017 0.04641965 0.07777736 0.074000865 -0.0036158222 0.07192669 -0.010184132
0.0814561 0.023314161 0.05951341 -0.0293674 0.0356471 -0.0025964077 -0.061142147 0.058584075
-0.051095065 -0.07648362 0.05897149 -0.09562687 0.02851416 0.06009031 -0.013336122 -0.07020337
-0.047864664 0.005780489 0.021817772 0.060099658 0.07463773 -0.03171149 -0.018431675 -0.06525014
0.025976809 0.03850934 -0.012625445 -0.024467207 -0.0015995109 -0.074572384 0.07443309 0.018523784
0.1116655 -0.07534813 -0.019458989 -0.029118314 0.040409096 -0.0175098 -0.047856 0.0732023
0.0785836 0.10402842 0.0411822 0.057226196 -0.053456973 0.0040669865 -0.025504628 -0.0051207826
0.025026467 0.016374128 -0.04175505 0.036854994 0.012185601 -0.060819693 -0.055199835 -0.033902403
-0.056140803 -0.055471163 -0.019643579 -0.07686351 -0.08147594 0.084207825 -0.072272144 0.050658938
0.017819878 0.0043107676 0.06775636 -0.055912767 0.052458346 0.064568765 0.0737224 -0.086791694
00000000: 6518 bf3c c2cc 5d3c 7f4b 7b3d eda7 df3c
00000010: 9476 cabd 2af5 c23c 4cb2 a63d e83e 35bd
00000020: 0e53 5f3d 5040 833d 6eb0 0dbd 5010 55bc
00000030: ed23 843c 19d1 993d f6c3 ea3c 1d26 753d
00000040: 9b93 a8bd af88 48bd e6ab 86bd 5b93 5dbb
00000050: 9da8 1ebd d913 5b3c f156 003d a106 fdbc
00000060: f4f2 25ba 9eda 8cbd 4cb2 67bc d2d2 833b
00000070: 5f97 4e3d 0723 033d f122 c53c cac7 2b3d
00000080: a9f0 623d 19b8 fb39 d1a2 af3d 3d27 7fbd
00000090: 013f f63c a42a 7cbc ff03 5d3d 1a6a b8bd
000000a0: b67e 1a3d 4549 afbd 44e7 d3bc 6ce6 e8bc
000000b0: 8d65 2cbd 855d 4dbd 99d2 a5bd 1c6c b3bd
000000c0: 4c5c d3bc 5212 723d 3bbc 10bd 78ee 85bd
000000d0: e989 e3bc 2cbd 27bc 7c8c 91bc 19ae 693d
000000e0: 4378 c0bd b6b5 2e3d b72c 763d f1f7 5f3d
000000f0: 42b1 82bd 47b3 68ba 539c 4a3d 0c61 97bd
00000100: de35 843d ef47 37bc 73c0 abbd 3a13 84bc
00000110: 0530 8cbb 8e1e 39bd 11ce 35bd 5b68 9abc
00000120: bc4b 073d 2395 073d 5ca1 9bbd 0f47 6fbc
00000130: 4615 8e3c c98b 823d 8201 0f3d 2b01 573d
00000140: c1ee 7e3c fa14 1a3c 4f51 63bd 15cf 15bd
00000150: 4bc3 dc3c f452 d2bc e25f 963d 8471 87bd
00000160: 24b9 353d f0b4 2e3d fb5c 483d dda2 8b3d
00000170: 71b6 52bd fcdf 323d da72 cabd 46f9 69bd
00000180: 3d01 b3bc 8e09 873d a78b a7bc cdf1 acbd
00000190: 1c02 b3bd b15b dfb7 98fc 8dbb 00fe e637
000001a0: e185 e7bc 8ea2 9c3c fa52 ad33 8acb 87bc
000001b0: aa91 143d 280a 76bd 6b3b 45bd 7330 a13c
000001c0: 9b90 f4bc dfe5 4a2d 8567 17bd 46ed 1f3d
000001d0: 7d07 923d f05d 8e3d 5c10 503c 1ff8 80bd
000001e0: 8985 1dbd 273c 61bd 6a9c d4bc f8c4 55bd
000001f0: 8359 313d 4363 bbbd 3e01 f5bb f143 653d
00000200: 9f58 8abd 70c7 0cbc bbdf 653d 91a4 bdbc
00000210: b518 2cbd cb26 603d 46d6 78bd 407b b23d
00000220: c810 bd3d 357f ac3b 29bd d13b ba89 30bd
00000230: fa7f 863d 2e8b 97bd dcc1 f0bc 8f55 f33c
00000240: daec d13c f4ec 6a3d b3a8 dc3c 8abb f83d
00000250: 5fed 473d faa4 93bd 25f7 a0bd c87d a63d
00000260: e1a7 9f3d 048d b73d 0253 94bd 62e8 a93d
00000270: c82e 05bd a7dd b73c 9dbc 663d 6b73 71bd
00000280: 7efa 81bd 02c4 603d 4cf5 cabd 7571 433d
00000290: 29c8 c93c cfd2 623d cd3f 1c3b 38fa 0fbd
000002a0: 073d 63bc 3bd5 4bbc 4f3f 78bd 2831 4b3c
000002b0: 85db 42bd cfda 883d dc9c 37bd 8fe0 d6bb
000002c0: da95 7fbd 2471 ac3d 8822 3e3d bd49 9f3d
000002d0: c48d 973d 6ef7 6cbb 4d4e 933d 58db 26bc
000002e0: 75d2 a63d 57fd be3c 55c4 733d e793 f0bc
000002f0: b202 123d 7e28 2abb 3070 7abd dbf5 6f3d
00000300: 0f49 51bd 72a3 9cbd 178c 713d 05d8 c3bd
00000310: 8796 e93c 4221 763d c07f 5abc c9c6 8fbd
00000320: bd0d 44bd 426a bd3b 2fbb b23c 0f2b 763d
00000330: abdb 983d e8e3 01bd 06fe 96bc dea1 85bd
00000340: 51cd d43c f8bb 1d3d f4da 4ebc 746f c8bc
00000350: aea6 d1ba 68b9 98bd 6070 983d 31bf 973c
00000360: e2b0 e43d 1f50 9abd 7568 9fbc 8889 eebc
00000370: 0284 253d b670 8fbc a704 44bd 16eb 953d
00000380: 70f0 a03d da0c d53d abae 283d 0466 6a3d
00000390: b3f5 5abd 5b44 853b 15ef d0bc 3dcc a7bb
000003a0: 4e04 cd3c 0923 863c 5807 2bbd 43f5 163d
000003b0: 1da6 473c 121e 79bd 3919 62bd 3fdd 0abd
000003c0: e6f3 65bd bb35 63bd 92eb a0bc 9e6a 9dbd
000003d0: dcdc a6bd 2775 ac3d 6b03 94bd bf7f 4f3d
000003e0: fefa 913c 5741 8d3b d9c3 8a3d c904 65bd
000003f0: 90de 563d a13c 843d c5fb 963d d8bf b1bd

bias f4 [128]
-0.011690145 0.03750044 0.03534184 -0.07518143 -0.034588244 -0.08128025 -0.074802704 0.056483135
0.06673726 -0.052980367 -0.02538048 0.038853657 0.089348525 0.07787204 0.046031572 -0.076663814
-0.057181478 0.07560126 -0.07105858 -0.028155398 -0.07086414 -0.06467899 0.019083144 -0.023744734
-0.079358414 -0.063032754 0.07479272 0.068731815 0.04368108 0.040171344 -0.05421684 -0.037056673
-0.010013217 0.026073584 -0.011937466 0.022938907 -0.047516372 -0.024217306 0.03396918 -0.076177895
0.012263131 0.08014867 -0.062014364 -0.024729438 -0.007568019 -0.02723278 0.067181006 0.02108258
0.09315427 -0.02490269 0.040049993 0.02519503 -0.04812742 -0.083851464 0.050269123 -0.056358755
-0.031510472 -0.018163959 -0.092131056 0.06114732 -0.008583985 -0.043785457 -0.07891858 0.02039663
-0.0010195371 -0.008782845 -0.026747815 0.024345677 -0.020197893 0.016413115 0.059561037 0.024057385
-0.063579924 -0.019504009 -0.028793132 -0.001330229 0.06136699 -0.010638644 -0.034641568 -0.02221182
0.048249293 -0.028604787 0.0075474717 -0.007294192 -0.06855947 0.03134606 0.073750235 -0.04902552
0.02018109 0.031939074 -0.025304554 -0.011662502 -0.0038811655 0.04752401 -0.007878552 -0.08860059
-0.030648563 -0.044656325 -0.015855813 -0.0456802 0.0042867707 -0.0027634716 -0.041285176 -0.010397255
-0.06376583 -0.04627535 0.04667648 0.00543743 0.041511934 0.02199707 0.05843158 0.08642756
0.07244379 -0.029687194 -0.03262769 0.07337769 0.054127414 0.07924846 0.082694665 0.06297402
0.009405371 -0.005287922 -0.048318744 0.09723527 -0.047123313 0.049364585 -0.0029552437 -0.044754766
00000000: 0688 3fbc 109a 193d 9bc2 103d b9f8 99bd
00000010: 67ac 0dbd 4276 a6bd 2932 99bd dc5a 673d
00000020: 8bad 883d f101 59bd b9ea cfbc 0325 1f3d
00000030: 5cfc b63d 607b 9f3d 9a8b 3c3d eb01 9dbd
00000040: 2037 6abd d5d4 9a3d 2987 91bd 26a6 e6bc
00000050: 3821 91bd 6b76 84bd 4154 9c3c 5184 c2bc
00000060: aa86 a2bd 5117 81bd ed2c 993d 44c3 8c3d
00000070: efea 323d b58a 243d 7a12 5ebd bdc8 17bd
00000080: 7a0e 24bc 4598 d53c 5d95 43bc 60ea bb3c
00000090: 87a0 42bd 5f63 c6bc 4423 0b3d 2803 9cbd
000000a0: 4deb 483c fc24 a43d c602 7ebd 6495 cabc
000000b0: 25fd f7bb 4717 dfbc 3296 893d 60b5 ac3c
000000c0: aac7 be3d ba00 ccbc 760b 243d cf65 ce3c
000000d0: 4221 45bd 51ba abbd ffe6 4d3d 70d8 66bd
000000e0: 2011 01bd 95cc 94bc 35af bcbd 9d75 7a3d
000000f0: d8a3 0cbc 6158 33bd 11a0 a1bd d516 a73c
00000100: fda1 85ba ece5 0fbc 3c1e dbbc 9670 c73c
00000110: 0d76 a5bc cc74 863c 46f6 733d fe13 c53c
00000120: 3136 82bd dfc6 9fbc 93df ebbc 145b aeba
00000130: f45b 7b3d b54d 2ebc 51e4 0dbd 90f5 b5bc
00000140: 0da1 453d 9654 eabc c850 f73b 1e04 efbb
00000150: e868 8cbd ba64 003d 5d0a 973d fcce 48bd
00000160: d052 a53c 8cd2 023d 7f4b cfbc 1414 3fbc
00000170: 275b 7ebb 89a8 423d 0b15 01bc 3a74 b5bd
00000180: b212 fbbc 8de9 36bd 0de4 81bc 291b 3bbd
00000190: 0a78 8c3b 5c1b 35bb a51a 29bd 4059 2abc
000001a0: a997 82bd 398b 3dbd d62f 3f3d 782c b23b
000001b0: 6b08 2a3d 3333 b43c f455 6f3d ef00 b13d
000001c0: 695d 943d 8f32 f3bc 9da4 05bd 0b47 963d
000001d0: b5b4 5d3d 044d a23d d25b a93d 86f8 803d
000001e0: fc18 1a3c 4e46 adbb e0e9 45bd 4923 c73d
000001f0: 6004 41bd 8532 4a3d c3ac 41bb c650 37bd

weight f4 [128, 128]
-0.057461668 0.027316047 -0.019190323 0.068988614 -0.032686334 -0.009674128 0.052163184 0.08580296
-0.059991952 -0.035622627 -0.028477022 0.035440437 0.08434213 0.03201861 0.01351495 0.06637865
-0.056434885 0.09735149 0.096659884 -0.039623503 0.008682171 0.04346775 -0.05144045 -0.033248994
0.07784956 0.07642453 -0.04140997 0.04599835 -0.032730207 0.0013196757 -0.08156991 -0.08223442
-0.008430166 -0.060808927 -0.038731083 0.056399494 0.06839557 -0.050443687 0.07406559 0.0850112
-0.015821462 0.05927253 -0.0052048694 0.005901795 0.00028124548 0.049128477 0.09370219 -0.016391626
-0.0130525865 0.09224005 0.080199316 -0.03885117 0.089884244 -0.017589122 0.057751775 0.01425668
-0.005747256 -0.051599286 0.008072743 -0.032445412 -0.0011308207 0.061077043 0.07195792 -0.028831631
0.03984665 0.024658555 0.07326128 0.058782063 -0.027812546 0.05857288 0.061491314 0.04144143
-0.05053972 0.010228479 -0.052844424 0.04355071 -0.02006512 0.033908967 0.07083149 0.02588431
-0.073184036 -0.05010901 0.02751601 -0.07585958 0.05437477 -0.013184816 -0.06609326 0.0551534
0.035371557 0.09978853 0.011995729 0.046357196 0.06505437 0.05221652 -0.018486219 -0.054893557
0.011493993 0.09020186 0.056204055 -0.024939582 -0.032497182 0.08272776 0.078905046 0.047508307
-0.06573443 -0.06747615 0.07191337 0.092658065 0.09237666 0.061297327 -0.018690027 0.007485464
0.111478806 0.003457606 -0.038306057 0.05529275 -0.03363967 0.035497997 -0.032743804 -0.0070629874
0.052579336 -0.02418679 0.008298759 -0.053066332 0.021052914 -0.01978063 0.0428534 0.07067146
-0.04320975 0.08669028 0.030124657 0.0759638 -0.008056008 -0.05034262 -0.0303987 0.08239995
-0.0410087 -0.085875064 -0.048569247 -0.074844256 -0.015433736 0.029551731 0.004988071 0.0027892923
-0.03221888 0.09270714 -0.046829876 -0.07389954 0.086830094 -0.057446815 -0.06882835 -0.088144444
0.044237208 0.03566318 0.0861583 0.0451759 -0.059283406 0.0095591005 0.02902527 0.04837649
-0.04004864 0.08291875 -0.012252312 -0.038556907 -0.011444161 0.065720975 0.0068346956 0.08509329
0.045779873 0.10442824 0.029362999 -0.09311312 -0.011693673 -0.03377412 0.07904961 0.064580224
0.040207617 -0.035965756 -0.015486585 -0.039934613 -0.081469506 -0.032234173 0.06359464 0.04734811
0.017444452 0.07441868 -0.035085976 0.09928021 -0.04263519 0.008894035 -0.025920577 0.021514552
0.011250074 0.046554625 0.0054141055 -0.04671462 0.058564484 0.03768436 0.06911298 -0.07766578
-0.038328093 0.055883083 0.0723225 -0.033811327 -0.024048427 0.0247228 -0.0014563785 -0.06459657
-0.07135378 0.046774708 0.09224608 0.06845013 -0.05277429 0.06653839 -0.01777628 0.008759509
-0.09455414 -0.0010058271 0.012962136 0.035641346 0.020375704 -0.011401166 0.02869762 0.006274985
-0.055345707 0.054057125 -0.047957283 0.0323784 -0.059162863 -0.0014217203 0.054213546 -0.06256195
0.032602984 0.067365564 0.07778602 0.073517404 -0.062727325 0.10180683 -0.032464575 0.00042853766
0.05918938 -0.05701905 -0.0022621297 0.07286847 0.019484302 -0.05389657 -0.04263437 0.036419667
-0.030547572 -0.04231979 0.04229507 0.025966616 0.061939113 0.010235816 0.034426738 -0.016994098
00000000: ed5c 6bbd e7c5 df3c 0635 9dbc e749 8d3d
00000010: 1be2 05bd 3c80 1ebc 10a9 553d 76b9 af3d
00000020: 1fba 75bd 08e9 11bd a548 e9bc fe29 113d
00000030: 91bb ac3d f225 033d cf6d 5d3c 88f1 873d
00000040: 4428 67bd 3860 c73d 9ef5 c53d 414c 22bd
00000050: aa3f 0e3c 3d0b 323d 39b3 52bd 1930 08bd
00000060: 976f 9f3d 7784 9c3d 809d 29bd c468 3c3d
00000070: 1c10 06bd f8f8 ac3a 200e a7bd 856a a8bd
00000080: ae1e 0abc c812 79bd 7ca4 1ebd 2803 673d
00000090: fa12 8c3d 0a9e 4ebd b3af 973d 5a1a ae3d
000000a0: 039c 81bc c1c7 723d 9c8d aabb d863 c13b
000000b0: 2174 9339 f13a 493d efe6 bf3d bb47 86bc
000000c0: 84da 55bc 5ae8 bc3d 8a3f a43d 6822 1fbd
000000d0: 3b15 b83d 1017 90bc 208d 6c3d da94 693c
000000e0: 7a53 bcbb c659 53bd 8a43 043c 7be5 04bd
000000f0: 0c38 94ba ec2b 7a3d ad5e 933d 5030 ecbc
00000100: 3e36 233d bd00 ca3c 030a 963d 76c5 703d
00000110: 23d7 e3bc 1eea 6f3d 51de 7b3d 7dbe 293d
00000120: bd02 4fbd 5a95 273c 6573 58bd 3b62 323d
00000130: 9b5f a4bc 21e4 0a3d 1a10 913d 550b d43c
00000140: 83e1 95bd 1b3f 4dbd 4169 e13c 445c 9bbd
00000150: 14b8 5e3d 2005 58bc e75b 87bd 88e8 613d
00000160: c4e1 103d ee5d cc3d bc89 443c 0be1 3d3d
00000170: 3a3b 853d fde0 553d 6970 97bc 11d8 60bd
00000180: 4d51 3c3c c1bb b83d 3936 663d 184e ccbc
00000190: c41b 05bd 2c6d a93d f898 a13d 1298 423d
000001a0: c69f 86bd f030 8abd 5147 933d 83c3 bd3d
000001b0: f92f bd3d e812 7b3d d41b 99bc a048 f53b
000001c0: 004f e43d 0199 623b d0e6 1cbd a77a 623d
000001d0: c0c9 09bd 5966 113d 5e1e 06bd a270 e7bb
000001e0: 6e5d 573d 6023 c6bc 85f7 073c 155c 59bd
000001f0: 2977 ac3c fd0a a2bc 0c87 2f3d 33bc 903d
00000200: b5fc 30bd ac8a b13d fcc7 f63c e992 9b3d
00000210: 59fd 03bc 1034 4ebd b206 f9bc 4ec1 a83d
00000220: bdf8 27bd 44df afbd 8cf0 46bd f247 99bd
00000230: c8dd 7cbc 7916 f23c f972 a33b 8fcc 363b
00000240: f2f7 03bd 3edd bd3d afd0 3fbd a458 97bd
00000250: fad3 b13d 5a4d 6bbd e1f5 8cbd 1385 b4bd
00000260: 1332 353d 8e13 123d c373 b03d 5d0a 393d
00000270: 28d3 72bd c69d 1c3c 67c6 ed3c 6d26 463d
00000280: 0b0a 24bd 4ed1 a93d ecbd 48bc d9ed 1dbd
00000290: 4a80 3bbc b898 863d 95f5 df3b 6445 ae3d
000002a0: ad83 3b3d 79de d53d ac8a f03c 17b2 bebd
000002b0: d296 3fbc bb56 0abd c3e4 a13d a342 843d
000002c0: beb0 243d d450 13bd 72bb 7dbc 7a92 23bd
000002d0: 7cd9 a6bd fb07 04bd e83d 823d 17f0 413d
000002e0: abe7 8e3c d268 983d 50b6 0fbd 6c53 cb3d
000002f0: 3da2 2ebd 49b8 113c 6457 d4bc 493f b03c
00000300: 3b52 383c 10b0 3e3d cf68 b13b d457 3fbd
00000310: 50e1 6f3d ea5a 1a3d 1b8b 8d3d 3d0f 9fbd
00000320: ebfd 1cbd a9e5 643d d21d 943d bf7d 0abd
00000330: 3501 c5bc 7887 ca3c f4e3 beba 354b 84bd
00000340: ee21 92bd d696 3f3d 83eb bc3d 952f 8c3d
00000350: db29 58bd 4845 883d 909f 91bc 0b84 0f3c
00000360: 9aa5 c1bd f5d5 83ba 245f 543c a9fc 113d
00000370: f3ea a63c f5cb 3abc 4517 eb3c 649e cd3b
00000380: 2eb2 62bd 016b 5d3d db6e 44bd 379f 043d
00000390: c254 72bd 0459 baba 060f 5e3d 7b20 80bd
000003a0: b58a 053d f5f6 893d 474e 9f3d 4b90 963d
000003b0: 2f77 80bd 1980 d03d 93f9 04bd 5aad e039
000003c0: 9070 723d cf8c 69bd 3d40 14bb 103c 953d
000003d0: 8b9d 9f3c a6c2 5cbd 61a1 2ebd ca2c 153d
000003e0: e73e fabc 8457 2dbd 983d 2d3d f1b7 d43c
000003f0: deb3 7d3d 20b4 273c 0d03 0d3d 3537 8bbc

bias f4 [128]
0.09862871 -0.00060277974 -0.05303816 0.06067942 0.06840686 0.039873824 -0.011516552 -0.046404716
0.031539768 0.013498065 -0.07795738 0.05061009 0.044986956 0.04900201 -0.06635985 0.037075426
-0.040798806 0.010827038 -0.0070423605 -0.036133308 -0.039274354 0.061764676 -0.022533683 0.047641035
0.04664176 0.06394552 -0.044861447 0.0374892 0.048037432 -0.03372509 -0.036022343 0.04766982
0.035970703 -0.016450379 0.04475948 -0.005182836 0.054107547 0.0029087428 0.046189237 0.032649305
-0.062520266 0.08034692 0.08548926 0.048009194 0.027085869 0.0640734 -0.033559907 0.07116441
-0.07607956 -0.08698368 -0.02024703 -0.058547556 0.031295728 0.02273352 0.027139308 0.077149466
-0.026518162 0.08676872 0.041930083 -0.073575675 -0.04507093 -0.035588384 0.03901784 0.057848588
-0.051514048 -0.03840378 -0.087020606 -0.07294951 -0.035972714 0.0048512956 -0.0837704 0.047392078
0.04906263 0.0029434294 0.10167715 0.06903033 4.4657695e-09 0.0058891424 0.015033117 -0.083600156
-0.052296773 -0.07153276 -0.078411 -0.0053837346 0.007295473 -0.023985539 0.05973465 0.038836982
-0.012400413 -0.06758603 -0.0656575 -0.064103 -0.012019467 0.028575553 0.06439628 0.055309456
0.022201004 0.05533713 -0.069334306 0.024204602 -0.014171673 -0.005711002 0.07493816 0.016855022
-0.03071607 -0.0044224146 -0.024908233 -0.05602523 -0.07064526 -0.058879435 0.07074052 0.052697793
-0.022942236 -0.02261786 -0.081586525 -0.04176299 0.037962332 -0.041995663 0.03087149 -0.024256513
-0.07940646 0.033153743 0.041072924 0.016498601 -0.060119983 -0.021914437 0.08702649 0.023049088
00000000: d9fd c93d dd03 1eba 8b3e 59bd fc8a 783d
00000010: e518 8c3d bc52 233d ecaf 3cbc df12 3ebd
00000020: d82f 013d fd26 5d3c 1ea8 9fbd 874c 4f3d
00000030: 3e44 383d 55b6 483d ace7 87bd 67dc 173d
00000040: a61c 27bd e463 313c 9ac3 e6bb 8500 14bd
00000050: 25de 20bd f5fc 7c3d 8f98 b8bc 3f23 433d
00000060: 6e0b 3f3d def5 823d a3c0 37bd 468e 193d
00000070: e6c2 443d 5223 0abd 2a8c 13bd 6e41 433d
00000080: 0456 133d f2c2 86bc b755 373d c8d4 a9bb
00000090: e09f 5d3d 9ba0 3e3b ed30 3d3d 47bb 053d
000000a0: a00a 80bd ed8c a43d fe14 af3d 4aa5 443d
000000b0: 2fe3 dd3c ea38 833d 1d76 09bd a5be 913d
000000c0: 9acf 9bbd 8024 b2bd 19dd a5bc 90cf 6fbd
000000d0: f32f 003d a63b ba3c 4153 de3c 8a00 9e3d
000000e0: 9e3c d9bc ccb3 b13d e1be 2b3d d8ae 96bd
000000f0: 4c9c 38bd 20c5 11bd 2cd1 1f3d a4f2 6c3d
00000100: 6500 53bd 484d 1dbd dc37 b2bd 8d66 95bd
00000110: 2058 13bd 9ef7 9e3b d18f abbd 321e 423d
00000120: e5f5 483d 8de6 403b 1c3c d03d c65f 8d3d
00000130: 5371 9931 b5f9 c03b 764d 763c 8f36 abbd
00000140: 2435 56bd c57f 92bd f295 a0bd 0a6a b0bb
00000150: dd0e ef3b 527d c4bc 52ac 743d 8713 1f3d
00000160: 1a2b 4bbc 8b6a 8abd 7077 86bd 6f48 83bd
00000170: 4ced 44bc 4717 ea3c 32e2 833d 2b8c 623d
00000180: e1de b53c 30a9 623d 25ff 8dbd bb48 c63c
00000190: 4e30 68bc 5b23 bbbb 2e79 993d 8b13 8a3c
000001a0: 45a0 fbbc e7e9 90bb 5a0c ccbc b67a 65bd
000001b0: 76ae 90bd 902b 71bd 68e0 903d a4d9 573d
000001c0: 5bf1 bbbc 1749 b9bc d616 a7bd ab0f 2bbd
000001d0: 647e 1b3d a503 2cbd 35e6 fc3c 98b5 c6bc
000001e0: db9f a2bd 38cc 073d 153c 283d 1328 873c
000001f0: 5f40 76bd e885 b3bc f23a b23d 71d1 bc3c

weight f4 [128, 128]
-0.0077852365 0.020507282 0.0865149 0.08295993 0.016639723 0.09314304 -0.020871796 0.034790087
0.063008524 -0.07907034 -0.075431824 -0.04859492 -0.08532391 0.035050713 0.0081465375 -0.019711308
-0.0332169 -0.09478642 -0.03718805 0.09798818 -0.014574822 -0.010528429 -0.02239818 -0.03833169
0.08203265 -0.0019395535 -0.0045728902 0.05634158 0.003680077 0.038367506 -0.024459582 0.05555851
-0.0016645468 0.05155176 -0.07680401 0.021188563 0.016986776 -0.069102414 0.077328645 -0.05235501
-0.028103756 0.05838425 -0.034794264 0.05270789 0.06385581 -0.014225044 0.023663968 -0.05779686
-0.04850688 -0.008464699 0.07433922 0.073201284 0.08829 -0.04611335 -0.06354889 0.061552625
0.048148252 0.09609962 0.08679849 -0.047895923 0.07623363 0.08136146 -0.016579181 -0.043957416
-0.064374514 -0.046719357 0.06718539 0.015195354 -0.027157307 -0.010475205 0.07140017 0.024787642
-0.04434166 0.04586978 -0.062838145 0.071219966 -0.013502245 0.028150303 0.06298398 0.059860423
-0.002051925 0.056646537 -0.012234775 0.089287005 -0.0154636875 -0.07762545 -0.013535968 0.040968426
0.003819627 -0.04656166 -0.014038074 0.020060506 0.0114248255 0.092016764 -0.024847556 0.028245116
-0.038303375 -0.080572166 -0.010966759 -0.0014020329 0.07466647 -0.07172802 -0.0525141 -0.048313532
-0.007452813 0.06162415 0.058385123 -0.010564118 0.040785816 0.07453963 -0.030914836 -0.047411747
0.030412132 -0.031800564 0.07177153 0.027733797 -0.025539383 -0.022803403 0.025744947 0.036539398
-0.0743408 -0.0813554 -0.0029249315 -0.031574704 -0.055954434 0.026582984 0.058108456 -0.07074734
0.008798094 0.07032736 0.057949148 0.030697135 0.015195719 -0.04886627 0.060239438 -0.055344597
0.0025523899 -0.041044764 0.013972197 -0.07622205 -0.015510216 -0.031868048 0.056778427 0.014940941
0.0174059 -0.007564055 -0.08277161 -0.076845035 0.024594666 0.121001914 -0.05847468 -0.03179991
0.04184832 0.0709716 -0.065751605 -0.026160032 -0.08600556 0.024348589 -0.047692724 -0.009695543
0.07807716 -0.016261304 -0.06115886 -0.07576427 0.0973542 0.023008745 0.052303895 -0.017500596
-0.007306479 0.029509027 0.056760047 0.018084165 -0.053533603 -0.0090204915 -0.022921031 0.07513432
-0.036639452 -0.019442627 -0.02360266 0.09576228 0.03176599 0.09388802 -0.063999996 0.0394193
0.0045162435 -0.047822196 0.04210407 -0.05429345 0.015647348 -0.035284787 0.010333988 -0.054494362
-0.027073186 0.10224768 -0.0059819375 0.005748949 -0.071638316 -0.07329528 0.01529155 0.08317241
-0.044632755 0.08771355 0.030568244 0.071236216 0.01535023 -0.05683305 0.051522028 0.087787874
-0.04690689 -0.028324908 -0.0381503 -0.08211142 0.0069207554 -0.0076985722 0.04941897 -0.041115027
-0.073764004 -0.07534463 -0.0029038345 -0.0113517195 0.036574543 -0.07062959 -0.041738547 0.028165838
0.010315811 0.05252298 0.01339593 -0.049554195 0.08295347 -0.046317663 0.0679699 0.075961016
0.07618822 0.06215291 0.010186006 -0.06621866 -0.038095113 -0.08811705 0.047360253 0.033432264
0.024902795 0.015905842 -0.037120916 0.08128431 0.03459561 0.005922254 -0.021747418 -0.074836336
-0.039162293 0.08538586 -0.0028177402 0.014723402 -0.04851877 -0.0066319574 0.008200082 -0.024633624
00000000: 4c1b ffbb e3fe a73c b92e b13d e5e6 a93d
00000010: 0750 883c c7c1 be3d 54fb aabc 0d80 0e3d
00000020: 9d0a 813d a1ef a1bd 007c 9abd 780b 47bd
00000030: 4dbe aebd 5691 0f3d 0e79 053c 9c79 a1bc
00000040: 720e 08bd 621f c2bd 7f52 18bd 07ae c83d
00000050: 3ccb 6ebc 6f7f 2cbc 637c b7bc b101 1dbd
00000060: bc00 a83d 9e38 feba 2fd8 95bb 6ec6 663d
00000070: 722d 713b 3f27 1d3d 765f c8bc 5291 633d
00000080: ec2c daba f027 533d 6c4b 9dbd a393 ad3c
00000090: da27 8b3c 9185 8dbd 7b5e 9e3d 3572 56bd
000000a0: d939 e6bc 5324 6f3d 6e84 0ebd 3ae4 573d
000000b0: d6c6 823d 2910 69bc f0da c13c 66bc 6cbd
000000c0: 26af 46bd 85af 0abc 293f 983d 8eea 953d
000000d0: 63d1 b43d 5ae1 3cbd ec25 82bd 9b1e 7c3d
000000e0: 1a37 453d e1cf c43d 68c3 b13d 842e 44bd
000000f0: 6120 9c3d d6a0 a63d 10d1 87bc b10c 34bd
00000100: c9d6 83bd cc5c 3fbd 7e98 893d eff5 783c
00000110: 0079 debc 32a0 2bbc 413a 923d 740f cb3c
00000120: 9a9f 35bd f3e1 3b3d 49b1 80bd c6db 913d
00000130: 8538 5dbc 779b e63c bffd 803d 3430 753d
00000140: 9779 06bb 3306 683d 5e74 48bc 1bdc b63d
00000150: 685b 7dbc 18fa 9ebd f7c5 5dbc 82ce 273d
00000160: b552 7a3b 70b7 3ebd f3ff 65bc ee55 a43c
00000170: 312f 3b3c 4973 bc3d 1a8d cbbc 4d62 e73c
00000180: 00e4 1cbd 0503 a5bd ecad 33bc 6bc4 b7ba
00000190: bcea 983d 24e6 92bd 0619 57bd 69e4 45bd
000001a0: ba36 f4bb 9b69 7c3d 3d25 6f3d 1f15 2dbc
000001b0: 070f 273d 3ca8 983d 1c41 fdbc d232 42bd
000001c0: dd22 f93c 4f41 02bd f4fc 923d fd31 e33c
000001d0: f837 d1bc 34ce babc 11e7 d23c 56aa 153d
000001e0: fd3f 98bd a99d a6bd 35b0 3fbb 7a54 01bd
000001f0: 7a30 65bd 8fc4 d93c 2203 6e3d fbe3 90bd
00000200: e125 103c ca07 903d 165c 6d3d 8f78 fb3c
00000210: 77f7 783c ff27 48bd a1bd 763d 04b1 62bd
00000220: ff45 273b 8e1e 28bd a4eb 643c 4e1a 9cbd
00000230: 901e 7ebc 1288 02bd 7f90 683d d9ca 743c
00000240: d196 8e3c e4db f7bb 2984 a9bd ee60 9dbd
00000250: c17a c93c dacf f73d 2583 6fbd 9f40 02bd
00000260: 2569 2b3d 8f59 913d c7a8 86bd 904d d6bc
00000270: af23 b0bd b176 c73c 7259 43bd 0eda 1ebc
00000280: ebe6 9f3d 6d36 85bc b681 7abd 4c2a 9bbd
00000290: a461 c73d d67c bc3c 9c3c 563d 695d 8fbc
000002a0: 306b efbb eabc f13c 397d 683d 3e25 943c
000002b0: 0d46 5bbd afca 13bc e3c4 bbbc 06e0 993d
000002c0: 4013 16bd 2546 9fbc 5e5a c1bc 041f c43d
000002d0: 0e1d 023d 5d48 c03d 6e12 83bd 2276 213d
000002e0: fffc 933b 35e1 43bd 5175 2c3d cf62 5ebd
000002f0: de2e 803c c886 10bd e34f 293c 7b35 5fbd
00000300: 96c8 ddbc 3b67 d13d 2104 c4bb ae61 bc3b
00000310: 1cb7 92bd d61b 96bd 6989 7a3c 4c56 aa3d
00000320: d6d0 36bd 29a3 b33d 416a fa3c 4be4 913d
00000330: 887f 7b3c c6c9 68bd c308 533d 21ca b33d
00000340: 7021 40bd a309 e8bc 7d43 1cbd 082a a8bd
00000350: 81c7 e23b 4e44 fcbb 8c6b 4a3d 3b68 28bd
00000360: 9511 97bd 494e 9abd 424e 3ebb 90fc 39bc
00000370: 30cf 153d 3fa6 90bd 0af6 2abd 0bbc e63c
00000380: a603 293c 5622 573d 9a7a 5b3c 57f9 4abd
00000390: 82e3 a93d 97b7 3dbd ce33 8b3d 7391 9b3d
000003a0: 9208 9c3d 0d94 7e3d 35e3 263c a69d 87bd
000003b0: 9f09 1cbd b676 b4bd d3fc 413d 45f0 083d
000003c0: f200 cc3c f84c 823c 1a0c 18bd 6378 a63d
000003d0: 20b4 0d3d 780f c23b a427 b2bc cb43 99bd
000003e0: a468 20bd c8de ae3d d6a9 38bb 6d3a 713c
000003f0: 9ebb 46bd e450 d9bb a359 063c 74cc c9bc

bias f4 [128]
-0.011398795 -0.002404723 0.02650215 0.043474976 0.005302779 -0.016370194 -0.07720771 0.0075835353
0.02661724 -0.0041853413 0.07805693 -0.028194182 -0.042481363 0.048553783 -0.016506914 0.076030046
0.07934972 0.036176663 0.07562417 0.004705473 0.054605342 -0.06328742 0.009976067 -0.036818784
0.07334948 -0.021107262 0.06564161 0.0040336964 0.031015532 0.01569388 -0.061434466 0.052199844
-0.0047215982 0.0022224307 -0.0040983222 -0.029497411 0.05871674 -0.04603964 -0.040639166 -0.032616623
0.061782494 -0.07330852 -0.03720407 0.015637252 0.0038657777 0.0151518565 0.004240496 0.041547474
-0.006956309 0.05880127 -0.04338875 -0.052264128 0.009454213 0.07027348 -0.048494413 0.05196753
0.07781219 -0.03811758 -0.050343294 0.0012106413 0.03369119 -0.0889664 0.00082785124 -0.021384822
0.011914392 0.06436716 0.08948352 0.012535513 -0.026384404 0.07495185 0.048514463 0.043872457
0.07289049 0.08095932 -0.028904423 -0.049298976 -0.0023491068 0.04798548 -0.008449923 -0.07119911
-0.037997607 -0.031757627 -0.03929131 -0.047183014 -0.007907187 0.05204675 0.04243461 0.08810989
-0.04009972 -0.009751069 0.05938093 -0.0671026 -0.05457993 0.040894106 -0.02207371 -0.08270169
-0.0665406 0.036867067 0.016979896 -0.012206452 -0.0461605 0.049194224 0.010755366 0.029903814
0.03823516 -0.05019393 -0.0041479315 0.03620323 -0.038520776 0.059597284 0.07981802 -0.005212751
0.07147317 -0.0063915555 0.036055982 -0.060582742 0.003196133 -0.035536546 0.050666034 -0.04460282
-0.009933569 0.027755667 -0.0027721603 0.075450994 -0.03633499 -0.055569418 -0.009573274 0.005031369
00000000: 03c2 3abc 8f98 1dbb 091b d93c d112 323d
00000010: efc2 ad3b c91a 86bc 131f 9ebd 4e7f f83b
00000020: 660c da3c 3025 89bb 50dc 9f3d 7cf7 e6bc
00000030: f000 2ebd 55e0 463d 8239 87bc a4b5 9b3d
00000040: 1b82 a23d fb2d 143d d8e0 9a3d 5e30 9a3b
00000050: daa9 5f3d d69c 81bd a872 233c 4bcf 16bd
00000060: 4138 963d 23e9 acbc 1c6f 863d 192d 843b
00000070: 4914 fe3c 7490 803c b5a2 7bbd 81cf 553d
00000080: a3b7 9abb 33a6 113b 384b 86bb 8ea4 f1bc
00000090: f780 703d 1094 3cbd 4175 26bd 0299 05bd
000000a0: a40f 7d3d c722 96bd 4b63 18bd b219 803c
000000b0: fd58 7d3b 7e3f 783c dcf3 8a3b af2d 2a3d
000000c0: c0f1 e3bb 9ad9 703d 67b8 31bd e912 56bd
000000d0: d8e5 1a3c 8beb 8f3d 14a2 46bd e8db 543d
000000e0: ff5b 9f3d 2e21 1cbd c534 4ebd 62ae 9e3a
000000f0: c6ff 093d 0434 b6bd 2804 593a 392f afbc
00000100: 9534 433c eed2 833d 2343 b73d c161 4d3c
00000110: 1b24 d8bc 5b80 993d 1ab7 463d 9bb3 333d
00000120: 9c47 953d 00ce a53d f8c8 ecbc b9ed 49bd
00000130: 79f3 19bb 6c8c 443d 8c71 0abc d7d0 91bd
00000140: 61a3 1bbd 4914 02bd edef 20bd fa42 41bd
00000150: 258d 01bc f92e 553d eacf 2d3d f572 b43d
00000160: 9b3f 24bd f3c2 1fbc 6b39 733d 176d 89bd
00000170: 348f 5fbd 9480 273d edd3 b4bc 815f a9bd
00000180: 7046 88bd ec01 173d 6c19 8b3c 92fd 47bc
00000190: cb12 3dbd e27f 493d 4637 303c d8f8 f43c
000001a0: 799c 1c3d 2698 4dbd 5feb 87bb d749 143d
000001b0: f6c7 1dbd 481c 743d a177 a33d bacf aabb
000001c0: 8660 923d 4170 d1bb 70af 133d 9c25 78bd
000001d0: 3776 513b c58e 11bd 3087 4f3d 72b1 36bd
000001e0: 68c0 22bc da5f e33c 22ad 35bb 0d86 9a3d
000001f0: 00d4 14bd c29c 63bd 39d9 1cbc 2fde a43b
