models/agModels-predicttop10_votes/models/NeuralNetTorch_BAG_L1/S17F7/net.params (torch, 248949 bytes, 16 tensors)

weight f4 [6, 4]
000000 a3 00 91 bf 4c 8c 92 bf 8a b0 83 be b5 aa d5 be
       -1.1328319 -1.1449065 -0.25720626 -0.41731802
000010 3c 8a 57 3f 2f d0 2a 3f ea fd 9f be 44 55 08 c0
       0.84195304 0.6672391 -0.3124841 -2.1302042
000020 45 32 f1 3e 1c 0d 37 be 55 e3 bd 3f ba bc 8f 3e
       0.47108665 -0.17876095 1.4835001 0.28073674
000030 50 a5 26 3e 16 c6 62 3f 5e d9 1a be da 10 e8 bd
       0.16273999 0.88583505 -0.15121982 -0.11331339
000040 e5 3c 71 3f 42 0c 9e 3f 8d 52 00 40 f0 da 5a 3d
       0.9423354 1.2347491 2.0050385 0.05343145
000050 a4 14 04 3f 88 96 a0 be af c4 3c bf 0d 6a 0d c0
       0.51593995 -0.31364846 -0.73737615 -2.2095978

weight f4 [6, 4]
000000 9f d4 54 be e0 4e 39 bf e5 80 0d 3f 96 46 79 3e
       -0.20784234 -0.7238598 0.552748 0.24343333
000010 ce 98 1d be db b9 2c bf 33 dc 71 3f d3 1d fb 3e
       -0.15390322 -0.6747109 0.9447662 0.49046192
000020 49 c7 0a bf bd c6 6a 3f 70 c5 91 3f 40 57 a8 3f
       -0.54210335 0.917095 1.1388378 1.3151627
000030 43 07 be bf f7 a0 24 40 51 66 fd be e9 a5 9f 3e
       -1.4845966 2.5723245 -0.49492124 0.31181267
000040 7f 73 d4 bf 8c 12 16 bf a6 5d f5 be dc d9 e8 be
       -1.6597747 -0.5862205 -0.4792301 -0.45478714
000050 13 5e 76 bf be 4d 81 3f 74 22 70 bd 05 c7 33 3f
       -0.96237296 1.010185 -0.058626607 0.70225555

weight f4 [6, 4]
000000 34 91 e0 bd 60 93 2c 3f 34 c3 5a bf b0 4d 57 bb
       -0.10965195 0.67412376 -0.85454106 -0.0032852702
000010 bd 82 5c 3f c7 9a bd be 24 ec 86 3f f0 7b c4 3e
       0.8613699 -0.37032148 1.0540814 0.38375807
000020 00 03 cb 3d b5 23 8f 3f 0d 8f 98 3e a1 13 ee 3e
       0.099126816 1.1182772 0.2979664 0.4649935
000030 a1 aa 51 bf 9b 73 a6 bf 60 fc 3f bf 43 15 ab bf
       -0.81900984 -1.300403 -0.7499447 -1.3365864
000040 4f 82 52 3e 53 15 b3 be 5b 1c e4 be 49 a6 78 3e
       0.20557521 -0.34977207 -0.44552884 0.24282183
000050 3d 85 31 3f 22 08 c6 bd d4 46 8b be 7b 79 8d bf
       0.6934393 -0.0966952 -0.27202475 -1.1052698

weight f4 [6, 4]
000000 cd 6b 2f bf 3c 61 86 3f e3 23 1d bf e7 91 a3 bf
       -0.68523866 1.0498424 -0.61382884 -1.2778901
000010 21 1e 8b 3d 37 7a 2f bf 68 7f 1d 3f 7b 09 3d bf
       0.06792856 -0.6854586 0.6152253 -0.7384259
000020 b0 f5 87 be 4e 21 d2 3d df 6a 7d 3e 01 75 96 3f
       -0.26554632 0.102602586 0.247478 1.1754457
000030 3c d8 9c 3e ac a9 cb 3e b0 7d 44 be ce 8f e8 bd
       0.30633724 0.39777887 -0.19188571 -0.113555536
000040 d3 7d 32 3e 82 4f 43 bf b7 a7 f3 bf 10 4d ed 3d
       0.1743081 -0.76293194 -1.9035558 0.11586964
000050 a8 f8 19 bf 19 99 5f 3e 5e ce 94 3d 77 dd 92 3e
       -0.60145044 0.21835746 0.07265924 0.2868459

weight f4 [6, 4]
000000 83 91 73 3f a5 10 80 bf 78 f0 92 3e ca f6 e6 bd
       0.9514391 -1.000508 0.28699088 -0.1127754
000010 ab dd 7d 3f f5 48 04 bf bd 8a 42 3f f0 f3 1f 3f
       0.99166363 -0.51673824 0.7599295 0.62481594
000020 7e 18 7a 3f 4b d5 bd bf 38 15 1a 3f 76 1c 17 3e
       0.9769362 -1.4830717 0.6018863 0.1475695
000030 49 75 f2 3d 91 9e 51 bf 39 a9 21 3f e0 b1 f5 bf
       0.118387766 -0.8188258 0.6314884 -1.9194908
000040 07 80 ac 3f 28 f2 11 be 0a 5e 48 3f 10 38 83 3f
       1.3476571 -0.14252532 0.7826849 1.0251484
000050 9a 8b a1 3e cd a0 b3 bf f9 03 f7 3f 7a fd 51 3d
       0.3155182 -1.4033448 1.9298087 0.051267125

weight f4 [26, 9]
000000 3e 5b 0d bf 20 e4 d4 bf fb 37 0b bf fb a2 03 bf
       -0.5521735 -1.6632118 -0.54382294 -0.51420563
000010 57 7f 19 bf ab 69 b9 bf c8 01 54 bf 4e c9 03 c0
       -0.5995993 -1.4485372 -0.8281522 -2.0591617
000020 17 aa 87 bf 1a 28 3a bf f8 16 f0 39 32 63 a4 3e
       -1.0598782 -0.7271744 0.0004579348 0.3210693
000030 eb 12 8c be 24 28 a2 3f be 86 5a ba bf 28 5d bf
       -0.27358183 1.26685 -0.0008336118 -0.863903
000040 b2 73 e6 3e 8b 51 b8 3b f2 f1 a8 3f 8e 07 84 be
       0.45010144 0.005624955 1.3198836 -0.25787014
000050 2d 85 0f bf a3 c0 39 c0 fc 08 c3 bf b7 91 83 3f
       -0.56062585 -2.9023826 -1.5237117 1.0278844
000060 d7 a5 67 3e d6 5b 36 bf 32 81 db 3f ab a3 c2 3e
       0.22621857 -0.7123388 1.7148802 0.38015494
000070 b2 c8 77 3f e9 67 b9 3f 1a 2c 2e bd 6c de 21 bf
       0.9679061 1.4484836 -0.042522527 -0.63230014
000080 b2 7b 22 bf 15 a9 dd 3f 82 6f 77 bf 6f f6 24 bf
       -0.63469994 1.7317225 -0.9665452 -0.6443853
000090 f6 5b 2b 3d 01 e6 17 3f c2 a3 02 3f f2 0a 9d 3f
       0.041835748 0.59335333 0.51031125 1.2268965
0000a0 a9 4a 88 bf 96 9e db bf f2 0c c4 3f 40 e8 81 bb
       -1.0647784 -1.7157772 1.531645 -0.003964454
0000b0 21 78 cc bf 65 db 4e 3c cf 11 18 bf 54 bd 35 3f
       -1.597416 0.01262555 -0.59402174 0.70992017
0000c0 a9 ec 90 3f 1f 56 df bd 8d b3 98 bb a5 46 2e 3f
       1.1322223 -0.10905098 -0.004660076 0.68076545
0000d0 a4 5d 0b 3f fd ce 74 3e df 7d c2 3d a7 b7 16 3f
       0.5443976 0.23907085 0.09496664 0.5887398
0000e0 ff c4 a5 3d ca 62 79 bf 70 21 2f 3f ef fd 89 3f
       0.08094215 -0.97416365 0.68410397 1.0780619
0000f0 e3 26 06 40 cf 62 67 bf 02 89 31 bf 89 62 1f bf
       2.0961235 -0.90385145 -0.6934968 -0.6225973
000100 f8 26 c5 3f 4a 75 41 bf 9b 5b 0a 3e 86 c1 b3 3f
       1.5402517 -0.75569594 0.13511507 1.4043434
000110 47 97 03 40 59 d1 30 3f e7 bb 32 bf 28 c7 e1 be
       2.0561082 0.6906944 -0.69817966 -0.44097257
000120 6c a9 8a 3e 13 ca 16 bf b9 4c 71 3f f5 d4 fa 3e
       0.27082384 -0.5890209 0.94257694 0.48990598
000130 24 49 55 bf d6 75 a1 3f 6a e3 8c 3e 05 90 18 bf
       -0.8331473 1.2614086 0.27517253 -0.59594756
000140 91 88 6d bf f1 75 16 bf 27 87 25 3e 59 25 88 bf
       -0.9278651 -0.58773714 0.16164838 -1.0636398
000150 16 d6 3a bf 0b ba 0c c0 6a 72 2d bf 2d f0 04 3f
       -0.7298292 -2.1988552 -0.67752707 0.5192898
000160 a3 c6 4e 3f 7e 8b bc 3d 55 bb c9 3e fe 6f ea bf
       0.80771846 0.092062935 0.39400735 -1.8315427
000170 f7 48 92 bf 77 00 d2 3d 97 d3 1f 3f 57 f7 af 3f
       -1.1428517 0.10253995 0.62432235 1.3747357
000180 ff 21 c8 bf 4c 97 bf 3e 98 50 ac bf d0 1d 22 be
       -1.5635375 0.37420118 -1.3462095 -0.15831685
000190 7d cb 8a be 3f a4 98 bf e5 02 2c 3f 4c 80 a1 bf
       -0.27108374 -1.1925124 0.67191917 -1.2617278
0001a0 39 97 93 bf 70 8d ad 3e 37 16 45 bf f9 2b 6c bf
       -1.1530524 0.3389697 -0.7698702 -0.92254597
0001b0 86 30 45 bf 87 42 0b 3f bd 5b b4 3e 29 b3 18 3f
       -0.77027166 0.5439839 0.3522624 0.59648377
0001c0 43 e5 b2 bf f7 f7 48 bf da 93 9c 3f 01 4b e7 bf
       -1.3976215 -0.78503364 1.2232621 -1.8069764
0001d0 86 72 e3 3e 78 8a 8d 3f 06 de e3 3e f8 4e 92 bf
       0.44423312 1.1057882 0.44505328 -1.1430349
0001e0 25 72 cc be dd 4b 9f be 81 95 78 3f c9 bd e1 be
       -0.39930835 -0.31112567 0.97103125 -0.44090107
0001f0 33 f1 1a bf ff 62 b7 be cb 92 ba bf 3c f7 0c bf
       -0.6052429 -0.35817716 -1.4576048 -0.5506475
000200 5f 5f 9a 3f 15 3b 51 3f 74 5b b2 3e 04 7f 90 3e
       1.2060355 0.8173078 0.34835398 0.28221905
000210 4c a3 32 c0 0c 40 53 bf a2 59 e3 3e 48 94 9f 3e
       -2.7912169 -0.825196 0.44404322 0.31167817
000220 6e 01 91 bf f3 60 c9 3c d4 5d 02 be 9e f1 84 be
       -1.1328561 0.024582362 -0.12731105 -0.2596559
000230 87 73 18 40 4e 7c ce 3f cd c9 92 be a9 2f c3 bf
       2.3820512 1.6131685 -0.28669587 -1.524892
000240 88 8c 10 bf 54 78 4c bf 29 33 b8 bf 60 f2 e0 be
       -0.56464434 -0.79871106 -1.4390613 -0.43934917
000250 18 c8 8c be 26 2f d3 bc 82 c7 0f 3f 37 83 ca bf
       -0.2749641 -0.025779318 0.561638 -1.5821294
000260 e6 0f c1 3e c8 02 14 c0 57 a2 60 bf 8f 7a d7 bf
       0.37707442 -2.3126698 -0.8774771 -1.6834277
000270 4b 3b 0b 3f de 83 ba bf ae 21 38 3f f1 41 b2 bf
       0.5438735 -1.4571493 0.7192639 -1.3926374
000280 0a df b0 3e f1 a8 c1 bd 01 7b 4e 3e 42 1b 9b 3f
       0.34545165 -0.09456051 0.2016411 1.2117693
000290 7d a9 9f 3f 77 1f cf bd 89 5a 08 40 e7 61 ad 3d
       1.2473599 -0.10113423 2.1305258 0.08465939
0002a0 92 5f f9 3e 55 ea 84 3d 00 66 cf 3e a7 60 e1 bf
       0.48705727 0.06490008 0.40507507 -1.7607621
0002b0 77 c3 9a 3f cd 82 27 40 77 be 51 3e 39 b4 ae 3e
       1.2090901 2.6173584 0.20482813 0.34121874
0002c0 5d 84 92 bf c4 97 0d 40 d9 44 e1 3d 06 84 4c 3f
       -1.1446644 2.212388 0.1099946 0.7988895
0002d0 8c 6e 88 bf 5d a1 d6 bd b1 4e bb bf ee 0e dd bf
       -1.0658736 -0.10479996 -1.463339 -1.7270181
0002e0 25 36 f5 bf f5 50 02 3d a7 4b 00 c0 e1 d6 fb bf
       -1.9157149 0.031815488 -2.0046175 -1.9674951
0002f0 51 12 07 40 1f aa 6c bf a9 52 1b bf 45 04 d7 3f
       2.110493 -0.92447084 -0.60673004 1.6798178
000300 db 1e b5 3e 62 69 3f bf d8 be 69 bd 96 a8 e5 3f
       0.35375103 -0.74770176 -0.05706677 1.7942073
000310 ff 53 19 bf 76 3e 41 3f 9b 91 3c 3f c3 fe bb 3f
       -0.5989379 0.7548593 0.73659676 1.4687122
000320 4c a0 14 bf 69 96 d7 bd 43 40 eb 3e 87 de ff be
       -0.58057094 -0.10526735 0.45947465 -0.49974462
000330 2f 31 f8 bf 44 59 32 3f ba 1b 09 be 1f 42 be bf
       -1.939001 0.6966746 -0.13389483 -1.4863929
000340 35 07 03 bf a0 31 c0 bf 26 4d 3b bf 04 f8 8b 3f
       -0.5118287 -1.5015144 -0.73164594 1.0935063
000350 1f 93 0e c0 17 c8 00 3f 4c 98 08 bf 87 2e 8e bc
       -2.2277296 0.5030531 -0.53357387 -0.01735617
000360 d9 e0 23 3f 37 db 80 3f f7 b0 fe be c7 d9 dc 3e
       0.64014965 1.0066899 -0.49744388 0.431349
000370 62 ad b1 3f fa 1f e2 3e 6b 98 01 bf 1a d3 53 be
       1.3881037 0.4416502 -0.50623196 -0.20685998
000380 ec b9 17 be 16 11 9b 3d 5c f0 85 3e b4 8a 26 bf
       -0.14817017 0.07571618 0.26159942 -0.65055394
000390 e8 b2 0c 3e 4a b9 24 be d5 b5 bc 3f d9 03 1b be
       0.13740122 -0.16086307 1.4742991 -0.15138187
0003a0 f6 d5 5a b9 c9 b1 63 3b
       -0.00020869807 0.003474342

weight f4 [128, 76]
000000 01 c9 10 3e 4d 9d d8 3d 43 71 d5 3d f3 bd 3e 3d
       0.14139177 0.10576878 0.104219936 0.04656787
000010 ff 82 ba bd 7e 17 c2 3d 51 b4 99 bb 82 d1 36 3d
       -0.09107017 0.09477137 -0.004690685 0.044633396
000020 78 36 c7 bd 17 0f 07 bd c2 d9 fb bd 2c 56 0f bd
       -0.09727186 -0.032973375 -0.122973934 -0.03499429
000030 8f 4c df 3c 0a fe ca bd 37 86 24 3d 94 78 41 3d
       0.027258186 -0.09911735 0.04016706 0.047234133
000040 74 30 fa 3c c5 c4 8f bd 17 fa b0 bd af 98 0f bd
       0.030540682 -0.07019953 -0.08641451 -0.03505772
000050 99 f8 60 3d ae 65 f2 3d c3 81 9b 3d 5a 6f 2c bc
       0.05492458 0.118358 0.075931095 -0.010524595
000060 ac b4 27 3d c6 eb e4 bd be 5b c3 bd 9c f6 5a 3d
       0.040943787 -0.11177783 -0.09538983 0.05345784
000070 97 f7 7a bd 70 71 60 3d 08 dd a6 bd a8 42 64 bd
       -0.061271276 0.054795682 -0.08147627 -0.05572763
000080 78 f3 bf bd 2e a4 7b 3d 59 ee 0d bc 2f 0b b0 3d
       -0.0937261 0.06143587 -0.008662784 0.08595883
000090 62 57 98 3d 56 e8 88 3d 1c b5 e7 3b ec 48 82 bd
       0.07438542 0.066849396 0.0070711505 -0.06361565
0000a0 50 e3 d0 bc 5d 06 80 3c 95 5b 99 3d be 2f 78 bd
       -0.025499016 0.015628034 0.07488171 -0.060592405
0000b0 68 08 eb 3d e0 19 9e bc 4e c7 1c be 4d 04 84 bd
       0.11476213 -0.019299448 -0.15310404 -0.06446133
0000c0 e7 31 d8 3d e7 22 e1 3d db 2c ca bd 47 a5 81 3d
       0.10556393 0.10992985 -0.09871837 0.06330352
0000d0 82 42 91 3d e4 94 1f 3d a2 40 af 3d 14 f4 84 bd
       0.070927635 0.038960353 0.085572496 -0.06491867
0000e0 ac a2 06 3d 4f e7 42 3d 64 7d 1c bd 1e 8b 3c 3d
       0.03286998 0.047583874 -0.03820552 0.04603111
0000f0 46 b4 b0 bc 7e 94 44 3d 74 76 c5 bc d1 a5 45 bd
       -0.021570336 0.047993176 -0.024104334 -0.048253838
000100 df da 0d 3d d3 44 25 3d c0 ce 83 bd 96 6a 67 3b
       0.03463256 0.04034884 -0.06435919 0.0035311333
000110 9c cc 85 3d 38 71 42 bd ee b5 05 3d fd 70 b4 bc
       0.06533167 -0.047471255 0.032644205 -0.022026533
000120 29 80 9d 3c be 37 a1 bd f1 8c 8d bd 99 a8 b6 bd
       0.01922615 -0.0787196 -0.06911648 -0.08918876
000130 b7 52 24 3e 85 6e f8 3c d5 72 3a 3c 03 7b 38 bd
       0.16047178 0.030326137 0.011379917 -0.045039188
000140 10 c5 ed 3d 84 00 dd 3d d2 2b b1 bd 15 92 b4 bd
       0.11609852 0.10791114 -0.08650936 -0.088169254
000150 93 2c a0 bd 26 8a 1e 3c 0e b6 05 bd 49 41 b9 bd
       -0.07821002 0.009676492 -0.032644324 -0.09045655
000160 5d 27 c8 bc ea e1 b5 3c b9 87 63 bd 5c ab 35 3d
       -0.024432832 0.02220245 -0.055549357 0.044352874
000170 cd e0 84 39 06 7c 63 bd 7a 08 94 3c b6 82 c4 3d
       0.00025344492 -0.0555382 0.018070448 0.09595244
000180 e6 bb 97 bd 21 7a d3 3b 2f bd 19 bd 32 f3 e5 3d
       -0.07408886 0.006453768 -0.037533935 0.112280264
000190 37 43 e0 bd 99 e1 df bd 7e 4a f6 3d ea 9d 93 bd
       -0.1095032 -0.10931701 0.12025927 -0.07207854
0001a0 03 13 d0 3c 98 fe 39 bc b1 c6 ae bc 28 47 dc bc
       0.02539969 -0.011352204 -0.021334978 -0.026889399
0001b0 67 99 96 3d ee ca 22 3b a6 eb e1 bd fd ce 78 bd
       0.07353478 0.0024840194 -0.110312745 -0.060744274
0001c0 59 5a 1e bd bf 7e 79 3d 45 14 92 bd 51 ae c5 3d
       -0.03866038 0.06091189 -0.07132772 0.09652389
0001d0 18 cd d2 bc fa f3 a2 bc 50 35 c1 3d 1a 43 82 3d
       -0.025732562 -0.019891728 0.09433997 0.06360455
0001e0 c5 68 02 3e 2c 66 8e 3d 04 ad ec bd 8f ba 93 bd
       0.12735279 0.069530815 -0.115564376 -0.072133176
0001f0 25 03 f8 3a 4b 47 b8 3d 9d af 1d bd 0e 78 00 be
       0.0018921836 0.08997973 -0.038497556 -0.12545797
000200 9c 22 74 3d 4c 24 a1 3d 05 45 51 bd 18 b2 cf bd
       0.05960332 0.07868251 -0.051091213 -0.101413906
000210 bb 2e e4 bd dc 63 d5 3c 49 e4 85 bc 96 eb 24 bd
       -0.11141726 0.026048593 -0.016344206 -0.040263735
000220 cc 55 fb 3c c5 99 16 3d 59 5a ae 3d 3e 4b a8 3d
       0.03068056 0.03676774 0.08513326 0.08217476
000230 b2 30 19 bc 45 29 cb bd 09 56 e7 bd 3c 41 b7 3d
       -0.009349989 -0.09919981 -0.11295707 0.08947989
000240 11 74 fc 3c 95 a4 9a 3c fa b0 ee bd 6c 99 df 3d
       0.030817064 0.018877307 -0.11654849 0.10917935
000250 b7 3c 9d 3d 72 0b e9 3d fc dd d2 bd fb 3d 83 bd
       0.07677596 0.11379136 -0.102962464 -0.06408306
000260 da fe 08 3a dd d4 22 3e 44 51 8b bd 9d 91 a5 bd
       0.0005225964 0.15901513 -0.068026096 -0.08084414
000270 f8 e8 9a 3c c2 03 46 bd 31 ab 01 bd c0 96 31 3b
       0.018909916 -0.048343427 -0.0316574 0.002709791
000280 2f 9d 12 3c 0f f1 c9 bd 0b e4 cc 3d fb 5d 5f bd
       0.008948608 -0.098604314 0.10004433 -0.054532986
000290 06 61 d6 3c 01 99 e2 3d dd d6 9b 3d e0 64 00 3d
       0.026169311 0.110643394 0.07609341 0.031346202
0002a0 d9 98 ee 3d b4 6a aa 3c 97 b5 5f bd 05 9e e2 3d
       0.11650247 0.020802833 -0.054616537 0.11065296
0002b0 c1 8c 06 3d 9f e8 d1 bd d9 87 1d bc 9f 56 94 bd
       0.032849077 -0.10249447 -0.009614908 -0.07243084
0002c0 63 ef e4 3d 34 db 81 bc 8f 8e c9 bd b5 6a 40 bb
       0.11178472 -0.015851595 -0.09841644 -0.0029360477
0002d0 8e a5 a3 3d 91 07 0d 3d f8 a2 30 3d 46 c0 79 3c
       0.079905614 0.034431044 0.04312417 0.0152435955
0002e0 cd d3 3b 3d 44 3d a6 bc 51 dd 23 bd 63 13 da bd
       0.045856286 -0.020292886 -0.040005986 -0.10648229
0002f0 77 7c b7 bd 82 60 84 3d 31 66 59 bd 89 a5 f8 39
       -0.08959287 0.0646372 -0.053075973 0.0004742558
000300 97 cf 0f 3d 45 ec e0 3b b2 b4 8b bd 52 22 eb 3d
       0.035110082 0.006864103 -0.06821574 0.114811555
000310 68 c2 58 bd 2a 2f b1 3d 67 2d 12 be cf 88 c3 bc
       -0.052919775 0.08651574 -0.14275132 -0.023868946
000320 8a ab 87 3d 6e cf 55 bd 14 52 cb 3d 7d 30 b9 bd
       0.06624515 -0.052199773 0.099277645 -0.090424515
000330 6f 52 c0 bd 84 a6 a0 bd 83 bb 22 bc b6 fc 03 3e
       -0.09390723 -0.0784426 -0.009932402 0.1288937
000340 0c 29 bc bc aa 7d 94 3d ae 23 90 ba 2e 81 50 bc
       -0.022968791 0.07250531 -0.0010996962 -0.012726111
000350 02 a6 95 3d 3c ae 9f bd a9 d5 7f 3c 23 4e d8 3d
       0.07307054 -0.077969044 0.015614905 0.105617784
000360 11 67 f0 ba 2d 4c b3 3d cb c1 0f bd 56 e1 c6 3d
       -0.0018341263 0.08754764 -0.035096925 0.09710948
000370 c3 15 e1 bd e8 8e 0e bd 30 87 1d bd 8c c3 6c 3d
       -0.10990479 -0.034804255 -0.038459003 0.057803676
000380 aa 63 50 3d ed a9 9e 3d ce 8d 1e bc 72 7e 9b bc
       0.050876297 0.077472545 -0.009677364 -0.018981192
000390 77 aa 15 3e 53 cb 45 3d 60 e7 d4 3d d0 fe a0 bd
       0.14615808 0.04828961 0.10395694 -0.078611016
0003a0 66 c2 e5 bc 84 01 1d bc b8 c3 8d 3d d9 71 c8 3d
       -0.028046798 -0.009582881 0.06922096 0.0978734
0003b0 7a 00 27 bb 98 2b ea bd 17 99 90 3d 76 0f 9b 3c
       -0.0025482462 -0.11434096 0.070604496 0.01892827
0003c0 0d e4 bf 3c ef 6a 96 bd 86 dc a0 3d d3 fa fb 3d
       0.023424173 -0.07344615 0.078545615 0.123037
0003d0 4b ea 1f 3d ef 91 c9 bd c0 98 a9 3d 9b fb aa bd
       0.0390418 -0.09842288 0.08281088 -0.08348771
0003e0 bb 66 d7 3c bb 1a b5 3c 65 28 3c bd 58 6a 23 3d
       0.026294103 0.022107473 -0.04593696 0.03989634
0003f0 28 e8 c8 bd be 4d e8 3c 4f e8 8a bd 18 b5 c9 bb
       -0.09809905 0.028357383 -0.067825906 -0.0061556213

bias f4 [128]
000000 d4 91 90 bd 83 32 81 bd d6 86 a9 bd d3 dd 67 3d
       -0.070590645 -0.063084625 -0.08277671 0.056608032
000010 9e cb 24 3c 2c ef 87 bb 57 48 ea 3c 57 e4 7b 3d
       0.010058312 -0.0041483846 0.028598947 0.06149706
000020 46 20 06 3c bf b2 85 3d e1 46 66 bc ff 42 22 3d
       0.0081864055 0.06528234 -0.014054985 0.039614674
000030 ce 68 1a 3d 1c d2 07 bc b9 9c c7 3d 8f b1 df 3d
       0.037697606 -0.00828984 0.09746689 0.109225385
000040 7a 25 be 3d e3 24 b8 bc 96 f7 bd bc 10 99 c8 3d
       0.09284492 -0.022478526 -0.023189347 0.09794819
000050 44 42 55 bd c0 3b 20 3c 25 60 92 bd 36 ce cf bc
       -0.05206515 0.0097798705 -0.07147244 -0.025366884
000060 73 a4 3e bd 3d 7b 87 3d e9 bc 4e bd 21 82 6d bd
       -0.04654355 0.06615303 -0.050473128 -0.05798543
000070 61 67 3c 3d 43 df 4a bc 42 7a a9 3c 2a a8 b7 bd
       0.045997027 -0.012382331 0.02068818 -0.089676216
000080 2a f2 41 bd 1f 6b 6e 3d d3 13 84 3d ec ed f2 bd
       -0.047350086 0.058207627 0.06449094 -0.11861786
000090 b4 a7 96 bd 2f 18 31 3d 96 6a d1 bd 3c ca 87 bd
       -0.073562056 0.043235954 -0.10225408 -0.0663037
0000a0 d3 a8 91 bd 8e 5e b7 bd f4 9e 52 bd de fa a4 3d
       -0.07112279 -0.08953582 -0.05142112 0.080556616
0000b0 ab 81 ef bd 9b 3b a4 3d cf cc de bd da 7b 06 bd
       -0.11694654 0.08019181 -0.10878908 -0.032832958
0000c0 ba 4c 19 bd 60 8b 88 3d dd ad be bd 7c 86 8c bd
       -0.037426688 0.06667209 -0.093105055 -0.06861588
0000d0 f1 5e de bd d3 6b 0b ba 56 a2 47 3d c6 84 d4 3d
       -0.108579524 -0.0005318496 0.0487388 0.10376887
0000e0 6f 8c b2 3d fe 29 d4 bc 2f aa 82 bd c7 99 bb 3c
       0.08718192 -0.02589893 -0.06380116 0.022900475
0000f0 a1 00 8a 3d f0 79 ce 3d 3f 3f be 3d 69 3f 94 3a
       0.06738401 0.100818515 0.09289407 0.0011310402
000100 e6 cc d1 bd a8 cf 8d bd 19 69 84 3d 7c 38 cf bd
       -0.102441594 -0.06924373 0.06465358 -0.101181954
000110 49 37 ab bd 5a 05 8e bd 33 86 d1 bc 5c 71 59 3d
       -0.08360154 -0.069346145 -0.025576686 0.053086624
000120 a3 d4 aa 3d 33 f6 c9 3d b6 69 79 3d fd 43 60 3c
       0.083413385 0.09861412 0.06089183 0.013688085
000130 ca bf 80 bc 87 07 82 bd 4e 0a 65 bd db 8a 13 bc
       -0.015716452 -0.06349092 -0.05591803 -0.009005274
000140 bc a1 cb 3d 4a 5f cd bc 5b 61 95 bc 27 b4 6a ba
       0.09942958 -0.025069851 -0.0182349 -0.00089532364
000150 29 99 4e bd d0 5d 7c bd 44 ac 38 3d fe 87 bb bd
       -0.050439034 -0.061612904 0.04508616 -0.09156798
000160 c9 3d 3c bb 3e 44 13 bc 4a 89 81 3c 73 4f 33 bc
       -0.002872335 -0.008988438 0.015812535 -0.010944235
000170 c5 06 76 bd d3 d6 e7 bc b7 2a 1a bd f4 8d 21 3d
       -0.06006505 -0.028300678 -0.037638392 0.039442018
000180 a5 5a c8 3c dd 74 02 bd c8 99 b9 3d bb 77 36 3b
       0.024457285 -0.03184973 0.090625346 0.002784236
000190 1e bb 56 3d d7 f3 0b bd 17 87 d0 bd 51 a7 d2 bd
       0.052424543 -0.03416809 -0.10182016 -0.10285819
0001a0 82 2f 20 bd f1 d6 7e 3d be 04 7a 3d 64 3c 5b 3d
       -0.039107807 0.062216703 0.06103968 0.05352439
0001b0 d8 96 09 3d 60 dc 8b bd 31 1d 19 bd f0 fb af 3c
       0.03359112 -0.068291426 -0.037381355 0.021482438
0001c0 45 3c d4 bd b6 f9 cf bd b6 a2 a1 bd 07 ea d8 3c
       -0.10363058 -0.101550505 -0.07892363 0.02647878
0001d0 80 5f ad bc 26 b0 96 bc d6 a0 8a 3d 46 fc 8e bd
       -0.021163702 -0.018394541 0.06768958 -0.06981711
0001e0 88 c5 97 bd 6d ef e6 bc 4d 03 91 3d ca 3c 02 3c
       -0.07410723 -0.028190339 0.07080708 0.007949064
0001f0 37 3b c5 bd 5e 9d a9 3d db a8 9b bd 6b d6 b0 3d
       -0.09630435 0.082819685 -0.07600566 0.08634647

weight f4 [128, 128]
000000 d7 5b f3 3c 4a 27 03 3d 9d 21 82 3d 14 df c3 3c
       0.029706879 0.03201989 0.063540675 0.023910083
000010 94 19 ae bd 9e bf 15 3d 7a 48 a2 3d ec 13 ea bc
       -0.085009724 0.036559694 0.0792398 -0.028573953
000020 80 05 97 3d 79 2a 95 3d 91 d8 3e bd f0 f4 fc bb
       0.07374096 0.07283492 -0.046593253 -0.0077196285
000030 1a 31 98 3b 3b 85 89 3d 47 65 28 3d 4c c1 82 3d
       0.0046445252 0.06714865 0.04111221 0.06384525
000040 4e bd 86 bd ef 92 37 bd d0 56 88 bd 69 32 4b 3c
       -0.06579076 -0.04481786 -0.06657183 0.012402155
000050 aa 40 09 bd 92 23 88 3c c2 2c 21 3d 92 63 06 bd
       -0.033508934 0.016618524 0.039349325 -0.0328098
000060 19 f4 66 3b 35 f6 4c bd 65 0d 33 bc e4 15 97 3c
       0.0035240708 -0.05003949 -0.0109284865 0.018443055
000070 79 ef 67 3d 45 1f f9 3c 7c 35 d1 3c 19 01 61 3d
       0.056624863 0.030410418 0.025538199 0.054932687
000080 ab 88 7a 3d e6 09 0d 3b 84 48 a4 3d c8 bb 5d bd
       0.061165493 0.0021520793 0.08021644 -0.05413416
000090 53 ce f0 3c 41 2b de b9 6d 8a 85 3d 38 14 e0 bd
       0.029395258 -0.00042375366 0.06520543 -0.109413564
0000a0 80 d9 21 3d 7c 07 9b bd f0 67 30 bb 99 97 3a bd
       0.039514065 -0.07569787 -0.002691742 -0.04555473
0000b0 19 ad fd bc 09 f4 6a bd 83 00 a1 bd bb a2 96 bd
       -0.030966328 -0.057361636 -0.07861426 -0.07355257
0000c0 4a ac d0 bc 9f cd 9b 3d 5c e2 01 bd 95 bc 83 bd
       -0.025472779 0.076075785 -0.031710014 -0.064324535
0000d0 be 12 06 bd 1d 92 3f bc 8e 92 07 bc db 8a 98 3d
       -0.032732718 -0.011692551 -0.008274687 0.074483596
0000e0 1a 0b a8 bd 13 38 6c 3d 7c 4e 8d 3d 0c 52 76 3d
       -0.082052425 0.057670664 0.06899735 0.06013684
0000f0 b4 f1 42 bd 77 67 31 3c bb 1f df 3c b5 c6 9d bd
       -0.047593787 0.010827891 0.02723681 -0.07703916
000100 7f a5 8c 3d c3 de a6 bc d4 11 8f bd 55 fe 9d bc
       0.068675034 -0.020369893 -0.06985822 -0.019286314
000110 cf 65 09 3c fa f1 f3 bc 00 0d 0b bd e5 1f c0 3b
       0.0083860895 -0.02977847 -0.033947945 0.005863177
000120 05 5c 1d 3d 62 9f d8 3c ae d6 b9 bd a7 0f e8 bb
       0.038417835 0.026443187 -0.0907415 -0.007081944
000130 03 7b 2e 3b a0 3c 8c 3d b9 69 30 3d 74 16 75 3d
       0.0026623614 0.06847501 0.043069575 0.059835866
000140 ee 17 c8 3c 1f 42 42 bc 3e 92 68 bd f4 54 01 bd
       0.024425473 -0.011856585 -0.056780092 -0.03157516
000150 45 19 f4 3c 80 7c a5 bc 9c b7 7b 3d a1 a8 62 bd
       0.029797206 -0.020200968 0.0614544 -0.0553366
000160 53 ec 7b 3d b7 ea 0f 3d c0 2e 72 3d 98 a5 2b 3d
       0.061504673 0.03513595 0.059126616 0.04190597
000170 3f 53 9d bd ca 96 23 3d ed 85 b3 bd 9d d2 34 bd
       -0.076818936 0.039938726 -0.08765779 -0.04414617
000180 37 92 a8 bc 9a 02 9b 3d ce d1 db bc 4f 1d 85 bd
       -0.020577533 0.075688556 -0.026833441 -0.06499731
000190 4d fd ab bd 59 71 cc 3b 99 d1 cc 3b 44 da 0b 3c
       -0.08397923 0.006239098 0.006250572 0.008535925
0001a0 d2 79 8b bc f5 0a f7 3c f5 bd 00 3c ce 04 a4 bb
       -0.017025862 0.030156592 0.007857789 -0.0050054556
0001b0 13 64 1b 3d ad 5b 98 bd ef 97 76 bd 7a c0 56 39
       0.037937235 -0.07439361 -0.06020349 0.00020480333
0001c0 d0 e4 e6 bc df a5 36 2e 0d a1 e6 bc 4b 8b 4e 3d
       -0.028185278 4.1529332e-11 -0.028152967 0.05042581
0001d0 0e 1b a8 3d 27 98 77 3d 54 e6 f0 3c 73 f8 85 bd
       0.08208285 0.06044784 0.029406704 -0.065415286
0001e0 48 d8 1f bd af 90 43 bd b7 18 75 bc 51 ff 4e bd
       -0.03902462 -0.047745403 -0.014959506 -0.050536457
0001f0 d6 01 5e 3d c4 78 bb bd 69 7c aa 3b ef ab 71 3d
       0.05420097 -0.091538936 0.005202819 0.05900186
000200 3c 35 7b bd 53 2b 10 bc c8 f8 74 3d 5f 97 bf bc
       -0.061330065 -0.008799392 0.05980757 -0.023387609
000210 31 23 2e bd ae f7 6b 3d cb f2 a2 bd 7c 20 b3 3d
       -0.04251403 0.057609253 -0.07956465 0.0874643
000220 49 52 d5 3d 46 8a b3 3b 4f 49 58 bc e6 60 3e bd
       0.10416085 0.00547913 -0.013201072 -0.04647913
000230 a6 02 6c 3d 8a 2e 8e bd d2 da 16 bd 30 19 f0 3c
       0.057619713 -0.0694247 -0.036829777 0.029308885
000240 bc 4e 13 3d a8 12 79 3d ef dc 51 3c 41 75 b7 3d
       0.03596376 0.060808808 0.012809022 0.08957911
000250 a6 68 54 3d 5f e1 b1 bd 1b 93 bf bd 37 58 9f 3d
       0.051857613 -0.08685564 -0.0935423 0.077804975
000260 d7 1c a7 3d 11 15 ca 3d 8f a6 b1 bd 62 3b a1 3d
       0.08159798 0.09867299 -0.08674347 0.078726545
000270 59 7a 28 bd 79 02 33 3c 74 36 ab 3c 61 e9 70 bd
       -0.041132305 0.0109258825 0.020899989 -0.058816317
000280 7f 1b 80 bd 4d 85 88 3d 09 ae cc bd 16 15 15 3d
       -0.062552445 0.0666605 -0.09994132 0.036397062
000290 3f 98 9e 3c f0 3a 09 3d 89 cb 23 38 a8 11 19 bd
       0.019359706 0.033503473 3.9051785e-05 -0.037370354
0002a0 88 30 06 bc fb df 61 bc 83 14 97 bd 51 9a a5 bb
       -0.008190282 -0.013786311 -0.07376959 -0.0050537963
0002b0 1a 90 49 bd df 9c 2c 3d f1 77 3f bd c8 1d e0 bb
       -0.04920969 0.04214179 -0.046745244 -0.0068394877
0002c0 09 ae 9d bd b5 09 ae 3d ac 3c 5b 3d 5e 43 86 3d
       -0.0769921 0.08497945 0.053524658 0.06555818
0002d0 16 ab 93 3d e9 ee 8e bb 6c 62 9b 3d ac b1 48 bc
       0.072103664 -0.0043619764 0.07587132 -0.0122493915
0002e0 c0 c7 97 3d 8b 58 d6 3c 5a cf 58 3d 69 c7 23 bd
       0.07411146 0.026165267 0.05293212 -0.039985094
0002f0 d7 86 25 3d 1d 54 c1 3a be 79 66 bd 89 c8 7e 3d
       0.040411796 0.0014749799 -0.056268446 0.062202964
000300 d4 fd 53 bd b1 14 ac bd 45 ff 8f 3d e3 6a 98 bd
       -0.05175574 -0.08402384 0.07031111 -0.07442262
000310 75 ea e1 3c 2c ca 73 3d 8f ab 87 bb 69 2b 91 bd
       0.027577618 0.059518978 -0.0041403244 -0.07088358
000320 aa b3 50 bd 9c c1 9a bc f7 fe 98 3c 38 39 7d 3d
       -0.05095259 -0.018891148 0.018676264 0.061822146
000330 67 bd 78 3d 10 57 40 bd 00 13 f8 bc 1a 21 8e bd
       0.060727503 -0.04695803 -0.030282497 -0.06939907
000340 26 be b9 3c ba d2 24 3d 33 65 54 bc 3a d6 3a bc
       0.022673678 0.040240027 -0.012963581 -0.011403615
000350 d1 fa 03 bc a2 6f a4 bd 02 a3 ad 3d 6b b9 8c 3c
       -0.008055405 -0.08029105 0.08478357 0.017178258
000360 bc 04 c7 3d d8 db 8f bd 22 e6 c9 bc bd c8 0e bd
       0.097177 -0.07024354 -0.024645869 -0.034859408
000370 3d a2 f0 3c f3 17 84 bc 32 d5 4a bd 72 7b 97 3d
       0.029374236 -0.016124701 -0.049519725 0.07396592
000380 ba 8d 87 3d cc 9a c0 3d b4 da 0e 3d 39 7b 58 3d
       0.06618829 0.09404525 0.03487654 0.05285189
000390 39 41 60 bd 7f 20 8f bc 91 77 c9 bc 39 73 86 3c
       -0.0547497 -0.01747155 -0.024593147 0.016412364
0003a0 7c 8a de 3c 28 8b c8 3c de 62 2e bd 96 7a 03 3d
       0.027165644 0.024480417 -0.042574756 0.03209933
0003b0 bb 71 7d bc a4 db 5b bd e7 0f 4b bd 4d 14 57 bd
       -0.01546901 -0.053676262 -0.049575713 -0.052509595
0003c0 14 1c 80 bd 3b 13 7b bd c3 de c3 3c db 96 9b bd
       -0.062553555 -0.061297636 0.023909932 -0.07597133
0003d0 0f 8f 9e bd 4a 10 90 3d 39 7a 8d bd 75 a5 71 3d
       -0.0774213 0.07034357 -0.06908078 0.058995683
0003e0 3d a7 81 3c da 97 8e ba c8 9a 8f 3d c4 e0 85 bd
       0.015826816 -0.0010878996 0.07011944 -0.06537011
0003f0 6a 18 46 3d 3b 1a 7c 3d b8 c2 98 3d 7e 44 cc bd
       0.048363127 0.061548453 0.07459015 -0.09974001

bias f4 [128]
000000 ce 31 82 ba e0 38 14 3d bd fd 19 3d d2 39 aa bd
       -0.0009933056 0.036187053 0.0375955 -0.083118096
000010 98 ec 06 bd 63 23 97 bd f1 bb 9f bd d4 36 4d 3d
       -0.032940477 -0.07379796 -0.07799519 0.050101116
000020 84 79 95 3d 3d 8e 86 bd f6 30 e7 bc 3a 04 4a 3d
       0.07298568 -0.065700985 -0.028221589 0.049320437
000030 d2 88 bb 3d d1 3c 9f 3d c3 8f 7e 3d cb 30 a8 bd
       0.09156956 0.07775272 0.06214882 -0.082124315
000040 b1 d7 4d bd 7f 03 93 3d 4e 42 99 bd 3d 8f f8 bc
       -0.050254527 0.07178401 -0.0748335 -0.030341739
000050 5c 0a 91 bd 3c 40 95 bd 57 4a aa 3c c9 7d da bc
       -0.07082054 -0.07287642 0.020787401 -0.026671307
000060 45 5a 9a bd 4b 01 86 bd 41 84 90 3d 33 d0 9e 3d
       -0.07536749 -0.06543215 0.070564754 0.077545546
000070 f6 0d 48 3d 3d b5 1f 3d 9c e3 54 bd 16 b2 03 bd
       0.04884144 0.0389912 -0.051974878 -0.032152258
000080 e4 e6 92 bc d6 76 b3 3c ca 43 df ba 13 f2 96 3c
       -0.017932363 0.021907251 -0.0017033753 0.018425977
000090 9b be 0f bd 11 75 e0 bc dc 9e 19 3d 4e d0 9e bd
       -0.035093885 -0.027399572 0.037505016 -0.07754575
0000a0 15 41 01 3c 60 22 a9 3d 6e fb 45 bd d6 7a a5 bc
       0.007889052 0.0825851 -0.048335485 -0.020200174
0000b0 7a fe a4 bc 11 8e 06 bd 5f 91 7c 3d c0 3b c5 3c
       -0.020140875 -0.03285033 0.061662074 0.024076343
0000c0 29 e3 b5 3d 0e de ca bc 66 0b 26 3d 68 9c e8 3c
       0.08881218 -0.024764087 0.040538214 0.028394893
0000d0 7c 59 54 bd 86 9a a9 bd a0 6e 5c 3d 3f 97 5e bd
       -0.05184315 -0.08281426 0.053816438 -0.05434346
0000e0 9a fd 12 bd f4 9c 71 bc cd 51 b5 bd 19 67 7a 3d
       -0.035886385 -0.014746893 -0.08853493 0.061133478
0000f0 12 86 98 bc 35 27 26 bd ce 9b 9f bd 14 06 c0 3c
       -0.018618617 -0.040564734 -0.07793389 0.023440398
000100 10 3b 2b bc 6b 9c 61 bc 6e 39 c5 bc f9 57 77 3c
       -0.010451093 -0.013770203 -0.024075236 0.015096658
000110 8a a4 8b bc bd 45 70 3c 3b f0 75 3d bc ec bd 3c
       -0.017046232 0.014665064 0.060043555 0.023184173
000120 36 98 75 bd d6 2a 1e bc ee 8a d3 bc dc 82 48 3c
       -0.059959613 -0.009653768 -0.025823083 0.012238231
000130 1b 25 59 3d 64 54 fa bb d1 7d 26 bd 9a 33 49 bd
       0.053013902 -0.0076394547 -0.04064733 -0.049121477
000140 d2 41 56 3d 2a 1f cd bc 74 b6 2a 3c e4 29 1f bc
       0.052308865 -0.025039274 0.010419477 -0.009714577
000150 1a 20 81 bd 7d 9e b2 3c 71 fb 9f 3d 15 58 41 bd
       -0.06304951 0.021804089 0.078116305 -0.047203142
000160 48 d1 ce 3c 59 a5 83 3c 8a 26 e4 bc 42 a9 2e bc
       0.025246277 0.016070055 -0.027850408 -0.010660471
000170 41 f3 b9 bb 33 fb 4a 3d a1 cb 29 bc 0d 0c af bd
       -0.00567475 0.04955597 -0.01036349 -0.085472204
000180 23 e6 b7 bc ee d8 0c bd 9b 43 67 bc b3 0c 43 bd
       -0.022448605 -0.034386568 -0.0141152395 -0.047619533
000190 48 40 95 3c 27 49 8a bb 3b 3f 4e bd 93 08 13 bc
       0.018219128 -0.004220146 -0.05035327 -0.008974212
0001a0 7b 75 7d bd ea 63 52 bd e4 d6 4a 3d ad 5d ef 3b
       -0.061879616 -0.051364817 0.049521342 0.007304868
0001b0 32 e7 23 3d 4c d3 d4 3c e6 81 63 3d 1b c9 a2 3d
       0.040015407 0.02597966 0.055543803 0.07948514
0001c0 4a b9 81 3d ec 5b 9e bc b5 5d 03 bd 95 80 9e 3d
       0.06334169 -0.019330941 -0.032071788 0.07739369
0001d0 20 d3 26 3d 6f 28 97 3d bb 5b 96 3d 23 b2 6e 3d
       0.04072869 0.07380759 0.07341715 0.058275353
0001e0 a2 68 6e 3c 94 6a 13 bb b8 7f 45 bd 84 ce a7 3d
       0.014551314 -0.0022493945 -0.048217505 0.081936866
0001f0 9a 13 30 bd 01 7c 4a 3d 11 17 68 bb 63 f4 42 bd
       -0.042987444 0.049434666 -0.003541414 -0.047596347

weight f4 [128, 128]
000000 00 36 95 bd 64 82 fb 3c e1 e7 a3 bc ba 36 84 3d
       -0.0728569 0.030701824 -0.02000803 0.06455751
000010 7b 85 e6 bc c2 24 96 bc 57 1d f5 3b c8 da 9c 3d
       -0.02813982 -0.018328074 0.007480304 0.07658917
000020 40 7f b0 bd 31 0b 1a bd 9f 58 bb bc 74 2e 1d 3d
       -0.08618021 -0.03760833 -0.022869406 0.03837438
000030 4c c8 af 3d 03 85 9d 3b 8b cd d3 3c a7 82 6d 3d
       0.085831255 0.004807116 0.025854846 0.057985928
000040 42 f3 9d bd 71 29 95 3d 59 85 d5 3d c7 c5 4a bd
       -0.07712413 0.07283295 0.10425825 -0.04950502
000050 8b 77 84 bc f4 42 de 3c 9e 2c 52 bd 99 26 1d bd
       -0.016170284 0.027131535 -0.05131208 -0.038366888
000060 ef 82 8f 3d 55 b1 79 3d 5d 61 9a bd cd 05 28 3d
       0.070073955 0.060960133 -0.07538102 0.041021157
000070 64 0b 27 bd 17 c1 1a bb 27 c7 d7 bd 87 68 98 bd
       -0.040782347 -0.0023613626 -0.10536032 -0.07441812
000080 40 ce 31 bc c0 44 88 bd 31 58 45 bd 4c 3e 38 3d
       -0.0108523965 -0.06653738 -0.04817981 0.044981286
000090 b3 94 84 3d a3 a3 ad bd 9a 25 67 3d 84 75 9f 3d
       0.064736746 -0.08478477 0.056432344 0.07786086
0000a0 c3 8a 33 bd 23 bf 23 3d fb 17 6a 3a 9c 55 c4 bb
       -0.043833505 0.039977204 0.0008929965 -0.0059916507
0000b0 3c 1e 32 bc 6c 72 05 3d e7 19 a8 3d 03 e4 96 bc
       -0.010871466 0.032579824 0.082080655 -0.018419271
0000c0 d1 e8 2f bd f8 04 b3 3d 07 7a 5b 3d b9 a1 87 bd
       -0.04294664 0.08741182 0.05358317 -0.06622643
0000d0 0d e2 a7 3d 87 82 23 bd 02 4e 6a 3d 24 1f 1e 3b
       0.08197413 -0.039919402 0.0572033 0.0024127448
0000e0 31 5b 10 bc 02 e1 5a bd db b1 83 b9 4a fa 83 bd
       -0.008810804 -0.05343724 -0.0002511878 -0.06444223
0000f0 a7 96 ab bc 8e f0 74 3d 9d 4c 95 3d 5b aa fc bc
       -0.02094586 0.059799723 0.072900034 -0.03084295
000100 92 58 d8 3c 4f 0f 20 bc 6f 5a 9d 3d 83 29 6b 3d
       0.026409421 -0.009769275 0.076832645 0.057412636
000110 25 05 15 bd 36 f2 00 3d d8 a4 a6 3c 99 93 2d 3d
       -0.03638186 0.03148099 0.020342276 0.04237709
000120 39 55 3a bd 83 d0 3f bc 90 ce ae bd 2f 1f cc 3c
       -0.04549143 -0.011707428 -0.085354924 0.024917213
000130 fa 01 09 bd 6d d0 1f 3d f7 81 80 3d e3 dd d5 3b
       -0.03344915 0.03901713 0.06274789 0.006526695
000140 0d 2e b2 bd 26 cc 9d bd af e9 14 3c e2 7e 8f bd
       -0.0870019 -0.07704954 0.009088918 -0.07006623
000150 73 18 6c 3d 19 27 7b bc d8 9f 75 bd 51 d6 78 3d
       0.057640504 -0.015329146 -0.059966892 0.060751263
000160 5e 42 11 3d 60 59 ad 3d cb 8d 03 bb f6 c5 00 3d
       0.035463683 0.084643126 -0.002007353 0.03143879
000170 d1 c0 4c 3d 2a bc 6b 3d 60 1e 52 bd 2d 7d 8f bd
       0.04998857 0.057552494 -0.0512985 -0.07006297
000180 46 a6 13 3b a4 73 b0 3d b1 86 4e 3d e7 be 1c bd
       0.0022529527 0.08615807 0.05042142 -0.038267996
000190 5c fe 04 bd 79 6e ab 3d 00 2e 9e 3d 19 bd 15 3d
       -0.03246914 0.0837068 0.077236176 0.03655729
0001a0 40 70 8c bd 18 51 b2 bd ed 63 3e 3d 42 86 b4 3d
       -0.068573475 -0.08706874 0.046482015 0.0881467
0001b0 1b 6b a2 3d 21 72 2a 3d b9 be 03 bd 87 4b 84 bc
       0.07930585 0.041612748 -0.03216431 -0.016149295
0001c0 4f 40 ab 3d 42 8c 96 bb b7 0b 7e bd 56 43 66 3d
       0.08361875 -0.0045943568 -0.06202289 0.05621656
0001d0 0d cd 8d bd 34 69 32 3d 94 ee 1c bd 1a b9 a5 bc
       -0.06923876 0.04355736 -0.038313463 -0.020229865
0001e0 1c 4c 92 3d 36 40 27 bd ca 50 4d bb 9f e0 a5 bd
       0.07143423 -0.04083272 -0.0031328672 -0.08099484
0001f0 41 3e 6d 3c d7 a6 1d bd c5 e1 18 3d 44 51 81 3d
       0.0144801745 -0.03848919 0.037324686 0.06314328
000200 92 55 4b bd 4e b9 98 3d 6d b5 be 3c dd 9d af 3d
       -0.049642153 0.07457219 0.02327987 0.08575032
000210 44 25 3a bb e5 79 45 bd 88 ad d3 bc 9e 3e 9c 3d
       -0.002840356 -0.04821195 -0.025839582 0.07629131
000220 06 6e 17 bd e3 34 8d bd aa b4 48 bd b9 ad d8 bd
       -0.03697016 -0.06894853 -0.04900042 -0.1058001
000230 22 f5 59 bc b0 f7 c4 3c 3b 43 99 bb fd 22 d8 ba
       -0.013303073 0.024043888 -0.004677204 -0.001648992
000240 ee 8e 31 bd 85 e9 c2 3d cd 9d 63 bd c0 ff a5 bd
       -0.0433492 0.095171966 -0.055570412 -0.08105421
000250 e1 fe ad 3d 55 92 71 bd 58 bb 99 bd dd a3 ad bd
       0.0849588 -0.058977444 -0.07506436 -0.0847852
000260 72 3f 2b 3d 55 8c 0f 3d ed 90 ad 3d 4a 43 20 3d
       0.041808553 0.03504594 0.08474908 0.03912667
000270 51 23 5b bd 40 b9 c3 3b b2 d0 fe 3c c3 bc 71 3d
       -0.053500477 0.0059730113 0.031105373 0.059017908
000280 ef bd 07 bd 5a 55 a5 3d 40 2d b2 bc 48 e6 4d bd
       -0.03314012 0.0807292 -0.021750093 -0.05026844
000290 34 ec da bc 0f 3f 7b 3d 34 f2 02 3d 18 11 b7 3d
       -0.026723959 0.061339434 0.031969264 0.08938807
0002a0 98 94 29 3d b6 df 96 3d 55 04 87 3c 3f 63 a9 bd
       0.041401476 0.07366888 0.016481558 -0.08270883
0002b0 5f 78 a5 bc 48 6a 10 bd 21 e0 98 3d dc 5d 8a 3d
       -0.020198999 -0.035257608 0.07464624 0.067561835
0002c0 d7 77 54 3d 9d 29 3d bd 77 d2 88 bc 65 a5 2b bd
       0.0518721 -0.046182264 -0.01670192 -0.04190578
0002d0 0e 3d a8 bd f7 9e ee bc e4 9b 3b 3d 13 0f 3d 3d
       -0.0821477 -0.029128535 0.045802966 0.046156954
0002e0 12 17 8f 3c 50 2c a7 3d 72 b9 d8 bc 95 97 cc 3d
       0.017467055 0.08162749 -0.026455615 0.099898495
0002f0 fb cc 49 bd 41 a6 d9 3b 6d cc 10 bd 75 6d a6 3c
       -0.04926775 0.0066421335 -0.035351206 0.020315865
000300 f6 25 42 3d b6 ca 75 3d 9e 7a 2f 3a c9 22 87 bd
       0.047399484 0.060007773 0.00066939916 -0.065984316
000310 35 79 90 3d 7c 31 16 3d 74 db 6d 3d b5 3f b5 bd
       0.070543684 0.036668286 0.058070615 -0.08850042
000320 c8 93 b5 bd 21 cb 9b 3d be 75 ac 3d 8a 46 15 bc
       -0.08866078 0.07607103 0.08420895 -0.009111056
000330 68 c9 c9 bc 94 bd a9 3c 5a cf 1b bc bc 9d 54 bd
       -0.02463217 0.02072028 -0.009509886 -0.05190824
000340 3e fd 61 bd 76 42 61 3d 21 e3 b8 3d 10 0a 88 3d
       -0.05517315 0.054995023 0.090276964 0.06642544
000350 67 d5 52 bd f9 f4 9c 3d 3d bc a4 bc 6b 01 76 3c
       -0.051473048 0.07663912 -0.02010929 0.0150149865
000360 4a e2 ad bd 1a 66 62 bc 70 02 b2 ba af f7 18 3d
       -0.08490427 -0.013818288 -0.0013581049 0.037345584
000370 48 1d d4 3c e1 f3 13 bc ff 8e 88 3c 33 54 bc 3c
       0.025892869 -0.009030313 0.016669748 0.022989368
000380 18 11 75 bd b5 13 a7 3d 1a 59 31 bd 60 8a f7 3c
       -0.059830755 0.08158056 -0.043297864 0.03021735
000390 d4 df 95 bd 5f b2 88 3b c6 4e 94 3d 8f c6 84 bd
       -0.073180825 0.004171654 0.07241587 -0.064831845
0003a0 8f 7a 2d 3d 6a 5b 86 3d 69 51 aa 3d bc 51 93 3d
       0.04235321 0.065604046 0.08316309 0.07193324
0003b0 d0 55 7d bd 64 26 c2 3d 59 f5 dc bc a0 b7 a2 3b
       -0.061849415 0.09479979 -0.02697246 0.0049657375
0003c0 20 4c 24 3b 67 08 67 bd df 1f 04 3c 3e 5d 91 3d
       0.0025069788 -0.056404497 0.008064239 0.07097863
0003d0 95 27 9e 3c cf 76 8b bd 5c 62 4f bd d2 18 1c 3d
       0.019305984 -0.0680977 -0.050630912 0.038109608
0003e0 95 21 1e bd 23 bd 2a bd 8f cc 22 3d a9 b0 1e 3d
       -0.038606245 -0.04168428 0.039745864 0.038742695
0003f0 2f eb 58 3d 5d 1f 24 3c 44 f4 12 3d bd 09 bc bc
       0.052958664 0.010017243 0.03587748 -0.022953862

bias f4 [128]
000000 36 5e b0 3d df f1 2b bb 27 f2 5f bd 0c 64 72 3d
       0.08611719 -0.0026236696 -0.054674294 0.059177443
000010 34 13 92 3d f8 d8 40 3d 80 25 30 bc 84 10 5d bd
       0.07132569 0.047081918 -0.010751128 -0.05397083
000020 3f 26 05 3d 7b 69 b2 3c 57 f5 9e bd a6 a6 50 3d
       0.032507177 0.021778813 -0.077616386 0.05094018
000030 57 97 3f 3d 02 63 58 3d e8 14 86 bd 23 55 11 3d
       0.04677519 0.052828796 -0.06546956 0.035481583
000040 59 e0 10 bd ef 57 2b 3c 6a 34 3b bc e5 d7 10 bd
       -0.035370205 0.010457977 -0.011426071 -0.035362143
000050 35 9a 47 bd e7 45 7d 3d db b7 40 bc 35 66 54 3d
       -0.048731048 0.061834242 -0.011762585 0.051855285
000060 f1 30 30 3d 3c 25 92 3d 56 be 52 bd bc 37 1a 3d
       0.043015424 0.07136008 -0.05145105 0.03765081
000070 0d 20 31 3d d8 91 d6 bc 04 a8 34 bd ce c0 38 3d
       0.043243457 -0.02619259 -0.044105545 0.045105748
000080 ba 97 10 3d a7 d9 55 bc 5a 08 6b 3d 4e f3 93 bb
       0.035300948 -0.013052381 0.05738101 -0.004515088
000090 bb c9 62 3d 8e 99 1c 3b fe ab 36 3d 25 48 fb 3c
       0.055368166 0.0023895237 0.04459762 0.03067405
0000a0 cb 75 8c bd 52 a9 9e 3d 7e 94 8f 3d 3c c7 07 3d
       -0.06858405 0.07747139 0.070107445 0.03314899
0000b0 90 4f 16 3d f7 8b 5e 3d 2d 39 ff bc d0 20 93 3d
       0.03669697 0.0543327 -0.031155193 0.07183993
0000c0 cc 2f 9a bd 8d 6b b1 bd ed 4b ac bc 5b 77 94 bd
       -0.07528648 -0.08663092 -0.021032298 -0.07249328
0000d0 dc 37 10 3d 11 d6 87 3c e7 00 bd 3c e6 dd 8a 3d
       0.03520952 0.016581567 0.02307172 0.06780605
0000e0 95 32 01 bd 10 c8 b4 3d 89 d2 32 3d 33 2f 77 bd
       -0.03154238 0.088272214 0.043657813 -0.060347747
0000f0 9e 73 31 bd 05 3c 31 bd d2 65 18 3d 1b b4 5b 3d
       -0.04332315 -0.04327013 0.03720648 0.05363856
000100 9f f6 7d bd 69 d1 31 bd e8 36 ad bd 72 59 98 bd
       -0.062002774 -0.0434126 -0.08457738 -0.07438935
000110 e2 88 fa bc 46 41 83 3c f9 c3 8e bd b0 32 33 3d
       -0.030582849 0.016022336 -0.069709726 0.04374951
000120 31 f5 6a 3d 30 4d d9 3b e3 1b c1 3d b0 75 86 3d
       0.05736274 0.006631516 0.09429147 0.06565416
000130 3f 99 90 3b 75 89 67 3c 37 02 a6 3b c9 29 a5 bd
       0.0044127996 0.014131893 0.005066182 -0.080646105
000140 d0 ab 6d bd 4a 67 8f bd 2b 12 9e bd a6 b4 09 bc
       -0.05802518 -0.07002123 -0.07718309 -0.008404886
000150 b1 e8 3b bb 4f ab 24 bd 3b 57 53 3d e3 e2 18 3d
       -0.002867263 -0.040202435 0.05159686 0.03732575
000160 94 ee 75 bc 27 81 92 bd ee c7 85 bd ca c3 8d bd
       -0.015010495 -0.0715354 -0.06532274 -0.069221094
000170 b5 e8 a2 bc 90 e3 d2 3c d6 7d 8b 3d 74 3c 5d 3d
       -0.019886354 0.025743276 0.06811111 0.05401273
000180 4a b0 b9 3c 39 53 5f 3d 85 1d 7b bd 60 b4 c4 3c
       0.022667069 0.054522727 -0.06130745 0.02401179
000190 63 e3 b0 bc 77 7d 00 bc 4e ff 91 3d 75 80 f5 3c
       -0.021592801 -0.007842413 0.07128774 0.02996848
0001a0 99 2f 1e bd 1c 2c 8d bc 67 09 d0 bc 7d 6a 6b bd
       -0.03861961 -0.017232947 -0.025395108 -0.057474602
0001b0 4e 0e 92 bd d6 59 7a bd ef c0 93 3d 10 6b 36 3d
       -0.07131635 -0.06112083 0.072145335 0.044535697
0001c0 d8 e6 b1 bc de ae 10 bd 76 4b a9 bd c0 cb 59 bd
       -0.02171652 -0.035323016 -0.08266346 -0.053172827
0001d0 b8 02 ce 3c a7 b8 15 bd a9 27 f3 3c 75 83 b6 bc
       0.02514778 -0.03655305 0.029681997 -0.02227948
0001e0 93 5b 98 bd 5a e4 ec 3c 0a 76 03 3d 0b f5 01 3d
       -0.074393414 0.02891748 0.032094993 0.03172783
0001f0 ef c6 87 bd 42 d8 e2 bc f5 57 ba 3d a8 42 57 3c
       -0.066297404 -0.02769101 0.09098808 0.013138451

weight f4 [128, 128]
000000 9c 97 42 bb 1a 32 c8 3c 2d 34 b4 3d 5d 3b b3 3d
       -0.0029692417 0.024437953 0.08799014 0.08751557
000010 86 e6 7b 3c c1 1f b9 3d 8c 27 b7 bc 7b 9a f6 3c
       0.015374785 0.0903926 -0.022357725 0.030102959
000020 c9 08 6f 3d f0 67 93 bd 3b 1f 9f bd 67 37 3d bd
       0.058357988 -0.07197559 -0.077696286 -0.046195414
000030 3b 89 8d bd 9d 99 f6 3c c0 f6 18 3c d2 e5 5f bc
       -0.0691094 0.030102545 0.009336174 -0.013665633
000040 d3 ad 0d bd e2 20 ad bd 89 37 2a bd 86 5b c6 3d
       -0.0345896 -0.084535375 -0.04155687 0.096854255
000050 c3 6f ce bc 02 06 00 bb 2b c9 27 bd 6a 67 31 bd
       -0.025199777 -0.001953483 -0.040963333 -0.043311514
000060 f2 f7 9c 3d 62 a8 19 bb 5f ff 26 3c 75 2e 82 3d
       0.07664479 -0.0023446311 0.010192721 0.06356517
000070 95 82 ef bb c6 21 4a 3d 01 17 3d bd d5 20 6c 3d
       -0.0073092678 0.049348615 -0.046164516 0.0576485
000080 9f 94 95 bb 0a 4c 52 3d 0b f7 92 bd 6b 59 b4 3c
       -0.004564836 0.051342048 -0.07176026 0.022015294
000090 28 32 bf 3c 4b d8 87 bd f5 83 91 3d 76 0f 36 bd
       0.023339346 -0.066330515 0.07105247 -0.04444834
0000a0 01 da 13 bd f3 2b 5f 3d ce 6f 17 bd f3 41 62 3d
       -0.036096577 0.054485273 -0.03697186 0.055238675
0000b0 3d 90 97 3d 20 d9 01 bc c7 fe cd 3c 81 c1 5e bd
       0.07400558 -0.007925302 0.025145901 -0.05438376
0000c0 5e f0 3d bd 58 f8 89 bc a9 05 96 3d 14 fb 90 3d
       -0.04637181 -0.016842052 0.07325298 0.07079139
0000d0 32 68 b2 3d 9a d1 2f bd 87 77 8f bd 03 9f 95 3d
       0.0871128 -0.0429245 -0.0700522 0.0730572
0000e0 55 59 70 3d 51 f9 b9 3d f7 07 aa 3d 73 71 22 bd
       0.058678944 0.090807565 0.083023004 -0.039658975
0000f0 ff 4d 9a 3d 0f db a8 3d d3 51 6f bc b4 33 35 bd
       0.07534408 0.08244907 -0.014606911 -0.04423876
000100 b6 e2 4e bd 6b 10 e0 bc 46 93 75 3d 23 82 51 3c
       -0.050509177 -0.027351579 0.059954904 0.012787375
000110 e5 63 08 bc fc c9 a8 bc b5 98 cd 3d 46 ef ce 3c
       -0.008324598 -0.020604126 0.10038892 0.025260579
000120 67 ea 47 bd 91 70 2c 3d 33 40 5a bd 25 56 8f 3d
       -0.048807528 0.04209954 -0.05328388 0.06998853
000130 ba e5 96 bd 4f e8 44 3d 7e b0 55 3d 8c ad 77 3d
       -0.073680356 0.04807311 0.05217027 0.06046824
000140 b1 b3 a6 3b d3 51 39 3d ca e6 67 bc 7f 72 cb 3d
       0.005087339 0.04524405 -0.0141541455 0.09933948
000150 13 8d b0 bc 40 48 9c bd 62 be c1 bc 7f e7 1e 3d
       -0.021551644 -0.07630968 -0.023650352 0.03879499
000160 b2 e4 17 3c e8 2d 74 bd 1b 7c 97 bc 5f c8 c9 3c
       0.009270834 -0.059614092 -0.018491795 0.024631677
000170 c8 5d 26 3c cb 21 be 3d e8 3a 94 bc ff 78 d8 3c
       0.010154195 0.09283789 -0.018094495 0.026424883
000180 dd 37 25 bd b5 d6 95 bd 76 ab b9 bb c2 f3 6c bb
       -0.04033648 -0.07316343 -0.0056661917 -0.0036156033
000190 80 db 9b 3d 9a 65 92 bd d1 70 71 bd 97 73 63 bd
       0.07610226 -0.07148285 -0.05894548 -0.055530157
0001a0 23 f3 a1 3a 57 da 7e 3d 95 6d 78 3d 6c 12 ff bb
       0.0012355786 0.062219944 0.06065138 -0.0077841785
0001b0 5d 3c 2f 3d 27 c3 81 3d 70 9a c0 bc 25 28 37 bd
       0.042782176 0.063360505 -0.023511142 -0.04471602
0001c0 4f 60 d7 3c 56 b9 47 bd 28 f6 95 3d 09 15 f9 3c
       0.02629104 -0.048760734 0.07322341 0.030405538
0001d0 15 85 09 3c 56 7f 37 bc 59 2a b7 3c a4 d6 0a 3d
       0.008393546 -0.011199793 0.02235906 0.033896104
0001e0 3c 91 a3 bd b8 94 85 bd 80 de 23 3c 30 39 1f bd
       -0.07986686 -0.065225065 0.010001779 -0.038872898
0001f0 f1 20 72 bd 70 c9 72 3c a4 5d 61 3d d7 f9 9b bd
       -0.059113447 0.014818534 0.055020943 -0.076160125
000200 2f 39 14 bb 19 3d 6c 3d 5e fe 67 3d 00 54 e5 3c
       -0.0022617092 0.057675455 0.056639068 0.027994156
000210 e9 2c f7 bb 70 e9 6a bd fc 51 9c 3d a3 56 59 bd
       -0.0075431955 -0.05735153 0.07632825 -0.05306114
000220 92 89 2d 3b 3a 76 59 bd a9 e4 46 3b 55 eb 93 bd
       0.0026479703 -0.053091265 0.0030348694 -0.072226204
000230 72 27 30 bc 14 5d 0c bd 64 19 65 3d 38 04 a2 b9
       -0.010751592 -0.034268454 0.055932418 -0.0003090219
000240 a1 f2 ba 3c 21 fe f8 bc ba 42 a4 bd b8 e5 94 bd
       0.022820773 -0.030394616 -0.080205396 -0.07270378
000250 6a 3f cf 3c ec 4d d7 3d 12 48 5b bd d1 95 28 bd
       0.025298793 0.10512909 -0.05353553 -0.0411585
000260 c4 8c 29 3d b5 dc a2 3d d1 28 92 bd 06 57 2e bd
       0.04139401 0.07952253 -0.07136691 -0.04256346
000270 69 49 aa bd 9c d5 2e 3d ae 8c ab bc 6a 60 db bc
       -0.08314783 0.042684183 -0.020941105 -0.026779372
000280 aa 40 7a 3d c8 98 d1 bc 97 03 59 bd eb 54 a8 bd
       0.061096825 -0.025585547 -0.05298194 -0.08219322
000290 ae 2d a3 3d cf 3e 80 3c 13 b6 5c 3d e2 1e 92 bc
       0.07967697 0.01565495 0.053884577 -0.017836992
0002a0 fd fa ed bc c1 6b 9b 3c 86 f5 7e 3d 2c 09 b5 bb
       -0.029050345 0.01897228 0.06224587 -0.005524775
0002b0 f0 30 8d bd 36 95 dd bc 6a 5a e1 bc 49 f9 60 3d
       -0.068941 -0.027048688 -0.027508933 0.054925237
0002c0 97 a7 6d bd 4d 7a b9 bc 7c d7 d7 bc d5 5d aa 3d
       -0.058021154 -0.022641325 -0.026347868 0.08318678
0002d0 f4 a1 c0 3c 15 19 82 3d e6 d1 73 bd 1b d5 9d 3c
       0.023514725 0.0635244 -0.059526347 0.019266656
0002e0 78 59 65 bc d0 29 58 bd e0 c3 e9 3c 32 14 85 bd
       -0.013998382 -0.05277425 0.028535783 -0.064979926
0002f0 f0 f8 66 3c 49 2f 61 bd 7c 32 80 bb b2 b0 87 bd
       0.014097437 -0.054976735 -0.003912268 -0.06625499
000300 2b 69 50 bd b1 d8 9a 3d d4 02 a9 b9 7a d7 4f 3b
       -0.050881546 0.07560862 -0.000322363 0.0031714127
000310 e6 e5 a0 bd 6b 7c 5d bd 36 f5 d7 3b 0f 0a 91 3d
       -0.0785635 -0.054073732 0.0065905107 0.07081997
000320 3c c4 61 bd 45 7f a5 3d c0 ed 56 3c 1d 7b 78 3d
       -0.055118784 0.08080915 0.013118207 0.060664285
000330 cc bf 76 3c 10 78 43 bd 1e b6 e3 3c 47 83 9f 3d
       0.015060376 -0.047721922 0.027796801 0.07788711
000340 96 27 cf bb b2 60 07 bd 85 2c 61 bd a4 67 b1 bd
       -0.0063218577 -0.0330512 -0.054974098 -0.08662346
000350 23 8c ee bb d0 03 b4 bc 69 4d 4d 3d 8f 8d 32 bd
       -0.007279889 -0.021974474 0.050122652 -0.043592032
000360 5d f9 9e bd 6d 37 a8 bd 2b a4 a8 ba 99 25 8e bc
       -0.07762406 -0.08213697 -0.0012866309 -0.017351912
000370 96 d0 c7 3c df 7a a0 bd 25 37 78 bd d8 68 9b 3c
       0.024391454 -0.07835936 -0.060599465 0.018970892
000380 ec ab 78 3a da 43 8c 3d f0 a0 c0 3b 65 11 64 bd
       0.00094860676 0.06848879 0.0058785602 -0.05568065
000390 70 ab 94 3d 7e a3 83 bd 39 22 83 3d 3c 54 c3 3d
       0.072592616 -0.06427668 0.06403012 0.09537551
0003a0 66 cc 66 3d 1c c4 21 3d 24 11 1b 3a 0a b3 93 bd
       0.056347273 0.039493665 0.0005915335 -0.07211883
0003b0 d2 7f 15 bd 79 19 82 bd 6d e8 a7 3c 7a d3 44 3d
       -0.036498852 -0.06352515 0.020496571 0.048053242
0003c0 2b 7d af 3c 74 22 0a 3d 3d 52 1b bd 65 c6 70 3d
       0.02142199 0.033724263 -0.037920225 0.058782954
0003d0 fd 0f a5 3b a2 2b 2b 3c 1c f8 a2 bc 45 5f 94 bd
       0.0050373063 0.010447415 -0.019893698 -0.07244734
0003e0 ee ed 70 bd 78 29 89 3d 9b 91 aa bc ed 8d 96 3c
       -0.058820657 0.06697363 -0.020821383 0.018378222
0003f0 d8 a8 87 bd 3e 41 fa bb bc 9d cc bb b1 66 2e bd
       -0.06624001 -0.007637172 -0.0062443893 -0.042578403
