models/multimodal/models/NeuralNetTorch_BAG_L1/S1F5/net.params (torch, 249461 bytes, 16 tensors)

weight f4 [6, 4]
0	0xbf9330ae	-1.1499231
1	0xbf9c2713	-1.2199425
2	0xbe8d9def	-0.27659556
3	0xbed0db86	-0.40792483
4	0x3f5a1a97	0.8519682
5	0x3f2419d8	0.64101934
6	0xbeaf328b	-0.3421825
7	0xc00c4cc6	-2.1921859
8	0x3ef18890	0.471745
9	0xbe5d89a0	-0.21634531
10	0x3fb756c0	1.4323349
11	0x3ea0385a	0.31292993
12	0x3e0ff6d6	0.14059004
13	0x3f6cb540	0.92464066
14	0xbe17cccf	-0.14824222
15	0xbdc4b9a7	-0.09605723
16	0x3f7968d7	0.974256
17	0x3f989376	1.1920002
18	0x4003159a	2.0481935
19	0x3cf1bc71	0.029508801
20	0x3eb5e228	0.35524106
21	0xbe2f227c	-0.17102998
22	0xbf113cc3	-0.5673334
23	0xc001872f	-2.023876

weight f4 [6, 4]
0	0xbe1180a0	-0.14209223
1	0xbf2dde91	-0.67917734
2	0x3f11b879	0.5692211
3	0x3e95ee9e	0.29283613
4	0xbe0a3595	-0.13497002
5	0xbf38b906	-0.72157323
6	0x3f832af4	1.0247483
7	0x3f0d5e01	0.55221564
8	0xbf17d4fa	-0.5930935
9	0x3f73e25a	0.9526726
10	0x3f879d57	1.0594891
11	0x3fa1940b	1.2623304
12	0xbfbbf98c	-1.4685531
13	0x402428d8	2.564993
14	0xbef00beb	-0.46884093
15	0x3e9b83d7	0.30374023
16	0xbfd626e9	-1.6730624
17	0xbf07aa96	-0.5299467
18	0xbf0d2cbd	-0.5514639
19	0xbf08e4ac	-0.53473926
20	0xbf497826	-0.78698957
21	0x3f557e47	0.8339581
22	0xbb999e05	-0.004688027
23	0x3f088876	0.5333322

weight f4 [6, 4]
0	0xbd381b47	-0.04494789
1	0x3f2ef017	0.683351
2	0xbf654f32	-0.8957397
3	0x3d0f2ee2	0.03495682
4	0x3f5df259	0.8669792
5	0xbee7bd9c	-0.45261848
6	0x3f89f209	1.0776988
7	0x3ea8afbb	0.32946572
8	0x3dd8ab85	0.1057959
9	0x3f9b8386	1.2149513
10	0x3e96a4d7	0.29422638
11	0x3edd5c43	0.43234453
12	0xbf4f146a	-0.80890524
13	0xbfa3778d	-1.2770859
14	0xbf421efc	-0.7582853
15	0xbfa714f0	-1.3053265
16	0x3e4a2e64	0.19744259
17	0xbecb9300	-0.3976059
18	0xbef44b2b	-0.477136
19	0x3e8ecd62	0.2789107
20	0x3f065a28	0.5248132
21	0xbc8ad6a6	-0.016948055
22	0xbe0b028d	-0.13575192
23	0xbf6d754c	-0.92757106

weight f4 [6, 4]
0	0xbf280e28	-0.656466
1	0x3f847a83	1.0349888
2	0xbf1a56fd	-0.60288984
3	0xbfa608ae	-1.2971399
4	0x3d7f647b	0.062351685
5	0xbf3b5d02	-0.73188794
6	0x3f29c7e9	0.66320664
7	0xbf4b2011	-0.79345804
8	0xbeb1e16a	-0.3474229
9	0x3e0868a9	0.13321175
10	0x3e93d14a	0.28870612
11	0x3f99c841	1.2014238
12	0x3ea34583	0.3188897
13	0x3ed8e856	0.42364758
14	0xbe7592b5	-0.23981746
15	0xbdc43ed7	-0.09582298
16	0x3e468e19	0.19390143
17	0xbf5739dd	-0.8407267
18	0xbff9a4ad	-1.950338
19	0x3dd4fed2	0.104001656
20	0xbedf7022	-0.43640238
21	0x3dbe2962	0.09285237
22	0x3c081a4a	0.008307049
23	0x3e17b431	0.14814831

weight f4 [6, 4]
0	0x3f69b9be	0.91299045
1	0xbf6ef2b0	-0.9333906
2	0x3e723e37	0.23656546
3	0xbe22c4eb	-0.1589543
4	0x3f7ffa5c	0.99991393
5	0xbede9810	-0.4347539
6	0x3f3ff3e7	0.7498154
7	0x3f171c6f	0.5902776
8	0x3f7bfa0c	0.98428416
9	0xbfc2acec	-1.5209022
10	0x3f152ccd	0.58271486
11	0x3e29b3e1	0.16572525
12	0x3dd67abd	0.10472629
13	0xbf4a7494	-0.79084134
14	0x3f1dd4a5	0.61652595
15	0xbff49ca3	-1.9110302
16	0x3fa1544d	1.2603852
17	0xbe76922e	-0.240792
18	0x3f4d405a	0.8017632
19	0x3f7b0b03	0.9806368
20	0x3e30ca2f	0.17264627
21	0xbf9c73a2	-1.2222788
22	0x3fdf6519	1.7452728
23	0x3b53c8d1	0.003231574

weight f4 [26, 9]
0	0xbf03f63a	-0.51547587
1	0xbfd497ac	-1.6608787
2	0xbf09886f	-0.53723806
3	0xbf067c7a	-0.52533686
4	0xbf186cb3	-0.5954086
5	0xbfc0216c	-1.50102
6	0xbf592972	-0.84828866
7	0xc008ee5e	-2.1395488
8	0xbf86efa9	-1.0541888
9	0xbf2a326e	-0.664832
10	0xbba8bb63	-0.0051492914
11	0x3e90ff86	0.2831995
12	0xbe601290	-0.21882081
13	0x3fa89bad	1.3172508
14	0x3c338e30	0.010959193
15	0xbf6ecf93	-0.93285483
16	0x3eef67c4	0.46758854
17	0xbd9f2659	-0.07770986
18	0x3fae6fd8	1.3627882
19	0xbe9b11a2	-0.3028689
20	0xbf046e22	-0.5173055
21	0xc0395f67	-2.896448
22	0xbfc22f38	-1.517066
23	0x3f803b25	1.001805
24	0x3e462040	0.1934824
25	0xbf3517ba	-0.7073933
26	0x3fda758a	1.706712
27	0x3ed797e1	0.42108062
28	0x3f816f73	1.0112137
29	0x3fba1322	1.4537089
30	0xbde9c547	-0.11414581
31	0xbf14a057	-0.5805716
32	0xbf2a3658	-0.6648917
33	0x3fe16d11	1.761141
34	0xbf7da8e8	-0.99085855
35	0xbf341873	-0.70349807
36	0x3d6a7c8e	0.05724769
37	0x3f0ffd0d	0.562455
38	0x3f0125a3	0.50448054
39	0x3f99b11c	1.2007174
40	0xbf8d2e5e	-1.1029775
41	0xbfdc365e	-1.7204092
42	0x3fc417a9	1.531972
43	0xbd3a6088	-0.045502216
44	0xbfcacbbf	-1.5843428
45	0x3d9355cc	0.07194099
46	0xbf0f7464	-0.56036973
47	0x3f2809c0	0.6563988
48	0x3f9209fc	1.1409297
49	0xbdb21629	-0.08695633
50	0xbc704855	-0.014665683
51	0x3f362f7f	0.71166223
52	0x3ee570c3	0.44812593
53	0x3df729b8	0.12068504
54	0x3d3d4fe8	0.046218783
55	0x3f1792c9	0.5920835
56	0x3d839dca	0.0642658
57	0xbf760c4b	-0.9611251
58	0x3f2b3fa2	0.6689397
59	0x3f8cabe7	1.098996
60	0x400898ea	2.1343331
61	0xbf720992	-0.94545853
62	0xbf213e2b	-0.62985486
63	0xbf1509f0	-0.5821829
64	0x3fc6767d	1.550491
65	0xbf473045	-0.7780803
66	0x3e12380b	0.14279191
67	0x3fb25882	1.393326
68	0x40006ff3	2.0068328
69	0x3f250c51	0.6447192
70	0xbf4a8fbf	-0.7912559
71	0xbf02288c	-0.5084312
72	0x3e932436	0.28738564
73	0xbf2039fe	-0.6258849
74	0x3f76b6ef	0.96372885
75	0x3efe52b3	0.4967247
76	0xbf5b437e	-0.8564986
77	0x3fa6a05a	1.3017685
78	0x3e936951	0.28791288
79	0xbf13407d	-0.57520276
80	0xbf64931f	-0.8928699
81	0xbf1abe2e	-0.6044644
82	0x3e54b580	0.20772362
83	0xbf8a5f30	-1.0810299
84	0xbf44fb67	-0.7694611
85	0xc00b3ca5	-2.1755764
86	0xbf37fe97	-0.7187285
87	0x3f0e9508	0.55696154
88	0x3f3aed30	0.7301817
89	0x3d11d612	0.035604544
90	0x3ed8bb01	0.42330173
91	0xbfe87ea2	-1.8163645
92	0xbf94e0f6	-1.1631153
93	0x3dc81e13	0.09771361
94	0x3f23ff6e	0.6406163
95	0x3fad9d9c	1.3563724
96	0xbfc5ff59	-1.5468551
97	0x3e9a8ef8	0.30187201
98	0xbfb3537d	-1.4009854
99	0xbe52ee50	-0.20598722
100	0xbe9690f8	-0.29407477
101	0xbf9bac95	-1.2162043
102	0x3f2865f7	0.65780586
103	0xbf9fd5bb	-1.24871
104	0xbf8b607e	-1.0888822
105	0x3eb3e527	0.35135767
106	0xbf392c29	-0.7233301
107	0xbf5e380a	-0.8680426
108	0xbf3a0a11	-0.7267161
109	0x3f14c19a	0.5810791
110	0x3eac98eb	0.33710417
111	0x3f191d15	0.5981
112	0xbfb02a77	-1.3762959
113	0xbf579b16	-0.8422102
114	0x3f98835b	1.1915087
115	0xbff1b90e	-1.8884599
116	0x3eb9fb26	0.36324424
117	0x3f94169d	1.1569401
118	0x3f09949f	0.537424
119	0xbf9a6724	-1.2062726
120	0xbef2a95d	-0.4739484
121	0xbe8c70bb	-0.27429757
122	0x3f72ad92	0.947961
123	0xbec6d492	-0.38834053
124	0xbf3562cf	-0.70853895
125	0xbed67d3d	-0.41892424
126	0xbfc01f31	-1.5009519
127	0xbf0b47e5	-0.5440658
128	0x3f99a1da	1.2002518
129	0x3f52a573	0.82283705
130	0x3eb80e14	0.3594824
131	0x3e9bdb8d	0.3044094
132	0xc0325a42	-2.786759
133	0xbf4512ae	-0.7698163
134	0x3f0ae277	0.5425181
135	0x3e9629ce	0.2932877
136	0xbf8eac73	-1.1146377
137	0xbd12cb31	-0.03583831
138	0xbe27ba73	-0.16379718
139	0xbe701173	-0.23444156
140	0x401ba6bf	2.4320524
141	0x3fd6d383	1.6783298
142	0xbe9da204	-0.3078767
143	0xbfc52e65	-1.5404783
144	0xbf0278ad	-0.50965387
145	0xbf58ecef	-0.8473653
146	0xbfae0cbc	-1.3597636
147	0xbeb5bbb2	-0.35494763
148	0xbeb9761e	-0.3622293
149	0xbbe13119	-0.006872308
150	0x3f07bba3	0.53020686
151	0xbfcbe265	-1.5928465
152	0x3ecf71c1	0.40516475
153	0xc014079a	-2.312964
154	0xbf57ad93	-0.8424923
155	0xbfd528a5	-1.6653029
156	0x3f090e5e	0.5353755
157	0xbfb67167	-1.4253358
158	0x3f2a9534	0.66633916
159	0xbfaa84b7	-1.3321751
160	0x3e97e7ba	0.2966898
161	0xbda98e90	-0.08279145
162	0x3e4c1393	0.19929342
163	0x3f9b2d68	1.2123232
164	0x3f9e825f	1.2383536
165	0xbdf1eba1	-0.11812521
166	0x4007ad6b	2.1199596
167	0x3da30949	0.079607554
168	0x3f04690d	0.51722795
169	0x3d92c395	0.071662106
170	0x3ed24490	0.41067934
171	0xbfdb6249	-1.7139369
172	0x3f9d1bcf	1.2274112
173	0x4028666f	2.631252
174	0x3e58238d	0.21107312
175	0x3ea0ee1f	0.31431672
176	0xbf947853	-1.159922
177	0x400ec904	2.231019
178	0x3e0cf548	0.13765442
179	0x3f45c9bf	0.77260965
180	0xbf91ead3	-1.1399788
181	0xbd8623af	-0.06549775
182	0xbfc0a07d	-1.5048977
183	0xbfdf4dd9	-1.7445632
184	0xbff0d41b	-1.881473
185	0x3bbab42e	0.0056977486
186	0xbff72016	-1.9306667
187	0xbff7b25d	-1.9351307
188	0x4008fd34	2.1404543
189	0xbf84bcac	-1.0370078
190	0xbf21d19d	-0.6321047
191	0x3fd543c4	1.6661305
192	0x3eb5816a	0.35450298
193	0xbf42457b	-0.7588727
194	0xbc91f677	-0.017817719
195	0x3fe621d2	1.7979071
196	0xbf145e6f	-0.57956594
197	0x3f552682	0.83261883
198	0x3f323981	0.69618994
199	0x3fb7d4db	1.4361833
200	0xbf0a716c	-0.5407932
201	0xbd80f957	-0.06297558
202	0x3ed28a11	0.4112096
203	0xbedff6bc	-0.4374293
204	0xbffda023	-1.9814495
205	0x3f5c6807	0.86096233
206	0xbbd42753	-0.0064744144
207	0xbfba47f6	-1.4553211
208	0xbefc37ae	-0.4926123
209	0xbfc2c89c	-1.5217471
210	0xbf38fd1d	-0.7226122
211	0x3f8dc70f	1.1076373
212	0xc00ef55c	-2.2337255
213	0x3ede55c6	0.43424815
214	0xbf246e86	-0.64231145
215	0xbdfb5ab9	-0.12273163
216	0x3f3156e0	0.69273186
217	0x3f74000d	0.9531258
218	0xbee35342	-0.44399458
219	0x3f014f24	0.50511384
220	0x3fa9934e	1.3248079
221	0x3ee1f1ef	0.44129893
222	0xbf0ff5d5	-0.56234485
223	0xbe141448	-0.14460862
224	0xbe6ab359	-0.22919978
225	0x3c176154	0.009239513
226	0x3e0235a9	0.12715782
227	0xbef78ac2	-0.4834805
228	0x3d198c44	0.037487283
229	0xbd54b9dc	-0.05193506
230	0x3fa574be	1.2926252
231	0xbd3c0640	-0.045904398
232	0xaeb43292	-8.1944354e-11
233	0x352701cd	6.221497e-07

weight f4 [128, 77]
0	0x3cc9dfd3	0.02464286
1	0x3d982e35	0.07430688
2	0x3e175c30	0.1478126
3	0x3db341c1	0.08752776
4	0xbd29a298	-0.041414827
5	0x3da33738	0.079695165
6	0xbc86d00a	-0.016456623
7	0x3d5b1877	0.05349013
8	0xbd60e2cf	-0.0549038
9	0xbd86d559	-0.065836616
10	0xbde1de2d	-0.11028705
11	0xbcc96ed4	-0.02458898
12	0xba68e73c	-0.0008884554
13	0xbdc3f148	-0.09567505
14	0xbace791e	-0.0015752648
15	0x3d056849	0.032570157
16	0x3c9dcd65	0.019262979
17	0xbd7fc1c5	-0.062440652
18	0xbdad8cba	-0.08474107
19	0xbd029272	-0.031877942
20	0x3d19c94e	0.037545495
21	0x3dcebd60	0.10094714
22	0x3d96ecb5	0.07369367
23	0xbd265b88	-0.040614635
24	0x3cb1ca44	0.021702893
25	0xbdedbec1	-0.11608649
26	0xbdbdcc98	-0.09267539
27	0x3d311a27	0.04323783
28	0xbd372f6a	-0.044722952
29	0x3d582b08	0.052775413
30	0xbcfd2f14	-0.030906238
31	0xbdbf72d7	-0.09348076
32	0xbd7b1197	-0.06129607
33	0x3da10d95	0.07863919
34	0x3b949ea7	0.0045355144
35	0x3dc0e553	0.0941874
36	0x3dba2dcf	0.090907685
37	0x3de0ee8e	0.10983001
38	0xbbc9e832	-0.006161713
39	0xbd141b29	-0.036158714
40	0xbce96de5	-0.028494785
41	0x3cb8a617	0.022540135
42	0x3db702d0	0.08936083
43	0xbdd7b14e	-0.10531865
44	0x3e11bf50	0.14233136
45	0xbcbda09d	-0.023147875
46	0xbd78e1e1	-0.06076229
47	0xbcdb02bf	-0.026734708
48	0x3de061cf	0.109561555
49	0x3dbb80f6	0.09155457
50	0xbdcd8da8	-0.100367844
51	0x3d8e4160	0.06946063
52	0x3d86c7b7	0.06581061
53	0x3d593c5a	0.05303607
54	0x3dfc72c7	0.123265795
55	0xbd3eee27	-0.04661384
56	0x3cb99b26	0.022656988
57	0x3d548424	0.05188383
58	0xbd549a17	-0.051904764
59	0x3d0e491b	0.034737688
60	0xbcaa1abb	-0.0207647
61	0x3dec4475	0.11536495
62	0xbda09af3	-0.07842054
63	0xba9a8bfe	-0.0011790989
64	0x3d53376b	0.051566523
65	0x3d48dc27	0.04903808
66	0xbd640d53	-0.05567677
67	0x3d19bf63	0.037536036
68	0x3da2e5d8	0.079539955
69	0xbc045b94	-0.008078475
70	0x3d1d53f7	0.038410153
71	0xbd7a73cf	-0.0611456
72	0x3d4da78b	0.05020861
73	0xbdd05be0	-0.10173774
74	0xbd3f9ae7	-0.046778586
75	0xbd8b5eb3	-0.06805172
76	0x3e00b35c	0.1256842
77	0xbd2c91f5	-0.042131383
78	0x3cda491a	0.026646186
79	0xbd72cdc9	-0.059278283
80	0x3de97123	0.11398532
81	0x3e037ce7	0.12840615
82	0xbdc22e41	-0.094814785
83	0xbde1b8d3	-0.110215805
84	0xbdeae1af	-0.11468827
85	0x3ba5f70c	0.0050648507
86	0xbd34c3b9	-0.04413197
87	0xbd818658	-0.06324452
88	0xbc9f43ba	-0.019441474
89	0x3c8bbb03	0.017056948
90	0xbd86448a	-0.065560415
91	0x3bc4a59a	0.0060011866
92	0xbcd0bdce	-0.02548113
93	0xbd4fddff	-0.05074882
94	0x3ca28a50	0.019841343
95	0x3dde6876	0.10859768
96	0xbd80117f	-0.06253337
97	0x3c923e97	0.01785211
98	0xbcf4975c	-0.02985733
99	0x3dd9d84e	0.1063696
100	0xbe02b87c	-0.12765688
101	0xbdcdec0b	-0.10054787
102	0x3ddc3ec2	0.107541576
103	0xbdc126e0	-0.09431243
104	0xb79d063b	-1.871876e-05
105	0xbd9174e8	-0.07102376
106	0xbd4b9633	-0.049703788
107	0xbd9e9a7c	-0.07744309
108	0x3dc762d0	0.09735644
109	0x3c5f0d1c	0.013613965
110	0xbda9747a	-0.08274169
111	0xbd07e4da	-0.033177234
112	0xbe232fe7	-0.15936242
113	0x3d2aa52d	0.04166143
114	0xbd0da892	-0.03458459
115	0x3e0b42d6	0.13599715
116	0xbd26df89	-0.040740523
117	0xbd895638	-0.06705898
118	0x3daa6283	0.08319571
119	0x3d1c3a99	0.03814182
120	0x3d540f22	0.051772244
121	0x3dd6f9ed	0.10496888
122	0xbb0fe9be	-0.002195939
123	0xbdf85780	-0.12126064
124	0x3b27ea1e	0.0025621722
125	0x3dd859f4	0.10564032
126	0xbd9577b0	-0.07298219
127	0xbdc12bf5	-0.09432212
128	0x3c856326	0.01628263
129	0x3e0bf113	0.13666181
130	0xbd415189	-0.0471969
131	0xbd5768a3	-0.052590024
132	0xbda080e4	-0.07837084
133	0x3d05762d	0.032583404
134	0xbba6bbbb	-0.005088297
135	0xbd8d5202	-0.069004074
136	0x3cf6c915	0.03012518
137	0x3bb51829	0.0055265618
138	0x3da01345	0.07816175
139	0x3ddb3150	0.10702765
140	0xbcb4d59a	-0.02207451
141	0xbd9996c3	-0.07499459
142	0xbdcb68ef	-0.09932124
143	0x3dcdcae8	0.10048467
144	0x3db790ee	0.0896319
145	0x3d986e84	0.07442954
146	0xbddd2249	-0.10797555
147	0x3de3f3b6	0.111304685
148	0x3da0ac4e	0.078453645
149	0x3da479e5	0.08031062
150	0xbd35d49f	-0.044392224
151	0xbdbfa541	-0.093576916
152	0xbd9472ee	-0.072484836
153	0x3e1f2fc8	0.15545571
154	0xbdff2118	-0.12457484
155	0xbd1ab577	-0.037770715
156	0x3d9eb5b8	0.07749504
157	0xbd0a2969	-0.033730898
158	0xbcffc7cb	-0.031223198
159	0xbc08549c	-0.008320954
160	0xbc769df9	-0.015052312
161	0xbdbfd09e	-0.093659624
162	0x3da098d4	0.0784165
163	0xbcf22c4a	-0.029562134
164	0x3cd61b8b	0.02613618
165	0x3db8e3d9	0.090278335
166	0x3dbb4553	0.09144082
167	0x3ce2f449	0.027704375
168	0x3dbb90fc	0.09158513
169	0x3cdd9984	0.027050741
170	0xbd0cf814	-0.034416273
171	0x3df4dd49	0.11956269
172	0x3d1f2803	0.038856518
173	0xbdcd3d74	-0.10021487
174	0x3b3e40af	0.0029030254
175	0xbd345011	-0.04402167
176	0x3db418b1	0.08793772
177	0xbcf021c5	-0.029312978
178	0xbdeb741e	-0.11496757
179	0xbcc77eeb	-0.024352511
180	0x3dc6155b	0.09672042
181	0xbcfb378b	-0.030666133
182	0xbc5c8b84	-0.0134609975
183	0xbd3518f5	-0.044213254
184	0x3d31a60e	0.043371253
185	0xbd20e913	-0.039284777
186	0xbda69c10	-0.08135235
187	0xbd7c9eeb	-0.061674993
188	0xbda00193	-0.078128
189	0xbc0a1a34	-0.008429099
190	0xbdd03e6d	-0.10168157
191	0x3cad7f84	0.021178968
192	0x3d21fe00	0.039548874
193	0x3cc85aa8	0.02445729
194	0xbd6bd3a7	-0.057574894
195	0x3d904c46	0.07045798
196	0xbd2155dc	-0.039388523
197	0x3dac345c	0.08408424
198	0xbdaf871a	-0.085706905
199	0xbc203c58	-0.009780012
200	0x3cc94db5	0.024573186
201	0xbd758b00	-0.059947014
202	0x3de900c1	0.11377097
203	0xbde4ed52	-0.11178078
204	0xbdbb767e	-0.0915346
205	0xbdc356e6	-0.09538059
206	0x3d22f8ba	0.039787985
207	0x3db32728	0.08747703
208	0xbd324e0f	-0.043531474
209	0x3d02c389	0.031924758
210	0xbae51818	-0.0017478494
211	0x3cce9643	0.025218135
212	0x3df11c3b	0.11772963
213	0xbd5b6b2c	-0.053569004
214	0xbc8d24ee	-0.017229524
215	0x3dd3c6f6	0.10340683
216	0xbccd738c	-0.025079511
217	0x3dcdcd77	0.10048955
218	0xbd4cd26b	-0.050005358
219	0x3dd1fb49	0.10253007
220	0xbe028da7	-0.12749349
221	0xbc0d6980	-0.00863111
222	0xbbdf588d	-0.006815976
223	0x3c1ecc59	0.009692275
224	0x3d2c0109	0.041993175
225	0x3daa1a63	0.08305814
226	0xbd2e036f	-0.042483743
227	0xbb214192	-0.0024605733
228	0x3d885e32	0.06658591
229	0xbcab0992	-0.020878587
230	0x3dce4edd	0.10073636
231	0xbdf66043	-0.12030079
232	0xbcb4c6e7	-0.0220675
233	0x3ba84cea	0.005136122
234	0x3d85c561	0.06531788
235	0x3dcf3da8	0.10119182
236	0xbd032117	-0.03201398
237	0xbdcfeba9	-0.101523705
238	0x3c826b4e	0.015920307
239	0x3d8fd5d9	0.0702321
240	0x3ce35f87	0.027755512
241	0xbd364454	-0.044498757
242	0x3db8d742	0.09025432
243	0x3de12472	0.109932795
244	0x3c96ce14	0.018408813
245	0xbdb657ce	-0.08903466
246	0x3d8e63e4	0.069526464
247	0xbd98e492	-0.07465471
248	0x3cc4a284	0.024003275
249	0x3cf6fe16	0.030150454
250	0xbd258673	-0.040411424
251	0x3d3ea8d1	0.046547715
252	0xbdc8ff00	-0.098142624
253	0x3bf8daba	0.0075944336
254	0xbdcec31a	-0.100958064
255	0x3c70a2aa	0.01468722

bias f4 [128]
0	0x3d1be560	0.038060546
1	0x3cc37808	0.023860946
2	0x3da2cf02	0.0794964
3	0x3d115a54	0.035486534
4	0xbde72a65	-0.11287383
5	0x3d248e26	0.040174626
6	0x3dda4f04	0.10659602
7	0xbd3a22a8	-0.045443207
8	0x3d98727a	0.0744371
9	0x3dc9a07b	0.09845062
10	0xbd071cda	-0.0329865
11	0xbc84cfeb	-0.016212424
12	0x3bc65094	0.006052086
13	0x3de71222	0.112827554
14	0x3d42709f	0.047470685
15	0x3d9f7cae	0.07787453
16	0xbdc7774b	-0.0973955
17	0xbd3ca813	-0.046058726
18	0xbdc08992	-0.094012395
19	0x3c99ef88	0.018790975
20	0xbd2d5b28	-0.04232326
21	0x3d0609a1	0.032724027
22	0x3d3a7d80	0.045529842
23	0xbd086747	-0.033301618
24	0x3cafa886	0.021442663
25	0xbdb2962a	-0.08720048
26	0xbd00b568	-0.031423002
27	0x3beb840b	0.0071873716
28	0x3d93a896	0.072098896
29	0x3d328efb	0.043593388
30	0x3d1753b4	0.03694506
31	0x3d650c48	0.055919915
32	0x3db9a47b	0.09064575
33	0x3c003d79	0.007827156
34	0x3dd5fc58	0.104485214
35	0xbd7be19e	-0.061494462
36	0x3d10b473	0.03532834
37	0x3ba1d526	0.0049387394
38	0x3d9d846e	0.076912746
39	0xbdbfe318	-0.093694866
40	0x3d8d5622	0.06901194
41	0xbdede5e0	-0.11616111
42	0xbd4d3999	-0.050103758
43	0xbd890ed0	-0.066922784
44	0xbd1b64bf	-0.037937876
45	0xbd5631aa	-0.052293457
46	0xbdbd9b60	-0.09258151
47	0xbdcced00	-0.10006142
48	0xbc77fbdd	-0.0151357325
49	0x3dac36b6	0.08408873
50	0xbca56fa6	-0.02019484
51	0xbdac845c	-0.08423683
52	0xbcf21949	-0.029553073
53	0xbdb071c0	-0.08615446
54	0xbc603d5c	-0.013686504
55	0x3db30bb9	0.0874247
56	0xbdd37840	-0.1032567
57	0x3d788480	0.060673237
58	0x3da90a43	0.082539104
59	0x3db09fcf	0.08624231
60	0xbdc4a6db	-0.09602138
61	0xbbe8e6a4	-0.0071075726
62	0x3d8cb05a	0.06869574
63	0xbdc0e3b9	-0.09418435
64	0x3dbfabe9	0.09358961
65	0x3c850ed3	0.01624242
66	0xbdc9ab86	-0.098471686
67	0xbcdceaff	-0.026967524
68	0xbc5748e2	-0.013139935
69	0xbd228909	-0.03968147
70	0xbcff56e5	-0.031169364
71	0xbb74d3de	-0.0037357728
72	0x3cedd975	0.029034356
73	0x3d62863f	0.05530381
74	0xbdf21fcc	-0.11822471
75	0xbb6d43d3	-0.0036203756
76	0x3c80ff13	0.015746629
77	0x3db28689	0.08717067
78	0x3d8da614	0.069164425
79	0x3dc2b4de	0.09507154
80	0x3d0576d4	0.032584026
81	0xbb1d6b41	-0.0024020227
82	0xbdb1410c	-0.08654985
83	0xbd70716d	-0.05870192
84	0x3d14cc9c	0.036327943
85	0xbc6e8d6e	-0.014560087
86	0x3dc17acf	0.09447252
87	0xbdbc3981	-0.091906555
88	0x3dc56b35	0.09639589
89	0x3d737b2e	0.059443645
90	0x3daba16a	0.08380397
91	0x3da98ca1	0.08278776
92	0xbd96eff5	-0.07369987
93	0x3d8fea02	0.07027055
94	0xbde10d64	-0.10988882
95	0xbda5e395	-0.081000485
96	0xbc9f6a68	-0.019459918
97	0x3dcc251a	0.09968014
98	0xbce7965a	-0.028269935
99	0xbdb6681c	-0.08906576
100	0xbdd7f576	-0.10544865
101	0xbbf94a24	-0.007607715
102	0x3b40713d	0.002936437
103	0x3c653cfd	0.0139915915
104	0xbcc345b5	-0.02383695
105	0x3d1db085	0.03849842
106	0xbc26db64	-0.010184143
107	0xbd5ec21c	-0.054384336
108	0x3d836248	0.0641523
109	0xbdbc0a9e	-0.091817126
110	0xbd9cc503	-0.076547645
111	0x3d30cf94	0.043166712
112	0xbd011123	-0.031510483
113	0xbcbe7801	-0.023250582
114	0xbd3566b5	-0.044287402
115	0x3d761592	0.060079165
116	0x3de9cf06	0.1141644
117	0x3dadac22	0.08480097
118	0x3ce28d52	0.027655277
119	0xbda80d47	-0.082056575
120	0xbd43df1e	-0.047820203
121	0xbda39a11	-0.0798837
122	0xbcae3905	-0.021267423
123	0xbd83f739	-0.06443638
124	0x3d93fcdd	0.07225964
125	0xbde0c6dd	-0.1097543
126	0xbb02170b	-0.001985016
127	0x3d8ca616	0.06867616

weight f4 [128, 128]
0	0xbd97b60a	-0.07407768
1	0xbb2767bb	-0.0025544006
2	0x3d76f9a1	0.06029666
3	0xbd121b8b	-0.0356708
4	0xbc5fd606	-0.013661867
5	0x3d28e3b2	0.041232772
6	0xbd939fe9	-0.07208235
7	0x3dd6d895	0.104905285
8	0x3dd2177b	0.10258385
9	0x3bc5f4ba	0.0060411366
10	0x3c88685b	0.016651323
11	0xbd25b226	-0.0404531
12	0xbb8c8636	-0.00428846
13	0xbd360c9e	-0.044445626
14	0xbd18e0e2	-0.03732384
15	0x3d8068a7	0.06269961
16	0xbcaf965b	-0.021434
17	0x3dfef306	0.12448697
18	0x3d3ea5ad	0.04654472
19	0x3d429211	0.04750258
20	0x3c9d9fea	0.019241292
21	0xbd5a8087	-0.05334523
22	0xbd9bc8f1	-0.07606686
23	0x3d85ebc4	0.06539109
24	0x3ca2d6f9	0.019877898
25	0x3dd23475	0.10263912
26	0xbd5f23a5	-0.054477353
27	0x3da975d4	0.08274427
28	0xbd178329	-0.03699032
29	0x3bb28963	0.0054485067
30	0xbbcece4e	-0.0063112145
31	0xbd436e3c	-0.04771255
32	0xbde08c43	-0.10964253
33	0x3da3e0eb	0.08001884
34	0xbda4d4e9	-0.08048422
35	0xbc36bc86	-0.011153346
36	0x3d9e688c	0.077347845
37	0x3db07f77	0.08618062
38	0x3c3a34f8	0.011365168
39	0xbd1084c5	-0.03528287
40	0xbd8ee7ee	-0.06977831
41	0xbc80e3e2	-0.015733663
42	0xbd9ee16a	-0.07757838
43	0x3d1d1071	0.038345758
44	0xbdc1a60c	-0.09455499
45	0x3dae3e55	0.08507983
46	0xbc030160	-0.007995933
47	0xbc3d92a2	-0.0115706045
48	0xbe057787	-0.13033877
49	0x3dc084d6	0.094003364
50	0x3db6819e	0.08911441
51	0x3da402ba	0.080083326
52	0x3cabc1c2	0.020966414
53	0xbd328cc5	-0.04359128
54	0x3dc1e747	0.09467941
55	0xbd21aeaf	-0.039473232
56	0x3d2ba53c	0.041905627
57	0x3cdecd01	0.027197363
58	0x3d2331a6	0.03984227
59	0xbdb10d45	-0.08645109
60	0x3d492509	0.049107585
61	0xbcbe3355	-0.023217836
62	0xbe095865	-0.13412626
63	0x3c6e747a	0.014554137
64	0xbd6aea2e	-0.057352237
65	0xbdae4af5	-0.08510391
66	0x3d981c2d	0.07427249
67	0xbd9216ef	-0.071332805
68	0x3d2053f3	0.03914256
69	0x3d94d463	0.07267072
70	0xbd741462	-0.05958975
71	0xbdfef00e	-0.124481305
72	0xbd8be9c9	-0.068317
73	0x3c34be5d	0.011031714
74	0xbb64426a	-0.0034829625
75	0x3d8363cd	0.0641552
76	0x3d8c3e5b	0.06847831
77	0xbd881533	-0.066446684
78	0xbc664c36	-0.014056256
79	0xbd7f4f7b	-0.062331658
80	0xbd26d829	-0.04073349
81	0x3d93c71d	0.07215712
82	0xbc544b32	-0.012957381
83	0xbae7005f	-0.0017624012
84	0xbc018824	-0.007905994
85	0xbd0d9c6b	-0.034573
86	0x3db209ee	0.086933
87	0x3cbc543a	0.022989381
88	0x3c7a4d3b	0.015277202
89	0xbd5ab9d0	-0.05339986
90	0xbd6f6689	-0.058447395
91	0xbc875a75	-0.016522625
92	0x3c348848	0.01101882
93	0xbcb731be	-0.022362586
94	0xbd4ca8fc	-0.049965844
95	0x3d31b338	0.043383807
96	0x3d8efb73	0.06981554
97	0x3e33860d	0.17531605
98	0x3d85d783	0.06535246
99	0x3d949803	0.072555564
100	0xbc61361e	-0.013745813
101	0x3c9d7372	0.019220088
102	0xbd8429dd	-0.06453297
103	0xbcbd8887	-0.02313639
104	0x3d12ff7c	0.03588818
105	0x3d2e4cbc	0.04255365
106	0xbd35352b	-0.044240158
107	0xbc04f1db	-0.008114303
108	0xbd59d7fc	-0.053184494
109	0x3bee1e8f	0.0072668265
110	0xbd730579	-0.05933139
111	0xbdae181e	-0.08500694
112	0xbd850383	-0.064948104
113	0xbd6a2a2f	-0.057169136
114	0x3db31998	0.08745116
115	0xbdafb687	-0.08579736
116	0xbd1f909c	-0.03895627
117	0x3d82288c	0.0635539
118	0xbd9cfab3	-0.076650046
119	0x3cb2c947	0.021824492
120	0x3c2383a9	0.009980121
121	0xbadb1aa9	-0.0016716319
122	0x3dc43f50	0.095823884
123	0xbdb0f2c4	-0.08640054
124	0xbb080cb4	-0.0020759525
125	0x3d683576	0.05669161
126	0x3d1f8d39	0.03895304
127	0xbdc2fc25	-0.09520749
128	0xb991eeab	-0.00027834377
129	0x3aee2f98	0.0018172143
130	0xbd591267	-0.052996065
131	0x3d3b492f	0.04572409
132	0x3ce4e705	0.02794219
133	0x3d76ef0a	0.06028656
134	0xbd352f0c	-0.04423432
135	0xbd2dd594	-0.042440012
136	0x3e009cab	0.12559764
137	0x3c370092	0.01116957
138	0x3d399a64	0.045313254
139	0x3d126112	0.035737105
140	0x3d3775b9	0.044790003
141	0xbd42c014	-0.04754646
142	0xbbd85c62	-0.0066028098
143	0x3db0ab50	0.08626425
144	0xbd8e5e64	-0.06951597
145	0x3c86b839	0.016445266
146	0x3e10bad7	0.14133774
147	0xbdcc48af	-0.09974801
148	0xbd901b75	-0.07036487
149	0xbd9cdc38	-0.07659191
150	0x3d05430c	0.032534644
151	0x3c232967	0.009958602
152	0xbe01a252	-0.12659577
153	0x3d80fb7b	0.06297966
154	0x3cbd1c3a	0.023084749
155	0x3d2214ba	0.039570548
156	0xbde3a966	-0.111162946
157	0xbdc0afc8	-0.094085276
158	0xbe14b66f	-0.14522718
159	0x3b7853ad	0.0037891672
160	0xbdcfcf0c	-0.10146913
161	0x3d810e77	0.06301587
162	0x3b7fc910	0.0039029755
163	0xbdea3df3	-0.11437597
164	0x3d911994	0.07084957
165	0x3d17fa9f	0.037104245
166	0x3c11e9ec	0.008905869
167	0xbcc5537c	-0.02408766
168	0xbd56071e	-0.05225288
169	0xbd96e80d	-0.07368479
170	0xbd6b61bc	-0.057466254
171	0x3dbd97c1	0.092574604
172	0xbddfda16	-0.109302685
173	0x3d98dc5b	0.074639045
174	0x3dd9c32c	0.10632929
175	0x3ce1bff5	0.027557353
176	0xbcb806fa	-0.022464264
177	0x3dc69147	0.09695678
178	0x3dddbd2b	0.108270966
179	0x3a9cc603	0.0011960868
180	0xbd484fd1	-0.048904244
181	0xbd8451fc	-0.0646095
182	0x3d64a91e	0.055825345
183	0xbd81cae4	-0.063375264
184	0xbcafda1e	-0.021466311
185	0xbc04a6bf	-0.008096396
186	0x3d4b7e8a	0.049681224
187	0xbdb7009b	-0.08935662
188	0x3d93b3f6	0.07212059
189	0x3d5efaf6	0.054438554
190	0xbd2b3a81	-0.04180384
191	0xbddc7970	-0.1076535
192	0x3d078761	0.03308809
193	0xbd9abf07	-0.07555967
194	0x3d887a36	0.06663935
195	0x3d82d9c1	0.063891895
196	0x3cc34ad4	0.023839392
197	0xbb86a2ac	-0.0041087475
198	0x399ded8c	0.0003012236
199	0x3cff382b	0.031154713
200	0x3ccd9af4	0.025098301
201	0xbd2d747f	-0.042347427
202	0xbb9f6024	-0.004863756
203	0xbde2ef8b	-0.110808454
204	0x3ad3b4e1	0.0016151929
205	0xbda92d99	-0.0826065
206	0x3ccc9871	0.024975033
207	0x3c98f04d	0.018669272
208	0x3d06a8fb	0.032875996
209	0xbac16c2b	-0.0014756968
210	0xbc92a3e1	-0.01790041
211	0x3b6c04d4	0.003601362
212	0xbcee07cb	-0.02905645
213	0x3a671bc5	0.00088160887
214	0xbd1c86d8	-0.038214535
215	0xbd355a2f	-0.04427546
216	0xbd8a2295	-0.06744877
217	0x3ceb2fe5	0.028709361
218	0xbbe37ea0	-0.006942585
219	0x3d9e757f	0.07737254
220	0xbc031a15	-0.008001824
221	0x3c50a1a0	0.012733847
222	0xbd807551	-0.06272376
223	0x3caa6f6c	0.020805083
224	0x3d93f14a	0.072237566
225	0x3e0e44d3	0.13893442
226	0xbd1813bd	-0.0371282
227	0x3bc0b8d1	0.005881407
228	0xbd300e70	-0.04298252
229	0xbd83fd2d	-0.06444774
230	0xbbb64011	-0.0055618365
231	0x3cc0ed2c	0.023550592
232	0x3e06eb80	0.13175774
233	0x3d84d82c	0.06486544
234	0xbc8af582	-0.01696277
235	0x3cfd1c45	0.030897269
236	0xbd487411	-0.048938815
237	0xbc394bdc	-0.01130959
238	0xbcbe1766	-0.023204517
239	0xbd9f1a77	-0.0776872
240	0x3cd05408	0.025430694
241	0xbd8e654b	-0.06952914
242	0x3e33960c	0.17537707
243	0x3c96ba3f	0.018399356
244	0x3d7577ae	0.05992859
245	0x3db0bdb9	0.08629937
246	0xbd704139	-0.05865595
247	0xbdaf01e5	-0.08545283
248	0x3d222c73	0.03959317
249	0xbc52584d	-0.012838435
250	0x3c6e61f5	0.014549722
251	0x3cc0eee0	0.023551404
252	0xbd73841b	-0.059452157
253	0x3d8e8ffd	0.06961057
254	0xbdb4aec5	-0.08822397
255	0x3d040426	0.03223052

bias f4 [128]
0	0xbd81bc20	-0.0633471
1	0x3c92b7b6	0.017909866
2	0xbcab333a	-0.02089845
3	0x3d70d683	0.058798324
4	0xbd283560	-0.041066527
5	0xbc503c38	-0.01270967
6	0x3cc4231e	0.023942526
7	0x3da22409	0.079170294
8	0xbda1cce9	-0.07900412
9	0xbd3a7e0d	-0.045530368
10	0xbd08e089	-0.03341726
11	0x3cd4b24e	0.025963929
12	0x3d8bcf6f	0.06826674
13	0x3c6cb9a6	0.014448559
14	0xbb70d5d8	-0.0036748555
15	0x3d5a45d9	0.05328927
16	0xbd77749a	-0.060413934
17	0x3da9cc63	0.08290937
18	0x3da80a73	0.08205118
19	0xbd6eded0	-0.05831796
20	0xbb9d1c5d	-0.004794641
21	0x3d23f350	0.040026963
22	0xbd51ee1c	-0.05125247
23	0xbd4eece6	-0.050518893
24	0x3d589ead	0.0528857
25	0x3d77de93	0.060514998
26	0xbd8e1ea0	-0.06939435
27	0x3cf1eb75	0.02953122
28	0xbd21e472	-0.039524503
29	0xb92ce039	-0.00016486728
30	0xbdacaf8d	-0.08431921
31	0xbd80d7b7	-0.06291144
32	0xba526d27	-0.0008027129
33	0xbd494c02	-0.049144752
34	0xbd3c81be	-0.04602217
35	0x3d608672	0.054815717
36	0x3d7bd857	0.061485615
37	0xbd8af678	-0.067852914
38	0x3d768ec1	0.060194734
39	0x3dc0b847	0.09410148
40	0xbcc552e0	-0.02408737
41	0x3d03f62c	0.03221719
42	0xbb85c4de	-0.0040823063
43	0x3a78588b	0.0009473643
44	0xbc93ebb7	-0.018056734
45	0x3c111560	0.008855194
46	0x3da01c66	0.078179166
47	0xbd0f3b84	-0.034968868
48	0xbcde7b21	-0.027158322
49	0x3dbf7991	0.09349359
50	0x3d82bbc4	0.0638347
51	0xbd3acd06	-0.04560568
52	0x3da60387	0.081061415
53	0xbb9bcc83	-0.0047546043
54	0x3d2be034	0.041961864
55	0x3c96eac9	0.018422501
56	0xbc2639ff	-0.010145663
57	0xbd52a526	-0.05142703
58	0xbc53670f	-0.012902989
59	0xbd510b1b	-0.05103598
60	0xbc91532d	-0.017739857
61	0x3d4f617d	0.05063008
62	0x3d98331c	0.07431623
63	0xbd681460	-0.056660056
64	0x3d39fe17	0.045408335
65	0x3acd1558	0.001564662
66	0x3d8a9a4a	0.067677096
67	0x3d6d834c	0.057986543
68	0xbd094b59	-0.033519123
69	0x3d4c1283	0.04982234
70	0x3cdce8b2	0.026966427
71	0x3d004079	0.031311486
72	0xbd3a02d2	-0.045412846
73	0x3ccef791	0.025264533
74	0xbda0d951	-0.0785395
75	0x3d2d7f5f	0.0423578
76	0xbce79dc8	-0.028273478
77	0x3cd700f4	0.026245572
78	0x3d847d6d	0.064692356
79	0x3c53f176	0.012935987
80	0xbd89db6b	-0.06731304
81	0xbd885e03	-0.06658556
82	0x3cfc7c09	0.030820863
83	0xbdb863d2	-0.09003414
84	0x3d3843e6	0.044986628
85	0xbd182288	-0.037142307
86	0xbd4b06f7	-0.04956719
87	0x3d737265	0.059435267
88	0x3d050754	0.03247769
89	0x3d964b97	0.07338636
90	0x3cc8f1e8	0.024529412
91	0x3cd69604	0.02619458
92	0x3d31e7ff	0.04343414
93	0x3d3050e2	0.043045886
94	0xbd2443e7	-0.04010382
95	0xbd8d8172	-0.06909455
96	0xbc7f83c8	-0.015595384
97	0x3dabd53c	0.083902806
98	0x3d547dac	0.051877663
99	0xbcd0fd33	-0.02551136
100	0xbcd1a63c	-0.025591962
101	0x3d6ff3fa	0.058582284
102	0x3d54d138	0.05195734
103	0x3d287ac5	0.041132707
104	0xbd8f8f88	-0.07009798
105	0xbd9d6d99	-0.0768692
106	0x3d84f609	0.0649224
107	0x3da8083d	0.08204696
108	0x3d8d5948	0.06901795
109	0x3d1a4103	0.037659656
110	0xbc80df10	-0.015731364
111	0x3bf9a8ea	0.007619013
112	0x3da48ec0	0.0803504
113	0xbb8ce76c	-0.0043000486
114	0xbd5ce014	-0.053924635
115	0x3d4ed2e7	0.0504941
116	0xbd613fd6	-0.05499252
117	0x3cb9d03b	0.0226823
118	0xbd23d5b6	-0.039998733
119	0xbc11e43b	-0.008904512
120	0x3cf9789c	0.030453019
121	0xbd192fdf	-0.03739917
122	0x3c6eb2e9	0.014569023
123	0xbd69aef4	-0.057051614
124	0x3c4e16d3	0.012578684
125	0xbce3b82a	-0.027797777
126	0x3d42e599	0.047582243
127	0x3d90080c	0.07032785

weight f4 [128, 128]
0	0xbcb59e6c	-0.022170268
1	0x3e024919	0.12723197
2	0x3d90f355	0.07077662
3	0x3dbeb964	0.09312704
4	0x3ca5001b	0.020141652
5	0xbdb60f73	-0.088896655
6	0xbd4507a1	-0.04810298
7	0x3d37d1f8	0.044877976
8	0xbc19d5f7	-0.009389392
9	0xbda89a1f	-0.08232521
10	0xbd0cc2e1	-0.03436554
11	0xbdfe7be4	-0.12425974
12	0x3cd4c8fd	0.025974745
13	0xbc822ac5	-0.015889535
14	0x3ba9a1f0	0.005176775
15	0x3c2f16ce	0.010686589
16	0xbd257310	-0.040392935
17	0x3d4a8b04	0.049448982
18	0x3c3bf1ef	0.011471256
19	0xbd928ab3	-0.07155361
20	0x3db3028f	0.087407224
21	0xbdbac636	-0.09119837
22	0xbd87b129	-0.066255875
23	0xbd64a8db	-0.055825096
24	0x3d80e6ba	0.062940076
25	0x3d915afb	0.07097431
26	0x3e013e85	0.12621506
27	0x3d799550	0.06093341
28	0xbd807ea2	-0.06274153
29	0x3cd6a2ba	0.026200641
30	0x3d809c4d	0.06279812
31	0x3d375f2d	0.0447685
32	0xbd55fccc	-0.05224304
33	0x3d8c95d6	0.068645164
34	0x3ce65c96	0.02812032
35	0xbbbdfbff	-0.0057978625
36	0xbd2e9b31	-0.04262847
37	0x3d7c687f	0.061623093
38	0x3c8e2efe	0.017356392
39	0x3d0c37f0	0.034233034
40	0x3d452f4e	0.048140816
41	0x3de739c2	0.11290313
42	0x3c8d52e0	0.017251432
43	0xbd8b2595	-0.067942776
44	0xbca5922e	-0.020211305
45	0x3b646992	0.0034852964
46	0x3df42e05	0.1192284
47	0x3dee610f	0.11639606
48	0x3d2b7eb1	0.04186887
49	0xbd73b827	-0.059501793
50	0xbcdd1c5a	-0.026991058
51	0xbdcfbd01	-0.101434715
52	0xbd509eeb	-0.050932806
53	0xbb9d7d3a	-0.004806188
54	0x3dba48ec	0.0909594
55	0x3a671350	0.00088148285
56	0x3c22b979	0.009931915
57	0x3daf5efe	0.0856304
58	0xbd078650	-0.033087075
59	0x3d850339	0.06494755
60	0xbda66af4	-0.081258684
61	0x3c809d5c	0.015700035
62	0x3a040ef8	0.0005037631
63	0x3da236be	0.079205975
64	0x3ca762d1	0.020432862
65	0x3b2cbd88	0.0026358087
66	0x3d60733e	0.054797404
67	0xbc8b9352	-0.017038021
68	0x3d100ad2	0.03516657
69	0x3c8cb0bf	0.017174123
70	0x3c3c3523	0.011487278
71	0xbd75b3f7	-0.05998608
72	0xbe0dc5e5	-0.13845022
73	0x3d585aeb	0.05282108
74	0x3d93d534	0.072184
75	0xbd51c29e	-0.051210992
76	0x3c6dbb17	0.014509938
77	0x3d1ac8ff	0.03778934
78	0x3c188501	0.009309054
79	0xbd06f4a8	-0.032948166
80	0xbd1df997	-0.038568106
81	0xba69ae32	-0.0008914202
82	0x3db0d1f8	0.08633798
83	0x3da9ea52	0.08296646
84	0xbcd2708d	-0.025688434
85	0x3d8b5f38	0.06805271
86	0xbc886446	-0.016649377
87	0x3bdfcafa	0.0068296166
88	0xbd8ac4ea	-0.067758396
89	0x3a99901a	0.0011715919
90	0xbd3a0bf2	-0.04542155
91	0x3d1c310f	0.038132723
92	0x3ca31bc8	0.019910708
93	0xbb6d15c4	-0.0036176303
94	0x3d1de1f5	0.038545568
95	0x3d9720ed	0.07379327
96	0xbcdbd871	-0.026836606
97	0x3da361c6	0.07977633
98	0xbd9bf056	-0.076142
99	0x3d7819e0	0.06057155
100	0xbdc0ffe3	-0.094238065
101	0x3ce04502	0.027376655
102	0x3dba223d	0.09088562
103	0xbd9ff05c	-0.07809517
104	0x3d6f7e26	0.058469914
105	0x3da7d5ba	0.08195062
106	0x3dae8cf6	0.0852298
107	0x3dba4ced	0.09096704
108	0xbd2abb8d	-0.04168277
109	0x3e0a7f47	0.13525115
110	0xbd141a2d	-0.036157776
111	0xbd66dfcb	-0.05636577
112	0x3c747aba	0.014921838
113	0xbd941251	-0.07230056
114	0x3ad1c006	0.0016002662
115	0x3c5d7c11	0.013518349
116	0xbc98c61b	-0.018649152
117	0xbd48fdfe	-0.04907035
118	0xbcbf77e8	-0.023372605
119	0x3d6ecbb3	0.05829973
120	0xbc3367d9	-0.010950052
121	0xbbcadd89	-0.00619096
122	0x3bdfdf7e	0.0068320623
123	0x3cbf65b4	0.023363926
124	0x3d69e089	0.0570989
125	0x3d108b5c	0.035289153
126	0x3bb61f83	0.0055579557
127	0xbc9bcc9c	-0.019018464
128	0x3d0ac102	0.033875473
129	0xbd0dbff0	-0.034606874
130	0x3d4d884e	0.05017882
131	0xbc9d66ec	-0.019214116
132	0xbdadd73a	-0.08488317
133	0x3ceaf04c	0.028679036
134	0x3cdec7c8	0.027194872
135	0x3defd8f4	0.117113024
136	0xbdf8d9ba	-0.12150903
137	0x3d35efc5	0.044418115
138	0x3da0f597	0.078593425
139	0x3c37a9fa	0.011209959
140	0xbd070451	-0.0329631
141	0x3d240c06	0.04005053
142	0x3d1562fd	0.036471356
143	0x3d60c362	0.05487383
144	0x3d5a686c	0.05332224
145	0x3cb3f3e5	0.021966884
146	0x3c3961a4	0.011314783
147	0xbd4842e5	-0.04889192
148	0xbd8e655d	-0.06952927
149	0x3dcd8790	0.10035622
150	0xbd4a8844	-0.04944636
151	0x3d8e5b94	0.06951061
152	0x3bde9eea	0.0067938464
153	0xbc77d6c2	-0.015126886
154	0xbd94b8eb	-0.07261833
155	0xbd8b7b5a	-0.06810637
156	0x3b857419	0.004072678
157	0x3d889bd2	0.06670345
158	0xbdd0a8b0	-0.101884246
159	0xbd42b419	-0.047535036
160	0xbd383131	-0.044968788
161	0x3d0cfe74	0.034422353
162	0x3c853c8a	0.016264219
163	0xbd29a60d	-0.041418124
164	0x3dea4630	0.114391685
165	0x3ba6e42f	0.0050931196
166	0xbc937487	-0.0179999
167	0x3c288e4e	0.010287834
168	0xbd1bdf60	-0.038054824
169	0x3c3a9024	0.011386905
170	0x3d2b91b5	0.041887004
171	0xbddb165e	-0.106976256
172	0xbd257c2c	-0.040401623
173	0x3d6d02da	0.057864048
174	0xbd6e23cb	-0.058139604
175	0xbdb91ca0	-0.09038663
176	0xbc448696	-0.011994978
177	0x3d948c09	0.07253272
178	0xbda5632d	-0.08075557
179	0x3d1a7e06	0.03771784
180	0xbdd01de0	-0.10161948
181	0xbc0a488e	-0.00844015
182	0x3da914f0	0.08255947
183	0x3d329b90	0.043605387
184	0xbd6a162b	-0.057150047
185	0x3cafd873	0.021465516
186	0xbd974414	-0.07386032
187	0x3d4ec309	0.05047897
188	0xbab7da94	-0.0014026933
189	0x3d428beb	0.047496717
190	0x3d0d1511	0.03444392
191	0xbd4afa21	-0.049554948
192	0x3dc37799	0.09544296
193	0x3d755545	0.059895772
194	0x3cf79884	0.030224092
195	0xbdaf49dd	-0.0855901
196	0x3d83aed1	0.06429828
197	0x3d7b9557	0.06142172
198	0xbcbc0092	-0.02294949
199	0xbd9d511f	-0.07681488
200	0x3e017d7a	0.12645522
201	0x3d86db74	0.06584826
202	0xbdaa05d9	-0.083018966
203	0x3d5cb6e9	0.053885374
204	0xbdb9349d	-0.09043238
205	0xba30e35f	-0.0006747748
206	0xbdd01512	-0.10160269
207	0xbd81942a	-0.06327088
208	0x3a80125d	0.0009771098
209	0x3d056a08	0.032571822
210	0x3d421487	0.047382858
211	0x3c25a997	0.010111234
212	0xbb6fc0d8	-0.003658345
213	0x3cf5d8fe	0.030010697
214	0x3d2a9e8c	0.04165511
215	0xbd961e27	-0.0732997
216	0x3d6af81f	0.057365533
217	0xbd833fbc	-0.06408641
218	0x3d2376c8	0.0399082
219	0xbd26c2d2	-0.04071314
220	0xbd7872c4	-0.060656324
221	0xbd68869a	-0.05676899
222	0x3d325f13	0.0435477
223	0xbdaa41b2	-0.08313312
224	0x3c2203af	0.009888574
225	0xbc9a39a0	-0.018826306
226	0xbd0d3167	-0.034470942
227	0xbda7b3a2	-0.08188559
228	0x3db82427	0.089912705
229	0xbc95b183	-0.01827312
230	0xbd659ff2	-0.05606074
231	0x3d6f15f5	0.05837055
232	0x3d1677d4	0.03673537
233	0xbc77d3c4	-0.015126172
234	0xbc6fbe9f	-0.01463285
235	0xbd0cfe6c	-0.034422323
236	0xbd884581	-0.06653882
237	0xbdc5adbc	-0.09652278
238	0xbd87924f	-0.06619703
239	0x3dc059d4	0.09392133
240	0x3d323c49	0.043514524
241	0x3dd5a529	0.104318924
242	0xbd48e336	-0.04904481
243	0x3d84be65	0.064816274
244	0x3d4453f1	0.047931615
245	0xbd76ca41	-0.060251478
246	0x3d7f3497	0.062306013
247	0xbcc5a0e0	-0.024124563
248	0x3da0c9c3	0.07850983
249	0xbce08e12	-0.027411494
250	0x3dd469fe	0.10371779
251	0x3db2f278	0.087376535
252	0x3db14228	0.086551964
253	0x3d2fe47f	0.04294252
254	0x3db7f314	0.0898191
255	0xbc422f8a	-0.0118521545

bias f4 [128]
0	0xbc12c379	-0.008957737
1	0x3d148b2b	0.036265533
2	0x3da2c1c6	0.079471156
3	0x3da3dca7	0.080010705
4	0x3d35068a	0.04419569
5	0x3daec122	0.08532931
6	0xbd155434	-0.036457255
7	0x3c656825	0.014001881
8	0x3d607f68	0.054809004
9	0xbdb20dff	-0.08694076
10	0xbd8569d2	-0.06514324
11	0xbd89e6e3	-0.06733491
12	0xbd64ef4c	-0.055892274
13	0x3d54270d	0.051795054
14	0x3c73ecc0	0.014887989
15	0xbbafcd08	-0.005365018
16	0xbcf86967	-0.030323697
17	0xbd6d94f8	-0.058003396
18	0xbd1d04d7	-0.038334694
19	0x3dc9be1f	0.09850716
20	0xbbf2e93e	-0.0074130585
21	0x3c7a5461	0.015278907
22	0xbcb60c77	-0.02222274
23	0xbcf46052	-0.029831085
24	0x3d826561	0.06366993
25	0xbac8ed06	-0.0015329428
26	0x3c5b9b08	0.013403662
27	0x3d9feeb0	0.07809198
28	0xbb7b3842	-0.0038333093
29	0x3cfc2742	0.030780438
30	0xbd8938aa	-0.06700261
31	0x3d6fafee	0.05851739
32	0x3c30649d	0.010766176
33	0x3d665690	0.056234896
34	0xbd70c512	-0.05878169
35	0x3cdc22ec	0.02687212
36	0x3d4c0434	0.049808696
37	0xbd3c0d01	-0.04591084
38	0x3dbc7507	0.09202009
39	0xbd1c690f	-0.03818613
40	0xbcc1326f	-0.023583619
41	0x3d61499a	0.055001833
42	0xbc513d06	-0.012770897
43	0x3d918c2e	0.07106815
44	0x3d5df2b2	0.05418653
45	0x3c2e0df6	0.010623446
46	0x3cd21074	0.025642611
47	0xbd277306	-0.04088118
48	0xbd196bdb	-0.037456375
49	0x3be11269	0.0068686497
50	0x3d8dbd95	0.069209255
51	0x3db4a080	0.088196754
52	0x3dac39de	0.08409475
53	0xbcfa5dc6	-0.030562293
54	0xbd87528b	-0.06607541
55	0x3d9fca4f	0.07802259
56	0x3d4e8c7c	0.050426945
57	0x3da7e9b7	0.081988744
58	0x3dae7502	0.08518411
59	0xbd23bbee	-0.039974146
60	0x3d9bb183	0.07602217
61	0x3dc2912f	0.09500348
62	0xba81b16e	-0.0009894797
63	0xbce0bfac	-0.027435146
64	0xbd3717c5	-0.044700403
65	0xbd061ddb	-0.032743316
66	0x3d5ef139	0.054429267
67	0x3d00f2db	0.031481605
68	0xbccd9e4e	-0.0250999
69	0xbbdcc978	-0.006737884
70	0x3d8606a5	0.06544236
71	0x3cecb544	0.028895028
72	0xbd286b40	-0.041117907
73	0x3d83b2a9	0.06430561
74	0xbd4418ed	-0.047875334
75	0x3dad226d	0.08453832
76	0xbd50cce6	-0.050976656
77	0x3d236522	0.03989137
78	0x3d74710e	0.05967813
79	0x3d4ed1af	0.05049294
80	0x3be36741	0.006939799
81	0x3d4e0d1e	0.05030548
82	0xbc265f2b	-0.010154526
83	0x3ddacef8	0.106840074
84	0xbbe8e4ee	-0.0071073687
85	0xbd81b520	-0.06333375
86	0xbbf68600	-0.0075232983
87	0x3c5ea509	0.013589152
88	0xbbda5cba	-0.006663886
89	0xbd758f3f	-0.059951063
90	0xbcb43dfb	-0.02200221
91	0x3ce7c70e	0.028293159
92	0x3d0be7f4	0.034156755
93	0x3dae3735	0.08506624
94	0xbc8fbd26	-0.017546248
95	0x3d0fdee0	0.03512466
96	0xbd2d3e4b	-0.042295735
97	0xbdc7d10e	-0.09756671
98	0x3b65e82f	0.003508102
99	0xbc710871	-0.014711485
100	0x3d789403	0.06068803
101	0xbd5d3aa7	-0.054011013
102	0xbd7a31f6	-0.061082803
103	0xbd0485e5	-0.032354254
104	0x3bda1f3d	0.006656556
105	0x3d47f093	0.048813414
106	0x3da13a72	0.07872476
107	0xbab08fcb	-0.0013470588
108	0x3d716381	0.058932785
109	0x3d693bee	0.05694192
110	0xbccdaa50	-0.025105625
111	0xbd5c01f6	-0.053712808
112	0x3cf69627	0.030100895
113	0xbd321c0b	-0.043483775
114	0x3ddcafe8	0.10775739
115	0x3d0efa3e	0.03490662
116	0xbc8e3b49	-0.017362254
117	0xbc384d65	-0.011248921
118	0x3b22734f	0.0024787968
119	0x3cd74840	0.026279569
120	0xbd733690	-0.059378207
121	0xbd521952	-0.05129368
122	0xbb9f35ac	-0.004858693
123	0xbd319b62	-0.043361075
124	0xbd254fd9	-0.04035935
125	0x3ca9d2d8	0.020730421
126	0x3d9e0032	0.07714881
127	0xbcf0531b	-0.029336503

weight f4 [128, 128]
0	0xbb90fa84	-0.004424395
1	0x33c4a79d	9.15745e-08
2	0x3d00d2a1	0.03145087
3	0x3c2ee983	0.010675791
4	0xbbc7c300	-0.006096244
5	0xbd057acb	-0.032587808
6	0x3d2e0dc2	0.04249359
7	0xbc51f2cb	-0.012814234
8	0xbb767a80	-0.0037609637
9	0xb5bd49b3	-1.4103047e-06
10	0xb883d908	-6.286992e-05
11	0xb6a479a2	-4.901741e-06
12	0xbb26bb8a	-0.0025441372
13	0xbc7ae26b	-0.015312771
14	0x3c34e6a9	0.011041322
15	0xbada2c9b	-0.0016645374
16	0x3afebead	0.0019435488
17	0x30914911	1.0570905e-09
18	0xbcc399b6	-0.023877006
19	0xbc9c7323	-0.01909787
20	0x36a850c4	5.0161925e-06
21	0x3c18f708	0.009336241
22	0xb6133c8a	-2.1939945e-06
23	0xb34ac6c2	-4.721256e-08
24	0x3c9e17e7	0.019298507
25	0x3d606aba	0.054789282
26	0xbcddea7f	-0.027089356
27	0xbcebe434	-0.02879534
28	0xb9038dae	-0.00012545913
29	0x3c0c1e8a	0.008552203
30	0xac189c26	-2.168718e-12
31	0x378c16e5	1.6699962e-05
32	0x3ce3ebbd	0.02782237
33	0xbc2741be	-0.010208545
34	0xb55f8016	-8.3260363e-07
35	0xbd12038e	-0.03564792
36	0x38a05cca	7.646678e-05
37	0xbb78ba1d	-0.003795273
38	0x359074d7	1.0762841e-06
39	0x3047dfa5	7.2713596e-10
40	0xbc256984	-0.010095958
41	0x39c1a543	0.00036934958
42	0x36395602	2.7617211e-06
43	0xbb83cbaa	-0.0040220814
44	0xbd2a2ea4	-0.041548386
45	0xbc61075a	-0.013734663
46	0xac417978	-2.7494378e-12
47	0x357e9188	9.483415e-07
48	0xbd024600	-0.03180504
49	0xb90906d7	-0.00013067886
50	0xbc43a00f	-0.011940016
51	0x390e789a	0.00013587103
52	0x3ba30e40	0.004976064
53	0x3c97bc48	0.018522397
54	0xbd20cd1b	-0.039258104
55	0x2eb4b69f	8.217892e-11
56	0xbbdf3ae0	-0.0068124384
57	0xbd19ae6a	-0.03751985
58	0x3bdda22f	0.0067637186
59	0x36a44f40	4.896807e-06
60	0x3ad76463	0.0016433116
61	0xb62528c2	-2.461064e-06
62	0xb32138f2	-3.7537525e-08
63	0xbca26c07	-0.019826902
64	0xb5cf5156	-1.5446374e-06
65	0x3d217e7a	0.039427258
66	0xbb267ec4	-0.0025405148
67	0x2e073498	3.074216e-11
68	0xb917aa8a	-0.00014464013
69	0x36dfa98c	6.6656557e-06
70	0x3aac9e3f	0.001316972
71	0x3883910c	6.273584e-05
72	0xb625184b	-2.4601056e-06
73	0x38f65522	0.00011746051
74	0xbb929a19	-0.0044739363
75	0x36b79a27	5.4717707e-06
76	0x39b9184a	0.00035304046
77	0xb5934d36	-1.0974825e-06
78	0x3d077aec	0.03307621
79	0x37a845fb	2.0059748e-05
80	0xb72f2be4	-1.0441032e-05
81	0xaf4220fe	-1.7655918e-10
82	0xbd12d581	-0.035848144
83	0xbc846d0f	-0.016165284
84	0xbb9bc7fa	-0.0047540637
85	0xbbdba9c4	-0.0067035872
86	0x357a1996	9.316949e-07
87	0xb30846ab	-3.172924e-08
88	0xb8b59b45	-8.659674e-05
89	0xbd09ffd5	-0.033691246
90	0x98b1d0ae	-4.596414e-24
91	0x36bed3c0	5.687092e-06
92	0x3a497784	0.0007685351
93	0xbd306fa1	-0.043075208
94	0x37c5a6c5	2.3561888e-05
95	0x3a895de8	0.0010480257
96	0xbb15a80e	-0.0022835764
97	0x36ba9182	5.5601713e-06
98	0xbb999daa	-0.0046879845
99	0xbb6d40f3	-0.0036202043
100	0x3d36fb3e	0.044673197
101	0xbd2b860f	-0.041875895
102	0x3d24441c	0.040104017
103	0x38fabfc4	0.00011956648
104	0x3ab0d254	0.0013490417
105	0x3d07d7f7	0.033164944
106	0xbb48c381	-0.0030634108
107	0xbd316a60	-0.043314338
108	0xbb5d12d2	-0.0033733142
109	0xbd2dd22e	-0.04243677
110	0x2a4a09ba	1.7944579e-13
111	0x3c4427d0	0.011972383
112	0x3bb70afa	0.0055860253
113	0x3c203135	0.009777357
114	0xbc644b46	-0.013933962
115	0x3d010bb0	0.031505287
116	0xb92305ee	-0.000155471
117	0xbb4dee7d	-0.0031422668
118	0xbc09c59d	-0.008408931
119	0xbd0c00c7	-0.03418043
120	0xbc889761	-0.016673746
121	0x3cf55e6a	0.029952247
122	0xbc23bf2e	-0.009994311
123	0xbaf81cd1	-0.0018929486
124	0xb819a88a	-3.6635007e-05
125	0xbb8618fc	-0.004092334
126	0x356c1c9e	8.7958495e-07
127	0xbc03b159	-0.008037888
128	0x3d25ff01	0.040526394
129	0x3d54a831	0.051918212
130	0xbd83ac23	-0.06429317
131	0x3cc5118f	0.024056224
132	0x3d4c3c29	0.04986206
133	0xbcacd58f	-0.021097926
134	0xbd364ff2	-0.044509836
135	0xbcd3d292	-0.025857244
136	0xbc1d2eef	-0.009593709
137	0x3da7f72f	0.082014434
138	0x3d564e27	0.052320626
139	0xbd1621e2	-0.036653407
140	0x3b4951d5	0.0030718942
141	0x3c07e254	0.008293707
142	0x3cf99934	0.03046856
143	0x3ceb7ffe	0.028747555
144	0xbc965220	-0.018349707
145	0xbc68898f	-0.014192953
146	0xbd99b713	-0.07505622
147	0x3d8c4abd	0.06850193
148	0x3d83208b	0.064026915
149	0x3ce0547d	0.027384037
150	0x3d7ade57	0.061247196
151	0xbd5fc6fa	-0.05463312
152	0xbd398020	-0.045288205
153	0xbd59f8d6	-0.053215824
154	0xbc3dbc72	-0.011580573
155	0x3d169602	0.036764152
156	0x3c8f4bf2	0.017492268
157	0xbcfbb05c	-0.030723743
158	0xbd737045	-0.05943324
159	0x3c36c871	0.011156187
160	0x3d810947	0.06300598
161	0xbd34e508	-0.044163734
162	0xbda13395	-0.078711666
163	0x3d827a43	0.06370976
164	0x3c8c4485	0.017122516
165	0x3c8f25b3	0.017474031
166	0xbcdd8ecd	-0.027045632
167	0x39208277	0.00015307391
168	0xbd8ee86c	-0.06977925
169	0x3d10c43e	0.0353434
170	0xbd66aa04	-0.056314483
171	0xbdbd9a26	-0.09257917
172	0xbd92667b	-0.07148453
173	0x3d8ccf2a	0.06875451
174	0x3d90dad2	0.07072987
175	0xbd9923c9	-0.074775286
176	0xbd398728	-0.04529491
177	0xbda7d132	-0.08194198
178	0xbd32431e	-0.04352104
179	0x3cbb3950	0.022854477
180	0xbd802d21	-0.06258608
181	0x3d94d56a	0.07267268
182	0xbd381345	-0.04494025
183	0x3d0c7fff	0.034301754
184	0xbd6e0220	-0.058107495
185	0xbd647966	-0.055779837
186	0x3ccb8dbb	0.024847856
187	0x3d176608	0.03696254
188	0x3d11cf6a	0.035598196
189	0xbadc3fa6	-0.0016803637
190	0x3d503740	0.05083394
191	0x3cb2fa4c	0.021847866
192	0xbd016e58	-0.031599373
193	0xbc094651	-0.008378581
194	0xbd276b74	-0.04087396
195	0xbceb9a49	-0.028760092
196	0xbcb60e5c	-0.022223644
197	0x3d689466	0.05678215
198	0x3ca4993d	0.020092601
199	0xbc95a877	-0.018268807
200	0x3648770d	2.987162e-06
201	0x3d1ab131	0.03776664
202	0xbd1001ea	-0.035158075
203	0xbdd0ac2c	-0.10189089
204	0x3a942387	0.0011302092
205	0xbdd44d33	-0.10366287
206	0x3d863885	0.06553749
207	0x3ca3f4a8	0.020014122
208	0x3d86a050	0.06573546
209	0xbd4b37fa	-0.04961393
210	0xbd446e9a	-0.04795704
211	0xbd756b3c	-0.05991672
212	0xbc5ad214	-0.013355751
213	0x3d6ec4b7	0.05829307
214	0x3b48280a	0.0030541443
215	0xbd4a284c	-0.049354836
216	0xbd827426	-0.0636981
217	0x3d8c1158	0.068392456
218	0xbbbf8295	-0.005844424
219	0x3d4ed18d	0.050492812
220	0xbdc24d6f	-0.094874255
221	0xbcbc171b	-0.022960236
222	0x3c7cf240	0.015438616
223	0x3d681543	0.0566609
224	0xbceb4267	-0.028718187
225	0xbcad8951	-0.021183642
226	0x3d1ccbfd	0.038280476
227	0xbd4c467a	-0.0498719
228	0xbbad225d	-0.0052836374
229	0xbb072af7	-0.0020624974
230	0xbc658e13	-0.014010924
231	0xbbee1705	-0.0072659277
232	0xbd565e00	-0.05233574
233	0x3c4c412e	0.012466712
234	0xbdb7bfb6	-0.08972113
235	0xbce4e6f6	-0.027942162
236	0xbdb779c6	-0.08958773
237	0xbcb0c24a	-0.02157702
238	0x3a6924be	0.00088937196
239	0x3d4dc93d	0.050240744
240	0xbbabdd78	-0.005244907
241	0xbcb8cd3a	-0.022558797
242	0xbda2e0be	-0.079530224
243	0xbc72ec59	-0.0148268575
244	0xbd98391b	-0.07432767
245	0x3d20e66e	0.039282255
246	0x3d781adf	0.0605725
247	0xbc91ee86	-0.017813932
248	0xba99a40e	-0.0011721866
249	0x3cc26609	0.023730295
250	0xbd0689c1	-0.032846216
251	0xbc921d55	-0.017836252
252	0x3d9e6b70	0.07735336
253	0xbdb6eafe	-0.0893154
254	0x3c99a355	0.01875464
255	0xbda6b7db	-0.081405364

bias f4 [128]
0	0xbd7a8db2	-0.061170287
1	0xbd91249d	-0.070870616
2	0x3dc42608	0.095775664
3	0xbd466cfb	-0.048443776
4	0x3d6f596d	0.058434892
5	0x3ccb42c2	0.024812106
6	0x3dd69fcb	0.10479697
7	0xbb3ec3c5	-0.0029108387
8	0x3da5a3d3	0.080878876
9	0xbcf71097	-0.030159278
10	0x3d9b3651	0.075787194
11	0x3c833e14	0.016020812
12	0xbdbb6ef2	-0.091520205
13	0x3da8c058	0.08239812
14	0x3dd0e4b0	0.10199869
15	0x3d60c4ef	0.05487531
16	0xbd1c8ed1	-0.038222138
17	0xbb8c3522	-0.004278795
18	0x3cc181d5	0.023621479
19	0xbd38ef9b	-0.04515038
20	0xbd2bbb6a	-0.04192678
21	0xbd7bb0ba	-0.061447836
22	0xbc952382	-0.018205408
23	0xbda24f38	-0.07925266
24	0xbca59c15	-0.020216027
25	0x3ba4aed2	0.005025723
26	0xbcc19df4	-0.023634888
27	0xbdbc9388	-0.09207827
28	0x3b830616	0.0039985282
29	0xbd248f27	-0.040175583
30	0x3daa1458	0.083046615
31	0x3d5f572c	0.054526493
32	0xbcf2926a	-0.029610831
33	0xbd53c052	-0.051697083
34	0x3d88f9b9	0.06688256
35	0x3d510ae2	0.05103577
36	0x3d518152	0.05114872
37	0x3c6ac3f0	0.014328942
38	0x3ce0c965	0.027439782
39	0xbc2a7978	-0.010404937
40	0xbd8e788b	-0.069565855
41	0xbd10e31c	-0.03537284
42	0xbd23e6f8	-0.04001519
43	0xbd10c0fd	-0.035340298
44	0x3d95c6a5	0.07313279
45	0x3aa4ec29	0.0012582588
46	0x3c7729b1	0.015085624
47	0xbc4b913d	-0.012424764
48	0x3c754bf1	0.014971719
49	0x3d3d26c2	0.04617954
50	0x3d01da78	0.03170249
51	0x3d9a4b2a	0.07533868
52	0xbc9f2097	-0.01942472
53	0x3dc47b6d	0.09593854
54	0xbd8d0bc7	-0.06887012
55	0xbc299ec6	-0.010352796
56	0xbd8c5834	-0.06852761
57	0x3d50f07f	0.051010605
58	0xbd28be62	-0.04119719
59	0x3d84a34a	0.064764574
60	0x3bd777d6	0.006575565
61	0x3c077b0c	0.008269083
62	0x3d1839e4	0.037164584
63	0xbca88ba5	-0.0205744
64	0x3d387938	0.04503748
65	0xbcbe32e5	-0.023217628
66	0x3c6b03ac	0.014344137
67	0xbd404e0d	-0.046949435
68	0x3c78012e	0.015137
69	0xb8f4ee7c	-0.00011679248
70	0x3dae150f	0.0850011
71	0xbd579b5f	-0.052638408
72	0x3d97b1ca	0.074069574
73	0x3da27e0a	0.07934196
74	0xbd7cb624	-0.06169714
75	0x3ca9cc11	0.02072719
76	0x3da6d99e	0.08146976
77	0xbc12a5d2	-0.008950667
78	0x3d62dc6a	0.055385984
79	0xbd3f2fb9	-0.04667637
80	0x3d819389	0.06326968
81	0x3c63a958	0.013895355
82	0x3c949d30	0.01814136
83	0xbcf178a3	-0.02947647
84	0xbd49f325	-0.049304146
85	0x3d3c9c1e	0.046047322
86	0x3dba428b	0.09094723
87	0x3dc6a08e	0.09698592
88	0xbd8b4639	-0.06800503
89	0x3dda75c0	0.1066699
90	0xbd912407	-0.0708695
91	0x3d9b8002	0.07592775
92	0x3ca6b440	0.020349622
93	0xbcc9d2b4	-0.024636604
94	0x3d55d552	0.05220539
95	0x3cb71bb7	0.022352083
96	0xbd3778d8	-0.04479298
97	0xbd01df1c	-0.031706914
98	0xbd5ef353	-0.05443127
99	0x3dbc5ba4	0.091971666
100	0x3d16cf5d	0.03681885
101	0x3d78cd8e	0.060742907
102	0x3d767024	0.06016554
103	0x3d1d9239	0.038469527
104	0xbd928532	-0.07154311
105	0x3ced380a	0.028957386
106	0xbca1db07	-0.01975776
107	0xbd813c35	-0.06310312
108	0x3dc5ca9b	0.096577846
109	0x3d88f2ce	0.06686936
110	0x3d507a1b	0.0508977
111	0x3cb7d6c2	0.022441272
112	0x3b532000	0.0032215118
113	0xbd20fcaf	-0.039303478
114	0xbc631cb9	-0.0138618285
115	0xbc7273f8	-0.014798157
116	0xbd589a7d	-0.052881707
117	0xbd72efab	-0.059310596
118	0xbd2118de	-0.039330356
119	0x3da23030	0.07919347
120	0x3da1e08b	0.07904156
121	0xbcfc421a	-0.030793238
122	0x3dba59d2	0.09099163
123	0xbcae865f	-0.021304308
124	0x3db1de2a	0.086849526
125	0xbda584c1	-0.080819614
126	0xbc589503	-0.013219121
127	0x3c36edd0	0.011165097
